experiments/exp_20250930_171718/models/best_model_checkpoint.pth (torch, 150086 bytes, 12 tensors)

_orig_mod.embeddings.gender.embedding.weight f4 [5, 16]
0	0xb2e430d9	-2.6564907e-08
1	0xb551c57a	-7.8145933e-07
2	0x39dfcdbd	0.00042687161
3	0x32d8055a	2.5148143e-08
4	0xb8c1c4c6	-9.239609e-05
5	0xb2e4c089	-2.6630248e-08
6	0x32585416	1.2591974e-08
7	0x389f4981	7.595402e-05
8	0x3242ffc7	1.1350443e-08
9	0xb38d32a1	-6.5750335e-08
10	0x3b1a3c99	0.0023534654
11	0xb91c6103	-0.00014913459
12	0x34007b22	1.1965724e-07
13	0x3305c03c	3.114131e-08
14	0xb733d367	-1.0718452e-05
15	0xbab9789c	-0.0014150324
16	0x33c7398b	9.2771266e-08
17	0x367cd337	3.767387e-06
18	0xbd988350	-0.07446921
19	0x340599f0	1.2442592e-07
20	0xb9360571	-0.000173589
21	0x33f2489d	1.12822114e-07
22	0xb2c3a39b	-2.2775387e-08
23	0x3b051107	0.0020304339
24	0xb3457b31	-4.597968e-08
25	0x345113ee	1.9471892e-07
26	0xbd85c614	-0.06531921
27	0xbc94455a	-0.018099476
28	0xb4d235dd	-3.915474e-07
29	0x33fa97ee	1.1669168e-07
30	0xbb006814	-0.0019593285
31	0x3c83577a	0.016032923
32	0x346f9524	2.2312867e-07
33	0xb6e8e992	-6.94133e-06
34	0xbd3b0998	-0.045663446
35	0xb4b81c89	-3.4293433e-07
36	0xb952ca48	-0.00020102516
37	0xb35826b9	-5.0326637e-08
38	0x318a3a9b	4.0229913e-09
39	0x3bae6244	0.005321773
40	0xb418a0d6	-1.4214615e-07
41	0x33f6fa10	1.1500754e-07
42	0x3e377cd8	0.17918718
43	0x3d8b9f93	0.06817546
44	0xb5bd67fc	-1.4111861e-06
45	0x32c5ca97	2.3025946e-08
46	0x3b4f64ec	0.0031645847
47	0x3d8e298b	0.069415174
48	0x80055d58	-4.92663e-40
49	0x00055bc7	4.92101e-40
50	0x8005b300	-5.2339e-40
51	0x00055d24	4.9259e-40
52	0x80065933	-5.83012e-40
53	0x80055f1d	-4.93298e-40
54	0x00056caa	4.98159e-40
55	0x000562c9	4.94615e-40
56	0x00055b99	4.92037e-40
57	0x8005a2c7	-5.17571e-40
58	0x0005576f	4.90543e-40
59	0x80055c63	-4.9232e-40
60	0x80055d84	-4.92725e-40
61	0x00055833	4.90817e-40
62	0x000561f2	4.94314e-40
63	0x00067df5	5.96198e-40
64	0x80057017	-4.99388e-40
65	0x800561ba	-4.94235e-40
66	0x80060e55	-5.56154e-40
67	0x00055ac7	4.91742e-40
68	0x00055fd0	4.93549e-40
69	0x80055ae7	-4.91787e-40
70	0x00055d56	4.9266e-40
71	0x00065c65	5.84158e-40
72	0x80055a2e	-4.91528e-40
73	0x0005966e	5.13141e-40
74	0x0005618e	4.94174e-40
75	0x00055e62	4.93036e-40
76	0x800558a4	-4.90976e-40
77	0x00055fcc	4.93543e-40
78	0x00057633	5.0158e-40
79	0x00056333	4.94763e-40

_orig_mod.embeddings.age_group.embedding.weight f4 [15, 16]
0	0x39897e3c	0.00026224728
1	0x3a294382	0.0006456898
2	0x3b3257f8	0.0027213078
3	0x3bb7fbbb	0.0056147254
4	0xb969cb0d	-0.00022296254
5	0xb5130993	-5.47757e-07
6	0x38ab428f	8.166313e-05
7	0xbabd235d	-0.0014430095
8	0x36e21043	6.737218e-06
9	0x3886d4f2	6.429282e-05
10	0xbbff6e7e	-0.007795154
11	0x36b9aecc	5.5337787e-06
12	0xbb1d38b3	-0.0023990094
13	0xbb926f75	-0.004468853
14	0xbafa1eee	-0.0019082704
15	0x3606e703	2.0102023e-06
16	0x392a43da	0.0001623774
17	0x3b90c100	0.0044175386
18	0xbb144ea4	-0.0022629881
19	0xbb5ccf65	-0.0033692953
20	0x3af395f7	0.0018584122
21	0xb4f30508	-4.5265938e-07
22	0x3a2080ed	0.0006122727
23	0xba79129b	-0.00095013686
24	0xb4eeeb8b	-4.4502335e-07
25	0x383ca7e3	4.497905e-05
26	0x3b3a40ef	0.002842005
27	0xb63f74c8	-2.8529194e-06
28	0x3cb8ffc1	0.02258289
29	0x38c2344d	9.260383e-05
30	0xbbaa9d19	-0.005206716
31	0xb7cce72f	-2.4426348e-05
32	0xba19d81e	-0.0005868691
33	0xbb1bb204	-0.0023757229
34	0x3b905e2e	0.0044057583
35	0x3c5b63d5	0.013390501
36	0xbba64d6e	-0.0050751483
37	0xb36e426a	-5.5474096e-08
38	0xbac05402	-0.0014673474
39	0x3cdf0f82	0.027229074
40	0x36b87a4e	5.4978655e-06
41	0xb98256a3	-0.00024860082
42	0xbc4f95cc	-0.012669992
43	0xb8004558	-3.058216e-05
44	0xbc9f85f4	-0.019473054
45	0xbc110cb2	-0.008853124
46	0x3b174ac0	0.0023085326
47	0xb930a4a7	-0.00016846006
48	0xb9a5bf60	-0.00031613838
49	0x3cd163e3	0.025560325
50	0x3d95dc10	0.07317364
51	0xbccdb65b	-0.025111368
52	0xbc20dc03	-0.00981808
53	0x3601a801	1.932029e-06
54	0xbb6339be	-0.0034671868
55	0x3c836bf8	0.016042694
56	0xb817f762	-3.62316e-05
57	0xb92c0230	-0.00016404013
58	0x3d1eac26	0.038738392
59	0xb8a275b8	-7.746689e-05
60	0xbdde5f22	-0.10857989
61	0x3cbb4951	0.022862108
62	0xbd38a95c	-0.04508339
63	0xb9e997ed	-0.00044554417
64	0xbaa464b2	-0.0012542217
65	0x3d195786	0.037436984
66	0x3dc9edaa	0.09859784
67	0xbd6ee4c2	-0.05832363
68	0xbc85eefd	-0.01634931
69	0x36550050	3.1739655e-06
70	0xbbc6d1de	-0.0060674986
71	0x3ca22ebb	0.019797673
72	0xb8847053	-6.3151725e-05
73	0xb9aee075	-0.000333551
74	0x3da45ce8	0.08025533
75	0xb91f4947	-0.0001519072
76	0xbe0e83b8	-0.13917434
77	0x3d52da5c	0.051477775
78	0xbd7de15d	-0.0619825
79	0xba5806b0	-0.00082407426
80	0x39978fd8	0.00028908136
81	0x3c6621ff	0.014046191
82	0x3d43d1f4	0.04780765
83	0xb9a600a9	-0.0003166248
84	0xbbc9cc2e	-0.0061583733
85	0x349a3f32	2.8730716e-07
86	0xbaf00259	-0.0018311247
87	0x3b94678f	0.0045289467
88	0xb6f4aff4	-7.2922503e-06
89	0x38a05bf9	7.646526e-05
90	0x3bffba4a	0.00780419
91	0xb8139e11	-3.5194742e-05
92	0xbd9f1247	-0.07767158
93	0x3789927d	1.6399887e-05
94	0xbcd45f16	-0.025924247
95	0xb964abde	-0.000218078
96	0x3a104646	0.00055036356
97	0x3cadc697	0.02121286
98	0x3d9bb9ef	0.076038234
99	0xbc8dc2bb	-0.017304769
100	0xbc6d39c6	-0.014479106
101	0x3568ebbb	8.676977e-07
102	0xbb8e9921	-0.0043517505
103	0x3d0bfe1d	0.03417789
104	0xb7f460e5	-2.9132187e-05
105	0x39a03f35	0.0003056467
106	0x3ce5d14f	0.028053908
107	0xb88c36f2	-6.6859546e-05
108	0xbdeafb55	-0.11473719
109	0x3c8dae84	0.01729513
110	0xbd290b37	-0.04127046
111	0xb9d41eac	-0.00040458643
112	0x3b1e0c22	0.0024116118
113	0xbbb9c5d5	-0.0056693354
114	0xb95faef2	-0.0002133211
115	0x3b618667	0.0034412385
116	0xbc8adf7e	-0.016952273
117	0xb5e0371a	-1.6705337e-06
118	0xbbb63585	-0.0055605792
119	0xbcc23b39	-0.02370988
120	0x37aa52ac	2.0304076e-05
121	0x3a68a71d	0.00088749995
122	0xbc342ebd	-0.010997471
123	0xb8ce2884	-9.830392e-05
124	0xbb9a6a77	-0.0047123986
125	0xbb5d3e63	-0.003375911
126	0x3ba6b645	0.005087646
127	0xba1ebdff	-0.00060555333
128	0x3ae306de	0.0017320772
129	0xbd28043b	-0.04101966
130	0xbe132986	-0.14371309
131	0x3d4bc535	0.04974862
132	0xbbdfdead	-0.006831965
133	0xb6561c28	-3.1904874e-06
134	0xbb0361fd	-0.002004742
135	0xbc69e3e7	-0.014275528
136	0x387b79d2	5.9956517e-05
137	0x3a022b30	0.0004965542
138	0xbd8561ca	-0.065127924
139	0xb8a24665	-7.737874e-05
140	0x3e6d66a1	0.23183681
141	0xbd405bd9	-0.046962593
142	0x3d9c16ba	0.07621522
143	0xb9f223c5	-0.00046184487
144	0x00055df5	4.92883e-40
145	0x00055ce0	4.92495e-40
146	0x0005596e	4.91259e-40
147	0x80055df8	-4.92887e-40
148	0x800593dd	-5.12221e-40
149	0x00056c08	4.97932e-40
150	0x00056109	4.93987e-40
151	0x00055fc1	4.93528e-40
152	0x000559b3	4.91355e-40
153	0x00055a96	4.91674e-40
154	0x80056b1b	-4.976e-40
155	0x00056b7b	4.97734e-40
156	0x00055e4d	4.93006e-40
157	0x0005584a	4.9085e-40
158	0x80056b5d	-4.97692e-40
159	0x800567f5	-4.9647e-40
160	0x80055ca7	-4.92415e-40
161	0x800567f2	-4.96466e-40
162	0x800561bb	-4.94237e-40
163	0x8005e5d7	-5.41628e-40
164	0x80055eed	-4.9323e-40
165	0x800558bb	-4.91008e-40
166	0x00056553	4.95526e-40
167	0x00064129	5.74388e-40
168	0x00055b0c	4.91839e-40
169	0x00055d2c	4.92601e-40
170	0x000562cf	4.94623e-40
171	0x8006c2e3	-6.20925e-40
172	0x800557d4	-4.90684e-40
173	0x8005685a	-4.96612e-40
174	0x00055aac	4.91704e-40
175	0x8005c380	-5.2931e-40
176	0x8005dd20	-5.38502e-40
177	0x80056cec	-4.98251e-40
178	0x000561f9	4.94323e-40
179	0x8005ae4a	-5.217e-40
180	0x80057de8	-5.04344e-40
181	0x00055dde	4.9285e-40
182	0x800560eb	-4.93945e-40
183	0x800568d5	-4.96784e-40
184	0x80056426	-4.95104e-40
185	0x00056e9d	4.98858e-40
186	0x800567e9	-4.96453e-40
187	0x00056036	4.93691e-40
188	0x000572a2	5.003e-40
189	0x00057901	5.02586e-40
190	0x80055a23	-4.91512e-40
191	0x000564dd	4.9536e-40
192	0x0005a463	5.18148e-40
193	0x00055e50	4.9301e-40
194	0x80056895	-4.96694e-40
195	0x00055c8f	4.92381e-40
196	0x80056e5f	-4.98771e-40
197	0x000559e9	4.91431e-40
198	0x800559f8	-4.91452e-40
199	0x8005623c	-4.94417e-40
200	0x0005850f	5.0691e-40
201	0x800565fb	-4.95761e-40
202	0x00055ab3	4.91714e-40
203	0x80059ada	-5.14728e-40
204	0x000560fd	4.9397e-40
205	0x800631ff	-5.68948e-40
206	0x00055d2e	4.92604e-40
207	0x00055cea	4.92509e-40
208	0x00056e4a	4.98742e-40
209	0x80055d99	-4.92754e-40
210	0x80056610	-4.9579e-40
211	0x80055bf6	-4.92167e-40
212	0x00055b95	4.92031e-40
213	0x00055e4f	4.93009e-40
214	0x80056410	-4.95073e-40
215	0x0005e92b	5.42822e-40
216	0x00055eca	4.93181e-40
217	0x8006bcb4	-6.18707e-40
218	0x8005666e	-4.95922e-40
219	0x800559cf	-4.91395e-40
220	0x80055c3a	-4.92262e-40
221	0x800648df	-5.77154e-40
222	0x0005590f	4.91126e-40
223	0x8005602e	-4.9368e-40
224	0x0006d04a	6.25733e-40
225	0x80055784	-4.90572e-40
226	0x0006a596	6.10414e-40
227	0x8005ecb3	-5.44089e-40
228	0x00056339	4.94772e-40
229	0x00055ec9	4.9318e-40
230	0x80056ad0	-4.97495e-40
231	0x000577f6	5.02211e-40
232	0x000557f1	4.90725e-40
233	0x80055f72	-4.93417e-40
234	0x80055bb2	-4.92072e-40
235	0x0006091f	5.54285e-40
236	0x800559e5	-4.91426e-40
237	0x00057fc6	5.05014e-40
238	0x80056468	-4.95196e-40
239	0x8006a6f5	-6.10906e-40

_orig_mod.embeddings.inventory_id.embedding.weight f4 [50, 16]
0	0x3baf0e30	0.0053422675
1	0xbaacdd1a	-0.0013188452
2	0xbd9fdda2	-0.07805945
3	0x3ade0eee	0.0016941705
4	0xba82e128	-0.0009985315
5	0xbe565050	-0.20929074
6	0xbe6aa77e	-0.22915456
7	0xbb1d0a76	-0.0023962534
8	0x3afa8cc8	0.0019115442
9	0x3dc0509e	0.093903765
10	0xbb25f064	-0.0025320286
11	0xbe9b1f1b	-0.3029717
12	0x3b6e237d	0.003633707
13	0x3ac2c3ab	0.0014859339
14	0x3db97fa9	0.09057552
15	0xbd19d451	-0.037555996
16	0x3a22522f	0.0006192056
17	0xb91948ce	-0.00014618339
18	0xbbb3e0f8	-0.005489465
19	0x39638986	0.00021699638
20	0xb8fb0255	-0.00011969047
21	0xbdbb0967	-0.09132653
22	0xbdc6e691	-0.09711946
23	0xb9885335	-0.00026001935
24	0xb9afadfd	-0.00033508232
25	0x3d351939	0.044213507
26	0xb9626df1	-0.00021593996
27	0xbdfc088f	-0.1230632
28	0xb92a29b4	-0.00016227999
29	0x3a0047ae	0.00048934936
30	0x3c23af8b	0.009990583
31	0xbc5f9ee0	-0.013648719
32	0x3c459ed3	0.012061792
33	0x3a85f2a3	0.0010219406
34	0xbc803a54	-0.015652813
35	0x3a3acd99	0.00071259734
36	0xb9ce3b73	-0.00039335675
37	0xbea46d5c	-0.32114685
38	0xbeba4eff	-0.36388394
39	0xba68401c	-0.00088596507
40	0x3bac7603	0.0052630915
41	0x3e1ef53d	0.15523238
42	0xba3df88c	-0.0007246814
43	0xbf00cbbf	-0.5031089
44	0x3c07bfef	0.008285507
45	0xbb224a7a	-0.002476363
46	0x3d3aa6e0	0.0455693
47	0xbd992e7a	-0.07479568
48	0x3a1aee15	0.0005910111
49	0xb8ead6ed	-0.000111980225
50	0x3a50824f	0.0007953988
51	0x392702f6	0.00015927464
52	0xb8cc1482	-9.731298e-05
53	0x3c9ae2f0	0.01890704
54	0x3ca9f004	0.020744331
55	0xb9203de1	-0.00015281841
56	0x394064f0	0.00018348149
57	0xbb714d86	-0.003681989
58	0xb9667325	-0.00021977404
59	0x3cf922a4	0.030412026
60	0x39c10ccf	0.00036821372
61	0x3974399a	0.00023291112
62	0x3ba791dd	0.005113824
63	0xbb0af6b1	-0.0021204168
64	0xbbd6ac4f	-0.0065513025
65	0x3917bcf9	0.0001447088
66	0x3d75fba5	0.06005444
67	0xba984b1d	-0.0011619065
68	0x3a1aaeaa	0.0005900661
69	0xbd42484f	-0.04743224
70	0xbd21bb27	-0.039485123
71	0x3ab22c28	0.0013593482
72	0xbb432dd9	-0.0029781966
73	0x3c912b74	0.017720915
74	0x3aa9e518	0.0012961952
75	0xbd2167ec	-0.03940575
76	0xbb8a99a0	-0.0042297393
77	0x3aadbb2b	0.0013254633
78	0xbd35d595	-0.04439314
79	0x3bacbdff	0.0052716727
80	0xbc8e0737	-0.017337425
81	0xbb19f097	-0.002348935
82	0x3c5b5519	0.013386988
83	0xba264c7d	-0.0006343795
84	0x399539a3	0.00028462437
85	0xbb2a0613	-0.0025943562
86	0x3c8d9213	0.017281568
87	0x3a2e428c	0.00066474895
88	0xbc006569	-0.007836678
89	0xbcec7611	-0.028864892
90	0x39e735aa	0.00044099736
91	0xb9fe4677	-0.00048499156
92	0xbc41bdb6	-0.011825016
93	0x3bc318a7	0.0059538665
94	0xbcf784f0	-0.030214757
95	0x3d4062d3	0.046969246
96	0x3bbf49fb	0.0058376766
97	0x3aabec47	0.0013116681
98	0x3b3fee8e	0.0029286477
99	0x398fb8c7	0.00027412755
100	0xb97dcf29	-0.00024205133
101	0xbd47570c	-0.048667
102	0xbd78294d	-0.060586262
103	0xb9bef278	-0.00036420277
104	0x3b81ef27	0.0039652768
105	0x3cad90e1	0.021187248
106	0xb94f8438	-0.00019790314
107	0xbdcf1b85	-0.10112671
108	0x3ba9fd62	0.0051876763
109	0xbb53f9de	-0.0032344977
110	0x3c957817	0.01824574
111	0xbc371905	-0.011175399
112	0xbbbc08c1	-0.0057383482
113	0xba580a66	-0.00082412956
114	0xbc5b06b8	-0.013368301
115	0x38c617b5	9.4457915e-05
116	0xb8a8eb9f	-8.054752e-05
117	0x3e37462c	0.17897862
118	0x3e4af221	0.19818927
119	0xb93ff188	-0.00018305157
120	0xbb1d01ff	-0.0023957489
121	0xbda7b78e	-0.08189307
122	0xb9b41dc8	-0.00034354464
123	0x3e53a6d4	0.20669109
124	0xbb7dad24	-0.0038707936
125	0x3ac58cf1	0.0015071911
126	0x3baf7e84	0.005355658
127	0x3d178ada	0.036997654
128	0x3b0dea0b	0.0021654393
129	0xba1baa7e	-0.0005938186
130	0xbceeaa46	-0.029133927
131	0x3a26d0db	0.00063635194
132	0xb9d7e5e6	-0.00041179283
133	0xbd43d09d	-0.04780637
134	0xbd51c332	-0.051211543
135	0xba63143d	-0.00086623785
136	0x39270fdc	0.00015932269
137	0x3cea345c	0.02858942
138	0xba6ce249	-0.00090364047
139	0xbd88733c	-0.06662604
140	0x3a7afc5f	0.00095743494
141	0x3a9f45aa	0.0012151499
142	0x3d100011	0.035156313
143	0xbc8c8650	-0.017153889
144	0xbb0a0113	-0.002105777
145	0xbab67a9a	-0.0013922036
146	0xbc71c88d	-0.014757288
147	0x39889c8a	0.00026056572
148	0xb9871ac5	-0.0002576915
149	0x3e82410c	0.25440252
150	0x3e8da110	0.27661943
151	0xba046dc3	-0.0005051756
152	0xbb1cf668	-0.002395058
153	0xbdee5e75	-0.1163911
154	0xba1c3204	-0.00059583806
155	0x3ebe3a38	0.37153792
156	0xbb309209	-0.0026942512
157	0x3b23da57	0.0025001967
158	0x3cce5991	0.025189193
159	0x3d229a3a	0.039697863
160	0xbb642d6e	-0.0034817117
161	0xb8b05e2d	-8.4098756e-05
162	0xb92de4e4	-0.00016583834
163	0xb9da76cb	-0.00041668708
164	0x39129b66	0.00013981535
165	0x3de0cb3b	0.10976263
166	0x3df75a2f	0.12077748
167	0x39d6d2ed	0.00040974413
168	0xba7a6197	-0.0009551285
169	0xbd64fd67	-0.055905726
170	0x39935130	0.00028098514
171	0x3e21a775	0.15786536
172	0xbaf26a76	-0.0018494863
173	0x395ddab9	0.00021157683
174	0xbcbd546c	-0.023111545
175	0x3cdc5a86	0.026898634
176	0x3b86007d	0.0040894137
177	0x3a05a4c1	0.00050980976
178	0xbcc94d8b	-0.024573108
179	0x3a22e64e	0.00062141276
180	0xb9c1f9b6	-0.00036997878
181	0xbda7ab07	-0.08186918
182	0xbdc4b5c4	-0.096049815
183	0xba7032b7	-0.00091628305
184	0x3af9a43e	0.001904614
185	0x3d4c8f72	0.049941488
186	0xba57358a	-0.0008209577
187	0xbe0016ab	-0.12508647
188	0x3b2f3e2e	0.0026739943
189	0xbac53775	-0.0015046435
190	0x3d1b03ef	0.03784555
191	0xbcf2ada0	-0.029623806
192	0xbbb0a3ad	-0.0053906054
193	0xba87f6c6	-0.0010373227
194	0xbcb292b3	-0.021798467
195	0x39a9c0e3	0.00032377904
196	0xb9868314	-0.00025656132
197	0xbd42a1df	-0.047517654
198	0xbd5cc570	-0.05389923
199	0xb9ecb613	-0.00045149084
200	0xbb667f7c	-0.0035171201
201	0x3c994e6d	0.018714154
202	0xba0ee18d	-0.000545048
203	0xbd9d2de8	-0.076747715
204	0xbb9ae513	-0.004727015
205	0x3b1d9ec8	0.002405094
206	0x3c7cc976	0.015428891
207	0xbb77290c	-0.0037713675
208	0x3b06841f	0.0020525528
209	0xb99e46dd	-0.00030188906
210	0xbca15e12	-0.019698177
211	0x39f01b0f	0.00045796527
212	0xb98dd789	-0.00027054202
213	0xbdc52164	-0.096255094
214	0xbdd54333	-0.10413208
215	0xba127fea	-0.00055885187
216	0x39dd87c7	0.00042253567
217	0x3d373b37	0.044734206
218	0xba1ba282	-0.00059369963
219	0xbe0a4814	-0.13504058
220	0x3a75097d	0.0009347422
221	0xb7a03487	-1.9097946e-05
222	0x3c633b3c	0.013869103
223	0xbc8be552	-0.017077122
224	0x3b30a0a9	0.002695123
225	0xba953f06	-0.001138658
226	0xbd5a1b2a	-0.053248562
227	0x3a98b8c9	0.001165175
228	0xba247057	-0.00062728435
229	0x3e8596da	0.26091653
230	0x3e8dc6af	0.27690646
231	0xbaaf6477	-0.0013381381
232	0x3930f932	0.000168775
233	0xbdf54e39	-0.119778104
234	0xbac0e72c	-0.0014717332
235	0x3ebf2a71	0.37337068
236	0x3a0302cf	0.0004997672
237	0x3954f5e9	0.00020309504
238	0x3d34bdf4	0.044126466
239	0x3d0d8743	0.034552824
240	0xbac02555	-0.0014659563
241	0xba2aa62b	-0.00065097463
242	0xbc1f65a5	-0.009728824
243	0x39a73e06	0.00031898933
244	0xb91c5395	-0.00014908456
245	0xbce5f17a	-0.028069247
246	0xbcbcfe42	-0.023070458
247	0xb99f35b9	-0.0003036687
248	0xb98a97d1	-0.00026434523
249	0x3c97a17c	0.018509619
250	0xb9a7c17b	-0.00031996876
251	0xbca485fb	-0.020083418
252	0xba728dc5	-0.00092526927
253	0x3a103a29	0.00055018306
254	0x3c5a5866	0.01332674
255	0x3a88c97b	0.0010436022

_orig_mod.embeddings.day_of_week.embedding.weight f4 [10, 16]
0	0x3c1ba23d	0.00949913
1	0xba9921fd	-0.0011683103
2	0xbcd19fb7	-0.025588853
3	0xbb0cdd65	-0.0021494266
4	0xbd9e0e64	-0.077175885
5	0xbd6a634a	-0.057223596
6	0x3d9865ba	0.07441278
7	0x3e495b15	0.19663651
8	0x3a894066	0.0010471463
9	0x36a75117	4.986428e-06
10	0x3bf573fa	0.007490632
11	0xbc93843c	-0.01800739
12	0x3c70acfa	0.014689678
13	0x3becb94d	0.007224238
14	0x80056123	-4.94024e-40
15	0xbb9e7ce4	-0.0048366655
16	0xbc179bec	-0.009253483
17	0x3ba50d24	0.005036967
18	0x3ca4aed9	0.020102905
19	0xbad719ce	-0.0016410889
20	0x3d6f82a3	0.058474194
21	0x3d32b124	0.043625966
22	0xbd6748c4	-0.05646588
23	0xbe1e73a0	-0.15473795
24	0x3a94bb1d	0.0011347268
25	0xb9f353b7	-0.00046410944
26	0xbb75d005	-0.0037508023
27	0x3ca72bca	0.020406622
28	0xbbf690df	-0.007524594
29	0xbc736468	-0.014855482
30	0x00056521	4.95456e-40
31	0x3bd8a60a	0.0066115903
32	0xbc0f14f0	-0.008733019
33	0x3b1be17a	0.0023785518
34	0x3cb18e32	0.02167425
35	0x3bbee4de	0.005825623
36	0x3d525e35	0.051359374
37	0x3d2de61e	0.042455785
38	0xbd4cf4dc	-0.050038204
39	0xbdacadb7	-0.08431571
40	0x3ab70348	0.001396277
41	0xb90b70fa	-0.0001329816
42	0xbb86e56e	-0.0041167056
43	0x3c714916	0.014726898
44	0xbc23c617	-0.009995959
45	0xbba06668	-0.0048950203
46	0x00057b10	5.03324e-40
47	0x3baa0b9c	0.005189372
48	0x3b18c98a	0.0023313486
49	0x3b51e060	0.0032024607
50	0xbbe8e937	-0.0071078795
51	0xbb0e5665	-0.0021718976
52	0xbcf19157	-0.029488249
53	0xbcc68de2	-0.024237577
54	0x3cedb42e	0.02901658
55	0x3d35246f	0.0442242
56	0xb988500f	-0.0002599959
57	0xb96d7ad6	-0.00022647841
58	0x3c393e83	0.011306408
59	0xbbb1bb6d	-0.005423954
60	0x3c51e63a	0.012811238
61	0x3b2e5566	0.0026601194
62	0x80058341	-5.06263e-40
63	0xb9bc810a	-0.00035954296
64	0x3bc5997e	0.0060302606
65	0xbb05320a	-0.0020324015
66	0xbc4e1ec5	-0.012580578
67	0xba895c99	-0.0010479867
68	0x3c3bd99d	0.011465457
69	0x3c2b42ba	0.010452921
70	0xbc363f03	-0.011123422
71	0xbc0b674c	-0.008508515
72	0x3accae06	0.0015615828
73	0x3989b6bc	0.00026266824
74	0x3bb4b73b	0.005515007
75	0xbc89e373	-0.016832089
76	0x3bd11bf3	0.0063815056
77	0x3c814e28	0.015784338
78	0x80056cdd	-4.9823e-40
79	0xbb8f48e1	-0.0043727015
80	0xbc12c953	-0.008959132
81	0x3b39b40b	0.0028336074
82	0x3ca1de61	0.019759359
83	0x3b5343c5	0.0032236439
84	0x3c524fec	0.012836438
85	0x3c270ebf	0.010196387
86	0xbc4c37ab	-0.012464444
87	0xbcb66aab	-0.02226766
88	0xbb24bc31	-0.0025136585
89	0xb9ba5edc	-0.0003554736
90	0xbc882ef8	-0.016623959
91	0x3c8e65e3	0.017382568
92	0xbc9d8597	-0.01922874
93	0xbc273c49	-0.010207244
94	0x80057c2c	-5.03722e-40
95	0x3bad4652	0.005287924
96	0x3b95bceb	0.00456964
97	0x3b0359a2	0.002004244
98	0xbc329a75	-0.010901083
99	0xbb68f5a2	-0.00355468
100	0xbd26c74f	-0.04071742
101	0xbd08a0a2	-0.033356316
102	0x3d218569	0.03943387
103	0x3daa2ee2	0.083097234
104	0xba6e5f0e	-0.0009093144
105	0xb8e7d226	-0.000110540816
106	0x3c0d250f	0.0086147925
107	0xbbfca1da	-0.007709724
108	0x3c446fef	0.011989578
109	0x3b840424	0.004028814
110	0x8005583e	-4.90833e-40
111	0xbb371597	-0.0027936453
112	0x80058fe6	-5.10799e-40
113	0x000563f8	4.9504e-40
114	0x00055d11	4.92563e-40
115	0x8005734a	-5.00535e-40
116	0x80057552	-5.01264e-40
117	0x800560ba	-4.93876e-40
118	0x00055f53	4.93373e-40
119	0x0005ca61	5.31777e-40
120	0x800577e9	-5.02193e-40
121	0x00056295	4.94542e-40
122	0x800559ee	-4.91438e-40
123	0x8005573d	-4.90473e-40
124	0x80055d74	-4.92702e-40
125	0x00055d65	4.92681e-40
126	0x000565e0	4.95723e-40
127	0x80055d36	-4.92615e-40
128	0x000557d7	4.90688e-40
129	0x80055f72	-4.93417e-40
130	0x000559b5	4.91358e-40
131	0x80055be1	-4.92137e-40
132	0x8005b99a	-5.25759e-40
133	0x80056434	-4.95124e-40
134	0x800559ff	-4.91462e-40
135	0x80055ef0	-4.93235e-40
136	0x800557e3	-4.90705e-40
137	0x8005579c	-4.90606e-40
138	0x000557ce	4.90676e-40
139	0x0005579f	4.9061e-40
140	0x800564b6	-4.95306e-40
141	0x80058814	-5.07993e-40
142	0x80055aa9	-4.917e-40
143	0x80055aac	-4.91704e-40
144	0x0005754e	5.01258e-40
145	0x800567d1	-4.9642e-40
146	0x8005ca8c	-5.31838e-40
147	0x80055b00	-4.91822e-40
148	0x0005582d	4.90809e-40
149	0x000576cd	5.01795e-40
150	0x80056333	-4.94763e-40
151	0x00055a06	4.91472e-40
152	0x80056ca6	-4.98153e-40
153	0x00055787	4.90576e-40
154	0x80058f70	-5.10633e-40
155	0x000572a8	5.00308e-40
156	0x800562d7	-4.94635e-40
157	0x80055cc7	-4.9246e-40
158	0x000560ea	4.93944e-40
159	0x80056c1a	-4.97957e-40

_orig_mod.embeddings.hour.embedding.weight f4 [30, 16]
0	0x8005b188	-5.22864e-40
1	0x3aedc19a	0.0018139363
2	0xba5cd693	-0.0008424308
3	0x3ba36335	0.0049861916
4	0xbbe22c5a	-0.00690226
5	0xb8ad36c4	-8.259484e-05
6	0x3ae22cd5	0.0017255793
7	0x3a608296	0.00085643807
8	0x39b2860c	0.00034050678
9	0x80056b25	-4.97614e-40
10	0x3ad3491b	0.001611981
11	0x3ada343c	0.0016647647
12	0xbd4eefbc	-0.050521597
13	0x8006b2a6	-6.151e-40
14	0x38445cc2	4.681643e-05
15	0x3a735e97	0.00092838093
16	0x800601ab	-5.51611e-40
17	0x3b8e2b53	0.0043386607
18	0xbae25ae1	-0.0017269516
19	0x3c36c9bf	0.011156498
20	0xbc7e6df1	-0.015529142
21	0xb93b8268	-0.0001788229
22	0x3b893ee8	0.004188407
23	0x3991745c	0.0002774325
24	0x3a3774f9	0.0006998326
25	0x0005c922	5.3133e-40
26	0x3b8ca084	0.004291596
27	0x3b30e302	0.0026990776
28	0xbd889881	-0.06669713
29	0x80061a82	-5.60522e-40
30	0x38e71d84	0.00011020436
31	0x3afe41d6	0.0019398283
32	0x0005af88	5.22146e-40
33	0x3b823c80	0.0039744973
34	0xbb086226	-0.0020810454
35	0x3c4857b4	0.012227941
36	0xbc7957e1	-0.015218706
37	0xb92501f7	-0.00015736358
38	0x3b7d636d	0.0038663999
39	0x3b134850	0.0022473522
40	0x3a2c5429	0.000657382
41	0x8005f72d	-5.47847e-40
42	0x3b60886e	0.0034261006
43	0x3b8cf4c1	0.004301638
44	0xbd3c9f44	-0.046050325
45	0x00065e31	5.84802e-40
46	0x38dd9252	0.000105653555
47	0x3b1c2d15	0.0023830582
48	0x0005960a	5.13001e-40
49	0x3b10d00a	0.0022096657
50	0xba93ee94	-0.0011286312
51	0x3bc4097a	0.005982575
52	0xbc067da2	-0.008208664
53	0xb88cee6c	-6.72013e-05
54	0x3b1020b2	0.0021992144
55	0x3abb0fe6	0.0014271706
56	0x39b9b541	0.00035420994
57	0x80057827	-5.0228e-40
58	0x3b384f39	0.0028123392
59	0x3ab34457	0.0013676983
60	0xbd31aca0	-0.04337752
61	0x800588d3	-5.08261e-40
62	0x3840147d	4.579545e-05
63	0x3a7d4817	0.00096619263
64	0x00055768	4.90533e-40
65	0x3b1ce766	0.0023941635
66	0xbb0119c6	-0.00196992
67	0x3c1983f0	0.009369835
68	0xbc21ea4c	-0.009882521
69	0xb8c22869	-9.258168e-05
70	0x3b25477a	0.0025219605
71	0x3b04dc16	0.0020272783
72	0x3997f9fd	0.0002898722
73	0x8005923d	-5.11638e-40
74	0x3b01cf3c	0.001980736
75	0x3b342b89	0.002749177
76	0xbc0a19ee	-0.008429034
77	0x80060650	-5.53277e-40
78	0x3882ac39	6.230962e-05
79	0x3ac56167	0.0015058935
80	0x0005693b	4.96927e-40
81	0x3b84b62b	0.0040500364
82	0xbb3a4e0a	-0.0028427863
83	0x3c5097c6	0.012731498
84	0xbc7ec2c7	-0.015549368
85	0xb911b23a	-0.00013894672
86	0x3b84d8fb	0.0040541864
87	0x3b6fe2b4	0.0036603631
88	0x3a23707b	0.00062347174
89	0x00065256	5.8055e-40
90	0x3b86fc9d	0.0041194693
91	0x3ba44760	0.0050133914
92	0xbd98d760	-0.074629545
93	0x8005bdf4	-5.2732e-40
94	0x38b61532	8.682384e-05
95	0x3b0b71f9	0.002127765
96	0x00056b04	4.97567e-40
97	0xba64f8cc	-0.00087345834
98	0x3ab446bf	0.0013753994
99	0xbbc282b0	-0.0059359893
100	0x3b831af7	0.004001017
101	0x3824502a	3.9175306e-05
102	0xba5f2352	-0.0008512038
103	0xbb0a3334	-0.0021087648
104	0xb90a97dc	-0.00013217278
105	0x00056574	4.95572e-40
106	0xba85cbc9	-0.0010207827
107	0xbb64cdda	-0.0034912736
108	0xbcb06932	-0.021534536
109	0x00058795	5.07815e-40
110	0xb7e420e0	-2.7195027e-05
111	0xba70cf0e	-0.0009186127
112	0x00056b18	4.97595e-40
113	0x3b7ab407	0.0038254277
114	0xbaf27a59	-0.0018499597
115	0x3c63b190	0.013897315
116	0xbc74309e	-0.014904169
117	0xb90706f3	-0.00012877192
118	0x3b78f040	0.0037984997
119	0x3aaae0e8	0.0013036998
120	0x3a1cb442	0.0005977788
121	0x800563e9	-4.95018e-40
122	0x3b977504	0.0046221036
123	0x3ad63a39	0.0016344256
124	0x3ce75ce2	0.028242532
125	0x0005ac7a	5.2105e-40
126	0x38b3f38f	8.5807515e-05
127	0x3b0372b5	0.0020057384
128	0x000566d1	4.96061e-40
129	0xbb1011c2	-0.002198324
130	0x3ac74de9	0.0015205714
131	0xbc042887	-0.008066303
132	0x3c052f47	0.008128948
133	0x38f437c3	0.00011645213
134	0xbb04d213	-0.0020266816
135	0xbb375e30	-0.0027979724
136	0xba03c171	-0.00050260784
137	0x00058e30	5.10185e-40
138	0xbb094bf4	-0.0020949813
139	0xbba83033	-0.005132699
140	0x3dc44924	0.09584263
141	0x0005aa94	5.2037e-40
142	0xb88fdcbd	-6.859887e-05
143	0xbac915b9	-0.0015341557
144	0x800558da	-4.91051e-40
145	0x3b599097	0.0033197755
146	0xbb65b805	-0.003505231
147	0x3c7753e8	0.015095688
148	0xbc5ef708	-0.0136087015
149	0xb93dfb6b	-0.00018118105
150	0x3b5883a4	0.0033037448
151	0x3bb564c8	0.0055356957
152	0x3a56aade	0.00081889133
153	0x800579b5	-5.02838e-40
154	0x3bd542fe	0.00650823
155	0x3c0f0b58	0.008730732
156	0x3dca5b26	0.098806664
157	0x000559b5	4.91358e-40
158	0x38d8c064	0.00010335518
159	0x3b13dcc1	0.0022562
160	0x80056e19	-4.98673e-40
161	0xbbaff754	-0.00537006
162	0x3b8152f6	0.0039466573
163	0xbca455d3	-0.020060455
164	0x3cb9bf05	0.022674093
165	0x398b1c74	0.00026533345
166	0xbbb45769	-0.005503584
167	0xbbc1bf94	-0.0059127305
168	0xba8a4513	-0.001054915
169	0x000589a1	5.0855e-40
170	0xbbb6e0ab	-0.0055809817
171	0xbc1e9602	-0.009679319
172	0x3e39afd3	0.18133478
173	0x0005881d	5.08006e-40
174	0xb90feb3a	-0.00013725171
175	0xbb5f5d4f	-0.0034082716
176	0x8005a5f6	-5.18713e-40
177	0xbb976a1e	-0.0046208045
178	0x3b411d26	0.0029466837
179	0xbc9f812e	-0.019470777
180	0x3c94f7b2	0.018184517
181	0x395d22e4	0.000210892
182	0xbb939534	-0.0045038704
183	0xbba2bbc5	-0.0049662315
184	0xba916d4e	-0.0011095197
185	0x000562d5	4.94632e-40
186	0xbc077d53	-0.008269626
187	0xbbcf49bd	-0.006325929
188	0x3db64d8b	0.08901509
189	0x8005ef17	-5.44947e-40
190	0xb90a88e4	-0.00013211701
191	0xbb327bac	-0.0027234359
192	0x00065a2a	5.83358e-40
193	0xb924139c	-0.00015647564
194	0xb88bf0e4	-6.672906e-05
195	0x399042d3	0.00027515608
196	0xb9093974	-0.00013086741
197	0x37651962	1.3655374e-05
198	0xb8fa06bb	-0.000119221826
199	0xba2d7580	-0.0006616935
200	0xb90a1d7a	-0.00013171686
201	0x000589a6	5.08556e-40
202	0xbab30d9e	-0.0013660674
203	0xba586f01	-0.0008256287
204	0x3d57f792	0.052726336
205	0x8005be25	-5.27388e-40
206	0xb72c4a0f	-1.0269242e-05
207	0xb86ec6e5	-5.6928857e-05
208	0x000573ac	5.00673e-40
209	0x3b33c3b2	0.0027429876
210	0xbb39020a	-0.0028229975
211	0x3c3139e2	0.010817023
212	0xbc3a7ff5	-0.011383046
213	0xb920e0af	-0.0001534249
214	0x3b341d89	0.0027483425
215	0x3b6dd313	0.003628914
216	0x39dbc66d	0.00041918774
217	0x00059b71	5.1494e-40
218	0x39be467b	0.00036292136
219	0x3bcba6d7	0.006214957
220	0xbc6f3e43	-0.014602247
221	0x8005789c	-5.02444e-40
222	0x38aff528	8.390314e-05
223	0x3b09d203	0.0021029718
224	0x0005d29a	5.34727e-40
225	0x3b05cd31	0.0020416493
226	0xba215c38	-0.0006155404
227	0x3bd4ec6e	0.006497911
228	0xbbf8803a	-0.007583645
229	0xb8ba9443	-8.896787e-05
230	0x3af849d9	0.0018942907
231	0x3a7c221f	0.00096181215
232	0x39c170e9	0.00036895953
233	0x00059051	5.10948e-40
234	0x3acdd537	0.0015703802
235	0x3b121855	0.0022292335
236	0xbd53274c	-0.05155115
237	0x8005a395	-5.1786e-40
238	0x384da084	4.90253e-05
239	0x3a6b2161	0.00089695124
240	0x80058b37	-5.09118e-40
241	0x3b6dfc48	0.0036313701
242	0xbb31e009	-0.0027141592
243	0x3c74ae30	0.014934108
244	0xbc70c6fe	-0.014695881
245	0xb9408f20	-0.00018363865
246	0x3b6dfd01	0.0036314132
247	0x3b683515	0.003543203
248	0x3a3819a2	0.00070228626
249	0x80059bd6	-5.15081e-40
250	0x3b87e751	0.004147448
251	0x3bc322fa	0.0059550973
252	0xbcfa9053	-0.030586397
253	0x0005bc14	5.26647e-40
254	0x38e5697d	0.0001093922
255	0x3b198e71	0.002343085

_orig_mod.dense_proj.weight f4 [64, 113]
0	0xbadd7229	-0.0016894984
1	0x3b684ed9	0.0035447387
2	0x3ce30174	0.027710654
3	0x3b8ee25c	0.0043604802
4	0xbccb9c14	-0.024854697
5	0xb99b4aea	-0.0002961972
6	0xbcd8fb2e	-0.02648696
7	0x3cb38ac5	0.021916756
8	0xbcd8995a	-0.026440311
9	0x3c018a22	0.007906469
10	0xbc000b6d	-0.007815224
11	0xbcfdd027	-0.030983044
12	0xb98c3698	-0.00026743556
13	0x3b8ceeac	0.004300913
14	0xbce65727	-0.02811773
15	0x3a4ee52a	0.00078924245
16	0xbb684ed6	-0.003544738
17	0x3c018a27	0.007906473
18	0x3c2344ff	0.00996518
19	0xbbfd7bc9	-0.0077357036
20	0xbc24ef40	-0.010066807
21	0xbc359ea5	-0.011085187
22	0xbbe367a2	-0.006939844
23	0xbc24ef40	-0.010066807
24	0xbb8a9d3d	-0.00423017
25	0xbbffbb38	-0.0078043006
26	0xbd315392	-0.04329259
27	0xbaa053bb	-0.0012231985
28	0xbca34e10	-0.019934684
29	0xbbc15a69	-0.0059006703
30	0xbb4c5475	-0.003117827
31	0x3cb9f6c1	0.02270067
32	0x3b7d9dbb	0.003869875
33	0xbc44d6ce	-0.012014104
34	0x3cd51a80	0.026013613
35	0xbc4888bb	-0.01223963
36	0xba7c56c7	-0.0009625968
37	0x3bd44fad	0.0064792247
38	0xba3336e4	-0.00068364874
39	0xbc7f20e8	-0.01557181
40	0x3bb97633	0.0056598424
41	0x3b8fe5a4	0.004391389
42	0x3c22e578	0.009942405
43	0x3b2e392f	0.0026584377
44	0x3caed7c6	0.021343123
45	0xbc1d6789	-0.009607204
46	0xbcf5b950	-0.02999559
47	0x3caaaa60	0.020833194
48	0xbc35a0fc	-0.011085745
49	0xba0930fd	-0.0005233435
50	0x3cd1e8df	0.025623737
51	0x3c505667	0.012715912
52	0x3b6b9e05	0.0035952341
53	0x3c93669e	0.017993268
54	0x3cbecb70	0.023290366
55	0x3c178f6f	0.009250506
56	0xbc6b9b87	-0.014380342
57	0x3995b498	0.00028554047
58	0x3b08e403	0.0020887859
59	0x3cf88961	0.030338945
60	0xbc17976f	-0.009252413
61	0x3cdb301e	0.026756343
62	0xbd123750	-0.03569728
63	0xbc28c558	-0.010300957
64	0x3c062b63	0.008189055
65	0xbb02a606	-0.0019935383
66	0xbcbe9296	-0.023263257
67	0xbc464d12	-0.012103336
68	0x3c1082c0	0.008820236
69	0xbd2404df	-0.040043708
70	0x3d2923d2	0.041293927
71	0xbc195ae2	-0.009360047
72	0x3c911a59	0.017712759
73	0x3c834a18	0.016026542
74	0xbc9c3baf	-0.019071428
75	0xbc22efad	-0.0099448385
76	0xbcb81d32	-0.022474859
77	0xbb8b3a95	-0.004248927
78	0x3b8bd9c7	0.0042679044
79	0x3b922109	0.0044595045
80	0xbc404004	-0.0117340125
81	0x3bc77515	0.0060869553
82	0x39a7e6c9	0.0003202467
83	0xbb788ecd	-0.0037926913
84	0x3c2dad0d	0.010600341
85	0xba709161	-0.00091769366
86	0xbb8610e8	-0.004091371
87	0xbb8f731a	-0.004377735
88	0xbb85e997	-0.004086684
89	0xbba5035a	-0.0050358
90	0xbb918717	-0.004441153
91	0xba1fcc0b	-0.00060957734
92	0x3b9d75d0	0.004805304
93	0xbbac375e	-0.0052556237
94	0xbb901a10	-0.004397638
95	0xbb9b9e29	-0.004749079
96	0xbb985838	-0.0046491884
97	0xbb694604	-0.003559471
98	0xbb8f6c3d	-0.0043769167
99	0xbb02f7d6	-0.0019984148
100	0xbb9124b8	-0.004429426
101	0xbb2aae7a	-0.0026043938
102	0xb942059f	-0.00018503376
103	0xbb8eff17	-0.004363905
104	0xbbe5af08	-0.0070093907
105	0xbb94288f	-0.0045214365
106	0xbb8b3c35	-0.0042491206
107	0xbb9904d3	-0.0046697645
108	0xbbc21413	-0.005922803
109	0xbbd05810	-0.006358154
110	0xbba1b0c3	-0.0049344017
111	0xbb95d1a0	-0.0045721084
112	0x3be17369	0.006880213
113	0x3cbc5e77	0.022994263
114	0xbaf38620	-0.0018579401
115	0x3c5b787b	0.013395424
116	0x3c35778a	0.011075864
117	0x3ca22ee9	0.01979776
118	0xbcf28664	-0.029605098
119	0xbbf740a5	-0.007545548
120	0x3cecd3a4	0.028909512
121	0x3c978aa4	0.018498726
122	0x3bac1865	0.0052519315
123	0x3c3a9d93	0.011390108
124	0x3cd2ad86	0.025717508
125	0xb93ee037	-0.00018203339
126	0xbd0e15ff	-0.034688946
127	0xba9079bf	-0.0011022611
128	0x3b2003f5	0.002441642
129	0x3af38627	0.0018579409
130	0x3bac1862	0.00525193
131	0xbc63e9e7	-0.013910747
132	0xbbed4c21	-0.0072417413
133	0x3bb063fb	0.0053830124
134	0xbc8133f4	-0.015771843
135	0xbc3743ec	-0.011185627
136	0x3bb063f9	0.0053830114
137	0x3c1d6e9c	0.009608891
138	0xbbcdb08d	-0.00627715
139	0x3c8db899	0.017299937
140	0xbc6e3800	-0.014539719
141	0x3ca78665	0.020449826
142	0xbc8f490b	-0.017490884
143	0x3b990777	0.0046700793
144	0xbc9b8e73	-0.018988824
145	0x3c1c4a69	0.009539225
146	0x3cadbcb6	0.021208148
147	0xbc6fd135	-0.014637281
148	0xbc0b562c	-0.008504432
149	0x3cc7d86c	0.02439519
150	0x3c4dd2f0	0.012562498
151	0x3a04dea6	0.00050685776
152	0x3cb5e0c6	0.022201907
153	0x3c5d9db7	0.013526372
154	0xbd58cdc5	-0.052930612
155	0xbc39026b	-0.01129208
156	0xbcab537d	-0.020913834
157	0x38e5273d	0.000109268796
158	0xbc1e4749	-0.00966055
159	0x3b4d84ba	0.0031359629
160	0xbc2c5e91	-0.010520593
161	0x3bb135c7	0.005408022
162	0xbc2410ef	-0.010013803
163	0xbb63f0b9	-0.0034780933
164	0xbc94c495	-0.018160144
165	0xbb7bc545	-0.0038417142
166	0xbd05d069	-0.03266946
167	0x3bc716f9	0.0060757366
168	0x3c8f146c	0.017465793
169	0xbcac72ce	-0.021050837
170	0xbc66ce25	-0.014087235
171	0xbcd2bf9c	-0.025726132
172	0xbbdc8ded	-0.006730786
173	0x3bdcd083	0.0067387237
174	0xbcd7ea17	-0.02635674
175	0xbc2b7612	-0.010465162
176	0xbcdadae9	-0.026715713
177	0xbcb83f1b	-0.022491029
178	0xbcea5365	-0.028604219
179	0x3b34fd34	0.002761674
180	0xbc53d445	-0.012929027
181	0xbca9a4a2	-0.020708386
182	0x39530009	0.00020122541
183	0xbbde91d7	-0.006792288
184	0xbc9dd7bf	-0.019267915
185	0x3afa19d5	0.0019081185
186	0x398030eb	0.0002445051
187	0xbb03b035	-0.0020094041
188	0xbcae89d0	-0.021305948
189	0xbc9341a1	-0.01797563
190	0xbc19503d	-0.009357509
191	0x3c027189	0.007961639
192	0x3b91801e	0.0044403216
193	0xbc35b0bc	-0.0110895
194	0x3bc9333e	0.0061401417
195	0x3b985ca1	0.004649714
196	0x3cb8a7b2	0.0225409
197	0x3c211fb9	0.009834223
198	0x3ac79cee	0.0015229264
199	0x3a0968b7	0.0005241739
200	0xba0e7764	-0.00054346607
201	0xb992aa76	-0.00027974293
202	0x3a66e301	0.000880763
203	0xb98db5b0	-0.00027028983
204	0x3b801dea	0.003909816
205	0x3a5bab96	0.00083797553
206	0xb9cefd08	-0.00039479905
207	0xb9b9e165	-0.00035453882
208	0xba4b561e	-0.0007756668
209	0xba33c4a7	-0.00068576116
210	0x3a08d2a9	0.0005219379
211	0xb9627ba7	-0.00021599104
212	0x3a4a1701	0.00077091163
213	0xb990c768	-0.0002761439
214	0x3b083cf5	0.0020788286
215	0x3b830cfa	0.0039993497
216	0xb9592d86	-0.00020711691
217	0xba7ca168	-0.00096370885
218	0xb9835570	-0.00025049923
219	0xb9657a3b	-0.00021884676
220	0xb977ad98	-0.00023620424
221	0xbab37e69	-0.0013694289
222	0xb974986b	-0.00023326433
223	0xba7e159b	-0.00096925505
224	0xb96d338b	-0.00022621283
225	0x3bfc69ad	0.007703027
226	0x3c4b7394	0.012417693
227	0xbc7e5fc2	-0.01552576
228	0xbc8583fb	-0.016298285
229	0xbca4e600	-0.020129204
230	0xbc128047	-0.0089417165
231	0x3bfe8b15	0.0077680447
232	0xba987cca	-0.001163387
233	0xbcb73771	-0.022365304
234	0xbc56844f	-0.013093068
235	0xbca8c079	-0.02059959
236	0x3b61e323	0.003446766
237	0xbbcf7612	-0.0063312137
238	0xba839f67	-0.0010042012
239	0x3d00e255	0.031465847
240	0x3b9d6dc2	0.004804344
241	0xbc219c0d	-0.009863866
242	0x3c7e5fad	0.015525741
243	0xbca8c07a	-0.020599592
244	0x3c92dcca	0.017927546
245	0x3c28c139	0.010299974
246	0x3b03b698	0.0020097848
247	0x3d3cc716	0.0460883
248	0xbc1cbe25	-0.009566818
249	0x3b03b6ae	0.00200979
250	0x3a82faa2	0.0009992907
251	0xba740b9a	-0.000930959
252	0xbbffe2a9	-0.0078090024
253	0x3cd6fd76	0.026243906
254	0xbd0cf8ee	-0.034417085
255	0x3ca393b3	0.01996789

_orig_mod.dense_proj.bias f4 [64]
0	0x3ce1fe51	0.027587088
1	0xbc142a86	-0.0090433415
2	0x3c0339b3	0.008009362
3	0x3c9d113c	0.019173257
4	0x3bdbb5e6	0.0067050336
5	0xbcae485b	-0.021274736
6	0xbc6b4a92	-0.014361041
7	0x3cbadcdd	0.022810394
8	0x3b8239e8	0.003974188
9	0x3c467b1b	0.012114312
10	0x3c8325f9	0.016009318
11	0x3cc539b0	0.02407536
12	0xbc9a16c1	-0.018809678
13	0x3c17934b	0.009251426
14	0xbbb59173	-0.0055410205
15	0xbc38badf	-0.011275022
16	0xbc431a6d	-0.011908156
17	0x3bed3c51	0.0072398563
18	0xbb5e9b69	-0.0033967143
19	0x3a937e8d	0.0011252925
20	0x3c6069a2	0.01369706
21	0x39deb917	0.00042481042
22	0x3ceb07f5	0.028690318
23	0xbc68415d	-0.01417574
24	0xbc7edd42	-0.015555682
25	0xbbd153f0	-0.00638818
26	0xbbd0ed10	-0.0063759163
27	0x39964b10	0.00028666155
28	0xbb5d2779	-0.0033745451
29	0xbc47bd68	-0.012191154
30	0x3c3538f6	0.011060944
31	0xbcb1f9b4	-0.021725513
32	0xbcae104a	-0.021248002
33	0xbdede337	-0.116156034
34	0x3b13e1e0	0.0022565052
35	0xbba7ed03	-0.0051246895
36	0xbc8e997e	-0.017407175
37	0xbd84ed38	-0.064905584
38	0x3c8b6043	0.017013675
39	0x3c7ec433	0.015549707
40	0x3b9fd73e	0.004877954
41	0xbb6e1b73	-0.003633228
42	0xbc0fdf74	-0.008781303
43	0x3c4cb033	0.012493181
44	0xbb9fd0c5	-0.004877182
45	0x3c7288dc	0.014803138
46	0x3cb7fb17	0.022458596
47	0x3d383f88	0.044982463
48	0x3b32ddec	0.002729292
49	0xbb93fd01	-0.0045162444
50	0x3c57b1a8	0.013164915
51	0xbcaffa17	-0.021481557
52	0x3c6eb806	0.014570242
53	0xbbbe8f8a	-0.005815451
54	0x3bcc18bf	0.006228536
55	0xbbb41824	-0.005496042
56	0x3cd0c58c	0.025484823
57	0x3b7c4bd3	0.0038497343
58	0x3b208652	0.0024494124
59	0xb8e4c94b	-0.00010909381
60	0x3c7774fc	0.015103575
61	0xbc920d71	-0.017828675
62	0x3b6a1a70	0.0035721324
63	0x3e5edd3a	0.21764079

_orig_mod.shared_mlp.0.weight f4 [128, 144]
0	0xb399ea09	-7.1671884e-08
1	0xb58f9bb2	-1.0699644e-06
2	0xbb515168	-0.003193939
3	0x338f1a45	6.663735e-08
4	0xb90c543b	-0.00013382819
5	0x32efb217	2.7904248e-08
6	0x31be29a7	5.534463e-09
7	0xba081ee5	-0.0005192592
8	0x32ada7b1	2.0216108e-08
9	0xb3d508c4	-9.92018e-08
10	0x3c83150c	0.016001247
11	0xbafabac4	-0.0019129147
12	0x34821568	2.4229962e-07
13	0x32ff05b2	2.9688497e-08
14	0x399236c7	0.00027888102
15	0xbcb3ecf3	-0.021963572
16	0xb933abc9	-0.00017134765
17	0x3bc3d275	0.005976016
18	0x3d00da8a	0.031458415
19	0xbb85e2cc	-0.004085874
20	0x3b9cd54a	0.004786168
21	0x348df2a9	2.6439855e-07
22	0x3ad355a2	0.0016123543
23	0xbc150818	-0.009096168
24	0xb65c3f90	-3.2819553e-06
25	0xb8795baf	-5.9451613e-05
26	0x3baf4492	0.0053487504
27	0x38127575	3.4918503e-05
28	0xbd63a6e7	-0.055579092
29	0x3b45c2ae	0.0030175853
30	0xbc60998e	-0.013708485
31	0x393f53ba	0.0001824637
32	0xbab07146	-0.0013461492
33	0xb9bb24aa	-0.00035694736
34	0xbc842ec1	-0.016135575
35	0x399bbf2d	0.0002970634
36	0xb90f8995	-0.00013688796
37	0xbd1d26cd	-0.03836708
38	0xbd2b215c	-0.04177986
39	0xb9aa8fa7	-0.00032531956
40	0xba524017	-0.00080204144
41	0x3c7b8736	0.015352061
42	0xb9b14a93	-0.00033815633
43	0xbd7e48d3	-0.06208117
44	0xbaa14fae	-0.0012307072
45	0x3a43df71	0.0007471955
46	0x3c1744cb	0.00923271
47	0xbb577dae	-0.0032881307
48	0xba81cd8d	-0.0009903178
49	0xba5613de	-0.00081664126
50	0x3b26f4d3	0.0025475516
51	0x3a1ec571	0.0006056643
52	0xbb6e4d05	-0.0036361825
53	0xbb23c0f9	-0.0024986847
54	0x3b6341bf	0.003467664
55	0x3c2e605a	0.010643089
56	0xb8d17624	-9.987902e-05
57	0x38b98dcf	8.847901e-05
58	0xb97575ab	-0.00023408855
59	0x3ae5d3f0	0.0017534476
60	0xba0ce491	-0.0005374635
61	0xba0ac74f	-0.00052939815
62	0x0006ca9b	6.23694e-40
63	0x39bf6c70	0.0003651115
64	0x0005b4ed	5.24081e-40
65	0xb9cb96be	-0.0003883149
66	0x3928985a	0.00016078484
67	0xbaecd428	-0.0018068599
68	0x3aafa0ce	0.0013399364
69	0x3705eea7	7.982983e-06
70	0xb9c48dcc	-0.0003748968
71	0x378db6e5	1.6893677e-05
72	0xb7f2710a	-2.8901286e-05
73	0x00059613	5.13014e-40
74	0xb9ad4823	-0.00033050877
75	0xb8ec9cb3	-0.000112825444
76	0x3a30ae3a	0.0006739829
77	0x80056d3c	-4.98363e-40
78	0xb72a75fd	-1.0160261e-05
79	0xb96cd2ff	-0.00022585316
80	0xbb438d2f	-0.002983879
81	0xb869979e	-5.5692733e-05
82	0x3b4192e7	0.0029537024
83	0x3baa43ee	0.005196086
84	0x3bd20d7b	0.0064102984
85	0xbc265749	-0.010152646
86	0x3aac836e	0.0013161728
87	0xb8e15f27	-0.000107465596
88	0x3b0465d4	0.0020202296
89	0xbb37a914	-0.0028024362
90	0xbabef48d	-0.0014568731
91	0x3c01eb84	0.007929686
92	0xbb21c4a2	-0.0024683853
93	0x3c873197	0.016503138
94	0x3c42166d	0.011846167
95	0xbc9f3830	-0.019435972
96	0xbc56e5e6	-0.0131163355
97	0x3cbd919b	0.02314072
98	0xb71d3e43	-9.372426e-06
99	0xbb234567	-0.0024913193
100	0x3cb6b745	0.022304187
101	0x3c1c7cca	0.009551236
102	0x3c5c1485	0.013432627
103	0x3b706ff6	0.0036687828
104	0xbc1504f7	-0.009095422
105	0xbc8306b1	-0.015994402
106	0xbc67ca4b	-0.0141473515
107	0x3c3cd97c	0.011526462
108	0xbc90584c	-0.017620228
109	0xbcb29874	-0.021801211
110	0x3c0fc555	0.008775075
111	0xbcb2f28d	-0.021844173
112	0xbc98dbe1	-0.018659534
113	0xbe5a5232	-0.21320418
114	0x3c2ad07e	0.010425685
115	0xbc851f38	-0.016250238
116	0xbc4c6062	-0.012474151
117	0xbe3cddc6	-0.18443975
118	0x3bb3ccee	0.005487076
119	0x3cb44a24	0.02200801
120	0xbc2f40c5	-0.010696595
121	0xbc853c55	-0.01626412
122	0xbc48e9ba	-0.012262756
123	0x3c653d15	0.013991614
124	0xbc725b65	-0.014792298
125	0xbc1d262a	-0.009591619
126	0x3c9588c2	0.018253688
127	0x3d0132a7	0.031542446
128	0x3b9b89a0	0.004746631
129	0x3c9010d5	0.017586151
130	0xbc12b87d	-0.008955118
131	0xba890c75	-0.0010455983
132	0x3bd4a8a8	0.006489832
133	0xbc2741bd	-0.010208544
134	0x3c1abe9d	0.00944486
135	0xbc16cfde	-0.009204833
136	0xbad1e50f	-0.0016013699
137	0xbc9c97d7	-0.019115372
138	0xbb9b6b59	-0.0047430214
139	0x3cdc119e	0.02686387
140	0xbc148672	-0.009065257
141	0xbc3850a8	-0.011249699
142	0x3c815184	0.01578594
143	0x3d0f42a7	0.034975674
144	0x3310a916	3.3681395e-08
145	0x340714f0	1.2580472e-07
146	0xba1fcf68	-0.00060962746
147	0xb273ba42	-1.4186812e-08
148	0x381405b0	3.5291247e-05
149	0xb1a7084d	-4.8612834e-09
150	0xb0aa7c19	-1.2404399e-09
151	0xb83140eb	-4.2260548e-05
152	0xb1bb3f60	-5.449621e-09
153	0x32f03936	2.7965694e-08
154	0x39b11cf6	0.00033781648
155	0x3a7d953a	0.00096734206
156	0xb399abce	-7.155869e-08
157	0xaf3908b6	-1.6828747e-10
158	0x37d7f203	2.5742693e-05
159	0x3b1cfba0	0.002395369
160	0x39368675	0.00017406962
161	0xbab10b93	-0.0013507478
162	0xbb175d94	-0.0023096548
163	0x3baf1559	0.005343121
164	0xba3c10ab	-0.00071741146
165	0xb45a5234	-2.0332737e-07
166	0xb985cd7e	-0.0002552084
167	0xbb0f2dd9	-0.0021847396
168	0x36ad8df3	5.172327e-06
169	0x3830ca67	4.215017e-05
170	0xbbd5afd4	-0.0065212045
171	0xb690bf9b	-4.3138402e-06
172	0x3a612820	0.0008589048
173	0xbb84f4de	-0.0040575108
174	0x3b1fea15	0.0024400998
175	0xb7cc1154	-2.4326764e-05
176	0xb9c822ac	-0.00038172805
177	0xb8e93f8d	-0.00011122143
178	0xbb341993	-0.0027481064
179	0x384a1f2f	4.8189595e-05
180	0xb7bf5eba	-2.2813085e-05
181	0x3bca12cc	0.0061667915
182	0x3bcb3d68	0.0062023886
183	0xb830eb60	-4.218088e-05
184	0xb99ce72c	-0.00029926875
185	0xbb9539d1	-0.0045540114
186	0xb86461e7	-5.4450615e-05
187	0x3b998283	0.0046847477
188	0xb9c0a90a	-0.00036747038
189	0x39a38c88	0.00031194487
190	0x3afa8490	0.0019112993
191	0x3b12ccf8	0.0022400003
192	0xba112af9	-0.00055377145
193	0x3a3ce99a	0.000720644
194	0x3a957666	0.0011403083
195	0x388efc3f	6.818072e-05
196	0x3ac03ea4	0.0014667106
197	0x3a8c1b60	0.0010689311
198	0xbab7b0d8	-0.0014014496
199	0xbb0b187b	-0.0021224308
200	0xb786a520	-1.6050937e-05
201	0xb7c2d26e	-2.3224591e-05
202	0xb989a08b	-0.0002625029
203	0x3a861f11	0.0010232647
204	0xb9c623fd	-0.00037792316
205	0xba0b3654	-0.0005310525
206	0x8005adc4	-5.21513e-40
207	0x39ad8e8d	0.0003310334
208	0x80058c54	-5.09518e-40
209	0x3a2bb0d2	0.00065494806
210	0xb9d31859	-0.00040263197
211	0x3b51844b	0.0031969722
212	0xbb3aa07d	-0.0028477006
213	0xb7a032fc	-1.9097228e-05
214	0x3a27737e	0.0006387754
215	0x3a2d3914	0.00066079316
216	0x38dc4271	0.00010502793
217	0x80067365	-5.92409e-40
218	0x3a2de3f5	0.00066333945
219	0x3a6707ba	0.0008813102
220	0xbab95de3	-0.001414236
221	0x8006410c	-5.74347e-40
222	0x37db569c	2.6147165e-05
223	0x39ad6618	0.00033073197
224	0x3b934281	0.004494012
225	0x3be4f635	0.006987358
226	0xbb9574dd	-0.0045610503
227	0xbb4e721c	-0.003150112
228	0x3b8a7e6d	0.004226497
229	0x3c074f52	0.0082586575
230	0x3bb26e4c	0.0054452773
231	0x3ba3111e	0.0049764058
232	0x3c10319c	0.00880089
233	0x3c496eb1	0.012294457
234	0xbbdaceb9	-0.0066774753
235	0x3c040a5b	0.00805911
236	0xbab9fa24	-0.0014188928
237	0xbb17c6a2	-0.0023159166
238	0x3be98ab6	0.0071271313
239	0xbbf8e46b	-0.007595589
240	0xbad75c67	-0.0016430736
241	0xbb49208a	-0.003068956
242	0x3b2a4dbd	0.0025986277
243	0x3ba12571	0.0049177934
244	0x3b9ec418	0.0048451535
245	0x3b4277b3	0.0029673397
246	0x3ba56245	0.005047115
247	0xbbd73993	-0.0065681427
248	0xbb7c256a	-0.003847445
249	0xbb90f080	-0.004423201
250	0xbb89645a	-0.004192871
251	0xbab7589f	-0.0013988203
252	0x3af6ba46	0.0018823824
253	0x3bfb97fb	0.0076780296
254	0x3bb21a0d	0.0054352344
255	0xbb88b532	-0.004171991

_orig_mod.shared_mlp.0.bias f4 [128]
0	0x3d904b7d	0.07045648
1	0x3bf316a8	0.0074184723
2	0x3cfe6070	0.031051844
3	0x3b0d0acf	0.0021521335
4	0x3d18c187	0.037293937
5	0x3ba84dd6	0.005136232
6	0x3ccbcb56	0.024877232
7	0x3d74a52f	0.059727844
8	0x3d02ee15	0.031965334
9	0x3c96fe9e	0.018431958
10	0x3dcc3ab0	0.09972131
11	0x3c07f5bb	0.008298333
12	0x3bb5448a	0.005531852
13	0x3d1f5c4f	0.03890639
14	0x3c471cbf	0.01215285
15	0x3b834391	0.0040058573
16	0x3d1f5e4f	0.0389083
17	0x3d4fadb0	0.05070275
18	0x3b8b21ee	0.004245988
19	0x3cca54d1	0.024698647
20	0xbd15b092	-0.036545344
21	0x3d4f6f2e	0.05064314
22	0x3c3d23c5	0.011544173
23	0x3dcd1541	0.100138195
24	0xbc2a9625	-0.010411774
25	0xbc65c9e9	-0.01402519
26	0x3c13a3b9	0.0090112025
27	0xbbf5bb18	-0.00749911
28	0x3b138b88	0.0022513587
29	0xba09dd84	-0.00052591437
30	0xbca8e190	-0.02061537
31	0x3c1e7bce	0.009673072
32	0xbcf306ce	-0.02966633
33	0x3c680ac7	0.014162726
34	0x3c5b2a45	0.013376777
35	0x3bde90bf	0.0067921574
36	0x3daa5ed6	0.0831887
37	0xb9662702	-0.00021949041
38	0x3c50d279	0.012745493
39	0xbdb6fd94	-0.08935085
40	0x3c0688f9	0.008211368
41	0xbca3d009	-0.01999666
42	0x3ced1f4f	0.028945593
43	0x3dc011c8	0.093783915
44	0x3bb41e42	0.005496771
45	0x3c1370ff	0.008999108
46	0x3d3fe30c	0.04684739
47	0x3c69df9d	0.014274505
48	0x3d4b06db	0.049567085
49	0x3bcf1e2f	0.006320737
50	0xbcaa977d	-0.020824188
51	0x3c15e364	0.009148452
52	0x3b67ed0f	0.00353891
53	0x3c01a206	0.007912165
54	0x3dacfac3	0.084462665
55	0x3c7335b0	0.014844343
56	0x3b8fdc04	0.0043902416
57	0x3a477feb	0.0007610309
58	0x3b9d41ed	0.0047991187
59	0x3c556908	0.01302553
60	0x3d23772c	0.039908573
61	0x3c68d7f7	0.014211646
62	0x3cae24e9	0.021257835
63	0x3beb5651	0.0071819206
64	0xbd0d0e69	-0.03443757
65	0x3bb06f66	0.0053843735
66	0x3d5872c8	0.05284384
67	0x3bda36da	0.006659371
68	0xbb08034c	-0.0020753918
69	0xbbac1007	-0.005250934
70	0x3c19c2fa	0.009384865
71	0xbb359c13	-0.0027711436
72	0x3d32734d	0.04356699
73	0x3c0d574a	0.008626768
74	0x3d180fa3	0.037124287
75	0xbc839527	-0.016062332
76	0xbd182220	-0.03714192
77	0x3db908d7	0.09034889
78	0x3dab2ea6	0.08358507
79	0x3d1d25e7	0.038366225
80	0x3a33ea78	0.00068632467
81	0x3d87c09c	0.06628534
82	0x3d1c7652	0.038198777
83	0x3c8497d0	0.016185671
84	0x3b2226ca	0.0024742358
85	0x3b61446c	0.0034373058
86	0x3ac8bc65	0.0015314935
87	0xbbfee395	-0.0077785947
88	0x3dbe1b59	0.0928256
89	0x3d544982	0.051827915
90	0xbd77d6bf	-0.060507532
91	0xbb090c1c	-0.0020911759
92	0xbd087947	-0.033318784
93	0xbb4b50c7	-0.003102349
94	0xbb344268	-0.0027505402
95	0x3ad6c121	0.0016384461
96	0xbd94f066	-0.07272415
97	0x3a9a09b2	0.0011752157
98	0x3d270766	0.04077854
99	0x3bb9c91c	0.005669726
100	0x3bd717e1	0.006564126
101	0x3c9088c7	0.017643346
102	0x3c3458cd	0.0110075
103	0x3d6c4d79	0.05769107
104	0x3d27efe0	0.041000247
105	0xbafde694	-0.0019371086
106	0x3c1b4a11	0.009478108
107	0x3d242acb	0.040079873
108	0xba38288a	-0.0007025084
109	0x3c2e9dbe	0.010657726
110	0xbc8f7441	-0.017511489
111	0xbb302520	-0.0026877597
112	0x3c4ad26d	0.012379271
113	0xbdc10ee4	-0.09426668
114	0x3a13d553	0.0005639393
115	0x3bd423fb	0.006474016
116	0x3ceaf1d2	0.028679762
117	0x3c844190	0.016144544
118	0xbd1c24b2	-0.038120933
119	0xba856811	-0.0010178109
120	0x3cd0e0c9	0.02549781
121	0x3c6e079e	0.014528183
122	0x3c92f821	0.017940583
123	0x388edd71	6.812334e-05
124	0x3b2e3139	0.0026579632
125	0x3c3fde24	0.011710677
126	0x3bcb34b4	0.006201351
127	0x3d3421c4	0.043977514
