best_ctr_model.pth (torch, 149633 bytes, 12 tensors)

embeddings.gender.embedding.weight f4 [5, 16]
000000 55 70 31 bf 81 36 72 3f b7 ba 87 3d 46 fd 9e 3d
       -0.6931203 0.94614416 0.0662741 0.07763152
000010 4d 4d d1 bf ae 9f 3d 3f 27 c8 f3 3f 79 d6 c4 be
       -1.6351715 0.74071777 1.9045457 -0.3844488
000020 30 63 dc bf cf e3 4e bf 78 09 22 3e 64 d9 78 bf
       -1.721777 -0.8081636 0.15823925 -0.9720671
000030 00 09 02 40 17 00 80 3f fb 0e 74 3f 04 6f 4d be
       2.0317993 1.0000027 0.9533536 -0.2006188
000040 be b0 81 bf 2a 40 0c 3f 59 76 bd 3f 03 04 b3 bf
       -1.0132062 0.54785407 1.4801742 -1.3985599
000050 d0 0c a6 bf 9e f7 5a 3f 92 d4 a8 3f ca 3c f3 bf
       -1.297266 0.85534084 1.3189871 -1.9002926
000060 d9 cf f8 bf 73 cc 5e 3f 2b 2c 55 bf 36 be 94 3f
       -1.943843 0.87030715 -0.8327052 1.1620548
000070 9f d9 31 3f fd b9 bb 3e 94 45 97 3f 65 09 1c bf
       0.6947269 0.36665335 1.1818109 -0.60951835
000080 2c c3 5d bf 25 d0 7a 3f 29 6a ab bf 12 8d 1a bf
       -0.86625934 0.97973853 -1.3391773 -0.60371506
000090 74 67 68 be 83 e4 6a 3e 3d 42 46 3f 5c ce 11 bf
       -0.22695714 0.22938733 0.7744482 -0.56955504
0000a0 45 51 36 bf b5 dd c7 3e 6a 2d 1c 3c f2 f7 68 bf
       -0.7121776 0.39036337 0.009532312 -0.91003335
0000b0 6a 59 09 3e d2 fc a9 3f d9 5b cc 3f 8c 45 22 40
       0.13413015 1.328028 1.596553 2.5354948
0000c0 5f 83 58 bf 2a 49 4b 3e 34 7c a6 3f 02 fe e6 bf
       -0.84575456 0.19852129 1.3006654 -1.8046267
0000d0 ec 87 83 be b8 09 0b 3f c4 70 68 3f 7b f3 06 bf
       -0.25689638 0.54311705 0.90797067 -0.5271527
0000e0 34 55 f3 3e 12 38 13 3c 57 97 a3 bf a5 4c b7 3f
       0.47525942 0.008985536 -1.278056 1.4320265
0000f0 c6 fc ff be a4 75 3e be 9e ac d9 bd 32 28 60 bf
       -0.49997538 -0.18599564 -0.10628627 -0.87561333
000100 99 e7 87 3f 7d f1 09 3f a4 07 16 3f a8 74 43 bf
       1.0617553 0.53884107 0.5860541 -0.7634988
000110 17 5f a1 be 04 9c 2e bf d0 dc 11 bd 11 2a 12 c0
       -0.3151786 -0.6820681 -0.035610974 -2.2838175
000120 89 44 1c be 5b 97 5c bf ad 0b 08 bf d3 f4 72 bf
       -0.15260519 -0.8616845 -0.53142816 -0.9490482
000130 3a 2c 07 bc 4f c8 c4 be 81 91 d0 3e f1 85 8d bf
       -0.0082502905 -0.38434073 0.4073601 -1.1056501

embeddings.age_group.embedding.weight f4 [15, 16]
000000 0b 10 9f 3f 55 0b 7d 3e c8 c4 79 3f e2 68 84 3f
       1.2426771 0.24711354 0.9756589 1.0344508
000010 4d 8b a2 3f 62 0d b0 bf e3 1c 78 bf b4 59 07 40
       1.2698761 -1.3754084 -0.9691908 2.11485
000020 c8 47 ac 3d a9 db 3a 3f b9 6b 78 3f 4f 7d 0b 3e
       0.08412129 0.72991425 0.9703937 0.1362202
000030 1c dc bd 3f 11 d5 42 3f 1c 69 12 3e 7a 7c 1a bf
       1.4832797 0.76106364 0.14297909 -0.60346186
000040 cc 87 83 bf 2f 6b ac 3e 6c d7 40 bf 82 07 28 bf
       -1.0275817 0.33675525 -0.7532871 -0.65636456
000050 a9 14 06 be d0 4e a4 3e 95 d0 47 3f 09 a8 94 bf
       -0.13093819 0.3209138 0.78052646 -1.161378
000060 61 d9 9c 3f 0c cb 77 be b2 ab 29 3e 1f bc c0 bd
       1.2253839 -0.2419855 0.16569403 -0.09410881
000070 b7 b4 ec 3e 53 1a 20 be ff b8 65 bf 78 44 58 bf
       0.46231624 -0.15635042 -0.89735407 -0.84479475
000080 fb a7 a0 bf 32 18 86 bf 34 f2 d0 3f 71 7c fe bf
       -1.2551264 -1.0476134 1.6323915 -1.9881727
000090 44 de cb bd 1e 1d 0f 40 03 13 36 bf 83 16 01 bf
       -0.09954503 2.2361522 -0.7112276 -0.50424975
0000a0 50 e7 d8 bf 9f d3 2e bf 28 c4 54 3e 96 9e 8f 3f
       -1.6945591 -0.6829166 0.20777953 1.1220272
0000b0 b5 38 dd be 3b 9f d5 bd a2 be 6c 3f 6e 69 b7 bf
       -0.43207327 -0.104307614 0.9247838 -1.432905
0000c0 40 51 4b be b2 19 8c bf 66 e0 2e 3f aa 3a 48 be
       -0.19855213 -1.0945342 0.68311155 -0.19553629
0000d0 dc 1b c3 3f e8 00 e3 3f 80 3f 3e bf 4f 76 6b bf
       1.5242877 1.7734652 -0.74315643 -0.919774
0000e0 42 88 a6 be 9d d8 3e c0 86 6f b0 3f 34 66 9a bf
       -0.3252583 -2.981971 1.3784034 -1.206244
0000f0 86 cf 9e 3f a0 ff 47 3f 39 b3 fc be 93 2a d7 bf
       1.2407081 0.7812443 -0.49355486 -1.6809868
000100 d3 c8 81 40 01 77 b5 3f 3d 0f 77 3f 48 a4 21 be
       4.0557647 1.4176942 0.96507627 -0.15785325
000110 bb 19 b5 bf 30 05 1d bf 5f dd c0 be d8 85 e4 bf
       -1.4148477 -0.6133604 -0.37668893 -1.7853346
000120 6f db a2 bf be 43 db be 58 ca b6 bf a0 f9 51 bf
       -1.2723216 -0.4282512 -1.42805 -0.8202152
000130 d7 05 c5 be 77 17 87 bf 40 10 de be 14 3b 1d 3f
       -0.38481018 -1.0554036 -0.43371773 0.6141827
000140 81 65 a7 3f fd 76 e6 3d 88 f2 0e 3f c7 e5 0e 3e
       1.3077852 0.11253164 0.55838823 0.1395484
000150 58 17 43 bf 1d e0 b7 3e fe 96 91 3f ca 01 a5 bf
       -0.76207495 0.35913172 1.1374204 -1.2891171
000160 a9 1e 8e 3f f5 ae 9f bf 0b 47 31 be 9b 1f 44 bf
       1.1103107 -1.2475268 -0.17312257 -0.76610726
000170 b9 af fb be 1b 49 00 be a8 30 18 3d 8f 0c c1 3e
       -0.49157503 -0.12527888 0.037155777 0.37704894
000180 98 ca 62 bf 52 a4 31 be a5 31 86 bf 00 94 c9 3f
       -0.88590384 -0.1734784 -1.04839 1.5748291
000190 32 d9 d9 3f fd cd 72 bf ae 71 6d 3e 07 59 c6 3f
       1.7019408 -0.94845563 0.23187897 1.5495919
0001a0 c8 21 82 3e ec bb 92 3f c4 84 09 3f d9 a3 70 3e
       0.25416398 1.1463599 0.5371821 0.23500003
0001b0 8b 41 9d 3e c1 b9 27 3f 74 34 40 3f 90 87 c1 bf
       0.30714068 0.6551781 0.7508004 -1.5119495
0001c0 75 12 99 3f 70 b6 4c bf 64 55 b7 3e df 19 8f be
       1.1958758 -0.7996588 0.35807335 -0.27949426
0001d0 09 05 7f 3f 90 1d 09 3f 62 14 1b bf c8 c0 bb be
       0.9961706 0.53560734 -0.60577977 -0.36670518
0001e0 a2 0b 17 3f f7 3b f6 be 5c d9 5c 3f b3 11 0a bf
       0.59002125 -0.48092625 0.86269164 -0.53933257
0001f0 46 19 19 bf e2 d9 0a 3f b2 17 68 bf 3c 82 b0 3d
       -0.5980419 0.5423871 -0.90661156 0.0861859
000200 35 be 3c 3e c0 74 09 bf 47 fe 82 3f f8 db ce be
       0.18431933 -0.5369377 1.0233849 -0.40402198
000210 26 84 ea 3e 1c d1 3a be ca ed 74 3e bf 33 f2 be
       0.45803946 -0.18243831 0.23918834 -0.47305104
000220 fd b4 a7 ba 1b 19 fa be 39 df 82 3f 4e c8 cc bf
       -0.0012795028 -0.4884728 1.0224372 -1.5998628
000230 a8 05 5a 3f a4 ee 11 bf 11 96 c2 3f 98 42 3f bf
       0.8516488 -0.5700476 1.5202047 -0.7471099
000240 1a 24 2e 3f b5 0d ac be 1d b6 0f 3d f0 c3 70 c0
       0.68023837 -0.33604208 0.035085786 -3.761959
000250 9c 91 14 be e6 9c f6 bd c0 2a 29 3e 24 15 0a c0
       -0.1450867 -0.12041645 0.16520214 -2.1575403
000260 6f fc c8 be 69 c6 e1 3f e5 ad 90 bc 81 72 1c bf
       -0.39255092 1.7638675 -0.017661044 -0.6111222
000270 83 c4 69 be c2 cd 22 c0 3a 85 7b bd 94 57 19 bf
       -0.2282887 -2.5438085 -0.06140635 -0.5989926
000280 c9 bd 87 bc ec 14 e6 be 6a 74 c5 bf c4 55 23 bf
       -0.016569989 -0.44937837 -1.5426152 -0.6380274
000290 37 09 9a 3f 35 a8 96 bf fb 42 3d bc 3c ff 0e be
       1.2034062 -1.1770083 -0.011551614 -0.13964552
0002a0 5c 7e 6c bf 6c 33 8f bf 1b 98 c8 be 27 52 32 3d
       -0.9238031 -1.1187568 -0.39178547 0.043535378
0002b0 7b 57 4f bf d1 1d 84 bf d9 01 18 3e 80 0e 66 3f
       -0.8099286 -1.0321599 0.14844455 0.89865875
0002c0 c5 1a 86 bf 57 c4 04 3f 8d 48 d7 3c 6f 4b 96 3f
       -1.047692 0.5186209 0.026279712 1.174177
0002d0 3f 57 c0 bd e8 7b f2 3e f1 55 b6 bf 56 33 86 3f
       -0.09391641 0.47360158 -1.4244977 1.0484416
0002e0 59 c4 72 bf 66 69 af 3f ae 58 58 be 7b 64 d1 3f
       -0.9483085 1.370404 -0.21127579 1.6358789
0002f0 b7 83 8e bf e1 24 e9 be e3 72 fb 3d d3 83 2a 3f
       -1.1133946 -0.4553595 0.12277772 0.666074
000300 3c 70 4c 3f f8 6e 91 bf c7 07 17 bf 1a 06 ec bf
       0.79858756 -1.136199 -0.5899624 -1.8439362
000310 58 55 9e bf 73 6b c2 3f 49 47 75 3e 92 f5 82 bf
       -1.2369795 1.5189041 0.23952974 -1.0231192
000320 3b 92 bd bf ce 90 c9 3f c1 da 6a 3d 68 f0 a5 3e
       -1.4810251 1.5747316 0.057337526 0.32409978
000330 68 13 16 40 b1 47 0d bf 92 a0 42 be 7d 22 ce 3f
       2.3449345 -0.5518752 -0.19006565 1.6104275
000340 16 d9 c6 bf 8d 7c 0e bf 42 28 65 3f 2b d9 8b 3e
       -1.5534999 -0.556588 0.89514554 0.27314124
000350 52 4f 07 c0 90 e2 4c bf d7 93 00 c0 cf 69 e5 bd
       -2.1142163 -0.80033207 -2.0090234 -0.11201822
000360 22 e1 20 bf ca c7 87 3e d9 5b 39 3e 43 34 fc 3f
       -0.62843525 0.26519614 0.18101443 1.9703449
000370 0d 5d f5 3f 50 f5 41 3f 45 1e 6e 3f ca 05 ea 3d
       1.9169022 0.7576494 0.9301494 0.114268854
000380 36 80 32 3f 43 db 00 bf 0c 6c 55 be 4f 67 5f bf
       0.69726884 -0.50334567 -0.20841998 -0.8726701
000390 d5 f8 88 3f 88 76 27 be 6f a3 d1 3e 6c 8e 91 3f
       1.0700938 -0.1635381 0.40945002 1.1371589
0003a0 5e 3b b7 bd d3 5e e6 3e 21 66 b7 be 83 09 71 be
       -0.0894687 0.4499422 -0.35820106 -0.23538785
0003b0 9f 63 1f 3e de 22 14 3f 34 ac 93 bc ca 47 27 bf
       0.15565346 0.57865703 -0.018026449 -0.65343916

embeddings.inventory_id.embedding.weight f4 [50, 16]
000000 33 a2 06 3f fe d8 9d bf 88 de cd be 9d f2 11 be
       0.52591246 -1.2331846 -0.4020884 -0.14252706
000010 91 58 09 3e 10 a2 a6 3e 4d 7d 5d 3f b1 49 89 bf
       0.13412692 0.3254552 0.8651932 -1.0725614
000020 ce 50 5b be c7 4b 10 bd bf de 61 3f 36 fe 94 3e
       -0.21417543 -0.035228517 0.8823051 0.29100198
000030 28 ca 35 bd 95 1c 3a be 97 c4 1a 3e 1f e6 97 bd
       -0.044382244 -0.18174966 0.15114056 -0.07416939
000040 8e dd ae bf 07 1e b0 3e df 02 61 bf 67 2d e2 3e
       -1.3661363 0.3439791 -0.87895006 0.44175264
000050 be 38 f1 bf a4 f8 8b bd d6 87 d1 bf 09 ed cf bf
       -1.8845441 -0.06834534 -1.6369579 -1.6244212
000060 f4 20 5c bf 32 70 86 be 07 d5 91 3f 6d 8a 20 bf
       -0.8598778 -0.26257473 1.1393136 -0.6271122
000070 9f 3b 19 c0 a2 c1 44 bf dc 85 af 3e a5 93 e6 bd
       -2.394264 -0.7685796 0.34281814 -0.1125863
000080 0f 1f 85 be cb e1 04 3e 82 ce 24 be 99 b0 c8 3e
       -0.26000258 0.12976758 -0.16094401 0.39197233
000090 d3 59 dc 3f 89 f0 26 bf 74 8c 5e be 0d b0 ae be
       1.7214912 -0.6521078 -0.21733266 -0.3411869
0000a0 30 eb 81 bf d6 35 14 3e b4 b7 95 3e fa e4 dc be
       -1.0149899 0.14473662 0.29241717 -0.43143445
0000b0 3a 0a 89 bf 93 33 a6 3f 43 52 83 bd d9 1d 17 3f
       -1.0706246 1.2984489 -0.064121746 0.5902992
0000c0 fe c1 44 3f 25 41 65 bd 1e 87 1e bf dd 7e 51 bf
       0.7685851 -0.05597033 -0.6192492 -0.81834203
0000d0 32 88 02 bd ec 9b 80 be 39 0f 8e 3b f2 ba 4d 3f
       -0.031868167 -0.2511896 0.004335311 0.8036338
0000e0 7d 37 2e bd 82 01 34 c0 dc f4 30 3f fe 40 8c 3f
       -0.042533386 -2.812592 0.69123626 1.0957334
0000f0 cc 49 b6 bd b2 41 80 3e 92 a8 b2 be 90 7d ea 3e
       -0.089007944 0.25050122 -0.34894234 0.45798922
000100 03 fc 9d 3d a4 05 8a 3f b7 d0 8a bf 86 b8 2a 3f
       0.07714083 1.0782971 -1.0844945 0.6668781
000110 38 8e 09 40 5f 0a 48 3f c2 e1 4e bf c1 24 04 40
       2.1493053 0.78140825 -0.8081323 2.0647433
000120 fd df cb 3d f7 82 b3 be 54 4c 09 3f 24 87 9c be
       0.09954832 -0.35060856 0.5363209 -0.30571854
000130 c6 bf 7c be 64 66 43 3c df 19 98 bf 83 a3 95 bf
       -0.24682531 0.011926267 -1.1882895 -1.1690525
000140 d2 95 17 3f e5 93 b0 bf a7 09 82 3e 34 5b 72 be
       0.5921298 -1.3795134 0.2539799 -0.23667604
000150 91 b1 21 be e6 b1 3e bf e0 b3 86 bf 1e 5e 27 bd
       -0.15790392 -0.744902 -1.0523643 -0.04086124
000160 8b 20 e2 3e a4 56 a1 bf ce e9 34 3f 88 d0 45 3f
       0.44165453 -1.2604566 0.7066926 0.7727132
000170 1d 71 31 3c 59 41 3e c0 60 23 eb bf ab 17 1e be
       0.010830191 -2.9727385 -1.837017 -0.15438716
000180 e5 f5 e5 bc ca 01 09 bf 6b d8 fc bf 53 e4 1a be
       -0.028071353 -0.53518355 -1.9753546 -0.15126161
000190 0f 20 be 3e 46 6b a2 3f 1a 72 2b be d6 b1 4f 3e
       0.37133834 1.2688987 -0.16742745 0.20282683
0001a0 6d 20 b9 3e 12 e1 8e bf cb c0 41 bf b6 54 54 3f
       0.3615755 -1.1162436 -0.75684804 0.8294176
0001b0 0f 37 4f 40 7d d3 d3 3d 73 a5 89 3e 65 43 a2 3f
       3.2377355 0.103430726 0.2688404 1.2676817
0001c0 00 1f 9d 3c 9f cd e3 bf 36 76 03 c0 8b f9 13 bf
       0.019179821 -1.7797126 -2.05409 -0.5780265
0001d0 52 08 e2 3e aa ae 64 bf 3d df 99 bf 3a 0a 8f bf
       0.44146973 -0.89329016 -1.2021252 -1.1174996
0001e0 42 fb 8a bf d3 16 75 3f a1 b5 2b 3f 92 b5 a6 bf
       -1.0857928 0.9573795 0.6707402 -1.3024161
0001f0 b4 41 fb 3f 25 b9 6b be ff 75 b7 3e 39 a7 06 c0
       1.9629426 -0.23019846 0.3583221 -2.1039565
000200 00 74 ff be c0 00 78 be 12 df 0d bf 67 5e c9 3f
       -0.49893188 -0.24219036 -0.55418503 1.5731934
000210 ba 1b 38 3f a4 cf 85 bf 80 b3 86 bf 54 3b c8 be
       0.7191731 -1.0453992 -1.0523529 -0.39107764
000220 f7 9c e9 bf 7c db 0f c0 3d 27 ce bc 55 b0 fd be
       -1.8251027 -2.2477713 -0.025165195 -0.49548593
000230 a2 cf e5 3e 55 e8 dc bf 40 07 50 40 8e 13 6b bf
       0.44884974 -1.7258402 3.2504425 -0.91826713
000240 5a a4 b2 be f1 ee 0a 3d b7 9a 7d 3e 4e 01 ba bd
       -0.34891015 0.03391928 0.2476605 -0.0908228
000250 b2 73 3b 3e 89 61 27 3f c0 e8 ca be 3e 07 c9 bc
       0.18305853 0.653832 -0.396307 -0.024539586
000260 04 3d f9 3e 88 c2 a4 3f 40 8c 10 3f b7 2c 22 3f
       0.48679364 1.2871866 0.56464005 0.6334948
000270 7e 07 a4 be 8e 72 cf 3f f5 26 de 3e 1d 2e 91 be
       -0.32036966 1.6206834 0.43389097 -0.28355494
000280 bd 4f 4d 3f c1 4e 3a 3f 11 45 c4 bf 0d 75 f0 3e
       0.80199796 0.7277642 -1.5333577 0.46964303
000290 e6 cb 7d 3e 9a 75 da 3f 85 e7 6e bf 29 90 61 bf
       0.24784812 1.7067139 -0.9332202 -0.88110596
0002a0 d5 bd 45 3f b2 f7 55 3f e1 20 97 bf 1c 6c 26 3f
       0.77242786 0.8358108 -1.1806909 0.6500871
0002b0 b3 49 74 3f 4c 0d 42 bf 37 06 a0 bf f6 14 04 c0
       0.95424956 -0.7580154 -1.2501897 -2.0637794
0002c0 3f 2e e9 3f bc df b2 bf 86 13 17 bf 26 2d 0a c0
       1.8217238 -1.3974528 -0.59014165 -2.1590056
0002d0 59 ba 72 3e 3e 82 94 3f a5 f3 a8 bf 9b 16 8c bf
       0.23703898 1.1602247 -1.3199354 -1.0944399
0002e0 24 10 5a 3e 59 28 c0 bf 7d 89 9f be 2e 17 93 be
       0.2129522 -1.5012313 -0.31159583 -0.28728622
0002f0 ec 08 69 3f 5a 1a ef be 81 c2 a2 bf ca b1 6d 3f
       0.9102924 -0.46699792 -1.2715608 0.9284941
000300 a2 89 32 3f 08 3a db be 39 1a ae be 0a b0 0a c0
       0.6974126 -0.42817712 -0.3400438 -2.1669946
000310 27 09 2b 3f 7b 90 da be 23 bd 94 be f2 ad f4 3e
       0.6681084 -0.42688355 -0.2905055 0.4778896
000320 a3 75 2b bf ca 44 00 3f e1 03 2c bf cb e6 34 3f
       -0.66976374 0.50104964 -0.6719342 0.7066466
000330 d8 b9 b0 3d 2f cc 13 c0 49 58 ad bf d9 74 dd be
       0.08629197 -2.3093374 -1.3542567 -0.4325321
000340 84 25 65 bf 27 40 bc 3f c4 01 e0 bf 98 df bf bf
       -0.8951037 1.4707078 -1.7500539 -1.499011
000350 0a 69 1d 3f 03 4a 8c 3e 7a 36 cb 3f 53 cc ec 3e
       0.614884 0.27400216 1.5876 0.46249637
000360 7f 32 c7 bd dc 4b 1c 3f c0 75 7f 3f 39 47 37 bf
       -0.09726428 0.6105325 0.9978905 -0.7159305
000370 1b 14 96 3e d9 f5 50 bf ca 03 2b 3f 98 73 f3 bf
       0.29312214 -0.81625134 0.66802657 -1.9019651
000380 0e c2 7d bf 82 c3 d9 bf a9 1d fc bf aa a7 7d bf
       -0.9912423 -1.7012789 -1.9696552 -0.9908396
000390 f7 2a f2 3e 25 5e 8b 3d f0 9d 5a bf e1 80 c7 3f
       0.47298405 0.06805066 -0.85397243 1.5586206
0003a0 86 4a ce bf e2 d9 27 bf e6 3f 2c bf 57 ab 9b 3e
       -1.6116493 -0.6556684 -0.67285 0.3040416
0003b0 4b b7 a7 be 95 f3 cd 3e 79 ce 4e be 6c 0c db bf
       -0.3275703 0.402249 -0.2019595 -1.7113166
0003c0 fc c9 51 be 80 b7 72 3f 3a cd 59 3f da 97 de bf
       -0.20487207 0.9481125 0.85078776 -1.7390091
0003d0 42 8e 1e bf 6d 3a 8a 3f fc 76 8f bf fd 18 91 3e
       -0.6193582 1.079908 -1.1208186 0.28339377
0003e0 bd 99 b9 3f b1 a3 a2 3f 1d ee 01 bf da e8 21 be
       1.4500042 1.2706205 -0.5075396 -0.15811482
0003f0 3d b9 ec 3e 6b 4b 84 3d f4 0b a7 3e e6 ba 69 3f
       0.46235076 0.06459697 0.32626307 0.9130081

embeddings.day_of_week.embedding.weight f4 [10, 16]
000000 93 f4 60 3d 64 3b ae 3f f6 fd 87 bf e1 38 1b 3f
       0.054920744 1.3611875 -1.0624378 0.60633665
000010 e8 16 56 3d ea 03 fb 3d f8 87 0f 40 b3 2b d2 be
       0.05226794 0.12256606 2.2426739 -0.41048965
000020 35 16 b5 3f 75 d8 c7 bd 23 37 91 bf 00 da fc 3f
       1.4147402 -0.09758083 -1.1344951 1.9754028
000030 32 7d 4f bf 99 2f 93 3f 29 77 8c 3f eb 2a 7e bb
       -0.8105041 1.1498901 1.0973865 -0.0038782905
000040 57 06 82 3f 46 53 28 bf 25 84 9b 3f be 9a aa 3f
       1.0158185 -0.65752065 1.2149702 1.3328474
000050 bf 60 3a bf e0 99 1c bf 30 12 3f 3f 12 da 14 bf
       -0.7280387 -0.61172295 0.74637127 -0.5814525
000060 1e 91 fe 3f 2b 60 91 bf 3c 14 d2 bf 33 7c 79 3d
       1.9888036 -1.1357473 -1.6412425 0.06090946
000070 61 0a a2 bf 12 41 dd be 6c 0c cb bf 03 21 a0 3f
       -1.2659417 -0.43213707 -1.5863166 1.2510074
000080 00 1a 97 bf d2 41 b8 bf 2c 33 08 3d a4 1c 4c 3f
       -1.180481 -1.4395087 0.033251926 0.797312
000090 7a f9 35 be ad 15 6d be c2 99 13 3e 03 8f 83 3f
       -0.17770949 -0.231528 0.14414123 1.0278019
0000a0 bb 6f 57 bf 89 23 1e 40 aa 0b 8e bc 3a 74 4f bf
       -0.8415486 2.470919 -0.017339546 -0.8103672
0000b0 81 70 98 3f d7 4e 39 be 26 9a d3 bf 2c 0e 84 3f
       1.1909333 -0.18096481 -1.6531417 1.0316825
0000c0 3f 25 be bf c3 27 df be 02 b6 6e 3f b5 4f 19 c0
       -1.4855117 -0.43585023 0.9324647 -2.39549
0000d0 45 5c 54 bf d1 c8 62 3f f1 96 c3 bd 05 84 04 3f
       -0.8295329 0.8858767 -0.09550274 0.51763946
0000e0 c7 86 c7 3e 6a b3 2d 3f e2 51 5a bf 66 c6 b7 3f
       0.38970014 0.6785189 -0.85281193 1.4357421
0000f0 9e 93 4f 3f ea c2 27 3f b3 95 1d 3f 8b d9 84 3f
       0.8108462 0.6553179 0.6155655 1.0378889
000100 13 a7 32 3f 30 ec 87 3f 06 13 0d 3f d9 a4 9c 3f
       0.69786185 1.0618954 0.5510715 1.2237808
000110 7b ba 2c 3d 35 6d d9 bf 92 a5 ee 3e c9 5e 09 c0
       0.04217003 -1.6986452 0.46610695 -2.1464102
000120 8a d2 2b bf eb 31 13 3d 98 66 e9 3e f1 59 86 3f
       -0.6711813 0.035936277 0.45586085 1.0496198
000130 48 df 75 be be 99 02 3f 4d be 6d 3f 58 6c fc 3f
       -0.24010956 0.5101584 0.928685 1.9720564
000140 38 16 f7 3e ac 61 32 be 65 13 8b be e1 47 20 3d
       0.4825914 -0.17420071 -0.27163234 0.03913105
000150 96 69 46 bf f0 05 18 bf e9 4e 8c bf b9 5e c8 be
       -0.7750486 -0.5938406 -1.0961581 -0.39134768
000160 5b da 9c be fb 44 be 3f 95 c5 b7 bf 00 02 2a 3f
       -0.30635342 1.4864801 -1.4357172 0.664093
000170 23 5e d3 be 9c 87 a3 3d 0b ba d9 3f db c7 9d be
       -0.41282758 0.0798485 1.7009901 -0.3081654
000180 90 f0 75 3f 62 f4 ae bf 82 14 09 be 35 06 21 bf
       0.96070194 -1.366833 -0.1338673 -0.62900096
000190 c8 56 57 bf cf a6 8a 3f 4b 91 6f 3e 10 ef 35 be
       -0.8411679 1.0832156 0.23395269 -0.17766976
0001a0 28 86 95 bf 2d c8 c8 3f ff e8 87 bf 18 1f e9 3e
       -1.1681566 1.5686089 -1.061798 0.45531535
0001b0 28 2f 77 3d 1f 78 1c 3c 25 54 2a 3e cf c1 4b 3f
       0.060347706 0.0095501235 0.16633661 0.79592603
0001c0 0b 64 f8 3d 03 b1 b2 3f 92 f2 24 bd ae dc ba bd
       0.12128457 1.396027 -0.040270396 -0.091241226
0001d0 e0 41 97 be 86 d8 e6 be 2d 36 0f bf 03 61 07 be
       -0.29542446 -0.4508707 -0.5594204 -0.13220601
0001e0 75 0d 86 3f 03 eb c1 be ff 2a 86 be 0b 79 d0 3f
       1.0472857 -0.37874612 -0.26204678 1.6286939
0001f0 21 7e 9f 3f 46 36 cf 3e 25 a7 74 3e cd da ee 3f
       1.2460366 0.40471095 0.23891886 1.8660523
000200 f6 c3 e1 3e c2 a2 21 3f 2b 0f 70 3f 04 81 c8 be
       0.4409482 0.63138974 0.93773144 -0.3916093
000210 b5 81 a5 3e 75 4a ab 3f a3 4f 02 40 ad 77 fd 3e
       0.3232552 1.3382097 2.0361106 0.49505368
000220 85 2f 9e 3e dd 0b cb bf b5 ef db 3f f0 b3 9a be
       0.3089563 -1.5862995 1.7182528 -0.30215406
000230 b9 0d a4 3e 29 5f c4 bf de 54 f2 be e7 44 ea be
       0.3204172 -1.534154 -0.47330374 -0.45755693
000240 f9 15 c9 be 60 c3 43 3f f3 e7 d7 3f 4b 28 b3 3e
       -0.39274576 0.76469994 1.686766 0.3499168
000250 70 34 4f bf fa 0f 17 3e e3 b3 51 3c 2d ca 8d 3d
       -0.8093939 0.14752188 0.012799236 0.069233276
000260 2a 0a 0f 3f f5 47 88 bf 7d 98 89 3f ad ce f1 3d
       0.55874884 -1.064696 1.0749661 0.118069984
000270 5d e3 97 be c3 dc d8 3f 55 6c 84 3e 8c 92 b8 3e
       -0.29665652 1.6942371 0.258639 0.36049306

embeddings.hour.embedding.weight f4 [30, 16]
000000 b2 bf 42 3e a8 07 73 bf 01 82 18 3f cf d5 8a 3e
       0.19018438 -0.9493356 0.5957337 0.27116248
000010 82 a9 9d 3f 95 f5 9f bf a5 22 08 3f 92 68 eb 3d
       1.2317355 -1.2496821 0.53177863 0.114945546
000020 fa 3f 8a 3f 4e e0 16 40 43 42 80 3f 05 17 51 bf
       1.0800774 2.3574405 1.0020221 -0.8167575
000030 b0 5b cf bd f3 2d c5 bf 1a 3d 4f be c0 6b ff 3e
       -0.1012491 -1.5404648 -0.20238152 0.49886894
000040 4a 03 0f c0 48 2b 70 bf f4 fb 77 3e 4d ba 05 40
       -2.2345757 -0.9381604 0.24217206 2.089496
000050 13 80 c5 bf 29 c0 05 40 52 73 df be 51 82 ef bf
       -1.542971 2.0898535 -0.4364267 -1.8711644
000060 a2 e3 06 bf be 87 f2 bf d3 7b 8a bf 96 bc 4a bf
       -0.5269109 -1.8947675 -1.0819038 -0.7919401
000070 6e 9a 9a bf d6 53 36 bf c1 aa 9a bf 29 a3 75 bf
       -1.2078378 -0.71221673 -1.208336 -0.9595209
000080 4f 44 a5 bf cf 71 b5 be a9 98 40 c0 fc a6 ad bf
       -1.2911471 -0.35438392 -3.0093176 -1.3566585
000090 2f b5 0a 40 a2 a6 df 3f e3 da 21 bf ac 10 c1 3f
       2.1673086 1.7472727 -0.6322462 1.5083213
0000a0 cc 9b d5 be 70 59 05 bf d2 e0 62 bf e0 05 08 bf
       -0.41720426 -0.52089596 -0.886243 -0.53133965
0000b0 58 0e 6d bf 23 4a 25 bf 95 4f 90 be c9 62 f7 3f
       -0.9260001 -0.6456625 -0.28185716 1.9327022
0000c0 3d af e0 3d 54 7f af be f0 09 dd be b2 fb 17 3f
       0.10970924 -0.3427683 -0.43171644 0.5936843
0000d0 af 86 c6 bf e1 3e a3 3f 99 7f 8e bc 07 7a 5a 3e
       -1.5509852 1.2753564 -0.017394828 0.21335612
0000e0 67 ff c9 3d 03 9a c5 3e 85 13 1c bf ec 13 92 bf
       0.09863167 0.38594064 -0.60967284 -1.141233
0000f0 3c b1 91 be 03 b5 d7 3d 0c e6 c5 bd 99 6a 12 bc
       -0.28455532 0.10532572 -0.096630186 -0.008936548
000100 05 82 ee 3f b4 17 f9 bf 31 53 bb 3f fa 0c a2 3f
       1.8633429 -1.9460359 1.4634763 1.266021
000110 83 b0 9f be cc 3f 23 bf 68 2b 4f 3c 34 07 84 be
       -0.31189355 -0.6376922 0.012644626 -0.25786746
000120 d1 d8 7e 3e ec cc 56 3f 8e 4d 6b bd 93 14 0a be
       0.24887396 0.83906436 -0.05744701 -0.13484411
000130 d0 9a 94 3e cb eb 27 40 94 dc e8 3f 60 d0 34 3f
       0.29024363 2.6237667 1.8192315 0.70630455
000140 72 73 2e bf 98 ab 55 bf 56 3d 09 bd 67 17 90 bf
       -0.68144906 -0.83464956 -0.03350576 -1.1257142
000150 50 64 ef bf 6f 7e 50 3f cb 36 62 3f b2 22 29 3f
       -1.8702488 0.8144292 0.8836486 0.66068566
000160 f4 4a 56 3f 7e c7 c2 3e ab 36 08 c0 0a 5a ea 3b
       0.8370812 0.38042825 -2.1283367 0.007151847
000170 7b 54 2b bf ce 6f 0d c0 3b 54 22 bf 00 bb 39 3e
       -0.6692578 -2.209949 -0.63409775 0.18137741
000180 2c b8 ac 3d ba ac 3c 3f 17 59 55 3f fc 6d b7 bf
       0.084335655 0.7370106 0.83339065 -1.433044
000190 6b 64 b8 3d e3 e2 ad bf e8 44 08 3f ee 7c e4 be
       0.09003528 -1.3584865 0.5323014 -0.44626564
0001a0 21 b7 06 40 23 4b bd 3e ac 90 af bf 59 e2 82 bf
       2.1049273 0.36971387 -1.3716025 -1.0225326
0001b0 28 48 e4 3e 86 fb a1 bf ca 41 8f 3f 35 d5 d4 3f
       0.445863 -1.2654884 1.1191952 1.6627566
0001c0 2c c7 fe be 15 50 f2 be c5 3c 45 bf 96 3f 4a 3f
       -0.4976133 -0.47326723 -0.7704585 0.79003274
0001d0 c2 28 5f bf 14 eb 8e 3f 77 5f 9c bd e3 ef 9d bd
       -0.87171566 1.116549 -0.07635396 -0.077117704
0001e0 4d 00 49 3f de 2f 76 bf db bc 88 bf 96 e4 d4 bf
       0.78516084 -0.9616679 -1.0682634 -1.6632259
0001f0 0f b4 79 3e 28 80 50 bf 5b 8d 43 3f 7b 46 90 be
       0.24385093 -0.8144555 0.76387566 -0.28178772
000200 e5 e6 3e bf 9d 40 78 3f 15 5c 49 be 2a ab 9e 3f
       -0.7457107 0.9697359 -0.19664033 1.2395985
000210 cb 16 53 bf bc 8c 35 bf fa d3 38 3f 38 2c 12 bf
       -0.82456654 -0.7091787 0.7219845 -0.5709872
000220 df 9a 6f bf e0 b2 80 3f 1c 80 9a bf 1c ff c9 3a
       -0.9359569 1.0054588 -1.2070346 0.0015411112
000230 20 5d 6f 3e ee 53 8a bf d8 69 d1 3f 7b b9 46 3e
       0.23375368 -1.0806863 1.6360426 0.19406693
000240 21 45 85 3f 67 e0 91 3f 1d cd c3 3f 63 6d 2b 3f
       1.0411721 1.1396607 1.5296971 0.66963786
000250 ec 47 53 40 4c 13 0e bf fc 40 f5 be be 6d 02 3f
       3.3012648 -0.55498195 -0.47901142 0.50948703
000260 62 d5 03 bf f4 11 59 bf 9c 70 8b 3d 79 3a a4 bf
       -0.5149747 -0.8479302 0.06808588 -1.2830344
000270 69 95 81 bf 9d de d5 bf 20 bd c0 bf f3 50 c6 bf
       -1.0123721 -1.6708561 -1.5057716 -1.5493454
000280 2f e7 10 bf 95 49 29 bd b8 53 32 be 5c 87 66 be
       -0.5660276 -0.04132994 -0.17414749 -0.22512573
000290 ad 38 fc bd 7c f2 ed 3f 40 e1 02 3f 56 54 b8 bf
       -0.123154975 1.8589625 0.51124954 -1.4400737
0002a0 32 45 21 bf b0 f8 e6 bd 4a 04 36 bf 7b 3d 02 c0
       -0.6299621 -0.11277902 -0.71100295 -2.0350025
0002b0 73 80 90 be 67 75 1e 3f 5f 0b 01 3f a0 eb 45 3f
       -0.28223 0.6189789 0.50407976 0.7731266
0002c0 fb fe b5 3e 52 89 a4 3e 8b 67 22 3f 2f cd d2 3d
       0.35546097 0.32136017 0.63439244 0.10293042
0002d0 21 60 59 bf 6f 3a 27 bf b0 13 9d 3e fd 38 c9 bf
       -0.84912306 -0.6532354 0.30679083 -1.5720516
0002e0 0c 19 f4 bf 17 f3 fb bd cb 8d 51 bf 14 7b 81 3f
       -1.9070144 -0.12302225 -0.81856984 1.0115685
0002f0 d1 01 2e 3f e0 ba d4 3f fa be 8c bf 10 9c 8e bf
       0.6797152 1.661953 -1.0995781 -1.1141376
000300 03 8d 51 3d 28 5f 27 bf 7a 73 92 3f 06 52 a3 3d
       0.05115987 -0.6537957 1.1441491 0.07974629
000310 92 57 4a bf c7 9a 12 bd d3 e8 a3 be e0 20 9a bf
       -0.7903987 -0.03579214 -0.32013568 -1.2041283
000320 9a 2e 41 3e 05 1e 1b 3e b1 7e ad be 60 76 a8 3e
       0.18865433 0.1514817 -0.3388572 0.32902813
000330 85 40 e7 3e 5b 52 94 bf 89 9d b5 3d dd e1 df bf
       0.45166412 -1.1587633 0.08867938 -1.7490803
000340 ad 50 5b bf 9d 5b 0d 40 88 1e 20 3f 79 0e 94 bf
       -0.85669976 2.2087166 0.62546587 -1.1566917
000350 81 ff ab bf 36 8b 51 bf f6 33 8c bf cd 07 f6 be
       -1.3437349 -0.81853044 -1.0953357 -0.48052827
000360 11 b1 a4 3e b0 92 c4 bf 89 26 47 3f 90 bd 02 bf
       0.3216634 -1.5357265 0.77793175 -0.510705
000370 df ff 4d 3f 5b c6 58 3f e6 41 a6 bf e5 33 4c be
       0.80468553 0.84677666 -1.2988861 -0.19941671
000380 e1 23 58 40 89 62 7b 3f 9e 97 ae 3e 79 0c 71 3f
       3.3771899 0.9819723 0.3410005 0.94159657
000390 8d f2 ba be 85 30 46 be 7e 52 fc 3e 1c 63 e4 bf
       -0.36513177 -0.19354446 0.49281687 -1.7842746
0003a0 65 c3 d3 3f ff f0 20 c0 35 2f b9 3e f3 cc 7c 3f
       1.6544005 -2.5147092 0.3616883 0.9875023
0003b0 ec cd 01 bf d2 12 81 3f 65 32 11 3f d2 f6 0b be
       -0.50704837 1.0083869 0.5671752 -0.13668373
0003c0 b9 99 bb bf f0 67 c9 3c a3 25 8e 3f 9b 19 6c bf
       -1.4656287 0.024585694 1.1105236 -0.9222657
0003d0 b7 ad bf 3f a3 c1 9f be f6 9d c3 be 92 a8 8c bf
       1.4974889 -0.3120242 -0.38206452 -1.0988944
0003e0 af 39 00 bf 62 45 b5 3f 88 4b 82 bf d1 4e c7 bd
       -0.5008802 1.4161799 -1.01793 -0.0973183
0003f0 56 77 0b 3e fc 74 fd 3f e6 52 12 be f2 92 e2 be
       0.13619742 1.9801326 -0.14289436 -0.44252735

dense_proj.weight f4 [64, 113]
000000 f5 3e 14 bd 88 bc bf 3d a0 ad 9a 3d ca 1a 84 3d
       -0.036192853 0.09362131 0.075526476 0.06450422
000010 9a 9f 58 3c ff e8 c7 3d 6a dc 1f 3d 14 2c 43 3c
       0.013221646 0.09761237 0.039028563 0.0119123645
000020 c1 72 fa 3c d7 51 2d 3d 29 53 d3 3d 4c ba 38 bd
       0.030572297 0.042314377 0.10318596 -0.04509954
000030 9a a7 e5 3d d9 f4 db 3a 47 82 99 3c 44 f7 c0 3c
       0.11213608 0.0016781344 0.018738879 0.023555405
000040 4b 03 91 3c ef 09 a7 bc 28 1c 6f 3d 68 ac a5 bb
       0.017701766 -0.020390479 0.05837646 -0.005055953
000050 ef 62 31 bd 67 cb 23 bd 10 16 0e bd f0 af a9 bc
       -0.04330724 -0.0399889 -0.03468901 -0.020713776
000060 ea 71 88 3d 0c 7a 42 3d 0b 07 45 bd 6f 31 5e bc
       0.066623524 0.047479674 -0.04810242 -0.013561591
000070 0d 66 2c bc ab ba 5b 3d b1 02 7f bd f2 49 8e bd
       -0.010522378 0.053644817 -0.062258426 -0.06947698
000080 da 7f 13 be 32 09 75 3d 3a 98 2f bd 56 b6 75 bd
       -0.1440424 0.059823222 -0.042869784 -0.059988342
000090 e2 df d1 bd 2c 0d 84 3d f8 b2 b0 3c 28 05 5b bd
       -0.102477804 0.06447825 0.021569714 -0.053471714
0000a0 38 c0 58 bb bc 42 95 3d f6 a4 a2 3b fc 2d 49 bc
       -0.0033073556 0.07288119 0.0049635125 -0.01227903
0000b0 0d 50 59 3d 5c e2 93 3c 04 67 52 3d c3 5e 14 bd
       0.053054858 0.018052272 0.051367775 -0.036223184
0000c0 f9 27 29 bc c1 96 94 3d 9f 99 b6 bd f1 f1 54 bd
       -0.010324472 0.072553165 -0.0891602 -0.051988546
0000d0 6d 3f b9 3d 44 09 92 3d 18 c2 b7 3d 5d df bb bc
       0.09045301 0.071306735 0.08972567 -0.022933656
0000e0 b5 ce a8 bd aa 59 3f 3d 99 be 6e 3c 07 b4 19 bd
       -0.08242551 0.04671637 0.014571809 -0.037525203
0000f0 fb e0 06 3e ab a3 8f 3c c7 7e d1 3d 08 ae c9 3c
       0.1317176 0.017534098 0.10229259 0.024619117
000100 27 b6 94 3b 90 8a c3 bc 31 71 3d bd ea 3e 8e bd
       0.004538316 -0.023869783 -0.046250526 -0.06945594
000110 83 ec 4f bc 74 d6 06 bb 01 ad 94 3d d9 10 8d bc
       -0.012690666 -0.0020574601 0.072595604 -0.017219948
000120 70 36 85 bd 8d 6b ef 3d c6 da 0c 3d fa 85 f5 bb
       -0.06504524 0.116904356 0.034388326 -0.007492778
000130 90 31 85 be 72 cc d3 3d 87 37 21 be 57 5f 2b bd
       -0.26014376 0.10341729 -0.15743838 -0.04183897
000140 d9 9a 3e 3e 71 e8 7c 3d 4c 41 a9 bc 74 59 06 3d
       0.18613757 0.06174511 -0.020661019 0.032800153
000150 c2 d5 0f be b7 73 07 bd db ea f1 bd 3a cf 15 be
       -0.14046386 -0.03306934 -0.11812373 -0.14629832
000160 03 4a 3b bd ee ed 24 bd f9 fa 42 3d e4 76 6e bd
       -0.04572488 -0.04026597 0.047602627 -0.05821885
000170 22 22 71 bc 24 fc 6f 3b 68 70 06 3b c7 d7 1e bd
       -0.014717611 0.0036618793 0.0020513777 -0.03878
000180 9c 7b 6a bd 81 ca ac bd e0 f3 81 3c 17 ff 66 bd
       -0.05724679 -0.08437062 0.015863359 -0.056395616
000190 5c 88 c5 bd 57 d8 7a bd d9 d3 d1 3a 38 7f 14 bd
       -0.09645149 -0.061241474 0.001600857 -0.036254138
0001a0 58 36 bb bd 8a ff d1 bd a6 e6 47 bd 31 77 20 bd
       -0.091412246 -0.10253818 -0.048803948 -0.03917617
0001b0 33 ad c7 bd d1 4a c5 3c f6 9c 9c bd d6 10 99 bc
       -0.09749832 0.024083527 -0.076471254 -0.018684786
0001c0 42 eb e3 ba 81 65 bc 3d de ec 02 3e 6f 98 79 3d
       -0.0017388838 0.09199048 0.1278567 0.060936388
0001d0 ef 72 2d bc 65 e9 92 3c ae 24 d3 3d bd 04 88 3d
       -0.010586484 0.017933557 0.103097305 0.06641529
0001e0 2c 05 8c bc dc 45 20 bc 42 6c 34 3d 8a 34 d0 3d
       -0.01709231 -0.009782281 0.044048555 0.10166271
0001f0 b4 bf e1 3b 80 f8 a5 bd 2d 1c 42 bd 54 a4 43 3d
       0.006889308 -0.08104038 -0.04739015 0.047764137
000200 1a 92 46 bd 32 8a c7 3d e2 82 26 bd 8b a3 77 bc
       -0.048479177 0.097431555 -0.040652163 -0.015114675
000210 6e b4 a2 bc d3 9b 31 bc 75 56 02 3c fb e8 3b bd
       -0.019861426 -0.010840374 0.007955183 -0.045876484
000220 52 d1 e1 3d 53 21 54 3d d1 23 14 3d 36 1c 6f 3d
       0.11026253 0.051789593 0.03616697 0.058376513
000230 f8 ea 5b bd 5d 39 f0 3c 85 dd e0 bd 51 4b c2 bc
       -0.05369088 0.029324228 -0.109797515 -0.023717554
000240 70 a3 18 3d 0d 9a b0 bd 63 cc 13 3c 35 a9 61 3c
       0.03726524 -0.08623133 0.009020898 0.013773252
000250 48 1d d6 3b d2 bb 08 3d 6a 4a 63 bd 53 f7 c6 3b
       0.0065342523 0.033382244 -0.05549089 0.006071964
000260 24 91 18 3d e6 74 e4 3d f8 65 30 3d 12 89 b1 bd
       0.037247792 0.11155109 0.043065995 -0.08668722
000270 3c fb ca bd a0 17 f3 3c da 6e 09 3d dd 7d 37 3d
       -0.099112004 0.029674351 0.033552982 0.044797767
000280 1f ef ea 3c b2 8c ce 3d 18 ff 23 3d 8e 72 18 3e
       0.028678475 0.10085429 0.0400382 0.14887449
000290 2f dc 25 3d 56 9a 7c bc 1e a2 36 bd 0b 4b 5b ba
       0.040493187 -0.015417656 -0.0445882 -0.0008365369
0002a0 a0 f7 c9 3d 62 86 0a be dc a3 b3 3b d6 5c 9e bd
       0.09861684 -0.13527825 0.00548218 -0.07732551
0002b0 d2 5f 97 bd 2d 14 cd 3b da 5f cf 3d bc c2 9f 3d
       -0.07391323 0.0062585087 0.10125704 0.078008145
0002c0 18 77 ba bc 03 b4 a5 3c 48 da a8 3d 69 4e 4a 3d
       -0.022761866 0.020227438 0.08244759 0.049391184
0002d0 fa 6b 75 3d 77 5a 7b 3d 1f bf dd 3d dc 61 58 3d
       0.059917428 0.06136557 0.10827469 0.0528277
0002e0 39 34 11 3e f1 c2 af 3d 56 16 1c bb ea 1b 5d bd
       0.14180078 0.08582104 -0.0023817024 -0.0539817
0002f0 6c be ab 3d 93 8b ba 3b 0e 57 10 be 3c 9a 44 3d
       0.083859295 0.005692908 -0.14095709 0.04799865
000300 4a a7 ee bd a2 69 7b bb 8b 92 e1 bd bc 07 eb bd
       -0.116530016 -0.0038362523 -0.11014279 -0.114760846
000310 d7 fe 7d 3d 54 85 93 3d 9f a6 c3 3d 09 8f 08 3e
       0.062010612 0.07203165 0.09553265 0.13335814
000320 c1 75 22 3d 9a 96 81 3c 0d 8c a2 3d 05 ca ab 3d
       0.03966308 0.015818883 0.07936869 0.083881415
000330 64 81 c3 bc 80 ac 59 3d d0 83 2c bd da 56 e7 3d
       -0.02386541 0.053143024 -0.042117894 0.112958625
000340 53 67 ac bc ff c8 2e bc a7 0e 09 3e 45 3e ac 3d
       -0.021045363 -0.010668038 0.13384496 0.084103145
000350 28 5d 45 3d 32 4c bf 3c 3c be 00 3d 01 15 25 3d
       0.048184544 0.023351762 0.03143142 0.040303234
000360 75 d8 98 bb 94 8e 0f 3d bf 58 0a 3d 80 1f a5 3d
       -0.0046644756 0.035048082 0.03377604 0.08062649
000370 45 f3 af 3d 7c cb b6 bc b1 f4 c3 3d fe 76 2d 3d
       0.08591322 -0.022313826 0.095681556 0.042349808
000380 11 c4 dc 3d 9b c0 85 3d e6 3d 70 3d 11 10 b9 3c
       0.10779584 0.06530877 0.05865278 0.022590669
000390 58 9c 17 3d 8d f8 9c 3b 16 11 c1 3d 3e cb c7 3d
       0.037014335 0.0047903717 0.09427087 0.09755562
0003a0 ff 95 bb 3d ad 1a 20 3e ea cf 5f 3d 8b 5b fa 3d
       0.09159469 0.15635176 0.05464164 0.12224492
0003b0 d0 87 49 3d cd 18 fa 3d d8 a4 2b 3d 80 c6 00 3e
       0.049201787 0.122117616 0.041905254 0.12575722
0003c0 7e 9a a9 3c 69 a6 22 3c ef 2e 12 3d d9 c4 63 3d
       0.02070355 0.009927371 0.03568929 0.05560765
0003d0 f1 bb b0 3d a4 d7 f6 3d c7 a7 0a 3d 3f f3 23 3e
       0.08629597 0.12052849 0.03385141 0.1601076
0003e0 98 60 15 3e 2b 3e d7 3d ad 2c fc 3d c5 83 81 3d
       0.14587629 0.105099045 0.12313209 0.06323961
0003f0 f4 ea cf 3d 7b f1 cf 3d 6f 72 7d 3c 03 9d b9 bd
       0.101522356 0.101534806 0.015469178 -0.09063151

dense_proj.bias f4 [64]
000000 3d 44 3d bd dd 4d fb 3d 68 e1 73 3d 16 aa b2 3d
       -0.046207655 0.122707106 0.059541136 0.087238476
000010 32 2f 93 bd 7b 62 a0 3d 59 e8 86 3d 9f ab 8a 3d
       -0.07186736 0.07831284 0.065872855 0.067710154
000020 12 13 ac bd e1 25 a7 bd 48 92 c7 3d fa fa eb 3c
       -0.08402075 -0.08161522 0.09744698 0.028806198
000030 6d d5 cc 3d 97 5a 75 bd 50 72 7c bc bf 3f 53 3d
       0.10001645 -0.059900846 -0.015408114 0.051574465
000040 ca 96 9d 3d cf 06 7b 3a 6c fe 9f bc 0d 00 22 be
       0.07694776 0.00095759047 -0.019530497 -0.15820332
000050 5b 81 96 3d d4 34 62 bd 1c 71 b7 3c c9 d1 33 3d
       0.07348891 -0.055226162 0.022392802 0.04390124
000060 e5 28 94 bd 36 25 93 bc 6c 3c 85 3d 72 2a 8a bb
       -0.072343625 -0.01796208 0.06505665 -0.0042164857
000070 d6 4a 9b bd 24 f2 c2 bd 86 30 46 3c 5e 06 83 bd
       -0.07582633 -0.09518841 0.01209653 -0.06397699
000080 5c f9 03 3e f5 9e 8d 3d 4d 3a dd 3c f5 92 aa bc
       0.12888092 0.06915084 0.027005339 -0.020822028
000090 fc 99 a5 3c 08 e9 22 3d ea b1 e5 3b e0 25 de 3c
       0.020215027 0.039773017 0.0070097344 0.02711767
0000a0 60 e9 bf 3c 4a a5 01 be 3a 02 0a 3e 8b 4b 53 bd
       0.023426712 -0.12660709 0.13477412 -0.051585715
0000b0 60 c1 6a 3b 5c 3f 8b bd 5e 77 54 bd c5 09 c2 3a
       0.0035820827 -0.06799194 -0.05187165 0.0014803937
0000c0 4e 6c bd bd 95 df ea 3d 9c c9 f0 bd d0 e3 4c bb
       -0.09249173 0.11468426 -0.11757204 -0.0031263717
0000d0 7a 6f c1 3d 76 14 97 3d ef 6f c2 bb 2a ad 50 bd
       0.094450906 0.073769495 -0.0059337537 -0.050946392
0000e0 65 1b 94 3c a2 6c 1c bd 58 35 9c 3c 83 1c f4 3d
       0.018079469 -0.038189538 0.019068405 0.11919501
0000f0 1c 92 a7 bd a2 8b a1 bd d0 19 57 bd 21 74 73 3c
       -0.08182165 -0.07887961 -0.05251485 0.01485923

shared_mlp.0.weight f4 [128, 144]
000000 d3 63 7c 3a 33 86 5c 3c 41 6f cb 3c aa 5a 84 3b
       0.0009627912 0.01345973 0.024833323 0.0040391283
000010 78 23 58 3d 20 7f a1 3c 8c 5f 98 bd fc d6 f8 3d
       0.0527682 0.019713938 -0.07440099 0.1215038
000020 dc 30 1a 3d d2 8e c5 bc 71 c6 32 3d 62 4b c5 bd
       0.037644252 -0.024115954 0.04364628 -0.09633519
000030 c3 db 10 3d 9d b8 42 bd 92 86 de bd 26 3b b6 3d
       0.03536583 -0.047539342 -0.10865511 0.088980004
000040 05 81 5a 3d 7d 07 f8 bc a3 fa d4 bc 26 9d 4b 3c
       0.0533457 -0.030277008 -0.02599842 0.012427604
000050 99 c7 37 bd 4c aa cc 3c 06 d8 29 bd b8 8d 1a 3d
       -0.044868086 0.024983548 -0.04146578 0.03773281
000060 d9 15 6b bd 8b 82 bb 3d ea ec 2c bd 80 c8 a7 bd
       -0.057393882 0.091557585 -0.042218126 -0.08192539
000070 b3 c7 f2 3c ec 06 10 bd 32 49 e8 3c 92 12 12 3b
       0.02963624 -0.03516285 0.028355215 0.00222889
000080 82 f8 16 bd 3b 66 c8 bc fa c0 d4 bd e2 60 d2 3b
       -0.03685809 -0.02446281 -0.1038837 0.0064202407
000090 c0 9e da bd 58 9e c9 bc d7 95 a6 3b 1e cb 82 bd
       -0.106748104 -0.024611637 0.0050837803 -0.06386398
0000a0 ab fd 24 3c 29 bc 23 3d 40 41 b2 3c 61 47 60 bd
       0.010070245 0.039974365 0.02175963 -0.054755572
0000b0 5f 6f 10 3e 8f ba 34 bd d8 4d 86 bd c1 84 f5 3a
       0.14104985 -0.04412323 -0.06557816 0.001873158
0000c0 8d f3 15 3d 17 9a 43 bb 41 90 62 bd 47 f1 81 3d
       0.03660922 -0.0029846483 -0.055313352 0.06344848
0000d0 07 d0 26 bc 1d 58 f1 bd f5 88 89 bd 14 4b 69 bd
       -0.0101814335 -0.117843844 -0.067155756 -0.056956366
0000e0 0f 73 ad bd a3 9c ed bc ef 94 e1 3a 21 98 84 3d
       -0.08469211 -0.029005354 0.0017210523 0.06474329
0000f0 17 0d f9 3b 77 9c fc bc d7 32 d4 3d 71 a2 01 bd
       0.0076004374 -0.030836327 0.103612594 -0.031649057
000100 bd 83 94 bd f9 a6 4f 3b 17 d4 d7 bd 3d e3 91 3d
       -0.072516896 0.0031685217 -0.105385 0.071234204
000110 62 a5 f2 bb 9f be 73 3c 91 f8 b9 bc ce 86 8f bd
       -0.007404969 0.014876991 -0.022701534 -0.07008134
000120 db 35 a8 3d a1 fe 10 bd 91 e5 40 bd 60 23 17 3e
       0.08213397 -0.035399083 -0.04709393 0.14759588
000130 da ec be 3d 9e 06 f3 3c 56 85 ce 3d 8d 14 a6 3d
       0.093225196 0.029666241 0.100840256 0.081093885
000140 73 33 89 3d f7 24 3d bd ac ed 8c bd b4 d1 3c bd
       0.06699266 -0.04617783 -0.0688127 -0.046098426
000150 97 73 b1 3d 1b 9c b2 bb 23 05 90 3d 19 58 c4 bd
       0.08664625 -0.005450738 0.0703223 -0.09587116
000160 08 42 52 3c 5d 42 63 3d 86 c0 b3 bd bf b4 28 bd
       0.012833126 0.05548321 -0.08776955 -0.041187998
000170 8b 6d 38 3d 96 99 fb bc ea e4 eb 3b ca 75 81 bd
       0.045026343 -0.030712884 0.0071989195 -0.063212946
000180 45 05 38 bd 53 40 af 3d ab 64 84 3d 28 b7 62 3d
       -0.0449269 0.08557191 0.064645134 0.055350453
000190 ff e1 af bd e6 68 a6 3d 5e 1a d3 bd e1 ee 41 3d
       -0.08588027 0.081254765 -0.103077635 0.047346953
0001a0 92 c9 91 3d 05 1e b3 bc 73 4c 74 3d 5f e8 98 3d
       0.071185246 -0.0218649 0.05964322 0.07466196
0001b0 ba fb 3c bd c3 38 89 3d 7d 7a b3 bc cc 1e b8 bd
       -0.046138503 0.067002796 -0.021908993 -0.08990249
0001c0 15 d8 96 39 47 33 6b 3c 17 e8 05 bd c3 c5 ab bc
       0.00028771223 0.014355487 -0.03269204 -0.020968324
0001d0 01 f4 80 bd 7c b6 6f 3d 61 06 4e bd 33 3b 38 3a
       -0.0629654 0.05852364 -0.050299052 0.00070278643
0001e0 9c 17 1d 3d 9b c9 40 bd 38 97 c6 bd c3 db ef 3b
       0.038352594 -0.047067266 -0.096968114 0.007319899
0001f0 64 7b 2a 3d a4 8c 4d 3c b3 12 33 3d 8d b8 cd 3c
       0.04162158 0.012545738 0.043719005 0.025112415
000200 d9 32 37 bc 41 26 8c bd 21 82 0b bc 41 ad 63 3d
       -0.011181557 -0.06843234 -0.008514912 0.05558515
000210 ed 7b b5 bd 1e fa 11 bc 66 10 0a bd 78 16 56 3d
       -0.088615276 -0.00890973 -0.033707045 0.05226752
000220 27 fe 87 3d 57 75 62 bd 3c 70 a3 3d df ee 5d bd
       0.066402726 -0.055287685 0.079803914 -0.054182883
000230 f0 c3 b6 3c 44 9e 3a 3c 1e 23 95 3b d4 e8 70 bd
       0.022310227 0.0113902725 0.0045513054 -0.058815792
000240 73 9e 81 bb c0 ca 12 3d bd 43 2d bc 7a 35 d3 bc
       -0.003955656 0.03583789 -0.010575232 -0.025782336
000250 5a 82 94 3d 6f a0 92 bd 09 41 80 bd 19 cb 41 3d
       0.07251425 -0.071595065 -0.062624045 0.04731283
000260 40 c1 0f bd 98 c2 93 bd b1 0c 3b 3d 4d 08 6b bd
       -0.035096407 -0.0721485 0.0456664 -0.057380963
000270 a1 ad 6d bd 2b 31 a3 bd a0 06 cf 3c 72 94 de bb
       -0.058026914 -0.079683624 0.025271714 -0.0067925984
000280 1a 4f b5 bc 75 c1 8a 3d f8 8b 62 3d a8 e6 80 bc
       -0.022132445 0.0677518 0.055309266 -0.015734985
000290 10 4a e7 bc 16 f6 e8 bc 27 fa 90 bd f8 c0 50 3d
       -0.028233558 -0.028437655 -0.07078963 0.05096528
0002a0 a0 a9 83 3d 18 bf 97 bd de 62 f3 3a 0b ae 44 3a
       0.06428838 -0.07409495 0.0018568893 0.0007502741
0002b0 2c 9a cf bd 1c a0 a7 bd 2a bb 93 bd 1f 04 f3 3d
       -0.10136828 -0.08184835 -0.07213433 0.118660204
0002c0 c2 0e 8c bd 54 4a 80 bc 18 56 d3 3c e1 26 8e bb
       -0.06838752 -0.015660442 0.025797889 -0.004338131
0002d0 ff 4f 57 bd 67 7c 17 bd 15 63 fe 3c c4 15 59 bd
       -0.052566525 -0.036983874 0.031053105 -0.052999273
0002e0 eb ef 8e 3c 4a 3e 84 bd cb 25 1c bd 07 cd a7 bd
       0.017448386 -0.06457193 -0.03812198 -0.08193403
0002f0 2a 10 9f 3d a6 a5 89 3c 2a 58 d9 3c 61 d7 50 3b
       0.07766755 0.01680262 0.026531298 0.0031866657
000300 d1 7b 7f 3c 2d d6 82 bd f2 b8 9a 3c 3b 05 b2 3b
       0.015593485 -0.06388507 0.018887017 0.0054327524
000310 30 ad ed 3c e0 5b 63 bb c6 e9 4e bd ca ef 88 3a
       0.029013246 -0.0034692213 -0.050515912 0.0010447439
000320 8e 51 ee bc 64 6b 9c bd 2e 60 38 bd d4 d2 63 bd
       -0.029091623 -0.07637671 -0.0450136 -0.055620983
000330 87 b3 99 bc de ee 54 bb 01 fa 3c bc 9e 66 91 3d
       -0.018762363 -0.0032491009 -0.011534215 0.07099651
000340 7b 58 a0 bd 02 fb 49 3d 7f 2f 3f 3b 8f 0c d4 bc
       -0.07829376 0.049311645 0.0029172597 -0.025884895
000350 b3 85 ad bc 1f 36 8f bd 48 18 92 3d 16 89 92 bd
       -0.021181917 -0.06992745 0.071335375 -0.07155053
000360 a6 9d 6e bd 17 80 15 bd d4 0c 49 bd db 9f 1d 3d
       -0.058255814 -0.03649911 -0.0490845 0.03848253
000370 41 1f 3d 3d 22 f2 f2 bd 01 72 d3 bc 63 b7 46 3d
       0.046172384 -0.118625894 -0.025811197 0.048514735
000380 89 c9 29 3c f5 6d 8b bd 4a c3 d0 3b aa 1b f9 3c
       0.010362991 -0.06808082 0.0063709365 0.030408699
000390 c5 e0 8c 3d b3 71 42 3d f2 7a 99 bb ea 02 68 bd
       0.06878809 0.047471713 -0.0046838457 -0.056643404
0003a0 9a 85 04 3d f6 1c 19 3d 49 68 72 bd b9 ca 5e 3d
       0.032353975 0.037381135 -0.059181485 0.05439255
0003b0 aa 7d a5 bd 3f 71 17 3d 15 c7 0e bd 94 93 1c bd
       -0.08080609 0.036973234 -0.03485783 -0.03822668
0003c0 35 d8 6d 3c de 0b 3b 3c 3d 9f 66 3c 03 b7 be 3d
       0.01451688 0.011416404 0.014076051 0.093122505
0003d0 52 f0 a8 3d 1b 91 94 3d 76 4b 93 bd d7 38 03 3c
       0.082489625 0.07254239 -0.071921274 0.008009157
0003e0 27 9e c7 3d 40 fe a3 bc 80 b7 f9 bc 49 c6 9f bc
       0.09746962 -0.020018697 -0.030483007 -0.01950373
0003f0 2e ec 33 bd 3f fe b7 bc b0 e7 bf 3c a9 11 94 bd
       -0.04392641 -0.022460101 0.023425907 -0.07229931

shared_mlp.0.bias f4 [128]
000000 ad a1 b4 bd 69 93 f1 bc 6b de da bc 6d 1c a3 bd
       -0.088199 -0.029489236 -0.026717385 -0.07964406
000010 7a 48 0e bd 0c 02 27 3d 7b 3c 90 bd 5f 85 fa bd
       -0.034737088 0.040773436 -0.07042786 -0.1223247
000020 1b d2 10 3c fe 58 0f bd e6 b2 b6 3e ed e6 ba bd
       0.008839156 -0.03499698 0.35683364 -0.09126077
000030 54 3d 8b 3d 9b 26 5a be 9e 59 79 be fe 96 d0 3c
       0.06798807 -0.2130379 -0.24350592 0.025462624
000040 10 18 2d bd 8d e7 db bc fc 3e 7d bd 9a a1 f6 bb
       -0.042259276 -0.02684381 -0.061827645 -0.0075265886
000050 f2 2c 7c bc 59 50 07 bd af ff 3c bd b3 f2 e5 3a
       -0.015391575 -0.03303561 -0.046142276 0.0017543643
000060 91 76 86 bd 11 45 27 be 18 85 b2 bd 66 7c 86 3a
       -0.065655835 -0.1633494 -0.08716792 0.0010260462
000070 5f bb 33 bd fa cf f7 bd d2 d5 1c 3d 25 b9 17 3b
       -0.043879863 -0.12100215 0.038289852 0.0023151126
000080 7b f3 ce bd ae d0 c1 3b 82 6c ef bd 5c 31 fc bd
       -0.10105034 0.005914769 -0.11690618 -0.12314102
000090 be aa d8 bd 47 36 0c bd 43 57 9a bd b6 e1 5f 3e
       -0.105794415 -0.03423145 -0.07536175 0.21863446
0000a0 f6 d5 05 3d e7 2d db 39 b4 3f 01 3d 7a 38 cb bb
       0.032674752 0.00041805135 0.031554893 -0.006201801
0000b0 79 74 ed ba 8b 25 6d 3d 6d 71 03 be a7 a4 55 bd
       -0.0018116377 0.057897132 -0.12836237 -0.052158978
0000c0 26 8a cf 3c 15 f3 8e bd d1 60 8e bd 82 25 b7 bd
       0.025334429 -0.06979958 -0.0695206 -0.08942701
0000d0 ed dd 7b 3d 83 87 a7 bd 66 7e d7 bd d8 4c 30 3d
       0.06149094 -0.08180144 -0.105221555 0.043042034
0000e0 93 bf d3 bd f3 fa af bd 13 1f ee bd b8 f8 bc bc
       -0.10339274 -0.08592787 -0.11627021 -0.023067817
0000f0 8f d3 62 3c 61 65 b4 bd fc ec ca bc 3e 1e 75 bd
       0.013844385 -0.08808399 -0.024771206 -0.059843294
000100 19 c8 57 3d 1e 27 9f bd c2 f6 a2 bd 37 fa f5 bd
       0.052681062 -0.07771133 -0.079572216 -0.12010615
000110 a8 4c 06 bd 03 71 ea 39 54 ae 80 bd 69 47 62 bc
       -0.03278795 0.00044716158 -0.062832505 -0.013810971
000120 87 c1 16 be 3d 97 be bd b6 e0 02 be 58 fe 5e bc
       -0.14722262 -0.0930619 -0.12781033 -0.013610445
000130 3c 3e 2e 3d 40 aa 67 be c5 e6 1e be 7c eb 6d 3c
       0.04253982 -0.22623539 -0.15517719 0.014521476
000140 be 15 38 3d 2d 00 be bd e4 32 63 bb b9 0a 46 3d
       0.04494261 -0.09277377 -0.0034667784 0.04835007
000150 cd d8 9e 3d f6 41 98 3c 15 22 d9 bc 2a e8 f3 bc
       0.07756195 0.01858614 -0.02650551 -0.02977379
000160 9d b6 4a 3d fb e2 63 3d 9b 7d 1b 3c ec fa 9f 3d
       0.04949056 0.055636387 0.009490396 0.078115314
000170 71 2e 3e 3d da 1e 8b bd 81 26 ba bd 9b 29 92 bc
       0.04643101 -0.06792994 -0.09089375 -0.017842105
000180 e2 b3 b1 b9 6c 7d 91 bc 73 98 3e bd ac 1d db bd
       -0.00033894094 -0.017760001 -0.046532106 -0.10699019
000190 6f 35 dc bc 5c 92 12 3d 2b be 24 bd 1d fc 50 3d
       -0.026880948 0.03578411 -0.04022042 0.051021684
0001a0 a3 61 ef bc 94 18 6d bd 4d 8f 40 bc e6 d0 ae bc
       -0.029221362 -0.057884768 -0.011752916 -0.021339845
0001b0 96 40 2e bd 6e 7b cd bd 76 c9 93 bc 38 83 d8 bc
       -0.042542063 -0.10033308 -0.0180404 -0.026429757
0001c0 e4 06 c7 bc 0f 94 41 3e 89 c2 ba bd a8 92 51 bc
       -0.024295278 0.18904136 -0.09119136 -0.012791313
0001d0 91 d4 6f bd 81 89 e1 3c 92 fd 10 3d 71 17 b3 bc
       -0.05855233 0.027531387 0.035398073 -0.021861764
0001e0 10 64 e3 bd 93 33 8d bc a0 a5 5f 3d 0b 70 58 bd
       -0.1110307 -0.017236507 0.05460131 -0.052841228
0001f0 e7 85 b7 bd 42 78 68 bc 95 1f ed bb d2 03 8a bd
       -0.08961087 -0.014188828 -0.007236431 -0.0673901
