experiments/exp_20251005_015408/models/checkpoint_epoch1_auc0.7227_logloss0.0888.pth (torch, 137410 bytes, 12 tensors)

_orig_mod.embeddings.gender.embedding.weight f4 [5, 8]
00000000: 749e debb ac38 ff3c 22b0 763c 5259 a2bc
00000010: 156c 3cbc 9691 d83c 9909 06bd fd52 d23c
00000020: bb62 56bf d5d7 333f b8fc 733f 0628 e8be
00000030: d1cd 4dbe 1cef 1c3f 4635 9cbe 397e b43c
00000040: 816c 30be e237 603f 3e1b ed3d f764 1cbf
00000050: 594c 27be 17c6 3f3f 6bd2 3fbf 48bb 153f
00000060: 7cc3 0500 f366 0500 dd78 0500 709a a9a9
00000070: 2c65 0500 8169 0500 d363 0580 2439 2db1
00000080: 19a6 4304 4866 0500 9052 da0b 4c5f 988e
00000090: 2ea0 0500 7dfa 03b0 e328 9b1e 312f cfac
-0.0067937914 0.031154953 0.015056642 -0.019817982 -0.011500378 0.026436608 -0.032723997 0.025674338
-0.837444 0.7025121 0.95307493 -0.45343035 -0.20098044 0.6130235 -0.30509394 0.022032844
-0.17228891 0.8758527 0.11577462 -0.6109156 -0.16337718 0.74911636 -0.7493045 0.58488894
5.29304e-40 4.96109e-40 5.02535e-40 -7.531898e-14 4.95471e-40 4.97025e-40 -4.94988e-40 -2.5207294e-09
2.2998408e-36 4.95869e-40 8.409477e-32 -3.756266e-30 5.16639e-40 -4.801349e-10 1.6428174e-20 -5.888533e-12

_orig_mod.embeddings.age_group.embedding.weight f4 [15, 8]
00000000: c55f db3c 2d4d 6abc 617d 99bc a808 2e3c
00000010: 2627 4bbc d9fd 3ebb 84e5 593c ede4 663c
00000020: 9faf 0dbe 5de9 983d 3678 ba3d 8cf6 e4bc
00000030: bfb0 b6bd 9001 743d 7af3 4dbd 648c f2bd
00000040: 51e8 ef3e 636f 30bf 17ee af3e ea3d 333e
00000050: 04ec 063f af56 2abf 5785 b43e c8c2 5b3e
00000060: 7df8 1a3f c9b0 eabe 3484 bfbc 3e26 cf3d
00000070: c735 eb3e 8bd5 d2be 8bf0 e03e 7364 0a3f
00000080: ecfa 053f e14f 6fbe beb8 5abf 4d9e 703e
00000090: 3737 fa3e 1db6 afbd 700d 8e3e ef55 983d
000000a0: f572 c93e 1c0e 023e e275 98bf b791 883e
000000b0: e02e 563e bdc3 c53e 4191 373e 6baf 3f3f
000000c0: f207 dc3f e59f 733e 995e a9bf 10e6 313f
000000d0: 6355 a4bd ceb7 24bf 3a3f bc3e 1ecc 96bf
000000e0: 8531 ae3e 85d4 04bf e3af 8abf 1c4c dcbe
000000f0: 9249 89bf cd8b 063f a631 20be da67 9d3f
00000100: d78e 573f 46ba 7ebf c8ac c13e 0a19 023e
00000110: 7eca f9be 7307 23bf e45e 06bf 0dc8 0abe
00000120: 6aac 0580 55b1 0580 ee24 3b88 0564 0500
00000130: 4a02 a0ae cc1a cf07 084c 0b8c 9581 9e2a
00000140: 5598 d3b2 993e 4c0a 25e1 dd33 201e acac
00000150: d460 0580 9980 0500 5963 0500 973a c2b6
00000160: 69bf 962e 99d1 8436 9145 0eb6 c98f 0500
00000170: 7fa1 0500 80b9 0500 001d c7b0 c8bb 3db5
00000180: 3986 6d03 fcb2 abb2 34b3 e630 255a 0580
00000190: e4dd 6380 fb1f ad39 9392 12ab 93be e20b
000001a0: 0a22 9438 54e1 1817 5346 bd27 c637 0600
000001b0: dff1 0580 8664 822a a465 0580 bc64 0580
000001c0: 71c4 f731 dbc7 51a3 e369 0580 dafa 89aa
000001d0: b090 0500 bd5c 0580 3cc8 b2ae 3109 1038
0.026779065 -0.014300627 -0.018736543 0.010622181 -0.01239947 -0.0029143004 0.01329935 0.014092666
-0.13836525 0.074663855 0.0910496 -0.027949594 -0.089204304 0.059571803 -0.050281025 -0.11843184
0.4685693 -0.6891996 0.34361336 0.17504087 0.5270388 -0.6653852 0.3525798 0.21461022
0.60535413 -0.45838 -0.023378469 0.10114716 0.45939466 -0.41178545 0.4393352 0.54059523
0.52336 -0.23370315 -0.85438144 0.23497887 0.4887025 -0.08579657 0.27744627 0.074382655
0.39345518 0.12700695 -1.1910975 0.26673672 0.20916319 0.386259 0.17926504 0.7487704
1.7189925 0.23791464 -1.3231994 0.6949167 -0.08024099 -0.64342964 0.36766988 -1.1781042
0.34022155 -0.5188678 -1.0834926 -0.43026817 -1.0725577 0.5255707 -0.1564394 1.2297318
0.8420233 -0.9950298 0.37827134 0.12704864 -0.48787302 -0.6368324 -0.5248854 -0.13552876
-5.21028e-40 -5.22792e-40 -5.6316676e-34 4.95058e-40 -7.276364e-11 3.1161648e-34 -1.073105e-31 2.8156354e-13
-2.4632905e-08 9.834016e-33 1.0332068e-07 -4.8918786e-12 -4.93913e-40 5.0531e-40 4.94817e-40 -5.7884713e-06
6.8552115e-11 3.958307e-06 -2.1200142e-06 5.10758e-40 5.17111e-40 5.25722e-40 -1.4487398e-09 -7.0681244e-07
6.980212e-37 -1.9988413e-08 1.6785635e-09 -4.91515e-40 -9.171313e-39 0.0003302096 -5.207303e-13 8.733878e-32
7.06353e-05 4.9398253e-25 5.2534284e-15 5.71021e-40 -5.45944e-40 2.316239e-13 -4.95639e-40 -4.95314e-40
7.210979e-09 -1.1372234e-17 -4.97162e-40 -2.4510152e-13 5.11082e-40 -4.92446e-40 -8.1300716e-11 3.4340836e-05

_orig_mod.embeddings.inventory_id.embedding.weight f4 [50, 16]
00000000: b7ee a13e 6f8a 1b3e ce54 53be 2348 40bf
00000010: 0571 ef3e 82d0 f5bd 6dfc cc3e 478c 493f
00000020: 54b8 8b3d 456b 91bd 00a0 7ebe ad34 27be
00000030: 5521 c83c d875 2bbc 2f64 123d 90e5 06bd
00000040: eb3c 1ebc 2926 b83d 6006 cbbd 2969 a1be
00000050: ccc9 183e 15e1 983d 1230 1d3b 501e 693e
00000060: 8555 803c bbc4 16be 6c39 22be 5c4b 5abd
00000070: e377 be3d 74c6 1e3d 2479 6e3e 244b cc3b
00000080: 253f 783f 1cef e13d ab60 97bf 218a 19be
00000090: 83f1 a53f bbf2 583f 9ece c2be 9786 e63d
000000a0: 2ad2 033f 1a30 9bbf 569e d2be 0372 7bbe
000000b0: 024b 253f 273a 103f b382 8cbe dcea 1ebf
000000c0: 31a9 183d a711 e03a f8d7 fa3b da6b fd3c
000000d0: 0f5e 9cbc 1a18 6e3b d3ae 1b3c 3f8e 273c
000000e0: 0d54 3e3c 58d5 1c3c b6c1 d13c f29c acbc
000000f0: be10 9bbc 7c19 803c dd45 78bc 6eb6 bebc
00000100: a8e5 46be 6e68 043d 6f3c 843e d6c3 a0bf
00000110: e3fc 6a3f ad87 b93e d4ec 0e3f 54db e6be
00000120: 42cb 563e 7612 9c3e cacd 243f 4548 c13d
00000130: 0b74 3ebf b886 bebd 6932 b1be 3edf 9cbe
00000140: 3750 88bf 9768 473e 871c 94be 8a3d 92be
00000150: 28fd 4b3f 97a2 40bf 35da 03bc 9e4a fcbe
00000160: 2175 b4be c989 6bbe 0939 a7be 5248 113e
00000170: 67c8 833d fcb5 c9be 7883 1b3f 0ce2 af3e
00000180: 536e a8be 8f6e a53e 3668 cdbe ab19 d73e
00000190: 6f16 013f d0fa 9bbe 647c e13f 6f33 a43f
000001a0: 4d71 98bc e417 9ebe 2afe 7d3f 2744 84bf
000001b0: 1a3c 3bbe 1754 2ebf d562 3f3d d58d 3bbf
000001c0: 4248 a1bf 2532 283f f25f 533f 3c77 adbe
000001d0: 344d 25bf ea2b 803f aabc 9abf 900f bcbc
000001e0: 9a22 8e3e 227e 20be a6b8 3b3f e067 30bf
000001f0: a136 7ebe 583b 9d3e 9d14 d33e 96e7 1bbe
00000200: 62d9 4a3d 4372 6e3d e217 7ebd 46a7 d7be
00000210: 456f fe3d 6c22 933d 4c1b c23c 864c 693e
00000220: 49d5 b0bc 7292 16be 08f7 4abe 983a 763c
00000230: 67ae 873d 71a5 cf3c eb49 3e3e 99ee 903c
00000240: f7a6 f4be 539a e3be 8d49 a6bd 7624 193d
00000250: 0931 0fbe 6ec2 cebc d191 a8be 391c babe
00000260: 8d8f 96be fb7f 453e d972 403e e115 b93e
00000270: a06f 823e 1108 6ebd 4e28 10bf fecb e5bd
00000280: f589 1abf f890 723e d037 683e 558f 49be
00000290: 9e97 873f e945 afbe b07a 413f 7764 b6bf
000002a0: c46d 17be 527d 43bf 5dc8 153f bd29 08bf
000002b0: ef72 d33d a69b d33e 9a8c 40be fb6f 183e
000002c0: 2bcb 253f 777b 733c 4bdb 15be 7d87 5d3f
000002d0: 4694 9d3d 696a ab3d 4b56 2c3e 3c0f be3e
000002e0: 48c0 353d 18c0 09bf cdfc 96bd 7d8a bebe
000002f0: 0373 5f3e 0f09 473e e1e4 4b3f 489a 84be
00000300: 876b 2d3f 9837 243f 1c75 0e3e c138 12bf
00000310: d19d 80be cf5f a23e 084f 4ebe cf84 90bd
00000320: 53fc 9dbe ecfd 12bf 0a5a 87be 30ad 3c3e
00000330: efcf 073d ed25 f7be bec7 0abf 3039 31bf
00000340: bd67 a13e a8a1 f63d 131b 23be c42f 8bbe
00000350: d63e 4e3e de99 e83d d4a4 0a3e 2127 be3e
00000360: f644 f53c b6c3 3dbe 7e38 53be ae7b 99bd
00000370: 704f f53d 7d86 853d b6d1 063e d6a8 7cbd
00000380: ceef 5dbe b3ec 7bbf 6c2c c0be ca64 313f
00000390: ae73 f6be 1145 eebe 8459 213e 4b55 87be
000003a0: eaa1 073e fd63 72bd b397 6cbd 243a ad3c
000003b0: 98da 0b3e 2d6c c5bf bd3e f23e a432 33bf
000003c0: ce85 f0be ea27 35bd f295 14be b7e5 a5be
000003d0: efb3 863e 2c56 e9bd 0a2c 1bbe 42b7 bdbe
000003e0: b5c6 2bbe e1be aebe 02cf a2be 8db0 d33e
000003f0: b89a 2a3e be6a 6dbe 83e8 db3d 0c41 423e
0.31627437 0.15189527 -0.20637819 -0.7511007 0.46765915 -0.1200266 0.40036336 0.7872967
0.06822267 -0.07100538 -0.24865723 -0.16328688 0.024429956 -0.010465108 0.035740074 -0.03293377
-0.009658079 0.089916535 -0.09913325 -0.31525543 0.1492073 0.07464806 0.002398495 0.2276547
0.015665779 -0.14723484 -0.15842217 -0.053294525 0.0930021 0.03876348 0.23288399 0.0062345434
0.9697135 0.110319346 -1.1826376 -0.14994098 1.2964329 0.8474538 -0.3804826 0.1125614
0.5149256 -1.2124054 -0.41136426 -0.24555211 0.6456758 0.56338733 -0.27443466 -0.62077117
0.03727073 0.0017095105 0.00765514 0.030935217 -0.01908782 0.0036330284 0.009502131 0.010226785
0.011616719 0.0095723495 0.025605064 -0.021070931 -0.018928882 0.015637152 -0.015153375 -0.023280349
-0.19423544 0.032326154 0.25827357 -1.2559764 0.91792125 0.36236325 0.5583012 -0.4508921
0.20975974 0.30482835 0.6437651 0.094376124 -0.7439582 -0.09303039 -0.34608772 -0.3063907
-1.064948 0.19473492 -0.28928015 -0.28562576 0.7968316 -0.7524809 -0.00804763 -0.49275678
-0.35245612 -0.2300178 -0.32660702 0.14187744 0.06434708 -0.39396656 0.6074748 0.34352148
-0.3289667 0.32310912 -0.4011857 0.4201177 0.50424856 -0.30464792 1.7616086 1.2828196
-0.018608714 -0.30877602 0.9921595 -1.0333298 -0.18284646 -0.6809706 0.046725113 -0.73263294
-1.2600176 0.65701514 0.82568276 -0.3388003 -0.6457093 1.0013402 -1.2088826 -0.02295664
0.27760774 -0.15673116 0.73328626 -0.689085 -0.24825527 0.30709338 0.41226664 -0.15225062
0.04952372 0.058214437 -0.062034495 -0.42119807 0.12423567 0.071843 0.023694657 0.22783098
-0.021586077 -0.14704302 -0.19820797 0.015028618 0.066250615 0.025347443 0.18582885 0.017691897
-0.47783634 -0.44453678 -0.081194974 0.037388287 -0.13983549 -0.025239196 -0.3292375 -0.36349657
-0.29406396 0.19287102 0.18793811 0.36149505 0.25475788 -0.05811316 -0.563115 -0.11220549
-0.60366756 0.23688114 0.22677541 -0.19683583 1.0593145 -0.34233025 0.7557783 -1.424941
-0.14787966 -0.763631 0.58508855 -0.5318869 0.10324656 0.41329688 -0.18803635 0.14886467
0.64763135 0.014860979 -0.14634435 0.86534864 0.076942965 0.083699055 0.16829793 0.37120998
0.044372827 -0.53808737 -0.07372437 -0.37215033 0.21821217 0.1943705 0.79646116 -0.25898957
0.677422 0.6414733 0.13911861 -0.5711785 -0.25120404 0.3171372 -0.20147336 -0.07056581
-0.3085657 -0.57418704 -0.26435882 0.18425441 0.033157285 -0.48271123 -0.5421103 -0.69227886
0.3152446 0.12042552 -0.15928297 -0.2718488 0.20141158 0.11357473 0.1353944 0.37139228
0.02994011 -0.18531689 -0.20627019 -0.07494293 0.11978042 0.06519792 0.13165936 -0.061684452
-0.2167351 -0.9840805 -0.3753389 0.69294417 -0.48135132 -0.46537068 0.15756804 -0.2643226
0.13245359 -0.059177388 -0.05776186 0.021145888 0.13657606 -1.5423638 0.4731349 -0.69999146
-0.46977085 -0.04422752 -0.14510325 -0.3240182 0.26309153 -0.11393389 -0.15153518 -0.37053877
-0.1677502 -0.34130004 -0.3179856 0.41345635 0.16660583 -0.2318525 0.107377075 0.18970126

_orig_mod.embeddings.day_of_week.embedding.weight f4 [10, 8]
00000000: 0064 b03f 6893 f93e 6b34 873e a9b8 3c3d
00000010: 636c 1f3e cbb1 6cbf e12a 8d3a 049d 95bd
00000020: 31e3 31be 60c6 d4be 92d7 5e3f c96e f1bd
00000030: 46ec 9d3e f3f1 e63e 9939 f63d c7cb 9f3e
00000040: cd91 2e3e 1e70 70bd 2c49 cb3c f731 d6bd
00000050: eefa 193f dd46 d33e ab65 823d 1d43 e6be
00000060: 2027 fbbe 6d64 1c3e aad4 493d e107 98bf
00000070: 1aba d93e 9363 bd3e 51e1 99bc 001c 003e
00000080: 7ceb 5b3f 4ba0 48bd 661d 0fbf f57b 46be
00000090: c8db 9d3b 3cda 093f 9232 cb3d d8a7 c53c
000000a0: ebbd f93e 1000 67be fefa 75be a346 dbbe
000000b0: 02f5 a0be bbbe ad3e 5f23 f3ba 37d8 19bf
000000c0: 1a66 fc3e 84da b8be 2bea b93e ed0d a4be
000000d0: 65dc 8d3e 421c 493f b64a c8be 2a81 813c
000000e0: 0072 0580 d95d 0580 fc0e 539d aa9b 2637
000000f0: fa70 0500 eb3d dca3 3d64 0500 4911 8326
00000100: c987 0580 625b 0500 d23f 161f 34d0 6080
00000110: 54ee 8c80 0e3b 4e39 a06e 0500 e74d 0680
00000120: c65a 0580 227e 0db5 9c6c 0500 0abb 0580
00000130: 2ec7 0600 df62 0500 0bf5 40b4 c45a 0580
1.3780518 0.48745275 0.2640718 0.046074543 0.1556869 -0.9245879 0.0010770225 -0.07305339
-0.17371823 -0.41557598 0.87047684 -0.11788709 0.30844325 0.45106468 0.12022705 0.31210157
0.17047806 -0.058700673 0.024815165 -0.10458749 0.60148513 0.41265002 0.06367048 -0.44973078
-0.49053288 0.15272684 0.049275078 -1.1877404 0.42524797 0.36990032 -0.018784197 0.12510681
0.85906196 -0.048980992 -0.55904233 -0.19383223 0.0048174597 0.53848624 0.09921755 0.024127886
0.48777708 -0.22558618 -0.24021527 -0.4282733 -0.31436926 0.33934578 -0.001854997 -0.6009554
0.49296647 -0.36104214 0.36311468 -0.32041875 0.2770721 0.78558743 -0.391195 0.01580866
-5.00073e-40 -4.92844e-40 -2.7933364e-21 9.930614e-06 4.99706e-40 -2.3878671e-17 4.95136e-40 9.094636e-16
-5.07888e-40 4.9196e-40 3.1816526e-20 -8.890897e-39 -1.2942465e-38 0.0001966769 4.98862e-40 -5.78959e-40
-4.91741e-40 -5.271014e-07 4.98139e-40 -5.26274e-40 6.22465e-40 4.94646e-40 -1.797054e-07 -4.91738e-40

_orig_mod.embeddings.hour.embedding.weight f4 [30, 16]
00000000: a844 053d 5f20 65bd 3154 d93e c69c c43d
00000010: 98a6 b03e 707e 833e 8ae2 8fbd 94a4 dcbe
00000020: 4675 9ebd 2416 7b3e 3b91 87be b33f 2b3e
00000030: 1156 193d a80d e33d eadd 08be 1f39 173e
00000040: 5ae5 f63d 7adb 8abd 3f02 ad3d b0ab 053e
00000050: 7c23 92bd 31f5 1e3e 5efd 8dbc cd9e f0bd
00000060: 97e0 5f3b 8b0b 89bb 82bb f2bd 7a83 133e
00000070: 30df f9bb a94c f93d 2d43 93bd fc69 c93d
00000080: 61cb 153e 88a0 2bbd 2819 703d 1403 ad3d
00000090: 2ef8 02be ad1a 323e 48b1 d73d 8be4 16be
000000a0: 658b 4d3d 49dc f3bd 5719 efbc a362 c53d
000000b0: 0d37 76bc 2128 1f3e 5154 4bbe 35ee cd3d
000000c0: 6512 f63d 0da9 8bbc 5b73 c23c 43f8 503d
000000d0: 6d07 b0bd 6869 e63d b4f7 0c3d ed21 c6bd
000000e0: f914 be3c 1225 36bd 923e 0cbc a2d5 a43d
000000f0: 257b 4cbc b2c0 ae3d 26c4 2bbd b512 243d
00000100: 0fd8 6c3d 85e5 a7bb a5c1 453c 045c 1a3d
00000110: bf0b 4ebd 9567 9f3d 4cfa bebb b2d6 89bd
00000120: 1cda 073d eb7e 063d 8dbd 21bc 64ba 5f3d
00000130: 0e83 3dbc f253 243d 2e43 37bd 3f02 2c3d
00000140: a2b6 4a3e 2fa5 e8bd 37e7 133e 53c8 0a3e
00000150: 7dd2 99bd d6db 1a3e fb16 123d 774a 67be
00000160: aa73 f53c 4f2e acbd 324a dbbd 1245 e33d
00000170: 60cf 85bc ca68 9c3d b736 4f3e 0e07 a2bd
00000180: 3961 bfbe 70d2 89bd 357e a63d 3390 a13d
00000190: 8cc9 5cbe 6816 6b3e 725e 8f3d 6442 57be
000001a0: f247 ab3c 0b8b a73d 7f2d a5bd f2a3 6f3e
000001b0: bdde 093d 8e6f 293c 45c9 cabd 16be a33d
000001c0: aabf d5bd bdc3 3abd 8c98 173e 1701 ac3d
000001d0: b897 9f3b d6fc 6c3d 5030 c23c 140c 49be
000001e0: fcb9 3abd cc9b 51bd cb30 efbd f6f8 903d
000001f0: e634 2e3d d76b cdbd 9db5 513f 1ceb 00be
00000200: a3ed 3abe 01cd 0dbe d1d2 bf3c 2584 acbc
00000210: 3a1d b9bc fe42 f8be 6a20 d73d 1e3a 3dbd
00000220: 303a 4c3d e86d c33e cbec 353d 45a2 04be
00000230: ad5d 253d 306f 79bd 53f0 bf3c b24b 40be
00000240: 2ae3 52bc 08a8 9cbc 2d76 6b3d f8db ca3a
00000250: e0d4 893e 7f0c 943d cc48 993c 1395 833d
00000260: f7f6 52bd 2ed5 183b a2fc 03be db35 f1bd
00000270: d7de 2d3c d965 d4be 6b61 143e 0827 37be
00000280: 0121 2cbf f071 c4bc c1bf 643d 4d51 b8bd
00000290: dcb5 943d a746 adbe 3b68 b03d 8dbd 3bbd
000002a0: a2d7 9bbd a8fc 403e 0f2b 3cbe 9813 2a3d
000002b0: 8fea eb3c 1439 00be 1ae1 903e 6d1b b13b
000002c0: 0f15 56bf 485c 42bb a4ea c83c fce5 08bd
000002d0: f2ed 1c3d b50f ba3d 2aee d13b 424d 7c3d
000002e0: b485 babc 8a5b 773c 68b3 453d 993f 96bd
000002f0: 9270 313c 40f3 49be 2f74 94be 55ff afbd
00000300: 78dc 59be 1f10 123e 78e5 c13c d1bb dfbc
00000310: 567b 0f3f ba4f e0be a60e 02be 87f6 fd3d
00000320: 6470 68be d05b c4be 7087 02be ed51 66be
00000330: 5e92 3bbc 4f4f 833c 7e5f 5ebd 805e e5bd
00000340: 66db 953d 9490 603d 5929 95bd 7e54 ddbd
00000350: f724 853e 5535 fdbd 99b4 edbd ddca 0c3e
00000360: 6a87 563d 9e2c 0ebe 67c4 233e e1bc d5bd
00000370: d1a8 c23c ba5f 2bbe de0e f2bb ac57 debd
00000380: 4cc1 673d de1a f93c dc12 0ebe bee8 71bd
00000390: beb0 533e a459 c2bd 152a 1d3d 09e7 e03d
000003a0: d82a 113d a657 0dbe e384 303d f853 51bd
000003b0: bc16 abbc 8345 edbe d1ea 413e 809c eb3d
000003c0: 42b5 a23d 56c4 ef3c aa6d 99bd 0af6 02bd
000003d0: 6d00 243e 9073 80bd 3f95 11bd e3f7 b83d
000003e0: ed4a babb 3c96 373d f86a dd3c 8729 95be
000003f0: 7561 efbb 21c8 b8bd 5811 2ebd 5bef 2f3d
0.03253618 -0.055939075 0.42447045 0.09600215 0.345021 0.25682402 -0.07025631 -0.43094313
-0.07737212 0.24520165 -0.2647799 0.16723518 0.037435595 0.11086589 -0.13365903 0.14767884
0.12055464 -0.06780143 0.08447694 0.13053775 -0.07135674 0.1552322 -0.017332729 -0.11749039
0.0034160966 -0.004182284 -0.118521705 0.14405623 -0.007625483 0.12172825 -0.07190547 0.09834668
0.14628364 -0.04190114 0.05861774 0.08447853 -0.12789986 0.17392989 0.105318606 -0.1473562
0.050181765 -0.119072504 -0.029186888 0.09637954 -0.015027774 0.15542652 -0.19856383 0.100552
0.12015227 -0.017048383 0.023736646 0.05101801 -0.08595166 0.112505734 0.034415916 -0.096744396
0.02320336 -0.044468947 -0.00855984 0.0804856 -0.012480532 0.085328475 -0.04193511 0.040056903
0.057823237 -0.0051237964 0.012070094 0.03768541 -0.05030417 0.077834286 -0.0058281776 -0.06730403
0.03316699 0.032835882 -0.009871853 0.054621115 -0.01156689 0.04011912 -0.044741802 0.04199433
0.19796231 -0.11359631 0.1444367 0.1355298 -0.075108506 0.15122923 0.035666447 -0.22587
0.02996238 -0.0840727 -0.10707511 0.110971585 -0.016334236 0.076371744 0.20235716 -0.07911502
-0.37378863 -0.06729591 0.08129541 0.07888832 -0.21561259 0.22957766 0.07000436 -0.2102142
0.02090833 0.08180817 -0.08065318 0.23402384 0.033659685 0.010341538 -0.0990167 0.079952404
-0.10436948 -0.045596827 0.14804286 0.08398645 0.004870381 0.05785831 0.023704678 -0.19633514
-0.045587525 -0.05117397 -0.116792284 0.070787355 0.042530917 -0.100303344 0.81917745 -0.12589687
-0.18254714 -0.13847734 0.023415955 -0.021059105 -0.022596944 -0.4848861 0.10504229 -0.046198003
0.04986018 0.3816979 0.044415276 -0.12952526 0.04037254 -0.060897052 0.023430025 -0.18778875
-0.012871543 -0.019123092 0.057485748 0.0015476933 0.26920223 0.07228946 0.01871147 0.06424918
-0.051505055 0.0023320424 -0.1288934 -0.1177785 0.010612211 -0.41483954 0.14490287 -0.17885983
-0.6723786 -0.02398011 0.055846933 -0.08999882 0.072612494 -0.33842966 0.086136304 -0.045835067
-0.07609488 0.1884638 -0.183758 0.041522592 0.02879837 -0.12521774 0.2829674 0.0054048807
-0.8362588 -0.0029657055 0.024525948 -0.033422455 0.03831286 0.09085027 0.006406565 0.061597116
-0.022768833 0.015097508 0.0482668 -0.07336349 0.0108300615 -0.19721699 -0.2899489 -0.085936226
-0.21275508 0.14263962 0.02366899 -0.027311238 0.5604757 -0.43810827 -0.127009 0.12400537
-0.22699124 -0.38351297 -0.12746978 -0.2249219 -0.011448471 0.016029028 -0.054290287 -0.11199665
0.073172376 0.05482538 -0.07283277 -0.10807131 0.26004764 -0.12363688 -0.11606712 0.13749261
0.052375235 -0.13884208 0.1599289 -0.104364164 0.023762139 -0.16735736 -0.007387026 -0.10856566
0.056580827 0.03040832 -0.13874382 -0.05905985 0.2067289 -0.09489754 0.03837021 0.109815665
0.03544125 -0.13802966 0.04309548 -0.05110547 -0.020884864 -0.46342096 0.18937232 0.115044594
0.079447284 0.029268425 -0.0749162 -0.031972922 0.16015787 -0.06272042 -0.035542723 0.09031656
-0.0056852014 0.04482101 0.027028546 -0.29133245 -0.007305319 -0.090225466 -0.04249701 0.042952877

_orig_mod.dense_proj.weight f4 [64, 113]
00000000: f9c9 0f3c b088 61bd 1cfc 0a3e 6874 623b
00000010: 23b4 a83a cda6 bfbd f8a6 9c3d ffdd f13c
00000020: 590e 47bc 982f ce3c 22d1 1abe 9e4b cbba
00000030: b5b5 a63d be8a 8d3d dd76 6d3d 3d99 303d
00000040: fe9c 9e3d cbdf 733b 9718 97bc 32dc 6b3d
00000050: 5c82 28bd 2a6d 2f3d e053 8a3c a4a0 61bd
00000060: 14f8 9dbc 863f 2cbb 70c7 54bc e215 cabc
00000070: 4a1a 8c3d bbac 16ba 06c4 a5bd d192 44bc
00000080: 2c23 f53c 5375 44bd 2f48 9a3c 629b e13b
00000090: 2fb0 7e3b 5149 61bd 93da 003e 82a8 60bd
000000a0: 2a2f fd3c 4706 953a 2ec0 293d afaf bebc
000000b0: 0197 223d 0394 b7bc f8bc 08bc de6f a33c
000000c0: 5846 c93c 6ad8 8bbd 3989 3a3d 47f2 ddbc
000000d0: 1393 fb3c c1ad 273b d72c a7bb 840c 3f3d
000000e0: 8a4b 07be 7a68 e53d 158c 7a3c e16f 463d
000000f0: 305f 423d afe3 0ebd 4990 93bd d206 fdbc
00000100: c54f ef3c 94fc 0b3b 9016 ac3b e0ac 463d
00000110: a4e5 d33c ec91 b8bc ac5c 92bc e125 9cbb
00000120: 69bf a93c a0b9 52bc 876a 063d f20a 673d
00000130: b042 243d 0e45 f5bc 64bd c6bc fe60 95bb
00000140: cb39 bbbd 8f81 473d 9b28 193c 2c15 bb3d
00000150: 8888 193c b1e6 c9bd ae68 f2bc 6943 c13c
00000160: f4f6 42bb 659e 2d3c 8886 c3bc 3669 d43a
00000170: a3b5 733c ffcb 083a 231b b83b bddc 68bc
00000180: 56c8 dfbb 248e 24bd 2287 a13c d9a0 033c
00000190: 342d 253b 92ce a8bb 8396 933c b94a 9e3b
000001a0: 4b1d d53c 47b8 c8bc e729 f93b 292b c7bb
000001b0: 6d23 22bc d58a d5bc 7500 17bd 53c8 a438
000001c0: 53ea 513d b74d 9e3d a22f 793d c64d 703d
000001d0: 3a48 c2bd 1df4 c6bd 7547 0dbe e26d 9fbd
000001e0: 5d8f 003d 9dbf 193e e4ef 82bd 10a3 30bd
000001f0: 0418 a8bd 0404 a13d d2be cebc ca80 d83c
00000200: 4008 533c df11 41bc c631 5dbd 77c1 19bd
00000210: f2eb 1f3c 9519 25bc c196 a33c ec15 5a3d
00000220: fdbe 2a3d a1ce a2bc c4d8 923d b66f 0abd
00000230: 5362 56bd 7ef0 7e3d 8fde ff3c fd42 e33c
00000240: b4a7 98ba 256a 3dbc 15ee ab3b 51ee 2f3d
00000250: 4451 4a3d dcc6 02bd a6f1 29bd 7427 9fbd
00000260: ed2e 07bd c8a2 113d ac61 c3bd 2880 313b
00000270: bd8b 8fbb 8383 0b3e c70d 603b a9e1 7e3a
00000280: 3c7f c6bd 6054 4abd f617 de3c 1eae ba3d
00000290: 819e 0abe 3bbc eb3c 0da2 803c f68e 11bd
000002a0: 7648 d33d 75b9 16bd c31c ac3c 55c9 b93c
000002b0: 0c56 bd3b 40dc b2bb b237 98bc b231 363c
000002c0: 6e51 6abd 0e99 843c c69e 6c3c f391 a7bd
000002d0: 8edd 8cbc 2a06 ff3c f99f 80bd f45d 793d
000002e0: 3df9 873a 9ee9 573d f379 09bd 4f94 f1bc
000002f0: 5add a43d a481 77be a21e 02bd 897f dbbe
00000300: 7036 4cbd 8028 7fbd f643 c93b 94e7 25bc
00000310: 0e86 ba3d 31d8 e5bd e929 d83c aaab 6c3c
00000320: 3b4c 87bc 53a9 1f3d 6e1c 793d 7f78 8a3d
00000330: 4228 9a3d d8c7 9dbc 6a52 93bc e5e3 263d
00000340: 4fbe 7b3b 2bf3 63bc fc56 c1bc 9ef4 873d
00000350: fa74 4bbd 990d 233d 6f27 e13c 21dd 7d3a
00000360: 7496 2ebc 9da5 0bbd 2b30 773b 01fd 293d
00000370: e7d4 8e3d df25 b13b 3408 373d fd3c dc3c
00000380: 58a3 a2bc b70d 8cbd a80d 843c ad7b 69bd
00000390: d282 4ebe 16b1 f03d b298 fabc aa22 333d
000003a0: f15e 97bd ad16 1fbd 12c9 74bc 770e 7abd
000003b0: f74c 993b 0644 c13b ed6c a5bb 1f64 9b3d
000003c0: c9cd ecbc 7ed1 ee3d 8969 ac3d 13ff 55bc
000003d0: 72ed 33bc 559e f8ba 9608 733b dee9 a7bc
000003e0: 8df6 b6bd 0597 9abc 4aba aebc 3fbb 113c
000003f0: b10e 193c 9aaa 263c e0be cabc 9c75 dbbd
0.008776181 -0.055061996 0.13572735 0.0034554247 0.0012871068 -0.093579866 0.07649034 0.029524801
-0.012149417 0.025169179 -0.1511884 -0.0015510207 0.081401266 0.069112286 0.057974685 0.04311489
0.07744788 0.0037212248 -0.018444343 0.05758304 -0.041139945 0.042828716 0.016885698 -0.05508484
-0.019283332 -0.002628298 -0.012987003 -0.024668638 0.06840952 -0.0005747785 -0.08094029 -0.011997894
0.029923998 -0.04796345 0.018833248 0.006884978 0.0038862338 -0.05500156 0.1258338 -0.0548482
0.030906279 0.0011369669 0.041443042 -0.023277132 0.03969479 -0.022409445 -0.008345835 0.019950803
0.024569675 -0.06828387 0.045541022 -0.027093066 0.030709779 0.0025585743 -0.005101781 0.046642795
-0.1321241 0.11201568 0.015292187 0.04844654 0.04745406 -0.034885105 -0.072052546 -0.030887041
0.029212842 0.0021360265 0.005251713 0.04850471 0.025866337 -0.022530518 -0.017866455 -0.0047652577
0.020721154 -0.012861639 0.032816436 0.056406923 0.04010266 -0.029940154 -0.02426023 -0.0045586815
-0.091418825 0.04870754 0.00934806 0.091348976 0.0093709305 -0.09858454 -0.02959093 0.023591714
-0.0029749246 0.010596846 -0.02386786 0.0016205672 0.014874849 0.0005218386 0.0056184693 -0.014212784
-0.006829302 -0.04017462 0.019717757 0.008033955 0.0025203945 -0.005151578 0.018016106 0.004830685
0.026014945 -0.024501933 0.007603872 -0.006078143 -0.0098961415 -0.026067177 -0.03686567 7.857443e-05
0.05124886 0.07729667 0.06083644 0.05866792 -0.094864324 -0.0971453 -0.1379679 -0.0778463
0.031386722 0.15014501 -0.06393412 -0.04312426 -0.082077056 0.07862094 -0.025237475 0.026428599
0.012880385 -0.011784046 -0.054002546 -0.037538018 0.009760844 -0.0100769 0.019969346 0.053243563
0.041686047 -0.019873919 0.07170251 -0.033797942 -0.052339863 0.06224107 0.031234054 0.027741903
-0.0011646659 -0.011560951 0.0052468874 0.042951886 0.049393907 -0.03192793 -0.04149022 -0.07771197
-0.033003736 0.03555563 -0.09540114 0.0027084444 -0.004380672 0.13624386 0.00341879 0.0009722957
-0.09692237 -0.049396873 0.027111035 0.091152415 -0.13537027 0.028776279 0.015702272 -0.03553673
0.10316555 -0.03679796 0.021009808 0.02267901 0.00577808 -0.0054583848 -0.018581245 0.011120247
-0.057206564 0.016186263 0.014442151 -0.081821345 -0.01719549 0.031130869 -0.06280512 0.060880616
0.0010373961 0.05271303 -0.033563565 -0.029489664 0.08050032 -0.24170548 -0.031767495 -0.4287074
-0.049856603 -0.062294483 0.006142135 -0.010126013 0.091076 -0.11222876 0.026387172 0.014445225
-0.016515842 0.03897984 0.06081813 0.06761264 0.0752721 -0.019260332 -0.017983634 0.04074468
0.0038412993 -0.013912956 -0.023601048 0.06638454 -0.049672104 0.03980789 0.027484624 0.0009684135
-0.010655988 -0.034093488 0.003771792 0.04150105 0.06974202 0.005406126 0.044685557 0.02688455
-0.019853279 -0.068385534 0.016119793 -0.057002712 -0.20167091 0.117525265 -0.030590389 0.04373423
-0.073911555 -0.038839985 -0.014940517 -0.06104895 0.0046783644 0.0058980016 -0.0050483854 0.07587456
-0.02890672 0.11661051 0.08418567 -0.013061303 -0.010981904 -0.0018968085 0.0037083975 -0.020497259
-0.089337446 -0.01887084 -0.021329064 0.008894741 0.009341882 0.0101725105 -0.02474922 -0.107157916

_orig_mod.dense_proj.bias f4 [64]
00000000: 09b4 fe3b ad65 b53d b061 eebd cab9 f13d
00000010: 3d04 863d 5fbc 8ebb 25d7 b9bd 53cf 9cbd
00000020: bdbe fabd af6a bdbd c922 b13d 6a43 4a3d
00000030: a9bd 463c e19c 57bd 75fe 02bd fccd 503c
00000040: 22d2 103e 34f5 91bd cafb 5c3d ae6d ecba
00000050: ef4e dcbd 72df 4f3d dc72 67bd 85e6 8c3b
00000060: 9f72 f7bd 52b7 51bd f4fd 263d fdab 963d
00000070: 565e 163d aafb 80bd 2a59 febc e1df 4e3d
00000080: 2bc6 a5bc 1466 623d 0456 973d 69f1 ebbd
00000090: fec7 a6bd eaae 643c 7e5c d9bd 69d9 e93d
000000a0: 8c20 893d a604 90bd a428 073d f39d bcbd
000000b0: 5ad2 94bd f114 be3d 119e e93c 6a59 25bd
000000c0: 2cf7 8cbd a95c d43d 6be8 9ebc 71b6 973d
000000d0: bd47 153b 5565 8dbd 7c36 d5bd 1d26 213d
000000e0: 77b6 6d3d 99fb 87bd d5cc b3bd cbe5 213d
000000f0: 6743 96bd ae82 0a3e e0d4 593b 1640 0a3e
0.0077729267 0.08857284 -0.11639726 0.118030146 0.06543777 -0.0043559517 -0.09074239 -0.076567315
-0.12243412 -0.09248864 0.08649213 0.049380697 0.012130179 -0.052639846 -0.03198095 0.012744423
0.1414266 -0.07126847 0.053951062 -0.0018038058 -0.10757243 0.050750203 -0.056506023 0.004299941
-0.12082409 -0.05120022 0.040769532 0.07357023 0.03671106 -0.06298001 -0.031048376 0.050506476
-0.020236095 0.05527313 0.07389453 -0.11520655 -0.08143614 0.013957718 -0.106133446 0.11418421
0.06695661 -0.070321366 0.032997742 -0.09209814 -0.07266684 0.09281338 0.028517755 -0.040368475
-0.06883082 0.10369236 -0.019397935 0.07407845 0.0022778355 -0.06904093 -0.10410783 0.03934299
0.05803534 -0.06639785 -0.08779303 0.03952579 -0.07337075 0.13526413 0.0033238456 0.1350101

_orig_mod.shared_mlp.0.weight f4 [128, 120]
00000000: 3cdb c83d d2b9 efbd 5e03 e5bd fbaf c43d
00000010: a381 0d3d 51b5 7dbd 4cb9 a33d 2267 0fbc
00000020: 10df dabd f206 0c3e 6614 58bc ac87 073d
00000030: 2cf8 3b3d cf4c 1c3d 5849 9a3d 15e9 a4bd
00000040: 14a5 033e 3526 e73b 99f4 913c 2702 6e3d
00000050: ed4c 81bc d37b 503b b20f 9d3d 4ab5 393e
00000060: 4bb7 4f3c 9cbe 6f3c 8c27 623d 6a60 42bd
00000070: 3401 44bd 9052 883d 79a4 933d 0d05 b53c
00000080: 30d2 41bd 87c7 073c 2e29 3c3d 52e4 7e3d
00000090: a388 94bc d447 82bd 2731 a9bc a611 3c3d
000000a0: 4e0b 493d 5c5c 07bc f556 95bc 50e2 08bd
000000b0: a370 0cbc 9d3a 09bc 7b72 1c3b 1463 373d
000000c0: ceb6 123c b022 a7ba ece9 0b3d b649 a13a
000000d0: 3826 32bb b863 41bc 7990 2cbc fd8d aebc
000000e0: a239 1ebb 0cd7 c4b9 4b24 01bd 4081 673d
000000f0: 10b6 e9bc 36b6 21bd abe1 78bc 3f95 b33c
00000100: 0b8b ff3c 81e4 a9bc a0c9 783c 48fc e23c
00000110: 06bb 083d 381d 8abd 0931 3abd 9e1b 8dbc
00000120: 26cb 1e3b 5cd8 f43c c282 4a3d 78a5 e8bb
00000130: 681e fd3c 6468 a33b 9960 eebb cd23 01bd
00000140: 0868 8d3d 24b7 dabc 7f85 793c 394c 273c
00000150: a997 8d3c 5063 80bd 4b77 623d 7983 0abd
00000160: e145 d23c 92d5 523d 037c 5b3d c15c c13b
00000170: f403 2a3c 6471 473c 627a f6bc ecd1 cebb
00000180: 3b5d 8fbc 599f 90bb 4a69 80bd 1aa1 f7bc
00000190: ffe6 453c 9dbd bbbc 33b6 0a3d 4644 d13c
000001a0: 0924 45bd 7711 c73c 198e 433d 3262 833d
000001b0: 15c1 96bc 7df2 aa3c b7cd 10bc 8bed ad3c
000001c0: 4c02 f8bc 5876 2f3d 8a74 943c 686e b93c
000001d0: 0712 b03c f4e7 0cbd 975e d8bc c9aa 76bd
000001e0: 7929 d93b f0d4 853d 6d20 bf3d 7bad 95bd
000001f0: a87c 74bd 1282 e23d 7283 cebd 6813 c83d
00000200: 9d65 8dbc a4a5 b9bd 4356 a4bd 022c 553c
00000210: eb8b 1c3e 4d7a 0dbd 4017 fa3d d45d aa3d
00000220: e6de edbd 059c 1fbc 2885 e33c 3b6e 91bd
00000230: 8072 263d 47f3 99bb 041d 813d ed4c 82bc
00000240: ba40 fdbc d08c c4bd 1660 f2bb 63a6 8a3d
00000250: 96b4 f5bb 4838 7ebd 179a 1b3e cc1c a23d
00000260: 9c6e 423d ffc3 693c f941 36bd dd1c 38bc
00000270: 3b3d 02bc 85f4 7b3d 9f5d 953b 1cd7 39bc
00000280: f994 24bd 81f3 9b3c 36ae 14bd b723 013d
00000290: 2c06 ad3d 0a75 bfbd e62f a1bd 7686 a83d
000002a0: 6080 5bbd e234 6abd fd9f f63c e70c 283c
000002b0: 3018 12bd 0195 a4bd 0349 473d d1b4 d6bd
000002c0: 3452 c3bd d3f5 5c3d f5e3 8ebd b6ac 0bbd
000002d0: ec15 913d d558 103d ea85 85bd dcea ccbd
000002e0: ea22 4dbd a87e 3a3c 8f25 a0bc ef32 5b3d
000002f0: 843d 22bd 6cda a6ba ce61 8d3d 96f5 d7ba
00000300: 41da 413d 32d0 7b3c 46e8 81bd 6b71 0bbd
00000310: fc74 11bd 54d3 233c c77b db3a 3d1e 23bd
00000320: 9288 d93b 1c1d 68bd a09f 71bd a0c2 413d
00000330: a76b 1b3d da02 693c dd8e 13bd c65c 69bd
00000340: 2fd3 043b 2b75 31bd 3b8e 193c cc24 abbd
00000350: ea86 11bd 7db6 a8ba b87c c63d faca 21bd
00000360: d37c f4bc 59b2 4eb9 fbd0 17bd c94a 60bd
00000370: c1e8 363a 9ea1 e03c 0bb4 ab3c c98c 533c
00000380: 3d47 89bc c7f4 353d e5ab d2bb d4ee 1b3d
00000390: d233 993c fa86 53bc 5f70 98bd 03a5 29bd
000003a0: c8c9 ab3d 2b40 87bd 9576 f23c 972b 20bc
000003b0: 2b57 46bd 4da5 86bc cf12 88bc eba0 01bb
000003c0: ec79 993d 7527 cbbd 1a21 71bc 4ffd a83d
000003d0: 88dd 083d 8b51 d1bd 3c81 c83d 4a97 0fbd
000003e0: 3bf0 25bc d676 ca3c aff2 ba3c 2219 9ebc
000003f0: 96ff 463d 8628 233d ec50 e83c 7311 eabc
0.09807441 -0.11705364 -0.11182283 0.09603878 0.03454746 -0.061940495 0.07994327 -0.008752616
-0.10687077 0.13674524 -0.013188457 0.03308837 0.045890972 0.038159188 0.075335205 -0.08052269
0.12855941 0.007054115 0.017816829 0.05810752 -0.015783751 0.0031812086 0.07669009 0.18135563
0.012677978 0.014632847 0.055213496 -0.04745523 -0.04785271 0.066563725 0.07209105 0.022097135
-0.04731959 0.008287317 0.04593771 0.062229462 -0.01813156 -0.063613564 -0.02065332 0.04591527
0.049083047 -0.008261766 -0.01822994 -0.033418953 -0.008571777 -0.008375791 0.0023871947 0.044772223
0.008954717 -0.0012751427 0.034158632 0.0012305293 -0.0027183425 -0.01180356 -0.010532492 -0.02130794
-0.0024143239 -0.00037544256 -0.031528752 0.056519747 -0.028529197 -0.03948041 -0.015190522 0.021921752
0.03119423 -0.020738842 0.01518479 0.027708188 0.033381484 -0.06743854 -0.04545692 -0.017225083
0.0024229973 0.029888324 0.049441107 -0.0070998035 0.030898288 0.0049868096 -0.007274699 -0.031528283
0.06904608 -0.026698656 0.015229582 0.010211044 0.017284231 -0.06268942 0.055289548 -0.03381679
0.025668086 0.051473208 0.053585064 0.0059009497 0.010376919 0.0121730305 -0.030087654 -0.0063116457
-0.01750051 -0.004413527 -0.06270082 -0.030228186 0.012079 -0.022917563 0.033865165 0.02554525
-0.04813007 0.02430032 0.047742937 0.06415214 -0.018402616 0.02086758 -0.008838109 0.021231433
-0.030274533 0.04283747 0.018121976 0.022635654 0.021492971 -0.034400895 -0.026412291 -0.060221467
0.0066272584 0.06534755 0.093323566 -0.073084794 -0.059689194 0.11059965 -0.10083665 0.097693264
-0.017260367 -0.090647966 -0.080242656 0.013010981 0.1528775 -0.034540463 0.12211466 0.083186775
-0.1161478 -0.009741788 0.027773455 -0.07101103 0.04063654 -0.0046981904 0.063043624 -0.015905822
-0.030914653 -0.0959717 -0.0073967082 0.06770017 -0.007498334 -0.062065393 0.151955 0.07915649
0.047468767 0.0142679205 -0.04449651 -0.01123735 -0.007949169 0.06151249 0.0045582796 -0.01134279
-0.040181134 0.01903701 -0.036298953 0.0315282 0.08448443 -0.09348495 -0.07870464 0.082287714
-0.053589225 -0.05717934 0.030105585 0.010256982 -0.0356676 -0.08036233 0.048653614 -0.10483707
-0.095371634 0.053945374 -0.06977073 -0.034100257 0.070842594 0.035240967 -0.06519683 -0.10005733
-0.050082125 0.011382736 -0.01954916 0.05351537 -0.039609447 -0.001272989 0.069034204 -0.0016476389
0.047327284 0.015369462 -0.06343131 -0.03404371 -0.035511956 0.009999115 0.0016745263 -0.03982376
0.006638595 -0.056668386 -0.05899012 0.04730475 0.037944462 0.014221871 -0.036024917 -0.05697324
0.0020267477 -0.04332463 0.009372289 -0.08356628 -0.035529055 -0.0012871769 0.09691757 -0.039500214
-0.029844677 -0.0001971213 -0.037064534 -0.05475882 0.0006977432 0.027420815 0.020959875 0.012911984
-0.016757602 0.04442289 -0.006429183 0.03806956 0.018701468 -0.012910599 -0.07443308 -0.041417133
0.08388096 -0.06604036 0.02959756 -0.009776018 -0.048422974 -0.016436243 -0.016610531 -0.0019779752
0.07493958 -0.09919635 -0.014717365 0.0825144 0.033414394 -0.10220631 0.097902745 -0.03505639
-0.010128076 0.024714869 0.022820799 -0.019299094 0.04858359 0.039833568 0.028358899 -0.028572774

_orig_mod.shared_mlp.0.bias f4 [128]
00000000: 82c7 0bbe e1f9 113e 765d c8bd 2bfa 513d
00000010: 2ee4 1bbe 59a1 dbbb 693f f63d 1abd 0c3e
00000020: 0ae3 3d3d afb1 c03d c244 82bd 5976 1fbe
00000030: 4187 cd3b ab31 f03c c10a 913c 9a89 063c
00000040: ea67 bc3d 5b07 c8bd 591d 03be 7913 b8bd
00000050: b60a f23d 1d01 d23d dace 2fbd f731 0ebe
00000060: c77d 11be 27e1 0cbe dc18 7ebd ec75 553d
00000070: d8d1 15bb 14c2 153c fac4 06be 4de9 dc3d
00000080: 9795 c6bd 1b08 573c ff86 a8bd ac12 ec3d
00000090: b697 1b3e 1d84 3dbe de84 cfbd bef9 3dbe
000000a0: bf12 0cbe a5ed 693d 70c5 c93d 542b 573d
000000b0: d74b 1b3c 3e1f 9bbd e17a 92bd 7c09 21be
000000c0: 9a00 f03d 59df c0bd 62cf 803d ed28 a93c
000000d0: fe94 d33c f149 dc3a 3da4 9e3c 238d 703d
000000e0: 07e0 e1bb db97 b43a 39ac ee3d 0e3b 1cbe
000000f0: 803e d73d 71b2 ffbd c111 0a3c a34d b3bc
00000100: e6c5 3f3b 8ba6 6cbd 140c 95bd 40f8 02bd
00000110: 0b17 2b3d 8ccc 16bd 7b0e 543c 0d53 d8bd
00000120: b9a5 c03d 2795 3a3c 013c 023e 32a2 763d
00000130: df12 613d ccd6 88bd 01c8 b7bd 3342 c2bd
00000140: d11e efbd 8292 54bd 0255 edbc 5ea9 113e
00000150: 378b ad3c 2a5e 34be 96fe f93d 98a9 a53d
00000160: 36ce fdbd ffd0 f3bd d0e2 673d b25c 05be
00000170: 8ac5 67bd 1b09 9ebc 87d7 043e ce6f 08be
00000180: ad62 a33d 154a 9a3d 1fa7 fe3d a950 e13d
00000190: 41b7 f9bd d6c2 263d 26c7 d5bd e15a 683c
000001a0: 7959 943d 403f 313c 9ed8 1c3d 02f3 523c
000001b0: 36fe fcbb 3d23 f0bd 56c7 18be 1aee 02be
000001c0: b86a d13c 6c23 823d 34ff 08be 29b0 4dbe
000001d0: cc69 8e3d b967 0a3e cfb3 dd3d 191f b03d
000001e0: b86f 1a3d 7804 93bd ed7c 93bd 84cd e3bc
000001f0: 1fd9 c03d c53a 903d 8ab7 15bc 9109 a43d
-0.13650325 0.14255477 -0.09783451 0.05126397 -0.15223762 -0.0067025837 0.12023813 0.13744012
0.0463591 0.094088905 -0.06360771 -0.1557249 0.006272227 0.029320559 0.017705323 0.008211518
0.091995075 -0.09767028 -0.12804164 -0.08988089 0.11818449 0.102541186 -0.04292188 -0.13886248
-0.14208136 -0.13757764 -0.062035426 0.052114412 -0.0022860672 0.00914051 -0.13161078 0.10786686
-0.09696501 0.013124491 -0.082288735 0.11526999 0.15194592 -0.18507428 -0.10132764 -0.185523
-0.13679026 0.0571114 0.09852111 0.052531555 0.009478531 -0.07574318 -0.071523435 -0.15726274
0.11718865 -0.094176 0.06289555 0.020649398 0.025827881 0.0016806704 0.019365424 0.05872835
-0.006893161 0.0013778167 0.116539426 -0.15256903 0.10509968 -0.12485207 0.008427084 -0.021887606
0.0029262244 -0.057776015 -0.07277694 -0.03197503 0.041770022 -0.036816165 0.012942906 -0.10562716
0.09406609 0.0113881 0.12718202 0.060213275 0.054949638 -0.06681594 -0.089736946 -0.09485283
-0.116758 -0.051897533 -0.028971199 0.14224765 0.021184547 -0.17614046 0.122067615 0.08088988
-0.12392847 -0.11905097 0.05661279 -0.13023642 -0.056584872 -0.019291451 0.12972842 -0.133239
0.07977805 0.07533661 0.124342196 0.11001713 -0.12193156 0.040713154 -0.10438375 0.0141818235
0.07243628 0.010818303 0.03829252 0.01287532 -0.007720734 -0.11725471 -0.1491979 -0.12786141
0.025563583 0.063544124 -0.13378602 -0.20086731 0.06953773 0.1351613 0.108253114 0.085996814
0.0377042 -0.07178587 -0.07201562 -0.027807958 0.094164126 0.070424594 -0.009137997 0.08009637

_orig_mod.shared_mlp.3.weight f4 [64, 128]
00000000: 8f75 853c 57e4 d6bc 55b2 533c 3c8c c3bc
00000010: 7b96 8abc 7066 6f3c 4d79 50bd bd70 d9bc
00000020: 41c1 25bd d422 e1bc 3709 a83c 9cfe 1ebd
00000030: 872f e9bc b020 033b bc8d e93b f132 55bd
00000040: ee31 ce3a e440 a3bc 8482 1c3d 3fbc 9f3c
00000050: 8f66 ae3b 5ff9 5b3d 7641 3f3d 9bac 1d3b
00000060: ed04 aa3b 5092 8fbc 1758 1e3c 5647 c03b
00000070: ab6a 99bc c0e3 2c3c 8dd3 583c 02b1 f5bc
00000080: 3b46 cb3c 18c4 8dbd fee4 b9bc 2f55 05bd
00000090: dd8d 17bd 1814 5dbb 2646 ebbc 99ea 9ebc
000000a0: 928a 283d 6e99 a3bc a957 313a ac62 90bd
000000b0: f35d 0cbd deaa 9bbc 6ee4 953c 8803 9cbb
000000c0: ad1e fe3c 2257 0c3c 3b64 16bc 0422 69bd
000000d0: c973 ed3c f12c e3bc 110b 86bd ac29 17bd
000000e0: ae0b 8dbc ad9d 8bbc ee08 9cbc e38e ff3b
000000f0: a406 f3bc 6ad6 9bbc 3434 da3c b721 d2bb
00000100: c115 ab3b 02f0 e43c 0607 8eb9 9b68 19bd
00000110: 88bd 96bc fabf c23c b2ea 64bd 7151 f43c
00000120: caa5 a3bd 4056 a93b 39d4 ef3b 1a5b 3ebd
00000130: 1180 13bb a4d9 8a3c 1483 073c 6c3f 43bb
00000140: b4a6 0f3d 4499 6b3d 6166 8fbc 15c7 1cbd
00000150: e6d9 ba3b d6cf 373c 3498 5e3c 1846 6abd
00000160: 1177 003d 7e43 a7bc 63a9 30bc 06dc 8abc
00000170: af06 243c b423 e33a 5cb2 39bb c6b8 ccbb
00000180: 4567 46bd e2d3 a2ba 60b0 1a3c 567f bdbc
00000190: 9092 ad3d 759d 3abd 2341 dfbb e72b 7abb
000001a0: 0879 e13c d65f 37bc 2109 20bd 7d76 793c
000001b0: 0192 98bc 1591 b7bc 2bb4 f9bc e9bc 3b3b
000001c0: 9785 3cbd 7442 44bc 7eb1 16bd 9916 4a3c
000001d0: f2a1 4fbd 2d69 75bb 1382 b13c f67f 103d
000001e0: f526 28bd b580 96bb 1473 813c 16e8 47bd
000001f0: 8f75 9cbc 1331 0c3d fd69 a6bb 22de c8bd
00000200: e88d afbd 7064 a13c 876f acbc 5e1a bb3d
00000210: 7b04 ebbd c561 133c 3311 4bbb 67b2 bf3d
00000220: 1fae 803d a87d 013d 75d5 fa3c a4a0 fcbd
00000230: 6083 c73d 52a2 a33b 0994 e3bb e329 b83c
00000240: 5c7b b03d c2dd c2bd 31f6 07bd 8fae aebd
00000250: c4e8 1e3d 53a1 283d 3034 90bd aa3d 68bd
00000260: a57b 55bd 8ab7 a8bd 9280 413c 70af d93d
00000270: 6166 0f3d 7820 b63d 4ed9 50bd f625 c4bb
00000280: 0ba0 1dbd 5ac0 ff3c 8770 75bd 9b17 8c3d
00000290: 59aa dc3c 1f18 e2bd 7ae0 94bd 825b 0dbe
000002a0: f185 7ebd 80d9 833b a596 603d 819e c93c
000002b0: e762 4e3d 911d efbd 7c68 d4bc bcf1 a4bc
000002c0: f842 bcbb 8719 c3bd 6da7 cabc 33c9 07bb
000002d0: 5f7b b93c 0d4e 823d e7eb a63c 493b c93d
000002e0: 4a07 163d 6488 05bd 7cb8 153d cd76 d2bd
000002f0: 2821 223d 1e5b c4bd b4ba ec3c 2029 353d
00000300: fd17 64bc 8622 1bbd 6b36 69bd aa16 6d3b
00000310: fdb3 8a3c c2a4 cdbc e139 f43d 91af f2bc
00000320: 7508 643d dc3c f33c f1e4 9a3c 98c4 393b
00000330: 1e82 e43c c536 a5bd 8f3a b7bd c148 7b3d
00000340: 1c82 cdbd 52a9 9bbb 33ab 92b8 934e aebc
00000350: cc58 683c a871 efbd 5447 093c 1cf0 823d
00000360: 530c a3bc 625d 8abd 7814 133c b54c 27bd
00000370: 7bca 98bc c8e0 72bc 0b64 603c 88df c8bd
00000380: 7047 fcbc ddae 3fbd 269a 593d 4e45 f6bc
00000390: e43c 99bd 4c3b 5f3d 33db b2bd 0909 7dbd
000003a0: 361b 0b3d aa77 5b3d 39e2 4b3d c4ce 403d
000003b0: 9ff2 9f3a e64f fcbc e7be 49bd 3466 83bd
000003c0: 33b9 6c3d 7cfd a73d 82a4 4bbd c39d 08be
000003d0: 8232 263d 0db9 333c 495e 323d 7b1d 5b3d
000003e0: 9995 b53c fa2a 1dbe 7e76 8cbd 02db d1bc
000003f0: 6e36 e83c 2db2 893d fba4 a2bd 92b2 823d
0.016291408 -0.026231928 0.012920936 -0.02387058 -0.016917458 0.014611825 -0.05089693 -0.026543016
-0.040467504 -0.027482428 0.020512206 -0.038817033 -0.028465046 0.0020008497 0.0071274918 -0.052050535
0.0015731433 -0.019928403 0.038210407 0.019498942 0.0053222845 0.053704616 0.046693288 0.002405918
0.0051885755 -0.017525822 0.009664557 0.005867879 -0.018727621 0.010552347 0.013234031 -0.02999163
0.024813762 -0.069221675 -0.0226922 -0.03255194 -0.037000526 -0.00337339 -0.028719973 -0.019398974
0.041147776 -0.019970622 0.00067650765 -0.0705007 -0.034269284 -0.019002374 0.0182974 -0.004761163
0.031020487 0.008565696 -0.00917917 -0.056917205 0.028985875 -0.02773139 -0.065450795 -0.036904976
-0.017217483 -0.01704296 -0.019047227 0.007799016 -0.029666252 -0.019023139 0.02663622 -0.0064127105
0.005221099 0.027946476 -0.00027089583 -0.037453275 -0.018400922 0.023773182 -0.055887885 0.02982399
-0.07990606 0.0051677525 0.007319 -0.0464736 -0.0022506753 0.016949482 0.008270998 -0.002979244
0.03507109 0.057519212 -0.017504873 -0.038275797 0.005702245 0.011218986 0.013586093 -0.057195753
0.03136355 -0.020417925 -0.010782572 -0.016950618 0.010011359 0.0017329366 -0.002833507 -0.0062476126
-0.04843833 -0.0012422765 0.009441465 -0.023132008 0.0847522 -0.04556032 -0.006813185 -0.003817314
0.027523533 -0.011192283 -0.039071206 0.015226004 -0.018624308 -0.022408048 -0.030481419 0.0028646535
-0.04602584 -0.011978734 -0.036790363 0.012334489 -0.050691552 -0.0037446723 0.02166847 0.035278283
-0.041052777 -0.00459298 0.015801944 -0.04880532 -0.019099025 0.03422649 -0.0050785528 -0.098079935
-0.08571988 0.019701213 -0.021049274 0.091358885 -0.11475464 0.008995478 -0.0030985593 0.093601994
0.06283211 0.031613976 0.030619362 -0.12335327 0.09741855 0.0049937153 -0.0069451374 0.02248091
0.08617279 -0.09514953 -0.03319377 -0.08529388 0.0387962 0.041169476 -0.07041204 -0.056699432
-0.05211987 -0.08238132 0.011810439 0.10629165 0.035009746 0.08892912 -0.050988488 -0.0059859706
-0.038482707 0.03121965 -0.059921768 0.0684044 0.026936697 -0.11039757 -0.07269378 -0.13804439
-0.062139455 0.0040237308 0.054831166 0.024611713 0.05038729 -0.11675561 -0.025928728 -0.0201348
-0.005745288 -0.09526353 -0.024738038 -0.002071929 0.022641836 0.06362543 0.020376159 0.09825761
0.036628045 -0.032600775 0.03655289 -0.10276566 0.0395824 -0.09587692 0.02889762 0.044228673
-0.013921735 -0.03787472 -0.056936663 0.003617684 0.016931528 -0.025102977 0.11925102 -0.029624732
0.055672128 0.029692106 0.018907996 0.0028345939 0.027894076 -0.08067087 -0.08946716 0.06134868
-0.10034582 -0.004750409 -6.993711e-05 -0.021277701 0.014181327 -0.116916 0.008378822 0.063934535
-0.019903338 -0.067560926 0.008977048 -0.040844638 -0.018651238 -0.0148241 0.013695727 -0.0980826
-0.030795783 -0.046797622 0.053125523 -0.030062344 -0.07482317 0.05449991 -0.08733215 -0.061776195
0.033961497 0.053580917 0.04977629 0.047072187 0.0012203044 -0.030799817 -0.049254324 -0.06415978
0.057793807 0.08202645 -0.049717434 -0.13341431 0.04057551 0.0109694125 0.04354695 0.05349491
0.02216606 -0.15348426 -0.06858538 -0.025617126 0.028346267 0.067234375 -0.07941624 0.06381716

_orig_mod.shared_mlp.3.bias f4 [64]
00000000: 2ad0 e4bd de31 303e 1114 2e3e 3baa b3bd
00000010: ba54 613e 871c c3bd 9381 8c3d fc1e 883e
00000020: 7ed2 e43d 8918 ce3b 92fe 3f3e bc0e 21be
00000030: 6e4e a53d 3076 183e 3c38 edbd 6a2f 0ebd
00000040: b6de 25bd a9fe 2fbd 50fc 173e a144 323e
00000050: 5a30 563d 4532 9c3c d971 e0bd b89c f63b
00000060: fbfb 303e 01dd 8abc e330 943e 260b ec3d
00000070: 4cc8 763e 46a7 293e f764 4d3d 414a ccbd
00000080: afb3 f0bd a8b0 1bbe 46b2 03be 9d7d 523c
00000090: 37e4 35bb 742d 30bd 0236 2c3e 2b43 25be
000000a0: 1b37 5f3e bd7b e6bd 2b55 1f3e 9239 50bd
000000b0: 4a0f 0d3e da05 86bd 9db2 acbd 75f1 eabd
000000c0: 2851 823d fb0a 383e 9713 9fbc 70c1 ec3d
000000d0: db03 163e 3384 c73b ee71 b63d b586 103e
000000e0: c559 d03d bd9c 233e 280d 18bd 9bc6 9dbd
000000f0: b6ee ea3d 60bf 0b3e 1103 863c c944 1f3e
-0.11172517 0.17206523 0.16999842 -0.08772703 0.22004977 -0.095269255 0.06860652 0.2658614
0.11172961 0.006289546 0.18749455 -0.15728277 0.080716 0.14888835 -0.115829915 -0.034713186
-0.040495597 -0.042967472 0.14842343 0.17408992 0.052292205 0.01906694 -0.10959215 0.0075260065
0.17283623 -0.016951086 0.28943548 0.11525564 0.24099845 0.16567716 0.050145116 -0.099751
-0.11753022 -0.15204108 -0.12860975 0.012847331 -0.0027754435 -0.043012097 0.16817477 -0.16138904
0.21798365 -0.1125407 0.15559833 -0.050836153 0.13775364 -0.06544085 -0.08432505 -0.114718355
0.063631356 0.17972939 -0.01941852 0.11560333 0.14649908 0.0060887574 0.08908449 0.14113887
0.10173372 0.1597776 -0.03712192 -0.077038966 0.11471312 0.13647223 0.016358884 0.15553583

_orig_mod.ctr_head.weight f4 [1, 64]
00000000: c7a1 663e dad0 31bd fa00 48bd 5896 b03e
00000010: e42c 4cbd c099 293e 11cd 87bd 14b0 07bd
00000020: 29b1 35bd 582d f13e c085 9ebd a146 9e3e
00000030: ced2 96bd 3e86 8cbd c39f 953e ab21 e13e
00000040: 9f21 ab3e b6a4 d23e 3b54 b1bd dc61 3abd
00000050: f1eb 90bd b31b b83e 937c b93e 173d b63e
00000060: c0ad 53bd 4504 6cbb 7224 2dbd 36f5 50bd
00000070: 01a9 3cbd d481 4cbd 15ea 90bd 8251 5e3e
00000080: e849 913e c8d1 e53e 4ec6 b63e 2e6e c03e
00000090: bdac b73e 1a44 e23e 2a09 5cbd e09f 723e
000000a0: 9bf0 8cbd b49f d13e 368e 4abd 547c af3e
000000b0: fbc2 95bd 630b e43e 7851 b83e 97ae c03e
000000c0: 5f7d 40bd b5bd 4bbd 9665 c43e e86e 29bd
000000d0: 98d6 16bd 6c39 c43e 3da5 3dbd 5d87 73bd
000000e0: 4d3b 5ebd 0952 9cbd 4e1f bd3e be21 ca3d
000000f0: 787c 4ebd 5171 3abd 8bb9 d2bc e155 8cbd
0.2252265 -0.043412067 -0.048829056 0.34489703 -0.0498475 0.16562557 -0.0663091 -0.033126906
-0.044358406 0.47104907 -0.077403545 0.3091326 -0.073644266 -0.06861542 0.2922345 0.43971
0.33424088 0.4114129 -0.08658644 -0.045503482 -0.07076252 0.35958633 0.36227855 0.35593483
-0.051679373 -0.0036013287 -0.042271085 -0.0510151 -0.046059612 -0.0499285 -0.070758976 0.2171078
0.28376698 0.44886613 0.3569817 0.3758406 0.35873976 0.44192582 -0.053719677 0.236938
-0.06881829 0.40942156 -0.04945203 0.34274542 -0.0731258 0.44539937 0.35999656 0.376332
-0.046994563 -0.049741466 0.38358754 -0.041365534 -0.036825746 0.3832506 -0.04630016 -0.059455264
-0.054255772 -0.076328345 0.36937946 0.09869717 -0.05041167 -0.045518223 -0.02572324 -0.068523176
