experiments/exp_20251005_015408/models/checkpoint_epoch2_auc0.7282_logloss0.0879.pth (torch, 137410 bytes, 12 tensors)

_orig_mod.embeddings.gender.embedding.weight f4 [5, 8]
00000000: ec76 d7bc e979 bf3c ca21 e93c 0e97 87bc
00000010: 6c45 45bb f63b ac3c adc5 87bc b5cb 583b
00000020: 5343 24bf 6443 173f dee4 453f 6b52 b9be
00000030: 213d 29bd 8b3c 023f 81c2 7ebe b2d5 053b
00000040: 17a3 06be c0c2 463f a77d c43d dd7a 0bbf
00000050: e009 8bbd e71a 273f 6710 31bf 4485 fe3e
00000060: 7cc3 0500 f366 0500 dd78 0500 2758 0580
00000070: 2c65 0500 8169 0500 d363 0580 3f67 0580
00000080: 7268 0580 4866 0500 d864 0580 6952 0600
00000090: 2ea0 0500 8059 0580 c65c 0580 c662 0580
-0.026301824 0.023373561 0.028458495 -0.01655152 -0.0030101193 0.021024685 -0.016573751 0.0033080403
-0.6416523 0.59087205 0.7730235 -0.36195692 -0.041318063 0.5087363 -0.24878885 0.0020421562
-0.13148151 0.77640915 0.09594279 -0.5448435 -0.06788993 0.65275425 -0.69165653 0.4971105
5.29304e-40 4.96109e-40 5.02535e-40 -4.908e-40 4.95471e-40 4.97025e-40 -4.94988e-40 -4.96215e-40
-4.96645e-40 4.95869e-40 -4.95353e-40 5.80576e-40 5.16639e-40 -4.91284e-40 -4.92458e-40 -4.94611e-40

_orig_mod.embeddings.age_group.embedding.weight f4 [15, 8]
00000000: e4a8 d23c 2d71 13bd a58f 6bbb bbfc debb
00000010: 2571 c7bc 5fc9 55bc 591b 78bc ca9a 633c
00000020: 3edd 81be 0aa8 1f3e 3ebf 813e 130b 8dbd
00000030: 87d8 12be 5458 d43d a432 29be 5ae9 5dbe
00000040: d549 6e3e 0acd 81be 5839 163c 5e05 c03d
00000050: ab56 f93e 9cca 5abe 72e3 b73e 3418 5e3e
00000060: 2889 833e 9869 d2bd 627c 12be 16e1 d23d
00000070: 1d78 f33e f6ca d7bd 386c ce3e 5fdb 9a3e
00000080: 4d05 973e 5398 96bd 7fa6 e4be eaa3 073e
00000090: 9e62 d63e 8085 37bd 73f7 983e 3249 e33d
000000a0: 045d 393e b8b2 083e 400c 07bf fea4 093e
000000b0: cc76 a83e 23e7 563d 2020 863e eabe a03e
000000c0: dc38 7b3f ce6b 063e b4d6 43bf 6d74 253e
000000d0: 6b55 b9bd 85e4 35be f70b 0d3e 4440 2abf
000000e0: 2a3c 9a3e 4759 ccbe e5f4 38bf 6710 35be
000000f0: 6a6b 58bf ea6d 193e a716 27be 435b 473f
00000100: 69b3 1f3f e3a0 43bf 4a1b 8e3e 4445 d3bc
00000110: fa49 10bf 4e7b a0be 6aea f6be 8d66 83bd
00000120: 6aac 0580 55b1 0580 105b 0580 0564 0500
00000130: cf61 0580 9457 0580 3967 0500 9660 0500
00000140: e764 0500 ae5d 0580 705e 0580 c15d 0580
00000150: d460 0580 9980 0500 5963 0500 608a 8b0d
00000160: 3d57 0500 366c c08b 0a00 8288 c98f 0500
00000170: 7fa1 0500 80b9 0500 b65e 0580 6bf2 c203
00000180: 28bd 0600 dd5b 0500 7c5f 0500 255a 0580
00000190: 6162 0580 c2e1 1b21 d860 0580 5b62 0580
000001a0: 6c16 a21a 375b 0580 73c0 0500 c637 0600
000001b0: dff1 0580 d85a 0500 a465 0580 bc64 0580
000001c0: a65b 0580 2960 0500 e369 0580 5a57 0580
000001d0: b090 0500 bd5c 0580 8761 0580 ff2f 4917
0.025715299 -0.035996605 -0.0035943773 -0.00680503 -0.024345944 -0.013048499 -0.015143239 0.013891885
-0.25364107 0.15591446 0.2534122 -0.06886878 -0.14340411 0.1036841 -0.16523224 -0.21671048
0.23270352 -0.25351745 0.009168945 0.09376024 0.48698935 -0.21366352 0.35915715 0.2168892
0.2569058 -0.10274047 -0.14305261 0.10296838 0.47552577 -0.105367586 0.4031694 0.30245492
0.29496232 -0.07353272 -0.44658276 0.13246122 0.41872114 -0.04480505 0.2987629 0.11097945
0.18101889 0.13349426 -0.52753067 0.13441846 0.32903135 0.052466523 0.26196384 0.31395656
0.98133636 0.13127062 -0.76499486 0.16157694 -0.09049495 -0.17762955 0.13774095 -0.6650431
0.30124027 -0.39911863 -0.7224868 -0.17682038 -0.845389 0.14983335 -0.16317235 0.7787363
0.62383133 -0.7641737 0.27755195 -0.025789864 -0.5636288 -0.31344074 -0.4822572 -0.064160444
-5.21028e-40 -5.22792e-40 -4.91845e-40 4.95058e-40 -4.94265e-40 -4.90595e-40 4.96207e-40 4.93826e-40
4.95374e-40 -4.92783e-40 -4.93055e-40 -4.9281e-40 -4.93913e-40 5.0531e-40 4.94817e-40 8.599849e-31
4.90473e-40 -7.411853e-32 -7.8241e-34 5.10758e-40 5.17111e-40 5.25722e-40 -4.93153e-40 1.1457952e-36
6.1887e-40 4.92132e-40 4.93431e-40 -4.91515e-40 -4.94469e-40 5.281483e-19 -4.93918e-40 -4.94461e-40
6.7037854e-23 -4.91899e-40 5.28215e-40 5.71021e-40 -5.45944e-40 4.91766e-40 -4.95639e-40 -4.95314e-40
-4.92055e-40 4.93673e-40 -4.97162e-40 -4.90513e-40 5.11082e-40 -4.92446e-40 -4.94164e-40 6.500718e-25

_orig_mod.embeddings.inventory_id.embedding.weight f4 [50, 16]
00000000: ba43 903e 2b13 283d 49a1 2cbe 125c 0cbf
00000010: e630 b13e 2baa 503d 7c6c 5f3d c81f 0d3f
00000020: 3a01 c43d e76c 88bd dba1 89be b2ec 373a
00000030: f320 d73d 5c42 653e 725c ff3c ace8 013e
00000040: 6431 f0bc dde2 113e 70fc a5bd 09f4 72be
00000050: 6b72 273e f811 e03d 5088 02be 5072 423e
00000060: 3027 703d 3922 c8bd 6623 18be 2356 f4bc
00000070: 7f6c 6f3d cbdf 0e3e a985 2f3e 6433 873d
00000080: bcb3 3a3f aa94 cc3d 1460 3abf 5da2 bfbd
00000090: a296 4e3f c231 d73e a6e1 29be 170a 3a3e
000000a0: 0246 443e 5c1e 2bbf 133c a2be 5fc1 47be
000000b0: 4b44 cf3e 8b10 ac3e 05f5 97bd 7f5f 3cbe
000000c0: d235 903c 766a 65bb bde3 e53b 184f b0bc
000000d0: b9b8 c3ba 4f4b 843b c07e 17bb 2423 b43b
000000e0: 91ac cc3b 803f 4a3c 106e 24bc 61a5 693c
000000f0: 915b 62bc e911 abbb 4230 98bb 4a46 94ba
00000100: a703 34be b92f c83d 4289 a33e bfc0 6dbf
00000110: a31d d93e 9f2d 8c3e e38f 2f3e 4fe3 abbe
00000120: 6570 da3d dd0c 833e b038 d93e d4f5 3d3d
00000130: dd3b 0abf 3cee 58bd 7481 5fbe 7e54 d0bd
00000140: 03bd 72bf 83a6 91bd e5ab 89be d106 24be
00000150: a558 b03e 99a5 f1be e6d9 8dbe 8856 c4be
00000160: 8578 51be b690 03bd 0820 a0be c1b9 883e
00000170: 9509 523e e955 99be dd31 023f fe7d 9f3e
00000180: e79b 45be 74b7 2b3e 883c 63be 4ef6 c63e
00000190: 3ca4 873e d161 85bd 1a75 773f d7da 853f
000001a0: 08ba 13bb b863 36be 0447 243f cf53 13bf
000001b0: 78e0 a3bc f388 6ebe a2d1 393d 4693 8cbe
000001c0: 8a20 8bbf 1faf cd3e 6ce4 283f 4912 71be
000001d0: c10d f4be 3973 213f 81af 4dbf ad70 c2bc
000001e0: 388d 6b3e d9d7 8dbd 7a83 253f fc94 08bf
000001f0: 7e01 8ebe 2092 433e 1ea5 cd3e 4980 83bd
00000200: 1b34 9c3c 1d78 443d 0370 ddbd 383a 06be
00000210: 488c e73d 10d0 293b 6994 03bd af60 363e
00000220: a024 2bbc 6310 80bd 441e f9bd 8e87 bc3a
00000230: 5a59 c03d e7df 733d fcf7 d93d 59ea 7d3d
00000240: a6f0 08bf a4ae c2be 4f79 75bd 941f c93d
00000250: b31b ca3c baad 44be 3e5b a6bd bfc8 e1be
00000260: 71c7 82be 1ca8 4b3e 1c01 393e 2d01 933e
00000270: f7d2 353e 6663 633d 4ff6 09bf 4d95 013e
00000280: 940e cebe d9b0 c33d e87f 033e 2658 a2bd
00000290: 531c 053f fe11 5abe ea44 c73e 3efe 8fbf
000002a0: 9fc6 dabd 9dd6 bdbe c9e2 bf3e db5f 90be
000002b0: ddc0 3e3d 0496 343e 784e 60be beea 253d
000002c0: cfe8 e23e 47f0 833d 4f49 1bbd 8b21 253f
000002d0: d09e e6bc 25b4 8e3d e36b 3d3e 6856 b33e
000002e0: 0cc7 703d 2ec9 60be a54b b33d 258c 96be
000002f0: 1f68 9e3c 9e41 2f3d 3e55 a43e ee49 40be
00000300: bdab 333f 197d b53e 03c5 3c3e 5518 b6be
00000310: dc5e 65be 9dd9 833e 9e48 d13d c879 1dbd
00000320: 5f13 b9bd 3da8 7bbe c49a b2bd ada1 e63d
00000330: b60a 1dbe 9de8 78be 2257 f9be 91e2 d2be
00000340: 457c ac3e 4d85 a93d 4dd8 01be 9334 2abe
00000350: a4b0 2b3e 84f2 9a3d cfe9 c13d cc2f b23e
00000360: 5dcc f03c f245 afbd ef5b 1dbe 3f65 63bc
00000370: d05e 623d a421 ef3d ade4 acbc d075 6cbc
00000380: ac11 36be 677e 32bf fe4d c0bd 5a11 1c3f
00000390: 16db d5be d6ad 8abe ca03 603d a556 a1be
000003a0: 51a8 c83d 859f 9fbc 9988 d13a 351a a23c
000003b0: 6277 6abd 18a8 85bf 8102 bc3e 5434 d5be
000003c0: 7993 d5be bc75 fcbd dffa 26be 1acf 4abe
000003d0: c395 c93d 4237 56be f673 9dbe 19ff bcbe
000003e0: a6f7 0cbe 6470 00bc 8d04 c4be 1f78 cc3e
000003f0: 00ac 113e 6e9b 35be 401e 0d3e 5d80 613e
0.2817667 0.041033905 -0.168584 -0.5482799 0.3460762 0.050943535 0.054546818 0.5512662
0.095705464 -0.066613965 -0.26881298 0.00070161663 0.105043314 0.22388595 0.031172011 0.12686414
-0.029320426 0.14246698 -0.08104789 -0.23725905 0.1635224 0.10940927 -0.12747312 0.1898892
0.058631122 -0.097721525 -0.14857253 -0.02982623 0.05845308 0.13952558 0.17140831 0.06601599
0.729305 0.09989293 -0.72802854 -0.0935714 0.806986 0.4203015 -0.16589984 0.18167911
0.19167331 -0.668432 -0.31686458 -0.19507359 0.4048179 0.3360637 -0.07419781 -0.18395804
0.017603789 -0.0035006083 0.007015674 -0.02152209 -0.0014932371 0.004037298 -0.002311632 0.005497353
0.0062461575 0.012344241 -0.010036007 0.014260621 -0.013815776 -0.005220641 -0.0046444247 -0.0011312452
-0.17579518 0.097747274 0.31940657 -0.9287223 0.42405424 0.27378556 0.17144732 -0.3357186
0.10665969 0.2559575 0.42426062 0.046377018 -0.53997594 -0.052961573 -0.21826726 -0.101723656
-0.9481966 -0.07111838 -0.26888958 -0.16018225 0.3444263 -0.47196653 -0.27705306 -0.38347268
-0.20456131 -0.03212043 -0.31274438 0.2670422 0.20511468 -0.29948357 0.50857335 0.31150812
-0.19297753 0.167692 -0.2219106 0.3885979 0.26492488 -0.065127976 0.9666306 1.045741
-0.0022541303 -0.17811477 0.6417086 -0.57549757 -0.020004496 -0.2329443 0.045365937 -0.2745611
-1.0869305 0.4017267 0.65973544 -0.23542131 -0.47666743 0.6306644 -0.8034592 -0.023735369
0.2300309 -0.06925935 0.6465374 -0.5335233 -0.27735513 0.19098711 0.40165037 -0.06420953
0.019067815 0.04796611 -0.1081238 -0.13108146 0.113060534 0.0025911368 -0.032123957 0.1781032
-0.010445744 -0.062531255 -0.12163976 0.001438366 0.093920425 0.0595397 0.106430024 0.06199107
-0.534922 -0.38023865 -0.059930142 0.09820476 0.024671411 -0.19206896 -0.08122872 -0.4409847
-0.25542787 0.19888347 0.1806683 0.28711835 0.17756258 0.055514716 -0.5389146 0.1265461
-0.40245497 0.095552154 0.12841761 -0.07926969 0.51996344 -0.21295926 0.38919765 -1.1249464
-0.10682415 -0.370778 0.3747771 -0.28198132 0.046570648 0.17635351 -0.21904933 0.04050707
0.44318244 0.06442314 -0.03791171 0.6450431 -0.0281519 0.069679536 0.18498187 0.3502686
0.058783576 -0.21951744 0.087546624 -0.29403797 0.019336758 0.042787187 0.32096285 -0.18778202
0.70183927 0.35447004 0.18434529 -0.3556544 -0.22399467 0.25751963 0.10218929 -0.038446218
-0.09036898 -0.24575897 -0.087209255 0.11261306 -0.15336117 -0.24307485 -0.4869929 -0.4118848
0.3368856 0.08277378 -0.12680168 -0.16621618 0.16766602 0.075657874 0.094684236 0.3480209
0.029394323 -0.08558263 -0.15367101 -0.013879119 0.0552662 0.11676338 -0.021105135 -0.014432386
-0.17780179 -0.69724125 -0.09389876 0.60963976 -0.41768712 -0.2708575 0.054691114 -0.31511417
0.09797729 -0.019485245 0.0015986144 0.019787887 -0.05724276 -1.0441923 0.3672066 -0.41641486
-0.41714075 -0.123271435 -0.16306637 -0.19805565 0.09843018 -0.20919517 -0.30752534 -0.36913374
-0.13766345 -0.007839296 -0.38284722 0.39935395 0.14225769 -0.17735073 0.1378107 0.22021623

_orig_mod.embeddings.day_of_week.embedding.weight f4 [10, 8]
00000000: 00bd 623f 3a3a b03d 52c8 433e 32ee 8cbb
00000010: 37f6 b43d 9adf 6fbe e5ee c6bd ef36 533c
00000020: bd3d 6fbe 04ad bdbd 0ef7 853e d563 be3d
00000030: 1d87 eabc 984a db3b 6fd5 193e f498 0a3e
00000040: fa9a d33d 95f7 91bc 828f d9bd 6f1c 46be
00000050: d57d 383e 4c55 663e 17e1 ba3d 1dc0 5dbd
00000060: 9d8d 5abe e3dc 713c aaba f3bc da59 32bf
00000070: 3ee3 0b3e bfbc 183e 9d0b 5fbc 2f0a b8bc
00000080: 35e3 d53e 0cf0 09bc 1086 43be 8f9e 01be
00000090: 5014 71bc 26e4 213e 1b9b 943d c3fe 02bc
000000a0: ba22 983e 76dc a0bc a269 dbbd 683c 88be
000000b0: 49e7 4abd a834 253e ae89 65bc 9561 24be
000000c0: 25f3 f33e ee0a 2f3d 9a48 623e 72ea 4bbe
000000d0: 5e14 1a3e c173 283d b0ff 66be ff73 1bbd
000000e0: 0072 0580 d95d 0580 6d62 0500 f071 2d10
000000f0: fa70 0500 6259 0500 3d64 0500 b35c 0580
00000100: c987 0580 625b 0500 0161 0580 c05c 0580
00000110: 3d69 0580 2c5a 081f a06e 0500 e74d 0680
00000120: c65a 0580 1f91 4302 9c6c 0500 0abb 0580
00000130: 2ec7 0600 df62 0500 08ee 0100 c45a 0580
0.8856964 0.08604856 0.19119385 -0.004300856 0.08836024 -0.23425141 -0.09713534 0.012891515
-0.23363395 -0.09261516 0.2616505 0.09296385 -0.02862888 0.006692242 0.15022825 0.1353491
0.10332294 -0.017818252 -0.10623075 -0.19346784 0.18016751 0.22493476 0.09124964 -0.05413829
-0.21343084 0.014762136 -0.029752094 -0.6966835 0.13660905 0.14915751 -0.013613609 -0.022465793
0.41774908 -0.008419048 -0.1909411 -0.12658142 -0.0147143155 0.15809688 0.072561465 -0.00799531
0.29713994 -0.019636374 -0.10713507 -0.26608586 -0.049536977 0.16133368 -0.014009876 -0.1605285
0.47646442 0.042735033 0.22098008 -0.19913653 0.15046832 0.041126017 -0.22558475 -0.03795242
-5.00073e-40 -4.92844e-40 4.94486e-40 3.4206008e-29 4.99706e-40 4.91242e-40 4.95136e-40 -4.92432e-40
-5.07888e-40 4.9196e-40 -4.93976e-40 -4.9245e-40 -4.9693e-40 2.887371e-20 4.98862e-40 -5.78959e-40
-4.91741e-40 1.4367985e-37 4.98139e-40 -5.26274e-40 6.22465e-40 4.94646e-40 1.77225e-40 -4.91738e-40

_orig_mod.embeddings.hour.embedding.weight f4 [30, 16]
00000000: 4994 003c 5f9c 6dbd 54ef 553e 52ce c83d
00000010: ee73 afbc 7e05 823e 2e33 793d 0c60 b1be
00000020: aca9 c3bb 6727 50bb b36c 03be 7105 4c3e
00000030: 9932 303c fa42 ea3d db09 40bc d3d8 663d
00000040: d0ab 383e 5ead 35bd 31e1 b23d a832 bb3d
00000050: 8336 0cbe 9c93 693e bd26 6fbc 1b7b 26be
00000060: f76e 493c ff49 19bc dabc 76bd 93bd 293e
00000070: a286 17bc a8ee 133e 369c edbd 706e e93d
00000080: 482a 0f3e 2586 963b 288c 533d a7f2 143c
00000090: 62da 67bd 974c 2b3e 0ccf b23c 7757 0bbe
000000a0: 97b5 2ebc 3e6e a9bc 8d8d e6bc 0017 aa3d
000000b0: 3b96 973c c022 953d a35b 65bd c0fc 1a3d
000000c0: ffb1 213e 9166 b3bc 063e ae3c 3276 873d
000000d0: a2ea adbd ff13 123e cd94 30bd def4 85bd
000000e0: 8c8c 6d3c 1310 2bbb 5389 50bc b4bb b13d
000000f0: 7232 6dbc 44c9 bb3d b670 aebd c0ae 8f3d
00000100: 5649 f73d e217 58bc 28f9 133d 01a5 0a3d
00000110: d014 b0bd 72c7 193e aa53 1cba 6ac7 cbbd
00000120: 4f8e c13b d708 a3bc 059f b5bc 9539 bf3d
00000130: 0e03 da38 3aef c03d f913 cebd a9f0 863d
00000140: cd1e e73d ab02 28bd 55f2 e23d 8887 b43d
00000150: 0d39 cdbd 842e 513e 698c c439 047c 4fbe
00000160: fbc9 bebb fc7c 12bd fefd a8bd c1e2 243e
00000170: cc28 993b e961 f43d 182c 9f3a 4672 8f3d
00000180: c2f2 5fbd 1d01 15bd f61b c63d 718e aa3d
00000190: bd18 39be a5b1 863e 6e37 513b 6394 58be
000001a0: 2944 a73c 2637 4cbd 6cf4 85bd 1406 4a3e
000001b0: 1b61 45bc 6750 183e 13df c6bd 0acf e33d
000001c0: 3ed2 9cbd 9ef9 08bd 6bee aa3d 79a2 9e3d
000001d0: abeb 2bbd 4a85 9d3d a5e1 89bc 1782 0ebe
000001e0: 0f17 8c3c 2f46 2dbc ddf3 7ebd 37a1 c13d
000001f0: c902 d7bc f10f 5c3d e1ed 4f3e 3bd3 ce3c
00000200: 1870 29be 5658 163a cb47 dd3b 8ded 82bc
00000210: 5f7d b43d 278e 53be 6165 6d3b a115 213b
00000220: 0ea7 77bb 975e 9f3d 8686 623c 71fa 98bd
00000230: 272a fabb 47a5 bebd 1905 c93d b503 80bd
00000240: 352a 7fbe f9ab cbbc 26a4 ab3d 64bf 6d3c
00000250: 51d2 203e ad2f dfbd e0ea 7b3d 79b9 00bd
00000260: 87a5 1cbc 94fa b5bc 569b b0bd 9a1a ddbc
00000270: 94ac ecbb d73e fcbd 5b59 553e a97d bbbd
00000280: a646 d2be b703 523b 858b 053c 17b2 babc
00000290: 22f2 d53d 121d 42be d416 713c c7a8 f73c
000002a0: 9eec 3d39 bdf3 c63c df03 d8bb 2eaa 86bd
000002b0: 4069 3dbc c40b eabd 0930 3f3e cb45 aebd
000002c0: d74a 83be e206 3a3c c4b2 3abd 2cdc 06bd
000002d0: 8aac 483c db2a 0bbd ea1c ec3a a1c0 8c3d
000002e0: 63cf 91bb 7d7a 80bc df49 ee3c edb3 7bbd
000002f0: d8cf 593c 30d9 dfbc 35ef 39bd 573d cabc
00000300: be1c 03be 99ba ea3c d53d 01bd 6980 9ebd
00000310: 1d59 a73d 7e84 2cbe fbc6 6d3d 0b1c 913d
00000320: 6eaa f7bb 4c91 55bd 17b0 db3c 2206 a7bd
00000330: c374 453c c2b0 69bd b7c2 8e3c a944 97bd
00000340: 3153 6d3c 0e61 113c 2474 09bd 8b5e 7dbd
00000350: 3611 9d3d ad9f c3bd 04a8 5a3d 5702 903d
00000360: c4da 42bc 100f c2bc 61ec cf3c 3bc3 a3bd
00000370: 3c6e 723c 61e4 8abd f2ee ae3c 8804 67bd
00000380: 2bae 263d 8d95 833c 70f5 9bbd 8b2d e1bc
00000390: d598 1e3d 19f5 9fbd 6011 ecbc c8aa fc3d
000003a0: 69db 603c fe6d 883c 05f8 4c3d f805 92bd
000003b0: 9335 e6bc 88ed 99bd 1797 e03b 367d d3bb
000003c0: ab0f 103d cef3 823d 5dcb 1bbe a3c6 c4bd
000003d0: 876f be3d 6f28 39be 0be9 2dbd df91 583e
000003e0: 14f8 053c 6332 5f3d c1a7 fb3d e82c 31be
000003f0: b054 5b3b 554f dbbd 4348 b3bc 41c0 33bd
0.007847854 -0.058010455 0.20892078 0.098049775 -0.021417584 0.25394815 0.060839824 -0.3464359
-0.005971154 -0.0031761767 -0.12834434 0.1992395 0.010754251 0.11438556 -0.0117211 0.056359123
0.18034291 -0.04435479 0.08734358 0.09140521 -0.1369267 0.22810215 -0.014596638 -0.16257899
0.0122945225 -0.009356021 -0.060238697 0.16576223 -0.009248408 0.14446509 -0.116020605 0.113980174
0.13980973 0.004593628 0.051647335 0.009091056 -0.05660475 0.16728435 0.021827243 -0.13607584
-0.010663412 -0.02068245 -0.028143669 0.08305168 0.018504253 0.07282019 -0.055995595 0.037838697
0.15790556 -0.021899493 0.02126981 0.06614341 -0.08492018 0.1426544 -0.043110657 -0.06540845
0.014498841 -0.002610211 -0.012728053 0.0867838 -0.014477359 0.09169248 -0.08517592 0.07015753
0.120745346 -0.013189288 0.036126286 0.033848766 -0.0859772 0.15017489 -0.00059633947 -0.099501446
0.005906857 -0.019901676 -0.022170553 0.09337155 0.00010395619 0.09420629 -0.10062403 0.06588871
0.11285172 -0.04101817 0.110813774 0.08814913 -0.10020647 0.204279 0.00037488647 -0.20262152
-0.005822418 -0.035763726 -0.0825157 0.16102125 0.004674053 0.119327374 0.0012143878 0.07004218
-0.05467487 -0.036378015 0.09673302 0.0832795 -0.18075843 0.26307407 0.0031923908 -0.21150355
0.020418243 -0.04985728 -0.065407604 0.19728881 -0.0120470775 0.14874421 -0.09710517 0.11123474
-0.07657288 -0.03344118 0.08346256 0.07745833 -0.041972797 0.076914385 -0.016831229 -0.13916813
0.017100839 -0.010575815 -0.062244285 0.094545774 -0.026246445 0.05372614 0.20305587 0.025247207
-0.16546667 0.0005735209 0.006752943 -0.015982414 0.08812975 -0.20659696 0.0036223757 0.0024579542
-0.0037788781 0.077817135 0.013826018 -0.07469643 -0.0076344195 -0.09308868 0.098154254 -0.06250707
-0.24918444 -0.024862276 0.08380918 0.014510963 0.1570523 -0.10897765 0.06150329 -0.03142688
-0.009560949 -0.022214212 -0.08623378 -0.026990224 -0.0072227214 -0.12316673 0.20834868 -0.09154827
-0.41069525 0.0032045671 0.00815094 -0.022789998 0.10446574 -0.18956402 0.014714915 0.030231846
0.00018112591 0.024286145 -0.0065922583 -0.06575428 -0.011560738 -0.11428025 0.18670668 -0.08509406
-0.25643036 0.01135418 -0.04558064 -0.032924816 0.012248168 -0.033976417 0.0018013988 0.068726785
-0.0044497713 -0.015683407 0.029087959 -0.061450887 0.013294183 -0.027325243 -0.04539414 -0.024687452
-0.12803933 0.02865343 -0.03155311 -0.07739336 0.08171294 -0.16847417 0.05805109 0.07085427
-0.0075581586 -0.05214052 0.026817365 -0.081554666 0.012051764 -0.057053335 0.017426832 -0.07386143
0.014485166 0.008873237 -0.033558026 -0.06185774 0.07669298 -0.0955194 0.05338289 0.07031696
-0.011892978 -0.023688823 0.025381269 -0.07996222 0.01479679 -0.06781841 0.021354172 -0.056400806
0.040693443 0.016062522 -0.07615173 -0.027487537 0.03871997 -0.078104205 -0.028816879 0.123372614
0.013724186 0.01665401 0.050041217 -0.07130045 -0.028101718 -0.075160086 0.006853949 -0.0064541353
0.035171192 0.06394158 -0.15214296 -0.096081994 0.09298616 -0.1808183 -0.042458575 0.21149395
0.008176822 0.054491412 0.12287856 -0.17302287 0.0033467226 -0.10708491 -0.021885043 -0.04388452

_orig_mod.dense_proj.weight f4 [64, 113]
00000000: 8d17 f8bb 98b9 96bc b407 573d bee8 9f3d
00000010: 22e4 e53d b115 02bd 8ee3 f2bc a747 f03a
00000020: 30d9 003d e91f 5cbc d6d1 8f3c 67ca 06bc
00000030: 94f3 8abb 62d7 a3bc f686 703d 0e35 fc3c
00000040: d6ae c83c a576 9abc 0aad 9abc 88d8 7d3d
00000050: 9595 973c 28fc 53bc 023e 293c 1a05 873c
00000060: 7fb1 a3bc 2c6e bc3c 3066 0bbd 0f9d 1abd
00000070: 3c39 bc3c a27a 133c 3494 80bd 8e9f c43c
00000080: 0782 253d 0094 c73c 5eab fc3c 02d0 d83c
00000090: f619 c2bc ef10 2ebc 756c 023d aa36 10bd
000000a0: a302 03bd 9299 5cbd a3c4 abbc 4955 8f3c
000000b0: 2e5c 64bc 909a e03c fb20 8c3c 594e 99bc
000000c0: 5cac de3c 3577 9abc 7617 be3b 8f12 1d3c
000000d0: d2ab 33bc 70a6 fabc 5cc4 0b3b 8aae b83c
000000e0: f827 a2bd fb9c 973d e5af 00bd 5f33 ebbc
000000f0: 8479 123d 4ac6 b6bc 9edc 49bd ff02 3bbc
00000100: 8440 973c 986e a33b 1db6 5a3d ce4f 25bd
00000110: 2553 583d b763 77bb e7b5 13bd 0c7b f0bc
00000120: e322 6dbd 9238 1bbc cf8c 4ebd d1af 843c
00000130: 3c95 cc3b 38de 883b 62fb ccbd 9adc 843c
00000140: 35b6 39bd c23c 2c3d ecf7 053d 1181 953d
00000150: be71 fa3c 29a4 41bd dec4 3fbb 1d75 2b3c
00000160: 6133 9f39 874a 023c 9967 45bb c903 83bb
00000170: ae90 aa3c df1f ac3b 42f5 ab3b eb70 2bbb
00000180: e317 9d3b 3576 0dbc c633 c43b a175 273c
00000190: 5ff8 1f3b 3a5e 973a c5aa 8c3b e4f5 2d3b
000001a0: c901 163c 8af2 91bb 9418 6e3b c3a7 273a
000001b0: b727 5abb 69b9 a4ba 78dd debb 7dbd 973a
000001c0: c367 8c3d 1af7 1abd bc9b 113c 68e2 793d
000001d0: d99d e4bd e012 7ebd aecf c9bd 85a2 c4bd
000001e0: 4043 ab3b dccb b73d 3a8f 85bd 532f afbd
000001f0: 85eb 81bd 00b8 c33d 54ff c5bc b22c b73d
00000200: ec3b f03d 6ee3 9e3c 15f1 74bd 04d9 aa3c
00000210: 4d40 27ba 530c 56bc c0b1 633d 2bea 3d39
00000220: 4641 b8ba 4a22 5ebc 732f 073d 07ed 9cbd
00000230: ca30 bdbd 1469 ea3d 25d0 99bc 740f 3b3d
00000240: 3ea3 4a3d b588 3ebc ce35 0dbd c301 453c
00000250: 8ab3 483c c88b 363c 15a8 c5bd aa53 1fbd
00000260: 0569 cbbd 6901 97bb 8d16 09be fd3b 173d
00000270: 2de0 bd3c 92a6 e43d 84ba 2e3d 98bd e2bc
00000280: 1014 b2bd 0ca8 86bc e028 313c f5bf 9e3d
00000290: ee54 0cbe da12 143d 5bc9 edbc 53b6 11bd
000002a0: edf5 db3d bcc6 54bd 09aa 4c3d c04e 713b
000002b0: 024a 453c 46c9 ef3c 7a5a 08bd 2677 213d
000002c0: 53a8 9bbd df0b 09bd 3579 3ebc 8c42 94bd
000002d0: cbc1 b6bd a1e7 f0bc b441 893c e1e8 023d
000002e0: cb93 76bc b2df 4f3c 260e 77bb 8c3d 07bd
000002f0: 0ccf 953d fb58 c5bd 7824 9ebd 4352 9cbe
00000300: aafa e83c 909e 20be 6edb 8f3d 2082 693d
00000310: 5106 073e e920 d9bc 9700 cabc 4b75 8cbb
00000320: f9d8 ccbc 9968 ea3b ed48 8f3c 084d d93c
00000330: 867f ce3c 86d6 523c f33e a4bc 226e 4f3c
00000340: 5981 6cbc e3df adbc 44d2 b5bc 831f c33c
00000350: d481 1dbd 0216 163c df32 26bb de02 acbb
00000360: 51aa 9fbc 02c0 fdbc c01a 42bc d4ac 1b3c
00000370: 2a8b d13c 6c86 5dbc c0ea bb3c aadc 963b
00000380: 1512 c7bc 0514 cf3c 26d4 cabd fa56 17bd
00000390: bca8 89be 753e 163e 6ce3 21bd 0afe 083e
000003a0: 7d74 4abd 553e e7b8 cc04 a6bc 115e b6bc
000003b0: 6df4 8ebd fc6f b03c 5cf6 13bd f807 2f3d
000003c0: 0e8f 63bc d790 283e 83c6 763d 7dcc 953c
000003d0: c91c 863c 7374 643d 427c db3d c0cd 49bc
000003e0: 1b67 633c 3191 c03d a3f4 133d d316 1a3d
000003f0: 9327 b9bc 885f 6a3d 55d0 083c 2106 e7bd
-0.007571167 -0.018399045 0.05249758 0.07808064 0.112251535 -0.031758968 -0.029649522 0.0018331901
0.031457126 -0.013435342 0.017556112 -0.008226967 -0.0042404626 -0.020000163 0.05872246 0.030787017
0.02449743 -0.018855402 -0.01888134 0.06197408 0.018503943 -0.012938537 0.010329725 0.016481925
-0.019982098 0.023001753 -0.034033 -0.03774744 0.02297651 0.009001406 -0.062782675 0.024001863
0.040407207 0.024362564 0.030843433 0.026466373 -0.02369402 -0.0106241545 0.031841714 -0.03520838
-0.031984936 -0.053857394 -0.020967787 0.017496722 -0.013937993 0.027417451 0.01710557 -0.018714117
0.027181797 -0.01885567 0.0058011366 0.009586944 -0.010966258 -0.030596942 0.0021326756 0.022544164
-0.0791778 0.074029885 -0.031417746 -0.02871102 0.035760418 -0.022311348 -0.049282663 -0.011414289
0.01846338 0.004987549 0.053396333 -0.04035931 0.052813668 -0.0037748644 -0.036062147 -0.029355548
-0.0578946 -0.009473937 -0.050427254 0.016197117 0.006243376 0.004176881 -0.10008885 0.016218472
-0.04533978 0.04205013 0.03270714 0.07300008 0.030571815 -0.047275696 -0.002926163 0.010464934
0.00030365124 0.007952339 -0.0030121563 -0.003998254 0.020820942 0.005252823 0.005247743 -0.0026159834
0.0047941073 -0.00863414 0.005987617 0.010220916 0.0024409515 0.0011548467 0.0042928183 0.0026544267
0.009155699 -0.0044539617 0.0036330568 0.0006395543 -0.0033287832 -0.0012567464 -0.0068013035 0.0011576858
0.068557285 -0.03783331 0.008887228 0.061006933 -0.111629196 -0.06202972 -0.09854065 -0.09601311
0.0052265227 0.0897443 -0.06521459 -0.08553948 -0.0634375 0.095565796 -0.024169602 0.08944072
0.11730179 0.019395556 -0.059800226 0.020855434 -0.0006380126 -0.013064462 0.055589437 0.00018111679
-0.0014057539 -0.01355798 0.033004235 -0.07662397 -0.092378214 0.11445823 -0.018776009 0.045669034
0.049472086 -0.011629273 -0.03447514 0.012024346 0.012249837 0.011141725 -0.096512 -0.038898148
-0.0993214 -0.0046083224 -0.13387509 0.036922444 0.023178184 0.11164583 0.042658344 -0.027678296
-0.08695233 -0.016437553 0.010812968 0.07751457 -0.13704273 0.03615079 -0.029026678 -0.03557427
0.10740266 -0.05194734 0.049966846 0.003682062 0.012041571 0.02927078 -0.03328941 0.03942027
-0.07600465 -0.033458587 -0.011625578 -0.07239255 -0.08923682 -0.029407324 0.016754963 0.031960372
-0.015049885 0.01268761 -0.0037697642 -0.03301768 0.07314882 -0.09636112 -0.077217996 -0.3053151
0.028439838 -0.15685487 0.07024275 0.057008862 0.13186003 -0.02650495 -0.024658484 -0.0042864433
-0.025005804 0.0071535823 0.017490828 0.02652599 0.025207292 0.012868529 -0.020049548 0.012660535
-0.014435136 -0.021224922 -0.022194989 0.023818737 -0.038453892 0.0091605205 -0.0025359911 -0.0052493652
-0.019490393 -0.030975346 -0.011847198 0.009501655 0.025579054 -0.013520818 0.022939086 0.004603942
-0.024300614 0.0252781 -0.09903745 -0.03694818 -0.26886547 0.14672263 -0.039523527 0.13378158
-0.049427498 -0.000110265486 -0.02026596 -0.022261651 -0.06980214 0.021537773 -0.03612362 0.04273221
-0.013889087 0.16461502 0.06024791 0.018285984 0.016371148 0.055775117 0.1071706 -0.012317121
0.013879563 0.09402693 0.036121976 0.037619423 -0.022601878 0.057220012 0.0083504515 -0.11280466

_orig_mod.dense_proj.bias f4 [64]
00000000: f241 0b3d a270 953d fe8a 91bd c09b ae3d
00000010: b665 a13d ea06 30bc fcd1 8ebd db2d 05be
00000020: 7b4a 82bd 98f8 04bd 2901 0e3c 4fd5 053b
00000030: a1d9 0a3c 2853 ddbc 7250 2bbd 720c cd3b
00000040: b051 b43d c65a 22bd 2b88 a03c bc7b b9bc
00000050: cbfe c1bd bef9 813b 202d 253c f94e 4d3d
00000060: a8c3 fdbd 8e94 a93b 1715 963a e54d e13c
00000070: 0d8c 543c 18d6 453c 5569 3dbb db97 3c3c
00000080: 9de3 b1bc 1335 be3d 0b9e d93a 27a7 8fbd
00000090: 6739 80bc 375c 22bd 28b1 80bd 37d8 ec3d
000000a0: 4537 153d d45b 8a3c f41a 903c 5e93 bd3b
000000b0: b13b 9fbc b75b 513d 039e 543c 1851 a8bc
000000c0: 8d4b 1ebc 4a03 c53d e364 aebc 1918 483d
000000d0: 94d0 30bc 56e9 dabd a70a b3bd 0087 8b3c
000000e0: 222c 153e 6527 9abc f06b 44bd 304f 3a3c
000000f0: 7130 49bd 523d 0a3e 31ca 203c f7ed 103e
0.033998437 0.07296874 -0.07106589 0.08525801 0.07880728 -0.010743836 -0.06973645 -0.13005774
-0.06361862 -0.03246364 0.008667269 0.0020421331 0.008474738 -0.027017191 -0.041824766 0.006257587
0.08804643 -0.03963735 0.01959618 -0.022642009 -0.09472426 0.003966539 0.010081559 0.050124142
-0.12390834 0.00517518 0.0011450377 0.027502963 0.012972844 0.01207497 -0.0028901894 0.011510815
-0.02171498 0.09287467 0.0016602887 -0.07014304 -0.015652372 -0.039638724 -0.0628379 0.11564677
0.036429662 0.01688949 0.017590977 0.00578539 -0.019437643 0.051112857 0.012977126 -0.020546481
-0.009661567 0.09619768 -0.02128834 0.048851106 -0.010791916 -0.106890365 -0.08742266 0.017032146
0.14567617 -0.018817613 -0.0479545 0.011371419 -0.049118463 0.13499954 0.009813831 0.14153276

_orig_mod.shared_mlp.0.weight f4 [128, 120]
00000000: 4710 f03d dc5a 1bbe 6cbe 06be d341 d53d
00000010: 1dfc 393c 4762 fcbd 8063 c13d b026 05bd
00000020: fd4d bdbd efb3 4a3e 4aa0 eabc 795f 003d
00000030: 85af 223e 0da6 dc3c 2294 083e eee0 f5bd
00000040: e1be ae3d 2c1b 493d 24df 473d 3d52 ba3b
00000050: ea44 1abd e843 94bc 2051 a03d 896d 173e
00000060: dfa5 41bc cc10 513d 671b 253c 7456 c3bb
00000070: 989c 44bd e57b 183d 50c4 05bb 80b9 f23c
00000080: 1dec f9bc 0b20 ddbc e079 ca3d b8e8 4c3e
00000090: 10a6 1dbd 104d 8dbd 1fa6 2a3d c004 7d3d
000000a0: 148a bebc 9ee8 11bc 91a3 a43c 9f15 493c
000000b0: ec3e b13b 9484 05bc 2a2f 6b3b 27de 7ebc
000000c0: 7bb0 d4b9 85e8 2ebb 4dce a0bc e541 233c
000000d0: 84fe e8bb e58a 81ba 5b62 c23c 619a 90bb
000000e0: 804f d4bb 2e07 f0bc 12f1 c9bd 2504 a5bc
000000f0: b5c4 d8bc 8e21 34bc 9e90 0abd dd3c 0b3d
00000100: 3f44 793c 0a0e d6bc 036c 043d aa7c 83bc
00000110: 97a0 e33c 173d 993b e163 ab3c 50aa fa3b
00000120: f09f a23c 0d32 303c 0278 f0bc d32c 30bb
00000130: a4b5 2f3e 3435 713d 9ff2 87bc 87b3 afbd
00000140: e1ff 9c3d 57de 12bd ab79 7abb d994 37bd
00000150: 5efe c63c f763 95bd df15 893b ee6e 413d
00000160: cd3b 263d 82c6 e6bd d582 b73d 19f1 59bd
00000170: 8e23 873c 7993 173e 07cf 63bc e45d 83bb
00000180: 45a9 a8ba a2f3 8dbd 2396 60bd 7a6c 58bd
00000190: f763 91bc 0961 b43c 212e 07bd 6db7 e2bb
000001a0: a90c d5bb 3844 4a3d 21a4 413d 53c7 253e
000001b0: 4134 15bc 20cd 68bc b9d1 c2bd e641 a5bc
000001c0: f928 87bc 7adf 32bd 2839 66bc d0a6 f9bb
000001d0: 1ca2 493d 3d58 5abd 5be8 d13c f04f bbbd
000001e0: 0906 48bc c383 bd3d 5277 8e3d 6e88 afbd
000001f0: 67c8 afbc 8d02 eb3d 9135 e2bd 6dcf b23d
00000200: b5db 5abb 011c 88bd 25e5 a5bd 8a72 103c
00000210: d61a 0c3e e7e1 50bc a9dd c63d 7934 d43d
00000220: f306 04be 9521 f43c d88d 513d 4c32 09be
00000230: d3aa 073d 2a7a bcbc 08b6 6abb 3cc6 bbbc
00000240: 2839 dfbc c32d 08bd 5005 f0bc d432 8a3d
00000250: 5990 63bd 49d7 51bd c1cc d93d b8f7 9b3d
00000260: a5d7 bc3d c88a 55ba 6985 4dbc f1e4 cd3b
00000270: a776 ccba cb10 ed3c 2357 61bb d49a 80bc
00000280: 4af0 a2bc 3131 983a 7f2d 91bc daea ff3b
00000290: 4d04 2a3d 81fa 99bd 1213 0bbd 8142 4b3d
000002a0: 448e 17bc 81bb 803c 8983 8c3c 8db9 b5bc
000002b0: 20c5 bebb d6b7 13bd dfcf 033d 19d5 a9bc
000002c0: 9da3 1f3a 0eec 8c3d dfe1 bebc 16f9 0f3c
000002d0: 0c9d bf3c b5dc ab3c 57c7 0cbc 69f2 a4bc
000002e0: 3b86 eb3b 6ae6 a9bc 564c 85bd a4ce 983c
000002f0: 832e 0abc 3960 9c3c 2e11 d83c 0488 763c
00000300: 6bb5 dd3c 4144 fe3b 970e 57bd 2f03 a5bc
00000310: 2efe 0dba 9ddc 083b 3ff6 c03c 9e22 543c
00000320: 9bcb a73b 4884 f2bc 94df 1fbd 8e88 e03c
00000330: 1d54 843d a862 153d 6770 b4bc 6a61 06bd
00000340: 90c6 77bd bdea 0fbd ca0f 90bc ad02 d4bd
00000350: 9035 bfbc 9431 d9bc a7a1 aa3d fd49 123b
00000360: 58f6 b83b 6f3d 8c3b 75c5 89bc 456c f63b
00000370: f736 4cbd 54f4 7cbb f9fb ab3c 4e0b dabc
00000380: e6a3 bdbc d70e 59bb f6a2 0bbd 7c49 b8bc
00000390: 7a70 b83c b67c 86bc 2b3b 82bd 07e9 bd3c
000003a0: ede8 b03d 8fb4 293d 8721 3c3c 7ffe 8c3c
000003b0: d0e1 21bd 3e99 1cba 085d ad3a a14f 713b
000003c0: dcbd bb3d ca38 febd 4da4 b2bd 45c3 b43d
000003d0: 48de 6d3c 384d e5bd b693 ac3d 7e04 f4bc
000003e0: 8bf3 91bd c670 a73d 8f16 133d 3e6c 443b
000003f0: 2d84 983d e449 023d 90db 363d f813 d6bc
0.11721855 -0.15171379 -0.13158578 0.104129456 0.011351612 -0.123234324 0.09442806 -0.0325076
-0.09243391 0.19795202 -0.028640885 0.03134105 0.15887268 0.026934648 0.13337758 -0.120057926
0.08532501 0.04909818 0.048796788 0.005686073 -0.037663378 -0.018098786 0.07827973 0.14787878
-0.011819332 0.05104141 0.010077334 -0.0059612337 -0.048000902 0.03722753 -0.00204112 0.029629469
-0.030508095 -0.026992818 0.09886527 0.2001065 -0.038488448 -0.06899464 0.04166233 0.061772108
-0.0232592 -0.008905558 0.020097526 0.012273221 0.005409112 -0.008149285 0.0035886266 -0.015555895
-0.0004056728 -0.0026688885 -0.019629622 0.009964441 -0.0071104188 -0.0009883313 0.02372854 -0.0044129346
-0.0064792037 -0.029300299 -0.09860434 -0.020143578 -0.026460985 -0.010994328 -0.033829324 0.03399359
0.015214025 -0.026129741 0.03232957 -0.016050655 0.027786536 0.004676472 0.02092165 0.0076496974
0.019851655 0.010754121 -0.0293541 -0.0026882186 0.17159134 0.05888863 -0.016595183 -0.08579164
0.076659925 -0.03585657 -0.0038219492 -0.044819687 0.024291214 -0.072944574 0.0041835154 0.04722493
0.040584374 -0.11268331 0.08960501 -0.053208444 0.016496446 0.1480235 -0.01390434 -0.0040089954
-0.0012867829 -0.06931235 -0.05483068 -0.052837826 -0.017747862 0.022018926 -0.033002976 -0.0069188387
-0.0065017533 0.049381465 0.047275666 0.16189317 -0.009106697 -0.014209062 -0.09512658 -0.020173024
-0.01649903 -0.043670155 -0.014051713 -0.0076187626 0.049226865 -0.053306807 0.025623491 -0.09146106
-0.01220847 0.09253647 0.06956352 -0.08570944 -0.021457864 0.11475096 -0.11045373 0.087309696
-0.0033395116 -0.06645966 -0.081003465 0.008816371 0.13682112 -0.012749172 0.09710247 0.10361571
-0.12893276 0.02980117 0.051160663 -0.13398093 0.033121895 -0.023007471 -0.0035814065 -0.022921674
-0.027248934 -0.033246767 -0.029299408 0.06747976 -0.055557583 -0.051230703 0.10634757 0.07615608
0.092208184 -0.0008145985 -0.0125440145 0.0062833955 -0.0015599326 0.028938672 -0.0034384213 -0.015698828
-0.01988997 0.001161134 -0.01772189 0.007809979 0.041508008 -0.07518483 -0.033953734 0.04962397
-0.009250227 0.015714409 0.017152565 -0.022183204 -0.005821839 -0.03606399 0.032180663 -0.020731496
0.0006089749 0.06880961 -0.023301063 0.008787414 0.023390315 0.020979265 -0.008592448 -0.020135121
0.0071876324 -0.020739753 -0.065087005 0.018653221 -0.008433941 0.019088851 0.02637538 0.015047077
0.027064046 0.0077596013 -0.05250415 -0.02014312 -0.0005416599 0.002088345 0.02355492 0.0129477065
0.005120707 -0.029604092 -0.03903158 0.027408864 0.06461356 0.03647104 -0.022026254 -0.032807745
-0.0604921 -0.035135973 -0.017585654 -0.10352073 -0.02334097 -0.026512899 0.08331614 0.0022321932
0.005644601 0.0042797844 -0.016817788 0.007520231 -0.049857106 -0.003859778 0.020994173 -0.026616719
-0.023149442 -0.0033120418 -0.03409096 -0.022495978 0.02251457 -0.016416889 -0.06358942 0.023182405
0.08638177 0.04143196 0.011482603 0.017211197 -0.039521992 -0.00059737626 0.0013226578 0.0036821144
0.09167072 -0.124131754 -0.08722744 0.08826307 0.014518328 -0.11196369 0.08426611 -0.029787298
-0.0712653 0.08175807 0.035910185 0.0029971744 0.074470855 0.03180875 0.044642985 -0.026132569

_orig_mod.shared_mlp.0.bias f4 [128]
00000000: de29 50be b7c2 213e 1de7 23be 404f 003d
00000010: fc60 81be b8fc a6bd 3139 e53d 4d69 c43d
00000020: 4361 793c c71f 9f3d 64ff a6bd 24fd b9be
00000030: 228f 2d3b 45e0 0dbd 6167 71bc 9bc3 b73c
00000040: bbf4 a43d 628e 3abe d385 35be bd20 2dbe
00000050: 4f93 8f3d dd80 5d3d b1a5 09be 36fe 30be
00000060: e2b9 2ebe a26a 3ebe 1d0c 53bd 2498 d03c
00000070: 2f4c 643c 2e31 be3c 77ef 28be 82ca a23d
00000080: e4ef ecbd 50ed ef3c 215b 05be b749 f03d
00000090: 8b86 f33d 7770 79be 7dbe 03be d150 64be
000000a0: ecef 40be 2e49 533d 199a 5a3d ec4e 1c3d
000000b0: 8f2a 5c3b 3100 21be cb69 c1bd 0be1 48be
000000c0: 081b be3d 65d9 35be 79f4 813d 9a8e 173d
000000d0: 1232 57bc 8df4 38bc d904 223d 437e 243d
000000e0: d589 173d b7ae 743b a2f0 f53d d361 41be
000000f0: f220 ab3d 777f 20be f6a4 c5b9 a0e6 a8bc
00000100: ed53 d4bc 38a9 10be 5b7b a1bd aa18 6ebd
00000110: 5100 89ba d8a4 10be 37c0 a63c 9791 32be
00000120: b4ea a93d dbcc 483c 3d04 d33d e2dc 773d
00000130: f2f9 143b 6249 11be 2726 16be 1fb8 0bbe
00000140: eb87 06be fc5f a0bd 7409 c1bd 184b de3d
00000150: d08d 36ba 3262 96be c538 993d c883 423d
00000160: e0bf 26be a001 0abe 796a 3a3b b1b8 0fbe
00000170: 7066 1fbe 30f1 1fbd 0b95 fd3d 42d4 35be
00000180: 3abd bd3c d4ef 403d 9f11 ac3d 34fc e13d
00000190: 3b66 41be 8321 243c be11 27be 9ef0 8e3b
000001a0: 1ec6 fd39 57d9 c53a f203 363d 59f1 fd3b
000001b0: 8bc4 363d fcfc 33be b819 31be 9159 2ebe
000001c0: 84d0 c73c 2566 103d f124 41be 4458 80be
000001d0: 6aea 893d 288d 123e 07c6 963d 57bd e53c
000001e0: 34f9 aabb f112 1cbe 0a17 48be aa0b 79bd
000001f0: d79a 993d 26a6 183d 42ba c03b 7215 663d
-0.20328471 0.15796934 -0.16006131 0.03132558 -0.25269306 -0.08153671 0.11192549 0.09590397
0.015220943 0.07769733 -0.08154181 -0.36325943 0.002648302 -0.03463771 -0.01473412 0.02243214
0.08054491 -0.18218377 -0.17726831 -0.1690702 0.07010519 0.05407797 -0.13442113 -0.17284474
-0.17063096 -0.18595365 -0.051525224 0.025463171 0.013934179 0.02321681 -0.16497599 0.079487815
-0.11569193 0.029287964 -0.13023044 0.1173281 0.118908964 -0.24359308 -0.12865634 -0.22296454
-0.18841523 0.05158346 0.053369615 0.038161203 0.0033594703 -0.1572273 -0.094440065 -0.19617097
0.092824996 -0.1775871 0.063454576 0.03700123 -0.013134496 -0.011288774 0.039555404 0.040159475
0.03699668 0.0037335583 0.12008788 -0.18884973 0.08355893 -0.15673624 -0.00037697674 -0.020617783
-0.025918925 -0.14127052 -0.07884856 -0.05812899 -0.0010452365 -0.14125383 0.020355327 -0.1743835
0.08296719 0.012255873 0.10303543 0.060513385 0.0022731987 -0.1418815 -0.14662991 -0.13644455
-0.13137786 -0.078308076 -0.09425631 0.10854167 -0.0006963881 -0.29371792 0.07481531 0.047488958
-0.16284132 -0.13477182 0.002844481 -0.14035298 -0.1556642 -0.039048374 0.12381943 -0.17756751
0.02316152 0.047103718 0.084017985 0.11034432 -0.18886654 0.010017755 -0.16315362 0.00436218
0.0004840353 0.001509468 0.044437356 0.007749718 0.04462103 -0.17576975 -0.17294967 -0.17026354
0.02439142 0.035253663 -0.18861748 -0.2506734 0.06734164 0.1431166 0.073619895 0.028044386
-0.0052176956 -0.152416 -0.19540039 -0.06080214 0.075002365 0.037267826 0.0058815787 0.056172796

_orig_mod.shared_mlp.3.weight f4 [64, 128]
00000000: 1fc1 b43d d671 7fbd b39f 023d 6855 d3bd
00000010: 0484 0abd f408 1a3d 9ecc f5bc 9585 15bd
00000020: 6622 c7bc 913b 23bc 9893 623d 831e 273d
00000030: 785f 0cbc 6a2b 46bb 5ad4 bdbc ccdb 52bd
00000040: 9df6 e8bc 17ec 313d 3526 fb3c 2d92 383d
00000050: 61e0 fdbb 59fd ed3b a4d3 4c3d 7d24 463d
00000060: 59f5 503d e8fd 413d 0a0a 003c 0c96 4fbd
00000070: ce8c 1cbc 5346 fbbc 51ca 093b 1b77 b1bc
00000080: 3240 2f3d 20eb ffbc c56e a7bc 0d3c 8ebd
00000090: 6a5c 71bd d16c 8f3d 1442 a8bc 6f7d 0abe
000000a0: bbd4 123d 0802 a2bc 6c98 82bc c6cd 62bc
000000b0: afd0 7ebc 17a7 28bd 14f7 8d3c c053 833d
000000c0: a4f5 89bd 1752 253d 12bd 95bc 935a 82bd
000000d0: 43ab 28bc 37d0 e2bc 2699 2abd cb47 5bbd
000000e0: 66d9 d23a bf6c bb3b dc0f 9dbd 9705 d13c
000000f0: d7f8 c5bc b171 30bd 8eb5 e1ba 2428 d2bc
00000100: 30e4 f6bb 0a39 853c e048 2abd f489 b1bd
00000110: 9d38 ce3c 0895 f33b 57c4 7fbd 261d 123d
00000120: 6fc0 f5bc 5e25 5cbc 939b b6bc c125 1dbd
00000130: ee1f b0bc b465 073d fe7c 02bc 7a53 47bd
00000140: f76f 30bc 0999 893d 7309 0a3d fcf1 41bd
00000150: 7431 343c f35d bf3d d012 023c 2d0e 0cbd
00000160: f974 133d 462d 5abd ebbf 3fbc b3e9 4d3c
00000170: b3f5 8d3d 9fa5 4dbd 83dd 09bc c9a7 df3c
00000180: 26e6 8abc 4ad0 30bd 99dc 08bd 80f7 09bd
00000190: 7b38 8abb c709 ecbc edbe 553d 24af 33bb
000001a0: b0a2 b7bc a33d abbc f801 013d b4b2 59bc
000001b0: 41ad 21bd 5962 6c3d a2d2 2c3d 9125 c63c
000001c0: 3ee7 adbd a265 50bd fd91 90bd c4e8 acbc
000001d0: 05c3 e6bc d43d 33bd 0d2f b2bb bd6b 923c
000001e0: 4f7a 31bd 2b49 85bc eef4 f23c abd0 263d
000001f0: 15e3 babc 95c0 bebb 22bd e9bc 2c07 52bd
00000200: d14a 87bd ce1a 2a3d 6321 dbbc 8558 413d
00000210: 2686 87bd aee1 07bc 3198 903b 5339 393d
00000220: 5c96 3e3d f95a d33c 29af 423d 0047 f3bd
00000230: a665 203d 804c 3c3c 8c5d 9ebb e0f7 be3c
00000240: e70a 633d 7f4b 19bd 8afb f9bc d0d5 c8bc
00000250: 94ff 813d d2f1 533d 4191 30bd afc5 aebc
00000260: 59a3 30bd ed0c 74bd 228d 6dbc 25b5 6c3d
00000270: e765 773c 070c 893d 8320 51bd b3ed fa3b
00000280: fc5c 0a3b 46a8 dc3c ce24 58bd 9f35 653d
00000290: 7dc2 2d3d beb0 a8bd 9cd1 babd b040 b1bd
000002a0: 694b 7cbd ba93 b53c 5a36 cc3c 89ca a33c
000002b0: a7cb b43c 24be cfbd 16f8 343c f04b 683c
000002c0: be69 bc3b d61c 24bd 6977 a93c 2eda 9a3b
000002d0: cbe4 54bc bf05 4b3d 6032 a6bb e73f 423d
000002e0: 5d30 173c 1726 9d3a a7cd 3c3d d233 1bbd
000002f0: 3613 c23c a7c5 81bd c706 1f3d 340f 9bbb
00000300: 3018 89bc 9ea6 c2bc d828 193c 475b cf3b
00000310: 9933 9b3c fbef dcbc dcd8 463d 5679 f5bc
00000320: 3e3d 083d 036f 903c 5d21 3e3d e566 db3c
00000330: 64fd ff3b dd1f 17bd 73a6 63bd 71a3 b63d
00000340: 7082 bcbc 7c12 51bc eb1a b7ba 4ab0 423d
00000350: 99b7 803c 2213 70bd a2e4 5b3c 131a f23c
00000360: f29e e9bc 6290 debc 8ec9 67bb ebc7 32bd
00000370: 8472 ebbc 5f5f b03c c79e 343c 87a4 31bd
00000380: fcdf 4c3d 3d13 e93c 232f 0c3d f48d 103d
00000390: 9798 fcbb 9aa7 dc3c 2155 f5bc 2561 633c
000003a0: b8b4 803d f06a 1f3c 6201 a33c 724b 533c
000003b0: 8e00 303d 1248 0abd 7359 c6bc afd4 a6bc
000003c0: 3b4a 003d 5754 483d eac9 86bd 1f16 92bd
000003d0: 32e1 5f3c 4326 ca3c 169c 783d 4db1 323b
000003e0: 9a83 ecbc 4e43 b5bd 4b72 0cbd 6b29 13bc
000003f0: ecec 303c 2522 a03d 30f3 aa3c 74aa 4d3d
0.088258974 -0.06236442 0.031890582 -0.10319024 -0.033817306 0.037606195 -0.030004796 -0.036504347
-0.024308395 -0.009962932 0.055316538 0.040800583 -0.008567683 -0.003023828 -0.023172546 -0.051479146
-0.028437907 0.043438043 0.030657867 0.04506128 -0.0077476953 0.0072628674 0.050006524 0.04837464
0.05101523 0.047361284 0.0078148935 -0.050680205 -0.009555055 -0.030673182 0.002102513 -0.02166324
0.04278583 -0.031240046 -0.020438561 -0.069450475 -0.058926024 0.07003177 -0.020539321 -0.13524412
0.035847407 -0.01977636 -0.015941821 -0.0138430055 -0.015552684 -0.041174974 0.01732973 0.064124584
-0.06736305 0.04036149 -0.018278632 -0.06364932 -0.010294738 -0.027687175 -0.04164996 -0.053535264
0.0016086518 0.0057197507 -0.076690406 0.02551536 -0.024166508 -0.043077175 -0.0017220245 -0.025653906
-0.0075345263 0.01626255 -0.041573405 -0.086688906 0.02517348 0.0074335374 -0.062443104 0.03567233
-0.029998986 -0.013436643 -0.02229098 -0.038366083 -0.0214996 0.033055976 -0.007964371 -0.048663594
-0.010768882 0.06718642 0.033700418 -0.047349915 0.010998119 0.09344091 0.007939056 -0.034193207
0.036000226 -0.053265832 -0.011703472 0.012567925 0.06931629 -0.050206777 -0.008414629 0.027301686
-0.016955446 -0.04316739 -0.033413503 -0.0336833 -0.004218159 -0.028813256 0.052184034 -0.0027417624
-0.022416443 -0.020903414 0.03149602 -0.013287235 -0.03947187 0.05771098 0.042193063 0.024187835
-0.084913716 -0.050878175 -0.07059095 -0.021107085 -0.028169164 -0.043760136 -0.005437738 0.01787364
-0.043329533 -0.01627024 0.029657807 0.040726345 -0.02281336 -0.0058212974 -0.028532568 -0.05127637
-0.06606067 0.04152947 -0.026749318 0.04720356 -0.06617384 -0.008293552 0.004412674 0.045220684
0.046530113 0.025800215 0.047530327 -0.118787766 0.03915944 0.011492848 -0.004832929 0.023311555
0.05543032 -0.037425514 -0.030515451 -0.024516016 0.06347576 0.05174429 -0.043107275 -0.021334497
-0.04312453 -0.05958264 -0.014498981 0.05778994 0.015099979 0.06691747 -0.051056396 0.0076577305
0.0021112552 0.026935708 -0.052769475 0.05595934 0.042421807 -0.08236836 -0.09122011 -0.08654916
-0.061595354 0.022165168 0.02492826 0.019994037 0.022069765 -0.10143688 0.011045476 0.014178261
0.00574991 -0.040066563 0.020686822 0.004725716 -0.012994002 0.049566027 -0.005071923 0.047424223
0.009227839 0.0011989501 0.046094563 -0.037891217 0.023690801 -0.06336527 0.038824823 -0.004732037
-0.016735166 -0.02376109 0.009348117 0.00632802 0.018945502 -0.0269699 0.048546657 -0.029965084
0.03326153 0.01763106 0.046418536 0.026782462 0.007812189 -0.03689562 -0.05557866 0.08917893
-0.023011416 -0.012760755 -0.0013969814 0.047531404 0.015712546 -0.058611996 0.0134212095 0.029553449
-0.028518174 -0.027168456 -0.0035367939 -0.043647688 -0.028741129 0.021529851 0.011024184 -0.043369796
0.050018296 0.028451556 0.03422464 0.035291627 -0.00770862 0.026935387 -0.02994782 0.0138781415
0.06284469 0.009730086 0.01989812 0.0128964055 0.04296928 -0.033760138 -0.024212575 -0.020365087
0.03132079 0.048908558 -0.06581481 -0.071331255 0.013664531 0.024676448 0.06069573 0.0027266324
-0.028871346 -0.08850728 -0.034288686 -0.008982043 0.010798674 0.078190126 0.020867914 0.050211385

_orig_mod.shared_mlp.3.bias f4 [64]
00000000: 3fea 5ebe 9afe 763e ffcc 853e 0644 99be
00000010: a1f9 983e 7a66 5cbe e3ca 273e 2b5b b13e
00000020: c083 653e 860a f0bd 3156 753e b844 97be
00000030: 1d8a 133e e804 573e 8fb3 1ebe 0de8 25be
00000040: 4f95 c9bd f70c 26be 8aa3 463e 8183 793e
00000050: 2e5f 0b3e 7435 a8bd eb2d 89be 7f57 87bd
00000060: 5bc1 813e eb72 7bbb 137e ae3e b826 513e
00000070: 5931 983e 0129 723e 97b2 0c3e 5bff 92be
00000080: cc33 49be 7814 a8be 6ed9 52be eb5d 18be
00000090: af18 a1bd 8d78 56be a299 853e 9d7e 84be
000000a0: 9398 883e 35d3 80be c1c6 603e 7b8c 10be
000000b0: 6155 513e ca45 39be a111 6bbe 71bb 95be
000000c0: db98 343e a7e4 723e 59e2 0ebe c7a4 593e
000000d0: 0ff9 803e 2678 d4bd c044 413e 0379 563e
000000e0: a7e1 513e b9cc 513e edb1 dfbd 420e 4ebe
000000f0: 0c07 533e 0f32 3e3e 184e d23d 8f28 4c3e
-0.21769045 0.2412056 0.26132962 -0.2993471 0.29877952 -0.21523467 0.16385989 0.34639868
0.2241354 -0.11720757 0.2395866 -0.29544616 0.14408155 0.20997965 -0.15498184 -0.16201802
-0.098429315 -0.16215883 0.19398323 0.24366571 0.13610527 -0.082133204 -0.26792845 -0.066084854
0.2534283 -0.0038368057 0.34080562 0.20424926 0.2972515 0.23648454 0.13740002 -0.28710446
-0.19648665 -0.32828116 -0.20590755 -0.14879577 -0.07866036 -0.20944424 0.26093775 -0.25877848
0.26678905 -0.25161138 0.21950819 -0.14116089 0.20442726 -0.18093029 -0.22955944 -0.2924457
0.17636435 0.23720036 -0.13953532 0.21254264 0.25190017 -0.10374479 0.18873882 0.209446
0.20496236 0.20488252 -0.109226085 -0.20122626 0.20608157 0.18573783 0.102688015 0.19937347

_orig_mod.ctr_head.weight f4 [1, 64]
00000000: 8f04 923e dd2a 32bd 4a66 62bd 3adc d93e
00000010: e7e0 67bd 20c5 523e 5674 97bd 15e0 63bd
00000020: 684e 78bd 7b4e fe3e e9a8 dabd 8c15 c13e
00000030: bcdd b2bd e0bb 8abd 18a3 c93e 0765 e03e
00000040: ffe6 be3e 3c81 cd3e a87a cbbd 6ad1 57bd
00000050: 1981 d0bd 8696 cc3e 3438 d63e 9683 d03e
00000060: a9a1 46bd c0ee 6fb7 4f3a 33bd d8f0 54bd
00000070: 0fc1 35bd 1909 7cbd b539 87bd 1cef a73e
00000080: e093 be3e de72 ee3e af0b c63e f279 de3e
00000090: b5fd cd3e 57e9 f43e f845 3fbd 02a8 b73e
000000a0: 397d 8cbd e879 dd3e fd37 6abd c572 d43e
000000b0: 2cf3 bbbd c3ec ea3e 280d be3e 66d7 d23e
000000c0: ec71 7dbd c961 73bd 08a6 e03e 7070 7bbd
000000d0: 7e7c 39bd f342 db3e 3723 67bd 53de 65bd
000000e0: 501b 74bd da37 a7bd 0a3e e33e c9e2 613e
000000f0: 7e2b 80bd eeb9 25bd c089 b6bc cd74 9ebd
0.28519103 -0.04349791 -0.05527333 0.42550832 -0.056610968 0.2058301 -0.07395236 -0.055633623
-0.06062165 0.4966925 -0.10676748 0.3771175 -0.08733699 -0.067741156 0.39382243 0.43827078
0.3728561 0.4013766 -0.09935504 -0.052689947 -0.101808734 0.3995859 0.41839755 0.40725392
-0.048494015 -1.4301098e-05 -0.04375678 -0.0519875 -0.04437357 -0.061532114 -0.066028036 0.32799613
0.37222195 0.46572012 0.3868079 0.43452412 0.40232626 0.47834274 -0.046697587 0.35870367
-0.06859822 0.4325707 -0.0571823 0.41493812 -0.09177241 0.4588376 0.37119412 0.4117996
-0.061876222 -0.059419427 0.43876672 -0.061386526 -0.04528474 0.42824516 -0.056430068 -0.056120228
-0.05959636 -0.0816495 0.4438327 0.22059168 -0.062582955 -0.04046052 -0.022282481 -0.07737122
