experiments/exp_20251005_015408/models/checkpoint_epoch5_auc0.7354_logloss0.0872.pth (torch, 137410 bytes, 12 tensors)

_orig_mod.embeddings.gender.embedding.weight f4 [5, 8]
0	0xba06021e	-0.000511201
1	0x3bc0646d	0.0058713467
2	0x39f34480	0.00046399608
3	0xbb8ac26a	-0.0042346017
4	0x31eb5d2e	6.8499935e-09
5	0x3b88e38c	0.0041775163
6	0xbbb26298	-0.005443882
7	0x3b916dc0	0.004438132
8	0xbf083851	-0.5321093
9	0x3f10da9a	0.5658356
10	0x3f2de24d	0.6792343
11	0xbea217b7	-0.31658718
12	0x33384e18	4.2911864e-08
13	0x3ef508b2	0.47858196
14	0xbe6d1ce6	-0.23155555
15	0x3b1c319a	0.0023833276
16	0xbe071388	-0.13191044
17	0x3f3f9dc8	0.7485013
18	0x3debd525	0.115152635
19	0xbf00c445	-0.50299484
20	0xb3bc25c5	-8.7613024e-08
21	0x3f1f98c2	0.62342465
22	0xbf26de45	-0.65182906
23	0x3ec15d7f	0.37766644
24	0x0005c37c	5.29304e-40
25	0x000566f3	4.96109e-40
26	0x000578dd	5.02535e-40
27	0x80055827	-4.908e-40
28	0x0005652c	4.95471e-40
29	0x00056981	4.97025e-40
30	0x800563d3	-4.94988e-40
31	0x8005673f	-4.96215e-40
32	0x80056872	-4.96645e-40
33	0x00056648	4.95869e-40
34	0x800564d8	-4.95353e-40
35	0x00065269	5.80576e-40
36	0x0005a02e	5.16639e-40
37	0x80055980	-4.91284e-40
38	0x80055cc6	-4.92458e-40
39	0x800562c6	-4.94611e-40

_orig_mod.embeddings.age_group.embedding.weight f4 [15, 8]
0	0x3b51f3a6	0.0032036095
1	0xbb97d0d1	-0.004633047
2	0xbb0fe521	-0.002195664
3	0x3af759d0	0.0018871371
4	0xbbd40525	-0.00647034
5	0x3a698713	0.0008908372
6	0xbb65415c	-0.0034981584
7	0x3b206b42	0.0024477993
8	0xbe265e01	-0.16246797
9	0x3cdbc68a	0.02682807
10	0x3e4bcf8d	0.19903393
11	0xbbef412c	-0.0073014703
12	0xbe498e4d	-0.1968319
13	0xba032e2e	-0.0005004135
14	0xbe2b881e	-0.16751143
15	0xbe060b97	-0.13090359
16	0x3d67d5d4	0.056600407
17	0xbe07a533	-0.13246612
18	0x386e3bf7	5.679947e-05
19	0xbcdaa91f	-0.026691971
20	0x3ec94a8c	0.39314687
21	0xbcb88910	-0.022526294
22	0x3e8cc4a4	0.27493775
23	0x3e4eeead	0.20208235
24	0x3e24f3ff	0.16108702
25	0x3b9abecd	0.0047224523
26	0xbe318530	-0.17335963
27	0x3c7a1f3a	0.015266234
28	0x3ee6b02c	0.45056283
29	0xbc13ecfc	-0.009028669
30	0x3eaf839c	0.34280097
31	0x3e2b8c11	0.1675265
32	0x3df92fa3	0.12167289
33	0x3ccdf350	0.025140435
34	0xbe56fe7f	-0.2099552
35	0x3d3b9a7d	0.04580163
36	0x3ec43fff	0.38330075
37	0xbbef99ce	-0.007312036
38	0x3e75f3b5	0.24018748
39	0x3d6a4a75	0.057199914
40	0x3e04bb39	0.12962045
41	0x3da9bbec	0.082877964
42	0xbe835409	-0.2565005
43	0x3d1451f1	0.036210958
44	0x3e9fbd03	0.31198892
45	0x3bdf5fd7	0.006816845
46	0x3e4a60ba	0.19763461
47	0x3dcf53cb	0.10123404
48	0x3f047e30	0.51755047
49	0x3e00263e	0.12514588
50	0xbef09111	-0.46985677
51	0x399de4e7	0.0003011592
52	0xbd98de94	-0.074643284
53	0x3c0503fa	0.008118624
54	0x3da594d7	0.080850296
55	0xbeae43da	-0.34036142
56	0x3e824753	0.2544504
57	0xbea987cc	-0.33111417
58	0xbee6e71f	-0.45098206
59	0xbc95fe8c	-0.018309854
60	0xbf3eded4	-0.7455876
61	0x3cba666f	0.022753922
62	0xbe2b9036	-0.16754231
63	0x3ecfeaf5	0.40608945
64	0x3eeb2292	0.45924813
65	0xbf317206	-0.6931461
66	0x3e74c4b8	0.23903167
67	0xbad490d1	-0.0016217475
68	0xbf1db73d	-0.61607724
69	0xbd464173	-0.04840226
70	0xbeec701c	-0.46179283
71	0x3d2e7088	0.042587787
72	0x8005ac6a	-5.21028e-40
73	0x8005b155	-5.22792e-40
74	0x80055b10	-4.91845e-40
75	0x00056405	4.95058e-40
76	0x800561cf	-4.94265e-40
77	0x80055794	-4.90595e-40
78	0x00056739	4.96207e-40
79	0x00056096	4.93826e-40
80	0x000564e7	4.95374e-40
81	0x80055dae	-4.92783e-40
82	0x80055e70	-4.93055e-40
83	0x80055dc1	-4.9281e-40
84	0x800560d4	-4.93913e-40
85	0x00058099	5.0531e-40
86	0x00056359	4.94817e-40
87	0x80056139	-4.94054e-40
88	0x0005573d	4.90473e-40
89	0x00055aee	4.91797e-40
90	0x000560cc	4.93902e-40
91	0x00058fc9	5.10758e-40
92	0x0005a17f	5.17111e-40
93	0x0005b980	5.25722e-40
94	0x80055eb6	-4.93153e-40
95	0x80055b44	-4.91917e-40
96	0x0006bd28	6.1887e-40
97	0x00055bdd	4.92132e-40
98	0x00055f7c	4.93431e-40
99	0x80055a25	-4.91515e-40
100	0x80056261	-4.94469e-40
101	0x00055fe1	4.93572e-40
102	0x800560d8	-4.93918e-40
103	0x8005625b	-4.94461e-40
104	0x00055e09	4.92911e-40
105	0x80055b37	-4.91899e-40
106	0x0005c073	5.28215e-40
107	0x000637c6	5.71021e-40
108	0x8005f1df	-5.45944e-40
109	0x00055ad8	4.91766e-40
110	0x800565a4	-4.95639e-40
111	0x800564bc	-4.95314e-40
112	0x80055ba6	-4.92055e-40
113	0x00056029	4.93673e-40
114	0x800569e3	-4.97162e-40
115	0x8005575a	-4.90513e-40
116	0x000590b0	5.11082e-40
117	0x80055cbd	-4.92446e-40
118	0x80056187	-4.94164e-40
119	0x8006589b	-5.82799e-40

_orig_mod.embeddings.inventory_id.embedding.weight f4 [50, 16]
0	0x3e9e35df	0.30900475
1	0x3d634342	0.055484064
2	0xbdb990c8	-0.09060818
3	0xbed6e2fd	-0.41970053
4	0x3e99719f	0.299695
5	0x3dcd902e	0.10037266
6	0x3dd50288	0.104008734
7	0x3ee17747	0.44036314
8	0x3d5743d4	0.05255492
9	0x3ce0fe8c	0.027465127
10	0xbe02b5cb	-0.12764661
11	0xbd03f42a	-0.032215275
12	0xba9a0690	-0.0011751223
13	0x3e91a88f	0.28448913
14	0xbdce9421	-0.10086847
15	0x3d84c03b	0.064819776
16	0xbd8cb452	-0.06870331
17	0x3ddf2f37	0.108976774
18	0xbdca3071	-0.09872521
19	0xbe31a58d	-0.17348309
20	0x3e25bb68	0.16184771
21	0x3d9559ee	0.07292543
22	0xbe54ee90	-0.2079413
23	0x3e11b066	0.14227447
24	0x3ce231f9	0.02761172
25	0xbd9b0b5e	-0.075705275
26	0xbe19ed46	-0.15031919
27	0xbcb6bbc2	-0.022306327
28	0x3da27a59	0.07933492
29	0x3e148106	0.14502344
30	0x3e59e39e	0.21278235
31	0x3dc877c4	0.097884685
32	0x3f1ccc41	0.61249167
33	0x3e08975a	0.13338986
34	0xbefd79bf	-0.49506947
35	0xbdccf7da	-0.100082114
36	0x3f13e214	0.5776684
37	0x3e8c0552	0.2734781
38	0xbe241cc9	-0.16026606
39	0x3e4ec88b	0.20193689
40	0x3d6be747	0.05759361
41	0xbebe62b7	-0.37184688
42	0xbe838bde	-0.25692648
43	0xbe1cffc8	-0.15331948
44	0x3e7a4f3e	0.24444291
45	0x3e99e197	0.30054924
46	0x3c8fcd86	0.017554056
47	0xbce7315a	-0.028221775
48	0x3cbacfb8	0.022804126
49	0x3b80f7b5	0.003935779
50	0x3d07489b	0.033028226
51	0x3d2b1560	0.04176843
52	0xbd1be348	-0.03805855
53	0x3b4d70f7	0.003134785
54	0x3d233ad4	0.039851025
55	0xbcc156a0	-0.023600876
56	0xba277856	-0.0006388476
57	0xbadb6e01	-0.0016741158
58	0x3d458293	0.04822023
59	0xbc8e35d4	-0.017359652
60	0xbc6d399e	-0.014479069
61	0xbbd9e77f	-0.006649911
62	0xbd27d7df	-0.040977355
63	0xbcbc2121	-0.022965016
64	0xbde0332f	-0.109472625
65	0x3db267d1	0.08711208
66	0x3eba7c4e	0.36422962
67	0xbf4f3067	-0.8093323
68	0x3e4d4c54	0.20048648
69	0x3e8194a7	0.25308725
70	0x3dddce44	0.10830358
71	0xbe953655	-0.29143015
72	0x3d6ec170	0.058289945
73	0x3e8120bf	0.25220296
74	0x3eacca80	0.33748245
75	0x3d9b7736	0.07591097
76	0xbef2d328	-0.47426724
77	0xbd827352	-0.06369652
78	0xbe820dd6	-0.2540118
79	0xbdf07923	-0.11741855
80	0xbf6320e0	-0.8872204
81	0xbd772142	-0.06033445
82	0xbe17dca7	-0.14830266
83	0xbda6e7f1	-0.08149708
84	0x3e13b48a	0.14424339
85	0xbeadb441	-0.33926585
86	0xbe9442d3	-0.28957233
87	0xbe9c99b7	-0.30586025
88	0xbe0be445	-0.13661297
89	0x3d4645c4	0.048406377
90	0xbe6e1963	-0.23251872
91	0x3e4f8314	0.20264846
92	0x3e25a30b	0.16175477
93	0xbe48d9c6	-0.19614324
94	0x3edc1193	0.42982158
95	0x3e85af10	0.26110125
96	0xbe28737b	-0.16450302
97	0x3d8f0c5f	0.069847815
98	0xbddaffb5	-0.106933035
99	0x3ec31839	0.38104418
100	0x3df89cd1	0.12139285
101	0xbcd44644	-0.025912412
102	0x3f12c2a4	0.5732825
103	0x3f5d5790	0.86461735
104	0x3c0a372e	0.008436007
105	0xbd75017a	-0.05981586
106	0x3ef3b2d5	0.47597376
107	0xbec282e4	-0.37990487
108	0xbc374eaa	-0.011188189
109	0xbe1c2c96	-0.15251383
110	0x3d5eac44	0.054363504
111	0xbe0a0777	-0.1347941
112	0xbf8150ef	-1.0102824
113	0x3ea7503e	0.32678407
114	0x3f11a591	0.5689326
115	0xbe3e36a5	-0.18575533
116	0xbec0971d	-0.3761529
117	0x3ee97fc8	0.45605302
118	0xbf1f4a55	-0.62222797
119	0xbcaba6ea	-0.020953614
120	0x3e13cc84	0.14433485
121	0xbd8c2b81	-0.06844235
122	0x3f146d68	0.5797944
123	0xbef10ea8	-0.47081494
124	0xbe7ebbd0	-0.24876332
125	0x3df035da	0.11729021
126	0x3ed98ff4	0.4249264
127	0xbd3ae724	-0.04563059
128	0x3d0992fd	0.033587445
129	0x3d04bfc6	0.032409452
130	0xbdcb48a9	-0.09925968
131	0xbd84f251	-0.06491531
132	0x3db5d8f3	0.088792704
133	0x3bd6cc5a	0.0065551223
134	0xbda00997	-0.07814329
135	0x3e39deac	0.18151349
136	0x3c88ad71	0.016684266
137	0xbd3a9904	-0.045556083
138	0xbe0999a6	-0.13437518
139	0xbc5e140c	-0.013554584
140	0x3d81097d	0.06300638
141	0x3d1f08b9	0.038826678
142	0x3e28b2b3	0.16474418
143	0x3d0fd0e9	0.03511134
144	0xbf0637a5	-0.52428657
145	0xbe9fcfb5	-0.31213155
146	0xbe1b3031	-0.15155102
147	0x3dc5fb76	0.09667103
148	0x3e36f91f	0.1786847
149	0xbe8dc147	-0.2768652
150	0x3e23cf91	0.15997149
151	0xbee3cd7a	-0.44492704
152	0xbe672880	-0.22574043
153	0x3e264120	0.1623578
154	0x3dbb9284	0.09158805
155	0x3e82a0f1	0.25513414
156	0x3e4e608b	0.20154016
157	0x3e08b9a1	0.13352062
158	0xbef4cd54	-0.47812903
159	0x3e58eff6	0.21185288
160	0xbeacfbcc	-0.33785856
161	0x3d61baba	0.055109717
162	0x3d97b789	0.074080534
163	0x3c8446e5	0.016147086
164	0x3e938f59	0.28820303
165	0xbde8dee6	-0.113706395
166	0x3e5980ae	0.21240494
167	0xbf658ffd	-0.89672834
168	0xbcc28a9e	-0.023747738
169	0xbe4da63f	-0.20082949
170	0x3e9d6a43	0.30745134
171	0xbe812c80	-0.25229263
172	0x3d86be61	0.06579281
173	0x3e484966	0.1955925
174	0xbe205180	-0.1565609
175	0x3cc79784	0.02436424
176	0x3e9eb726	0.30999106
177	0x3d8937a9	0.067000695
178	0xbd734881	-0.059395317
179	0x3f1f1854	0.62146497
180	0xbd75ba05	-0.059991855
181	0x3d590328	0.052981526
182	0x3e4fcee5	0.20293768
183	0x3eb7b698	0.35881495
184	0x3d822de7	0.063564114
185	0xbe659b87	-0.2242261
186	0x3e3cfce2	0.18455842
187	0xbed12bba	-0.40853673
188	0x3db59df4	0.08868018
189	0x3cc94e06	0.024573337
190	0x3e80453e	0.25052828
191	0xbe12ef92	-0.14349201
192	0x3f232131	0.6372252
193	0x3e3d6c85	0.18498428
194	0x3e318bed	0.17338534
195	0xbe5e21b6	-0.21692547
196	0xbe5f30c4	-0.21795946
197	0x3e197388	0.14985478
198	0x3e11c596	0.1423553
199	0xbd962a7b	-0.07332321
200	0xbd3f6982	-0.04673148
201	0xbd44b5c7	-0.04802492
202	0xbd258310	-0.040408194
203	0x3e1a8a10	0.15091729
204	0xbe276db4	-0.16350442
205	0xbe4b4e4e	-0.1985409
206	0xbee4372f	-0.44573352
207	0xbe6f5a88	-0.23374379
208	0x3eaef5b2	0.34171826
209	0x3d26b9f8	0.040704697
210	0xbe1f38a9	-0.15548958
211	0xbd6c3c14	-0.057674482
212	0x3e2ac3de	0.1667628
213	0x3d5e168c	0.05422072
214	0x3db37d58	0.08764142
215	0x3ea913ab	0.33022818
216	0x3ca57d26	0.020201277
217	0xbd7fbdfd	-0.062437046
218	0xbde88c38	-0.113548696
219	0xbd1c8a63	-0.038217913
220	0x3d803526	0.06260137
221	0x3de17be6	0.1100996
222	0xbc7f2119	-0.015571856
223	0xbc51844b	-0.012787889
224	0xbe1d74c3	-0.15376572
225	0xbf175b98	-0.59124136
226	0xbdd83cdf	-0.10558485
227	0x3f134711	0.57530314
228	0xbec4f0ee	-0.38465065
229	0xbe643ba1	-0.22288372
230	0x3cd7d8f6	0.026348572
231	0xbe841630	-0.25798178
232	0x3da2bdcf	0.07946359
233	0x3c8e6a7a	0.017384756
234	0xbd010991	-0.031503264
235	0x3cf92540	0.03041327
236	0xbd21b7ba	-0.039481856
237	0xbf66a5d1	-0.90096766
238	0x3ebd3c0f	0.36959884
239	0xbe9e7ca1	-0.3095446
240	0xbe8d444d	-0.27591172
241	0xbe102f67	-0.14080583
242	0xbe320de6	-0.17388114
243	0xbdd5bc05	-0.104362525
244	0xbbf8ad83	-0.0075890436
245	0xbe59871f	-0.21242951
246	0xbeb19f73	-0.34691963
247	0xbebbd624	-0.36686814
248	0xbddbc355	-0.10730616
249	0x3ce82685	0.02833868
250	0xbedd9370	-0.43276548
251	0x3ecd1a53	0.40059146
252	0x3e3f30a9	0.18670906
253	0xbe06b143	-0.13153557
254	0x3db84d0a	0.08999069
255	0x3e379a39	0.17929925

_orig_mod.embeddings.day_of_week.embedding.weight f4 [10, 8]
0	0x3f1bf353	0.6091816
1	0xba8764ea	-0.0010329757
2	0x3e2ab9aa	0.16672388
3	0x3d0640f4	0.032776788
4	0xbc084c52	-0.008318977
5	0xbe26bcfa	-0.16283026
6	0xbcd16619	-0.02556138
7	0x3d089e9a	0.03335438
8	0xbe68e526	-0.22743663
9	0x3b9f4673	0.004860693
10	0x3db8f0b9	0.09030289
11	0x3e40f9d3	0.188453
12	0xbce51cb4	-0.027967788
13	0xbd2bf04f	-0.041977223
14	0x3d4b3554	0.049611405
15	0x3c5687f5	0.013093938
16	0x3c3a5311	0.011372344
17	0x393e22cc	0.00018132775
18	0xbd82d14e	-0.06387578
19	0xbe03c34a	-0.12867466
20	0x3c5320d5	0.012886246
21	0x3db052e1	0.08609558
22	0x3ce7ac08	0.028280273
23	0xbc98abb7	-0.018636568
24	0xbd4dc6be	-0.050238363
25	0xbb593e6b	-0.0033148776
26	0xbdb7d0ac	-0.08975348
27	0xbee9842a	-0.45608646
28	0x3d176db7	0.036969867
29	0x3de679a0	0.11253667
30	0x3b94658d	0.0045287074
31	0xbc875ebb	-0.016524663
32	0x3e13366f	0.14376234
33	0xba59b8ac	-0.00083054113
34	0xbe2cc7fc	-0.16873163
35	0xbe0ea1e5	-0.13928945
36	0xbc6f4c3c	-0.014605578
37	0x3e075306	0.13215265
38	0x3dadbe29	0.08483536
39	0xbbaf4cf0	-0.005349748
40	0x3e13113c	0.14362043
41	0x3bac54a0	0.0052591115
42	0xbe2db034	-0.16961747
43	0xbe8056c1	-0.25066188
44	0x3c1f0893	0.009706634
45	0x3e1763e0	0.14784193
46	0xbca2cb4c	-0.01987233
47	0xbd14ed4f	-0.036359128
48	0x3ed03cdd	0.40671435
49	0xbb3cb9fd	-0.002879738
50	0x3e10b093	0.14129858
51	0xbda5b4fe	-0.08091162
52	0x3c8951d3	0.01676265
53	0xbdac3dd0	-0.08410227
54	0xbdff6387	-0.12470155
55	0x3c1cd378	0.009571902
56	0x80057200	-5.00073e-40
57	0x80055dd9	-4.92844e-40
58	0x0005626d	4.94486e-40
59	0x80055ebc	-4.93162e-40
60	0x000570fa	4.99706e-40
61	0x00055962	4.91242e-40
62	0x0005643d	4.95136e-40
63	0x80055cb3	-4.92432e-40
64	0x800587c9	-5.07888e-40
65	0x00055b62	4.9196e-40
66	0x80056101	-4.93976e-40
67	0x80055cc0	-4.9245e-40
68	0x8005693d	-4.9693e-40
69	0x00055e90	4.931e-40
70	0x00056ea0	4.98862e-40
71	0x80064de7	-5.78959e-40
72	0x80055ac6	-4.91741e-40
73	0x80055a7b	-4.91636e-40
74	0x00056c9c	4.98139e-40
75	0x8005bb0a	-5.26274e-40
76	0x0006c72e	6.22465e-40
77	0x000562df	4.94646e-40
78	0x000558d0	4.91037e-40
79	0x80055ac4	-4.91738e-40

_orig_mod.embeddings.hour.embedding.weight f4 [30, 16]
0	0x3cecf72a	0.02892645
1	0x3b97021e	0.0046084067
2	0x3e4a302e	0.19744942
3	0x3d2af6f1	0.041739408
4	0xbd9b2686	-0.07575707
5	0x3e9864ce	0.29764408
6	0x3d619251	0.05507118
7	0xbec5a99e	-0.3860597
8	0xbc0b60a7	-0.00850693
9	0xbc7908c0	-0.01519984
10	0xbdb28de5	-0.087184705
11	0x3e654c6a	0.22392431
12	0xbbff8eb7	-0.0077989954
13	0x3def11a7	0.11673289
14	0xbc676bff	-0.014124869
15	0x3d1eb1bb	0.038743716
16	0x3e48de4b	0.19616048
17	0x3b777d8c	0.003776404
18	0x3d3a6412	0.04550559
19	0x3cfbfe89	0.03076102
20	0xbd9e0043	-0.07714894
21	0x3e5ac7be	0.21365258
22	0xbbd5c7f5	-0.006524081
23	0xbdfbc203	-0.12292864
24	0x3a1bf49e	0.00059492316
25	0xbc030756	-0.0079973545
26	0xbcdadb2b	-0.026715836
27	0x3dec1341	0.1152711
28	0x39a7a011	0.0003197198
29	0x3dbb47cf	0.09144556
30	0xbdb8850f	-0.09009754
31	0x3d41b862	0.04729498
32	0x3e88ab84	0.26693356
33	0x3af15368	0.0018411698
34	0x3d90cd2a	0.07070382
35	0x3d08b830	0.03337878
36	0xbdb31948	-0.087450564
37	0x3e88e278	0.26735282
38	0x3c251fa0	0.010078341
39	0xbe2dc455	-0.16969426
40	0xbaa70518	-0.0012742607
41	0xbc745c26	-0.014914548
42	0xbd2f4266	-0.04278793
43	0x3e118840	0.14212132
44	0xb9cd85a0	-0.00039200205
45	0x3ddabd0d	0.1068059
46	0xbdd5e16c	-0.104433864
47	0x3d3dff1d	0.046385873
48	0x3e7be034	0.24597245
49	0xb9315aad	-0.00016913815
50	0x3d08be86	0.033384822
51	0x3ca5c22b	0.020234188
52	0xbd8724bc	-0.065988034
53	0x3e56b335	0.209668
54	0x3a333d94	0.0006837484
55	0xbdd8177f	-0.105513565
56	0x3b837ae5	0.004012453
57	0x3a432734	0.00074445014
58	0xbc88af24	-0.016685076
59	0x3dc7a520	0.09748292
60	0xbb91b09c	-0.0044461023
61	0x3d97a604	0.07404712
62	0xbdbd928e	-0.09256469
63	0x3cff0253	0.031129038
64	0x3e11411b	0.14184992
65	0x3b13aaba	0.002253218
66	0x3d7f5929	0.06234089
67	0x3c94bde8	0.01815696
68	0xbd7ae951	-0.061257664
69	0x3e3414d4	0.1758607
70	0x3c95d50e	0.018290069
71	0xbe030465	-0.12794645
72	0x3a9588fe	0.0011408625
73	0xbc12d63c	-0.00896221
74	0xbcf87291	-0.030328067
75	0x3dd745dc	0.105113715
76	0x3a011196	0.000492358
77	0x3d932d40	0.07186365
78	0xbd64bb47	-0.055842664
79	0x3cd251ee	0.025673833
80	0x3dced249	0.100987025
81	0xbc1d6c6c	-0.009608369
82	0x3de21222	0.11038615
83	0x3d4dfaf4	0.050288156
84	0xbdb78f00	-0.08962822
85	0x3e7937bd	0.24337669
86	0xbaa2cd79	-0.0012420855
87	0xbe63ffa1	-0.22265483
88	0x3b2a15fb	0.0025953043
89	0xba565ef3	-0.00081776007
90	0xbd637477	-0.05553099
91	0x3e2ef9b5	0.17087443
92	0xbbf57f1b	-0.007491959
93	0x3df689e9	0.12038023
94	0xbcfc7b75	-0.030820588
95	0x3d79b158	0.060960144
96	0xbcaf586d	-0.02140447
97	0xbc7b6336	-0.015343478
98	0x3dc8d333	0.09805908
99	0x3cae6561	0.021288576
100	0xbd66d2be	-0.056353323
101	0x3e4ff031	0.2030647
102	0x3cb5425c	0.02212637
103	0xbe543b95	-0.20725854
104	0x3c81c1d0	0.015839487
105	0xbabccf14	-0.0014404976
106	0xbd1476e7	-0.036246207
107	0x3e08c68f	0.13356994
108	0xbc388189	-0.011261352
109	0x3d916a07	0.07100301
110	0xbc220b88	-0.009890445
111	0x3cc709e8	0.024296716
112	0xbe26484f	-0.16238521
113	0xbc11c5f1	-0.008897291
114	0x3e0512e3	0.12995486
115	0x3d38be6e	0.045103483
116	0xbcae65c0	-0.021288753
117	0x3da5fb5c	0.081045836
118	0x3c984c2f	0.018591015
119	0xbe53ceb0	-0.20684314
120	0x399efe0e	0.00030325394
121	0xbc034051	-0.00801094
122	0xbd8d7808	-0.0690766
123	0x3ddfc5d3	0.10926404
124	0xbc22464f	-0.009904458
125	0x3d4cfea6	0.05004754
126	0x3de5ce7b	0.11221024
127	0x3cc1a95e	0.02364033
128	0xbe28e5f2	-0.16493967
129	0x3caacfb8	0.020851001
130	0x3d11d5a0	0.03560412
131	0xbd1245df	-0.035711166
132	0x3d640c88	0.055676013
133	0xbe01fa53	-0.12693147
134	0x3d12844a	0.035770692
135	0xbd0aa846	-0.033851884
136	0xbcdefc8a	-0.02722003
137	0xbc790aff	-0.015200376
138	0xbbafee1b	-0.0053689606
139	0xbce14021	-0.0274964
140	0x3d0cb8be	0.03435587
141	0xbd1a43cf	-0.037662324
142	0x3d8add34	0.067804724
143	0xbd0cb3df	-0.034351226
144	0xbe67fe42	-0.22655585
145	0x3c05e29b	0.008171703
146	0x3ce2d3b7	0.027688844
147	0xbcfb32db	-0.030663898
148	0x3d6339be	0.05547499
149	0xbdcfd84a	-0.10148676
150	0x3cfba842	0.03071988
151	0xbc855434	-0.016275503
152	0xbc68d0e2	-0.014209958
153	0xbcb16680	-0.021655321
154	0xbc0032d9	-0.007824623
155	0xbcd4f26e	-0.025994506
156	0x3ccee6a3	0.02525646
157	0xbd4c57e0	-0.04988849
158	0x3ddf461d	0.10902045
159	0xbd27dbc8	-0.040981084
160	0xbebe9627	-0.37223932
161	0x3a8ef3f3	0.0010906443
162	0x3d37c969	0.044869814
163	0xbb14b45a	-0.0022690506
164	0x3d1f1394	0.03883703
165	0xbe02643a	-0.12733546
166	0x3c6a0c42	0.014285149
167	0xbd006fc4	-0.031356588
168	0xbc18b627	-0.009320772
169	0xbc9cb835	-0.019130806
170	0xbcbf730c	-0.023370288
171	0xbc4dde29	-0.012565174
172	0x3cd081cd	0.025452519
173	0xbd1a9d77	-0.037747826
174	0x3e0c673e	0.13711259
175	0xbc9401bc	-0.018067233
176	0xbe5d33e4	-0.21601826
177	0xbb566dd7	-0.0032719278
178	0xbbb9f4a0	-0.0056749135
179	0xbca7fd9e	-0.020506676
180	0x3d481039	0.048843596
181	0xbde66248	-0.112492144
182	0x3cde0e0d	0.02710631
183	0x3d2eb70e	0.042655043
184	0x3b7a794e	0.0038219276
185	0xbb6c4f79	-0.0036058112
186	0x3b8c6160	0.004284069
187	0xbd7bbbab	-0.06145827
188	0xbba6188e	-0.005068845
189	0xbd8966d3	-0.06709065
190	0x3d946e04	0.07247546
191	0xbd358e84	-0.044325367
192	0xbe3b6983	-0.18301968
193	0xbc3139f3	-0.010817039
194	0xbd1b4047	-0.037903097
195	0xbccf11a9	-0.025276976
196	0x3d8bdb2f	0.06828915
197	0xbe467513	-0.19380598
198	0x3c1bc779	0.009508007
199	0x3dce43dc	0.10071537
200	0x3c896a23	0.016774243
201	0x3b65c0f7	0.0035057643
202	0x3caa2fde	0.020774778
203	0xbdc98bcf	-0.098411195
204	0xbc1f59ce	-0.009726001
205	0xbda0fdf0	-0.07860935
206	0x3d9d6410	0.07685101
207	0xbd36f750	-0.04466945
208	0xbc95c76e	-0.018283572
209	0x3bad738a	0.0052933143
210	0xbced0c4c	-0.028936528
211	0xbd892a85	-0.06697563
212	0x3dc06141	0.0939355
213	0xbe17f65b	-0.14840071
214	0x3db2b409	0.08725745
215	0x3dc5054e	0.096201524
216	0xbad2eece	-0.0016092898
217	0xbcf28e5d	-0.0296089
218	0x3c0f527b	0.008747692
219	0xbde7fd41	-0.11327601
220	0x3c91637c	0.017747633
221	0xbe003911	-0.12521769
222	0x3d8bf4d1	0.068338044
223	0xbddcb9de	-0.10777639
224	0x3d02bd14	0.0319186
225	0xbb6a5d75	-0.003576127
226	0xbd9d28df	-0.07673811
227	0xbcf64b9c	-0.03006535
228	0x3d1ed6e4	0.038779154
229	0xbe01e486	-0.12684831
230	0x3c1697bc	0.00919145
231	0x3e233f58	0.15942132
232	0x3c32d513	0.010915059
233	0x3c186092	0.009300368
234	0x3d1cc81d	0.03827678
235	0xbdd18952	-0.1023127
236	0x3b278105	0.002555908
237	0xbd936f20	-0.0719893
238	0x3b574645	0.003284828
239	0xbd210ba2	-0.039317735
240	0x3d1e579b	0.038657766
241	0x3c9f05d0	0.019411951
242	0xbdb9ebaa	-0.090781525
243	0xbd035de1	-0.03207195
244	0x3d7179a0	0.05895388
245	0xbe1f7f8c	-0.15575999
246	0xba186b74	-0.00058143516
247	0x3e3487ff	0.17630003
248	0xbc429c1d	-0.011878041
249	0xbb8263dd	-0.00397919
250	0x3d1dd6f4	0.038535073
251	0xbdfe4ff2	-0.12417592
252	0x3caa3dc0	0.020781398
253	0xbda202bd	-0.079106785
254	0xbb6c89a7	-0.003609279
255	0xbd20f13c	-0.03929256

_orig_mod.dense_proj.weight f4 [64, 113]
0	0xba20db62	-0.0006136206
1	0xbd7d4d2b	-0.06184117
2	0xbafddc4e	-0.0019368024
3	0x3dfafae3	0.12254884
4	0x3d7fcef3	0.06245322
5	0xbce51d27	-0.027968002
6	0xbcf65ccd	-0.030073548
7	0xbd257079	-0.040390465
8	0xbd3e756f	-0.046498712
9	0xbcd58846	-0.026065957
10	0x3d147850	0.03624755
11	0xbc938024	-0.018005438
12	0x3bb4bf57	0.0055159735
13	0x3bd7ca40	0.0065853894
14	0x3d857a83	0.06517508
15	0x3a3e40f4	0.00072576036
16	0x3d7fdfaf	0.06246918
17	0xbcda562e	-0.026652422
18	0x3be1925c	0.0068839025
19	0xbcbc9ad5	-0.023023048
20	0xbc5c2f4f	-0.013439014
21	0x3bcd6d2c	0.006269118
22	0x3aac8884	0.0013163243
23	0xbc5cd8ba	-0.013479406
24	0x3c9d542a	0.019205172
25	0x3c36d061	0.01115808
26	0x3bbd01c9	0.005768035
27	0xbd2654d0	-0.040608227
28	0x3bbcf406	0.0057663945
29	0x3b46c468	0.003032947
30	0xbb909568	-0.004412342
31	0xbc14332e	-0.009045405
32	0xbc9300b9	-0.01794468
33	0xbc315d92	-0.010825532
34	0x3ca00bfc	0.019536965
35	0x3c7626e0	0.015023917
36	0xba753134	-0.000935334
37	0x3b2d1c09	0.0026414415
38	0xb8aed85c	-8.3372666e-05
39	0xbcc0930a	-0.023507614
40	0xbce9700a	-0.028495807
41	0xbc92628f	-0.017869262
42	0x3ceca23f	0.028885959
43	0xbbd08b4e	-0.0063642627
44	0x3cd002d0	0.025391966
45	0xbc7db35f	-0.01548466
46	0x3c8cd9a3	0.017193621
47	0xbbb892f7	-0.005632754
48	0x3b3c5537	0.0028737315
49	0xbc87139b	-0.01648884
50	0x3cdf8e9e	0.027289685
51	0xbd155179	-0.03645465
52	0xbc759a1a	-0.014990354
53	0x37dee5bc	2.657144e-05
54	0xbcb07166	-0.021538448
55	0x3d0194e1	0.031636123
56	0xbcd5cf80	-0.02609992
57	0x3c8624af	0.016374914
58	0x3cb3bb6e	0.02193996
59	0xbaeddab5	-0.0018146845
60	0x3b9a17b1	0.0047025313
61	0xbb357e59	-0.0027693717
62	0x3a538f5d	0.0008070374
63	0xba96e9c8	-0.0011513764
64	0x3a1487a0	0.00056659617
65	0x3b90627c	0.0044062715
66	0xbbba6114	-0.005687842
67	0x3cbce59b	0.023058703
68	0x3a5e086b	0.00084698823
69	0x3c38ced9	0.011279785
70	0x3d216f76	0.039412938
71	0x3c3e7365	0.011624192
72	0x3c2cabd3	0.010539013
73	0x3cef8e54	0.029242672
74	0xbd5187ce	-0.051154904
75	0x3cc97277	0.024590714
76	0x3ce0bd32	0.027433965
77	0x3c143157	0.009044967
78	0xbca250c7	-0.019813908
79	0xbc8c0c28	-0.01709564
80	0xbbc36bd4	-0.005963782
81	0xbc334a9b	-0.01094308
82	0xbb5fccdf	-0.0034149212
83	0x3d0e409f	0.034729596
84	0x3bff5cb2	0.0077930326
85	0xbc796e0a	-0.015223989
86	0x3b016ec3	0.0019749857
87	0x3bd9b8ca	0.006644343
88	0x3aeabdda	0.0017909363
89	0x3b898d80	0.0041977763
90	0x3ad5a66c	0.0016300208
91	0x3c01913e	0.007908164
92	0x3b2752f2	0.0025531617
93	0x3b2b1598	0.00261054
94	0x3b17f18e	0.002318475
95	0x38ca3883	9.642637e-05
96	0x3a632a66	0.00086656807
97	0x3ba7aa34	0.0051167253
98	0x3b08b2fa	0.0020858631
99	0x3c1d0afd	0.009585139
100	0x3aedd4dc	0.0018145102
101	0xb9f95867	-0.00047558846
102	0xbbd6f62a	-0.0065601068
103	0x3ae15018	0.0017190007
104	0xbaf2d1a7	-0.0018525616
105	0x3ab9df36	0.0014180902
106	0x3aee1623	0.0018164556
107	0x3ac1b217	0.0014777806
108	0x3b15eb0e	0.00228757
109	0x3bb04078	0.005378779
110	0x3a6a6de7	0.00089427683
111	0x3b166bf8	0.0022952538
112	0x3cca0e3e	0.024664994
113	0x3c3b8a5b	0.011446561
114	0xbd26d6a3	-0.040732037
115	0x3d0c4337	0.03424379
116	0xbd9283f3	-0.071540736
117	0xbc76dc4b	-0.01506717
118	0xbd951f4c	-0.0728136
119	0xbd0b3b29	-0.033991966
120	0x3d0ab3ce	0.03386288
121	0x3da47012	0.08029188
122	0xbd31389d	-0.04326688
123	0xbdfd450b	-0.123666845
124	0xbcf3533d	-0.029702777
125	0x3cefabfb	0.029256811
126	0x3b6bb8ab	0.0035968225
127	0x3e35276a	0.17690817
128	0x3e6e8fe0	0.23297071
129	0x3d57b0cb	0.052658837
130	0xbd290683	-0.041265976
131	0x3c5af2cd	0.013363552
132	0xbbcc3d45	-0.00623289
133	0x3c697cc9	0.0142509425
134	0xbb8c6ade	-0.0042852005
135	0xbc3c1722	-0.011480125
136	0x3c887454	0.016657032
137	0xbc286981	-0.01027906
138	0x3d0319cc	0.032007024
139	0xbcb2c19b	-0.021820834
140	0xbd9ffbdc	-0.0781171
141	0x3cba6112	0.022751365
142	0xbceac468	-0.028658107
143	0x3dd181d9	0.102298446
144	0x3d2a6d6d	0.041608263
145	0xbc3c3abc	-0.011488613
146	0xbd8b8597	-0.068125896
147	0x3ce4fb92	0.02795199
148	0x3b049f5e	0.0020236592
149	0x3c3bb34f	0.011456325
150	0xbdcfa032	-0.10137977
151	0xbdae52ba	-0.085118726
152	0xbdbb7a71	-0.09154213
153	0x3c3e4279	0.011612528
154	0xbcd1ffc1	-0.025634648
155	0x3e1d70ee	0.1537511
156	0xbd0d551b	-0.03450499
157	0x3dc2992e	0.09501873
158	0x3d6d4b9b	0.05793343
159	0x3d183190	0.03715664
160	0xbde59b3a	-0.11211248
161	0x3c4b5b82	0.012411954
162	0xbd215ba0	-0.03939402
163	0x3d95f058	0.073212326
164	0xbdcc2857	-0.09968632
165	0xbb824f07	-0.003976706
166	0x3d3b4a65	0.045725245
167	0xbd829fa8	-0.06378108
168	0x3e0e312d	0.13885947
169	0xbe0b2df2	-0.13591745
170	0x3dff5655	0.124676384
171	0x3d14ddc1	0.036344294
172	0xbc3bac4c	-0.011454653
173	0xbbff6d88	-0.0077950396
174	0xbc100f53	-0.008792716
175	0x3d48eaa4	0.049051896
176	0xbce6b632	-0.02816305
177	0xbbde225e	-0.006778999
178	0x3d15285e	0.03641545
179	0xbcc4a978	-0.02400659
180	0x3a452c59	0.0007521562
181	0xbac76fdc	-0.0015215832
182	0x3a43877d	0.0007458849
183	0x3ce51a44	0.027966626
184	0xbc3447cc	-0.011003446
185	0x3d036a32	0.032083698
186	0xbc2d13f0	-0.0105638355
187	0xbd257a42	-0.040399797
188	0x3c917013	0.017753636
189	0xbcb45874	-0.022014834
190	0xbdafe8f8	-0.08589357
191	0xbe6332dc	-0.2218737
192	0x3d0bc296	0.03412112
193	0xbe0bb9df	-0.13645123
194	0x3d6135ef	0.054983076
195	0x3d8db441	0.06919146
196	0x3d926c9a	0.0714962
197	0x3c1b526a	0.009480098
198	0xbd4f9825	-0.050682206
199	0xbb71a66e	-0.0036872881
200	0xbcbf7e53	-0.023375666
201	0x3942ca91	0.00018576744
202	0x3b890b8b	0.004182284
203	0x3c271103	0.010196927
204	0xbb9ec3b0	-0.004845105
205	0x3cc188f1	0.023624869
206	0xbc09089e	-0.008363871
207	0x3b87180e	0.0041227406
208	0xbc2052e2	-0.009785386
209	0xbc5966f1	-0.013269172
210	0xbb8805e4	-0.004151093
211	0x3beb3104	0.007177474
212	0x3a8de89e	0.0010826772
213	0x3b009b69	0.0019623882
214	0xbc2a4875	-0.010393252
215	0x3ae7f6f9	0.0017697505
216	0xbc1a01e5	-0.009399866
217	0xbc84d519	-0.016214894
218	0xbbf27bd7	-0.0074000168
219	0x3a4025f4	0.0007329874
220	0x3bf649b0	0.0075161085
221	0xbb84f129	-0.004057069
222	0x3c49abe0	0.012309045
223	0x3ab398eb	0.0013702189
224	0xbc25062b	-0.010072271
225	0x3d8b3d83	0.06798842
226	0xbdda7ac2	-0.106679454
227	0xbcd19656	-0.025584381
228	0xbeaf9954	-0.34296668
229	0x3e3063d3	0.1722558
230	0xbd8788f0	-0.06617916
231	0x3e385807	0.1800233
232	0xbd06d641	-0.032919172
233	0x3d24affa	0.040206887
234	0xbd131289	-0.03590635
235	0xbc3719fa	-0.011175627
236	0xbd85ebe6	-0.06539135
237	0x3b49b90b	0.003078046
238	0xbd775eb1	-0.06039304
239	0x3d21380c	0.03936009
240	0xbd04df4b	-0.03243951
241	0x3e435002	0.1907349
242	0x3d3b8c9d	0.045788396
243	0x3cbe1d61	0.023207368
244	0x39737744	0.00023218716
245	0x3d8cbbcd	0.06871758
246	0x3de10cab	0.10988744
247	0x3c3be956	0.011469206
248	0x3d07ad04	0.033123985
249	0x3dd2c5df	0.10291647
250	0x3c7130c6	0.014721101
251	0x3c479379	0.012181156
252	0xbc0a95a2	-0.008458527
253	0x3d752dac	0.05985801
254	0x3bbcaf42	0.005758197
255	0xbd9f6cf2	-0.077844515

_orig_mod.dense_proj.bias f4 [64]
0	0xbc891f01	-0.016738417
1	0x3d90a11b	0.070619784
2	0xbcb2b85f	-0.02181643
3	0x3d7afbc5	0.061275262
4	0x3df3bf38	0.119017065
5	0xbbe1e84b	-0.0068941466
6	0x3d227dd7	0.03967079
7	0xbe426b23	-0.18986182
8	0xbd0476bf	-0.032339808
9	0xba2f1ed3	-0.00066803134
10	0x3cbd4b83	0.023107296
11	0xbc7b07ae	-0.015321655
12	0x3c593249	0.013256618
13	0xbc5db6d9	-0.013532364
14	0xbc4bfafb	-0.012449975
15	0x3b67e2d6	0.0035383007
16	0x3e00148c	0.12507838
17	0x3b666ad9	0.00351589
18	0x3c331aa9	0.010931649
19	0xbd34d843	-0.044151556
20	0xbe143b28	-0.14475691
21	0x3c86cfd0	0.016456515
22	0xbc95d04e	-0.018287804
23	0x3da3ff06	0.08007626
24	0xbd4d0a97	-0.050058927
25	0x3b867a1a	0.004103911
26	0x3aab8415	0.0013085628
27	0x3ca8417e	0.020539042
28	0x3a0f185b	0.00054586463
29	0x3cdf08f8	0.027225956
30	0x3ceb9e0e	0.02876189
31	0x3ca061fb	0.01957797
32	0xbc9e5a40	-0.019330144
33	0x3e2e2fa4	0.17010361
34	0xbd844430	-0.06458318
35	0xbc9b27bc	-0.018939845
36	0xbbe8b49d	-0.007101609
37	0xbde54929	-0.11195595
38	0xbdc125c2	-0.0943103
39	0x3e085423	0.13313346
40	0xbc5046f9	-0.012712234
41	0xbc9878d9	-0.018612312
42	0xbb808eba	-0.0039232643
43	0xbd1204da	-0.035649158
44	0x3cc425c4	0.02394379
45	0x3ccc5369	0.024942117
46	0xbca2fa59	-0.019894766
47	0x3ba69670	0.0050838515
48	0xbbf045bb	-0.0073325313
49	0x3dbe230d	0.09284029
50	0xba51fed8	-0.0008010692
51	0xbcb28ab5	-0.021794656
52	0x3b5f9937	0.0034118423
53	0xbe2d118e	-0.16901228
54	0xbd30f654	-0.043203667
55	0xbbdfeb7b	-0.0068334914
56	0x3e0cdd23	0.13756232
57	0xbca38dda	-0.019965101
58	0x3ae2d3c0	0.0017305538
59	0x3ca205c7	0.019778145
60	0xbc0749ea	-0.008257369
61	0x3e1fde17	0.15612064
62	0x3d2c5794	0.04207571
63	0x3e165eca	0.14684597

_orig_mod.shared_mlp.0.weight f4 [128, 120]
0	0x3e0d2612	0.13784054
1	0xbe426c81	-0.18986703
2	0xbe2b865b	-0.16750471
3	0x3df2acb4	0.11849347
4	0xb31ef087	-3.7006e-08
5	0xbe246d2d	-0.16057272
6	0x3de2617c	0.1105375
7	0xbd2a07c5	-0.041511316
8	0xbd139584	-0.03603126
9	0x3e3448b3	0.17605858
10	0xbb6df394	-0.0036308514
11	0xbc511b51	-0.01276286
12	0x3dee8cfb	0.11647984
13	0xbb081b28	-0.002076814
14	0x3d7fa5bb	0.062413912
15	0xbe4aec7e	-0.19816777
16	0x3dfda18e	0.1238433
17	0x3d523ba9	0.051326428
18	0x3cd11c40	0.025526166
19	0xbd280f3a	-0.041030146
20	0x3c3b68a0	0.011438519
21	0x3bc7a2e3	0.0060924157
22	0x3de4ab3f	0.11165475
23	0x3e022042	0.12707618
24	0xbcd71dd1	-0.026259335
25	0x3d61c470	0.055118978
26	0x3cad7423	0.021173542
27	0x3ce3fd2c	0.027830683
28	0xbd04c8f4	-0.032418206
29	0x3d87b0c3	0.066255115
30	0xbe0589da	-0.13040867
31	0x3c2c0de3	0.010501358
32	0xbdded879	-0.10881133
33	0x3b38e49f	0.002821244
34	0x3da3c825	0.07997159
35	0x3e543449	0.2072307
36	0xbc691936	-0.014227202
37	0xbd6ec3f8	-0.05829236
38	0x3bbafcb1	0.0057063927
39	0x3c21ded4	0.0098797865
40	0x3c13d206	0.009022241
41	0x393eb4c7	0.00018187157
42	0xb9199615	-0.00014647127
43	0x3c1b147c	0.009465333
44	0xbc428078	-0.01187145
45	0x3b1978bf	0.0023417918
46	0xbc811b14	-0.015759982
47	0x3c0d8e5e	0.0086399
48	0xbb57de4f	-0.0032938903
49	0x3b1b81e0	0.0023728535
50	0xbb3c1dbd	-0.0028704249
51	0x3c165a31	0.009176777
52	0x3b49f209	0.003081443
53	0x3c8ebffc	0.01742553
54	0xbbb9bdeb	-0.005668392
55	0x3c899988	0.016796842
56	0x3c5574ce	0.013028337
57	0xbde7ccae	-0.113183364
58	0xbe045703	-0.12923817
59	0xbd829902	-0.0637684
60	0xbd32e3f0	-0.04367441
61	0x3c0bc452	0.008530693
62	0xbc6a0120	-0.014282495
63	0x3dedb63c	0.11607024
64	0xbbdaa49b	-0.0066724545
65	0x3c0bc847	0.008531637
66	0x3be2b176	0.0069181276
67	0x3bcb80ec	0.006210437
68	0x3a0fc284	0.0005484002
69	0x3c9d80b4	0.01922641
70	0xbbc8e53d	-0.006130843
71	0x3c09a060	0.008400053
72	0x3d2d4b5e	0.042308204
73	0xbc5793da	-0.013157809
74	0x3b228998	0.002480125
75	0xbd63e1d4	-0.05563529
76	0x3e6b039e	0.22950599
77	0xbcbfb62c	-0.023402296
78	0x3b116cb1	0.002219003
79	0xbe1f81cb	-0.15576856
80	0x3c25d2ed	0.010121089
81	0xbaab3c17	-0.0013064173
82	0xbc2a24fa	-0.010384792
83	0xbc2a51eb	-0.010395507
84	0x39cde86a	0.0003927381
85	0xbcc9a214	-0.024613418
86	0x3bba3708	0.00568283
87	0xbbcf38e4	-0.0063239206
88	0x3cbf1fdd	0.023330623
89	0xbde09ad4	-0.10967031
90	0x3db51e7e	0.088437065
91	0xbbcdb83d	-0.0062780664
92	0xbc36ccad	-0.011157197
93	0x3e589f66	0.21154556
94	0xbdb026da	-0.0860116
95	0xbda6b821	-0.081405886
96	0x3c265be6	0.010153746
97	0x3c5774f7	0.013150445
98	0x3b4b55fd	0.0031026595
99	0x3c2b5904	0.010458235
100	0xbbcd3d08	-0.006263379
101	0x3c7fcae7	0.0156123405
102	0xbc159366	-0.009129381
103	0x398a51f4	0.0002638247
104	0xbc6be316	-0.014397403
105	0x3d86ec81	0.06588078
106	0x3c60cf9e	0.013721375
107	0x3e71f7ab	0.23629634
108	0x3c02203f	0.007942258
109	0xbd836030	-0.06414831
110	0xbdf75c1b	-0.120781146
111	0x3bb15dc7	0.0054127905
112	0xbd8bfe52	-0.06835617
113	0xbbc21839	-0.0059232977
114	0x3c33fdcc	0.010985803
115	0x3c6354ad	0.013875169
116	0xbcc54745	-0.024081836
117	0xbd45542c	-0.048175976
118	0x3c2bdf1d	0.010490206
119	0xbdaaf5c9	-0.08347661
120	0xbd246a67	-0.040140536
121	0x3db13e3f	0.086544506
122	0x3d87f70a	0.06638916
123	0xbd6ef51e	-0.05833923
124	0x31ff91c2	7.4380475e-09
125	0x3daf7289	0.08566768
126	0xbd8523d5	-0.06500975
127	0x3ca711dd	0.02039426
128	0xba681cba	-0.0008854378
129	0xbd381639	-0.04494307
130	0xbbfb24d4	-0.0076643024
131	0x3ae350ca	0.0017342803
132	0x3df33dd4	0.11877027
133	0xbc4b62c0	-0.012413681
134	0x3d617043	0.0550387
135	0x3d806092	0.06268419
136	0xbd835968	-0.06413537
137	0x3d47dd57	0.04879507
138	0xbb185b54	-0.0023247795
139	0xbe174b5e	-0.14774844
140	0x3d95b330	0.07309568
141	0x3c38e522	0.011285098
142	0xbc7baded	-0.015361291
143	0x3da84e64	0.08218077
144	0xbbaa3c07	-0.005195144
145	0x3d2a0492	0.041508265
146	0xbd02a0ca	-0.03189162
147	0x3d14c5b1	0.036321346
148	0xbd0a5362	-0.033770926
149	0x3be983df	0.007126316
150	0x3d5f53dc	0.054523334
151	0x3d29f227	0.0414907
152	0x3c9190ba	0.017769206
153	0x3b23563e	0.002492323
154	0xbd2fa0c9	-0.042877946
155	0xbc67f043	-0.014156404
156	0xbc071a37	-0.008245996
157	0x3d1ab714	0.037772253
158	0x3c9edf84	0.01939369
159	0xbbe9c93b	-0.0071345842
160	0xbd801af8	-0.06255144
161	0xbb162630	-0.0022910945
162	0xbca79af6	-0.020459633
163	0x3c1a04e4	0.00940058
164	0xbba92899	-0.0051623103
165	0xbd14c617	-0.036321726
166	0xbd096339	-0.03354189
167	0x3d1102fc	0.035403237
168	0x3a44fb9e	0.00075143005
169	0x3bd03ab3	0.0063546537
170	0x3c23f189	0.010006317
171	0xbc11e8be	-0.008905588
172	0x395eb8a4	0.00021240354
173	0x3c49dc40	0.012320578
174	0xbaf7af12	-0.001889678
175	0x3cb7e03c	0.02244579
176	0x3cd8d9a9	0.026470976
177	0x3dca943e	0.09891556
178	0xbcea03cd	-0.028566265
179	0x3d05fdac	0.032712623
180	0x3b58d4dc	0.0033085858
181	0xbce0197f	-0.027355907
182	0x3c030f36	0.007999232
183	0xbc08ad41	-0.008342088
184	0x3c456774	0.012048591
185	0xbbb67618	-0.005568277
186	0xbd0af00a	-0.033920325
187	0xbbbacb4a	-0.0057005035
188	0x3cbfe52e	0.023424711
189	0xba467c98	-0.00075716665
190	0x3c0e86f7	0.00869917
191	0x3bc67660	0.006056592
192	0xbc3d3bcd	-0.011549902
193	0xbb4cbc52	-0.0031240177
194	0xbb86f6d2	-0.0041187787
195	0xbc90abc4	-0.01766003
196	0xbc0d4aa4	-0.008623753
197	0xbbea0ced	-0.007142654
198	0x3c213159	0.009838426
199	0x3dec40e1	0.11535812
200	0x3bb12e0a	0.0054070996
201	0xbc3a0ee2	-0.011356087
202	0xbc94decc	-0.018172644
203	0x3ce03d13	0.027372872
204	0x3c148ece	0.00906725
205	0xbc59952d	-0.013280195
206	0x3a08dd54	0.0005220969
207	0x3c038bc9	0.008028933
208	0xbcbb1b76	-0.022840243
209	0xbcf98a0c	-0.030461334
210	0xbcdf52c6	-0.02726115
211	0xbde82af9	-0.113363214
212	0x3bca681f	0.006176963
213	0xbd5e416c	-0.05426161
214	0x3b360ea3	0.002777972
215	0xbd083cb3	-0.033261012
216	0x3ba0b8f7	0.004904862
217	0x3c46c375	0.0121315615
218	0xbc8496a4	-0.016185112
219	0xb7b7a918	-2.189404e-05
220	0xbce1029a	-0.02746706
221	0x3c80d937	0.015728576
222	0x3b767ce4	0.0037611062
223	0x3c07ad7b	0.008281107
224	0xbb41071e	-0.0029453705
225	0x3cf97c80	0.030454874
226	0xbadca9c5	-0.0016835263
227	0xbb2c87c5	-0.0026326042
228	0xbc189801	-0.009313584
229	0xbd921a7a	-0.07133956
230	0xbd713766	-0.058890723
231	0xbb2f3464	-0.0026734108
232	0x3bbb503b	0.0057163513
233	0xbb4984b0	-0.0030749254
234	0x3c448f04	0.011996988
235	0x3cee951d	0.029123837
236	0xbbcde9bc	-0.006283967
237	0xbd2ac16f	-0.04168838
238	0x3cf345b8	0.02969633
239	0xbd0a6303	-0.03378583
240	0x3d87ad41	0.066248424
241	0xbddcc686	-0.10780053
242	0xbdab7e8e	-0.08373748
243	0x3d7e6cb5	0.06211539
244	0x301022da	5.243642e-10
245	0xbdb69d03	-0.08916666
246	0x3d7b9e65	0.061430354
247	0xbcaa370b	-0.0207782
248	0xbd84e060	-0.06488109
249	0x3d6fe2ee	0.058566026
250	0x3c9bd587	0.019022716
251	0xba588d88	-0.0008260836
252	0x3d91466c	0.0709351
253	0x3b608c9a	0.0034263493
254	0x3cf3ed1e	0.029776152
255	0xbc16de48	-0.009208269

_orig_mod.shared_mlp.0.bias f4 [128]
0	0xbe914dfa	-0.28379804
1	0x3e1b288e	0.15152189
2	0xbe35365f	-0.17696522
3	0x3cbed9be	0.023297187
4	0xbea05fec	-0.31323183
5	0xbd4013de	-0.046893947
6	0x3dd9e158	0.10638684
7	0x3d484f93	0.048904013
8	0xbcf2488d	-0.02957561
9	0x3d931712	0.07182135
10	0xbd7d6f98	-0.061874002
11	0xbef80156	-0.4843852
12	0x3ce832f8	0.028344616
13	0xbb376b71	-0.0027987624
14	0x3b4e9ebb	0.0031527716
15	0x3c9e2899	0.019306468
16	0x3de894b8	0.11356491
17	0xbe25574c	-0.16146582
18	0xbd99765b	-0.07493278
19	0xbe23cb9f	-0.15995644
20	0x3d526019	0.051361177
21	0x3d183451	0.037159268
22	0xbe59c31b	-0.21265833
23	0xbe045f9a	-0.12927094
24	0xbdcd02b0	-0.10010278
25	0xbe252ed1	-0.1613114
26	0x3b0f7cc8	0.0021894444
27	0xbc1b9076	-0.009494891
28	0x3b695cc8	0.003560828
29	0x3c9ca8d6	0.019123476
30	0xbe243591	-0.16036059
31	0x3cac76d9	0.021052765
32	0xbbbfe097	-0.0058556306
33	0x3d08ef9a	0.033431627
34	0xbe51050d	-0.20412083
35	0x3d9d9317	0.07694071
36	0x3d97f387	0.07419496
37	0xbebcdebd	-0.36888686
38	0xbe2bb62e	-0.16768715
39	0xbe89f6b7	-0.2694604
40	0xbe5fbf29	-0.21850266
41	0x3d3a69c6	0.04551103
42	0x3bf225d8	0.007389765
43	0x3d155fdd	0.036468375
44	0x3d114b7f	0.03547239
45	0xbe58f2c7	-0.21186362
46	0xbdde55b3	-0.108561896
47	0xbe4d28ef	-0.20035146
48	0x3d2d3a52	0.042291947
49	0xbe44af65	-0.19207533
50	0x3d3a93ae	0.045550995
51	0x3c810a98	0.015752122
52	0x3baadc38	0.0052142404
53	0xbc3ad06a	-0.011402229
54	0x3d2f430a	0.042788543
55	0x3d4cfcb7	0.050045695
56	0x3d03f2ca	0.032213964
57	0xb9ee2b85	-0.00045427322
58	0x3dcc4d40	0.09975672
59	0xbe4a507a	-0.19757262
60	0x3d5336bc	0.05156587
61	0xbe4f9db9	-0.2027501
62	0xbb3a5f27	-0.0028438063
63	0x3c195697	0.0093590235
64	0x3aa6d5eb	0.0012728547
65	0xbe312446	-0.17298993
66	0x3bd3db97	0.006465386
67	0xbd9ed004	-0.077545196
68	0xbc85f3d0	-0.01635161
69	0xbd96c3b2	-0.07361545
70	0x3d2fe147	0.04293945
71	0xbe090054	-0.13379031
72	0x3d924fe3	0.071441434
73	0x3c394110	0.011307016
74	0x3e0c580c	0.13705462
75	0x3d36ff5f	0.044677135
76	0x3c08597e	0.008322118
77	0xbe2fba34	-0.17160875
78	0xbe695e1a	-0.22789803
79	0xbe24eaf2	-0.1610525
80	0xbe29287b	-0.16519348
81	0xbd70a505	-0.058751125
82	0xbd7c43e7	-0.061588194
83	0x3d72bb04	0.059260383
84	0x3a7c820d	0.0009632416
85	0xbeb0f683	-0.34563074
86	0x3d6497a0	0.055808663
87	0x3d0236a2	0.031790383
88	0xbe1216ff	-0.14266585
89	0xbe0e0545	-0.13869198
90	0x3b0bd66e	0.0021337527
91	0xbe0bbf3f	-0.13647173
92	0xbe2084fa	-0.15675727
93	0xbdbcf045	-0.09225515
94	0x3d716003	0.058929455
95	0xbe2099eb	-0.15683715
96	0xbcde8a2f	-0.0271655
97	0x3a99a204	0.0011721258
98	0x3d227238	0.03965971
99	0x3d9fd8b6	0.07805006
100	0xbe579f53	-0.21056871
101	0xbc39e87f	-0.011346935
102	0xbe450f89	-0.19244207
103	0x3c22d645	0.009938781
104	0xbd6124e1	-0.05496681
105	0x3b7a75b0	0.003821712
106	0x3aa90b3c	0.0012897025
107	0x3b62c800	0.0034604073
108	0x3d430497	0.0476118
109	0xbe16a989	-0.1471311
110	0xbe3d2999	-0.184729
111	0xbb01ee08	-0.0019825716
112	0x3d1efd26	0.03881564
113	0x3b5ce9de	0.0033708732
114	0xbe4ae855	-0.1981519
115	0xbe8c0788	-0.27349496
116	0x3d54f3c4	0.051990286
117	0x3e079043	0.13238625
118	0x3d7aedc0	0.061261892
119	0x3b3dfdfb	0.0028990495
120	0x3c168f37	0.0091894185
121	0xbe4e06f7	-0.20119844
122	0xbe1dcfa8	-0.15411246
123	0x3bd180a1	0.0063935076
124	0x3ccd6c65	0.0250761
125	0x3b9efbab	0.0048517785
126	0x3c0cf7d3	0.008604008
127	0x3d08e041	0.03341699

_orig_mod.shared_mlp.3.weight f4 [64, 128]
0	0x3cf6dfb1	0.030135961
1	0xbd8410bc	-0.06448504
2	0x3ca9923c	0.020699613
3	0xbd6b6fbc	-0.057479605
4	0xbd179b55	-0.03701337
5	0x3c06a15a	0.00821718
6	0xbdb41c55	-0.087944664
7	0xbc6c5d10	-0.014426485
8	0xbd860aac	-0.06545004
9	0xbcf32862	-0.029682342
10	0x3d416264	0.047212973
11	0x3df6f9c0	0.12059355
12	0xbcc0b044	-0.02352155
13	0xbb729e3b	-0.0037020582
14	0x3b3ce56b	0.0028823267
15	0xbd7c2b30	-0.061564624
16	0xbd8c8038	-0.06860393
17	0x3cbcbfc6	0.023040663
18	0x3b9d3e7a	0.0047987076
19	0x3cc102cf	0.02356091
20	0xbd4b73c4	-0.04967095
21	0x3a9b1893	0.0011832885
22	0x3d7d0acc	0.061777875
23	0x3d088ee6	0.033339404
24	0x3c8ab279	0.016930806
25	0x3cb7085e	0.022342857
26	0x3b42ece6	0.0029743253
27	0xbd39aaaa	-0.045328774
28	0xbb9ff1b1	-0.004881107
29	0xbc9ab84c	-0.018886708
30	0x3d3de494	0.046360567
31	0xbc503a4e	-0.012709213
32	0xbbb81cde	-0.0056186756
33	0xbd6f5d42	-0.058438547
34	0x3d67d460	0.05659902
35	0xbdc0602c	-0.09393343
36	0xbdd92ca6	-0.10604219
37	0x3ce96618	0.028491065
38	0x3c749150	0.014927223
39	0xbd857a5e	-0.0651748
40	0xbc3baa99	-0.011454248
41	0xbd33a063	-0.04385413
42	0xbbf428a7	-0.007451135
43	0x3cccae78	0.024985537
44	0xbd1ed290	-0.038775027
45	0xbc83fc2c	-0.016111456
46	0x3b9d1a84	0.0047944207
47	0x3d835505	0.064127006
48	0xbdfb488e	-0.12269698
49	0x3d135586	0.035970233
50	0xbcf3ce38	-0.029761419
51	0xbca23cb0	-0.019804329
52	0xbb7df17c	-0.0038748672
53	0xbd89dc45	-0.06731466
54	0xbd46d5f6	-0.048543893
55	0xbd8fd6f4	-0.07023421
56	0xbc7c0eea	-0.015384415
57	0x3aff0a9a	0.0019458116
58	0xbd966a2b	-0.07344469
59	0x3d045f4e	0.032317452
60	0x3c387a8e	0.011259688
61	0xbab0c244	-0.001348563
62	0xbac4aa20	-0.0015004314
63	0xbc0c40a3	-0.0085603325
64	0xbac97122	-0.0015368799
65	0x3cb7444f	0.02237144
66	0xbbbba75f	-0.0057267393
67	0xbd2d49ec	-0.042306826
68	0x3d0742f5	0.03302284
69	0x3c4b9f97	0.012428186
70	0xbd05d4aa	-0.032673515
71	0x3cac93f4	0.021066643
72	0xbd044b55	-0.032298405
73	0x3d42682c	0.047462627
74	0xbd949639	-0.07255215
75	0xbcedf959	-0.029049562
76	0xbc0a40d7	-0.008438311
77	0x3d137c24	0.03600706
78	0x3d19473e	0.037421457
79	0xbd91f0fe	-0.07126044
80	0xb9b00a6e	-0.00033577107
81	0x3c4d199a	0.012518311
82	0x3c1709d5	0.009218653
83	0xbd87ebed	-0.06636796
84	0xbbcbac59	-0.006215614
85	0x3dec37ea	0.11534102
86	0xbc56249e	-0.013070254
87	0xbd10783d	-0.03527092
88	0x3ceb95af	0.028757898
89	0x3bd64558	0.006539028
90	0xbb60ed55	-0.0034321148
91	0xbbd873b9	-0.006605592
92	0x3c9a633c	0.018846147
93	0xbd48a3a4	-0.048984185
94	0xbd0d95f9	-0.034566853
95	0x3cdf48ce	0.027256396
96	0xbdaa99a5	-0.083300866
97	0xbd3b5ce3	-0.04574288
98	0xbd1f34e5	-0.038868804
99	0xbd6d218f	-0.057893332
100	0x3c950dd1	0.018195065
101	0xbc44b722	-0.012006553
102	0x3ccf1e22	0.025282923
103	0xbc00dc53	-0.007865029
104	0xbd7ac476	-0.061222516
105	0xbbb92aa1	-0.0056508337
106	0x3c3cc7f5	0.011522283
107	0xba14568a	-0.0005658647
108	0xbcd1ac82	-0.025594953
109	0x3c9bd36c	0.019021712
110	0x3d082438	0.033237666
111	0xbc15d8c8	-0.009145923
112	0xbd2f3cfa	-0.04278276
113	0xbd1c1ec2	-0.03811527
114	0x3c8dadbf	0.017294763
115	0xbc05254e	-0.00812657
116	0xbd072a64	-0.03299941
117	0xbd76640b	-0.060154002
118	0xbcaa9300	-0.020822048
119	0xbbeca290	-0.0072215274
120	0xbc11d84d	-0.008901668
121	0x3abd3ac4	0.0014437069
122	0x3d3b660d	0.04575162
123	0xbc0e035e	-0.008667795
124	0xbd67e832	-0.056617923
125	0xbc577a63	-0.013151738
126	0xbc25b224	-0.010113273
127	0xbd1b2057	-0.03787264
128	0xbd8222e5	-0.06354312
129	0x3d183b74	0.037166074
130	0xbc8404fb	-0.016115656
131	0x3c599bdf	0.0132817915
132	0xbdc1ed0d	-0.09469042
133	0x3c116f34	0.008876611
134	0xbad20bf8	-0.0016025295
135	0x3bc6da0c	0.0060684737
136	0x3d3d5a46	0.04622867
137	0x3cfd6991	0.030934127
138	0x3d96aa5d	0.07356713
139	0xbe15615e	-0.14587924
140	0x3d22c306	0.03973677
141	0x3b72bfb5	0.0037040536
142	0x3942234a	0.00018514428
143	0x3c1bbbba	0.009505207
144	0x3c921b00	0.01783514
145	0xbc82de72	-0.01597521
146	0x3c055993	0.008139032
147	0xbc10382f	-0.008802458
148	0x3d360a27	0.044443276
149	0x3d652e5f	0.055952426
150	0xbd49d572	-0.049275823
151	0x3ba44420	0.005013004
152	0xbb89f9e1	-0.004210696
153	0xbc398e2a	-0.011325398
154	0xbbc71fe3	-0.0060767992
155	0x3d846f60	0.064665556
156	0xbbe86b56	-0.0070928736
157	0x3d551fd4	0.052032307
158	0xbda83589	-0.08213336
159	0xbb096606	-0.0020965352
160	0xbb866486	-0.004101339
161	0x3cd1b942	0.025601033
162	0xbd2e0f4e	-0.042495064
163	0x3d5e685a	0.054298736
164	0xb94ee803	-0.00019732122
165	0xbda9d664	-0.08292845
166	0xbd02735a	-0.03184829
167	0xbdd4b4bf	-0.10386037
168	0xbd8d8c85	-0.069115676
169	0x3c7256a7	0.014791167
170	0xbad5c777	-0.0016310056
171	0x3cef91f7	0.029244406
172	0x3c963120	0.018333972
173	0xbdc75028	-0.097320855
174	0xbd4a036f	-0.04931968
175	0xbc7c50aa	-0.015400091
176	0x3be83c5d	0.007087274
177	0xbd2755e9	-0.040853415
178	0x3bbb3592	0.005713173
179	0xbaa02a0c	-0.0012219562
180	0xb9971076	-0.0002881323
181	0x3d1e497c	0.0386443
182	0x3c603337	0.013684086
183	0x3c7d790f	0.015470757
184	0x3b5801fe	0.0032960172
185	0x3b249a56	0.0025116405
186	0x3cfda1a9	0.030960875
187	0xbd0e6e0f	-0.03477293
188	0x3b6fdafb	0.0036599028
189	0xbd116136	-0.0354931
190	0x3cfbe043	0.030746585
191	0x3aadbcbb	0.0013255099
192	0xbb6a1a99	-0.003572142
193	0xbc51f125	-0.012813841
194	0xbb414c10	-0.00294948
195	0x3d14f994	0.03637083
196	0x3d3b1143	0.04567076
197	0x3b6fbedc	0.0036582267
198	0x3ca97599	0.020685958
199	0xbb7c471a	-0.0038494528
200	0x3cc77299	0.024346637
201	0x3c142789	0.009042629
202	0x3d2264e0	0.039646983
203	0x3d23bc48	0.03997448
204	0xba4024e2	-0.0007329715
205	0xbcae450d	-0.02127316
206	0xbd84a1ca	-0.06476171
207	0x3d710581	0.05884314
208	0xbda5cde0	-0.08095908
209	0x3c23ffac	0.010009687
210	0x3b0512c0	0.0020305365
211	0x3d939ecb	0.07208022
212	0xbbfaf7bc	-0.007658927
213	0xbd8a4bb9	-0.06752724
214	0x3d326f7e	0.04356336
215	0x3d5d848e	0.054081492
216	0xbbce193c	-0.0062896293
217	0xbc9af073	-0.018913483
218	0xbb96808e	-0.0045929616
219	0xbd8fea7e	-0.07027148
220	0xbc7ecb97	-0.015551469
221	0x3dc3dab5	0.095631994
222	0xbbf364bc	-0.00742778
223	0xbc79dd36	-0.015250495
224	0x3d3b1b5b	0.045680385
225	0x3d744481	0.059635643
226	0x3bbc1c2f	0.0057406644
227	0x3c648b2f	0.0139492
228	0xbd9d50e1	-0.07681442
229	0x3d68f09f	0.0568701
230	0xbcd3d8ce	-0.025860216
231	0x3a71d07c	0.0009224487
232	0x3d8d5c21	0.06902338
233	0xbbdd611b	-0.0067559606
234	0xbcbe3e92	-0.023223195
235	0xba104a8d	-0.0005504273
236	0x3cc04285	0.023469219
237	0xbc6ca590	-0.01444377
238	0xbcd1a983	-0.025593525
239	0x359e8c6d	1.1812787e-06
240	0x3cd39767	0.02582903
241	0x3d2cf9d3	0.04223044
242	0xbd86a188	-0.065737784
243	0xbd99b77c	-0.075057
244	0x3b2156c7	0.0024618374
245	0x3d173103	0.036911976
246	0x3d26c326	0.04071345
247	0x3bf29613	0.007403144
248	0xbb8fc987	-0.0043880376
249	0xbde9ad65	-0.114100255
250	0xbc6c6abf	-0.014429747
251	0xbac375ba	-0.0014912405
252	0xbad30081	-0.0016098173
253	0x3d4ead1b	0.050458055
254	0x3b4df04a	0.003142374
255	0x3d4db148	0.050217897

_orig_mod.shared_mlp.3.bias f4 [64]
0	0xbe560a09	-0.20902266
1	0x3e9ab46d	0.3021578
2	0x3e897449	0.2684653
3	0xbea04ff6	-0.31311005
4	0x3e9deec0	0.30846214
5	0xbe5efca3	-0.21776061
6	0x3e75c8cc	0.24002379
7	0x3eba131a	0.36342698
8	0x3e82e1f1	0.25563005
9	0xbe860ba4	-0.26180756
10	0x3e890bd9	0.26766852
11	0xbe8f432e	-0.27980942
12	0x3e638bd8	0.22221315
13	0x3e8a62a5	0.27028385
14	0xbe3276b0	-0.17428088
15	0xbe811e49	-0.25218418
16	0xbde3412f	-0.11096417
17	0xbe730ff5	-0.23736556
18	0x3e7760ef	0.24158071
19	0x3e88b640	0.26701546
20	0x3e408fd7	0.1880487
21	0xbe02aebb	-0.12761967
22	0xbe7246c1	-0.23659803
23	0xbdf8e592	-0.12153162
24	0x3e96ca96	0.29451436
25	0xbac0567a	-0.001467421
26	0x3ea92017	0.33032295
27	0x3e8bfdec	0.27342165
28	0x3e9929d6	0.2991473
29	0x3e89464d	0.26811448
30	0x3e78fbfa	0.24314871
31	0xbe946a87	-0.28987524
32	0xbe296730	-0.16543269
33	0xbebf21c2	-0.37330443
34	0xbe52213f	-0.20520495
35	0xbe6f7e07	-0.2338792
36	0xbdbd995c	-0.092577666
37	0xbe914ea8	-0.28380322
38	0x3e9dbb8d	0.30807152
39	0xbe6bb33d	-0.23017593
40	0x3e99d912	0.30048424
41	0xbe8b5b57	-0.27218124
42	0x3e89095d	0.26764956
43	0xbe18c478	-0.14918697
44	0x3e7bee65	0.24602659
45	0xbe8cd16a	-0.2750352
46	0xbe455ab5	-0.19272883
47	0xbe965885	-0.2936441
48	0x3e76d3a8	0.24104178
49	0x3e91208d	0.28345147
50	0xbe36a5a4	-0.17836624
51	0x3e859827	0.26092646
52	0x3e931bcb	0.28732142
53	0xbe3542c4	-0.1770125
54	0x3e822a65	0.2542297
55	0x3e8bea01	0.27326968
56	0x3e89068a	0.267628
57	0x3e83156e	0.25602287
58	0xbdf8db92	-0.12151255
59	0xbe685855	-0.22689946
60	0x3e89536a	0.26821452
61	0x3e8981f2	0.26856953
62	0x3e61676d	0.2201211
63	0x3e8b5117	0.27210304

_orig_mod.ctr_head.weight f4 [1, 64]
0	0x3ea81a7f	0.32832715
1	0xbdbffb44	-0.09374097
2	0xbdaffa1a	-0.08592625
3	0x3ebbe3a9	0.36697128
4	0xbdb74b9a	-0.08949967
5	0x3e897ff6	0.2685544
6	0xbdf39df1	-0.11895359
7	0xbdc5938d	-0.09647284
8	0xbdae7bd1	-0.0851971
9	0x3ee09a94	0.43867934
10	0xbe16d3ce	-0.14729235
11	0x3ea97ebe	0.3310451
12	0xbe0625dd	-0.13100381
13	0xbdc71787	-0.09721284
14	0x3ec07519	0.37589338
15	0x3eac3ff3	0.3364254
16	0x3ec5c4e3	0.38626775
17	0x3ebe1293	0.37123546
18	0xbe1b259e	-0.15151069
19	0xbd95ad6b	-0.073084675
20	0xbe0a7753	-0.13522081
21	0x3ec34945	0.38141838
22	0x3eb56298	0.35426784
23	0x3eb71c68	0.3576386
24	0xbdc1f113	-0.094698094
25	0x38aaedea	8.150547e-05
26	0xbdaf9f0c	-0.08575258
27	0xbdd7d601	-0.10538865
28	0xbdb275b1	-0.08713854
29	0xbdb188d5	-0.08668677
30	0xbde42f67	-0.11141854
31	0x3ea7dd82	0.32786185
32	0x3eafc58f	0.34330413
33	0x3eccbb90	0.3998685
34	0x3eba0619	0.36332777
35	0x3ec62d62	0.387065
36	0x3ec0d317	0.3766105
37	0x3ecbd95a	0.39814264
38	0xbda667b8	-0.081252515
39	0x3eb82fb1	0.35973886
40	0xbddcc51f	-0.10779785
41	0x3ed0f63b	0.4081286
42	0xbdbe3851	-0.09288085
43	0x3ed54104	0.41651165
44	0xbe0521d9	-0.13001193
45	0x3ed58188	0.41700387
46	0x3e9bb574	0.30411875
47	0x3eb438a6	0.3519947
48	0xbdb53ed6	-0.08849876
49	0xbdc37c75	-0.09545223
50	0x3ec0a755	0.37627664
51	0xbdc801bf	-0.09765958
52	0xbd98f891	-0.07469285
53	0x3ebf5dad	0.37376156
54	0xbdaedf7a	-0.085387185
55	0xbdce57b3	-0.10075321
56	0xbdb8bc87	-0.09020334
57	0xbe08374b	-0.13302343
58	0x3ed7495b	0.42048153
59	0x3e86a363	0.2629653
60	0xbdaae617	-0.083446674
61	0xbdb126c8	-0.08649975
62	0xbdac0919	-0.08400173
63	0xbe14b3a8	-0.14521658
