experiments/exp_20251005_015408/models/checkpoint_epoch3_auc0.7296_logloss0.0879.pth (torch, 137410 bytes, 12 tensors)

_orig_mod.embeddings.gender.embedding.weight f4 [5, 8]
0	0xbcb112fb	-0.021615496
1	0x3d1c4c46	0.038158678
2	0x3cc4c9a0	0.024021924
3	0xbceb4792	-0.02872065
4	0xb88cb700	-6.7098066e-05
5	0x3d132fe2	0.035934336
6	0xbd0173a9	-0.031604443
7	0x3c9085fd	0.017642016
8	0xbf11581a	-0.5677506
9	0x3f153551	0.5828448
10	0x3f357090	0.7087488
11	0xbeade9f9	-0.3396757
12	0x394c8173	0.0001950318
13	0x3efe5cfd	0.4968032
14	0xbe7b5fc6	-0.24548253
15	0x3c4c4eaf	0.0124699315
16	0xbdecb07d	-0.115571
17	0x3f3d2d16	0.7389692
18	0x3dbb6180	0.09149456
19	0xbefe25bd	-0.49638167
20	0xbab5542d	-0.001383429
21	0x3f1cc0dc	0.6123178
22	0xbf259507	-0.6468052
23	0x3ecc5bef	0.3991389
24	0x0005c37c	5.29304e-40
25	0x000566f3	4.96109e-40
26	0x000578dd	5.02535e-40
27	0x80055827	-4.908e-40
28	0x0005652c	4.95471e-40
29	0x00056981	4.97025e-40
30	0x800563d3	-4.94988e-40
31	0x8005673f	-4.96215e-40
32	0x80056872	-4.96645e-40
33	0x00056648	4.95869e-40
34	0x800564d8	-4.95353e-40
35	0x00065269	5.80576e-40
36	0x0005a02e	5.16639e-40
37	0x80055980	-4.91284e-40
38	0x80055cc6	-4.92458e-40
39	0x800562c6	-4.94611e-40

_orig_mod.embeddings.age_group.embedding.weight f4 [15, 8]
0	0x3d00fb1f	0.031489488
1	0xbca7321b	-0.020409634
2	0xbce1234d	-0.027482653
3	0xbbe745c0	-0.0070578754
4	0x3b71e618	0.0036910828
5	0xbb248d34	-0.0025108578
6	0x3bafb070	0.005361609
7	0x3ca0e40d	0.019639993
8	0xbe340d1d	-0.17583127
9	0x3d0a7755	0.03380521
10	0x3e561eaf	0.20910142
11	0xbcf8d9dd	-0.030377323
12	0xbe44a58e	-0.19203779
13	0x3b749af9	0.0037323816
14	0xbe334697	-0.17507397
15	0xbe1359f7	-0.14389788
16	0x3de76870	0.11299217
17	0xbe0ab1d8	-0.13544405
18	0xbcff5f61	-0.03117341
19	0x3d179cd3	0.037014794
20	0x3ee79caf	0.45236728
21	0xbd805074	-0.06265345
22	0x3eabba09	0.3354037
23	0x3e5c4e0f	0.21514152
24	0x3e4bf1dd	0.19916482
25	0xbd0fc9d4	-0.035104588
26	0xbe31f51b	-0.17378657
27	0x3d7ffdc9	0.062497888
28	0x3ee33f18	0.44384074
29	0xbcda8de8	-0.026678994
30	0x3eb40c9c	0.3516587
31	0x3e4f62ac	0.20252484
32	0x3e209ec5	0.15685566
33	0x3c6a348a	0.014294753
34	0xbe84b238	-0.2591722
35	0x3da89caa	0.08233006
36	0x3ec74feb	0.3892816
37	0xbc83d22f	-0.016091434
38	0x3e80cd64	0.251567
39	0x3d7a8cb9	0.06116936
40	0x3e351c08	0.17686474
41	0x3d5f90e5	0.05458154
42	0xbea34aa8	-0.31892896
43	0x3d8e733c	0.06955573
44	0x3e96404b	0.29345927
45	0xbc862a81	-0.01637769
46	0x3e40a518	0.18812978
47	0x3e2344de	0.1594424
48	0x3f26e66c	0.65195346
49	0x3e25c8a0	0.16189814
50	0xbf130e11	-0.5744334
51	0x3d2c38cb	0.04204635
52	0xbd467c27	-0.048458245
53	0x3c5967fb	0.01326942
54	0x3dff6e32	0.1247219
55	0xbedc7337	-0.43056652
56	0x3e96fe50	0.294909
57	0xbebead8b	-0.37241778
58	0xbf067a6c	-0.5253055
59	0xbd8376fe	-0.0641918
60	0xbf44ae2d	-0.7682827
61	0x3affc488	0.0019513527
62	0xbe27776e	-0.16354153
63	0x3f05abd3	0.5221531
64	0x3f03aebc	0.514385
65	0xbf34d10e	-0.7063149
66	0x3e7e20b0	0.24817157
67	0xbd163884	-0.03667499
68	0xbf1dc06b	-0.6162173
69	0xbe1124d0	-0.14174199
70	0xbef33ab1	-0.47505715
71	0xbc367ef3	-0.0111386655
72	0x8005ac6a	-5.21028e-40
73	0x8005b155	-5.22792e-40
74	0x80055b10	-4.91845e-40
75	0x00056405	4.95058e-40
76	0x800561cf	-4.94265e-40
77	0x80055794	-4.90595e-40
78	0x00056739	4.96207e-40
79	0x00056096	4.93826e-40
80	0x000564e7	4.95374e-40
81	0x80055dae	-4.92783e-40
82	0x80055e70	-4.93055e-40
83	0x80055dc1	-4.9281e-40
84	0x800560d4	-4.93913e-40
85	0x00058099	5.0531e-40
86	0x00056359	4.94817e-40
87	0x80056139	-4.94054e-40
88	0x0005573d	4.90473e-40
89	0x00055aee	4.91797e-40
90	0x000560cc	4.93902e-40
91	0x00058fc9	5.10758e-40
92	0x0005a17f	5.17111e-40
93	0x0005b980	5.25722e-40
94	0x80055eb6	-4.93153e-40
95	0x80055b44	-4.91917e-40
96	0x0006bd28	6.1887e-40
97	0x00055bdd	4.92132e-40
98	0x00055f7c	4.93431e-40
99	0x80055a25	-4.91515e-40
100	0x80056261	-4.94469e-40
101	0x00055fe1	4.93572e-40
102	0x800560d8	-4.93918e-40
103	0x8005625b	-4.94461e-40
104	0x00055e09	4.92911e-40
105	0x80055b37	-4.91899e-40
106	0x0005c073	5.28215e-40
107	0x000637c6	5.71021e-40
108	0x8005f1df	-5.45944e-40
109	0x00055ad8	4.91766e-40
110	0x800565a4	-4.95639e-40
111	0x800564bc	-4.95314e-40
112	0x80055ba6	-4.92055e-40
113	0x00056029	4.93673e-40
114	0x800569e3	-4.97162e-40
115	0x8005575a	-4.90513e-40
116	0x000590b0	5.11082e-40
117	0x80055cbd	-4.92446e-40
118	0x80056187	-4.94164e-40
119	0x8006589b	-5.82799e-40

_orig_mod.embeddings.inventory_id.embedding.weight f4 [50, 16]
0	0x3eb89e14	0.36058104
1	0x3dc0f5fb	0.09421917
2	0xbe047452	-0.12934998
3	0xbef3a93a	-0.47590047
4	0x3ea72d4e	0.32651752
5	0x3e02c095	0.12768777
6	0x3deeeab9	0.116658635
7	0x3f0096e4	0.5023024
8	0x3d963828	0.0733493
9	0xbceea21e	-0.029130038
10	0xbe441e89	-0.19152273
11	0xbcbc0c51	-0.022955092
12	0x3cff82b4	0.031190254
13	0x3e94f4e4	0.29093087
14	0xbdc7fd3c	-0.097650975
15	0x3d39cf79	0.045363877
16	0xbdbca183	-0.092104934
17	0x3d542795	0.05179556
18	0xbd845f24	-0.06463459
19	0xbe013baa	-0.12620416
20	0x3dc3e0c0	0.09564352
21	0x3caddff4	0.021224953
22	0xbe52d1fc	-0.20587915
23	0x3dee1c24	0.11626461
24	0x3cc21a99	0.023694323
25	0xbd0db8a0	-0.0345999
26	0xbe065942	-0.13119987
27	0x3bfb4c90	0.007669039
28	0x3d6b6979	0.057473633
29	0x3d8aac05	0.06771091
30	0x3e6b7db7	0.22997175
31	0x3dc505c9	0.09620244
32	0x3f2ab921	0.66688734
33	0x3e072c67	0.13200532
34	0xbf17391d	-0.5907152
35	0xbdbf9aed	-0.093557216
36	0x3f29a7a9	0.66271454
37	0x3ea251be	0.3170299
38	0xbe0beb4d	-0.13663979
39	0x3e714767	0.23562394
40	0x3de00465	0.10938338
41	0xbef49903	-0.4777299
42	0xbe95a08e	-0.29224056
43	0xbe3b66d2	-0.18300942
44	0x3e9dbc7b	0.30807862
45	0x3e9e126d	0.30873433
46	0x3cba694a	0.022755284
47	0xbda58546	-0.080820605
48	0xbc2771b0	-0.010219976
49	0xbd048823	-0.032356393
50	0x3d744ba0	0.059642434
51	0x3dbc16aa	0.0918401
52	0xbdafcca9	-0.08583958
53	0xbcbf9902	-0.02338839
54	0x3d1d1cf4	0.03835769
55	0xbd9c158a	-0.07621296
56	0x3bd9f233	0.006651187
57	0x3c387adb	0.01125976
58	0x3daf7b04	0.08568385
59	0xbcd65d5a	-0.02616756
60	0xbcf78c53	-0.030218279
61	0xbd5cba80	-0.053888798
62	0xbd0b4c12	-0.034008093
63	0xbd4ca6b2	-0.04996366
64	0xbe10703e	-0.14105317
65	0x3e011474	0.12605458
66	0x3eb81e32	0.35960537
67	0xbf5465b2	-0.82967675
68	0x3e80a3de	0.2512502
69	0x3e947703	0.2899705
70	0x3dbd5764	0.09245184
71	0xbe95c729	-0.2925351
72	0x3dbae02c	0.09124789
73	0x3e64dc8c	0.22349757
74	0x3ec1cde2	0.3785239
75	0x3cc6d1a1	0.02426988
76	0xbef92af7	-0.48665592
77	0xbd3e243f	-0.046421286
78	0xbe5c8f12	-0.21538952
79	0xbdeeafdd	-0.11654637
80	0xbf721bb1	-0.94573504
81	0xbd44309c	-0.04789792
82	0xbe40da44	-0.18833262
83	0xbdfde276	-0.123967096
84	0x3e649ad2	0.22324684
85	0xbec22b55	-0.37923685
86	0xbea54cd5	-0.3228518
87	0xbeac93c2	-0.3370648
88	0xbe391f58	-0.18078363
89	0x3d0843db	0.033267837
90	0xbe8dab16	-0.2766959
91	0x3e7556ba	0.23958865
92	0x3e43ef33	0.19134216
93	0xbe4e5e78	-0.20153224
94	0x3ef41bc1	0.47677425
95	0x3ea738de	0.32660574
96	0xbe314306	-0.17310724
97	0x3dc185c5	0.09449343
98	0xbe0c17f4	-0.13681012
99	0x3ec65a76	0.3874089
100	0x3e2778ae	0.1635463
101	0xbd33fa99	-0.04394016
102	0x3f30417b	0.68849915
103	0x3f695ed3	0.91160315
104	0xbc99a566	-0.018755626
105	0xbdca7e96	-0.098874256
106	0x3f09e360	0.5386257
107	0xbedc8646	-0.43071193
108	0xbbe67ba8	-0.007033784
109	0xbe2b3d0a	-0.16722503
110	0x3d0fa5ca	0.03507022
111	0xbe24fd1a	-0.16112176
112	0xbf84fa7d	-1.0388943
113	0x3ea88f9e	0.3292207
114	0x3f185099	0.5949798
115	0xbe4b2bcc	-0.19840926
116	0xbed275a6	-0.41105384
117	0x3ef38873	0.4756504
118	0xbf2d493c	-0.6768987
119	0xbcda6d25	-0.026663372
120	0x3e1cb6be	0.15304086
121	0xbd57951c	-0.052632436
122	0x3f163088	0.586678
123	0xbee9868a	-0.45610458
124	0xbe847aae	-0.25874847
125	0x3de7ad51	0.11312354
126	0x3ed93460	0.4242277
127	0xbd005bde	-0.03133761
128	0x3c7568e4	0.014978621
129	0x3d6425ca	0.0557001
130	0xbdd9a6db	-0.10627528
131	0xbdf68bd0	-0.12038386
132	0x3de9f182	0.11423017
133	0x3c636870	0.01387988
134	0xbddabb34	-0.106802374
135	0x3e3087bb	0.17239277
136	0xbb347e8c	-0.0027541248
137	0xbd3e8394	-0.0465122
138	0xbe1b405b	-0.15161268
139	0x3cea9a79	0.028638111
140	0x3da7ee9a	0.081998065
141	0x3d64b63a	0.055837847
142	0x3e198386	0.14991578
143	0x3d9cf7b7	0.07664435
144	0xbf0879d2	-0.53310883
145	0xbeb4a969	-0.352855
146	0xbe2bb280	-0.16767311
147	0x3dbf4ac9	0.09340436
148	0x3e2879d2	0.16452721
149	0xbe878411	-0.26467946
150	0x3dec269c	0.11530802
151	0xbee7068e	-0.45122188
152	0xbe7b9f0a	-0.24572387
153	0x3e452c21	0.19255115
154	0x3dd782a3	0.10522964
155	0x3e8db37a	0.27675992
156	0x3e5b0381	0.21388055
157	0x3e017512	0.12642315
158	0xbf06eeb6	-0.52707994
159	0x3e596401	0.21229555
160	0xbeb1677d	-0.34649268
161	0x3d87593f	0.06608819
162	0x3dd1b14f	0.10238897
163	0xbbac69dd	-0.0052616433
164	0x3eb37c45	0.35055748
165	0xbe0d060f	-0.13771842
166	0x3e987563	0.2977706
167	0xbf77bfa0	-0.9677677
168	0xbd368c17	-0.044567194
169	0xbe80aff5	-0.25134245
170	0x3eb97fad	0.3623022
171	0xbe8d0a4c	-0.27546918
172	0x3d4aa70c	0.049475715
173	0x3e4bf345	0.19917019
174	0xbe51f9d9	-0.20505466
175	0x3c21e598	0.0098814
176	0x3ec10942	0.37702376
177	0x3d897030	0.06710851
178	0xbd14ad7c	-0.03629826
179	0x3f1d425c	0.6142938
180	0xbd74418f	-0.059632834
181	0x3da8476d	0.082167484
182	0x3e68095f	0.22659825
183	0x3eb3fc02	0.35153204
184	0x3dc862ff	0.09784507
185	0xbe5da89c	-0.2164635
186	0x3e28cfcb	0.16485517
187	0xbec5c057	-0.38623306
188	0x3cf186c9	0.029483216
189	0x3c8f082c	0.017459951
190	0x3e5e22dc	0.21692985
191	0xbe5b98e9	-0.2144505
192	0x3f1ef9d2	0.62099946
193	0x3e4e05ac	0.20119351
194	0x3e2baf3a	0.16766062
195	0xbe85f359	-0.26162222
196	0xbe500f55	-0.20318349
197	0x3e1813de	0.14851329
198	0x3de486ec	0.11158547
199	0xbda3c087	-0.07995706
200	0xbd9cbdcd	-0.07653389
201	0xbdcbe86d	-0.09956441
202	0xbd7d9497	-0.061909284
203	0x3e1611f4	0.14655286
204	0xbe0dd2ad	-0.13849898
205	0xbe4ca8b2	-0.19986227
206	0xbee3594a	-0.4440406
207	0xbe68e05a	-0.22741833
208	0x3ea085b6	0.31352013
209	0x3d682888	0.05667928
210	0xbdedfc77	-0.116204195
211	0xbd833cb3	-0.06408062
212	0x3e01c29e	0.12671897
213	0x3d51ed4e	0.051251702
214	0x3d2e7233	0.042589378
215	0x3e9c1975	0.30488172
216	0x3bd9ebd9	0.0066504297
217	0xbd6daaec	-0.058024332
218	0xbdd27cd3	-0.102777146
219	0xbcbc664a	-0.022997994
220	0x3d427b2d	0.04748075
221	0x3dae96cf	0.08524858
222	0xbb05a210	-0.0020390786
223	0xbbe1d535	-0.0068918713
224	0xbe225a76	-0.1585482
225	0xbf24a41e	-0.6431292
226	0xbdb33832	-0.08750953
227	0x3f1bd52e	0.6087216
228	0xbed5e622	-0.4177714
229	0xbe79f6a5	-0.24410494
230	0x3d5b3d26	0.053525113
231	0xbe96b9cc	-0.29438627
232	0x3dc1e812	0.09468092
233	0x3c5206ef	0.012819036
234	0xbb4cc53e	-0.0031245495
235	0x3c9eed93	0.019400394
236	0xbd7f1b39	-0.06228182
237	0xbf777c26	-0.9667381
238	0x3eb79bee	0.35861152
239	0xbebd970d	-0.37029305
240	0xbeb7f9cd	-0.3593277
241	0xbe088955	-0.13333638
242	0xbe0b3b3d	-0.13596816
243	0xbe1178db	-0.14206259
244	0x3bbd35d0	0.005774237
245	0xbe5230f7	-0.20526491
246	0xbeb78794	-0.35845625
247	0xbeb9d2aa	-0.36293536
248	0xbdfb832e	-0.1228088
249	0x3d8b98d9	0.06816263
250	0xbecca8f0	-0.3997264
251	0x3ecbac3b	0.3977984
252	0x3e129e12	0.14318112
253	0xbe1f0f0b	-0.15533082
254	0x3ded4a29	0.115864106
255	0x3e4a1957	0.19736229

_orig_mod.embeddings.day_of_week.embedding.weight f4 [10, 8]
0	0x3f31a5b8	0.6939349
1	0x3be1e507	0.0068937573
2	0x3e306904	0.1722756
3	0x3b1fcac2	0.0024382328
4	0x3d2da659	0.04239497
5	0xbe32fb53	-0.17478685
6	0xbd4abe60	-0.049497962
7	0x3d5a6bc9	0.05332545
8	0xbe57a567	-0.2105919
9	0xbc6bf3d3	-0.014401394
10	0x3e0a468d	0.13503475
11	0x3e2ede91	0.1707709
12	0xbd70c9ce	-0.058786206
13	0xbd3f6ef5	-0.046736676
14	0x3db836bc	0.08994815
15	0x3d5d6348	0.05404976
16	0x3cdb59e5	0.026776263
17	0xbc29cb06	-0.010363346
18	0xbdaff3d3	-0.08591428
19	0xbe1bf858	-0.15231454
20	0x3d14dafc	0.036341652
21	0x3e0a4b82	0.13505366
22	0x3d562a68	0.052286536
23	0xbca627e8	-0.0202827
24	0xbd9ffbcd	-0.07811699
25	0xbb064410	-0.0020487346
26	0xbd6babe5	-0.05753698
27	0xbefcd067	-0.49377748
28	0x3d78c03d	0.060730208
29	0x3dc7e95d	0.097613074
30	0xbbd2bd86	-0.0064312844
31	0xbc09b83f	-0.008405744
32	0x3e62ac51	0.22136046
33	0xbc599e92	-0.013282435
34	0xbe2f6c5f	-0.17131184
35	0xbe0e2805	-0.13882454
36	0xbca097e8	-0.019603685
37	0x3e121add	0.1426806
38	0x3d9a8d04	0.07546428
39	0xbc9c1868	-0.019054607
40	0x3e35458f	0.17702316
41	0x3b8ccd18	0.00429691
42	0xbe1334dd	-0.14375634
43	0xbe6ad0b6	-0.2293118
44	0xbcd35188	-0.025795713
45	0x3e03c50b	0.12868135
46	0xbb0e4dbc	-0.0021713814
47	0xbd56bade	-0.052424304
48	0x3ed5ca5f	0.4175596
49	0x3cb4b15e	0.022057232
50	0x3e144186	0.1447812
51	0xbdf9a432	-0.12189521
52	0x3d48cce4	0.049023524
53	0xbd53cef3	-0.051711034
54	0xbe0d8b0b	-0.13822572
55	0xbc8f0efe	-0.017463204
56	0x80057200	-5.00073e-40
57	0x80055dd9	-4.92844e-40
58	0x0005626d	4.94486e-40
59	0x80055ebc	-4.93162e-40
60	0x000570fa	4.99706e-40
61	0x00055962	4.91242e-40
62	0x0005643d	4.95136e-40
63	0x80055cb3	-4.92432e-40
64	0x800587c9	-5.07888e-40
65	0x00055b62	4.9196e-40
66	0x80056101	-4.93976e-40
67	0x80055cc0	-4.9245e-40
68	0x8005693d	-4.9693e-40
69	0x00055e90	4.931e-40
70	0x00056ea0	4.98862e-40
71	0x80064de7	-5.78959e-40
72	0x80055ac6	-4.91741e-40
73	0x80055a7b	-4.91636e-40
74	0x00056c9c	4.98139e-40
75	0x8005bb0a	-5.26274e-40
76	0x0006c72e	6.22465e-40
77	0x000562df	4.94646e-40
78	0x000558d0	4.91037e-40
79	0x80055ac4	-4.91738e-40

_orig_mod.embeddings.hour.embedding.weight f4 [30, 16]
0	0x3c8b8d7a	0.017035235
1	0xbbd14363	-0.006386207
2	0x3e24d953	0.16098528
3	0x3d2d7928	0.04235187
4	0xbd654c83	-0.05598117
5	0x3e86aaa3	0.2630206
6	0x3d2e24ed	0.042515684
7	0xbeaa75b3	-0.33292922
8	0x3ce508da	0.027958322
9	0xbcab42a6	-0.020905804
10	0xbd9dcd93	-0.07705226
11	0x3e443340	0.19160175
12	0xbd4f90db	-0.050675254
13	0x3dd5fc6d	0.10448537
14	0xbc8b1637	-0.016978366
15	0x3d196e42	0.037458666
16	0x3e409720	0.1880765
17	0x3c6210de	0.013797967
18	0x3cd0e325	0.025498936
19	0x3bd7d5ea	0.00658678
20	0xbda6afa4	-0.081389695
21	0x3e4eb1f1	0.20185067
22	0xbbeb82b8	-0.0071872137
23	0xbddcca6e	-0.10780798
24	0xbc571a8c	-0.013128888
25	0xbc449f2c	-0.01200084
26	0xbb8e9a7f	-0.0043519135
27	0x3dcc98b6	0.09990065
28	0x3d0d351c	0.034474477
29	0x3da8a071	0.08233727
30	0xbdc972a6	-0.098363206
31	0x3d34ecd9	0.044171188
32	0x3e7cba86	0.24680528
33	0xbb2c5507	-0.0026295797
34	0x3d5a620c	0.05331616
35	0x3d198496	0.03747996
36	0xbdd96a9c	-0.10616037
37	0x3e82c817	0.2554328
38	0xbc9283c9	-0.017885106
39	0xbe22de2c	-0.15905064
40	0x3d3b5986	0.045739673
41	0x3b425ef3	0.0029658645
42	0xbccd95df	-0.025095878
43	0x3e0e0c38	0.13871849
44	0xbc8fa6ed	-0.017535651
45	0x3dfc21b0	0.12311113
46	0xbe002712	-0.12514904
47	0x3d90f840	0.070786
48	0x3e68b0d5	0.22723706
49	0xba482c03	-0.0007635953
50	0x3d2a318c	0.041551158
51	0x3d0cb6e3	0.034354102
52	0xbdb1a2a7	-0.086736016
53	0x3e4b1e4e	0.19835779
54	0xbbb65ce1	-0.0055652712
55	0xbdcff19d	-0.10153506
56	0xbbea8f49	-0.007158194
57	0xbc39cae4	-0.011339877
58	0xbce41e7f	-0.027846573
59	0x3dcdd3df	0.10050177
60	0x3d07c114	0.033143118
61	0x3db2d60c	0.087322325
62	0xbdd1fbd4	-0.102531105
63	0x3d5ab4fc	0.053395256
64	0x3e0f50d7	0.13995682
65	0x3a84d8b1	0.001013538
66	0x3cb865bd	0.02250945
67	0x3c26af9c	0.0101737045
68	0xbd5c09fa	-0.053720452
69	0x3e152399	0.1456436
70	0xbb9de663	-0.004818724
71	0xbdae7470	-0.085183024
72	0x3c456843	0.012048784
73	0xbb40e174	-0.0029431256
74	0xbbd4309b	-0.006475521
75	0x3d8c2a09	0.06843955
76	0xbbd0fcfa	-0.0063778134
77	0x3d65a206	0.05606272
78	0xbd8b89b1	-0.06813372
79	0x3cf66d5e	0.030081447
80	0x3df79822	0.12089564
81	0xbb11598d	-0.002217862
82	0x3dd5b1b9	0.104342885
83	0x3d900513	0.07032218
84	0xbdeb7f4d	-0.1149889
85	0x3e815049	0.25256565
86	0xbcda137e	-0.026620623
87	0xbe6437f6	-0.22286972
88	0xbcf92506	-0.030413162
89	0xbc947a87	-0.018124832
90	0xbd794e79	-0.060865853
91	0x3e3d6075	0.18493827
92	0xba802035	-0.0009775223
93	0x3e1289a5	0.1431032
94	0xbd210d6e	-0.03931945
95	0x3db1fde4	0.08691004
96	0xbcf5da5c	-0.030011348
97	0xbc4134c7	-0.011792368
98	0x3dcc5fc7	0.099792056
99	0x3d6bb5fb	0.057546597
100	0xbdbcca6e	-0.09218298
101	0x3e561243	0.20905404
102	0x3c81adea	0.015829999
103	0xbe47a7de	-0.1949763
104	0xbc407d46	-0.0117486175
105	0xbc5f8496	-0.013642451
106	0xbd760446	-0.06006267
107	0x3e147c08	0.14500439
108	0x3ce3cf32	0.02780876
109	0x3db9de18	0.09075564
110	0xbcab79d4	-0.020932116
111	0x3d4aa5f1	0.04947466
112	0xbe1c7701	-0.15279771
113	0xbc84e61c	-0.016223006
114	0x3e1c7bb7	0.15281568
115	0x3d4855de	0.048910014
116	0xbbee7785	-0.0072774314
117	0x3da64365	0.08118323
118	0x3d7705a1	0.060308103
119	0xbe5d8ef3	-0.21636562
120	0x3d58db3d	0.052943457
121	0xbd125f8b	-0.035735648
122	0xbdd069fb	-0.10176464
123	0x3dea9263	0.11453702
124	0xbd62aea5	-0.055342335
125	0x3d2519e8	0.04030791
126	0x3e183780	0.14864922
127	0xbaf5a302	-0.0018740597
128	0xbe126340	-0.14295673
129	0x3b6f1683	0.0036481924
130	0x3c7fe367	0.015618182
131	0xbbb51124	-0.005525725
132	0x3d37ffb0	0.044921577
133	0xbe08ee0b	-0.13372056
134	0x3c78f158	0.01519426
135	0xbc515775	-0.012777199
136	0x3abf7ad4	0.0014608749
137	0x3bb751f6	0.0055944873
138	0xbb3fc05e	-0.0029258947
139	0xbd2bd616	-0.041952215
140	0xbb3342f6	-0.0027353144
141	0xbd1c0da9	-0.038098965
142	0x3d5018f1	0.050805036
143	0xbc6d61d8	-0.01448866
144	0xbe62db26	-0.22153911
145	0x3b2c1076	0.0026254929
146	0x3d006c9a	0.03135357
147	0xbb8c97d0	-0.0042905584
148	0x3d8b4568	0.068003476
149	0xbdd30cae	-0.10305153
150	0x3c98067b	0.018557778
151	0xbc6bc89a	-0.014391089
152	0x3acd3949	0.0015657331
153	0x3b4bd292	0.0031100851
154	0xbc7d2e64	-0.015452955
155	0xbcfdc553	-0.03097788
156	0x3bdaadaa	0.0066735344
157	0xbd79b937	-0.06096765
158	0x3dfd5b55	0.12370936
159	0xbd0ab4d8	-0.033863872
160	0xbec72bec	-0.38900697
161	0xbb2560bb	-0.0025234658
162	0x3d772c73	0.060345124
163	0x3c80b13b	0.01570951
164	0x3d5ae4c5	0.053440828
165	0xbe0d595a	-0.13803616
166	0x3d054db4	0.032544807
167	0xbd0c4981	-0.034249786
168	0xbd058520	-0.03259766
169	0xbbc3fb95	-0.0059809186
170	0xbd1f0924	-0.038827077
171	0xbc3bc2c2	-0.011460008
172	0x3c63bd4d	0.013900113
173	0xbd5dd2b9	-0.05415604
174	0x3e2b4c89	0.16728415
175	0xbcfe3c19	-0.031034516
176	0xbe66b9dc	-0.22531837
177	0x3b54d841	0.003247753
178	0x3bbd2d81	0.0057732468
179	0xbc8f2cbd	-0.017477388
180	0x3d15175e	0.036399238
181	0xbda73a0d	-0.08165369
182	0x3d245a74	0.040125325
183	0x3d030854	0.031990364
184	0xbcab65b7	-0.020922525
185	0xbcc4a8a9	-0.024006205
186	0xbc050f6a	-0.008121351
187	0xbd2ea1dc	-0.04263483
188	0x3cd7655e	0.026293453
189	0xbd489321	-0.048968438
190	0x3d6eb91f	0.058282014
191	0xbd2c3165	-0.042039294
192	0xbe40b105	-0.18817528
193	0xbb5bd78d	-0.0033545226
194	0xbc860997	-0.016361995
195	0xbc3367a3	-0.010950002
196	0x3d798ecb	0.060927194
197	0xbe2fa96f	-0.17154478
198	0x3b97dd5f	0.004634544
199	0x3d90c2d0	0.070684075
200	0x3bdc2de9	0.00671934
201	0x3bb4f89b	0.0055228
202	0x3b96a926	0.004597801
203	0xbd913ad7	-0.07091301
204	0xbce079a8	-0.02740176
205	0xbd4c4733	-0.04987259
206	0x3da034d3	0.078225754
207	0xbce498fc	-0.02790498
208	0xbc4e48f8	-0.012590639
209	0x3adb8efd	0.0016750988
210	0xbd788a28	-0.06067863
211	0xbd2ce320	-0.04220879
212	0x3db370aa	0.08761723
213	0xbe1bc8d8	-0.15213335
214	0x3cf54eb3	0.029944753
215	0x3df5b8e0	0.11998153
216	0xba03917f	-0.0005018934
217	0xbbba447f	-0.005684435
218	0x3cf12a24	0.02943904
219	0xbdfd7035	-0.123749174
220	0x3c1c9039	0.00955587
221	0xbdd4b198	-0.10385436
222	0x3d32b6b9	0.04363129
223	0xbd875538	-0.06608051
224	0x3ceb7bfb	0.028745642
225	0xbb6fa77a	-0.003656833
226	0xbdd34c70	-0.10317314
227	0xbce9c285	-0.028535137
228	0x3d4fcedd	0.05073439
229	0xbe0f8e04	-0.14019018
230	0xbd051a5e	-0.03249585
231	0x3e35c52d	0.17750998
232	0x3c9fd0f1	0.01950881
233	0x3cd29565	0.025706002
234	0x3d84410e	0.06457721
235	0xbdef52f5	-0.11685745
236	0xbcb53a0c	-0.022122405
237	0xbd977bef	-0.07396685
238	0xba4ad8f2	-0.0007738016
239	0xbcb9e02d	-0.022689903
240	0x3d82bdf7	0.06383889
241	0x3907349b	0.000128942
242	0xbdb7a9dd	-0.08967946
243	0xbcf9abea	-0.030477483
244	0x3d1bb8ff	0.038018223
245	0xbdf6383c	-0.120224446
246	0xbc85b1c5	-0.016320119
247	0x3e2136ae	0.15743515
248	0xbcca3bca	-0.024686713
249	0x3c537b76	0.012907853
250	0x3d534fb5	0.051589686
251	0xbdcb0a1e	-0.09914039
252	0xba172654	-0.0005765904
253	0xbd51de35	-0.051237304
254	0xbd0adc86	-0.033901714
255	0xbc9cccc4	-0.019140609

_orig_mod.dense_proj.weight f4 [64, 113]
0	0xbbf264e6	-0.007397282
1	0xbd266a98	-0.040629
2	0x3c810908	0.015751377
3	0x3d4fb3bc	0.050708517
4	0x3dd6eb7f	0.10494136
5	0x3be0d7dd	0.0068616704
6	0xbce46a0b	-0.027882596
7	0xbd413ed4	-0.04717906
8	0xbc11961e	-0.008885888
9	0x3c4e4578	0.012589805
10	0xbb9dbd3e	-0.004813819
11	0x3c977781	0.018489601
12	0x3c3d5b21	0.011557371
13	0x3a1e20ba	0.00060320983
14	0x3c22f9ef	0.009947284
15	0x3b23c22c	0.0024987562
16	0x3d2d3d6b	0.0422949
17	0x3c3470e5	0.011013244
18	0x3c2c829b	0.010529186
19	0xbc6cf246	-0.014462059
20	0xbc94b7bb	-0.018154016
21	0xbd035ba8	-0.032069832
22	0x3d434f0f	0.047682818
23	0xbc973053	-0.01845566
24	0xbc7a3cfe	-0.015273331
25	0xbda5b86a	-0.08091815
26	0xbd36eccd	-0.044659425
27	0xbc84d798	-0.016216084
28	0xbb9a18a0	-0.0047026426
29	0x3adc38ee	0.0016801634
30	0xbc693964	-0.014234874
31	0xbd858264	-0.06519011
32	0x3c917c19	0.01775937
33	0xbbbbf4cf	-0.0057359706
34	0x3ce0f77e	0.027461763
35	0x3c6a1542	0.014287295
36	0xbc93dd83	-0.018049961
37	0xbc934f5f	-0.017982183
38	0xbc89fb7d	-0.016843552
39	0xbd1884d0	-0.037236035
40	0xbd05696c	-0.03257124
41	0xbc8faf9f	-0.017539797
42	0x3d4d1bbd	0.05007528
43	0x3a4b24e9	0.00077493355
44	0x3c360148	0.011108704
45	0xbcd0de4f	-0.02549663
46	0x3b9827e3	0.0046434267
47	0x3cde8c6c	0.027166568
48	0x3d4fc075	0.05072065
49	0xbd0e0a9d	-0.03467809
50	0x3d2eedc7	0.04270723
51	0xbc993da7	-0.018706156
52	0xbb6db575	-0.0036271487
53	0xbb9e1493	-0.00482423
54	0xbcdb8200	-0.026795387
55	0x3d188604	0.037237182
56	0xbd47f72f	-0.048819717
57	0x3d65e338	0.056124896
58	0xbbf324ee	-0.007420174
59	0xbd23603c	-0.039886698
60	0x3c2743d0	0.010209039
61	0x3b4414ee	0.0029919702
62	0x3a73d987	0.00093021285
63	0x3b91603d	0.0044365213
64	0xbcc9b86d	-0.024624074
65	0xbd51f724	-0.051261082
66	0x3cac6f08	0.021049038
67	0x3c812117	0.015762849
68	0xbdc7d52b	-0.097574554
69	0x3d9f80f9	0.077882715
70	0x3cfbfe0c	0.030760787
71	0xbcfa4123	-0.030548638
72	0xbbe8d590	-0.0071055368
73	0x3cf286c9	0.029605286
74	0xbd5e8062	-0.054321654
75	0x3c25144f	0.010075643
76	0xbb75e330	-0.0037519448
77	0xbb93c7e4	-0.004509913
78	0xbd061f61	-0.03274477
79	0xbbbf0f9f	-0.0058307196
80	0xbc918746	-0.017764699
81	0x3b04e6a8	0.0020279083
82	0x3ca61e4c	0.020278119
83	0x3d238d06	0.039929412
84	0x3cb3ea59	0.021962332
85	0xbc3501d6	-0.011047801
86	0xbc11809c	-0.0088807605
87	0xbae68e13	-0.0017589949
88	0xbbad2703	-0.0052841916
89	0xbb0978f4	-0.0020976635
90	0xbbd715e0	-0.006563887
91	0xbba47438	-0.005018737
92	0x3c82f757	0.015987081
93	0xbb8b9743	-0.004259975
94	0xbb84f4e9	-0.004057516
95	0xbbe842b6	-0.0070880307
96	0xbb80efcd	-0.0039348365
97	0xbb0588c6	-0.0020375713
98	0xbb956eb9	-0.0045603183
99	0xbaeb97a3	-0.0017974268
100	0xbbb06264	-0.005382823
101	0xbbb2b01c	-0.005453123
102	0xbbe6c04f	-0.007041968
103	0xbbaf195b	-0.005343599
104	0xbbe15b9d	-0.006877376
105	0xbbd4b9dd	-0.006491883
106	0xbbab4d6e	-0.005227736
107	0xbbbbfbea	-0.0057368176
108	0xbb1c2054	-0.002382298
109	0xbbde36f6	-0.006781454
110	0xbc2ce3ee	-0.01055239
111	0xbba8e83e	-0.0051546386
112	0x3ceaee27	0.028678013
113	0x3b80b6e8	0.003928054
114	0x3bf7e100	0.007564664
115	0x3d91cf06	0.07119565
116	0xbd96f3c5	-0.07370714
117	0xbbca8e4a	-0.006181513
118	0xbda48182	-0.08032514
119	0xbd92303e	-0.07138108
120	0x3d35a336	0.044345103
121	0x3d93bec3	0.07214119
122	0xbcf5b182	-0.029991869
123	0xbda964e6	-0.08271198
124	0xbc94cc55	-0.01816384
125	0x3d6a2f38	0.057173938
126	0xbd88b060	-0.06674266
127	0x3e1e10ae	0.1543605
128	0x3e33f0e9	0.17572369
129	0x3c194131	0.009353922
130	0xbcdd9219	-0.027047204
131	0x3cd09708	0.025462642
132	0x3c20ded1	0.009818749
133	0x3d5ac9ab	0.05341498
134	0xbbf713d3	-0.007540205
135	0xbb0a86f8	-0.0021137577
136	0x3d6c7b7b	0.057734948
137	0x3b66416b	0.0035134207
138	0xbcd2211c	-0.025650553
139	0xbd601b5c	-0.054713592
140	0xbd9d041a	-0.07666798
141	0x3d4e139d	0.050311673
142	0xbd1bd542	-0.038045175
143	0x3d9bfe48	0.0761686
144	0x3c5cc743	0.013475242
145	0x3c566768	0.013086177
146	0xbd3c17db	-0.045921188
147	0x3d43c345	0.047793645
148	0xbcbe6d13	-0.02324537
149	0xbc81a39b	-0.015825083
150	0xbdd6983d	-0.10478256
151	0xbdca613c	-0.09881827
152	0xbdb4b549	-0.0882364
153	0x3d16c6ab	0.03681056
154	0xbd7e04cf	-0.062016305
155	0x3dceea6c	0.10103306
156	0xbcfb0a0b	-0.030644437
157	0x3dfedb67	0.124441914
158	0x3da531fa	0.08066173
159	0x3d6625b5	0.056188304
160	0xbda9e0b5	-0.082948126
161	0x3c9ed565	0.019388864
162	0xbbc0fb68	-0.005889345
163	0x3dbc9923	0.09208896
164	0xbdd88413	-0.10572066
165	0x3c5c9a17	0.013464472
166	0xbc707a85	-0.014677648
167	0xbc22f55f	-0.009946196
168	0x3e1fbc89	0.15599264
169	0xbe0a5301	-0.13508226
170	0x3df3e645	0.11909155
171	0x3d5ad8dc	0.05342947
172	0x3a73ea3d	0.00093046186
173	0xbc79a784	-0.015237693
174	0xbd5295e1	-0.051412467
175	0x3cd0a835	0.025470832
176	0xbd1027f6	-0.03519436
177	0xbccb1c33	-0.02479372
178	0x3cca8a7d	0.02472424
179	0xbd2d25e2	-0.042272456
180	0xbc9464b3	-0.018114423
181	0xbd009447	-0.03139141
182	0xbc651d2c	-0.013984006
183	0x3ce0fa2f	0.027463047
184	0xbcd5eb5d	-0.026113207
185	0x3cb66953	0.02226702
186	0xbbcb95b5	-0.006212915
187	0xbb56cad3	-0.0032774701
188	0x3d5ec619	0.05438814
189	0xbd14b923	-0.036309373
190	0xbdc21322	-0.094763055
191	0xbe6f30cf	-0.23358463
192	0x3c980f0b	0.01856186
193	0xbe13a54f	-0.14418529
194	0x3d43295a	0.047646858
195	0x3d4c7b07	0.049922016
196	0x3da485d6	0.0803334
197	0x3c80579a	0.015666772
198	0xbce9ba5d	-0.028531248
199	0x3bfe1498	0.00775392
200	0xbbf56698	-0.007489037
201	0x3c7817e0	0.015142411
202	0x3cb004f8	0.021486744
203	0x3ce086b4	0.027407981
204	0x3c9df15d	0.01928013
205	0x3d04dca0	0.032436967
206	0x3ab4f844	0.0013806899
207	0x3caf40b4	0.021393158
208	0x3a078377	0.0005169431
209	0xbb4060eb	-0.0029354643
210	0x3bb1f795	0.0054311254
211	0x3cc9c1c6	0.024628531
212	0xbc249ad0	-0.010046676
213	0x3c883036	0.016624551
214	0x3b8771fd	0.0041334615
215	0x3c6b87a7	0.014375604
216	0x391df193	0.0001506268
217	0xbc01e73d	-0.007928667
218	0x3b7c7aa8	0.0038525257
219	0x3c848d44	0.016180642
220	0x3cccfc65	0.025022695
221	0x3bcb319f	0.0062009837
222	0x3cf11f6c	0.029433928
223	0x3c536ab4	0.012903858
224	0xbad90184	-0.0016556238
225	0x3d904591	0.07044519
226	0xbda69d72	-0.08135499
227	0xbd07e129	-0.033173714
228	0xbea97629	-0.33097962
229	0x3e237e46	0.15966138
230	0xbd419f55	-0.04727109
231	0x3e374cee	0.1790044
232	0xbd609b22	-0.054835446
233	0x3d190579	0.037358735
234	0xbd2afe59	-0.04174647
235	0xbc157b9d	-0.00912371
236	0xbdc05f1a	-0.09393139
237	0x3bcc0683	0.006226362
238	0xbd47c973	-0.0487761
239	0x3d5827cc	0.05277233
240	0xbd3779a5	-0.044793744
241	0x3e3b2ae1	0.18278076
242	0x3d5f0fef	0.054458555
243	0x3ce13717	0.02749209
244	0x3d0714d6	0.032978855
245	0x3d91209e	0.07086299
246	0x3dd43f5d	0.10363648
247	0xbbf82b03	-0.007573487
248	0x3c63458b	0.013871561
249	0x3dc0e807	0.09419256
250	0x3a557f2e	0.00081442564
251	0x3b98d8ce	0.004664517
252	0xbcdff028	-0.027336195
253	0x3d08048d	0.033207465
254	0xbccbf9ea	-0.024899442
255	0xbdbe0de3	-0.092799924

_orig_mod.dense_proj.bias f4 [64]
0	0x3b58dedc	0.003309182
1	0x3d9e096b	0.0771664
2	0xbd2cee18	-0.04221925
3	0x3d50a959	0.050942753
4	0x3dc65939	0.096849866
5	0x3c75aca3	0.014994773
6	0x3c27b01d	0.01023486
7	0xbe2b6276	-0.16736779
8	0xbc2ca849	-0.010538169
9	0x3b174591	0.0023082236
10	0xbc789afa	-0.015173668
11	0x3bf64672	0.007515722
12	0x3af8105e	0.0018925776
13	0x3ca858ad	0.020550096
14	0xbbc5aaa6	-0.006032306
15	0x3b54bd10	0.0032461323
16	0x3dbbb269	0.091648884
17	0x3a8a81d1	0.0010567253
18	0xbcc86ba1	-0.024465384
19	0xbd72a889	-0.05924276
20	0xbdc97c70	-0.09838188
21	0x3cf1f9f3	0.02953813
22	0xbc6d2474	-0.014474023
23	0x3dabdb33	0.08391418
24	0xbdabdafb	-0.083913766
25	0xbc26f105	-0.0101892995
26	0x398e8aa3	0.00027187643
27	0x3a967051	0.0011477565
28	0xbbc30853	-0.00595192
29	0x3d039e34	0.032133296
30	0x3cfb4f61	0.0306775
31	0x3b8833a0	0.004156545
32	0xbc92bb23	-0.0179115
33	0x3e018403	0.12648015
34	0xbd29591b	-0.041344743
35	0xbd24e65b	-0.040258747
36	0xbb28c254	-0.0025750594
37	0xbdafadba	-0.085780576
38	0xbda2eb4a	-0.07955034
39	0x3e03fbd2	0.1288903
40	0x3be75fc9	0.007060979
41	0x3c86f055	0.016472021
42	0x3c4b373a	0.012403304
43	0xbc0e3fc1	-0.008682192
44	0x3af27fa1	0.0018501171
45	0x3d1cac7a	0.038250424
46	0xbbd2d25a	-0.0064337673
47	0x3b22ad1b	0.0024822417
48	0x3b187956	0.0023265681
49	0x3dd5a6e0	0.104322195
50	0x3b9b1e6d	0.0047338516
51	0x3c632aff	0.013865232
52	0x3c47f850	0.012205198
53	0xbe0e9feb	-0.13928191
54	0xbd7bfd95	-0.06152113
55	0x3c6bed70	0.014399871
56	0x3e0ac3a4	0.13551193
57	0xbd07d627	-0.033163216
58	0xbc3bb979	-0.011457794
59	0x3d096be8	0.033550173
60	0xbb52a4e5	-0.0032141742
61	0x3e16fd8d	0.1474516
62	0x3d8a940e	0.067665204
63	0x3e17f7e7	0.14840661

_orig_mod.shared_mlp.0.weight f4 [128, 120]
0	0x3e33a866	0.17544708
1	0xbe4576c7	-0.19283591
2	0xbe507ea9	-0.20360817
3	0x3df9ac9d	0.121911265
4	0xb81ed5d7	-3.786929e-05
5	0xbe28d52d	-0.1648757
6	0x3dc628ab	0.096757255
7	0xbbdfc934	-0.006829405
8	0xbd6a32a3	-0.057177197
9	0x3e43429d	0.1906838
10	0xbcfc2dfc	-0.030783646
11	0xbc027a91	-0.007963792
12	0x3dbafb5f	0.091299765
13	0x3ccd2045	0.025039801
14	0x3d8738c2	0.066026226
15	0xbe37345a	-0.17891064
16	0x3e0abbe0	0.13548231
17	0x3d59af55	0.053145725
18	0x3a8b0e56	0.0010609131
19	0xbd0582e6	-0.032595538
20	0x3caf946a	0.021433074
21	0xbb1a8292	-0.002357636
22	0x3dc38eb9	0.095487066
23	0x3df92feb	0.12167343
24	0xbcccfeb8	-0.025023803
25	0x3d288461	0.04114187
26	0xbc420c21	-0.011843712
27	0x3cddcb3b	0.027074447
28	0xbbaa5b29	-0.0051988554
29	0x3d999ce1	0.075006254
30	0xbdbcfc14	-0.092277676
31	0x3d07c59e	0.033147447
32	0xbd71a098	-0.058991045
33	0xba3574dd	-0.0006922016
34	0x3ddda284	0.10822013
35	0x3e515e48	0.20446122
36	0xbca276b7	-0.019831998
37	0xbdb2cfcf	-0.087310426
38	0x3b404642	0.0029338752
39	0x3d03aab6	0.032145225
40	0xbc0380b1	-0.008026288
41	0xbc0a8655	-0.008454879
42	0x3ae04cd0	0.0017112736
43	0x3ca9fa7f	0.020749329
44	0xbc9409d4	-0.018071093
45	0xbb2ca3a7	-0.0026342662
46	0xbc99721b	-0.018731168
47	0x3ade77a9	0.0016972917
48	0x3d0b9367	0.03407612
49	0x3be5f88c	0.0070181545
50	0xbbb3db7b	-0.0054888106
51	0x3c107ef0	0.008819327
52	0xbc9f8a35	-0.019475082
53	0x3ca6c870	0.020359248
54	0xbbb75779	-0.0055951444
55	0x3cbfca17	0.023411794
56	0x3c5a45e4	0.013322327
57	0xbde59097	-0.11209219
58	0xbe00b9d5	-0.1257089
59	0xbdba4da7	-0.09096842
60	0xbd03254c	-0.03201799
61	0x3d097648	0.033560067
62	0x3ca1b847	0.01974119
63	0x3ddf71e3	0.10910394
64	0x3c1a06be	0.0094010215
65	0xbd3934d5	-0.0452164
66	0x3bc337cf	0.0059575806
67	0xbcbffdd1	-0.023436459
68	0xbc692958	-0.0142310485
69	0x3b492b1b	0.003069586
70	0xbcbb8273	-0.022889351
71	0xbcaba343	-0.020951873
72	0x3bc8c538	0.006127026
73	0x3d0e38f7	0.034722295
74	0xb9c66d46	-0.00037846918
75	0xbd9477b6	-0.072493955
76	0x3e369dbb	0.17833607
77	0xbd25eeee	-0.040511064
78	0x3c0d778e	0.008634461
79	0xbe0206ee	-0.12697956
80	0x3d8d83f8	0.06909937
81	0xbcc3ceaa	-0.023902256
82	0xbcc95b15	-0.024579564
83	0xbd4a128c	-0.049334094
84	0x3bfdaa36	0.007741238
85	0xbd2e185a	-0.042503692
86	0x3c82a4a8	0.015947655
87	0x39d9cdd9	0.00041542834
88	0xb9b59cb2	-0.00034639757
89	0xbd91c5e8	-0.07117826
90	0x3d7492fd	0.05971049
91	0xbd5d992f	-0.054101165
92	0xbc3ebf7f	-0.011642336
93	0x3e3af955	0.18259175
94	0xbdd28a29	-0.10280258
95	0xbd9c04ef	-0.076181285
96	0x3c0210b2	0.007938551
97	0xbc835002	-0.016029362
98	0xbc116634	-0.008874465
99	0x3c6683e9	0.014069536
100	0xbc553cff	-0.013015031
101	0x3d206936	0.039162837
102	0x3bd6cbe4	0.0065550674
103	0xbcf19cc3	-0.029493695
104	0x3adfddb4	0.0017079622
105	0x3d4a5d68	0.049405485
106	0x3c93b9ec	0.01803299
107	0x3e516cef	0.20451711
108	0x3b884279	0.004158315
109	0xbd8c4447	-0.0684896
110	0xbdc7d06f	-0.097565524
111	0x3c7ed639	0.015554004
112	0xbdef1984	-0.116747886
113	0xbca10bb0	-0.019658893
114	0xbc77f27f	-0.015133499
115	0xbc1e0bd6	-0.009646377
116	0x3b28b04e	0.0025739851
117	0xbb80f519	-0.003935468
118	0xbce202aa	-0.027589161
119	0xbd2c26b3	-0.042029094
120	0xbce8e9fb	-0.028431883
121	0x3da3959e	0.079875216
122	0x3d836f7f	0.064177506
123	0xbd699f7b	-0.057036858
124	0xb8ce98db	-9.851317e-05
125	0x3db011ed	0.08597169
126	0xbd89b077	-0.06723111
127	0x3cc6f3be	0.024286147
128	0xbc91066a	-0.017703254
129	0xbd038cc8	-0.03211668
130	0xbd2ce6cf	-0.042212304
131	0x3abc261d	0.001435462
132	0x3e054e8b	0.13018243
133	0xbb3b7117	-0.0028601342
134	0x3da5437f	0.080695145
135	0x3da286e0	0.079358816
136	0xbd2aad13	-0.041668963
137	0x3d74790e	0.05968576
138	0xbc01d83e	-0.007925091
139	0xbe1bedfb	-0.15227501
140	0x3d9f9f1a	0.07794018
141	0xba1d2867	-0.0005995095
142	0xb9c1c964	-0.00036961876
143	0x3d400be5	0.046886344
144	0xbcd76352	-0.026292477
145	0xb9a750f1	-0.00031913028
146	0xbd6a02df	-0.057131644
147	0x3d673369	0.056445513
148	0xbc7fc82a	-0.015611688
149	0x3bb15ec2	0.0054129073
150	0x3d255e94	0.0403734
151	0x3d6a2051	0.057159726
152	0x3cd04547	0.025423659
153	0xbbb5a6dd	-0.0055435733
154	0xbd0bc19b	-0.034120183
155	0xbc865843	-0.016399508
156	0xbc42a4f0	-0.0118801445
157	0x3d09dc10	0.033657134
158	0x3c49163c	0.0122733675
159	0xbc163279	-0.009167307
160	0xbd8d2f22	-0.068937555
161	0xbb639a27	-0.0034729333
162	0x3c01ff7a	0.0079344455
163	0x3c4b96db	0.012426103
164	0x3bdedb83	0.00680107
165	0xbd19ee69	-0.03758088
166	0xbbd9858f	-0.006638236
167	0x3c195837	0.009359411
168	0x3b4449b6	0.0029951162
169	0x3b8c9a8f	0.0042908858
170	0xbbe4b228	-0.0069792457
171	0x3a415572	0.0007375098
172	0xbba46387	-0.0050167474
173	0x3a198e97	0.00058577344
174	0x3c886230	0.016648382
175	0x3be2c75e	0.006920739
176	0x3c5c162c	0.013433021
177	0x3dc426d3	0.09577718
178	0xbd879f45	-0.06622175
179	0x3cd6e0c6	0.026230227
180	0x3c31e4f3	0.010857808
181	0xbc17f475	-0.009274592
182	0x3c03d3f7	0.008046142
183	0xbc3eeaa5	-0.011652623
184	0x3bb96f0d	0.0056589902
185	0xbb83b723	-0.0040196343
186	0xbd02a952	-0.031899758
187	0x3c951b6f	0.018201558
188	0x3a80a2e5	0.0009814171
189	0xbbef108b	-0.0072956732
190	0x3cd98ce1	0.026556434
191	0x3d12c95f	0.035836574
192	0xbc11a5f1	-0.008889661
193	0x3aa02b4b	0.0012219934
194	0x3ad6d65d	0.001639079
195	0xbcb3b279	-0.021935688
196	0xbc802e77	-0.015647156
197	0xbcfa6c59	-0.030569242
198	0x3c6974ee	0.01424907
199	0x3db7056d	0.08936582
200	0x3c071693	0.008245128
201	0x3b79d22c	0.0038119657
202	0x3a99a43f	0.0011721923
203	0x3cca7808	0.024715438
204	0x3d5a1ffd	0.053253163
205	0xbcae991c	-0.021313243
206	0xbccfc034	-0.025360204
207	0x3c6399d1	0.013891653
208	0xbcd7a7f7	-0.026325209
209	0xbd24f07f	-0.040268417
210	0xbd3d6bab	-0.04624526
211	0xbe27da40	-0.1639185
212	0xbbb32003	-0.0054664626
213	0xbd572514	-0.052525595
214	0x3c3a5f8a	0.011375317
215	0xbd0f1071	-0.03492779
216	0xbc865485	-0.016397724
217	0x398b5060	0.0002657203
218	0xbcb2b2c4	-0.021813758
219	0xbbc10210	-0.0058901384
220	0xbd336845	-0.04380061
221	0x3c1a807b	0.009430046
222	0xbc54acdd	-0.012980667
223	0xbb0ccc4a	-0.002148407
224	0xbceff83f	-0.029293178
225	0x3cf47d12	0.029844794
226	0xbb2d9110	-0.002648417
227	0xbce1b26c	-0.027550898
228	0xba040808	-0.0005036597
229	0xbd5b3176	-0.053513967
230	0xbd56478b	-0.052314322
231	0xbac3b316	-0.0014930691
232	0x3cbeff06	0.023314964
233	0x3cede3ee	0.02903935
234	0xb9b48261	-0.00034429415
235	0x3c38ec70	0.01128684
236	0xbc5e7783	-0.0135782985
237	0xbcd9b65f	-0.02657622
238	0x3d2239a2	0.039605744
239	0xbc5ac81f	-0.013353377
240	0x3dbe512f	0.09292828
241	0xbde690a5	-0.112580575
242	0xbde22993	-0.11043086
243	0x3d80c78d	0.06288061
244	0xb730cce5	-1.0538123e-05
245	0xbdc12d4e	-0.09432469
246	0x3d4cd55f	0.050008174
247	0x3b853e23	0.004066245
248	0xbdbcae6e	-0.09212957
249	0x3d7c5837	0.061607566
250	0x3d6a42aa	0.057192482
251	0x3a9365d5	0.0011245558
252	0x3dc8e03d	0.09808395
253	0x3bf1dea1	0.0073812758
254	0x3d04cfca	0.032424726
255	0xbc456cfe	-0.012049912

_orig_mod.shared_mlp.0.bias f4 [128]
0	0xbe910e1b	-0.28331074
1	0x3e162ba8	0.14665091
2	0xbe3b6578	-0.18300426
3	0x3cea3589	0.02858998
4	0xbe9f517e	-0.3111686
5	0xbd926319	-0.07147808
6	0x3ded8767	0.115980916
7	0x3d80800a	0.062744215
8	0xbca40eab	-0.020026525
9	0x3d836c3c	0.064171284
10	0xbd952453	-0.07282319
11	0xbee1eaba	-0.44124395
12	0x3bdc9524	0.006731646
13	0xbd38f065	-0.045151133
14	0xbbcc2f6e	-0.00623124
15	0x3ca5ceeb	0.020240268
16	0x3db661b8	0.08905357
17	0xbe5054de	-0.20344874
18	0xbe14ec02	-0.14543155
19	0xbe3834c6	-0.17988881
20	0x3da1063c	0.07862517
21	0x3d47b433	0.048755836
22	0xbe3c3b23	-0.18381934
23	0xbe5aff1c	-0.21386379
24	0xbe1bfc0b	-0.15232866
25	0xbe262360	-0.16224432
26	0xbcb6a43b	-0.022295108
27	0x3ce53183	0.02797771
28	0xbbbc5d44	-0.005748423
29	0x3ce4b1b5	0.027916769
30	0xbe2db7c1	-0.16964628
31	0x3d25a9c1	0.040445093
32	0xbd6cd00f	-0.057815608
33	0x3d71f5bb	0.059072237
34	0xbe4c57c7	-0.1995536
35	0x3de306ff	0.11085319
36	0x3d9f2cc5	0.07772211
37	0xbea5b4ee	-0.323646
38	0xbe05f358	-0.1308111
39	0xbe8805e3	-0.2656699
40	0xbe64dc85	-0.22349747
41	0x3d35df53	0.04440243
42	0x3bdc0139	0.006714013
43	0x3d2d4c51	0.04230911
44	0x3cf18971	0.029484482
45	0xbe65f2d7	-0.22455917
46	0xbdf17c4b	-0.11791285
47	0xbe5d1239	-0.21588983
48	0x3d9a6305	0.07538418
49	0xbe554de8	-0.208305
50	0x3d2c55bb	0.042073946
51	0x3c5d884a	0.013521263
52	0xbc3cb0f8	-0.011516802
53	0xbc13a05a	-0.009010399
54	0x3d393c30	0.045223415
55	0x3d315268	0.04329148
56	0x3cd7dcda	0.026350427
57	0x3ace9cf2	0.0015763326
58	0x3de392f9	0.11112017
59	0xbe6bc039	-0.23022546
60	0x3d601880	0.054710865
61	0xbe55fa67	-0.20896302
62	0x3a976ae8	0.0011552246
63	0xbc75fa06	-0.0150132235
64	0xbcaa3001	-0.020774843
65	0xbe4f7ddb	-0.20262854
66	0xbd0b2f06	-0.033980392
67	0xbd8999b5	-0.067187704
68	0xbc83b37a	-0.016076792
69	0xbe14615a	-0.14490262
70	0x3ce59275	0.028023938
71	0xbe3c5392	-0.18391255
72	0x3da1ce2a	0.07900651
73	0x3b6f6314	0.003652756
74	0x3e0553ca	0.13020244
75	0x3d03141f	0.03200161
76	0xbc662c39	-0.014048629
77	0xbe5486e1	-0.20754577
78	0xbe502cd9	-0.20329608
79	0xbe123208	-0.14276898
80	0xbe201393	-0.15632467
81	0xbd924192	-0.07141413
82	0xbdd73299	-0.105076976
83	0x3daae8a0	0.08345151
84	0xbc505616	-0.012715837
85	0xbeaac922	-0.33356577
86	0x3d2e85b6	0.042607985
87	0x3d556de0	0.052106738
88	0xbe458229	-0.19287933
89	0xbe16e5e4	-0.14736134
90	0xbbff477d	-0.0077905045
91	0xbe25b505	-0.16182335
92	0xbe604acc	-0.21903533
93	0xbd9473b6	-0.072486326
94	0x3d817c72	0.06322564
95	0xbe64646d	-0.22303934
96	0xbc53fce6	-0.012938714
97	0x3c08c923	0.008348736
98	0x3d51f26c	0.051256582
99	0x3dabf27f	0.08395862
100	0xbe53e889	-0.20694174
101	0xbba204a0	-0.004944399
102	0xbe723c3f	-0.23655795
103	0xbc2dd589	-0.010609993
104	0xbcfbcba6	-0.030736756
105	0xbb230323	-0.0024873696
106	0x3c805f48	0.015670434
107	0x3bd1f979	0.0064079133
108	0x3d3746bf	0.044745203
109	0xbe4b2076	-0.19836602
110	0xbe4cf812	-0.20016506
111	0xbda33181	-0.079684265
112	0x3d2f5b4a	0.04281167
113	0xbc548b3e	-0.012972651
114	0xbe45b422	-0.19306996
115	0xbe8b4922	-0.27204233
116	0x3d567b15	0.052363474
117	0x3e0cc0c9	0.13745417
118	0x3d890376	0.06690113
119	0xbcd8a675	-0.02644656
120	0xbb2b8ada	-0.0026175291
121	0xbe52dec2	-0.20592788
122	0xbe193a88	-0.14963734
123	0xbcd36a07	-0.025807394
124	0x3d393ed6	0.04522594
125	0x3d084676	0.03327032
126	0xbc167071	-0.009182082
127	0x3d18f425	0.03734221

_orig_mod.shared_mlp.3.weight f4 [64, 128]
0	0x3ccb6a0f	0.024830846
1	0xbcd435a6	-0.025904488
2	0x3d15611f	0.036469575
3	0xbd3c4ab8	-0.045969695
4	0xbd848f0e	-0.06472598
5	0x3d3c8bcc	0.04603176
6	0xbd9f005c	-0.077637404
7	0x3c8639a2	0.016384903
8	0xbd3f21ab	-0.046662968
9	0xbcd79bea	-0.026319463
10	0x3d9a8774	0.07545367
11	0x3d83cffc	0.06436154
12	0x3cfd33ed	0.03090855
13	0x3bd6f4fe	0.006559967
14	0xbc7d328a	-0.015453944
15	0xbd3e7436	-0.046497546
16	0xbd818f6a	-0.06326182
17	0x3d7fa9d2	0.062417813
18	0x3d3adf04	0.04562284
19	0x3d53ed65	0.05174007
20	0xbc5fd36b	-0.013661246
21	0x3b952777	0.0045518237
22	0x3d75f9d6	0.060052715
23	0x3d384c67	0.044994738
24	0x3d721dda	0.0591105
25	0x3d80b4de	0.06284498
26	0xbbb3f168	-0.0054914244
27	0xbd3a922f	-0.045549568
28	0x3b167d95	0.0022963036
29	0xbcfe69cb	-0.031056305
30	0x3c8821bc	0.016617648
31	0xbc2f6486	-0.010705119
32	0x3d18cfc9	0.037307534
33	0xbd409412	-0.04701621
34	0x3d1cfb7b	0.038325768
35	0xbdb6e100	-0.08929634
36	0xbda2db69	-0.079520054
37	0x3cb78aae	0.022404995
38	0xbcfc307d	-0.03078484
39	0xbdcf125a	-0.10110922
40	0xbb06053a	-0.0020449893
41	0xbcae6234	-0.021287061
42	0x3bda007d	0.0066528902
43	0xbc4e6ba3	-0.012598905
44	0xbbe6be43	-0.007041724
45	0xbd45bad2	-0.04827387
46	0xbc984dfb	-0.018591871
47	0x3d1957fb	0.03743742
48	0xbddabc82	-0.10680486
49	0x3d637c2d	0.055538345
50	0xbc9021a2	-0.017594162
51	0xbcf2f1a8	-0.029656246
52	0xbba1fb8a	-0.004943316
53	0xbd2ca7c2	-0.042152174
54	0xbcb96484	-0.022630937
55	0xbd815225	-0.06314496
56	0xbb29d183	-0.0025912232
57	0x3b9a8e22	0.0047166506
58	0xbd850a22	-0.06496073
59	0x3d4ae2ee	0.049532823
60	0x393d61bb	0.00018060852
61	0xbd0f55f9	-0.0349941
62	0x3c5096e5	0.012731289
63	0xbc50a3d1	-0.012734369
64	0x3c07d33a	0.008290106
65	0x3d525cc9	0.051358018
66	0xbc8c05d3	-0.017092621
67	0xbd34346e	-0.043995313
68	0x3d18850c	0.03723626
69	0x3d5bf215	0.053697664
70	0xbc7f7621	-0.015592129
71	0x3d393e8f	0.045225676
72	0xbcb550be	-0.022133227
73	0xbb9ada3f	-0.004725724
74	0xbd79de5e	-0.06100308
75	0xbbd19727	-0.0063961926
76	0xbc93a8e0	-0.018024862
77	0x3d6adaac	0.057337448
78	0x3c64606e	0.013939006
79	0xbd6f8048	-0.058471948
80	0xbcf3359e	-0.029688653
81	0x3d3b1894	0.045677736
82	0x3d436790	0.047706187
83	0xbd8f4e04	-0.06997302
84	0x3bdd8988	0.00676078
85	0x3dbac499	0.09119529
86	0x3c200ef9	0.009769195
87	0xbcde9b6d	-0.027173722
88	0x3d3255ac	0.043538734
89	0x3b3245c8	0.0027202237
90	0xbc53c2c5	-0.012924855
91	0x3ba5ef94	0.0050639603
92	0x3d6dcd7e	0.0580573
93	0xbd95aa6e	-0.073078975
94	0xbcf957f1	-0.030437442
95	0x3d242623	0.040075433
96	0xbd61152e	-0.05495184
97	0xbd58d3fc	-0.05293654
98	0xbc3f12d9	-0.0116622085
99	0xbca78729	-0.020450192
100	0xbcb06417	-0.021532102
101	0xbc499c08	-0.012305267
102	0x3cf67c00	0.030088425
103	0xbba857bc	-0.005137412
104	0xbd4db75b	-0.05022369
105	0x3a3e836e	0.00072675094
106	0xbc899164	-0.01679296
107	0x380b76d0	3.3250835e-05
108	0xbc9f63eb	-0.019456824
109	0x3cab8b33	0.020940399
110	0x3d6cfc5b	0.057857852
111	0x3d1c6a37	0.038187232
112	0xbd375372	-0.044757314
113	0x3b6a8d6c	0.003578986
114	0x3c857a40	0.016293645
115	0xbb957bfb	-0.0045618988
116	0x3bc9563a	0.006144312
117	0xbca0e162	-0.01963872
118	0xbc92a758	-0.017902061
119	0x3d2d43eb	0.0423011
120	0xbc14546f	-0.009053334
121	0xbccc7a2f	-0.024960605
122	0x3d67cb43	0.05659033
123	0xbae62146	-0.0017557524
124	0xbce3b2a2	-0.02779514
125	0xbc88c145	-0.01669372
126	0x3c1ea346	0.009682482
127	0xbd1fbdd2	-0.038999386
128	0xbd8aa078	-0.06768888
129	0x3d22e51b	0.039769273
130	0xbc7b94f6	-0.015355339
131	0x3ca3b107	0.019981874
132	0xbde2613f	-0.110537045
133	0xbbd9b24b	-0.0066435686
134	0xbc2fdf09	-0.010734328
135	0x3c94c9fd	0.018162722
136	0x3d5e6028	0.05429092
137	0x3c80cd85	0.015723
138	0x3d32fa04	0.043695465
139	0xbe1a07d7	-0.15042053
140	0x3d10c048	0.035339624
141	0x3b424d3f	0.0029648093
142	0x3b84c62a	0.0040519433
143	0x3b11c4bb	0.0022242505
144	0x3cf7d076	0.03025077
145	0xbcda7d61	-0.026671113
146	0xbb6da2f8	-0.0036260467
147	0xbb80184f	-0.003909148
148	0x3d20b509	0.03923515
149	0x3d507342	0.05089117
150	0xbd8150a2	-0.063142076
151	0xbc810b56	-0.015752476
152	0xbc468085	-0.012115602
153	0x3beae6e1	0.007168636
154	0x3aacd255	0.0013185242
155	0x3d7430a5	0.059616704
156	0x3b9879b4	0.00465318
157	0x3d8d9f58	0.06915158
158	0xbd630a55	-0.055429775
159	0x3c4e57b7	0.012594155
160	0x3adf7c1b	0.0017050536
161	0x3cf55e4b	0.029952189
162	0xbd1fd1d6	-0.039018475
163	0x3d664fe6	0.05622854
164	0xbc3a0fad	-0.011356276
165	0xbdab0f41	-0.08352519
166	0xbd8b8342	-0.06812145
167	0xbdd77840	-0.10520983
168	0xbd812203	-0.06305315
169	0x3ca117d4	0.019664682
170	0x3c065662	0.008199306
171	0x3ca294b3	0.019846296
172	0x3cadfa78	0.021237597
173	0xbe0f85f4	-0.14015943
174	0x3c81893e	0.015812512
175	0x3936ac7d	0.0001742113
176	0xbc51b5ac	-0.012799662
177	0xbce442cb	-0.02786388
178	0x3c89a734	0.016803361
179	0x3c222dba	0.009898597
180	0x3c9b99fc	0.018994324
181	0x3d1dcaee	0.038523607
182	0x3ba95e93	0.005168745
183	0x3a5db428	0.00084573263
184	0x3c3911d1	0.011295752
185	0x3c6aae21	0.014323742
186	0x3ce62377	0.028093083
187	0xbd15fc19	-0.036617372
188	0x3c310ca3	0.0108062355
189	0xbd981213	-0.074253224
190	0x3d16cd36	0.0368168
191	0xbc6d0ff4	-0.014469136
192	0x3b8b28c0	0.004246801
193	0xbcc84a24	-0.024449416
194	0xbb09eafa	-0.0021044598
195	0x3c2e36f4	0.010633219
196	0x3cdd7c3f	0.027036784
197	0xbc27a282	-0.010231616
198	0x3cf39688	0.029734865
199	0xbc7e3a68	-0.015516855
200	0x3bbce7f1	0.0057649543
201	0xbc491264	-0.012272451
202	0x3d842367	0.06452065
203	0x3cc87a07	0.02447225
204	0x3b9ac0bd	0.004722683
205	0xbd0e85e5	-0.03479566
206	0xbd64088a	-0.055672206
207	0x3d9663ba	0.0734324
208	0xbd84bc81	-0.06481267
209	0xba9f8f48	-0.0012173438
210	0x3b4d0ae1	0.0031287002
211	0x3d904f00	0.07046318
212	0xbd5111a5	-0.051042218
213	0xbd91a8b6	-0.07112257
214	0x3cebc4c8	0.028780356
215	0x3d4f17ca	0.050559796
216	0xbc30b7ae	-0.01078598
217	0xbc97719d	-0.018486792
218	0xbb99c653	-0.0046928315
219	0xbd4595d0	-0.048238575
220	0xbd1cf1c7	-0.038316514
221	0x3dbaa1a2	0.0911286
222	0xb92ede75	-0.00016676805
223	0xbd0f6b58	-0.03501448
224	0x3d339db4	0.04385157
225	0x3d852c13	0.06502547
226	0x3d014a8b	0.03156523
227	0x3bf5929d	0.0074942843
228	0xbd96a8d7	-0.073564224
229	0x3d1398f9	0.036034558
230	0xbcb0f372	-0.021600459
231	0x3b659d45	0.0035036367
232	0x3d85fd39	0.06542439
233	0x3c484f2f	0.01222591
234	0x3c56c1e2	0.013107749
235	0xbbc465bf	-0.0059935744
236	0x3c9f84f9	0.019472586
237	0xbc5f3090	-0.013622418
238	0xbd0528f1	-0.032509748
239	0xbbcbf6ea	-0.006224503
240	0xbac551e7	-0.0015054316
241	0x3d5131d4	0.05107291
242	0xbd97edeb	-0.07418426
243	0xbd62159b	-0.055196386
244	0x3c2fcef7	0.010730497
245	0x3d13ddf9	0.03610036
246	0x3d3eaaa4	0.046549454
247	0x3beedff0	0.007289879
248	0xbc207638	-0.009793811
249	0xbdc2ea54	-0.09517351
250	0x3bb1e630	0.005429052
251	0xba9db76b	-0.0012032812
252	0x3cbefc19	0.023313569
253	0x3d721ae8	0.05910769
254	0xbac193b6	-0.0014768753
255	0x3d06ed6f	0.032941278

_orig_mod.shared_mlp.3.bias f4 [64]
0	0xbe7ec1fe	-0.2487869
1	0x3e95e3de	0.2927541
2	0x3e89fb65	0.2694961
3	0xbebbfbbd	-0.367155
4	0x3e9a7edf	0.3017492
5	0xbe6ceb8a	-0.23136726
6	0x3e6bb509	0.23018278
7	0x3ebbe08b	0.3669475
8	0x3e848ca4	0.2588855
9	0xbe86c322	-0.2632075
10	0x3e8b6675	0.27226606
11	0xbeaff980	-0.3437004
12	0x3e4adf31	0.19811703
13	0x3e81bdea	0.25340205
14	0xbe49218f	-0.19641708
15	0xbe892856	-0.26788586
16	0xbe072baf	-0.13200258
17	0xbe749557	-0.23885094
18	0x3e79fb3d	0.24412246
19	0x3ea1cf71	0.31603578
20	0x3e3c490b	0.18387239
21	0xbe0001b1	-0.12500645
22	0xbe8bf752	-0.27337128
23	0xbdfe3d53	-0.124140404
24	0x3e92de30	0.2868514
25	0xb96cadbc	-0.00022571435
26	0x3eab845a	0.33499414
27	0x3e845864	0.25848687
28	0x3e987277	0.2977483
29	0x3e8e84a7	0.2783558
30	0x3e61e725	0.22060831
31	0xbea6898a	-0.3252681
32	0xbe45da75	-0.19321616
33	0xbecf22b6	-0.4045617
34	0xbe6a7b40	-0.22898579
35	0xbe80c338	-0.2514894
36	0xbdb14035	-0.08654825
37	0xbea350df	-0.31897637
38	0x3e9ef3bd	0.31045333
39	0xbe917125	-0.28406635
40	0x3e96ac58	0.29428363
41	0xbe9a094a	-0.30085212
42	0x3e7e9253	0.24860506
43	0xbe19f99e	-0.15036628
44	0x3e7ddb21	0.24790622
45	0xbe89e5d4	-0.26933157
46	0xbe5f479f	-0.21804665
47	0xbeaecc6e	-0.34140342
48	0x3e804e40	0.250597
49	0x3e91b541	0.28458598
50	0xbe4a2521	-0.19740726
51	0x3e75fa8e	0.2402136
52	0x3e93dc46	0.28878993
53	0xbe38e911	-0.18057658
54	0x3e775eed	0.24157305
55	0x3e8425dd	0.25810137
56	0x3e819687	0.25310156
57	0x3e85289c	0.26007545
58	0xbe00f563	-0.12593608
59	0xbe857813	-0.26068172
60	0x3e87e927	0.2654507
61	0x3e85ffb9	0.26171663
62	0x3e415a56	0.18882117
63	0x3e89c321	0.26906684

_orig_mod.ctr_head.weight f4 [1, 64]
0	0x3eabce4b	0.33555827
1	0xbd6b43be	-0.05743765
2	0xbd718c40	-0.058971643
3	0x3ed29bc4	0.41134465
4	0xbd6afd0d	-0.057370234
5	0x3e84b228	0.25917172
6	0xbdaa2875	-0.08308498
7	0xbd9a6d72	-0.07540406
8	0xbd8e61d7	-0.06952255
9	0x3eea2c2a	0.4573682
10	0xbdf2bd3d	-0.118525006
11	0x3ec2ab13	0.38021144
12	0xbdcd084f	-0.1001135
13	0xbd973dd8	-0.07384843
14	0x3ed0bd66	0.407695
15	0x3ec8bcad	0.39206448
16	0x3ed251ae	0.41077942
17	0x3ed39837	0.41327068
18	0xbdf9adc1	-0.12191344
19	0xbdae8116	-0.08520715
20	0xbde758be	-0.11296223
21	0x3ecfa407	0.4055483
22	0x3ebc4ab3	0.3677574
23	0x3ec8d9c9	0.39228657
24	0xbd74b532	-0.059743114
25	0x37ba4676	2.2205739e-05
26	0xbd6a3e9f	-0.057188626
27	0xbd9977e8	-0.074935734
28	0xbd3efca5	-0.04662766
29	0xbd8796e1	-0.06620575
30	0xbdae0a20	-0.08498025
31	0x3eb24710	0.3481984
32	0x3eb63091	0.35583928
33	0x3edde46a	0.4333833
34	0x3ec20d2c	0.37900674
35	0x3ed7f60c	0.42179906
36	0x3ec7e690	0.39043093
37	0x3ed18560	0.4092207
38	0xbd790841	-0.060798887
39	0x3ecd64fc	0.40116107
40	0xbda126e9	-0.0786875
41	0x3ed6ffe4	0.41992104
42	0xbd63188d	-0.055443335
43	0x3ec84754	0.3911692
44	0xbddec17e	-0.108767495
45	0x3ee609ce	0.44929355
46	0x3eabd6ce	0.3356232
47	0x3ec7f9f3	0.39057884
48	0xbda4748a	-0.080300406
49	0xbdab438c	-0.08362493
50	0x3ed6d839	0.4196184
51	0xbd8c0fc4	-0.068389446
52	0xbd3331e7	-0.043748762
53	0x3ed520d3	0.41626605
54	0xbd5e5dc8	-0.054288656
55	0xbd91a53f	-0.07111596
56	0xbd869f2f	-0.065733306
57	0xbdda3ee8	-0.1065653
58	0x3ed22b37	0.41048595
59	0x3e820ced	0.25400487
60	0xbd825c00	-0.06365204
61	0xbd83494b	-0.06410464
62	0xbd2fcf2a	-0.042922176
63	0xbdeb2bb8	-0.11482948
