experiments/exp_20251005_015408/models/checkpoint_epoch4_auc0.7316_logloss0.0875.pth (torch, 137410 bytes, 12 tensors)

_orig_mod.embeddings.gender.embedding.weight f4 [5, 8]
0	0xbba5677a	-0.0050477358
1	0x3c394594	0.011308093
2	0x3bb3e937	0.005490448
3	0xbbcebbe2	-0.0063090185
4	0xb5c494c3	-1.4646433e-06
5	0x3c020660	0.00793609
6	0xbbe54aa8	-0.006997425
7	0xb9804e05	-0.00024472192
8	0xbf09db17	-0.5384993
9	0x3f12071b	0.5704209
10	0x3f2fa40b	0.68609685
11	0xbea4389f	-0.32074448
12	0x35a21ebd	1.2078887e-06
13	0x3ef7218c	0.48267782
14	0xbe705cf6	-0.23472962
15	0x3ba16f42	0.004926593
16	0xbe0bf762	-0.13668588
17	0x3f40e7b3	0.75353545
18	0x3df3d784	0.11906341
19	0xbf01c3d4	-0.50689435
20	0xb65ebc02	-3.3190013e-06
21	0x3f20cfec	0.62817264
22	0xbf27b074	-0.6550362
23	0x3ec2d592	0.38053566
24	0x0005c37c	5.29304e-40
25	0x000566f3	4.96109e-40
26	0x000578dd	5.02535e-40
27	0x80055827	-4.908e-40
28	0x0005652c	4.95471e-40
29	0x00056981	4.97025e-40
30	0x800563d3	-4.94988e-40
31	0x8005673f	-4.96215e-40
32	0x80056872	-4.96645e-40
33	0x00056648	4.95869e-40
34	0x800564d8	-4.95353e-40
35	0x00065269	5.80576e-40
36	0x0005a02e	5.16639e-40
37	0x80055980	-4.91284e-40
38	0x80055cc6	-4.92458e-40
39	0x800562c6	-4.94611e-40

_orig_mod.embeddings.age_group.embedding.weight f4 [15, 8]
0	0x3bdd8252	0.00675992
1	0xbc4b4c3d	-0.012408313
2	0xb9a6cbc5	-0.00031813807
3	0xbb2f9a73	-0.002679494
4	0xbbeaf13a	-0.0071698697
5	0xbb0f36e0	-0.0021852776
6	0xbc04e4db	-0.008111204
7	0x3baa3b95	0.005195091
8	0xbe22266d	-0.15834971
9	0x3ce1b25a	0.027550865
10	0x3e448b2f	0.1919372
11	0xbb1c5568	-0.0023854617
12	0xbe47ad68	-0.19499743
13	0x3c3eb712	0.011640327
14	0xbe27b139	-0.16376199
15	0xbe0457d0	-0.12924123
16	0x3d8538fa	0.06505008
17	0xbe0997f8	-0.13436878
18	0xbbc8719a	-0.006117058
19	0xbca1bda6	-0.019743752
20	0x3ece3458	0.4027431
21	0xbd0ccaa9	-0.03437296
22	0x3e91567d	0.28386298
23	0x3e53a022	0.20666555
24	0x3e30cd15	0.17265733
25	0xbbdb9c8e	-0.0067020124
26	0xbe3541bc	-0.17700857
27	0x3c9485b6	0.018130165
28	0x3ee26ef5	0.44225278
29	0xbc51d871	-0.012807951
30	0x3eadd6b8	0.3395288
31	0x3e31afdc	0.17352241
32	0x3e0b3b0c	0.13596743
33	0x3cb7303c	0.022361867
34	0xbe6ac6a0	-0.22927332
35	0x3d67875c	0.056525573
36	0x3ec97402	0.3934632
37	0xbc9ac4c1	-0.018892648
38	0x3e828975	0.25495496
39	0x3d8b7a86	0.06810479
40	0x3e0aea52	0.13565949
41	0x3da4cf1b	0.08047315
42	0xbe87e331	-0.2654052
43	0x3d26aa05	0.040689487
44	0x3ea139c8	0.31489396
45	0x3b168114	0.002296512
46	0x3e4e79b2	0.2016361
47	0x3de04fb0	0.10952699
48	0x3f0cc45d	0.54987127
49	0x3debf7fc	0.11521909
50	0xbef7a890	-0.4837079
51	0xbc56b74d	-0.013105226
52	0xbdaa5ec5	-0.08318857
53	0xba40fb8e	-0.00073617033
54	0x3d9b47d9	0.07582063
55	0xbeb305cc	-0.3496536
56	0x3e85cf52	0.26134735
57	0xbea87e72	-0.3290897
58	0xbeec7f6a	-0.4619096
59	0xbc7c8bc9	-0.015414187
60	0xbf3ea6e0	-0.7447338
61	0x3cd0bee0	0.025481641
62	0xbe275a1f	-0.16342972
63	0x3ed3bfa5	0.4135715
64	0x3ef04fdc	0.46935928
65	0xbf340490	-0.7031946
66	0x3e797544	0.2436114
67	0xbc37fb1c	-0.011229303
68	0xbf1d83ad	-0.61529046
69	0xbd8b4632	-0.06800498
70	0xbeed8d82	-0.46397024
71	0x3d1fd088	0.03901723
72	0x8005ac6a	-5.21028e-40
73	0x8005b155	-5.22792e-40
74	0x80055b10	-4.91845e-40
75	0x00056405	4.95058e-40
76	0x800561cf	-4.94265e-40
77	0x80055794	-4.90595e-40
78	0x00056739	4.96207e-40
79	0x00056096	4.93826e-40
80	0x000564e7	4.95374e-40
81	0x80055dae	-4.92783e-40
82	0x80055e70	-4.93055e-40
83	0x80055dc1	-4.9281e-40
84	0x800560d4	-4.93913e-40
85	0x00058099	5.0531e-40
86	0x00056359	4.94817e-40
87	0x80056139	-4.94054e-40
88	0x0005573d	4.90473e-40
89	0x00055aee	4.91797e-40
90	0x000560cc	4.93902e-40
91	0x00058fc9	5.10758e-40
92	0x0005a17f	5.17111e-40
93	0x0005b980	5.25722e-40
94	0x80055eb6	-4.93153e-40
95	0x80055b44	-4.91917e-40
96	0x0006bd28	6.1887e-40
97	0x00055bdd	4.92132e-40
98	0x00055f7c	4.93431e-40
99	0x80055a25	-4.91515e-40
100	0x80056261	-4.94469e-40
101	0x00055fe1	4.93572e-40
102	0x800560d8	-4.93918e-40
103	0x8005625b	-4.94461e-40
104	0x00055e09	4.92911e-40
105	0x80055b37	-4.91899e-40
106	0x0005c073	5.28215e-40
107	0x000637c6	5.71021e-40
108	0x8005f1df	-5.45944e-40
109	0x00055ad8	4.91766e-40
110	0x800565a4	-4.95639e-40
111	0x800564bc	-4.95314e-40
112	0x80055ba6	-4.92055e-40
113	0x00056029	4.93673e-40
114	0x800569e3	-4.97162e-40
115	0x8005575a	-4.90513e-40
116	0x000590b0	5.11082e-40
117	0x80055cbd	-4.92446e-40
118	0x80056187	-4.94164e-40
119	0x8006589b	-5.82799e-40

_orig_mod.embeddings.inventory_id.embedding.weight f4 [50, 16]
0	0x3e9fefdf	0.31237695
1	0x3d841237	0.06448787
2	0xbda653e6	-0.08121471
3	0xbed60fc5	-0.41808906
4	0x3e93a73c	0.28838527
5	0x3dd37a63	0.10326078
6	0x3de840b2	0.11340465
7	0x3ee29022	0.4425059
8	0x3d4b0e08	0.049573928
9	0x3cdcd786	0.026958238
10	0xbdfdaa65	-0.12386016
11	0xbd0b8066	-0.034057997
12	0xbc3726eb	-0.011178712
13	0x3e8f156a	0.27946025
14	0xbde8ee2d	-0.113735534
15	0x3d536fbb	0.051620226
16	0xbd9e6757	-0.07734554
17	0x3dc5706b	0.09640583
18	0xbdc27c8b	-0.09496411
19	0xbe2b5349	-0.1673099
20	0x3e1f6f0a	0.15569702
21	0x3d895fb1	0.06707705
22	0xbe514afc	-0.2043876
23	0x3e0ae88d	0.13565274
24	0x3cd813bf	0.026376603
25	0xbd9a8016	-0.07543962
26	0xbe117268	-0.14203799
27	0xbcb9a780	-0.022662878
28	0x3da0fbf7	0.078605585
29	0x3e06d234	0.13166124
30	0x3e5cd887	0.21566974
31	0x3dbd55fa	0.09244914
32	0x3f1f21a0	0.6216068
33	0x3dfed7c4	0.12443498
34	0xbf063223	-0.5242025
35	0xbde0a276	-0.10968487
36	0x3f1b3e54	0.6064198
37	0x3e8bbe92	0.2729383
38	0xbe2be194	-0.1678527
39	0x3e59f8cf	0.21286319
40	0x3d75d7b7	0.060020175
41	0xbec62495	-0.38699785
42	0xbe8e6330	-0.2781005
43	0xbe166263	-0.14685969
44	0x3e89fd88	0.26951241
45	0x3e9de8dc	0.3084172
46	0x3cef34dc	0.02920001
47	0xbc321282	-0.01086867
48	0x3c83fa68	0.016110614
49	0x3ba2445c	0.0049519967
50	0x3cd30554	0.025759377
51	0x3d0a9fa7	0.033843663
52	0xbce9027c	-0.028443567
53	0xb9e633f9	-0.0004390774
54	0x3d179c26	0.03701415
55	0xbcc9901b	-0.024604848
56	0xbc135557	-0.008992515
57	0x3bd0f265	0.006376552
58	0x3d3285bc	0.04358457
59	0xbbdb0fa7	-0.0066852155
60	0xbc1d87d4	-0.0096149035
61	0xbba62fb6	-0.0050716056
62	0xbd2456b1	-0.040121738
63	0xbc3bcf2b	-0.011462967
64	0xbdf5beb2	-0.11999263
65	0x3db6718f	0.08908378
66	0x3eb9ef9f	0.3631563
67	0xbf519fe5	-0.81884605
68	0x3e56232b	0.20911853
69	0x3e822cec	0.25424898
70	0x3dd4a767	0.10383492
71	0xbe965cf9	-0.29367808
72	0x3d6a86e0	0.057257533
73	0x3e828d6e	0.25498527
74	0x3eaf65ac	0.34257257
75	0x3d9def54	0.07711664
76	0xbef47af8	-0.47750068
77	0xbd867cc8	-0.06566769
78	0xbe7df265	-0.24799497
79	0xbde4c53c	-0.11170432
80	0xbf65e808	-0.89807177
81	0xbd460aa4	-0.04834999
82	0xbe25af94	-0.16180259
83	0xbdbce98b	-0.09224232
84	0x3e2f2604	0.17104346
85	0xbeb07b0c	-0.34468877
86	0xbe992a56	-0.29915112
87	0xbe9dc2d2	-0.308127
88	0xbe17cee8	-0.14825022
89	0x3cffecec	0.031240903
90	0xbe795330	-0.2434814
91	0x3e5294a7	0.20564519
92	0x3e378029	0.17919983
93	0xbe38fb8b	-0.18064706
94	0x3ee22aa9	0.44173172
95	0x3e90cdec	0.28282106
96	0xbe22dce3	-0.15904574
97	0x3d90b2dd	0.070653655
98	0xbdfa4d6b	-0.122217976
99	0x3ec386a2	0.38188654
100	0x3e08534f	0.1331303
101	0xbcfa3802	-0.030544285
102	0x3f18333f	0.59453195
103	0x3f5fd040	0.8742714
104	0x3a832bed	0.0010007598
105	0xbd98ed39	-0.07467122
106	0x3ef3376e	0.47503227
107	0xbec344ea	-0.38138515
108	0xba9d1dca	-0.0011987027
109	0xbe20ef72	-0.15716341
110	0x3d3f421c	0.046693906
111	0xbe1320a1	-0.14367916
112	0xbf82133e	-1.0162122
113	0x3ea50d11	0.3223653
114	0x3f141b58	0.57854223
115	0xbe45d9e5	-0.19321401
116	0xbec4d1fe	-0.3844146
117	0x3eec3113	0.4613119
118	0xbf2193c5	-0.63116103
119	0xbcd80449	-0.02636923
120	0x3e16d764	0.14730603
121	0xbd679eda	-0.056547977
122	0x3f15d10d	0.5852211
123	0xbeedd42b	-0.46450934
124	0xbe859b93	-0.26095256
125	0x3dddbc3f	0.10826921
126	0x3ed84037	0.42236492
127	0xbd570e71	-0.052504007
128	0x3d09610b	0.033539813
129	0x3cc36b01	0.023854734
130	0xbdb7fd8a	-0.089839056
131	0xbd83f267	-0.06442719
132	0x3da4074a	0.08009203
133	0x38f0b139	0.00011477102
134	0xbd881d8b	-0.0664626
135	0x3e33821f	0.17530106
136	0x3c54bdee	0.012984736
137	0xbd0a668e	-0.03378921
138	0xbe04103b	-0.12896816
139	0xbc184754	-0.00929435
140	0x3d4ec0c5	0.050476808
141	0x3cf8743f	0.030328868
142	0x3e1e139d	0.1543717
143	0x3c9f00f6	0.019409638
144	0xbf077b86	-0.52922857
145	0xbea01a1d	-0.31269923
146	0xbe0edff8	-0.13952625
147	0x3dcc4dd6	0.099757835
148	0x3e2f195f	0.17099522
149	0xbe8abf03	-0.27098855
150	0x3e1873d8	0.14887941
151	0xbee376d1	-0.44426587
152	0xbe66a5c2	-0.22524169
153	0x3e21eff6	0.15814194
154	0x3de9222f	0.11383473
155	0x3e7d6215	0.24744447
156	0x3e4b46bf	0.19851206
157	0x3e07c7d1	0.13259818
158	0xbef215db	-0.472823
159	0x3e540e87	0.20708667
160	0xbeb43678	-0.35197806
161	0x3d266d28	0.040631443
162	0x3d94970c	0.072553724
163	0x3ccceb90	0.025014669
164	0x3e936b3a	0.28792745
165	0xbe069084	-0.13141066
166	0x3e69068f	0.22756408
167	0xbf6b2663	-0.9185545
168	0xbd24b4c5	-0.040211458
169	0xbe4c91c3	-0.19977479
170	0x3ea10880	0.31451797
171	0xbe7a09e6	-0.24417838
172	0x3d9dc07f	0.07702731
173	0x3e37af40	0.17937946
174	0xbe2de08f	-0.16980194
175	0x3ce37056	0.027763527
176	0x3eaab1fa	0.3333891
177	0x3d87641c	0.06610891
178	0xbd80d533	-0.062906645
179	0x3f1ed3e0	0.62042046
180	0xbd69ef80	-0.05711317
181	0x3d7cce2a	0.06172005
182	0x3e582aca	0.21110073
183	0x3ebb9639	0.36638048
184	0x3daa8faf	0.08328187
185	0xbe6da1ca	-0.23206249
186	0x3e323e90	0.17406678
187	0xbed19698	-0.40935206
188	0x3da6731f	0.08127426
189	0x3caf7652	0.021418724
190	0x3e81dfd6	0.25366086
191	0xbe2794a3	-0.16365294
192	0x3f25db57	0.6478781
193	0x3e4c0f41	0.19927694
194	0x3e2fdb32	0.1717346
195	0xbe6f9d8b	-0.23399942
196	0xbe55da87	-0.20884143
197	0x3e2b9cd6	0.16759047
198	0x3e173eed	0.14770098
199	0xbd881ae7	-0.06645756
200	0xbd056eec	-0.032576486
201	0xbd80413d	-0.06262443
202	0xbd212e7a	-0.039350964
203	0x3e0c3988	0.13693821
204	0xbe29d1c8	-0.16583931
205	0xbe42df23	-0.19030432
206	0xbee5f627	-0.44914362
207	0xbe7a3334	-0.24433595
208	0x3eae0f9b	0.3399628
209	0x3d066a07	0.03281596
210	0xbe22021e	-0.1582112
211	0xbd907948	-0.070543826
212	0x3e2f1178	0.17096508
213	0x3d58e4b2	0.052952476
214	0x3db14e1c	0.08657476
215	0x3ea8b170	0.32947874
216	0x3c833eb7	0.016021116
217	0xbd6c7b78	-0.057734936
218	0xbdf19a37	-0.11796992
219	0xbcd92a4b	-0.026509425
220	0x3d89d997	0.06730955
221	0x3de6a547	0.11261993
222	0xbcb0410e	-0.021515395
223	0xbc341b65	-0.0109928595
224	0xbe1e54eb	-0.15462081
225	0xbf1a37f2	-0.60241616
226	0xbdce991e	-0.100877985
227	0x3f144d80	0.57930756
228	0xbec89120	-0.39173222
229	0xbe6aa699	-0.22915114
230	0x3cf127c2	0.029437903
231	0xbe8b210c	-0.2717365
232	0x3d971f6c	0.0737904
233	0x3ca8148b	0.020517608
234	0xbcedbd7a	-0.029021014
235	0x3d11be6a	0.035581984
236	0xbd2b7f24	-0.041869298
237	0xbf69dbac	-0.9135082
238	0x3eb8f468	0.36123967
239	0xbea264a0	-0.31717396
240	0xbe976142	-0.2956639
241	0xbe0c5039	-0.13702478
242	0xbe2dba6a	-0.16965643
243	0xbdec85d4	-0.11548963
244	0xbb33137b	-0.0027324844
245	0xbe531788	-0.20614445
246	0xbeb52e90	-0.35387087
247	0xbeb7aa4f	-0.35872123
248	0xbdd71ca7	-0.10503512
249	0x3d1f49cd	0.03888874
250	0xbeda4eb3	-0.42638168
251	0x3ecc28d8	0.3987491
252	0x3e32b79a	0.17452851
253	0xbe0d65ed	-0.13808413
254	0x3dcc28d6	0.09968726
255	0x3e37c093	0.17944555

_orig_mod.embeddings.day_of_week.embedding.weight f4 [10, 8]
0	0x3f20b625	0.6277793
1	0xba9ec3b6	-0.001211277
2	0x3e25ed4e	0.16203806
3	0x3c80e1be	0.015732642
4	0x396ed289	0.00022775879
5	0xbe23529b	-0.1594948
6	0xbd178225	-0.03698935
7	0x3cf866b1	0.030322405
8	0xbe651d5d	-0.22374482
9	0xbb293940	-0.0025821477
10	0x3dc670f7	0.09689515
11	0x3e37a04f	0.17932247
12	0xbcd5c126	-0.026093077
13	0xbd29f847	-0.04149654
14	0x3d1fb1cd	0.038987923
15	0x3c4c5d47	0.012473411
16	0x3c8f2129	0.017471867
17	0xbada8486	-0.0016671575
18	0xbd529564	-0.051412
19	0xbe01dc0f	-0.12681602
20	0x3b314071	0.0027046467
21	0x3d9ee8b0	0.07759225
22	0x3cce6fd7	0.025199814
23	0xbaf95313	-0.001902195
24	0xbd69541a	-0.05696497
25	0x39ded725	0.00042503435
26	0xbdb57d0a	-0.0886174
27	0xbeeafdcc	-0.45896757
28	0x3d2fb579	0.042897675
29	0x3dea119a	0.114291385
30	0x3bc168e3	0.005902396
31	0xbc8372e9	-0.016046004
32	0x3e1e29aa	0.15445581
33	0xba01553d	-0.0004933661
34	0xbe2cb8b7	-0.16867338
35	0xbe0b90e9	-0.13629498
36	0xbcd15c71	-0.025556775
37	0x3e088bbb	0.13334553
38	0x3db38181	0.08764935
39	0xbad61a1a	-0.0016334683
40	0x3e103bd0	0.14085317
41	0x3b9eae48	0.0048425533
42	0xbe2b95c9	-0.16756357
43	0xbe786305	-0.24256523
44	0x3b297760	0.0025858507
45	0x3e139273	0.14411335
46	0xbbd71bf3	-0.006564611
47	0xbd0f3afd	-0.034968365
48	0x3ed62877	0.41827747
49	0xba15fe75	-0.0005721816
50	0x3e0cddbd	0.13756461
51	0xbdca9920	-0.098924875
52	0x3cd69c79	0.026197659
53	0xbd9cf441	-0.07663775
54	0xbe02793d	-0.12741561
55	0xb968b0d6	-0.0002219112
56	0x80057200	-5.00073e-40
57	0x80055dd9	-4.92844e-40
58	0x0005626d	4.94486e-40
59	0x80055ebc	-4.93162e-40
60	0x000570fa	4.99706e-40
61	0x00055962	4.91242e-40
62	0x0005643d	4.95136e-40
63	0x80055cb3	-4.92432e-40
64	0x800587c9	-5.07888e-40
65	0x00055b62	4.9196e-40
66	0x80056101	-4.93976e-40
67	0x80055cc0	-4.9245e-40
68	0x8005693d	-4.9693e-40
69	0x00055e90	4.931e-40
70	0x00056ea0	4.98862e-40
71	0x80064de7	-5.78959e-40
72	0x80055ac6	-4.91741e-40
73	0x80055a7b	-4.91636e-40
74	0x00056c9c	4.98139e-40
75	0x8005bb0a	-5.26274e-40
76	0x0006c72e	6.22465e-40
77	0x000562df	4.94646e-40
78	0x000558d0	4.91037e-40
79	0x80055ac4	-4.91738e-40

_orig_mod.embeddings.hour.embedding.weight f4 [30, 16]
0	0x3c89d724	0.01682622
1	0x39b7fb08	0.00035091513
2	0x3e413931	0.18869473
3	0x3d07ffbf	0.033202883
4	0xbd7d7a5d	-0.061884273
5	0x3e90dc2e	0.28292984
6	0x3d6ca654	0.05777581
7	0xbebe8758	-0.37212634
8	0xbc041a14	-0.008062858
9	0xbc9d304a	-0.019188065
10	0xbda93e46	-0.08263831
11	0x3e56d10f	0.20978187
12	0xbbfbb905	-0.007681968
13	0x3dd5e4a6	0.10444002
14	0xbb43a15a	-0.0029850812
15	0x3cefe015	0.029281655
16	0x3e4ac599	0.1980194
17	0x3c5ecccd	0.013598633
18	0x3d01bcff	0.03167438
19	0x3d501156	0.050797783
20	0xbdb3e73a	-0.08784337
21	0x3e581f50	0.21105695
22	0xbcbfd01e	-0.023414668
23	0xbde486d0	-0.11158526
24	0xba65ef40	-0.0008771308
25	0x3bfa1026	0.0076313196
26	0xbcbe3910	-0.023220569
27	0x3de2e193	0.11078181
28	0xbce1f179	-0.027580963
29	0x3dc5c64c	0.09656963
30	0xbdcbeef9	-0.0995769
31	0x3d8014c0	0.06253958
32	0x3e87ab70	0.26497984
33	0x3b17d816	0.0023169569
34	0x3d7092c6	0.058733724
35	0x3d0c6b55	0.034282047
36	0xbdb9e777	-0.090773515
37	0x3e864539	0.26224688
38	0x39f6ff8e	0.0004711118
39	0xbe22a2de	-0.15882441
40	0xbba9add3	-0.005178192
41	0xbc90b81f	-0.01766592
42	0xbd0a32bf	-0.0337398
43	0x3e0be635	0.13662036
44	0x3c38e5c5	0.01128525
45	0x3de02a57	0.10945576
46	0xbde7041c	-0.11280081
47	0x3d5a3a12	0.053278036
48	0x3e7af891	0.24508883
49	0x3c5e7403	0.013577464
50	0x3d08ab51	0.033366505
51	0x3c90f902	0.017696861
52	0xbd91df24	-0.07122639
53	0x3e5731e1	0.21015121
54	0x3b36c77a	0.0027889893
55	0xbddb40d9	-0.10705728
56	0xbba05708	-0.0048931874
57	0xbb9316ea	-0.0044888156
58	0xbc59fb83	-0.013304594
59	0x3dcb59da	0.09929247
60	0x3c1c1371	0.00952612
61	0x3d9dd4b6	0.07706587
62	0xbdca7d34	-0.09887162
63	0x3d04b994	0.032403544
64	0x3e17be20	0.1481862
65	0x3ce9382e	0.028469171
66	0x3d870b66	0.06593971
67	0x3c7a66cb	0.015283297
68	0xbd9154b9	-0.07096238
69	0x3e395bab	0.18101375
70	0x3cd5f00f	0.026115445
71	0xbe057d30	-0.13036036
72	0xbc6147af	-0.013750001
73	0xbcfabd40	-0.03060782
74	0xbd0ef85c	-0.034904823
75	0x3de4826c	0.111576885
76	0x3d112e41	0.0354445
77	0x3da39b57	0.07988613
78	0xbd87bd6b	-0.066279255
79	0x3ceb9459	0.028757261
80	0x3de41cc0	0.11138296
81	0xbc9bb5b8	-0.019007549
82	0x3df7f2c3	0.1210685
83	0x3d90fa05	0.070789374
84	0xbddc54a1	-0.10758329
85	0x3e8327dc	0.25616348
86	0xbb4f8029	-0.0031662083
87	0xbe6d796e	-0.23190853
88	0x3c4b48b3	0.01240747
89	0xbbef65de	-0.0073058447
90	0xbd9b9be3	-0.075980924
91	0x3e3eb022	0.18621877
92	0xbca457e1	-0.020061435
93	0x3e0c7f69	0.13720478
94	0xbd1ece6e	-0.038771085
95	0x3d9c46bb	0.07630678
96	0xbcf8831e	-0.030335959
97	0x3be490c9	0.0069752675
98	0x3dccf09e	0.100068316
99	0x3ba4f31c	0.0050338637
100	0xbd3b4907	-0.04572394
101	0x3e49efad	0.19720335
102	0x3d0d408f	0.034485396
103	0xbe529945	-0.2056628
104	0xbc46327a	-0.0120969955
105	0xbc9fe400	-0.019517899
106	0xbd164d31	-0.03669471
107	0x3e04271f	0.12905549
108	0x3c9f164c	0.019419812
109	0x3d7f9a52	0.06240303
110	0x3a30e877	0.0006748507
111	0x3c2c395b	0.0105117215
112	0xbe2537d9	-0.16134585
113	0xbccf3043	-0.025291568
114	0x3e0c5cf6	0.13707337
115	0x3d95a0a7	0.07306033
116	0xbd0836d8	-0.033255428
117	0x3db0e2c8	0.08637005
118	0x3a689557	0.0008872351
119	0xbe595422	-0.212235
120	0x3c30a4e3	0.0107815
121	0x3c127d50	0.00894101
122	0xbda8a97c	-0.082354516
123	0x3df2f2cc	0.11862716
124	0xbd0f9cb4	-0.035061553
125	0x3d80cef3	0.062894724
126	0x3dec02e0	0.11523986
127	0x3d3723ab	0.04471175
128	0xbe2d976a	-0.16952291
129	0xba546bf8	-0.0008103247
130	0x3d13c981	0.03608084
131	0xbd111791	-0.035422865
132	0x3d6c9245	0.05775668
133	0xbe05ddb5	-0.13072856
134	0x3d0164e1	0.031590346
135	0xbd021721	-0.03176034
136	0xbc175951	-0.009237603
137	0xbca66f5a	-0.020316768
138	0xbc035461	-0.008015723
139	0xbce51bd8	-0.027967378
140	0x3d151001	0.036392216
141	0xbd145f21	-0.036223534
142	0x3d97fced	0.07421289
143	0xbd04710e	-0.03233438
144	0xbe6a6ccf	-0.2289307
145	0xbbee4d99	-0.007272434
146	0x3c6ca568	0.014443733
147	0xbd323ac2	-0.043513067
148	0x3d89a0cf	0.06720125
149	0xbde46bcd	-0.11153374
150	0x3cc3a1b2	0.023880813
151	0xbb69ca86	-0.0035673692
152	0x39fa6d2b	0.00047765052
153	0xbcbe4791	-0.023227485
154	0x3bfd9a41	0.0077393358
155	0xbd1f7033	-0.03892536
156	0x3d2271f5	0.03965946
157	0xbd75a3ea	-0.059970774
158	0x3de3cd9f	0.111232035
159	0xbd404f5a	-0.046950676
160	0xbebfcc90	-0.37460756
161	0xbc2b8e34	-0.010470916
162	0x3cc8e466	0.024522971
163	0xbb15cb6b	-0.0022856842
164	0x3d41b896	0.047295175
165	0xbe113f1b	-0.14184229
166	0xbaf73aba	-0.0018862106
167	0xbc501b8e	-0.012701882
168	0x3c3b2a6c	0.011423688
169	0x3bf038fd	0.0073310123
170	0xbaeffc3d	-0.0018309426
171	0xbcfc8fd7	-0.030830307
172	0x3c3ec022	0.011642488
173	0xbd516099	-0.051117513
174	0x3e0bf36e	0.1366708
175	0xbc978b8a	-0.018499155
176	0xbe623822	-0.22091725
177	0x3bdc1f56	0.0067176027
178	0xbc0575f4	-0.008145798
179	0xbc97677d	-0.018481964
180	0x3d47d4f2	0.048787065
181	0xbde5be75	-0.112179674
182	0x3c97d396	0.01853351
183	0x3d36c79e	0.044623964
184	0xbbd1fa9e	-0.0064080497
185	0x3c038106	0.008026367
186	0x3c2b4c4e	0.010455204
187	0xbd7bf0bc	-0.06150888
188	0xbb601c9d	-0.0034196742
189	0xbd83c585	-0.06434158
190	0x3d9168b1	0.071000464
191	0xbd1bdf1f	-0.03805458
192	0xbe3bb441	-0.1833048
193	0xbbbed6b4	-0.0058239345
194	0xbd02ba67	-0.03191605
195	0xbcaabd01	-0.020842077
196	0x3d81ee95	0.06344334
197	0xbe421838	-0.18954551
198	0x3c5e2415	0.013558407
199	0x3dc1aac6	0.094564006
200	0x3ca5fe35	0.020262817
201	0x3bafb097	0.0053616273
202	0x3c7f4b44	0.01558191
203	0xbdbde931	-0.09272993
204	0xbcab14ff	-0.020884035
205	0xbd9956c1	-0.0748725
206	0x3d9c2d84	0.07625869
207	0xbd347901	-0.04406071
208	0xbcf5fa01	-0.030026438
209	0x3b695ce9	0.0035608357
210	0xbcd2d36c	-0.02573558
211	0xbd8b8289	-0.06812007
212	0x3dc913a2	0.09818198
213	0xbe1d86cd	-0.15383454
214	0x3dab2db1	0.08358324
215	0x3dc4f551	0.09617103
216	0xbc6ad419	-0.014332795
217	0xbd053863	-0.032524478
218	0x3bcee823	0.006314294
219	0xbde55e79	-0.1119966
220	0x3cd39259	0.02582662
221	0xbdf90af2	-0.12160291
222	0x3d9aa919	0.07551784
223	0xbdd5c614	-0.10438171
224	0x3cf8a500	0.030352116
225	0x3b056d5b	0.002035937
226	0xbd772eca	-0.060347356
227	0xbc9262f8	-0.017869458
228	0x3cee3cd1	0.029081734
229	0xbdf00f8c	-0.11721715
230	0x3c611cc6	0.01373977
231	0x3e151535	0.14558871
232	0xbbf6cdf7	-0.007531877
233	0xbbc95a6b	-0.006144812
234	0x3c7f1a88	0.01557029
235	0xbdb15e74	-0.08660594
236	0x3c812a0b	0.015767118
237	0xbd6e56a6	-0.058188103
238	0x3c0f875d	0.0087603
239	0xbcfb3b5e	-0.030667957
240	0x3d3c0561	0.045903567
241	0x3d04d9a9	0.03243414
242	0xbdb15ddd	-0.08660481
243	0xbceb541a	-0.028726626
244	0x3d5b91c8	0.053605825
245	0xbe14aac0	-0.14518261
246	0x3b156420	0.0022795275
247	0x3e2d1df2	0.16905954
248	0xbc4522e4	-0.012032244
249	0xbb31d677	-0.0027135888
250	0x3d138e3b	0.036024313
251	0xbdefac36	-0.117027685
252	0x3c9bfd04	0.019041546
253	0xbd96caa3	-0.07362869
254	0xbc37241a	-0.011178041
255	0xbd18db8a	-0.037318744

_orig_mod.dense_proj.weight f4 [64, 113]
0	0x3c750b0f	0.01495625
1	0xbd787615	-0.060659487
2	0x3c639d15	0.013892432
3	0x3dd67501	0.104715355
4	0x3da891e4	0.082309514
5	0xbcb337e0	-0.02187723
6	0xbba4d26e	-0.005029968
7	0xbcf6f708	-0.03014709
8	0xbd23e6f4	-0.040015176
9	0xbbadc4b3	-0.0053029894
10	0x3cab56d1	0.02091542
11	0xbc3b678e	-0.011438264
12	0x3cce57f9	0.025188433
13	0x3cbe79e3	0.02325148
14	0x3d7ab0b3	0.06120367
15	0xbaf04389	-0.0018330674
16	0x3d7bb06b	0.061447542
17	0xbbc5da7d	-0.0060380087
18	0x3bd7f04e	0.006589926
19	0x3c20580a	0.009786615
20	0xbc4ad8d8	-0.012380801
21	0x3c4b210d	0.012398017
22	0x3b9a40f5	0.0047074505
23	0xbc4bea36	-0.012445977
24	0x3ce7c27d	0.028290981
25	0x3b9bf5c9	0.0047595245
26	0x3c9c14fb	0.019052973
27	0xbbf9632e	-0.0076107
28	0x3c1d24b3	0.009591269
29	0xbb1ca461	-0.0023901688
30	0xbc7f20c6	-0.015571779
31	0xbc1263a7	-0.008934892
32	0xbba5670b	-0.005047684
33	0xbbeae16f	-0.007167987
34	0x3ca5c9e4	0.02023787
35	0x3c277496	0.010220667
36	0xbb3afca6	-0.0028531938
37	0x3afd566f	0.0019328127
38	0x3ba081f6	0.004898305
39	0xbcfbd103	-0.030739313
40	0xbd102447	-0.035190847
41	0x3c3bfd20	0.011473924
42	0x3d2955d0	0.041341603
43	0x3c01ea93	0.007929462
44	0x3cc6b8c7	0.02425803
45	0xbbb53e8f	-0.005531139
46	0x3c9dbf3b	0.019256225
47	0xbb258706	-0.0025257482
48	0x398bca4d	0.00026662872
49	0xbcd73360	-0.026269615
50	0x3cc41407	0.023935331
51	0xbd085ec7	-0.03329351
52	0xbc80e6f1	-0.015735121
53	0xba40e7dc	-0.00073587685
54	0xbcbf4860	-0.02334994
55	0x3ced0a1b	0.028935483
56	0xbcafcfe4	-0.021461435
57	0x3c2039c3	0.0097793965
58	0x3c0181ac	0.007904451
59	0xbbc9026f	-0.0061343233
60	0xbc8a0066	-0.016845893
61	0xbc2b39e9	-0.010450819
62	0xbc81108c	-0.01575496
63	0x3ae04bb7	0.0017112409
64	0x3b83a2b7	0.0040172
65	0x3ceffdc9	0.029295819
66	0x3bfdb0c7	0.007742021
67	0x3d08e929	0.033425484
68	0x3c3b08a0	0.011415631
69	0x3cb485d6	0.022036474
70	0x3d112b1f	0.035441514
71	0xbbeb8413	-0.0071873753
72	0x3cc6cf41	0.024268748
73	0x3cef3a68	0.029202655
74	0xbd4c00e9	-0.049805555
75	0x3cdc377d	0.026881928
76	0x3c7f1d2b	0.015570919
77	0x3adc148c	0.0016790791
78	0xbc7fa661	-0.015603633
79	0xbc43778a	-0.011930356
80	0xbc211d79	-0.009833687
81	0xbb849c2f	-0.004046939
82	0x3bc40ad5	0.0059827366
83	0x3d64720a	0.05577282
84	0x3c22f875	0.009946932
85	0xbc8a165b	-0.016856363
86	0xbbb2443a	-0.005440262
87	0xb9508e78	-0.000198895
88	0xbb9db6a4	-0.004813032
89	0xbb06c732	-0.0020565507
90	0xbba32172	-0.004978352
91	0x3a22cc97	0.0006210296
92	0x3a92a567	0.001118821
93	0xbb6bb3d1	-0.0035965333
94	0xbb80dc7b	-0.0039325333
95	0xbbcd72c5	-0.006269785
96	0xbba77812	-0.005110749
97	0xba956321	-0.001139734
98	0xbb915f45	-0.004436406
99	0x3b9de6a3	0.004818754
100	0xbb9c0b9d	-0.0047621266
101	0xbbea64ed	-0.0071531446
102	0xbc5c3e7f	-0.013442635
103	0xbb9c1b6a	-0.00476401
104	0xbc033317	-0.008007786
105	0xbbaa2ca7	-0.0051933113
106	0xbb9b2e78	-0.004735764
107	0xbbadf8aa	-0.005309184
108	0xbb265fbd	-0.0025386654
109	0xbb195eec	-0.0023402525
110	0xbbba16d8	-0.0056789927
111	0xbb8cc0b9	-0.0042954353
112	0x3cb98488	0.022646204
113	0x3ca26cbe	0.019827243
114	0xbce8376c	-0.02834674
115	0x3d04545d	0.032307018
116	0xbd9605b5	-0.07325307
117	0xbbff3d28	-0.007789273
118	0xbd98cba3	-0.074607156
119	0xbd0cdc24	-0.03438963
120	0x3d1bb45e	0.03801381
121	0x3dc14c1e	0.09438346
122	0xbcd16c15	-0.025564233
123	0xbe0925e6	-0.13393363
124	0xbc9f642b	-0.019456943
125	0x3d364dad	0.04450767
126	0x3b53748f	0.003226552
127	0x3e342fac	0.1759631
128	0x3e6afdf5	0.2294844
129	0x3d287272	0.04112477
130	0xbcbfc55b	-0.023409536
131	0x3d082ff7	0.033248868
132	0xbbfcd604	-0.0077159423
133	0x3cc21e11	0.023695977
134	0x3c14cdb1	0.009082244
135	0xbc2856b5	-0.010274579
136	0x3cd8b17c	0.026451819
137	0xbc157ec1	-0.009124459
138	0x3d1aab8d	0.03776126
139	0xbd156c04	-0.036479965
140	0xbd8b998d	-0.06816397
141	0x3c4fdf43	0.012687507
142	0xbd1cac36	-0.03825017
143	0x3dcb1ec5	0.09917978
144	0x3d482603	0.048864376
145	0x3b80c7df	0.0039300765
146	0xbd7f12d0	-0.0622738
147	0x3d200c6e	0.039074354
148	0xbb641246	-0.003480093
149	0xbb2240df	-0.0024757904
150	0xbdd63a3c	-0.10460326
151	0xbda83c39	-0.082146116
152	0xbdd7133f	-0.10501718
153	0x3baf71d6	0.0053541465
154	0xbc9cd0fb	-0.019142618
155	0x3e1a2c10	0.15055871
156	0xbcdb05bb	-0.026736131
157	0x3db71c1b	0.089409076
158	0x3d8042c1	0.06262732
159	0x3d40db15	0.047083933
160	0xbde992c0	-0.114049435
161	0x3c4fdc52	0.012686806
162	0xbd2de158	-0.042451233
163	0x3d84949b	0.06473657
164	0xbdc07551	-0.09397376
165	0x39fa074f	0.0004768916
166	0x3d0e749f	0.034779187
167	0xbd370a53	-0.04468758
168	0x3e0765c2	0.13222411
169	0xbe0fe66a	-0.1405274
170	0x3dfdf4e6	0.12400226
171	0x3cc26763	0.02373094
172	0xbc62ba3b	-0.013838346
173	0xbcb5af9f	-0.02217847
174	0xbcae290a	-0.021259803
175	0x3d046711	0.032324854
176	0xbcf751fb	-0.030190459
177	0xbaa48128	-0.0012550699
178	0x3d0e9a56	0.034815155
179	0xbcbcbf08	-0.02304031
180	0x3b2edb41	0.0026680978
181	0x3c3e77f8	0.0116252825
182	0x3c7564b9	0.014977627
183	0x3cf320e8	0.029678777
184	0xbcc9510e	-0.024574783
185	0x3d567159	0.05235419
186	0xbc998615	-0.018740693
187	0xbd394289	-0.04522947
188	0x3c860e59	0.016364263
189	0xbcb38672	-0.021914694
190	0xbdbe9400	-0.093055725
191	0xbe656cd6	-0.22404799
192	0x3d09b7d4	0.033622578
193	0xbe119db1	-0.14220311
194	0x3d686a38	0.056741923
195	0x3d8e332b	0.06943353
196	0x3db5b9f8	0.08873361
197	0x3c8190b7	0.015816076
198	0xbd2ea734	-0.042639926
199	0xba352747	-0.0006910455
200	0xbc9b9959	-0.01899402
201	0x3b74915c	0.0037318086
202	0x3c14c022	0.009079011
203	0x3c6bebcc	0.01439948
204	0x39b33eb8	0.0003418827
205	0x3cdffd54	0.027342476
206	0xbbc3ff49	-0.00598136
207	0x3c081efc	0.0083081685
208	0xbbd20302	-0.00640905
209	0xbc1bd484	-0.009511117
210	0xbaae2afa	-0.0013287954
211	0x3c377e0e	0.011199487
212	0x39826542	0.00024870975
213	0x3bb34e3d	0.005471973
214	0xbbdd2db6	-0.006749834
215	0x3b792ea1	0.0038022178
216	0xbbdf628f	-0.006817169
217	0xbc681af5	-0.014166583
218	0xbb8d6530	-0.004315041
219	0x3b8dd387	0.0043281945
220	0x3c3e328f	0.011608734
221	0xb9a2b404	-0.0003103317
222	0x3c7f6974	0.015589107
223	0x3b948a88	0.004533116
224	0xbbfbe371	-0.0076870252
225	0x3d90f63f	0.07078218
226	0xbde076a4	-0.10960129
227	0xbcd44b59	-0.025914835
228	0xbea98c73	-0.33114967
229	0x3e325eba	0.17418948
230	0xbd8cb8e5	-0.06871203
231	0x3e4cca04	0.19998938
232	0xbceb8a3a	-0.028752435
233	0x3d23dd44	0.040005937
234	0xbce7f206	-0.028313648
235	0xbc0c5818	-0.008565925
236	0xbd4898f9	-0.04897401
237	0x3bceaa58	0.0063069277
238	0xbd5f11ae	-0.05446022
239	0x3d2305fc	0.03980063
240	0xbcfe9abc	-0.031079642
241	0x3e44677d	0.19180103
242	0x3d3dcfc7	0.04634073
243	0x3cd7347a	0.02627014
244	0xbbc89870	-0.0061216876
245	0x3d8cfb5d	0.06883881
246	0x3dd68e82	0.104764
247	0x3c349b70	0.011023387
248	0x3d257b5d	0.04040085
249	0x3dc72663	0.097241186
250	0x3b9152bd	0.004434912
251	0x3ba60aaf	0.0050671916
252	0xbc056700	-0.008142233
253	0x3d65b862	0.056084044
254	0x3c38e1f4	0.01128434
255	0xbdabed36	-0.08394854

_orig_mod.dense_proj.bias f4 [64]
0	0xbcb06957	-0.021534605
1	0x3d936955	0.07197825
2	0xbcd8ff52	-0.026488934
3	0x3d648ed9	0.055800293
4	0x3dfc7aaf	0.123280875
5	0x3b87193c	0.004122881
6	0x3ce4e5eb	0.027941665
7	0xbe38c48f	-0.18043731
8	0xbcffa1dd	-0.031205112
9	0x3b26b4c6	0.002543734
10	0x3ce2f2b0	0.027703613
11	0xbc80c7cc	-0.01572027
12	0x3ca93ee8	0.020659879
13	0xbc8d3f00	-0.017241955
14	0xbbef18ec	-0.007296672
15	0x3b844621	0.0040366803
16	0x3de80fb2	0.11331119
17	0xbb3549ff	-0.0027662513
18	0x3b862c23	0.004094617
19	0xbd3a6b7e	-0.04551267
20	0xbe0bf91c	-0.13669246
21	0x3ce57b18	0.028012797
22	0xbcbad4e2	-0.022806589
23	0x3da8b863	0.08238294
24	0xbd1fc884	-0.039009586
25	0xbc064aa1	-0.008196504
26	0xbaf5f1a3	-0.001876403
27	0x3c82b30b	0.015954515
28	0x3c007d49	0.00784237
29	0x3cd055b6	0.025431495
30	0x3cd0c427	0.025484158
31	0x3bdaf36d	0.0066818506
32	0xbcab5bcd	-0.020917797
33	0x3e2a09f3	0.16605358
34	0xbd585512	-0.052815504
35	0xbcd2e91f	-0.025745926
36	0xbc5d7e9b	-0.013518955
37	0xbdd0a1d4	-0.10187116
38	0xbdbbbf1a	-0.09167309
39	0x3e0cb8df	0.13742398
40	0xba6d5048	-0.00090527954
41	0xbce95a70	-0.028485507
42	0xbbb4d575	-0.00551861
43	0xbcc9393d	-0.024563426
44	0x3c8748ce	0.016514208
45	0x3d056a48	0.03257206
46	0xbb01bbda	-0.0019795806
47	0xbbe548e2	-0.0069972137
48	0xbb9a484a	-0.0047083246
49	0x3dc87b18	0.09789103
50	0xbc525b90	-0.012839213
51	0xbca0926d	-0.019601071
52	0xba87abed	-0.001035092
53	0xbe229ee3	-0.15880923
54	0xbd57b152	-0.05265934
55	0x3c0e5b91	0.008688823
56	0x3e0cf519	0.13765372
57	0xbcbbd26e	-0.02292749
58	0x3a3f4ea0	0.0007297788
59	0x3c0a1c66	0.008429622
60	0xbb555bf8	-0.0032556038
61	0x3e27337f	0.16328238
62	0x3cd0324d	0.02541461
63	0x3e18572d	0.14877005

_orig_mod.shared_mlp.0.weight f4 [128, 120]
0	0x3e18a38b	0.14906137
1	0xbe489f21	-0.19591953
2	0xbe36db32	-0.17857054
3	0x3dfea43f	0.12433671
4	0x34c73e9c	3.7112193e-07
5	0xbe2ac9eb	-0.16678588
6	0x3de7a749	0.11311204
7	0xbd21a857	-0.039467182
8	0xbd42fd0c	-0.047604606
9	0x3e460caa	0.19340768
10	0xbc1babc1	-0.009501399
11	0xbc415b54	-0.0118015595
12	0x3e02751d	0.12739988
13	0x3bc54809	0.00602055
14	0x3d9ee793	0.07759013
15	0xbe4a9ef9	-0.19787206
16	0x3e0d023f	0.13770388
17	0x3d60e900	0.054909706
18	0x3c67f2e6	0.014157033
19	0xbd52e388	-0.051486522
20	0x3cd82bac	0.026388012
21	0x3b509845	0.003182904
22	0x3dd146f0	0.102186084
23	0x3de855eb	0.113445126
24	0xbd211c0c	-0.03933339
25	0x3d3b9872	0.04579968
26	0x3a94d750	0.0011355672
27	0x3d1b08f8	0.03785035
28	0xbc8c8985	-0.017155418
29	0x3dad7ce9	0.0847109
30	0xbe0e2428	-0.1388098
31	0x3ce1bb6a	0.027555186
32	0xbded6d34	-0.115930945
33	0xbb07f38e	-0.0020744535
34	0x3da2943f	0.07938432
35	0x3e5cb94c	0.2155506
36	0xbce37bf7	-0.027769072
37	0xbd5f4c31	-0.05451602
38	0x3cb94c5a	0.022619415
39	0x3c7a9856	0.015295109
40	0xbb9d4db1	-0.0048005213
41	0xbbc9e93e	-0.006161838
42	0x3c1b70b7	0.0094873225
43	0x3bdd24e3	0.006748782
44	0xbb19f3b8	-0.0023491215
45	0xbb1717d3	-0.0023054972
46	0xbb99c402	-0.0046925554
47	0x3b5f68c0	0.0034089535
48	0xba205570	-0.0006116247
49	0xbb08e63c	-0.0020889184
50	0xbc4b677e	-0.012414811
51	0x3c222fde	0.009899108
52	0x3aa1ed28	0.0012354003
53	0x3c348ec7	0.011020369
54	0x3c527e7c	0.012847539
55	0x3bfb70cf	0.00767336
56	0x3b998490	0.004684992
57	0xbded3869	-0.11583025
58	0xbe09780c	-0.134247
59	0xbd7f19ab	-0.06228034
60	0xbd32745e	-0.043568008
61	0x3a82130f	0.0009923893
62	0xbc5eb663	-0.013593289
63	0x3df9234a	0.12164934
64	0xbcd06bc0	-0.025442004
65	0x3bf5e28f	0.0075038145
66	0x3b992950	0.0046741143
67	0xbb4d16f6	-0.0031294203
68	0x3b4d9d00	0.0031374097
69	0x3b322028	0.002717981
70	0xbc2469f0	-0.010035023
71	0x3bac8ae1	0.005265579
72	0x3d208d7f	0.03919744
73	0xbc913059	-0.01772325
74	0x3c422b5f	0.011851161
75	0xbd659113	-0.056046557
76	0x3e603d76	0.21898445
77	0xbcba9a97	-0.022778792
78	0x3c8ff298	0.017571732
79	0xbe1a2257	-0.15052162
80	0x3c28917a	0.010288591
81	0x3a14a8bb	0.0005670895
82	0xbc964731	-0.018344494
83	0xbbf2c5b1	-0.0074088206
84	0xbc2b26f5	-0.0104463
85	0xbcb58985	-0.022160301
86	0x3bd2338b	0.006414836
87	0xbbc585b6	-0.0060279025
88	0x3c116511	0.008874194
89	0xbdf61a41	-0.12016726
90	0x3da03b85	0.078238524
91	0xbc99d718	-0.018779323
92	0xbc726129	-0.014793673
93	0x3e564c00	0.20927429
94	0xbdb3bd36	-0.087763235
95	0xbd8d24da	-0.068917945
96	0x3cef79b4	0.029232837
97	0x3c376cd9	0.011195385
98	0xbb292b09	-0.0025813004
99	0x3a2a5881	0.00064981735
100	0xbad88711	-0.0016519745
101	0x3c865098	0.016395852
102	0xbc81fdaf	-0.015868036
103	0xbc9b9a5a	-0.018994499
104	0xbc768ace	-0.015047742
105	0x3d7f62a1	0.06234992
106	0xbb47339f	-0.0030395759
107	0x3e5e56f7	0.21712862
108	0x3c5f4b8c	0.013628852
109	0xbd8b392f	-0.06798016
110	0xbdea89e6	-0.11452083
111	0xbc4ab58f	-0.0123723885
112	0xbd889f9c	-0.06671068
113	0xbc9b52dc	-0.018960409
114	0x3c1ef270	0.009701356
115	0x3b997a62	0.0046837786
116	0xbc39ef16	-0.011348506
117	0xbd3cff1d	-0.046141732
118	0x3b269d7a	0.0025423453
119	0xbda474de	-0.08030103
120	0xbd2aff55	-0.04174741
121	0x3db9e4cc	0.09076843
122	0x3d8db6cd	0.06919632
123	0xbd81d69b	-0.06339761
124	0xb535aa3f	-6.7675495e-07
125	0x3dba411d	0.090944506
126	0xbd910a9b	-0.07082101
127	0x3ccbb5f6	0.02486704
128	0xbae81960	-0.0017707758
129	0xbd1a8a62	-0.03772963
130	0xbcc40c14	-0.02393154
131	0xba1becd1	-0.0005948069
132	0x3df714f2	0.12064542
133	0xbba6c1d9	-0.0050890264
134	0x3d81b27b	0.063328706
135	0x3d82d222	0.06387736
136	0xbd827131	-0.06369246
137	0x3d4ea86c	0.05045359
138	0xbc4706fd	-0.012147662
139	0xbe0effbd	-0.13964744
140	0x3d97fe74	0.0742158
141	0x3c2b954c	0.010472607
142	0xbc94ad3e	-0.018149015
143	0x3dabd17d	0.08389566
144	0xbc4350b0	-0.011921093
145	0x3ce7ea61	0.028310003
146	0xbd194a1c	-0.03742419
147	0x3d17c88b	0.037056487
148	0xbca5a284	-0.020219095
149	0x3bf22a3f	0.00739029
150	0x3d6be2eb	0.057589453
151	0x3d3cedd3	0.046125244
152	0x3d155b9b	0.036464315
153	0xb97d2e70	-0.0002414526
154	0xbc96ea94	-0.018422402
155	0xbbdd64d8	-0.0067564063
156	0xbb3b601f	-0.0028591228
157	0x3c91daca	0.017804522
158	0x3b4a5248	0.0030871797
159	0xba826eb4	-0.0009951205
160	0xbd7a4a7a	-0.061106183
161	0xbaa92c61	-0.0012906903
162	0xbc30ace6	-0.01078341
163	0xbb8673f5	-0.0041031786
164	0x3a6c499b	0.00090136536
165	0xbd0558c6	-0.032555364
166	0xbc8e9305	-0.017404089
167	0x3cc2c426	0.023775171
168	0x3a1b6094	0.0005927172
169	0xbacb2906	-0.0015499897
170	0x3c142bb2	0.009043621
171	0xbbb8efb2	-0.0056438083
172	0x3c54d8de	0.012991158
173	0x3bd592a0	0.006517723
174	0x3aa1b68d	0.001233773
175	0x3c236a1e	0.009974031
176	0x3ce61732	0.028087232
177	0x3dbbdf8d	0.09173498
178	0xbcf1dd65	-0.029524514
179	0x3c6dbaa6	0.0145098325
180	0xb8cdf730	-9.821204e-05
181	0xbcd97cf1	-0.026548835
182	0x3be84fe8	0.0070896037
183	0xbc63586a	-0.01387606
184	0x3c6e2686	0.014535552
185	0xbc49a875	-0.01230823
186	0xbd1c614c	-0.038178727
187	0xbb73f114	-0.0037222551
188	0x3ca8f210	0.020623237
189	0x3bb3abda	0.005483133
190	0x3c51690c	0.012781393
191	0x3b2380c0	0.0024948567
192	0xbc90e561	-0.017687501
193	0xbab72fbd	-0.0013976019
194	0xbbec7280	-0.007215798
195	0xbd1719bf	-0.036889788
196	0xbc3f82e9	-0.011688926
197	0xbc3c5a6d	-0.011496169
198	0x3c5411c9	0.012943693
199	0x3de1aeed	0.110196926
200	0x3c233c6a	0.009963134
201	0xbc07cb4b	-0.008288215
202	0xbcb52c0a	-0.022115726
203	0x3ca33a47	0.01992525
204	0x3c373a81	0.011183382
205	0xbc945acc	-0.018109702
206	0x3b6a0ed9	0.0035714416
207	0x3c0b4eb4	0.008502651
208	0xbd0152a6	-0.03157296
209	0xbcd2c149	-0.025726931
210	0xbca38517	-0.019960923
211	0xbe019589	-0.126547
212	0x3bd9bb16	0.006644617
213	0xbd59c804	-0.053169265
214	0xbbb7d87f	-0.005610525
215	0xbd0c709a	-0.034287073
216	0x3b9cc40b	0.0047841123
217	0x3c62bb44	0.013838593
218	0xbcd647aa	-0.026157219
219	0x3a66bd77	0.0008802036
220	0xbd112082	-0.035431392
221	0x3c7cebad	0.015437049
222	0x3b8debeb	0.004331102
223	0x3be64545	0.0070273005
224	0x3ba1d4a6	0.0049386797
225	0x3ce5e0a4	0.028061219
226	0xbb09e52c	-0.0021041138
227	0xba400974	-0.00073256274
228	0xbc047d29	-0.008086481
229	0xbd91e049	-0.07122857
230	0xbd8a6da2	-0.06759192
231	0x39ecf127	0.000451931
232	0x3c386183	0.011253717
233	0xbb7dc250	-0.0038720556
234	0x3c367098	0.011135243
235	0x3ce2b91b	0.027676156
236	0xbbafa097	-0.00535972
237	0xbcab4750	-0.020908028
238	0x3d06ef89	0.032943282
239	0xbcef2dde	-0.029196676
240	0x3dbe540b	0.09293374
241	0xbe047c22	-0.12937978
242	0xbde2a426	-0.11066465
243	0x3da75134	0.08169785
244	0xb3f35568	-1.13311046e-07
245	0xbde2b1e8	-0.11069089
246	0x3d9b4bed	0.07582841
247	0xbcc31be0	-0.023817003
248	0xbdbb9ddd	-0.091609694
249	0x3d87d35d	0.06632111
250	0x3d19eb95	0.037578184
251	0xbb1049be	-0.002201661
252	0x3da93fee	0.08264147
253	0x3bc02157	0.0058633494
254	0x3cf8a4ef	0.030352084
255	0xbaa8d5e0	-0.0012881123

_orig_mod.shared_mlp.0.bias f4 [128]
0	0xbe946338	-0.28981948
1	0x3e1fb7d9	0.15597476
2	0xbe4d595e	-0.20053622
3	0x3cd6dfbb	0.02622973
4	0xbea1e089	-0.3161662
5	0xbd886582	-0.06659986
6	0x3dd7104c	0.10501155
7	0x3d599a24	0.053125516
8	0xbc498581	-0.012299896
9	0x3d9dd75b	0.077070914
10	0xbd864447	-0.065559916
11	0xbef94f6f	-0.48693416
12	0x3ceb9f40	0.02876246
13	0xbc9e495e	-0.019322094
14	0xbb5dd4dc	-0.0033848798
15	0x3c3bb116	0.011455795
16	0x3dea4ce1	0.11440445
17	0xbe3891cb	-0.18024366
18	0xbde34093	-0.11096301
19	0xbe3cff1e	-0.18456694
20	0x3d77dfb5	0.060516078
21	0x3d25875e	0.0404123
22	0xbe590d70	-0.21196532
23	0xbe199e80	-0.15001869
24	0xbde95920	-0.11393952
25	0xbe3d0bbe	-0.1846151
26	0xbb4f2a77	-0.0031611004
27	0x3a6846a8	0.0008860626
28	0x3b4e5e8b	0.0031489457
29	0x3cab3cad	0.020902956
30	0xbe26c6b0	-0.16286731
31	0x3cc4b30f	0.024011163
32	0xbc989597	-0.018626017
33	0x3d2263e9	0.039646063
34	0xbe57e6a4	-0.21084076
35	0x3d9d5f45	0.07684187
36	0x3d91e562	0.071238294
37	0xbeb87234	-0.3602463
38	0xbe2205e3	-0.15822558
39	0xbe901dce	-0.2814774
40	0xbe60a9da	-0.21939793
41	0x3d43d306	0.04780867
42	0x3bbedad1	0.005824425
43	0x3d3eb49f	0.046558972
44	0x3d15923f	0.036516424
45	0xbe55b2b7	-0.20868956
46	0xbde5cc74	-0.11220637
47	0xbe55904c	-0.20855826
48	0x3d35edc4	0.044416204
49	0xbe54e077	-0.20788752
50	0x3d38f0e8	0.04515162
51	0x3c25bf6a	0.010116437
52	0xbad6d438	-0.001639015
53	0xbb59270b	-0.0033134844
54	0x3d104343	0.035220396
55	0x3d62e91f	0.055398103
56	0x3d008e1f	0.031385537
57	0xbb00aa59	-0.0019632785
58	0x3dc8a7e4	0.097976476
59	0xbe622bd9	-0.22087039
60	0x3d60d551	0.054890934
61	0xbe5ab1eb	-0.21356933
62	0xbbcb37e8	-0.006201733
63	0x3c2369ce	0.009973956
64	0xbbef9afd	-0.007312177
65	0xbe461ca2	-0.1934686
66	0xbb408181	-0.0029374065
67	0xbda4c171	-0.080447085
68	0xbc9d1a13	-0.019177472
69	0xbdc216cb	-0.09477004
70	0x3d3d44ba	0.04620812
71	0xbe25dea3	-0.1619821
72	0x3d8cd08e	0.06875716
73	0x3c4c4eed	0.012469989
74	0x3e121eab	0.14269511
75	0x3d319d1c	0.04336272
76	0x3ad5df16	0.0016317095
77	0xbe4a5b06	-0.19761285
78	0xbe5f48d2	-0.21805122
79	0xbe201dcb	-0.15636365
80	0xbe23ef20	-0.16009188
81	0xbd9c037d	-0.07617853
82	0xbd98c31f	-0.074590914
83	0x3d9078ad	0.07054267
84	0xbb2486cf	-0.0025104766
85	0xbeadfa5f	-0.3398008
86	0x3d607a82	0.054804333
87	0x3d2352bf	0.039873835
88	0xbe25ff59	-0.16210689
89	0xbe0f4c1a	-0.13993874
90	0x3b2598d4	0.0025268095
91	0xbe0b0416	-0.13575777
92	0xbe3b4163	-0.18286662
93	0xbdb7ea7b	-0.089802705
94	0x3d7b9953	0.06142552
95	0xbe41bffa	-0.1892089
96	0xbc8bac84	-0.017050035
97	0x3c09d4d4	0.008412559
98	0x3d386762	0.04502047
99	0x3db2700a	0.08712776
100	0xbe5f0988	-0.2178098
101	0xbc1c0051	-0.00952156
102	0xbe51b99b	-0.20480959
103	0x3bcad0d2	0.006189444
104	0xbd4618c7	-0.048363473
105	0x3a41f20b	0.0007398433
106	0x3c2c0678	0.010499589
107	0xb988cc52	-0.00026092172
108	0x3d3a4e4b	0.045484822
109	0xbe34999c	-0.17636722
110	0xbe53b872	-0.20675829
111	0xbcaeb937	-0.021328552
112	0x3d29b6a2	0.041433938
113	0xb9f537a9	-0.00046771512
114	0xbe4d14dd	-0.2002749
115	0xbe922bcb	-0.28549036
116	0x3d4def95	0.05027731
117	0x3e0e3ec4	0.1389113
118	0x3d97b4bf	0.074075215
119	0xbc60995c	-0.013708439
120	0x3bc76fc1	0.00608632
121	0xbe5436fd	-0.20724101
122	0xbe32600f	-0.17419456
123	0x3b2f647f	0.0026762781
124	0x3cf4367a	0.029811133
125	0x3c5eef5a	0.013606871
126	0xbaeffce8	-0.0018309625
127	0x3d0a3de1	0.03375042

_orig_mod.shared_mlp.3.weight f4 [64, 128]
0	0x3cddc7e8	0.027072862
1	0xbd675867	-0.05648079
2	0x3d1dfb70	0.038569868
3	0xbd4b8654	-0.049688652
4	0xbd3e918e	-0.04652553
5	0x3c8f90a9	0.017525034
6	0xbda47891	-0.08030809
7	0x399e6f63	0.00030219098
8	0xbd8b3aab	-0.067982994
9	0xbd232787	-0.039832618
10	0x3d2741e7	0.040834334
11	0x3ddb07d6	0.10694854
12	0xbc428e04	-0.0118746795
13	0x3aca8932	0.0015452264
14	0xbbb65d44	-0.0055653173
15	0xbd302963	-0.04300822
16	0xbd849597	-0.064738445
17	0x3d1cbad4	0.03826411
18	0x3ce83a14	0.028348006
19	0x3cf8d4aa	0.030374844
20	0xbd1050df	-0.035233375
21	0x3ba28b7b	0.004960475
22	0x3d6e5637	0.05818769
23	0x3d4ee8a6	0.05051484
24	0x3d01b63a	0.031667925
25	0x3d209c2b	0.039211433
26	0x3c61bd09	0.01377798
27	0xbcefb934	-0.029263116
28	0xb9b95ff1	-0.00035357432
29	0xbc8fe151	-0.017563494
30	0x3cf9cdbf	0.030493615
31	0xbbb1d4cb	-0.005426978
32	0xbb2fdb21	-0.0026833492
33	0xbd5eb38a	-0.05437044
34	0x3d4efff3	0.05053706
35	0xbda78520	-0.081796885
36	0xbdc29361	-0.095007665
37	0x3cba8082	0.022766355
38	0x3ae9f18e	0.0017848478
39	0xbd8164b9	-0.063180394
40	0xbc397097	-0.011318347
41	0xbd1bac10	-0.03800589
42	0xbb02ad05	-0.0019939553
43	0x3c902b37	0.017598731
44	0xbcbb245c	-0.022844486
45	0xbcd30409	-0.02575876
46	0xb93ade5b	-0.00017821176
47	0x3d90ae30	0.07064474
48	0xbe0226a0	-0.12710047
49	0x3d484162	0.04889048
50	0xbc79c20b	-0.015244017
51	0xbc80f94f	-0.01574388
52	0x3c0d84a9	0.008637586
53	0xbd5f2ec2	-0.05448795
54	0xbcff3e38	-0.031157598
55	0xbd7b3e0f	-0.06133848
56	0xba200583	-0.0006104337
57	0x3b686330	0.003545951
58	0xbd6e25ae	-0.058141403
59	0x3d53d804	0.05171968
60	0x3c42c0bd	0.011886773
61	0xba070838	-0.0005151066
62	0x3b976456	0.0046201153
63	0x3b39c3b5	0.002834541
64	0xbab76955	-0.0013993183
65	0x3d0468ab	0.03232638
66	0x3b9b015b	0.004730386
67	0xbd102933	-0.03519554
68	0x3cd31eb4	0.025771476
69	0x3cd47267	0.025933458
70	0xbc8ec0e8	-0.01742597
71	0x3d170b40	0.036875963
72	0xbc503ad6	-0.01270934
73	0x3d061c3e	0.032741778
74	0xbd7382d2	-0.05945093
75	0xbcc45074	-0.023964144
76	0xbb31b4db	-0.0027115855
77	0x3d350a3d	0.044199217
78	0x3cefa8b9	0.029255258
79	0xbd851acf	-0.06499254
80	0xbc15b33b	-0.00913697
81	0x3c89fe35	0.016844848
82	0x3c88e864	0.016712375
83	0xbd806694	-0.06269565
84	0x3b266ece	0.0025395635
85	0x3dff3457	0.12461155
86	0x3b597e70	0.0033186935
87	0xbd19cb45	-0.03754737
88	0x3d4909da	0.04908166
89	0xbbc0e729	-0.0058869314
90	0x3aae4a52	0.0013297296
91	0xbb4ed32e	-0.0031558978
92	0x3cc373c5	0.023858914
93	0xbd5fb492	-0.054615565
94	0xbc30f884	-0.010801438
95	0x3d1d9d0a	0.038479842
96	0xbdb1094e	-0.08644353
97	0xbd5a9923	-0.0533687
98	0xbcc76887	-0.024341835
99	0xbd5fc889	-0.054634605
100	0x3cae381e	0.021266993
101	0xbcb697e9	-0.022289233
102	0x3d30eeef	0.043196615
103	0xbb1735d3	-0.0023072853
104	0xbd75a7ad	-0.05997436
105	0x3b72965e	0.0037015895
106	0x3b9fed22	0.0048805634
107	0x3b059f68	0.0020389203
108	0xbc534b0f	-0.012896313
109	0x3d0cd54a	0.034383096
110	0x3d4919fb	0.049097043
111	0xbbbc6b6b	-0.00575011
112	0xbd1a96ad	-0.037741352
113	0xbd17ac0d	-0.037029315
114	0x3c715a82	0.014731051
115	0xbad4f7a8	-0.0016248124
116	0xbcb783d3	-0.022401726
117	0xbd41b3a6	-0.047290467
118	0xbcc7d109	-0.024391668
119	0xbb4678bf	-0.0030284373
120	0xbb233d01	-0.0024908187
121	0xbb996dfd	-0.004682301
122	0x3d757c73	0.059933137
123	0x3b5c1a58	0.0033585038
124	0xbd185490	-0.03719002
125	0xbb05ed4e	-0.0020435634
126	0x3b85590e	0.004069454
127	0xbd0b9a04	-0.034082428
128	0xbd98a6d0	-0.07453692
129	0x3d331429	0.043720398
130	0xbd0081dd	-0.031373847
131	0x3c9d749a	0.019220639
132	0xbdc29b5b	-0.09502288
133	0x3b9cec6d	0.0047889263
134	0xbc85d00a	-0.016334552
135	0x3c33285b	0.010934914
136	0x3d5c4e5d	0.05378567
137	0x3cffbcfb	0.031218043
138	0x3da189c1	0.078876026
139	0xbe108bfd	-0.14115901
140	0x3d40fb25	0.04711451
141	0x3a91a70e	0.0011112408
142	0x3bf48e41	0.007463247
143	0x3c52fe47	0.012878007
144	0x3ccf1937	0.025280578
145	0xbcc867e1	-0.024463596
146	0xbb23af23	-0.0024976216
147	0xbc9df497	-0.019281669
148	0x3d43fa57	0.047846165
149	0x3d64c586	0.055852436
150	0xbd89c870	-0.067276835
151	0xbb15372d	-0.0022768483
152	0xbc2786d4	-0.010225017
153	0xbc9eb4b5	-0.019373277
154	0xbb3d2552	-0.0028861356
155	0x3d882019	0.06646747
156	0xbc1b4a01	-0.009478093
157	0x3d4a6613	0.04941375
158	0xbdab784b	-0.083725534
159	0x3aed4281	0.0018101485
160	0x3ac52f21	0.0015043953
161	0x3cd6342f	0.02614793
162	0xbd1a5bb5	-0.037685115
163	0x3d5c3e88	0.053770572
164	0x3c211c92	0.009833472
165	0xbdaf20f5	-0.08551208
166	0xbd3bccf5	-0.04584976
167	0xbde8161e	-0.113323435
168	0xbd9dd8f4	-0.07707396
169	0x3c9e8666	0.019351196
170	0x3c07bb3d	0.008284387
171	0x3cf2df3b	0.02964746
172	0x3ce95233	0.028481578
173	0xbdf36440	-0.118843555
174	0xbd3c20ce	-0.045929722
175	0xbce382d3	-0.027772343
176	0xbc20f1df	-0.009823292
177	0xbd495461	-0.049152736
178	0x3bd3632b	0.0064510307
179	0x3b845696	0.004038642
180	0x3b8222bb	0.0039714254
181	0x3d450d08	0.04810813
182	0x3c89f43d	0.016840095
183	0x3cd51e0f	0.02601531
184	0x3c1c6a8e	0.009546889
185	0x3bdff7a8	0.006834943
186	0x3d026857	0.031837787
187	0xbd41bc22	-0.047298558
188	0x3aa9089f	0.0012896246
189	0xbd577fd0	-0.052612126
190	0x3cfd9c25	0.030958245
191	0x3c3bf878	0.011472814
192	0xbbaae483	-0.005215229
193	0xbcc2597d	-0.023724312
194	0x3b98657e	0.0046507707
195	0x3d01f02a	0.03172318
196	0x3d4b58ff	0.04964542
197	0x3b0a7124	0.0021124566
198	0x3cc1dbfd	0.023664469
199	0xbc54bb18	-0.01298406
200	0x3cf0eb68	0.029409125
201	0x3bb6c322	0.005577461
202	0x3d3ab42a	0.045581974
203	0x3d30f7e2	0.04320515
204	0x3c39d5a3	0.011342439
205	0xbcb08fe2	-0.021552984
206	0xbd9046b6	-0.07044737
207	0x3d9059fb	0.070484124
208	0xbdb972a9	-0.09055073
209	0x3bd6d5ae	0.0065562343
210	0xbb8a02ad	-0.0042117448
211	0x3da9683c	0.08271834
212	0xbba0af6d	-0.004903725
213	0xbdcbd05c	-0.09951851
214	0x3d3e9ec1	0.04653812
215	0x3d84486e	0.06459127
216	0xbc243993	-0.010023492
217	0xbc7adfad	-0.0153121175
218	0xb9c9aa22	-0.00038464466
219	0xbd81b0b8	-0.063325346
220	0xbca1e8b2	-0.019764278
221	0x3d9939ee	0.07481752
222	0xbb6dbc62	-0.0036275615
223	0xbd0a03d2	-0.03369505
224	0x3d3862d3	0.04501612
225	0x3d506dd7	0.050886
226	0x3c809fbb	0.015701165
227	0x3cbcb422	0.023035113
228	0xbdc05030	-0.093902946
229	0x3d89a09e	0.067200884
230	0xbd1c2599	-0.038121793
231	0x3c16348b	0.009167801
232	0x3d90cf35	0.070707716
233	0xbaaa6e1c	-0.0013002786
234	0xbca31a4e	-0.019910004
235	0xbaa46ce0	-0.0012544654
236	0x3c4a20bf	0.012336909
237	0xbccfb954	-0.025356926
238	0xbd0b058d	-0.03394084
239	0x3ae6e865	0.0017616866
240	0x3d192748	0.037390977
241	0x3d3e6342	0.04648138
242	0xbd879e3d	-0.066219784
243	0xbdb0a158	-0.08624524
244	0x3ab31f5d	0.0013665963
245	0x3d1d31c7	0.03837755
246	0x3d3fdde6	0.04684248
247	0x3c1bdb44	0.009512726
248	0x3a08d916	0.00052203366
249	0xbdee45d7	-0.11634415
250	0xbcbd167f	-0.023082016
251	0x3ba75732	0.00510683
252	0xb98f8f48	-0.00027381838
253	0x3d58aa01	0.052896503
254	0x3be4d53a	0.0069834264
255	0x3d55176d	0.052024294

_orig_mod.shared_mlp.3.bias f4 [64]
0	0xbe676c7d	-0.22599979
1	0x3e9cbef6	0.30614442
2	0x3e89e8a3	0.269353
3	0xbeab3633	-0.33439788
4	0x3e9bffc1	0.30468562
5	0xbe6ce5fe	-0.2313461
6	0x3e7872b5	0.24262507
7	0x3ebc2c95	0.36752763
8	0x3e820a19	0.2539833
9	0xbe8846f1	-0.26616624
10	0x3e889f81	0.26684192
11	0xbe98b3c1	-0.2982464
12	0x3e6a3e0e	0.22875234
13	0x3e88c181	0.26710132
14	0xbe3c109d	-0.18365712
15	0xbe88db1c	-0.26729667
16	0xbdfcfe02	-0.12353136
17	0xbe80b6d9	-0.25139502
18	0x3e740c4d	0.23832817
19	0x3e8b46c7	0.27202436
20	0x3e3d4dfa	0.18486777
21	0xbe103ba2	-0.14085248
22	0xbe7efb21	-0.24900486
23	0xbdfed4aa	-0.12442906
24	0x3e96a791	0.29424718
25	0xbc2979e8	-0.010344006
26	0x3eaae2dc	0.33376205
27	0x3e8ae879	0.27130488
28	0x3e9aa9a6	0.30207556
29	0x3e88ce5e	0.26719946
30	0x3e6faad0	0.23405004
31	0xbea06d40	-0.3133335
32	0xbe2ebaab	-0.17063396
33	0xbec92120	-0.39283085
34	0xbe5ffbf3	-0.21873455
35	0xbe8161a6	-0.25269812
36	0xbdc3e9c5	-0.095660724
37	0xbe9b10cc	-0.30286252
38	0x3ea08e3d	0.3135852
39	0xbe7991a5	-0.24371965
40	0x3e97145e	0.29507726
41	0xbe919220	-0.28431797
42	0x3e89161d	0.26774684
43	0xbe2085ff	-0.15676115
44	0x3e80a604	0.2512666
45	0xbe92d2f9	-0.28676584
46	0xbe502d44	-0.20329767
47	0xbea3c120	-0.3198328
48	0x3e7713d2	0.24128655
49	0x3e944ab7	0.28963253
50	0xbe44d6b8	-0.19222534
51	0x3e86ae97	0.26305076
52	0x3e902621	0.2815409
53	0xbe4394e5	-0.19099768
54	0x3e7bbbe9	0.24583401
55	0x3e8b18f6	0.2716748
56	0x3e882666	0.26591796
57	0x3e8510c3	0.2598935
58	0xbdf56bcc	-0.11983451
59	0xbe794f4b	-0.24346654
60	0x3e878047	0.26465055
61	0x3e89b676	0.2689702
62	0x3e6689e7	0.22513543
63	0x3e8bc031	0.27295068

_orig_mod.ctr_head.weight f4 [1, 64]
0	0x3eabb1de	0.3353414
1	0xbdb7275e	-0.089430556
2	0xbd9c131f	-0.076208346
3	0x3ebc40e5	0.3676826
4	0xbd9a735f	-0.075415365
5	0x3e86bef1	0.26317552
6	0xbde5f5a9	-0.112284966
7	0xbdbc1460	-0.09183574
8	0xbd9b29c5	-0.07576326
9	0x3ee16c7d	0.44028082
10	0xbe095465	-0.134111
11	0x3ea83265	0.32850948
12	0xbe02b05c	-0.12762588
13	0xbdb09911	-0.08622945
14	0x3ec0b201	0.37635806
15	0x3eb0e3c0	0.3454876
16	0x3ec7ce31	0.390245
17	0x3ec068fe	0.37580103
18	0xbe0cc93e	-0.13748643
19	0xbd87cd8b	-0.06631001
20	0xbe000472	-0.12501696
21	0x3ec4d833	0.38446197
22	0x3eb59446	0.35464686
23	0x3eb7cb57	0.35897323
24	0xbdac37a2	-0.084090486
25	0x3883eb12	6.290352e-05
26	0xbd9ba662	-0.076000944
27	0xbdc59d9e	-0.09649204
28	0xbd9e3097	-0.077241115
29	0xbd95da7a	-0.07317062
30	0xbdc7005f	-0.09716868
31	0x3eade31b	0.3396233
32	0x3eb0f2d3	0.3456026
33	0x3ed15408	0.40884423
34	0x3ebac1e5	0.36476055
35	0x3ec96682	0.3933602
36	0x3ebb8dc9	0.3663161
37	0x3ecfed22	0.40610605
38	0xbd9f8d79	-0.07790656
39	0x3eb7f5f9	0.3592985
40	0xbdc94284	-0.0982714
41	0x3ed0db13	0.4079214
42	0xbdabefa0	-0.08395314
43	0x3ed4a8fb	0.41535172
44	0xbe00728b	-0.12543695
45	0x3eda35d9	0.42619208
46	0x3e9f4060	0.31103802
47	0x3eb569eb	0.35432371
48	0xbda247fb	-0.079238854
49	0xbdc2c516	-0.095102474
50	0x3ec303df	0.3808889
51	0xbdb96e69	-0.09054262
52	0xbd73f51b	-0.059559923
53	0x3ec4d730	0.38445425
54	0xbd906828	-0.07051116
55	0xbdc0eb86	-0.094199225
56	0xbda92306	-0.08258633
57	0xbdfd2491	-0.1236049
58	0x3ed8f15f	0.42371652
59	0x3e886cf3	0.26645622
60	0xbd973228	-0.073826134
61	0xbd9f663b	-0.07783171
62	0xbda26a7b	-0.07930466
63	0xbe0a66e1	-0.13515808
