experiments/exp_20250930_201014/models/best_model_auc0.7141_logloss0.1631_epoch1_20250930_215057.pth (torch, 150962 bytes, 12 tensors)

_orig_mod.embeddings.gender.embedding.weight f4 [5, 16]
0	0x3b96f50f	0.00460685
1	0x3b8b4cd6	0.004251103
2	0xbbd23cbb	-0.006415931
3	0xbc2f2689	-0.01069034
4	0xb9341baf	-0.0001717645
5	0xbc01e8be	-0.007929025
6	0x3b8156e5	0.003947126
7	0x3c0c922e	0.008579774
8	0xbab8bbab	-0.0014094015
9	0xbb734759	-0.0037121384
10	0x3db1f369	0.08689005
11	0xbc01e78f	-0.007928743
12	0xbc97db14	-0.018537082
13	0xbbecd166	-0.0072271107
14	0x3b8748d8	0.0041285567
15	0x3b8e1280	0.0043357015
16	0x3ebe1214	0.37123168
17	0x3e3167b5	0.17324717
18	0xbd44dbee	-0.048061304
19	0xbf0a0bbf	-0.53924173
20	0x3c2855ed	0.010274393
21	0xbf1f139d	-0.621393
22	0x3e54af32	0.20769957
23	0x3f4a54d5	0.79035693
24	0xbdd5161d	-0.104046084
25	0xbe4e8d94	-0.20171195
26	0x3cf5ffe5	0.030029247
27	0xbf59858c	-0.849694
28	0xbf2617b6	-0.6487993
29	0xbdc5f3e7	-0.09665661
30	0x3eb21f26	0.3478939
31	0x3e992f2c	0.29918802
32	0x3dd96f5c	0.10616943
33	0x3e2f3ca2	0.17112973
34	0xbee01039	-0.43762377
35	0xbf883277	-1.0640401
36	0xbbdb4dbf	-0.0066926177
37	0xbe4de6c5	-0.20107563
38	0x3e7704ab	0.24122874
39	0x3e9a944c	0.30191267
40	0xbc7c9cdd	-0.0154182585
41	0xbd865004	-0.065582305
42	0xbddb6f89	-0.10714633
43	0xbe1b70a5	-0.15179689
44	0xbf8e133c	-1.109962
45	0xbf28a8e7	-0.65882725
46	0x3d3b115d	0.045670856
47	0x3d83766a	0.0641907
48	0x99311195	-9.154236e-24
49	0x13df2b97	5.6336097e-27
50	0x80180a17	-2.207671e-39
51	0x99610aca	-1.1634406e-23
52	0x87364a65	-1.3714021e-34
53	0xba00ac05	-0.00049084454
54	0x3dcacdb3	0.09902515
55	0x000782f4	6.89826e-40
56	0x8d8f84b1	-8.845e-31
57	0x34947a03	2.7655923e-07
58	0x00185941	2.23607e-39
59	0x062929dd	3.1816124e-35
60	0x1ba6fda5	2.762631e-22
61	0xb8b64e05	-8.6929685e-05
62	0x30b14f96	1.2901065e-09
63	0x3543cc46	7.294042e-07
64	0x8fbdb81e	-1.8707758e-29
65	0xb1a2c7d0	-4.7375366e-09
66	0x1e13a2ba	7.815766e-21
67	0x8005dc8b	-5.38293e-40
68	0x3aa57580	0.0012623519
69	0x06e2228b	8.506251e-35
70	0xb20418d3	-7.689056e-09
71	0xb2746365	-1.4225269e-08
72	0xb63bcf30	-2.798577e-06
73	0x32f0ac11	2.8017924e-08
74	0x845ad71f	-2.5724556e-36
75	0x2974041d	5.418245e-14
76	0x80017155	-1.32491e-40
77	0x9330f64c	-2.2335757e-27
78	0x07d36ce6	3.1811756e-34
79	0x826d9b8a	-1.7456648e-37

_orig_mod.embeddings.age_group.embedding.weight f4 [15, 16]
0	0x3b04023e	0.0020142938
1	0xbacda8fe	-0.0015690622
2	0x3a1f3c71	0.0006074375
3	0xbbd1ad38	-0.006398823
4	0x3af337bb	0.0018556038
5	0x39fbff51	0.00048064676
6	0xbaf12aec	-0.0018399633
7	0xbb97e441	-0.0046353643
8	0xbad5fbdd	-0.0016325671
9	0xba070dff	-0.0005151927
10	0x3a0189e6	0.0004941508
11	0x3b92bb09	0.0044778627
12	0xbb872d18	-0.0041252486
13	0x3c1909f8	0.009340756
14	0x3bdb4cb6	0.0066924943
15	0xbdd98c69	-0.10622484
16	0xbd493876	-0.04912611
17	0x3cc50484	0.024050005
18	0x3bd07101	0.0063611274
19	0x3d9a7099	0.075410075
20	0x3c203d3f	0.009780227
21	0xbcc0538e	-0.023477342
22	0x3d46eff1	0.04856867
23	0x3d87d16d	0.06631742
24	0x39df502a	0.000425936
25	0xbc41d2cd	-0.011830044
26	0x3d1d9322	0.038470395
27	0xbd986575	-0.074412264
28	0x3d664373	0.05621667
29	0x3d7568e8	0.0599145
30	0xbcf2d59f	-0.029642878
31	0x3ad5c0b7	0.0016308044
32	0x3d9e79d4	0.077380806
33	0xbd0dabf5	-0.03458782
34	0xbc992708	-0.01869537
35	0xbdc4c012	-0.09606947
36	0xbbe03031	-0.0068416824
37	0x3d2a0985	0.041512985
38	0xbd89ebf9	-0.06734461
39	0xbdb6ba12	-0.08922209
40	0x3b805e95	0.003917525
41	0xbb6654c0	-0.003514573
42	0xbd33ec64	-0.04392661
43	0x3dbd749c	0.09250757
44	0xbd97cc7d	-0.0741205
45	0xbda6d64a	-0.08146341
46	0x3e14ce95	0.1453193
47	0xbad1dbbe	-0.0016010923
48	0x3d474c1a	0.04865656
49	0xbd1348d1	-0.035958115
50	0x3b0b6d64	0.0021274919
51	0xbdb9d34a	-0.09073503
52	0xbc699f85	-0.014259224
53	0x3cc70bc3	0.0242976
54	0xbd4c9a8c	-0.049952075
55	0xbdda3d6a	-0.10656245
56	0xbbeb8677	-0.0071876603
57	0x3c86eff0	0.016471833
58	0xbd1a6979	-0.037698243
59	0x3da4be10	0.08044064
60	0xbd7f253f	-0.06229138
61	0xbda2c9d9	-0.07948656
62	0x3e7f4ed0	0.24932408
63	0xbaddbc4e	-0.0016917081
64	0x3da4dcbc	0.08049914
65	0xbd7acc33	-0.061229896
66	0xbd55e2a0	-0.05221808
67	0xbe0c533c	-0.13703626
68	0x3cb637b7	0.022243364
69	0x3d3bd5d0	0.045858204
70	0xbd8ed0ba	-0.06973405
71	0xbe0f7cd9	-0.1401247
72	0xbc0beeb2	-0.008540796
73	0xbd36586e	-0.044517927
74	0xbc836d21	-0.016043248
75	0x3e0a46af	0.13503526
76	0xbde1f81c	-0.11033651
77	0xbde45170	-0.111483455
78	0x3e45219e	0.19251105
79	0xbb5379ed	-0.0032268718
80	0x3d652cdc	0.055950984
81	0xbc7720b9	-0.015083485
82	0x3b74f430	0.0037376992
83	0xbd86a7d3	-0.06574979
84	0xbcac68c5	-0.021046052
85	0x3cb2c766	0.021823596
86	0xbd98c1e0	-0.07458854
87	0xbd7b58a4	-0.06136383
88	0x3bbb3131	0.005712651
89	0x3c443105	0.011974578
90	0xbcdd1e2e	-0.02699193
91	0x3d9ed434	0.07755318
92	0xbe8ccd91	-0.27500585
93	0xbd74e753	-0.05979092
94	0x3e02713d	0.1273851
95	0xba70486a	-0.0009166064
96	0x3f144c73	0.5792915
97	0xbc7e6749	-0.015527555
98	0xbe313051	-0.17303587
99	0xbeca81f8	-0.39552283
100	0xbbdad758	-0.006678503
101	0xbd56a738	-0.052405566
102	0xbd7e50e0	-0.062088847
103	0x3c9c3aec	0.019071065
104	0x3d1a73eb	0.037708204
105	0xbd348974	-0.044076398
106	0xbc00a8c5	-0.007852738
107	0x3eb6f7b1	0.3573585
108	0x3db99423	0.09061458
109	0xbdd51f44	-0.10406354
110	0xbd358d46	-0.044324182
111	0x3b9eb08d	0.004842824
112	0x3eb6f17b	0.3573111
113	0xbe05a48e	-0.13051054
114	0xbef70865	-0.48248592
115	0x3e56d822	0.20980886
116	0xbd89ff9d	-0.067382075
117	0x3dfd0e3a	0.12356229
118	0xbe6bc18f	-0.23023055
119	0x3d2febc3	0.04294945
120	0x3ec193f0	0.3780818
121	0xbee51255	-0.4474055
122	0x3f50f3a2	0.81621754
123	0xbe198cfd	-0.14995189
124	0xbe8a262c	-0.26982248
125	0x3c8f70c2	0.017509822
126	0x3e3fe164	0.18738323
127	0x3a827ec3	0.0009955991
128	0x3d237f7e	0.039916508
129	0xbcce0105	-0.02514697
130	0xbe8b127f	-0.2716255
131	0xbdba4da5	-0.09096841
132	0x3f166cd4	0.5875981
133	0xbbe349f4	-0.006936306
134	0x3e7de065	0.24792631
135	0x3e09fc5f	0.13475178
136	0xbe216136	-0.1575974
137	0xbf20f353	-0.62871283
138	0x3db3f452	0.08786835
139	0xba2492bf	-0.00062779704
140	0xbe1bbfe0	-0.15209913
141	0x3d065ed1	0.032805268
142	0xbe210513	-0.15724592
143	0xba7c060b	-0.00096139376
144	0xb40bfcfc	-1.3037419e-07
145	0x989e464b	-4.091302e-24
146	0x80062eba	-5.67775e-40
147	0x31848c63	3.8576657e-09
148	0x32b1cec0	2.0699531e-08
149	0x398b6003	0.0002658368
150	0x0013c5f4	1.815887e-39
151	0xb11ce84c	-2.2833033e-09
152	0x825922f9	-1.5952679e-37
153	0xad77410e	-1.40547695e-11
154	0x0aacdc03	1.6645757e-32
155	0x9715ba45	-4.83796e-25
156	0x3c0074b9	0.007840329
157	0x347ce170	2.3551343e-07
158	0xafa7687f	-3.0451372e-10
159	0xbbc67949	-0.006056939
160	0x8013457f	-1.769805e-39
161	0x3405ea8b	1.2471916e-07
162	0xb638a686	-2.7515066e-06
163	0xa89bf8c7	-1.7316347e-14
164	0x0020cf45	3.01309e-39
165	0x814397e9	-3.5924834e-38
166	0x8000fe31	-9.1187e-41
167	0x3084912b	9.645523e-10
168	0x8fb121e2	-1.7466599e-29
169	0x0c6578e9	1.7677903e-31
170	0xbb6302b9	-0.0034639074
171	0x000d6cba	1.232865e-39
172	0xba791d6e	-0.00095029816
173	0xbd049d07	-0.032376315
174	0xb94b5261	-0.00019390277
175	0x2a0d53d4	1.25524e-13
176	0x04dbe25a	5.1694524e-36
177	0x9b0a8270	-1.1457239e-22
178	0x0006b705	6.16668e-40
179	0xaadf2339	-3.9637198e-13
180	0xb63cd651	-2.8138932e-06
181	0xa0f783f6	-4.1930752e-19
182	0x80059c6b	-5.1529e-40
183	0x37b68a42	2.1760472e-05
184	0xb6efd22f	-7.1472236e-06
185	0x2768e009	3.2317917e-15
186	0x000df2e5	1.280996e-39
187	0x0006216b	5.63001e-40
188	0x21df3ea5	1.512765e-18
189	0x395a01af	0.00020790727
190	0x00061d0a	5.6143e-40
191	0x28acf9d3	1.920418e-14
192	0x0abbce91	1.8085147e-32
193	0xa2426489	-2.6345126e-18
194	0xac6220d9	-3.2134766e-12
195	0x35c10f37	1.4384049e-06
196	0x35a60184	1.2368405e-06
197	0x15896b0b	5.5502743e-26
198	0x2fb7b311	3.341474e-10
199	0x000008ad	3.112e-42
200	0x344426e7	1.8268075e-07
201	0x338b6476	6.4909656e-08
202	0x3c53a30b	0.01291729
203	0x3d6a2b85	0.05717041
204	0x0489462a	3.227298e-36
205	0x379564bd	1.7809094e-05
206	0x3938dd4e	0.0001763005
207	0x885c23c8	-6.6245902e-34
208	0xb1cbe1da	-5.933754e-09
209	0x001932a1	2.31405e-39
210	0x00050553	4.61087e-40
211	0xb58fe30e	-1.0720412e-06
212	0xb3e57d20	-1.06864036e-07
213	0x805294d1	-7.583896e-39
214	0x8005d7a0	-5.36529e-40
215	0x80060c9f	-5.5554e-40
216	0x388e8786	6.796331e-05
217	0xb439e1b9	-1.7311585e-07
218	0x36c7998d	5.948538e-06
219	0xa8969108	-1.6716243e-14
220	0x3c84952e	0.016184416
221	0x80019bfc	-1.47792e-40
222	0xbb9eb41d	-0.0048432485
223	0xac16ab91	-2.141152e-12
224	0x9c71280a	-7.979196e-22
225	0x00063684	5.7057e-40
226	0x0005cb67	5.32144e-40
227	0x39ef1662	0.0004560231
228	0xafbe604b	-3.462922e-10
229	0xb66edded	-3.5593941e-06
230	0x0ba634ee	6.4020514e-32
231	0x350254e6	4.855232e-07
232	0x005b4948	8.383319e-39
233	0xbc541b80	-0.01294601
234	0x8943bafa	-2.3560187e-33
235	0xaa50f422	-1.8558812e-13
236	0xa6555369	-7.401226e-16
237	0xb1d0ab5b	-6.0730776e-09
238	0x3aee1ac3	0.0018165935
239	0x370364dd	7.8316925e-06

_orig_mod.embeddings.inventory_id.embedding.weight f4 [50, 16]
0	0xbe59dd6d	-0.21275873
1	0xbd74d39e	-0.059772126
2	0x3cea1750	0.02857557
3	0xbdd1adf1	-0.10238255
4	0x3e47780c	0.19479388
5	0x3dcde2bd	0.100530125
6	0xbcc30077	-0.023803933
7	0x3d60d894	0.054894045
8	0xbe82d397	-0.25552055
9	0x3d66236f	0.056186136
10	0xbe1524c2	-0.14564803
11	0xbe9bdc38	-0.3044145
12	0x3d23d071	0.039993707
13	0xbab789d1	-0.0014002864
14	0xbc36fae1	-0.011168213
15	0x3e04d0cb	0.12970273
16	0xbd261440	-0.040546656
17	0xbc3e156f	-0.01160179
18	0x3c20be59	0.009811007
19	0xbe8fb639	-0.28068712
20	0x3d68dc9e	0.056851022
21	0x3c739dba	0.014869148
22	0x3bc057c6	0.0058698384
23	0x3babcdf7	0.005243059
24	0xbd49e095	-0.049286444
25	0x3aa64ec9	0.0012688275
26	0xbcb062c4	-0.02153147
27	0xbd6e8149	-0.058228765
28	0x3bfe0707	0.0077523026
29	0x3b83e32a	0.004024883
30	0x3d86375c	0.06553528
31	0x3c2ee4ce	0.0106746685
32	0xbcac94cc	-0.021067046
33	0xbdedd22f	-0.11612355
34	0x3d8c53c3	0.06851914
35	0xbc260e56	-0.010135254
36	0x3eae204a	0.3400901
37	0x3e78626b	0.24256293
38	0x3d148403	0.03625871
39	0x3e0358da	0.12826863
40	0xbed343df	-0.4126272
41	0x3dae8cbe	0.08522938
42	0xbeb00487	-0.34378454
43	0xbf157002	-0.58374035
44	0x3dd35011	0.10318006
45	0x3e17d314	0.14826614
46	0xbd9b175a	-0.07572813
47	0x3e85982c	0.2609266
48	0xbb847d76	-0.0040432764
49	0xba0a779b	-0.0005282105
50	0x3ab6ad52	0.0013937152
51	0xbb309795	-0.0026945819
52	0x3b706f96	0.0036687604
53	0x3b4cbce0	0.0031240508
54	0x3801c9ea	3.0944044e-05
55	0x39aca23f	0.0003292728
56	0xbbd0b2b1	-0.006368958
57	0x3a44ab65	0.00075023464
58	0xbb665e69	-0.0035151488
59	0xbbe35db6	-0.0069386614
60	0x3a4a18d2	0.0007709387
61	0x390f0c4b	0.00013642122
62	0xb9fdbe1f	-0.00048397572
63	0x3b059f75	0.0020389233
64	0xbe865794	-0.26238692
65	0xbca26296	-0.0198224
66	0x3cd122e6	0.025529336
67	0xbe00c2f5	-0.1257437
68	0x3dcf4378	0.101202905
69	0xbc99d0b7	-0.01877628
70	0xbcb0cfb4	-0.021583416
71	0x3c4e6ba8	0.012598909
72	0xbda2ab4f	-0.07942831
73	0x3c3fe277	0.011711708
74	0xbdcb7c34	-0.09935799
75	0x3d0b2985	0.033975143
76	0x3c95a9a3	0.018269366
77	0xbcfbefbb	-0.03075396
78	0xbd0a206c	-0.033722326
79	0x3d3600ee	0.04443448
80	0xbe53e3b5	-0.20692332
81	0x3d32d945	0.043664236
82	0x3c32c029	0.010910072
83	0xbc90b4f1	-0.017664405
84	0x3ababcd9	0.0014246955
85	0x3ce54747	0.02798809
86	0xbb45eaa5	-0.0030199673
87	0xbda03f65	-0.078245915
88	0xbd20c781	-0.03925276
89	0x3c9ccafa	0.019139756
90	0x3c75a59d	0.014993099
91	0x3c01d2b4	0.007923771
92	0xbd52a897	-0.05143031
93	0xbd361e0d	-0.044462252
94	0x3d42b11f	0.047532197
95	0xbdabfaa8	-0.08397418
96	0xbd3bedd3	-0.045881104
97	0xbde1e257	-0.11029499
98	0x3cd09676	0.02546237
99	0xbd823a92	-0.06358828
100	0x3e68e081	0.22741891
101	0x3e7bb062	0.24579003
102	0x3c0c88da	0.00857755
103	0x3de811b4	0.113315016
104	0xbe584e6c	-0.21123666
105	0x3d16c64e	0.03681021
106	0xbdd306a6	-0.103040025
107	0x3e1f82ef	0.15577291
108	0x3d8ed490	0.06974137
109	0x3e603fb5	0.21899302
110	0xbd0ca6b5	-0.03433867
111	0x3e992d99	0.299176
112	0xbe3adcbb	-0.18248264
113	0x3d0e242d	0.03470247
114	0x3de0e950	0.10982001
115	0x3d73e0f0	0.05954069
116	0xbbe864a7	-0.007092077
117	0xbd6d4b4a	-0.05793313
118	0x3d518519	0.051152322
119	0xbd45dcc1	-0.04830623
120	0x3c88a8f3	0.016682124
121	0xbe8089dd	-0.2510518
122	0xbe380d4a	-0.1797382
123	0x3ed1d0a3	0.4097949
124	0xbc09406b	-0.008377175
125	0x3e8f3065	0.2796661
126	0x3d230b87	0.039805915
127	0xbea47d0d	-0.32126656
128	0xbe23c202	-0.15991977
129	0xbc6023b4	-0.013680387
130	0x3c3b2d01	0.011424304
131	0xbc1e1a12	-0.00964977
132	0x3d151d81	0.03640509
133	0x3caa5047	0.020790232
134	0x3a10f159	0.00055291277
135	0x3baf93f7	0.005358215
136	0xbd47c5db	-0.048772674
137	0x3beb0145	0.007171782
138	0xbcd96efd	-0.026542181
139	0xbd5aa5d3	-0.0533808
140	0x3bb67d08	0.005569104
141	0x3b580a1b	0.0032965008
142	0xbb8b6c39	-0.0042548445
143	0x3c988d08	0.018621936
144	0x3e2bd002	0.16778567
145	0x3d9ca8f4	0.07649413
146	0xbd66e8c7	-0.056374338
147	0x3dc6e46d	0.097115375
148	0xbe2d19eb	-0.16904418
149	0xbdd852a4	-0.105626374
150	0xbc43e39e	-0.011956124
151	0xbd9e0146	-0.07715087
152	0x3ebc7e4a	0.368151
153	0x3e28c9ab	0.1648318
154	0x3e16a198	0.1471008
155	0x3e4cc380	0.19996452
156	0xbd8982d6	-0.06714408
157	0xbd902844	-0.0703893
158	0x3cd21ad8	0.025647566
159	0xbdc7126e	-0.09720312
160	0x3ed68ed5	0.41905847
161	0x3d2d7800	0.04235077
162	0x3dad72a4	0.084691316
163	0x3d2e19af	0.042504963
164	0xbdb20968	-0.086932
165	0xbafc0ee8	-0.0019230517
166	0x3a8589e5	0.001018819
167	0xbd531fed	-0.05154412
168	0x3d1cf170	0.03831619
169	0x3c2da046	0.010597294
170	0x3e6197ed	0.22030611
171	0x3b8e5c17	0.004344474
172	0xbd28ef3b	-0.041243773
173	0x3b315d50	0.0027063675
174	0x3cd379f7	0.025814993
175	0x3ef29962	0.47382647
176	0x3c84f754	0.016231216
177	0xbd8fc2da	-0.07019587
178	0x3cb4f6ea	0.022090394
179	0xbcb3de9b	-0.021956732
180	0x3e0ff25c	0.14057297
181	0x3d2c7ca8	0.04211107
182	0x3c8cd386	0.017190706
183	0x3db95a61	0.090504415
184	0xbe031a87	-0.12803088
185	0x3c821da0	0.015883267
186	0xbdc919c2	-0.09819366
187	0xbdd10dbe	-0.10207699
188	0x3dbad1c3	0.0912204
189	0x3d7214d9	0.059101913
190	0xbd39d629	-0.045370255
191	0x3dfef32c	0.12448725
192	0x3a97ddab	0.0011586448
193	0xbcd86d6a	-0.02641936
194	0x3c7d5ef7	0.015464536
195	0xbd74a78c	-0.059730098
196	0x3e3b1cbe	0.18272683
197	0x3d18806c	0.037231848
198	0x3ab6a2a4	0.0013933969
199	0x3e0263fb	0.12733452
200	0xbd920b43	-0.07131054
201	0x3cb696ff	0.022288797
202	0xbcc7d435	-0.02439318
203	0xbe1ecd46	-0.15507993
204	0x3cae3d6f	0.021269528
205	0x3c884bb4	0.01663766
206	0xbd758f15	-0.059950907
207	0xbd596f10	-0.053084433
208	0xbdb0b8d9	-0.08629007
209	0xbcfa76c1	-0.030574204
210	0x3c6fbe3d	0.014632759
211	0xbd3fe87a	-0.046852566
212	0x3dc074f3	0.09397306
213	0x3d5447bc	0.051826224
214	0xbca28fe4	-0.019844003
215	0x3cea02ce	0.02856579
216	0xbdfbe253	-0.12299027
217	0x3c9d5399	0.019204902
218	0xbd8df92c	-0.069322914
219	0xbe0238e1	-0.1271701
220	0x3cc2a4fd	0.023760313
221	0x3c00f64b	0.007871221
222	0xbc71f268	-0.014767267
223	0x3d8a1789	0.0674277
224	0x3e13ed28	0.14445937
225	0x3d270950	0.040780365
226	0xbd3768b0	-0.044777572
227	0x3d340547	0.043950345
228	0xbdf787f2	-0.120864764
229	0xbca91dcf	-0.020644097
230	0xbcac59de	-0.021038946
231	0xbcba41b1	-0.022736402
232	0x3e5d24bc	0.21596044
233	0xbd635247	-0.055498388
234	0x3d471d07	0.048611667
235	0x3e740374	0.23829442
236	0xbcf9a7a5	-0.030475447
237	0xbd34e683	-0.044165146
238	0xbb5aab58	-0.003336629
239	0xbc828dbe	-0.015936729
240	0xbcbfa04d	-0.023391867
241	0x3c5f2dc8	0.013621755
242	0xbb0a191c	-0.0021072095
243	0x3c6c1587	0.014409429
244	0xbc8e85ad	-0.017397726
245	0xbc13df4c	-0.009025406
246	0x3d2a25d8	0.041539997
247	0xbca3342c	-0.019922338
248	0x3b5d3596	0.0033753864
249	0xbb42754f	-0.0029671972
250	0x3c8af325	0.016961643
251	0x3c398004	0.011322025
252	0xbc4ec38d	-0.012619865
253	0x3a84d5c0	0.0010134503
254	0x3c7b53ec	0.015339833
255	0xbd0e9e1d	-0.034818757

_orig_mod.embeddings.day_of_week.embedding.weight f4 [10, 16]
0	0xbda64075	-0.08117763
1	0xbc753807	-0.014966971
2	0xbd16d25e	-0.036821716
3	0xbb2ed400	-0.0026676655
4	0x3d520c3c	0.0512812
5	0xbc8c5ee7	-0.017135097
6	0x3ce2b2eb	0.027673205
7	0xbc1d3c55	-0.009596904
8	0xbd1aa5c3	-0.03775574
9	0x3e3b1d29	0.18272842
10	0xbd8bd5e0	-0.06827903
11	0x3d031531	0.03200263
12	0x3f5b6e23	0.8571493
13	0x3d66b770	0.056327283
14	0x3cd93f9a	0.026519585
15	0x3d20a586	0.039220355
16	0x3cbdaf6a	0.023154933
17	0x3cc40df0	0.023932427
18	0xbc4ad2ef	-0.012379392
19	0x3d876f5f	0.06613039
20	0xbcdf5c1f	-0.027265606
21	0x3cd67ce2	0.026182596
22	0xbbeaef63	-0.0071696504
23	0xbc76684f	-0.015039518
24	0x3de825e7	0.11335354
25	0x3ea3f89b	0.32025608
26	0xbe40e822	-0.18838552
27	0xbcbba9f5	-0.02290819
28	0x3e572150	0.21008801
29	0x3dde6ca5	0.10860566
30	0xbc3aa93b	-0.011392887
31	0x3d4e1a6f	0.050318178
32	0x3c90ce06	0.017676365
33	0x3b37d059	0.002804777
34	0x3b35d07a	0.002774267
35	0xbe3641b7	-0.17798506
36	0x3df8a4c8	0.121408045
37	0xbd889720	-0.0666945
38	0x3d0bedcc	0.034162328
39	0xbd0f8ebf	-0.035048243
40	0xbd0a4dd0	-0.033765614
41	0x3d539cfd	0.051663388
42	0xbd4b7050	-0.049667656
43	0x3cac4a09	0.021031396
44	0x3eabb86e	0.33539146
45	0xbdcfe683	-0.101513885
46	0x3da20069	0.079102345
47	0x3d9b6b75	0.07588855
48	0xbde37112	-0.11105551
49	0x3c2ecce4	0.010668967
50	0xbb899a86	-0.004199329
51	0xbd778862	-0.0604328
52	0x3d7a669b	0.06113301
53	0xbdf749fd	-0.12074659
54	0x3d469b78	0.04848811
55	0xbd87c3af	-0.066291206
56	0xbde20e8c	-0.11037931
57	0x3e6e1f12	0.2325404
58	0xbd5d221a	-0.0539876
59	0x3dfcd03e	0.123444065
60	0x3e1af699	0.15133132
61	0x3d045074	0.03230329
62	0x3ce6e8d4	0.028187193
63	0x3d46fb85	0.04857971
64	0x3b7396be	0.0037168707
65	0xbd082263	-0.03323592
66	0xbdc979a6	-0.09837656
67	0x3be56c14	0.0070014093
68	0xbc953604	-0.018214233
69	0xbdb76aaf	-0.08955895
70	0xbcd0273c	-0.025409333
71	0xbc186848	-0.009302206
72	0xbcf3d93a	-0.029766668
73	0xbdc3f987	-0.09569078
74	0xbbf29772	-0.0074033076
75	0x3e6101e6	0.2197338
76	0x3f12297a	0.5709454
77	0x3d03d7f6	0.03218838
78	0xbaf137b0	-0.0018403437
79	0xbb7d90da	-0.0038691075
80	0xbd588da8	-0.05286947
81	0xbe0715bd	-0.13191886
82	0xbc193548	-0.009351082
83	0xbc36b2c2	-0.011151018
84	0x3d93168f	0.07182037
85	0xbdcf51cb	-0.10123023
86	0x3bf313ef	0.0074181478
87	0xbddb0e22	-0.10696055
88	0xbe405614	-0.18782836
89	0x3e3f84a6	0.18702945
90	0xbea63634	-0.3246323
91	0x3d0d0cdf	0.034436103
92	0x3d22ae17	0.039716806
93	0x3da4d902	0.080492035
94	0x3d0280c7	0.031861093
95	0x3dd10264	0.10205534
96	0xbd10448b	-0.035221618
97	0xbc256bd4	-0.010096509
98	0xba8176eb	-0.0009877359
99	0xbf1ab969	-0.60439163
100	0x3d6d90f7	0.057999577
101	0x3d828ba0	0.063742876
102	0x3d0573e0	0.03258121
103	0xbd3314c5	-0.04372098
104	0xbd514915	-0.051095087
105	0x3c80b979	0.01571344
106	0xbd6681e5	-0.05627622
107	0x3cccdafc	0.025006764
108	0xbd7f8693	-0.0623842
109	0x3ed373a8	0.41299176
110	0x3c37939c	0.011204626
111	0x3e38ef22	0.18059972
112	0xb80e5682	-3.3936005e-05
113	0xbb2c21fe	-0.0026265378
114	0x02e3b3f7	3.3457947e-37
115	0x030f584c	4.2125283e-37
116	0x3a82ca25	0.0009978457
117	0x3a4b4cd2	0.00077552826
118	0xbb5a084b	-0.0033269103
119	0x0005767f	5.01686e-40
120	0x80303032	-4.425393e-39
121	0x82678bf3	-1.7011363e-37
122	0xb8c09d55	-9.184579e-05
123	0xaca0e1d1	-4.572544e-12
124	0xb72eccb8	-1.0418873e-05
125	0x020d815b	1.0396167e-37
126	0xaac2285a	-3.4489322e-13
127	0x37544206	1.2651557e-05
128	0x91b527e0	-2.858134e-28
129	0xae44c6ab	-4.4741693e-11
130	0x83832bc0	-7.7095325e-37
131	0xb8dd07cb	-0.00010539553
132	0x801a9174	-2.439902e-39
133	0x384f7833	4.946459e-05
134	0xb876bb74	-5.882555e-05
135	0xb04eb06a	-7.5193063e-10
136	0xb504fc32	-4.9540824e-07
137	0x3a60a11f	0.0008568931
138	0x1c40f595	6.384488e-22
139	0x270f8015	1.991467e-15
140	0x000665a5	5.87476e-40
141	0x00074ffa	6.71539e-40
142	0x3b07014b	0.0020600136
143	0x8802d099	-3.9365657e-34
144	0x8e83ea06	-3.251935e-30
145	0x3ca7ecff	0.02049875
146	0x0004644e	4.03325e-40
147	0x2f2311ac	1.4831042e-10
148	0xb73de012	-1.1317448e-05
149	0xb42152f7	-1.5024476e-07
150	0xb183be4c	-3.834236e-09
151	0x3b0b4235	0.002124918
152	0xbc183df8	-0.009292118
153	0x883362dc	-5.398206e-34
154	0x1c8ecd31	9.449812e-22
155	0xad741f94	-1.3876806e-11
156	0x38b31e56	8.541036e-05
157	0x354a8cab	7.5455563e-07
158	0x379e6d6e	1.8886025e-05
159	0x96b65875	-2.945951e-25

_orig_mod.embeddings.hour.embedding.weight f4 [30, 16]
0	0x3b8f568b	0.0043743304
1	0xbc3f368c	-0.01167072
2	0x3c8bf9b2	0.017086837
3	0xb96fc5db	-0.00022866523
4	0x3e7d3438	0.24726951
5	0xba5e9b7e	-0.0008491798
6	0x3b2dc593	0.0026515468
7	0xba956963	-0.0011399206
8	0xbcf505fb	-0.029910078
9	0xbc7a3100	-0.015270472
10	0x3c5cb930	0.0134718865
11	0x3a9171a0	0.0011096485
12	0x3c07bbf4	0.008284558
13	0x3bbb7660	0.0057208985
14	0xbbc0c178	-0.0058824383
15	0xbad2eb61	-0.0016091877
16	0x3b85f738	0.0040883087
17	0xbcdc0d76	-0.026861887
18	0x3ce3a333	0.02778778
19	0xba66e9d9	-0.000880865
20	0x3d1696d6	0.036764942
21	0xbcbee342	-0.023301724
22	0x3bdcd269	0.00673895
23	0x3ac8df2c	0.00153253
24	0x3d000de7	0.03126326
25	0xbd0a4f97	-0.03376731
26	0x3d0e30b2	0.03471441
27	0x3c4aa745	0.012368982
28	0x3c98871f	0.018619118
29	0x3c67d2b6	0.0141493585
30	0xbcb28c76	-0.021795493
31	0xbc80d808	-0.015728012
32	0x3ac316ce	0.0014884116
33	0xbbe3ad81	-0.0069481735
34	0x3b2acd58	0.0026062336
35	0xb8fdb2c9	-0.000120972814
36	0x3ba3ac55	0.004994909
37	0xbb3dd4b6	-0.0028965897
38	0xb9f60e49	-0.0004693142
39	0xb956ec35	-0.00020496624
40	0x3b73433c	0.0037118932
41	0xbb09c35c	-0.0021020984
42	0x3bcc6834	0.006238008
43	0x3baabafa	0.0052102776
44	0x3b495e12	0.0030726236
45	0x3b51d0da	0.0032015354
46	0xbbcf6916	-0.006329666
47	0xbac2a14d	-0.0014849097
48	0x39d5a3b1	0.00040748485
49	0x3be9afc1	0.007131547
50	0xbbdeb9d3	-0.0067970543
51	0xb889bdfb	-6.568056e-05
52	0xbbc2c010	-0.005943306
53	0x3c0f2783	0.008737448
54	0xbb608db2	-0.0034264144
55	0xba31aeab	-0.0006778042
56	0xbb0b6dc6	-0.0021275147
57	0x3b5f4193	0.0034066185
58	0xbbbab7e7	-0.0056981924
59	0xbaf911db	-0.0019002514
60	0xbb0c756f	-0.00214323
61	0xbb440b39	-0.0029913916
62	0x3b826f77	0.003980573
63	0x3bf44f17	0.0074557173
64	0x39c18f0e	0.00036918413
65	0xbb621aae	-0.0034500766
66	0x399ee74e	0.00030308444
67	0xb8244645	-3.916609e-05
68	0x3ba4bc40	0.005027324
69	0x38807206	6.124754e-05
70	0xbba0a0ea	-0.004901995
71	0xba18d8a2	-0.00058306206
72	0x3b12d38d	0.0022403926
73	0xbb558a80	-0.0032583773
74	0x3bc83d84	0.006110849
75	0xbbab8a3f	-0.005234986
76	0xbb4c0ded	-0.003113623
77	0xbaebcc07	-0.0017989882
78	0xbb460c9b	-0.0030219916
79	0x3b7fd6a3	0.0039037846
80	0x3b52b519	0.00321514
81	0xbd17fe91	-0.037108008
82	0x3d4434af	0.047901805
83	0xba309621	-0.0006736238
84	0x3d6ff4c8	0.05858305
85	0xbd2212e8	-0.03956881
86	0x3c934706	0.017978203
87	0xb9689c23	-0.0002218341
88	0x3d3b90c6	0.045792364
89	0xbc836f5c	-0.016044311
90	0x3d418333	0.047244262
91	0x3cbdbad0	0.023160368
92	0xbca80737	-0.020511253
93	0x3ca8fca9	0.02062829
94	0xbc83ce5a	-0.016089607
95	0xbd1489d2	-0.03626425
96	0x3d7cd5e4	0.06172742
97	0x3c05b133	0.008159923
98	0xbbff57cc	-0.0077924486
99	0xba7c0476	-0.0009613702
100	0xba1f9d47	-0.0006088805
101	0x3bfec812	0.007775315
102	0xbb550bdb	-0.0032508287
103	0x3a620ed5	0.0008623426
104	0xbbd78181	-0.0065767174
105	0x3c66eebc	0.014095005
106	0xbc063394	-0.008191008
107	0xbb648574	-0.0034869583
108	0xbc769456	-0.0150500145
109	0xbb84f7dd	-0.004057868
110	0x3b87119b	0.004121972
111	0x3bbcb727	0.005759138
112	0x3cd49ad5	0.025952736
113	0xbc670e46	-0.014102524
114	0xbcd91c16	-0.02650265
115	0xba0d96f2	-0.0005401216
116	0x3cc2d064	0.023781009
117	0xbc248fbe	-0.010044036
118	0x3bb84aa1	0.005624131
119	0x3aabf6b5	0.0013119789
120	0x3c06d940	0.008230507
121	0x3e5eebfc	0.21769708
122	0x3bbf51a0	0.005838588
123	0x3bf63f9c	0.007514907
124	0x3bc980ee	0.006149403
125	0x3be9eb6b	0.0071386597
126	0xbb333ee2	-0.0027350713
127	0xbc26a726	-0.010171687
128	0x38364274	4.345407e-05
129	0x3da2a0c6	0.07940821
130	0xbdaa1e06	-0.08306508
131	0x3b0b43b2	0.0021250066
132	0xbdc9af1e	-0.09847854
133	0x3ddecd67	0.10879021
134	0xbd030a62	-0.031992324
135	0x3b221a9e	0.0024735103
136	0xbdae9649	-0.08524758
137	0x3db84090	0.08996689
138	0xbdc5556a	-0.09635432
139	0xbd1c9d9c	-0.038236246
140	0xbd89d259	-0.06729574
141	0xbd336270	-0.04379505
142	0x3cf3c8f6	0.029758912
143	0x3d88ca1d	0.06679175
144	0xba8047ed	-0.000978706
145	0x3d04035e	0.032229774
146	0xbd1d5a22	-0.038416035
147	0xb7ebbc15	-2.8101766e-05
148	0xbcfe4a5d	-0.031041319
149	0x3d083e5b	0.03326259
150	0xbc27492f	-0.010210319
151	0x3a49c031	0.000769618
152	0xbd44d489	-0.04805425
153	0x3d481738	0.048850268
154	0xbd4e4a85	-0.050364036
155	0xbc2e290a	-0.010629902
156	0xbceb9114	-0.028755702
157	0xbc6f3afa	-0.014601463
158	0x3c8226ae	0.015887585
159	0x3c6f7941	0.0146163115
160	0xbb7249f4	-0.003697035
161	0x3d7753fb	0.060382824
162	0xbd82f07d	-0.06393526
163	0x3a252dc0	0.0006301068
164	0xbd8ee6c4	-0.06977609
165	0x3d6f5a53	0.05843575
166	0xbc901b75	-0.017591218
167	0x395fd71e	0.00021347075
168	0xbd8dc6e7	-0.06922703
169	0x3da85340	0.08219004
170	0xbd9f5835	-0.07780496
171	0xbca7a089	-0.020462291
172	0xbd2c13e4	-0.042011157
173	0xbcf2bc04	-0.029630668
174	0x3ca26c3d	0.019827003
175	0x3cfdc4ad	0.030977571
176	0xbb8bf099	-0.004270625
177	0x3d3bebab	0.045879047
178	0xbd589151	-0.05287296
179	0x3919726d	0.00014633844
180	0xbd827016	-0.06369035
181	0x3d3ad58e	0.045613818
182	0xbc50cfd1	-0.01274486
183	0xba277129	-0.00063874066
184	0xbd6d2817	-0.05789956
185	0x3d862ea5	0.065518655
186	0xbd866f84	-0.06564239
187	0xbc85d9a5	-0.016339133
188	0xbd1d254b	-0.038365643
189	0xbcb9c77c	-0.02267813
190	0x3c7687d7	0.015047035
191	0x3cbeea5b	0.023305109
192	0xbb5e8fba	-0.003396018
193	0x3d377143	0.04478575
194	0xbd49fbd2	-0.04931242
195	0x3a7dfb6d	0.00096886494
196	0xbd5684aa	-0.052372612
197	0x3d2cd29f	0.04219305
198	0xbc4aba39	-0.0123735005
199	0xbaeb3e1f	-0.0017947591
200	0xbd6332cf	-0.055468377
201	0x3d795da7	0.06088033
202	0xbd723c8c	-0.059139773
203	0xbc96513d	-0.018349284
204	0xbd2775c0	-0.04088378
205	0xbccf3ac6	-0.02529658
206	0x3cb99e47	0.02265848
207	0x3c9792ce	0.01850262
208	0xbaf2bbec	-0.001851914
209	0xbb8e229b	-0.0043376214
210	0x3b958cf6	0.004563923
211	0x39009c2d	0.00012265211
212	0x3c0207e2	0.00793645
213	0xbb87c9d3	-0.0041439324
214	0x3aeee97e	0.0018227545
215	0xbacd09f0	-0.001564322
216	0xba524ed2	-0.00080226094
217	0xbaa8671b	-0.0012848111
218	0xbc1c11de	-0.009525744
219	0x3b9f3d73	0.0048596202
220	0x3a00956b	0.00049050775
221	0x3bc5656f	0.0060240547
222	0x3be3143d	0.006929903
223	0xbbe54f15	-0.0069979527
224	0xbad1c94e	-0.0016005428
225	0xbc8c4ed9	-0.017127441
226	0x3c61c347	0.013779468
227	0x39960281	0.00028612095
228	0x3c40af37	0.0117605245
229	0xbc66250b	-0.014046918
230	0x3b960dd0	0.0045792833
231	0x3b260250	0.0025330968
232	0x3c08beaa	0.008346239
233	0xbc23c210	-0.009994999
234	0x3c10b902	0.008833172
235	0x3bbab6a8	0.005698044
236	0x3c2f1805	0.010686879
237	0x3b95020b	0.0045473627
238	0xbb8ac6ff	-0.004235148
239	0xbca9d38e	-0.02073076
240	0x3b9bda90	0.0047562793
241	0xbd5c18a0	-0.05373442
242	0x3d3b0c67	0.045666125
243	0x3ad7b9de	0.0016458591
244	0x3d46801c	0.04846202
245	0xbd25fd51	-0.040524784
246	0x3c6bbaba	0.014387781
247	0x3b92d91b	0.0044814474
248	0x3d586ad9	0.052836273
249	0xbd5e3933	-0.05425377
250	0x3d56a572	0.052403875
251	0x3c998bd4	0.018743433
252	0x3d072a22	0.032999165
253	0x3cdb9c12	0.026807819
254	0x3b479210	0.003045205
255	0xbccfb67c	-0.02535557

_orig_mod.dense_proj.weight f4 [64, 113]
0	0x3bd1ff00	0.006408572
1	0x3c54e07d	0.012992975
2	0x3b6102a6	0.0034333854
3	0xbc36c91c	-0.011156347
4	0x3b85cb29	0.0040830565
5	0xbbbba28c	-0.005726164
6	0xbd1afaa6	-0.037836693
7	0x3cb5c080	0.022186518
8	0x3c602862	0.013681503
9	0xbca92574	-0.020647742
10	0xb9282e36	-0.00016038943
11	0xbae28657	-0.0017282468
12	0xbc914872	-0.01773474
13	0x3c266220	0.010155231
14	0xbc34dfbe	-0.011039672
15	0xbc6e3413	-0.014538783
16	0xbc551432	-0.013005303
17	0xbca900c9	-0.020630257
18	0x3ccd5671	0.025065633
19	0x3b91659a	0.0044371607
20	0x3c0af4d2	0.008481221
21	0xbc9a22b8	-0.018815383
22	0xbc3320e6	-0.010933137
23	0x3c0addc1	0.008475722
24	0x3d0fbb03	0.035090458
25	0xbc530629	-0.012879887
26	0xbcd3f2f3	-0.025872683
27	0xbcc06648	-0.023486272
28	0xbc3dfa84	-0.011595372
29	0xbb93ac03	-0.0045065894
30	0xba6b16f8	-0.0008967961
31	0x3c3ecc7f	0.011645435
32	0x3c64ab01	0.013956786
33	0xbcc84007	-0.024444593
34	0xbc0be60a	-0.008538732
35	0x3c751a9c	0.014959957
36	0x3a4f13b1	0.00078993576
37	0x3bdb08a6	0.0066843806
38	0xbd073e97	-0.033018675
39	0x3bff1afc	0.007785199
40	0x3b9aef76	0.004728253
41	0xbd047674	-0.03233953
42	0x3b84a896	0.0040484173
43	0x3b8f4829	0.004372616
44	0xbc1f0bd1	-0.009707407
45	0x3c48ebde	0.012263266
46	0x3c4f4ecd	0.012653065
47	0xbcc3471f	-0.023837624
48	0xbc5e4eeb	-0.01356862
49	0xb6d37bb0	-6.302689e-06
50	0x3ae94681	0.0017797501
51	0xbc9a2eed	-0.018821204
52	0x3b06013b	0.002044751
53	0xbc9c3213	-0.019066846
54	0x3c648a20	0.013948947
55	0x3c2e58ed	0.010641319
56	0xbc8a4a98	-0.016881272
57	0x3c3ac915	0.011400481
58	0x3c936b30	0.017995447
59	0xbcbe9a1d	-0.023266846
60	0x3bef37f2	0.0073003704
61	0xbb4d57e8	-0.0031332914
62	0xbc13426b	-0.008988003
63	0x3b11b6c9	0.0022234193
64	0xbc3d11e8	-0.011539914
65	0xbbe82679	-0.0070846644
66	0xbbbc3ca2	-0.0057445327
67	0x3c8926c3	0.016742116
68	0xbd4632b6	-0.048388205
69	0x3b80d0e5	0.003931152
70	0xbbaedd9d	-0.005336477
71	0xbc31636c	-0.010826927
72	0xbc670bdc	-0.014101949
73	0x3ca95dab	0.020674547
74	0xbb3ac072	-0.0028496054
75	0x3ab39f90	0.001370417
76	0xbc42506e	-0.011859996
77	0xbc13c31d	-0.009018687
78	0x3d0915df	0.033468124
79	0xbbc42bef	-0.0059866826
80	0xbbb364cf	-0.005474664
81	0xbab46fd1	-0.0013766234
82	0x3ab2110f	0.0013585406
83	0xbc4369f6	-0.0119271185
84	0xbc93b830	-0.018032163
85	0xbbdcee1b	-0.0067422516
86	0xbb35b40d	-0.0027725727
87	0xbb572d66	-0.0032833456
88	0xba48863e	-0.0007649398
89	0xbb887ac5	-0.004165026
90	0xbb1a134e	-0.0023510042
91	0x3a95c37d	0.0011426058
92	0xbba181f0	-0.00492882
93	0xbb758c48	-0.0037467647
94	0xbb8c5b69	-0.004283358
95	0xb9493c92	-0.00019191418
96	0xbbb83302	-0.005621315
97	0xbb2d04d7	-0.002640059
98	0xbb2c80e0	-0.0026321933
99	0xbc06026a	-0.0081792865
100	0xbb9917d2	-0.004672029
101	0xbb0b2d13	-0.0021236583
102	0xbb2a5bdd	-0.0025994696
103	0xba3e72d2	-0.00072650344
104	0xbbacf04b	-0.0052776686
105	0xbb3fb061	-0.0029249417
106	0xbb6dcab5	-0.0036284153
107	0xb9af7690	-0.00033466937
108	0xbb135295	-0.0022479643
109	0xba2c672b	-0.00065766525
110	0xbb0214e0	-0.0019848868
111	0xbb741f7e	-0.0037250216
112	0xbc89d928	-0.016827181
113	0xbc2501b0	-0.010071203
114	0x3ca5d6bf	0.020244
115	0x3d194fa0	0.037429452
116	0xbb8379c9	-0.0040123207
117	0x3c6ef0df	0.014583795
118	0xbb895079	-0.0041905013
119	0x3b0a897d	0.0021139078
120	0x3c8830c8	0.016624823
121	0x38ddc280	0.0001057433
122	0x3bcfa3a9	0.0063366485
123	0x3cd775bb	0.026301255
124	0xbab9a255	-0.0014162759
125	0x3c060313	0.008179444
126	0xbc1f75de	-0.009732692
127	0x3c418139	0.011810594
128	0xbb162f3e	-0.0022916342
129	0xbcaf939d	-0.021432692
130	0x3b8b030a	0.0042423056
131	0xbc575d44	-0.013144795
132	0xbc6481e1	-0.013946981
133	0x3be5a85a	0.0070085945
134	0xbb1d17a7	-0.0023970397
135	0x3b942cb8	0.0045219325
136	0x3be26c1f	0.0069098617
137	0x3c48733f	0.012234508
138	0x3bae4dc4	0.005319329
139	0xbc684b11	-0.0141780535
140	0x3c42c500	0.011887789
141	0xbc27a360	-0.010231823
142	0xbc67f327	-0.014157093
143	0x3c42a33f	0.011879741
144	0xbab9fa3f	-0.0014188959
145	0x3cd16bcd	0.025564099
146	0xbc2c93c0	-0.010533273
147	0x3cdaae38	0.026694402
148	0x3c037d61	0.008025498
149	0xbc46e567	-0.012139655
150	0xbb2047f1	-0.0024456943
151	0xbb237597	-0.0024941915
152	0x3c96dee9	0.018416839
153	0xbb219c7b	-0.002465992
154	0xbc407188	-0.011745818
155	0xbc3231c1	-0.01087612
156	0xbc999a0f	-0.018750219
157	0x3c0b0691	0.008485452
158	0x3c4972a8	0.012295403
159	0xbc72e44f	-0.014824941
160	0x3bb8ba0b	0.0056374124
161	0xbc1d8536	-0.0096142795
162	0x3a7d8a94	0.0009671834
163	0x3bf2efca	0.007413839
164	0xbcb37acc	-0.02190914
165	0x3b726985	0.0036989164
166	0xbb1d6f39	-0.0024022593
167	0x3c8357af	0.016033022
168	0xba0b5d48	-0.0005316329
169	0xbcee4037	-0.029083354
170	0x3cd09b2f	0.025464622
171	0xbb102be0	-0.0021998808
172	0x3be1b3cc	0.0068878885
173	0xbabdb7ed	-0.001447437
174	0x3bb07f56	0.0053862734
175	0xbc1d066f	-0.009584053
176	0xbb2f122f	-0.002671372
177	0xbb69afe2	-0.0035657813
178	0x3caf88ec	0.021427594
179	0x3b6274a2	0.0034554382
180	0xbc2fd2f3	-0.010731447
181	0xbc9f8e06	-0.019476902
182	0xbc385770	-0.0112513155
183	0xbb1f8edf	-0.0024346632
184	0x3ba3eab1	0.0050023426
185	0xbb843595	-0.004034708
186	0x3b2d5895	0.0026450504
187	0x3c057b0f	0.008147015
188	0xbb83bb7e	-0.0040201535
189	0xbd0b7ee7	-0.03405657
190	0xbcc56738	-0.02409707
191	0x3c3b1ec5	0.01142091
192	0xbd5c19be	-0.053735487
193	0xbd2031b0	-0.039109886
194	0xbd3c9638	-0.046041697
195	0xbd3b3109	-0.04570106
196	0x3baae0e9	0.0052147997
197	0xbc62a42a	-0.013833085
198	0xb8f91b1f	-0.00011878297
199	0x3ba64213	0.0050737946
200	0x3be736f0	0.0070561096
201	0x39bb821a	0.00035764353
202	0x3baa84e3	0.0052038296
203	0xbad858eb	-0.0016505992
204	0x3c160448	0.009156294
205	0xbbea5f5d	-0.0071524815
206	0xba6390ab	-0.000868092
207	0x3b1c6cc4	0.002386854
208	0x3ba3e6a6	0.0050018607
209	0xbabb4e52	-0.0014290309
210	0x3b71eb5a	0.0036913962
211	0x3be15572	0.006876641
212	0xbab8731e	-0.0014072394
213	0x3a6e7475	0.0009096333
214	0x3b210284	0.002456815
215	0x3bfa9484	0.007647099
216	0x39941098	0.00028241123
217	0x3b1769aa	0.0023103752
218	0xba81a1a5	-0.0009890093
219	0x3b664950	0.0035138912
220	0x3a2f7a52	0.00066939474
221	0x3ba63304	0.0050719995
222	0xbabba577	-0.001431628
223	0x3abb52e8	0.0014291676
224	0x3b390e90	0.002823744
225	0xbc40b272	-0.011761295
226	0x3cc0d047	0.023536814
227	0x3bf2970e	0.007403261
228	0x3ad87f83	0.0016517494
229	0x3cd01d2d	0.025404537
230	0xbba59f0b	-0.00505436
231	0x38f24378	0.00011552026
232	0xbc30ee0c	-0.010798942
233	0xbac2d26d	-0.0014863737
234	0x3c61df38	0.01378613
235	0xbba35137	-0.004984047
236	0x3ca37a96	0.019955914
237	0x3abd3e45	0.0014438113
238	0xba8f0968	-0.0010912837
239	0x3c51a23c	0.012795027
240	0x3c86d25c	0.016457729
241	0x3ac8181f	0.0015265978
242	0xbbf2f110	-0.007413991
243	0xbba47a72	-0.0050194794
244	0xbc7e9df1	-0.015540586
245	0xbc56f930	-0.013120934
246	0xbc079c2e	-0.008276982
247	0x3cac8143	0.02105773
248	0xbbb9cdd5	-0.005670289
249	0xbc07a9f8	-0.00828027
250	0xbc9d24a3	-0.019182509
251	0x3c513734	0.012769509
252	0xbbfa3c60	-0.007636592
253	0x3c5d1b53	0.013495284
254	0x3b8af2da	0.004240376
255	0x3c391814	0.011297245

_orig_mod.dense_proj.bias f4 [64]
0	0x3ba2aa21	0.0049641286
1	0x3d15413a	0.036439158
2	0xbc4c0b61	-0.012453885
3	0x3dc29550	0.09501135
4	0xbd21ffbf	-0.03955054
5	0x3be4e0cc	0.0069848057
6	0x3d1fbe4e	0.038999848
7	0x3a8ee75c	0.0010902691
8	0xbdb82f49	-0.08993394
9	0x3df59daf	0.119929664
10	0xbc687b8e	-0.014189614
11	0x3cef8f2d	0.029243076
12	0x3b9f0fd8	0.0048541836
13	0x3b57e862	0.0032944907
14	0xbd50ec36	-0.05100652
15	0xbcb375f1	-0.021906825
16	0xbc9afe07	-0.018919958
17	0xbd286fa2	-0.041122086
18	0x3d495788	0.049155742
19	0x3cf7dad0	0.030255705
20	0xbdb92d8e	-0.09041892
21	0xbd455050	-0.048172295
22	0x3d9aeb7d	0.07564447
23	0x3db30ef1	0.08743084
24	0xbc345f17	-0.011008999
25	0xbc02f3f0	-0.00799273
26	0xbda14ea0	-0.07876325
27	0x3c1b501a	0.009479547
28	0xbdcac961	-0.09901691
29	0x3c71ad03	0.014750722
30	0x3d5a88db	0.05335317
31	0x3c388550	0.011262253
32	0xbd875911	-0.06608785
33	0x3d80bfdd	0.06286595
34	0xbd7f77ee	-0.062370233
35	0xbd3bdd43	-0.04586531
36	0x3c9769d4	0.01848308
37	0x3bd1c55e	0.006401702
38	0xbc89ffcc	-0.016845606
39	0xbcbeeb51	-0.023305567
40	0x3d73bf11	0.059508387
41	0xbc031d02	-0.0080025215
42	0x3e1db8ad	0.1540248
43	0x3c493714	0.012281198
44	0xbbf546de	-0.0074852547
45	0xbc204ad4	-0.009783465
46	0xbcbbe09c	-0.02293425
47	0x3b210667	0.0024570466
48	0xbd8ca65d	-0.06867669
49	0xbd10051a	-0.035161115
50	0xbc17d9bc	-0.0092682205
51	0xbd1b8cfb	-0.037976246
52	0xbcf78946	-0.030216824
53	0xbdec1bee	-0.11528765
54	0xbe07fb1a	-0.13279381
55	0x3c74f7de	0.014951674
56	0x3d48b12f	0.0489971
57	0x3b16931c	0.0022975868
58	0xbb513c3a	-0.0031926767
59	0x3cdbbc61	0.026823224
60	0x3bed6769	0.0072449935
61	0x3c56471c	0.013078477
62	0x3c2bcb32	0.010485457
63	0xbd0d913c	-0.034562334

_orig_mod.shared_mlp.0.weight f4 [128, 144]
0	0xbc766a7f	-0.015040039
1	0xbc5d1e2a	-0.013495961
2	0x3c41cd78	0.011828773
3	0x3c0f91a1	0.008762748
4	0x3a3ee0de	0.00072814326
5	0x3d089e1e	0.033353917
6	0xbd2b7f51	-0.041869465
7	0xbc932c10	-0.017965347
8	0x3bc54ee2	0.0060213665
9	0x3c47f4fe	0.012204407
10	0x3bb1f7ff	0.0054311748
11	0x3d8105a7	0.06299906
12	0x3da7d11a	0.0819418
13	0x3d12cb65	0.035838503
14	0xbcb9328a	-0.022607107
15	0xbc21077e	-0.009828446
16	0xbd7155a0	-0.05891955
17	0x3c40d36d	0.011769158
18	0x3d51d0a0	0.05122435
19	0x3c957e77	0.01824878
20	0x3c4df49e	0.012570528
21	0x3aef7d08	0.0018271515
22	0x3bc3653c	0.005962996
23	0x3c1a6774	0.009424079
24	0xbab50ae6	-0.0013812452
25	0xbc920060	-0.017822444
26	0xbd2fbd81	-0.042905334
27	0xbcea0d59	-0.028570818
28	0x3ca64a77	0.02029918
29	0x3c4c1b81	0.012457729
30	0xbcdfa49e	-0.027300175
31	0xba7b61ae	-0.00095894455
32	0x3cd19cef	0.025587527
33	0x3c87a791	0.016559394
34	0xbc47ad82	-0.012187364
35	0x3cae5d74	0.021284796
36	0xbd769d14	-0.060208395
37	0xbc3c4dc1	-0.011493147
38	0xbb22c0ab	-0.0024834077
39	0xbbec3a9e	-0.007209136
40	0x3d56b62e	0.052419834
41	0x3c028c81	0.007968069
42	0x3d5abd75	0.053403337
43	0x3ccbe0a3	0.024887389
44	0xbc0739a1	-0.008253486
45	0xbd0ddadf	-0.03463256
46	0x3c18f859	0.009336554
47	0x3c573109	0.0131342495
48	0x3c4a9abf	0.012365996
49	0x3b27a9d9	0.0025583415
50	0xbbd57065	-0.0065136426
51	0x3c35e27b	0.01110136
52	0xbc93eaee	-0.01805636
53	0x3bc71795	0.0060758092
54	0xbb62eead	-0.0034627125
55	0x3bbe41a5	0.0058061653
56	0x3c1a057d	0.009400723
57	0xbc482db6	-0.01221793
58	0x3d67ac05	0.056560535
59	0xbd03beae	-0.03216427
60	0xbd14a292	-0.03628785
61	0xbd049b83	-0.03237487
62	0xbada1bb0	-0.0016640332
63	0x3bae5b2a	0.005320926
64	0x3a31abd2	0.00067776174
65	0xbbf5a55e	-0.00749652
66	0x3bdcb406	0.0067353277
67	0xb9bba55c	-0.00035790622
68	0x3bc1f18d	0.0059186877
69	0xbc5a745c	-0.013333406
70	0x3b384c54	0.0028121667
71	0xbafe5eb5	-0.0019406887
72	0x3c000cd8	0.007815562
73	0xbb3b7a0a	-0.0028606676
74	0x3cc68252	0.024232063
75	0x3b5da9dc	0.0033823168
76	0x3ab11724	0.0013510925
77	0x3bbb53fc	0.005716799
78	0xbd1aa07e	-0.037750714
79	0xbbbc0719	-0.005738151
80	0xbbf4785e	-0.007460638
81	0xbc9ad7d5	-0.018901745
82	0xbb16c23b	-0.0023003954
83	0x3ce9da03	0.028546339
84	0x3c84d3d6	0.016214292
85	0xbc1a968a	-0.009435305
86	0x3b43f590	0.0029901005
87	0xbc0fc6fa	-0.008775467
88	0x3c583e2f	0.0131984195
89	0x3d16695d	0.036721576
90	0x3b726b01	0.0036990049
91	0xbc3f097c	-0.011659976
92	0x3c27066d	0.010194403
93	0xbd45ac54	-0.048260048
94	0xbcc85ca1	-0.024458231
95	0xbc9bd72b	-0.019023499
96	0xbcddc436	-0.0270711
97	0x3cc9f207	0.02465154
98	0x3c4ff034	0.012691546
99	0xbc98fc20	-0.01867491
100	0xbd57d12b	-0.052689712
101	0x3d06a25c	0.03286968
102	0xbbea7848	-0.007155452
103	0x3d1efb2c	0.038813755
104	0x3c5951d5	0.013264139
105	0x3bbbc5b6	0.005730356
106	0xbd8f8d53	-0.07009377
107	0x3c35a35e	0.011086313
108	0xbd21ede0	-0.039533496
109	0x3ca131c2	0.019677047
110	0x3acd488e	0.0015661882
111	0x3c5d3850	0.0135021955
112	0x3cc0bc16	0.023527186
113	0x3c378f93	0.011203664
114	0x3cebcb69	0.028783517
115	0x3ba0d772	0.0049084956
116	0x3ca98ffe	0.020698544
117	0x3c20796f	0.009794577
118	0x3cdb5c8c	0.026777528
119	0xb9cf6a6e	-0.00039561413
120	0xbc79dc69	-0.015250304
121	0xbc8430c3	-0.016136533
122	0xbc14ca4c	-0.009081434
123	0xbc5890db	-0.01321813
124	0x3c15a9d8	0.009134732
125	0xbbe4ecb1	-0.0069862236
126	0x3d06b9b5	0.032891948
127	0xbc7c6922	-0.015405925
128	0xbd9bce2f	-0.07607686
129	0x3c7fcfbe	0.015613494
130	0x3c2365bc	0.009972986
131	0x3b522934	0.0032068016
132	0x3bdb9786	0.0067014126
133	0xbc6c176d	-0.014409882
134	0x3d846303	0.064641975
135	0xbccabfce	-0.024749663
136	0xbcd8a2a7	-0.026444746
137	0x3c7cc582	0.015427949
138	0x3cc1741c	0.023614936
139	0xbccd119f	-0.025032816
140	0x3c9eb556	0.019373577
141	0xbcf92214	-0.030411758
142	0xbd2af84d	-0.041740704
143	0xbc64bdbb	-0.013961251
144	0xbcab5397	-0.020913882
145	0xbc731d1a	-0.014838481
146	0x3ca43ea0	0.020049393
147	0x3d7b6f2b	0.061385315
148	0xb9d41843	-0.00040453867
149	0x3d12f28f	0.035875853
150	0xbc974d95	-0.018469611
151	0xbd3814a9	-0.044941578
152	0x3bdd64ce	0.0067564016
153	0x3c4ca7b5	0.012491156
154	0x3b808111	0.003921636
155	0x3d303743	0.04302145
156	0x3d881bc0	0.06645918
157	0x3ceae932	0.02867565
158	0xbc935893	-0.017986571
159	0xbc88baed	-0.016690696
160	0xbca05c97	-0.0195754
161	0x3b932784	0.0044907946
162	0x3c94f91d	0.018185193
163	0x3c5d416c	0.013504367
164	0xbba14035	-0.004920984
165	0xba90d7c5	-0.0011050632
166	0x3b2426b5	0.0025047485
167	0x3b35ae9f	0.002772249
168	0xbaddfe3a	-0.0016936727
169	0x3cbe39b2	0.02322087
170	0xbc53f189	-0.012936004
171	0xbc47ffd2	-0.012206988
172	0x3c0e3607	0.008679873
173	0x3bd5432c	0.0065082517
174	0xbc034476	-0.008011928
175	0x37af2930	2.0880805e-05
176	0x3c5bf9e0	0.013426274
177	0x3c05c432	0.008164452
178	0xba91e45d	-0.001113068
179	0x3c305033	0.0107613085
180	0xbca13023	-0.019676274
181	0xbc69d725	-0.014272486
182	0x398114a6	0.00024620182
183	0xbc0f98f8	-0.008764498
184	0x3cd1d736	0.025615316
185	0xbb44e576	-0.0030043996
186	0x3c5e7502	0.0135777015
187	0x3ccf535f	0.02530831
188	0xbb9f81da	-0.0048677744
189	0xbba393d0	-0.004991986
190	0x3bc2278d	0.005925125
191	0xbcbe8a8d	-0.023259426
192	0x3b859958	0.004077118
193	0x3b5b9d5c	0.0033510542
194	0x3b1cc9d6	0.0023924015
195	0x397f656b	0.00024356476
196	0xbbbdfa6d	-0.0057976753
197	0x3c035005	0.008014684
198	0xbb28ae60	-0.0025738701
199	0x3b96de2b	0.004604121
200	0x3c0a0c3c	0.008425768
201	0xbc432350	-0.011910275
202	0x3c39f339	0.011349493
203	0xbbc2390e	-0.0059272116
204	0xbd12cc2a	-0.035839237
205	0x3b034c94	0.0020034658
206	0xbb4105a0	-0.0029452816
207	0xbb6a53c9	-0.0035755506
208	0x39ea5751	0.00044697014
209	0xbbaddd80	-0.005305946
210	0x3bb742b9	0.0055926708
211	0x37eb8645	2.8076707e-05
212	0x3b877e12	0.004134902
213	0xbbea3ac5	-0.007148119
214	0x3adb75f3	0.0016743526
215	0xba6c92be	-0.0009024552
216	0x3bb5a38f	0.0055431793
217	0xbb85700a	-0.004072194
218	0x3bc2a616	0.005940209
219	0x3b21eedf	0.0024709029
220	0x3b78c2ad	0.0037957833
221	0x3b34f7a3	0.0027613423
222	0xbb19c3d8	-0.002346268
223	0xbb8a27bd	-0.004216163
224	0xba3d8bc0	-0.0007230602
225	0x394d2ea2	0.00019567696
226	0xbc2d0824	-0.010561023
227	0xbb776fda	-0.0037755878
228	0x3bcb4528	0.0062033124
229	0xbb22bf67	-0.0024833323
230	0x3b8d8e10	0.0043199137
231	0xbc51fb5f	-0.012816279
232	0x3c4401d3	0.011963326
233	0xbd35b82a	-0.044365086
234	0x3b227b6e	0.0024792808
235	0x3b9d3bbe	0.0047983816
236	0xbb24cc6f	-0.0025146266
237	0xbb90968c	-0.004412478
238	0x3c1920fa	0.009346241
239	0x3b8056fd	0.00391662
240	0x39b91a26	0.00035305432
241	0x398be22e	0.00026680663
242	0xbb083a7b	-0.002078681
243	0xbc2d6b9a	-0.010584736
244	0x3cf2fe01	0.029662134
245	0x3c042ada	0.008066857
246	0xbcc21385	-0.023690948
247	0xbc157237	-0.009121469
248	0x3c2bd8e6	0.010488724
249	0xbafa577b	-0.0019099558
250	0x3c397dc5	0.01132149
251	0x3aa55d56	0.0012616317
252	0x3d1a9fdb	0.037750106
253	0xbc875d26	-0.016523909
254	0xbb814073	-0.0039444505
255	0xbb18add6	-0.0023296974

_orig_mod.shared_mlp.0.bias f4 [128]
0	0xbdba496e	-0.09096037
1	0xbd9a012b	-0.07519754
2	0xbd92f2fe	-0.07175253
3	0xbd92e774	-0.071730524
4	0xbcc83469	-0.024439054
5	0xbd851725	-0.06498555
6	0x3caabe07	0.020842565
7	0x3d0a6eae	0.03379696
8	0xbbdc1f4c	-0.006717598
9	0x3e01361c	0.12618297
10	0x3dac9b56	0.084280655
11	0x3ddc8297	0.107670955
12	0x3dd87411	0.10569013
13	0xbd141068	-0.03614846
14	0xbd47961e	-0.048727147
15	0x3d900bfa	0.07033534
16	0xbda20e0d	-0.07912836
17	0xbdb0c6cc	-0.086316675
18	0x3c899378	0.016793951
19	0x3ce167be	0.027515288
20	0xbdb1411f	-0.08654999
21	0xbc9fa4c8	-0.019487754
22	0xbd5ef296	-0.054430567
23	0x3d8f5886	0.069993064
24	0xbd95f277	-0.07321637
25	0xbd9ce349	-0.07660539
26	0xbd276d6b	-0.040875833
27	0xbceda6ab	-0.029010138
28	0xbd7fc784	-0.062446132
29	0x3e1d53dd	0.15364023
30	0x3d220b2c	0.039561436
31	0x3d63e259	0.055635784
32	0x3c83d837	0.01609431
33	0xbcec94fc	-0.028879635
34	0xbcedd9bb	-0.029034486
35	0xbdb7914f	-0.08963262
36	0x3d91f8b1	0.07127512
37	0x3daa4153	0.08313241
38	0x3d0bca0d	0.034128238
39	0xbcac72f2	-0.021050904
40	0x3dc18ace	0.09450303
41	0x3d58adfb	0.052900296
42	0xbdb60872	-0.088883296
43	0x3d894ff8	0.06704706
44	0xbc99e1c9	-0.01878442
45	0xbd1f6b38	-0.03892061
46	0xbd2a6658	-0.04160151
47	0xbc5a71ff	-0.013332843
48	0x3db56ce5	0.088586606
49	0xbdf18f69	-0.117949314
50	0x3d5d946f	0.054096635
51	0xbd4a4d91	-0.04939038
52	0x3deef303	0.116674446
53	0xbb92699b	-0.0044681556
54	0x3de4a423	0.11164119
55	0x3d76b486	0.060230754
56	0x3d28e65e	0.04123532
57	0x3e1007b9	0.14065446
58	0x3dd936c1	0.106061466
59	0x3d1ccfb4	0.03828402
60	0x3a8aee41	0.001059957
61	0xbd098bfb	-0.03358076
62	0x3dd66aa7	0.10469561
63	0xbd4f3026	-0.050583027
64	0x3d56a016	0.052398764
65	0xbd7cc426	-0.0617105
66	0xbd99fb5a	-0.07518645
67	0x3de12ab0	0.1099447
68	0x3d78217d	0.060578812
69	0x3e2d46c0	0.1692152
70	0x3ca0c990	0.019627362
71	0x3d9c9c58	0.07647008
72	0x3df6a2b9	0.12042756
73	0x3cf58e6c	0.029975139
74	0xbd19689c	-0.03745328
75	0x3d6882ee	0.05676549
76	0x3d636311	0.0555144
77	0x3cea615e	0.028610881
78	0xbd8b0dab	-0.06789716
79	0x3d88452b	0.06653818
80	0x3e091b0c	0.13389224
81	0xbdaec7a2	-0.08534171
82	0x3d5ea124	0.054352894
83	0xbdaf49f5	-0.08559028
84	0x3d941b69	0.072317906
85	0x3d6808e5	0.056649107
86	0xbd093bb4	-0.033504203
87	0xbdaa0935	-0.08302537
88	0xbdb5e43a	-0.088814214
89	0xbd9ec7de	-0.077529654
90	0xbb6b2fa3	-0.0035886548
91	0xbd787ccc	-0.06066589
92	0xbd22c5e4	-0.039739504
93	0x3e123b68	0.14280474
94	0x3cf97543	0.030451423
95	0xbcc8c06e	-0.02450582
96	0xbd834c39	-0.06411023
97	0x3dcc7f34	0.099851996
98	0x3d72450b	0.059147876
99	0x3dcb7043	0.099335216
100	0xbd992ded	-0.07479463
101	0x3d0d0c82	0.034435757
102	0x3cc84348	0.024446145
103	0xbae94a96	-0.0017798718
104	0xbd85d95b	-0.06535598
105	0xbdac5029	-0.08413727
106	0x3d5128e0	0.051064372
107	0xbdb563c9	-0.08856923
108	0xbd860e2b	-0.06545671
109	0xbd8dfbe8	-0.06932813
110	0x3d56c37a	0.052432515
111	0xbdd2034e	-0.102545366
112	0xbdb967fe	-0.09053038
113	0xbd7fe70e	-0.06247621
114	0xbda64e7e	-0.0812044
115	0xbd9cfcb2	-0.07665385
116	0xbc948c6a	-0.01813336
117	0x3d3a48c6	0.04547956
118	0xbdbb8965	-0.09157065
119	0x3ceca257	0.028886003
120	0x3cfacbda	0.030614782
121	0x3df459e4	0.11931208
122	0xbd8e441e	-0.06946586
123	0x3cc35205	0.02384282
124	0x3e094af4	0.13407499
125	0xbcb2715b	-0.021782568
126	0xbd49dbff	-0.04928207
127	0x3d1e240d	0.0386086
