experiments/exp_20251005_030455/models/best_model_auc0.7352_logloss0.0873_epoch5_20251005_041224.pth (torch, 137778 bytes, 12 tensors)

_orig_mod.embeddings.gender.embedding.weight f4 [5, 8]
00000000: 1fcd ab3b 235f 0580 d292 c639 b2d2 fa3a
00000010: c51b 87b9 7860 43bb a3fc 023c cd56 723b
00000020: 8034 843f cec4 1c32 e49b a1be 89cb a6bd
00000030: fadc 973e 8ae1 2d3d ad62 043f 710e 183f
00000040: 744a ea3d 21f9 71b1 1bba 69be 4c4b d4bc
00000050: f56c 893e 93ed 063f e3a4 b63f fe30 c93e
00000060: c659 0580 bb5b 0580 4e64 0500 cd60 0580
00000070: 02c1 0580 5767 0580 bd64 0580 975e 0500
00000080: 12df 0580 1a5c 0500 7698 0580 5e62 0580
00000090: 2075 0500 e6b9 0580 aa99 0500 5c6a 0580
0.005242958 -4.93306e-40 0.00037874893 0.0019136278 -0.00025769896 -0.0029812139 0.007994804 0.0036978007
1.0328522 9.125143e-09 -0.31564248 -0.0814429 0.2966078 0.04245142 0.5171307 0.59397036
0.11439982 -3.521173e-09 -0.228249 -0.02591481 0.2684094 0.5270626 1.426907 0.3929519
-4.91382e-40 -4.92084e-40 4.9516e-40 -4.93903e-40 -5.28416e-40 -4.96249e-40 -4.95316e-40 4.9311e-40
-5.392e-40 4.92217e-40 -5.1387e-40 -4.94465e-40 5.01194e-40 -5.25865e-40 5.14302e-40 -4.97332e-40

_orig_mod.embeddings.age_group.embedding.weight f4 [15, 8]
00000000: 7056 42ba 7691 dcba 0951 843b f001 e23b
00000010: 6e8b 8b3b 166d 1e3b 7072 2b3b d4de e93a
00000020: 9099 aabd 21cd 04bd beaa 5e3e c595 f23c
00000030: 112f 7f3e e94e ba3d 1315 2b3e 63bd 11bd
00000040: 96d4 223d 815f 6bbe 2870 edbd 34c1 04be
00000050: 98d0 6abe 529a 7dbe 2577 86be 074a 86bd
00000060: 9508 b13b 10e4 f0bd e1d6 6ebe a1e3 67be
00000070: 4b32 adbe dfc9 55be 67aa 6bbe b9bb 26be
00000080: b2eb f63c bb38 50bd 1e58 a9bd 72b4 41be
00000090: 5fad a4be 77d4 38be f412 88be de43 17be
000000a0: ca3d f73c 8d09 8f3c 50ab 37be 3cd6 50be
000000b0: 4146 7ebe 0811 16be ace1 5fbe 16a5 08be
000000c0: a288 58bd 3aec 903e 1c06 76be 42e0 27be
000000d0: 0cad 56bc 9111 943b a107 e9bd 815b 353e
000000e0: 0192 5d3e 67ef dd3d 11bf a1be b23e 163f
000000f0: dd08 f9bc e900 1f3e e5a9 a53e 02ab 0a3f
00000100: e7a0 853e 3629 873d 64cc c63e 5e0f 583f
00000110: 8e96 1c3e 7fca bd3e 5d52 85bd dea7 eb3e
00000120: d1ae 0580 5e57 0580 9782 0500 1a60 0580
00000130: 9159 0500 c975 0500 2362 0680 bc61 0500
00000140: 9172 0580 685f 0580 bf99 0580 d759 0580
00000150: 5f8c 0580 0c8b 0580 225f 0580 9363 0500
00000160: eb5c 0500 9f96 0500 925a 0500 f660 0580
00000170: 40d9 0680 9621 0680 345e 0500 0462 0500
00000180: 3859 0500 8a5b 0500 3a65 0580 5da1 0580
00000190: 6e79 0580 306d 0580 ff60 0580 f75a 0580
000001a0: 345b 0580 0785 0580 b159 0500 9b82 0500
000001b0: 9e57 0580 c55f 0500 c07e 0580 d959 0580
000001c0: 375c 0500 745c 0500 95a3 0580 2f65 0500
000001d0: d657 0580 1a5b 0500 fc74 0580 be97 0500
-0.0007413393 -0.0016828019 0.0040379805 0.0068972036 0.0042585647 0.0024173907 0.002616074 0.0017842897
-0.08330071 -0.03242219 0.2174482 0.029612431 0.24920298 0.09097082 0.16707258 -0.035581004
0.03975352 -0.2298565 -0.11593658 -0.12964326 -0.22931135 -0.247659 -0.26262775 -0.06557088
0.0054026344 -0.117622495 -0.23324157 -0.22645427 -0.33827433 -0.20877789 -0.23014222 -0.16282548
0.030141685 -0.050835352 -0.0826876 -0.1891649 -0.32163522 -0.18049799 -0.2657696 -0.14771983
0.03018083 0.017460609 -0.17936444 -0.20394224 -0.24831487 -0.14654934 -0.2186343 -0.13344225
-0.05286468 0.28305227 -0.24025768 -0.16394141 -0.013102781 0.0045186956 -0.11378408 0.17710687
0.21637727 0.10836678 -0.31591085 0.58689415 -0.030399734 0.15527691 0.32356182 0.5416719
0.2609932 0.06599657 0.38827813 0.8439845 0.15291807 0.37068555 -0.0650985 0.4602651
-5.2189e-40 -4.90519e-40 5.06024e-40 -4.93652e-40 4.91308e-40 5.01431e-40 -5.86218e-40 4.94238e-40
-5.00276e-40 -4.93403e-40 -5.14331e-40 -4.91406e-40 -5.09533e-40 -5.09058e-40 -4.93305e-40 4.94898e-40
4.9251e-40 5.1321e-40 4.91668e-40 -4.9396e-40 -6.28948e-40 -5.63061e-40 4.92971e-40 4.94339e-40
4.91183e-40 4.92016e-40 -4.95491e-40 -5.17064e-40 -5.02738e-40 -4.98347e-40 -4.93973e-40 -4.9181e-40
-4.91895e-40 -5.06899e-40 4.91353e-40 5.0603e-40 -4.90609e-40 4.93533e-40 -5.04647e-40 -4.91409e-40
4.92258e-40 4.92343e-40 -5.1786e-40 4.95475e-40 -4.90687e-40 4.91859e-40 -5.01144e-40 5.13612e-40

_orig_mod.embeddings.inventory_id.embedding.weight f4 [50, 16]
00000000: 1943 3d3d 822f d6be 8071 01bd 2996 9f3e
00000010: 8868 7b3d ec69 5dbe 9379 523e 782e 14bd
00000020: e8b7 20be e2e8 88be da34 d53d d51d 2bbd
00000030: 88d2 c7be 9d2b f53c 252c a4be 6289 1b3e
00000040: edb6 043d 01f8 0abe f6cd 2b3d 1ba1 8b3e
00000050: 5775 04bd d40e b7bd bad9 4a3e cb26 16bd
00000060: d382 f13d b848 433d e951 4d3e f9ba bdbd
00000070: 4e2c 4fbd 4629 15bd b21c 0ebe 5e18 88bd
00000080: c445 253d 9ec7 053d 3b60 10bc 52b3 eb3e
00000090: 4d90 8dbb d679 b9bd c1b2 2c3f afca b4bd
000000a0: c27e 7fbe 7264 c2bc e0c5 3c3e d8f0 003e
000000b0: 7a23 eabe 1836 e93d 0992 1abf 1e29 723e
000000c0: 6821 7cbc de39 303d d546 623a e864 88bd
000000d0: 8a14 a23a 6bd6 0f3d e9c8 4fbd ee1b 1d3d
000000e0: 5549 b0bc 5a8f a0bc 8607 1abd 0414 b63c
000000f0: a417 70bc 1dbb 793a b35b b23c e588 6b3d
00000100: 4052 bcbc 4b67 a7be 8561 ca3d 9f77 8bbe
00000110: 76d0 e03d ae04 96be 7549 cebe c833 9d3e
00000120: cf44 513e 9f5c f3be 85cb 9dbe 50ea 4dbe
00000130: 14bc 61bd de86 08be 8ae7 eebe 93e6 babe
00000140: e260 843d 0c53 c8bd ac86 9c3d de34 973d
00000150: 9886 12bd 9693 433c 89f9 013e 3926 8bbe
00000160: bf62 9e3e fbc3 e53e 3175 703e a7b9 19be
00000170: fd4a 163f 2f5e dcbd 027e 9c3e ad92 2bbf
00000180: ef2d cebc 43b9 d83c 6a96 0e3e 4590 cabe
00000190: a4a2 283c a4b0 0e3f 7f2f 413e 684a b43d
000001a0: 0e59 15be 5267 8c3d cf80 c13e cccb 53bd
000001b0: 55de aebe c859 2cbe 7d58 4c3e f173 f63e
000001c0: d74a 51be ca80 26be 876f 0b3f ac30 a8bd
000001d0: e8a8 70be 8840 f13e 8540 19be 47e2 693f
000001e0: 3062 7b3f 19c7 633e d65d c73d b14d 1fbe
000001f0: 30cf 733e 69e5 01bf 5e4f 55be f0f8 8bbe
00000200: c4f6 2d3b cc6e 75bd fe44 063d 75a6 603e
00000210: b2aa 973b 6ee4 9fbc 7d58 543e 84e0 73bd
00000220: 70e5 e43c 1104 16bb 6c20 323e 1cda 85bd
00000230: 2750 7cbd 8aff 0bbd edb8 acbd 06ea 66bc
00000240: 5b07 4d3e ce67 28be 60b3 53be 6ca4 b2be
00000250: f294 a6bd daba 47be eca2 99be 632a f4be
00000260: b2e6 f1ba d17e 033f 2287 11be c032 de3d
00000270: b7df 9f3e 992e 303e 60bc d83d 9f9c 7ebe
00000280: a17f fa3d 853c 33be 0abd 48bd 101f 92be
00000290: 1b68 60be 3165 5dbd 1f87 b2be ceee 803e
000002a0: 2dd1 433d 96d5 bd3e abef 3fbe 6f85 973e
000002b0: 665a a8bc 6fa3 ff3d 5c77 873e dfcc 1bbe
000002c0: a48e 87bd d051 c43e a77e e83d 011c 01be
000002d0: 0793 a03b 9292 0b3f 9fc3 5e3e 8ccf 693d
000002e0: ade8 81be 7ea6 94bb 50b8 a63e d8e6 9e3d
000002f0: ca06 a8be 2586 f4bd 20cd 993d da37 da3e
00000300: 1a82 a9bd 47e2 523e 848d 96bd 8d2e 62bd
00000310: 5c51 1c3e 1392 38be 7d01 a2bd 1d80 5c3e
00000320: cd03 87be 4ccd 21bf 21cd b8be 32e7 25bd
00000330: 68c0 6c3d 43b4 af3d 89f5 58be f7a5 b53e
00000340: d8e2 a83c d8be eabc 6ffc 23bd a7b9 3e3e
00000350: 4536 433d c28b 3cbd 7e40 623e 9a44 c3bd
00000360: 50ac 42be 7214 28be 28c9 043e 85b9 90bc
00000370: 7b57 88be da50 293d ad77 1fbe e6f2 5e3e
00000380: 89dc bcbe f937 023f a3ee 2f3e 1b3f 84be
00000390: ca67 713e 1671 233f 144e 793e de02 e2bd
000003a0: b2e8 b8be 3674 833c d851 90be 5179 a63e
000003b0: d03d 0f3f 8f9d 06be 5868 153f d95d e3be
000003c0: 4f6c 573d 638e 453d 4b3a 1abe 9ae0 703e
000003d0: cc78 473b fa3a 96be b81d 613d 32d3 bebe
000003e0: 6419 da3d 9fe2 8a3e c1fb 9fbc 59e9 80bd
000003f0: 174b 053f ff19 073e c501 5a3e 2be1 c7be
0.046206567 -0.4183312 -0.031602383 0.3116925 0.061378986 -0.21622437 0.2055419 -0.03617713
-0.15695155 -0.26740175 0.10410471 -0.041776497 -0.3902781 0.029928023 -0.3206493 0.15189126
0.032401014 -0.13571168 0.041944467 0.2727135 -0.032338466 -0.08938375 0.19809619 -0.03665809
0.11792531 0.047676772 0.20050777 -0.09264178 -0.05057936 -0.036416315 -0.13878134 -0.06645273
0.040349737 0.032661073 -0.008812006 0.46035248 -0.0043201805 -0.090564415 0.67460257 -0.08827721
-0.24950698 -0.023729537 0.18434858 0.12591875 -0.4573019 0.11387271 -0.6037908 0.23648497
-0.015388824 0.043023936 0.00086317706 -0.06659871 0.001236574 0.035116594 -0.050728712 0.038356714
-0.021519342 -0.019599605 -0.03760483 0.022226341 -0.014654074 0.0009526478 0.021772241 0.0575036
-0.022988439 -0.32695994 0.098818816 -0.272397 0.10977261 -0.29300445 -0.40290418 0.30703568
0.20436405 -0.47531602 -0.30819336 -0.20108914 -0.055111006 -0.13332698 -0.46661025 -0.3650404
0.064637914 -0.09781465 0.07642874 0.073831305 -0.03577289 0.011937043 0.12692846 -0.271776
0.30934712 0.44876084 0.23482205 -0.15012227 0.58708173 -0.107601516 0.30564886 -0.67020684
-0.025168387 0.026455527 0.13924566 -0.39563194 0.010292683 0.5573828 0.18865775 0.08803254
-0.14584753 0.06855644 0.37793586 -0.051708028 -0.34154 -0.16831124 0.1995563 0.4813533
-0.20438705 -0.16260067 0.5446705 -0.082124084 -0.23501933 0.47119546 -0.14966018 0.91360897
0.981967 0.22243918 0.09734695 -0.1555698 0.23809505 -0.5074068 -0.20831057 -0.27338362
0.002654479 -0.059920117 0.03278064 0.21938498 0.0046285028 -0.019518103 0.2073688 -0.059540287
0.027941436 -0.0022890607 0.1739518 -0.06535742 -0.061599877 -0.034179248 -0.08433709 -0.0140938815
0.20022337 -0.16445848 -0.20673895 -0.3489107 -0.08133878 -0.19504872 -0.30007112 -0.47688589
-0.0018455593 0.5136538 -0.14211705 0.108495235 0.31225368 0.17205276 0.10582805 -0.24864434
0.122313745 -0.17503555 -0.049008407 -0.28539324 -0.21914713 -0.05405158 -0.34868714 0.25182194
0.047806907 0.37077016 -0.1874377 0.2959399 -0.020550918 0.12482344 0.2645825 -0.15214871
-0.066190034 0.38343668 0.11352282 -0.12608339 0.0049003395 0.54520524 0.21754311 0.057082698
-0.2537283 -0.004536449 0.32562494 0.07758874 -0.3281768 -0.119396485 0.075098276 0.42620736
-0.08276768 0.2059413 -0.07351211 -0.055220176 0.15265411 -0.18024473 -0.0791044 0.21533246
-0.26370087 -0.63203883 -0.36094 -0.04050369 0.05780068 0.08579304 -0.21187414 0.35478184
0.02061598 -0.028655455 -0.04003566 0.18625508 0.047659177 -0.04603172 0.22094914 -0.09534569
-0.19011045 -0.1641405 0.1296736 -0.017666588 -0.26629242 0.04133687 -0.15572996 0.21772346
-0.36887005 0.5086666 0.17180876 -0.25829396 0.23574749 0.6384443 0.2434619 -0.11035703
-0.36115032 0.016046625 -0.28187442 0.32514432 0.55953693 -0.13146041 0.5836234 -0.44407538
0.052593525 0.048231494 -0.150613 0.23523179 0.003043699 -0.2934187 0.054959983 -0.37270504
0.10649374 0.27126023 -0.019529225 -0.062945075 0.52067703 0.1319351 0.21289738 -0.39038977

_orig_mod.embeddings.day_of_week.embedding.weight f4 [10, 8]
00000000: fed8 d33b a0f9 9b3d 4568 b03b 6401 ac3d
00000010: 697a 743b 51fc 50be 609c 853b 8741 0bbf
00000020: 5619 ff3b 519f d13c 0665 05bc 24b6 89bc
00000030: 2e0a aaba c182 d93e 0b66 9ebb eebc 363d
00000040: e5ee bdbc bfec 333c cf2c 523b 0439 13bd
00000050: 71c1 c4bb 3599 45be cdc0 bb3a 2040 303e
00000060: a616 d1bd f029 7dbd 2683 8c3c 90aa 2bbe
00000070: 565c 59bc 092e 81be baef ca3b 52da 203e
00000080: a305 cabc 93a3 a9bd 55f6 fbba 9c13 a3bd
00000090: fb87 723b e31a 21be 2e4f d9ba 248d ba3c
000000a0: 2618 9e3b c919 e9bd aebb 89ba 3ed6 f9bc
000000b0: 255d 803a 0956 94be 36a8 76b9 0b05 853d
000000c0: 4ca9 553d 9bde 793d 1104 05bb bead c63d
000000d0: cff2 af3a af4b ffbd a27e ecb9 f16d c9be
000000e0: bc95 0580 c4b7 0680 3067 0580 2067 0500
000000f0: a66a 0500 0b5c 0500 e812 0600 de71 0500
00000100: 03eb 0500 8675 0500 f963 0580 7e63 0580
00000110: 9657 0580 5557 0580 c85d 0500 8a5e 0580
00000120: 1a58 0580 346f 0580 9973 0580 4461 0580
00000130: c15d 0500 9f64 0580 6967 0500 7863 0500
0.0064650765 0.076159716 0.0053835236 0.08398703 0.0037304407 -0.20408751 0.0040774792 -0.5439686
0.0077850027 0.025588663 -0.008141762 -0.016810484 -0.0012973004 0.4248257 -0.004833942 0.04461377
-0.023185203 0.010981738 0.0032070165 -0.035943046 -0.0060045053 -0.19296725 0.0014324427 0.17211962
-0.10209398 -0.061807573 0.01715238 -0.16764283 -0.0132666435 -0.25230435 0.0061931284 0.15708283
-0.02466089 -0.082831524 -0.0019223193 -0.079627246 0.003700732 -0.15732913 -0.0016579384 0.02277238
0.004824656 -0.11381871 -0.0010508203 -0.030497666 0.0009793384 -0.2897189 -0.00023523052 0.064951025
0.052163407 0.06100331 -0.0020296613 0.097011074 0.0013423803 -0.124656074 -0.00045107777 -0.3934169
-5.12892e-40 -6.16936e-40 -4.96194e-40 4.96172e-40 4.97436e-40 4.92196e-40 5.57795e-40 5.00025e-40
5.43484e-40 5.01337e-40 -4.95041e-40 -4.94869e-40 -4.90597e-40 -4.90506e-40 4.9282e-40 -4.93092e-40
-4.90782e-40 -4.9907e-40 -5.00646e-40 -4.9407e-40 4.9281e-40 -4.95274e-40 4.96274e-40 4.9486e-40

_orig_mod.embeddings.hour.embedding.weight f4 [30, 16]
00000000: 78f6 91be 4f61 f53c e2e6 c93b c3bd ae3d
00000010: 2360 89bc 210d debd bc5a 7fbc d255 613e
00000020: 69fe 1e38 d41c 383e 402f 1fbe 08f8 953e
00000030: 9953 2e3c c95f 4dbc 16f5 60be e6c7 223e
00000040: d514 8cbe f573 93bd bc6c 8bbb bbce 09bd
00000050: fa23 a6bb 1834 93bd b179 6fbb a0d1 d53d
00000060: 0413 fbb8 a145 8f3d 2124 8abd b069 3a3d
00000070: 9ad2 5b39 ba50 883b 8c8e 33be 7d7f 063d
00000080: e6fd b3be f200 e9bd 05ae fabb cff0 19bd
00000090: b58e 88bb ca00 a8bd e243 bfba 73ac 063e
000000a0: 3ffa 9dba 256c b73d 40a7 a6bd 9a87 903d
000000b0: 9886 afba 3fd6 543c b530 6ebe f0b1 213d
000000c0: 0989 92be 406c e0bd ac85 6b3c 54ab 47bd
000000d0: bfe0 79bc b49d 6abd d144 74bc 3415 a73d
000000e0: ec8b 3d3b 07c0 533d e9d5 44bd 5f17 9c3c
000000f0: f462 863c bdcf 41bc 9cab 34be e036 233c
00000100: 3e49 45be 27e7 3ebd 2b96 8b3a 7de8 cdbb
00000110: 982c d8bb 00ab 5fbd be18 babb 071b bc3d
00000120: fe97 353b 8bc7 8d3d 5113 7ebd 3afa 933d
00000130: a6d0 9c3b 6363 033b cb25 0cbe 38c5 2c3d
00000140: f80b 87be 5999 fcbb 3e34 033c 52c9 ec3c
00000150: 64e7 1abc d3fd b1bd 589f 34bc 5482 223e
00000160: f6b2 6bbb 82c6 fa3d c4c1 e4bd 5b31 243e
00000170: 308e 603c 4a38 0cbc 0a65 48be b1fe c13d
00000180: 4981 27be 63af 6a3c 036a d33a 5770 423d
00000190: 304a c8ba ac38 81bd ee2f 05bb aede 093e
000001a0: 2639 b4ba 94af e53d d342 bbbd 6ea9 443e
000001b0: 8a08 253b 996b 58bc 0618 10be d04d be3d
000001c0: a045 773c b424 083e ef60 f33c c759 db3d
000001d0: 82b0 00bd 9738 36bd 1282 05bd 55c5 c93d
000001e0: 8053 053c 1be5 a63d 9675 96bd 0dff 443e
000001f0: cbb6 e43c ec2f 8cbc d828 09bd 7404 cc3d
00000200: 29a1 f83d 92dd b93d d532 2ebc 365e ca3d
00000210: 91de e93c 1802 413d ceed da3c 9f25 63bc
00000220: c022 213a d8a3 fc3a e442 633b 9578 5a3d
00000230: 61f7 49bc e2a9 2a3b 22f2 ff3d 66bf 133d
00000240: fee6 553e 2ea1 0b3e 91ab c0bb b395 9e3d
00000250: 1b38 de3b 2f9b 073c fe6a f13b 1e35 a4bb
00000260: ab66 d3bb dfea dc3a 57d8 b939 0031 a53d
00000270: 6109 23bc 1dd8 223b cc25 be3d bace 1d3d
00000280: 59b2 963e 6f8c 483e 54f9 893b e431 b73d
00000290: ed34 e5bb 9515 15bc 233d d8bb 7443 5abb
000002a0: 0c28 693a 4dc3 b63b df82 afbb 8fac f33d
000002b0: e70f c63b d942 19bc 3178 f83d 821c 403d
000002c0: e1a9 663e 8074 523d dd1c f0bb 8187 043d
000002d0: b054 1a3c 6b6d 7a3d 0945 113c abc4 78bd
000002e0: b6e9 203a 3743 02bd 1c06 2c3d abee 893c
000002f0: 4cdb 06bc e283 263c 09ca da3d 194a b4bb
00000300: cc31 753e 8d6f 9b3d 9609 a7bb e8de 283d
00000310: ff04 4b3c b77a 853d e141 2d3c fc84 abbd
00000320: b960 3abb a710 65bd c97b 583d 465b e7bc
00000330: 7b0a d9bb f8c5 e73b de6a 213e d7f1 98bc
00000340: dd34 273e 7dde 87bd 3023 98bc 8171 763c
00000350: 62aa 273d f8da f53d 3142 1c3d 1cba bcbd
00000360: 6739 5f3b 3870 23bd 19ab 863d ff14 74bd
00000370: f0fc c9bc d572 6b3b de4b 993d e94a cdbc
00000380: 24a7 0b3e e42d 49bd e9cd a7bc 4de0 13bd
00000390: ff5a 093d 992a a93d da5a ff3c df23 e1bd
000003a0: 0f90 dcbb 5cb4 98bd 8e1e a43d 9cd1 06be
000003b0: e557 b3bc 1379 d83b e6b5 b83d b506 85bd
000003c0: bfe9 f53d b3e8 67bd 2cf3 b53a 340b 4cbd
000003d0: 76e7 cf3b d559 843d d4b6 c63b 3781 e6bd
000003e0: 4c81 e83b 00c9 aebd c995 9f3d 2e15 1dbe
000003f0: 515d 63bb 6555 97bb 70cf d13d 6183 a0bd
-0.28508353 0.029953627 0.0061615566 0.08532288 -0.016769474 -0.10842348 -0.015585598 0.22005394
3.7907073e-05 0.17979747 -0.15545368 0.29290795 0.010640048 -0.012535044 -0.21968493 0.15896568
-0.27359644 -0.071998514 -0.0042549055 -0.03364442 -0.0050702067 -0.071876705 -0.003654104 0.104403734
-0.000119721546 0.069957025 -0.06745172 0.045510948 0.00020963923 0.004160014 -0.17534846 0.032836426
-0.35154647 -0.113771334 -0.0076501393 -0.03758317 -0.0041674026 -0.082032755 -0.0014592374 0.13151722
-0.0012052729 0.08956174 -0.08137369 0.07057114 -0.0013391552 0.012990533 -0.23260768 0.039476335
-0.28620175 -0.10958147 0.014375132 -0.048747376 -0.015251338 -0.057279304 -0.014908985 0.08158341
0.0028922511 0.051696803 -0.048055563 0.019054113 0.016404606 -0.011829314 -0.17643589 0.009961814
-0.19266221 -0.046607163 0.0010649612 -0.0062838183 -0.006597113 -0.054606438 -0.005679219 0.091848426
0.0027709003 0.069228254 -0.06203014 0.07225461 0.004785615 0.0020048253 -0.13686292 0.04218027
-0.2637632 -0.00770871 0.008008061 0.02890459 -0.009454582 -0.08690991 -0.011024319 0.15870029
-0.0035964823 0.122448936 -0.1116977 0.16034453 0.013705775 -0.008558342 -0.19569793 0.09472407
-0.16357912 0.014324042 0.0016129616 0.047470417 -0.0015280899 -0.063096374 -0.0020322758 0.13463852
-0.0013749942 0.112151295 -0.09143605 0.19205257 0.0025182092 -0.013209247 -0.14071664 0.09292185
0.0150922835 0.13295251 0.029709307 0.10710483 -0.03141833 -0.044487562 -0.032594748 0.09852091
0.008137584 0.08149167 -0.073466465 0.19237919 0.027919194 -0.017112695 -0.033486217 0.09961787
0.12140114 0.09075464 -0.0106322365 0.098812506 0.02854851 0.047121137 0.026724722 -0.01386395
0.0006146841 0.0019274903 0.003467732 0.053337652 -0.012327046 0.00260412 0.12497355 0.036071204
0.20888898 0.13635704 -0.0058798273 0.077433966 0.0067815906 0.008276745 0.007367491 -0.005011215
-0.006451448 0.0016854665 0.00035447135 0.08065987 -0.009950967 0.0024848052 0.09284553 0.038527228
0.29432943 0.19584821 0.0042106304 0.08945063 -0.0069948346 -0.009099384 -0.006599085 -0.0033304365
0.0008894212 0.005577481 -0.005356177 0.11898147 0.006044376 -0.009354317 0.121323 0.046902187
0.22525741 0.051380634 -0.0073276595 0.03235579 0.009419605 0.061139505 0.008866557 -0.060734432
0.0006138341 -0.031802382 0.041998014 0.016837439 -0.008230995 0.010163279 0.106830664 -0.005501997
0.23944777 0.07589636 -0.0050975783 0.041228205 0.012391328 0.065175466 0.010574789 -0.08374974
-0.0028439 -0.055924084 0.052852426 -0.028241765 -0.006623564 0.0070731603 0.15763423 -0.018670006
0.1632876 -0.06634233 -0.018571466 0.01504171 0.040933974 0.120046556 0.038149063 -0.09215185
0.0034061314 -0.039901942 0.06575603 -0.059590336 -0.024656743 0.00359266 0.07485174 -0.025060134
0.13637978 -0.04911603 -0.020483928 -0.03610258 0.033534046 0.08260078 0.031171251 -0.1099317
-0.0067310403 -0.07456276 0.0801364 -0.13165897 -0.021892497 0.00660623 0.090190694 -0.0649542
0.12007474 -0.056618404 0.0013881675 -0.04981537 0.006344731 0.064624466 0.0060642753 -0.112551145
0.0070954915 -0.085344315 0.07792241 -0.1534011 -0.0034693072 -0.004618334 0.10244644 -0.078375585

_orig_mod.dense_proj.weight f4 [64, 113]
00000000: 375b 69bd 7707 723d 2311 c03e ecea d8bd
00000010: 9f35 c63d 7fe4 0fbe b4aa 81be 595c c4bd
00000020: 5d90 4cbc 6639 bb3c 921f c0bb 3a5e 253d
00000030: 10b8 ba3d c74f 2ebe 4c13 253e c736 3f3d
00000040: 304d 43bd 7234 0b3d c80c 9ebc f397 3b3d
00000050: 593f b13c f79c 523d 4bce 093d b4db 893c
00000060: 0d92 133d 08e5 9cbc b136 a83c 62ee 96bc
00000070: 96a0 303d 74a6 a8bc 0779 033e c594 99bb
00000080: feb3 78bc ccb4 9a3d 1135 18bd 2bb9 523d
00000090: 9a3b 6d3d 313a b0bd c3e8 3f3d b55f 0bbe
000000a0: 41e8 36bd 7eae 40be fdaa 113e 6390 7ebd
000000b0: 03c5 54bd e2ea 95bc 9e4b 38bc 59cf b4bd
000000c0: 374d bbbd 3af5 5dbd 73bd 13be 400f 04be
000000d0: 71c3 cebc b03a 02bd 5e69 de3b 4be3 da3d
000000e0: e901 98be e3ee f53d 1aff 95bd 28a3 89bc
000000f0: cbc6 e03c 74ea 0fbd c67c 4abd d2bd 57bc
00000100: f255 b0bb dd99 b13c c5c5 5c3d c045 a9bc
00000110: 495b 0abd 93be 1cbc 5c48 0abd 4b1f dbbc
00000120: e8ed ee3c 4068 0ebd 9dd4 9dbc 34ce dc3b
00000130: d143 fbbc 523a b339 308f 3fbd 6837 9a3d
00000140: f802 febd 16ae 223d 3f8a 453d d09a 2e3d
00000150: 52e2 243d ae33 29be 0f43 e8bc f2ef 75bc
00000160: 893f 0fbd a422 68bc f9c8 acbc 8aad 25bd
00000170: 28d8 9f3c 3f1a 1ebd 9b52 92bb ba66 9cbc
00000180: ab66 f6bc 63c1 b5bc e777 09bd 587a 1ebc
00000190: 5264 b3bc ec06 d5bc fc62 71bd 0d9e adbc
000001a0: ab7e afbc 26e6 e4bc 2552 f8bc 4766 95bc
000001b0: 957a f7bc 8167 f3bc bba4 49bc cecb e9bc
000001c0: 9a2a 353e 05f9 a03c 76e9 dabc 0bb0 8a3d
000001d0: ab64 57bd bb12 d5bd 5bed babb 33ed 0b3e
000001e0: 9dbc 05bd 6db3 8cbc 0f07 01be 79f8 a63c
000001f0: f5a8 d7bd 7615 1cbc e40d a23d 7feb 85bd
00000200: 3ef4 7dbd ba84 173d 996a 01be 0c34 60bd
00000210: 448e c8bb 1cf2 3cbc 3f67 4ebc 429c 0abd
00000220: f025 4bbc c3f7 13bd 2ddd a93b 74eb fabc
00000230: ea96 8c3d 33d0 913c 9aea a5bc 83ab 42be
00000240: e954 2abc fdc4 493d 59a0 c73c 7460 dcbc
00000250: b7f0 ffbc a5e1 62bc 7e2e bd3d 1446 303e
00000260: c0f1 663d 0899 bbba 2037 003d 296e 67bd
00000270: fc3e f13c e6e6 353c 8865 823d c56f a6bc
00000280: 0bfc 643d d643 0fbd e83f 133d 3667 a13c
00000290: d728 233e 2c0b 4d3c 6c00 52bd a7c3 373c
000002a0: 4844 15bd 276c 093e 6726 0ebe ec68 ad3b
000002b0: d1f9 54bc a540 98bc 9dcb f2bc a4c8 52bd
000002c0: d225 b7bb fb65 a93b 77f3 50bc 2133 1ebd
000002d0: 01cd 2cbb 01c0 9c3c 07fb 833c ba43 753c
000002e0: 30db c8bd 121b 63bc fb77 793b a958 4e3c
000002f0: d2a9 643d e772 323e 91b9 523d 4d44 773d
00000300: 2649 623d 8af2 e03d 14a4 fdbb 7878 7fbd
00000310: c02c 593c 4a7f 833c 99f3 c2bc 05d6 473a
00000320: f8ae f0bb f608 58bc d259 74ba 6c76 98bc
00000330: 7f39 4c3b f968 e1bc a3e6 4c39 3884 bb3a
00000340: 7a84 edbb e6c7 73bc 2cd6 5a3c 1da2 d03b
00000350: 6432 033c fef3 6e3b ad7d a43a 40b4 443d
00000360: 4d1c 81bc db64 883b 66f7 d3bb 3e0b 68ba
00000370: 6987 7dbc 8dce 9cbc 39b3 af3b 63b2 83bc
00000380: b7a5 12bc 11b9 6c3d 2283 333c 43bb 2f3a
00000390: 1b8e d3bc 6505 033c f90e d2bc 243d a1bc
000003a0: c9dc 3b39 0488 abbb fc57 bbbc e34b 9a3c
000003b0: 16cb c7bc d682 e9bc e2a0 9e3c fb17 693c
000003c0: e125 d83c 8df4 5abc 5d95 9fba 4411 9c3c
000003d0: 26b9 5bbc 772a 363c 2370 2aba dbb9 60bc
000003e0: cce6 db3b 4538 49ba bb04 e73b a692 0fbd
000003f0: 8924 363a 5c39 53bb 9aa4 723c fe41 c73c
-0.056971755 0.05908915 0.37513074 -0.10591683 0.09678196 -0.14052008 -0.2532555 -0.095879264
-0.012485591 0.022854518 -0.0058631385 0.040373065 0.091171384 -0.1702262 0.16120642 0.0466831
-0.047681034 0.033985563 -0.019293204 0.045799207 0.021636652 0.051419225 0.033644002 0.016828395
0.036027957 -0.01915218 0.020533891 -0.018424217 0.043121897 -0.020587184 0.12839137 -0.004686924
-0.015179632 0.075540155 -0.037159983 0.05144612 0.05791817 -0.08604849 0.04685284 -0.13610728
-0.04465509 -0.18816563 0.14225383 -0.062149417 -0.051945698 -0.018300477 -0.011248497 -0.08828611
-0.09145587 -0.054188944 -0.14427738 -0.12896442 -0.025239678 -0.03179425 0.006787463 0.10687884
-0.29688957 0.12008455 -0.073240474 -0.016801432 0.027438542 -0.0351357 -0.0494354 -0.013167815
-0.005381339 0.021679813 0.053899545 -0.020663142 -0.033778463 -0.009566921 -0.033760414 -0.02674832
0.029166177 -0.03476739 -0.019266421 0.0067384485 -0.030671986 0.00034184993 -0.046767414 0.07530099
-0.1240291 0.039716803 0.048227545 0.04262811 0.0402549 -0.1652362 -0.028352289 -0.015010821
-0.0349727 -0.014168415 -0.021091925 -0.040448703 0.019512251 -0.03859925 -0.0044654137 -0.019091953
-0.030078253 -0.02218694 -0.033561613 -0.009672724 -0.021898422 -0.026004277 -0.05893229 -0.021193529
-0.021422705 -0.027941775 -0.030312607 -0.018237246 -0.030209819 -0.02971244 -0.012307341 -0.028539564
0.17692032 0.019649992 -0.026722651 0.06771859 -0.05258624 -0.10403963 -0.0057045645 0.13664703
-0.03265058 -0.0171754 -0.12600349 0.020382153 -0.10530273 -0.009526601 0.07912806 -0.06539058
-0.062000506 0.036991812 -0.1263832 -0.054737136 -0.006120475 -0.011532333 -0.012597858 -0.033840425
-0.012399182 -0.036124956 0.005183837 -0.03062985 0.06864722 0.017799472 -0.020253468 -0.19010739
-0.010396221 0.04926013 0.024368452 -0.026901461 -0.031242711 -0.013847743 0.09237383 0.17214233
0.056382895 -0.0014312575 0.03130257 -0.05650154 0.029448979 0.011102414 0.06367022 -0.020316968
0.05590443 -0.034976803 0.035949618 0.019702535 0.15933548 0.012514871 -0.051269934 0.011216081
-0.03644207 0.13420163 -0.13881837 0.0052920487 -0.012999014 -0.018585512 -0.029638106 -0.051460877
-0.0055892253 0.0051696277 -0.012753359 -0.03862298 -0.002636731 0.019134523 0.01611091 0.014969761
-0.09807432 -0.0138614345 0.0038065899 0.01259438 0.055826016 0.17426644 0.0514465 0.06036787
0.05524554 0.10983761 -0.007740507 -0.062370747 0.013255298 0.016051907 -0.023797797 0.0007623139
-0.0073450767 -0.01318573 -0.00093212456 -0.018611155 0.00311622 -0.027515875 0.00019540875 0.0014306372
-0.0072484585 -0.0148792025 0.013356727 0.0063669817 0.0080076195 0.0036461349 0.0012549661 0.048023462
-0.015760565 0.0041624135 -0.006468701 -0.0008851773 -0.015474179 -0.01914146 0.005361941 -0.016076272
-0.008950642 0.05779368 0.0109565575 0.00067036244 -0.025824597 0.007996892 -0.025641905 -0.019682474
0.00017915959 -0.00523472 -0.022869103 0.018835014 -0.024388831 -0.02850477 0.019363824 0.014226909
0.02638525 -0.0133639695 -0.0012175251 0.019051202 -0.013410842 0.011118523 -0.0006501695 -0.013716186
0.0067108627 -0.00076759263 0.0070501245 -0.035051964 0.0006948193 -0.0032230234 0.014809752 0.02432346

_orig_mod.dense_proj.bias f4 [64]
00000000: ea0d bdbd 14c5 d33b ca8c 453c eb28 bc3c
00000010: 55d8 93bc 61e8 59bc f8b3 d1bb ec25 e0bc
00000020: 0b12 433c 049c bbbc f15a 68ba d07e 4e3c
00000030: bddf 08bc 92c8 443d 24cf 2dbe fb3b c43c
00000040: 8129 0fbe 49f7 393d 0c12 4ebe 8c9b 1b3e
00000050: 1dcf 5d3e 5c8c 5a38 9623 7a3c cbd8 e139
00000060: 3675 013c 9137 80bb 96e0 823b 6c08 ec3d
00000070: 1838 f03a 5d18 5a3d be79 f53d 5e26 afbd
00000080: 85e8 c4bb 6d10 39bc 6daf ccbb 8d81 0b3e
00000090: aa75 c73d abb7 2bbd 7364 aa3d ce8f f43d
000000a0: e481 6a3c 8212 ab3d 8c13 1a3c 478f db3c
000000b0: 7803 853b 6346 babb 7fe5 133e 86c9 b93b
000000c0: 74c6 babb 1747 d53b e3e7 993c d7e4 8bbd
000000d0: eb01 ccbb 137c 3abb cc2f aabc c2d9 a2bc
000000e0: ac32 623d 6da8 553c 1257 573c c029 afbb
000000f0: fc97 3d3e 85a8 a23b bfbb 103d 61ab bcbb
-0.092311695 0.0064627025 0.0120574925 0.02296873 -0.018047491 -0.013300032 -0.006399628 -0.027361833
0.011906157 -0.022901542 -0.0008863649 0.012603477 -0.008354125 0.04804284 -0.16973549 0.023954382
-0.13980676 0.045401845 -0.20124072 0.15196055 0.21661039 5.210597e-05 0.015267273 0.00043076868
0.00790148 -0.003912874 0.003994058 0.11525044 0.0018327264 0.05324589 0.11986111 -0.0855224
-0.006009164 -0.01129542 -0.0062464983 0.13623638 0.097392395 -0.041923206 0.083199404 0.11941491
0.014313195 0.083531395 0.009404074 0.026801718 0.0040592514 -0.0056846603 0.14443015 0.0056697754
-0.005699927 0.0065087187 0.01878733 -0.06830757 -0.0062258146 -0.0028455302 -0.020774744 -0.019879226
0.055224106 0.013040644 0.013143318 -0.005345553 0.18515009 0.0049639367 0.0353353 -0.0057577346

_orig_mod.shared_mlp.0.weight f4 [128, 120]
00000000: a3c6 a1bd 7d6b 0580 16a5 da3c 05eb e73b
00000010: 27f3 d3bc 6b5e 3ebc 2604 a6bd 6f02 57bd
00000020: f977 eebb 9c36 65ba 46c3 b1bb 43af 23bc
00000030: df66 443c b72a eab9 80a1 b23c e1b2 d6bb
00000040: 8123 113b 49a7 f73a c17a 11bc 93a0 4c3c
00000050: 275c 203b 478a fcbb b47b d83b 34a6 b4bc
00000060: 364e 9abb ca7d 523c bca5 063b d360 863b
00000070: ba2c 573b d0af 053c 7c5a 2d3c 11a9 89bb
00000080: 943d 6f3b 4db7 283c 8f14 72ba 2614 e23b
00000090: 631e a539 6f02 693c bab2 c8b9 4256 2fbb
000000a0: aedc 5a3b c2e8 1cbb 913f 6fbb 02f9 343c
000000b0: e7f8 d93b e341 f83b 3780 c73b 9573 d73b
000000c0: 456b 76ba 92e6 2f3c af32 8fbb 3873 943c
000000d0: e947 7cbb 7d87 0b3b ee44 c9bb 84c3 393c
000000e0: c20d 1638 ee64 493b bd65 b9bb 6802 bfbb
000000f0: a7c9 20ba 2534 633b aa42 f13c a203 a13b
00000100: 94ab 8b3a 83ba ba3b c8a4 ef39 c631 15bb
00000110: 20bc 4fbb e393 9e3c ea4c a13b af1a 46bc
00000120: 50fc 9f3c 8bde 673d a70e 583c ea5a 35bc
00000130: 3107 afbc a9db 593b 413c 0d3b 336c 4e3a
00000140: a3db 16bb ed55 1bbb a69a 70bb 37f5 92ba
00000150: c46b fd39 6775 6a3d 33ea 133c 3c2b 0f3c
00000160: b9ae aabb 3016 d73a 1660 97bc ee62 0fbc
00000170: 8486 2bbc 3d0d a0bd 749c df3b b1e7 ca3a
00000180: 3614 0f3a f1f4 e7bb 7cad 823b 4bf4 34bc
00000190: 9b38 6cbc 1439 4038 a232 a6bc b066 f73a
000001a0: 33c1 323b 88f9 3c3b 8c86 6ebb 28fd 503d
000001b0: 0396 d03b fc1a 8fbb 1bd0 433c 4ccd 493c
000001c0: 7f39 53bc f64d 8fbb daf3 ca3a 4bb2 c23b
000001d0: ccac b7b8 c342 cb3a 0a68 683b 0529 bdbb
000001e0: 7a12 fe3c ad9f 3128 3fc7 f93c 9020 95bc
000001f0: 32f9 43bd 34be 34be c164 9abe 3263 82bd
00000200: 760e 023d f971 64bc 8de4 ddbd e7ee a73d
00000210: 295e 5e3c 90bd 793c 49bf 563e ce07 983d
00000220: 9972 203e 7d63 6bbd d85a 8abe 17b5 3fbd
00000230: defe da3c 0ad2 eebe 9af8 6ebe 8b59 bebe
00000240: 7807 01be 51ee 9b3d 9e46 66be 5bd1 ac3c
00000250: c942 303e 2bd9 783e 8a44 b4bc eaee 31be
00000260: 5a8d e53c a1c8 8ebc 2114 b3bb bbba 033d
00000270: fbb4 bf3b fd4d d5bd 0f0e 61ba 7e3e ad3d
00000280: 15e6 0abf 2d9d 6c3b 6c98 0b3d 9b1f fcbc
00000290: 5302 9fbd 4038 78be 2bb9 91bd 7c00 863e
000002a0: a8e0 8b39 be80 1d3e 28e1 39be 1a67 293e
000002b0: 917f 3d3d 90b2 dabb a1df a9be 89f5 be3d
000002c0: 9ca6 493d d8de 2d3d 38b7 10bc 0e8a 913b
000002d0: 715e f1bd 1717 4bbb 93c9 ea3c 5110 2bbc
000002e0: 4586 54bc 8a70 583c f65e c53b e3cb d8bb
000002f0: b68d 153c 0b54 ab3d b167 103e 0ba1 5abc
00000300: 55e2 083e dd7b ce3d 9a0d 693d fcab 84bc
00000310: e6bc 8f3c 52d7 14bb 2e23 34bc 3123 af3c
00000320: cb3e 54bc 3ad4 e33b 6fde abbb fed7 cabd
00000330: e6d0 873c 199c d4b9 a2f9 003d e6b7 1f3c
00000340: de5c 0ebd fdbb f53b d0e4 42bd 33c7 5b3c
00000350: d18f f23b 0642 c73c 7e65 d73c eb2c b6bc
00000360: f86c af3c eb87 ad3c aaf8 ca3c 4653 debc
00000370: ac73 e8bd efd2 8fbc 3393 23bd 100b 9a3c
00000380: 485d 4e3c 1ad2 d13b 56d7 f3bc 185b 8f3d
00000390: e9fa 633c 8ab2 913c 0590 063d f0e5 473d
000003a0: caf4 823d e1b4 943c 7cdf 423c 7973 a13c
000003b0: 18d5 85bd da44 8cbc 42c1 ddbc a9bb 9bbc
000003c0: fdb6 163d bc8b 3ca5 5fd7 ad3c 303a dbba
000003d0: 354d d2bc 5c98 82bd 28db fdbc 779a d6bc
000003e0: 1f94 423c a513 093d 13a6 debc 7148 c13d
000003f0: 7bc8 e43c 9cff 4d3d 6d4b a43d c9c3 b43d
-0.07899215 -4.97737e-40 0.026690047 0.007077577 -0.02587278 -0.011619191 -0.0810626 -0.052492555
-0.0072774854 -0.0008743794 -0.0054248897 -0.009990516 0.011987417 -0.00044663783 0.021805525 -0.0065520857
0.0022146406 0.0018894459 -0.0088793645 0.012489456 0.002446899 -0.0077069136 0.0066065434 -0.022051908
-0.0047090305 0.012847373 0.0020545563 0.004100898 0.0032833056 0.008159593 0.010580655 -0.0042010625
0.003650521 0.010297609 -0.0009234631 0.0068993745 0.00031493892 0.014221772 -0.00038280134 -0.0026754295
0.0033395696 -0.0023942445 -0.0036506394 0.011045696 0.006651986 0.0075762137 0.0060882824 0.0065750577
-0.00094001397 0.010736125 -0.0043700556 0.018121347 -0.003849501 0.0021290474 -0.0061422503 0.011338118
3.57756e-05 0.0030730325 -0.00565788 -0.0058291443 -0.0006133564 0.0034668532 0.029450733 0.004913763
0.0010655993 0.0056985035 0.00045708404 -0.0022765263 -0.0031697825 0.019357627 0.004922499 -0.012091323
0.019529492 0.056608718 0.013187087 -0.011069039 -0.021365734 0.00332425 0.0021550807 0.00078743993
-0.0023019097 -0.0023702339 -0.0036713271 -0.0011211996 0.00048336212 0.05724087 0.009028005 0.008738335
-0.005208817 0.0016409811 -0.018478435 -0.008751614 -0.010469083 -0.07815025 0.0068240706 0.0015480426
0.0005458029 -0.00707876 0.003987966 -0.011044572 -0.014417793 4.5829525e-05 -0.020287815 0.0018875208
0.00272758 0.0028835256 -0.0036396114 0.05102268 0.006365539 -0.0043672305 0.011951472 0.012317013
-0.012892126 -0.0043733073 0.001548405 0.0059416643 -8.758306e-05 0.0015507567 0.0035462403 -0.005772712
0.03101467 9.860098e-15 0.030490516 -0.018204004 -0.047845073 -0.17650682 -0.30154994 -0.06366576
0.031752072 -0.013943189 -0.10834608 0.08199864 0.013572254 0.015242949 0.20971407 0.074233636
0.15668716 -0.057467926 -0.27022433 -0.04680356 0.026732858 -0.46644622 -0.23337021 -0.3717769
-0.12600505 0.076138146 -0.22487876 0.021095922 0.17212977 0.24301593 -0.022005338 -0.17376295
0.028021503 -0.017429652 -0.005465046 0.032160502 0.005850432 -0.10415266 -0.0008585164 0.08459185
-0.5425733 0.0036104426 0.034080908 -0.03077679 -0.07764115 -0.24240208 -0.07115396 0.26172245
0.00026679528 0.15381142 -0.18152297 0.16543236 0.046264235 -0.0066741183 -0.33178428 0.09324176
0.049231157 0.04244885 -0.008832745 0.004441506 -0.117855914 -0.0030989104 0.028660571 -0.010440902
-0.0129714655 0.013210425 0.006023283 -0.006616102 0.009128025 0.08365639 0.14102055 -0.01334406
0.13367589 0.10082219 0.056897737 -0.01619529 0.017546128 -0.0022711349 -0.010994716 0.021379085
-0.012954424 0.0069527896 -0.005245022 -0.099044785 0.016579103 -0.00040552093 0.03148807 0.009748435
-0.034756534 0.0074992166 -0.047581494 0.013414192 0.007402398 0.024323475 0.026293512 -0.022238215
0.021414265 0.021182975 0.024776775 -0.027139317 -0.11350188 -0.017556636 -0.039935302 0.018804103
0.012595482 0.00640322 -0.029765766 0.06999797 0.013914802 0.01778533 0.03285219 0.04880327
0.06394346 0.018152656 0.011894103 0.019708382 -0.06534785 -0.017122675 -0.027069692 -0.019010382
0.036795605 -1.6353745e-16 0.021220861 -0.0016725715 -0.02567158 -0.063767165 -0.03098829 -0.026196701
0.011876135 0.033466 -0.0271788 0.09437645 0.027927628 0.050292596 0.08022199 0.088264056

_orig_mod.shared_mlp.0.bias f4 [128]
00000000: 2d8f ddbd 45f3 09be 9c3f 4abd 1a6b 86be
00000010: 08f4 cd3d be55 b1bc 6af3 46bd 0315 a7ba
00000020: 5565 733d d750 843d 400f 1cbe 8637 b9be
00000030: 786c be3d 4154 40bd e9ee 9abc cddb f63b
00000040: fcee 97bd 53ab 42be 875d 473d 0478 8a3d
00000050: 8d98 fa3b 86d9 32bd ada6 593c 0c17 203b
00000060: 207a e23b d3db 8439 5a95 5c3d 855a 60bd
00000070: dc5d 333c 5219 183e 2ed0 f03b 37c3 59be
00000080: 6922 db3d e09d d0bd dbcc 23be 321c b43c
00000090: d51f 2e3c 6f6e b63d c780 3abe 7ffd 883d
000000a0: f02e 663d c9ab a23c 25ed 20be d8ef 2ebe
000000b0: c2e3 4bbe acaf e4bd 693c 60be 7d0a cdbd
000000c0: 5df3 d9bd 2e9a 2f3c dad4 b4bb f1bd 87bd
000000d0: 27d2 043c cacf ee3c 7804 6a3b 98a7 713c
000000e0: d9ff eebd 7e72 2dbd 2de8 0fbd eeff 243c
000000f0: 8b75 423c 1326 1bbe ef5b 9c3c a110 29be
00000100: b39e 44be 514c 043e eec2 8d3b f6dc d0bd
00000110: 9964 51be d28f 35bd 9494 cf3b 0482 4cbc
00000120: 24c9 96bc 3e55 15be 3e41 553e 10af fabb
00000130: cf40 6c3d 289e 1f3d 2a92 88be a98a 463d
00000140: cba3 2ebb 9a0e 83be 808a 33be c31e 423d
00000150: 017b 12bd 2c59 12be 00c8 403b 56e9 af3d
00000160: cf4d ccbc a34e 09bb cfb6 143c 1415 00bf
00000170: d7ea 12bc 4878 e03d 35b5 f9bd cf01 8abc
00000180: 18cd 5abc d9ce 6fbd bf7c dbba 475d d73d
00000190: 54bc 15be c9a5 40be 6917 113d e193 f2bc
000001a0: 075c d03d 24dc 35bd c055 67be 7b97 013e
000001b0: 7869 ea3a 6d4e d3bb 5222 f03b 7938 c33d
000001c0: b151 62bd e28b 633c 2839 91bc 2654 1fbe
000001d0: f994 573c b7dd 9cbe a7e3 7cbb db09 a43b
000001e0: c4a1 a73d 1d0e ea3d cb8d 60bc 42b2 e93d
000001f0: 89a3 9d3d 55b7 a73c 62b4 e03d aa66 ea3b
-0.10818324 -0.13471706 -0.04937707 -0.26253587 0.10056311 -0.02164733 -0.04857198 -0.0012747351
0.05942281 0.064607315 -0.15240192 -0.36175174 0.092980325 -0.04695535 -0.01891275 0.0075335265
-0.074186295 -0.19010668 0.04867318 0.067611724 0.00764758 -0.043664478 0.0132843675 0.00244278
0.006911531 0.00025340784 0.05385337 -0.054773826 0.010947671 0.14853409 0.0073490357 -0.21265875
0.106999226 -0.10186362 -0.15996115 0.0219861 0.010627707 0.08907782 -0.18213187 0.066889755
0.056197107 0.019857304 -0.15715463 -0.1708368 -0.19911101 -0.11166319 -0.21898045 -0.10011766
-0.10642121 0.010717912 -0.005518538 -0.06628025 0.008106745 0.029151816 0.003570823 0.01474943
-0.11669893 -0.042345516 -0.03513353 0.010070784 0.011868845 -0.15151243 0.019086806 -0.1651025
-0.19201164 0.12919737 0.004326216 -0.10198395 -0.20448531 -0.04432661 0.0063348506 -0.01248217
-0.018406458 -0.14583299 0.20825669 -0.0076502636 0.057678994 0.03896919 -0.26674014 0.04847208
-0.0026647921 -0.25597078 -0.17533302 0.047392618 -0.035761837 -0.14291829 0.0029416084 0.08589427
-0.024939446 -0.0020951412 0.009076788 -0.5003216 -0.008967123 0.10960442 -0.121927656 -0.016846566
-0.013354562 -0.058546875 -0.0016745551 0.10515838 -0.14622623 -0.18813242 0.035422716 -0.02961153
0.10173803 -0.044399396 -0.22591305 0.12655441 0.0017884215 -0.006448558 0.00732831 0.09532256
-0.05525369 0.013888331 -0.01772745 -0.15559444 0.013158076 -0.30637905 -0.003858784 0.0050060577
0.08185151 0.11428473 -0.013705681 0.11410953 0.076972075 0.020473162 0.10971905 0.007153352

_orig_mod.shared_mlp.3.weight f4 [64, 128]
00000000: d4eb 083d 3e7d fd3c 895e 8a3c b3ca d6bb
00000010: ec11 dabd 0c01 d23c ba59 2d3c dc7a 9d3b
00000020: b215 43bd 211d 8dbc 3ff8 72bd 783b 2e3c
00000030: f060 d9bd 66e7 c03c 1622 0f3d 6fcc 0abc
00000040: 2e3a a73c 9a2a 4e3d 405b 42bd 8967 b2bd
00000050: aefd 873b 3294 623c 55a2 a5bb 3e47 7e3b
00000060: c826 1abc 737e 813a 5854 b8bd 1e0b cfbb
00000070: c614 fe3c 4dab fdbd ae2e a63a 7d71 003d
00000080: 83c7 03be a5c1 72bd 95a4 d93c b5ca 56b9
00000090: ace1 f9bb f32b 20bd 0b3e ee3c 9bb4 a2bd
000000a0: 972a 73bd fe09 bdbb ec16 07be 1f4e 443d
000000b0: ac34 853b 7769 26bd 9cf0 2f3c a52a 203d
000000c0: 60f5 07be 177c c3bb 2d8d 36bb bf8b 0a3c
000000d0: dd11 3fbb e2b9 903b d3a7 54bc 5c26 8fbb
000000e0: 4e2b 073d ce27 fdbc cc54 2e3d 1448 98b9
000000f0: 9f5a 47bc 3761 0cbd 8a75 21bc a58a cb3c
00000100: 0f42 fcbc 40fd a0bd d11b d23a c201 e53b
00000110: c519 753c e582 c33c 737a 263c 9056 be39
00000120: 595f 333d 069e 273d ef51 163d 3371 3c3c
00000130: de57 8abd 3153 513c f7de f5bd bd70 acbc
00000140: 78fc 693c 92b6 b7bd 9ca8 b33c 97d4 c2bd
00000150: 7042 0dbd 0f7a 5f3d 98b4 883b 560b 08bd
00000160: 9638 7d3d ba84 c7bd ecb0 ac3c 9f99 d73c
00000170: 60ca 10be 9b18 efbd 934a 3f3c dd6e 4e3c
00000180: c56b b8bb 5352 bbbc ef45 57bd 0b5b 3ebd
00000190: 3196 f53c 1434 993c 3cc0 093c ff11 0bbe
000001a0: 6f41 e2bd efe7 813c eb7d a63d 043c 06be
000001b0: 0dc6 643c 5a04 4d3d 91bc 513a 6e0d ffbc
000001c0: d88b 01bd 8f8f 233c 5c0a 453c 8f31 913d
000001d0: 1bd9 4abc 8280 a73c 4bca 7dbd a082 adbb
000001e0: 6b7a d6bd 07c0 b9bd ae7d 6b3c 032d 44bd
000001f0: b59d b3bd 64ba 88bc b43f 07bd 6a0e 89bb
00000200: c417 533d c475 89bd f738 2d3d 41e8 873b
00000210: 8b56 dbbd 5c38 a33c 695b eabb b09a 813c
00000220: c904 19bd 0c27 01bd 1de6 3c3c 8d44 e43d
00000230: a36c 96bd 2d70 163d 1a96 4d3d 273b 5cbc
00000240: 6960 453d 653d 093e 14bb 1bbd 10b6 3fbd
00000250: dfb9 29bc cc55 143d 63eb 80bc 3010 80ba
00000260: 7274 d23b 69be 58ba db37 8bbd 5961 c33c
00000270: e682 9e3c 29e5 c8bd 7f66 e1bb 86bb c53c
00000280: 4675 a4bd 63fd 923c 3aea 803d df09 393c
00000290: 3b34 85bc b8a4 14bd f3b4 6a3d c6a4 67bd
000002a0: c22d 10bb 294b c73c 8b20 45ba 6281 df3d
000002b0: 76b8 dcbc ad66 a53c ffcc 39bc e1a5 3b3d
000002c0: 6bd6 7fbc d05d 9bbc 5157 923c e304 ee3c
000002d0: 4c74 63bc 3d29 2b3c 50ae 76bc 4719 c1bc
000002e0: b052 4e3d 2590 28bc d0eb fd37 d469 a1bc
000002f0: 8a20 2bbb a642 713b 374c ccbc 5e78 933d
00000300: dfc8 593d 996a 74bd 2a0d 78bc ac87 873d
00000310: 053c 05bd 99d6 233d 4583 27bc b113 563c
00000320: f6db f53c fe39 803d a309 aebe 0d27 0d3c
00000330: ebec abbc 840c 34bc aeb6 e7bc f638 a9bc
00000340: 3a41 2ebb e09e 33bd 0ab4 5c3b ddf0 52bc
00000350: 751b 253d 0d25 753d a5f1 3bbc 0e0a c0bc
00000360: 9453 2b3d cb53 8abc a988 3ebc e3ea 91bd
00000370: 2a07 e0bc 5a47 c5bd ee69 873d d92c 263c
00000380: 47c6 393c 3ac2 ab3c dc1f 92ba 61af 8dbc
00000390: c1c4 653d 6b1a 0a3d 53ee d23a 6541 973c
000003a0: 6c69 91bd b4de f13c 4276 2bbc 5e7d 9fbd
000003b0: 706e 14bc b353 e63c a636 51bc 1a76 51bc
000003c0: 97a6 c93c b566 77bc 396b e03c c918 323c
000003d0: 960a 7cbc 62fd ffbc a32e f0bc d3f6 6bbc
000003e0: 36d2 90bd 58b1 bebd 0946 c43b bd84 9abd
000003f0: af37 28bd c0e2 c4bc c133 b7bc 5074 79bc
0.03342803 0.03094351 0.016890781 -0.0065549253 -0.106479496 0.025635265 0.0105804745 0.0048059057
-0.047628112 -0.017225804 -0.059318777 0.010634296 -0.106141925 0.02354784 0.034944616 -0.008471592
0.020413484 0.050333597 -0.047450304 -0.08711154 0.004150114 0.013829278 -0.005054752 0.0038799788
-0.00940866 0.0009879604 -0.09000462 -0.006318464 0.031015765 -0.12386189 0.0012678707 0.03135823
-0.12869076 -0.059266705 0.026567737 -0.00020484145 -0.007625779 -0.039104413 0.029082319 -0.07944604
-0.05936679 -0.0057690134 -0.13192338 0.047926065 0.004065117 -0.040627923 0.010738518 0.03910317
-0.13277197 -0.0059657204 -0.0027855143 0.00845617 -0.0029154934 0.00441669 -0.012979466 -0.0043685865
0.033000283 -0.03090277 0.042561337 -0.00029045402 -0.012167602 -0.0342724 -0.009854684 0.024846384
-0.030793218 -0.078608036 0.0016030018 0.006988735 0.014959757 0.023866126 0.01016103 0.00036304118
0.043792102 0.040922187 0.03669923 0.011501598 -0.067550406 0.012776182 -0.12005418 -0.021049852
0.014281385 -0.089703694 0.021930985 -0.095132045 -0.034487188 0.054559764 0.004171919 -0.033213936
0.061821543 -0.097421125 0.021080457 0.02631837 -0.141397 -0.11674615 0.011675495 0.012599674
-0.0056280815 -0.022866404 -0.05255693 -0.046473544 0.029978843 0.01870159 0.008407649 -0.13581084
-0.11047637 0.015857665 0.08129486 -0.13108832 0.013963235 0.050052978 0.0008000816 -0.031134333
-0.031627506 0.0099829575 0.012026396 0.07089531 -0.012380864 0.02044702 -0.0619605 -0.0052951127
-0.10472568 -0.090698294 0.014373226 -0.04789449 -0.087703146 -0.01669044 -0.033019736 -0.0041826265
0.051536337 -0.06711915 0.042290654 0.00414756 -0.10709866 0.019924335 -0.00715201 0.015820831
-0.03735808 -0.03153138 0.011529473 0.111458875 -0.073449396 0.036728073 0.050191976 -0.013441837
0.048187647 0.13402326 -0.03802021 -0.046804488 -0.0103592565 0.036214635 -0.015737241 -0.0009770449
0.006422573 -0.00082681194 -0.06797763 0.02385013 0.019349527 -0.09809334 -0.0068786736 0.02413727
-0.08030181 0.01794309 0.06294675 0.011293857 -0.016260257 -0.0362899 0.057301473 -0.056553625
-0.002199993 0.024327831 -0.0007519803 0.1091335 -0.026943427 0.020190561 -0.011340379 0.04581249
-0.015615086 -0.018965632 0.017863901 0.029055065 -0.013882708 0.010446844 -0.015056208 -0.023571623
0.050371826 -0.010288273 3.0269759e-05 -0.019703783 -0.0026111924 0.0036813407 -0.024938686 0.072006926
0.05317008 -0.059671972 -0.015139857 0.06617674 -0.032527942 0.03999958 -0.010224168 0.013066218
0.030012112 0.06261061 -0.33991727 0.008615267 -0.020986995 -0.010989312 -0.02828535 -0.020657044
-0.002658917 -0.043852687 0.0033676648 -0.012874809 0.04030939 0.059849788 -0.011471187 -0.023442294
0.041827753 -0.016885659 -0.011629262 -0.07124879 -0.027347166 -0.0963275 0.06612001 0.010142528
0.011338777 0.020966638 -0.0011148411 -0.017295541 0.056095842 0.0337166 0.0016092755 0.0184638
-0.07100186 0.029525138 -0.010465207 -0.07787584 -0.0090595335 0.028116083 -0.012769377 -0.012784505
0.024615569 -0.015100171 0.027394878 0.010870167 -0.015383383 -0.031248752 -0.029319113 -0.014402109
-0.070713446 -0.093111694 0.005989794 -0.07544849 -0.04106873 -0.024033904 -0.022363545 -0.015225485

_orig_mod.shared_mlp.3.bias f4 [64]
00000000: e505 2fbe e7af 89be 7248 6cbe 9bb0 8b3e
00000010: eccc e7bd 179c 8bbe f72e 23be a7d8 85be
00000020: 1801 8cbe e3c5 70be 17d0 b43e 9b42 713e
00000030: 3611 8d3e 8162 913e 89e2 433e 23d2 7dbe
00000040: c2bb 683e 5561 533e 15fd 7f3e d56c 0bbe
00000050: bc4f 8b3e 3966 07be 79bc 20be 0e4c 01be
00000060: 047a 69be ceae dcbd 1786 8f3e 5651 823e
00000070: 5f49 933e 31ea 973e c28a 7c3e c3a7 903e
00000080: f718 6fbe 390a 22be d0d8 41be c298 8d3e
00000090: ade1 ac3e 00ae 6bbe 496d 81be a97b 67be
000000a0: 9e39 83be 07c6 6fbe 4eef 90be 3a46 a53e
000000b0: 7474 8a3e 976c 2dbe 4e07 16be a24f 933e
000000c0: f9c1 993e c381 7d3e e0e5 40be 7462 9abe
000000d0: ac25 56be aaf5 543e 427f 4fbe a8d0 1cbe
000000e0: 2158 53be 618f 823e 8dc2 943e a975 9e3e
000000f0: 6280 03be f0ed 75be 2746 9a3e 5351 0bbe
-0.17092092 -0.26892015 -0.2307451 0.27283177 -0.113183826 -0.27267525 -0.15935884 -0.26141855
-0.27344584 -0.23512988 0.3531501 0.23560564 0.27552193 0.28395465 0.19129385 -0.24787192
0.22727874 0.20642598 0.24998887 -0.13615735 0.2720927 -0.13222589 -0.15696897 -0.12626669
-0.22800452 -0.10775529 0.2803199 0.2545268 0.28766915 0.2967086 0.24662307 0.28252992
-0.23349367 -0.15824212 -0.18930364 0.27655607 0.33765927 -0.23015594 -0.2527869 -0.22605766
-0.25629896 -0.23415385 -0.28307575 0.3228014 0.27041972 -0.16935955 -0.14651224 0.28771693
0.30030802 0.24756531 -0.1883769 -0.3015324 -0.20912808 0.20796838 -0.20263389 -0.15313971
-0.20639087 0.25500014 0.2905468 0.30949143 -0.12841943 -0.24016547 0.30131647 -0.13605241

_orig_mod.ctr_head.weight f4 [1, 64]
00000000: 780f a83e 49df c33e f143 ba3e fb56 41be
00000010: a62b 923e a773 a93e af91 a03e f595 973e
00000020: 2710 b13e b77e 7f3e 7434 e2bd 83ba d9bd
00000030: f398 cebd c382 08be 4d3e c4bd 47d3 aa3e
00000040: fcef a6bd f960 e0bd b948 c5bd d0aa cb3e
00000050: 801f 0bbe 66b2 a83e badb 953e 1be0 b53e
00000060: d5c4 a53e 552e b93e e2f9 f2bd d1ae c2bd
00000070: b03e b5bd 01bf e3bd 5a1d e3bd 1a1d 04be
00000080: 47ab 9a3e 0965 ad3e cd47 9f3e 374b e0bd
00000090: 3f52 c4bd f8c7 e43e b000 ac3e 87c5 973e
000000a0: 1c17 c23e 82b8 8c3e 4a5f e23e 760c c7bd
000000b0: 4235 b5bd 5abe ac3e 6e02 cf3e 15f4 c4bd
000000c0: 4104 ccbd 028b acbd acb8 b23e d163 da3e
000000d0: 0f9b 7d3e 13bb e5bd 091f a53e b52c a83e
000000e0: 3cd9 973e d4ae bcbd 4b32 d3bd 4089 d5bd
000000f0: c8c9 b73e bbac b33e 5785 dfbd 2995 9b3e
0.32824302 0.3825629 0.3637996 -0.18880837 0.28548926 0.33096048 0.31361148 0.29606596
0.34582636 0.24950682 -0.11045161 -0.106312774 -0.100877665 -0.13331132 -0.095821954 0.33364317
-0.08151242 -0.10955996 -0.09633011 0.39778757 -0.13586235 0.32948607 0.292692 0.3552254
0.32376733 0.3616816 -0.118640676 -0.09506 -0.08849847 -0.111204155 -0.11089583 -0.12901726
0.302088 0.33866146 0.31109467 -0.10951846 -0.09586 0.44683814 0.33594275 0.2964289
0.37908256 0.27484518 0.44213325 -0.097191736 -0.08848049 0.33738977 0.4043154 -0.096168675
-0.09961749 -0.08424951 0.34906518 0.4265428 0.24766181 -0.11217322 0.3225024 0.3284661
0.29657924 -0.09213033 -0.10312327 -0.10426569 0.35896134 0.3509272 -0.109141044 0.30387238
