experiments/exp_20251005_030455/models/checkpoint_epoch2_auc0.7271_logloss0.0880.pth (torch, 137410 bytes, 12 tensors)

_orig_mod.embeddings.gender.embedding.weight f4 [5, 8]
000000 dd da eb 3c 88 3d 81 3a b9 49 ad bc b8 ca f4 bb
       0.028790886 0.0009860257 -0.021153318 -0.007470455
000010 20 90 c8 3c 62 39 aa 3c 5e 69 28 3d 69 93 0e 3d
       0.024482787 0.020779315 0.04111611 0.03480855
000020 22 88 9c 3f d7 c8 9e ba 46 22 e4 be e7 1b c3 be
       1.2229044 -0.0012114298 -0.445574 -0.38107225
000030 dc da c9 3e ff 6c eb bd 88 2c e2 3e 38 3e 31 3f
       0.3942479 -0.11495399 0.441746 0.69235563
000040 95 9a b0 bd e0 a8 5c ba 78 b3 7b be 3f 2e 1e 3e
       -0.08623234 -0.00084174983 -0.2458018 0.15447329
000050 58 f9 b4 3e 6f 90 7c 3f c5 1c e2 3f 07 5d ca 3e
       0.35346484 0.9865789 1.766503 0.395241
000060 c6 59 05 80 bb 5b 05 80 4e 64 05 00 cd 60 05 80
       -4.91382e-40 -4.92084e-40 4.9516e-40 -4.93903e-40
000070 02 c1 05 80 57 67 05 80 bd 64 05 80 97 5e 05 00
       -5.28416e-40 -4.96249e-40 -4.95316e-40 4.9311e-40
000080 12 df 05 80 1a 5c 05 00 76 98 05 80 5e 62 05 80
       -5.392e-40 4.92217e-40 -5.1387e-40 -4.94465e-40
000090 20 75 05 00 e6 b9 05 80 aa 99 05 00 5c 6a 05 80
       5.01194e-40 -5.25865e-40 5.14302e-40 -4.97332e-40

_orig_mod.embeddings.age_group.embedding.weight f4 [15, 8]
000000 a4 54 6e 3c ef 98 06 39 50 e2 21 bd 8a 12 89 bb
       0.014546547 0.00012836208 -0.03952247 -0.004183118
000010 aa f8 46 bd 0b 26 fb bc e2 53 06 bd a5 c9 7c ba
       -0.04857699 -0.030657789 -0.03279484 -0.00096430845
000020 e0 e8 0e be 00 d8 34 bd 28 96 85 3e a4 a0 7a 3d
       -0.13956022 -0.044151306 0.26091123 0.061188355
000030 c1 08 9d 3e ec d7 12 3e c6 96 7f 3e 4f 9f e8 bc
       0.3067074 0.1434018 0.24959859 -0.028396277
000040 b1 34 a2 3d 61 46 24 be 4f 50 d3 bd 2f a8 38 be
       0.07920206 -0.16042472 -0.10318052 -0.18032907
000050 6d 4b 93 be 05 69 a3 be f6 90 0a bf 11 d7 97 bd
       -0.28768483 -0.3191606 -0.5412744 -0.074140675
000060 74 16 63 3d ac df b3 bc 07 6c c2 be a0 bb 39 be
       0.055441335 -0.021957241 -0.37973043 -0.1813798
000070 a3 bf e4 be 90 1b 32 be 3c bb 66 be 35 a4 fa bd
       -0.44677457 -0.17393327 -0.22532362 -0.12238351
000080 c5 56 7c 3d 1e ec c2 bd f1 72 07 be fb e0 3f be
       0.061606187 -0.09517692 -0.1322744 -0.18738167
000090 9f fc d6 be e0 65 79 be 48 e7 99 be 24 66 f5 bd
       -0.4198961 -0.24355268 -0.30059266 -0.119823724
0000a0 6c be e9 3d f9 be 31 3c e6 d9 7a be 91 4c 3c be
       0.11413273 0.010848754 -0.24497184 -0.18388583
0000b0 88 fb 9e be ac 78 62 be c3 08 98 be 8b 7a e9 bd
       -0.31051278 -0.22116345 -0.29694185 -0.11400326
0000c0 7a cc 6a 3c 08 1b f9 3e 0d 2d 93 be fd 27 49 be
       0.014330978 0.48653436 -0.2874531 -0.1964416
0000d0 d8 3c c1 bd 53 a2 fd bb a6 7c b2 be 1d 59 83 3e
       -0.09435433 -0.007740298 -0.34860724 0.25653926
0000e0 d6 ad e9 3e 2f 58 19 3e 01 93 0f bf 6e f2 21 3f
       0.4564044 0.14975046 -0.56083685 0.63260543
0000f0 eb 87 2d be 2c 92 d6 3d 96 61 0c 3f 90 0b 44 3f
       -0.1694638 0.10477099 0.54836404 0.7658014
000100 cb 95 ac 3e c3 8e 41 3e 57 75 05 3f 57 7c 69 3f
       0.33708033 0.18902116 0.5213217 0.9120535
000110 e3 97 6f 3e 16 e3 f8 3e be 6e 69 be 07 6e 02 3f
       0.23397784 0.48610753 -0.22796151 0.5094914
000120 d1 ae 05 80 d9 c7 02 80 97 82 05 00 1a 60 05 80
       -5.2189e-40 -2.55363e-40 5.06024e-40 -4.93652e-40
000130 91 59 05 00 c9 75 05 00 23 62 06 80 bc 61 05 00
       4.91308e-40 5.01431e-40 -5.86218e-40 4.94238e-40
000140 91 72 05 80 66 b3 f7 84 bf 99 05 80 b6 d3 e4 03
       -5.00276e-40 -5.8234172e-36 -5.14331e-40 1.3449242e-36
000150 5f 8c 05 80 0c 8b 05 80 22 5f 05 80 93 63 05 00
       -5.09533e-40 -5.09058e-40 -4.93305e-40 4.94898e-40
000160 eb 5c 05 00 9f 96 05 00 92 5a 05 00 f6 60 05 80
       4.9251e-40 5.1321e-40 4.91668e-40 -4.9396e-40
000170 40 d9 06 80 96 21 06 80 0b 0a 31 80 04 62 05 00
       -6.28948e-40 -5.63061e-40 -4.503542e-39 4.94339e-40
000180 38 59 05 00 8a 5b 05 00 3a 65 05 80 5d a1 05 80
       4.91183e-40 4.92016e-40 -4.95491e-40 -5.17064e-40
000190 6e 79 05 80 30 6d 05 80 ff 60 05 80 e8 a0 86 84
       -5.02738e-40 -4.98347e-40 -4.93973e-40 -3.1651018e-36
0001a0 34 5b 05 80 07 85 05 80 b1 59 05 00 9b 82 05 00
       -4.91895e-40 -5.06899e-40 4.91353e-40 5.0603e-40
0001b0 9e 57 05 80 c5 5f 05 00 c0 7e 05 80 d9 77 24 a1
       -4.90609e-40 4.93533e-40 -5.04647e-40 -5.572398e-19
0001c0 37 5c 05 00 78 77 8d 24 95 a3 05 80 2f 65 05 00
       4.92258e-40 6.135139e-17 -5.1786e-40 4.95475e-40
0001d0 d6 57 05 80 1a 5b 05 00 fc 74 05 80 be 97 05 00
       -4.90687e-40 4.91859e-40 -5.01144e-40 5.13612e-40

_orig_mod.embeddings.inventory_id.embedding.weight f4 [50, 16]
000000 27 e7 77 3d 90 2c 18 bf 96 e4 5f bd ba 19 ab 3e
       0.06052318 -0.59442997 -0.054661356 0.33418065
000010 40 25 0b 3e 36 b6 5c be 53 16 76 3e 08 08 8e 3c
       0.13588428 -0.21553883 0.24031954 0.017337814
000020 5e ad 83 be 5f 58 95 be 54 54 b0 3d 58 f5 08 3d
       -0.25718206 -0.29168984 0.08609834 0.033437103
000030 ed 01 ba be ff ad eb 3d 7d 24 a0 be 84 32 70 3e
       -0.36329594 0.115077965 -0.31277838 0.2345677
000040 8b 11 02 3e 35 28 65 be 9e 79 83 3b 3d ad 90 3e
       0.12702005 -0.22378619 0.0040123006 0.2825717
000050 89 3e 24 3c 97 80 38 be ed c8 4e 3e 94 a5 8b 3b
       0.010024675 -0.18017803 0.20193835 0.004261682
000060 47 74 80 3c b4 00 26 bd da 86 3e 3e 00 82 c7 bd
       0.015680445 -0.040528014 0.1860613 -0.097415924
000070 45 0f 95 bd a4 43 16 3d 69 4f 28 be 02 c2 68 bc
       -0.07278303 0.0366856 -0.16436543 -0.014206411
000080 ad 3e 8a 3d 29 f2 68 3c f8 a6 b6 3c eb 5d 09 3f
       0.06750236 0.014217892 0.022296414 0.5365893
000090 e9 26 00 3e 37 f5 28 be 22 3c 56 3f 4f ca 30 be
       0.12514843 -0.16499792 0.83685505 -0.17264675
0000a0 a0 ce a2 be 0a 5f a3 bd f1 ec 60 3e 12 0a 19 3e
       -0.31798267 -0.07977112 0.21965386 0.14945248
0000b0 25 83 0d bf c6 e1 1a 3e a3 c4 6d bf 49 1f 7d 3e
       -0.55278236 0.15125188 -0.9287817 0.24718966
0000c0 98 ba ad bc 23 25 79 3c a0 dd 9b 3c b8 b7 23 bd
       -0.021207139 0.015206608 0.019026577 -0.03997013
0000d0 4c 15 79 bc 1f a7 c6 3c 47 86 1c bd 08 4d b7 3c
       -0.0152028315 0.024249611 -0.038213994 0.022375599
0000e0 fa f5 09 3d 26 ad 4c 3c 0e d9 de bc e1 60 40 3b
       0.033681847 0.012492454 -0.02720311 0.002935462
0000f0 00 b6 32 bc 57 53 b6 bc 10 e2 e0 3b d2 b2 b6 3c
       -0.01090765 -0.022256536 0.0068628863 0.022302065
000100 97 75 0d bd 9d e4 95 be 02 0a 74 3e b3 2b bf be
       -0.03453597 -0.2927598 0.23831943 -0.37338027
000110 72 2a 80 3e fc 72 3a be 19 4c be be 8c 29 95 3e
       0.25032383 -0.18207926 -0.37167433 0.2913326
000120 a7 8a 0e 3e cd 56 fd be 76 57 97 be 19 bb 1b be
       0.13920079 -0.49480286 -0.29558915 -0.15208091
000130 4d d9 eb bd 28 74 7f be 01 d7 12 bf 67 21 ee be
       -0.11516056 -0.24946654 -0.5735932 -0.4650986
000140 21 07 2f 3e cb fb 02 be be 3e e0 3d ed 2a 0b 3e
       0.17092563 -0.12791364 0.10949467 0.13590594
000150 c5 9c 0e 3d 0d 16 a8 bb 3c 3d 9a 3e 05 b9 b6 be
       0.034817476 -0.005129582 0.30124843 -0.35688034
000160 48 94 7a 3e 31 b8 f2 3e 97 e6 d5 3e 35 44 4a be
       0.24470627 0.47406152 0.4177749 -0.19752581
000170 b4 13 20 3f 09 4d fe bd 21 6d b5 3e 41 f6 46 bf
       0.62530065 -0.12417037 0.3543482 -0.77719504
000180 31 02 a2 3d a2 e1 d5 bd 3f 51 4f 3e 71 90 13 bf
       0.07910574 -0.10443427 0.20245837 -0.57642275
000190 a8 b8 9d 3d eb f8 46 3f a4 0c 73 3e 54 bc cc 3d
       0.07701236 0.7772357 0.23735291 0.09996858
0001a0 f4 d3 91 be 87 85 7b 3d 90 b9 01 3f 3a 54 a4 bd
       -0.2848202 0.06140664 0.5067377 -0.080238774
0001b0 ef 66 e6 be 13 ec 82 be 20 c8 98 3e eb 6e 23 3f
       -0.45000407 -0.25570735 0.29840183 0.6384112
0001c0 1a 26 98 be 1e b2 6a be 9e 11 1c 3f 87 20 13 bd
       -0.2971657 -0.22919509 0.6096438 -0.035919692
0001d0 f2 34 a3 be 12 96 c8 3e 5e aa 33 be 29 bb 75 3f
       -0.31876332 0.39176995 -0.17545459 0.9598871
0001e0 2b 62 86 3f af 91 7d 3e 9a 57 af 3c f3 f8 58 be
       1.0498708 0.24762605 0.021404076 -0.21188717
0001f0 45 48 9c 3e 1e d4 0b bf f7 35 9b be 6f 2c 98 be
       0.30523887 -0.5462054 -0.3031461 -0.297214
000200 1a 4e 97 3d 3c ea bb bd ed 13 1d bc f3 0c 55 3e
       0.073879436 -0.09175536 -0.00958727 0.20805721
000210 e5 44 1e 3d 03 b4 86 bd 76 b8 41 3e c2 6d 23 3b
       0.03863992 -0.06577303 0.18918023 0.0024937247
000220 d9 76 da bd 42 0e 04 be be fe 15 3e 0c 14 67 bd
       -0.106672 -0.12896064 0.14647958 -0.056415603
000230 7e 67 e4 bd ad 5d e3 3c 8b f2 e8 bd 4b 1f d9 3d
       -0.11152552 0.027754629 -0.113743864 0.10601672
000240 6c b3 46 3d 96 e6 a0 bd 47 32 81 be c1 9a f6 be
       0.048510954 -0.07856481 -0.2523367 -0.48164943
000250 69 35 a3 bd 14 b9 1f be 05 d2 ae be bc a8 28 bf
       -0.079691716 -0.15597945 -0.34144607 -0.6588247
000260 9d 6e 22 bb 4e 5c 1c 3f dd 5c 93 be 14 80 6e 3e
       -0.002478517 0.61078346 -0.28781787 0.23291045
000270 7d 39 f2 3e 1e 7e 68 3e d2 08 86 3d e7 73 ae be
       0.47309485 0.2270436 0.06544651 -0.340728
000280 ff b3 61 3e fe 13 97 be 27 70 99 3c e6 5e 9d be
       0.2204132 -0.2950744 0.018730236 -0.30736464
000290 98 83 99 be 75 fa 00 3d b3 3c b3 be 76 27 bd 3e
       -0.2998321 0.031488854 -0.35007247 0.3694417
0002a0 23 b5 f6 3c 7b ab d0 3e 37 3b f5 bd 07 63 bf 3e
       0.03011567 0.4075583 -0.11974185 0.3738024
0002b0 4c 56 e5 bc 6f 7d 7c 3d 8a d2 d0 3e 18 61 50 be
       -0.027995251 0.06164306 0.4078563 -0.20349538
0002c0 4f 49 87 3d 90 6c fa 3e 66 74 ee 3c 43 35 0c be
       0.066057794 0.48910952 0.029108237 -0.13692193
0002d0 b8 77 2e 3d 92 25 ed 3e 6e da 0c 3e d0 a1 8b 3d
       0.04259464 0.46317726 0.137552 0.06817973
0002e0 10 07 b3 be b4 df 2e be 94 ef ba 3e a0 c7 b0 bc
       -0.34966326 -0.17077523 0.3651091 -0.021579564
0002f0 ab f6 eb be f9 06 a5 bd 11 50 f4 bd ba 0d fa 3e
       -0.4608663 -0.080579706 -0.11929334 0.48838598
000300 97 81 22 be 97 23 55 3e dd 15 58 3d 9e 73 a0 3c
       -0.15869747 0.20814358 0.052755225 0.01958638
000310 1d 15 36 3e 62 36 9a bd 39 a5 9b 3d 13 3f 64 3e
       0.17781492 -0.07529904 0.07599873 0.22289686
000320 81 9f a7 be 89 6a 22 bf c6 d8 86 be be 84 8a bd
       -0.3273888 -0.6344381 -0.2633726 -0.067636
000330 04 a3 0d 3e 2d e6 79 3c 70 41 6a be b6 ef e2 3e
       0.13831717 0.015252632 -0.22876525 0.4432351
000340 a8 45 d0 3d 0d 0a f4 bd 3b 69 8b bd 08 09 81 3e
       0.10169536 -0.119159795 -0.068071805 0.25202203
000350 0b 5c d0 3d cb bd d5 bd 0e fb 87 3e f1 31 73 bd
       0.10173806 -0.10436591 0.26558727 -0.0593738
000360 b4 d8 7b be 0e 76 7a be 41 36 38 3e 16 70 26 bd
       -0.24594384 -0.24459097 0.17989446 -0.040634237
000370 61 49 a5 be 87 7e d0 3d 61 bc 4e be de b7 8f 3e
       -0.32282546 0.10180383 -0.20189048 0.28069967
000380 e3 2b ef be b7 24 04 3f 8c a2 38 3e 22 de af be
       -0.4671317 0.5161852 0.18030757 -0.3434916
000390 e1 d4 c2 3e 80 74 2a 3f ff e7 45 3e 8c ee fe bd
       0.3805304 0.66584015 0.1932678 -0.12447843
0003a0 0f a3 e6 be ed 6d bb bc 97 d5 da be e1 c4 e6 3e
       -0.4504628 -0.022879565 -0.4274108 0.45072082
0003b0 0e 27 24 3f 1c 78 db bd 08 88 23 3f 6e 21 0a bf
       0.6412209 -0.107162684 0.6387944 -0.5395726
0003c0 ad 5a 38 3e e6 5d c1 bd da 1f 26 be e6 55 5c 3e
       0.1800334 -0.09441738 -0.16223088 0.21517143
0003d0 3c 7e 83 bd fc cc b5 be a2 b2 d3 3c 11 31 a0 be
       -0.06420562 -0.35507953 0.025842015 -0.31287435
0003e0 30 54 42 3e 06 91 98 3e bb f1 e8 3c 92 01 e6 bd
       0.18977427 0.29798144 0.028435579 -0.11230768
0003f0 86 eb 03 3f c1 dd 18 3e ae ea 27 3e 56 26 cb be
       0.51531255 0.14928342 0.16398117 -0.39677685

_orig_mod.embeddings.day_of_week.embedding.weight f4 [10, 8]
000000 8e de 23 bc 24 23 23 3e 9b bd 7b 3c e9 5c 10 3e
       -0.010001792 0.15931374 0.01536503 0.14097942
000010 70 a5 60 3d 0d cd 5c be ee 4f 83 bd 4c 9c 28 bf
       0.054845273 -0.21562596 -0.0641173 -0.6586349
000020 86 1a 14 bd 03 86 a4 3d b2 1b 83 bc 7c 28 29 be
       -0.036158107 0.08033373 -0.016004417 -0.1651935
000030 75 9e de bd 97 da 11 3f 64 c7 84 3d 60 a4 d7 bd
       -0.10870067 0.56974167 0.06483343 -0.10529399
000040 5b 6a 2c bd 75 68 eb 3d eb 63 bd bc e9 2f aa bd
       -0.042093616 0.11494533 -0.023118934 -0.083099194
000050 e3 2b 25 bd bb 45 00 bf cd f7 36 3c 09 64 9d 3e
       -0.040325057 -0.501064 0.011167479 0.30740383
000060 21 16 4c be 29 c4 c3 3c b7 f0 0e bd 19 48 40 be
       -0.19930317 0.023897247 -0.034897532 -0.18777503
000070 66 df a6 bc 4e 2c 8c be 85 78 a4 ba aa 1c 4d 3d
       -0.020370197 -0.27377552 -0.0012548125 0.050076164
000080 5d 88 1f be 0e 8d fb bd 89 9b 8c bc 7a e1 9d bd
       -0.15579362 -0.122827634 -0.017164009 -0.07709022
000090 35 48 9b 3b d8 33 fe bd 1b 43 98 3d c9 8a a0 bd
       0.0047388324 -0.12412232 0.07434674 -0.07838971
0000a0 df 41 64 bc c5 77 c0 bd 86 2e 0c bb 21 9b d9 bc
       -0.0139317205 -0.09397844 -0.0021390035 -0.026563229
0000b0 30 20 b9 3c 16 b9 c1 be a7 05 81 3c 27 cc 11 3d
       0.022598356 -0.37836522 0.015749766 0.035595085
0000c0 31 13 af 3d 58 f2 48 3d 5c e3 30 3d 44 c0 22 3e
       0.08548582 0.049059242 0.043185577 0.15893656
0000d0 39 51 b0 3d 7c d5 82 be c6 2c 04 be e6 de 0c bf
       0.08609242 -0.255535 -0.12907705 -0.55027616
0000e0 bc 95 05 80 c4 b7 06 80 30 67 05 80 20 67 05 00
       -5.12892e-40 -6.16936e-40 -4.96194e-40 4.96172e-40
0000f0 a6 6a 05 00 0b 5c 05 00 e8 12 06 00 de 71 05 00
       4.97436e-40 4.92196e-40 5.57795e-40 5.00025e-40
000100 03 eb 05 00 86 75 05 00 f9 63 05 80 49 e5 41 a2
       5.43484e-40 5.01337e-40 -4.95041e-40 -2.627776e-18
000110 96 57 05 80 55 57 05 80 c8 5d 05 00 8a 5e 05 80
       -4.90597e-40 -4.90506e-40 4.9282e-40 -4.93092e-40
000120 24 d6 87 89 34 6f 05 80 99 73 05 80 44 61 05 80
       -3.2701445e-33 -4.9907e-40 -5.00646e-40 -4.9407e-40
000130 c1 5d 05 00 9f 64 05 80 69 67 05 00 78 63 05 00
       4.9281e-40 -4.95274e-40 4.96274e-40 4.9486e-40

_orig_mod.embeddings.hour.embedding.weight f4 [30, 16]
000000 d7 01 93 be 4c 42 a3 bc c1 34 03 3d af 02 bf 3c
       -0.2871234 -0.019929074 0.032032732 0.02331671
000010 dc 9d ee bc f6 df f8 bd a2 88 50 bd 9e 61 32 3e
       -0.029128008 -0.12152092 -0.050911553 0.1742005
000020 04 7a aa 3c cb bd 07 3e c7 d8 07 be 06 60 26 3e
       0.020810135 0.13255994 -0.13266288 0.16247568
000030 77 ca 92 3d 03 12 b1 b9 4b 66 4c be cb 6b f6 3d
       0.07167523 -0.0003377349 -0.19960897 0.120322786
000040 0f fd 50 be 55 ed ad bd f4 e2 eb 3b 73 87 9b bd
       -0.20409034 -0.08492533 0.007198686 -0.07594194
000050 03 28 04 3b 88 02 97 bd 0d d0 af bc 5f 2d 98 3d
       0.002016545 -0.0737353 -0.021461511 0.07430529
000060 a9 9d 4c 3d 6c 55 5b 3d ef 17 0a bd 7e 67 3f 3c
       0.049955044 0.05354826 -0.03371423 0.011682389
000070 4f f0 89 3c 62 8f 2a bd e0 5f 27 be 0a 69 07 bc
       0.01683822 -0.041640647 -0.16345167 -0.008264789
000080 b8 0d 60 be 74 50 bd bd 57 a9 c8 3c 4c be 7d bd
       -0.21880233 -0.09243861 0.02449481 -0.06194906
000090 bf 82 da bc d7 ea 59 bd a9 d5 df bc ba 05 9c 3d
       -0.026673673 -0.053202476 -0.02732356 0.0761828
0000a0 91 0c 10 3c 95 b0 6b 3d 46 8c 82 bd ce 8f 41 3c
       0.008792059 0.05754145 -0.06374411 0.011814071
0000b0 73 24 dd 3c 84 23 b0 bc 9a b6 29 be 2a cd 28 bc
       0.02699492 -0.02150131 -0.16573563 -0.010302821
0000c0 ae 18 55 be 47 a9 bd bd 0f 32 2d 3c cc e7 60 bd
       -0.20810196 -0.09260803 0.010571017 -0.05490856
0000d0 c1 fb 8a bc 97 8f 36 bd 69 10 84 bc 4f 2f 7e 3d
       -0.016965749 -0.04457053 -0.016121106 0.062056836
0000e0 e4 e0 d4 3b 44 b9 32 3d 6a 77 25 bd d8 56 2f ba
       0.0064965356 0.043633714 -0.040397085 -0.0006688661
0000f0 80 be 89 3c 8a eb 80 bc c9 a9 18 be fa 42 55 bc
       0.01681447 -0.015737314 -0.14908518 -0.013016457
000100 46 33 33 be 65 f3 85 bd 10 40 47 3d 1a 2e 4b bd
       -0.17500028 -0.065405644 0.04864508 -0.049604513
000110 0c 0a 85 bd ca d7 b9 bd 13 c1 73 bd ae 40 b1 3d
       -0.06496057 -0.090743616 -0.0595103 0.08654915
000120 d5 01 19 3c 3f b4 7e 3d e8 bb 78 bd 4e 8d 1e 3c
       0.009338816 0.062183615 -0.060726076 0.009677244
000130 e5 69 4b 3d da 03 8c bc 07 e3 0a be f2 c1 b4 ba
       0.049661536 -0.01709168 -0.13563167 -0.001379071
000140 6b 6f 7a be 9d 6e 4c bc 5f 44 86 3d 00 a2 c3 3c
       -0.24456565 -0.012477544 0.065560095 0.023880959
000150 d4 3a b8 bd 6b 5d 06 be 5f 93 8d bd ba 22 47 3e
       -0.089955956 -0.13121574 -0.069128744 0.19446841
000160 8b c5 34 38 84 72 30 3e 31 3d 13 be f3 98 3e 3e
       4.309932e-05 0.17231184 -0.14378811 0.18613033
000170 a2 06 94 3d 3e c4 85 3c 1c ec 6c be 41 03 ce 3d
       0.072278276 0.016328927 -0.23136944 0.100592144
000180 57 a3 24 be 59 41 3b bc 65 a3 11 3d 35 3d 93 3d
       -0.16077934 -0.011429154 0.035556216 0.07189409
000190 14 60 35 bd 93 cf 6b bd fd 6d 9e bc 85 98 06 3e
       -0.04428108 -0.057571005 -0.019339556 0.13144119
0001a0 59 47 84 bc ec 42 04 3e 28 32 97 bd 7d 53 5b 3e
       -0.016147302 0.12916154 -0.073826134 0.21418567
0001b0 a0 a2 d1 3c 54 bb c6 3c fa 22 cb bd 6a f3 c9 3d
       0.025590241 0.024259247 -0.099187806 0.09860881
0001c0 f5 22 95 3b 27 6b 27 3e d7 87 94 3c 95 30 06 3e
       0.0045512863 0.16349469 0.01813118 0.1310447
0001d0 af ba e3 bb 41 1a e3 bc 7d 6e 1a bc 6b 09 e1 3d
       -0.0069497447 -0.02772248 -0.0094257565 0.109881245
0001e0 78 16 56 3b b4 01 ca 3d 79 17 98 bd 67 9e 2d 3e
       0.00326672 0.09863606 -0.07426352 0.16954957
0001f0 b9 fb fb 3c 7a 4c c2 3c 60 81 17 bd f4 17 03 3e
       0.03075968 0.023718107 -0.036988616 0.12802106
000200 fa 85 32 3d 18 f6 c8 3d 77 e3 95 bb 4b 9c 32 3e
       0.0435848 0.09812564 -0.004574235 0.17442434
000210 eb da 43 bc 9f 2d b1 3c dd 25 bc 3c e4 cd 91 bb
       -0.01195405 0.0216282 0.022967273 -0.004449593
000220 86 b3 25 bd 7e d8 48 bc cb 43 cc 39 f8 6b f8 3c
       -0.04045441 -0.012258647 0.00038960422 0.030324921
000230 fa ff 1d bc ad d8 18 3d e6 9c 4d 3e a0 08 33 3d
       -0.009643549 0.037316013 0.20079383 0.043709397
000240 0c f9 5e 3e ed 74 0e 3e 47 24 1b bc c5 9f 96 3d
       0.21774691 0.13911791 -0.009469098 0.07354692
000250 1e b1 93 3c 21 d1 ca 3c 50 a7 87 3c 88 31 79 bb
       0.018028792 0.024757924 0.016559273 -0.0038023908
000260 23 57 cd 3a 72 3e 56 bb f3 ec 85 3b a6 c8 aa 3d
       0.0015666228 -0.003269103 0.0040870844 0.08339052
000270 5b e9 6b bc 44 6f f0 3b b1 a0 85 3d c9 82 79 3d
       -0.014398898 0.0073374826 0.0652479 0.060915742
000280 de a4 ab 3e 56 2e a8 3e c3 ac 5c bd 3d 70 58 3e
       0.3352422 0.32847852 -0.053875696 0.21136566
000290 8c d2 98 3d 39 23 b7 3d da 3d 93 3d 84 aa 42 bd
       0.07462034 0.08942265 0.071895316 -0.047525898
0002a0 36 eb 06 bb 8f af 2b bc 3c 57 2b 3d dd 73 27 3e
       -0.0020586974 -0.010478868 0.04183124 0.16352792
0002b0 ac f1 87 bd 23 1a 33 3d 61 f7 34 3e ab ef ff 3d
       -0.06637892 0.043726098 0.17672493 0.12496885
0002c0 4d fe 58 3e ea 03 ee 3c 58 0e 00 bb b4 3b 19 bc
       0.21190758 0.0290546 -0.00195398 -0.009352613
0002d0 a0 79 99 3c 5a 2d 7c 3c f8 b0 5f bc a4 5b 93 bd
       0.018734753 0.015391672 -0.0136530325 -0.071952134
0002e0 1d 3c e8 3c 8a 74 68 bd 03 c1 4a 3d c9 15 aa bb
       0.028348977 -0.056751765 0.049500477 -0.0051905853
0002f0 4e 5d 7a bb cb 30 33 bc ce 1a e3 3d a4 6f 6e bc
       -0.0038202587 -0.010936926 0.11089097 -0.014552984
000300 4d 98 5c 3e 58 37 d3 3d 46 a9 8d bb cb a9 b2 3d
       0.21542473 0.1031329 -0.0043231575 0.08723792
000310 09 d3 98 bc 8e 21 16 3d ca 73 bc b6 62 17 7b bd
       -0.018655317 0.036653094 -5.6163162e-06 -0.061301596
000320 ba 4e 8e bc 42 47 5e bd 06 d2 ce 3c 0a 48 e5 3b
       -0.017371524 -0.054267175 0.025246631 0.006997113
000330 11 df a3 bc c3 db 2b 3d 4d 0a 3b 3e 59 5d 81 3c
       -0.020003827 0.041957628 0.18265648 0.015791582
000340 2e d4 62 3e 64 e3 28 bd 64 74 15 bd f0 ca 34 3c
       0.22151253 -0.04123248 -0.036487952 0.011034712
000350 d8 00 2c 3d 6c 43 fd 3d 92 92 60 3d 7d cc c6 bd
       0.041992992 0.12366375 0.05482728 -0.09706972
000360 70 af 0a bd 42 67 82 bd 68 aa 9e 3d 2e 10 ac bd
       -0.033858716 -0.06367351 0.07747346 -0.084015235
000370 a6 0e 47 bd f4 98 81 3c cc 6b 96 3d 42 2d 51 bd
       -0.048597954 0.015820004 0.07344779 -0.05106855
000380 f5 db bb 3d 42 62 f3 bd 45 dd 83 bc 96 8d cf bd
       0.09172813 -0.118839756 -0.01609672 -0.10134427
000390 6f e9 fd 3c 50 41 10 3d f0 ed eb 3b a8 0f ad bd
       0.030995099 0.035218537 0.007199995 -0.08450252
0003a0 9d 49 db 3b cc 0d 91 bd 75 96 78 3d 6c 8f 19 be
       0.006692125 -0.0708271 0.060690362 -0.14996117
0003b0 3d 27 7c bb c4 79 c2 bc 42 a9 3c 3c bc 10 bf bd
       -0.0038475536 -0.023739703 0.011514964 -0.09329364
0003c0 04 25 cc 3d 3e a6 ab bd f4 db b5 bc a8 0a a1 bd
       0.09967998 -0.083813176 -0.022199608 -0.07863361
0003d0 fd 21 2f 3d 1e 79 8e 3d 62 44 e5 3c 7a d2 c3 bd
       0.042757023 0.06956695 0.027986709 -0.095616296
0003e0 f6 5f 44 bc 00 e4 b5 bd 33 52 86 3d 35 4b 24 be
       -0.0119857695 -0.08881378 0.06558647 -0.16044314
0003f0 ea 1f c9 bc ab a8 67 bc e8 9b 4a 3d ee 92 ba bd
       -0.02455135 -0.014139335 0.04946509 -0.09110056

_orig_mod.dense_proj.weight f4 [64, 113]
000000 6d 07 37 3b da f2 31 3d d4 2e bb 3e 14 98 09 be
       0.002792801 0.043444492 0.36559165 -0.1343692
000010 5b 32 30 3d 32 55 ec bd 07 db 83 be 4a 0a a7 bd
       0.043016773 -0.11539687 -0.25753042 -0.08156259
000020 43 b3 58 bc 0f 3d 8b bc df 1c 9d bb f6 66 98 3b
       -0.013226333 -0.016996888 -0.0047947015 0.004650946
000030 0a 5a b1 3d c9 b4 be bd 83 c4 7c 3d f2 2d bb bc
       0.08659752 -0.09311826 0.061710846 -0.022849057
000040 bb c1 bc bc d6 8c 8f 3b 65 dc 21 3b b2 ea 00 3c
       -0.023041597 0.0043808026 0.0024698016 0.007868456
000050 08 e1 12 3d 6d 63 a2 3c 82 98 96 3d 2c ff 9e 3c
       0.035859138 0.0198228 0.07353307 0.019408785
000060 7f 6f 4f 3d 15 66 c0 bd ff 28 4f bc 82 c4 14 3c
       0.05064344 -0.093944706 -0.012644052 0.009080054
000070 d6 50 f9 3d 92 f2 cc bc 26 b1 b0 3d 0b 56 54 bd
       0.12173621 -0.02501801 0.086275384 -0.05183987
000080 8a a5 20 bd f3 c0 47 3d 7a 6b ef bc 1f 15 de 3c
       -0.03922037 0.048767995 -0.029226054 0.02710968
000090 72 2a bb 3d a7 0c ba bd d5 d6 17 3e c3 13 ee bd
       0.09138955 -0.090844445 0.14828046 -0.11624863
0000a0 f9 ff 12 3d c4 ae 82 be 07 8c d1 3d 04 a4 ba bd
       0.035888646 -0.2552396 0.10231786 -0.09113315
0000b0 98 61 41 bd 65 b4 fa bc df 62 75 bd 79 f1 79 bd
       -0.047212213 -0.030603597 -0.059908744 -0.061021302
0000c0 e2 0a 02 be b2 91 77 bd 2f df 05 be 3e 4b 10 be
       -0.12699464 -0.06044168 -0.13073419 -0.14091203
0000d0 e9 65 c5 bc e7 4b d8 bc 8a 56 9c bc 6b bb 08 3e
       -0.024096446 -0.02640338 -0.019084234 0.13352744
0000e0 c5 fd 82 be 27 e9 d9 3d 33 97 7d bd 08 76 25 3d
       -0.25584236 0.106401734 -0.061911773 0.040395766
0000f0 4e ba 73 3c e6 01 04 bc e6 2c 11 bd 6f d3 23 3c
       0.0148759615 -0.008057093 -0.03544321 0.00999914
000100 76 82 fd 39 6d 1b 8d 3d 79 2b 0e bc 91 01 64 bc
       0.0004835312 0.06889997 -0.008677357 -0.013916389
000110 dd 53 66 3c 41 02 1b bd 6f c4 40 bd 43 6b 11 bd
       0.0140580805 -0.037843946 -0.047062334 -0.035502683
000120 da 86 fc bb 67 65 66 bc 0e 29 14 ba 78 45 07 3d
       -0.0077065052 -0.014062262 -0.00056518696 0.033025235
000130 26 69 0c 3d ff e8 d1 bb e6 9c d6 bc 12 fe ac 3d
       0.034279965 -0.006405949 -0.026197862 0.084468976
000140 4d 19 2a be b3 85 3a 3d 77 1c fa 3b 34 6f a7 3d
       -0.16611214 0.04553766 0.007632788 0.08175507
000150 77 fa 8e 3d d3 0a e5 bd ab ff 80 bc a3 a3 25 bc
       0.06981366 -0.11183705 -0.015746912 -0.010109815
000160 2b 07 16 bd 6c 10 6c bc 4e 56 32 bc 45 e1 36 bd
       -0.03662793 -0.014408212 -0.010884834 -0.044648428
000170 e3 05 30 3c 62 5b 33 bd 1d d1 df bb 3a 4c 5a bc
       0.010743591 -0.04378832 -0.006830348 -0.013323838
000180 68 5b 09 bd ad cf dd bc 6b 96 20 bd b4 a1 ee bc
       -0.033534437 -0.027076567 -0.03920595 -0.02912984
000190 ef d4 5d bc ff 52 92 bc 8b 6d 66 bc 91 c0 2f bc
       -0.013539537 -0.017861841 -0.014064203 -0.010727064
0001a0 03 20 6f bc d9 1a ab bc 4e 6a 03 bd bb 05 cc bb
       -0.0145950345 -0.020886825 -0.032083802 -0.006226269
0001b0 57 91 3a bc 3d 50 f8 bc 30 ee b9 bb f3 09 dc bc
       -0.011387191 -0.030311698 -0.005674146 -0.026860213
0001c0 e5 44 2e 3e 06 ca d4 3b f9 fa 40 bd 2e 7a 1e 3d
       0.17018469 0.0064938096 -0.047114346 0.03869074
0001d0 91 e2 0f bc 94 5b 8d bd 34 ef d2 3d d0 18 81 3d
       -0.008782045 -0.06902233 0.102995306 0.06303561
0001e0 80 52 b8 3c 59 81 93 bd cf 20 b4 bd b7 ef d2 bd
       0.022500277 -0.072024055 -0.0879532 -0.10299628
0001f0 77 f2 07 be af 7d 43 bd 32 15 8b 3d 3b 71 3e 3d
       -0.13276087 -0.047727283 0.06791152 0.046494704
000200 60 bb 21 3b e6 54 b8 3d c8 8b b6 bd 2f 11 e1 bb
       0.0024678335 0.09000568 -0.0891338 -0.0068685035
000210 e5 96 eb 3c a5 59 3c bd 55 e4 67 bc 35 bd 91 bc
       0.028758476 -0.04598393 -0.01415356 -0.017790416
000220 fd db 57 bd 66 ec 92 bd 7b 98 9e 3c 4b 82 42 bc
       -0.05270003 -0.07173996 0.019359818 -0.011871885
000230 8d 90 75 3d d6 84 9c bd 0b a5 bd 3c f3 d8 cf bd
       0.059952307 -0.07642524 0.023149988 -0.10148802
000240 7b 03 18 bc b1 9e 11 3c a0 1b ca 3c d1 f5 c0 bc
       -0.009278174 0.008887933 0.024671376 -0.023554714
000250 5e 26 98 bd 97 72 26 bd b6 20 66 3d 2d a0 03 3e
       -0.07429193 -0.040636625 0.05618354 0.12854071
000260 64 db 8b 3d 88 f6 b7 bc f1 20 0d 3e 6d 5d 09 bd
       0.06828955 -0.022456422 0.13782097 -0.033536363
000270 6a 38 ba 3b 52 6c a3 bc 7a aa 4f 3d f1 47 47 bd
       0.0056829946 -0.019949112 0.05069969 -0.048652593
000280 d0 ee 94 3d 98 0a 93 3d e5 e1 22 3d 36 8c 45 3d
       0.07272112 0.07179755 0.03976621 0.04822942
000290 6a 2c 66 3e 4d 26 10 bd 80 fc 01 bd 75 db 85 bc
       0.2247788 -0.035192776 -0.031734943 -0.016339997
0002a0 aa eb 75 bc 28 c4 cf 3d a6 c1 0a be 45 2a 98 3b
       -0.0150098 0.10144836 -0.13550434 0.004643711
0002b0 30 12 c8 bc 56 7e 77 3c 58 fd 9e bc d6 ca 7e bc
       -0.024422735 0.015105804 -0.019407913 -0.01555129
0002c0 78 d1 ef bc 81 51 85 bc 6f 06 92 bd 34 9f b9 bb
       -0.029274687 -0.016274216 -0.07130133 -0.0056647304
0002d0 bd a2 32 bd 9c 15 28 bc c2 bf f9 3c 4f 5d 68 bd
       -0.04361223 -0.010259058 0.030486945 -0.05672961
0002e0 16 d3 44 bd 47 67 61 bc 34 a6 07 39 ce e5 8d 3b
       -0.04805287 -0.013757533 0.00012936519 0.0043303734
0002f0 b2 79 85 bd 25 cb 36 3e 55 1e 92 3d 8d 0a 04 3e
       -0.06517352 0.17850931 0.071346916 0.1289465
000300 ab fd 10 3e d0 9e 06 3e 93 47 61 3d 8c 3d 57 3d
       0.14159267 0.1314652 0.0549999 0.05254893
000310 13 97 6a ba 81 9f b3 3d f8 c0 aa bc 9f 12 89 ba
       -0.00089489034 0.08770657 -0.020843968 -0.001045782
000320 9b 68 34 bd 5d 42 25 bd 75 3f b1 bb 39 08 5a bd
       -0.044045072 -0.040346492 -0.005409176 -0.053230498
000330 87 d7 18 3b d8 3e 99 3c 1f 52 34 bc 62 a1 36 3b
       0.0023321824 0.018706724 -0.011005907 0.0027867188
000340 7f 2f 92 bc b5 87 50 bd dc 4e 88 3c 1d 89 37 3c
       -0.017844914 -0.05091067 0.016639166 0.011202124
000350 c1 af 46 3d cf 4f 82 3b 52 cb fa 3b df d4 55 3d
       0.048507456 0.003976799 0.007653632 0.052204963
000360 1e 6a 4a bd b4 10 e4 bb eb 14 ab bc c0 c1 13 bc
       -0.049417607 -0.006959999 -0.020883998 -0.009018362
000370 bf 1f 4d bd 28 59 49 bd 6d 6a 85 bc 74 71 d8 bc
       -0.050079104 -0.04915729 -0.0162861 -0.026421286
000380 c9 41 dd bc 50 7a 19 3e 58 b8 95 3b 33 e9 c0 3b
       -0.027008908 0.14988065 0.0045690946 0.0058871745
000390 1d cf 2d bd 9c 47 35 3d ff a9 ae 3d 64 f4 17 bd
       -0.042433847 0.044257745 0.08528518 -0.037098303
0003a0 2e 7a 94 3d a6 a5 e5 bc 6e 72 c7 bc 89 7a 23 bb
       0.072498664 -0.028033089 -0.024346557 -0.0024944863
0003b0 48 95 58 3d 27 2e 45 3d fd 66 88 bb 28 ae b9 bb
       0.05287674 0.048139717 -0.004162668 -0.005666513
0003c0 5f 3d 3d bc 17 b3 87 bb d6 f5 8e bc 6b ea 9f 3a
       -0.011550277 -0.004141222 -0.017451208 0.0012200599
0003d0 04 8d 31 bd ad d3 d0 3d 20 95 c3 3c 75 3b 1d bc
       -0.043347374 0.10196624 0.02387482 -0.009596695
0003e0 f8 7a 67 3d e4 d2 6f 3c a3 16 2e 3d 1e 8f b7 bc
       0.056513757 0.014637683 0.042502057 -0.02240711
0003f0 08 ce a1 bd 2d 04 85 3d 32 ba 15 bc 1d 9e 53 3d
       -0.079006255 0.06494937 -0.009138631 0.05166446

_orig_mod.dense_proj.bias f4 [64]
000000 46 9b 25 bd 50 3a e1 bd a9 5d bc bc ff 22 54 3c
       -0.040431283 -0.1099745 -0.02299388 0.012947797
000010 31 cf e5 3b bb 9d b9 bc b2 06 16 bd ce 85 e9 bc
       0.0070132245 -0.02265822 -0.03662748 -0.028506186
000020 e1 72 2a 3d f6 75 14 bd 3d 4d 5f 3c 0c bb 47 3d
       0.041613463 -0.03624531 0.013629255 0.048762366
000030 25 cd 2a bd aa f9 67 3d ae 1f 31 bd 86 46 ba 3c
       -0.041699547 0.056634583 -0.043243103 0.022738706
000040 f3 23 0d be 3e 62 93 3d a5 82 37 be 1a c1 08 3e
       -0.13783245 0.071964726 -0.1792093 0.13354912
000050 3e 3b 49 3e 6b 43 49 bc 30 b4 68 3c a3 7f 24 3c
       0.19651505 -0.01228414 0.014203116 0.010040197
000060 39 42 8f 3b f2 52 1f 3c 8e 6a 65 bd 64 83 0c 3d
       0.004371908 0.009724366 -0.05600982 0.03430499
000070 18 73 39 3d 05 ef 96 3d 69 4d d4 3d f8 d3 48 bd
       0.045275778 0.07369808 0.10366327 -0.049030274
000080 20 72 40 3d 94 de c4 3c 86 d4 35 bd a1 3d 0b 3e
       0.046983838 0.024031915 -0.04439213 0.13597728
000090 ba 16 c0 3d a1 1c 98 bd fb e0 66 bd 13 ad d1 3d
       0.09379335 -0.074273355 -0.0563669 0.102380894
0000a0 a6 3f 5f 3c 10 47 bb 3d 50 03 d1 3b 41 71 ca 3c
       0.013626015 0.091444135 0.0063785687 0.024712207
0000b0 15 0e 50 3c bc bc a2 3b 1e 8f 2a 3e 6d 7a c0 3c
       0.01269867 0.0049663465 0.16656157 0.023495877
0000c0 81 be a0 3c e2 9a 19 3d 8b 88 14 3d 77 2c 81 bd
       0.01962209 0.037501223 0.03626303 -0.06307309
0000d0 82 f1 cb 3c c5 91 20 3a aa c6 11 bd f8 89 8a 3d
       0.024895433 0.0006125237 -0.03558985 0.06764597
0000e0 cd e1 c5 3d 1b 49 15 bc 26 47 24 3c cd bf f5 3c
       0.09662209 -0.009111668 0.010026729 0.029998684
0000f0 66 8b 73 3d 59 23 28 bd f5 89 cd 3d f9 31 de 3c
       0.059459113 -0.041049335 0.10036079 0.027123438

_orig_mod.shared_mlp.0.weight f4 [128, 120]
000000 77 e6 2e bd 5c bc 62 39 7f 10 33 3d 04 b7 ee bb
       -0.042700257 0.00021623209 0.043716904 -0.0072850008
000010 51 ff 5f bd 0c 27 c1 bd d4 78 3d be c4 48 9b bd
       -0.054686848 -0.09431276 -0.18503124 -0.07582238
000020 21 9c f2 bb dc 2a 35 bb 31 6a 2e 3d e7 da 77 3d
       -0.007403866 -0.0027643954 0.04258174 0.060511496
000030 ea ba 3d 3d 8b ec 30 3d cf 0c ac 3d 30 4c 7c 3c
       0.046320833 0.043194335 0.084008805 0.015399024
000040 58 cd b0 3b 32 27 38 3d f2 4a 80 bd c2 54 b2 bc
       0.0053955726 0.044959255 -0.06264295 -0.021768931
000050 c2 a0 56 3c f3 2a 11 3b 03 fa e8 3b 75 83 15 be
       0.013099851 0.0022150844 0.007109882 -0.14600928
000060 69 d2 80 bd 51 a4 90 3d 3c b1 6b bc c2 f0 02 3d
       -0.062901326 0.07062591 -0.014385518 0.031967886
000070 c1 84 91 3d f5 38 2a 3d 4b f2 f5 3d c2 b6 8f bc
       0.07105399 0.041558225 0.12009104 -0.0175432
000080 c2 50 ed 3c a9 59 f4 3b 71 b1 1b 3b 5e 25 c1 3c
       0.028969172 0.0074569774 0.0023756886 0.023577388
000090 23 17 ba 3a 9f d2 31 3b e1 85 3b b9 ed 2e dd 3c
       0.0014197569 0.0027133597 -0.00017883583 0.026999915
0000a0 2f d7 68 bd e1 90 71 bc 6e 6c 92 3b a8 fc e9 3b
       -0.05684584 -0.0147440145 0.004468492 0.0071407147
0000b0 e2 3f 17 bb 43 e0 4d bc 7d b3 5b bb c1 4a a1 3c
       -0.0023078849 -0.012565675 -0.0033523731 0.019688966
0000c0 75 e1 da ba c1 10 82 3c f2 5b 8f bc 63 d2 0b 3d
       -0.0016699272 0.01587713 -0.017499898 0.034136187
0000d0 a6 44 1f 3c d9 2b bf 3a 53 30 0d bd 66 a9 b8 3c
       0.009720957 0.0014585211 -0.034469914 0.022541713
0000e0 84 1c b2 3c 05 d8 66 bc 72 48 a4 bc f7 cf c3 bc
       0.021742113 -0.014089589 -0.020054076 -0.023902876
0000f0 8c de ca bb 8d b2 26 bc 7b e5 b6 3b 5a e3 8a 3c
       -0.0061910804 -0.010174406 0.0055815554 0.016954113
000100 04 63 aa bc 82 8e 40 bc bb 9f 8f 3b 8e 3b 4c bd
       -0.020799167 -0.0117527265 0.004383055 -0.049861483
000110 40 6a 5b 3a 46 39 02 bc 38 33 dc bb dd 17 8d bc
       0.00083700195 -0.007948225 -0.006719973 -0.017223293
000120 90 61 c5 3b 36 09 06 3d df 95 cd 3b 8f e3 82 bd
       0.0060235932 0.032723628 0.0062739695 -0.063910596
000130 54 4f b8 bc 90 f9 5a 3d a3 c4 b2 bb cc 95 c6 bc
       -0.022498764 0.053460658 -0.00545557 -0.02424135
000140 34 60 c0 bc e2 5c 0a bd 8e 3f 8f 3a 05 c6 75 bc
       -0.023483373 -0.033779986 0.0010928975 -0.015000825
000150 35 e1 8a bc 73 4f 7d 3d 0a 6e 0f bd e5 89 eb 3c
       -0.01695309 0.061843347 -0.03501705 0.028752277
000160 19 f8 46 bc bd 7f c9 3c df 3d d9 bc 4b b7 79 bc
       -0.012144112 0.024597043 -0.02651876 -0.015241454
000170 fd 6f da bb 2a 03 41 bd 9e 70 63 3c 22 93 17 bd
       -0.006666182 -0.047122158 0.0138818305 -0.03700555
000180 f0 3d af 3c 6c d0 91 bc 26 cd 16 bc 77 bf 1a bc
       0.021391839 -0.017799579 -0.009204185 -0.009445063
000190 9c 30 60 bd dd ab b7 bc 2a d5 12 bd b4 ce e3 3c
       -0.054733858 -0.022420818 -0.03584782 0.027808525
0001a0 39 41 8f bc ba c8 4a bc db a7 b8 bc 7a 60 6f ba
       -0.017487155 -0.0123769585 -0.022540977 -0.00091315026
0001b0 bb 42 bd 3a 82 b5 ba 3b f7 f2 11 bc e4 0f d8 bc
       0.0014439443 0.005697907 -0.008908025 -0.026374765
0001c0 5b 93 27 bc 8f 03 d0 3c da 94 f5 bc 70 ad 41 bb
       -0.010228003 0.025392322 -0.029978205 -0.002955284
0001d0 18 e7 e5 bc aa 5b be 3b 66 7f 38 bd 97 3a e7 3b
       -0.028064296 0.005809267 -0.04504337 0.007056545
0001e0 27 84 c0 bc 9f 4b b2 39 5f f1 80 3d c7 85 9e bc
       -0.023500515 0.00034007148 0.06296038 -0.0193509
0001f0 1e e4 99 bd c2 a3 03 be 0a ea 64 be 49 37 d0 bd
       -0.07514213 -0.12855437 -0.22354904 -0.10166795
000200 13 cf cf bb 38 14 2c bd 30 e4 2c bd bb 6d 3f 3d
       -0.006341824 -0.04201147 -0.042209804 0.046735507
000210 a5 54 d5 3c 55 4f d7 3a 3c 7b 19 3e 1c 71 bc 3c
       0.026041338 0.0016426841 0.14988416 0.023003154
000220 fa d8 6e 3d f4 30 9f 3c b9 d5 79 be db 30 96 bd
       0.058312394 0.019432522 -0.24397935 -0.07333537
000230 44 f5 70 b9 58 be a8 be fb f5 55 be 81 19 b3 be
       -0.00022979552 -0.3295772 -0.20894615 -0.34980395
000240 56 f3 8d bd fb a5 07 3e 5c 23 67 be db 0e 68 3d
       -0.06931178 0.1324691 -0.22572082 0.056654792
000250 26 42 45 3e 49 5a 54 3e 14 f2 2f 3c 23 a2 07 be
       0.19263515 0.20737566 0.010738868 -0.13245444
000260 ab 89 56 3d 89 8d 6b bd 14 7f 01 3c 13 ac 56 3d
       0.052377384 -0.057508025 0.007903833 0.052410197
000270 0c bf 07 3d 78 84 09 be 81 b5 03 3b cf 5a a2 3d
       0.03314118 -0.13429439 0.0020097198 0.079274766
000280 f2 97 82 be 22 15 a1 3b 43 52 54 3d 31 b5 d7 3c
       -0.2550655 0.0049158493 0.051836263 0.026331516
000290 93 c1 99 bd 75 c1 e1 bd 77 6e 3d bd 09 7e 26 3e
       -0.075076245 -0.11023227 -0.046247926 0.16259016
0002a0 67 80 b4 bb 24 aa 09 3e 99 24 f2 bd 53 b9 19 3e
       -0.005508471 0.1344381 -0.11823387 0.15012102
0002b0 44 e3 42 3d 23 76 3f 3c d7 f1 2f be 82 4c a5 3d
       0.04758002 0.011685881 -0.17182098 0.08071233
0002c0 cf 75 d2 3d 52 4d 5b 3d 9e d9 ac 3c 88 c3 03 bd
       0.102763765 0.053540535 0.021099862 -0.032168895
0002d0 9a b9 ce bd 04 63 17 3b bf 1b 95 39 7a ce f0 bc
       -0.100939944 0.002309979 0.00028440167 -0.02939533
0002e0 c6 a3 bf 3c 04 af 02 bd 12 a7 2e 3c f3 45 03 bc
       0.023393523 -0.03190519 0.01065995 -0.008012283
0002f0 3b 6f ce 3c d7 36 c3 3d 9c 52 39 3d 63 a2 49 bd
       0.025199523 0.09531944 0.045244798 -0.04922713
000300 bb 54 b8 3d 83 96 d5 3d ec 4b 8b 3c 71 08 b7 ba
       0.09000536 0.104290985 0.017003976 -0.0013964308
000310 2b 41 2a bd 50 9b 3a 3d f9 3d c9 bc df 22 4a 3d
       -0.041566055 0.045558274 -0.024565684 0.049349662
000320 cb 5b c2 3c b0 1a 00 3c c4 40 fe bc 8f dd c8 bc
       0.02372541 0.007818863 -0.031036742 -0.02451971
000330 b7 2d 93 3c d9 2c 85 3b 0e 74 f7 3c b5 66 23 bc
       0.017966134 0.004064184 0.030206706 -0.009973218
000340 8b 23 4a 3c 55 b3 9d bc 05 b9 56 3c 63 e5 e4 bb
       0.012337576 -0.019250551 0.0131056355 -0.006985353
000350 ae cf fc bc 37 3d 95 ba f6 10 12 3d 2e 61 5c 3a
       -0.030860748 -0.0011386041 0.035660706 0.0008406815
000360 f8 a4 99 3c 48 b5 c9 bc 0c 6e 46 bd 9e cc 17 bd
       0.018755421 -0.024622574 -0.048444793 -0.037060373
000370 3c 1d 34 bd f8 98 1b bd 00 6a de bd 1b 2a 2e 3c
       -0.043973193 -0.03798768 -0.10860062 0.010630156
000380 3f 69 00 bd 9e 9f b4 bc 9d 52 ba bc 2c e8 8a 3d
       -0.03135037 -0.022048768 -0.022744471 0.067825645
000390 0d 36 06 bd dc 7b 44 3d 27 74 29 bc 61 9d b9 3d
       -0.03276639 0.047969684 -0.010342634 0.09063221
0003a0 03 71 b4 bb 58 0a db 3c 9c 3c ab bb 91 cd 21 bd
       -0.005506636 0.02673833 -0.005225731 -0.039502684
0003b0 7d 2f 25 bc bc 4b d6 3c 9d ce 6a bd 83 1a 08 bd
       -0.010082123 0.02615916 -0.057325948 -0.03322841
0003c0 76 cb 77 3d 2a 50 99 3a 63 94 82 bb 51 38 0a bd
       0.06049677 0.0011696864 -0.003984974 -0.033745114
0003d0 61 cb 10 3c 6b 78 94 bb ba c5 9e 3d 44 2a b9 3a
       0.008837552 -0.0045309565 0.07752557 0.0014126976
0003e0 fb d9 a9 3c fd f1 83 3c 11 24 35 bd 24 1d d3 3d
       0.020733824 0.0161066 -0.04422385 0.103082925
0003f0 2b f7 11 3d cb be be 3d 13 00 b0 3d 1e 76 e2 3d
       0.03563611 0.093137346 0.08593764 0.11057685

_orig_mod.shared_mlp.0.bias f4 [128]
000000 8a d5 09 be c3 2a e1 bd d6 a6 ec bb 7f 28 65 be
       -0.13460365 -0.10994484 -0.007222037 -0.2237873
000010 65 5c c3 3d 98 21 23 bd 04 30 11 bd 3a 7b 00 3c
       0.09539107 -0.03982696 -0.035446182 0.0078418795
000020 c4 6a 37 3d bf a0 94 3d 7c e6 12 be a8 41 7c be
       0.044779554 0.072572224 -0.14345735 -0.24634421
000030 bf 2c 35 3d ea 7f 1e be d1 95 4d bd 39 e5 dd bc
       0.044232126 -0.15478483 -0.050191704 -0.027086841
000040 bc f4 18 be c1 8a 23 be e7 3a 17 3d fc 4f e6 3d
       -0.14937109 -0.15970899 0.036921408 0.112457246
000050 ee 0a 5f bd 81 99 1e be 0f 57 cd 3c 28 56 c5 3c
       -0.054453783 -0.15488245 0.025065927 0.024088934
000060 a5 6d 6f 3d d4 46 e3 bc 59 37 dc 3d 44 27 01 bd
       0.058454175 -0.027743734 0.10752744 -0.031531587
000070 cb 64 cb 3c cb 55 e8 3d c0 a0 c5 bc 70 15 47 be
       0.024828335 0.11344489 -0.024124503 -0.19441772
000080 ba 15 69 3d aa 05 0d be b7 df 15 be ab 87 8b 3d
       0.056905486 -0.13771692 -0.14636122 0.06812986
000090 0d ee 9d 3c 3d a1 e8 3d 36 51 09 be f2 48 58 3d
       0.01927855 0.11358879 -0.13409886 0.05280394
0000a0 f1 96 82 3d 07 07 4c 3d 03 a3 ad bd 34 7a 3d be
       0.06376446 0.04981139 -0.08478358 -0.18503648
0000b0 8d 5e 19 be 06 73 d6 bd 21 f8 41 be fb 39 0b be
       -0.14977475 -0.10471158 -0.1894231 -0.13596337
0000c0 24 65 91 bd 9a cc a3 bb af 30 f4 3c 1e 60 89 bd
       -0.07099369 -0.0049987556 0.02980837 -0.06707786
0000d0 86 69 19 bd 92 4a 49 3d 6a 62 e1 bb f9 2a d1 bb
       -0.03745415 0.04914338 -0.006878187 -0.0063832966
0000e0 31 33 33 be 35 45 1d bc 86 50 9e ba 65 14 b0 bb
       -0.17499997 -0.00959902 -0.0012078441 -0.005373525
0000f0 da e5 b7 3c 48 9d 07 be bc 56 00 3c e0 bd ec bd
       0.022448469 -0.13243592 0.007833179 -0.11559653
000100 c7 bc 0e be c1 6e ee 3d ed de 03 bd e1 83 e2 bd
       -0.139392 0.116422184 -0.03219502 -0.1106031
000110 37 b1 08 be 5a 02 fe bc 58 8e 1d bd 34 73 96 bc
       -0.13348852 -0.03100698 -0.038465828 -0.01836548
000120 a7 65 50 bc 4e c5 2d be fc 7f 24 3e 20 1a f3 bd
       -0.012719548 -0.16969797 0.16064447 -0.11870217
000130 e5 d2 96 3d 1f 43 a8 3b 72 dd 61 be bf 54 08 3d
       0.07364444 0.0051349546 -0.22057131 0.033283945
000140 24 77 a6 bd 15 f2 46 be 46 1b 31 be 6d f8 51 3d
       -0.08128193 -0.19428284 -0.1729556 0.051262308
000150 ed 93 4a 3b 9a c3 0b be 13 60 0f 3b 89 df 5c 3d
       0.0030910925 -0.13648835 0.0021877333 0.053924117
000160 1e 6d 03 bd 2d e3 47 3d ef 63 b0 bd 14 9f d0 be
       -0.032086484 0.048800636 -0.08612811 -0.40746367
000170 44 3d 88 3c 0e 95 72 3d 7b 0f 11 be 14 b3 a6 bb
       0.016630776 0.05922418 -0.14166062 -0.0050872657
000180 a6 fa 62 bd 3f 54 15 be 71 25 d5 3a 9b 61 ea 3d
       -0.05541482 -0.14582919 0.0016261769 0.11444398
000190 1c c0 05 be 15 3b 1d be 26 57 2a 3d 4d f4 30 3c
       -0.13061565 -0.1535457 0.041587017 0.010800433
0001a0 37 63 d4 3d a6 8e da bd 4f c1 41 be 59 10 08 3e
       0.10370486 -0.10671739 -0.18921398 0.13287486
0001b0 d7 d2 f2 bd 60 01 f1 3c ea 29 18 bd f1 49 d0 3d
       -0.11856621 0.029419601 -0.037149347 0.10170353
0001c0 d9 65 28 3c fc a4 42 3c c2 aa b5 bc a7 51 17 be
       0.010278189 0.011880156 -0.02217615 -0.14777242
0001d0 81 db 02 bd 09 3c 8e be c0 90 36 3b fd 2e 76 bd
       -0.031947616 -0.27780178 0.0027857274 -0.060103405
0001e0 36 98 ae 3d 63 6a f6 3d 0b d7 21 be 4e 1d d7 3d
       0.08525126 0.120320104 -0.15804689 0.10503636
0001f0 d6 24 cf 3d 12 a8 84 3d 07 b1 06 3e 6f 37 61 bb
       0.10114448 0.06477369 0.13153468 -0.0034365316

_orig_mod.shared_mlp.3.weight f4 [64, 128]
000000 e1 87 51 3d 0e b5 2b bc 0e 4f 86 bb 76 27 02 bd
       0.051154975 -0.0104801785 -0.0040987795 -0.031775914
000010 e6 3b 76 3c 78 5d 3d 3d c4 2a 63 bc 4d 2b 83 3c
       0.015028929 0.046231717 -0.013865177 0.016011858
000020 5e c4 67 bd 1b 5d b3 bc 3d 63 3a bc d8 52 cb bd
       -0.056583755 -0.021894982 -0.011376199 -0.099279106
000030 ca af 1f 3d ce 36 96 3d d2 97 6f 3d 30 c2 b0 3b
       0.038986005 0.07334672 0.058494397 0.0053942427
000040 a8 a0 26 3d a6 00 00 3d 9e 62 9a bb fe 13 4e bd
       0.040680557 0.03125062 -0.004711463 -0.050312035
000050 24 f8 86 3c 73 06 71 3d ce 3a 1b bd 81 a2 17 bb
       0.016475745 0.05884404 -0.037897877 -0.0023137631
000060 ae c6 99 bc 61 fd 94 bb 34 71 73 bd 92 f7 24 3d
       -0.018771496 -0.0045468067 -0.05943413 0.040275164
000070 a1 e7 49 bc a5 79 3d bd 7a e8 68 bc 24 c0 b6 3c
       -0.012323291 -0.046258587 -0.014215583 0.022308417
000080 e5 4f ae bd 95 08 4c bd f7 d7 49 3d 08 76 64 bd
       -0.085113324 -0.049812872 0.049278226 -0.055776626
000090 4d 23 3c bd 5d c0 84 bd cd ae 8d 3d 6e ea f1 bd
       -0.045932103 -0.06482003 0.06918106 -0.11812292
0000a0 f8 b9 ac bd 2f 6d 4d 3c e9 b0 65 bd e4 1a 3d 3d
       -0.08433908 0.012538238 -0.056076918 0.046168223
0000b0 1e 10 18 bc bc 5b 55 bc c4 34 8a 3c 8f d7 87 3d
       -0.009281186 -0.013022359 0.016870864 0.066329114
0000c0 9f d7 1e bb 5a 98 fe 3a d8 4b d6 3c ab c6 2f 3c
       -0.0024237407 0.0019424066 0.026159212 0.0107285185
0000d0 71 11 0a bb e9 9c 47 bd f5 b8 ca bc eb 9c 84 bc
       -0.0021067525 -0.048733626 -0.024746398 -0.016188106
0000e0 a8 a8 7d 3d 4e a9 5a 3c 23 ac 00 3c 86 81 24 3d
       0.06192842 0.013346029 0.007853541 0.040162586
0000f0 7f 5e 46 bd 49 25 bb bd 7b a4 33 bd 93 32 fb 3c
       -0.048429962 -0.09137971 -0.043858033 0.030663764
000100 5f b5 c8 bd 10 ab a9 bd 2c 7d c1 3b 8d dd 76 bc
       -0.09800219 -0.08284581 0.005904814 -0.01506747
000110 41 47 9b bd f2 7c e5 3c 76 15 4f 3c 70 24 21 3c
       -0.0758195 0.02801368 0.012639394 0.0098353475
000120 8a a1 e5 3c 40 19 5d 3d e1 87 0e 3d 19 f0 82 3d
       0.02803113 0.05397916 0.034797553 0.06393451
000130 3c 21 f5 bd 8b e4 8f 3c fc 33 d0 bd 35 56 b7 bd
       -0.119692296 0.017565032 -0.10166165 -0.089519896
000140 39 0d 16 3c dd e3 53 bd ee d2 4d 3c 27 01 1a bd
       0.009158426 -0.05173098 0.012562497 -0.037598755
000150 ec 6d 16 be e0 4b 85 3c d4 44 37 bc 4b 56 a3 bc
       -0.1469037 0.016271532 -0.0111858435 -0.019938609
000160 49 19 23 3d e9 f7 b8 bd d7 43 9e 3d 3e 3d 78 bd
       0.039819036 -0.0903166 0.07727783 -0.06060528
000170 c6 f4 da bd a8 2a bc bd 9e 67 63 3d fb fd 26 3d
       -0.10691218 -0.091878235 0.05551874 0.04076956
000180 18 c3 d7 3c e8 87 78 3d e1 75 81 3a d1 40 1d bd
       0.026338145 0.060676485 0.000987705 -0.038391892
000190 0b 3f 7d 3d b6 4c 8c 3d e8 04 3f 3d c4 aa bb bd
       0.0618277 0.06850569 0.04663554 -0.0916343
0001a0 6b f2 73 bd 40 80 a1 3d 53 56 8a ba a4 f4 c5 bd
       -0.05955736 0.0788579 -0.0010554291 -0.09665802
0001b0 97 60 47 3d c1 21 cb 3c 53 a5 2f 3c 12 6c 77 bd
       0.0486761 0.024796369 0.010720569 -0.0604058
0001c0 74 8e 5c 3b f6 58 31 bd de c5 fa 3c 0e 61 2b 3c
       0.0033654245 -0.04329773 0.030611929 0.010460151
0001d0 07 19 92 bc e7 6c 88 bd 91 79 ab bd 64 d4 3a bd
       -0.0178342 -0.066613965 -0.08372796 -0.045612708
0001e0 5a 50 ae bc a5 d8 c3 bd 71 2e 6b 3d e0 2f 1a 3c
       -0.021278549 -0.09562806 0.057417337 0.009410828
0001f0 d4 71 94 bd c2 7a 58 bc 16 43 32 bd 65 be 3c bd
       -0.072482735 -0.0132128615 -0.04352101 -0.046080012
000200 75 73 59 3d d6 8e 22 bb 58 3e d1 3c 65 49 03 be
       0.053088624 -0.0024804375 0.025542423 -0.12820967
000210 c7 15 94 bd 24 af 08 3d 45 97 12 bd 8f ed fb 3c
       -0.07230716 0.033370152 -0.035788793 0.030752925
000220 97 c0 4e bd da 1a 1b bd 54 05 64 3c b5 39 45 bd
       -0.050476637 -0.037867405 0.013917286 -0.048150737
000230 69 4f a3 bd 20 7c b1 3d cf a8 5d 3c 52 87 08 3c
       -0.07974131 0.08666253 0.013529017 0.008333044
000240 73 30 a7 3d ec 24 b5 3d bc 6c 05 bd da 73 a3 bd
       0.08163538 0.08844933 -0.0325744 -0.07981081
000250 39 76 a5 3d 72 e3 a2 3d 21 a5 85 bc 91 46 e1 3c
       0.0807919 0.07953538 -0.016314091 0.027499469
000260 a6 a9 a0 3a 35 b1 2e 3d c8 14 97 bd 75 ec a8 3c
       0.001225759 0.042649467 -0.073770106 0.020620564
000270 99 21 dd 3c b0 df ee bd 97 d4 da 3c 2a 7f 69 3d
       0.02699356 -0.11663759 0.026712699 0.05700604
000280 4c 2c 28 bd 40 6f cd bc 3f f0 a4 3d eb 74 69 bc
       -0.04105787 -0.025077462 0.08053636 -0.014249067
000290 08 32 ea 3b d8 26 4d bc 8b 47 87 3d 17 5e 72 bd
       0.0071470775 -0.012521468 0.066054426 -0.059171762
0002a0 fa e5 fd 37 88 34 b3 3c 25 97 a4 3d b8 30 80 3d
       3.0267041e-05 0.021875635 0.08036641 0.06259292
0002b0 6e 1c 0e bd e7 72 93 bc df 4d c6 bc 11 08 98 3d
       -0.03469508 -0.017999126 -0.024207054 0.074234135
0002c0 64 5b 47 bc b8 0f 95 3c 0c 54 c9 3c 63 26 14 3d
       -0.012167785 0.018195972 0.02457621 0.03616942
0002d0 2f fb 0f 3d df 70 65 bc 3f d3 6d bc 17 24 f6 3b
       0.035151657 -0.014003961 -0.014515697 0.0075116265
0002e0 0f c6 93 3d f1 c0 1e bd bf 5a 02 be aa bc dd 3c
       0.07215511 -0.038758222 -0.1272993 0.027067501
0002f0 4f dc 09 3c 7d 1c 92 bd d1 3d ab 3a 43 38 b1 3d
       0.008414342 -0.0713434 0.0013064687 0.08653309
000300 d1 5b 5d 3b ee 9f b3 bd 84 c9 25 3d ca 60 9d 3c
       0.003377665 -0.087707385 0.040475383 0.019211192
000310 28 2b 7d bd 67 4d be 3c 14 b5 fb 3c 5a a2 3b 3d
       -0.061808735 0.023230268 0.030725993 0.045809127
000320 fc b0 88 3d b3 db 94 3d e0 b1 a9 be a6 52 77 3d
       0.06674382 0.07268467 -0.3314352 0.060381554
000330 eb 71 45 3a 0b 6d 7f bd 82 2d 07 be 65 9a e2 bc
       0.0007531929 -0.06235985 -0.13200954 -0.027661512
000340 de 81 6d bb 9a 3a 4f bd 83 3c 8d 3c d8 15 c2 3a
       -0.0036240737 -0.050592996 0.017240768 0.0014807535
000350 fc dc 56 bd 94 9f b6 3d 61 90 b7 3c b1 99 97 bd
       -0.05245684 0.08917156 0.022407712 -0.07402361
000360 08 00 2f 3d c1 e8 aa bc 50 d0 b7 3d 9d 92 02 be
       0.04272464 -0.020862939 0.08975279 -0.12751241
000370 3b 64 16 3d 93 66 0b be 4a 71 f8 3d f4 27 b4 3c
       0.03671668 -0.13613348 0.12130983 0.021991707
000380 1e c6 fb 3c b8 b4 98 3d 8c 41 1a bd c5 b8 2d bd
       0.030734118 0.07456344 -0.037660167 -0.042412538
000390 3f f0 7c 3d 1d 01 99 3d f2 36 a0 3c 48 3c 4e 3d
       0.061752554 0.074709155 0.01955745 0.050350457
0003a0 b0 89 9b bd a4 17 99 3d 2a fb 78 bd 38 19 4b bd
       -0.07594621 0.07475212 -0.060786404 -0.049584597
0003b0 45 5b 92 3d 2f 7a fc 3b 0d 41 65 3d 22 27 47 bd
       0.071463145 0.007704995 0.05597024 -0.048621304
0003c0 31 05 e4 3b 7b f6 3e bc 30 5f 10 3d e5 f5 c9 bc
       0.0069586267 -0.011655445 0.035247028 -0.024653384
0003d0 f7 74 34 3d 8f 73 2d 3c 0e 89 10 bd f1 15 d8 3b
       0.04405686 0.010586633 -0.035286956 0.0065944125
0003e0 67 c5 11 bd cb 25 01 be 6c da 9e 3d 42 f8 18 be
       -0.03558865 -0.12612073 0.077565044 -0.14938453
0003f0 b2 4c af bd 5e fc 74 bd 2c d0 08 bc 48 49 c0 3c
       -0.0855955 -0.05981099 -0.008350413 0.023472443

_orig_mod.shared_mlp.3.bias f4 [64]
000000 5e 54 ee bd 49 ab 84 be 49 4b 33 be 0f 1d 52 3e
       -0.116371855 -0.2591193 -0.17509188 0.20518897
000010 f4 f5 af bd a3 b7 89 be fa 4d 1f be 6e 5d 8c be
       -0.08591834 -0.26897916 -0.1555709 -0.2741503
000020 c4 1f 96 be f9 3c 8c be bb 77 be 3e 4e 2c 08 3e
       -0.2932111 -0.27390268 0.37200722 0.13298151
000030 6d de 60 3e 40 01 72 3e 9e a8 ca 3d 59 53 87 be
       0.21959849 0.2363329 0.098954424 -0.26430777
000040 8b fc 26 3e a7 ab e1 3d 56 4c 43 3e f1 2c 14 be
       0.16307275 0.11019068 0.19072089 -0.14470269
000050 62 4e 64 3e ce 59 04 be 9d 40 ee bd 97 e1 15 be
       0.22295526 -0.12924883 -0.11633418 -0.14636837
000060 41 9e 42 be 7a 28 da bd d8 47 73 3e c5 d2 58 3e
       -0.19005682 -0.106522515 0.23757875 0.21174152
000070 04 10 8d 3e 3d ce 7b 3e 6c b4 21 3e 4d 88 77 3e
       0.2755128 0.24590392 0.15791482 0.24173088
000080 d9 f1 61 be 10 a9 2c be 95 4d 2b be 53 e1 6e 3e
       -0.22064914 -0.16861367 -0.16728814 0.23328142
000090 53 38 ad 3e 3a 82 07 be b3 ab 7c be 8c ff 94 be
       0.33832034 -0.13233271 -0.24674873 -0.29101217
0000a0 d6 e0 65 be 50 ab 7d be 92 b5 51 be 62 a5 a3 3e
       -0.2244905 -0.24772382 -0.2047942 0.31962115
0000b0 7c 84 5f 3e 7c b0 46 be e8 06 13 be d4 a0 7f 3e
       0.21827883 -0.19403261 -0.14358103 0.24963695
0000c0 c3 9f 92 3e 86 a8 74 3e 6c 8f 53 be 85 da 86 be
       0.28637514 0.23892412 -0.2066018 -0.26338592
0000d0 38 7f 87 be 10 09 fc 3d ec 8a 4d be aa d6 e9 bd
       -0.26464248 0.12306416 -0.20072526 -0.11417897
0000e0 e4 b4 4f be 3e 68 52 3e f7 63 79 3e 76 ad 90 3e
       -0.20283848 0.20547578 0.2435454 0.2825734
0000f0 60 a3 e3 bd 89 2f 28 be 6f 47 87 3e 54 10 c3 bd
       -0.11115146 -0.16424383 0.26421687 -0.09524599
