experiments/exp_20251005_030455/models/checkpoint_epoch1_auc0.7227_logloss0.0883.pth (torch, 137410 bytes, 12 tensors)

_orig_mod.embeddings.gender.embedding.weight f4 [5, 8]
000000 b4 f1 9c 3c ee 4a 64 37 42 8f 92 bc af 83 0f bc
       0.019158222 1.3607305e-05 -0.017890576 -0.008759423
000010 56 61 92 3c f0 74 5f 3c 4c 34 e1 3c 97 4b c9 3c
       0.017868679 0.01363872 0.027490757 0.024572177
000020 9c 7a bc 3f 2c 44 68 37 42 99 14 bf 92 34 28 bf
       1.4724917 1.384415e-05 -0.5804635 -0.65705216
000030 57 3d 06 3f 09 3a 86 be 7b 37 d7 3e bb fa 58 3f
       0.5243735 -0.26216152 0.42034516 0.84757584
000040 28 79 90 be c5 a2 67 b6 0a 4c 95 be e6 09 ee 3e
       -0.28217435 -3.4516427e-06 -0.29159576 0.46491927
000050 78 8b fd 3e fe 84 c5 3f 9f ff 0f 40 62 25 ee 3e
       0.4952047 1.5431211 2.2499769 0.46512896
000060 c6 59 05 80 bb 5b 05 80 b0 55 0a a7 c1 a8 95 18
       -4.91382e-40 -4.92084e-40 -1.9197798e-15 3.8685995e-24
000070 02 c1 05 80 ac 94 01 80 b8 c1 64 32 97 5e 05 00
       -5.28416e-40 -1.45169e-40 1.3315393e-08 4.9311e-40
000080 12 df 05 80 72 d1 a9 a3 76 98 05 80 5e 62 05 80
       -5.392e-40 -1.841172e-17 -5.1387e-40 -4.94465e-40
000090 20 75 05 00 e6 b9 05 80 aa 99 05 00 5c 6a 05 80
       5.01194e-40 -5.25865e-40 5.14302e-40 -4.97332e-40

_orig_mod.embeddings.age_group.embedding.weight f4 [15, 8]
000000 d6 56 aa 3c 2c af b0 3c eb 3b 1d 3c c6 43 17 3d
       0.02079336 0.021567903 0.009596805 0.03692987
000010 dd 10 3a 3b c0 0a e7 3c f2 0b 4f bc b4 2d 0f 3d
       0.00283914 0.028203368 -0.012637125 0.034955695
000020 bc 4a 02 be f2 31 c6 bc a1 1d 55 3e 61 e9 8f 3d
       -0.12723821 -0.024193738 0.20812084 0.07026935
000030 00 ad 85 3e cf 68 f3 3d 3a 50 48 3e 34 3d 0d 3d
       0.2610855 0.11885225 0.19561854 0.034482196
000040 4f ab 66 3e 9b 20 b2 bd 40 f5 9c 3d 79 66 4f be
       0.22526287 -0.08697625 0.07663965 -0.20253934
000050 8d 73 8d be cd 99 c4 be b4 c8 6c bf 70 c5 cf bd
       -0.2762722 -0.3839859 -0.9249375 -0.1014508
000060 14 9b 90 3d 5c 60 49 bd ce 41 31 bf 9f a9 2d be
       0.07060829 -0.04916416 -0.69241035 -0.16959237
000070 57 0f 28 bf 96 48 15 be 6c b4 49 be 07 c0 67 be
       -0.65648407 -0.1457847 -0.19697732 -0.22631846
000080 4e dc 9f 3e 0f f2 a4 bd 8a 68 53 be 23 ca a1 bd
       0.31222767 -0.080539815 -0.20645347 -0.07899883
000090 aa 94 1f bf 89 55 8a be 5e e3 a8 be 7e 61 10 3d
       -0.6233622 -0.27018383 -0.32985967 0.035249226
0000a0 9f 4d 06 3f a2 1b 64 bd eb 4c bf be 3d 72 3c bd
       0.5246219 -0.055690415 -0.3736337 -0.046007384
0000b0 f3 c2 e7 be 18 a0 c8 be fe a1 e8 be 1c 38 de bc
       -0.45265922 -0.39184642 -0.4543609 -0.027126364
0000c0 7f 86 56 bd c2 b8 ae 3f 3f 76 c9 be bd 58 dc be
       -0.05237436 1.3650134 -0.39348027 -0.43036452
0000d0 84 bc 07 be e2 60 88 bb d2 c1 19 bf d2 da 19 3f
       -0.13255507 -0.00416194 -0.6006137 0.6009952
0000e0 a2 fe 59 3f c3 73 48 3e 19 a4 75 bf f1 d9 74 3f
       0.85154164 0.1957541 -0.9595352 0.9564505
0000f0 9c 4f af be 68 ff 8b 3d 87 14 59 3f 93 b9 ce 3f
       -0.34240425 0.06835824 0.8479695 1.6150383
000100 cf ad fa 3e 69 cd 8d 3e a0 87 2d 3f 2e eb 8b 3f
       0.4896073 0.27695778 0.6778507 1.0931146
000110 24 4e 56 3e 8c 43 1b 3f d5 b3 ef be a3 ab 06 3f
       0.20928246 0.60649943 -0.46816888 0.52605647
000120 d1 ae 05 80 de 34 32 34 97 82 05 00 9a 3e 9a 26
       -5.2189e-40 1.6596775e-07 5.06024e-40 1.0702865e-15
000130 d7 28 f0 27 c9 75 05 00 23 62 06 80 bc 61 05 00
       6.665766e-15 5.01431e-40 -5.86218e-40 4.94238e-40
000140 91 72 05 80 46 09 97 b5 bf 99 05 80 8e 03 44 b5
       -5.00276e-40 -1.1253076e-06 -5.14331e-40 -7.302086e-07
000150 5f 8c 05 80 0c 8b 05 80 b6 20 a2 af 30 1c 2d a1
       -5.09533e-40 -5.09058e-40 -2.949087e-10 -5.8651986e-19
000160 78 0b 8d 96 9f 96 05 00 08 bd 55 a4 f6 60 05 80
       -2.2787016e-25 5.1321e-40 -4.6347128e-17 -4.9396e-40
000170 40 d9 06 80 96 21 06 80 81 ae 90 b4 01 56 a4 29
       -6.28948e-40 -5.63061e-40 -2.6949058e-07 7.2979823e-14
000180 97 bf 45 a0 ed 98 b2 28 3e 01 d4 32 5d a1 05 80
       -1.6749941e-19 1.982829e-14 2.4680613e-08 -5.17064e-40
000190 6e 79 05 80 30 6d 05 80 e2 34 6b 88 d8 99 92 b5
       -5.02738e-40 -4.98347e-40 -7.0779904e-34 -1.0922622e-06
0001a0 3b 52 11 8d 07 85 05 80 32 4b da 2e 9b 82 05 00
       -4.4780556e-31 -5.06899e-40 9.9268496e-11 5.0603e-40
0001b0 65 00 20 b0 6f 4f 17 97 c0 7e 05 80 47 d0 ae b9
       -5.820822e-10 -4.889099e-25 -5.04647e-40 -0.00033343045
0001c0 37 5c 05 00 f6 1c 51 3a 95 a3 05 80 30 fe f2 30
       4.92258e-40 0.0007977033 -5.1786e-40 1.7680062e-09
0001d0 14 e0 94 b0 a1 e8 08 30 fc 74 05 80 c0 1e a5 b1
       -1.0832104e-09 4.98071e-10 -5.01144e-40 -4.805628e-09

_orig_mod.embeddings.inventory_id.embedding.weight f4 [50, 16]
000000 02 8f 30 3d 5e c0 82 bf 63 34 19 bd 38 de d0 3e
       0.043105133 -1.0214956 -0.037403475 0.4079454
000010 f4 e2 30 3e 9d a0 13 bd 95 d6 b9 3e 9c ba 7b 3e
       0.17274076 -0.036041845 0.36296526 0.24582905
000020 0d 0e c1 be 81 2e 72 be 85 b5 63 3e bf 57 4c 3e
       -0.37706032 -0.23650552 0.22237213 0.19955347
000030 0d 5b c2 be 58 7c 16 3e 00 52 b9 be e7 ff c3 3e
       -0.3796009 0.14695871 -0.36195374 0.38281175
000040 7c 84 7d 3e c3 6a 95 be ba 7f 8a 3d 04 92 7f 3e
       0.2475757 -0.29183015 0.06762643 0.24958044
000050 4a 4c a4 3d 9b 20 0c be 42 08 88 3e 36 a6 31 3d
       0.080223635 -0.13684313 0.265688 0.0433714
000060 03 6c 0d be c0 2f d8 bd e4 32 66 3e c0 f3 ec bc
       -0.13810734 -0.105559826 0.2248035 -0.028924823
000070 7c 93 30 bb 9c 83 72 3d 04 c8 61 be 99 4e cd 3c
       -0.0026943376 0.059207544 -0.22048956 0.025061892
000080 5d 2d e3 3d 96 e9 54 3c 39 c8 4b 3e da 3f 3c 3f
       0.11092637 0.012995144 0.19900598 0.7353493
000090 de c4 e2 3e c0 ee a0 be 3e 02 9b 3f 74 9e b4 be
       0.44290823 -0.31432152 1.2110059 -0.3527714
0000a0 b9 a2 d8 be fe 7f 5f be 55 46 b5 3e e5 51 2d 3d
       -0.42311648 -0.21826169 0.35405222 0.04231443
0000b0 c2 70 45 bf 2c 17 07 3e 5c 03 c2 bf e8 fc 87 3e
       -0.7712518 0.13192433 -1.5157275 0.2656014
0000c0 59 27 4f 3c 0d dd ab bb 1c 5c 19 3c 72 bf 91 3c
       0.012643659 -0.005244857 0.0093603395 0.017791484
0000d0 b6 52 2c 3c 8b c4 c1 bb af 7f d3 3c d5 0f 19 3c
       0.010517767 -0.0059133223 0.02581772 0.009342154
0000e0 10 1e 9f bc 23 4f 84 bc 05 22 c5 3c a0 a0 b4 ba
       -0.019423515 -0.016151017 0.024064073 -0.001378078
0000f0 28 c7 31 bc 36 22 8b 3b c1 00 9e bc 99 cd 4d 3c
       -0.010850705 0.0042460216 -0.019287469 0.012561225
000100 0c 8d 95 3d 84 f7 89 be ff 30 f1 3e ea 72 0a bf
       0.07302293 -0.26946652 0.47107694 -0.54081595
000110 74 2a 29 3f ec a5 82 be 00 6d a9 be d9 07 9b 3d
       0.66080403 -0.25517213 -0.33090973 0.07569856
000120 41 a0 f0 3b a0 6d 18 bf 8d 73 84 be 0e 93 5d be
       0.0073433225 -0.59542274 -0.25869408 -0.21638128
000130 af a7 20 be ce 68 d5 be 39 80 54 bf 22 bd 37 bf
       -0.15688966 -0.41681522 -0.8300815 -0.7177297
000140 9e e8 59 3e 21 ff 2a be 62 25 35 3e 82 1d fe 3d
       0.21280143 -0.16698886 0.17690042 0.12407972
000150 5b c5 b1 3e ab d9 4b bd 31 8d fd 3e d9 89 05 bf
       0.34720883 -0.04976813 0.49521783 -0.52163464
000160 87 46 4d 3d 69 a8 ef 3e 51 ad 2a 3f d3 0e 4a be
       0.05011609 0.46808174 0.6667071 -0.19732217
000170 85 65 36 3f 5c 75 f4 bd 07 9b 1c 3f 6c 6a 8c bf
       0.71248657 -0.11936447 0.6117405 -1.0969977
000180 54 ba 8f 3e 84 17 cf be 2b 41 e2 3e 25 a9 7c bf
       0.28071845 -0.40447628 0.44190344 -0.98695594
000190 8f 4a 17 3e 38 df b8 3f 1a c8 97 3e 7b ed 91 3d
       0.14774536 1.4443121 0.29644853 0.07125374
0001a0 ab 2c d2 be 2f 8f 5e 3e 78 e9 35 3f b5 47 a3 3d
       -0.41049704 0.21734308 0.7105937 0.079726614
0001b0 f5 02 11 bf 89 11 ed be 88 da 18 3f f8 3c 4c 3f
       -0.5664514 -0.4630244 0.5970845 0.7978053
0001c0 dc 63 e0 be 09 bf c9 be 3a 25 77 3f 3d 0b 7f 3d
       -0.43826187 -0.3940356 0.9654118 0.062266577
0001d0 dc 98 ea be ae 4b 10 3f de 02 21 be a3 4e ab 3f
       -0.45819747 0.5636548 -0.1572375 1.3383373
0001e0 b7 23 97 3f d3 91 99 3e bc 35 a9 bb d8 2f 3e be
       1.1807774 0.29994068 -0.0051638763 -0.18572938
0001f0 00 5f c2 3e cc 65 30 bf 06 a3 f3 be ce e6 88 be
       0.37963104 -0.6890533 -0.47585315 -0.2673859
000200 04 e7 42 3e 1b b1 ec bd 87 3a b0 3d ca 88 4f 3e
       0.19033438 -0.11557218 0.08604913 0.20267025
000210 e0 1a d9 3d f5 56 ac bd 90 0b 75 3e e0 54 38 3d
       0.10600829 -0.08415023 0.23930192 0.045002818
000220 99 d1 16 be db 9e da bd 0f 0f 59 3e 55 d6 7d bc
       -0.14728393 -0.106748305 0.2119715 -0.015492995
000230 11 66 03 bd 86 f4 02 3d 32 03 29 be 68 96 76 3c
       -0.03207976 0.031971477 -0.16505125 0.015050508
000240 d1 47 b7 bd d0 cb 4f be 90 43 f5 bd e1 e2 1f bf
       -0.08949245 -0.20292592 -0.11975777 -0.62455565
000250 72 a0 4a 3e 5c 68 66 bd 9c 55 86 be b9 d2 40 bf
       0.19787768 -0.05625187 -0.2623719 -0.7532154
000260 1c 9b 42 be b1 89 0f 3f 1e 0f 92 be af 39 75 3e
       -0.19004482 0.56069475 -0.28527158 0.23947786
000270 81 f7 04 3f 46 c4 2e 3e 2b 76 92 be ab 86 88 be
       0.5194016 0.1706706 -0.2860578 -0.26665244
000280 cc 5f e8 3e 75 b9 dd be 5b a1 54 3d 4f d6 d4 be
       0.45385587 -0.43305555 0.051911693 -0.41569754
000290 79 7b e8 be 16 d0 95 3e c1 74 d7 be 02 99 10 3f
       -0.45406702 0.2926032 -0.42081264 0.5648347
0002a0 8d 05 77 bd 77 fe 05 3f 64 52 88 bd 15 0a 4b 3f
       -0.060308028 0.5234141 -0.0665634 0.7931226
0002b0 d7 e2 5f bd 93 f8 09 3d f3 30 36 3f ab 23 65 be
       -0.05465969 0.033684324 0.7116844 -0.22376888
0002c0 4c 93 9f 3e 35 cf 29 3f 86 86 bd 3d ab 81 b6 bd
       0.31167066 0.663318 0.09254174 -0.08911451
0002d0 a4 b6 db 3d 33 3b d8 3e 18 9e f6 3d 29 f6 63 3e
       0.10728195 0.42232665 0.12041873 0.22261871
0002e0 28 5f e9 be 47 5e 96 be 99 59 08 3f 5d 69 41 bd
       -0.4558041 -0.29368803 0.53261715 -0.047219623
0002f0 9f a4 09 bf 81 2e 37 be 0c e8 d2 be 7c b9 96 3e
       -0.53766817 -0.17888834 -0.41192663 0.29438388
000300 12 94 b9 be 7f 23 86 3e 61 88 6e 3e 26 e8 fc bc
       -0.3624578 0.26198956 0.23294212 -0.030872416
000310 55 30 06 3f 98 6b 7a bd d7 7c 1f 3e f6 af 41 3e
       0.524175 -0.061137766 0.15574966 0.1891478
000320 2a 31 18 bf f4 54 78 bf 73 92 dc be ad 81 50 bd
       -0.5945002 -0.9700463 -0.43080482 -0.05090492
000330 d1 44 db 3e ba fd 8e 3d 74 32 99 be 16 8e 24 3f
       0.4282594 0.06981988 -0.29921305 0.64279306
000340 8e 5a 0a 3e 36 19 59 be c5 1a 57 3d 1b ce 49 3e
       0.13511106 -0.21201023 0.052515764 0.19707529
000350 28 cf fd 3d a1 4e 43 bd cc 77 76 3e 85 e1 83 3d
       0.123930275 -0.04768241 0.24069136 0.06439499
000360 ae 28 74 be f2 0a 84 be d4 44 4d 3e 8d e9 22 bc
       -0.23843643 -0.257896 0.20045787 -0.009943378
000370 cf 19 81 be 61 56 47 3d 59 1e 76 be 73 46 7c 3e
       -0.25215003 0.04866636 -0.24035014 0.24636249
000380 10 b7 fb be 16 41 ed 3e bf 76 bc 3e ab 0c fa be
       -0.49163103 0.4633872 0.36809346 -0.4883779
000390 1e 60 1f 3f 34 3c 51 3f 06 8e 3d 3e 43 bc de bd
       0.6225604 0.8173249 0.18511209 -0.10875752
0003a0 bc 2e 11 bf b4 f4 a6 bd db ed 03 bf 94 99 0a 3f
       -0.56711936 -0.08152142 -0.51534814 0.5414059
0003b0 33 da 37 3f c6 12 71 be 38 71 3b 3f 59 5e 26 bf
       0.7181732 -0.23542318 0.73219633 -0.64987713
0003c0 64 33 25 3f c2 34 d9 bd af c0 f3 bd ad e7 4a 3e
       0.6453154 -0.10605766 -0.11901986 0.1981494
0003d0 b3 1a 98 3c dc 0b 57 be fc 09 e6 3d 6c 08 a6 be
       0.018567419 -0.21000618 0.11232373 -0.324283
0003e0 b6 f5 00 bd 11 93 98 3e 06 ea fc 3d 98 8a 95 bd
       -0.03148433 0.29799703 0.12349324 -0.07301825
0003f0 1e 6f 25 3f cc c6 bf 3d 01 5f 1c 3e 8f 3f ad be
       0.64622676 0.09364089 0.15270616 -0.33837554

_orig_mod.embeddings.day_of_week.embedding.weight f4 [10, 8]
000000 76 63 a4 be 15 ed 6e 3f 27 d5 4b be 78 94 12 3e
       -0.32107133 0.9333051 -0.1990553 0.14314449
000010 3e 0c b8 3d 1c 1d 46 be ef 56 bb be c3 fe 70 bf
       0.0898671 -0.19347042 -0.36589763 -0.94138736
000020 a0 f9 79 be b2 ad 03 3f a4 81 dd bd 53 11 d6 be
       -0.2441163 0.51436913 -0.108157426 -0.41810092
000030 f8 72 ae be 2c a2 5f 3f 89 46 d2 3d 28 73 f0 be
       -0.3407209 0.8735683 0.1026736 -0.46962857
000040 14 3d b3 bb 2d 4c 47 3f 21 f5 60 3d c0 4e d0 bd
       -0.0054699276 0.7785061 0.054921273 -0.1017127
000050 9c 7d 5f bd fd 8f a5 bf 3c 8a 3c 3d c8 ec fb 3e
       -0.05456315 -1.2934567 0.046030268 0.49204087
000060 f6 16 27 bf 17 b9 3b 3e 0d 8b ad be a9 3c 33 bf
       -0.6526941 0.18332325 -0.3389515 -0.70014435
000070 4c 93 d2 bd 9f a7 f5 be fa 90 85 be 68 43 c3 bc
       -0.10282001 -0.47979447 -0.2608717 -0.023835853
000080 bd d3 05 bf da dd c0 be 0a 59 25 3d c6 81 a8 3d
       -0.5227621 -0.3766926 0.040368117 0.08227877
000090 f7 a4 6b 3e 92 3b 00 be 6a 93 07 3e c8 98 55 be
       0.23012148 -0.12522724 0.13239828 -0.20859063
0000a0 d6 49 a1 3d 2e ce 95 be a7 2a 18 be 56 15 fc bd
       0.07875411 -0.29258865 -0.1486002 -0.12308757
0000b0 71 9c 30 3c dc ce 22 bf e1 fc 19 3e cf ac 2f 3d
       0.010779486 -0.6359689 0.15037872 0.042889412
0000c0 4d f3 07 3e 18 0e 44 be 10 2d 1f 3e d4 e8 2f 3d
       0.13276406 -0.19146001 0.15544534 0.04294665
0000d0 da 67 71 bd 42 7b 74 be f0 56 f0 bd 9b 8b 2e bf
       -0.05893693 -0.23875144 -0.11735332 -0.6818177
0000e0 bc 95 05 80 a5 d7 98 00 30 67 05 80 20 67 05 00
       -5.12892e-40 1.4036354e-38 -4.96194e-40 4.96172e-40
0000f0 a6 6a 05 00 d8 61 c6 98 e8 12 06 00 de 71 05 00
       4.97436e-40 -5.1280597e-24 5.57795e-40 5.00025e-40
000100 03 eb 05 00 86 75 05 00 bf 29 06 00 7c 10 e8 b9
       5.43484e-40 5.01337e-40 5.65989e-40 -0.0004426277
000110 f9 e2 d8 0b 55 57 05 80 24 41 6a 01 8a 5e 05 80
       8.3541684e-32 -4.90506e-40 4.3025748e-38 -4.93092e-40
000120 5d f9 45 36 34 6f 05 80 99 73 05 80 d6 77 03 80
       2.9500436e-06 -4.9907e-40 -5.00646e-40 -3.18496e-40
000130 d1 30 10 30 8b de 57 33 69 67 05 00 78 91 f9 2c
       5.2456267e-10 5.026099e-08 4.96274e-40 7.093156e-12

_orig_mod.embeddings.hour.embedding.weight f4 [30, 16]
000000 e9 72 9f be 84 b0 94 bc 17 27 81 3d 4b 01 6e 3d
       -0.31142357 -0.018150575 0.06306284 0.0581067
000010 db 12 e7 bd 1c 8e 93 be 12 2f eb bc 96 17 7b 3e
       -0.11282893 -0.28819358 -0.028708968 0.24520716
000020 20 5a a2 3b 09 e1 33 3e f1 79 29 be 62 16 49 3e
       0.0049545914 0.17566313 -0.16550423 0.19637445
000030 5a 79 7b 3e 4a bc 68 3e 98 2e 83 be 5d ca 09 3f
       0.2455801 0.22728077 -0.25621486 0.53824407
000040 51 53 cf bd 6a bb 5d bc da d6 e1 bd 06 2f 57 3c
       -0.10123313 -0.0135334525 -0.11027308 0.01313377
000050 97 aa dc bc 25 6b ef 3b 47 0f 48 bc b5 c8 66 3d
       -0.026936812 0.007306474 -0.012210674 0.056343753
000060 e6 66 b3 3b 83 f6 26 3d e6 e4 2b bd 35 f6 d3 3c
       0.005474913 0.040762436 -0.04196634 0.025874237
000070 f2 41 1c 3c fe b5 b9 3b 2f 07 82 bd 89 b1 0b 3d
       0.009537207 0.005667447 -0.063490264 0.034104858
000080 f6 17 04 be 2d 08 27 bd 1c 53 43 3d 23 45 01 3d
       -0.12899765 -0.04077928 0.04768668 0.031560075
000090 c6 72 68 bd d7 fb 91 bc 40 98 2c bd 09 52 04 3e
       -0.05675008 -0.017820282 -0.042137384 0.12921919
0000a0 af 9d b1 bb a6 7c f3 3d 90 4d 90 bc c1 2c bb 3d
       -0.0054204087 0.11889009 -0.01761511 0.091393955
0000b0 ee 9b b7 3c ae 75 ab bc 24 33 0e be 30 53 a2 3c
       0.02241322 -0.020930137 -0.13886696 0.019815058
0000c0 bc c1 66 be b2 69 11 be 3b ec 92 3d 2b 69 c9 bd
       -0.22534841 -0.14200476 0.07173964 -0.09834512
0000d0 fe 6a ab bb b8 ed 34 bc 4c 99 96 bd 5f 72 ee 3d
       -0.0052312603 -0.011043005 -0.07353458 0.11642908
0000e0 8c f4 9d 3d e1 61 02 3e ff ff b2 bd 12 52 2a 3d
       0.07712659 0.1273265 -0.08740234 0.041582175
0000f0 f0 6e e2 3d 8b b8 ee bc 64 68 45 be 40 b8 4c bd
       0.11056316 -0.029140731 -0.19278103 -0.049980402
000100 b8 14 9c bd c7 9a e3 bc 51 bb ae 3c 9a 64 46 bc
       -0.07621139 -0.027783765 0.021329554 -0.012108946
000110 97 8f 18 bd 9c 31 ae bd 7d 47 d4 bc 74 1d d5 3d
       -0.037246313 -0.08505556 -0.025912995 0.10406008
000120 8b 6d 12 3d e7 4a db 3d 47 bd 3b bd 10 3b 75 3c
       0.035749 0.10707646 -0.045834806 0.014967695
000130 80 70 d5 3c c8 1b 0c bd bd cd 13 be 24 a3 69 bb
       0.02605462 -0.03420618 -0.14433952 -0.0035650218
000140 14 cd e5 bd 5a ea 26 3d bb 0c a9 bc 93 c7 52 3d
       -0.11220756 0.04075084 -0.020635953 0.05145986
000150 27 f4 61 bd c7 39 a9 bd ec db 71 bb 92 1e 07 3e
       -0.055164482 -0.08262973 -0.0036904765 0.13195255
000160 5a 04 4f 39 65 2b 28 3e 02 e1 b1 3d 45 d4 e5 3d
       0.0001974268 0.16422804 0.08685495 0.11222128
000170 1c bb 63 bd ea 12 5f 3d 7f 73 73 be 6e 1e a2 bd
       -0.055598363 0.054461397 -0.23774527 -0.0791596
000180 f1 7a 88 be 0d 5d d0 bd 06 08 81 3c b7 cd 6e 3d
       -0.26656297 -0.10173998 0.015750896 0.058301654
000190 db 9c ba bd f8 e2 49 be 5a 68 33 3d 59 14 c8 3d
       -0.09111949 -0.19715488 0.04380069 0.09769506
0001a0 08 11 44 3d b1 06 b7 3d 8d a5 0a 3e fb d7 f3 3e
       0.047867805 0.08936823 0.13539715 0.47625718
0001b0 69 e0 db be 8d c2 18 3d ac 8e e5 bc f8 34 1d 3c
       -0.4294465 0.037294913 -0.028022133 0.009595148
0001c0 40 87 6e 3b d6 5b a5 3e f9 7a 68 3d 2c 0d 52 3e
       0.0036396533 0.32296628 0.0567579 0.20512837
0001d0 47 2a c1 bd 78 2f f7 bc 69 31 7f 3d 49 82 2a 3e
       -0.09431892 -0.030174002 0.06230298 0.16651262
0001e0 97 86 34 bd a8 c5 e6 3d 41 2e 33 bd 65 d0 b8 3d
       -0.044073667 0.11268169 -0.043745283 0.09024123
0001f0 cb a2 91 3d e0 92 7d 3e e4 d4 87 bd 18 82 51 3e
       0.071111284 0.2476306 -0.066324025 0.20459783
000200 87 a1 58 be 3a bc dc 3d 01 77 1d be 98 5a 0b 3f
       -0.21155368 0.10778089 -0.15377428 0.5443511
000210 06 2c 15 3b 07 51 1c be be a3 cd 3b 91 67 22 bc
       0.0022761836 -0.15265284 0.006275623 -0.0099123875
000220 9a d8 45 be e5 1f 0a be 5d d2 51 3b d8 9d 82 bd
       -0.19320908 -0.1348873 0.0032016255 -0.063777626
000230 f6 af 83 bd 07 f8 bd 3c c3 b3 02 3f fe 7e e6 bc
       -0.06430046 0.023189558 0.51055545 -0.028136726
000240 27 bf f0 3e 41 e5 a9 3e 04 25 80 3d 58 1d 2e 3d
       0.47020838 0.3318272 0.0625706 0.042508453
000250 9f 3c 17 bd db ac 5d bd 2d 87 ba bd a9 e5 02 3d
       -0.036923047 -0.054119926 -0.09107814 0.031957302
000260 db 6c 51 be 5f 2d 1a be 68 b3 bb bd e4 a8 ba 3d
       -0.20451681 -0.1505637 -0.091650784 0.091142446
000270 c6 29 af 3d be c4 77 be 5c 60 0c 3e 4c 07 ef 3d
       0.085528895 -0.24196145 0.13708633 0.11671314
000280 b2 bb c3 3e 7e 6b 08 3f 43 6a 62 bd e1 36 c8 3e
       0.38229138 0.5328902 -0.05527712 0.3910437
000290 59 49 8f bc 12 72 cd 3d 77 b1 8b 3d 41 83 96 bd
       -0.01749103 0.10031523 0.06820958 -0.073492534
0002a0 ba 45 89 bd 06 77 64 bd b3 38 c9 3d 3b ce b4 3d
       -0.067027524 -0.055777572 0.09825268 0.08828398
0002b0 d3 4c 96 bd 54 5e 63 3d cc 34 f7 3d b7 52 d5 3d
       -0.07338872 0.05550988 0.12070617 0.10416167
0002c0 5d a7 e3 3e ba 3a a8 bd c1 df 94 bd e2 81 12 be
       0.44463626 -0.08214326 -0.0726924 -0.14307359
0002d0 d9 64 ab 3c b0 d9 96 bd 39 78 4e 3d 63 61 a0 bd
       0.020922111 -0.07365739 0.050407622 -0.07831075
0002e0 3f 85 ed bc 71 d0 87 bd 8e 5f 23 3e f2 8e c7 3d
       -0.0289942 -0.06631554 0.1595442 0.097440615
0002f0 ec 59 7f bc 5c fa b8 3d be 2d 26 3e 79 63 66 3d
       -0.015585404 0.09032127 0.16228387 0.05624721
000300 7e 34 41 3e 24 81 7f bd 6f bf 2e be 3a 9a 12 3c
       0.1886768 -0.062379017 -0.17065214 0.008947903
000310 70 8e a1 3d 91 e2 6a 3e e7 86 f0 3d 4c dd 14 be
       0.07888496 0.2293799 0.117444806 -0.14537543
000320 12 63 ab bc 32 8b 08 be 29 e2 e9 3c 89 e6 4f bd
       -0.020921264 -0.13334349 0.028550224 -0.050756965
000330 88 38 e5 bd 0e 99 cf 3e 95 e0 80 3e b6 17 22 bd
       -0.11192423 0.4054646 0.25171342 -0.039573394
000340 ec b0 d5 3e 99 9e 59 bd ae 13 28 bd 21 96 bd 3d
       0.41736543 -0.053129766 -0.041034393 0.092571504
000350 0d b8 37 bc ce 9d e3 bc 5f 02 e7 bd 23 c8 03 bc
       -0.011213315 -0.027785208 -0.11279749 -0.008043322
000360 27 01 c7 bd 12 66 46 bc 55 0e b9 3d 5c 33 b1 bd
       -0.09717017 -0.012109296 0.09035937 -0.08652374
000370 50 90 09 be 54 75 95 bb af d4 ab bd 69 3a a9 bd
       -0.13433957 -0.0045611057 -0.083901756 -0.08263094
000380 19 73 c5 3e c9 10 fd bd 9e c5 40 3c b5 4a bf 3c
       0.38564375 -0.12356717 0.011765866 0.023351053
000390 31 86 9d 3d 7b 32 07 be f6 c9 c6 3e 83 2b f1 bd
       0.076916106 -0.1320285 0.3882596 -0.11775877
0003a0 8e 0f ee bb 62 59 d9 bd 3b 1d 73 3d 24 67 05 be
       -0.007265038 -0.106127515 0.05935405 -0.13027626
0003b0 77 56 59 be 20 f4 c2 bc 0f 38 1c 3d 30 d1 35 3c
       -0.2122439 -0.023798048 0.0381394 0.0110972375
0003c0 61 b5 07 3e 42 ab eb bd cd af db bd d5 54 a9 bd
       0.13252784 -0.11507274 -0.10726891 -0.082681336
0003d0 65 5a ce 3c 59 ed 6e 3e de 41 53 3c f2 c1 a7 bc
       0.025189588 0.23332728 0.012894122 -0.020478223
0003e0 84 5a d6 3c b4 95 f5 bd 46 11 0a 3e 6d a4 fd bd
       0.026166208 -0.11991444 0.13483152 -0.12384877
0003f0 72 e4 04 be 98 24 10 3e 71 dc fd 3c 19 bd 54 3c
       -0.1297777 0.1407646 0.030988904 0.0129845375

_orig_mod.dense_proj.weight f4 [64, 113]
000000 f7 4c c7 3c 4b 01 db 3b 1e 80 92 3e b0 4e 29 be
       0.024328692 0.0066835037 0.2861337 -0.16533923
000010 b7 25 85 3c f8 83 cd bd fa 9d 4e be 92 c9 3f bd
       0.016253335 -0.10034937 -0.20177451 -0.04682309
000020 6d 4c 7c 3d 4a 40 39 3d ae 2e 8a bc 25 b8 6e 3c
       0.061596323 0.045227326 -0.016867962 0.014570271
000030 22 41 6e 3c db 17 e5 bd ca 69 c2 3b 00 94 e5 bc
       0.014541896 -0.11186191 0.005933021 -0.028024673
000040 2d 2c 0d 3d ac 48 b4 3d 0a f0 06 3d 94 f3 47 3d
       0.034465957 0.088029236 0.032943763 0.04881628
000050 1f 1c d1 3c e0 04 b6 3d b6 07 40 3d 9a 94 cd bc
       0.025526104 0.088876486 0.046882354 -0.025095273
000060 a6 77 18 bc b0 fb 1d bc 70 52 94 3c 63 d2 3e bd
       -0.00930587 -0.0096425265 0.018105716 -0.04658736
000070 07 b6 3b 3e e0 c1 f4 3b 38 12 15 3d 47 d0 23 ba
       0.18331157 0.0074694008 0.036394328 -0.0006248992
000080 41 3f c6 bc 77 42 76 3d ab 37 b0 bb ab f0 d2 bc
       -0.024200084 0.06012198 -0.00537773 -0.025749525
000090 26 5a 11 3d e1 20 d8 bd ba 9e 30 3e 72 09 ac bd
       0.035486363 -0.10553146 0.1724805 -0.08400239
0000a0 ec 03 24 3d 37 fe 5e be 57 01 f2 3d 4e ed aa bd
       0.040042803 -0.21776663 0.11816662 -0.083460435
0000b0 32 8b 39 bc 71 58 76 bd e3 6d b5 bc 1e 3b 9e bd
       -0.011324691 -0.060142938 -0.022147125 -0.077261195
0000c0 8a 12 fd bd f8 c8 a7 bd cd 70 4b bd 75 4c 64 be
       -0.12357052 -0.081926286 -0.049668122 -0.22294791
0000d0 d2 3b de bc a9 0f fd 3b 70 a5 22 3d d2 fe 08 3e
       -0.027128134 0.007722814 0.039708555 0.13378456
0000e0 4a d6 56 be 97 b4 0a 3e 84 94 c6 bc 2f d9 4b bc
       -0.20980182 0.13545452 -0.02424074 -0.012441917
0000f0 d1 e1 91 3c 3a 3c 1a bc 14 cb b6 bd 33 d3 2d bd
       0.017807873 -0.009413773 -0.08925453 -0.042437743
000100 ec 5e d9 bc 3a 55 f9 3c 3d a5 0b 3d ba c8 c4 bc
       -0.02653452 0.030436147 0.03409313 -0.024021495
000110 fc 13 31 bc 66 ca f2 3b 75 f7 5c bc bb 72 95 bd
       -0.010807987 0.0074093817 -0.013486733 -0.07297274
000120 23 87 0b 3d d7 1c 56 bd 73 64 2c bd de 36 88 bc
       0.034064423 -0.052273598 -0.042087983 -0.016627725
000130 1c 68 f7 3b 23 29 d5 3c 20 9b bf 3b fb 58 96 3d
       0.0075502526 0.026020592 0.0058473498 0.073411904
000140 16 fc 75 bd f2 91 29 3d 84 da f7 bc b3 a8 48 3d
       -0.06005486 0.04139895 -0.030255564 0.04898901
000150 31 16 a5 bb 95 04 6b bd e6 36 67 3c 18 79 9a bb
       -0.005038046 -0.057377417 0.01411221 -0.0047141425
000160 a3 56 14 bd f8 09 81 bc 23 22 6c 3c 00 31 74 bd
       -0.036215436 -0.015751824 0.014412436 -0.059617043
000170 88 b3 71 bc cf b8 6b bd 2f 9c ec bb fd 03 06 3c
       -0.014752276 -0.057549294 -0.007220767 0.008179662
000180 29 63 14 bd dd a7 e7 bc 0a 24 3e bd 5d 83 4d bd
       -0.03622738 -0.028278286 -0.04642109 -0.050174106
000190 a5 21 1c 3c 98 f1 40 3b 66 99 f4 3c b2 86 8b 3c
       0.009529506 0.0029440876 0.029858302 0.017032001
0001a0 4f e6 cb 3b cc 89 46 ba 56 e6 fd bc fe 69 c9 3c
       0.0062225233 -0.0007573634 -0.030993622 0.024586674
0001b0 c3 cd 1a 3c cd 8c 41 bd 81 2b fe 39 05 de 87 bc
       0.0094484715 -0.04725342 0.00048479068 -0.01658536
0001c0 3b 48 79 3d 69 bd c1 bc 68 37 dd ba a7 a8 9d 3d
       0.0608599 -0.023649888 -0.0016877474 0.076981835
0001d0 98 39 15 3c d2 91 a2 3c 4a f8 fc 3d f1 0f 93 3c
       0.00910797 0.019844923 0.12352045 0.017951937
0001e0 bc 31 14 bd 3a 77 40 3c b8 a4 2a bd 4c 1d d5 bd
       -0.036180243 0.011747176 -0.041660994 -0.104059786
0001f0 ef 40 e8 bc 5f 54 32 bc 5d bc a2 3d ef 3a 32 bc
       -0.028351275 -0.010884373 0.07946084 -0.010878309
000200 bc a1 a2 3d df 30 d2 3d 29 ad 33 bd 30 d4 9f bc
       0.07941005 0.10263228 -0.04386631 -0.019510359
000210 67 7d 93 3d f3 56 eb 3c 16 fd 94 bd 4b 7c 09 bd
       0.07201653 0.028727984 -0.07274835 -0.0335658
000220 fd 54 1a bb 9f 14 d3 3b c7 df 93 3c dd c1 38 bb
       -0.0023549192 0.006441667 0.018051041 -0.0028191723
000230 00 64 ae 3d f0 8d c6 bd ff c7 21 bb dd 9a 08 be
       0.08515167 -0.09695041 -0.0024685857 -0.13340326
000240 09 71 e7 bc b6 6d 0a bd 1c 58 34 ba 1c ea a1 bd
       -0.028252142 -0.033796035 -0.00068795844 -0.07905981
000250 e8 38 6e bd 83 8c 9c bc b8 d4 c6 3c 23 8f e0 3d
       -0.05815974 -0.01910997 0.024271354 0.10964801
000260 a3 fc 3c 3d fd 9d 22 bd 17 5d be 3d 28 4d 2b bc
       0.04613937 -0.03970145 0.09295099 -0.010455407
000270 7b ba 40 bd 65 0a 7a bd 24 1d a8 3d 10 95 67 bc
       -0.04705284 -0.06104507 0.08208683 -0.01413466
000280 b8 d9 b2 3d e8 eb b2 3d 97 85 02 b9 5f 94 22 3d
       0.08732933 0.08736402 -0.00012447532 0.03969228
000290 38 79 76 3e d0 af 44 bb b6 a9 e3 3b 55 e8 c2 bd
       0.24069679 -0.003001202 0.0069477214 -0.0951697
0002a0 8c 3a 8b bb c2 f9 48 3d 05 4d c9 bd a6 09 9a bb
       -0.0042489227 0.049066313 -0.098291434 -0.004700857
0002b0 cc 2a 22 3c 57 8a d8 3b 83 8c 16 bd e2 54 d1 bc
       0.009897899 0.0066082883 -0.036755096 -0.02555317
0002c0 0a e2 9d bb c5 14 8b bb 1e 94 6c bd 63 a7 05 bd
       -0.0048182057 -0.0042444193 -0.057758443 -0.032630336
0002d0 8b 5a 10 3b dc d0 cb 3c cb f5 c4 3b 7e 81 bd bc
       0.0022026624 0.024879865 0.006010746 -0.023133036
0002e0 6a e0 20 bd f5 6f 0f bd 7f 73 8a 3c a8 df 1b 3d
       -0.039276518 -0.03501888 0.016900776 0.038055092
0002f0 91 b7 09 bd 31 4b 9b 3e 91 95 2c bc 82 70 87 3e
       -0.03362233 0.30330804 -0.010533706 0.26453024
000300 c4 7e 4b 3e 53 88 93 3d 7d 13 b7 3d f4 c7 0b 3e
       0.19872576 0.07203736 0.08939264 0.13650495
000310 71 53 e5 3c cf f9 03 3e 95 c7 9c bc 35 c7 d4 ba
       0.02799389 0.12888263 -0.019138137 -0.0016233685
000320 e9 10 9f bd 15 41 8f bd 0c b2 ae bc b0 c3 b8 bd
       -0.07766897 -0.06994835 -0.021325134 -0.090216994
000330 59 dd 8b 3c 2e de 34 3d 65 6e af bc 53 d7 bd 3b
       0.01707332 0.0441572 -0.021414945 0.005793491
000340 76 1b 00 bd f1 d9 b9 bd be 1b 1e 3c 39 7f 66 3c
       -0.03127619 -0.09074772 0.009650169 0.014068418
000350 a7 69 16 3d 38 2c 18 3b 17 9c 4a 3c c8 c6 50 3d
       0.03672185 0.0023219716 0.012366316 0.050970823
000360 04 00 b0 bd 24 39 8c bc ef 1a 1f bd cb 02 a5 bc
       -0.08593753 -0.01711709 -0.038844045 -0.020142933
000370 76 17 b2 bd c5 57 a0 bd 49 e9 f7 bc 20 f5 31 bd
       -0.08695881 -0.07829241 -0.030262606 -0.04344666
000380 96 dd 49 bd 45 13 4f 3e 7c 4e 83 3d a0 fb 30 bc
       -0.049283586 0.20222194 0.06411454 -0.01080218
000390 01 09 d6 bd 8c 89 bc 3c 5d 4e 23 bd 2e 9f a1 3d
       -0.10450936 0.023014806 -0.039869655 0.07891689
0003a0 70 7f 3b bd 8a 6f c2 bc 14 78 bc bc 9c 8b dd bc
       -0.04577583 -0.023734827 -0.023006476 -0.02704411
0003b0 ac bf 27 bb 34 9b 89 3d 23 ec 0e 3c c1 aa 15 be
       -0.0025596423 0.06719056 0.008723292 -0.14615919
0003c0 90 08 79 bd 9c 19 b2 3a 12 3d 14 bd 49 a3 45 bc
       -0.06079918 0.0013587954 -0.036191054 -0.012062856
0003d0 f4 be 09 3d a1 45 e7 bc 56 11 88 3c 44 59 8b bd
       0.033629373 -0.028231444 0.016609829 -0.068041354
0003e0 9f 0c 88 bd 2f 26 db bc aa 37 7f 3d 0a c2 61 3c
       -0.06643032 -0.026751606 0.062308945 0.013779173
0003f0 24 67 0b bd a4 c8 ae 3b 78 2e 61 3c 03 87 ee 3c
       -0.03403391 0.005333977 0.013743989 0.029117113

_orig_mod.dense_proj.bias f4 [64]
000000 e1 f6 a9 bc 14 f1 06 be cc d3 b3 bd 82 af cf 3c
       -0.020747604 -0.13177902 -0.087806314 0.025352243
000010 5d 05 c3 3d 98 c9 91 bd 67 a7 c1 bd 0b b1 83 bd
       0.09522507 -0.07118529 -0.094557576 -0.06430253
000020 08 2f b4 3d b7 c8 fb bc f9 42 52 3d 13 b2 45 3d
       0.08798033 -0.030735357 0.0513334 0.048265528
000030 d5 c7 c8 bd 2b 90 9e 3d 9e a8 52 bd 32 43 82 bd
       -0.0980374 0.077423416 -0.051430337 -0.06360473
000040 9b 64 f6 bd b2 40 cf 3d 37 4b 1d be 64 37 ed 3d
       -0.12030908 0.101197615 -0.15360723 0.115828305
000050 1e b0 06 3e 38 68 6e 3d 99 d1 75 3d 7f e8 90 bd
       0.13153121 0.05820486 0.06001434 -0.07075595
000060 ea 6b 10 bd 95 49 f9 bc 7f 5a 02 be 8e ea e6 3b
       -0.035259165 -0.030430594 -0.12729834 0.007047004
000070 82 56 36 3c ee 6d bc 3d 96 d8 f8 3d b6 12 87 bd
       0.0111290235 0.09200655 0.121506855 -0.06595366
000080 25 b1 57 3b 87 94 9f 3d 08 e7 c4 bd 1e ef d1 3d
       0.0032911983 0.07792001 -0.09614378 0.10250686
000090 72 cc 58 3d 1d e6 ec bd f0 a9 a5 bd a4 a9 de 3d
       0.05292935 -0.11567328 -0.08089054 0.108722
0000a0 a8 3b d7 3c 99 ce 55 3d 70 de 02 3d ef 21 65 bd
       0.026273564 0.05219898 0.031950414 -0.055940565
0000b0 00 10 01 3d 6d 88 11 b9 ed f1 1b 3e ee ac cd 3d
       0.0315094 -0.000138791 0.15229006 0.10042749
0000c0 c3 86 93 3d 62 6a 7d 3d 3b 16 97 3d 14 df c6 bd
       0.07203438 0.061869033 0.07377287 -0.097105175
0000d0 9a 5c d3 3d a9 3b 60 bd f1 46 98 bd 8c 39 54 3d
       0.10320397 -0.054744396 -0.07435406 0.051812693
0000e0 0a b1 e8 3d e2 8b 07 3d e9 18 88 bc 8e 5a 89 3d
       0.113618925 0.033092387 -0.01661344 0.06706725
0000f0 a3 15 68 3d b7 d8 e3 bd 8f ef 02 3e 04 ec 79 3d
       0.05666126 -0.111253195 0.12786697 0.061016098

_orig_mod.shared_mlp.0.weight f4 [128, 120]
000000 96 e4 98 bd ea bf c6 36 46 b3 ca 3d da 70 7a 3b
       -0.07465474 5.9232016e-06 0.09897475 0.0038214237
000010 d9 0b f9 bd 23 d2 c2 bd 5b 93 48 be ff f8 06 be
       -0.12160463 -0.09512737 -0.19587462 -0.13180922
000020 87 44 49 bc 32 30 0f bc 5f 29 5d 3c 9a 05 c9 3d
       -0.012284405 -0.008739518 0.013498633 0.098155215
000030 ee ef ef 3d c7 a9 e0 3d be 06 5d 3e 05 93 0f 3d
       0.11715685 0.109698825 0.21584603 0.035052318
000040 9a 37 83 bc 75 fc af 3d 18 03 f8 bd 25 46 8d bc
       -0.016017724 0.08593074 -0.12109965 -0.017245362
000050 9e ae f9 3c 64 ff 5c bc 1a 0b 15 bd 00 e5 49 be
       0.030478772 -0.013488624 -0.03638754 -0.19716263
000060 ae 05 69 bd 3e 76 6e 3c 85 42 f7 bd 32 62 8e 3c
       -0.056890182 0.014554558 -0.120732345 0.017380808
000070 72 60 17 3e 9d 8e 7d 3d eb ee 4c 3e c5 1d bb bb
       0.14782885 0.061903585 0.20013015 -0.005710336
000080 e9 f3 c7 3d 8b 9e 01 bc 5f 23 14 bc 53 08 4b 3d
       0.09763319 -0.007911335 -0.009041636 0.049568485
000090 c9 74 db 3c b2 d7 12 3d 0e 17 94 bc 8e fb 25 3d
       0.026789086 0.035850234 -0.0180774 0.040523104
0000a0 ee 53 4e be 26 98 83 3a 95 fb b2 3c 65 64 82 3d
       -0.20149204 0.0010039851 0.02184848 0.06366805
0000b0 f6 37 7c bd b6 cf 9e bd 44 75 e7 bc e2 26 c7 3d
       -0.061576806 -0.077544615 -0.028254159 0.09724213
0000c0 e9 88 0b 3c aa 16 c8 3d a7 4c 86 bd e8 0a f1 3d
       0.008516529 0.09769948 -0.06557589 0.11769658
0000d0 61 93 2c 3d 9c 76 52 bc 8d 06 8e bd de d1 6a 3d
       0.04213274 -0.0128456615 -0.06934843 0.05732905
0000e0 3d ca 89 bb 5c 7c b9 bc c5 e6 9d bc 79 93 f1 3b
       -0.004205017 -0.022642307 -0.019275079 0.0073723164
0000f0 a2 01 b3 3b 10 88 3d bd 8d ca 67 3d 1e 23 69 3d
       0.005462841 -0.046272337 0.05658965 0.056918256
000100 09 f3 e7 3c 23 69 3b bd 05 b0 15 3c b4 cb 8c 3c
       0.02831413 -0.045754563 0.009136205 0.017186977
000110 3c e9 43 3d 6d 98 94 3c f0 b4 83 bd 26 ab 43 3d
       0.04782985 0.018139089 -0.064309955 0.04777064
000120 b8 9b 33 3d 13 45 59 3c f1 72 63 3c 0b 64 50 3b
       0.043849677 0.0132610975 0.013882385 0.0031797912
000130 44 1d 43 bd 76 e0 de bc b3 48 56 bd 0b ff 0f bc
       -0.04763533 -0.02720664 -0.052315425 -0.008788834
000140 51 cf 8f 3c 96 25 ad bc 1d 6a 87 ba cb 99 56 3d
       0.01755491 -0.021136086 -0.0010331307 0.052392762
000150 06 9f 57 bd 25 5a 8b 3d 7d 20 86 bc 41 b3 1a 3d
       -0.05264189 0.06804303 -0.016372913 0.037768606
000160 fa d1 0b 3d 13 eb 45 bd 5b 82 67 bd f6 31 a5 bb
       0.034135796 -0.048319887 -0.0565208 -0.005041356
000170 c5 d3 f3 bc 96 03 23 3c 8f fe b9 3c 7c d9 a1 3b
       -0.029764066 0.009949585 0.02270439 0.0049392562
000180 cd 19 3c ba 90 b7 e1 3c 92 87 0d bd 6f 18 3a bd
       -0.00071754755 0.02755335 -0.034553118 -0.045433458
000190 bc af 7d bc 55 06 6a bb 28 f7 e1 bd 03 6c 6c b9
       -0.015483793 -0.003570934 -0.110334694 -0.00022546951
0001a0 4a 8d 4b bd ee e7 31 bd 40 f5 be bb 6c 3a 24 3d
       -0.04969529 -0.043434076 -0.005827576 0.040094778
0001b0 9f a5 06 bd 9c 5d cd 3d 84 f7 91 bd a8 96 a6 bc
       -0.032872792 0.1002762 -0.07127288 -0.02033551
0001c0 8e 8c 4d bb 08 d7 c6 3c 37 46 a8 bb d5 20 84 3c
       -0.0031364295 0.024272457 -0.0051353234 0.016128937
0001d0 ef 1b 2d 3d 2e c2 b4 3c 3b bf c1 bd eb 50 3c 3d
       0.042262968 0.022065248 -0.094603024 0.045975607
0001e0 7d 4b bf bc d2 e2 69 b7 1d c4 aa 3d 55 35 21 bd
       -0.023351425 -1.3940693e-05 0.08338187 -0.039357502
0001f0 e1 37 be bd f7 b5 10 be 59 fd 4a be 28 c1 03 be
       -0.09288002 -0.14131914 -0.19823207 -0.12866652
000200 cb d6 43 bd 14 0e 81 3a 27 fa e4 bc 3c 68 26 3d
       -0.047812264 0.0009846115 -0.027951313 0.04062675
000210 56 f4 f9 3d a8 85 56 3d df 5c 27 3e c1 ad e1 3b
       0.122048065 0.05237356 0.16344021 0.006887168
000220 dd 06 86 3d 72 db 7a 3d c6 12 4c be 36 95 cb ba
       0.06544278 0.061244436 -0.19929036 -0.0015532139
000230 eb 11 02 ba db 62 ac be 11 f3 ef bd 79 58 8d be
       -0.00049617764 -0.3366917 -0.11716283 -0.27606562
000240 37 8e 62 bd 48 c0 9f 3d a6 64 32 be 12 7a 7d 3d
       -0.055311408 0.078003466 -0.17421207 0.061883993
000250 4e 34 17 3e fe bd 4d 3e b8 8c 82 3c 02 90 ce bd
       0.14766046 0.20092008 0.01593624 -0.10086061
000260 50 18 93 3d ca b2 ef bd ca 23 79 3c 9b 44 8b 3c
       0.071823716 -0.11704023 0.015206287 0.017000487
000270 28 1e 21 3d a4 1d 9c bc 69 cc 56 bc 00 a3 44 3d
       0.0393354 -0.019057103 -0.013110259 0.04800701
000280 27 ff 2b be 0e 7a ca 3b 82 84 64 3d 4a d6 10 bd
       -0.16796552 0.006179101 0.05579043 -0.035360612
000290 80 05 bc bd 51 ac de bd ce cb 64 bd 31 1c 1b 3e
       -0.091807365 -0.108727105 -0.055858426 0.15147473
0002a0 73 b6 0f 3d e8 a5 0a 3e 13 a0 f5 bd ee 42 fa 3d
       0.035086107 0.1353985 -0.11993422 0.12219797
0002b0 ee 34 e5 3c e2 d0 1a bd 1a d5 39 be 11 ed 0a 3b
       0.02797934 -0.037796862 -0.18147698 0.0021198431
0002c0 20 8f 7a 3d de 26 f0 3c 53 62 13 bd 90 f5 91 bc
       0.06117165 0.029315408 -0.03598244 -0.017817289
0002d0 b8 6d cf bd e2 aa ee bc a3 67 bc 3b 8a fc 02 3d
       -0.10128349 -0.029134218 0.005749659 0.03197912
0002e0 f3 8c 5f 3d 40 d4 a2 3c ce 5a 16 3d 8e be 9b 3d
       0.05457778 0.0198766 0.03670769 0.07604705
0002f0 81 5d 6c 3b 89 97 b4 3d ab 23 42 3d b3 b6 b5 bb
       0.0036066475 0.088179655 0.047397297 -0.005545461
000300 5e 55 67 3d f5 5f 57 3d 99 46 27 3d 91 f9 97 3b
       0.056477897 0.052581746 0.04083881 0.004637905
000310 cd 7b 13 bd 64 13 a6 3c f1 ce 09 bc 58 ad c4 bb
       -0.036006738 0.020272918 -0.008411155 -0.0060021095
000320 c7 45 c1 ba ed 17 97 3c de 0f a5 bd 1d e5 80 bd
       -0.0014745527 0.018444026 -0.08059667 -0.062937
000330 8c 6e 22 3d 7f 32 a6 3c 5b 47 68 3d 39 08 90 bd
       0.039656207 0.02028775 0.056708675 -0.07032818
000340 c8 63 4b 3d 10 09 c0 bb 1a 68 94 bc 31 20 0a bd
       0.049655706 -0.0058604553 -0.018116046 -0.033722106
000350 3a d7 d7 bc 30 04 c4 3c 4a f8 60 3c 93 51 ea bc
       -0.026347745 0.023927778 0.013731072 -0.02860335
000360 92 bd e3 bc d8 53 dc bc 43 6e 99 bd a4 5f 07 bd
       -0.027800355 -0.026895449 -0.07491734 -0.033050194
000370 fc e2 25 bd bc 75 6b bc 76 23 65 bd 6e a7 6d bc
       -0.040499672 -0.014371332 -0.05594202 -0.01450525
000380 f6 6e 83 bc fd ab 35 bd 47 07 6d bd 19 19 ba 3c
       -0.016044121 -0.044353474 -0.05786827 0.022717046
000390 6b ec 01 bd 55 36 08 bc 08 fd fe 3c 35 42 ba 3d
       -0.031719606 -0.008313735 0.031126514 0.09094659
0003a0 cd 46 61 bc ca 79 a8 bc a7 96 85 bc 15 e8 79 bd
       -0.01374979 -0.020565886 -0.016307188 -0.061012346
0003b0 d9 7c 44 bd 81 27 06 3d 9b 7a ba bd ff 09 b2 bc
       -0.047970627 0.032752518 -0.091054164 -0.021733282
0003c0 d6 51 bb 3d 22 14 18 b9 2a a9 a8 bc 2b 33 b5 bd
       0.09146468 -0.0001450335 -0.020588476 -0.0884765
0003d0 b7 02 e8 3c 87 65 2f 3b 63 23 ea 3d 8c 92 4b 3c
       0.028321607 0.0026763396 0.11432531 0.012425076
0003e0 a6 f6 ca bc 21 ff 9f 3c 4d b3 2f bd fd dd 6d 3d
       -0.024775814 0.019530835 -0.042895604 0.058073033
0003f0 b0 39 3a 3d c2 e0 f1 3d 18 fe 5c bd 30 93 ae 3d
       0.04546517 0.11810447 -0.05395326 0.085241675

_orig_mod.shared_mlp.0.bias f4 [128]
000000 3c 64 23 be fb 44 81 bd cf b2 a3 ba 99 e2 53 be
       -0.15956205 -0.06311985 -0.0012489202 -0.20691909
000010 9b 11 92 3d 6e 0b 89 3c b9 d3 01 bd 69 81 81 3d
       0.07132264 0.016729083 -0.031696055 0.06323511
000020 14 d5 5f 3d d8 96 80 3d 5b eb d3 bd f9 e4 21 be
       0.054646567 0.06278771 -0.10347625 -0.15810002
000030 0d 2b 79 3d 93 7c a0 bd 28 c7 68 3c 5f fc 27 bd
       0.060832072 -0.07836261 0.014207639 -0.041012164
000040 bd 00 12 be d8 be cc bd a2 10 51 3d ff 2b 1d 3e
       -0.14258094 -0.09997338 0.051041253 0.15348814
000050 41 a0 39 3c ed f4 02 be 21 a2 0e 3d d0 45 90 3d
       0.011329711 -0.12788744 0.034822587 0.07044566
000060 b9 28 96 3d 12 70 4a bc 6a 03 07 3e e9 a0 2d bd
       0.07331986 -0.012355821 0.13184896 -0.042389784
000070 15 d2 98 3d 8e 1a d7 3d ae a4 14 bc 58 f3 1a be
       0.07461945 0.10503112 -0.009072466 -0.15131891
000080 a7 ca e8 3d 2e e7 63 bd 5a 2e cc bd f4 0b f5 3d
       0.11366778 -0.055640392 -0.09969778 0.119651705
000090 60 6b 4b 3d 3a ad 19 3e c4 46 19 bd cf a1 a0 3d
       0.049662948 0.15007487 -0.037421003 0.078433625
0000a0 86 91 b7 3d f4 4e c7 3d df 46 2b bc bc eb cb bd
       0.08963303 0.09731856 -0.010453909 -0.09957072
0000b0 24 5e 1f be 19 5d 5f bd ce f7 12 be 27 16 c7 bd
       -0.15563256 -0.054532144 -0.14352342 -0.09721022
0000c0 7c a1 fe bb 5c b6 e1 3c 5e b8 71 3d cc 20 59 bd
       -0.0077707153 0.027552776 0.059013717 -0.053009793
0000d0 2d 37 6b bd f0 2e 57 3d 9e 81 a3 bc 59 0a 67 bc
       -0.057425667 0.052534997 -0.019959267 -0.014101588
0000e0 1a c8 b3 bd 25 86 05 3d 41 09 c9 3c 19 6b 52 3d
       -0.08778401 0.032598633 0.024540545 0.051371668
0000f0 f7 50 0f 3c dc 21 1b be 0e 45 52 3d d9 97 86 bc
       0.008747331 -0.15149635 0.051335387 -0.016429828
000100 3f 00 6e bd 8f 5a 16 3e c7 91 06 3d 29 e2 c2 bd
       -0.058105703 0.14682983 0.032853868 -0.09515793
000110 e8 06 f2 bd 64 a3 8a bc 50 8d 1b bc 89 df 6d 3d
       -0.118177235 -0.016923614 -0.009494141 0.058074508
000120 09 8b 3a 3d 07 1c f7 bd f8 99 08 3e ff 84 d1 bc
       0.04554275 -0.12065893 0.13339984 -0.025576113
000130 42 b6 eb 3d 1a 62 f9 3c 46 87 03 be bf f3 4b bb
       0.11509372 0.030442286 -0.12844571 -0.0031120626
000140 cd 4c ff bb 43 cc ea bd 6d 68 1c be 2b 48 9d 3d
       -0.007791138 -0.11464741 -0.1527421 0.076797806
000150 ad 54 86 3d 85 07 df bd 39 68 10 3d 00 05 4e 3d
       0.065591194 -0.10890106 0.035255644 0.050297737
000160 c9 d3 b1 3c 88 82 c7 3d 23 9d b3 3c 5f 3b 6c be
       0.021707432 0.09741694 0.021925515 -0.23069523
000170 fd 4e 89 3d 51 bd 10 3d f3 30 05 be 85 67 21 bd
       0.06704519 0.035336796 -0.13006954 -0.039405365
000180 f6 af 24 3d d2 bf 24 be 58 aa ee bc 6d 05 0f 3e
       0.040206872 -0.16088799 -0.02913396 0.13966914
000190 6b eb 7a bd 3b 57 94 bd 27 a1 66 3d 40 2e af 3d
       -0.06125967 -0.072432004 0.05630603 0.08553743
0001a0 07 64 aa 3d 8b cf 43 bd 1a cd 08 be 54 51 d5 3d
       0.0831986 -0.04780535 -0.1335949 0.10415903
0001b0 b4 46 6e bd 22 38 8a 3d c4 b1 73 bd f9 82 d4 3d
       -0.058172897 0.06748988 -0.059495702 0.103765436
0001c0 2d 43 8f 3d c7 80 33 3d b9 96 fd bb 28 21 d1 bd
       0.06995235 0.043823984 -0.007738915 -0.10211402
0001d0 e7 80 30 3b 18 93 19 be 93 aa 1a 3c 6f 2d 1a 3c
       0.00269323 -0.14997518 0.009440082 0.009410246
0001e0 66 24 b1 3d 17 44 ca 3d ae 98 39 bd 11 2f 96 3d
       0.086495206 0.09876268 -0.045311622 0.07333196
0001f0 96 20 0c 3e 9f 07 b3 3d 82 f8 12 3e 1d 41 01 3d
       0.13684306 0.08741688 0.1435261 0.031556237

_orig_mod.shared_mlp.3.weight f4 [64, 128]
000000 d1 27 76 3d 0b 18 08 bd 5d 32 cb bd 05 df d4 3c
       0.060096566 -0.033226054 -0.099217154 0.02598525
000010 97 ac 4d bd c3 66 24 3d 10 f1 b3 3b 17 90 d7 bc
       -0.050213423 0.040137064 0.0054913834 -0.026313825
000020 a4 40 a5 bd ee 0e 6f bc d8 a8 de 3b f2 c1 f1 bd
       -0.0806897 -0.014590962 0.00679503 -0.1180457
000030 d2 4a 8b 3d a7 de 8c 3d e4 c1 48 3d 55 6b 26 3d
       0.0680138 0.06878405 0.049013034 0.040629704
000040 5c 2e 83 bb 4c ff c6 bc ab a6 e1 3b de 89 8a bd
       -0.004003329 -0.024291657 0.0068863234 -0.06764577
000050 75 00 83 3c e3 fb 0f 3d 20 a9 a8 3b 92 d2 24 3d
       0.015991429 0.035152327 0.0051471144 0.040239878
000060 e5 cd 11 bd b7 91 f0 bc e6 d9 db bd be 88 e7 3c
       -0.035596747 -0.029366357 -0.1073492 0.028263446
000070 44 a9 01 bd 2e fb ba 3b 7c e7 99 bd 9f 0e 43 bd
       -0.031655565 0.0057062125 -0.07514855 -0.047621366
000080 f1 2b 0b be 5a 6b d1 3b 07 4c 2a 3d 5e 29 9c bd
       -0.13590981 0.006390971 0.04157641 -0.07625078
000090 ee 1a 82 bd a7 6a 31 bd 2d ee 48 3d 62 0e fb bd
       -0.06352793 -0.043314602 0.049055267 -0.12258603
0000a0 f7 d7 cc bd 59 73 9c 3a 44 93 40 bc 78 ae a3 39
       -0.100021295 0.0011936232 -0.011753861 0.00031219772
0000b0 9d e1 77 bd ef 74 a7 bd e1 23 f2 3c 3b 0b 7f 3d
       -0.060517896 -0.081766 0.029558124 0.06226657
0000c0 69 e8 bf 3d 68 fb aa bc 9f aa 8c bc aa 41 59 3c
       0.093705006 -0.020871833 -0.017171202 0.013260284
0000d0 62 ca 9a bc 7e c9 a7 bd cd e8 1b bd 8f 56 97 bd
       -0.018895332 -0.081927285 -0.038063813 -0.073895566
0000e0 a0 ab ac 3d f0 a8 d3 bb 59 00 9d 3d 0a 4b 20 3d
       0.08431172 -0.006459348 0.07666082 0.039134063
0000f0 f9 43 84 bd 10 80 fa 3b e6 85 bb ba be 36 cf 3c
       -0.06458277 0.007644661 -0.0014306873 0.025294658
000100 fb 91 1b bb 26 bd b5 bd 9b 25 24 3c d7 90 2a 3c
       -0.0023738134 -0.08873968 0.0100187315 0.010410509
000110 0e ce 18 bd af 52 d1 3a 0a 51 c2 bb 0c 55 26 bc
       -0.037305884 0.0015970076 -0.0059300708 -0.010152113
000120 2a 02 cf 3c 11 20 9c bc 69 88 be 3d 51 cb 5d 3d
       0.025269587 -0.01905826 0.09303362 0.054148976
000130 02 c9 1e be 53 9d 94 3b d4 26 be bb 98 ce da bc
       -0.15506366 0.004535356 -0.0058029685 -0.02670984
000140 e0 d2 87 bc 6d a0 f5 bd c0 5f 81 3c 7a 0f b8 bc
       -0.016580045 -0.119934894 0.015792727 -0.022468317
000150 a5 aa 65 bd 19 b0 41 3d f5 60 04 3c dc 6f 8e bd
       -0.056070942 0.04728708 0.008079757 -0.06954929
000160 89 52 8d 3b ba c9 83 bd aa 1b b9 3d af 0e 00 bd
       0.0043128175 -0.06434961 0.090384796 -0.031264003
000170 fe bf df bd f0 19 19 be bc c0 76 3d 6d 1e bd 3c
       -0.109252915 -0.149513 0.0602424 0.023085797
000180 9a cf a7 bc c5 ed 5d 3d e1 31 eb 3c 98 d7 8c bc
       -0.020484734 0.054181833 0.028710308 -0.017192647
000190 4e 0b 71 3d 70 f6 6a bc 4f 85 07 bc f7 7f 41 bd
       0.05884867 -0.014340982 -0.008271529 -0.047241177
0001a0 f5 68 23 bd fe ba 09 3d c1 a6 fb ba 37 f4 89 bd
       -0.039895017 0.033625595 -0.0019199477 -0.067360334
0001b0 54 eb a1 3b aa ba c5 bc bc 87 c6 bc 25 80 67 bd
       0.0049413834 -0.02413686 -0.024234645 -0.056518693
0001c0 d9 c2 36 bd ae 17 ab bd a1 ad 76 3d f3 a5 c9 3b
       -0.044619415 -0.08354126 0.06022418 0.006153816
0001d0 08 19 af 3c 36 be af bc de f5 cc bd e2 01 c2 bb
       0.02137424 -0.021453004 -0.10007833 -0.0059206346
0001e0 92 cd 0b bd 3d 12 b9 bd 4d 73 b6 3d 24 d8 1d 3d
       -0.034131594 -0.09036682 0.08908711 0.038536206
0001f0 61 f1 40 bd 58 a5 03 3c 35 6c 0b bd 16 b9 00 3c
       -0.047105197 0.0080350265 -0.03403874 0.007856628
000200 ec 7f 88 3d 12 2b 2b 3c f3 c7 3b bd 5f 6e c6 bd
       0.06665024 0.0104472805 -0.045844983 -0.0968902
000210 1a 5f 87 bd 07 14 02 3d 57 cc 44 bd c2 05 9a 3c
       -0.06609936 0.03175738 -0.048046436 0.018801574
000220 17 bc c2 bd 8d a9 2a bd 4d 1a 4a bb 3e 16 a9 bd
       -0.095085315 -0.041665602 -0.003083843 -0.082561955
000230 12 c4 f2 bd 9a 11 37 3d 3b d8 ee 3b 72 6d 7f bd
       -0.11853804 0.04469452 0.0072889603 -0.062360235
000240 94 5b 9a 3c 9d d7 31 3d 93 49 df bc 7c b8 de bd
       0.018842496 0.043418515 -0.027256763 -0.10875031
000250 51 4a 05 3d 34 44 05 3b e1 d8 64 bd fd 37 44 bd
       0.032541577 0.0020334842 -0.055870894 -0.047904957
000260 51 55 32 3d 8f a3 7f 3c a2 e4 ab bd 56 38 0f 3d
       0.043538395 0.01560296 -0.083932176 0.034965836
000270 bb 7a e1 bb e1 95 ed bd ed 1f 65 bc a1 bb 54 3d
       -0.0068810857 -0.11600853 -0.0139846625 0.05193675
000280 85 4b 1d 3c 48 91 62 bc 5d 61 0b 3d 98 54 7b 3c
       0.009600525 -0.013828583 0.0340284 0.015339993
000290 54 39 22 3c 3a ab 5e 3c 5c 3e a3 bb b2 61 e9 bd
       0.009901363 0.013590628 -0.004981799 -0.11395587
0002a0 a2 b5 d6 3c fa 45 fb ba d8 2c 93 3d db c7 9a 3c
       0.026209656 -0.0019170635 0.07186288 0.018894127
0002b0 3f e3 8b bd 77 2e 65 3d 35 3b 8e bc 2f 62 6e 3d
       -0.06830453 0.055952515 -0.017362216 0.058199104
0002c0 e1 94 aa 3d 46 e0 82 3c 67 22 95 bc 67 26 42 3c
       0.08329178 0.015976083 -0.01820488 0.011849976
0002d0 b4 2f 6e bc 30 6b bb bc 98 6c 39 bd ad 0d c3 bb
       -0.0145377405 -0.02287826 -0.04526958 -0.005952558
0002e0 54 e3 07 3d 12 d3 35 bc 78 9a 1a be 3b 6c 96 3b
       0.03317578 -0.011097686 -0.15097988 0.004590539
0002f0 ef 9a 1e bd cf 39 ae bd c5 6f 89 bd 46 dc 2c 3d
       -0.038721975 -0.0850712 -0.067107715 0.042202257
000300 a8 1a 0c bb 8e 4f 34 bc 61 9c b5 3c b1 a4 65 bd
       -0.0021378193 -0.011005295 0.022169294 -0.056065265
000310 68 78 10 bd 68 9b 31 3d 23 a4 65 3c 33 e8 2a 3c
       -0.03527108 0.043361098 0.014016184 0.010431337
000320 04 bb 38 bc c4 e4 05 3d bf bb 57 be 79 9d 32 3d
       -0.011275057 0.03268887 -0.21067713 0.04360721
000330 3f 5f 81 bd a1 a9 92 3b 80 4c a7 bd 71 d8 bf bc
       -0.06316995 0.0044757877 -0.08168888 -0.023418637
000340 bc 0e 33 3c 8e 6e 12 bd 28 5d 34 ba ee 0c 35 bd
       0.010928806 -0.035749964 -0.00068803364 -0.044201784
000350 cc ca 10 bd ee a2 e0 3c 81 5e 0f 3d 7f 30 6e bd
       -0.035349652 0.02742144 0.035002235 -0.05815172
000360 da eb 9c 3a 6c 74 2b 3b 74 e4 2d bd 1d 10 02 bd
       0.0011972145 0.0026161922 -0.042454198 -0.031753648
000370 7b 61 8e 39 8f cf 46 bd 9b 31 02 3d 78 8e 09 bd
       0.0002715698 -0.048537787 0.03178559 -0.033583134
000380 d1 b0 ee ba 37 9a 58 3d ec c8 a6 bd 0b 9b d1 bc
       -0.0018210654 0.052881446 -0.081437916 -0.025586626
000390 06 a1 d7 3c a0 48 89 3d a2 02 13 3c 3b 58 04 3d
       0.0263219 0.06703305 0.008972796 0.032310706
0003a0 e2 ce b9 bd 8a ab 17 3d a6 34 9a bd ae f6 a1 bd
       -0.09072663 0.037028827 -0.07529573 -0.079083785
0003b0 1c 5d 4e 3d 20 69 10 3c b3 5d 58 3d 96 ca d9 bd
       0.050381765 0.008814126 0.052823734 -0.10634343
0003c0 72 4f 16 3c 5b b7 59 3a ac 87 a3 3b 95 8e 62 bd
       0.009174215 0.0008305215 0.0049905386 -0.055311758
0003d0 04 3f 54 3d c4 76 64 bd db 54 88 bc 86 ee 8f 3c
       0.05181791 -0.055777326 -0.016642025 0.017569792
0003e0 b6 82 f3 3c 6f 08 25 bc 23 b1 35 3c 98 7d 02 be
       0.029725414 -0.0100728115 0.011089596 -0.12743223
0003f0 b3 d7 d7 bc f0 51 8b bd 66 81 bb bd 67 ab 79 bc
       -0.02634797 -0.06802738 -0.0915554 -0.015238619

_orig_mod.shared_mlp.3.bias f4 [64]
000000 2a 5f 8a bd dc a9 8b bd bf 1e b1 bd a4 5f 23 3e
       -0.06756432 -0.068195075 -0.086484425 0.15954453
000010 5f fa e9 bb 38 34 de bd 58 9a 53 bd 70 a9 ea bd
       -0.0071404423 -0.10849804 -0.051660866 -0.11458099
000020 39 30 0f be 41 34 d6 bd eb 6a a5 3e ed 70 88 3d
       -0.13983239 -0.104591854 0.32308134 0.06662164
000030 40 54 ee 3d 24 ae 31 3e 74 09 0b 3d 12 27 f7 bd
       0.11637163 0.17351586 0.033944562 -0.12067999
000040 74 65 c0 3d aa 06 55 3d a6 b6 f3 3d 19 dc a4 bd
       0.09394351 0.05200831 0.11900072 -0.08049793
000050 91 dc 35 3e 0e 73 45 bd c0 10 3a bd b6 09 dc bd
       0.1775992 -0.048205428 -0.04542613 -0.1074404
000060 b7 3d 7b bd d6 52 d7 bd 24 3e 3b 3e 4e 8a 02 3e
       -0.061338153 -0.105138466 0.18285424 0.12748072
000070 69 4c 74 3e 9b 95 2a 3e aa fe 86 3d 7e 0f 42 3e
       0.23857273 0.16658632 0.06591542 0.18951222
000080 a3 af 39 bd a6 97 fd bc c4 ef bf bd 22 a8 41 3e
       -0.045333516 -0.0309561 -0.093719035 0.18911794
000090 0c 96 9d 3e dd e1 c6 3b 06 ef 3c bd 4e bb 27 be
       0.3077854 0.0060694055 -0.046126388 -0.16380045
0000a0 03 91 b5 bd df d7 a9 bd d7 72 b3 bc 63 0d 79 3e
       -0.088655494 -0.08293127 -0.021905346 0.24321513
0000b0 50 33 2d 3e c0 76 cd bd d2 ec b4 bd 3b 37 39 3e
       0.16914105 -0.100324154 -0.088342324 0.18087475
0000c0 44 b8 7b 3e 24 43 38 3e 78 7c ef bd 33 15 d5 bd
       0.2458201 0.17994362 -0.116936624 -0.10404434
0000d0 b3 3e fd bd 63 7a 1e 3d 92 bb ce bd dc 43 42 3b
       -0.123654746 0.038690936 -0.1009437 0.0029642498
0000e0 08 ae 9a bd c1 99 22 3e 23 83 19 3e b9 6a 6c 3e
       -0.07552725 0.15878965 0.14991431 0.23087586
0000f0 a3 cf 9f bd ab 25 28 bd c1 c9 55 3e e0 26 f3 3b
       -0.078032754 -0.041051548 0.20877744 0.0074204057
