experiments/exp_20251005_030455/models/checkpoint_epoch3_auc0.7299_logloss0.0877.pth (torch, 137410 bytes, 12 tensors)

_orig_mod.embeddings.gender.embedding.weight f4 [5, 8]
000000 89 66 f0 3c 22 c0 d0 b8 bb 4f 89 bc 03 24 ed ba
       0.029345768 -9.9540004e-05 -0.016761651 -0.0018092397
000010 dd dd 92 3c 5f 4f 6c 3c 37 e8 24 3d 0e a0 e2 3c
       0.017928058 0.01442322 0.04026052 0.02766421
000020 a5 df 89 3f 0c 0f bb 38 03 a4 b1 be 13 0c 25 be
       1.0771376 8.9196576e-05 -0.34695444 -0.16117887
000030 a7 00 a4 3e 59 e5 6b 3c a3 fa fc 3e c3 b0 1c 3f
       0.32031748 0.014397942 0.4940997 0.61207217
000040 21 7b 4d 3d f9 d8 f8 b8 c3 c7 67 be a2 91 57 3b
       0.050166253 -0.00011865976 -0.22634797 0.00328932
000050 12 29 8f 3e cf 05 24 3f 6b 75 c2 3f 30 d5 c4 3e
       0.27961022 0.64071363 1.5192083 0.384439
000060 c6 59 05 80 bb 5b 05 80 4e 64 05 00 cd 60 05 80
       -4.91382e-40 -4.92084e-40 4.9516e-40 -4.93903e-40
000070 02 c1 05 80 57 67 05 80 bd 64 05 80 97 5e 05 00
       -5.28416e-40 -4.96249e-40 -4.95316e-40 4.9311e-40
000080 12 df 05 80 1a 5c 05 00 76 98 05 80 5e 62 05 80
       -5.392e-40 4.92217e-40 -5.1387e-40 -4.94465e-40
000090 20 75 05 00 e6 b9 05 80 aa 99 05 00 5c 6a 05 80
       5.01194e-40 -5.25865e-40 5.14302e-40 -4.97332e-40

_orig_mod.embeddings.age_group.embedding.weight f4 [15, 8]
000000 fb 3f 8c 3c cc 17 43 3c de b7 58 bc 98 94 a1 3c
       0.017120352 0.011907529 -0.013227431 0.019724175
000010 d7 c4 73 bc 4e 8f 57 3b 98 e6 a1 bb c3 5e c3 3c
       -0.014878473 0.0032891813 -0.004940819 0.023848897
000020 61 4e f3 bd 13 43 6d bd b2 7e 7c 3e be 13 82 3c
       -0.11880184 -0.057925295 0.24657705 0.015878554
000030 8c 02 8d 3e ec 3c c6 3d 86 5f 3d 3e 95 a9 70 bd
       0.27541006 0.09679589 0.1849347 -0.058755476
000040 a2 f6 a6 3a 10 09 68 be 1f 6a 00 be 61 2c 40 be
       0.0012738297 -0.22659707 -0.12540482 -0.18766929
000050 36 9a 84 be 16 09 99 be f0 73 bc be 90 ba d3 bd
       -0.25898904 -0.29889745 -0.36807203 -0.10338318
000060 33 b6 d9 bb 53 07 aa bd f2 30 8e be 16 53 6f be
       -0.0066440343 -0.08302178 -0.27771717 -0.23371539
000070 b6 bb be be a4 23 59 be 8c 51 7a be 3e 22 28 be
       -0.37252587 -0.21205002 -0.2444517 -0.16419312
000080 8f 22 29 3d 03 82 07 bd 4d 2b 0f be 59 49 49 be
       0.041292723 -0.033082973 -0.13981362 -0.19656886
000090 75 b4 ba be 0f d6 5a be a1 f4 8f be ae 49 fb bd
       -0.36465803 -0.2137072 -0.28116325 -0.12269913
0000a0 ab bd 65 3d cd 99 e0 3c 6c 93 49 be c8 0e 40 be
       0.056089085 0.027417088 -0.19685143 -0.18755639
0000b0 d8 cf 87 be df 99 1f be d8 3e 72 be 4f 55 f2 bd
       -0.2652576 -0.15586041 -0.23656785 -0.118326776
0000c0 8b 36 02 bd 15 ee a7 3e a2 6a 80 be 67 30 33 be
       -0.031790297 0.3279883 -0.25081354 -0.17498933
0000d0 8a cf 40 bd 1d 92 71 bb ef 86 4f be 20 dd 3c 3e
       -0.047072925 -0.0036860772 -0.20266317 0.18443727
0000e0 ca e0 9c 3e b8 5e da 3d ee 45 bd be 32 1d 1d 3f
       0.3064025 0.106625974 -0.36967415 0.61372674
0000f0 86 75 81 bd b4 25 1e 3e 36 94 c2 3e e8 e7 18 3f
       -0.06321244 0.1544407 0.380037 0.5972886
000100 0c 77 85 3e 08 85 c0 3d c9 a9 d4 3e 76 1c 55 3f
       0.26067388 0.09400374 0.41535786 0.8324655
000110 08 2d 38 3e fd ba c4 3e 0a 95 c5 bd 47 9c eb 3e
       0.17985928 0.3842391 -0.096475676 0.46017668
000120 d1 ae 05 80 5e 57 05 80 97 82 05 00 1a 60 05 80
       -5.2189e-40 -4.90519e-40 5.06024e-40 -4.93652e-40
000130 91 59 05 00 c9 75 05 00 23 62 06 80 bc 61 05 00
       4.91308e-40 5.01431e-40 -5.86218e-40 4.94238e-40
000140 91 72 05 80 68 5f 05 80 bf 99 05 80 d7 59 05 80
       -5.00276e-40 -4.93403e-40 -5.14331e-40 -4.91406e-40
000150 5f 8c 05 80 0c 8b 05 80 22 5f 05 80 93 63 05 00
       -5.09533e-40 -5.09058e-40 -4.93305e-40 4.94898e-40
000160 eb 5c 05 00 9f 96 05 00 92 5a 05 00 f6 60 05 80
       4.9251e-40 5.1321e-40 4.91668e-40 -4.9396e-40
000170 40 d9 06 80 96 21 06 80 34 5e 05 00 04 62 05 00
       -6.28948e-40 -5.63061e-40 4.92971e-40 4.94339e-40
000180 38 59 05 00 8a 5b 05 00 3a 65 05 80 5d a1 05 80
       4.91183e-40 4.92016e-40 -4.95491e-40 -5.17064e-40
000190 6e 79 05 80 30 6d 05 80 ff 60 05 80 f7 5a 05 80
       -5.02738e-40 -4.98347e-40 -4.93973e-40 -4.9181e-40
0001a0 34 5b 05 80 07 85 05 80 b1 59 05 00 9b 82 05 00
       -4.91895e-40 -5.06899e-40 4.91353e-40 5.0603e-40
0001b0 9e 57 05 80 c5 5f 05 00 c0 7e 05 80 d9 59 05 80
       -4.90609e-40 4.93533e-40 -5.04647e-40 -4.91409e-40
0001c0 37 5c 05 00 74 5c 05 00 95 a3 05 80 2f 65 05 00
       4.92258e-40 4.92343e-40 -5.1786e-40 4.95475e-40
0001d0 d6 57 05 80 1a 5b 05 00 fc 74 05 80 be 97 05 00
       -4.90687e-40 4.91859e-40 -5.01144e-40 5.13612e-40

_orig_mod.embeddings.inventory_id.embedding.weight f4 [50, 16]
000000 23 a9 9c 3d a0 56 f7 be 77 47 48 bd 53 82 b0 3e
       0.07649448 -0.48308277 -0.04889628 0.3447443
000010 dc 26 99 3d 68 e6 83 be 0e f8 69 3e 7f 19 47 bd
       0.07478115 -0.25761724 0.22848532 -0.0486083
000020 0e f7 2f be 3d fe 7f be 7e 41 c0 3d 59 81 8f bc
       -0.17184088 -0.24999328 0.09387492 -0.017517732
000030 16 82 b4 be cc 5a 9f 3d 0d 78 9f be 17 2e 02 3e
       -0.35255498 0.0778099 -0.3114628 0.12712894
000040 43 93 2a 3d 54 b3 00 be e5 aa 3b 3d 78 59 64 3e
       0.041644346 -0.12568408 0.045817275 0.22299755
000050 ca 0e 28 bd 9a de b1 bd 7c 11 23 3e c7 92 42 3c
       -0.04102973 -0.08685036 0.15924639 0.011875815
000060 47 c6 b5 3d 96 73 52 3c b2 8b 2a 3e 4e e6 b9 bd
       0.08875709 0.012844941 0.16654852 -0.0907713
000070 80 5a 81 bd ec dc 0c bd 7f b2 08 be 9e b7 b9 bc
       -0.0631609 -0.034390375 -0.13349341 -0.022670563
000080 53 e8 7d 3d 8a 63 a9 3a d4 6d 7f 3b c4 0c ff 3e
       0.06198914 0.0012923342 0.0038975375 0.49814427
000090 ed c8 15 3d 93 3e eb bd dd 21 3c 3f df 67 c2 bd
       0.03656857 -0.114865445 0.7348917 -0.09492468
0000a0 f4 bc 8f be b1 99 97 bd d1 b0 5f 3e 6c 86 c0 3d
       -0.28073847 -0.07402361 0.21844794 0.09400639
0000b0 04 18 05 bf a1 c6 f9 3d 71 85 3a bf 47 c6 8a 3e
       -0.5198977 0.121960886 -0.72859865 0.271044
0000c0 e2 9e 69 bc b6 41 25 3d 64 42 82 bc 31 88 8d bd
       -0.014259072 0.04034587 -0.015900798 -0.06910742
0000d0 36 59 e2 3a 92 4c d9 3c 0f 75 7b bd a4 91 00 3d
       0.0017269019 0.02652577 -0.061390933 0.031388894
0000e0 08 12 51 bc b9 b5 86 bc a8 6d 55 bd ee 45 a8 3c
       -0.012760647 -0.016444074 -0.05210653 0.020541158
0000f0 c3 1a d9 bb 9d d7 37 3c 46 1d f6 3c cb a6 43 3d
       -0.0066255047 0.01122084 0.030043256 0.047766488
000100 67 42 7f bc 82 6a b5 be d5 f6 06 3e e3 7d 93 be
       -0.015579796 -0.35432822 0.13180096 -0.2880698
000110 b1 ca 05 3e 2e 80 93 be 32 ec c8 be b0 93 a0 3e
       0.13065602 -0.2880873 -0.39242703 0.31362677
000120 8b 26 47 3e 3a 84 f6 be 3f bb 99 be 79 74 40 be
       0.19448297 -0.48147756 -0.3002567 -0.18794431
000130 00 1a c3 bd 95 a6 20 be 75 59 05 bf 0f e3 c6 be
       -0.095264435 -0.15688546 -0.52089626 -0.38845107
000140 8b e7 90 3d d0 4f aa bd 47 eb d7 3d 37 7e b3 3d
       0.07075413 -0.08316004 0.105429225 0.08764308
000150 45 d2 21 bd 56 bc 40 3d 13 77 48 3e d8 99 98 be
       -0.03950717 0.04705461 0.19576673 -0.29804873
000160 ff 93 97 3e c3 1f fb 3e f5 50 9c 3e 01 eb 0e be
       0.296051 0.4904767 0.30530515 -0.13956834
000170 17 5d 1b 3f f2 54 06 be 31 2a b1 3e f1 a5 34 bf
       0.6068892 -0.13118342 0.34602502 -0.70565706
000180 c2 9b ff bb ea 12 88 38 93 00 25 3e 05 76 e9 be
       -0.00780055 6.4885084e-05 0.161135 -0.45597854
000190 5d 20 f6 3c ec 32 1f 3f 66 b2 54 3e 96 7b ac 3d
       0.030044729 0.62187076 0.20771179 0.0842201
0001a0 90 4d 41 be 28 eb 90 3d 5e 9f d7 3e 05 74 88 bd
       -0.18877244 0.070761025 0.42113775 -0.06662754
0001b0 01 da bc be 7d e2 4b be 57 2c 6c 3e 18 2d 07 3f
       -0.36885074 -0.19910617 0.2306379 0.5280318
0001c0 4f 8a 72 be 83 87 32 be cc 55 13 3f 1d 56 b0 bd
       -0.23685573 -0.17434506 0.5755279 -0.08610175
0001d0 40 95 8b be 4a c5 ea 3e ae 3b 33 be b8 ea 70 3f
       -0.27262306 0.45853645 -0.17503235 0.9410815
0001e0 33 1e 82 3f a9 26 60 3e 7b 19 96 3d 32 1d 64 be
       1.0165466 0.21889748 0.07329079 -0.22276762
0001f0 dd ab 85 3e b5 77 0b bf 8a 19 72 be 37 a0 8d be
       0.26107684 -0.54479533 -0.23642555 -0.27661297
000200 3f a6 ab 3b d2 19 97 bd ce b0 5f 3d ca a5 69 3e
       0.005238324 -0.07377972 0.054611973 0.2281715
000210 f2 af db 3c d5 d5 03 bd 6a 5e 63 3e b1 8e 32 bd
       0.026817296 -0.032186348 0.22203985 -0.043593112
000220 49 9b 45 3c 64 c9 ed bc b2 2b 3b 3e 98 0c 99 bd
       0.012060949 -0.029026695 0.18278387 -0.07473105
000230 e5 95 8b bd 9c 6f 37 bd 3e 2a d2 bd e2 e7 a2 bb
       -0.068156995 -0.044784173 -0.10261963 -0.0049714902
000240 f9 2c 34 3e 77 31 01 be b7 e9 68 be 03 d7 d0 be
       0.1759528 -0.12616526 -0.22745405 -0.4078904
000250 bd 54 aa bd 1b bb 46 be c6 58 aa be 8f fb 07 bf
       -0.08316944 -0.19407313 -0.33270854 -0.5311822
000260 6a 2e 49 3a bf 24 0b 3f cf 4d 5a be af 82 17 3e
       0.0007674458 0.54352945 -0.21318744 0.14795946
000270 58 cb bf 3e ce 17 41 3e 82 a7 dc 3d 21 64 93 be
       0.37459826 0.18856737 0.10774137 -0.2878733
000280 2b c2 0b 3e 19 93 4f be 14 6c 46 bd 32 07 99 be
       0.13648288 -0.20270957 -0.048442915 -0.29888302
000290 c2 a9 68 be 99 ad 43 bd ff a9 b7 be 16 09 82 3e
       -0.22721007 -0.047772978 -0.35871884 0.25397557
0002a0 1f 76 4a 3d 57 92 c6 3e f6 fc 3b be 38 ee 9f 3e
       0.049429055 0.38783523 -0.18358216 0.31236434
0002b0 1b 5b df ba 9e cd f7 3d 56 10 a3 3e 53 1e 41 be
       -0.0017040701 0.12099765 0.318484 -0.18859224
0002c0 ed a1 19 bd 5b d3 dd 3e bd c3 96 3d 08 4c fe bd
       -0.03750794 0.43325314 0.07361553 -0.124168456
0002d0 54 66 a1 3d ca c2 07 3f ca 2a 57 3e ee 4a 4a 3d
       0.07880846 0.530316 0.21012416 0.049387865
0002e0 58 6e aa be 38 33 f0 bd 78 53 bd 3e ef 5e b9 3c
       -0.3328731 -0.11728519 0.36977744 0.022628276
0002f0 82 db d0 be 1f 10 d8 bd b5 34 3d 3c 50 29 03 3f
       -0.4079247 -0.1054995 0.011548211 0.5123491
000300 9f 8d 10 be 59 44 6b 3e 2f 65 3c bc bb ba 55 bd
       -0.14116524 0.22975291 -0.011498733 -0.052180033
000310 ec 56 1f 3e 9e a3 e8 bd 9b 91 35 bd 4d b9 6d 3e
       0.15560502 -0.113593325 -0.044328313 0.23215218
000320 93 83 8b be 58 c1 1c bf 5e aa af be 34 0c 8b bc
       -0.2724882 -0.6123252 -0.34309667 -0.016973592
000330 84 f4 b7 3d d7 4a 19 3d 7b cb 4e be 19 a5 bc 3e
       0.089821845 0.03742489 -0.20194809 0.3684471
000340 aa 27 e2 3c e5 50 d2 bc 97 a3 ee bc db 2a 3a 3e
       0.027606804 -0.02567334 -0.02913074 0.1818041
000350 ef d6 4b 3d cf 12 02 bd 5a 1f 63 3e 42 3c 90 bd
       0.049765524 -0.03175622 0.22179928 -0.07042743
000360 74 ff 2e be 24 bf 20 be 24 92 0f 3e 70 93 03 bd
       -0.17089635 -0.15697914 0.14020592 -0.03212303
000370 e8 64 86 be 42 6f 12 3d 99 67 22 be 30 cb 61 3e
       -0.2624886 0.035750635 -0.15859832 0.22050166
000380 c1 a3 cb be e6 b6 04 3f 9b 7b 1c 3e 3f 58 8f be
       -0.39773372 0.5184158 0.15281527 -0.27997014
000390 2c 2d 8b 3e 80 41 23 3f 69 41 6f 3e 74 3d 06 be
       0.271829 0.6377182 0.23364796 -0.1310938
0003a0 a9 74 c7 be 14 cf ce 3c 6a 67 aa be 22 6a c0 3e
       -0.38956192 0.025245227 -0.33282024 0.37580973
0003b0 42 93 19 3f e0 7a c4 bd d4 92 1b 3f 89 05 fa be
       0.5999032 -0.09593749 0.60770917 -0.48832348
0003c0 4c d2 b3 3d 85 9b e1 bc 3f 8e 20 be ee 9f 66 3e
       0.08780345 -0.027539978 -0.15679263 0.22521946
0003d0 6f 57 96 bc 7b e9 b1 be d4 7d ac 3c 4d 34 b5 be
       -0.018352238 -0.34748444 0.021056093 -0.35391465
0003e0 8c 2a 26 3e 2f 6f 8e 3e f8 9e 44 bc 45 0d c4 bd
       0.16227168 0.278192 -0.012000792 -0.095728435
0003f0 db 24 06 3f 5b 33 03 3e 89 a7 47 3e 29 18 d4 be
       0.52399987 0.1281256 0.19497503 -0.41424683

_orig_mod.embeddings.day_of_week.embedding.weight f4 [10, 8]
000000 8f bf c0 bb cd 88 5b 3d 95 d6 4f 3b 2a a9 ae 3d
       -0.0058822106 0.05359726 0.0031713594 0.08528359
000010 c1 da 42 bb 29 9b 61 be 00 31 1c 3c ca 59 10 bf
       -0.0029732438 -0.22031845 0.009533167 -0.5638701
000020 e4 0d e9 3c 9e fb d7 3c 31 26 a0 bb a2 ce 2f bd
       0.028449006 0.026365098 -0.0048873653 -0.04292167
000030 17 f4 9e 3a 14 1d ee 3e fa 18 f1 bb fe 09 a0 3c
       0.0012127188 0.4650656 -0.0073577138 0.019536015
000040 d7 b7 02 bd bb 3a 1f 3d d3 c5 58 bc c6 b4 64 bd
       -0.031913605 0.03887437 -0.013230759 -0.05583646
000050 2c dd f8 bb 58 99 78 be 6c 80 bb 3b 9c 70 5c 3e
       -0.007594725 -0.24277246 0.005722096 0.21527332
000060 8e 1c dd bd 0f f0 14 bd af 26 4b bc 39 b6 17 be
       -0.10796462 -0.03636175 -0.01239936 -0.14815606
000070 d6 b3 13 bc b9 03 80 be 9e 14 4d 3c 13 28 de 3d
       -0.009015044 -0.2500284 0.012517123 0.10847487
000080 aa ea 62 bd 2e dc 95 bd f8 1e 93 3c 0f 4c 72 bd
       -0.055399574 -0.073173866 0.017959103 -0.059154566
000090 f0 50 e2 ba b7 48 33 be 4a 66 1d 3c 9c 2c 13 bd
       -0.0017266553 -0.17508207 0.009606907 -0.035931215
0000a0 8e 5c 1b 3c f5 f3 a1 bd e9 60 56 3c 29 4e 0c bc
       0.009482516 -0.07907859 0.013084629 -0.008563557
0000b0 10 c7 d3 3b e4 b4 89 be 89 22 91 bb fd 52 46 3d
       0.006462939 -0.2689582 -0.0044291657 0.048418988
0000c0 69 28 52 3d 18 a4 39 3d a9 6f 4e 39 79 01 ba 3d
       0.05130807 0.045322508 0.00019687288 0.09082312
0000d0 d5 61 1a 3c f7 af 35 be 5d 5d 80 bc 87 50 dd be
       0.009422739 -0.17742907 -0.01566952 -0.432255
0000e0 bc 95 05 80 c4 b7 06 80 30 67 05 80 20 67 05 00
       -5.12892e-40 -6.16936e-40 -4.96194e-40 4.96172e-40
0000f0 a6 6a 05 00 0b 5c 05 00 e8 12 06 00 de 71 05 00
       4.97436e-40 4.92196e-40 5.57795e-40 5.00025e-40
000100 03 eb 05 00 86 75 05 00 f9 63 05 80 7e 63 05 80
       5.43484e-40 5.01337e-40 -4.95041e-40 -4.94869e-40
000110 96 57 05 80 55 57 05 80 c8 5d 05 00 8a 5e 05 80
       -4.90597e-40 -4.90506e-40 4.9282e-40 -4.93092e-40
000120 1a 58 05 80 34 6f 05 80 99 73 05 80 44 61 05 80
       -4.90782e-40 -4.9907e-40 -5.00646e-40 -4.9407e-40
000130 c1 5d 05 00 9f 64 05 80 69 67 05 00 78 63 05 00
       4.9281e-40 -4.95274e-40 4.96274e-40 4.9486e-40

_orig_mod.embeddings.hour.embedding.weight f4 [30, 16]
000000 e7 e7 8b be 79 c1 66 3c f7 4b f7 ba 78 be 9d 3d
       -0.27325365 0.014084213 -0.0018867244 0.07702345
000010 82 b6 0f 3b 29 03 98 bd 4c 03 28 bb 59 bd 3f 3e
       0.0021928851 -0.07422478 -0.002563673 0.18724574
000020 51 00 e2 3c 98 29 21 3e 69 b7 06 be 0e 25 81 3e
       0.027588041 0.15738523 -0.13155903 0.25223583
000030 22 f9 4e 3c c9 46 01 bc 8d 4c 4e be 8e e3 0e 3e
       0.01263264 -0.007890412 -0.2014639 0.13953993
000040 6a 81 77 be 46 28 64 bd 14 c6 91 3c b0 65 0b bd
       -0.24170461 -0.05570247 0.017794646 -0.034032524
000050 d0 38 e1 bc fd 33 9f bd 6e da bc bc df 6d c7 3d
       -0.02749291 -0.07773588 -0.023053374 0.09737753
000060 98 41 ca bc d8 90 88 3d 85 a7 7d bd 6e 23 45 3d
       -0.02468948 0.06668252 -0.061927337 0.04812949
000070 c3 fc c3 3c 48 56 d6 3b 89 56 26 be d4 35 0b 3d
       0.023924237 0.0065410472 -0.16243948 0.03398688
000080 2e 1b a6 be d3 41 e6 bd 5b ae 2c 3d ff 45 cb bc
       -0.3244261 -0.11243024 0.042158466 -0.02481365
000090 c8 bc 4f bd 82 7a 04 be 6d c3 46 bd 93 d4 3b 3e
       -0.050717145 -0.12937358 -0.048526216 0.1834281
0000a0 57 f8 38 bd ea 85 1b 3e 0b fb 18 be 24 2a dc 3d
       -0.04515871 0.15187803 -0.14939515 0.10750225
0000b0 4d c6 89 3d 64 12 db 3c bb 0c 7c be 5d 2c cc 3d
       0.06727276 0.026742168 -0.24614231 0.09969399
0000c0 26 8d 8e be 2b 31 e3 bd 5a af 79 3b e4 6e 23 bd
       -0.27842063 -0.110933624 0.0038098902 -0.039900675
0000d0 ae 7b 45 bc 1e 2b ad bd dc c7 46 bc 5a 07 f8 3d
       -0.012053413 -0.084554896 -0.012132611 0.12110777
0000e0 4d a7 d9 3b f5 0a c1 3d 46 e1 b0 bd d1 42 5f 3d
       0.0066422583 0.09425918 -0.086367175 0.05450708
0000f0 97 73 9b 3c 87 a5 ba ba 5f b6 48 be 31 93 2c 3d
       0.018976016 -0.0014240005 -0.19600819 0.04213256
000100 ec 50 19 be 20 39 8b bc 7b 52 12 bc 53 62 69 3c
       -0.14972275 -0.016995013 -0.008930798 0.014244634
000110 c9 e3 0d 39 c1 e8 19 bd 09 09 00 bb 3b 55 91 3d
       0.00013531664 -0.037575487 -0.0019536635 0.070963345
000120 5c fc ec 3c ec b5 62 3d 0a 21 38 bd 1e 78 a6 3d
       0.028928928 0.055349275 -0.044953384 0.08128379
000130 ab 54 88 3a a7 d7 73 bc 67 61 d7 bd 49 37 30 3d
       0.001040121 -0.0148829585 -0.10516625 0.043021474
000140 c1 26 7f be b7 04 01 bb d0 61 f2 bb 46 aa 72 3c
       -0.24917127 -0.0019686648 -0.007396914 0.014811104
000150 b4 dd b6 bb 8c c6 af bd b8 f6 ca bb ce 47 0d 3e
       -0.0055806283 -0.08582792 -0.006193962 0.13796923
000160 80 dc 08 3d 70 9b c9 3d e2 89 b7 bd 12 14 0f 3e
       0.03341341 0.098441005 -0.08961846 0.139725
000170 5a d9 25 3c 14 3f 70 bc 27 8e 42 be 18 84 8c 3d
       0.010122621 -0.0146634765 -0.1899954 0.068611324
000180 7a 92 4d be ea 5d 6c bc bd 52 18 3d 84 88 ed 3c
       -0.20075408 -0.014426688 0.03718828 0.02899576
000190 47 3d 13 bd ad db d8 bd df 84 15 bd 4c a6 29 3e
       -0.03594711 -0.10588775 -0.03650367 0.16567343
0001a0 0f 1d a4 bd 83 c9 0b 3e 1d d9 f8 bd 6e 2a 41 3e
       -0.08013355 0.1365109 -0.12150786 0.18863842
0001b0 8d 43 60 3d 38 97 33 3d d3 72 2c be e8 d1 c6 3d
       0.05475192 0.043845385 -0.16840677 0.09708005
0001c0 83 af ad bc 45 0e e9 3d 44 ee de 3c e9 2e fd 3d
       -0.021201855 0.11379675 0.027213223 0.12362463
0001d0 27 13 b7 bc 82 25 58 bd 0e db c9 bc 3c b0 11 3e
       -0.022348 -0.052770145 -0.024640586 0.14227384
0001e0 c0 af 79 bd aa 67 08 3e 2e 68 fe bd 19 16 52 3e
       -0.060958624 0.13320795 -0.124222144 0.20516242
0001f0 3f df 45 3d c0 71 17 3d 0d bc 95 bd c4 69 0f 3e
       0.048308607 0.036973715 -0.073112585 0.1400519
000200 dd 6f bf 3d 40 60 d4 3d 16 cf cb bb 9b eb 01 3e
       0.09347508 0.10369921 -0.006219755 0.12687533
000210 93 7f 47 3c d1 27 8e 3c be 5f 22 3c 5c 33 a5 3c
       0.012176412 0.01735297 0.009910522 0.020166092
000220 6a bf 90 3c 65 9f ef 3c 66 59 01 bd 4c 36 a1 3d
       0.017669398 0.02925081 -0.031579398 0.078716844
000230 68 28 66 bb 5e dc a0 bb ba 86 ec 3d 68 98 89 3d
       -0.00351193 -0.0049090823 0.115491346 0.06718522
000240 6c 21 48 3e 6e ce e8 3d a9 31 1e bc 0f a4 5c 3d
       0.19544 0.11367498 -0.009655395 0.053867396
000250 2b 7e 9a 37 25 22 7f 3c 30 e2 91 3b 8f 3e 98 bc
       1.8416982e-05 0.015572106 0.0044520125 -0.018584518
000260 ed 70 1b 3d 55 74 77 bc 6a 96 9f 3c 4f 17 59 3d
       0.03794949 -0.015103419 0.019480903 0.053000744
000270 ce 1c 54 bc 03 f0 c9 bc 62 34 a8 3d a4 9a 95 3c
       -0.012946321 -0.02465058 0.08213116 0.018262215
000280 78 f1 ad 3e 89 1d 73 3e e0 d2 8d bc a1 79 f6 3d
       0.3397329 0.23741736 -0.017312467 0.120349176
000290 19 5e 46 3c 6a d0 81 3d 60 54 57 3c 23 0d 9d bd
       0.012107396 0.0633858 0.013142675 -0.07668521
0002a0 c5 25 16 3d c3 d5 60 bd 25 ef 8d 3d d3 2b c7 3d
       0.036657114 -0.05489136 0.06930379 0.09725156
0002b0 e3 b6 0c bd 89 c8 c1 bc 0c 6c 40 3e 60 b0 c6 3c
       -0.034354102 -0.023655193 0.18791217 0.024254024
0002c0 b9 21 51 3e e5 b3 91 3d dc c6 55 3c 94 f1 33 3d
       0.2042302 0.0711439 0.0130479 0.04393156
0002d0 60 9d 2b bc fd 54 6b 3c 4c 2c 47 bc 5c 70 ba bc
       -0.010474533 0.0143635245 -0.012156557 -0.022758655
0002e0 81 5d 28 bc 7b bf f2 bb 5c 92 ca 3b 23 29 11 3d
       -0.010276199 -0.00740808 0.006181998 0.03543962
0002f0 bd a1 06 3c 83 28 99 3b b2 1e b4 3d 76 41 a4 3c
       0.008217272 0.004674019 0.08794917 0.020050745
000300 ba 01 76 3e a9 2a ca 3d 0a 89 93 bc c0 1c 91 3d
       0.24024096 0.09871418 -0.018009681 0.07085562
000310 7b 27 b0 3c 9f 56 92 3d 6f c8 b2 3c a2 b8 a3 bd
       0.0215032 0.07145428 0.02182409 -0.079942
000320 88 4f c8 3c ae a7 68 bd 83 b2 53 3d 38 37 f5 bb
       0.024451986 -0.056800537 0.051683914 -0.007483389
000330 40 57 e6 bc d1 6c 3d bc 9e 42 35 3e dd 76 57 bb
       -0.028117776 -0.011561588 0.17701194 -0.0032877245
000340 7e ac 27 3e 38 14 a2 bd f2 43 6d bc 16 14 f8 bc
       0.16374394 -0.07914013 -0.014481531 -0.030283015
000350 64 93 c6 3c 2d b1 ca 3d 4f ad bc 3c 18 44 e5 bd
       0.024240203 0.09897075 0.023031859 -0.111946285
000360 9d e7 cf 3c ef d8 9b bd 85 9e b1 3d bb e0 d4 bd
       0.025378997 -0.07609736 0.08672813 -0.103944264
000370 d4 ba ed bc cf 71 57 bc 81 6d 9f 3d ad 53 94 bd
       -0.02901975 -0.013149693 0.07784558 -0.072425224
000380 9c c7 c5 3d 41 f1 8b bd dd f4 08 3d 95 29 4a bd
       0.09657213 -0.06833125 0.033436645 -0.049356062
000390 a3 20 bc bc 46 f8 d3 3c d3 ec a3 bc 90 01 66 bd
       -0.022964781 0.025875222 -0.020010388 -0.056153834
0003a0 32 a8 ae bd 24 62 0d bd 39 51 15 3d c1 f4 da bd
       -0.085281745 -0.034517422 0.036454413 -0.10691214
0003b0 a8 fb ce 3c 51 c4 1e 3d 41 8a 07 3d c2 70 3d bd
       0.025266483 0.03876144 0.033090834 -0.046250112
0003c0 db ed 15 3e c2 56 cf bc 64 5b a1 bc 15 df c0 bc
       0.14641516 -0.025309924 -0.019696899 -0.023543874
0003d0 58 1d d4 3c 96 e3 bb 3d 3c 9f e1 3c cc a9 00 be
       0.025892898 0.09174268 0.02754175 -0.12564772
0003e0 70 a3 b2 3c 70 7b c1 bd 90 8b c2 3d 22 9c 09 be
       0.021806449 -0.09447372 0.09499276 -0.13438466
0003f0 9c f1 f2 bc f3 37 0b bc 20 bd ff 3d 52 ec 8b bd
       -0.029656224 -0.008497226 0.124872446 -0.06832184

_orig_mod.dense_proj.weight f4 [64, 113]
000000 2f ee 94 bd 49 f6 4c 3d 27 ba d1 3e d8 02 02 be
       -0.072719924 0.050039563 0.40962335 -0.12696397
000010 cd b5 ab 3d 7c 85 1a be 0e 4f 88 be 25 3e f0 bd
       0.08384285 -0.15089983 -0.26622814 -0.11730603
000020 dc a7 0e bc ce 3c e0 3b b3 0b 24 bd 7f a5 af 3c
       -0.008707013 0.006843186 -0.04005022 0.02144122
000030 9f 14 f1 3d 3f f4 1d be b3 0f ef 3d 06 6b c7 3c
       0.11771511 -0.15425204 0.11672916 0.024343025
000040 fb 7f 14 bd 89 63 aa 3c 38 5e d4 bc d5 5e 70 3d
       -0.036254864 0.020799415 -0.025923833 0.05868419
000050 87 28 0c 3d 66 ec 8e 3c 85 01 c4 3c 09 d3 d9 3c
       0.034218337 0.017446708 0.023926506 0.026589887
000060 75 0f e8 3c ad b3 b9 ba be 51 27 bb 86 ea 51 3d
       0.028327683 -0.0014167927 -0.00255309 0.05124905
000070 0a 95 53 3d 91 e3 d7 bc 83 7a f5 3d 68 ba 68 bd
       0.051655807 -0.02635363 0.11986258 -0.056818396
000080 03 38 04 bd cc fc ab 3d e2 5b 1a 3c 90 9a 50 3d
       -0.03227998 0.083978266 0.009421321 0.050928652
000090 1d f1 89 3c b2 dd b0 bd 6e 21 68 3d 47 ec 0a be
       0.016838605 -0.08636035 0.056672506 -0.13566695
0000a0 f3 54 1b bd b0 2d 4e be 96 81 fd 3d b4 5b 38 bd
       -0.03792281 -0.20134616 0.12378232 -0.04500933
0000b0 be d3 8f bd 50 88 3a bd ea 7b 65 bd 74 89 bf bd
       -0.070228085 -0.045540154 -0.056026377 -0.09352389
0000c0 84 72 fd bd 24 4a 91 bd cc 14 16 be 7a b6 18 be
       -0.12375358 -0.07094219 -0.14656371 -0.1491336
0000d0 13 c6 d7 bc b9 19 63 bd 0a 5a 88 bc fd 0b bc 3d
       -0.026339566 -0.055444453 -0.016644496 0.09181974
0000e0 7b b4 8b be 3a 7b ec 3d cd b7 b3 bd e3 24 68 bd
       -0.27286133 0.11546941 -0.087752916 -0.056675803
0000f0 75 b8 fa 3c f7 0b 72 3a df 27 52 bd 00 95 37 bb
       0.030605534 0.000923335 -0.051307555 -0.0028012395
000100 0d 67 ac 3c 59 bc b8 3c a1 b1 06 3d 36 b0 03 bc
       0.021045232 0.022550749 0.032884244 -0.008037617
000110 3c 53 02 bd 7d 8d 3d bc 88 d6 8b bd 4d e0 1f bd
       -0.03181766 -0.011569378 -0.06828028 -0.03903227
000120 52 73 11 3c 99 f7 53 bd 6c ce 01 bd f4 79 24 3a
       0.008877592 -0.0517498 -0.031691 0.0006274276
000130 12 bc 84 bc fa b9 87 bb 0b 68 1f bd 53 c1 87 3d
       -0.01620296 -0.004142043 -0.038917582 0.066286705
000140 70 cf 05 be 92 fb fd 3c 0f ad b9 3c 69 eb 86 3d
       -0.13067412 0.031003747 0.022665529 0.0658787
000150 1a 2d 42 3d a1 16 15 be 7b 0f fa bc 85 63 80 bc
       0.047406293 -0.14559413 -0.03052496 -0.015672455
000160 66 da 24 bd 50 4f b0 bc af 08 c1 bc 45 c3 33 bd
       -0.040247343 -0.021522194 -0.023563711 -0.043887395
000170 cb 87 99 3b af 4d 39 bd 87 34 3d bc b2 9b c1 bc
       0.0046853772 -0.0452401 -0.011548168 -0.023633812
000180 b9 14 0d bd af 1d dd bc cc ba 24 bd c2 0e e6 bc
       -0.03444359 -0.026991693 -0.040217206 -0.028083209
000190 e9 3c cc bc 04 4d dd bc 12 ab 2d bd 0b bd c0 bc
       -0.024931388 -0.027014263 -0.042399473 -0.023527643
0001a0 d1 25 d4 bc 74 8e fc bc 24 2e 14 bd 23 f5 a8 bc
       -0.025896939 -0.030829646 -0.036176816 -0.020624703
0001b0 a2 c6 d5 bc 79 f5 0d bd 53 16 8f bc 27 5b 09 bd
       -0.026095692 -0.03465793 -0.0174667 -0.033534195
0001c0 cc 20 28 3e d6 39 bb 3c fa 01 a1 bd 09 7f e6 3c
       0.16418761 0.022854727 -0.07861705 0.028136747
0001d0 fe 39 95 bd ff fc cf bd 4b 47 f9 3b b8 40 bc 3d
       -0.07286452 -0.10155677 0.0076073757 0.091920316
0001e0 a9 f6 eb bb fd 02 44 bd 79 25 a7 bd ea b7 77 bc
       -0.007201035 -0.047854412 -0.08161444 -0.015119532
0001f0 e6 70 02 be a3 ba 34 bd 10 ea c6 3d fc 5b a2 3b
       -0.1273838 -0.044123303 0.09712613 0.004954813
000200 16 f2 27 3c 4f e9 c4 3d b4 65 a8 bd 28 2e 1c bd
       0.010250589 0.096148126 -0.08222523 -0.038129956
000210 f6 39 6d 3d f1 8f f1 bc a8 7b f4 3c 9e 56 d7 3b
       0.057916604 -0.029487582 0.02984412 0.006571605
000220 a5 d4 00 bd 49 72 82 bd 5a fc 20 bd 35 cf ac bc
       -0.031452794 -0.063694544 -0.03930316 -0.021094898
000230 7b 17 17 3d 48 ef 77 3d 0e b8 b9 3c 5b 52 ea bd
       0.036887627 0.06053093 0.022670772 -0.11441489
000240 8d bd 2f 3d e1 1e 58 bc b4 76 02 3d ca f9 0e ba
       0.04290538 -0.013190956 0.031851485 -0.00054540916
000250 87 0d 95 bd ca 9d e4 bc 72 9f 89 3d e0 60 47 3e
       -0.07277971 -0.027907271 0.06719865 0.19470549
000260 40 21 3e 3d 05 f8 ec bc cf 08 9e 3c fe ff 34 bd
       0.04641843 -0.028926859 0.01929131 -0.044189446
000270 ba 1d 87 3c 2d 73 b8 3b 06 43 4a 3d 7f be 1a 3c
       0.016493667 0.0056289644 0.049380325 0.009444832
000280 66 ba 60 3d dd d8 35 3c 39 a0 24 3c de d7 c9 3c
       0.054865263 0.0110990675 0.010047966 0.024639066
000290 e4 66 1b 3e c4 1c ec bc 45 3a 38 bd 28 e1 f9 b9
       0.15175968 -0.02882231 -0.044977445 -0.00047660735
0002a0 3b 28 27 bd 94 3a fa 3d f4 01 11 be 86 7a 2b 3d
       -0.04080985 0.12218204 -0.14160901 0.041864894
0002b0 d2 95 05 3d 8a 37 f9 bc b8 c3 17 bd ed ce d1 bc
       0.032613583 -0.03042199 -0.037051886 -0.025611365
0002c0 87 d6 8f 3c 4f 05 a8 3c b1 36 53 bd 37 f4 01 bd
       0.01755835 0.020510344 -0.05156583 -0.031727042
0002d0 19 8e 2b bb df 28 96 3c 2f c7 91 3d 17 df 36 bb
       -0.0026177226 0.018330036 0.071180694 -0.0027903968
0002e0 11 3f b3 bd b5 b4 de 3c 20 fd 00 3d 97 18 b6 3c
       -0.08752263 0.027185777 0.0314914 0.022228522
0002f0 67 c4 ea 3c cf 68 32 3e 17 59 ad 3d a5 ab 9b 3d
       0.028658105 0.17422794 0.08464258 0.07601098
000300 55 25 7e 3d ba 27 08 3e c9 b7 14 bb 2b 35 22 bd
       0.06204732 0.13296404 -0.0022692552 -0.039601486
000310 c7 c5 ea bb cc 23 33 3d 1b 77 94 bc 78 90 e1 ba
       -0.00716469 0.04373531 -0.0181232 -0.0017209193
000320 a1 5d b9 bc e0 9c bb bc ff 79 08 bb db a8 03 bd
       -0.022627654 -0.022901952 -0.0020824668 -0.032143455
000330 7a a7 43 3a d9 13 10 bb 15 2e 96 bb 91 05 b0 3a
       0.00074636156 -0.0021984486 -0.00458313 0.0013429393
000340 54 c4 42 bc 7f 4d ea bc d9 12 81 3c 44 44 e6 3b
       -0.011887629 -0.028601406 0.015756058 0.007027181
000350 de b2 d4 3c 78 cf 3f 3b 51 fd 57 39 c7 1a 37 3d
       0.025964197 0.0029267948 0.00020598366 0.04470327
000360 41 5c e3 bc 88 27 11 bb 36 e5 46 bc 25 b0 8d bb
       -0.027753951 -0.0022148807 -0.012139609 -0.0043239766
000370 67 95 e0 bc 07 2d f5 bc a0 bd a9 bb 21 36 8c bc
       -0.02741499 -0.029928697 -0.0051800758 -0.017115654
000380 1e a3 7f bc 44 ee b1 3d 20 12 d0 bc c2 65 ea 3a
       -0.015602855 0.08688024 -0.025399268 0.0017883109
000390 1d d9 d0 bc 2d 31 14 3c 0b ff b4 bc 08 d1 a2 bc
       -0.025494153 0.009044928 -0.02209427 -0.019875064
0003a0 f0 22 01 3d e9 fe f8 3c e6 10 56 3b 48 7d cf 39
       0.03152746 0.030394988 0.003266388 0.00039575459
0003b0 f1 5b 43 bc 92 0e f7 bb 74 2f 00 39 67 09 82 3b
       -0.011923776 -0.0075395787 0.00012224709 0.003968406
0003c0 e8 56 20 bd c4 a5 05 bd bd 73 84 bb b6 59 9e 3a
       -0.03914538 -0.03262879 -0.0040421174 0.0012081179
0003d0 ad b6 24 bc 0e c4 39 bb 68 32 d6 bb 73 0e 2c bd
       -0.010053319 -0.0028345617 -0.0065367706 -0.042005967
0003e0 95 04 24 3c 89 98 fb bb c7 f1 02 bd db 77 6b bc
       0.010010858 -0.0076780957 -0.031968858 -0.0143718375
0003f0 ab 38 26 3d 2c 60 a7 bc f3 92 97 3c b6 63 99 bc
       0.040581387 -0.0204316 0.018502688 -0.018724304

_orig_mod.dense_proj.bias f4 [64]
000000 5d 2d 9f bd 96 99 0a bd 06 30 ab 3b a3 a4 74 3c
       -0.07772324 -0.033837877 0.0052242307 0.014931831
000010 ef e3 9d bc 61 50 73 bc 22 82 7b 3b 07 c9 67 bc
       -0.019273726 -0.014850707 0.0038377126 -0.01414705
000020 2c a0 d2 bb 83 14 13 bc 39 0e 83 3c 19 be 39 3d
       -0.0064277854 -0.008977058 0.015997993 0.045347307
000030 b5 67 22 bd 99 25 68 3d d2 5d fa bd 0e 23 10 3d
       -0.039649684 0.05667648 -0.12224926 0.03518968
000040 4f 6e 12 be 2b aa 71 3d 03 32 58 be 7c f2 0f 3e
       -0.14299892 0.059000175 -0.21112828 0.14057344
000050 7c ac 5f 3e 1b f0 ac 3c 96 b3 0f 3b 84 fa ee bc
       0.21843141 0.021110585 0.002192711 -0.02917219
000060 89 1b 9e bc cf ee 95 bb 3a 0f 00 3d 02 3b d6 3d
       -0.01930024 -0.0045755873 0.03126452 0.104604736
000070 09 c0 ae bb 90 a9 86 3d 4f 11 d1 3d 74 0d 5c bd
       -0.005332951 0.0657531 0.102083795 -0.053723767
000080 8f a1 d9 3b f2 22 5d 3c 7f 2b 9c bc c5 08 0f 3e
       0.0066415737 0.013497101 -0.01906371 0.13968189
000090 d2 aa e8 3d a2 de 64 bd 3b e0 cf 3c 1a fa f0 3d
       0.113607064 -0.05587638 0.025375476 0.11766453
0000a0 5e 3e 37 3d 1e dc e2 3d 4d 26 c5 bb e5 64 35 3a
       0.044737212 0.1107714 -0.0060165287 0.00069196365
0000b0 aa 6a ed 3b 56 b3 3a bc d5 ef 18 3e 6e 4e 48 3a
       0.0072453814 -0.011395296 0.14935239 0.00076410815
0000c0 f4 44 a3 bc e5 53 b5 bc f9 2b c6 3b eb 66 45 bd
       -0.01993034 -0.02213473 0.0060477224 -0.048193853
0000d0 57 85 e6 39 07 f5 b9 3b 7e 02 27 bd 3e 28 c1 bb
       0.00043968364 0.0056749615 -0.04077386 -0.00589469
0000e0 e6 14 96 3d eb bd 81 b7 39 2d a0 3b bf 52 45 bc
       0.07328205 -1.5466436e-05 0.0048882035 -0.012043654
0000f0 ff db 01 3e 72 9c cd 3c fe 0f fe 3c ab 13 70 3b
       0.12681578 0.025099013 0.031013485 0.0036632817

_orig_mod.shared_mlp.0.weight f4 [128, 120]
000000 39 91 75 bd 13 a7 f9 36 db fe 10 3d b1 39 00 3c
       -0.05995295 7.4402283e-06 0.0353993 0.007826255
000010 d9 05 1b bd 24 50 51 bd 6f fd 24 be be d4 89 bd
       -0.037847374 -0.05110182 -0.16112302 -0.067300305
000020 62 de 8f bb c2 6e 6f 3a 17 65 64 3c 03 4d 7a 3c
       -0.004390524 0.00091336307 0.013940117 0.01527715
000030 17 8c f7 3c bc 42 91 3c b2 ae 28 3d d7 f1 13 b8
       0.030218167 0.017732017 0.041182227 -3.5272762e-05
000040 cc 79 bf 3c e0 21 1b ba e6 3e 1b bd f3 74 c9 ba
       0.023373507 -0.00059178285 -0.03790178 -0.0015369937
000050 38 28 a7 bb 2d d2 02 bd 89 21 58 bc 23 15 a2 bd
       -0.00510123 -0.03193872 -0.013191589 -0.07914188
000060 83 79 78 bc 1b 6e 49 3d dc e6 39 3b 7b 0e 98 3a
       -0.015165689 0.04917727 0.0028366363 0.0011600995
000070 b0 c9 e5 3c 66 0f e5 3c 6f 82 42 3d 6f 68 cb bb
       0.028050274 0.027961444 0.047487672 -0.006207518
000080 fc 36 d8 3b 0e c3 c1 3b 08 e3 1c ba b0 a2 16 3c
       0.0065983515 0.005913145 -0.0005984758 0.009194061
000090 22 83 6f 3a 81 0b 90 3c c8 c3 f7 ba 7c 87 39 bc
       0.0009136667 0.01758361 -0.0018902952 -0.011323806
0000a0 16 fa 29 bc c2 bb b7 39 7b 51 63 3b d8 6c ab 3a
       -0.010374567 0.0003504437 0.0034686017 0.0013078703
0000b0 a3 65 7d bb e3 29 93 bb a8 7f 54 bb e1 96 ef 3b
       -0.0038665317 -0.0044910773 -0.0032424722 0.0073116873
0000c0 af db 90 bb e2 48 c7 3b ef d0 c8 bb d3 28 0b 3c
       -0.0044207196 0.0060816864 -0.0061284225 0.00849362
0000d0 80 f5 89 3b ec b7 16 3b c0 d8 05 bc cf af b8 3b
       0.004210174 0.002299781 -0.008169353 0.0056361924
0000e0 3a 40 cd bc 5d 67 e6 bb 62 8e 10 bc 63 ae 0c 3c
       -0.02505504 -0.007031365 -0.008823009 0.008586499
0000f0 cb 85 8f bc 92 b3 7c bc 37 51 9b 3c 7d 5a 1b bc
       -0.017519852 -0.015423672 0.018959625 -0.009482023
000100 c9 84 80 3b 8e 22 1e 3c be 9e ad 3b 8c 33 fc bb
       0.003922079 0.009651793 0.0052984646 -0.0076965746
000110 1d 9d 62 bb a3 ce ba 3c 75 bf 7d bc 99 2b 94 3c
       -0.003457851 0.02280361 -0.015487541 0.018087195
000120 f3 23 2e 3c 28 b4 17 3d a0 85 b9 ba 59 65 2c bd
       0.010628688 0.037037045 -0.0014154203 -0.04208884
000130 30 ba 1b bd c7 a0 88 3b 02 c4 84 bb 2f dd aa bb
       -0.03801936 0.004169557 -0.0040516863 -0.0052143554
000140 22 03 35 38 15 d7 07 3c 1c 55 45 bc 42 1b e6 bc
       4.315668e-05 0.008291026 -0.012044217 -0.02808917
000150 0a 44 a5 bb 0d 04 84 3d b7 80 a9 bc 94 a6 2d 3d
       -0.0050435113 0.06446085 -0.020691259 0.04239519
000160 d2 a4 1b 3b ec 58 d4 3b 55 b9 f6 bc 9c 92 bb bb
       0.0023749364 0.006480327 -0.03011767 -0.0057242643
000170 8a d7 02 bc 39 9c 93 bd a9 ef d1 3b 2b f3 99 bc
       -0.007985959 -0.072075315 0.0064067435 -0.01879271
000180 f6 eb 4a 3c 45 e1 fc ba 30 e3 84 bc b5 60 f0 3a
       0.012385359 -0.001929321 -0.016221613 0.0018339368
000190 c0 1e 5b bc 36 46 72 bb cb 94 b8 bc de 27 fb 3a
       -0.013374031 -0.0036968119 -0.022531888 0.0019161662
0001a0 02 16 0f bc c9 ca 27 bc da 68 7f 3c b1 69 94 3c
       -0.008733274 -0.010241219 0.015588963 0.018116804
0001b0 ae 3a 06 3c b3 ef 0c bb d8 4f 41 bc 37 c2 71 3c
       0.008192701 -0.0021505177 -0.011798821 0.014755777
0001c0 66 4d 45 3b b9 2f 81 bc 5a cf be ba 4d 35 41 bb
       0.0030105948 -0.015769826 -0.0014557645 -0.0029481233
0001d0 a6 ab 91 bb e8 ce 35 3c b8 73 d6 bc e0 7d c6 3c
       -0.004445511 0.011096694 -0.026178226 0.024229944
0001e0 b2 e1 4c 3c 42 07 99 38 e1 78 20 3d 03 af f6 bc
       0.012504982 7.2969604e-05 0.03917778 -0.030112749
0001f0 d1 44 67 bd e4 7c 36 be 9c e3 90 be 10 70 9a bd
       -0.056462113 -0.1782108 -0.28298652 -0.075409055
000200 22 50 36 3d 87 46 75 bc 55 0c 93 bd 33 f4 c9 3d
       0.044510014 -0.014970428 -0.071800865 0.098610304
000210 3f c9 56 3d 57 69 34 3d 65 7b 60 3e 3d a1 a0 3d
       0.052438017 0.044045772 0.21922071 0.07843254
000220 c7 26 30 3e e6 bb 75 bd 73 a5 96 be a1 62 92 bd
       0.17202292 -0.059993647 -0.29423103 -0.07147718
000230 be ca 63 bb ba 19 eb be 50 95 85 be f5 20 bb be
       -0.0034758295 -0.45918065 -0.2609048 -0.36548582
000240 e6 7a d7 bd 4d b7 c6 3d de 12 77 be 77 04 18 3d
       -0.10521488 0.097029306 -0.24128291 0.037113633
000250 d7 89 40 3e d3 0b 85 3e 30 fc be bb 52 ed 19 be
       0.18802582 0.25985584 -0.005828403 -0.15031937
000260 0a 32 fb 3c aa be bd bc 4e 02 b2 3b 7a 26 f2 3c
       0.030663509 -0.023162205 0.0054324036 0.029559363
000270 44 e6 14 3c f0 96 e3 bd 53 00 3f bc 8c 33 a9 3d
       0.009088103 -0.111127734 -0.011657792 0.08261785
000280 d7 c8 ea be 4a 04 75 bb c0 d4 ea 3c bf ae 17 3d
       -0.45856354 -0.003738659 0.0286659 0.037031885
000290 c7 80 40 bd d8 d9 42 be 1a ec 35 bd 1b b8 89 3e
       -0.04699781 -0.19028413 -0.044414617 0.26898274
0002a0 a3 20 02 bd d2 c3 4e 3e d0 9e 4e be 15 f1 62 3e
       -0.031769406 0.20191887 -0.2017777 0.22162278
0002b0 84 ba 7a 3d c7 f5 92 3c 54 aa 9d be ca 97 17 3e
       0.06121303 0.017939461 -0.30794013 0.14803997
0002c0 eb f6 bd 3d 02 57 06 3d b1 36 48 3a f7 30 59 3b
       0.092756115 0.03279782 0.0007637544 0.0033140758
0002d0 5b c5 d2 bd e0 5c 52 bc 25 16 d8 3c 7c 30 72 bd
       -0.10291549 -0.012839526 0.026377747 -0.05912827
0002e0 a8 24 ee 3b 3a cc ab bb d2 f8 94 3c 81 17 04 3d
       0.0072675534 -0.0052428516 0.018185053 0.032248978
0002f0 11 d2 5e bc af a7 a5 3d 19 f7 e7 3d 75 43 c3 bc
       -0.013599888 0.08088624 0.11326427 -0.023835877
000300 17 f7 c1 3d 09 3b be 3d 3a 42 dc 3c c9 8f 42 3c
       0.09470957 0.09288604 0.026887048 0.011875101
000310 cf b6 f3 3c 27 9f 12 3d f0 67 c1 3c 29 80 48 3d
       0.029750256 0.03579631 0.023609132 0.048950348
000320 bb 41 6b ba 03 35 04 3d 1c a5 70 bc 57 91 8d bd
       -0.0008974333 0.03227712 -0.014687803 -0.06912487
000330 1a 57 66 3d 56 e7 1c bc 46 6a 58 3d d7 36 48 bd
       0.05623541 -0.009576639 0.052835725 -0.048880424
000340 55 d2 db bb 00 24 38 bc aa 09 53 3b 7e e0 88 3b
       -0.006708423 -0.011239052 0.0032201805 0.004177152
000350 a7 b5 9c 3c a0 93 01 3d 8c f4 91 3c 82 c8 a9 bb
       0.019129587 0.031634927 0.017816804 -0.005181373
000360 ba c8 f2 3c d3 25 88 3c fe d7 28 bc 4b a5 d7 ba
       0.02963673 0.016619598 -0.010305403 -0.0016452459
000370 9c c2 d9 bd 8b a5 1f bd 4a da 20 bd 7e fa f5 3c
       -0.10632822 -0.038976233 -0.039270677 0.03002667
000380 a4 40 b7 bc 24 37 94 3c 8e 3e 0a 3d 51 d9 c0 3c
       -0.02236969 0.0180927 0.033751063 0.023541125
000390 19 23 d2 3c 97 1c 90 3c a2 29 fd 38 f0 74 93 3d
       0.025651501 0.017591758 0.00012071735 0.072000384
0003a0 bb 7b 7a 3d a5 d8 be 3c e5 c3 00 bb cf 19 d2 3b
       0.061153155 0.023296664 -0.0019648012 0.006411768
0003b0 e2 e6 a0 bd 5e 5c 51 3a 58 4e fd bc 72 43 0f bd
       -0.078565374 0.0007986481 -0.030921146 -0.03497643
0003c0 60 fd 04 3d 45 41 97 b8 95 7a d0 3c 68 3c e0 bb
       0.0324682 -7.2123985e-05 0.025449077 -0.0068431385
0003d0 be 65 e0 bc 39 f6 4d bd 05 a6 85 3a 63 c9 ef bc
       -0.027392264 -0.050283644 0.0010196572 -0.029270833
0003e0 43 19 db 3c f6 fb be 3a b2 1b 4b bc a6 72 ea 3d
       0.026745444 0.001457094 -0.01239674 0.11447649
0003f0 af e5 46 3d 75 19 9a 3d a6 9c d5 3d 39 5a c9 3d
       0.048558887 0.07524387 0.10430269 0.09831662

_orig_mod.shared_mlp.0.bias f4 [128]
000000 8d 6b 10 be d6 90 05 be 25 71 3d bd 38 28 7d be
       -0.14103527 -0.13043532 -0.04625048 -0.24722373
000010 e7 4f d6 3d b9 b2 44 bd 27 a3 30 bd b4 9a 6e bc
       0.10464459 -0.048022006 -0.043124344 -0.014563251
000020 97 24 5f 3d a0 af 84 3d 96 3b 14 be 6c c6 99 be
       0.054478254 0.0647881 -0.14475855 -0.30034196
000030 ba af 9e 3d 0c 79 cb bd 72 ac f5 bc 40 e0 4d bc
       0.07748361 -0.09935197 -0.029989455 -0.012565672
000040 57 26 1e be 35 73 41 be 98 59 1a 3d 64 00 b1 3d
       -0.15444313 -0.18891604 0.0376831 0.08642653
000050 9e 2d c2 bc 29 2b 2f be 84 81 71 37 b6 a6 42 3a
       -0.023703393 -0.17106308 1.4394875e-05 0.00074253546
000060 c5 fe 22 3d da 68 bf bc 00 79 94 3d ba 49 3f bd
       0.03979375 -0.023365427 0.072496414 -0.04670117
000070 e9 09 8e 3c 39 84 f5 3d ea ec 1c bc 01 95 51 be
       0.01733871 0.1198811 -0.009577969 -0.20466997
000080 9b 96 b8 3d 6c bd b8 bd 8f 9d 22 be 30 e1 cb 3c
       0.09013101 -0.09020504 -0.15880416 0.024887651
000090 21 ca 64 3b b5 b0 d1 3d 69 27 40 be ae ee 61 3d
       0.0034910517 0.10238782 -0.18765034 0.055159263
0000a0 16 e1 89 3d 33 c1 39 3d 4d e0 fb bd 9a e0 48 be
       0.06732385 0.045350265 -0.12298641 -0.19616929
0000b0 43 53 4b be 78 21 01 be b6 de 49 be 71 b6 06 be
       -0.1985598 -0.12610424 -0.19713864 -0.13155533
0000c0 65 46 cb bd a3 17 3b bc 8e 09 de bb 13 d0 91 bd
       -0.09925536 -0.01141921 -0.0067760414 -0.07119765
0000d0 d7 67 cd bc d6 fd ca 3c b9 0c 99 bb 22 ff ac 3b
       -0.025073929 0.024779242 -0.004670706 0.0052794376
0000e0 52 88 1a be aa 4a 8e bc c6 51 ff bc 93 18 34 bb
       -0.15091065 -0.017369587 -0.031166922 -0.0027480468
0000f0 f1 06 d3 3b 5d 4a 1b be af a5 63 3b ab 19 46 be
       0.0064400365 -0.15165086 0.0034736206 -0.19345729
000100 2a ca 34 be 58 af c4 3d ba bd af bc 9a 39 ec bd
       -0.17655244 0.09603757 -0.021452773 -0.11534424
000110 e3 f1 30 be 4a ad 6c bd d0 92 bd bc dd 31 3b bd
       -0.17279772 -0.05778245 -0.023141295 -0.04570185
000120 21 a8 16 bd ba 0e 4d be 92 cd 41 3e 89 38 4d bd
       -0.036781434 -0.20025149 0.18926075 -0.050102744
000130 d1 11 86 3d c2 5f a0 3c 09 1a 83 be a8 9f 25 3d
       0.06546367 0.01957691 -0.256058 0.040435463
000140 4c 0e 2a bd 19 1a 7d be a1 9d 21 be 2c 9d 5d 3d
       -0.04151754 -0.24716987 -0.15782787 0.05410497
000150 a2 4f 2d bd f2 62 35 be 5d 77 b6 bc 14 82 8c 3d
       -0.042312272 -0.17713526 -0.022273714 0.06860748
000160 ac 34 27 bd 21 fa 80 3c 55 e4 2a bd 1f 6e f1 be
       -0.040821716 0.01574427 -0.04172166 -0.47154328
000170 97 c5 c8 ba fd 0e bc 3d ae d8 39 be 7e f4 e6 3b
       -0.0015317675 0.09182546 -0.18149063 0.0070481887
000180 69 82 e4 bc 93 21 ca bd d6 fa 2e bc b2 20 ed 3d
       -0.027894216 -0.09869685 -0.010679921 0.11578502
000190 5d 82 30 be 17 83 32 be c0 4d 90 3c da 0d 0b bd
       -0.1723723 -0.1743282 0.0176152 -0.033948757
0001a0 b2 4d f3 3d cd 6c a2 bd 6c 8f 5f be 03 87 17 3e
       0.118800536 -0.07930908 -0.21832055 0.14797597
0001b0 2e fb 57 bd 22 b1 31 bc e8 f6 b3 bc 85 ce c0 3d
       -0.052729778 -0.010845454 -0.02196832 0.094143905
0001c0 ab c7 2f bd 87 83 08 3b 21 59 71 bb 82 59 35 be
       -0.042915028 0.002083035 -0.0036826807 -0.17709926
0001d0 42 a3 28 39 64 3e 9e be bb 95 96 bc 6e 21 90 bc
       0.00016082547 -0.30906975 -0.018381944 -0.017594066
0001e0 23 ab ae 3d f2 94 f8 3d 7e 91 b0 bd 08 09 b2 3d
       0.085287355 0.12137784 -0.086215004 0.08693129
0001f0 4b 30 8f 3d 57 23 21 3d f7 2c f8 3d 3f e9 0e bc
       0.06991633 0.039340343 0.12117951 -0.008722602

_orig_mod.shared_mlp.3.weight f4 [64, 128]
000000 8e dd 7a 3d f7 a0 97 3c 8c 59 22 bd c0 20 0c bd
       0.061246447 0.018509371 -0.03963618 -0.03421092
000010 50 9d 7e bd ce 02 7d 3d 7f f3 07 3c 72 14 48 3c
       -0.062161744 0.061770253 0.0082978 0.012211906
000020 95 30 60 bd 70 f7 03 bd 6d 2e 8e bd 16 80 2d bd
       -0.05473383 -0.032218397 -0.06942449 -0.04235848
000030 4d 20 61 bd 18 8a 4a 3d 9d 59 96 3d dd 1d 0a bc
       -0.054962445 0.049448103 0.07341311 -0.0084299715
000040 fa 81 44 3d 64 7f 88 3d a8 a3 59 bc 10 15 83 bd
       0.047975518 0.06664923 -0.013283648 -0.06400502
000050 1a 90 1d bc fe 31 2a 3d 68 cf ee bb 1c 60 a1 38
       -0.009616876 0.041551583 -0.0072879083 7.69498e-05
000060 d3 08 be bc 4f d9 62 3b c8 b5 cb bd cd 10 ed 3b
       -0.023197567 0.003461439 -0.099467814 0.007234669
000070 79 9b f9 3c d3 19 be bd 2e a1 29 bc 9e e3 13 3d
       0.030469643 -0.09282269 -0.01035337 0.036105745
000080 25 f5 de bd 05 bd a8 bd 78 ae 82 3d 5d b1 2d bd
       -0.10886601 -0.082391776 0.063809335 -0.042405475
000090 08 9f 3c bc 3b 4c 1c bd a9 4d 8e 3d 1f 15 b5 bd
       -0.011512525 -0.038158637 0.06948406 -0.08841919
0000a0 96 cf c4 bd cc 45 27 bd d8 f7 dd bd e2 9b 8b 3d
       -0.096099064 -0.040838048 -0.10838288 0.06816842
0000b0 c5 9b 2f 3c 2d ed 52 bd 89 45 d0 3a 85 65 9b 3d
       0.010718291 -0.05149572 0.0015889864 0.07587723
0000c0 c7 2c c2 bd 8b 9f 28 bc 5a e8 9c 39 80 be 15 3d
       -0.09481197 -0.010291944 0.00029927754 0.036558628
0000d0 8c d1 9b 3c 0c 2d ed bc 18 6e 8e 3b 4c 9c f4 bc
       0.019020818 -0.028952144 0.0043466203 -0.029859684
0000e0 c7 1d 7f 3d d5 38 c6 3a d8 7f 29 3d b0 eb b1 3a
       0.062284257 0.0015123138 0.041381687 0.0013574269
0000f0 b1 74 10 bd ff e9 03 bd 0c ac 91 bc 36 ce 08 3d
       -0.035267536 -0.032205578 -0.017782234 0.033399783
000100 0d 58 32 bd 7d 83 d2 bd d7 6f 17 bc d5 30 fd bc
       -0.043541003 -0.10278986 -0.009242973 -0.030907074
000110 cf 86 ec bc e7 b1 31 3d 14 8d 8b 3c ad 79 10 bc
       -0.028872875 0.04338255 0.017035045 -0.008818072
000120 ae 66 69 3d 47 b3 29 3d 19 67 1d 3d ee 46 00 3d
       0.05698269 0.041430738 0.0384284 0.031317644
000130 18 af ab bd 6d 3a 83 3d 25 b2 01 be 3e e4 3f bd
       -0.08383006 0.06407628 -0.12665613 -0.046848528
000140 3c 3a ae 3c 2c 83 ca bd cf 4d f6 3b e5 c3 8c bd
       0.021268003 -0.098883 0.0075165997 -0.068733014
000150 85 60 a2 bd 43 4b c2 3d af 98 a9 3c a6 f8 ad bc
       -0.07928566 0.09487011 0.020702688 -0.021236729
000160 9f ed 8a 3d 83 fa c2 bd 5a f4 3e 3d 9d 85 64 bd
       0.06783604 -0.095204376 0.04661975 -0.055791486
000170 95 6b 05 be 5e 68 05 be be 5c 5f 3d f9 a1 39 3d
       -0.1302932 -0.13028094 0.054531805 0.045320485
000180 8e 95 fc 39 92 bf bd 3c cb 44 e1 bc e7 e2 7c bd
       0.00048176612 0.023162637 -0.027498623 -0.06173983
000190 5f 41 6c 3d 76 c2 93 3d f3 ba b4 3c a6 52 ca bd
       0.05767953 0.07214825 0.0220618 -0.09879045
0001a0 23 38 ad bd 1e 60 df 3c b3 f1 a3 3d 12 40 01 be
       -0.08457973 0.027267512 0.08005085 -0.12622097
0001b0 4b 42 42 3d f9 d9 48 3d 73 05 90 bc e9 fe 46 bd
       0.047426503 0.049036 -0.017580723 -0.048582945
0001c0 c5 78 85 bd 8b 54 7c ba 7f 60 47 3d 73 6b 8f 3d
       -0.065171756 -0.0009625635 0.04867601 0.07002916
0001d0 3e 93 20 3a 52 7c 23 bc 3b 94 80 bd eb f5 c0 bc
       0.00061254564 -0.009978371 -0.06278273 -0.023554763
0001e0 54 a2 d7 bd 13 86 84 bd 00 5d 0a 3d ee 2f 8f bc
       -0.105290085 -0.06470885 0.033780098 -0.01747891
0001f0 d3 f5 a6 bd fc 26 fa bc 16 b0 0a bd a2 ed d2 bc
       -0.08152356 -0.030536167 -0.033859335 -0.025748078
000200 37 a4 81 3d b4 5c a6 bd d7 e8 0c 3c 0b d5 19 bd
       0.063301496 -0.081231505 0.008600435 -0.03755669
000210 c6 33 eb bd 8a 9f 34 3d 74 f2 2d bd 16 b6 22 3d
       -0.114844844 0.04409746 -0.04246755 0.039724432
000220 fb fe 17 bd 4a f6 22 bd 40 7b 41 bc ea 25 00 3c
       -0.037108403 -0.03978566 -0.01180917 0.007821539
000230 79 c2 d0 bd 0f 31 90 3d f3 54 02 3d da fa 47 3c
       -0.10193343 0.07040607 0.031819295 0.012205804
000240 68 46 8a 3d 5c 09 31 3d f1 bb 18 bc a2 46 b9 bd
       0.0675171 0.043221816 -0.0093221525 -0.09046675
000250 39 ea f9 3c 97 34 7c 3d ea 63 9e 3c ec 6f 01 bb
       0.030507194 0.06157359 0.019334752 -0.0019750549
000260 cc ee 85 3c 47 7a 88 3c 64 8b 96 bd ba f1 17 3d
       0.016349219 0.016659869 -0.073508054 0.037095763
000270 9f 70 27 3d e2 41 d9 bd 92 a5 d3 3c 6e 25 cc 3c
       0.04087889 -0.10608269 0.025835786 0.024920192
000280 13 30 4d bd e7 a8 3e 3d 4a 6b 5a 3d 5c bc 1e 3c
       -0.050094675 0.046547797 0.053324975 0.009688463
000290 e4 0b 1b ba 7c 09 14 bd 5e a1 68 3d 96 ec e9 bc
       -0.00059145526 -0.036141858 0.056794517 -0.028555196
0002a0 9e b4 cb bb 39 1c c1 3c 20 84 9e 3b 6e a8 77 3d
       -0.0062165996 0.023573028 0.004837528 0.06046336
0002b0 6b 46 9a bd b8 8d 83 bc 67 42 2a bc 3e 67 47 3d
       -0.075329624 -0.016058788 -0.010391808 0.048682444
0002c0 fe 16 bd bc 10 c1 14 3d 17 5c 0a 3d 2f 10 09 3d
       -0.023082253 0.03631693 0.03377923 0.0334627
0002d0 ca 02 dd 3c 98 bc 04 3a 7a 12 d5 3b 31 0f 84 3c
       0.026978869 0.0005063503 0.0065024467 0.016120525
0002e0 4d b0 6b 3d ed e1 80 3c 8d 7e 56 bb 5c af 8b 3c
       0.05754118 0.01573273 -0.0032729239 0.017051391
0002f0 f1 5d 61 3a c1 c1 c3 bb b2 8a 05 39 17 41 53 3d
       0.0008597067 -0.005974025 0.00012735536 0.051575746
000300 d2 32 d4 3d 6a a9 87 bd 09 00 ef 3c 96 08 66 3d
       0.10361256 -0.0662411 0.029174821 0.056160532
000310 a8 11 7c bd 2b b6 4d 3d 2e 41 11 3d 15 90 57 3d
       -0.061540276 0.050222557 0.03546255 0.05262764
000320 5d c3 2b 3d e9 d4 78 3d b1 c9 ab be 8d cc 26 3d
       0.04193436 0.060749922 -0.33552316 0.04072242
000330 c1 c1 40 bc 09 7b 12 bd c0 25 a2 bd ed 14 1c bc
       -0.0117649445 -0.035761867 -0.079173565 -0.0095264735
000340 ee 46 2b 3d 04 9d 62 bd 62 d4 a6 3b cb 59 ad 3c
       0.04181569 -0.055325523 0.005091236 0.02116098
000350 8b 9c 85 bc 0a 92 85 3d a2 db 1a 3d 65 c4 03 bd
       -0.016309997 0.06521995 0.037807114 -0.03216972
000360 c7 2c 2e 3d 7d 8f c4 bb 95 33 5a 3d a2 3b 00 be
       0.04252317 -0.0059985504 0.05327185 -0.12522748
000370 ba ef 57 3b a7 01 f0 bd 03 6e 67 3d d6 ac 9a 3c
       0.0032949285 -0.11719065 0.0565014 0.018881243
000380 f8 8b 11 3d b7 95 7c 3d 8c 72 12 3d 84 d1 c4 bc
       0.035533875 0.061666217 0.03575377 -0.024025686
000390 72 e6 51 3d b3 3c 10 3d 21 f7 9f 3c d4 e3 04 3d
       0.05124516 0.035214137 0.01952702 0.032443836
0003a0 1f 4d 98 bd d4 bc 42 3d f0 61 1c bb ca db bd bd
       -0.07436585 0.04754336 -0.0023862086 -0.09270437
0003b0 fc e1 10 3d 49 12 a3 3c 88 22 23 3d ad 81 1f bc
       0.035371765 0.01990618 0.039827853 -0.009735507
0003c0 03 29 02 bd 52 c7 af 3c 8e 26 59 3d fd 49 ca 3c
       -0.031777393 0.021457348 0.053015284 0.024693483
0003d0 ef 62 97 3c 8c bc 8d bc 88 76 6e bd d7 81 cc 3c
       0.018479792 -0.01730182 -0.05821851 0.024964256
0003e0 e3 75 c6 bc 9f b6 ab bd 26 dd 61 3d d2 69 b4 bd
       -0.024226135 -0.083844416 0.055142544 -0.08809246
0003f0 71 55 49 bd 8e e5 f3 bc ec 19 c9 bc 8e 2d 71 3c
       -0.04915375 -0.029772546 -0.024548493 0.014720334

_orig_mod.shared_mlp.3.bias f4 [64]
000000 ec 72 34 be 9e 8f 8f be 43 ec 6d be b1 97 85 3e
       -0.17621964 -0.2803926 -0.23234658 0.26092294
000010 fc 2b ef bd 88 5a 92 be 3b 13 3a be 16 26 99 be
       -0.11678311 -0.28584695 -0.18171398 -0.2991187
000020 da c0 98 be 6d 48 83 be c2 cb af 3e 57 9b 59 3e
       -0.29834634 -0.25641194 0.34335142 0.21250664
000030 f3 f2 89 3e bb 8c 86 3e 23 84 1a 3e 9b 07 99 be
       0.26943168 0.26279244 0.15089469 -0.29888615
000040 74 b2 56 3e 69 3f 2d 3e bc b5 64 3e 14 f9 36 be
       0.20966512 0.1691872 0.22334951 -0.17868453
000050 54 0a 83 3e 3e 22 19 be e0 eb 30 be ea f8 08 be
       0.25593817 -0.14954469 -0.17277479 -0.13376203
000060 7d 1e 6a be f1 37 e1 bd 7a 46 8d 3e dd 3f 7f 3e
       -0.22863193 -0.10996998 0.27592832 0.24926706
000070 94 8d 90 3e 1d 5e 97 3e a2 b0 62 3e 80 7d 8c 3e
       0.28233016 0.2956399 0.22137693 0.274395
000080 51 12 86 be d8 cf 2d be a4 48 68 be dd b0 8c 3e
       -0.2618585 -0.16973817 -0.2268396 0.27478686
000090 93 fa ad 3e 92 bf 58 be 67 8c 83 be 56 9b 81 be
       0.33980235 -0.21166828 -0.25693056 -0.25313824
0000a0 eb 26 83 be 18 5d 93 be df 2b 91 be 2f 28 a8 3e
       -0.2561563 -0.28781962 -0.28353783 0.32843158
0000b0 8c c6 84 3e 82 21 4e be cd 19 2a be 33 ea 8d 3e
       0.2593273 -0.2012997 -0.16611405 0.27717742
0000c0 59 eb 91 3e 54 36 78 3e f2 08 80 be b2 1f 9f be
       0.2849987 0.24239475 -0.25006825 -0.3107887
0000d0 70 e0 89 be 46 f9 40 3e 69 7d 6b be 14 d2 28 be
       -0.26929045 0.1884509 -0.22997059 -0.16486388
0000e0 8f a1 66 be 56 e7 6d 3e af b8 91 3e ad 02 97 3e
       -0.22522567 0.23232779 0.28461215 0.2949423
0000f0 94 15 0c be c5 e8 68 be 22 a0 99 3e 41 df 1b be
       -0.13680106 -0.22745045 0.30004984 -0.15221883
