experiments/exp_20251005_030455/models/checkpoint_epoch4_auc0.7331_logloss0.0874.pth (torch, 137410 bytes, 12 tensors)

_orig_mod.embeddings.gender.embedding.weight f4 [5, 8]
000000 33 b7 1a 3d 3e 2e ef 33 6b 86 00 bd 54 db 94 bc
       0.03777237 1.1137716e-07 -0.03137819 -0.01817099
000010 a6 c0 04 3d 22 51 d3 3c 9e c8 4d 3d 35 16 1f 3d
       0.032410286 0.025795523 0.05024015 0.038839538
000020 4c a5 84 3f a7 3f 4d 32 9c 70 a0 be fd 63 b0 bd
       1.0362945 1.1947043e-08 -0.31335914 -0.08612821
000030 b5 18 96 3e a2 76 0d 3d 5f 8b 02 3f 2b 80 17 3f
       0.29315725 0.034536965 0.50993913 0.59179944
000040 9a 11 cf 3d d2 46 49 b5 20 8a 5f be cc c4 2f bc
       0.10110779 -7.498139e-07 -0.21830034 -0.010728072
000050 5c 48 85 3e 44 bc 0a 3f 10 bd b8 3f 5b 9a c5 3e
       0.26031768 0.5419352 1.4432697 0.38594326
000060 c6 59 05 80 bb 5b 05 80 4e 64 05 00 cd 60 05 80
       -4.91382e-40 -4.92084e-40 4.9516e-40 -4.93903e-40
000070 02 c1 05 80 57 67 05 80 bd 64 05 80 97 5e 05 00
       -5.28416e-40 -4.96249e-40 -4.95316e-40 4.9311e-40
000080 12 df 05 80 1a 5c 05 00 76 98 05 80 5e 62 05 80
       -5.392e-40 4.92217e-40 -5.1387e-40 -4.94465e-40
000090 20 75 05 00 e6 b9 05 80 aa 99 05 00 5c 6a 05 80
       5.01194e-40 -5.25865e-40 5.14302e-40 -4.97332e-40

_orig_mod.embeddings.age_group.embedding.weight f4 [15, 8]
000000 8c c8 cd 3c 18 ca 1e 3c 66 1b 76 3c ca 10 f3 3c
       0.025120042 0.009691738 0.015021181 0.029671092
000010 87 fa f5 3b f1 29 c5 3c a7 be ee bb a5 7d d7 3c
       0.007506672 0.02406785 -0.007285911 0.02630503
000020 bb 63 a8 bd 15 42 ac bc 56 ff 64 3e d6 5f 0f 3d
       -0.08222147 -0.021027604 0.22363028 0.035003506
000030 c8 56 82 3e af 0a cd 3d 6d 72 2b 3e 10 a2 f1 bc
       0.25456834 0.10011803 0.16742869 -0.029496223
000040 8b 48 11 3d 67 96 6d be 96 2b fd bd 6d 05 17 be
       0.035469573 -0.23201905 -0.12361829 -0.14748164
000050 d1 20 79 be d9 56 87 be 1b 6f 94 be 4a 79 a4 bd
       -0.24328925 -0.26433447 -0.28991017 -0.080309466
000060 96 a4 0b bc 74 46 f6 bd d1 e7 79 be 98 c6 73 be
       -0.008523127 -0.120251566 -0.24404837 -0.23806226
000070 3b bc b1 be a0 d2 5e be 58 10 6f be f4 4c 32 be
       -0.3471392 -0.21760035 -0.23346078 -0.17412168
000080 74 97 16 3d e2 31 08 bd f3 bc c1 bd 10 c0 3d be
       0.03676553 -0.033250697 -0.09459867 -0.18530297
000090 75 a2 a5 be 4e b7 35 be 78 0e 84 be ff a1 09 be
       -0.32350507 -0.17745706 -0.2579229 -0.13440703
0000a0 27 6e fc 3c 44 db e0 3b 76 88 59 be 42 72 64 be
       0.030814243 0.006862076 -0.21243462 -0.22309211
0000b0 b3 c1 8d be 8b a2 32 be 0a 9e 7c be a2 0b 14 be
       -0.27686843 -0.17444818 -0.24669662 -0.14457563
0000c0 ff 44 5b bd f0 c4 8d 3e e2 55 75 be 2e 25 2a be
       -0.053532597 0.27689314 -0.23958543 -0.16615745
0000d0 fe 1c 84 bc bd 1e 5b 3a 60 77 00 be 32 62 36 3e
       -0.016127106 0.00083587674 -0.12545538 0.17810896
0000e0 df 17 5e 3e 82 9c c8 3d 89 14 a3 be 6e fa 16 3f
       0.21688794 0.097954765 -0.31851605 0.58975875
0000f0 7f c1 f2 bc a6 d4 1e 3e 37 c3 ab 3e df 17 0b 3f
       -0.029633282 0.15510806 0.33547375 0.543333
000100 0a 19 80 3e d6 e4 8d 3d 63 cd c9 3e 14 35 57 3f
       0.25019103 0.069284126 0.3941451 0.84065366
000110 b7 42 22 3e cf 3e be 3e f1 1c 8d bd 64 6d e9 3e
       0.15845762 0.37157294 -0.06890286 0.4559127
000120 d1 ae 05 80 5e 57 05 80 97 82 05 00 1a 60 05 80
       -5.2189e-40 -4.90519e-40 5.06024e-40 -4.93652e-40
000130 91 59 05 00 c9 75 05 00 23 62 06 80 bc 61 05 00
       4.91308e-40 5.01431e-40 -5.86218e-40 4.94238e-40
000140 91 72 05 80 68 5f 05 80 bf 99 05 80 d7 59 05 80
       -5.00276e-40 -4.93403e-40 -5.14331e-40 -4.91406e-40
000150 5f 8c 05 80 0c 8b 05 80 22 5f 05 80 93 63 05 00
       -5.09533e-40 -5.09058e-40 -4.93305e-40 4.94898e-40
000160 eb 5c 05 00 9f 96 05 00 92 5a 05 00 f6 60 05 80
       4.9251e-40 5.1321e-40 4.91668e-40 -4.9396e-40
000170 40 d9 06 80 96 21 06 80 34 5e 05 00 04 62 05 00
       -6.28948e-40 -5.63061e-40 4.92971e-40 4.94339e-40
000180 38 59 05 00 8a 5b 05 00 3a 65 05 80 5d a1 05 80
       4.91183e-40 4.92016e-40 -4.95491e-40 -5.17064e-40
000190 6e 79 05 80 30 6d 05 80 ff 60 05 80 f7 5a 05 80
       -5.02738e-40 -4.98347e-40 -4.93973e-40 -4.9181e-40
0001a0 34 5b 05 80 07 85 05 80 b1 59 05 00 9b 82 05 00
       -4.91895e-40 -5.06899e-40 4.91353e-40 5.0603e-40
0001b0 9e 57 05 80 c5 5f 05 00 c0 7e 05 80 d9 59 05 80
       -4.90609e-40 4.93533e-40 -5.04647e-40 -4.91409e-40
0001c0 37 5c 05 00 74 5c 05 00 95 a3 05 80 2f 65 05 00
       4.92258e-40 4.92343e-40 -5.1786e-40 4.95475e-40
0001d0 d6 57 05 80 1a 5b 05 00 fc 74 05 80 be 97 05 00
       -4.90687e-40 4.91859e-40 -5.01144e-40 5.13612e-40

_orig_mod.embeddings.inventory_id.embedding.weight f4 [50, 16]
000000 d1 26 85 3d 79 a2 d8 be 66 96 6e bd eb ad a0 3e
       0.06501544 -0.42311457 -0.0582489 0.3138269
000010 43 62 8c 3d b8 2e 6f be e3 dd 4f 3e 2a 8d 13 bd
       0.068546794 -0.23357666 0.20299487 -0.036023296
000020 62 6f 32 be 50 07 8f be dc e9 c2 3d b1 ce 21 bd
       -0.17425302 -0.27935266 0.095172614 -0.039503757
000030 ab 41 c9 be cc 97 72 3d 1b 1d a6 be 8a 3b 2a 3e
       -0.39307913 0.059226796 -0.3244408 0.16624275
000040 d4 fb 05 3d 5a eb 02 be 21 63 d5 3c ab d4 86 3e
       0.032710865 -0.12785092 0.026048245 0.26334128
000050 b6 fa 8f bc 39 50 bc bd 9b 28 43 3e 42 9d 00 bd
       -0.017575603 -0.09194989 0.19058459 -0.031399973
000060 55 d4 cd 3d 25 76 f5 3c 61 2c 43 3e af 5b ba bd
       0.10050265 0.029963562 0.19059898 -0.090995185
000070 41 65 72 bd 05 50 a5 bc 22 1c 10 be e3 e5 3e bd
       -0.059178594 -0.020179758 -0.14073232 -0.046605956
000080 dc c9 25 3d 46 c1 d2 3c 61 8b c0 bb 15 69 f0 3e
       0.04047571 0.025726926 -0.0058759903 0.4695517
000090 20 e2 ea 3b 4c d1 c3 bd 29 2b 30 3f 95 67 b8 bd
       0.0071680695 -0.095614046 0.6881586 -0.09004132
0000a0 71 6f 83 be 9e f6 11 bd 53 a9 43 3e 66 ba f2 3d
       -0.2567096 -0.035635583 0.19107561 0.11851959
0000b0 45 a7 f0 be 56 d9 e9 3d 27 ca 20 bf 4a fd 79 3e
       -0.47002617 0.11418407 -0.6280846 0.24413028
0000c0 1b db 08 3b 91 fc 46 3d 2d 18 87 bc 42 de a3 bd
       0.002088255 0.04858071 -0.01649102 -0.08001377
0000d0 47 24 4c bc a9 10 fc 3c aa 60 8f bd 9d 8a 1b 3d
       -0.012459821 0.030769663 -0.07000859 0.03797399
0000e0 be e1 b4 bc e9 57 a4 bc 32 6b 5a bd e9 17 aa 3c
       -0.022080299 -0.02006145 -0.053324886 0.020763354
0000f0 f8 d7 38 bc 4e 88 6d 3c 96 fe f0 3c 51 64 78 3d
       -0.01128196 0.01449783 0.029418271 0.060642544
000100 1e 56 01 bd 8a cf ab be 60 a9 f0 3d e3 07 8b be
       -0.03157627 -0.33556777 0.11751056 -0.27154455
000110 82 c4 ea 3d 16 b5 95 be f5 1a cd be d3 c0 9b 3e
       0.11463262 -0.2923972 -0.4005963 0.3042055
000120 02 80 61 3e 71 48 ee be 02 d3 9b be 76 52 61 be
       0.22021487 -0.46539643 -0.30434424 -0.22004113
000130 00 3b 2d bd 94 ea 1e be 96 4a ef be c6 08 ca be
       -0.042292595 -0.15519172 -0.46736592 -0.3945982
000140 dc 4d a5 3d 30 21 e5 bd a5 d9 99 3d 20 1c b2 3d
       0.08071491 -0.11187971 0.075122155 0.08696771
000150 dd cd 2e bd 88 40 b3 3b a8 fe 10 3e c8 0f 8f be
       -0.042676795 0.005470339 0.14159644 -0.27941728
000160 0a b2 a2 3e f2 7f e8 3e 94 8c 84 3e 91 3c 23 be
       0.31776458 0.45410115 0.25888503 -0.15941073
000170 b9 dd 15 3f fa 83 dc bd 63 e1 9a 3e f8 77 2c bf
       0.58541447 -0.1076736 0.3025008 -0.6737056
000180 7f 99 db bb 81 04 c7 3c 7a aa fe 3d 02 cd cf be
       -0.006701648 0.02429414 0.124348596 -0.40586096
000190 34 9e 65 3c e2 fc 10 3f 94 78 47 3e 84 2f a7 3d
       0.014014769 0.5663587 0.1947959 0.0816336
0001a0 5e 98 2a be 98 a7 7e 3d de 26 c8 3e 43 b7 57 bd
       -0.16659686 0.06217155 0.39092153 -0.052665006
0001b0 c9 9b b7 be 5b 0a 1f be fb 21 4c 3e 00 60 01 3f
       -0.35861042 -0.15531294 0.19934838 0.5053711
0001c0 f5 01 55 be 09 17 2b be fa ab 0c 3f 5f b6 b0 bd
       -0.20801528 -0.16708006 0.54949915 -0.086285345
0001d0 12 d5 78 be 36 80 ef 3e 4a 13 21 be 4e fe 6b 3f
       -0.2430003 0.46777505 -0.15730014 0.92184913
0001e0 69 98 7d 3f c7 50 65 3e ad 66 b2 3d 72 87 20 be
       0.99060684 0.22394095 0.0871099 -0.15676668
0001f0 cf 74 78 3e a0 fc 02 bf ce 8e 5a be ff 69 8d be
       0.24263309 -0.51166725 -0.21343538 -0.2761993
000200 84 13 54 3b e5 91 6a bd 02 72 07 3d e7 88 63 3e
       0.0032360265 -0.057268042 0.03306771 0.22220193
000210 18 76 cc bb b8 ec ad bc 11 a3 57 3e 25 df 6a bd
       -0.006239664 -0.02123104 0.21058299 -0.057341713
000220 8b ed d4 3c 43 db 96 bb 0e 53 33 3e 1c 7a 81 bd
       0.025992176 -0.0046037748 0.17512152 -0.06322119
000230 9b 3e 82 bd bf 9e ff bc 58 f4 b0 bd 37 33 11 bc
       -0.06359597 -0.031203626 -0.08640355 -0.008862308
000240 61 21 51 3e 09 6a 12 be b4 45 65 be 21 86 bd be
       0.2042289 -0.14298262 -0.22389871 -0.37016395
000250 32 63 aa bd 1b 6d 54 be fd f0 a2 be ba fa fd be
       -0.08319701 -0.20744745 -0.31824484 -0.49605352
000260 15 5d 94 bb 5e aa 06 3f 5d ce 2e be 27 c9 00 3e
       -0.004527698 0.5260371 -0.17070909 0.12576734
000270 be b8 ab 3e d1 86 41 3e d2 7f ef 3d 97 87 87 be
       0.33539385 0.18899085 0.11694302 -0.26470634
000280 d1 16 09 3e c3 16 41 be a9 31 6b bd ee 73 8e be
       0.1338761 -0.18856339 -0.057420406 -0.27822822
000290 3a cf 54 be 8b 0a 7c bd 45 b0 ae be 93 15 7d 3e
       -0.20782176 -0.061533492 -0.34118858 0.24715261
0002a0 c0 43 02 3d 03 10 b8 3e 46 89 36 be ee 62 95 3e
       0.031802893 0.35949716 -0.17825803 0.2917704
0002b0 da 57 08 bd ca 18 08 3e a5 07 86 3e b1 5e 11 be
       -0.033286907 0.13290706 0.26177707 -0.14196278
0002c0 b2 f0 7a bd d1 81 cc 3e ec 7d cf 3d 92 50 10 be
       -0.0612647 0.39942792 0.101314396 -0.14093235
0002d0 f9 5c 82 3c 56 78 0c 3f a5 bb 4e 3e 90 8e 76 3d
       0.015913473 0.5487112 0.20188768 0.060194552
0002e0 a3 29 8a be 83 94 bb bc 9f c3 a4 3e 43 6d a2 3d
       -0.2698489 -0.022897964 0.32180497 0.07930996
0002f0 bb 4f ae be a8 1e e9 bd f7 34 93 3d b6 e7 e5 3e
       -0.34045205 -0.113828 0.071878366 0.44903344
000300 48 81 b8 bd 2a 53 4d 3e 79 50 63 bd ff 37 59 bd
       -0.090090334 0.20051256 -0.055496667 -0.053031918
000310 22 05 1a 3e bd a3 2d be 51 07 93 bd b3 08 66 3e
       0.1504102 -0.16956992 -0.0717913 0.22464256
000320 ca ac 85 be 42 05 22 bf 7c 14 b6 be b9 2b 2a bd
       -0.2610839 -0.6328927 -0.35562503 -0.041545603
000330 b0 22 72 3d 01 15 91 3d ae 95 5e be 86 03 b7 3e
       0.05911511 0.07084084 -0.21736786 0.35744876
000340 6e 1e 05 3d 76 24 cb bc 3f 8b 7c bd 16 3f 3b 3e
       0.032499723 -0.02479766 -0.061656233 0.18285784
000350 7b 3a 5a 3d 26 63 6d bd 57 96 59 3e 4b 53 d9 bd
       0.053278428 -0.057955883 0.21248756 -0.1061159
000360 c5 7c 46 be e5 7e 25 be c1 00 e3 3d cd b2 b5 3a
       -0.19383533 -0.16161688 0.11084128 0.0013862491
000370 b8 d4 81 be 8e 1c 81 3d 8a 51 17 be 41 6b 51 3e
       -0.25357604 0.063042745 -0.14777198 0.2045107
000380 94 0a bf be 84 a0 03 3f c5 f0 24 3e 8a 3f 86 be
       -0.37312758 0.514168 0.16107471 -0.2622035
000390 65 35 80 3e c4 2d 24 3f 72 c9 7a 3e 60 7a 05 be
       0.25040737 0.6413233 0.24490908 -0.13034964
0003a0 08 6d be be c1 a5 ee 3c 6b 5c 94 be 40 97 ac 3e
       -0.3719256 0.029131772 -0.2897676 0.33709145
0003b0 e1 b9 14 3f 6d bd f7 bd 42 fb 19 3f c9 ec ee be
       0.5809613 -0.12096677 0.60149014 -0.46665028
0003c0 62 3c 1f 3d 3a f9 13 3d 3e b1 0b be 11 ba 69 3e
       0.038875945 0.036126353 -0.13641831 0.22824885
0003d0 6b 2e 99 3b b9 bb 94 be a0 81 44 3d 42 39 b2 be
       0.004674723 -0.2904947 0.047975183 -0.3480931
0003e0 f5 f7 e6 3d 1d 58 83 3e 7b e4 bb bc 74 44 8a bd
       0.11277763 0.25653163 -0.022936096 -0.06751338
0003f0 87 70 02 3f f3 d6 f5 3d ff e4 4b 3e e8 18 c4 be
       0.50952953 0.12003889 0.19911574 -0.38300252

_orig_mod.embeddings.day_of_week.embedding.weight f4 [10, 8]
000000 6c 40 61 3c 7b 24 9e 3d 7b e4 de bb 2d f8 b6 3d
       0.0137482695 0.07721802 -0.0068021393 0.089340545
000010 d7 7a c9 b8 8f 1d 53 be 64 88 17 ba 5c 82 0c bf
       -9.6073076e-05 -0.20616744 -0.00057805167 -0.5488641
000020 db 78 8e 3a e1 fe a8 3c 21 4f a3 bb d8 ea d6 bc
       0.0010869758 0.020629348 -0.004983798 -0.02623503
000030 f1 83 42 ba b4 64 da 3e 7f dd 0d ba 2f d7 1d 3d
       -0.00074201735 0.42654955 -0.00054117286 0.038535293
000040 2d c7 6c bc 7b b6 9a 3b 71 f5 34 bc b2 1a 0e bd
       -0.014451784 0.0047214604 -0.011044846 -0.034693427
000050 69 8f ed b9 21 21 56 be 68 0e 9d bb d6 34 33 3e
       -0.00045311011 -0.20911075 -0.004792977 0.17500624
000060 43 38 cf bd 76 53 53 bd b3 b4 c9 3c 40 8b 1c be
       -0.10118153 -0.051593266 0.024622297 -0.15287495
000070 5b 2d 68 3b c3 24 82 be fd d1 45 3c 68 d5 13 3e
       0.0035427425 -0.25418672 0.012073991 0.14436877
000080 74 c0 a5 bc 75 9c a8 bd 78 ec 26 3b 8c 3a 98 bd
       -0.02023337 -0.08232967 0.0025470536 -0.07433042
000090 4c 8d 86 39 2b 7a 20 be bd 52 70 bb 69 28 8b 3c
       0.00025663746 -0.15671603 -0.003667041 0.016987043
0000a0 9e 65 10 3c b6 1d b3 bd 61 e7 45 bc 3e d2 8d bc
       0.00881329 -0.08745901 -0.012079091 -0.017312165
0000b0 b9 60 c6 ba 49 87 8d be 20 59 91 bb ca c5 72 3d
       -0.0015135027 -0.27642277 -0.0044356734 0.059270658
0000c0 13 03 52 3d 78 68 7a 3d 32 57 f1 ba 07 ad b3 3d
       0.051272463 0.061134785 -0.0018412827 0.08773237
0000d0 88 70 a5 ba ea bd f6 bd da 43 eb ba b9 20 c9 be
       -0.0012622038 -0.12047942 -0.0017949298 -0.39282778
0000e0 bc 95 05 80 c4 b7 06 80 30 67 05 80 20 67 05 00
       -5.12892e-40 -6.16936e-40 -4.96194e-40 4.96172e-40
0000f0 a6 6a 05 00 0b 5c 05 00 e8 12 06 00 de 71 05 00
       4.97436e-40 4.92196e-40 5.57795e-40 5.00025e-40
000100 03 eb 05 00 86 75 05 00 f9 63 05 80 7e 63 05 80
       5.43484e-40 5.01337e-40 -4.95041e-40 -4.94869e-40
000110 96 57 05 80 55 57 05 80 c8 5d 05 00 8a 5e 05 80
       -4.90597e-40 -4.90506e-40 4.9282e-40 -4.93092e-40
000120 1a 58 05 80 34 6f 05 80 99 73 05 80 44 61 05 80
       -4.90782e-40 -4.9907e-40 -5.00646e-40 -4.9407e-40
000130 c1 5d 05 00 9f 64 05 80 69 67 05 00 78 63 05 00
       4.9281e-40 -4.95274e-40 4.96274e-40 4.9486e-40

_orig_mod.embeddings.hour.embedding.weight f4 [30, 16]
000000 63 c5 91 be fd 96 cf 3c 21 96 7b 3c ed c7 a9 3d
       -0.28470907 0.025340552 0.015355618 0.08290086
000010 f9 c7 b7 bc 24 60 d8 bd cb a8 b2 bc ac 4b 5e 3e
       -0.022434222 -0.10565212 -0.021809002 0.21708554
000020 fe d2 89 3b b1 8a 37 3e 8b a7 1d be a2 ec 93 3e
       0.0042060604 0.17924 -0.15395944 0.28891474
000030 e3 25 8d 3c 61 a3 c5 bc bc c1 60 be d2 97 21 3e
       0.01722998 -0.024125757 -0.21948904 0.15780571
000040 f1 95 8b be 5f 3b 97 bd 04 6f 3f bb 1a b0 20 bd
       -0.27262834 -0.07384371 -0.0029210458 -0.039230444
000050 d4 73 20 bc 84 08 97 bd f4 f8 07 bc 6e a3 d2 3d
       -0.009793241 -0.07374671 -0.008299101 0.10285078
000060 9a fe 03 bc c4 a2 88 3d 37 37 85 bd 78 b9 25 3d
       -0.008056307 0.0667167 -0.06504672 0.04046008
000070 58 ae 1c 3b 14 9d b3 3c 9a 10 34 be c0 8d dd 3c
       0.0023907628 0.021925487 -0.17584458 0.02704513
000080 40 10 b8 be d4 a1 fb bd 68 3e 3a bc 73 34 66 bd
       -0.35949898 -0.12286726 -0.011367418 -0.056202363
000090 6c d1 c6 bc 35 bc de bd 13 d7 96 bc b4 5e 16 3e
       -0.024269782 -0.108757414 -0.018413102 0.14684564
0000a0 97 e3 b3 bc 1a c7 c6 3d 7d ab c9 bd 8b c7 84 3d
       -0.02195911 0.09705944 -0.09847162 0.06483372
0000b0 46 3a d2 3b d7 1c 3e 3d 05 d9 7b be 2d d5 09 3d
       0.006415638 0.046414223 -0.24594505 0.033650566
0000c0 67 49 91 be 1e 49 d8 bd 34 81 92 3b f1 92 5e bd
       -0.28376314 -0.10560821 0.0044709686 -0.054339353
0000d0 0f af 9c bc ee 11 93 bd 20 9a 83 bc 14 74 ae 3d
       -0.019126443 -0.07181154 -0.016064703 0.08518234
0000e0 e0 0b 9d bb 4c b6 53 3d cc 5e 5c bd 9c b2 62 3c
       -0.0047926754 0.051687524 -0.053801343 0.013836529
0000f0 a3 0d 24 3c 52 6d 6f 38 20 41 35 be 5b 14 e3 3b
       0.010013017 5.7083853e-05 -0.17700624 0.006929917
000100 38 f1 40 be 02 e0 48 bd 91 19 15 bb f4 e9 34 bc
       -0.18842018 -0.049041755 -0.0022750834 -0.011042107
000110 2b e2 fc bb 66 15 5b bd db 0a d3 bb a8 a9 b0 3d
       -0.007717391 -0.053487204 -0.006440503 0.08626109
000120 06 f7 10 bc cc ea 83 3d 89 f2 70 bd b9 1a 84 3d
       -0.0088479575 0.06441268 -0.05882505 0.064504094
000130 77 9d 44 3b 0e 0f 06 3c 84 74 08 be de 85 14 3d
       0.0030001083 0.0081823 -0.13325697 0.03626048
000140 f9 c2 84 be 81 cc e4 bb bf 6b 41 bc ec e4 01 3d
       -0.25930002 -0.0069823866 -0.011805474 0.031712458
000150 b4 25 5a 3c 75 5f 9f bd d7 fb 33 3c dc 13 1d 3e
       0.013314653 -0.07781879 0.010985336 0.15339607
000160 16 51 5e 3b 6e 60 f6 3d db 09 dd bd 7b 49 21 3e
       0.0033922843 0.12030111 -0.107928954 0.15750687
000170 e5 ff 0b b9 28 e8 27 bb 59 20 44 be f5 bd c3 3d
       -0.00013351401 -0.0025620554 -0.19152965 0.09557716
000180 2e 29 33 be 8d fa 08 3c 50 88 98 3c 61 6a 2d 3d
       -0.17496178 0.008360517 0.018619686 0.04233778
000190 45 48 7d bc 1e 6a 9c bd 3c 24 84 bc 36 dd 13 3e
       -0.015459125 -0.07637428 -0.01613056 0.14439854
0001a0 8e 96 0a 3c da 2f f3 3d 03 4b cd bd 35 a9 46 3e
       0.008458747 0.11874361 -0.10024073 0.19400485
0001b0 20 84 a2 3c 0e 36 f1 bc 14 fc 19 be 95 5f c1 3d
       0.019838393 -0.02944472 -0.15037566 0.09442059
0001c0 a2 60 bf 3c 24 ec 0c 3e 44 c7 fa 3c 5d ac f7 3d
       0.023361508 0.13761955 0.030612595 0.120934226
0001d0 c5 0d 99 bc 64 2d e7 bc 2e c0 b4 bc 35 de bf 3d
       -0.018683324 -0.028219886 -0.022064295 0.093685545
0001e0 01 8d 6d 3c 26 f6 aa 3d 1b c6 8f bd a6 0a 4a 3e
       0.01449895 0.0834773 -0.070202075 0.19730625
0001f0 3a 0d aa 3c 71 fd 07 bd b8 f5 da bc 11 00 dc 3d
       0.02075826 -0.033200685 -0.026728496 0.107422
000200 6e e7 ed 3d 6e 34 ae 3d 7c 7a 1f bd 87 55 cc 3d
       0.11616407 0.08506094 -0.03893517 0.099772505
000210 95 45 5f 3d ae 90 6e 3d 9b 63 5c 3d 07 1c 83 bc
       0.054509718 0.058243446 0.05380593 -0.016004575
000220 1d 38 87 bc 6a 5a 88 3a bc d2 06 3c b1 93 59 3d
       -0.01650625 0.0010402922 0.008228954 0.053119365
000230 64 63 14 bd f8 b7 fd 3c 33 9e fd 3d 6b 7c 0d 3d
       -0.0362276 0.030971512 0.1238369 0.034542482
000240 77 ca 5c 3e bd 9d 15 3e 90 26 b2 ba 4c 39 ac 3d
       0.21561609 0.14610954 -0.0013591815 0.08409366
000250 3e e8 44 39 47 56 95 3b 06 c7 db 3a 58 01 99 bb
       0.00018778534 0.004557404 0.0016767688 -0.0046693496
000260 09 57 2e bc ac d9 11 3a e2 27 3e 3a 39 f4 af 3d
       -0.010640868 0.00055637467 0.0007253868 0.08591504
000270 39 53 0f bc 4b bd 81 3c c8 31 c8 3d 89 b6 2a 3d
       -0.008747869 0.015837332 0.0977512 0.041677985
000280 4a a0 95 3e 3e 55 44 3e 53 5b 8c bc da 76 af 3d
       0.29223853 0.19173142 -0.01713339 0.08567591
000290 fc a0 dd 3b 91 e3 01 bb be 47 0e 3c 02 26 29 bc
       0.0067635756 -0.0019819478 0.008684097 -0.010324003
0002a0 de bb 6a bb 2e 39 31 ba 75 16 7a 3b d6 4b ea 3d
       -0.0035817544 -0.00067605346 0.0038160358 0.11440246
0002b0 e0 dc 3f bc 1b 75 2f ba fc 1d fb 3d 9b 28 27 3d
       -0.011710376 -0.000669317 0.122615784 0.04081021
0002c0 94 92 68 3e 8a 62 31 3d 55 c1 12 3b 8c e9 9c 3c
       0.22712165 0.043306865 0.0022393067 0.019154333
0002d0 da 22 38 3b c6 f8 9a 3d c1 d8 c3 3a 6d 53 a1 bd
       0.0028096945 0.07566981 0.0014941917 -0.0787724
0002e0 90 5c 64 3a 46 18 4a bd 39 59 7c 3d c0 a6 a8 3a
       0.00087113027 -0.049339555 0.061608527 0.0012867078
0002f0 7a 96 05 bb dc 01 51 3c d2 d2 eb 3d ae 15 b9 bc
       -0.002038388 0.012756791 0.1151482 -0.022593345
000300 d8 e0 75 3e 15 a4 a9 3d 56 53 04 bc fc 4d 5e 3d
       0.24011552 0.08283249 -0.008076509 0.05427359
000310 e6 c7 88 3c 41 0a 73 3d f0 e3 65 3c bb ab 92 bd
       0.016696882 0.05933595 0.014031395 -0.07161661
000320 ca eb db 3b 64 86 2d bd 20 06 21 3d f1 c7 6c bc
       0.006711458 -0.042364493 0.039312482 -0.014451967
000330 4b ba ab bb ad 72 9a ba d8 21 1e 3e 7d 9c 86 bb
       -0.0052407137 -0.0011783444 0.15442598 -0.0041080103
000340 c5 4d 26 3e a1 7c 78 bd aa e9 3d bc 43 05 87 3c
       0.16240604 -0.06066573 -0.011591354 0.016482001
000350 a4 78 e4 3c eb 07 d4 3d 83 33 d4 3c d6 a3 a6 bd
       0.027889557 0.10353073 0.025903469 -0.08136718
000360 7d 45 d4 3b f3 75 08 bd 7b 8f 5e 3d f0 d6 5e bd
       0.00647801 -0.03331561 0.054336052 -0.0544042
000370 a4 2f 99 bc 0f b8 7d b9 b5 1f 8e 3d 4f df a0 bc
       -0.018699475 -0.00024196527 0.069396414 -0.019637732
000380 c1 05 16 3e 43 a1 0c bd 6f cd 04 3a 4f 6a 08 bd
       0.14650632 -0.03433348 0.00050660124 -0.03330451
000390 7c 3b 7a 3c 55 da 90 3d 63 2c 44 3c 5a 22 e3 bd
       0.015272971 0.070728935 0.011973473 -0.110905364
0003a0 89 45 03 3c 92 cb a1 bd 72 46 a3 3d 76 1e 07 be
       0.008012184 -0.07900156 0.07972421 -0.13195214
0003b0 d4 f2 c8 b9 62 8f 8b bc 88 d2 ca 3d 00 8a 85 bd
       -0.00038327894 -0.017036144 0.09903437 -0.06520462
0003c0 b8 e2 f4 3d 65 bd 4e bd ec ae ce 3a da 81 4b bd
       0.11957306 -0.05047359 0.0015768684 -0.049684383
0003d0 2c 14 03 bc 51 b4 38 3d c5 58 ee bb 6f b5 d1 bd
       -0.008000415 0.045093838 -0.0072737657 -0.10239684
0003e0 54 b1 92 ba 84 e2 a1 bd 07 f3 89 3d f7 d1 16 be
       -0.0011191764 -0.079045326 0.06735807 -0.14728533
0003f0 35 ef b0 3a c4 7c 08 3c 71 26 c9 3d 55 d4 96 bd
       0.0013499024 0.008330528 0.09821785 -0.07364718

_orig_mod.dense_proj.weight f4 [64, 113]
000000 bf 77 19 bd 0e 21 77 3d 09 a4 c6 3e e9 5d e2 bd
       -0.037467714 0.060334258 0.38797024 -0.11053068
000010 86 9b b6 3d fa b9 07 be 24 62 81 be a9 9a c9 bd
       0.089163825 -0.13254538 -0.25270188 -0.09843952
000020 bd 67 3c bc 2d f7 b9 3c 3c cb 54 bb 5a 59 34 3d
       -0.0114993425 0.02270087 -0.003246977 0.044030525
000030 86 f8 c7 3d 27 0e 2f be cc 3a 2b 3e dd cc 2c 3d
       0.09764199 -0.17095242 0.16721648 0.04218756
000040 12 be 46 bd 13 a8 0c 3d 84 35 3c bc 43 c7 58 3d
       -0.04852111 0.034339976 -0.0114873685 0.052924406
000050 da 9a 04 3d 6b 93 7e 3d fb dd 16 3d bf 98 dd 3c
       0.03237424 0.062152307 0.03683279 0.027050374
000060 5d 30 17 3d 20 36 a7 bc 36 8a c8 3c 39 27 66 bc
       0.036911357 -0.020411551 0.024479967 -0.014047437
000070 9a 6c 40 3d 50 c2 9e bc 6c 3c f6 3d 32 b8 9b bc
       0.04697857 -0.019379765 0.12023243 -0.01900873
000080 4b a0 89 bc 45 6f 91 3d 5b 8b ea bc 3b 8c 4c 3d
       -0.016800066 0.07101301 -0.028630903 0.04993842
000090 82 c5 48 3d 73 f0 b4 bd d3 56 40 3d 7f 53 0d be
       0.049016483 -0.088349245 0.046957802 -0.13801382
0000a0 2e 40 15 bd fc bd 44 be 30 01 06 3e c7 4a 80 bd
       -0.03643816 -0.19213098 0.1308639 -0.06264263
0000b0 ea 61 6a bd e5 2e 21 bc 70 fb 57 bc 1f 30 b4 bd
       -0.057222284 -0.009837841 -0.013182506 -0.08798241
0000c0 87 b6 b8 bd 8f 59 5e bd c5 e9 1d be dc 11 08 be
       -0.09019189 -0.05428463 -0.15421207 -0.13288063
0000d0 b8 ee cd bc 9f d7 fa bc 34 c2 d6 3b ec be ea 3d
       -0.025138244 -0.030620394 0.0065539125 0.11462197
0000e0 81 f2 96 be a7 b0 00 3e 8a cf 98 bd 52 c0 b7 bc
       -0.2948189 0.12567388 -0.0746146 -0.022430573
0000f0 c6 dc 0f 3d 9e e9 9c bc 5c e0 44 bd e6 bc c2 bc
       0.035122655 -0.019154366 -0.04806553 -0.023771714
000100 84 c4 7d bc f9 82 87 3c d9 70 51 3d 8c 71 cb bc
       -0.0154887475 0.016541945 0.05113301 -0.024834417
000110 7e b5 27 bd 84 e4 d9 bb 15 9f 0a bd 65 96 17 bd
       -0.04094457 -0.0066495556 -0.03384312 -0.03700866
000120 c5 d4 45 3b 53 8d d1 bc f3 e2 7c bc 5e 54 4e bb
       0.0030186635 -0.025580084 -0.015434968 -0.0031483392
000130 c9 e7 e5 bc 78 fe c2 bb 16 e1 35 bd 7f ce 9f 3d
       -0.028064625 -0.005950745 -0.04440411 0.07803058
000140 30 b0 06 be a1 7e 29 3d 05 e3 3e 3d 3e 1d 57 3d
       -0.13153148 0.04138053 0.04660322 0.052518122
000150 d2 20 1b 3d 31 bc 2b be cf 86 14 bd 91 b0 b2 bc
       0.037873097 -0.16771008 -0.036261376 -0.021812709
000160 fd 52 31 bd 3f f2 ba bc d5 85 ec bc 8b 5d 4e bd
       -0.043292034 -0.02282059 -0.02887241 -0.05038218
000170 6b ff 74 3c 16 35 43 bd 24 da 57 bc 7d 86 de bc
       0.0149534745 -0.04765805 -0.013174567 -0.027163738
000180 9b 3d 1d bd 1a 6f fc bc 7d d5 2c bd 69 db bb bc
       -0.03838883 -0.030814696 -0.042195786 -0.022931771
000190 c6 56 f5 bc fe 24 0c bd 3c ba 82 bd 28 72 ee bc
       -0.029948603 -0.034214966 -0.06383178 -0.029107168
0001a0 56 28 f3 bc 8b f0 12 bd f2 c8 1e bd 50 66 d5 bc
       -0.02968232 -0.03587393 -0.038765855 -0.026049763
0001b0 e8 00 13 bd 97 02 13 bd e3 d9 ab bc 54 72 17 bd
       -0.035889536 -0.03589114 -0.02097792 -0.036974266
0001c0 67 0a 2e 3e 04 d6 b1 3c 35 46 30 bd 88 d1 2e 3d
       0.16996156 0.021708496 -0.043035705 0.042680293
0001d0 d3 00 72 bd 0a b1 e9 bd 18 26 e8 bb 03 44 fa 3d
       -0.059082817 -0.11410721 -0.0070846193 0.122200035
0001e0 ca e5 32 bd 01 a2 01 bd 1f 57 e6 bd 58 4e af 3b
       -0.043676175 -0.03164864 -0.11247086 0.0053499155
0001f0 31 d1 dd bd 25 51 e5 bc 8b 51 d0 3d 40 80 8a bd
       -0.10830916 -0.027992794 0.10171803 -0.06762743
000200 2c 8a 41 bd 68 68 5e 3d 28 31 e7 bd 99 80 56 bd
       -0.04725091 0.05429879 -0.11288673 -0.052368734
000210 3e ca 8f bb 03 5f db bc a5 74 82 bc 17 b8 d5 bc
       -0.004388123 -0.026778704 -0.015924761 -0.026088757
000220 b5 11 e4 bc 78 7a 28 bd ae 8c 85 3b f7 44 df bc
       -0.027840475 -0.04113242 0.004075608 -0.027254565
000230 ef 68 77 3d 49 55 a8 3c 14 07 c8 bb e1 6f 33 be
       0.060402807 0.02054848 -0.0061043594 -0.17523147
000240 73 24 77 bb 6f fe 57 3d af 53 d2 3c 1f 6e d6 bc
       -0.0037710934 0.05273288 0.02567467 -0.026175557
000250 88 38 f4 bc 15 18 da bb 6d 9f c8 3d cd ed 39 3e
       -0.029812112 -0.006655703 0.09796033 0.1815712
000260 06 64 6d 3d 21 a3 16 bc ae 1e f0 3c 47 33 65 bd
       0.057956718 -0.009194166 0.029311504 -0.055957105
000270 bb ff 0a 3d 31 b6 37 3c 2e 82 59 3d 3a fe 40 ba
       0.03393529 0.011212871 0.053102665 -0.00073621015
000280 79 9f 74 3d e5 ef a1 bc f3 4c 14 3d 11 44 e4 3c
       0.059722397 -0.019767711 0.036206197 0.027864488
000290 62 53 28 3e 5d d5 c4 b8 6e ba 60 bd a2 ae 5c 3c
       0.16438058 -9.38575e-05 -0.054865293 0.01346937
0002a0 b9 5f 33 bd db 68 07 3e 53 fc 16 be a8 df 4c 3b
       -0.04379246 0.13223593 -0.14744692 0.003126124
0002b0 23 20 a9 bc dd 0a b2 bc b3 45 0a bd 28 e0 49 bd
       -0.020645207 -0.021733696 -0.033757877 -0.049286038
0002c0 00 93 55 3c 2e ed b9 3c 60 7a 92 bc ec 6b 25 bd
       0.013035536 0.022696104 -0.017880619 -0.040386125
0002d0 c1 9c a7 3c 14 d0 b3 3c cf 1e ea 3b 2e 5b d8 3b
       0.020460488 0.021949805 0.007144786 0.0066026663
0002e0 88 79 b4 bd db af 16 3c d1 14 5b bc 24 48 8d 3c
       -0.08812243 0.009197201 -0.013371662 0.017246313
0002f0 8b 0a 39 3d 3c a7 2d 3e a7 9c 4d 3d 5e 8a 8c 3d
       0.04517607 0.16958326 0.050198223 0.06862329
000300 81 c3 45 3d 31 b6 d1 3d 25 68 60 bc 9f c2 85 bd
       0.04828215 0.102398284 -0.013696705 -0.06531262
000310 b6 42 b1 39 23 bb c7 3c c0 79 98 bc 01 e2 9a 3b
       0.00033809774 0.024381226 -0.018612742 0.004726649
000320 e4 63 a9 bb 06 63 26 bc 5e 35 6c 3b ca 48 84 bc
       -0.0051693786 -0.010155445 0.0036042552 -0.01614799
000330 7b 66 14 3c 85 3c b6 bc 98 42 82 3b 5e d5 af 3b
       0.009057636 -0.022245655 0.0039752237 0.0053660115
000340 c4 2e 54 bb c5 c1 52 bc 76 79 95 3c c1 09 33 3c
       -0.0032376507 -0.012863581 0.018246394 0.0109276185
000350 f2 e7 84 3c 87 f9 02 3c 9b 90 a8 3b 3c 40 48 3d
       0.016223881 0.007994062 0.0051441914 0.048889384
000360 7a 4b 57 bc 34 d8 08 3c a7 7e 3f bb 21 ad 3f 3b
       -0.013140554 0.008352328 -0.0029219778 0.002924748
000370 56 05 55 bc 05 41 7d bc 9f 55 fa 3b 84 2a 30 bc
       -0.0130017605 -0.015457396 0.0076396014 -0.010752324
000380 b4 94 b5 bb 01 25 88 3d e6 93 c7 3c f2 f8 18 bb
       -0.0055414084 0.06647683 0.024362516 -0.0023341742
000390 bd 85 96 bc 0e fb 85 3c bc e0 3b bd dc 5d 42 bc
       -0.018374318 0.016355064 -0.04586862 -0.011863198
0003a0 f6 cb ff 3b 87 32 ba bc e7 3b 95 bc 1e 51 be 39
       0.0078062965 -0.022729171 -0.01821704 0.0003630006
0003b0 1c 14 ee bc e7 6c dd bc 2c 59 d7 3c 57 ee c2 3c
       -0.029062323 -0.027029468 0.026287638 0.02379529
0003c0 ec 8b 84 3c cc f1 32 bc e7 69 cc 3a 4e b9 2e 3a
       0.016180001 -0.010921907 0.0015595526 0.0006665186
0003d0 22 ba 26 bc 39 9b 6b 3c 49 0e 9c 3c 6c 8b bc bc
       -0.010176213 0.01438027 0.01904978 -0.0230157
0003e0 d8 f0 83 3c 57 5f 9a 3c 4a 6e 4e 3c ae a8 19 bd
       0.016106054 0.01884429 0.012599537 -0.03751438
0003f0 14 3a 27 bc 8f 97 8a bc b9 f2 de 3c ef d5 94 3b
       -0.010206718 -0.016917972 0.027215349 0.0045421044

_orig_mod.dense_proj.bias f4 [64]
000000 2b 6a ba bd d5 97 30 3b 31 71 b6 3b 13 09 b6 3c
       -0.09102281 0.0026945968 0.0055676927 0.022221124
000010 22 8f 59 bc dc 2e e1 bb c8 d5 61 3c 6e e5 d7 bc
       -0.013278754 -0.006872041 0.01378388 -0.026354518
000020 e3 7d f7 bb f5 b8 72 bc 5d 93 04 3c fe bd 28 3b
       -0.0075528487 -0.014814605 0.008091775 0.002574801
000030 0b 5e cd bb 17 1c 55 3d df f2 28 be 2b 0f af 3c
       -0.0062673143 0.05202874 -0.16498898 0.021369537
000040 6c ab 01 be 51 6b 45 3d b6 78 4e be 27 ef 16 3e
       -0.12663049 0.048198048 -0.20163235 0.14739667
000050 d1 0e 5b 3e e1 b4 c9 bb 9a e7 47 3c d5 b6 e2 bb
       0.21392371 -0.0061555956 0.012201214 -0.006918768
000060 b3 7b 79 b9 69 71 cf bb be b8 4a 3c b4 16 f5 3d
       -0.00023792572 -0.006330658 0.0123731475 0.11967221
000070 7d 86 a4 ba 86 3a 62 3d c9 5e fd 3d e2 fe ae bd
       -0.0012552288 0.055231594 0.123715945 -0.08544709
000080 e9 ec 90 bb 8e 0b 3f 3c 5f be 5b bc ec cf 09 3e
       -0.004422773 0.01166047 -0.013412087 0.13458222
000090 cc 5e ce 3d 14 af 45 bd fc fd 9a 3d c9 9b f7 3d
       0.10076675 -0.04826267 0.07567975 0.120902605
0000a0 5d 0d dc 3c 31 d9 a5 3d 18 6a c6 39 64 4e 08 3d
       0.02686184 0.080980666 0.0003784455 0.033277884
0000b0 ab fe 83 3c bf 6f dd bb 19 6c 09 3e d3 ce e0 3a
       0.016112646 -0.006757706 0.13420142 0.0017151482
0000c0 ba 67 4d bc 62 90 7c bb da 00 71 3c d1 a8 67 bd
       -0.012536937 -0.0038538207 0.014709676 -0.05655748
0000d0 eb 15 86 bc 0a 2f 8b 3b 4b 52 dd bc cc 37 ad bc
       -0.016367873 0.004247551 -0.02701678 -0.02114477
0000e0 28 95 7d 3d 87 3c 66 3c 0d 5a 0c 3c 4f b1 6a bc
       0.061909825 0.014052517 0.008566392 -0.0143245
0000f0 6a c6 24 3e 53 bc 17 3b 16 c7 c7 3c 23 d2 14 bb
       0.16091314 0.0023153021 0.024386924 -0.002270826

_orig_mod.shared_mlp.0.weight f4 [128, 120]
000000 c6 22 a0 bd a2 22 27 b4 60 e7 a8 3c 69 92 90 3b
       -0.078191325 -1.5565686e-07 0.02061814 0.0044119847
000010 aa a9 97 bc ee d9 1d ba 9a 2f b2 bd 61 b7 52 bd
       -0.01851352 -0.0006021549 -0.087004855 -0.051444415
000020 b4 64 17 3b 8d 13 0e bb 0b 08 f9 bb 67 3c b3 bb
       0.0023100795 -0.0021679134 -0.0075998357 -0.005469847
000030 d0 19 81 3b b4 fa 8a 3b 87 b7 b5 3c ba 69 62 bb
       0.0039398447 0.004241312 0.02218224 -0.0034547881
000040 cb ef a4 ba 9f 5f 11 bb 53 eb 2b 3b c9 8d e4 3c
       -0.0012583671 -0.0022182239 0.0026232793 0.02789964
000050 89 ee f6 bb 16 3f 0f bc a7 2c 8c 3c fc 75 4d bc
       -0.00753576 -0.008743068 0.017111136 -0.012540337
000060 70 5d a9 3b 82 fb 8c 3c 7c 62 54 3c 45 b8 ad 3b
       0.0051686093 0.017209772 0.012962934 0.0053015077
000070 3d 1b e9 bb 9b e2 66 3a d3 71 88 bb 9f e3 b7 3b
       -0.0071138428 0.00088075706 -0.0041639595 0.0056118513
000080 2f c1 94 bb 85 64 00 3a 66 a5 91 3a 1b a4 40 bb
       -0.004539631 0.0004897791 0.0011111915 -0.002939469
000090 ee cf 41 39 5b 46 f1 bb 5b 6a 36 3a f3 7a 1c bb
       0.00018483374 -0.0073631234 0.0006958597 -0.0023876994
0000a0 6c b6 bf 3c 2c 34 14 3c 53 4d 0d bb 18 2f a3 3b
       0.023402415 0.009045642 -0.0021560981 0.0049799792
0000b0 c8 a6 22 3b 0f d7 20 3c 4f 4a df 3a 32 47 2c bc
       0.0024818648 0.009816899 0.0017035695 -0.010515021
0000c0 35 60 6d b9 75 c4 01 bc 64 ea 12 3c 0a 5f 00 3b
       -0.00022637921 -0.007920374 0.008967016 0.0019587898
0000d0 84 5c b4 ba d2 4f 64 3b 1b 42 7b 3c a4 86 0b bb
       -0.0013760482 0.0034837616 0.015335585 -0.002128997
0000e0 8f 42 95 bc 61 e2 df 3b bf 56 b1 bb b3 df 6d bb
       -0.018220214 0.0068324064 -0.0054119523 -0.0036296665
0000f0 95 80 2e bc a5 6e 35 3c 76 58 93 3c 47 ff 01 3a
       -0.0106507735 0.011073743 0.017986517 0.0004958999
000100 6b fa 28 bc fc 4e 78 3c 06 5d 89 3c b5 52 79 3b
       -0.010313611 0.01515555 0.01676799 0.0038043682
000110 3a a7 2a 3b 66 b5 d6 3c bd 6b 1e bc 28 20 a4 bb
       0.0026039616 0.026209544 -0.0096692415 -0.005008716
000120 ad e3 df 3c 18 93 55 3d 20 9f 41 3c 2b 6d b8 3b
       0.027330244 0.052142233 0.0118177235 0.005628248
000130 86 91 b4 bc c7 61 56 bb f5 80 ef bb 05 68 10 bb
       -0.022042047 -0.0032712088 -0.007309074 -0.0022034657
000140 e7 21 81 bb d0 41 74 3c 98 ef 36 3c d6 f8 fc bb
       -0.003940809 0.014908269 0.011165522 -0.0077200932
000150 80 c8 b1 bb 65 22 80 3d fe 22 2e 3c f9 ea b6 3c
       -0.005425513 0.0625656 0.01062846 0.02232884
000160 c4 81 3e bc a6 5f a1 3c 85 ef 9f bc e6 54 16 3c
       -0.011627618 0.019698929 -0.019523392 0.009175515
000170 fb c6 03 bc 1f 0f a2 bd 43 a2 35 3c c8 30 0b 3b
       -0.008043046 -0.0791304 0.0110860495 0.0021238793
000180 a0 ba 34 3c fb 0a 27 bb e8 12 1a 38 de ac 2a bc
       0.011030823 -0.0025488723 3.673407e-05 -0.010417191
000190 fa 80 df bb d1 bc 90 bb ee 43 63 bc 0e c9 64 3c
       -0.006820795 -0.00441704 -0.013871176 0.013963951
0001a0 93 be ba ba 5b 9b 26 39 f7 6f be bb c3 42 4a 3d
       -0.0014247469 0.00015888868 -0.005811687 0.049380075
0001b0 67 22 67 bb a0 c3 f8 3b 17 45 63 3c c0 cb 86 3c
       -0.0035268308 0.0075916797 0.013871453 0.016454577
0001c0 c9 d5 65 3a 86 db a7 bb 1b cf 1b bb 23 63 b3 3b
       0.0008767513 -0.005122605 -0.0023774568 0.0054744645
0001d0 cb 75 c5 3c df e9 18 3b 47 1e 25 3b f5 7e e5 ba
       0.02410402 0.0023332757 0.0025195049 -0.001750915
0001e0 6d 30 07 3d 45 d2 17 34 1c 20 e6 3c 8d a5 da bc
       0.033005167 1.4139466e-07 0.028091483 -0.026690269
0001f0 ab a0 3c bd a7 f7 3a be 97 a3 99 be e6 d3 7d bd
       -0.046051662 -0.18258534 -0.30007622 -0.06196966
000200 9c 3e 08 3d 83 04 12 bc 5e de e9 bd af 5a a8 3d
       0.033262834 -0.0089122085 -0.11419366 0.082204215
000210 8f 84 07 3c 78 bc 76 3c 3d 67 5e 3e 84 b3 9c 3d
       0.0082713505 0.015059583 0.2171907 0.076514274
000220 10 41 20 3e 01 3a 73 bd 0d 3d 8d be 81 e6 75 bd
       0.1564982 -0.05938149 -0.2758564 -0.06003428
000230 45 c1 01 3d 18 d7 ee be 58 e0 79 be 1a de c2 be
       0.031678457 -0.46648479 -0.24401987 -0.38060075
000240 b0 07 fb bd 90 da a5 3d 97 93 72 be 2a 90 b6 3c
       -0.12257326 0.08098328 -0.23689114 0.02228554
000250 a9 55 3e 3e 33 9f 78 3e 65 a0 b2 bc 0f a1 37 be
       0.18587364 0.2427948 -0.021804998 -0.17932533
000260 b5 bf b9 3c ea 4d cd bc 57 f5 97 3b 57 f4 cd 3c
       0.02267442 -0.025061566 0.004637401 0.025140924
000270 1b 44 a7 3a bc 28 e9 bd 0b 42 9d ba 7b 9f ba 3d
       0.0012761386 -0.113847226 -0.0011997832 0.0911245
000280 77 94 07 bf cb cb 6a bc 1a 46 af 3c 71 90 fb bc
       -0.52960914 -0.014330815 0.021395732 -0.030708523
000290 63 ec 83 bd 1a b9 65 be 18 c9 6b bd 7b 82 82 3e
       -0.064415716 -0.22433892 -0.057564825 0.25490174
0002a0 e5 d6 c5 bb 78 0c 1e 3e 31 9d 33 be da 4a 2a 3e
       -0.0060375803 0.15434444 -0.17540433 0.16630116
0002b0 0f 62 0f 3d 92 c2 d0 3b 41 41 a7 be e0 e6 bd 3d
       0.035005625 0.006370851 -0.32666972 0.092725515
0002c0 8a 89 32 3d 58 9b 23 3d dc ae 33 bc e9 23 85 bb
       0.0435882 0.03994307 -0.010966983 -0.0040631187
0002d0 97 9f cf bd 62 15 06 3b 17 16 ff 3c 56 4d 70 bc
       -0.10137861 0.0020459522 0.031138463 -0.014666876
0002e0 e6 d8 84 bc 35 ec 57 3c 34 d1 13 3c b9 87 98 3a
       -0.016216706 0.013178875 0.009022046 0.0011637128
0002f0 0a 51 b4 3b 4e 04 a4 3d cc 59 04 3e 6f 75 77 bc
       0.0055028247 0.080086336 0.1292488 -0.015103682
000300 75 63 13 3e 2e 93 bc 3d 88 d1 9c 3d 45 d7 dc bc
       0.14393409 0.0920776 0.076571524 -0.026958117
000310 3d bf e8 bb 41 5e 67 b9 c1 0b a0 bc d6 b3 9c 3c
       -0.0071028755 -0.00022064989 -0.019536855 0.019128721
000320 cf 12 1d bb 0d 9c 5f 38 5c 7b ca bb 31 1b c4 bd
       -0.002396751 5.3312677e-05 -0.0061792564 -0.09575499
000330 15 5c 05 3c e8 6f 16 3a 34 d7 1e 3d 88 87 a0 3a
       0.00813963 0.0005738721 0.038779452 0.0012247423
000340 27 fa a3 bc f7 9d 5b 3c 4e 62 41 bd d3 94 a8 bb
       -0.020016743 0.013404361 -0.04721289 -0.0051446944
000350 4a bd 0e bc ca ff ea 3c 7f ef ac 3c e5 f7 db bc
       -0.008712122 0.028686423 0.021110294 -0.026851604
000360 30 e8 b4 3c df ef d3 3b 46 5d d1 3b f1 83 d5 bc
       0.022083372 0.006467804 0.006389293 -0.026063891
000370 d5 9d fa bd 29 4a a1 bc 3b 99 43 bd 08 37 93 3c
       -0.12237135 -0.019688683 -0.047753554 0.017970577
000380 50 7e 05 3c 2d 21 2f 3c 97 71 d5 bc 82 16 8c 3d
       0.008147791 0.010689062 -0.02605514 0.068402305
000390 66 6a eb ba 00 26 00 3d 49 ed bb 3c 64 30 53 3d
       -0.0017960786 0.03128624 0.022940295 0.05155982
0003a0 0b 61 79 3d 14 52 bf 3b 38 4d 53 3c 1f a8 47 3c
       0.060883563 0.005838642 0.012896828 0.012186079
0003b0 04 cb 55 bd e1 c1 41 bc ba 74 df bc fc 18 8d bb
       -0.052195564 -0.0118260095 -0.02727734 -0.004305957
0003c0 35 af 13 3d f6 d7 f7 b4 68 7d ad 3c b5 30 30 bb
       0.036055762 -4.6164467e-07 0.021177962 -0.00268845
0003d0 55 1c cd bc bb cf 72 bd 7b 33 b7 bc aa f5 d2 bc
       -0.025037924 -0.05928014 -0.022363415 -0.025751907
0003e0 5c 0f 70 3c ac a5 d5 3c e8 7c 9d bc 63 94 c8 3d
       0.014652099 0.026079975 -0.019224599 0.097939275
0003f0 c3 d7 ec 3c b9 05 5e 3d d0 b2 9a 3d ee 0e b5 3d
       0.028911477 0.054204676 0.07553637 0.08840738

_orig_mod.shared_mlp.0.bias f4 [128]
000000 f2 ad e6 bd 44 f2 06 be 2c b3 3f bd 50 4f 88 be
       -0.11263646 -0.13178355 -0.04680173 -0.2662301
000010 c5 b7 c2 3d 9a 48 ce bc 43 9f 45 bd 51 c9 ab bb
       0.095077075 -0.025181103 -0.048247587 -0.0052425046
000020 8b 84 40 3d 2f ae 71 3d a2 e6 1c be e7 77 af be
       0.047001403 0.059004005 -0.15322354 -0.34271166
000030 4a f6 af 3d 59 46 59 bd 87 0a bc bc 56 08 00 3b
       0.08591898 -0.053045604 -0.022954239 0.0019536219
000040 e0 bc c0 bd 72 b4 47 be d6 44 72 3d 2f 59 89 3d
       -0.09411025 -0.19502428 0.05914768 0.067064635
000050 9f 2d 28 bc 7e dc 5f bd f7 a5 f9 ba fa c6 49 3b
       -0.010264783 -0.054653637 -0.0019046654 0.0030788765
000060 3e 35 82 3c bb 5a 64 bb a7 63 5a 3d 81 e1 51 bd
       0.015894528 -0.0034844119 0.053317692 -0.051240448
000070 05 b7 01 3c d7 08 19 3e 41 00 2d bb bd ec 63 be
       0.00791717 0.14944778 -0.0026397856 -0.22258277
000080 75 39 d7 3d 7e 52 d2 bd de c6 36 be ac 3e a7 3c
       0.10509006 -0.102696404 -0.178493 0.020415626
000090 8a bd 18 ba b7 ad be 3d 29 2c 3e be d9 c8 8f 3d
       -0.00058265834 0.09310477 -0.18571533 0.070207305
0000a0 d2 b7 67 3d d0 c7 d5 3c bf 93 1b be 92 e7 37 be
       0.05657179 0.026096255 -0.1519308 -0.17959431
0000b0 f6 d7 4e be 37 1a ea bd f2 3e 63 be fb 31 f3 bd
       -0.2019957 -0.11430781 -0.2219198 -0.118747674
0000c0 5c 9c b7 bd 3f 93 7e 3a 3b 6c 03 bb e6 72 7f bd
       -0.0896537 0.00097112724 -0.0020053524 -0.062365435
0000d0 33 fd 95 3b 6c 89 a8 3c d1 20 46 bb 4e 69 c9 3b
       0.004577303 0.02057334 -0.0030231962 0.0061465865
0000e0 e6 c2 12 be 6d ce 17 bd 7e 8e 2c bd f2 c6 be 3a
       -0.1433216 -0.037062097 -0.04212808 0.001455514
0000f0 ce ff 23 3c 42 da 26 be 81 f9 46 ba 6a 28 44 be
       0.010009719 -0.16294196 -0.00075902796 -0.19156042
000100 38 f0 3b be 85 cb 0a 3e 08 a8 0b bb cf 9f d6 bd
       -0.18353355 0.13554199 -0.0021309871 -0.104797
000110 b3 fc 4b be 83 41 4d bd 46 db e2 bb 97 da 9f bc
       -0.19920616 -0.050111305 -0.006923112 -0.019513411
000120 3a 2d a8 bc 68 78 2b be 01 57 50 3e e9 57 1b bc
       -0.020529378 -0.1674515 0.2034569 -0.009481409
000130 db 5a 5d 3d c4 38 36 3d f7 6b 83 be 6e 8b 29 3d
       0.054041725 0.04448773 -0.25668308 0.041392736
000140 53 b4 5a bc eb b3 79 be a0 a9 2c be e1 73 5b 3d
       -0.013348657 -0.2438504 -0.16861582 0.053577308
000150 93 49 29 bd 98 44 1c be fb 99 0a bc 9a a4 9c 3d
       -0.04132993 -0.15260541 -0.008459563 0.07648583
000160 09 56 f8 bc bb a3 78 3b 05 fc f0 ba 13 64 f9 be
       -0.030314462 0.0037939388 -0.0018385655 -0.48709163
000170 e6 54 4f bc 7f d1 d2 3d 2f 31 14 be f6 f0 8b bb
       -0.012654519 0.102938645 -0.14471887 -0.004270668
000180 e5 d2 95 bc eb 2a 95 bd b5 b4 94 bc e1 2f ce 3d
       -0.018289039 -0.072835766 -0.018152574 0.10067726
000190 92 f8 2d be 7a 5f 54 be 47 e0 09 3d f1 0e 17 bd
       -0.16989353 -0.20739546 0.033661153 -0.036879484
0001a0 f0 f2 d1 3d 80 74 3c bd 65 94 6d be 1e 91 02 3e
       0.10251415 -0.04600954 -0.2320114 0.1275067
0001b0 29 7b b8 bb 22 88 10 bc ad 51 df b9 d8 db bc 3d
       -0.005629916 -0.008821519 -0.00042594728 0.09221619
0001c0 78 ed 85 bd c3 cb 6b 3b a9 41 84 bc 9c 09 2d be
       -0.06539434 0.0035979606 -0.01614459 -0.16898197
0001d0 2a 01 75 3a 35 de a0 be d6 f0 3e bb 63 ab 35 ba
       0.0009346182 -0.3141953 -0.0029135249 -0.00069301407
0001e0 49 7c a5 3d b7 7e ff 3d 89 85 bb bc b6 32 d0 3d
       0.08080346 0.12475341 -0.022890823 0.10165922
0001f0 2b 49 91 3d c4 79 82 3c e4 1b f4 3d 38 9d 6a 3a
       0.07094034 0.015927203 0.11919382 0.0008949819

_orig_mod.shared_mlp.3.weight f4 [64, 128]
000000 eb 42 26 3d eb bb 2c 3d 00 00 49 3c ec 54 3b bc
       0.04059116 0.0421714 0.012268066 -0.011433821
000010 f9 73 b8 bd 69 2e 12 3d 28 44 18 3c 24 f1 9f 3a
       -0.09006495 0.03568879 0.0092935935 0.0012202603
000020 14 41 1a bd fd 78 ff b9 fa 75 8f bd 2d 61 12 3c
       -0.03765972 -0.00048727533 -0.07004924 0.008934301
000030 fd 7e cf bd e0 48 2c 3d 54 b7 be 3c 05 ac 16 bc
       -0.10131643 0.042061687 0.023280777 -0.009196286
000040 f2 13 03 3d a2 fb 1a 3d f6 7b f4 bc 35 56 9e bd
       0.032001443 0.037837632 -0.029844265 -0.077312864
000050 ea 90 f7 3b 7e 6e 90 3c bb 7e 1b bb 2e ed bf 3b
       0.007555117 0.017630812 -0.002372666 0.0058571314
000060 63 3b ec bb e5 94 ef 3b db 0d d5 bd 13 8f 0b b9
       -0.007209228 0.007311451 -0.10403033 -0.00013309372
000070 c8 87 f6 3c 8d 1d f1 bd 2a fc ad ba 9c 62 17 3d
       0.030094042 -0.117732145 -0.0013274003 0.036959276
000080 3a fa eb bd c4 0f 91 bd 38 0c 37 3d e5 9e ea ba
       -0.11522336 -0.07083085 0.044689387 -0.0017900137
000090 a6 b7 73 bb 6d 25 0a bd b9 8b 34 3d af 32 93 bd
       -0.003718832 -0.0337271 0.044078562 -0.071874015
0000a0 34 a9 3d bd 71 5d 23 bc c4 b7 fe bd 23 0c 56 3d
       -0.046303943 -0.009971009 -0.12437394 0.05225767
0000b0 0e 21 68 3b d0 04 0b bd d2 56 83 3c ac 6f 3e 3d
       0.0035420093 -0.033940136 0.01603261 0.046493217
0000c0 c6 1a 01 be 39 e2 49 3a bd 57 d2 bb 61 30 ed 3c
       -0.1260787 0.00077012513 -0.0064191506 0.028953733
0000d0 a4 ce f0 ba 17 7a 4c 3c 64 09 0c bc d6 3e fc ba
       -0.001837213 0.01248028 -0.008547161 -0.0019244801
0000e0 66 03 54 3d f1 22 c5 bc d1 1d 02 3d 68 cf 6b 3c
       0.051761054 -0.024064513 0.031766716 0.014392711
0000f0 10 9c 58 ba 9a 88 24 bd 8b 20 02 bc 1f a3 17 3d
       -0.0008263001 -0.040169336 -0.007942329 0.0370208
000100 2e 4d e3 bc c3 d8 93 bd 8d 35 c0 3b bf 08 82 bc
       -0.027746763 -0.072190784 0.0058657588 -0.015873311
000110 e5 3d 38 3b 19 d5 10 3d dd 81 93 3c 66 69 14 3b
       0.0028113064 0.035359476 0.01800626 0.002264583
000120 ef 9f 58 3d 4d e9 64 3d 76 b1 1e 3d e3 1a 68 3c
       0.0528869 0.055886555 0.03874346 0.014166567
000130 7e ef 36 bd 39 20 08 3d 24 10 ef bd 15 89 8c bc
       -0.04466199 0.033233855 -0.116730005 -0.01715521
000140 dd cb b3 3c e9 50 ad bd ad de 02 3d b9 96 c1 bd
       0.021947796 -0.08462698 0.03195064 -0.09452576
000150 36 b5 2f bd 31 81 84 3d 2c 40 d9 3b f9 17 f7 bb
       -0.042897426 0.06469954 0.0066299643 -0.0075406996
000160 66 0c 23 3d f0 c7 dc bd 1f 9f 04 3d 3c 58 50 3c
       0.039806746 -0.107803226 0.032378312 0.012716349
000170 9c af ff bd 11 f0 c6 bd b8 cb e3 3c 0f 7a 7c 3c
       -0.12484667 -0.09713758 0.027807102 0.01540996
000180 30 9d 9e bb 30 2d b8 bb d1 5e eb bc 32 85 1c bd
       -0.0048405156 -0.005620621 -0.028731735 -0.038212962
000190 9f e0 33 3d d0 45 64 3c 22 df 38 3c d5 b7 0e be
       0.043915387 0.01393266 0.011283668 -0.13937314
0001a0 10 1f c6 bd e6 d2 b7 3c c7 14 ac 3d 80 8c f3 bd
       -0.096738935 0.022439431 0.084024005 -0.118920326
0001b0 85 7e a1 3c 75 57 46 3d 27 57 bd 3a 61 56 f3 bc
       0.01971365 0.04842325 0.0014445529 -0.029704275
0001c0 d2 ec 74 bc d3 77 6c 3c 04 72 a1 3c d1 94 47 3d
       -0.0149490405 0.014432865 0.019707687 0.048725907
0001d0 67 1c ec bb dc e0 82 3c d2 b8 50 bd 95 4c 40 3a
       -0.0072055343 0.015976362 -0.05095751 0.00073356304
0001e0 3a b6 c0 bd 06 09 c6 bd 60 3a 9c 3c 4c 43 03 bd
       -0.09409757 -0.0966969 0.019070804 -0.0320466
0001f0 bf 90 be bd 18 d8 84 bc 0b ba c7 bc a6 c7 93 3a
       -0.09304952 -0.016216323 -0.024380704 0.001127471
000200 f3 9b 4c 3d 6f 0e ad bd 05 ad ce 3c 46 f2 ff b7
       0.049953412 -0.084500186 0.025228987 -3.0511186e-05
000210 28 6a c6 bd e9 4e b3 3c ed 7e 74 bc 10 57 9a 3c
       -0.096882164 0.021888213 -0.01492284 0.018840343
000220 04 4d d4 bc d4 f4 ae bc f4 e6 99 3c ad 28 bd 3d
       -0.02591563 -0.021356978 0.018786885 0.09236274
000230 8c fe 6b bd ea 70 11 3d 09 e4 1e 3d b0 63 51 bb
       -0.0576158 0.035508074 0.03879169 -0.0031950288
000240 e8 e8 4d 3d 18 8d da 3d 31 86 24 bc 44 02 5b bd
       0.050270945 0.10671443 -0.010041759 -0.053468958
000250 c5 bf 8b bb 83 07 3a 3d b8 f4 60 bb f8 76 99 bb
       -0.004264804 0.04541732 -0.0034325551 -0.0046833716
000260 67 18 01 3c 06 1c 64 3c e1 55 91 bd 7b 50 0d 3d
       0.007879353 0.013922697 -0.07096458 0.03450058
000270 16 2d cc 3c 97 2a a4 bd be ba 02 ba dc fc be 3c
       0.024923842 -0.08015936 -0.0004986933 0.023313932
000280 4f c6 81 bd 43 cf 96 3c d9 10 8c 3d a5 0f 91 3c
       -0.063366525 0.018409377 0.06839151 0.017707655
000290 b7 d1 b4 bb 7c d2 b7 bc 80 b8 63 3d 1a 12 20 bd
       -0.005518164 -0.022439234 0.055595875 -0.039079763
0002a0 66 09 8f 3a 51 ce 3f 3c 82 26 1d bc 5b c0 ae 3d
       0.0010912835 0.0117069045 -0.0095917005 0.08532783
0002b0 34 c4 c2 bc 76 5d 93 3c 7e 1d 8f 3b bb 6b 19 3d
       -0.023775198 0.017988902 0.0043675294 0.037456255
0002c0 28 ab ef bc a8 be f3 bb ca 82 a3 3c 7e b7 48 3d
       -0.029256418 -0.0074384995 0.019959826 0.049003117
0002d0 60 9b b7 bb f0 39 35 3c 45 10 66 bb 84 99 0c bc
       -0.005603239 0.011061177 -0.0035104912 -0.008581523
0002e0 4a 80 1e 3d a6 d6 94 bc 89 8c 71 3c a8 41 7a bc
       0.038696565 -0.018168759 0.014742979 -0.015274443
0002f0 a0 fd 96 bb 04 e9 dc 3c 64 00 0c bc a2 f1 65 3d
       -0.004607871 0.02696658 -0.008545015 0.056138642
000300 01 86 5f 3d 8d fb 47 bd 27 d2 66 bb 2e df 9a 3d
       0.054571155 -0.048823882 -0.0035220475 0.075620994
000310 0f 96 17 bd a4 71 2c 3d 3d 53 8a 3b ed 2b 93 3c
       -0.03700834 0.042100564 0.0042213486 0.017965281
000320 73 52 9e 3c 61 ab 7f 3d 77 e5 ab be 34 fe 97 3c
       0.019326424 0.0624193 -0.33573505 0.01855383
000330 ef 81 22 bc 22 4e 8d 3a 6e cd d6 bc 98 8a 20 bc
       -0.009918674 0.0010780732 -0.026221003 -0.009798668
000340 9d 2e 9a 3c 75 a4 14 bd c3 cf 16 ba c7 87 b3 bb
       0.018821055 -0.03628965 -0.0005753005 -0.0054788324
000350 10 0e db 3c b9 68 55 3d 15 b2 b1 3b 05 e3 02 bd
       0.026740104 0.052101824 0.0054228404 -0.031954784
000360 9d c8 b1 3c f8 6e 16 bc d8 f5 ea ba 79 a7 b6 bd
       0.021702105 -0.00918173 -0.001792605 -0.089186616
000370 02 04 36 bc a7 be cc bd d8 ae 97 3d f4 2f 78 3b
       -0.011109354 -0.099973015 0.07406396 0.003787038
000380 78 c3 6b 3c fb 2a 35 3d 07 82 78 3c 40 08 95 bb
       0.014389865 0.044230442 0.01516772 -0.0045481026
000390 93 75 57 3d ea 7c 22 3d bf 9d 72 3c 60 eb d6 3c
       0.052602362 0.03966991 0.014808117 0.026235282
0003a0 6f 9f 8e bd 99 26 11 3d 6f c8 f2 bb 13 48 87 bd
       -0.06964003 0.0354372 -0.0074091475 -0.06605544
0003b0 9f 9e 0d 3b f1 9c 90 3c 62 7c 36 bb 91 df c1 bc
       0.0021609438 0.01765296 -0.0027845134 -0.023666175
0003c0 88 3e 26 3c 23 74 7a 39 db bc bf 3c a4 94 c0 3c
       0.010146745 0.00023885122 0.023405483 0.023508377
0003d0 a8 2d 19 bb 8d 28 d6 bc 41 1c ea bc f0 70 1a bc
       -0.002337316 -0.026142383 -0.028577926 -0.00942634
0003e0 7f 5e 81 bd 73 b6 aa bd 73 21 8f 3c 07 a2 80 bd
       -0.06316852 -0.08335581 0.017472005 -0.06280904
0003f0 85 ba af bc 5d 4f eb bb 21 05 a5 bc be f1 ac 3b
       -0.021451244 -0.0071810917 -0.020144047 0.0052778414

_orig_mod.shared_mlp.3.bias f4 [64]
000000 8d 6e 34 be 80 94 89 be 0e 74 70 be 94 d3 88 3e
       -0.17620297 -0.2687111 -0.23481771 0.2672392
000010 3c 7c f2 bd fa a9 8c be 4b 72 2c be f8 16 8d be
       -0.11840102 -0.27473432 -0.16840474 -0.27556586
000020 51 ed 8f be 7f f0 80 be 94 c9 b6 3e f5 80 6f 3e
       -0.28110746 -0.25183484 0.35700667 0.23389037
000030 58 3c 88 3e 50 a7 92 3e 64 4d 41 3e 9e ec 86 be
       0.2660854 0.28643274 0.18877178 -0.263524
000040 2d e1 6a 3e de 26 48 3e 41 47 7e 3e 6d a4 16 be
       0.2293746 0.19546077 0.24831869 -0.14711161
000050 03 d7 8a 3e 16 e6 10 be 42 d5 2d be df 03 04 be
       0.27117166 -0.14150271 -0.16975883 -0.12892102
000060 38 b2 75 be e7 1e f0 bd 47 d6 8f 3e 14 3e 84 3e
       -0.23993766 -0.11724644 0.28093168 0.25828612
000070 37 8a 91 3e ee 38 9b 3e 7b b2 7c 3e 47 a4 90 3e
       0.28425762 0.3031687 0.2467746 0.28250334
000080 ae 51 7f be ff f4 2e be 4f 84 53 be 00 e8 8b 3e
       -0.24933502 -0.17085646 -0.2065594 0.2732544
000090 71 09 b1 3e 24 6d 6d be bf 4f 81 be 51 0f 75 be
       0.34577516 -0.23186165 -0.25256154 -0.23931624
0000a0 7c d0 81 be 94 d7 79 be 81 d9 94 be 3a 23 a8 3e
       -0.25354373 -0.24398643 -0.29072192 0.32839376
0000b0 53 c2 8c 3e b3 5a 35 be 91 e4 21 be 40 6e 98 3e
       0.27492008 -0.1771038 -0.15809847 0.29771614
0000c0 ef a9 9a 3e fe 03 7d 3e 21 c9 4e be 2e 62 9e be
       0.30207774 0.24708554 -0.20193912 -0.3093428
0000d0 35 9c 62 be bf 30 4f 3e cf b2 64 be 27 8c 24 be
       -0.22129901 0.20233439 -0.22333835 -0.16069089
0000e0 b3 e2 60 be 73 d2 79 3e 8c 4a 93 3e 7c b4 a4 3e
       -0.21961479 0.24396686 0.28767812 0.3216895
0000f0 d9 f6 0c be 1d 79 74 be 43 84 98 3e 7a e9 14 be
       -0.1376604 -0.23874326 0.29788408 -0.14542189
