experiments/exp_20251006_004731/models/checkpoint_epoch3_auc0.7312_logloss0.0876.pth (torch, 137410 bytes, 12 tensors)

_orig_mod.embeddings.gender.embedding.weight f4 [5, 8]
0.015559293 0.003263145 0.0024729082 -0.0018459396 -0.005789145 0.0003842509 0.006874761 0.0067584985
0.6872327 1.6605691 -0.0074864225 -0.33048296 0.34925404 -0.25023463 0.39456588 0.5661334
2.1588273 1.0367459 1.0042733 0.1143251 -0.37963474 0.6860453 -0.19282326 0.17706783
4.6181516e-09 -1.5148101e-30 -0.053776678 0.008417833 0.03793932 -4.3482876e-32 7.727227e-08 -3.549865e-09
0.005526189 3.9048264e-06 3.941503e-24 -1.6521639e-07 0.002968248 -0.11757892 1.9611798e-22 -0.0678896
00000000: 68ec 7e3c 7dda 553b 8410 223b 74f3 f1ba
00000010: deb2 bdbb 4875 c939 ad45 e13b 6576 dd3b
00000020: 7bee 2f3f 878d d43f aa50 f5bb 1035 a9be
00000030: 6dd1 b23e c11e 80be 8a04 ca3e 1eee 103f
00000040: 3a2a 0a40 17b4 843f 078c 803f 4723 ea3d
00000050: 7c5f c2be aaa0 2f3f 7673 45be 4551 353e
00000060: b1ad 9e31 c0ca f58d ef44 5cbd f3ea 093c
00000070: 4366 1b3d a8c6 618b e1f0 a533 e3f1 73b1
00000080: 0915 b53b 3406 8336 c17a 9818 5666 31b4
00000090: f086 423b 38cd f0bd 9317 6d1b b409 8bbd

_orig_mod.embeddings.age_group.embedding.weight f4 [15, 8]
0.003886086 -0.0010936114 -0.0007687856 -0.0133966245 -0.0064725587 0.0007104574 0.00208751 -0.005823907
0.0030620825 -0.06572104 -0.048810605 -0.2866107 0.24012618 0.007983472 -0.30679575 0.14363144
0.4902235 0.07042888 0.35136512 -0.0856374 -0.6438905 0.5197874 -0.06700817 -0.4276632
-0.16157553 0.398213 0.12646799 0.5334661 -0.73261446 -0.64954007 -0.73037565 0.7993797
-0.047178376 -0.23802535 -0.48506373 -0.056087393 -0.71769375 0.39703798 -0.49216828 -0.69215536
-0.31517255 -0.6089653 -0.4069035 0.66298133 -0.5870492 0.34586573 0.6083765 -1.2035468
1.3337299 0.14552127 -0.38096678 -0.38518974 0.070068374 -1.0005114 -1.5574718 -0.46134
0.29063326 0.46634087 -0.1954524 0.1898532 0.41529557 0.79856426 -0.56100655 -0.50595254
-0.8460514 0.31549492 0.80471325 0.12361271 0.6979779 0.3410174 0.31767446 -0.16428502
3.9445405e-11 -6.3349055e-09 -8.503783e-35 1.6862735e-22 0.00019181609 2.0303745e-33 7.300835e-35 -2.3201154e-09
3.9361296e-33 2.8732532e-32 -4.5467325e-25 2.7623372e-22 0.0016743109 2.903811e-09 -0.00023042927 0.109895796
-1.3265782e-09 -0.05898903 -7.189491e-07 2.0441144e-09 -5.1167364e-34 -2.2615014e-22 -0.00036660623 -5.302912e-22
-3.778618e-30 -4.18075e-06 -3.1096544e-16 2.561312e-15 0.16379558 -0.04587398 -0.010424275 -6.0092424e-11
0.000910047 -1.0436545e-08 -4.217912e-05 -1.2020211e-34 8.0766765e-10 -1.1730183e-07 -0.008703303 2.5327856e-07
1.5227141e-06 -4.2277457e-22 -3.0090108e-12 -0.0023889465 -0.009160146 5.1150208e-05 1.459353e-08 -0.0050184806
00000000: b4ad 7e3b 8257 8fba 5488 49ba 847d 5bbc
00000010: c217 d4bb fd3d 3a3a 9bce 083b 79d6 bebb
00000020: 38ad 483b c198 86bd a1ed 47bd a3be 92be
00000030: a3e3 753e 1ccd 023c 5514 9dbe 1f14 133e
00000040: 93fe fa3e 043d 903d 21e6 b33e a962 afbd
00000050: 02d6 24bf c910 053f 943b 89bd acf6 dabe
00000060: 0e74 25be 93e2 cb3e d380 013e 3c91 083f
00000070: 9f8c 3bbf 4248 26bf e6f9 3abf 26a4 4c3f
00000080: 1d3e 41bd ebbc 73be 465a f8be e5bb 65bd
00000090: c7ba 37bf 9048 cb3e 7bfd fbbe 1831 31bf
000000a0: 4c5e a1be 26e5 1bbf a855 d0be 25b9 293f
000000b0: db48 16bf 5015 b13e 90be 1b3f d20d 9abf
000000c0: a9b7 aa3f 8703 153e 140e c3be 9737 c5be
000000d0: 0280 8f3d c210 80bf 3c5b c7bf c234 ecbe
000000e0: e2cd 943e 3bc4 ee3e ad24 48be e168 423e
000000f0: 9fa1 d43e b56e 4c3f 209e 0fbf 1b86 01bf
00000100: d396 58bf 8d88 a13e b001 4e3f a928 fd3d
00000110: aeae 323f d599 ae3e 3aa6 a23e 553a 28be
00000120: 947b 2d2e 6baa d9b1 c011 e286 a3db 4b1b
00000130: 3d22 4939 4aad 2809 e916 c206 e76f 1fb1
00000140: 1c80 a309 1630 150b edb6 0c97 19f9 a61b
00000150: 8d74 db3a 628c 4731 639f 71b9 0c11 e13d
00000160: d252 b6b0 7b9e 71bd cefd 40b5 7178 0c31
00000170: 6108 2a88 0ab3 889b 0e35 c0b9 4b45 209c
00000180: 6a47 998e 5e48 8cb6 6642 b3a5 de8f 3827
00000190: 07ba 273e 5be6 3bbd 94ca 2abc 0725 84ae
000001a0: 3890 6e3a 694c 33b2 7ce9 30b8 a9c6 1f87
000001b0: 8f02 5e30 5de7 fbb3 4c98 0ebc 57fa 8734
000001c0: 0f60 cc35 328d ff9b 85bd 53ac df8f 1cbb
000001d0: 7014 16bc 1e8a 5638 06b7 7a32 1172 a4bb

_orig_mod.embeddings.inventory_id.embedding.weight f4 [50, 16]
0.1176843 0.10908783 -0.5520299 -0.21297197 0.5996346 -0.07714665 -0.5918351 0.41058692
0.70609903 0.0024958504 -0.59378785 0.12106103 0.070314184 0.9778037 -0.13997373 -0.30946234
-0.24959622 -0.111173764 -0.2264964 0.28493425 0.23148708 -0.22292566 -0.20089908 0.26930454
0.055163458 -0.09758748 -0.17487189 0.07913081 -0.25623462 0.022162132 0.12375035 -0.20797169
-0.49712664 -0.90073806 -0.28075776 1.1492205 1.0393786 0.5847771 0.8878672 0.048609905
-0.6455249 0.18726026 -1.2930671 -1.0809753 0.37200782 0.28208068 0.42266014 -1.3147279
0.025803681 -0.012665154 0.0057141357 -0.015353956 -0.04731114 0.03580934 0.021759922 -0.034472384
-0.007477062 0.010969844 0.019388124 -0.0010870342 0.032088134 0.37283254 0.0006160299 0.016726002
-1.0468429 0.5478355 0.55148125 0.19561931 -0.13998748 -0.20788898 -0.56731343 0.17911386
-0.79859954 -1.7414144 0.71862465 0.3068686 0.15827458 0.8561512 -1.4529314 -0.45148653
-0.38633984 0.35399643 -0.049589224 0.20973895 -0.4470425 -1.2920457 0.49955553 0.5631211
0.15299669 -0.22848564 0.008313892 -0.11363243 -0.41806516 -0.28104785 -0.05940809 0.39945748
-0.19052038 -1.2346519 -0.52982014 0.09649448 0.35030487 0.5545323 -1.7206879 -0.10663721
-0.17934683 0.19365728 0.9976861 -1.3935968 -0.75914454 0.29829523 -0.2535289 0.24014345
0.12076602 -1.3113598 0.4081961 0.19818678 1.0101919 -0.46022883 0.41554254 1.1795872
-0.367607 -0.92628974 0.89598453 0.48062786 0.15792954 -1.5428921 -0.128944 -0.19628297
-0.4006006 -0.08189571 -0.24919239 0.23083757 0.18214945 0.041802105 -0.19544232 0.26282185
0.018350495 -0.059768032 -0.18875532 0.3809004 -0.18351343 0.15826775 0.07231732 -0.1168995
-0.36484322 0.8708675 0.81608963 -0.7115766 1.1027076 -0.4451055 0.3403902 0.53367877
-0.08669377 0.3696258 0.028046515 -1.0403796 0.022877261 -0.021646285 0.37921295 -0.03417525
0.5984304 -1.2232639 0.9774411 -0.2398129 -0.7542257 -0.9071717 0.13594544 1.4299389
0.24881436 -0.3387206 0.9325233 0.09574892 0.12156455 0.5645811 0.41398883 -0.39494377
-0.2367293 -0.40773746 -0.54027104 0.20965022 0.1351707 0.28893548 0.7710849 0.41041857
-0.062766805 0.34774446 0.03139368 0.1809415 0.520247 1.5463053 0.09767354 -0.14034711
-0.24026878 -0.3951649 -0.42642617 0.2467725 -0.19795299 0.551539 -0.22429867 0.42122215
0.12587088 0.052824225 0.68000984 0.0698502 -0.2676394 0.49793425 -0.16843884 -0.37077367
-0.18888961 0.51263404 -0.392389 0.25262782 0.24441491 -0.28970057 -0.2861943 0.17610228
0.02319856 0.010077772 -0.21942873 -0.055662215 -0.1463161 0.6621552 0.09707575 -0.28283128
0.38473153 -0.15863854 -0.32510054 -0.7942352 1.1163726 0.30661473 1.5589854 0.38121083
-0.5261936 -0.42348403 -0.68467104 -0.238527 -0.48411337 -0.14075565 -0.66229445 0.16518252
-0.48654783 0.24479885 0.023045046 0.16461895 -0.11576396 -0.21258171 0.11923374 0.25568375
0.21706435 0.032402057 -0.06373191 -0.14598754 -0.721479 -0.52438015 -0.043347884 0.18165644
00000000: 7704 f13d 7169 df3d d551 0dbf 5315 5abe
00000010: a781 193f 10ff 9dbd 8182 17bf 7338 d23e
00000020: e8c2 343f 6c91 233b 7b02 18bf d8ee f73d
00000030: e200 903d 5851 7a3f 4655 0fbe d971 9ebe
00000040: 2796 7fbe 12af e3bd acee 67be e7e2 913e
00000050: f30a 6d3e a046 64be 7db8 4dbe 49e2 893e
00000060: 14f3 613d f2db c7bd 9e11 33be 560f a23d
00000070: 2f31 83be 5c8d b53c d370 fd3d 88f6 54be
00000080: 6287 febe c596 66bf 7bbf 8fbe a819 933f
00000090: 5c0a 853f f4b3 153f 444b 633f 2e1b 473d
000000a0: 1f41 25bf 27c1 3f3e 3983 a5bf 665d 8abf
000000b0: cf77 be3e e16c 903e e966 d83e 0149 a8bf
000000c0: 3e62 d33c 8281 4fbc a53d bb3b 298f 7bbc
000000d0: 53c9 41bd d1ac 123d dd41 b23c ea32 0dbd
000000e0: 2402 f5bb dcba 333c d8d3 9e3c d17a 8eba
000000f0: d96e 033d e8e3 be3e 117d 213a f804 893c
00000100: f3fe 85bf f33e 0c3f e02d 0d3f 6e50 483e
00000110: e158 0fbe d9e0 54be 743b 11bf a069 373e
00000120: 0571 4cbf abe6 debf c9f7 373f e21d 9d3e
00000130: bb12 223e ba2c 5b3f a8f9 b9bf 3e29 e7be
00000140: 56ce c5be 053f b53e 121e 4bbd cfc5 563e
00000150: c1e2 e4be c161 a5bf bec5 ff3e b428 103f
00000160: 2aab 1c3e 24f8 69be fe36 083c 1fb8 e8bd
00000170: a30c d6be 81e5 8fbe e655 73bd b185 cc3e
00000180: c617 43be 1309 9ebf 4ba2 07bf e69e c53d
00000190: 295b b33e d4f5 0d3f 803f dcbf 9c64 dabd
000001a0: b2a6 37be 184e 463e 5b68 7f3f 6161 b2bf
000001b0: 4c57 42bf 27ba 983e 8ace 81be 2ae8 753e
000001c0: 2d54 f73d a3da a7bf 14ff d03e 7af1 4a3e
000001d0: f84d 813f 1da3 ebbe fec1 d43e b7fc 963f
000001e0: fc36 bcbe 5321 6dbf 3e5f 653f db14 f63e
000001f0: 48b8 213e 7d7d c5bf e509 04be 67fe 48be
00000200: 861b cdbe f0b8 a7bd 4a2c 7fbe af60 6c3e
00000210: 6385 3a3e af38 2b3d 0822 48be 9690 863e
00000220: c753 963c 53cf 74bd 1349 41be 6105 c33e
00000230: f2ea 3bbe f110 223e 1a1b 943d 0169 efbd
00000240: bbcc babe 2cf1 5e3f 40eb 503f e229 36bf
00000250: 8625 8d3f dee4 e3be a047 ae3e 2c9f 083f
00000260: 818c b1bd 983f bd3e cec1 e53c 292b 85bf
00000270: 1869 bb3c 8d53 b1bc 3328 c23e 59fb 0bbd
00000280: bc32 193f e993 9cbf 9439 7a3f 8391 75be
00000290: ef14 41bf 683c 68bf 4835 0b3e 3d08 b73f
000002a0: 31c9 7e3e c96c adbe d9b9 6e3f 0318 c43d
000002b0: d6f6 f83d 6388 103f 58f6 d33e 1236 cabe
000002c0: 2a69 72be f7c2 d0be 344f 0abf 8cae 563e
000002d0: 306a 0a3e 5aef 933e d265 453f 6222 d23e
000002e0: e28b 80bd 900b b23e a996 003d bb48 393e
000002f0: e82e 053f 55ed c53f 1109 c83d 27b7 0fbe
00000300: 0509 76be 0e53 cabe 8854 dabe eeb1 7c3e
00000310: 30b4 4abe a931 0d3f 8dae 65be 6eaa d73e
00000320: 4ce4 003e 375e 583d 2015 2e3f 9f0d 8f3d
00000330: 0808 89be 3df1 fe3e 3b7b 2cbe 0cd6 bdbe
00000340: 476c 41be fc3b 033f 36e7 c8be 6f58 813e
00000350: e747 7a3e a253 94be 0f88 92be 2854 343e
00000360: e80a be3c 3d1d 253c edb1 60be 10fe 63bd
00000370: e3d3 15be 0183 293f a7cf c63d 43cf 90be
00000380: 88fb c43e 2472 22be 9473 a6be 0053 4bbf
00000390: 4ce5 8e3f 9bfc 9c3e d58c c73f 112e c33e
000003a0: a0b4 06bf e6d2 d8be 9a46 2fbf 6c40 74be
000003b0: b5dd f7be 4022 10be 218c 29bf 9b25 293e
000003c0: cc1c f9be 8dac 7a3e f7c8 bc3c df91 283e
000003d0: a815 edbd 05af 59be d230 f43d fbe8 823e
000003e0: 1e46 5e3e 05b8 043d e085 82bd c27d 15be
000003f0: d9b2 38bf c73d 06bf 8d8d 31bd 2504 3a3e

_orig_mod.embeddings.day_of_week.embedding.weight f4 [10, 8]
-0.47212747 -0.122215316 -0.4591419 -0.06438755 0.4960103 0.017895967 -0.33122334 1.9439436
-0.12908168 -0.39427966 0.22901468 -0.63491714 0.7230118 0.17678797 -0.5912314 0.17862463
-0.6793821 0.6579777 -0.24785867 0.72781223 1.2515156 0.59290576 -0.72673845 -0.2684678
0.14871456 -0.5873518 0.20015036 0.37528586 0.8845686 -1.3805345 -0.7089643 -0.33750272
-0.95740885 0.38226557 0.43388233 -1.265013 -1.2346187 -0.11089152 0.519402 0.35295692
-0.036729593 0.3736426 0.06277734 -0.58035195 0.5323034 -0.39499456 0.21698545 0.6370555
-1.5303279 0.35806233 0.032510467 -1.5972219 -0.57428193 0.99482805 0.27426794 0.7647965
1.0787598e-35 -0.0023852875 -8.537456e-07 2.5713586e-35 -2.8133856e-13 5.3414765e-13 -1.5207206e-05 0.015677037
-1.6703882e-29 -1.165736e-25 0.24273865 2.452873e-07 -0.043933976 -0.0025975509 4.8380054e-05 3.10416e-31
-1.8937144e-34 -0.002091708 0.00023010267 1.5179305e-28 6.9121613e-26 -1.512e-28 9.490635e-09 -4.7715755e-32
00000000: b1ba f1be 064c fabd a614 ebbe 9fdd 83bd
00000010: 10f5 fd3e 909a 923c 1b96 a9be 25d3 f83f
00000020: fd2d 04be 06df c9be d382 6a3e ee89 22bf
00000030: 4d17 393f e807 353e f15a 17bf 60e9 363e
00000040: fceb 2dbf 3a71 283f aace 7dbe e751 3a3f
00000050: aa31 a03f acc8 173f 880b 3abf 9d74 89be
00000060: a148 183e b05c 16bf 37f4 4c3e 7825 c03e
00000070: 1673 623f 5bb5 b0bf af7e 35bf 28cd acbe
00000080: bf18 75bf 50b8 c33e d325 de3e f2eb a1bf
00000090: fc07 9ebf 181b e3bd 88f7 043f c5b6 b43e
000000a0: c571 16bd 154e bf3e 6891 803d f291 14bf
000000b0: 0945 083f ba3c cabe 6f31 5e3e 1216 233f
000000c0: c9e1 c3bf f253 b73e b229 053d c471 ccbf
000000d0: 2404 13bf 0dad 7e3f d96c 8c3e b4c9 433f
000000e0: 456d 6505 7c52 1cbb f32c 65b5 85b7 0806
000000f0: 2961 9eaa 6559 162b 7422 7fb7 216d 803c
00000100: c265 a98f a64f 1096 7b90 783e 08b0 8334
00000110: 1df4 33bd ac3b 2abb b0eb 4a38 b478 c90c
00000120: c3b7 7b87 0915 09bb b747 7139 a96b 4011
00000130: 0723 ab15 35ab 3f91 410c 2332 1ec1 778b

_orig_mod.embeddings.hour.embedding.weight f4 [30, 16]
-0.5132594 -0.4064291 0.4674226 0.20849238 0.1480016 -0.043349396 -0.33480033 -0.016726442
1.186302 0.07693114 -0.5139106 -0.31531218 -0.6499751 -0.06730219 -0.10830172 -0.31785196
0.091907404 -0.09802776 0.3973344 0.09767068 0.052596875 0.34268707 0.12903716 0.057350792
-0.0490469 -0.015113258 -0.09047596 -0.22245866 0.17986548 0.0074692406 -0.06469524 0.019477997
-0.0005918129 -0.16431709 0.07905645 0.07180246 -0.024381366 0.17317557 -0.066924825 -0.0050324346
-0.0024300297 0.025779383 -0.022719719 -0.00605605 0.016789772 -0.03348906 -0.09405807 -0.2110777
0.109046906 -0.28665277 0.025055772 0.07056923 0.11425441 -0.03083134 -0.048759658 0.008823452
-0.027060473 0.004960995 0.2359983 0.061066218 0.10855372 -0.042348746 -0.0521074 -0.14104842
0.034864716 -0.22548954 0.01861168 0.058459796 0.067163445 -0.025097085 -0.051301334 -0.0018171902
0.020066427 0.005271824 -0.088931076 -0.044410016 -0.083180614 0.09820566 -0.13749208 0.20483021
0.113040775 -0.22813499 0.3677543 0.10680166 0.09355777 -0.16887708 0.14866553 0.025782097
0.10150186 -0.022215765 0.4747926 0.07355472 0.2784808 0.10779362 -0.08431564 -0.5623605
0.032515947 -0.51200694 0.5743189 -0.26355976 -0.13393572 0.059473768 0.010629371 0.24471053
0.3299929 0.0473006 -0.28367028 -0.17000802 -0.45093444 0.5477434 -0.028274631 -0.21122721
-0.22012748 -0.37528253 1.2523111 0.16548444 0.41454995 -0.37407565 0.5774356 0.27156678
0.1506697 0.09331134 0.7657143 2.0408797 -1.1530366 0.35466117 -0.5338397 0.025106568
-0.5945993 0.186368 -0.0005454424 -0.65782785 0.07088224 -0.069840275 -0.50815964 -0.25776508
0.22229995 0.07006687 0.09113308 -0.018835176 -0.059359863 0.8949889 0.25266764 -0.18810865
0.3319911 -0.17988355 -0.17845136 0.079947606 0.14923386 -0.9889279 -0.4903755 0.42792377
0.97173065 0.08519028 0.87000704 -0.21392465 -0.017128265 -0.7760934 0.83148056 -0.15672368
0.075747326 0.107074626 0.039392058 -0.06987667 -0.28647804 -0.456805 0.43156537 0.05684258
-0.119559385 -0.22248523 0.629873 -0.051210463 -0.07748683 0.015434067 -0.13974899 0.096773304
0.039214745 0.113547385 -0.34522536 -0.17643313 -0.31249043 -0.522857 0.06249906 -0.2647788
-0.14832921 0.4181249 0.08756411 -0.021303074 -0.56530607 0.27612552 0.20351477 -0.05665981
-0.38616437 0.23546727 -0.11867139 -0.14960587 0.21899946 -0.1750445 0.1026169 0.02246801
0.07425625 -0.07538524 0.5881898 -0.12541264 0.51188815 -0.31922385 -0.27531016 0.44422835
-0.575772 0.111904286 -0.3975018 0.06430244 -0.49589956 -0.58862346 -0.02249434 0.035446692
-0.16648062 0.00041381858 0.00463936 0.14306144 -0.37919724 -0.33951434 0.162143 -0.024638437
0.053117927 0.16660815 -0.3488931 0.2455459 -0.04648121 0.26263735 -0.3200326 0.04993002
-0.32758966 -0.08441029 0.48522657 0.1954602 -0.8206792 0.20833892 0.121373504 0.15708147
0.13434047 0.12981601 -0.25721568 -0.20009528 -0.29838082 0.16275361 0.27772248 0.25929835
-0.07754573 0.60798913 0.07787085 -0.20061022 0.23216806 0.22571798 0.44566253 0.046216737
00000000: f864 03bf 7a17 d0be 0452 ef3e 077f 553e
00000010: bb8d 173e 238f 31bd f36a abbe e405 89bc
00000020: bed8 973f 138e 9d3d a58f 03bf 9970 a1be
00000030: c564 26bf bbd5 89bd 4bcd ddbd 7ebd a2be
00000040: f339 bc3d c7c2 c8bd 6a6f cb3e 9107 c83d
00000050: d26f 573d ae74 af3e 5122 043e aae8 6a3d
00000060: 67e5 48bd 999d 77bc 764b b9bd 34cc 63be
00000070: a82e 383e 88c0 f43b f07e 84bd 5290 9f3c
00000080: e423 1bba bd42 28be 59e8 a13d 2b0d 933d
00000090: 6ebb c7bc f054 313e e20f 89bd 1fe7 a4bb
000000a0: 2241 1fbb 492f d33c b41e babc d471 c6bb
000000b0: b48a 893c d32b 09bd 84a1 c0bd c124 58be
000000c0: fc53 df3d 27c4 92be c341 cd3c 9a86 903d
000000d0: 37fe e93d 0292 fcbc 35b8 47bd 3d90 103c
000000e0: edad ddbc d88f a23b 8aa9 713e 9220 7a3d
000000f0: 6a51 de3d e175 2dbd 926e 55bd ff6e 10be
00000100: 4ece 0e3d bbe6 66be 8677 983c 8a73 6f3d
00000110: fd8c 893d 6798 cdbc 5921 52bd c92e eeba
00000120: 5962 a43c 44bf ac3b 7f21 b6bd 47e7 35bd
00000130: 995a aabd 0d20 c93d b9ca 0cbe 03bf 513e
00000140: ec81 e73d 389c 69be 4b4a bc3e d4ba da3d
00000150: 379b bf3d 1dee 2cbe c73b 183e fa34 d33c
00000160: 35e0 cf3d d6fd b5bc 0418 f33e dba3 963d
00000170: 0995 8e3e e7c2 dc3d aead acbd dcf6 0fbf
00000180: 712f 053d e312 03bf 9006 133f 4ef1 86be
00000190: 7226 09be c49a 733d d026 2e3c 6695 7a3e
000001a0: d4f4 a83e 46be 413d 3b3d 91be 9516 2ebe
000001b0: e1e0 e6be e938 0c3f 33a0 e7bc f24b 58be
000001c0: 1969 61be 0825 c0be bb4b a03f c174 293e
000001d0: e43f d43e d886 bfbe d2d2 133f cd0a 8b3e
000001e0: 2849 1a3e 041a bf3d da05 443f c69d 0240
000001f0: b496 93bf 2696 b53e b8a9 08bf 4aac cd3c
00000200: a937 18bf 41d7 3e3e 05fc 0eba 6867 28bf
00000210: b52a 913d 6b08 8fbd c016 02bf c9f9 83be
00000220: 99a2 633e 387f 8f3d fba3 ba3d 3a4c 9abc
00000230: 5423 73bd fe1d 653f a75d 813e 8e9f 40be
00000240: bdfa a93e 6533 38be f4bb 36be 92bb a33d
00000250: c3d0 183e 612a 7dbf 7f12 fbbe d318 db3e
00000260: 57c3 783f 3e78 ae3d c8b8 5e3f 100f 5bbe
00000270: 9350 8cbc 0fae 46bf e9db 543f 2c7c 20be
00000280: 6a21 9b3d f149 db3d 9159 213d 801b 8fbd
00000290: 40ad 92be 58e2 e9be 23f6 dc3e c4d3 683d
000002a0: 8ddb f4bd 2bd3 63be 5b3f 213f 10c2 51bd
000002b0: 6ab1 9ebd 2bdf 7c3c 5c1a 0fbe 1531 c63d
000002c0: a49f 203d 888b e83d 61c1 b0be e3aa 34be
000002d0: bffe 9fbe f5d9 05bf 04ff 7f3d 1691 87be
000002e0: 9de3 17be 7814 d63e d054 b33d c983 aebc
000002f0: e6b7 10bf 5360 8d3e 2d66 503e 1e14 68bd
00000300: 56b7 c5be 551e 713e fc09 f3bd 4832 19be
00000310: 6541 603e de3e 33be cf28 d23d d50e b83c
00000320: a913 983d 9463 9abd 9b93 163f 2c6c 00be
00000330: 1a0b 033f 4f71 a3be 74f5 8cbe e671 e33e
00000340: cb65 13bf 132e e53d 5b85 cbbe ffb0 833d
00000350: 8ce6 fdbe 07b0 16bf 0d46 b8bc 8d30 113d
00000360: e579 2abe caf5 d839 c605 983b b37e 123e
00000370: 2426 c2be d3d4 adbe d108 263e 8cd6 c9bc
00000380: 2f92 593d 549b 2a3e 1ea2 b2be 6270 7b3e
00000390: 1563 3ebd 6778 863e 50db a3be 6c83 4c3d
000003a0: d5b9 a7be 4ddf acbd 9e6f f83e b826 483e
000003b0: 0818 52bf cc56 553e ac92 f83d f7d9 203e
000003c0: 8c90 093e 7dee 043e c6b1 83be c7e5 4cbe
000003d0: 5fc5 98be e2a8 263e a431 8e3e c1c2 843e
000003e0: 4cd0 9ebd 2da5 1b3f c17a 9f3d c46c 4dbe
000003f0: 77bd 6d3e 9d22 673e e12d e43e c34d 3d3d

_orig_mod.dense_proj.weight f4 [64, 113]
-0.005466405 -0.06686064 0.083582744 -0.036788408 0.109181166 0.122716784 -0.09147522 0.0780835
0.011904053 -0.04286455 -0.101395175 -0.030696645 -0.023787161 -0.025436485 0.100305535 0.0028428712
0.052770264 0.06979972 -0.025510961 -0.03716867 -0.035925157 -0.076387756 0.022449128 -0.008025766
-0.003474446 0.024760773 0.0177715 0.05944608 0.08208702 -0.010298629 0.03509321 0.01482255
0.017899008 0.01632138 0.011267514 0.05251626 -0.02145132 0.007304628 0.14778157 -0.080294535
-0.06788505 -0.06254897 -0.0011760324 0.0066311006 -0.028334238 0.06577064 -0.06592555 0.052146293
0.0037233047 -0.05856145 -0.07966677 0.007584363 -0.005935276 0.017200062 -0.04381467 8.40242e-06
-0.0648908 0.0077918023 0.02089251 0.013543139 0.071180545 -0.024110205 -0.005688538 0.023717027
0.013066957 -0.026634723 0.02299864 -0.010006398 -0.016598089 0.0152606955 -0.0029657083 0.058451287
-0.06792675 0.016196525 0.034483835 -0.060224477 0.14356795 0.012881987 0.037585225 0.13452576
-0.06068109 -0.00073220144 0.014605088 0.04162816 -0.013072124 0.023153137 -0.00512097 -0.059378024
-0.061755344 0.0031365855 0.05743197 0.047514435 0.07973888 -0.07478252 -0.067650355 -0.03772172
-0.033290144 0.012282959 0.056403335 0.024512807 -0.072024316 -0.027708853 0.032250393 -0.074343406
0.04770081 0.04016596 0.037148673 -0.015630895 0.026967753 0.031942286 -0.010790575 0.062361155
-0.0135686165 -0.038831975 -0.0054084403 -0.047698665 -0.047640663 0.061290573 -0.02966033 0.11250814
-0.039355054 -0.12427088 -0.01856967 0.026528344 -0.010106374 -0.03364428 0.07100161 0.067934975
0.0143721355 -0.042116184 -0.03541196 -0.07005288 0.013679148 9.5910764e-05 -0.061557434 0.033323534
0.013207351 -0.0070127198 0.055305906 0.09618891 0.029404456 -0.15281105 0.052966345 0.0908171
-0.00965132 0.027799055 0.07034101 -0.015618118 -0.02540155 -0.028941993 0.08092159 -0.0203807
0.01072317 -0.041932594 0.17949641 -0.02829204 0.028363733 0.016010057 -0.0020698896 -0.012931299
0.03040402 -0.0027677394 0.04405363 0.019429903 0.14074577 0.053031273 -0.07041476 -0.055513572
-0.06669791 0.15807615 -0.18743205 0.034437325 -0.061804347 -0.02593548 -0.020780873 -0.030940004
0.06459573 -0.034909017 -0.039269876 -0.01494156 0.014043525 -0.010319815 0.047301117 -0.0090352185
0.052497316 -0.020077487 0.06683396 -0.00015013701 -0.09006146 -0.15179221 0.012765772 -0.02813795
-0.14694509 0.13314755 -0.09888062 -0.09406322 -0.07716639 -0.058476355 -0.0487919 0.0019447801
0.042113412 0.06143275 -0.015362471 -0.004369529 0.035393808 0.01166201 -0.033574894 0.05886744
0.027150752 0.0018805808 0.061722863 -0.048011612 -0.015163367 0.012430326 0.06674897 -0.049551785
0.048301056 -0.05781783 -0.06349687 0.0066094864 0.0030928117 0.05280587 -0.011920165 0.021173064
-0.017384991 -0.05526574 0.021850845 0.023010317 -0.16822128 0.036557026 0.25127575 -0.08927851
-0.19438912 -0.034391593 0.05615511 -0.10046894 -0.054959457 -0.06661358 0.09710134 -0.034081697
0.11572025 0.18812114 -0.007036505 -0.09469037 0.08190873 -0.007097305 0.0019817315 0.004898992
0.018135108 -9.3000715e-05 -0.037494887 0.08617665 -9.910241e-05 -0.02687133 0.05966147 0.09459446
00000000: 871f b3bb 3bee 88bd 6e2d ab3d 71af 16bd
00000010: 609a df3d f052 fb3d 5c57 bbbd 3eea 9f3d
00000020: 3809 433c bd92 2fbd 46a8 cfbd 8877 fbbc
00000030: 4bdd c2bc 2d60 d0bc fd6c cd3d 774f 3a3b
00000040: a225 583d 28f3 8e3d 5dfc d0bc 2d3e 18bd
00000050: 4226 13bd 2f71 9cbd 3ce7 b73c 817e 03bc
00000060: 88b3 63bb 1bd7 ca3c 8995 913c bc7d 733d
00000070: 3d1d a83d 95bb 28bc e6bd 0f3d 48da 723c
00000080: f1a0 923c 6ab4 853c 619b 383c 4a1b 573d
00000090: aeba afbc a95b ef3b 0d54 173e 7671 a4bd
000000a0: 5107 8bbd ad19 80bd 1925 9aba b449 d93b
000000b0: 341d e8bc c2b2 863d fa03 87bd 5a97 553d
000000c0: b002 743b 22de 6fbd 5528 a3bd 4086 f83b
000000d0: b47c c2bb 25e7 8c3c 0377 33bd 1ef8 0c37
000000e0: 78e5 84bd 6052 ff3b c526 ab3c 0be4 5d3c
000000f0: 1bc7 913d c482 c5bc ea66 babb 364a c23c
00000100: ca16 563c 1031 dabc a567 bc3c e0f1 23bc
00000110: b7f8 87bc ff07 7a3c 545c 42bb 9e6a 6f3d
00000120: 2e1d 8bbd 93ae 843c ec3e 0d3d f1ad 76bd
00000130: 7a03 133e f80e 533c f7f2 193d 1fc1 093e
00000140: bc8c 78bd 35f1 3fba 2e4a 6f3c 4a82 2a3d
00000150: 762c 56bc a6ab bd3c cfcd a7bb 5f36 73bd
00000160: 2cf3 7cbd 2c8f 4d3b c93d 6b3d 7f9e 423d
00000170: 234e a33d 9427 99bd 458c 8abd 1782 1abd
00000180: 3f5b 08bd 773e 493c 2f07 673d 15cf c83c
00000190: 7c81 93bd adfd e2bc fd18 043d 5b41 98bd
000001a0: ed61 433d 1085 243d 3529 183d 5d0c 80bc
000001b0: 7aeb dc3c ead5 023d f4ca 30bc 696e 7f3d
000001c0: e74e 5ebc 470e 1fbd 4939 b1bb ad5f 43bd
000001d0: db22 43bd d30b 7b3d 38fa f2bc ab6a e63d
000001e0: c432 21bd bb81 febd 6c1f 98bc f851 d93c
000001f0: 3495 25bc 96ce 09bd 4b69 913d 7e21 8b3d
00000200: 1b79 6b3c 0582 2cbd 220c 11bd e277 8fbd
00000210: 811e 603c b323 c938 a623 7cbd 427e 083d
00000220: a563 583c f5ca e5bb 7288 623d b1fe c43d
00000230: 9de1 f03c 807a 1cbe 3df3 583d 51fe b93d
00000240: 9220 1ebc d8ba e33c f30e 903d 23e3 7fbc
00000250: e916 d0bc c217 edbc 38ba a53d 6df5 a6bc
00000260: 3cb0 2f3c 83c1 2bbd e8cd 373e b5c4 e7bc
00000270: 0f5b e83c 8627 833c fca6 07bb cddd 53bc
00000280: da11 f93c f662 35bb 9471 343d 762b 9f3c
00000290: a91f 103e 5237 593d 9d35 90bd 3362 63bd
000002a0: ea98 88bd b7de 213e 30ee 3fbe 270e 0d3d
000002b0: 8e26 7dbd a576 d4bc a63c aabc e475 fdbc
000002c0: c44a 843d c2fc 0ebd 73d9 20bd 72cd 74bc
000002d0: d016 663c 7114 29bc d1be 413d 7408 14bc
000002e0: 6d07 573d 8b79 a4bc 3ee0 883d 196e 1db9
000002f0: 2572 b8bd 6b6f 1bbe 8727 513c 8f81 e6bc
00000300: c678 16be d557 083e ec81 cabd 38a4 c0bd
00000310: 6a09 9ebd e784 6fbd 04da 47bd fee7 fe3a
00000320: 1d7f 2c3d e8a0 7b3d e0b2 7bbc 442e 8fbb
00000330: 19f9 103d 0412 3f3c d485 09bd fc1e 713d
00000340: 416b de3c d27d f63a 1dd1 7c3d d3a7 44bd
00000350: c56f 78bc 91a8 4b3c afb3 883d d0f6 4abd
00000360: 54d7 453d 64d2 6cbd a60a 82bd 6494 d83b
00000370: c5b0 4a3b f84a 583d cc4c 43bc 2273 ad3c
00000380: f86a 8ebc 545e 62bd 8b00 b33c 2280 bc3c
00000390: 3342 2cbe d2bc 153d 37a7 803e a7d7 b6bd
000003a0: f10d 47be 33de 0cbd e702 663d a9c2 cdbd
000003b0: 2b1d 61bd b36c 88bd 11dd c63d 4099 0bbd
000003c0: bdfe ec3d d4a2 403e 7b92 e6bb 06ed c1bd
000003d0: c4bf a73d 8290 e8bb f0df 013b b987 a03b
000003e0: 1490 943c 6109 c3b8 3d94 19bd 627d b03d
000003f0: 34d5 cfb8 4321 dcbc 965f 743d beba c13d

_orig_mod.dense_proj.bias f4 [64]
-0.08695381 0.029765008 -0.014540381 -0.02354007 -0.07601813 -0.120429225 -0.06822793 0.07250937
-0.10130476 0.026699245 -0.0694155 -0.123665296 -0.04387098 -0.08723113 -0.014163955 -0.07275765
0.01348178 -0.056136955 0.06767643 0.07933082 -0.10067801 -0.0917525 -0.043651544 0.096284926
0.055524208 0.0549033 -0.027548544 -0.11018646 -0.088755354 0.026821539 -0.06695734 0.026975056
-0.06792559 -0.033418845 0.00034744613 -0.10463984 -0.11153885 0.022844076 -0.11223065 0.07625872
-0.074664734 0.0069087124 -0.05163558 0.038757518 0.025052117 -0.061126698 -0.07040339 -0.049837653
-0.11527176 -0.032001566 -0.03803305 0.0059138024 0.08581442 -0.014946618 0.1082195 0.09907794
0.04020616 0.018844502 0.0009183672 -0.07983224 0.022782467 0.12685828 -0.05887443 0.0035164224
00000000: d714 b2bd bfd5 f33c c73a 6ebc 1bd7 c0bc
00000010: 65af 9bbd 99a3 f6bd 16bb 8bbd cb7f 943d
00000020: df78 cfbd 60b8 da3c b729 8ebd 3b44 fdbd
00000030: 0fb2 33bd 3ca6 b2bd ef0f 68bc f601 95bd
00000040: afe2 5c3c ddef 65bd f199 8a3d 3278 a23d
00000050: 4630 cebd bce8 bbbd f6cb 32bd 0831 c53d
00000060: 5a6d 633d 48e2 603d 7cad e1bc 70a9 e1bd
00000070: 5ec5 b5bd d8b8 db3c ee20 89bd cbfa dc3c
00000080: 921c 8bbd 33e2 08bd 6e29 b639 6a4d d6bd
00000090: 7b6e e4bd 8023 bb3c 2fd9 e5bd 882d 9c3d
000000a0: d3e9 98bd 7b62 e23b d47f 53bd 34c0 1e3d
000000b0: 193a cd3c fd5f 7abd a72f 90bd 9122 4cbd
000000c0: 9a13 ecbd 1314 03bd 8bc8 1bbd 92c8 c13b
000000d0: 78bf af3d a9e2 74bc 2fa2 dd3d 60e9 ca3d
000000e0: 37af 243d c95f 9a3c 94be 703a 167f a3bd
000000f0: 4ca2 ba3c 23e7 013e 5026 71bd c773 663b

_orig_mod.shared_mlp.0.weight f4 [128, 120]
0.08089872 0.13723981 0.019879002 -0.083037 0.04706392 -0.03238681 0.053825237 0.0129040815
0.00018969257 0.033023212 0.008920097 0.020467227 -0.11327686 0.0045294557 -0.017482538 0.029439043
-0.049293004 0.013933497 -0.09088522 0.08243025 -0.008213264 -0.088710256 0.024848916 -0.010101302
-0.020304866 -0.06573165 0.072427444 -0.05178056 -0.13465357 -0.13002162 0.03216373 0.013530346
-0.06472856 0.044639017 -0.01802741 0.03174436 0.043203294 0.007037004 -0.03049226 0.07593485
-0.029853297 0.024136586 -0.026888309 -0.018663486 0.0391337 0.04357877 0.015227868 0.0727199
0.042695392 0.016226027 0.017175827 -0.05244282 0.005306046 -0.008848415 0.02993703 0.06537279
-0.013028701 -0.028582232 -0.06917021 -0.061295927 0.01718993 -0.010571616 -0.0654762 0.0788377
-0.056482658 -0.034389503 0.0025622784 0.05484393 0.0078115626 0.062403467 0.025069112 -0.0095855985
-0.011363964 -0.106776275 -0.12424736 -0.07717865 0.007695821 0.012227422 -0.06666242 0.051278416
-0.036706403 0.05046768 -0.009383242 0.02031586 -0.04439716 0.10294966 -0.029318493 0.03580662
-0.011256222 0.053097073 -0.04502489 -0.0400571 -0.096117534 0.03756711 -0.08629955 0.05707372
0.0033123342 0.029101804 0.006291412 -0.021092221 0.033188086 -0.053543247 0.022290185 -0.014867974
-0.000117142554 -0.014351489 -0.07383444 -0.036179155 0.07088969 0.028130602 -0.08360254 -0.017847154
-0.057270173 -0.017221626 0.12545693 0.05981446 0.0054160454 -0.031299174 -0.011490013 0.004035936
-0.11012024 -0.06611663 -0.08361212 0.019805113 0.019093558 -0.04740236 -0.01942367 -0.08157289
-0.054107863 0.033047892 0.003641554 -0.04832834 0.1870096 0.097752824 0.013023803 0.07982478
-0.014940329 0.1772755 0.13358983 -0.042593397 -0.23389365 0.071469314 -0.0315143 -0.091581695
0.018679108 -0.008985236 -0.018430356 -0.08177761 -0.104718514 0.040714625 0.0072767567 -0.009287714
0.089760624 -0.050581176 -0.01845216 0.0196347 -0.0509993 0.08069391 0.09168874 -0.026388764
0.008474189 -0.20320757 0.0399843 0.13891459 0.08803779 0.06078451 0.017962866 0.008605728
-0.060022067 -0.009532824 -0.14548263 -0.054823607 0.011271939 -0.034500085 -0.030681737 -0.044561073
-0.026967214 0.056298323 -0.031086992 -0.073918715 0.047163025 0.06302211 0.028865036 0.06548735
-0.0019022987 -0.076540716 0.036048844 0.0045509744 -0.06548469 -0.04559138 -0.11536111 -0.09989678
-0.067581266 0.10101042 0.04050702 0.016712157 -0.0058478196 -0.037468016 -0.03898225 -0.030761452
-0.011911266 -0.06341549 -0.021917248 -0.06733479 0.049898148 -0.15714411 0.1224227 -0.025027698
0.016047949 0.051463477 -0.040579017 0.057005085 -0.057106085 0.07774738 0.0753083 -0.030417547
0.031032806 0.01073248 0.026728716 0.08511783 0.069668934 -0.14097084 0.021438053 -0.011300624
-0.012934583 0.020548366 0.014237925 -0.119860716 0.023415862 -0.06976142 0.048244834 -0.04527044
0.009308397 0.03406498 -0.09397323 0.06385294 -0.009385692 -0.06542959 -0.087922156 0.05195925
0.036014393 -0.029214839 0.08033454 0.0040986184 -0.010453181 0.04022468 0.007997818 -0.02730199
0.083988495 0.06781369 0.010507004 -0.04904586 0.1276752 0.009256153 -0.09959606 -0.06878017
00000000: 3aae a53d 9888 0c3e 4ad9 a23c 4d0f aabd
00000010: 19c6 403d 08a8 04bd da77 5c3d a46b 533c
00000020: 36e8 4639 5943 073d 9925 123c e3aa a73c
00000030: b3fd e7bd d46b 943b 8a37 8fbc 262a f13c
00000040: 76e7 49bd 5249 643c 0822 babd 31d1 a83d
00000050: ed90 06bc b9ad b5bd f48f cb3c ee7f 25bc
00000060: 6456 a6bc 519e 86bd d754 943d da17 54bd
00000070: a0e2 09be 6324 05be 1ebe 033d 62ae 5d3c
00000080: 6890 84bd 67d7 363d 38ae 93bc 6006 023d
00000090: f0f5 303d ab96 e63b e7ca f9bc bb83 9b3d
000000a0: e78e f4bc 17ba c53c df44 dcbc 2be4 98bc
000000b0: a94a 203d a77f 323d 4f7e 793c 2cee 943d
000000c0: 5de1 2e3d 72ec 843c 52b4 8c3c 48ce 56bd
000000d0: 57de ad3b f1f8 10bc 813e f53c 2be2 853d
000000e0: 5576 55bc 4925 eabc 1ca9 8dbd 7011 7bbd
000000f0: e5d1 8c3c 9234 2dbc 6318 86bd a975 a13d
00000100: 5c5a 67bd 02dc 0cbd e6eb 273b 07a4 603d
00000110: 23f8 ff3b c79a 7f3d bd5d cd3c ea0c 1dbc
00000120: eb2f 3abc 85ad dabd 6675 febd d70f 9ebd
00000130: 3a2d fc3b 8655 483c 4f86 88bd 5109 523d
00000140: 7459 16bd 33b7 4e3d 2bbc 19bc 726d a63c
00000150: ccd9 35bd 45d7 d23d 562d f0bc f6a9 123d
00000160: 046c 38bc 517c 593d 056c 38bd ea12 24bd
00000170: 45d9 c4bd f8df 193d d2bd b0bd 22c6 693d
00000180: bf13 593b e866 ee3c 3028 ce3b 98c9 acbc
00000190: 3bf0 073d 2a50 5bbd e899 b63c ce98 73bc
000001a0: 6eaa f5b8 8222 6bbc 8336 97bd 9830 14bd
000001b0: 9d2e 913d 2672 e63c cf37 abbd 3234 92bc
000001c0: 2194 6abd 5e14 8dbc c877 003e 0200 753d
000001d0: 1579 b13b 9033 00bd 9c40 3cbc e33f 843b
000001e0: b886 e1bd 2868 87bd d53c abbd 553e a23c
000001f0: 186a 9c3c fa28 42bd 631e 9fbc b00f a7bd
00000200: 35a0 5dbd 3a5d 073d 23a7 6e3b f0f3 45bd
00000210: 727f 3f3e a232 c83d ca61 553c 2d7b a33d
00000220: 48c8 74bc b587 353e c6cb 083e 6a76 2ebd
00000230: d181 6fbe 815e 923d 2315 01bd 2f8f bbbd
00000240: ee04 993c d036 13bc 42fb 96bc 057b a7bd
00000250: a976 d6bd 61c4 263d dc71 ee3b 7f2b 18bc
00000260: 6bd4 b73d 352e 4fbd fc28 97bc f3d8 a03c
00000270: a4e4 50bd d942 a53d 4ec7 bb3d 402d d8bc
00000280: 53d7 0a3c a515 50be 94c6 233d a03f 0e3e
00000290: 284d b43d 2ef9 783d dc26 933c 0aff 0c3c
000002a0: b3d9 75bd 902f 1cbc 66f9 14be b88e 60bd
000002b0: f0ad 383c f64f 0dbd 4458 fbbc ac85 36bd
000002c0: 59ea dcbc 1299 663d 26aa febc b262 97bd
000002d0: 042e 413d bc11 813d 5e76 ec3c 3b1e 863d
000002e0: 8d56 f9ba 61c1 9cbd f4a7 133d 5720 953b
000002f0: d61c 86bd 07be 3abd 7242 ecbd af96 ccbd
00000300: 0c68 8abd 8dde ce3d b0ea 253d efe7 883c
00000310: 119f bfbb 1078 19bd daab 1fbd 71ff fbbc
00000320: 7827 43bc fbdf 81bd cd8b b3bc d3e6 89bd
00000330: 0062 4c3d 63ea 20be c1b8 fa3d e306 cdbc
00000340: fd76 833c 5ecb 523d 2f36 26bd 2a7e 693d
00000350: 12e8 69bd 053a 9f3d 3d3b 9a3d 382e f9bc
00000360: 8338 fe3c 49d7 2f3c 2ef6 da3c 4252 ae3d
00000370: 96ae 8e3d a95a 10be db9e af3c 4126 39bc
00000380: 93eb 53bc 0c55 a83c 3046 693c 8979 f5bd
00000390: 9fd2 bf3c 13df 8ebd 609c 453d 7f6d 39bd
000003a0: 3f82 183c b887 0b3d 0975 c0bd 55c5 823d
000003b0: 72c6 19bc f3ff 85bd 8810 b4bd 39d3 543d
000003c0: d483 133d f553 efbc 6f86 a43d b44d 863b
000003d0: d243 2bbc a2c2 243d 4809 033c 6ca8 dfbc
000003e0: 2902 ac3d e7e1 8a3d 9225 2c3c 50e4 48bd
000003f0: 4abd 023e 1fa7 173c 05f9 cbbd 9edc 8cbd

_orig_mod.shared_mlp.0.bias f4 [128]
0.003953409 -0.13221686 -0.03940026 0.022016035 -0.14246379 -0.004968222 0.056296762 0.051407434
-0.06136966 0.035168692 0.05017065 0.09764914 0.015639273 -0.10596944 0.05626951 0.13109718
0.09408049 0.0903446 0.06040144 0.041535396 -0.054828323 0.055257607 -0.019597705 0.09833404
0.08966981 0.068494454 0.04499006 0.018486153 0.05200598 0.13086608 0.0010535582 0.048626482
0.102566324 -0.08745657 -0.19108617 -0.08637636 -0.01116569 0.014442522 -0.10189616 0.09328237
-0.08357964 -0.11070506 0.011177125 0.00027418617 -0.09040804 0.026241345 -0.0054506278 -0.026799776
-0.022843832 0.091344066 -0.038469106 0.07197312 -0.13170972 -0.043976188 0.0030896359 -0.022740046
0.013180706 -0.04040318 0.0070114853 0.07093874 0.081302546 -0.112202115 -0.09408721 -0.030519797
0.12302731 0.031040372 -0.12631315 -0.010480951 0.026484624 -0.04759379 0.10673392 0.031534307
-0.027462812 -0.031546526 -0.0185848 0.10127706 0.085372895 -0.06587431 -0.028762935 0.073742315
-0.10112044 -0.11069206 0.02045127 0.087309614 0.08489567 -0.112290815 0.044948567 0.03902195
-0.09816691 -0.075582236 0.03414962 -0.09012573 0.054018416 -0.024562344 0.043544192 -0.021209422
0.07584359 0.06894921 0.14467087 -0.09998116 0.13439679 -0.1081816 -0.025029289 0.06904443
-0.048825365 -0.15325832 -0.13443558 -0.06330102 0.108472146 0.09540087 -0.025157593 0.04927443
0.055641234 -0.0051932596 -0.021641033 -0.10719872 0.029265597 -0.021941116 0.089770675 0.018468931
-0.0020782065 -0.0724472 0.062583275 -0.037332106 0.07006919 0.08112387 0.05283792 -0.1040587
00000000: 998b 813b db63 07be 2b62 21bd f95a b43c
00000010: 07e2 11be 78cc a2bb 6f97 663d 9a90 523d
00000020: c15e 7bbd 0c0d 103d bd7f 4d3d 46fc c73d
00000030: ef1d 803c 8106 d9bd dc7a 663d 573e 063e
00000040: 46ad c03d 9706 b93d 8067 773d 0521 2a3d
00000050: aa93 60bd cd55 623d 5e8b a0bc 5b63 c93d
00000060: cea4 b73d d246 8c3d 7f47 383d 4670 973c
00000070: 3904 553d c201 063e 8c17 8a3a 902c 473d
00000080: 4b0e d23d 6e1c b3bd 18ac 43be 17e6 b0bd
00000090: 4cf0 36bc 54a0 6c3c efae d0bd d40a bf3d
000000a0: cd2b abbd 56b9 e2bd 4320 373c a5c0 8f39
000000b0: da27 b9bd 17f8 d63c 2e9b b2bb 348b dbbc
000000c0: fd22 bbbc 9912 bb3d c891 1dbd a566 933d
000000d0: eade 06be 6020 34bd 7d7b 4a3b 5549 babc
000000e0: e3f3 573c ce7d 25bd 9ac0 e53b 5548 913d
000000f0: f381 a63d 39ca e5bd ccb0 c0bd a704 fabc
00000100: bef5 fb3d 6148 fe3c 3c58 01be 4bb8 2bbc
00000110: 48f6 d83c b5f1 42bd 5097 da3d 1e2a 013d
00000120: b1f9 e0bc ee36 01bd 273f 98bc 596a cf3d
00000130: fcd7 ae3d 1ce9 86bd 3fa0 ebbc 3606 973d
00000140: 3c18 cfbd 85b2 e2bd 6c89 a73c 62cf b23d
00000150: c8dd ad3d baf8 e5bd fd1b 383d 7bd5 1f3d
00000160: bc0b c9bd dcca 9abd 79e0 0b3d d793 b8bd
00000170: 6a42 5d3d f836 c9bc 655b 323d 62bf adbc
00000180: e253 9b3d 3e35 8d3d 9a24 143e ecc2 ccbd
00000190: 509f 093e 518e ddbd 390a cdbc 2b67 8d3d
000001a0: 1bfd 47bd c0ef 1cbe 7ba9 09be f7a3 81bd
000001b0: a526 de3d 8861 c33d 4c17 cebc fcd3 493d
000001c0: 10e8 633d 382c aabb 8948 b1bc 018b dbbd
000001d0: 68be ef3c dbbd b3bc b0d9 b73d 284c 973c
000001e0: 8532 08bb 335f 94bd a92b 803d 8de9 18bd
000001f0: 6f80 8f3d 4624 a63d 936c 583d ba1c d5bd

_orig_mod.shared_mlp.3.weight f4 [64, 128]
0.02534155 -0.062420744 -0.026468607 0.040557172 -0.06680571 0.08721726 -0.012515459 0.027698705
-0.07122865 0.049460847 0.050349925 0.045680746 -0.04058358 -0.12212455 0.021063037 0.03130183
0.02005687 -0.024192413 0.0898358 0.013414718 -0.09102241 0.08234819 0.016998949 -0.033749267
0.02426905 0.061919782 -0.030182496 0.07223303 0.053896617 0.052129764 0.078894064 0.0010042425
0.088832304 -0.13719985 -0.15768176 -0.08172707 0.008440685 -0.014861736 -0.1539979 0.049376637
-0.14659776 -0.10216501 0.061819218 -0.009224163 -0.079231635 0.08842468 -0.112921715 -0.015976384
-0.04288663 -0.0024173667 0.02126019 0.09100066 -0.16341612 0.0074351444 0.02015777 -0.06986334
-0.01618629 0.02332258 -0.012920774 -0.03374055 0.061251685 -0.10903808 -0.08659389 0.10422922
0.027319403 0.09818403 -0.1857327 0.0009477626 -0.01886532 -0.13270894 0.022026971 0.06732705
-0.012833003 -0.11538268 0.061327748 -0.022848042 -0.016045354 -0.1005891 0.053997885 0.051365606
-0.17233367 -0.07720523 0.03726196 0.013669326 -0.014105477 -0.11490687 0.056890752 0.030071588
0.060468696 -0.07654017 -0.0029087227 -0.066727504 -0.017577093 -0.03149372 0.07195152 0.036747243
-0.037215192 0.07208067 -0.025859803 -0.068693385 0.102135666 -0.15183409 -0.0052960934 -0.02673512
-0.13114321 -0.18824695 -0.021780448 -0.0029090096 0.05000853 0.00907313 -0.10338766 0.012050222
0.02985312 0.021532007 0.050111286 -0.077205524 0.05699973 -0.017415252 -0.024016874 -0.004677543
0.10022854 -0.04577238 -0.02132669 0.05301634 0.094707616 0.05234172 0.018120464 -0.13570495
-0.005800853 0.016645586 -0.011673346 -0.016125549 -0.006064936 -0.010810712 -0.05140334 -0.07851467
-0.004867907 -0.08296284 -0.046697978 -0.0041566663 0.021259734 -0.00018386144 0.0056523834 -0.03960074
-0.022109494 0.0011789254 0.0446973 -0.07642904 -0.0059529473 0.0074581117 -0.046226636 -0.055905465
-0.062471714 -0.012623292 -0.073596604 -0.00088778656 0.024887504 -0.09948605 -0.0036224134 0.009281342
-0.026770806 -0.04920944 0.032091007 -0.0013134518 -0.046108697 0.015574579 0.01570402 -0.019620385
-0.018421724 -0.031303123 -0.009911145 0.034856103 -0.0061432016 -0.07984124 0.022556292 0.021204472
-0.033863902 -0.019245122 0.020511232 -0.00272987 0.050111134 0.008275569 -0.0381532 0.011225054
-0.013113558 0.0037026342 0.016671412 0.008600803 -0.06861164 -0.02742072 -0.010136613 -0.037198707
-0.04041364 -0.05475961 -0.0030771913 -0.027747279 -0.032702968 0.027666993 -0.044865333 0.014129603
-0.057809047 0.02144731 -0.025217745 -0.04473016 -0.055815414 0.025683654 -0.0071835136 -0.0789206
-0.00050602644 -0.02143254 -0.022701295 -0.013093735 -0.011747998 0.020213226 -0.014617757 -0.026538217
-0.008667464 -0.018925725 -0.010010419 0.04980468 0.012795559 0.014781245 -0.042854216 -0.0023748
-0.03285395 0.0033749295 -0.02619996 0.007404012 0.018778114 -0.007901747 -0.092128895 -0.042471614
0.0051928116 0.03149936 0.009443821 -0.005648914 0.001740508 -0.058507614 -0.00066740124 -0.08008278
0.003684059 -0.079422615 0.025746098 0.011383481 -0.008934802 -0.06059048 -0.0058251233 -0.030886982
-0.06638382 0.03719941 -0.08020798 -0.01943891 -0.027383909 -0.03833566 -0.06793605 8.4586434e-05
00000000: 1599 cf3c e5ac 7fbd b1d4 d8bc 471f 263d
00000010: 6fd1 88bd f69e b23d a40d 4dbc 65e8 e23c
00000020: 54e0 91bd 7597 4a3d b93b 4e3d bc1b 3b3d
00000030: f83a 26bd 701c fabd 648c ac3c 5936 003d
00000040: 4e4e a43c 2b2f c6bc d5fb b73d 68c9 5b3c
00000050: f569 babd 2ba6 a83d 6141 8b3c ac3c 0abd
00000060: e3cf c63c 999f 7d3d 4841 f7bc e9ee 933d
00000070: b3c2 5c3d 0586 553d 3693 a13d c9a0 833a
00000080: b6ed b53d 1e7e 0cbe 5477 21be 8660 a7bd
00000090: cd4a 0a3c a47e 73bc a0b1 1dbe 283f 4a3d
000000a0: b91d 16be e43b d1bd 2636 7d3d f220 17bc
000000b0: 3244 a2bd 0018 b53d 8043 e7bd e8e0 82bc
000000c0: e4a9 2fbd af6c 1ebb da29 ae3c 8e5e ba3d
000000d0: 8e56 27be 83a2 f33b e821 a53c 8314 8fbd
000000e0: 1c99 84bc ff0e bf3c a7b1 53bc 8833 0abd
000000f0: 0ce3 7a3d 5b4f dfbd 2358 b1bd 2176 d53d
00000100: f1cc df3c b514 c93d b730 3ebe 4573 783a
00000110: 728b 9abc dae4 07be e871 b43c c4e2 893d
00000120: 8441 52bc c14d ecbd ce32 7b3d d12b bbbc
00000130: 8c71 83bc a801 cebd e32c 5d3d be64 523d
00000140: 3d78 30be c71d 9ebd ff9f 183d 4ff5 5f3c
00000150: a91a 67bc 4b54 ebbd 4706 693d b158 f63c
00000160: 06ae 773d 18c1 9cbd 45a0 3ebb 6ea8 88bd
00000170: d6fd 8fbc 8fff 00bd 525b 933d 4784 163d
00000180: f56e 18bd 089f 933d f0d7 d3bc 1eaf 8cbd
00000190: 812c d13d 657a 1bbe da8a adbb 9c03 dbbc
000001a0: 684a 06be cfc3 40be e96c b2bc 15a5 3ebb
000001b0: bfd5 4c3d 77a7 143c e9bc d3bd 4b6e 453c
000001c0: 888e f43c e463 b03c 7e41 4d3d ee1d 9ebd
000001d0: 8d78 693d 6eaa 8ebc 09bf c4bc 1346 99bb
000001e0: 9f44 cd3d d27b 3bbd 50b5 aebc a927 593d
000001f0: 11f6 c13d 4564 563d 5e71 943c 3df6 0abe
00000200: 1515 bebb 535c 883c 9041 3fbc ba19 84bc
00000210: 5fbc c6bb 6a1f 31bc 4f8c 52bd 4dcc a0bd
00000220: f782 9fbb 6ce8 a9bd 6146 3fbd a534 88bb
00000230: e528 ae3c eeca 40b9 a137 b93b 6334 22bd
00000240: f81e b5bc 2c86 9a3a 8414 373d d486 9cbd
00000250: f110 c3bb 2d63 f43b 2458 3dbd 21fd 64bd
00000260: 57e2 7fbd edd1 4ebc d1b9 96bd 59ba 68ba
00000270: e1e0 cb3c 58bf cbbd 0366 6dbb c510 183c
00000280: 734e dbbc d68f 49bd dc71 033d 2128 acba
00000290: 79dc 3cbd 852c 7f3c b8a5 803c eeba a0bc
000002a0: 28e9 96bc b437 00bd 5b62 22bc 46c5 0e3d
000002b0: e94c c9bb ce83 a3bd f9c7 b83c 00b5 ad3c
000002c0: e0b4 0abd f2a7 9dbc 2c07 a83c 9ee7 32bb
000002d0: 5541 4d3d 4196 073c 8846 1cbd 4ae9 373c
000002e0: 40da 56bc e5a7 723b 7c92 883c 62ea 0c3c
000002f0: 4284 8cbd 6ba1 e0bc 0914 26bc ac5d 18bd
00000300: c688 25bd 9d4b 60bd b4aa 49bb 434e e3bc
00000310: 8cf3 05bd e4a5 e23c b6c4 37bd da7f 673c
00000320: 2ec9 6cbd 45b2 af3c 7295 cebc f936 37bd
00000330: b49e 64bd 8766 d23c ae63 ebbb 20a1 a1bd
00000340: dca6 04ba 4b93 afbc 11f8 b9bc 1b87 56bc
00000350: ad7a 40bc 3596 a53c 517f 6fbc ad66 d9bc
00000360: fb01 0ebc 1f0a 9bbc be02 24bc feff 4b3d
00000370: 77a4 513c 092d 723c e787 2fbd 88a2 1bbb
00000380: dd91 06bd ec2d 5d3b 4ca1 d6bc 5b9d f23b
00000390: 8fd4 993c 5476 01bc 13ae bcbd b7f6 2dbd
000003a0: 7628 aa3b 7905 013d 42ba 1a3c 861a b9bb
000003b0: c221 e43a aea5 6fbd 8af4 2eba 7102 a4bd
000003c0: 4170 713b 53a8 a2bd 7be9 d23c c881 3a3c
000003d0: 4763 12bc b92d 78bd ade0 bebb b206 fdbc
000003e0: 3df4 87bd 695e 183d 1544 a4bd 593e 9fbc
000003f0: 3854 e0bc da05 1dbd 0e22 8bbd ff63 b138

_orig_mod.shared_mlp.3.bias f4 [64]
0.11886098 -0.00902749 0.017538741 -0.008343116 0.09798095 -0.03393277 -0.077511325 -0.043476205
-0.12134098 -0.04209335 0.075681984 0.08498939 0.11796303 -0.0047734263 -0.055723906 0.15199046
0.15561755 -0.011736934 0.14185369 0.0644644 0.137153 -0.08208856 -0.083712794 -0.052078683
0.12559058 -0.104239866 0.11103619 -0.057337202 0.13681501 0.06568021 -0.07503487 0.11219637
0.024367077 0.07803674 -0.07334821 -0.042736944 0.016553616 0.067116775 0.15153547 -0.04022218
0.040873647 -0.038457777 0.07516667 0.15163437 0.021713134 -0.09031951 0.10358532 -0.08095175
0.16215523 0.040669575 -0.08876695 -0.024619723 -0.08068418 0.03464354 -0.0346596 -0.036065806
-0.11651916 -0.01670014 -0.07644405 -0.076607436 0.016999917 0.022993995 0.032094833 0.030486673
00000000: 636d f33d 0ae8 13bc 68ad 8f3c 91b1 08bc
00000010: 3caa c83d 17fd 0abd 42be 9ebd 1b14 32bd
00000020: 9f81 f8bd 146a 2cbd 28ff 9a3d eb0e ae3d
00000030: 9a96 f13d 676a 9cbb c03e 64bd 63a3 1b3e
00000040: 355a 1f3e 454c 40bc 1842 113e e905 843d
00000050: d671 0c3e 0c1e a8bd 9d71 abbd 7550 55bd
00000060: d19a 003e b67b d5bd f166 e33d 6ada 6abd
00000070: 3c19 0c3e 5983 863d e2ab 99bd 36c7 e53d
00000080: 779d c73c bad1 9f3d 9637 96bd ef0c 2fbd
00000090: 739b 873c 8574 893d 1d2c 1b3e 03c0 24bd
000000a0: 206b 273d e785 1dbd fcf0 993d 0a46 1b3e
000000b0: bedf b13c 6ff9 b8bd 8a24 d43d 08ca a5bd
000000c0: 050c 263e 2495 263d 72cb b5bd 4daf c9bc
000000d0: bf3d a5bd 62e6 0d3d 3af7 0dbd bdb9 13bd
000000e0: 99a1 eebd bbce 88bc b38e 9cbd 5ce4 9cbd
000000f0: 6943 8b3c e75d bc3c df75 033d 30bf f93c

_orig_mod.ctr_head.weight f4 [1, 64]
-0.08904314 0.18600872 -0.07529773 0.22207703 -0.06934504 0.25085586 0.1246382 0.17906411
0.23133759 0.24283071 -0.07531736 -0.07118886 -0.089512825 0.16380455 0.21298616 -0.08269042
-0.070316434 -0.09810346 -0.120613135 -0.075804956 -0.09969279 0.2464313 0.25097528 0.23056462
-0.07825113 0.22720686 -0.062444743 0.22682217 -0.10630756 -0.0773787 0.20472692 -0.06422152
0.23400183 -0.09689961 0.1451958 0.20777985 -0.082741745 -0.089155175 -0.07065603 0.2415967
0.24772595 0.22835976 -0.1106531 -0.11360997 0.06245924 0.20888503 -0.09860996 0.1981258
-0.081697084 -0.060355134 0.068551935 0.21869533 0.20881668 0.19927584 0.2443803 0.15389645
0.20945136 0.13715601 0.14543405 0.16060306 -0.06827455 0.16373233 -0.08771043 -0.0722029
00000000: 405c b6bd 1279 3e3e b235 9abd 2968 633e
00000010: c604 8ebd 2e70 803e 5042 ff3d 955c 373e
00000020: c3e3 6c3e 9da8 783e fd3f 9abd 77cb 91bd
00000030: 8052 b7bd 61bc 273e 0b19 5a3e 9859 a9bd
00000040: 1002 90bd 78ea c8bd 0504 f7bd a13f 9bbd
00000050: bc2b ccbd 7d58 7c3e d57f 803e 2219 6c3e
00000060: 2142 a0bd eaa8 683e 0fc6 7fbd 1244 683e
00000070: c7b7 d9bd b978 9ebd efa3 513e 9386 83bd
00000080: 2d9e 6f3e 4d73 c6bd 35ae 143e 3ec4 543e
00000090: 8174 a9bd fd96 b6bd 1cb4 90bd 2065 773e
000000a0: dfab 7d3e 24d7 693e 189e e2bd 58ac e8bd
000000b0: 43d5 7f3d f5e5 553e 05f4 c9bd 7de1 4a3e
000000c0: cd50 a7bd f236 77bd f564 8c3d abf1 5f3e
000000d0: 0ad4 553e f70e 4c3e d43e 7a3e 0897 1d3e
000000e0: 6b7a 563e a072 0c3e aaec 143e 2175 243e
000000f0: 87d3 8bbd 73a9 273e 87a1 b3bd 1ddf 93bd
