experiments/exp_20251006_004731/models/checkpoint_epoch2_auc0.7261_logloss0.0879.pth (torch, 137410 bytes, 12 tensors)

_orig_mod.embeddings.gender.embedding.weight f4 [5, 8]
00000000: 1cfd 863d daa6 3b3c d185 0d3b d400 22bc
00000010: 3f47 d2bc b8c5 4b39 3c8c f03c feec b73c
00000020: 199a 303f a2ea d63f bffe cebc 88bb a9be
00000030: e106 b73e 1642 88be 26be ca3e f85c 113f
00000040: 348a 0e40 76ec 883f 196a 8a3f 6e3a 023e
00000050: fdc9 d6be b71b 3c3f bedb 52be 5996 363e
00000060: 1095 3737 b9e9 0520 1b59 50be fb7c 7f3d
00000070: b748 263e 87b4 8b1d b3d5 6d38 4296 1db7
00000080: dc3c 443d e08d 173a e5b5 62aa 7aed b9b8
00000090: d733 053d a013 aebe 7af6 e5aa b17b 72be
0.065912455 0.011453355 0.0021594653 -0.009887893 -0.025668738 0.00019433245 0.029363744 0.022451874
0.68985134 1.6790354 -0.025267957 -0.33150887 0.35747436 -0.2661292 0.39598197 0.56782484
2.2271852 1.0697162 1.0813628 0.12717602 -0.4195098 0.7347979 -0.20591637 0.1783079
1.0942356e-05 1.134287e-19 -0.20346491 0.06237505 0.16238676 3.6979655e-21 5.6704226e-05 -9.392914e-06
0.047909603 0.0005781334 -2.013594e-13 -8.865721e-05 0.03252014 -0.33999348 -4.08496e-13 -0.23679997

_orig_mod.embeddings.age_group.embedding.weight f4 [15, 8]
00000000: af83 41bb b8db 2a3c cb4a 50bb 7c7e 8ebd
00000010: a2cb 393b 8c9a 893c 0774 f2bb bfd9 e0bc
00000020: 2223 d7bb 3649 c0bd 04b3 65bd 258b d0be
00000030: 5dfb 8c3e 84aa 213d 709e 16bf 8de9 263e
00000040: 0ee8 553f b1b4 2d3e 7cb1 f83e fcad 04be
00000050: 401c 27bf ae36 513f 02d9 a4bd 0e2f 0ebf
00000060: 0408 c4be ef44 0c3f 97e4 243e dc48 193f
00000070: c8a1 3cbf 8092 59bf 632e 60bf ca89 863f
00000080: 34df c8bd 533b 90be 4b56 21bf 1bf6 b7bd
00000090: 19a3 43bf ec07 123f 8c75 1abf ff88 52bf
000000a0: 5d99 06bf 6606 48bf be36 03bf 7073 4b3f
000000b0: b65d 25bf 19bb f53e dcbb 473f afe0 b5bf
000000c0: df40 ba3f 5cfc 213e e3b2 dbbe 8b0a dfbe
000000d0: 60f8 753d fe50 8cbf 6dc2 d7bf 2d3c fabe
000000e0: 4307 a33e df58 f13e 59c1 73be 8eca 523e
000000f0: d99a c33e a1dc 513f 04ca 18bf 5459 07bf
00000100: 3341 6fbf 5272 a43e f120 5f3f a36b 093e
00000110: ad25 3c3f 4387 b53e 5e55 b53e a8f8 23be
00000120: d304 3e35 cc97 5cb7 c0e5 d318 4bb6 a52b
00000130: 2de4 c53b 0178 441a 6fb5 f097 0053 f6b6
00000140: 2884 8f1b 6250 741c 22ae fb28 376c 13ac
00000150: b6d0 ba3c bb42 0c37 1848 ddbb b970 a63e
00000160: 2546 b2b6 fd41 5dbe 679e 5db9 f1e8 e436
00000170: 1fb0 e519 0b3d eb2a 07e5 12bc 91bc 4b2c
00000180: 6b50 3520 dddb 1dba 7613 9ab0 8d77 6a31
00000190: 634b d93e 35f6 3bbe 3124 92bd 897d 71b5
000001a0: 9644 803c 2f7c 93b7 2c08 1ebb dabd 4919
000001b0: 9ce1 8536 1cfb 97b8 5473 82bd 482e ef38
000001c0: 86fb ac39 84ee 41ab 3e78 31b4 79cf e8bc
000001d0: 62b7 86bd 2a8d 313b 3252 b337 d7c3 38bd
-0.0029527952 0.010428362 -0.0031782861 -0.06957719 0.0028350134 0.016797327 -0.0073990854 -0.02744758
-0.0065654675 -0.09388964 -0.056078926 -0.4073116 0.27535525 0.039469257 -0.58835506 0.1630003
0.8355721 0.1696346 0.4857291 -0.12956995 -0.6527748 0.8172406 -0.080492035 -0.5554055
-0.38287365 0.54792684 0.16102825 0.598768 -0.7368436 -0.84989166 -0.8757078 1.05108
-0.098081976 -0.2817026 -0.630223 -0.08982488 -0.7642074 0.5704334 -0.6033561 -0.8224029
-0.52577764 -0.78134763 -0.51255405 0.7947302 -0.64596117 0.47994307 0.78021026 -1.4209193
1.4551047 0.15818924 -0.42909917 -0.4356273 0.060051322 -1.0962217 -1.6856209 -0.48874035
0.31841478 0.47138116 -0.23804225 0.20585081 0.38204077 0.8197728 -0.5968325 -0.5287068
-0.9345886 0.3211847 0.8715964 0.13419966 0.7349499 0.3545476 0.35416692 -0.16012824
7.0787536e-07 -1.3148365e-05 5.477421e-24 1.1774552e-12 0.0060391636 4.0628788e-23 -1.5555437e-24 -7.341034e-06
2.374277e-22 8.083672e-22 2.7942116e-14 -2.0950028e-12 0.0228046 8.360187e-06 -0.006752979 0.32507876
-5.3129793e-06 -0.21607204 -0.00021135212 6.8220475e-06 2.374918e-23 4.1786743e-13 -0.008965737 2.895271e-12
1.5357904e-19 -0.0006021837 -1.1210506e-09 3.4119438e-09 0.42440328 -0.1835564 -0.07135809 -8.9962174e-07
0.015657704 -1.7581593e-05 -0.0024113758 1.0429797e-23 3.9899733e-06 -7.247014e-05 -0.06369653 0.000114050286
0.00032993796 -6.889838e-13 -1.6528153e-07 -0.028419243 -0.06577946 0.0027092197 2.1376738e-05 -0.045108642

_orig_mod.embeddings.inventory_id.embedding.weight f4 [50, 16]
00000000: 98b6 463e 8262 503e 471c 31bf e084 b4be
00000010: cba4 3f3f f78a 0bbe 9ce1 29bf bd34 033f
00000020: 4314 823f 7596 7d3d 70e3 55bf e978 113e
00000030: 5369 793b e58f 973f ddca 7cbe d0c8 a6be
00000040: 57c3 8cbe d29c d2bd cc3e 8bbe 3370 a03e
00000050: 3d62 893e 5f68 57be 0194 71be 1bbb 933e
00000060: 7f97 203d 7ff9 d2bd 2de2 3dbe 8f3f 6e3e
00000070: a2e7 cbbe df65 7e3c 6343 3d3e 4576 79be
00000080: b23b 09bf efb0 76bf 1191 98be 6940 a23f
00000090: 0c9b 8e3f 5c0d 253f a37d 7b3f 1712 293d
000000a0: 42ba 32bf 305d 5c3e e1d6 b4bf ba07 97bf
000000b0: 2b84 d13e 2784 8f3e d009 e93e f9d1 afbf
000000c0: 0038 933c a6a7 11bb 5543 3b3a 8436 6dbc
000000d0: bece 14be 0f82 e93c 02c1 013c 6349 9bbd
000000e0: be74 143a 3585 5b3c cbd0 29ba 9e65 03b9
000000f0: 775d 6c3c c875 3e3f bb38 c53b e6e0 053c
00000100: b9c9 99bf 3fc3 1f3f 403a 173f 395a 5d3e
00000110: b4ae 19be 1808 86be c2f4 1dbf dac4 583e
00000120: 2d9d 6dbf 0bd7 febf ff6e 583f 5ca2 b03e
00000130: c7c7 103e c1b2 703f 7816 dcbf b096 febe
00000140: e3f8 f5be 434f d33e 4fcd a6bd 9456 9e3e
00000150: 3e30 10bf 33d1 bfbf 2983 0b3f d3b8 2f3f
00000160: 4e91 383e ef93 9ebe 8a9f f23b 1cc4 1bbe
00000170: 63c0 dbbe 4da2 6ebe a6f1 9ebc 31cb cc3e
00000180: 1b30 7cbe 3e2c acbf 438f 12bf 0343 ff3d
00000190: b8d0 c33e 2f37 223f d52d f4bf 701a debd
000001a0: 0bc4 43be 7fa5 543e 7f8f 933f d0ec c7bf
000001b0: 3c92 60bf 77bf a03e af54 a2be de23 813e
000001c0: b901 0f3e dcb9 b0bf d5db ee3e 9c05 2b3e
000001d0: 32db 883f 8a9f 1bbf 34d4 f33e e4cd a23f
000001e0: 57ed c8be b80a 80bf 57f3 743f 571b fc3e
000001f0: c814 dd3d 144a cdbf 8972 08be 0706 54be
00000200: 0da2 24bf cd1e e0bd a142 adbe f80d a13e
00000210: 4020 5d3e 3acc 883e 5519 8bbe cc71 bc3e
00000220: 4c14 6ebd 7809 edbd 9189 6ebe d384 3a3f
00000230: d835 3fbe 7627 853e 77d2 da3d b093 b7bd
00000240: 870e d3be 0451 823f 6014 613f 74e3 50bf
00000250: a1b4 a83f 0366 eebe 8474 cf3e 5fdd 233f
00000260: 76a0 30be 6adf 043f 7369 173d e993 b4bf
00000270: 66ba 2a3d d69c 3fbc 28c0 0f3f fd7c 13bd
00000280: b88f 2a3f 0b69 b4bf ba3a 893f b940 74be
00000290: fec5 52bf 2646 8cbf 5046 eb3d 8837 cc3f
000002a0: b064 973e ac6c d7be b272 963f 8a4b 203e
000002b0: 9a05 2b3e d8a2 193f a479 003f 9f3c e4be
000002c0: 8c40 abbe d6bb d6be 5495 15bf 4002 7c3e
000002d0: 1d28 053e 53f0 823e 1494 683f 9949 0a3f
000002e0: c578 0bbd 79fe f63e 48c4 43bd 3b1e 703e
000002f0: 3427 0f3f 7732 e63f bdcb 3f3e 93c6 45be
00000300: d7f5 88be db33 fdbe 3bdf f2be 247c 953e
00000310: e2bd 54be 2dc4 1d3f bbf2 86be 38da 023f
00000320: ed47 263e 5b79 943d f145 593f abeb 7f3d
00000330: 46b1 a0be d1e5 083f 3667 21be cd5b ccbe
00000340: 22b3 51be d970 763f f0a1 d6be 3b6b 8f3e
00000350: b7e7 6b3e f827 27bf 79a1 97be 3eb5 533e
00000360: a5c1 d1bb dfe8 ac3b 8b90 66be 671e 98bd
00000370: 2a47 71be f19e 7e3f 11d8 ca3d 8193 9dbe
00000380: db74 c93e c2d2 66be adf2 b6be f91c 56bf
00000390: aa78 a63f c16f a83e 03e3 d73f 118e e13e
000003a0: 4144 23bf 9d39 0dbf 5b7a 47bf bacb 90be
000003b0: fea2 02bf 0d3a 30be ca7e 4fbf 48a9 1c3e
000003c0: 9f13 1dbf 1921 c23d 3ec1 92bd bd16 853e
000003d0: a8e7 8ebc 1fbb 0cbc eeda 8a3d 7896 973e
000003e0: 40d2 3e3e 6d43 5f3d 75c7 833d 1cc4 8cbe
000003f0: f529 48bf b121 1cbf 5d3c 74be b4c4 413e
0.19405591 0.20350078 -0.6918377 -0.35257626 0.7486083 -0.1362723 -0.6635988 0.5125235
1.0162433 0.061911065 -0.8355017 0.1420628 0.0038057163 1.1840788 -0.24686761 -0.32575083
-0.27492782 -0.10283817 -0.27196348 0.313356 0.26832762 -0.21035908 -0.23591615 0.28853688
0.039206978 -0.10301494 -0.1854331 0.23266433 -0.3982516 0.015527218 0.18482737 -0.24361522
-0.5360671 -0.9636373 -0.29798177 1.2675906 1.1141067 0.6447351 0.9823858 0.041277017
-0.69815457 0.21519923 -1.4128076 -1.1799233 0.4092115 0.28030512 0.455153 -1.3735954
0.017971039 -0.002222517 0.0007143517 -0.01447833 -0.14531991 0.0285044 0.007919552 -0.07582357
0.0005663148 0.013398458 -0.0006477951 -0.00012530989 0.014426581 0.7439847 0.0060187257 0.008171296
-1.2014686 0.62407297 0.5907326 0.21616448 -0.1500805 -0.2617805 -0.61701596 0.21168843
-0.92817956 -1.9909376 0.84544367 0.3449887 0.14138709 0.94022757 -1.7194357 -0.4972434
-0.48041448 0.4127141 -0.08144628 0.3092543 -0.5632361 -1.4985718 0.5449701 0.68641394
0.1802418 -0.3097224 0.0074042724 -0.15211529 -0.42920217 -0.233041 -0.019402336 0.39998773
-0.24627726 -1.3451002 -0.5724985 0.12463953 0.38245177 0.63365453 -1.9076487 -0.10844886
-0.19117753 0.20766257 1.1528167 -1.5619144 -0.87723136 0.31396076 -0.31705233 0.25222677
0.13965501 -1.380672 0.46652094 0.16701359 1.0691893 -0.6079031 0.47622836 1.2719083
-0.39243576 -1.0003271 0.9568381 0.4923961 0.10794979 -1.6038232 -0.13324942 -0.20705424
-0.6430977 -0.10943375 -0.33839896 0.3145597 0.21594334 0.26718313 -0.27167764 0.3680557
-0.058124825 -0.11574072 -0.23294665 0.72858924 -0.18672884 0.2600667 0.10684674 -0.08963716
-0.4122202 1.0180974 0.87921715 -0.81597066 1.3180124 -0.46562204 0.40518582 0.6400966
-0.17248711 0.519034 0.0369658 -1.4107639 0.04168167 -0.011695107 0.5615258 -0.03600787
0.6662555 -1.4094557 1.0721047 -0.23852815 -0.8233336 -1.0958908 0.114880204 1.5954447
0.29569006 -0.42075098 1.1753752 0.15653816 0.16701356 0.60014105 0.5018561 -0.445775
-0.33447683 -0.41940182 -0.5843098 0.24610233 0.13003583 0.25573978 0.9085095 0.5401855
-0.03405072 0.48241022 -0.04779461 0.23449032 0.55919194 1.7984151 0.18730064 -0.19314031
-0.2675006 -0.49453625 -0.47435936 0.29196274 -0.2077556 0.61627465 -0.26357064 0.51114225
0.16238375 0.07249709 0.8487235 0.06248061 -0.3138525 0.5347567 -0.15762028 -0.39913788
-0.2047849 0.9626594 -0.41920424 0.28011498 0.23037611 -0.6529536 -0.2961538 0.20674607
-0.006401258 0.005276784 -0.22516076 -0.07427674 -0.23562303 0.99461275 0.09904493 -0.307766
0.39346966 -0.22541335 -0.35732022 -0.8363796 1.3005574 0.3289776 1.6866153 0.440537
-0.6377602 -0.55166036 -0.77921075 -0.2828043 -0.51029956 -0.17209645 -0.8105284 0.1529895
-0.61358064 0.09478969 -0.07165764 0.2599391 -0.017444447 -0.008589535 0.06780039 0.29606986
0.18634892 0.05450766 0.06434528 -0.2749337 -0.7818902 -0.6098891 -0.23851152 0.18922693

_orig_mod.embeddings.day_of_week.embedding.weight f4 [10, 8]
00000000: 531a 05bf 42d6 12be 25bc 0fbf eab7 91bd
00000010: f854 103f 9b25 c23c 98ae bbbe cb64 0840
00000020: e719 30be b64b ddbe 9275 903e d6a2 3abf
00000030: 06f3 4f3f 3bf3 223e b486 2abf b19a 513e
00000040: d9ec 3cbf b304 433f 71c4 a3be 132b 5a3f
00000050: c2ba b23f 3f7a 363f 4f24 4dbf 7ceb 9abe
00000060: c166 593e add6 3dbf 11bd 673e 45fb eb3e
00000070: 6e4b 733f a4db c2bf e21e 42bf 3be8 ccbe
00000080: e961 83bf 27c9 d73e 5e61 033f 98cc b3bf
00000090: f384 b8bf 10df b9bd ad71 1c3f 4a19 c33e
000000a0: 324e 19bd bea3 d43e bb5b 813d 3d29 26bf
000000b0: 09b3 143f 14e2 e0be f77a 743e d480 353f
000000c0: 784b d7bf 024e d03e 3d8d 133d df30 e6bf
000000d0: 61e3 2fbf ddf1 963f 126c a43e 0b87 553f
000000e0: f242 5899 e596 e8bc 1b62 75b9 0d28 e615
000000f0: 204a 3db3 d815 8733 d502 abba e722 bd3d
00000100: b1dd 9fa1 64b4 d827 26f3 0d3f fbb2 ea38
00000110: f6c8 36be f138 f5bc acad 2b3b f3a9 691f
00000120: 0547 9f19 bf67 d6bc 1417 dd3b 012f 5aa3
00000130: 971d 84a7 2b71 5023 938b 8b37 7828 219d
-0.5199329 -0.14339545 -0.5614646 -0.07115157 0.5637965 0.023699572 -0.36656642 2.131152
-0.17197381 -0.43221825 0.282147 -0.7290472 0.812302 0.15913098 -0.6661179 0.20469166
-0.737989 0.76179045 -0.3198581 0.85221976 1.3963244 0.7128028 -0.8013353 -0.30257785
0.21230604 -0.74155694 0.22630717 0.4609014 0.9503697 -1.5223279 -0.75828373 -0.40020928
-1.0264255 0.42145655 0.51320446 -1.4046812 -1.4415573 -0.09075749 0.61110955 0.38105232
-0.03742809 0.41531175 0.06316324 -0.64906675 0.58085686 -0.43922484 0.23875032 0.708997
-1.6819906 0.40684515 0.036023367 -1.7983664 -0.6870633 1.1792561 0.321137 0.83409184
-1.1180458e-23 -0.028392265 -0.00023401568 9.295945e-26 -4.4072408e-08 6.290401e-08 -0.0013047109 0.09235173
-1.083294e-18 6.0147623e-15 0.5544914 0.00011191327 -0.17850098 -0.029934378 0.0026196046 4.9480248e-20
1.64689e-23 -0.026172517 0.006747136 -1.1827757e-17 -3.666944e-15 1.1299667e-17 1.6635086e-05 -2.1329094e-21

_orig_mod.embeddings.hour.embedding.weight f4 [30, 16]
00000000: cf20 2bbf 67e4 01bf 9d71 143f 151b 8e3e
00000010: 087e 4e3e cc1a 65bd 47f3 06bf 06c7 18bd
00000020: d3a9 c23f a3d1 0c3e 79b4 34bf ebf9 c5be
00000030: 09f6 47bf bc57 11be 6fb2 11be c9c9 c5be
00000040: fe98 203e de13 c9bc ffaf 2b3f 4eed 923d
00000050: d0ce 7e3d 8fca 0d3f 8641 aa3e 1447 493e
00000060: ad82 febd d8e6 993c a62e e3bd 69c2 c5be
00000070: 8353 873e 25ed 853c 04e3 b5bd 9598 eb3d
00000080: e289 b2bd 1fd8 d1bd f3c2 133c c0bd 5d3d
00000090: c8fb 38be e4f9 9c3e 5a14 67bd cb3b 1e3d
000000a0: 138d 6dbd b806 ec3c 86f5 3a3d 373d 5ebd
000000b0: b845 f9bc ef7a 0fbd 9dd5 90bd 0f0b 55be
000000c0: 5b2b 5b3e 96dd fabe 6334 dabc 8278 493d
000000d0: 0757 563e 3e84 3fbe c23b 94bd cb4a c03c
000000e0: 267d 0cbd 2fec d93c 7caa 023f 34ee 603d
000000f0: d0b5 233e 7b7e 79bd 3b29 b1bd e267 ebbd
00000100: a57c 123d 5423 aebe f9b9 0ebe 69ec b73c
00000110: fedf 033e ee3f b3bd f154 9cbd 94c0 633c
00000120: 0597 f7bc df74 0dbd 3bec 0bbe 0b65 99bd
00000130: dd66 46be 30df 6a3e 3247 7dbe 4baa f63e
00000140: ef84 383e 95d8 83be f40d 053f 7e2d ee3d
00000150: 0810 9f3d 6e8a 8bbe 53ab 853e a44c 96bc
00000160: a5fa 083e 92c9 82bc 590b 303f d9ac 263e
00000170: c466 c43e bf0d 0c3e ab17 f6bd 1841 45bf
00000180: 367d 1c3d a674 31bf 9f34 4c3f 09cf e7be
00000190: fb4c 71be 68e5 8f3d e99b 1a3d f137 ec3e
000001a0: bc5b f03e 006f 003e 3346 c2be f33f 87be
000001b0: 2ae1 0fbf ec0a 4d3f 89dc 4bbb e8b2 83be
000001c0: 9dbd 99be e04f 03bf 156b d53f a2aa 923e
000001d0: 1d16 1e3f 2617 f4be 1886 513f 5c45 f83e
000001e0: 723c 5b3e b3dc 403e 17e8 773f ce2c 2440
000001f0: 104b afbf 5de8 013f 72bf 50bf f45d 843d
00000200: 3e50 3bbf 29f4 7b3e 93b3 6abc 7e6b 65bf
00000210: ccad e73d 1080 74bd a8d1 3dbf 470d eabe
00000220: 70c1 8e3e 5924 1f3e 407f 993d 551b dabc
00000230: 45e2 73bd 1f3e 913f bae9 c73e f71c 83be
00000240: 8288 ed3e 7957 a2be a6fe 72be f2e7 6d3e
00000250: 5eea 923e cbe6 9dbf 9a02 4dbf 901f 383f
00000260: c1b0 a13f 5119 2c3e a5a8 8c3f 765f 9ebe
00000270: 0157 38bc b119 94bf 0bfa 973f eac0 75be
00000280: fc6c 0e3e 103d 123e 9480 033d 580e abbd
00000290: 2480 ccbe a1ca 10bf 801a 193f fb4d 2d3e
000002a0: 227f 4bbe 0794 f4be 9db5 463f 4968 36bd
000002b0: 9e5c 92bd b7d0 69bc 2df5 67be 3f93 003e
000002c0: 0190 a43d 5703 013e 199e febe a4db 92be
000002d0: e980 efbe d989 28bf 0c25 8f3d fa90 05bf
000002e0: a5b1 77be 560c 3e3f 8a4b 6a3d 7530 9a3c
000002f0: a9c3 2cbf 3913 cf3e 9e5d b83e 0f41 dcbd
00000300: ad27 fabe e5fe 783e 7917 fdbd 12b1 13be
00000310: 3e1b b63e 3aa2 4bbe d8fe fb3d 696e 853d
00000320: 7dbf cd3d 6dee 40be 3353 353f 14d3 37be
00000330: a94c 213f d0e0 f1be 1537 f3be 082d 0c3f
00000340: 48c2 49bf f1bf 113e 4de0 09bf 8172 ff3d
00000350: 7c67 40bf 6d5b 45bf ac45 40bd ee46 9e3d
00000360: f695 7bbe bf15 acba aa76 9abc 53ba 693e
00000370: e556 edbe 05b1 03bf ebe7 9a3e 7d02 4abd
00000380: a88c a53d 8d28 343e 4ccd e0be 6d59 043f
00000390: a5f9 4dbd 8bd0 cb3e cd7b 14bf a22b aa3d
000003a0: 6ee4 f6be ced3 3abe fc5e 273f ebde 8c3e
000003b0: 4016 82bf cd9a a53e 7764 dc3d bacd 0f3e
000003c0: 6ced 343e 7d91 0c3e 566f 98be f844 a7be
000003d0: a623 f9be 8664 5e3e 0f8f f83e ec06 043f
000003e0: 2d1b 88bd eba4 7d3f 7127 0b3e f9b5 bfbe
000003f0: c1aa 913e 6f22 c43e bd6f 313f c718 263d
-0.66846937 -0.5073914 0.5798586 0.27755037 0.20165265 -0.05593376 -0.5271496 -0.03729918
1.5208076 0.13751845 -0.7058788 -0.38667235 -0.78109795 -0.14193624 -0.14228223 -0.38630512
0.15683362 -0.024545606 0.67065424 0.071741685 0.06220895 0.55387205 0.33253115 0.1965602
-0.12427268 0.018786833 -0.11092882 -0.38624886 0.26430902 0.01634843 -0.088811904 0.11503712
-0.08717705 -0.102463 0.0090186475 0.054136038 -0.18064797 0.306594 -0.056415893 0.03863124
-0.057995867 0.028811797 0.045644306 -0.054257598 -0.030428752 -0.035029348 -0.070719935 -0.20805
0.21403258 -0.48997182 -0.026636308 0.04918719 0.20931636 -0.1870279 -0.072379604 0.023473164
-0.03429904 0.026601879 0.5104139 0.05491467 0.15987325 -0.060911637 -0.08650442 -0.114944234
0.0357634 -0.34011328 -0.1393813 0.022451596 0.12878415 -0.08752428 -0.07633389 0.013900895
-0.030223379 -0.034535285 -0.13664334 -0.074899755 -0.19375177 0.22936702 -0.2473419 0.48176798
0.1801946 -0.25751176 0.51974416 0.11629771 0.077667296 -0.2725405 0.26107273 -0.018347092
0.13376863 -0.015965257 0.68767315 0.16276874 0.38359654 0.13677119 -0.12016233 -0.7705245
0.038205348 -0.69318616 0.79767793 -0.45275143 -0.23564522 0.07026178 0.037746344 0.4613643
0.46944988 0.12542343 -0.37944183 -0.26415977 -0.5620295 0.8009479 -0.003110679 -0.25722432
-0.30027476 -0.51293755 1.6673304 0.28645808 0.6175249 -0.4767391 0.81845236 0.48490417
0.21409777 0.1883419 0.96838516 2.5652347 -1.3694782 0.50745183 -0.8154212 0.06463233
-0.73169315 0.24604858 -0.01432504 -0.89617145 0.11312446 -0.059692442 -0.74148035 -0.45713255
0.27881956 0.1554121 0.07494974 -0.026624361 -0.05954196 1.1347083 0.39045507 -0.25608036
0.4639321 -0.3170736 -0.23729953 0.23233011 0.28694433 -1.2336057 -0.80082095 0.7192316
1.2632066 0.16806532 1.0988966 -0.30932206 -0.011251212 -1.157034 1.1873182 -0.23999372
0.13908762 0.14281106 0.032105044 -0.08352345 -0.39941514 -0.5655919 0.5980606 0.16924278
-0.19872716 -0.47769186 0.7762087 -0.044533048 -0.071465716 -0.014270953 -0.22652121 0.1255617
0.08035279 0.1259893 -0.49729994 -0.28683197 -0.46778038 -0.6583534 0.06989488 -0.5217434
-0.2418886 0.74237573 0.057200946 0.018821934 -0.67486054 0.40444353 0.36008924 -0.107545964
-0.48858395 0.24315985 -0.12357993 -0.14423016 0.3556766 -0.19886103 0.12304467 0.065152
0.10046289 -0.18840952 0.70830077 -0.17951614 0.630076 -0.4724183 -0.47502962 0.5475621
-0.78812075 0.14233376 -0.5385788 0.12473012 -0.75157905 -0.7709263 -0.046941444 0.077283725
-0.24568924 -0.001312904 -0.018855412 0.22824983 -0.46355358 -0.51441985 0.30255064 -0.04931878
0.08083469 0.17593594 -0.4390663 0.5169895 -0.050286908 0.39807543 -0.58001405 0.083091035
-0.48221153 -0.1824486 0.6537931 0.27513823 -1.016304 0.32344666 0.1076135 0.14043322
0.17668694 0.13727374 -0.29772443 -0.32669806 -0.4866001 0.21718034 0.48546645 0.5157306
-0.06645808 0.9907977 0.13589264 -0.37443522 0.28450587 0.3830752 0.69311124 0.040550973

_orig_mod.dense_proj.weight f4 [64, 113]
00000000: 1f19 bfbc 8fb6 8cbd 8bcf ad3d 68c8 0bbd
00000010: 2463 023e 3770 fc3d e87e c2bd 5d09 8f3d
00000020: b0f1 193c e631 6bbd 9e99 c3bd e72e babc
00000030: 1c82 13bd 193d 1bbd 4657 a13d d667 9dbc
00000040: baa7 563d fe14 8c3d 694c 9abc d85c 87bd
00000050: a18f f4bc 8f1b a3bd 2ccd 103d dffe 7b3b
00000060: 2b0e 253c a437 0c3d c8a2 9d3b 065e 6d3d
00000070: 5643 ce3d d8e8 4cbc 3505 6a3d 3258 9d3c
00000080: 52d7 b33c 3502 a83b 4d8f d73c e2df 233d
00000090: d4a4 1dbd 48e6 cbbb c91e 123e ae8f 9cbd
000000a0: afae 85bd 1d53 63bd 8a99 d2ba 59e1 533c
000000b0: ba2a e1bc c0df 943d bda8 77bd 76f7 6a3d
000000c0: a165 763c 477b 76bd 35eb afbd 7e9b 3abb
000000d0: f7a8 84bb b491 063c 53c4 25bd 09e3 5a3b
000000e0: 331a 7bbd fcc2 efbb f586 773c 3a89 7cbb
000000f0: 4572 8f3d 0ab8 20bd 8be1 9ebc 97ab c63b
00000100: 4f09 073c dea7 10bd 60fb 0b3d f329 f2bb
00000110: 1e68 16bd 2545 1b3a 8a05 6f3c dbfd 983d
00000120: 985b a5bd d6ec 133d 8a0f 4c3d 6771 45bd
00000130: 139f 163e a742 4c3c cc04 0c3d 6c8e f83d
00000140: 018e 55bd 2d48 4fbc 3e4a da3b ac3c 1f3d
00000150: 24ca 7ebc 1537 023d f817 7fbb 36e4 81bd
00000160: a6e9 85bd 2b16 5d3b 006f 813d 451e 5c3d
00000170: 1091 b03d 0b10 a3bd 389f 93bd 881a 24bd
00000180: 78ee 0dbd abb7 5b3c 4183 7b3d 2ea7 9e3c
00000190: 7f02 9dbd d87c ecbc 9e5d 143d 1309 a2bd
000001a0: 83c5 563d 630b 353d dcd0 263d 7660 84bc
000001b0: 9629 fa3c 8ee7 0f3d 9531 2abc 88ea 8a3d
000001c0: 1519 b5bc 063b 2abd 2b0e 07bd c423 9abd
000001d0: 53e2 63bd 701a ae3d db8d 2cbd bd6d 083e
000001e0: 9897 f2bc 3205 ecbd 30d9 02bc 8fd0 d43c
000001f0: b39d d8bb d048 52bd e39f a43d 1a99 2f3d
00000200: 109c c03c 0b23 d3bc a753 e0bc 6d9f b1bd
00000210: b486 0fba cddc 023d eb08 aebd e4a4 6d3d
00000220: 0e51 483d 1ae4 e03c e628 a23d 38ef 003e
00000230: 2668 cc3c b0a7 26be d497 243d 7fe5 bb3d
00000240: c3f9 c3bc 5412 833c 47f1 813d aebe 21bc
00000250: fdf2 b2ba d2ff a3bc 4a00 9a3d f596 07bc
00000260: bc6b 8cbb ddca 4bbd 874c 283e 1187 7abc
00000270: 4ccc e03b 0bc2 103d 868e 9c3c 4980 f1bc
00000280: e9f7 b13c 437c cebc f26c 2f3d a286 0a3d
00000290: 2913 153e 4a64 833d 9fa7 07bd d159 a3bd
000002a0: e110 73bd 8efe f53d 7bf4 29be 1a9d 813d
000002b0: d2ee 5cbd c1d4 46bc d298 b7bc edd5 cabc
000002c0: 98c1 b23d 83c1 20bd a813 c8ba 0f91 3dbd
000002d0: c720 0ebc 9e14 c53b cc26 753d 4df5 89bc
000002e0: d2d1 7a3d af58 05bc af55 813d dddb adbb
000002f0: 7c61 06be d46a 16be d671 9e3c a377 2ebd
00000300: d8c4 febd fc19 f73d 2ca1 a8bd fd5b a4bd
00000310: 4e77 acbd 04d9 87bd 9930 81bd d378 863a
00000320: fd7f 483d d844 8c3d 54c8 8ebc 4fda c0bb
00000330: c581 033d d1ea a93c bc84 1ebd 41e7 883d
00000340: 108e f93c c48e f03a 459e 893d eae0 62bd
00000350: 159d 74bc f884 5b3c ba20 9b3d d920 66bd
00000360: 51af 5d3d 6da6 8cbd 2fa6 96bd 9ecb d83b
00000370: 13d6 333b 55b6 723d f730 6ebc 96df b33c
00000380: 0aeb a9bc bf7e 63bd bb05 8f3c 1afe 043d
00000390: c0b4 42be 7d10 553d e6a1 4d3e 71ba 85bd
000003a0: f567 3abe 73a9 bebc c3ce 6d3d 4c87 85bd
000003b0: a39c 37bd cd36 11bd a8f2 aa3d 00c9 b8bc
000003c0: 949f b83d 6313 243e eb7c 38bc 50ce 6bbd
000003d0: d724 e43d 127f 573b 4477 90bc 6768 2e3d
000003e0: 1b21 5ebc 299d a9bc 3bb7 89bd 6964 3d3d
000003f0: 82d0 24bd b464 debc b26a dd3c 418d c53d
-0.023327408 -0.06870758 0.08486851 -0.03412667 0.12733132 0.12326091 -0.09496862 0.06984208
0.009396002 -0.057420634 -0.095507845 -0.022727443 -0.036012754 -0.037900064 0.07877974 -0.019214552
0.05240605 0.068399414 -0.018835263 -0.066095054 -0.029853644 -0.07964241 0.035351917 0.0038451476
0.010074179 0.03423275 0.004810665 0.057950996 0.10071437 -0.012506686 0.057133872 0.019207094
0.021953259 0.005127216 0.026313448 0.040008433 -0.03848727 -0.00622252 0.14269556 -0.07644592
-0.06527459 -0.055499185 -0.0016067487 0.012932145 -0.027486194 0.072692394 -0.060463656 0.057364903
0.015038879 -0.06017616 -0.08589784 -0.0028474028 -0.0040484625 0.008213449 -0.040470432 0.0033399484
-0.061304282 -0.007316945 0.01510786 -0.0038533942 0.07004217 -0.039238013 -0.019394657 0.0060629356
0.008241965 -0.03531634 0.034175277 -0.0073902546 -0.036720388 0.0005923084 0.014588723 0.07470294
-0.08074111 0.036114536 0.049819507 -0.048203852 0.1470912 0.012467063 0.034184262 0.1213654
-0.05213738 -0.012651485 0.0066616824 0.03887622 -0.015551124 0.03179081 -0.0038924199 -0.06342356
-0.065387055 0.0033735137 0.0632 0.053739805 0.086214185 -0.07962044 -0.07208103 -0.040064365
-0.03465125 0.013410489 0.06140447 0.019366827 -0.07666492 -0.028868124 0.036222093 -0.07911887
0.052434456 0.044200312 0.040726528 -0.016159277 0.030537408 0.035132937 -0.010387798 0.067830145
-0.022106687 -0.041560195 -0.032972496 -0.07526353 -0.05563576 0.08501136 -0.04212747 0.13323112
-0.029613301 -0.115244284 -0.007986352 0.025978355 -0.006610596 -0.05133897 0.080383085 0.04287062
0.023511916 -0.025773546 -0.027383639 -0.08672986 -0.00054750894 0.031948853 -0.08497795 0.05801858
0.048905425 0.027452517 0.07917957 0.12591255 0.024952006 -0.16274905 0.040183857 0.09174632
-0.023922807 0.01599995 0.06344848 -0.009872122 -0.0013652738 -0.020019446 0.075195864 -0.008275737
-0.004285304 -0.049754012 0.16435443 -0.015290991 0.0068602916 0.035341304 0.01911093 -0.029480116
0.021724658 -0.025205737 0.042828508 0.033819802 0.1455809 0.06415613 -0.03311884 -0.079761155
-0.05934227 0.12011443 -0.16597168 0.06328793 -0.053938694 -0.012135685 -0.022411738 -0.02476021
0.08728331 -0.039247047 -0.0015264647 -0.046280917 -0.008674807 0.0060144207 0.059851453 -0.016840601
0.061235256 -0.00813882 0.06315171 -0.0053057508 -0.13123125 -0.14689189 0.01934139 -0.042594563
-0.12439889 0.12065503 -0.08233866 -0.08025358 -0.08421193 -0.06633189 -0.063080974 0.0010259397
0.048950184 0.068490684 -0.017429508 -0.0058853994 0.03210618 0.020741852 -0.038700804 0.06684733
0.030463248 0.0018353094 0.06719641 -0.055390276 -0.014930029 0.013398401 0.075746015 -0.05618367
0.054122273 -0.06867681 -0.07355916 0.00661607 0.002744083 0.059255917 -0.014538041 0.0219572
-0.020741958 -0.055540796 0.017458787 0.032468893 -0.19014263 0.052017678 0.2008129 -0.065297015
-0.18203719 -0.023274159 0.05805851 -0.065199465 -0.044827115 -0.035452653 0.08347064 -0.022556782
0.09014812 0.1602302 -0.0112602515 -0.0575698 0.11139839 0.0032882136 -0.017634995 0.042580035
-0.013557698 -0.020704823 -0.067244016 0.046238337 -0.04023791 -0.027147628 0.027028415 0.09646083

_orig_mod.dense_proj.bias f4 [64]
00000000: 491e b4bd 0f98 e93c 0921 82bc ff68 16bd
00000010: 566a 8ebd 122b f3bd 6ddb 85bd 123b 893d
00000020: f06d d4bd e882 463c 0fb5 8cbd 626b fabd
00000030: 9283 eebc e8dd b8bd fb81 9dbc 2fae 9abd
00000040: 52b1 f53c d643 3bbd 84a9 913d 434d a43d
00000050: 0ec2 ccbd 2071 bbbd 00bd 52bd 7469 c93d
00000060: b613 713d da17 fd3c b424 d4bc d241 ddbd
00000070: 5be3 babd b33c c53c 95cf 89bd fb1f e33c
00000080: da98 91bd 44c8 d5bc 8ae3 beba aa9d dabd
00000090: 3cde dbbd 2dff ac3c f4e5 d7bd b2f3 983d
000000a0: ea69 aabd 301a 323c 15d7 37bd 735e 223d
000000b0: 1a47 0d3d 2656 8abd 765f 84bd d375 5fbd
000000c0: 95be ebbd cc76 23bd 8410 41bd 0ba4 24bc
000000d0: 7a3a ab3d 6db2 24bc b03d e23d dba2 cb3d
000000e0: 1335 293d faf5 243d dbdb 673a ff60 94bd
000000f0: 5673 f03c 92ff fd3d bba5 77bd ca72 3bbb
-0.08794839 0.02851489 -0.015884893 -0.036721226 -0.06953876 -0.118734494 -0.06535993 0.0670072
-0.103725314 0.012116171 -0.06870472 -0.12227513 -0.029115472 -0.090267 -0.019227019 -0.07552754
0.02999178 -0.04571899 0.07112411 0.08022549 -0.099979505 -0.09152436 -0.051449776 0.09834567
0.05885669 0.030895162 -0.025896408 -0.1080357 -0.09125396 0.024076795 -0.06729046 0.02772521
-0.07109232 -0.02609647 -0.0014563662 -0.10674603 -0.10735747 0.021117771 -0.10541907 0.07468356
-0.08320983 0.010870501 -0.044882853 0.039640855 0.034491636 -0.06754713 -0.0646352 -0.054555725
-0.1151096 -0.039908215 -0.04713489 -0.0100488765 0.08360763 -0.010052306 0.11046922 0.099431716
0.04131038 0.040273644 0.00088447117 -0.07245063 0.029351871 0.12402262 -0.060460787 -0.0028602355

_orig_mod.shared_mlp.0.weight f4 [128, 120]
00000000: 5051 9d3d ddb4 053e 05dc 9b3c 38e8 b6bd
00000010: caaa 223d 4938 05bd abb0 3e3d 0496 ef3a
00000020: fff2 27bb 0e8a c73c b89c 8f3b cc2e dabb
00000030: 672f a7bd 0283 323c e813 e7bb ac80 d03c
00000040: e406 12bd 49e4 5e3c fd53 c4bd 34aa 993d
00000050: 195e c4bb 9708 c1bd f2eb 433d a886 3bbc
00000060: 23ea c3bc 802e 95bd 11e9 923d f131 4fbd
00000070: 33fb 07be 17e5 0ebe 88aa 143d 8e03 483c
00000080: 4593 80bd 888f 9e3d 3e6d 75bc c587 183d
00000090: 634f 243d e9be 053d 1411 ccbc 1745 903d
000000a0: 0c7a f1bc 9a75 023d 39cb 12bd 1da7 02bd
000000b0: c02a 2f3d 7a15 803d b018 233d d543 b93d
000000c0: 48f2 103d 0baf 503c e925 923c 98b9 93bd
000000d0: 1531 943c 5801 69bc 077a aa3c 12e4 c13d
000000e0: fb67 21bc 7868 1bbd 52e2 a2bd ddfa 62bd
000000f0: 271c f73b 29fa 80bc eff5 88bd e9b4 ab3d
00000100: 75bb 51bd a050 12bd 1fee 123b ff30 6e3d
00000110: cd76 0e3c 829a 693d 9232 a43c f6aa 48bc
00000120: 22d0 01bd 8dfe d9bd 5cd5 01be f02c a3bd
00000130: 3316 893b 67d8 af3c 377a 9abd 7613 603d
00000140: f38d 2fbd b5c0 843d 36e5 50bc 6916 723c
00000150: fb87 50bd 502c f03d cd4e 113b 2239 a33c
00000160: 0b98 3dbc 645f 783d 91c2 3fbd 63cd 4dbd
00000170: d855 d2bd bd84 313d d8a4 b9bd cb4a 7d3d
00000180: fa39 28bc c1b0 f13c faf7 103c a33b 85bc
00000190: a339 f03c e2eb 8abd 6a13 2a3d 14a6 73bc
000001a0: f237 b1bb 6267 9ebc 0422 93bd 7ef0 2dbd
000001b0: ec53 973d b6c6 bb3c b1c2 b0bd 35db dabc
000001c0: 3e60 7abd adb9 47bc c2c2 f83d 28a6 863d
000001d0: b04e a83b 3fca 2abd d3f9 86bb e806 b83a
000001e0: e15a b8bd 75da 40bd e7fd 96bd 5622 983c
000001f0: cd1a c83c 0aec 29bd 291c a2bc ed34 a4bd
00000200: d9d1 74bd 8635 c23c b584 1e3b 58e9 aebc
00000210: 8947 263e 38fb b23d 8977 f33a d6f2 8b3d
00000220: be9e 733c c248 2e3e 19da 0e3e dc1c 9ebd
00000230: 9c45 4fbe 8cbb 9f3c 4eef a53b 84f2 6ebd
00000240: 2798 023d fb37 ab3a 7ecf f1bb 9ab7 b5bd
00000250: 795a a0bd a09f 093d afa9 4c3d 0186 9a3c
00000260: 5797 9e3d 31dc 75bc 5925 0bbc c092 313d
00000270: 26ad 89bd 688f 9d3d 0e3f df3d 130b 1abd
00000280: 7eed 603c 4670 2cbe f3e0 5e3d 149f c63d
00000290: e1b4 823d 4f66 9c3d 199e 543c d2ea 06bb
000002a0: e010 1bbd 70a2 be3b 9bf1 eebd df2a 3bbd
000002b0: 1e8f d53c 35f7 cfbb eccd 37bd 0d15 8bbd
000002c0: 6857 55bb 1981 1b3d ff3c dbbc 790c 8cbd
000002d0: 06e2 163d b499 b83d f0e7 ec3c 0266 773d
000002e0: 6d1d 49bc ef41 71bd c1b7 533d 0857 b23c
000002f0: 9f26 85bd e36b 84bb 27a6 cdbd 2c59 a6bd
00000300: 90ca d1bc caa5 b63d 3a49 3c3d 0d21 7cbc
00000310: cdf1 783c 4133 23bd 597c 5bbd 2f4f 41bc
00000320: e18a 8f3b 56bf 8cbd 3730 e5bc 7967 88bd
00000330: 4f69 3a3d 3b50 1cbe 7518 cc3d 12c8 11bd
00000340: 6011 8b3c 25b3 733d d37e 79bd a81e a83c
00000350: 9665 4cbd d5ea 333d 1861 953d 3062 af3b
00000360: 23ef 203d aa16 4a3c 2e69 ce3c dfdf 2a3d
00000370: 7a84 9f3d f790 eabd 0c94 153d b32b da39
00000380: 1968 d0bb 2a55 bc3c 4bac 763c 4f55 cbbd
00000390: af17 013c aa6b 73bd 7ea2 473d 7969 6bbd
000003a0: d5b0 d8bb 0c22 5c3d cd54 9dbd 56d8 8c3d
000003b0: b2c8 57bc 73c8 89bd 1fc7 a7bd 81e0 5d3d
000003c0: b445 153d d314 debc 0076 aa3d c222 f0bb
000003d0: b015 193c 4efe 1c3d 85b4 c53c f4eb cdbc
000003e0: ba91 9c3d ce84 8f3d 36bb 2c3d 83df 74bc
000003f0: 682b e83d b29c 9a3c 0ac1 c2bd 5ceb 90bd
0.07681525 0.13057275 0.019025812 -0.08931011 0.03971366 -0.03252438 0.046555202 0.0018278961
-0.0025627015 0.024357822 0.004382696 -0.0066584107 -0.08163338 0.0108954925 -0.0070519336 0.02545198
-0.035651103 0.013604232 -0.09586332 0.07503167 -0.0059926626 -0.094254665 0.047832437 -0.011445679
-0.023915356 -0.0728426 0.0717336 -0.050584737 -0.13279419 -0.13954578 0.036295444 0.012207879
-0.062780894 0.0774222 -0.014979659 0.037238855 0.04011477 0.03265277 -0.024910487 0.07044428
-0.029477142 0.031850435 -0.03583834 -0.031897653 0.04276538 0.06254096 0.039818466 0.09046141
0.035387307 0.012737046 0.017840343 -0.072131336 0.01808981 -0.014221512 0.02081014 0.09467329
-0.009851451 -0.037941426 -0.079533234 -0.055415023 0.007541198 -0.015744286 -0.06687533 0.08384115
-0.051204164 -0.03572142 0.0022419763 0.058152195 0.0086953165 0.057032116 0.020043645 -0.0122477915
-0.03169263 -0.10644255 -0.12679046 -0.079675555 0.0041835546 0.021465493 -0.07542842 0.05470606
-0.042859983 0.064820684 -0.012749961 0.014775851 -0.05091093 0.11727202 0.0022172213 0.019924704
-0.011571894 0.060637847 -0.046816412 -0.0502447 -0.1027028 0.04333948 -0.090646446 0.061838906
-0.010267729 0.029503228 0.008848185 -0.016263789 0.029324358 -0.06783272 0.04152242 -0.014871139
-0.0054082805 -0.019336406 -0.07184222 -0.04246568 0.07389054 0.022921901 -0.086308844 -0.026715854
-0.06112694 -0.012190265 0.12146522 0.065746605 0.0051363334 -0.041696783 -0.004119137 0.0014040144
-0.09001709 -0.047083337 -0.07372647 0.01857106 0.024426842 -0.04148487 -0.019788818 -0.08017907
-0.05977044 0.023707163 0.0024187986 -0.021351501 0.16238226 0.087393224 0.0018575053 0.06833427
0.01486939 0.17019942 0.13950385 -0.07720348 -0.20241398 0.019498609 0.0050639277 -0.05833675
0.031883385 0.0013062948 -0.0073794713 -0.0887291 -0.07829756 0.033599496 0.04996651 0.018862726
0.077437095 -0.015006111 -0.008492791 0.043352842 -0.067224786 0.07693368 0.109006986 -0.037608217
0.013728498 -0.16839704 0.054413747 0.096983105 0.06382156 0.07636701 0.012977147 -0.002058674
-0.03785789 0.005817704 -0.11667176 -0.045695182 0.02606922 -0.006346608 -0.044874117 -0.067911245
-0.003255332 0.037964914 -0.026762484 -0.068383165 0.036836646 0.090136915 0.02891919 0.060400017
-0.012275082 -0.05890077 0.051688913 0.021770015 -0.06501507 -0.0040411814 -0.10041457 -0.08122477
-0.025609285 0.089183405 0.04596827 -0.015388739 0.015194369 -0.0398438 -0.053585384 -0.011798664
0.0043805693 -0.06872432 -0.027977092 -0.06660361 0.045510586 -0.1526498 0.09965602 -0.035591193
0.016976058 0.059497017 -0.060911965 0.02052243 -0.049901567 0.043925125 0.0729391 0.005352281
0.03929056 0.012334505 0.025196638 0.041717406 0.0778894 -0.11453431 0.03651814 0.0004161276
-0.0063600657 0.022989828 0.015055726 -0.09928381 0.007879182 -0.05942885 0.04873895 -0.057473633
-0.006612877 0.053743407 -0.0768219 0.068772 -0.013170408 -0.06727686 -0.08192276 0.05416918
0.036443427 -0.02710954 0.08323288 -0.007328362 0.00934355 0.03832846 0.02413393 -0.025136925
0.07644983 0.07007752 0.042170726 -0.0149458675 0.11336404 0.018873546 -0.095094755 -0.07076141

_orig_mod.shared_mlp.0.bias f4 [128]
00000000: e767 adbb 78e6 f4bd 04ce 1ebd 0bc8 b23c
00000010: 945e 11be 0abf af3c 7f53 5d3d 4f91 443d
00000020: e126 8fbd 2208 c23c 9b66 313d 06a0 c23d
00000030: 2960 c63c eb74 d3bd feac 7d3d acb0 073e
00000040: 84f3 b93d f34f c63d d968 663d 161c 243d
00000050: edd2 56bd 2a30 5e3d f767 90bc 6552 c23d
00000060: 7ead b63d 3f93 823d c3bd 353d 5b9d 963c
00000070: 8cdc 4c3d 8596 083e 3e5e d93a 2eb7 803d
00000080: 08ee d53d bcc1 8abd 705d 20be 5277 84bd
00000090: ac6e 97bc f5dd 333c 16ba e8bd 60e6 be3d
000000a0: 75ef b9bd 90dd d3bd 3845 ed3b 9ab0 023b
000000b0: cd2e c8bd efd0 a43c b808 0bba a5ff 01bd
000000c0: 4370 c7bc a054 c53d 7252 b4bc 37c1 973d
000000d0: 329b f9bd b046 4fbd 6434 a73a 9256 82bb
000000e0: 022f 4f3c 17f6 36bd effa 343c 8eab 913d
000000f0: ba22 a33d 673b c9bd d937 bdbd e450 10bd
00000100: 793b fe3d 1152 e63c 6c49 febd 5585 92bc
00000110: a1d6 3c3c 397f 2abd 64e5 cc3d fe3d fe3c
00000120: acea ecbc c522 f3bc b586 c2bc ba6a bd3d
00000130: 81b3 a83d 43c8 79bd 31f7 eebc 98bb 9b3d
00000140: 4bbf bbbd 0e8d fabd f859 9e3c 0b12 b13d
00000150: c7b9 aa3d bdcc cfbd 1b9c 3a3d 0d0c 363d
00000160: 7945 b7bd 06e9 9abd be1e 363d cceb bcbd
00000170: 38c0 613d 3c6e c7bc 75a3 423d 6cea d0bc
00000180: 8f42 903d ba49 8e3d fc9e 123e 2af1 c1bd
00000190: dc80 0b3e ece3 d4bd 9f4a 62bd 9fd7 7c3d
000001a0: db5a 0fbd b658 e4bd f842 0ebe 496d 4dbd
000001b0: b7c3 df3d c077 bb3d 683f 2ebc 55f5 4b3d
000001c0: 16b4 553d 8f49 85bc 8515 d1bc f6b4 ddbd
000001d0: 1654 0b3d 68db e7bc bab5 b93d be99 b63c
000001e0: 5afa 91bb eed1 9bbd 4caa 5d3d 1b88 28bd
000001f0: 7bfb 903d 44b9 983d e6ca 543d f43b edbd
-0.005291927 -0.11958021 -0.03877069 0.021823904 -0.14196235 0.0214534 0.054034706 0.04799014
-0.069898374 0.023685519 0.043310743 0.09503178 0.024215775 -0.10325035 0.061932556 0.13250989
0.0907965 0.09683218 0.056252334 0.040065847 -0.05244725 0.05424515 -0.0176277 0.09488372
0.0891981 0.06375741 0.044370424 0.01838558 0.050015017 0.13338669 0.0016583872 0.06284939
0.104457915 -0.06775233 -0.15660644 -0.06468071 -0.01848539 0.010978212 -0.11363618 0.09321284
-0.09078876 -0.10344994 0.0072409175 0.0019941689 -0.097745515 0.020119159 -0.00053037284 -0.031737942
-0.024345523 0.096352816 -0.02201197 0.074099 -0.12187804 -0.050604522 0.0012756702 -0.003977605
0.012645485 -0.044668283 0.011046155 0.071127996 0.07965608 -0.09825783 -0.09239168 -0.035233393
0.12413687 0.028115304 -0.12416348 -0.017885843 0.011525781 -0.041625235 0.1000469 0.03103542
-0.028920494 -0.029679665 -0.023745874 0.09248872 0.08237363 -0.060982 -0.029170604 0.0760414
-0.091673456 -0.12233935 0.01933001 0.086460195 0.083362155 -0.101464726 0.04555903 0.044445086
-0.08948798 -0.07563977 0.04446291 -0.09224662 0.055114955 -0.024344556 0.047519166 -0.025502406
0.07043945 0.06947656 0.1431846 -0.094698265 0.13623375 -0.10395035 -0.055246945 0.06172907
-0.034998756 -0.11149733 -0.13892734 -0.05015305 0.109260015 0.091537 -0.010635234 0.049794514
0.052173696 -0.016270427 -0.025522957 -0.10825531 0.034015737 -0.028302863 0.09067865 0.022290107
-0.004454893 -0.076084 0.054117486 -0.041145425 0.07079216 0.074572116 0.05195131 -0.11583701

_orig_mod.shared_mlp.3.weight f4 [64, 128]
00000000: 26b1 c43c 46c1 1abd 11de 03bd 824d 433d
00000010: cbb7 71bd 68b9 ce3d c52b 86bc fc6d e43c
00000020: c522 89bd 6306 b43d 2781 593d fbab 473d
00000030: 4941 a5bc 424a f4bd bf38 a83c 8d71 133d
00000040: 6ea9 7f3c 7eda dcbc f87d a13d 49d8 6d3c
00000050: 1459 bebd c53d ba3d da21 8c3c f2f2 28bd
00000060: 24d4 d63c 5d8d 943d 20d0 05bd 94ad 8b3d
00000070: bb3a 1d3d 794c 653d d047 ac3d cbe0 cbbc
00000080: 8f11 c83d ea0d fcbd 0a93 0ebe 8ee3 8dbd
00000090: aa93 4f3c e206 8abc d46c 08be 9fd6 3f3d
000000a0: 5fd5 11be 5d56 a9bd 9cb3 833d aae7 72bc
000000b0: 39e8 8abd a592 bf3d 197d edbd 4a20 c4bc
000000c0: 689c 38bd 631c 34bc 83f0 f73c 6b70 c13d
000000d0: 37a5 21be 14a7 98bb a539 cc3c fa1e 7fbd
000000e0: 4862 dabc 2c0f 253d e163 8abc 38ad 0fbd
000000f0: 4818 853d f6db c5bd 1373 a0bd 42c9 d83d
00000100: ede5 083d 3dba d13d 5a93 35be 4b60 e6bb
00000110: f9e6 cbbc 76cf 03be 3efa c43c b8c8 9b3d
00000120: da13 4abc a099 f0bd 1396 743d 072f d2bc
00000130: 78d9 88bc e4ef a7bd 37f3 493d 1894 4e3d
00000140: 49c7 2bbe 3eac 88bd 2ec0 223d 2930 9f3c
00000150: f163 53bc 66be eebd 8cd4 563d 23ac e23c
00000160: b891 663d 3d3f 8cbd dffc 6ebb 1d7b 79bd
00000170: 3f97 7cbc cbb9 92bc ec71 853d 1380 363d
00000180: d910 0fbd c175 a43d 18b9 d1bc 4f9b 68bd
00000190: e361 e03d 6b06 20be 98c7 bd3a c1bb 81bc
000001a0: a86a f8bd 687f 29be 94c0 efbb fb61 603c
000001b0: 69f5 423d 8b19 133d 1183 cfbd 980d c73c
000001c0: 6cc1 223d 4686 c73c a863 513d dfeb 98bd
000001d0: bdce 753d a0e7 cfbc b1a5 0cbd e47e 6bbb
000001e0: 6b12 d73d f52b 1dbd 11c0 bebc 8048 863d
000001f0: a334 d03d f6f7 503d 1542 703c a5b3 06be
00000200: 7ea8 ee3b 94af ed3c 8391 94bc 906e a3bc
00000210: dd67 f0bb 4daa 55bc 00a4 4cbd ff10 b8bd
00000220: 1fee 4ebc 9c61 a2bd 28de 9bbd 4bd2 133c
00000230: a19a e73c 9b67 feba 13bf e53b 43c2 01bd
00000240: 6f9b 2cbd 9d4e e638 9e8f da3c 54bb aabd
00000250: 1699 9ebc 92a0 fa3b d3b6 62bd 6160 7abd
00000260: 0c8d 96bd ffc5 40ba 9254 a9bd 31d0 953b
00000270: 337d 013d 8713 d8bd 8550 f13b 8ae3 a23a
00000280: 0917 07bd d212 61bd 4f1b 0b3d 068a 393c
00000290: 7d2e 02bd 3396 853c 49cd 0d3b 302a 7ebc
000002a0: b389 e2bc 36b9 04bd 3133 653b 5726 063d
000002b0: b2c2 2bbc 5dc7 b0bd 4d86 e83c 325f e13c
000002c0: 8141 47bd 592e 13bd b2da 693c 09ea 913b
000002d0: 1a31 653d 6e03 483c a6b9 16bd 8201 3a3c
000002e0: 4204 c6bb b353 fb3b 1630 f93c 8ff6 b93c
000002f0: 47a3 91bd ab42 2dbd 6ea8 d0bc a226 27bd
00000300: f337 3abd 0851 7bbd 6cb6 6fbb 8469 85bc
00000310: 0af4 11bd 93f7 2f3d 16f8 2cbd cd95 cf3c
00000320: 2a88 69bd 6764 a03c 3d77 dabc c3f0 2ebd
00000330: bece 7abd bf1f 643c 584f c5bc 3900 c9bd
00000340: 0981 83bc 3870 f7bc de26 e6bc 201e a3bb
00000350: 6f42 76bc d439 b43c 30dd 96bc 028b 24bd
00000360: 300a 97bb 6550 eebc 9ecc 55bc 3f17 763d
00000370: 8b6f 343c d9cf 503c 0bc5 77bd 4989 42ba
00000380: d5da aabc 1772 9e3c aed5 08bd 4a41 c23b
00000390: ae0f db3c 38ff 60bc 9180 b1bd 95fa 06bd
000003a0: 09a9 a93a d82c e43c b8c9 a63c bbb0 adbc
000003b0: 4e20 5c3c 9440 6abd c757 563c 56f6 c0bd
000003c0: 4346 8b3c ee35 b0bd b028 823c dd0e e13b
000003d0: ce97 49bc 15cf 92bd ac4a 86bb 6105 2cbd
000003e0: 8c13 a4bd 8d96 5a3d 0536 a9bd 99c3 36bd
000003f0: 1015 8abc c848 15bd 2ea2 a3bd 13db f43b
0.024010252 -0.037781976 -0.0321942 0.04768134 -0.05901317 0.10093957 -0.016378293 0.027884476
-0.06696085 0.08790281 0.053101685 0.048747998 -0.020172732 -0.11928226 0.020534871 0.035996962
0.01560436 -0.026959654 0.07885355 0.014516898 -0.09294334 0.09093813 0.017105985 -0.041247316
0.026224203 0.072535254 -0.032669187 0.06820217 0.038386088 0.055981133 0.08412135 -0.024887463
0.09768974 -0.123073414 -0.13923278 -0.06928168 0.012669483 -0.016848985 -0.13322765 0.046835538
-0.14241551 -0.082684256 0.06430742 -0.014825741 -0.06782574 0.09354142 -0.11596126 -0.023941178
-0.045071036 -0.010993096 0.030266052 0.0944527 -0.1578568 -0.004658589 0.02492983 -0.0622854
-0.026658192 0.040297672 -0.01689333 -0.035077304 0.06498772 -0.09661095 -0.07834449 0.10585262
0.0334224 0.102406 -0.17731991 -0.007030522 -0.02489041 -0.12872109 0.024045106 0.076066434
-0.012333835 -0.11748052 0.059713434 -0.02565719 -0.01670526 -0.082000524 0.049304213 0.050434202
-0.1677524 -0.066734776 0.039734058 0.019432144 -0.012902246 -0.11657409 0.052448794 0.027669972
0.056291312 -0.06847999 -0.003646664 -0.060908426 -0.015416919 -0.017910859 0.065158695 0.044555735
-0.034928177 0.08030272 -0.025600955 -0.05678874 0.109561704 -0.15627448 0.0014479039 -0.015836598
-0.12129718 -0.16552508 -0.0073166583 0.013695235 0.047597323 0.03591303 -0.10132421 0.024298474
0.039735243 0.024356019 0.05112043 -0.07466864 0.060011614 -0.025379002 -0.034337703 -0.0035933787
0.1050156 -0.038372 -0.023284944 0.06556797 0.1016629 0.051017724 0.014664193 -0.13154466
0.0072832694 0.029014386 -0.018135792 -0.019950181 -0.0073366 -0.013041091 -0.04996109 -0.08987617
-0.012630015 -0.07928774 -0.07610732 0.009022306 0.028271975 -0.0019409539 0.007011303 -0.031679403
-0.04214042 0.000109818975 0.02667981 -0.08336511 -0.019360106 0.007648536 -0.055350136 -0.06112707
-0.07351121 -0.00073537225 -0.08268084 0.0045719375 0.03161354 -0.105505995 0.007364335 0.0012427431
-0.032980952 -0.05494959 0.03396159 0.011324411 -0.031782616 0.016306972 0.0021637252 -0.015512988
-0.02765355 -0.032403193 0.003497314 0.032751407 -0.010483431 -0.086317755 0.028384352 0.027511213
-0.048646454 -0.035932872 0.014273332 0.004452948 0.05595503 0.012207849 -0.036798142 0.011352899
-0.006042988 0.00766989 0.030418437 0.022700576 -0.07111221 -0.042299908 -0.025470939 -0.040808327
-0.045463514 -0.061356574 -0.0036577238 -0.016285665 -0.035633124 0.042960715 -0.04222878 0.025339985
-0.05701462 0.019579126 -0.026668185 -0.042710077 -0.06123232 0.0139235845 -0.024085686 -0.098144956
-0.01605274 -0.030204877 -0.028094705 -0.0049779564 -0.015030487 0.02200023 -0.018416017 -0.04017163
-0.0046093687 -0.02909107 -0.013049273 0.060080763 0.011012922 0.012744867 -0.06049065 -0.000742097
-0.0208563 0.019341512 -0.033406906 0.005928193 0.026740875 -0.013732724 -0.086671 -0.032953817
0.0012944053 0.027853414 0.020359859 -0.021202436 0.013435436 -0.057190493 0.013082451 -0.09421985
0.017001277 -0.08604036 0.015888542 0.006868227 -0.012304259 -0.07168404 -0.004098257 -0.041997317
-0.08011541 0.053366233 -0.082622565 -0.04462013 -0.016855747 -0.036446363 -0.07989918 0.0074724047

_orig_mod.shared_mlp.3.bias f4 [64]
00000000: a11d e23d 07ec bfbb 24af f73b 573e efbb
00000010: 317d a63d 7a5d 07bd 929a 89bd 77b1 2abd
00000020: 7d8b f8bd 4446 28bd 4342 8e3d 456d 973d
00000030: ac75 dd3d 723a 29bb 32be 5ebd d7ee 133e
00000040: e964 183e 64f2 9abc 01bd 0b3e a377 563d
00000050: 5007 063e 6686 a6bd e438 abbd 649a 54bd
00000060: 49f1 f33d 3fed d5bd 2307 d93d d93a 68bd
00000070: c6d3 053e c1f6 4f3d 900f 96bd 2f4a d03d
00000080: b433 d43c 0f49 943d ca20 7abd cb43 1bbd
00000090: 0af2 0c3c 9098 7a3d 2447 153e a441 20bd
000000a0: 543c 2f3d 491a 17bd adc7 8d3d af69 153e
000000b0: 41a1 d93c 3a9e b7bd 6cb0 c63d 061d a7bd
000000c0: cdb8 1c3e f203 db3c 6bd0 a7bd d6b6 c1bc
000000d0: 53fb a4bd 1f4b 143d 0a37 0cbd c76c 7fbc
000000e0: ea2a efbd 3f26 5fbc c3b2 95bd f90c 98bd
000000f0: f1b4 893a 141d c43c a5c5 c03c 6913 8b3c
0.110408075 -0.005856994 0.00755872 -0.0073011327 0.08129347 -0.03304813 -0.06718935 -0.04167315
-0.1213598 -0.041082636 0.06946232 0.073938884 0.1081346 -0.002582219 -0.054380603 0.14446579
0.14882244 -0.018914409 0.13646318 0.05236019 0.13088727 -0.08131103 -0.083604604 -0.05190505
0.11911256 -0.10445642 0.10597064 -0.056696746 0.13069066 0.050772432 -0.07327187 0.101703994
0.02590356 0.07240497 -0.061066426 -0.03790645 0.0086026285 0.06118065 0.14577919 -0.0391251
0.042782143 -0.0368903 0.06922851 0.14591096 0.02656615 -0.08965726 0.097016186 -0.08159833
0.15304871 0.02673528 -0.081940494 -0.023646753 -0.08055749 0.036204454 -0.034232177 -0.015589899
-0.11678107 -0.013619958 -0.07309487 -0.07424349 0.0010506195 0.023939647 0.023531744 0.016977029

_orig_mod.ctr_head.weight f4 [1, 64]
00000000: a06e aabd adf6 1c3e da60 8ebd ced1 483e
00000010: 8558 82bd 77b4 603e 296f c03d 6daa 153e
00000020: 893d 4e3e 976c 593e 94f6 9bbd 8792 89bd
00000030: 6c50 9fbd d3ba 103e 4907 3e3e 2f6a a2bd
00000040: 0b09 8ebd 675f c0bd 1edc f4bd 2072 91bd
00000050: 83b1 c2bd f3b0 5f3e cf0f 683e 54d6 593e
00000060: 92db 9cbd 02dd 523e 1bfc 86bd 0eca 4a3e
00000070: d35b d7bd eba8 92bd 4150 2d3e df2f 7ebd
00000080: eef8 503e 22bd c3bd 4d6a db3d ecd8 2b3e
00000090: 0abd a8bd 12ba b1bd dfb2 95bd 46b9 5f3e
000000a0: 8955 5f3e f32b 3e3e fbe0 d8bd 30fe e2bd
000000b0: 9ec8 2a3d 7de5 333e 1f11 c7bd c4ef 323e
000000c0: 5323 9dbd 8692 6abd da81 503d 7f31 4a3e
000000d0: f4f3 3c3e e9a8 333e 5ff7 633e f787 eb3d
000000e0: cd81 3a3e 7e6d d53d c981 f03d 090e 063e
000000f0: 413f 82bd c876 103e b5a2 abbd 5c69 8bbd
-0.08321881 0.15328474 -0.06952067 0.19611284 -0.0636454 0.21943842 0.09396202 0.14615794
0.20140661 0.2123283 -0.076153904 -0.06717401 -0.07779011 0.14133768 0.18557467 -0.07930409
-0.069353186 -0.093931966 -0.119560465 -0.07101846 -0.09506514 0.21844845 0.2266228 0.21273166
-0.07659067 0.2059212 -0.06591054 0.1980364 -0.10515561 -0.07161125 0.16925146 -0.062057372
0.20407459 -0.095575586 0.10713635 0.16781968 -0.08239181 -0.08678068 -0.073095076 0.2184802
0.21809973 0.18571453 -0.105897866 -0.11083639 0.04169523 0.17568012 -0.097200625 0.17474276
-0.07672753 -0.057268642 0.050905086 0.19745444 0.18452436 0.17544903 0.22262333 0.115005426
0.18213578 0.104212746 0.117435046 0.13091291 -0.06359721 0.14107811 -0.08380643 -0.06807205
