experiments/exp_20251006_004731/models/checkpoint_epoch4_auc0.7328_logloss0.0875.pth (torch, 137410 bytes, 12 tensors)

_orig_mod.embeddings.gender.embedding.weight f4 [5, 8]
0.016237317 0.010062927 0.0057695913 -0.0051529794 -0.0004264919 0.0022827631 0.009807831 0.009344322
0.68388546 1.6463175 0.0021352451 -0.32553947 0.34076497 -0.24053405 0.3910196 0.5626778
2.1187901 1.0197688 0.9635301 0.10577259 -0.3586653 0.6573637 -0.18520498 0.17660639
2.3373782e-11 -4.94843e-40 -0.020805776 0.002018626 0.013433868 4.92708e-40 8.252779e-10 -1.6766154e-11
0.0011865153 1.1956047e-07 -1.6201758e-29 -2.1617867e-09 0.0005407943 -0.05529554 9.318613e-28 -0.027854288
00000000: 1f04 853c fade 243c d70e bd3b 53da a8bb
00000010: c69a dfb9 699a 153b 06b1 203c ed18 193c
00000020: 1e13 2f3f 88ba d23f 78ef 0b3b 1cad a6be
00000030: bf78 ae3e 8f4e 76be b933 c83e a70b 103f
00000040: 429a 0740 c987 823f e9a9 763f 4d9f d83d
00000050: faa2 b7be fd48 283f 60a6 3dbe 4ed8 343e
00000060: 1499 cd2d 6c63 0580 e070 aabc ed4a 043b
00000070: ba19 5c3c 785d 0500 c5d9 6230 067a 93ad
00000080: d984 9b3a 8860 0034 2b4e a48f 8e8e 14b1
00000090: 17c4 0d3a 937d 62bd c9a8 9312 ad2e e4bc

_orig_mod.embeddings.age_group.embedding.weight f4 [15, 8]
-0.008321656 0.002098073 0.001768125 -0.00088336825 -0.0024255626 -0.00084704015 -0.0052215112 -0.0104410155
0.010258354 -0.050131243 -0.0326932 -0.24471852 0.22166272 0.007863977 -0.19912636 0.13465953
0.3540053 0.03530385 0.305795 -0.07182166 -0.6387533 0.38930786 -0.05202846 -0.36592516
-0.09850474 0.31751612 0.10341012 0.4904768 -0.71372473 -0.54053277 -0.65020967 0.6948623
-0.033708856 -0.22840005 -0.4382798 -0.049639788 -0.6901877 0.30206004 -0.4334914 -0.62247807
-0.2196079 -0.5277175 -0.35639524 0.60884976 -0.57254535 0.2689063 0.52259254 -1.1027938
1.2565411 0.14336504 -0.34960002 -0.35730463 0.07189345 -0.941268 -1.4871495 -0.448192
0.2778057 0.4576108 -0.1830021 0.17917806 0.4262821 0.7796114 -0.539205 -0.48987725
-0.7977285 0.31162566 0.7749987 0.11960339 0.67847574 0.3335495 0.29672924 -0.16458307
5.817226e-14 -3.4846036e-11 -5.02423e-40 2.5085763e-27 1.67969e-05 4.96462e-40 4.93485e-40 -9.80096e-12
-4.97769e-40 4.9212e-40 -8.905197e-31 5.0884282e-27 0.00026200173 1.3010153e-11 -2.1199094e-05 0.050830055
-4.8416037e-12 -0.023361716 -1.39559635e-08 8.353276e-12 -5.0162e-40 -1.1362949e-27 -3.8211005e-05 -1.1995967e-26
-1.98614e-40 -1.3038819e-07 -2.8599314e-20 3.7300495e-19 0.083505884 -0.017047796 -0.00264356 -9.8645965e-14
0.000121026365 -6.5493395e-11 -2.4551834e-06 -4.96507e-40 2.590077e-12 -1.4005143e-09 -0.0021053911 3.7157284e-09
3.6171922e-08 -5.5369727e-27 -2.3263148e-15 -0.00041088913 -0.0022457805 3.1364527e-06 1.00073526e-10 -0.001050491
00000000: 8e57 08bc d37f 093b 6ec0 e73a d791 67ba
00000010: 30f6 1ebb e70b 5eba 3619 abbb cb10 2bbc
00000020: a812 283c 6b56 4dbd 4ee9 05bd 7e97 7abe
00000030: 8dfb 623e e9d7 003c c8e7 4bbe 30e4 093e
00000040: 2f40 b53e c59a 103d 2a91 9c3e 3c17 93bd
00000050: 5685 23bf 5c53 c73e cb1b 55bd 8b5a bbbe
00000060: dabc c9bd 7991 a23e afc8 d33d c61f fb3e
00000070: aab6 36bf 5b60 0abf 2474 26bf 7fe2 313f
00000080: 4c12 0abd b4e1 69be 3666 e0be 1753 4bbd
00000090: 24b0 30bf 9da7 9a3e 96f2 ddbe b95a 1fbf
000000a0: e5e0 60be 7e18 07bf 7079 b6be 94dd 1b3f
000000b0: 5592 12bf 16ae 893e a0c8 053f 5928 8dbf
000000c0: 57d6 a03f 49ce 123e c6fe b2be a2f0 b6be
000000d0: e03c 933d f1f6 70bf ea5a bebf 6c79 e5be
000000e0: 8c3c 8e3e f64b ea3e e764 3bbe 747a 373e
000000f0: a641 da3e 9d94 473f 5709 0abf 31d1 fabe
00000100: ef37 4cbf 668d 9f3e 5166 463f 9ff2 f43d
00000110: 96b0 2d3f 00c7 aa3e e5ec 973e 7788 28be
00000120: 06fe 8229 2641 19ae 8d78 0580 f9bf 4613
00000130: 11e7 8c37 ef67 0500 a35f 0500 9a6b 2cad
00000140: 946b 0580 d55b 0500 be7e 908d cb92 c913
00000150: 475d 8939 85e0 642d b5d4 b1b7 2d33 503d
00000160: 4a59 aaac 1261 bfbc fac2 6fb2 d0f3 122d
00000170: 5076 0580 990d b492 c144 20b8 c79a 6d94
00000180: a829 0280 d500 0cb4 730e 079f ea2e dc20
00000190: 2205 ab3d d2a7 8bbc 943f 2dbb 8721 dea9
000001a0: 89cf fd38 8105 90ae bbc3 24b6 0f68 0580
000001b0: ae42 362c 377c c0b0 9afa 09bb c957 7f31
000001c0: 735b 1b33 9357 db93 efa0 27a7 9b6c d7b9
000001d0: f22d 13bb d97b 5236 6310 dc2e a1b0 89ba

_orig_mod.embeddings.inventory_id.embedding.weight f4 [50, 16]
0.07389259 0.05668335 -0.500167 -0.1383765 0.54213125 -0.06706417 -0.57420576 0.37083924
0.56274885 -0.032342616 -0.51502806 0.11896885 0.087936014 0.8766349 -0.09275874 -0.31214365
-0.23675743 -0.11183538 -0.20778365 0.27546582 0.22046426 -0.21470027 -0.19693477 0.2536123
0.057243958 -0.09387551 -0.16216242 0.04768662 -0.20477812 0.01253938 0.11857696 -0.1979047
-0.46292654 -0.8522941 -0.2538899 1.070394 0.98084784 0.55563414 0.8493015 0.03588803
-0.61259866 0.17457125 -1.2113565 -1.0105504 0.36934564 0.27534652 0.39401487 -1.2666668
0.04514389 -0.012380144 0.008733073 -0.028524064 -0.039052915 0.06709519 0.024477443 -0.045826808
-0.020583512 0.031078441 0.04174922 -0.008959858 0.053013265 0.24135071 -0.012050239 0.02311467
-0.9725664 0.50711894 0.5296853 0.18429825 -0.13112065 -0.18794535 -0.5365715 0.17186259
-0.7175904 -1.599502 0.6534402 0.28264156 0.16006726 0.8124451 -1.305569 -0.42972556
-0.3422765 0.31065613 -0.039391264 0.17301951 -0.39955315 -1.2009959 0.48142537 0.50826037
0.123685025 -0.18985765 0.01822876 -0.104926676 -0.41101205 -0.29120582 -0.07160062 0.39694038
-0.16068338 -1.1698261 -0.5110594 0.08592186 0.3385051 0.52073133 -1.6288915 -0.1088636
-0.17671758 0.17906795 0.9284757 -1.2851267 -0.6915704 0.28766268 -0.23670341 0.23444209
0.11229829 -1.2655284 0.37715557 0.20544161 0.97891134 -0.40518057 0.3891396 1.1280574
-0.35048673 -0.873235 0.8591244 0.46739444 0.17001516 -1.5109804 -0.12496981 -0.18594858
-0.32153866 -0.079876274 -0.2294409 0.21231912 0.17223392 -0.015948106 -0.17694996 0.22714302
0.03546741 -0.04809635 -0.17540918 0.25002715 -0.16997212 0.12540308 0.06835011 -0.12623821
-0.32810092 0.8255817 0.80606705 -0.68880737 0.9970669 -0.43648422 0.33191538 0.46800584
-0.054319527 0.33811608 0.03592193 -0.8855847 0.013148848 -0.03642706 0.313429 -0.013326108
0.56420153 -1.134096 0.93648154 -0.2286549 -0.7145975 -0.8032175 0.13099934 1.3402004
0.21803835 -0.3027199 0.83800757 0.078788094 0.123304434 0.5410312 0.36624852 -0.3767657
-0.20823322 -0.4055568 -0.53784055 0.19692448 0.15842329 0.2574203 0.7060084 0.37365323
-0.06318109 0.2929365 0.03683254 0.13800609 0.46946463 1.4132177 0.09203654 -0.11395168
-0.21329494 -0.3302685 -0.38907284 0.21756709 -0.21028139 0.5520531 -0.19980536 0.3653868
0.10833142 0.049447402 0.6220179 0.07959622 -0.23596694 0.47779605 -0.17806007 -0.3528126
-0.14899573 0.32818112 -0.3557686 0.20725735 0.21414101 -0.1522411 -0.25067425 0.13754217
0.019316804 0.026934532 -0.20018463 -0.046787396 -0.10466999 0.5299605 0.0707133 -0.24360354
0.3627171 -0.13697042 -0.32044345 -0.75594044 1.0463965 0.28172323 1.4808176 0.371175
-0.4653378 -0.38227913 -0.65638787 -0.21262865 -0.4884917 -0.1246028 -0.59544903 0.1564062
-0.42794314 0.2845076 0.056080256 0.12964265 -0.16642155 -0.2367562 0.12358822 0.2176526
0.21094996 0.039333545 -0.085318446 -0.09805669 -0.68454397 -0.4882484 -0.006785481 0.17273396
00000000: 0055 973d cd2c 683d f20a 00bf 92b2 0dbe
00000010: 1dc9 0a3f f158 89bd 26ff 12bf a4de bd3e
00000020: 4f10 103f b179 04bd e1d8 03bf f1a5 f33d
00000030: cc17 b43d 256b 603f 4bf8 bdbd 4bd1 9fbe
00000040: 8a70 72be f309 e5bd 3dc5 54be db09 8d3e
00000050: 62c1 613e 63da 5bbe 45a9 49be 79d9 813e
00000060: a478 6a3d ce41 c0bd e80d 26be 0c53 433d
00000070: 5bb1 51be f971 4d3c 7ad8 f23d 88a7 4abe
00000080: b504 edbe f22f 5abf dbfd 81be ac02 893f
00000090: d818 7b3f 0a3e 0e3f d36b 593f 54ff 123d
000000a0: 44d3 1cbf cec2 323e bb0d 9bbf b759 81bf
000000b0: df1a bd3e 38fa 8c3e 51bc c93e 2322 a2bf
000000c0: cde8 383d 16d6 4abc 2a15 0f3c 4cab e9bc
000000d0: f3f5 1fbd 3469 893d eb84 c83c e4b4 3bbd
000000e0: c19e a8bc 3798 fe3c 3b01 2b3d 5ecc 12bc
000000f0: 7024 593d a424 773e 5e6e 45bc fa5a bd3c
00000100: 1dfa 78bf 8cd2 013f 7599 073f aeb8 3c3e
00000110: 7e44 06be bf74 40be c05c 09bf bffc 2f3e
00000120: 01b4 37bf 7bbc ccbf db47 273f 65b6 903e
00000130: ace8 233e 67fc 4f3f e31c a7bf fd04 dcbe
00000140: de3e afbe 520e 9f3e bc58 21bd 072c 313e
00000150: 3b92 ccbe 3cba 99bf 637d f63e 5a1d 023f
00000160: 934e fd3d 0b6a 42be 7b54 953c cce3 d6bd
00000170: 2c70 d2be ee18 95be 59a3 92bd c53b cb3e
00000180: 2f8a 24be ddbc 95bf cad4 02bf cdf7 af3d
00000190: 8a50 ad3e a64e 053f 847f d0bf e1f3 debd
000001a0: 74f5 34be 975d 373e 95b0 6d3f 087f a4bf
000001b0: c20a 31bf 8648 933e 6162 72be 9611 703e
000001c0: a5fc e53d d6fc a1bf 891a c13e 495f 523e
000001d0: ef99 7a3f d473 cfbe 4e3d c73e 2f64 903f
000001e0: ff72 b3be 548c 5fbf 94ef 5b3f 534e ef3e
000001f0: 7418 2e3e ce67 c1bf 2cf0 ffbd 4e69 3ebe
00000200: b7a0 a4be 2c96 a3bd 8ef2 6abe 2f6a 593e
00000210: 175e 303e 9aa5 82bc 5f32 35be 2e98 683e
00000220: 4646 113d ae00 45bd 779e 33be 8f03 803e
00000230: 2c0d 2ebe aa69 003e 24fb 8b3d 9744 01be
00000240: d8fc a7be 5359 533f 695a 4e3f ae55 30bf
00000250: c73f 7f3f dc7a dfbe d0f0 a93e 769e ef3e
00000260: 277e 5ebd 8d1d ad3e e022 133d aeb5 62bf
00000270: 446e 573c 8a34 15bd c479 a03e c055 5abc
00000280: 836f 103f 0f2a 91bf 41bd 6f3f 8324 6abe
00000290: ddef 36bf a99f 4dbf b124 063e b08b ab3f
000002a0: 7245 5f3e 1afe 9abe aa87 563f a75b a13d
000002b0: 0987 fc3d 0581 0a3f ed84 bb3e 6fe7 c0be
000002c0: 173b 55be 24a5 cfbe ebaf 09bf 92a6 493e
000002d0: b739 223e 98cc 833e f7bc 343f 7a4f bf3e
000002e0: 1665 81bd c6fb 953e b8dd 163d 7851 0d3e
000002f0: ab5d f03e 51e4 b43f a77d bc3d 805f e9bd
00000300: fd69 5abe f418 a9be 8e34 c7be e8c9 5e3e
00000310: 0154 57be 5a53 0d3f c799 4cbe fb13 bb3e
00000320: dddc dd3d 5c89 4a3d 913c 1f3f 5803 a33d
00000330: 51a1 71be afa1 f43e 6155 36be daa3 b4be
00000340: 5692 18be 5b07 a83e 4d27 b6be 453b 543e
00000350: c847 5b3e 17e5 1bbe 6058 80be dbd7 0c3e
00000360: 463e 9e3c cfa5 dc3c 33fd 4cbe 24a4 3fbd
00000370: 385d d6bd 7eab 073f 22d2 903d 3573 79be
00000380: 0eb6 b93e f941 0cbe 2a11 a4be 5085 41bf
00000390: 52f0 853f 073e 903e 6e8b bd3f a60a be3e
000003a0: c240 eebe 17ba c3be 0909 28bf 53bb 59be
000003b0: 961b fabe c12f ffbd 596f 18bf f228 203e
000003c0: 5d1b dbbe fbaa 913e 69b4 653d 0bc1 043e
000003d0: 696a 2abe 3870 72be d21b fd3d 53e0 5e3e
000003e0: 4403 583e 361c 213d 70bb aebd f2d1 c8bd
000003f0: 463e 2fbf b2fb f9be bd58 debb 2ce1 303e

_orig_mod.embeddings.day_of_week.embedding.weight f4 [10, 8]
-0.44718304 -0.11625252 -0.41138116 -0.05802387 0.45508215 0.016919026 -0.31423923 1.8330094
-0.11862412 -0.37085262 0.21631564 -0.5897066 0.6753032 0.17593244 -0.5581233 0.16899627
-0.6522619 0.61606246 -0.20850377 0.6501402 1.1715819 0.5285646 -0.6851691 -0.24612573
0.14076568 -0.54200727 0.16312091 0.34882864 0.8283883 -1.2876215 -0.66120386 -0.32001525
-0.9151305 0.3587699 0.3942039 -1.1771061 -1.1248267 -0.116165556 0.4771894 0.33020836
-0.049796283 0.37013108 0.07658149 -0.5499978 0.5062683 -0.39260247 0.19945851 0.6019842
-1.4417895 0.32172436 0.015615994 -1.4732502 -0.5139841 0.9179917 0.25177976 0.71791327
4.91124e-40 -0.00041009206 -1.7356259e-08 5.27346e-40 -1.2194147e-16 2.703011e-16 -6.720601e-07 0.004421353
-8.496e-41 -7.615891e-32 0.13588187 3.56772e-09 -0.016148627 -0.0004568065 2.9223397e-06 4.95882e-40
5.11477e-40 -0.00034728568 2.1160997e-05 -1.1686233e-37 2.2307662e-32 1.1181809e-37 5.8080842e-11 -2.98154e-40
00000000: 2df5 e4be cd15 eebd 8da0 d2be 70aa 6dbd
00000010: 8700 e93e c599 8a3c f7e3 a0be 0da0 ea3f
00000020: 34f1 f2bd 65e0 bdbe d981 5d3e 03f7 16bf
00000030: ace0 2c3f a227 343e 2be1 0ebf 5c0d 2d3e
00000040: a3fa 26bf 45b6 1d3f 0382 55be 976f 263f
00000050: 65f6 953f 0250 073f 3e67 2fbf 6208 7cbe
00000060: e124 103e fdc0 0abf 2b09 273e ab99 b23e
00000070: 4111 543f c8d0 a4bf a844 29bf 0ad9 a3be
00000080: fe45 6abf b0b0 b73e 18d5 c93e 6aab 96bf
00000090: 52fa 8fbf 35e8 edbd 2b52 f43e 1211 a93e
000000a0: 30f7 4bbd d281 bd3e c2d6 9c3d a8cc 0cbf
000000b0: cd9a 013f 3103 c9be da3e 4c3e a31b 1a3f
000000c0: 8f8c b8bf 0eb9 a43e 3ada 7f3c 7693 bcbf
000000d0: 7694 03bf 8101 6b3f 47e9 803e 2ac9 373f
000000e0: 0e59 0500 a001 d7b9 d116 95b2 07be 0500
000000f0: c596 0ca5 67d1 9b25 9e67 34b5 ffe0 903b
00000100: d5ec 0080 47b8 c58b 9e24 0b3e fe2b 7531
00000110: 204a 84bc 887f efb9 6a1d 4436 5166 0500
00000120: ca91 0500 e513 b6b9 e582 b137 9410 1f82
00000130: f0a7 e70a eb32 1802 3771 7f2e 223f 0380

_orig_mod.embeddings.hour.embedding.weight f4 [30, 16]
-0.42509094 -0.38323852 0.42092484 0.19628708 0.1286908 -0.029721292 -0.2838842 -0.015913956
1.0104928 0.051252358 -0.4459115 -0.2743325 -0.5690507 -0.046081353 -0.10775008 -0.30685195
0.06210741 -0.11678458 0.29929233 0.10103898 0.04672949 0.24825995 0.08588565 0.03361928
-0.011319876 -0.019876294 -0.07281817 -0.18515152 0.13342057 0.02459449 -0.042669553 5.1457748e-05
0.01792339 -0.17825787 0.085336395 0.1012875 0.02838906 0.13083668 -0.05732389 0.002950565
0.0017744759 0.004611539 -0.052765347 0.009166151 0.03191214 -0.032707833 -0.09098977 -0.20929413
0.08086313 -0.22140267 0.032247517 0.080217734 0.08570816 0.014069539 -0.041997038 0.008137875
-0.025828075 -0.002816173 0.1396153 0.04547888 0.0902915 -0.036160473 -0.04647904 -0.13750923
0.02932289 -0.20383376 0.071213774 0.07441519 0.054756843 -0.0018321085 -0.049805794 0.0020403955
0.03306898 0.00059476955 -0.073286004 -0.03313294 -0.044854857 0.0698083 -0.112337895 0.10326337
0.09105594 -0.23720692 0.32598215 0.1277455 0.10769824 -0.12805876 0.107495554 0.032115836
0.10146906 -0.044258695 0.38632953 0.04112099 0.2267001 0.092293926 -0.09273722 -0.49710578
0.023595119 -0.4395129 0.47901264 -0.18958427 -0.09665561 0.04285384 0.017189573 0.16392834
0.2744685 0.013499795 -0.23119499 -0.14241642 -0.39837182 0.44838732 -0.042692784 -0.1853891
-0.17923045 -0.3239519 1.0531595 0.12622508 0.3227104 -0.31956205 0.46637493 0.17362115
0.12006515 0.061113805 0.6664163 1.7812427 -1.0241503 0.28668758 -0.42410627 0.002410527
-0.51468396 0.16776592 0.0017187268 -0.5521287 0.05684908 -0.06612061 -0.41438112 -0.16538772
0.1874718 0.05908475 0.08886047 -0.004243151 -0.05460516 0.7655038 0.208014 -0.16348574
0.27714854 -0.13959655 -0.14650974 0.038600992 0.09180239 -0.8515714 -0.3865973 0.2998854
0.81067365 0.06838108 0.7523817 -0.15467003 -0.012953974 -0.6233159 0.65421367 -0.13848944
0.040405378 0.09859957 0.05127916 -0.0774876 -0.24123998 -0.4026898 0.3543029 0.014814334
-0.07309177 -0.1424648 0.57608277 -0.0690651 -0.07985855 0.036101993 -0.10809127 0.09207978
0.020003404 0.10931445 -0.27793154 -0.14266148 -0.25623798 -0.4527041 0.05798557 -0.17529665
-0.11097361 0.29375944 0.09967429 -0.029825812 -0.5022588 0.223006 0.14782341 -0.0338269
-0.32394433 0.22124392 -0.11582199 -0.156133 0.14303464 -0.15680645 0.07020398 0.0042862473
0.062134005 -0.031247385 0.5272975 -0.09392889 0.4495904 -0.26511374 -0.21678725 0.3822668
-0.47241998 0.115641825 -0.33674872 0.03230091 -0.39866382 -0.4951932 -0.023222974 0.009540512
-0.14070822 0.021173857 0.012107997 0.12102062 -0.32714403 -0.2791113 0.114412226 -0.020419678
0.042265084 0.17193432 -0.31729877 0.14359829 -0.043449998 0.21692353 -0.22596818 0.05231466
-0.27283084 -0.0524258 0.40280282 0.1725068 -0.70357025 0.1446565 0.1277319 0.1593177
0.08345756 0.14760835 -0.22875892 -0.17840381 -0.23406601 0.121118255 0.21676311 0.16773091
-0.058087863 0.437306 0.087107316 -0.16000247 0.18371302 0.18934445 0.37293223 0.078645945
00000000: 85a5 d9be d737 c4be 7683 d73e 7bff 483e
00000010: 85c7 033e 117a f3bc 4559 91be fc5d 82bc
00000020: d457 813f feed 513d 834e e4be 4f75 8cbe
00000030: 4fad 11bf cdbf 3cbd 13ac dcbd b31b 9dbe
00000040: 5764 7e3d c12c efbd d83c 993e 86ed ce3d
00000050: 6c67 3f3d db37 7e3e d1e4 af3d 5fb4 093d
00000060: 0077 39bc 9cd3 a2bc b121 95bd 5c98 3dbe
00000070: 679f 083e 627a c93c 45c6 2ebd 56d4 5738
00000080: 13d4 923c 3b89 36be d9c4 ae3d d26f cf3d
00000090: 2d90 e83c 0dfa 053e 75cc 6abd 445e 413b
000000a0: 8895 e83a 651c 973b 7a20 58bd a02d 163c
000000b0: 4eb6 023d a6f8 05bd d858 babd 3351 56be
000000c0: 929b a53d 62b7 62be f915 043d 3249 a43d
000000d0: c387 af3d ec83 663c 1605 2cbd b954 053c
000000e0: 6695 d3bc 8b8f 38bb 50f7 0e3e 1048 3a3d
000000f0: c0ea b83d 011d 14bd ce60 3ebd 38cf 0cbe
00000100: 8f36 f03c ccb9 50be 87d8 913d fe66 983d
00000110: b648 603d 5c23 f0ba 2901 4cbd 28b8 053b
00000120: 5773 073d 4fea 1b3a f916 96bd 68b6 07bd
00000130: bab9 37bd a7f7 8e3d 6911 e6bd bf7b d33d
00000140: 897b ba3d 5fe6 72be 22e7 a63e b7cf 023e
00000150: e590 dc3d d621 03be a126 dc3d e58b 033d
00000160: 03cf cf3d 9b48 35bd fccc c53e 7c6e 283d
00000170: 1224 683e 9904 bd3d 03ed bdbd a684 febe
00000180: 8d4a c13c d607 e1be 2541 f53e 6122 42be
00000190: 60f3 c5bd 8287 2f3d 26d1 8c3c d5dc 273e
000001a0: 2387 8c3e 3f2e 5d3c 61be 6cbe 9cd5 11be
000001b0: 64f7 cbbe 0693 e53e a1de 2ebd a4d6 3dbe
000001c0: 3088 37be 06dd a5be eecd 863f 2641 013e
000001d0: 4c3a a53e a39d a3be b2c8 ee3e bec9 313e
000001e0: b8e4 f53d 7852 7a3d 429a 2a3f c3ff e33f
000001f0: 5b17 83bf b7c8 923e 7524 d9be eff9 1d3b
00000200: 54c2 03bf d4ca 2b3e e746 e13a 4e58 0dbf
00000210: 95da 683d 3e6a 87bd c329 d4be 665b 29be
00000220: 9cf8 3f3e da02 723d 7afc b53d 210a 8bbb
00000230: a9a9 5fbd 0ff8 433f 9f01 553e ce68 27be
00000240: 6ae6 8d3e 66f2 0ebe a606 16be 131c 1e3d
00000250: e402 bc3d 9500 5abf 15f0 c5be 948a 993e
00000260: 4f88 4f3f 610b 8c3d 169c 403f d261 1ebe
00000270: e83c 54bc a191 1fbf 8c7a 273f 2dd0 0dbe
00000280: 1c80 253d 92ee c93d 190a 523d d2b1 9ebd
00000290: 9d07 77be 5c2d cebe 3167 b53e d2b7 723c
000002a0: 23b1 95bd 4be2 11be 297a 133f 0172 8dbd
000002b0: e18c a3bd afdf 133d f55e ddbd 5394 bc3d
000002c0: 2ede a33c 41e0 df3d 0b4d 8ebe da15 12be
000002d0: a031 83be d5c8 e7be 4782 6d3d f780 33be
000002e0: 2246 e3bd a367 963e 0922 cc3d 4355 f4bc
000002f0: 0894 00bf af5b 643e 055f 173e 138e 0abd
00000300: 08dc a5be c48d 623e 1434 edbd 54e1 1fbe
00000310: ac77 123e df91 20be 1bc7 8f3d a673 8c3b
00000320: 3a80 7e3d 84fa ffbc f8fc 063f ca5d c0bd
00000330: b730 e63e fdbc 87be 7afd 5dbe 79b8 c33e
00000340: 08e1 f1be 9fd5 ec3d 546a acbe f64d 043d
00000350: aa1d ccbe f789 fdbe 1b3e bebc cf4f 1c3c
00000360: d115 10be cc74 ad3c 9f60 463c a9d9 f73d
00000370: 6c7f a7be ade7 8ebe f550 ea3d 2b47 a7bc
00000380: 271e 2d3d 8d0f 303e fc74 a2be 6e0b 133e
00000390: a0f8 31bd 3421 5e3e 3464 67be e647 563d
000003a0: 7cb0 8bbe 70bc 56bd 2c3c ce3e 9fa5 303e
000003b0: 2e1d 34bf d520 143e 27cc 023e 2e24 233e
000003c0: cceb aa3d a526 173e c73f 6abe 7daf 36be
000003d0: 00af 6fbe d90c f83d 26f7 5d3e a7c1 2b3e
000003e0: 8aed 6dbd 92e6 df3e 5265 b23d b0d7 23be
000003f0: 441f 3c3e 83e3 413e f9f0 be3e 2011 a13d

_orig_mod.dense_proj.weight f4 [64, 113]
0.00041287995 -0.06103827 0.08356055 -0.05110867 0.09497643 0.13073437 -0.08409682 0.0872018
0.012512964 -0.035718277 -0.09745868 -0.023683662 -0.015337498 -0.030020926 0.11561391 0.019441608
0.048241816 0.06915404 -0.024213195 -0.026107214 -0.031092007 -0.065691605 0.008696414 -0.006170723
0.003241184 0.017320942 0.014564728 0.0642175 0.0812256 -0.0074561285 0.040424287 0.014561402
0.018182019 0.018149333 0.012631045 0.05510939 -0.024426844 0.011399731 0.15493116 -0.07494266
-0.06524379 -0.065953106 -0.00073522376 -0.0024648395 -0.026479222 0.062472355 -0.058964558 0.05095424
0.000118718046 -0.05766298 -0.07385435 0.0071940613 -0.0073873936 0.022763425 -0.051430777 0.001942685
-0.06233485 0.00807484 0.012950986 0.008816835 0.055546016 -0.017897269 -0.009940982 0.015830953
0.0048060454 -0.022881493 0.020496527 -0.014875335 -0.009849664 0.010823936 -0.016279658 0.061478466
-0.056114275 0.011014356 0.036507037 -0.06386854 0.1354067 0.017664429 0.03381351 0.13728495
-0.06306603 0.0009905784 0.01339105 0.03702888 -0.011921457 0.0171477 -0.0056568 -0.056917265
-0.05921869 0.003005788 0.05389042 0.043809164 0.07713915 -0.07170994 -0.06473575 -0.036207996
-0.03206578 0.011120135 0.05340546 0.026666533 -0.068889715 -0.026698573 0.029886803 -0.071116224
0.045251057 0.037773233 0.035029568 -0.01524635 0.024711553 0.02986688 -0.010847451 0.059027296
-0.007877784 -0.035715323 0.0043804552 -0.03671891 -0.037819263 0.05187957 -0.043666333 0.107719295
-0.04295881 -0.118052185 -0.01915718 0.015014228 -0.0034727324 -0.026061108 0.072480656 0.066970415
0.002077904 -0.046404254 -0.03470914 -0.056873385 0.013339082 0.0134664625 -0.056346945 0.009245199
0.02477142 -0.0007403191 0.057270866 0.10036353 0.023062352 -0.14803518 0.048730265 0.08754798
-0.01614682 0.025909372 0.07240965 -0.024729183 -0.040523477 -0.024697883 0.07529796 -0.01906122
0.016494012 -0.0385356 0.17120183 -0.039356668 0.036773667 0.0055025634 -0.0074356957 -0.018369136
0.02995149 -0.0061649624 0.044954095 0.009044611 0.14617294 0.029514598 -0.09407526 -0.008242579
-0.07019804 0.15734126 -0.19098477 0.04201348 -0.050097603 -0.009025859 -0.015030108 -0.017387686
0.07240284 -0.0215316 -0.037995193 -0.010708672 0.015711071 -0.011468412 0.041117087 0.0049717412
0.040748514 -0.03127763 0.06773409 -0.003039429 -0.08063571 -0.14424324 0.009967434 -0.019727822
-0.16508408 0.14246447 -0.11303281 -0.10612435 -0.08079142 -0.058452226 -0.042721182 -7.878854e-06
0.036218554 0.054983787 -0.016400285 -0.005683109 0.034626137 0.0056666457 -0.032855995 0.051856928
0.022876171 -0.00051157415 0.056706354 -0.04602196 -0.018124223 0.009693178 0.059620135 -0.04927582
0.04275136 -0.053908385 -0.05997481 0.004382873 0.0012341982 0.046188287 -0.013004682 0.018635105
-0.017716585 -0.0596343 0.029104657 0.0074753864 -0.1686916 0.041040342 0.264984 -0.07748078
-0.18584451 -0.039899185 0.0715061 -0.115521364 -0.060909085 -0.065247945 0.10119863 -0.026778484
0.12094957 0.18373829 0.0061998656 -0.11052994 0.06356528 -0.0024871533 0.0030663556 -0.0099571
0.019982727 0.001370162 -0.012988994 0.08598466 0.009905584 -0.04475914 0.06824191 0.09669493
00000000: cf77 d839 4403 7abd cb21 ab3d 5357 51bd
00000010: 0183 c23d 3bdf 053e f43a acbd db96 b23d
00000020: 2d03 4d3c 544d 12bd 6b98 c7bd 3d04 c2bc
00000030: 214a 7bbc 72ee f5bc fcc6 ec3d 0244 9f3c
00000040: 3699 453d a2a0 8d3d c05a c6bc ccde d5bc
00000050: aab4 febc 5289 86bd 677b 0e3c c733 cabb
00000060: 0b6a 543b a6e4 8d3c e6a0 6e3c 7784 833d
00000070: 9b59 a63d 8a52 f4bb f093 253d f292 6e3c
00000080: 75f2 943c e9ad 943c 71f2 4e3c 62ba 613d
00000090: ce1a c8bc f0c5 3a3c 46a6 1e3e 8a7b 99bd
000000a0: 899e 85bd 6c12 87bd 08bc 40ba 2589 21bb
000000b0: f4ea d8bc 03e3 7f3d d284 71bd 65b5 503d
000000c0: 44f8 f838 0430 6cbd f340 97bd 29bc eb3b
000000d0: f311 f2bb 5d7a ba3c 14a9 52bd b1a1 fe3a
000000e0: d452 7fbd 554c 043c 5f30 543c 7c74 103c
000000f0: 3884 633d 4b9d 92bc 80df 22bc eaaf 813c
00000100: 087c 9d3b f871 bbbc 55e8 a73c adb7 73bc
00000110: 7c60 21bc e156 313c eb5c 85bc d8d0 7b3d
00000120: 15d8 65bd 8f75 343c 6788 153d 82cd 82bd
00000130: 0ea8 0a3e feb4 903c 0980 0a3d 6d94 0c3e
00000140: c328 81bd 4cd6 813a 2266 5b3c 98ab 173d
00000150: 3752 43bc 5579 8c3c ae5c b9bb 1422 69bd
00000160: 4c8f 72bd c1fc 443b 33bc 5c3d 3d71 333d
00000170: 21fb 9d3d a9dc 92bd 2d94 84bd d64e 14bd
00000180: 6857 03bd 3a31 363c afbf 5a3d c673 da3c
00000190: 0d16 8dbd f7b6 dabc 2bd5 f43c 62a5 91bd
000001a0: 2c59 393d 1bb8 1a3d 2a7b 0f3d d4cb 79bc
000001b0: e26f ca3c 63ab f43c 82b9 31bc 9bc6 713d
000001c0: d211 01bc 3b4a 12bd ec89 8f3b 9166 16bd
000001d0: 5fe8 1abd ac7f 543d 78db 32bd ef9b dc3d
000001e0: 94f5 2fbd 58c5 f1bd 85ef 9cbc 3dfe 753c
000001f0: c896 63bb 1b7e d5bc bd70 943d c927 893d
00000200: 722d 083b 6312 3ebd 2c2b 0ebd 11f4 68bd
00000210: 2a8c 5a3c 70a2 5c3c 0ecc 66bd 2d79 173c
00000220: 6fed ca3c f911 42ba db94 6a3d 658b cd3d
00000230: 42ed bc3c 8996 17be 6399 473d 5b4c b33d
00000240: 5646 84bc e43f d43c 834b 943d db94 cabc
00000250: f2fb 25bd 3753 cabc d135 9a3d 4726 9cbc
00000260: 731e 873c 81d7 1dbd 884f 2f3e 7534 21bd
00000270: fc9f 163d d94e b43b 23a7 f3bb df7a 96bc
00000280: d45c f53c 7403 cabb c921 383d d92f 143c
00000290: 5cae 153e 99c8 f13c 88aa c0bd e20b 07bc
000002a0: fdc3 8fbd 111e 213e 8391 43be 5416 2c3d
000002b0: 2533 4dbd 32e1 13bc d840 76bc 9f70 8ebc
000002c0: f147 943d 0a63 b0bc d9a0 1bbd 6d73 2fbc
000002d0: 81b4 803c 02e6 3bbc 646a 283d fde9 a23b
000002e0: eae7 263d f91c 00bd 2cb8 8a3d 2831 47bb
000002f0: 5624 a5bd 80b4 13be 734e 233c 3e9c a1bc
00000300: cd0b 29be 35e2 113e bf7d e7bd b957 d9bd
00000310: f975 a5bd 9a6b 6fbd 68fc 2ebd 6c2f 04b7
00000320: e859 143d ae36 613d e459 86bc 6039 babb
00000330: 23d4 0d3d 45af b93b 0294 06bd ee67 543d
00000340: cf66 bb3c 291b 06ba ec44 683d 8681 3cbd
00000350: 4079 94bc 23d0 1e3c 3e34 743d 71d5 49bd
00000360: 0d1c 2f3d 0acf 5cbd 25a8 75bd 349e 8f3b
00000370: d2c4 a13a ee2f 3d3d 9711 55bc a6a8 983c
00000380: 5f22 91bc 1943 74bd e46c ee3c 16f4 f43b
00000390: 7ebd 2cbe eb19 283d fcab 873e 3eae 9ebd
000003a0: 064e 3ebe 546d 23bd ca71 923d 7796 ecbd
000003b0: ce7b 79bd b7a0 85bd 3a41 cf3d 8d5e dbbc
000003c0: 68b4 f73d e425 3c3e 3e28 cb3b 855d e2bd
000003d0: 832e 823d 82ff 22bb e9f4 483b 1b23 23bc
000003e0: d1b2 a33c 0297 b33a cacf 54bc ba18 b03d
000003f0: 084b 223c 5c55 37bd 6ac2 8b3d fe07 c63d

_orig_mod.dense_proj.bias f4 [64]
-0.08568485 0.028449327 -0.0041520116 -0.018865494 -0.08496743 -0.120970465 -0.068548694 0.07537184
-0.09788841 0.018200714 -0.068545856 -0.123740554 -0.05145675 -0.08489655 -0.01184992 -0.07258209
0.00043175768 -0.061284054 0.070845924 0.07632427 -0.100430176 -0.090978116 -0.04135149 0.092183545
0.055210534 0.06976784 -0.032750607 -0.114407845 -0.08602007 0.030772269 -0.0646716 0.023966877
-0.0651057 -0.036169127 0.005356316 -0.10417552 -0.12071901 0.025394943 -0.11144847 0.07530849
-0.06887694 0.0037418325 -0.056935318 0.03819523 0.019825263 -0.05740984 -0.07694194 -0.045652337
-0.11695341 -0.02743413 -0.027366742 0.015956936 0.08649389 -0.010349811 0.10461876 0.09763583
0.040662996 0.010800264 -0.0020996649 -0.08001148 0.017633071 0.12885673 -0.05786331 0.0051044603
00000000: 8a7b afbd 900e e93c 990d 88bb cf8b 9abc
00000010: 6703 aebd 5dbf f7bd 4263 8cbd 8d5c 9a3d
00000020: b879 c8bd aa19 953c c561 8cbd b06b fdbd
00000030: 50c4 52bd 3ede adbd 2b26 42bc eba5 94bd
00000040: 895d e239 fd04 7bbd ab17 913d e64f 9c3d
00000050: 56ae cdbd bc52 babd 2e60 29bd baca bc3d
00000060: 7124 623d 71e2 8e3d 8025 06bd a94e eabd
00000070: 4a2b b0bd 2016 fc3c 8b72 84bd 2f56 c43c
00000080: 2356 85bd 1426 14bd 0984 af3b fa59 d5bd
00000090: 873b f7bd 0e09 d03c 183f e4bd 563b 9a3d
000000a0: 5a0f 8dbd 8839 753b 0235 69bd 9a72 1c3d
000000b0: 9768 a23c 9526 6bbd bc93 9dbd f2fd 3abd
000000c0: 4585 efbd 8abd e0bc 3830 e0bc 1fb8 823c
000000d0: b523 b13d 4192 29bc 5c42 d63d 4bf5 c73d
000000e0: 3e8e 263d 97f3 303c 889a 09bb 0fdd a3bd
000000f0: 3b73 903c 05f3 033e 1402 6dbd 5143 a73b

_orig_mod.shared_mlp.0.weight f4 [128, 120]
0.08002249 0.13579813 0.019149102 -0.06978678 0.0377402 -0.028363239 0.04660413 0.013123731
-0.010743782 0.027659858 0.028521983 0.022438576 -0.11652259 -0.009434559 -0.014265324 0.033878367
-0.05088433 0.021800872 -0.09983438 0.07847996 -0.008831228 -0.081394225 0.03147948 -0.012467775
-0.016565304 -0.06301493 0.054338478 -0.039017774 -0.12748168 -0.12531343 0.02363756 0.018137464
-0.06301757 0.03818777 -0.01952027 0.026649214 0.0411994 0.013501403 -0.025622346 0.07730163
-0.024914613 0.017181221 -0.02110326 -0.012781008 0.042491518 0.051241536 0.012832798 0.06496086
0.029918369 0.01411992 0.017110286 -0.051661592 0.013614611 0.0026993752 0.033920847 0.061577715
-0.018652812 -0.021174286 -0.06921579 -0.05863796 0.026155483 -0.015752656 -0.06022557 0.09258722
-0.05817853 -0.038546324 -0.0012403727 0.053306304 0.017401373 0.058289345 0.020820728 -0.005149062
-0.011704487 -0.104028024 -0.12754504 -0.073305696 0.010287337 0.01001202 -0.063708276 0.048877675
-0.026369404 0.048434015 0.00012132101 0.014972303 -0.044402543 0.09227645 -0.030305313 0.043253805
-0.008675969 0.050512545 -0.04319851 -0.031060647 -0.08989647 0.02668516 -0.07147272 0.05494898
0.013535233 0.023437252 0.006385011 -0.015897008 0.033796404 -0.052464087 0.015786162 -0.016062034
0.0017082717 -0.015428468 -0.074095875 -0.04359218 0.067889005 0.021058172 -0.07792772 -0.016436383
-0.06033541 -0.02079496 0.12228222 0.05512143 0.003972263 -0.027400171 -0.015946606 0.0045968434
-0.10671597 -0.070024684 -0.07169555 0.024174014 0.0048631737 -0.031520482 -0.025143102 -0.07792559
-0.064363964 0.034765657 0.01980993 -0.057258137 0.19541179 0.0990733 0.024338018 0.08330156
-0.037287448 0.19506669 0.13560201 -0.021985495 -0.25537828 0.070497185 -0.024576651 -0.099060245
0.018824011 -0.014486863 -0.031103205 -0.06915474 -0.11900154 0.034781877 -0.0054975864 -0.023630196
0.0795841 -0.06509413 -0.01952754 -0.00043555102 -0.049495615 0.08294207 0.08271022 -0.011774613
0.0020235 -0.21727484 0.043116353 0.14609405 0.10114056 0.060451448 0.039710376 0.019984242
-0.06342576 -0.020431658 -0.1550208 -0.049303204 0.0051009343 -0.026618145 -0.026524879 -0.037869763
-0.029550472 0.06628588 -0.035859093 -0.06822869 0.044219386 0.050593335 0.03344436 0.07697956
-0.010755573 -0.07196314 0.023615783 0.0033079877 -0.05969155 -0.063408054 -0.11678847 -0.11991397
-0.09753452 0.10462171 0.061524265 0.022067301 -0.020086113 -0.035167612 -0.019267617 -0.028055124
-0.0125187775 -0.063426785 -0.021338094 -0.08241197 0.046879865 -0.1675151 0.11730863 -0.029682457
0.017326867 0.05321945 -0.030799406 0.050253168 -0.06840275 0.08334016 0.062845014 -0.025624095
0.013913023 0.007812935 0.007770745 0.10167127 0.08582214 -0.14056051 0.016083362 -0.03592948
-0.022855164 0.014434828 0.015161139 -0.12765121 0.041362748 -0.06384213 0.04473583 -0.048022974
0.026841326 0.023479387 -0.09452337 0.049976952 -0.009263699 -0.0545643 -0.09293759 0.060679622
0.03305158 -0.028630698 0.073014304 -0.0007673893 0.0009024345 0.02811413 0.012237443 -0.024837188
0.08096525 0.067149475 0.0033772443 -0.046557844 0.1343565 0.018309582 -0.09815524 -0.06886969
00000000: d5e2 a33d aa0e 0b3e 94de 9c3c 5fec 8ebd
00000010: 7895 1a3d 065a e8bc f9e3 3e3d eb04 573c
00000020: b006 30bc ed96 e23c efa6 e93c 1bd1 b73c
00000030: 65a3 eebd 6993 1abc 1bb9 69bc 0bc4 0a3d
00000040: 166c 50bd be97 b23c f875 ccbd 1aba a03d
00000050: dbb0 10bc 04b2 a6bd a1f0 003d a345 4cbc
00000060: f6b3 87bc f90d 81bd 0692 5e3d 1ad1 1fbd
00000070: 8f8a 02be 2a52 00be 8ea3 c13c 0595 943c
00000080: 5b0f 81bd c76a 1c3d f9e8 9fbc 744f da3c
00000090: b4c0 283d fd34 5d3c f4e5 d1bc 5150 9e3d
000000a0: bb19 ccbc a2bf 8c3c bee0 acbc 6f67 51bc
000000b0: 960b 2e3d a5e2 513d a840 523c 330a 853d
000000c0: 5e17 f53c 3d57 673c df2a 8c3c 1b9b 53bd
000000d0: d10f 5f3c 00e8 303b 96f0 0a3d ea38 7c3d
000000e0: c8cd 98bc b275 adbc 02c1 8dbd 5c2e 70bd
000000f0: 0644 d63c b70b 81bc 16af 76bd 5e9e bd3d
00000100: 9c4c 6ebd c0e2 1dbd 0094 a2ba b657 5a3d
00000110: 538d 8e3c cfc0 6e3d 3b90 aa3c 76b9 a8bb
00000120: 2dc4 3fbc a50c d5bd 2b9b 02be 4c21 96bd
00000130: 388c 283c 7509 243c 7c79 82bd f533 483d
00000140: a604 d8bc bf62 463d b96d fe38 644e 753c
00000150: 71df 35bd 6ffb bc3d d942 f8bc e72a 313d
00000160: a725 0ebc 3ee6 4e3d ecf0 30bd e672 febc
00000170: a41b b8bd d69a da3c 4a60 92bd 2f12 613d
00000180: e2c2 5d3c 7bff bf3c 5b39 d13b 713a 82bc
00000190: 196e 0a3d 95e4 56bd fb51 813c 8794 83bc
000001a0: 16e8 df3a afc7 7cbc 94bf 97bd b78d 32bd
000001b0: 6409 8b3d 3082 ac3c 9298 9fbd 98a5 86bc
000001c0: 4322 77bd 315a aabc 1a6f fa3d 02c7 613d
000001d0: c229 823b 5376 e0bc 75a2 82bc 1ea1 963b
000001e0: e78d dabd 1a69 8fbd 1ed5 92bd 9508 c63c
000001f0: 425b 9f3b 9f1b 01bd e8f8 cdbc 7497 9fbd
00000200: 41d1 83bd 6f66 0e3d 6f48 a23c 8287 6abd
00000210: 071a 483e f1e6 ca3d 8660 c73c 029a aa3d
00000220: b9ba 18bd 90bf 473e 41db 0a3e ed1a b4bc
00000230: f1c0 82be d460 903d f954 c9bc 19e0 cabd
00000240: d034 9a3c 4f5a 6dbc 26cc febc 00a1 8dbd
00000250: 14b7 f3bd 7177 0e3d 1925 b4bb 1d94 c1bc
00000260: fdfc a23d 1250 85bd 38f8 9fbc ab5a e4b9
00000270: eabb 4abd 88dd a93d fa63 a93d 4eea 40bc
00000280: b29c 043b 4c7d 5ebe c69a 303d ae99 153e
00000290: c822 cf3d f09b 773d 59a7 223d feb5 a33c
000002a0: 5de5 81bd 4b60 a7bc c6bd 1ebe 28f2 49bd
000002b0: bd25 a73b 4c0e dabc b44a d9bc 531d 1bbd
000002c0: d513 f2bc e4c0 873d fce0 12bd 7cbb 8bbd
000002d0: 631f 353d f53a 4f3d f4fc 083d 76a7 9d3d
000002e0: 2538 30bc 6961 93bd e375 c13c d3ca 583b
000002f0: 207f 74bd 15dc 81bd cb2e efbd 7595 f5bd
00000300: 2ec0 c7bd e843 d63d de00 7c3d 7cc6 b43c
00000310: a28b a4bc ea0b 10bd 1fd7 9dbc dcd3 e5bc
00000320: 8f1b 4dbc e7e5 81bd 3acd aebc 9bc7 a8bd
00000330: 1a05 403d 1489 2bbe 823f f03d a028 f3bc
00000340: 13f1 8d3c a3fc 593d 094f fcbc 44d6 4d3d
00000350: be16 8cbd 3fae aa3d e3b4 803d 9fe9 d1bc
00000360: 73f3 633c d301 003c bca1 fe3b 0739 d03d
00000370: 85c3 af3d 18ef 0fbe 41c1 833c ca2a 13bd
00000380: c13a bbbc 0f80 6c3c 6d66 783c 00b7 02be
00000390: fc6b 293d aabf 82bd eb3c 373d bdb3 44bd
000003a0: 57e2 db3c d857 c03c 7895 c1bd a2b4 4c3d
000003b0: c5c6 17bc d17e 5fbd 1056 bebd 328b 783d
000003c0: 1861 073d ed8a eabc 8688 953d a02a 49ba
000003d0: 5b91 6c3a 9b4f e63c 8e7f 483c 5c77 cbbc
000003e0: 1cd1 a53d aa85 893d c254 5d3b 70b3 3ebd
000003f0: c094 093e fafd 953c 9d05 c9bd 8d0b 8dbd

_orig_mod.shared_mlp.0.bias f4 [128]
0.0047429795 -0.12963636 -0.039083757 0.022886658 -0.14736287 -0.0061273943 0.05496465 0.052346162
-0.068143204 0.04413657 0.04784248 0.09843443 0.0112879025 -0.10612869 0.055530585 0.13155745
0.09190591 0.086808994 0.05954905 0.042312074 -0.051933583 0.050615743 -0.022050004 0.10092369
0.08836199 0.070239514 0.04358702 0.017025374 0.05036349 0.12763956 0.0007265558 0.039358623
0.09828629 -0.09654026 -0.20904814 -0.09983047 -0.008115339 0.020990774 -0.10149732 0.09149404
-0.08489829 -0.116720915 0.011476795 0.0006109311 -0.089078024 0.02797338 -0.0064845774 -0.022952832
-0.022074584 0.08403965 -0.039422642 0.06907809 -0.13806307 -0.045082938 0.0004187271 -0.027662743
0.010550925 -0.037506185 0.0030576559 0.0693834 0.07829239 -0.11792688 -0.09660167 -0.028709996
0.11609581 0.033886965 -0.13353 -0.0048761405 0.03170391 -0.057465587 0.111059256 0.031474177
-0.027087416 -0.031992763 -0.018441532 0.10556547 0.08393003 -0.07802636 -0.025239894 0.07064262
-0.09899423 -0.11608692 0.021342289 0.091013156 0.08370413 -0.12026818 0.042017467 0.044086684
-0.09629775 -0.07542703 0.027054695 -0.09064536 0.054793615 -0.021504976 0.04008549 -0.017593507
0.08378221 0.06864966 0.14326021 -0.10354112 0.13188763 -0.11006697 -0.012422681 0.06758707
-0.055845324 -0.16998868 -0.12986514 -0.06609589 0.10407055 0.09962246 -0.035002355 0.049031388
0.05817903 -0.0014446941 -0.019183956 -0.10466006 0.027013933 -0.021842489 0.08370559 0.02184731
-0.0026155966 -0.07442075 0.07220781 -0.03632377 0.06999859 0.083298996 0.051502787 -0.10728291
00000000: ff6a 9b3b 65bf 04be 4a16 20bd cd7c bb3c
00000010: 4be6 16be 4fc8 c8bb 9d22 613d ee68 563d
00000020: aa8e 8bbd 8cc8 343d 7af6 433d fe97 c93d
00000030: e5f0 383c 005a d9bd 0a74 633d ffb6 063e
00000040: 2a39 bc3d eac8 b13d b4e9 733d 6d4f 2d3d
00000050: 4fb8 54bd 7452 4f3d 36a2 b4bc 14b1 ce3d
00000060: 22f7 b43d bcd9 8f3d 4e88 323d cc78 8b3c
00000070: f249 4e3d f2b3 023e 5676 3e3a 8236 213d
00000080: 534a c93d e6b6 c5bd b710 56be eb73 ccbd
00000090: 33f6 04bc d8f4 ab3c d4dd cfbd 3a61 bb3d
000000a0: 28df adbd 600b efbd 2b09 3c3c e426 203a
000000b0: 8a6e b6bd 6e28 e53c 947c d4bb 9407 bcbc
000000c0: c2d5 b4bc fb1c ac3d a379 21bd d078 8d3d
000000d0: 6860 0dbe e3a8 38bd 9a88 db39 fa9c e2bc
000000e0: c9dd 2c3c 16a0 19bd f462 483b e218 8e3d
000000f0: c357 a03d a683 f1bd 19d7 c5bd 3a31 ebbc
00000100: a4c3 ed3d 0fcd 0a3d 17bc 08be 08c8 9fbb
00000110: f6db 013d 0961 6bbd 0973 e33d 11eb 003d
00000120: 6ee6 ddbc d80a 03bd b212 97bc b632 d83d
00000130: 82e3 ab3d 49cc 9fbd e5c3 cebc 14ad 903d
00000140: 7dbd cabd fbbe edbd 06d6 ae3c 1b65 ba3d
00000150: 126d ab3d 2a4f f6bd 821a 2c3d 3d94 343d
00000160: c137 c5bd 7d79 9abd cfa1 dd3c 46a4 b9bd
00000170: 456f 603d 342b b0bc af30 243d 4220 90bc
00000180: 0296 ab3d 3198 8c3d ceb2 123e 5e0d d4bd
00000190: 8d0d 073e cb6a e1bd 8088 4bbc 176b 8a3d
000001a0: 11be 64bd 8311 2ebe 5efb 04be 485d 87bd
000001b0: f122 d53d dc06 cc3d a15e 0fbd 23d5 483d
000001c0: 224d 6e3d e45b bdba ac27 9dbc 0358 d6bd
000001d0: 534c dd3c 05ef b2bc d66d ab3d 21f9 b23c
000001e0: 6e6a 2bbb e869 98bd b0e1 933d 3cc8 14bd
000001f0: 6c5b 8f3d aa98 aa3d 96f4 523d 24b7 dbbd

_orig_mod.shared_mlp.3.weight f4 [64, 128]
0.020854132 -0.07377756 -0.033202093 0.03709898 -0.06547158 0.10068624 -0.0136743765 0.02237533
-0.07258247 0.038003094 0.042993773 0.043884344 -0.04498224 -0.11897381 0.025446387 0.030763712
0.014689706 -0.020774502 0.08358068 0.00994298 -0.088212855 0.07009751 0.011739778 -0.02875841
0.014795913 0.05352075 -0.03522109 0.06799074 0.047039174 0.046326924 0.07676495 0.004273327
0.07934249 -0.13840865 -0.1770327 -0.08959758 0.004253836 -0.01764209 -0.16625871 0.04370571
-0.14556783 -0.10677643 0.053810455 -0.0037574496 -0.07674991 0.08404125 -0.10784376 -0.014167751
-0.044519845 -0.008960144 0.014621598 0.085139714 -0.16043885 0.009537199 0.014152775 -0.07246703
-0.0075321533 0.021453585 -0.017468384 -0.032948364 0.05516421 -0.1076278 -0.08909442 0.10059044
0.02357657 0.09791492 -0.18180808 0.007277288 -0.018237658 -0.12952353 0.020122945 0.062182967
-0.014841597 -0.12238876 0.056479003 -0.021930682 -0.014488604 -0.10465876 0.05212227 0.044177257
-0.16831386 -0.07665921 0.034520797 0.011497159 -0.020943938 -0.11365737 0.055188853 0.035198934
0.0694862 -0.06835076 0.00024712068 -0.070447624 -0.017179446 -0.032895155 0.062273957 0.03601419
-0.03788639 0.064458095 -0.027027352 -0.07406852 0.0972679 -0.14625862 -0.009290298 -0.03423654
-0.12568538 -0.20259961 -0.026634539 -0.009968128 0.046543088 0.0060598277 -0.108903304 0.008675631
0.025280863 0.0128391795 0.043682106 -0.079175256 0.05546963 -0.023375593 -0.024424087 0.013928425
0.10099261 -0.04401949 -0.017641082 0.047423683 0.08851784 0.045991756 0.0136497365 -0.13000551
-0.014198961 0.011305152 -0.0041594165 -0.014455439 0.00033937738 -0.0078617325 -0.056948174 -0.07692479
0.0018977898 -0.08869908 -0.030175222 0.00086123403 0.019523041 0.0039792787 0.009318361 -0.046562836
-0.003031696 0.0008390886 0.04277326 -0.07322505 0.0010437869 0.0005125866 -0.041893903 -0.05066303
-0.06394383 -0.013374703 -0.06961137 -0.0039846925 0.020890221 -0.09713512 -0.014224773 0.013546988
-0.026815398 -0.042535473 0.05524902 -0.006234687 -0.037818644 0.016214678 0.021489644 -0.022452766
-0.013298478 -0.018725134 -0.0142111555 0.034469046 0.001675951 -0.07881248 0.015008025 0.016751708
-0.03276684 -0.011294697 0.0219771 -0.006102663 0.05495513 0.011993661 -0.040766794 0.012528806
-0.025685884 0.0014328694 0.0089728 0.007122014 -0.06551118 -0.028651856 -0.0012871677 -0.0384246
-0.034672 -0.05107817 -0.003583923 -0.02794362 -0.034657177 0.017008428 -0.05267723 0.005111637
-0.054487437 0.020203114 -0.027064154 -0.046036005 -0.050615996 0.028636895 -0.016778897 -0.074439116
0.01708949 -0.020796953 -0.021199217 -0.02587716 -0.017813938 0.017861737 -0.012196819 -0.02449876
0.0027872415 -0.011399732 -0.0122816255 0.047466703 0.01427695 0.019301327 -0.043537445 -0.0039496473
-0.039730236 -0.00018350748 -0.03037214 0.0026389502 0.012161513 -0.0004528696 -0.102226034 -0.04432377
0.0035854396 0.03715038 0.009889982 0.0066604516 -0.0077394056 -0.062542476 -0.0036404065 -0.07407874
-0.0006494695 -0.065482594 0.027655762 0.015415261 -0.0114341015 -0.060260907 -0.009844921 -0.025779778
-0.06616359 0.029500546 -0.08098782 -0.010179387 -0.0348349 -0.03512464 -0.06498131 -0.0023931474
00000000: 49d6 aa3c b018 97bd ebfe 07bd 1af5 173d
00000010: f715 86bd 9634 ce3d 7e0a 60bc 784c b73c
00000020: 1ea6 94bd 22a9 1b3d 3d1a 303d 12c0 333d
00000030: 4c3f 38bd 8aa8 f3bd f174 d03c 2e04 fc3c
00000040: 18ad 703c 4a2f aabc 592c ab3d e1e7 223c
00000050: f1a8 b4bd 498f 8f3d 3358 403c c296 ebbc
00000060: 8f6a 723c 9338 5b3d fd43 10bd bb3e 8b3d
00000070: 26ac 403d 4dc1 3d3d f136 9d3d 4407 8c3b
00000080: 517e a23d ffba 0dbe 0f48 35be f07e b7bd
00000090: c363 8b3b 2586 90bc b93f 2abe c204 333d
000000a0: bc0f 15be 9aad dabd 5a68 5c3d 8b3f 76bb
000000b0: 0f2f 9dbd d21d ac3d 30dd dcbd db1f 68bc
000000c0: 715a 36bd 91cd 12bc 6d8f 6f3c bb5d ae3d
000000d0: 154a 24be e941 1c3c 0ae1 673c 9869 94bd
000000e0: 48d0 f6bb 6ebf af3c db19 8fbc ddf4 06bd
000000f0: def3 613d f76b dcbd 2377 b6bd 5c02 ce3d
00000100: a723 c13c 9e87 c83d e62b 3abe 5176 ee3b
00000110: 2467 95bc d1a1 04be e0d8 a43c 91b3 7e3d
00000120: 2b2a 73bc f5a6 fabd 8756 673d f9a7 b3bc
00000130: 9c61 6dbc 5557 d6bd 297e 553d 36f3 343d
00000140: 785a 2cbe 81ff 9cbd ae65 0d3d 945e 3c3c
00000150: 9f92 abbc 32c5 e8bd b50d 623d c22c 103d
00000160: c84e 8e3d 7cfb 8bbd fa8f 8139 d846 90bd
00000170: e9bb 8cbc 12bd 06bd fa12 7f3d 9e83 133d
00000180: c22e 1bbd 9b02 843d 7768 ddbc 3cb1 97bd
00000190: 6534 c73d d2c4 15be 5636 18bc 9d3b 0cbd
000001a0: abb3 00be 4676 4fbe ad30 dabc 5c51 23bc
000001b0: f7a3 3e3d 8591 c63b b208 dfbd 3c24 0e3c
000001c0: d019 cf3c 6c5b 523c 02ec 323d a326 a2bd
000001d0: 1f34 633d 2c7e bfbc 0615 c8bc 0c34 643c
000001e0: 37d5 ce3d c84d 34bd 0884 90bc 563f 423d
000001f0: d748 b53d da61 3c3d 25a3 5f3c 2a20 05be
00000200: c2a2 68bc 3f39 393c b74b 88bb 81d6 6cbc
00000210: 76ee b139 7fce 00bc 7d42 69bd bf8a 9dbd
00000220: 42bf f83a dda7 b5bd 0732 f7bc 70c4 613a
00000230: c9ee 9f3c 9c64 823b 0aac 183c acb8 3ebd
00000240: 6baf 46bb 48f6 5b3a 0433 2f3d 04f7 95bd
00000250: adcf 883a 1b5f 063a f198 2bbd 0a84 4fbd
00000260: fcf4 82bd 9221 5bbc 6890 8ebd 0692 82bb
00000270: f821 ab3c c7ee c6bd 060f 69bc 30f4 5d3c
00000280: f7ab dbbc ad39 2ebd cc4c 623d 584c ccbb
00000290: b9e7 1abd a5d4 843c 0d0b b03c ddee b7bc
000002a0: dce1 59bc 7465 99bc e8d5 68bc 6a2f 0d3d
000002b0: 95ab db3a 7068 a1bd 38e4 753c e13a 893c
000002c0: 8636 06bd 650d 39bc 5209 b43c d9f8 c7bb
000002d0: a118 613d 0f81 443c 15fb 26bd 9f45 4d3c
000002e0: 346b d2bc 1ecf bb3a a702 133c c95f e93b
000002f0: ba2a 86bd 4cb7 eabc 2eb6 a8ba 1d63 1dbd
00000300: 3a04 0ebd 5837 51bd 40e0 6abb 05ea e4bc
00000310: aff4 0dbd 4255 8b3c 14c4 57bd 857f a73b
00000320: 382e 5fbd 0081 a53c a5b5 ddbc 4090 3cbd
00000330: b852 4fbd ec97 ea3c e673 89bc 8973 98bd
00000340: 42ff 8b3c 5f5e aabc fba9 adbc 56fc d3bc
00000350: 89ee 91bc c752 923c 2bd5 47bc a0b1 c8bc
00000360: 27aa 363b f1c5 3abc df38 49bc 726c 423d
00000370: dee9 693c d11d 9e3c 5254 32bd 0b6c 81bb
00000380: 2cbc 22bd ea6b 40b9 ffce f8bc 3df2 2c3b
00000390: 1541 473c 216f edb9 e25b d1bd d78c 35bd
000003a0: b2f9 6a3b ff2a 183d 9709 223c eb3f da3b
000003b0: d79a fdbb 4516 80bd e393 6ebb 98b6 97bd
000003c0: 2941 2aba bd1b 86bd 568e e23c 4a90 7c3c
000003d0: 1956 3bbc 24d4 76bd 974c 21bc 1d30 d3bc
000003e0: c780 87bd 21ab f13c f1dc a5bd 72c7 26bc
000003f0: 0aaf 0ebd dbde 0fbd ec14 85bd 5ad6 1cbb

_orig_mod.shared_mlp.3.bias f4 [64]
0.12187976 -0.012002162 0.022439322 -0.009414622 0.10532063 -0.035000224 -0.08356819 -0.046226148
-0.12053934 -0.043515258 0.081428856 0.08918858 0.12075558 -0.008230454 -0.056386802 0.15628718
0.1586973 -0.0076270453 0.14422756 0.069869496 0.13946892 -0.082592286 -0.08433933 -0.052777607
0.12825115 -0.104260676 0.1145685 -0.05829483 0.13972957 0.07196288 -0.075801544 0.11789506
0.023154419 0.081246436 -0.07842726 -0.046764318 0.021922627 0.070644476 0.15452148 -0.04134866
0.039776865 -0.040265728 0.078438036 0.15411258 0.018855432 -0.091163 0.107192 -0.08187412
0.16629142 0.04770149 -0.09232195 -0.025325937 -0.08130233 0.032753192 -0.035213597 -0.06258138
-0.11661589 -0.019214835 -0.081327744 -0.078772224 0.028150586 0.022168664 0.03592245 0.035453625
00000000: 189c f93d b7a4 44bc abd2 b73c c93f 1abc
00000010: 58b2 d73d 655c 0fbd cd25 abbd a157 3dbd
00000020: 54dd f6bd 0e3d 32bd 2cc4 a63d 81a8 b63d
00000030: b44e f73d 07d9 06bc d9f5 66bd bf09 203e
00000040: 8c81 223e 4bec f9bb 64b0 133e bd17 8f3d
00000050: f1d0 0e3e 2526 a9bd 19ba acbd 552d 58bd
00000060: 4554 033e 9f86 d5bd e4a2 ea3d 8fc6 6ebd
00000070: 4515 0f3e 4661 933d d73d 9bbd f772 f13d
00000080: 56ae bd3c 8864 a63d 799e a0bd f18b 3fbd
00000090: 1597 b33c 0dae 903d e13a 1e3e 365d 29bd
000000a0: 11ed 223d aded 24bd 1fa4 a03d b0cf 1d3e
000000b0: b576 9a3c abb3 babd 7b87 db3d 9ead a7bd
000000c0: 4c48 2a3e a362 433d 4a13 bdbd 5778 cfbc
000000d0: d681 a6bd 3628 063d 223c 10bd ab2a 80bd
000000e0: 50d4 eebd 6e68 9dbc 298f a6bd 5553 a1bd
000000f0: 0f9c e63c 0f9b b53c 6b23 133d d237 113d

_orig_mod.ctr_head.weight f4 [1, 64]
-0.0910648 0.20183583 -0.079994515 0.23541273 -0.07473243 0.26897246 0.13920982 0.19854929
0.24970229 0.25859085 -0.08271391 -0.072522305 -0.090668544 0.17432384 0.22720931 -0.08833125
-0.0706119 -0.10397955 -0.12203206 -0.078332 -0.10207898 0.26029727 0.26328295 0.24107036
-0.07973821 0.23918423 -0.06479723 0.2413238 -0.110092126 -0.08299521 0.22155942 -0.06803027
0.24683659 -0.0994571 0.16920249 0.22945401 -0.08974591 -0.09380269 -0.07339749 0.25476938
0.26536915 0.2501436 -0.113871284 -0.11596709 0.07419267 0.22773775 -0.10165705 0.2091438
-0.08740399 -0.06382236 0.078581445 0.23125075 0.22137284 0.21310972 0.25489736 0.17439432
0.22328241 0.15359549 0.16210209 0.17573217 -0.07759046 0.17722552 -0.08953535 -0.076616965
00000000: 2f80 babd 0dae 4e3e 2ad4 a3bd 0910 713e
00000010: 510d 99bd c2b6 893e 058d 0e3e 8150 4b3e
00000020: f5b1 7f3e 0566 843e e965 a9bd 9386 94bd
00000030: 6eb0 b9bd f381 323e 8fa9 683e 04e7 b4bd
00000040: f99c 90bd 3bf3 d4bd f2eb f9bd 876c a0bd
00000050: c90e d1bd af45 853e 06cd 863e 26db 763e
00000060: c94d a3bd b6ec 743e 69b4 84bd 961d 773e
00000070: fb77 e1bd 65f9 a9bd 79e0 623e 7453 8bbd
00000080: bbc2 7c3e 2ab0 cbbd 6b43 2d3e fef5 6a3e
00000090: b4cc b7bd a01b c0bd 6c51 96bd 2271 823e
000000a0: 77de 873e d212 803e 5935 e9bd 2780 edbd
000000b0: 54f2 973d 1634 693e 9231 d0bd cb29 563e
000000c0: dd00 b3bd 4cb5 82bd 4fef a03d ffcc 6c3e
000000d0: 90af 623e 6f39 5a3e e881 823e 6d94 323e
000000e0: 25a4 643e 2348 1d3e 17fe 253e 22f3 333e
000000f0: bfe7 9ebd 9b7a 353e 4f5e b7bd 5be9 9cbd
