experiments/exp_20251006_004731/models/checkpoint_epoch1_auc0.7222_logloss0.0883.pth (torch, 137410 bytes, 12 tensors)

_orig_mod.embeddings.gender.embedding.weight f4 [5, 8]
000000 32 d6 ac 3e 61 df 1d 3d f3 08 f0 3b f0 f9 b9 bc
       0.33757168 0.03854311 0.0073252856 -0.022702187
000010 bb d8 8e be 59 0e 8a bc 31 cb 26 3e db af 19 3e
       -0.27899727 -0.016852545 0.16288449 0.1500849
000020 28 36 30 3f e7 69 d9 3f 3f 0f 65 bd 42 db a6 be
       0.68832636 1.6985444 -0.055922743 -0.32589155
000030 aa a9 b8 3e 2d a9 94 be cb f7 c8 3e 48 e2 10 3f
       0.36066943 -0.2903532 0.3925155 0.5659528
000040 95 fb 12 40 2e 1e 8d 3f dd 36 96 3f 3c 6f 15 3e
       2.2966053 1.1024835 1.1735493 0.14593214
000050 1b 59 f4 be 12 b6 48 3f f0 63 63 be a3 7f 33 3e
       -0.47724232 0.7840282 -0.22206092 0.17529158
000060 a4 f2 66 3c 18 c7 1c 31 79 a3 3b bf 4f 60 d2 3e
       0.014095936 2.281416e-09 -0.73296314 0.41089103
000070 e8 25 27 3f ae 85 cf af 93 59 ce 3c 4b 11 5b bc
       0.65292215 -3.7748066e-10 0.025189197 -0.013370822
000080 54 55 ba 3e f2 37 73 3d e2 5b ce 38 ee 7f f2 bc
       0.36393225 0.059379525 9.83996e-05 -0.029602017
000090 28 89 9c 3e 96 0c 77 bf d6 2a 0c 39 5a 29 4b bf
       0.30573392 -0.9650358 0.00013367398 -0.7935997

_orig_mod.embeddings.age_group.embedding.weight f4 [15, 8]
000000 f5 1a 9a 3c 9e 8b aa 3c 3b 55 d3 bb 74 cd c4 be
       0.018811682 0.020818528 -0.0064493692 -0.38437998
000010 bb 7c cc 3c e7 b6 4a 3e 9a f5 a6 bc e9 2f 52 be
       0.02496182 0.19796334 -0.020380784 -0.20526089
000020 8a 74 6a bd 84 93 73 be d9 8b b4 bd a3 ea 2e bf
       -0.057240047 -0.23786741 -0.08815736 -0.6832678
000030 e1 d2 84 3e 0d 1e 79 3e 3b 53 9a bf 60 7a df 3d
       0.25942138 0.2432787 -1.205665 0.10912013
000040 92 cf bf 3f 69 55 8d 3e b0 18 4a 3f 89 51 9d be
       1.498522 0.27604225 0.7894392 -0.3072627
000050 a4 94 20 bf cc f4 a2 3f 09 4c b3 bc a4 63 32 bf
       -0.6272681 1.2730956 -0.021886842 -0.6968329
000060 cd a7 5e bf 83 3b 57 3f 61 f3 9c 3e d6 7a 3f 3f
       -0.86974794 0.8407518 0.30654433 0.7479681
000070 e8 51 4c bf 4d 02 8f bf 81 f8 90 bf 89 b4 ba 3f
       -0.7981248 -1.1172577 -1.1325837 1.4586345
000080 40 58 3b be 16 99 c5 be 2c f3 70 bf d3 98 38 be
       -0.18295383 -0.38593358 -0.9412105 -0.18027048
000090 f5 a7 5a bf 4c d1 45 3f 5a 5a 45 bf c8 86 80 bf
       -0.8541253 0.77272487 -0.7709099 -1.0041132
0000a0 f5 9d 5b bf 88 6b 88 bf 34 8a 33 bf 2e 6b 81 3f
       -0.857879 -1.0657816 -0.70132756 1.0110834
0000b0 67 6f 41 bf 8a 3e 25 3f 83 53 87 3f 9b 30 df bf
       -0.7556061 0.6454855 1.0572361 -1.7436708
0000c0 b7 51 c9 3f c1 c1 2f 3e 69 22 fb be 3d 31 0b bf
       1.5728062 0.17163755 -0.4904969 -0.54372007
0000d0 0d af cb 3d 65 67 98 bf 36 da e9 bf a2 5e 03 bf
       0.09945498 -1.1906554 -1.8269718 -0.51316273
0000e0 e1 11 b6 3e df e4 f7 3e b2 3b 95 be 6a 7f 73 3e
       0.35560516 0.48416802 -0.29147106 0.23779073
0000f0 5a fd 9e 3e 6f 32 57 3f 1d ab 26 bf a0 15 10 bf
       0.31052667 0.8406133 -0.6510485 -0.56283
000100 8d f1 82 bf 51 94 a3 3e fd e9 72 3f 91 cb 0b 3e
       -1.0229965 0.31949094 0.9488829 0.13651873
000110 9f 59 4a 3f b9 14 bb 3e 8e 2c d3 3e 99 3e 17 be
       0.79043 0.36539248 0.4124493 -0.14769973
000120 43 13 b8 3b 26 27 76 bc 2c 93 1c a8 e5 7f 62 39
       0.0056175306 -0.015023982 -8.691652e-15 0.00021600684
000130 b8 0d 19 3e c4 75 a7 ac e9 8d 98 2a c0 3d 49 bc
       0.1494664 -4.7595e-12 2.7099094e-13 -0.012282789
000140 c2 26 1c ad 43 24 39 2e cf 51 86 b8 9a db 70 b9
       -8.876179e-12 4.2096337e-11 -6.404856e-05 -0.00022969992
000150 a9 ed 85 3e 4d 71 52 3c 55 3a 20 be 30 02 71 3f
       0.26157883 0.012844396 -0.15647252 0.9414396
000160 da 29 34 bc 04 9c 41 bf c9 bd 26 bd bd 3d 44 3c
       -0.010996306 -0.75628686 -0.040708337 0.01197761
000170 61 c4 f9 2a d0 33 0f b9 8a 24 34 be 7a bf 7a 39
       4.436755e-13 -0.00013656844 -0.17592064 0.00023913188
000180 ff 33 82 32 38 04 77 bd cd 72 59 ba 8c c4 92 3a
       1.5157637e-08 -0.060306758 -0.0008295 0.0011197492
000190 4e eb 8b 3f 9d ec 31 bf 1f 04 e0 be bd 0d c7 bb
       1.0931184 -0.6950167 -0.43753144 -0.006074636
0001a0 92 ce 63 3e 2e 36 88 bc 21 90 d3 bd 10 56 a2 ab
       0.22246769 -0.016627397 -0.10330225 -1.153468e-12
0001b0 80 74 23 3c 70 6c e1 bc b9 6f d4 be e5 e4 04 3d
       0.009976506 -0.027517527 -0.41491488 0.032444853
0001c0 62 d5 44 3d 1c 7f 58 b9 8e 48 67 bb a4 79 93 be
       0.04805506 -0.00020646717 -0.0035291049 -0.28803742
0001d0 f4 a4 d7 be e7 91 dd 3d 84 e1 91 3c 8d 4c b5 be
       -0.42118037 0.10818844 0.01780773 -0.35409966

_orig_mod.embeddings.inventory_id.embedding.weight f4 [50, 16]
000000 56 35 c2 3e 5c cf ad 3e 97 17 60 bf 01 6a 1d bf
       0.37931317 0.33947265 -0.87535995 -0.61489874
000010 4d f7 72 3f ce 7f c6 bd 30 cf 44 bf e5 bc 1d 3f
       0.949086 -0.096923456 -0.76878643 0.61616355
000020 41 f9 b7 3f 1a 66 2c 3e f3 8f a3 bf 39 e9 5a 3e
       1.4372941 0.16835824 -1.2778305 0.2137803
000030 c2 50 0e ba 58 bb b8 3f 94 fc 00 bf 97 d2 a8 be
       -0.0005428904 1.4432173 -0.50385404 -0.32973167
000040 b5 93 bc be 81 5f 90 3d a6 e4 90 be 33 99 b0 3e
       -0.36831442 0.07049466 -0.28299445 0.34491882
000050 b7 0a ed 3e b0 de 2c be 5e 61 8a be a9 57 91 3e
       0.46297237 -0.16881824 -0.2702741 0.28387192
000060 0c e1 9d bd 74 77 de bd 55 7c 25 be 1b 27 3f 3f
       -0.0770894 -0.108626276 -0.1616071 0.74669045
000070 a5 b9 4e bf 34 5b 2a be 2e 3c fc 3e 4e 91 65 be
       -0.8075202 -0.16636354 0.49264663 -0.2241871
000080 a7 1f 19 bf 6a b8 83 bf 65 48 af be fc c0 b8 3f
       -0.5981392 -1.0290654 -0.3423492 1.4433894
000090 58 65 99 3f 40 e6 33 3f 3c 34 89 3f 60 2e 5b 3d
       1.1984053 0.7027321 1.0719066 0.053511024
0000a0 c8 cc 3e bf d3 9a 77 3e 12 e0 ce bf f9 95 a5 bf
       -0.7453122 0.24180155 -1.6162131 -1.2936393
0000b0 fe d2 d6 3e af b7 92 3e 5f 81 fe 3e 29 50 b9 bf
       0.4195785 0.28655764 0.49708077 -1.4477588
0000c0 35 a3 53 3d 48 a0 91 bc 93 92 79 3c f7 32 80 3d
       0.05166932 -0.017776623 0.0152327 0.06259721
0000d0 22 45 15 bf 15 50 87 3c 40 c4 0b 3d d8 d5 bb be
       -0.58308613 0.016517678 0.034122705 -0.36686587
0000e0 7a 11 0a 3d 6c d3 bb ba 52 4f 8d bc 01 f4 fc bb
       0.033708073 -0.0014329976 -0.017249737 -0.007719517
0000f0 23 09 e5 bb 81 66 c2 3f 20 e6 28 ba 10 19 56 bc
       -0.0069896146 1.5187532 -0.00064429827 -0.013067499
000100 1b f9 b5 bf 37 80 38 3f b9 33 2f 3f f5 06 7c 3e
       -1.4216646 0.7207064 0.684383 0.24612029
000110 62 47 2d be 1d fa c3 be ee 32 30 bf fe 1b 7f 3e
       -0.16921762 -0.3827676 -0.6882771 0.24913022
000120 52 43 88 bf c2 d3 12 c0 be 01 8a 3f 30 b5 d0 3e
       -1.0645545 -2.2941747 1.0781782 0.40763235
000130 d3 a5 00 3e 68 ce 84 3f 86 f7 03 c0 cd 9f 0f bf
       0.12563257 1.037549 -2.0619826 -0.5610321
000140 8a fc 27 bf c2 0e d1 3e e4 e8 65 be 60 3d 0d 3f
       -0.6561972 0.40831572 -0.22452122 0.55171776
000150 1d 79 39 bf 1a bd f3 bf 71 d8 14 3f ca ac 63 3f
       -0.7245043 -1.9042084 0.58142763 0.8893553
000160 c1 54 4e 3e ec e9 ea be 06 fd 87 3d a8 6c 43 be
       0.20149519 -0.45881593 0.06640057 -0.19084418
000170 f4 54 dd be 2a 52 37 be a1 a3 57 3d 02 43 d4 3e
       -0.43228877 -0.17902437 0.052646283 0.41457373
000180 66 02 a3 be c9 b1 bc bf 2e a6 23 bf 3b 3d 23 3e
       -0.31837767 -1.4741756 -0.63925445 0.15941326
000190 0f 32 db 3e 4f 00 3a 3f 2a e4 09 c0 c6 22 e6 bd
       0.4281163 0.7265672 -2.154551 -0.11237101
0001a0 89 ff 4e be 6a 33 6c 3e ca 85 b2 3f 08 02 e1 bf
       -0.20214666 0.23066488 1.3947079 -1.7578745
0001b0 c4 65 85 bf 6c 9b aa 3e cf ba be be 83 7f 89 3e
       -1.0421681 0.33321702 -0.372519 0.26855096
0001c0 cc ef 2b 3e 75 85 b9 bf 4b 38 0e 3f 32 05 d3 3d
       0.16790694 -1.4493853 0.55554646 0.10303725
0001d0 7b f1 90 3f 16 3b 5f bf 5e 0c 12 3f d6 e3 b2 3f
       1.1323694 -0.87199533 0.5705012 1.397578
0001e0 f5 42 d3 be 82 c4 88 bf 4e c8 85 3f f6 c4 00 3f
       -0.41262022 -1.068497 1.0451753 0.5030054
0001f0 58 7d 98 3c d8 98 d6 bf 20 a2 03 be 12 bd 57 be
       0.018614456 -1.6765394 -0.12854815 -0.21068218
000200 6f 3a 98 bf 11 64 eb bd b3 88 f7 be 0e 65 da 3e
       -1.1892833 -0.114936955 -0.4834648 0.42655224
000210 78 48 60 3e 9e e5 65 3f 56 da 9f be e1 8c 1a 3f
       0.21902645 0.89803493 -0.31221265 0.60371214
000220 68 34 fc be 47 f4 af be c3 48 a9 be fe fc ba 3f
       -0.49258733 -0.34366056 -0.33063325 1.4608457
000230 cc bf c2 3b 30 0a 06 3f bd c3 32 3e 7e d4 1c 3e
       0.005943274 0.52359295 0.1745748 0.15315434
000240 f6 1d 07 bf ec 1e a6 3f 12 61 83 3f 77 c3 83 bf
       -0.5278009 1.2978187 1.0263999 -1.0294026
000250 1c b4 dd 3f b6 77 18 bf 7d 5d 06 3f ae 6f 53 3f
       1.732059 -0.59557664 0.524864 0.82592285
000260 26 b2 b1 be 46 22 4c 3f 43 63 aa 3d 24 6d fa bf
       -0.3470623 0.797398 0.08319714 -1.9564557
000270 0e ea c6 3d 86 53 b3 bc c8 d4 6b 3f 2c bc 38 bd
       0.09712611 -0.021890413 0.92121553 -0.04510133
000280 01 b0 45 3f 03 7e d1 bf f9 ac a0 3f 98 67 6d be
       0.77221686 -1.6366581 1.2552787 -0.23184049
000290 23 a8 6e bf 0a 2b b8 bf 6b ad df 3d 61 c3 e7 3f
       -0.93225306 -1.4388134 0.10921749 1.81065
0002a0 2b f8 b1 3e b4 05 09 bf 4d 53 c4 3f 47 47 7b 3e
       0.3475965 -0.5352433 1.5337921 0.24538909
0002b0 11 15 73 3e a2 5d 21 3f 00 45 20 3f 3e 00 01 bf
       0.23738505 0.630335 0.62605286 -0.50390995
0002c0 38 67 f4 be bc 0f ea be e3 f6 28 bf 35 a4 8e 3e
       -0.47735 -0.4571513 -0.6600172 0.27859655
0002d0 08 16 06 3e 5e 25 2d 3e 25 11 96 3f 8c 92 3d 3f
       0.13094342 0.16908786 1.1723982 0.7405174
0002e0 26 83 85 3b 30 7a 41 3f 20 36 12 be ae bf aa 3e
       0.004074472 0.7557707 -0.1427846 0.33349365
0002f0 7a 0c 2d 3f 7c c7 08 40 78 6e bb 3e db 68 7a be
       0.6759716 2.1371756 0.36607718 -0.24454062
000300 d9 92 b9 be 43 1f 17 bf 3b 37 04 bf 8c 77 ca 3e
       -0.36244848 -0.59032077 -0.51646775 0.39544332
000310 8f bb 68 be 5e 9b 2f 3f 39 ab ad be 10 9d 26 3f
       -0.22727798 0.68596447 -0.33919695 0.6508341
000320 8b a8 50 3e 4b 1d 7b 3d 5a 42 93 3f d5 12 84 3d
       0.20376794 0.061307233 1.1504624 0.064489044
000330 b9 00 cf be ec 09 11 3f 83 74 24 be d2 89 ea be
       -0.4043024 0.56655765 -0.1606007 -0.45808274
000340 3e 49 6e be 6b ce e6 3f 3e 3d ed be ef ac ce 3e
       -0.23270127 1.8031744 -0.46335787 0.40366313
000350 58 9a f2 3d fb 39 b7 bf be 7d 9d be a5 ce 8e 3e
       0.11845845 -1.4314569 -0.30759996 0.27892032
000360 1c 16 99 be f2 cd a3 bd c1 14 69 be ad a9 a1 bc
       -0.2989968 -0.07998265 -0.22761823 -0.019734228
000370 d7 37 00 bf e8 d2 da 3f b7 12 e3 3c 5e 6b bc be
       -0.50085205 1.7095613 0.027718885 -0.36800665
000380 93 f1 e1 3e 0a c3 a5 be de 13 c8 be bd 69 6a bf
       0.4412962 -0.32375365 -0.39077657 -0.91567594
000390 84 1b ca 3f 95 c4 c5 3e 58 f4 f6 3f ec c6 04 3f
       1.5789647 0.38626543 1.9293318 0.5186603
0003a0 b6 39 4c bf 51 c1 3b bf ba 8c 6e bf 8d a9 a5 be
       -0.7977556 -0.7334185 -0.9318348 -0.3235592
0003b0 47 b6 07 bf e9 0b 6e be a6 a0 86 bf 06 8b 19 3e
       -0.5301251 -0.23246731 -1.0517776 0.1499444
0003c0 25 24 7c bf 7d b5 44 be 60 1d 6e be 69 76 ff 3e
       -0.9849265 -0.19209857 -0.23253393 0.49895027
0003d0 02 31 72 3e 1b c6 05 3f 3e b7 cd bd e2 37 ca 3e
       0.23651507 0.5225541 -0.10044716 0.3949576
0003e0 25 11 90 3e 25 7b 5b 3e c9 f7 b5 3e 4e 39 36 bf
       0.2813808 0.21433695 0.35540608 -0.7118119
0003f0 83 bc 81 bf 03 23 52 bf 23 f2 31 bf 02 e8 45 3e
       -1.0135654 -0.82084674 -0.69510096 0.19326785

_orig_mod.embeddings.day_of_week.embedding.weight f4 [10, 8]
000000 26 99 17 bf 15 16 26 be ea e7 30 bf ca 78 aa bd
       -0.5921806 -0.16219361 -0.6910387 -0.0832382
000010 3f 0c 25 3f 0e 77 b4 3c 66 d7 d5 be 88 46 16 40
       0.6447181 0.022029426 -0.41765898 2.348055
000020 25 20 51 be 26 cb 05 bf 09 78 b7 3e ab 38 56 bf
       -0.20422418 -0.52263105 0.35833767 -0.8368022
000030 ff f3 67 3f a6 29 3a 3e dd 56 3d bf 91 22 63 3e
       0.90606683 0.1817995 -0.7396067 0.22181155
000040 d0 40 4a bf 6e 4c 65 3f 86 c3 eb be 2f 10 82 3f
       -0.79005146 0.8956975 -0.4604761 1.0161189
000050 4f 73 c5 3f e5 25 75 3f 26 ea 5d bf 1d 1c b5 be
       1.5425814 0.9576095 -0.8668541 -0.3537301
000060 cd 3d 8d 3e 46 58 83 bf 4d 9d 8d 3e 4a 50 0c 3f
       0.27586213 -1.0261314 0.27659073 0.5481001
000070 5b 1c 84 3f 1a 36 e5 bf 2d 61 53 bf 58 9c ea be
       1.0321153 -1.7907135 -0.82570153 -0.45822406
000080 30 6d 8c bf 9f 96 ec 3e 82 50 19 3f 98 ee c6 bf
       -1.0970821 0.46208665 0.5988847 -1.5541563
000090 fc 9d d7 bf 84 f5 b4 bc fa e7 3c 3f fb 69 cd 3e
       -1.6845088 -0.022089727 0.7379147 0.4011992
0000a0 19 78 d0 bc 90 ff f3 3e 0a 96 25 3d 05 a4 38 bf
       -0.025447892 0.47655916 0.04042629 -0.72125274
0000b0 9b f7 1f 3f fc 34 01 bf 10 84 91 3e ee 86 48 3f
       0.6248719 -0.5047147 0.28421068 0.78330886
0000c0 f2 a6 f2 bf 76 a0 04 3f bf 6e 9f 3d dd 51 02 c0
       -1.8957198 0.51807344 0.07784795 -2.0362465
0000d0 f9 7d 4e bf 85 2a b9 3f 72 ee b8 3e 0c d0 6c 3f
       -0.8066097 1.4466101 0.3611942 0.92504954
0000e0 d9 6f 31 ab e0 69 93 be a9 29 2d bd 23 10 c0 29
       -6.303825e-13 -0.28791714 -0.04227606 8.529312e-14
0000f0 d8 f3 19 bb 6f 84 2b 3b f0 42 a6 bd e8 2b fd 3e
       -0.002349129 0.0026171466 -0.08118236 0.4944756
000100 a1 cd 5e 33 6e 57 f3 37 28 7a a3 3f c0 fa 03 3d
       5.187542e-08 2.900857e-05 1.2771654 0.032221556
000110 57 65 2f bf df e4 96 be cd a0 da 3d d5 ac 5d b1
       -0.6851401 -0.2947149 0.106752016 -3.2257976e-09
000120 25 58 9b 2b 9c 3b 8e be c5 2b 20 3e a3 21 97 b5
       1.1037877e-12 -0.27779853 0.15641697 -1.1260166e-06
000130 90 d6 c6 b7 ac 2e 94 35 87 99 85 3c aa 29 4d 2f
       -2.3703353e-05 1.1040443e-06 0.01630856 1.8659443e-10

_orig_mod.embeddings.hour.embedding.weight f4 [30, 16]
000000 f2 5e 6a bf ae 66 2b bf b5 90 40 3f c9 75 d0 3e
       -0.91551125 -0.6695355 0.75220805 0.40714863
000010 30 7f 98 3e 95 99 b5 bd 25 3e 5e bf 8b 1e 0f be
       0.29784536 -0.08867184 -0.86813575 -0.13976495
000020 2f 2e fe 3f e6 67 8d 3e 65 8f 85 bf 5f 1d 1b bf
       1.9857844 0.2761833 -1.0434386 -0.6059169
000030 88 ff 70 bf 8b da 56 be 05 1b 59 be d0 d7 f6 be
       -0.9413991 -0.20981805 -0.21201713 -0.48211527
000040 84 9c b8 3e 6b 73 7b 3d bb 0b 9d 3f 02 8f 36 3e
       0.36056912 0.061389368 1.2269205 0.1782799
000050 f9 7d 4e 3e 99 10 87 3f 85 57 3e 3f 94 fb 17 3f
       0.20165242 1.055194 0.74352294 0.5936825
000060 ed 22 a7 be 89 45 66 3e a6 de 91 be f4 d0 34 bf
       -0.32643834 0.22487463 -0.2849018 -0.7063134
000070 43 b3 e5 3e a9 c2 b5 bd 19 f2 af be 7b 9f 0f 3e
       0.44863328 -0.08875019 -0.34364393 0.1402568
000080 2d dc af be 85 64 3e 3d db c0 43 be 2b 4d 60 3e
       -0.34347668 0.04648258 -0.19116537 0.21904437
000090 80 e1 27 bf 0c 54 34 3f 08 3e 27 be d6 d2 22 3e
       -0.6557846 0.70440745 -0.16332257 0.1590074
0000a0 ea 70 64 be e6 d8 7d 3d 3b 75 8c 3e 9b 4d 7c be
       -0.22308698 0.06197443 0.2743319 -0.24638979
0000b0 0f f7 1c be f0 10 7e 3b 5b 4b 04 bd 6f 9c a6 be
       -0.1532862 0.003876742 -0.032298427 -0.32541224
0000c0 f5 4f 09 3f 25 a7 87 bf f9 fa 2e be fa 59 80 bc
       0.5363763 -1.0597883 -0.17087926 -0.015667904
0000d0 42 ea 24 3f 0c 88 24 bf a9 51 10 bb 45 44 a9 3d
       0.6441995 -0.6427009 -0.002202133 0.082649745
0000e0 ed d5 6f 3a ca c0 62 bb 38 f2 93 3f cc 84 a5 3c
       0.0009149004 -0.0034599775 1.1558294 0.020204924
0000f0 9f 69 98 3e 4a b3 80 bd 0c 01 8c be 16 c1 6f bb
       0.29768082 -0.06284197 -0.2734455 -0.0036583594
000100 bd a6 11 3d 2d ba 3f bf e7 c1 11 bf 8d 80 8b bd
       0.035559405 -0.74893457 -0.56936496 -0.068116285
000110 7d 96 c9 3e 0f 9f 93 be 12 78 0e be 27 05 2c 3c
       0.39372626 -0.2883229 -0.1391299 0.010499275
000120 23 48 e4 bd 13 6f b0 be 96 a0 8a be cf c2 8d be
       -0.111465715 -0.34459743 -0.27075642 -0.2768769
000130 7d 67 df be a2 06 1b 3f b0 de 3b bf db e0 8a 3f
       -0.43633643 0.60556996 -0.7338667 1.084987
000140 a7 d0 a1 3e 9e 89 c8 be 1c ba 54 3f 24 2d 50 3e
       0.31604502 -0.39167494 0.8309648 0.2032972
000150 66 5d 11 3e 58 26 e4 be 57 65 08 3f 4f cd f3 bd
       0.14195785 -0.44560504 0.5327963 -0.11904394
000160 b8 35 4d 3e 75 12 5c 3a 36 62 8e 3f 2f 28 cc 3e
       0.20040023 0.00083950843 1.1123722 0.39874408
000170 6f 1f 0a 3f 49 03 82 3e 84 d1 09 be 64 fb a1 bf
       0.53954214 0.2539313 -0.1345883 -1.2654843
000180 ae fc 9f 3d 1f d8 83 bf e1 c1 8c 3f bf 2a 42 bf
       0.07811867 -1.030033 1.0996667 -0.75846475
000190 67 96 c1 be 95 4d 08 3e f1 1a fc 3c d1 a2 5d 3f
       -0.3781006 0.13310845 0.030774565 0.86576563
0001a0 43 c5 23 3f fd ef bd 3e 36 54 2d bf e7 7b be be
       0.6397287 0.3709716 -0.6770662 -0.37203905
0001b0 b9 f0 2b bf b2 89 94 3f 6d 32 b4 bc 5c e9 eb be
       -0.6716419 1.1604521 -0.021996701 -0.46076477
0001c0 c4 23 d2 be df c9 3d bf 47 9b 13 40 5e 4e 04 3f
       -0.41042912 -0.74136156 2.3063524 0.5168208
0001d0 cc 90 6a 3f fd 76 1e bf de e6 95 3f 3d fc 6a 3f
       0.9162719 -0.6190031 1.171108 0.91791135
0001e0 bc d7 a6 3e de 9c c1 3e fd 55 a7 3f fe 48 55 40
       0.32586467 0.37814993 1.3073117 3.33258
0001f0 48 40 d0 bf cd f0 42 3f 88 82 a5 bf 3e 01 0e 3e
       -1.6269617 0.7614868 -1.293046 0.13867661
000200 04 3a 6a bf 90 e4 a5 3e b8 6c f7 bc 01 86 a0 bf
       -0.91494775 0.32400942 -0.030203208 -1.2540895
000210 cf f0 2b 3e e7 87 82 bd 3a 70 97 bf ea 21 4e bf
       0.1679108 -0.063735776 -1.1831124 -0.805205
000220 0e b5 ba 3e e6 3f 80 3e a3 00 99 3d f3 90 28 bd
       0.3646626 0.2504875 0.074708246 -0.04115386
000230 3d e2 81 bd 7b 62 bb 3f 04 79 20 3f eb f8 b7 be
       -0.0634198 1.4639429 0.62684655 -0.35932097
000240 10 e5 24 3f 87 f4 0f bf c6 19 a3 be 7b 12 ee 3e
       0.6441202 -0.56232494 -0.318556 0.46498474
000250 be ce 00 3f 52 b0 c7 bf 44 22 b7 bf e4 eb 9b 3f
       0.50315464 -1.5600684 -1.4307332 1.2181363
000260 a6 e7 d4 3f 5e 01 b5 3e 4b 80 bc 3f a7 28 fa be
       1.6633193 0.35352606 1.4726652 -0.4885914
000270 50 f3 c1 bb 9c 72 e7 bf ab 5b e2 3f 58 c4 c7 be
       -0.0059188977 -1.8081851 1.7684225 -0.39016986
000280 a5 0e 65 3e aa 52 5d 3e 9c dd 81 3b 4d 56 16 be
       0.22368868 0.21613565 0.0039631855 -0.14681359
000290 db 51 16 bf ad 08 3a bf 80 d0 5a 3f d7 16 c5 3e
       -0.5871865 -0.7266949 0.85474396 0.38493988
0002a0 56 80 9d be d6 50 84 bf e1 00 83 3f 08 d8 e3 b8
       -0.30761975 -1.0337169 1.0234643 -0.000108644424
0002b0 51 2e 91 bd cc fd 81 bd 9b 71 d4 be 56 fa 3b 3e
       -0.07088912 -0.06347236 -0.41492924 0.18357214
0002c0 8d 08 fc 3d 6e 17 40 3e 41 b7 37 bf fb bb 09 bf
       0.123063184 0.18758938 -0.71764 -0.5380246
0002d0 5f 5e 3f bf 36 96 5a bf cd ed 07 3e 02 3c 89 bf
       -0.74753374 -0.85385454 0.13274308 -1.0721438
0002e0 88 92 c0 be f8 81 ac 3f ee 78 17 3d 57 96 a8 3d
       -0.37611794 1.3477163 0.036980562 0.082318
0002f0 11 65 50 bf 73 0e 26 3f 30 54 34 3f c5 3e 31 be
       -0.81404215 0.648658 0.7044096 -0.17309101
000300 ac 21 1f bf 1b 03 99 3e 55 68 2a be a2 1a 18 be
       -0.62160754 0.29885182 -0.16641362 -0.1485391
000310 01 e2 0d 3f d2 7d 65 be 08 0c 28 3e 21 fd 14 3e
       0.5542298 -0.22411278 0.1641084 0.14549686
000320 8d 05 ec 3d d9 ea fe be c4 8e 69 3f 43 2b 80 be
       0.11524496 -0.4978855 0.9123347 -0.25033006
000330 7a 95 44 3f f4 80 30 bf 7b a1 4e bf 51 52 3d 3f
       0.76790583 -0.68946767 -0.8071515 0.7395373
000340 93 81 8b bf 4a df 58 3e 2f 18 3e bf 7b e2 91 3e
       -1.0898918 0.21178928 -0.7425565 0.28493103
000350 51 db 9f bf d2 fa 80 bf ee e8 e1 bd cd 8b 26 3e
       -1.2488805 -1.0076544 -0.11030756 0.16264267
000360 00 29 be be 80 4d 1b 3c db d2 76 bd 6b 84 c3 3e
       -0.37140656 0.009478927 -0.06025968 0.38186964
000370 47 71 10 bf 96 e2 5d bf 34 99 0b 3f fd 8a e9 bd
       -0.5642285 -0.8667387 0.54530644 -0.11403463
000380 67 45 06 3e 81 e2 4d 3e 3a 30 17 bf a8 bd 8c 3f
       0.13112412 0.20105936 -0.5905796 1.0995378
000390 02 a5 52 bd 83 3b 1d 3f aa 13 91 bf 98 20 70 3e
       -0.051426895 0.6141893 -1.1334126 0.23449934
0003a0 bc 75 3e bf ab e5 f6 be 09 6f 6e 3f a5 70 f1 3e
       -0.743984 -0.48222098 0.93138176 0.47156253
0003b0 a2 34 a1 bf 33 8a 05 3f e5 20 ad 3d 5d d5 c6 3d
       -1.2594187 0.52164 0.0845354 0.097086646
0003c0 f3 57 8b 3e 8c e2 4a 3e ff 40 c1 be cc 52 1e bf
       0.27215537 0.19812983 -0.377449 -0.6184509
0003d0 94 52 70 bf ae 6c 97 3e 0e 1f 52 3f bd d3 84 3f
       -0.93876004 0.29575104 0.82078636 1.0377117
0003e0 b7 65 88 bd b5 99 dd 3f 9b f4 80 3e e1 f5 2f bf
       -0.066600256 1.7312533 0.2518662 -0.68734556
0003f0 da ae b7 3e aa ab 1e 3f a3 70 92 3f 68 12 10 3c
       0.3587559 0.6198069 1.1440624 0.008793451

_orig_mod.dense_proj.weight f4 [64, 113]
000000 0f b5 18 bd c2 0a 8a bd 01 10 b9 3d 8c b4 e4 bc
       -0.037282046 -0.06740333 0.09036256 -0.027918123
000010 69 f9 eb 3d ab 1f 05 3e 03 6c 9a bd 3c 8c 9c 3d
       0.115221806 0.13000362 -0.07540133 0.07643935
000020 05 12 e3 3b a6 75 6b bd 4c 6d 9d bd 4e 6c 61 bc
       0.0069296383 -0.057485245 -0.07686862 -0.013758732
000030 dd c3 18 bd 2b a4 36 bd 36 e8 83 3d d9 4b d9 bc
       -0.037296165 -0.044590157 0.06440775 -0.026525425
000040 cd b5 46 3d 6b 2d ab 3d e9 a9 05 bd e1 46 c3 bd
       0.048513222 0.08358272 -0.032632742 -0.095350035
000050 7c 86 22 bd db 87 ba bd ef 29 bb 3c bb c4 bb 3a
       -0.039679036 -0.091079436 0.022847144 0.0014325598
000060 48 59 4f 3c 7c 47 a1 3d 55 2a 95 bb f2 d8 1b 3d
       0.012655564 0.07874963 -0.0045521655 0.038048692
000070 26 5d c6 3d 68 b9 90 bb 34 e3 bf 3d e5 e3 b6 3c
       0.096857354 -0.0044166334 0.093695074 0.022325465
000080 f6 c5 41 3d 4e 8c 6c bb c2 e7 13 3d bb f2 1b 3d
       0.04730793 -0.003609437 0.036109693 0.038073283
000090 30 09 1f bd b0 1f ae bb 22 ba e7 3d 53 f6 a4 bd
       -0.03882712 -0.005313836 0.11314799 -0.08054795
0000a0 7c 02 a4 bd d9 11 67 bd d2 bb b8 b9 b9 29 95 3c
       -0.08008286 -0.056413505 -0.00035235152 0.018208371
0000b0 cf 2b 93 bc 71 2b 9e 3d 6d c2 96 bd 09 da 6b 3d
       -0.017965226 0.077231295 -0.073613025 0.05758098
0000c0 09 23 02 3c a4 f3 87 bd 34 38 ac bd bf 2e 2c bc
       0.007942923 -0.06638268 -0.084091574 -0.010509192
0000d0 35 c6 07 bb 4d f8 81 3c 89 cf 3f bd ff 1b 3f bc
       -0.0020717506 0.01586547 -0.04682878 -0.01166439
0000e0 ba 96 63 bd e6 38 0c bc 8b 3f f0 3c be f9 9a bc
       -0.055563666 -0.0085584875 0.029327175 -0.018917914
0000f0 61 d0 82 3d 92 10 7a bd ac 83 88 bc 62 1c ed b9
       0.06387401 -0.06105096 -0.016664349 -0.0004522531
000100 f9 7e 03 bc dc e9 0b bd bf f8 1b 3d 61 10 b1 bc
       -0.008025878 -0.034158573 0.03807902 -0.021614255
000110 2f 09 15 bd d3 3b ac 3c 25 8c d1 3c 0e 25 bb 3d
       -0.03638571 0.02102462 0.025579521 0.09137927
000120 30 57 c1 bd 8c 31 cc 3c 1b 0e 2b 3d 26 a3 1f bd
       -0.09440458 0.02492597 0.0417615 -0.03897395
000130 76 e8 0a 3e 10 e1 90 3c 16 ea 4b 3c 70 33 d7 3d
       0.1356524 0.017685443 0.012445947 0.10507858
000140 89 cc 05 bd be d8 b6 bc 92 e6 36 3a 26 f8 2a 3d
       -0.032665763 -0.022320148 0.00069771067 0.04174056
000150 91 16 92 bc 54 17 60 3d 2c c5 54 3c dd 30 5b bd
       -0.017833026 0.054709747 0.012986463 -0.053513397
000160 91 26 5b bd 4a a7 9a 3c dc 34 ae 3d 43 d2 9a 3d
       -0.053503577 0.018878598 0.08506176 0.075596355
000170 85 0c d5 3d db 34 8d bd 2c 8e 79 bd 0e c0 d9 bc
       0.104027785 -0.06894847 -0.0609266 -0.026580837
000180 81 29 ad bc 9c 19 f0 3c 7a a6 a8 3d 18 6e e9 3c
       -0.021137955 0.029309087 0.08234878 0.02849488
000190 25 c7 86 bd 17 a7 65 bc 15 e8 56 3d 59 16 8c bd
       -0.065809526 -0.014016888 0.052467424 -0.068402
0001a0 9f ce 94 3d 47 5d 83 3d a3 97 76 3d f2 ba 77 ba
       0.07265972 0.064142756 0.060203206 -0.0009450159
0001b0 83 9c 4b 3d ea 1e 59 3d 30 a1 ad 3b d0 f8 b6 3d
       0.049709808 0.053007998 0.005298756 0.08934176
0001c0 58 ce ec bc 07 5b 0c bd 80 e5 30 3b 95 30 bf bd
       -0.028906986 -0.034266498 0.0026992261 -0.09335438
0001d0 aa b4 ef bc ca e8 b7 3d 9f bb 9b bd 3c 88 fd 3d
       -0.029260952 0.08979948 -0.07604145 0.123795
0001e0 de 8d 71 bd 15 a2 ff bd f6 ce a8 bc b9 e3 0a 3c
       -0.058973186 -0.124820866 -0.0206065 0.008477145
0001f0 83 d9 a4 3c f5 30 f6 bc d6 6c 48 3d 56 ac 21 3d
       0.020123249 -0.030052641 0.04893192 0.039470993
000200 94 45 20 3d 2b 07 9f bd 7d 97 32 bd 81 f0 d8 bd
       0.039128855 -0.07765039 -0.0436015 -0.105927475
000210 d3 b8 e1 bc 94 68 c8 3c 2f 94 05 be a8 73 77 3d
       -0.027553951 0.02446393 -0.13044809 0.060413033
000220 7f 88 48 3d 5c 79 2c 3c 8f b1 ef 3d 2c 62 25 3e
       0.048958298 0.010526981 0.117037885 0.16150731
000230 a5 61 38 3c 2a 4a 1c be 50 2f d8 3c 2f 7f e8 3b
       0.011253749 -0.15262666 0.026389748 0.0070952396
000240 dc 4b 8e bd 8b 05 fa bc cd f7 ce 3d d5 ef 42 bc
       -0.06948063 -0.030520221 0.10105858 -0.011898001
000250 8d de eb 3c 81 28 b8 bc 63 d5 a5 3d 56 c7 24 3d
       0.028792644 -0.022480251 0.08097341 0.040229164
000260 a5 88 97 bc c0 f6 c3 bc ef ed 1a 3e fe 1b 8a bb
       -0.018497774 -0.02392137 0.15129827 -0.0042147627
000270 41 7d ba bb d3 16 89 3d 43 c2 c1 3c 2f 3a b7 3b
       -0.005691201 0.066938065 0.023652202 0.005591653
000280 08 6d 07 3d 1a 44 0a bd 53 3e 0c 3d 75 8f 75 3d
       0.033062965 -0.033756353 0.034239125 0.059951264
000290 a1 49 ee 3d 0c 59 d9 3c 66 ea 04 bd f8 00 a7 bd
       0.11635137 0.026531719 -0.032450102 -0.08154482
0002a0 ad 72 91 bc 1f 1a 91 3d 57 e2 00 be a0 0b b4 3d
       -0.017754877 0.0708506 -0.12586342 0.0879128
0002b0 50 2a a8 bd ec d3 1c bc d6 05 0a bd 54 42 26 bd
       -0.082111955 -0.0095720105 -0.03369697 -0.0405906
0002c0 2b 40 aa 3d e1 e5 28 bd b9 b9 bd bc 45 7c a0 bd
       0.0831302 -0.041234855 -0.023159849 -0.078362025
0002d0 df 29 27 3c 35 3c fa 39 5d 29 45 3d ed e5 67 bd
       0.010202854 0.00047728574 0.04813515 -0.05661576
0002e0 93 45 a0 3d 73 38 77 3c 98 21 a2 3d ea dc d3 bc
       0.0782577 0.015089142 0.07916564 -0.025862176
0002f0 9b 02 09 be 28 3e 0c be fa 40 03 3c 43 a4 18 bd
       -0.133799 -0.13695586 0.008011097 -0.037266027
000300 90 a7 dd bd 30 bc a9 3d a0 b8 9b bd f1 44 9e bd
       -0.10822976 0.08287847 -0.07603574 -0.07727993
000310 0b 01 6e bd 77 17 89 bd 61 7d b9 bd 36 bd d6 bb
       -0.058106463 -0.06693929 -0.09057117 -0.0065533174
000320 dd c3 4a 3d 70 9d 90 3d 2f c1 dd bc 18 53 6f bc
       0.049503196 0.07061279 -0.027069656 -0.014607213
000330 3b 2e d3 3c 8a a1 e2 3c 97 c8 53 bd ee 2b 90 3d
       0.02577888 0.027664918 -0.05170497 0.07039629
000340 82 f3 e0 3c cc de 9b bb b0 01 8e 3d 2d 9e 91 bd
       0.027459864 -0.004756784 0.069339156 -0.07110248
000350 98 f8 9c bc 1a 64 fe 3b 33 f5 a0 3d f9 eb 8d bd
       -0.019161507 0.007763398 0.07859268 -0.06929774
000360 c4 df 5e 3d 0b 6b b5 bd 07 fd bc bd cf a2 23 39
       0.05441262 -0.088583075 -0.09227949 0.00015605542
000370 f0 b7 89 bb b7 23 7b 3d d6 8c c2 bc 50 c7 96 3c
       -0.0042028353 0.061313357 -0.023748796 0.018405586
000380 8b 11 01 bd 5c bc 32 bd 02 a0 4d 3d 54 b2 88 3d
       -0.03151087 -0.043636665 0.050201423 0.066746384
000390 15 1d 36 be 22 e7 eb 3c 54 dc 2b 3e 47 67 95 bd
       -0.17784531 0.028796736 0.16783267 -0.07295089
0003a0 31 07 ac bd a2 24 cf 3c f2 fb d8 3d 76 1b 71 bd
       -0.08399809 0.025286023 0.1059493 -0.05886408
0003b0 bc 71 8d bc c0 f8 16 bd 93 06 b0 3d b4 a5 e8 3c
       -0.017266147 -0.03685832 0.08595004 0.028399326
0003c0 c7 c0 35 3d 1c ef 15 3e cb 20 17 bd 32 f7 43 bd
       0.0443733 0.14641994 -0.03689651 -0.047843166
0003d0 99 65 9d 3d a7 3f 4f bc ab 5d 46 3b d3 24 8b 3d
       0.07685394 -0.012649453 0.0030268233 0.06794133
0003e0 cc 11 af 3c ef f5 f7 ba 44 0a 9e bd 9c 60 17 3d
       0.02137079 -0.0018917898 -0.07716802 0.03695737
0003f0 2b b5 bb bd 94 d8 97 bc c0 46 64 3b 74 a1 c1 3d
       -0.091654144 -0.01853589 0.003483221 0.09454623

_orig_mod.dense_proj.bias f4 [64]
000000 e2 22 b3 bd df fe d2 3c 5d 67 42 bc d1 cf 4d bd
       -0.08746888 0.025756298 -0.011865464 -0.050247017
000010 2a 75 59 bd 1c 98 ef bd 00 a0 74 bd e6 d1 7a 3d
       -0.053090252 -0.116989344 -0.0597229 0.06123533
000020 31 2b cf bd a0 9a d7 3c c5 0a 8c bd f2 41 f9 bd
       -0.1011566 0.026318848 -0.068379916 -0.12170781
000030 25 f6 90 bc 06 94 b7 bd a4 64 95 bc e8 ed 99 bd
       -0.017695496 -0.0896378 -0.018236466 -0.0751608
000040 a5 30 44 3d ee 6f 21 bd 81 d9 87 3d 7e a3 aa 3d
       0.047897954 -0.039413385 0.066332825 0.08331965
000050 3e b9 cb bd 5e d7 bf bd 8f b6 6e bd 51 b5 d4 3d
       -0.099474415 -0.0936725 -0.05827957 0.10386146
000060 35 3e 80 3d ce f4 68 3c 3b d4 b8 bc d8 69 d5 bd
       0.06261865 0.014218522 -0.022562137 -0.10420579
000070 9a 2e b7 bd 90 d7 f8 3c 70 1a 8a bd bd b9 05 3d
       -0.089444354 0.030376226 -0.06743324 0.032647837
000080 99 78 92 bd 54 75 b1 bc 7b a6 2f bb 9a c9 d2 bd
       -0.071519084 -0.021662392 -0.002680211 -0.10292359
000090 1f 33 d0 bd 35 58 67 3c f3 e9 c8 bd 43 12 9b 3d
       -0.101660006 0.014120151 -0.09810247 0.075718425
0000a0 91 de b3 bd 6e de 9f 3c 18 25 37 bd 6a 37 1c 3d
       -0.087826855 0.019515242 -0.04471311 0.038138784
0000b0 26 6e 5b 3d 9f 15 94 bd b6 46 86 bd e7 1b 79 bd
       0.053571843 -0.072306864 -0.06556456 -0.060817625
0000c0 fc 3c e0 bd e3 4d 2d bd ee 94 6d bd d2 a6 ae bc
       -0.10949132 -0.042310607 -0.05800336 -0.02131978
0000d0 cd d7 a6 3d 47 84 db bb 16 ba e3 3d a2 77 c8 3d
       0.081466295 -0.0066991183 0.111194775 0.09788443
0000e0 87 b0 1f 3d d5 ea 8e 3d 3c e3 af 3a e9 30 7a bd
       0.03898671 0.069783844 0.0013419162 -0.0610818
0000f0 eb b9 09 3d fc 40 ed 3d c0 16 63 bd 09 89 de bb
       0.03362457 0.115846604 -0.055441618 -0.006791238

_orig_mod.shared_mlp.0.weight f4 [128, 120]
000000 c4 57 9c 3d 65 b6 01 3e fa a5 b8 3c 5d a5 cc bd
       0.076339275 0.12667234 0.022540081 -0.09992478
000010 63 c2 7b 3c 26 f2 c2 bc 40 5e 1b 3d bd c1 e9 bb
       0.01536617 -0.023797106 0.03793168 -0.007133691
000020 df 42 3f bc c6 28 b1 3c 3f 89 36 bd 93 7d 4e bc
       -0.011673658 0.021625888 -0.04456448 -0.012603181
000030 48 7e 2f bd c0 cf b4 3c 7b 5f 5e bb 6d c4 d1 3c
       -0.04284504 0.02207172 -0.0033931423 0.025606358
000040 a7 86 ed bc e3 cf 16 3c 65 f0 fd bd c2 f8 9e 3d
       -0.028994871 0.0092048375 -0.12399367 0.077622905
000050 a8 e3 76 bb 5a 93 b9 bd 53 9d 99 3d b7 fc 93 bc
       -0.0037672315 -0.09061308 0.0750071 -0.01806484
000060 15 2f 1b bd 33 ca a6 bd 5c f6 6e 3d 92 a3 82 bd
       -0.037886698 -0.08144035 0.058340415 -0.06378855
000070 45 c2 ee bd 2b 6f d4 bd 2d 9c 11 3d bd a7 9d b9
       -0.11658148 -0.10372766 0.03554933 -0.00030070348
000080 bf e5 77 bd ba 77 a8 3d c7 e5 26 bd f6 1f 40 3d
       -0.060521837 0.08225961 -0.040746477 0.04690548
000090 f8 82 32 3d d6 89 25 3d 75 79 02 bd b6 27 90 3d
       0.043581933 0.040414654 -0.03185411 0.07038824
0000a0 dd 35 39 bd b5 db 72 3d 97 68 44 bd 77 b2 95 bd
       -0.045217384 0.05929156 -0.047951307 -0.0730943
0000b0 61 c2 a6 3c bd 6d 9f 3d 87 ae 8a 3d 04 f6 e3 3d
       0.020356359 0.07784603 0.0677157 0.11130908
0000c0 cc 66 2e 3d 71 52 b4 3c a6 34 d4 3c 09 45 a3 bd
       0.042578503 0.022011967 0.025904011 -0.07972152
0000d0 95 51 0b 3c f8 c6 02 bd 75 ca 1d 3c d8 2e cf 3d
       0.008503337 -0.031928033 0.009630789 0.101163566
0000e0 cd df b3 bc 35 93 0d bd 19 32 aa bd 94 50 9c bd
       -0.021957302 -0.034564216 -0.083103366 -0.076325566
0000f0 df d0 c3 bc 37 4b ac bb fd bb 98 bd 3b 37 b8 3d
       -0.023903308 -0.0052579897 -0.07457731 0.089949094
000100 9c bd 57 bd d4 fa 29 bd 55 61 d8 39 ea f7 82 3d
       -0.05267106 -0.041498974 0.00041271248 0.06394942
000110 cd c0 e0 3c 3e fa 43 3d 00 a4 9c 3c 52 52 af bc
       0.027435685 0.04784607 0.01912117 -0.021401558
000120 e0 d7 ef bc e8 2a d0 bd 0a ad e2 bd 79 2e b6 bd
       -0.029277742 -0.10164434 -0.11068161 -0.08895583
000130 4a ff 6e 3b a9 15 0e 3d 72 1b 95 bd df 72 8f 3d
       0.0036468082 0.034688625 -0.072806254 0.07004332
000140 0c 8d 49 bd 06 47 7c 3d 7c 35 eb bc 81 17 41 bb
       -0.04920678 0.06159117 -0.028712027 -0.0029463472
000150 a1 1c 94 bd e7 50 c0 3d 52 99 85 3c d8 75 d8 3b
       -0.07232023 0.09390431 0.01630846 0.006605845
000160 d1 cd 4f bc c9 84 a0 3d 91 ba 27 bd 6d 48 98 bd
       -0.012683348 0.07837827 -0.040949408 -0.07435689
000170 f6 0d d2 bd 40 c4 a3 3d be 77 c5 bd d6 74 a6 3d
       -0.10256569 0.07996416 -0.0964198 0.081277534
000180 78 ea 4b bd 8c 33 a0 3c ff 81 91 3c 20 76 a3 bc
       -0.049784154 0.01955583 0.017762182 -0.019953787
000190 94 02 1e 3d 8e c8 bf bd bf b5 92 3d 31 b9 f2 bc
       0.038576677 -0.09364425 0.071635716 -0.029629322
0001a0 d5 b1 a7 bc 7b eb f7 bc eb 48 98 bd e4 b6 81 bd
       -0.02047054 -0.030263653 -0.07435783 -0.06333712
0001b0 17 9e af 3d 7c 3a d2 3c 88 c6 be bd 05 a9 26 bd
       0.08575075 0.025662653 -0.093152106 -0.040688533
0001c0 e7 fa 74 bd 50 81 ac 3b 0d 3d b2 3d 87 8a 7f 3d
       -0.05980959 0.0052644387 0.08703051 0.06238797
0001d0 c2 14 bb 3c 55 2d 6a bd 9d a7 06 3c 5a 5a 05 3b
       0.022837047 -0.05717214 0.008218673 0.0020348043
0001e0 ff da 8e bd 36 57 d5 bc f0 a2 82 bd 08 8a b8 3b
       -0.06975364 -0.026042562 -0.06378734 0.005631689
0001f0 2c 90 79 3d 29 1b 1f bd 41 4e 28 bc 0f 7c 9f bd
       0.06092851 -0.03884426 -0.010272563 -0.07787334
000200 86 37 77 bd 64 42 45 bd a6 ef 27 3d 12 c1 9a bd
       -0.060355686 -0.04815902 0.04100003 -0.075563565
000210 96 16 bc 3d 02 29 bf 3c 79 ad 4a 3b d8 04 03 3d
       0.091839954 0.023334984 0.0030926152 0.03198704
000220 14 be 2f 3d ce 97 f5 3d 2a d9 f2 3d f5 23 90 bd
       0.042905882 0.11991845 0.11857827 -0.07038108
000230 d8 c5 06 be 75 94 77 3d e4 3f 09 bc 54 85 0e bd
       -0.13161409 0.060444314 -0.008377049 -0.03479512
000240 68 24 ef 3b 5f a3 08 bd 63 43 ff 3c b3 75 a4 bb
       0.007298041 -0.033358928 0.031160062 -0.0050189137
000250 ed 13 0a ba 6b 58 78 bb 01 15 65 3d 20 94 1e bb
       -0.00052672514 -0.0037894498 0.055928234 -0.0024197176
000260 d4 fe af 3d 51 a7 09 bd 17 41 d4 3b 3c 75 d2 3d
       0.085935265 -0.03360683 0.006477486 0.10276267
000270 0d bd 57 bd 04 1c 22 3d 3e 52 c4 3d 76 67 80 bd
       -0.052670527 0.0395775 0.09585999 -0.062697336
000280 10 06 d7 3c 0d 8c 16 be c6 48 b7 3c 09 47 66 3d
       0.026248008 -0.14701863 0.022373568 0.05622009
000290 b1 5a 5e 3c e4 e8 43 3c 3c 13 d5 bb 21 54 5c bb
       0.013571427 0.011957381 -0.006502537 -0.003361948
0002a0 30 5e 0c bd ee c3 de bb 9c d1 8a bd cd aa 16 bc
       -0.03426951 -0.006798259 -0.06778261 -0.0091959955
0002b0 24 f3 00 3d 29 26 57 3c e0 f4 52 bc f0 8f 4f bd
       0.031481877 0.013131657 -0.012875766 -0.05067438
0002c0 3c a6 8f 3c 21 12 2a 3b bc 88 30 bc db 77 c3 bc
       0.017535321 0.0025950747 -0.0107747875 -0.023860862
0002d0 6a 7a 77 3d 92 6a c8 3d 6d 02 29 3d 8d 99 78 3d
       0.060419478 0.09785952 0.04126208 0.060693312
0002e0 39 e0 bd bb 92 42 fd bb 4c e0 41 3d fc 01 d1 3c
       -0.0057945517 -0.007728883 0.047333047 0.025513642
0002f0 0c 93 c1 bc 2d 94 fb 3c 92 f7 88 bd 1f 8a 7f bd
       -0.023629688 0.030710304 -0.06687845 -0.062387582
000300 e9 76 c2 bb 0d 2f a7 3d 49 a9 09 3d 0c b9 8e bc
       -0.0059345854 0.08163271 0.03360871 -0.017422222
000310 0c 6d 48 3d c1 ed af bc 70 43 f3 bd c9 07 15 3b
       0.04893212 -0.021475675 -0.11878097 0.0022740236
000320 90 00 83 3c c2 5b 38 bd 94 58 35 bd d8 f7 25 bd
       0.01599148 -0.045009382 -0.044273928 -0.040519565
000330 3b 25 3f 3d 4f 3b b0 bd 45 8e 8b 3c 3e b3 05 bd
       0.046666365 -0.08605062 0.017035613 -0.03264164
000340 eb a9 84 3c c3 88 80 3d e2 a0 b6 bc d4 4f 88 bb
       0.016194304 0.06276085 -0.022293512 -0.004159907
000350 f7 5a 6a bd 18 a3 32 bd e1 ea a8 3d df c6 23 3d
       -0.057215657 -0.04361257 0.082479246 0.03998458
000360 a0 1a 91 3d 7a bd 7f 3c 9a 2f 4e 3c 70 60 94 3c
       0.070851564 0.01560914 0.012584591 0.018112391
000370 35 8e 83 3d 0e e5 a1 bd 28 ea c5 3c 49 1e 7f 3d
       0.06423608 -0.07905017 0.024159506 0.06228474
000380 cf d5 30 3d 68 a2 45 3d 50 72 8c 3c 4c dd 81 bd
       0.043172654 0.048250586 0.017144352 -0.06341037
000390 22 0c cd bc d1 32 3d bd 97 4d 7b 3d db ab 2f bd
       -0.0250302 -0.04619104 0.061353292 -0.042888504
0003a0 29 de b1 3b fa fb 2b 3d 2f be 7e bc 66 92 95 3d
       0.005428095 0.04198835 -0.015548273 0.07303314
0003b0 26 e7 b1 bc cf 51 94 bd 23 16 74 bd 91 5e 79 3d
       -0.021716665 -0.07242166 -0.059591424 0.0608812
0003c0 fc 96 03 3d 01 7f 0a bd 2c 12 ae 3d 01 44 c2 ba
       0.03212641 -0.033812527 0.0849956 -0.0014821292
0003d0 fe c7 de 3b b8 cd 36 3d d4 b2 b4 3c c0 81 0a bd
       0.0067987433 0.044629782 0.022057928 -0.033815145
0003e0 2e a2 c4 3d a9 64 87 3d 52 03 15 3d 04 6a 27 bc
       0.09601246 0.06610996 0.03638012 -0.010218147
0003f0 78 41 98 3d 4d f7 92 bc 8b 03 cb bd 44 6b 88 bd
       0.07434362 -0.017940188 -0.09912785 -0.06661084

_orig_mod.shared_mlp.0.bias f4 [128]
000000 ee cd 42 bc a2 5a d9 bd 46 8a 3b bd 75 09 4a 3c
       -0.011889918 -0.1061299 -0.045786165 0.012331356
000010 25 9b 11 be b6 0c fa 3c 74 4d 4c 3d 37 3c 2b 3d
       -0.14219339 0.03052364 0.049878553 0.041805472
000020 ad 0c 93 bd 79 91 1a bb 12 8d 0f 3d a1 56 c3 3d
       -0.07180152 -0.0023585244 0.035046645 0.095380075
000030 c0 60 08 3d 21 52 f0 bd 57 a9 89 3d e0 62 02 3e
       0.033295393 -0.11734415 0.06721752 0.1273303
000040 0f 58 b2 3d 9e 19 ca 3d ba bd 60 3d 2c f6 26 3d
       0.08708202 0.09868167 0.054868437 0.04076211
000050 d1 4f 5d bd ab 01 22 3d c0 b3 8e bc ee c3 b8 3d
       -0.054031197 0.039552372 -0.017419696 0.090217456
000060 fe 22 af 3d e4 8d 53 3d 36 e3 3e 3d 94 93 84 3c
       0.08551596 0.05164899 0.046603404 0.016183652
000070 89 7a 37 3d fe ce 08 3e 8c a3 9e bb 10 2a 78 3d
       0.044794593 0.13360211 -0.0048412737 0.06058699
000080 e5 51 cb 3d 10 91 49 bd 4b 7b 06 be c5 e8 0b bd
       0.099277295 -0.049210608 -0.1313297 -0.034157533
000090 e0 40 db bc 1b a2 81 39 ba 87 b9 bd 5a ca b9 3d
       -0.026764333 0.00024725575 -0.09059091 0.090717986
0000a0 e1 22 b9 bd 67 4e c9 bd 49 ba 26 bb da 80 d7 ba
       -0.09039856 -0.09829407 -0.0025440624 -0.0016441599
0000b0 82 b6 de bd a4 ff a9 3c 13 63 41 3c 9b 41 19 bd
       -0.10874654 0.020751782 0.011803406 -0.037416082
0000c0 6d ab d7 bc 55 88 be 3d c0 aa eb 3b 7a 36 97 3d
       -0.02632686 0.09303347 0.007191986 0.073834375
0000d0 4b 64 e0 bd 72 ae 6d bd 74 96 e3 39 84 2b 7e 3c
       -0.10956629 -0.058027692 0.0004340891 0.015513305
0000e0 52 ed 4f 3c 7f 8f 53 bd da fa ae 3b 46 04 92 3d
       0.012690859 -0.05165052 0.0053399624 0.07129721
0000f0 db 4f a0 3d ce 03 5d bd 70 4f b7 bd 97 24 26 bd
       0.07827731 -0.053958707 -0.089506984 -0.04056224
000100 c8 c3 e3 3d c4 1a d1 3c bd 9a 06 be 68 d8 06 bd
       0.11121327 0.025525458 -0.13144965 -0.032921225
000110 e1 fa d0 bb 57 11 07 bd b0 8c c1 3d 0f 92 e4 3c
       -0.0063775633 -0.03297552 0.09450662 0.027901677
000120 74 8b 07 bd 01 f0 84 bc 8c 52 01 bd dc 8a b1 3d
       -0.033091977 -0.016227724 -0.031572863 0.086690634
000130 7b da a2 3d c4 96 23 bd 4f 82 0c bd ba e3 a3 3d
       0.07951828 -0.039938703 -0.03430396 0.0800242
000140 c5 70 9c bd ac 74 f8 bd a2 cf 82 3c 5a 90 9d 3d
       -0.076386966 -0.121316284 0.015968148 0.076935485
000150 9d 91 a7 3d 98 1b c7 bd c8 0a 4b 3d c7 fd 19 3d
       0.081820704 -0.0972206 0.04957083 0.037595537
000160 f5 15 8e bd 19 e2 a0 bd 13 1e 42 3d b6 c7 d3 bd
       -0.06937782 -0.07855625 0.047391962 -0.10340826
000170 fc 49 50 3d 3a 56 c5 bc c7 4b 3b 3d 4d 11 f9 bc
       0.050851807 -0.024088968 0.045726564 -0.030403757
000180 29 7c 6d 3d d0 44 84 3d 10 6e 0d 3e 39 e8 b6 bd
       0.057979736 0.064584374 0.13811517 -0.08931012
000190 46 9f 0a 3e e5 ea c9 bd ed ad 90 bd 67 6c 4b 3d
       0.1353732 -0.09859256 -0.07064424 0.049663927
0001a0 cc 46 b2 bc 3d 12 40 bd b9 0e 05 be 34 57 0a bd
       -0.021762274 -0.046892393 -0.12993897 -0.03377457
0001b0 a3 e1 e1 3d 2f d5 9d 3d 49 90 b5 3b ac 3c 49 3d
       0.11029365 0.07706677 0.005540882 0.049130127
0001c0 f2 c8 37 3d 6f 35 da bc cd 21 b5 bc 97 41 f0 bd
       0.04486937 -0.026636807 -0.022110844 -0.1173126
0001d0 76 7c 12 3d c1 bf 19 bd 81 10 c3 3d 2f d8 9c 3b
       0.035763226 -0.037536386 0.09524632 0.0047865133
0001e0 97 f4 c8 bb 5a a2 a1 bd 2d 97 12 3d 72 f2 2c bd
       -0.006132673 -0.07892294 0.035788704 -0.0422234
0001f0 f2 dc 84 3d 3f c4 8c 3d 36 9e 4f 3d ff d1 ef bd
       0.064874545 0.068733685 0.05068799 -0.117099755

_orig_mod.shared_mlp.3.weight f4 [64, 128]
000000 61 ce f6 3c e7 8e 09 bb 67 f3 0a bd e5 87 59 3d
       0.030127706 -0.0020989717 -0.033923533 0.053108115
000010 07 e1 d5 bc 7f 1d ed 3d 87 4c 8a bc 16 65 03 3d
       -0.026108278 0.115778916 -0.016882194 0.032078825
000020 a2 ea 5b bd d5 e5 df 3d 7c cb 4f 3d 91 62 6d 3d
       -0.05369056 0.10932509 0.050731167 0.05795533
000030 d6 d3 8a 3b ac 44 e8 bd 2c 01 cf 3c 9c 11 43 3d
       0.0042366786 -0.11341223 0.025269113 0.047624215
000040 d7 47 4d 3c d0 55 f6 bc 98 e4 a5 3d d8 f2 d1 3c
       0.012529335 -0.030070215 0.081002414 0.025628492
000050 f1 3f b5 bd c2 ee c3 3d 2a 0d af 3c 26 05 34 bd
       -0.088500865 0.09567024 0.021368582 -0.043950222
000060 87 9a 09 3d 93 32 9a 3d 7f b9 e6 bc 94 0f 97 3d
       0.033594634 0.075291775 -0.028164623 0.07376018
000070 ba 56 2b 3d cd 8d 75 3d f7 06 b9 3d 3e ac 1a bd
       0.041830756 0.059949685 0.090345316 -0.03776192
000080 be aa c0 3d 29 2e d4 bd 69 c4 c4 bd a1 ae 49 bd
       0.094075665 -0.10360367 -0.09607775 -0.049238805
000090 2e 29 8e 3c f5 ca b8 bc 36 b9 b4 bd 46 4c 4f 3d
       0.01735362 -0.022557715 -0.08824389 0.05060985
0000a0 c0 d6 0d be 70 8c 7a bd db 2f 6b 3d cc d0 ad bc
       -0.13851452 -0.061169088 0.057418685 -0.021217726
0000b0 58 2a 57 bd 19 d1 d4 3d 73 d6 de bd ba ee d3 bc
       -0.052530617 0.10391445 -0.10880747 -0.02587067
0000c0 c6 44 2e bd 8b 19 b0 bc 92 e2 3b 3d 3d 3d cf 3d
       -0.042546056 -0.021496555 0.04587037 0.10119102
0000d0 da e6 11 be 94 f8 14 3b f0 16 ee 3c 0a f5 58 bd
       -0.14248219 0.0022731172 0.029063672 -0.052968062
0000e0 90 16 0a bd bb f4 48 3d e0 66 68 bc e0 27 0b bd
       -0.033712924 0.04906152 -0.014184684 -0.033973575
0000f0 34 80 8f 3d 83 98 8f bd 72 5b 87 bd 03 23 e8 3d
       0.07006875 -0.07011511 -0.06609239 0.11334803
000100 21 47 05 3d de bc e7 3d 70 a8 1e be c6 35 bb bb
       0.032538537 0.113153204 -0.15493941 -0.0057131974
000110 71 08 cb bc aa 01 f7 bd 3a 22 dd 3c 5d 7c b4 3d
       -0.024784299 -0.12060864 0.02699386 0.08812783
000120 5f 0b 51 bc bc c3 cf bd dc 43 76 3d e7 11 d2 bc
       -0.012759059 -0.10144755 0.06012331 -0.025643302
000130 40 7c 5d bc 9d e7 74 bd 08 40 69 3d fc 5c 5a 3d
       -0.013518393 -0.059791196 0.05694583 0.053311333
000140 61 de 16 be 3c 05 64 bd b3 f3 33 3d 0b 8b 64 3c
       -0.14733268 -0.055669054 0.04393358 0.013949166
000150 1e b1 6e bc d8 d2 dc bd e2 8c 5f 3d f4 dc ea 3c
       -0.014568595 -0.10782403 0.054577716 0.028669812
000160 51 be 6a 3d 6c de 64 bd 26 f3 f6 b9 99 f1 3b bd
       0.057310406 -0.05587618 -0.00047101936 -0.045884702
000170 2b 23 9d bc 1a 86 14 3c 89 78 8c 3d f2 88 4f 3d
       -0.019181808 0.009065175 0.06858928 0.05066771
000180 ef 0c 1e bd a8 29 a5 3d cd 4a e9 bc cf 87 c0 bc
       -0.038586553 0.08064586 -0.02847805 -0.023502259
000190 3c 14 e9 3d a4 ca 1b be 5d 7d 67 3b 35 02 08 bc
       0.113808125 -0.1521402 0.0035322525 -0.008301307
0001a0 06 d4 e3 bd 8d 54 0a be 36 55 94 3c c3 47 25 3d
       -0.11124425 -0.13508816 0.018107038 0.04035164
0001b0 a5 81 48 3d ff c1 22 3d 57 22 9e bd 1f 9f df 3c
       0.048951764 0.03973579 -0.077213936 0.027297555
0001c0 c7 c9 35 3d 9d f4 e6 3c 32 f2 50 3d 0e 79 72 bd
       0.044381883 0.028192813 0.051012225 -0.059197478
0001d0 50 c9 5d 3d 35 07 d6 bc 45 fc 0b bd 35 9a 5b bc
       0.054147065 -0.026126483 -0.03417613 -0.013403465
0001e0 39 c0 e4 3d 9d 1e c4 bc c2 0e 97 bc 1c 2a a5 3d
       0.11169476 -0.023940379 -0.018439654 0.08064672
0001f0 31 5e da 3d c1 c8 6e 3d 15 34 94 3c 30 ea fe bd
       0.10662497 0.058296923 0.01809124 -0.124470115
000200 ac 1a 00 3d 02 4a 3b 3d 45 2d 0e bd 35 44 b4 bb
       0.031275436 0.045724876 -0.03471114 -0.005501295
000210 38 b2 a4 bc b6 37 cb bc 66 09 42 bd 80 0d d0 bd
       -0.020104513 -0.024806838 -0.047372244 -0.10158825
000220 74 f1 a1 bc 0d b1 af bd 2b c8 c9 bd 64 0e d9 3c
       -0.019768454 -0.08578692 -0.09852632 0.02649612
000230 1a d1 23 3d c1 97 88 bb e4 0a 97 3c d9 6b c8 bc
       0.039994337 -0.004168481 0.01843781 -0.024465488
000240 79 58 1f bd 19 60 b9 b8 81 1b 89 3d 63 a8 ae bd
       -0.038902733 -8.839387e-05 0.06694699 -0.08528211
000250 b2 5a 03 bd 12 75 af 3c 18 6d 8e bd bf 4b 8a bd
       -0.032068916 0.021418128 -0.06954402 -0.06752729
000260 0e 96 b9 bd e6 22 80 3c 84 50 be bd 5a 83 e5 3c
       -0.09061824 0.01564164 -0.09292701 0.028016735
000270 b0 c0 38 3d 03 c7 e2 bd d7 1b 7f 3c c7 a9 17 3c
       0.045105636 -0.11073115 0.015570602 0.009256787
000280 00 67 79 bd 6e ae 91 bd 0a 77 4b 3d 25 3e 98 3c
       -0.060889244 -0.07113348 0.04967407 0.01858432
000290 96 6c 82 bc 48 bd c6 3c 11 3f 8e bb e7 71 65 39
       -0.015920918 0.024260178 -0.004341014 0.00021881574
0002a0 6b 57 24 bd 9e c7 5f bd b1 50 e5 3c 3b b1 1c 3d
       -0.04012243 -0.05463373 0.027992578 0.038254958
0002b0 ea 4b a9 bc 37 fd c9 bd d2 62 2e 3d cd 42 23 3d
       -0.020666081 -0.0986275 0.04257471 0.039858628
0002c0 f9 7c 70 bd 5d 81 70 bd 16 f6 86 3c 82 7b 61 3c
       -0.058712933 -0.05871712 0.016474765 0.013762357
0002d0 f7 e8 93 3d 06 a9 ad 3c 45 1d 0c bd e5 5c 38 3c
       0.07222169 0.02119876 -0.0342076 0.0112526165
0002e0 4e 9c 12 3c cb ef 87 3c 9c 99 12 3d ad 4c 4c 3d
       0.008948399 0.016593834 0.035791025 0.04987781
0002f0 91 b8 98 bd b3 56 45 bd e6 40 3c bd 75 01 32 bd
       -0.07457078 -0.048178386 -0.04596033 -0.04345842
000300 89 7d 3d bd 8e 0b 71 bd 6c 8d 3e 3b d6 a5 c8 3c
       -0.046262298 -0.05884891 0.0029075993 0.02449314
000310 dc 2d 90 bc 61 6c 8e 3d 5f ef 2d bd c0 1c 28 3d
       -0.017599992 0.069542654 -0.04246461 0.041043043
000320 a2 3b 83 bd 6f 6e ae 3c 37 53 e2 bc 04 c9 1d bd
       -0.064078584 0.021292893 -0.02762757 -0.03852178
000330 c1 3f 8a bd de 88 07 3d 0e f6 d7 bc 50 4e e7 bd
       -0.06750441 0.03308951 -0.026362445 -0.11294234
000340 dc b0 13 bd ad fd 31 bd 64 60 02 bd 8a dd dc bb
       -0.036057338 -0.043454815 -0.031830207 -0.0067402767
000350 3b ee 6a bc bd 7c d3 3c c8 0a a9 bc fb a5 3f bd
       -0.014339025 0.025816316 -0.020635024 -0.04678915
000360 b9 16 71 ba 55 9d 25 bd f0 15 4e bc 5f b1 8f 3d
       -0.00091968063 -0.040433247 -0.0125784725 0.07016253
000370 72 8d 27 3b de 6a 71 3c 6b 77 9d bd d9 5d c8 3c
       0.0025566486 0.014734952 -0.07688793 0.024458813
000380 41 4c 4a bc 5a 6c f9 3c 01 2d dc bc 1c 1c 8d 3c
       -0.012347282 0.030447174 -0.026876928 0.017225318
000390 f4 7a 05 3d 22 92 d1 bc 7c 6b e3 bd 38 7c fb bc
       0.03258796 -0.025582377 -0.111044854 -0.03069888
0003a0 70 b2 ef 3b da b7 17 3d 1f c5 d1 3c 4a a0 13 bd
       0.0073149726 0.03704057 0.02560669 -0.036041535
0003b0 7b c1 da 3c 62 ae 5f bd 38 ca 8e 3c 1e 63 dd bd
       0.026703587 -0.054609664 0.01743041 -0.10809921
0003c0 dd 95 ff 3c ff 48 c1 bd 1f f9 37 3b 35 61 0f 3c
       0.03119939 -0.09437751 0.0028072072 0.008751203
0003d0 00 15 9d bc 53 70 96 bd 0a 58 64 39 2b 60 7c bd
       -0.019175053 -0.07345643 0.00021776572 -0.06161515
0003e0 f4 79 ca bd 94 4a 9a 3d af 52 95 bd fb 9b a3 bd
       -0.09886542 0.07533756 -0.07291161 -0.07988735
0003f0 8b 4b a7 bb 6d 42 8e bc 3c 53 bd bd 57 db b7 3c
       -0.005105441 -0.017365659 -0.09244391 0.022443457

_orig_mod.shared_mlp.3.bias f4 [64]
000000 25 1c cb 3d 29 f2 95 bb 6a eb 7a bb 30 bb e3 bb
       0.099174775 -0.004575987 -0.003828729 -0.0069498047
000010 37 55 5c 3d ef 9f 08 bd fc 29 84 bd 44 cf 27 bd
       0.053792205 -0.03335565 -0.064533204 -0.04096915
000020 f7 90 fc bd ce 2d 2a bd 4d 3b 73 3d ed 7d 70 3d
       -0.12332337 -0.04154759 0.059382726 0.058713842
000030 f7 88 c6 3d 97 96 22 ba c4 42 62 bd 86 63 0a 3e
       0.09694093 -0.0006202249 -0.055239454 0.13514528
000040 fb db 0c 3e 2e 16 ea bc b2 18 06 3e 27 7e 0d 3d
       0.13755791 -0.02857503 0.13095358 0.034544136
000050 0c 58 fc 3d 34 a7 a7 bd 4d a2 ad bd 6d a9 57 bd
       0.12321481 -0.08186188 -0.08478222 -0.05265181
000060 7d a5 e0 3d 58 46 d9 bd 00 79 c4 3d db 88 6b bd
       0.109690644 -0.1060912 0.095933914 -0.057503562
000070 07 58 f9 3d 43 f7 ea 3c d7 26 99 bd 84 8e af 3d
       0.12174993 0.028682357 -0.07478111 0.085721046
000080 e0 23 d5 3c 2b bd 88 3d ef a8 5c bd 71 7f 15 bd
       0.026018083 0.06676706 -0.053872045 -0.03649849
000090 0f 94 8d bb 7f 9b 5c 3d 13 68 08 3e 1a 9d 22 bd
       -0.0043206285 0.05385923 0.13320951 -0.039700605
0000a0 ac 4b 33 3d 8d bb 1a bd 7e 19 7e 3d fc 9e 0e 3e
       0.04377334 -0.03777652 0.06203603 0.13927835
0000b0 a5 51 f4 3c 72 f9 b9 bd b7 8c b0 3d b6 1c a9 bd
       0.029824087 -0.09080781 0.08620589 -0.08257429
0000c0 dc 54 10 3e 8b 40 b5 3b c4 81 93 bd 3c 64 be bc
       0.14094871 0.0055313758 -0.07202485 -0.023241155
0000d0 98 62 a7 bd ce 68 19 3d ff 9a 0e bd 2c 57 ab 3b
       -0.08173102 0.037453465 -0.034815785 0.0052288976
0000e0 8e c1 f2 bd 59 64 49 bc 68 16 8a bd 78 b7 9c bd
       -0.11853324 -0.012291991 -0.06742555 -0.076521814
0000f0 5c c7 bb bc c9 e2 c5 3c 53 18 58 3c 1a 46 8b ba
       -0.02292221 0.024155991 0.013189393 -0.001062575
