experiments/exp_20251006_004731/models/full_model_auc0.7345_logloss0.0873_epoch5_20251006_015301.pth (torch, 160050 bytes, 12 tensors)

weight f4 [5, 8]
0.013790376 0.008068837 0.0029643194 -0.0033118175 5.4082415e-05 0.0012568226 0.008131174 0.0073545035
0.6816269 1.6404195 0.0031497825 -0.32457164 0.3388197 -0.23912427 0.38980904 0.5608605
2.104502 1.0119116 0.95021427 0.10640945 -0.35687402 0.64983743 -0.1854156 0.17341958
3.9143207e-12 -4.94843e-40 -0.01476655 0.0012091597 0.009237269 4.92708e-40 1.7451393e-10 -2.7487062e-12
0.0006836689 3.5530185e-08 -4.021753e-31 -4.876331e-10 0.00029421962 -0.04210738 2.5786487e-29 -0.020190056
00000000: 07f1 613c 2833 043c 0745 423b 140b 59bb
00000010: 8dd6 6238 f8bb a43a 9e38 053c 0cfe f03b
00000020: 1a7f 2e3f 44f9 d13f 956c 4e3b 412e a6be
00000030: c779 ad3e fedc 74be 0d95 c73e 8e94 0f3f
00000040: 29b0 0640 5286 813f 3e41 733f 33ed d93d
00000050: 31b8 b6be bf5b 263f 96dd 3dbe e794 313e
00000060: 11b9 892c 6c63 0580 66ef 71bc ab7c 9e3a
00000070: ea57 173c 785d 0500 4ee1 3f2f 4a6c 41ac
00000080: 3e38 333a da99 1833 6b83 028d 210a 06b0
00000090: 7d41 9a39 ca78 2cbd c6c0 0210 9e65 a5bc

weight f4 [15, 8]
-0.0062954635 0.002944218 0.0026514675 -0.00067631836 0.0021099234 0.0016084092 -0.0036939988 -0.0084215235
0.0155056575 -0.047125127 -0.0295114 -0.2351069 0.21581143 0.00957408 -0.17394021 0.13123728
0.32347825 0.034215525 0.30146345 -0.06062665 -0.64370054 0.35264927 -0.057544287 -0.35912862
-0.08097057 0.2969817 0.09796273 0.47609934 -0.7044471 -0.5075912 -0.6278836 0.670086
-0.031782173 -0.22339566 -0.4234712 -0.047659718 -0.6818632 0.27604958 -0.41917866 -0.6053552
-0.194215 -0.5139105 -0.3521531 0.58703136 -0.5574714 0.24629429 0.5083139 -1.0674459
1.2308562 0.13907401 -0.3459706 -0.35378054 0.0738081 -0.9225579 -1.462379 -0.4408643
0.274392 0.4543518 -0.18177517 0.17627259 0.42916414 0.7739198 -0.53339726 -0.48482826
-0.7825915 0.31018445 0.7678588 0.1179369 0.6750074 0.3313649 0.29196954 -0.16475618
6.730066e-15 -5.98723e-12 -5.02423e-40 8.2557003e-29 7.098249e-06 4.96462e-40 4.93485e-40 -1.5528301e-12
-4.97769e-40 4.9212e-40 -1.9034826e-32 1.7126584e-28 0.0001351945 2.098718e-12 -9.110699e-06 0.03847384
-7.3367007e-13 -0.016720003 -3.5738388e-09 1.3101249e-12 -5.0162e-40 -3.168547e-29 -1.7138294e-05 -4.0975435e-28
-4.91056e-40 -3.8983575e-08 -1.5587317e-21 2.2824188e-20 0.065491825 -0.011926285 -0.0016149787 -1.1776057e-14
5.9029793e-05 -1.1721674e-11 -9.0353666e-07 -4.96507e-40 3.774083e-13 -3.0682326e-10 -0.0012650131 8.6940627e-10
9.891345e-09 -1.7924402e-28 -2.235326e-16 -0.00021910337 -0.0013557414 1.1746575e-06 1.841152e-11 -0.00059993047
00000000: 2d4a cebb c8f3 403b 3ec4 2d3b f54a 31ba
00000010: a446 0a3b 42d1 d23a 0417 72bb 6efa 09bc
00000020: 710b 7e3c 4706 41bd e4c1 f1bc ddbf 70be
00000030: acfd 5c3e 9adc 1c3c 621d 32be 1163 063e
00000040: f19e a53e 9425 0c3d 6b59 9a3e a653 78bd
00000050: 8fc9 24bf 728e b43e 8fb3 6bbd b5df b7be
00000060: e6d3 a5bd fc0d 983e afa0 c83d 4bc3 f33e
00000070: a556 34bf 7ff1 01bf fbbc 20bf c28a 2b3f
00000080: 062e 02bd d5c1 64be 38d1 d8be d636 43bd
00000090: 968e 2ebf 5f56 8d3e 969e d6be 8ff8 1abf
000000a0: 4ce0 46be a38f 03bf 694d b4be b047 163f
000000b0: 72b6 0ebf 9234 7c3e dc20 023f 11a2 88bf
000000c0: b28c 9d3f 6b69 0e3e 0f23 b1be b922 b5be
000000d0: b328 973d c12c 6cbf 3c2f bbbf f7b8 e1be
000000e0: 1c7d 8c3e cda0 e83e 4523 3abe cd80 343e
000000f0: 67bb db3e 9c1f 463f b98c 08bf 693b f8be
00000100: eb57 48bf 7fd0 9e3e 6592 443f e788 f13d
00000110: 49cd 2c3f a9a8 a93e 087d 953e d8b5 28be
00000120: e779 f227 2ca8 d2ac 8d78 0580 8f4e d110
00000130: 7f2d ee36 ef67 0500 a35f 0500 9a8a daab
00000140: 946b 0580 d55b 0500 3fab c58a f11a 5911
00000150: ffc2 0d39 24af 132c 27da 18b7 bf96 1d3d
00000160: 8082 4eab 63f8 88bc a397 75b1 3962 b82b
00000170: 5076 0580 17aa 2090 35c4 8fb7 39db 0192
00000180: dd58 0580 e56e 27b3 838c eb9c 8091 d71e
00000190: 9420 863d 7766 43bc b1ad d3ba 7a23 54a8
000001a0: c296 7738 ba35 4ead 918a 72b5 0f68 0580
000001b0: 4576 d42a 89ad a8af ccce a5ba 07fb 6e30
000001c0: 98ee 2932 0338 6391 97db 80a5 1dbf 65b9
000001d0: 22b3 b1ba eda8 9d35 0ff3 a12d a744 1dba

weight f4 [50, 16]
0.071874045 0.04248959 -0.4792123 -0.12665409 0.5205438 -0.059270475 -0.5641808 0.3534696
0.5200674 -0.04085741 -0.48803276 0.12018482 0.09880383 0.843855 -0.08571522 -0.30728775
-0.2341143 -0.10652927 -0.20333898 0.2730931 0.21704777 -0.2187372 -0.19017026 0.2520412
0.060415234 -0.09019852 -0.16282587 0.041428342 -0.1952883 0.0062979534 0.1185418 -0.19183898
-0.45699352 -0.8370924 -0.24870521 1.0530722 0.9653872 0.5445496 0.83348227 0.03594572
-0.60139155 0.1672409 -1.192634 -0.9868435 0.3654465 0.27393404 0.38570622 -1.254915
0.043028437 -0.012888047 0.008225096 -0.02716904 -0.035311382 0.06457971 0.023893185 -0.04408056
-0.01790464 0.02072063 0.040727768 0.00026170333 0.050244994 0.20645379 -0.0136552015 0.02231559
-0.95097685 0.49307114 0.5233249 0.18142632 -0.12844348 -0.175787 -0.52835995 0.16680314
-0.6951776 -1.5567304 0.64087933 0.27708784 0.1640815 0.8020787 -1.267206 -0.42444378
-0.33128315 0.30677068 -0.03518689 0.16151193 -0.38954324 -1.1808931 0.48028758 0.49306342
0.11746366 -0.17996576 0.017965924 -0.10239038 -0.4106036 -0.29750055 -0.077036195 0.3995578
-0.15550393 -1.1482908 -0.5047632 0.0843554 0.33493626 0.5016764 -1.6031797 -0.105616786
-0.17219813 0.17077994 0.9110992 -1.2507783 -0.67737895 0.2801016 -0.22866458 0.23355778
0.10842693 -1.2521741 0.3668132 0.21005918 0.97108054 -0.39677194 0.379903 1.1146884
-0.34423244 -0.86128104 0.8487842 0.46461582 0.17139755 -1.5027734 -0.1244286 -0.18362324
-0.30038998 -0.07634805 -0.2231126 0.20406172 0.16781576 -0.02653222 -0.16881697 0.21625544
0.034137476 -0.04318318 -0.16904454 0.217034 -0.16402857 0.11717211 0.06174226 -0.12219743
-0.32592434 0.8016263 0.79315025 -0.67224807 0.9813416 -0.4253933 0.31935185 0.4601946
-0.04178221 0.32094783 0.0326975 -0.8391073 0.013877667 -0.03180583 0.30295104 -0.018359652
0.5567385 -1.1067944 0.9274365 -0.22831966 -0.7061537 -0.78100467 0.13309695 1.3148283
0.20758232 -0.290732 0.8113583 0.070117936 0.12122191 0.53521687 0.35130176 -0.36940295
-0.19004495 -0.4038636 -0.531475 0.18329428 0.15377522 0.2577856 0.70272446 0.3547841
-0.073656455 0.28349745 0.049388036 0.13176613 0.46338248 1.3686864 0.0766859 -0.094959825
-0.20576973 -0.3083708 -0.37756273 0.20893706 -0.21594068 0.556938 -0.19147654 0.34837297
0.10208434 0.050372224 0.60844857 0.081410185 -0.2270584 0.4726752 -0.18159023 -0.3476489
-0.14456794 0.27728134 -0.35308143 0.20135559 0.21400876 -0.11888817 -0.24751312 0.13235821
0.020825677 0.02791111 -0.19704704 -0.042175353 -0.09536504 0.50063324 0.06983146 -0.23687127
0.36680526 -0.13348418 -0.31373677 -0.75325406 1.0211993 0.28351486 1.4709367 0.3608137
-0.4574419 -0.36580944 -0.6391118 -0.2026871 -0.4807245 -0.123561524 -0.5863638 0.16233186
-0.4139401 0.30080605 0.06590228 0.1206842 -0.18214883 -0.24384768 0.1281005 0.20691891
0.2137958 0.044879887 -0.092332 -0.09077837 -0.67887497 -0.4873403 0.004287558 0.17332682
00000000: b332 933d 9009 2e3d 515b f5be 9cb1 01be
00000010: 5c42 053f 99c5 72bd 276e 10bf f8f9 b43e
00000020: 2323 053f 195a 27bd 6edf f9be 7523 f63d
00000030: aa59 ca3d e206 583f 768b afbd d254 9dbe
00000040: a9bb 6fbe 052c dabd 1838 50be dcd2 8b3e
00000050: c541 5e3e a5fc 5fbe febb 42be 8b0b 813e
00000060: f775 773d 00ba b8bd d3bb 26be c4b0 293d
00000070: a8f9 47be 105f ce3b 0bc6 f23d 7071 44be
00000080: 0efb e9be b04b 56bf 94ac 7ebe 12cb 863f
00000090: 9e23 773f 9a67 0b3f 185f 553f d23b 133d
000000a0: ccf4 19bf 3341 2b3e 3ba8 98bf c7a1 7cbf
000000b0: ce1b bb3e 1541 8c3e 497b c53e 0ea1 a0bf
000000c0: 963e 303d 6328 53bc 8ec2 063c 9b91 debc
000000d0: aba2 10bd 5e42 843d a4bb c33c d18d 34bd
000000e0: c0ac 92bc 50be a93c 29d2 263d 3a35 8939
000000f0: b2cd 4d3d 9f68 533e 11ba 5fbc 2fcf b63c
00000100: 3873 73bf d273 fc3e 9ff8 053f d2c7 393e
00000110: b086 03be 8201 34be 9942 07bf 71ce 2a3e
00000120: 29f7 31bf f142 c7bf ab10 243f 75de 8d3e
00000130: fb04 283e 0855 4d3f ce33 a2bf b250 d9be
00000140: f29d a9be 0c11 9d3e 2120 10bd 6263 253e
00000150: 3672 c7be 8127 97bf 41e8 f53e cf72 fc3e
00000160: ca90 f03d f248 38be 462d 933c 0cb2 d1bd
00000170: a33a d2be fe51 98be 27c5 9dbd d792 cc3e
00000180: 6c3c 1fbe 31fb 92bf 2938 01bf 86c2 ac3d
00000190: c47c ab3e dd6d 003f fe34 cdbf 9d4d d8bd
000001a0: b554 30be f0e0 2e3e cc3d 693f 8119 a0bf
000001b0: b568 2dbf 7a69 8f3e 0c27 6abe c529 6f3e
000001c0: f00e de3d 3e47 a0bf f1ce bb3e c119 573e
000001d0: bc98 783f b125 cbbe a582 c23e 1cae 8e3f
000001e0: 3c3f b0be ea7c 5cbf ec49 593f 20e2 ed3e
000001f0: d782 2f3e e15a c0bf 6cd4 febd bb07 3cbe
00000200: b7cc 99be 5e5c 9cbd a177 64be 8ef5 503e
00000210: e5d7 2b3e 195a d9bc 5bde 2cbe 1172 5d3e
00000220: bdd3 0b3d d9e0 30bd 031a 2dbe 293e 5e3e
00000230: 1bf7 27be eef7 ef3d 74e5 7c3d a542 fabd
00000240: 8edf a6be 6237 4d3f e50b 4b3f 7318 2cbf
00000250: 3439 7b3f 27cd d9be 1682 a33e a09e eb3e
00000260: d323 2bbd 4653 a43e d0ed 053d bccf 56bf
00000270: 275f 633c d446 02bd 661c 9b3e fb66 96bc
00000280: 6a86 0e3f 70ab 8dbf 7a6c 6d3f a1cc 69be
00000290: 7dc6 34bf ecef 47bf 914a 083e 4b4c a83f
000002a0: 7690 543e d3da 94be 2db5 4f3f fe99 8f3d
000002b0: 3143 f83d f903 093f d3dd b33e 6222 bdbe
000002c0: 259b 42be 36c7 cebe bf0e 08bf 7fb1 3b3e
000002d0: 4077 1d3e 79fc 833e c0e5 333f 43a6 b53e
000002e0: 32d9 96bd 9426 913e 1c4b 4a3d b3ed 063e
000002f0: 7840 ed3e 1e31 af3f 7f0d 9d3d 4c7a c2bd
00000300: 4db5 52be c7e2 9dbe e74f c1be 99f3 553e
00000310: 8e1f 5dbe 7d93 0e3f 6d12 44be f15d b23e
00000320: 9811 d13d 1b53 4e3d 49c3 1b3f 62ba a63d
00000330: ff81 68be 7c02 f23e caf2 39be 09ff b1be
00000340: 9e09 14be d2f7 8d3e 17c7 b4be 2930 4e3e
00000350: 1d25 5b3e a47b f3bd 1474 7dbe e988 073e
00000360: 9c9a aa3c d7a5 e43c b3c6 49be 10c0 2cbd
00000370: bf4e c3bd 8029 003f cc03 8f3d 628e 72be
00000380: e6cd bb3e 14b0 08be 1ba2 a0be 42d5 40bf
00000390: a9b6 823f dc28 913e a747 bc3f 93bc b83e
000003a0: d335 eabe 604b bbbe d59c 23bf 358d 4fbe
000003b0: 8621 f6be d30d fdbd f01b 16bf 533a 263e
000003c0: f5ef d3be 4003 9a3e c6f7 863d 4729 f73d
000003d0: 3985 3abe 35b3 79be c72c 033e 8de2 533e
000003e0: 49ed 5a3e f9d3 373d 8f18 bdbd 03ea b9bd
000003f0: c0ca 2dbf ab84 f9be a57e 8c3b 967c 313e

weight f4 [10, 8]
-0.43794262 -0.11562952 -0.40171883 -0.055336304 0.4394479 0.019031117 -0.30665353 1.7976537
-0.1136219 -0.3662542 0.21196052 -0.5743648 0.66207105 0.17762785 -0.5488919 0.16579115
-0.64352727 0.6033073 -0.20060305 0.62949705 1.1460963 0.5141436 -0.6718406 -0.24061982
0.13140991 -0.5231365 0.1597767 0.33577597 0.81447583 -1.2706903 -0.65148026 -0.30991152
-0.90233135 0.34962583 0.38155842 -1.149558 -1.0935944 -0.114818476 0.46551085 0.32443675
-0.046176717 0.36234573 0.07393004 -0.5341185 0.49306032 -0.3854525 0.20048946 0.58480954
-1.4161074 0.31032833 0.011774878 -1.4352716 -0.49881372 0.8985527 0.24655636 0.7032054
4.91124e-40 -0.0002186471 -4.5116626e-09 5.27346e-40 -9.97125e-18 2.3067046e-17 -2.2553343e-07 0.0028042586
4.90773e-40 -1.2462054e-33 0.11031248 8.324793e-10 -0.01125303 -0.00024548068 1.0889406e-06 4.95882e-40
5.11477e-40 -0.00018292647 9.093152e-06 -5.56222e-40 3.4159586e-34 5.04826e-40 1.0314361e-11 -4.90824e-40
00000000: 043a e0be 2bcf ecbd 17ae cdbe 52a8 62bd
00000010: 51ff e03e 25e7 9b3c b101 9dbe 8419 e63f
00000020: 99b2 e8bd ac85 bbbe 2e0c 593e 9209 13bf
00000030: 7d7d 293f 13e4 353e 2e84 0cbf 28c5 293e
00000040: 34be 24bf 5972 1a3f e36a 4dbe b826 213f
00000050: 49b3 923f ea9e 033f bffd 2bbf 0b65 76be
00000060: 5290 063e 46ec 05bf 819c 233e d4ea ab3e
00000070: 7d81 503f fba5 a2bf 69c7 26bf b9ac 9ebe
00000080: 30ff 66bf 2802 b33e a05b c33e b724 93bf
00000090: e7fa 8bbf f325 ebbd 7057 ee3e 931c a63e
000000a0: cc23 3dbd 6185 b93e a268 973d fdbb 08bf
000000b0: 6772 fc3e 085a c5be 1c4d 4d3e 14b6 153f
000000c0: 0243 b5bf 5be3 9e3e 6beb 403c fbb6 b7bf
000000d0: 8364 ffbe 8d07 663f 4579 7c3e 4505 343f
000000e0: 0e59 0500 a244 65b9 0105 9bb1 07be 0500
000000f0: e6ef 37a3 86c1 d423 282a 72b4 a7c7 373b
00000100: 1358 0500 b70f cf88 82eb e13d 86d4 6430
00000110: a15e 38bc dcb3 80b9 b727 9235 5166 0500
00000120: ca91 0500 f3cf 3fb9 ca8e 1837 850e 0680
00000130: 8607 e307 407f 0500 c173 352d 3858 0580

weight f4 [30, 16]
-0.40744922 -0.3693437 0.40638357 0.18681417 0.12079415 -0.03203759 -0.26396346 -0.012975039
0.95996296 0.048394714 -0.42197895 -0.26906782 -0.54776883 -0.0349618 -0.10103033 -0.29623747
0.059670683 -0.12462848 0.27510914 0.10554219 0.050534822 0.2301227 0.070788786 0.028558113
-0.008031691 -0.022503337 -0.07548428 -0.17005579 0.12518679 0.020251727 -0.044708487 -0.010011292
0.020763004 -0.18001409 0.08781198 0.104662545 0.03786805 0.123455785 -0.0562438 0.0055958927
0.0034290939 0.00046944007 -0.058008764 0.011521819 0.03540085 -0.032631576 -0.092539184 -0.21037671
0.078992255 -0.21222363 0.037080176 0.084993325 0.08502628 0.024046548 -0.044802524 0.009873162
-0.023229225 -0.0035799085 0.1158568 0.048129484 0.0868998 -0.037322707 -0.051722888 -0.14302947
0.028832436 -0.19961931 0.08018842 0.07667097 0.05574004 0.0031353424 -0.048861116 0.001219969
0.035854705 -0.004934995 -0.07182387 -0.029391048 -0.036222696 0.061548613 -0.10922502 0.079568684
0.08338852 -0.23673531 0.31495273 0.12725738 0.110879526 -0.11854938 0.10059382 0.03139245
0.09986509 -0.045953628 0.36728743 0.03327856 0.21110702 0.09026625 -0.09318576 -0.48092553
0.024202146 -0.4250016 0.4559328 -0.17383358 -0.08882177 0.042960063 0.013694365 0.14362843
0.25820965 0.0065340516 -0.221563 -0.13402843 -0.3795359 0.42291662 -0.049647283 -0.18379639
-0.17010684 -0.30274743 0.9938235 0.10933036 0.29854405 -0.30618626 0.44011715 0.15159929
0.11120046 0.055139504 0.64437264 1.7114581 -0.9863894 0.26914388 -0.39180312 0.0039501167
-0.4909966 0.16156553 0.002097468 -0.5237538 0.053014833 -0.06526071 -0.3921791 -0.14376515
0.17709371 0.05540003 0.088913634 5.175121e-05 -0.052341945 0.73127663 0.19584286 -0.15831807
0.25964847 -0.12764172 -0.13966079 0.025676392 0.07487464 -0.81277406 -0.36045095 0.26569873
0.7639469 0.063153066 0.7250778 -0.14504714 -0.013924045 -0.58312654 0.6125729 -0.13021052
0.03834632 0.094927974 0.049203627 -0.074294984 -0.2269969 -0.381498 0.3304413 0.0075916257
-0.06718515 -0.1196456 0.5536411 -0.06466903 -0.076747805 0.03309806 -0.10485539 0.08557132
0.01772208 0.104024895 -0.2582939 -0.13210157 -0.24112621 -0.4310729 0.054557033 -0.15617447
-0.10157243 0.26102352 0.10019025 -0.031879533 -0.48148146 0.20816419 0.13308556 -0.032155
-0.30870414 0.21960574 -0.11505488 -0.16019031 0.121099345 -0.15400371 0.06648167 -0.0017700798
0.05852022 -0.018615087 0.5138168 -0.08825528 0.42758468 -0.24959494 -0.20029594 0.36830527
-0.44513398 0.11495698 -0.31889927 0.026459368 -0.37664014 -0.47063234 -0.021876018 0.0023498943
-0.13090914 0.025956599 0.015427025 0.1138224 -0.31415015 -0.26273435 0.10457494 -0.017214414
0.0437641 0.16788554 -0.3087235 0.1252872 -0.043309744 0.20843598 -0.21304838 0.047613014
-0.25827968 -0.042154383 0.37873682 0.16914073 -0.66612184 0.1275427 0.1247354 0.15433145
0.079603925 0.1483832 -0.2248552 -0.1711676 -0.21985698 0.11682216 0.1970798 0.14686014
-0.061690222 0.39643976 0.08040004 -0.14117876 0.17570655 0.17119181 0.3494097 0.077397786
00000000: 2f9d d0be 9e1a bdbe 8211 d03e 374c 3f3e
00000010: ec62 f73d d939 03bd 3826 87be 4295 54bc
00000020: 22c0 753f 8939 463d a00d d8be 42c3 89be
00000030: 943a 0cbf 1b34 0fbd fde8 cebd 70ac 97be
00000040: 3f69 743d 373d ffbd 1bdb 8c3e 8126 d83d
00000050: 9afd 4e3d 49a5 6b3e b6f9 903d b4f2 e93c
00000060: 5b97 03bc eb58 b8bc 8197 9abd 1b23 2ebe
00000070: f730 003e f3e6 a53c 3f20 37bd 6706 24bc
00000080: 2d17 aa3c 9d55 38be c4d6 b33d 5159 d63d
00000090: 871b 1b3d 63d6 fc3d e65f 66bd c05d b73b
000000a0: a6ba 603b 2e1f f639 999a 6dbd 03c6 3c3c
000000b0: 7b00 113d b0a8 05bd 2f85 bdbd fe6c 57be
000000c0: b1c6 a13d 2751 59be 62e1 173d fb10 ae3d
000000d0: 4222 ae3d 44fd c43c da82 37bd 0bc3 213c
000000e0: 374b bebc e69c 6abb 5446 ed3d 6c23 453d
000000f0: 86f8 b13d b2df 18bd 61db 53bd 5176 12be
00000100: 0032 ec3c 0169 4cbe d439 a43d ab05 9d3d
00000110: ab4f 643d 517a 4d3b 9822 48bd 5ee7 9f3a
00000120: 62dc 123d bdb5 a1bb 6518 93bd 7fc5 f0bc
00000130: 405e 14bd 661a 7c3d 5eb1 dfbd e8f4 a23d
00000140: 9ac7 aa3d be6a 72be 7c41 a13e c24f 023e
00000150: ce14 e33d 04ca f2bd 2204 ce3d 5f95 003d
00000160: 1186 cc3d df39 3cbd 190d bc3e 194f 083d
00000170: 702c 583e 83dd b83d 2dd8 bebd df3b f6be
00000180: 9443 c63c cf99 d9be 0670 e93e 6e01 32be
00000190: 30e8 b5bd e4f6 2f3d 545e 603c 5513 133e
000001a0: 0e34 843e 991b d63b 69e1 62be c03e 09be
000001b0: 8852 c2be 8788 d83e f35a 4bbd 1f35 3cbe
000001c0: 7d30 2ebe b601 9bbe 386b 7e3f 99e8 df3d
000001d0: c4da 983e 72c4 9cbe 0957 e13e d83c 1b3e
000001e0: 11bd e33d f6d9 613d 9bf5 243f 0f11 db3f
000001f0: 0484 7cbf 3acd 893e 6b9a c8be fb6f 813b
00000200: e863 fbbe 6f71 253e ac75 093b bb14 06bf
00000210: 1526 593d 68a7 85bd b3cb c8be 2c37 13be
00000220: 0e58 353e 24eb 623d 5a18 b63d 700f 5938
00000230: 8264 56bd f234 3b3f 088b 483e 221e 22be
00000240: a5f0 843e 83b4 02be 3d03 0fbe 4c57 d23c
00000250: e057 993d f611 50bf 078d b8be aa09 883e
00000260: 0692 433f 6556 813d b39e 393f 3d87 14be
00000270: ad21 64bc c847 15bf 94d1 1c3f e855 05be
00000280: 0811 1d3d 9969 c23d be89 493d f827 98bd
00000290: e071 68be b553 c3be 9a2f a93e 2cc3 f83b
000002a0: 5e98 89bd c108 f5bd 6cbb 0d3f 3271 84bd
000002b0: f42d 9dbd d591 073d 6cbe d6bd 0440 af3d
000002c0: e52d 913c 010b d53d 193f 84be a245 07be
000002d0: cae9 76be 96b5 dcbe 3277 5f3d 33ec 1fbe
000002e0: 3505 d0bd e0a4 853e 8c30 cd3d 1d94 02bd
000002f0: bd84 f6be fe28 553e 9547 083e f6b4 03bd
00000300: 780e 9ebe 54e0 603e e5a1 ebbd ee08 24be
00000310: ef02 f83d 26b3 1dbe 8b27 883d 0602 e8ba
00000320: e6b2 6f3d ab7e 98bc 7f89 033f 2fbf b4bd
00000330: 61ec da3e d195 7fbe 611a 4dbe 8292 bc3e
00000340: 9ae8 e3be 916e eb3d c446 a3be 51c1 d83c
00000350: fad6 c0be b9f6 f0be 5635 b3bc af00 1a3b
00000360: 0c0d 06be efa2 d43c a2c1 7c3c b81b e93d
00000370: 4ad8 a0be 1e85 86be 632b d63d 3e05 8dbc
00000380: fc41 333d 30ea 2b3e 0211 9ebe 4a4b 003e
00000390: 8f65 31bd 3e70 553e 5b29 5abe dd05 433d
000003a0: 3c3d 84be 13aa 2cbd cbe9 c13e 3a33 2d3e
000003b0: f686 2abf 8e9a 023e 4675 ff3d 1009 1e3e
000003c0: 6207 a33d c4f1 173e 7140 66be 8f46 2fbe
000003d0: 3022 61be 7540 ef3d 49cf 493e 8162 163e
000003e0: e3ae 7cbd 27fa ca3e c7a8 a43d 2a91 10be
000003f0: 6bec 333e e84c 2f3e d4e5 b23e bb82 9e3d

weight f4 [64, 113]
-8.204138e-05 -0.058867667 0.080382645 -0.049610484 0.090963766 0.1309911 -0.08496969 0.086053796
0.01273335 -0.034671396 -0.09978766 -0.020249028 -0.013015496 -0.0309091 0.11735119 0.019160466
0.04647194 0.06780795 -0.021480594 -0.024103861 -0.03039313 -0.061565097 0.01121979 -0.006292032
0.0022963434 0.013962479 0.008854576 0.063376136 0.08111717 -0.009219233 0.038969345 0.012331243
0.0089038955 0.011027605 0.010853007 0.053752262 -0.023719694 0.008499742 0.15731432 -0.076424055
-0.06609312 -0.06788564 2.0515168e-05 -0.0039298846 -0.025501788 0.064229414 -0.056038205 0.05055072
0.00022795952 -0.056210607 -0.072005734 0.012395036 -0.012588941 0.020581054 -0.05053085 0.0013718447
-0.063344 0.009314854 0.016090296 0.006613507 0.052362107 -0.016252391 -0.006180031 0.01866178
0.007831183 -0.018587383 0.020968568 -0.014511813 -0.009032646 0.014896295 -0.010989858 0.06022973
-0.053036213 0.01138252 0.042257614 -0.058210034 0.13006268 0.019055624 0.032566443 0.13712372
-0.06295168 0.000961042 0.012846912 0.0370407 -0.014379246 0.013771978 -0.007349288 -0.05764371
-0.05992874 0.0013809868 0.05126018 0.040873017 0.07413885 -0.072215974 -0.06533773 -0.03721889
-0.03320403 0.009196514 0.050942678 0.026154604 -0.069407895 -0.027908014 0.027549135 -0.07160964
0.04279893 0.035489228 0.03283799 -0.01660738 0.022510925 0.027647775 -0.012449322 0.056462757
-0.008904188 -0.032803107 0.0009589684 -0.03476588 -0.03874139 0.047911737 -0.047451343 0.10995289
-0.043454748 -0.120437145 -0.022109292 0.010229869 -0.008853601 -0.027112592 0.07719576 0.066225424
-0.0017950331 -0.041486047 -0.03731092 -0.059491377 0.011267691 0.007822181 -0.05771825 0.007229743
0.018658573 -0.005596365 0.059459917 0.10147772 0.019278564 -0.14995845 0.053602558 0.08575985
-0.014767958 0.03385842 0.073881134 -0.029302653 -0.035055056 -0.021116816 0.087632656 -0.021148091
0.022600379 -0.038317863 0.16519226 -0.038571026 0.04209271 0.0046027456 -0.012987497 -0.021147437
0.032612305 -0.008980685 0.03952394 0.008737888 0.13664663 0.027143814 -0.09050914 -0.009914567
-0.072084635 0.16946991 -0.20501678 0.042035494 -0.04251406 -0.0028266597 -0.011047179 -0.02030986
0.06990669 -0.023652257 -0.035767246 -0.009588758 0.016561372 -0.010030676 0.03809074 0.002935549
0.039321773 -0.029965155 0.070063375 -0.0057068323 -0.076648034 -0.13881297 0.0086392155 -0.015268554
-0.16066004 0.1437286 -0.10854092 -0.10197353 -0.077652864 -0.05507733 -0.039705932 0.0014431276
0.036630265 0.05492146 -0.014753285 -0.004315412 0.03655944 0.005912098 -0.030805027 0.05175379
0.023433998 0.00064900727 0.057209212 -0.043684 -0.017781084 0.010696183 0.05931447 -0.047612753
0.042956613 -0.05091309 -0.05720029 0.0055171405 0.002435331 0.046349227 -0.01126621 0.019777497
-0.015998295 -0.057012085 0.02382303 0.009849093 -0.17181812 0.049465228 0.27125046 -0.07719816
-0.18310341 -0.037821367 0.07119285 -0.11770645 -0.054486252 -0.06123331 0.10530084 -0.031536214
0.12183249 0.1850664 0.0032508844 -0.11290665 0.06079781 -0.0018662281 0.00058883755 -0.0069277976
0.018410813 -0.0010269585 -0.014556766 0.09228352 0.0026007432 -0.04478048 0.06290342 0.09692789
00000000: a10d acb8 391f 71bd a89f a43d 5d34 4bbd
00000010: 364b ba3d 8822 063e 9704 aebd f93c b03d
00000020: 8a9f 503c 9803 0ebd 795d ccbd 4ae1 a5bc
00000030: f23e 55bc 1535 fdbc d255 f03d 69f6 9c3c
00000040: 5c59 3e3d e5de 8a3d 12f8 afbc 7675 c5bc
00000050: 03fb f8bc af2b 7cbd 36d3 373c 642d cebb
00000060: 407e 163b e2c2 643c c912 113c 59cb 813d
00000070: c220 a63d 440c 17bc 529e 1f3d fb08 4a3c
00000080: a5e1 113c 21ad 343c d0d0 313c 552b 5c3d
00000090: ce4f c2bc 8042 0b3c 0117 213e 3784 9cbd
000000a0: d45b 87bd a007 8bbd fd17 ac37 43c6 80bb
000000b0: 20e9 d0bc b68a 833d 5188 65bd 460e 4f3d
000000c0: 6b08 6f39 183d 66bd be77 93bd 8d14 4b3c
000000d0: d841 4ebc 9999 a83c 70f9 4ebd 78cf b33a
000000e0: 80ba 81bd 549d 183c cccf 833c 1eb6 d83b
000000f0: a679 563d bc23 85bc dc81 cabb 97e0 983c
00000100: 5d4e 003c 9144 98bc 46c6 ab3c f5c2 6dbc
00000110: aafd 13bc 970f 743c ce0e 34bc 73b3 763d
00000120: 803c 59bd c07d 3a3c 5216 2d3d a56d 6ebd
00000130: 272f 053e 8a1a 9c3c 6464 053d 296a 0c3e
00000140: cfec 80bd 70ee 7b3a db7b 523c fdb7 173d
00000150: ee96 6bbc dda3 613c 4cd2 f0bb d01b 6cbd
00000160: d777 75bd 3a02 b53a 32f6 513d 776a 273d
00000170: 1cd6 973d f8e5 93bd cacf 85bd d672 18bd
00000180: f300 08bd faac 163c 45a9 503d 2e42 d63c
00000190: ba25 8ebd 599f e4bc b9ae e13c 13a8 92bd
000001a0: ee4d 2f3d 275d 113d 2181 063d 330c 88bc
000001b0: d568 b83c 967d e23c 3ef8 4bbc 7e45 673d
000001c0: dfe2 11bc 8d5c 06bd 4863 7b3a ab66 0ebd
000001d0: 4baf 1ebd 193f 443d 575c 42bd fb2e e13d
000001e0: 9bfd 31bd c0a7 f6bd 8c1e b5bc 2e9b 273c
000001f0: b20e 11bc 3a1b debc d018 9e3d 32a1 873d
00000200: 5147 ebba 46ed 29bd 56d3 18bd 3bad 73bd
00000210: 1f9c 383c 9b28 003c f969 6cbd 7be7 ec3b
00000220: ddd9 983c b661 b7bb 3e8c 733d 8dd3 cf3d
00000230: 14ee 9d3c b58e 19be 5b8e 5b3d dca2 af3d
00000240: 4ef5 71bc 20af 0a3d fe4e 973d 1e0c f0bc
00000250: e495 0fbd 2cfd acbc c078 b33d c33e adbc
00000260: 6e24 b93c 31f3 1cbd 2928 293e a7fc 1dbd
00000270: 6869 2c3d a1d2 963b 83c9 54bc 643d adbc
00000280: 7b94 053d b923 13bc dbe3 213d 5c29 0f3c
00000290: 18ed 0b3e b45c de3c db5c b9bd b570 22bc
000002a0: 1ca1 93bd 8589 2d3e ebef 51be 692d 2c3d
000002b0: 3923 2ebd 7b3f 39bb 3aff 34bc dd60 a6bc
000002c0: 3d2b 8f3d 61c2 c1bc ad80 12bd 2b1a 1dbc
000002d0: b7ab 873c b457 24bc 0905 1c3d 5762 403b
000002e0: de0f 213d 7c79 f5bc 637d 8f3d 6100 bbbb
000002f0: a5f9 9cbd fd24 0ebe 7f8b 0d3c f528 7abc
00000300: 1184 24be 972d 133e b44a debd 80d7 d0bd
00000310: 7708 9fbd c498 61bd b0a2 22bd 5427 bd3a
00000320: 9e09 163d 53f5 603d c3b7 71bc 4d68 8dbb
00000330: 5abf 153d 46ba c13b d35a fcbc c8fb 533d
00000340: a8f8 bf3c 2422 2a3a 3554 6a3d feed 32bd
00000350: a3a9 91bc 0b3f 2f3c bbf3 723d 9705 43bd
00000360: 46f3 2f3d 3f8a 50bd da4a 6abd 21c9 b43b
00000370: 139a 1f3b b0d8 3d3d e995 38bc 6b04 a23c
00000380: db0e 83bc 8185 69bd 8428 c33c 175e 213c
00000390: 17f1 2fbe 0d9c 4a3d 57e1 8a3e 121a 9ebd
000003a0: 767f 3bbe 94ea 1abd 8fcd 913d 1410 f1bd
000003b0: fa2c 5fbd c7cf 7abd f8a7 d73d 1e2c 01bd
000003c0: 5083 f93d 0c82 3d3e ca0c 553b 9a3b e7bd
000003d0: 2007 793d 399c f4ba 385c 1a3a 9402 e3bb
000003e0: 46d2 963c 029b 86ba 807f 6ebc 24ff bc3d
000003f0: 3b71 2a3b bd6b 37bd 82d3 803d 2182 c63d

bias f4 [64]
-0.08541161 0.027894272 -0.00033342373 -0.013725647 -0.086266845 -0.12031047 -0.06905198 0.07381083
-0.09491372 0.02040541 -0.06818578 -0.12352673 -0.05277987 -0.08239274 -0.007881569 -0.07099456
-0.0029277315 -0.061602656 0.06906871 0.076562665 -0.099644214 -0.09219105 -0.037755284 0.09232966
0.055708323 0.075337045 -0.03209973 -0.115358315 -0.08378774 0.033248305 -0.06541396 0.023434881
-0.06358867 -0.037615523 0.0062398775 -0.10328676 -0.12114938 0.026421465 -0.11149493 0.07557847
-0.06430502 0.003058956 -0.05906697 0.036728926 0.017674215 -0.055242546 -0.08101078 -0.044987302
-0.11511578 -0.024343504 -0.024930874 0.020431668 0.08618918 -0.011096272 0.10226972 0.09737817
0.039730664 0.007016324 -0.0038761885 -0.08321291 0.014835264 0.12753536 -0.056261685 0.0060692453
00000000: 48ec aebd 8782 e43c 60cf aeb9 89e1 60bc
00000010: acac b0bd 5665 f6bd 206b 8dbd 222a 973d
00000020: 2062 c2bd 3f29 a73c fca4 8bbd 95fb fcbd
00000030: b42f 58bd 86bd a8bd b221 01bc 9965 91bd
00000040: 2fdf 3fbb 1153 7cbd e573 8d3d e3cc 9c3d
00000050: 4412 ccbd a9ce bcbd 49a5 1abd 5517 bd3d
00000060: 692e 643d 4f4a 9a3d 027b 03bd fb40 ecbd
00000070: e898 abbd 602f 083d c1f7 85bd 82fa bf3c
00000080: c73a 82bd bc12 1abd e377 cc3b 0288 d3bd
00000090: 2b1d f8bd d471 d83c 7457 e4bd e3c8 9a3d
000000a0: 5ab2 83bd c478 483b 35f0 71bd 1271 163d
000000b0: 84c9 903c 0246 62bd fbe8 a5bd 9b44 38bd
000000c0: d2c1 ebbd 076c c7bc d53b ccbc 5060 a73c
000000d0: f483 b03d 23cd 35bc c972 d13d 356e c73d
000000e0: 9fbc 223d 31e9 e53b a707 7ebb 886b aabd
000000f0: 9b0f 733c a198 023e a772 66bd 85e0 c63b

weight f4 [128, 120]
0.07925356 0.13560078 0.017995318 -0.067629665 0.038430206 -0.02942708 0.04647874 0.013779863
-0.0131064635 0.029033 0.034289997 0.019194046 -0.11277651 -0.008950776 -0.014031533 0.034910686
-0.05380806 0.021211252 -0.094628796 0.08179669 -0.008666966 -0.08051184 0.025658818 -0.013153713
-0.016301563 -0.061486065 0.055141933 -0.03926429 -0.12449221 -0.13008012 0.02543281 0.017377509
-0.062008064 0.033228207 -0.020174354 0.02892182 0.043818317 0.011179353 -0.029066317 0.07486215
-0.025137361 0.0060184738 -0.022320166 -0.0064822184 0.04869732 0.04159755 0.011522942 0.06235115
0.033266503 0.010203717 0.007840486 -0.04909817 0.011032419 -0.00089523784 0.032041505 0.057792824
-0.020042457 -0.01802841 -0.069335654 -0.055513974 0.03306178 -0.01775379 -0.06108761 0.092026636
-0.054976825 -0.039554253 -0.0019544894 0.04994443 0.01636944 0.0565239 0.020093013 -0.00805462
-0.0054957885 -0.100600325 -0.12795739 -0.06957384 0.008807155 0.007218569 -0.06385289 0.043979485
-0.026989257 0.046345457 0.0032251077 0.013613329 -0.043335233 0.088831484 -0.036694136 0.047451697
-0.010376606 0.047696866 -0.04132841 -0.028222304 -0.08593271 0.026459672 -0.07057084 0.050090317
0.015265924 0.02913552 0.005738142 -0.013327168 0.037151985 -0.051669855 0.014560666 -0.014373973
0.005795512 -0.015376122 -0.07062936 -0.04352695 0.06759531 0.020499213 -0.07339445 -0.013561957
-0.060813844 -0.022462113 0.12460557 0.05698935 0.00539217 -0.03054344 -0.015818447 0.0060718474
-0.11259088 -0.07384521 -0.07644191 0.022846527 0.007270912 -0.035851546 -0.02338487 -0.07834237
-0.06573776 0.028661331 0.020359598 -0.06261172 0.19179873 0.09295308 0.028460203 0.08675661
-0.04118013 0.19786733 0.12836266 -0.014804129 -0.26193166 0.07665111 -0.028527964 -0.106683925
0.022013588 -0.010796321 -0.033260312 -0.0684289 -0.1287794 0.02917061 -0.0063247588 -0.022725713
0.0759969 -0.064218335 -0.026872136 -0.007706414 -0.05252228 0.09313429 0.08666851 -0.0017884242
0.002756797 -0.21702476 0.04664752 0.14743622 0.09974572 0.06429174 0.0430082 0.020751191
-0.07030904 -0.022264855 -0.15506265 -0.049329452 0.007131205 -0.022906838 -0.024698267 -0.03789025
-0.03241523 0.07311847 -0.033522613 -0.071172275 0.057586383 0.04692479 0.03508747 0.07394247
-0.0070601134 -0.072017156 0.02236649 0.005367284 -0.05184618 -0.0682434 -0.113906085 -0.11512861
-0.089579046 0.11206651 0.05545031 0.02338911 -0.020993609 -0.036280222 -0.016974974 -0.029747395
-0.009441905 -0.06915799 -0.014573728 -0.070381254 0.04714651 -0.16885437 0.10000996 -0.026147097
0.018689489 0.05767531 -0.025777299 0.056979295 -0.06356769 0.08587445 0.06514754 -0.024391945
0.016765961 0.0134713845 0.004749092 0.10217982 0.09784061 -0.13921322 0.013000604 -0.035633855
-0.014830262 0.01990627 0.014486727 -0.12938151 0.039533563 -0.05969025 0.044087388 -0.049212866
0.016411694 0.022866735 -0.09387055 0.05257262 -0.0065093087 -0.058543444 -0.09600043 0.055638578
0.03155783 -0.029630242 0.07065848 0.00021662313 0.0010589928 0.025858536 0.010885839 -0.025509827
0.07968383 0.065359846 0.0024264602 -0.048190817 0.13417876 0.017399158 -0.097153515 -0.06732374
00000000: b14f a23d eeda 0a3e eb6a 933c 6c81 8abd
00000010: fe68 1d3d 0f11 f1bc 7e60 3e3d efc4 613c
00000020: 7ebc 56bc 9dd6 ed3c ab73 0c3d d53c 9d3c
00000030: 5ff7 e6bd 47a6 12bc 84e4 65bc 82fe 0e3d
00000040: d765 5cbd 38c3 ad3c becc c1bd 0685 a73d
00000050: e4ff 0dbc 64e3 a4bd 7132 d23c ac82 57bc
00000060: db8a 85bc d0d8 7bbd 82dc 613d 98d3 20bd
00000070: c6f5 febd b933 05be 7858 d03c 475b 8e3c
00000080: 2bfc 7dbd 4d1a 083d b044 a5bc 74ed ec3c
00000090: d67a 333d 9b29 373c 7c1c eebc 5451 993d
000000a0: deec cdbc 9e36 c53b c8d8 b6bc ca68 d4bb
000000b0: d776 473d 3162 2a3d b9ca 3c3c eb63 7f3d
000000c0: 7542 083d 7e2d 273c 6275 003c 2a1b 49bd
000000d0: 52c1 343c 65ae 6aba f43d 033d 2bb8 6c3d
000000e0: 1430 a4bc 51b0 93bc daff 8dbd 9f62 63bd
000000f0: ca6b 073d 6570 91bc 0037 7abd 7678 bc3d
00000100: 612f 61bd a403 22bd e416 00bb 8892 4c3d
00000110: 3419 863c 9b85 673d 1a9a a43c 86f7 03bc
00000120: 0416 b4bb 8b07 cebd 4307 03be bb7c 8ebd
00000130: e34b 103c bf89 ec3b 4ec5 82bd d523 343d
00000140: 9318 ddbc bcd4 3d3d 545c 533b 710a 5f3c
00000150: 4980 31bd 48ed b53d 974c 16bd b65c 423d
00000160: a402 2abc ca5d 433d fb47 29bd 7632 e7bc
00000170: 7dfd afbd f4c1 d83c 7287 90bd 812b 4d3d
00000180: ed1d 7a3c 9dad ee3c 0607 bc3b 325a 5abc
00000190: ae2c 183d c5a3 53bd dc8f 6e3c d080 6bbc
000001a0: 47e8 bd3b 21ec 7bbc 20a6 90bd 5149 32bd
000001b0: 696f 8a3d f7ed a73c d44f 96bd f832 5ebc
000001c0: f017 79bd 7702 b8bc 3531 ff3d aa6d 693d
000001d0: cdb0 b03b 3c36 fabc b095 81bc 59f6 c63b
000001e0: 0c96 e6bd 283c 97bd 938d 9cbd a428 bb3c
000001f0: d540 ee3b 12d9 12bd a091 bfbc f771 a0bd
00000200: 85a1 86bd 2bcb ea3c 2cc9 a63c 933a 80bd
00000210: e366 443e 2f5e be3d 5f25 e93c 73ad b13d
00000220: 7fac 28bd bc9d 4a3e 8071 033e 048d 72bc
00000230: e81b 86be 42fb 9c3d 7ab3 e9bc 1a7d dabd
00000240: d755 b43c 0de3 30bc f73b 08bd 7324 8cbd
00000250: bfde 03be 34f7 ee3c ec3f cfbb 462b babc
00000260: 43a4 9b3d e784 83bd f422 dcbc 1686 fcbb
00000270: 9a21 57bd 31bd be3d 437f b13d 8f69 eaba
00000280: 61ab 343b bd3b 5ebe 7811 3f3d 85f9 163e
00000290: 7c47 cc3d 63ab 833d 5e29 303d 67fe a93c
000002a0: 30fe 8fbd c964 b6bc bec8 1ebe ae0d 4abd
000002b0: e2ac e93b 1fa7 bbbc 0554 cabc cf32 1bbd
000002c0: d5c5 04bd 23bf 953d 024f 09bd c5c2 91bd
000002d0: b3df 6b3d 3534 403d e1b7 0f3d 266f 973d
000002e0: 8658 e7bb bb7d 93bd ee39 b73c 0be0 af3b
000002f0: a95c 54bd 32c3 8bbd 9847 e9bd 8cc8 ebbd
00000300: 3875 b7bd 2083 e53d dd1f 633d 859a bf3c
00000310: cafa abbc 929a 14bd 1a0f 8bbc cfb0 f3bc
00000320: 38b2 1abc b4a2 8dbd a5c6 6ebc 0c24 90bd
00000330: b31c 413d 29e8 2cbe 06d2 cc3d 7032 d6bc
00000340: b31a 993c f23c 6c3d ea2a d3bc 1f63 693d
00000350: c72f 82bd f2de af3d 136c 853d 9ed1 c7bc
00000360: c558 893c 15b7 5c3c 459e 9b3b a743 d13d
00000370: a860 c83d e98d 0ebe 7c00 553c cef4 11bd
00000380: a1fa 72bc 7912 a33c bd59 6d3c 967c 04be
00000390: f2ed 213d c37d 74bd fa94 343d 6e93 49bd
000003a0: d171 863c 0553 bb3c 343f c0bd 6356 573d
000003b0: 0a4c d5bb 40cb 6fbd e09b c4bd 47e5 633d
000003c0: c842 013d 1fbb f2bc 65b5 903d 5425 6339
000003d0: e7cd 8a3a 48d5 d33c 855a 323c fcf9 d0bc
000003e0: 4731 a33d 62db 853d 3f05 1f3b bc63 45bd
000003f0: 2866 093e ae88 8e3c 6cf8 c6bd 07e1 89bd

bias f4 [128]
0.005068372 -0.13280135 -0.0400504 0.022346156 -0.14515021 -0.012929276 0.05350728 0.05250753
-0.06772961 0.043790046 0.045450922 0.09734568 0.011590924 -0.10278445 0.05326471 0.13082553
0.08951289 0.08527245 0.059259746 0.041835446 -0.047869038 0.049104348 -0.021716805 0.100976385
0.08819648 0.069142275 0.0417653 0.016703391 0.050236896 0.12660241 0.0017159535 0.0355915
0.09706558 -0.10055072 -0.21904263 -0.103177086 -0.00770118 0.01989414 -0.106005155 0.08864346
-0.088213034 -0.11522467 0.010874804 -0.0018731845 -0.086816 0.02859526 -0.00385094 -0.022181852
-0.021955632 0.082488135 -0.036149453 0.06749273 -0.1363258 -0.040062524 -2.786172e-05 -0.030064063
0.008141571 -0.036573533 0.0026983984 0.069252625 0.07837915 -0.116211824 -0.092201814 -0.028267577
0.111448154 0.03492962 -0.13355257 -0.0047659315 0.03253105 -0.06048381 0.111493796 0.030617394
-0.027335098 -0.02872206 -0.018546313 0.10364555 0.08239615 -0.075395845 -0.026592014 0.06953106
-0.092099085 -0.11577132 0.02167867 0.09046185 0.08352454 -0.1226284 0.0396816 0.042581566
-0.10254027 -0.07543288 0.022547517 -0.08679642 0.05522108 -0.018980578 0.039396577 -0.01712905
0.08272744 0.067348495 0.14233814 -0.102021255 0.13055985 -0.10755195 -0.0085022515 0.066577636
-0.056981474 -0.16967633 -0.1254919 -0.06650611 0.10183634 0.09998888 -0.03745911 0.048579097
0.058313057 -0.002855763 -0.019117512 -0.1021113 0.025709357 -0.022359496 0.081098564 0.01826506
-0.0041142353 -0.07371324 0.07187017 -0.036222693 0.069453344 0.082389615 0.050844055 -0.107181944
00000000: 9614 a63b 14fd 07be e30b 24bd 490f b73c
00000010: 42a2 14be 50d5 53bc 732a 5b3d 2312 573d
00000020: d2b5 8abd 315d 333d bf2a 3a3d 2c5d c73d
00000030: dce7 3d3c a780 d2bd 192c 5a3d 21f7 053e
00000040: 8952 b73d 52a3 ae3d 59ba 723d a55b 2b3d
00000050: 5312 44bd a421 493d 71e7 b1bc b5cc ce3d
00000060: 5ba0 b43d 779a 8d3d 1712 2b3d 8dd5 883c
00000070: 34c5 4d3d 10a4 013e d8e9 e03a 65c8 113d
00000080: 52ca c63d 89ed cdbd b64c 60be 824e d3bd
00000090: 2e5a fcbb 09f9 a23c 3b19 d9bd b48a b53d
000000a0: 09a9 b4bd e9fa ebbd 3c2c 323c a485 f5ba
000000b0: 96cc b1bd 9b40 ea3c 0d60 7cbb b7b6 b5bc
000000c0: 4cdc b3bc 8aef a83d 7311 14bd a139 8a3d
000000d0: fe98 0bbe 9a18 24bd 97b8 e9b7 e948 f6bc
000000e0: 3964 053c 21ce 15bd 9dd7 303b 52d4 8d3d
000000f0: 3f85 a03d 7700 eebd 4ed4 bcbd 6891 e7bc
00000100: ee3e e43d 5c12 0f3d 01c2 08be 882b 9cbb
00000110: 473f 053d dfbd 77bd dc56 e43d 54d1 fa3c
00000120: dbed dfbc 874a ebbc 70ee 97bc 1e44 d43d
00000130: 50bf a83d 2369 9abd 7fd7 d9bc 4d66 8e3d
00000140: 729e bcbd 8419 edbd 7797 b13c 1044 b93d
00000150: ea0e ab3d 9924 fbbd 2c89 223d 026a 2e3d
00000160: a200 d2bd 8e7c 9abd 92b5 b83c 52c2 b1bd
00000170: 802f 623d 287d 9bbc 4e5e 213d 3952 8cbc
00000180: 016d a93d 02ee 893d 17c1 113e 85f0 d0bd
00000190: 7bb1 053e 3244 dcbd 074d 0bbc db59 883d
000001a0: 6865 69bd a2bf 2dbe f380 00be 5b34 88bd
000001b0: 928f d03d f8c6 cc3d b96e 19bd e0fa 463d
000001c0: acd9 6e3d c127 3bbb 549c 9cbc bb1f d1bd
000001d0: 6e9c d23c 432b b7bc 0117 a63d 9ba0 953c
000001e0: b5d0 86bb f8f6 96bd ab30 933d 3f5e 14bd
000001f0: 8e3d 8e3d e3bb a83d db41 503d 3582 dbbd

weight f4 [64, 128]
0.0231062 -0.079914264 -0.031962235 0.038243685 -0.069101945 0.106763214 -0.013456994 0.022087192
-0.074380785 0.03873505 0.040877234 0.041692548 -0.04946064 -0.12037763 0.02458586 0.030755397
0.012222331 -0.01917252 0.08046765 0.009823655 -0.085830145 0.07109375 0.013568163 -0.02425169
0.015678808 0.05254256 -0.036008697 0.06804921 0.05252457 0.04614889 0.07765359 0.010400839
0.079905786 -0.13792363 -0.18378769 -0.08982057 0.005793016 -0.018811123 -0.16969042 0.043496646
-0.14467914 -0.1087866 0.05594901 -0.0035815032 -0.07852394 0.083739325 -0.10701466 -0.012154936
-0.042276878 -0.007801355 0.010770329 0.083878934 -0.15980826 0.018301863 0.014821701 -0.07420458
-0.0013784782 0.020783309 -0.013226788 -0.030535253 0.05547418 -0.10866676 -0.08949308 0.099135965
0.018638482 0.09763475 -0.18149064 0.0056575234 -0.018302433 -0.13041018 0.02181216 0.062980704
-0.015283091 -0.12335794 0.05657886 -0.021660252 -0.016311524 -0.10932521 0.051104 0.043706775
-0.17043647 -0.0791561 0.03565203 0.012696994 -0.02050678 -0.11440096 0.052891828 0.03354084
0.07009478 -0.069017075 0.0028870117 -0.07198826 -0.014912552 -0.036554296 0.0630339 0.035853397
-0.03732937 0.06439821 -0.025169162 -0.07498709 0.09530241 -0.14848025 -0.0079424335 -0.035058983
-0.12846799 -0.20957796 -0.028919607 -0.013385479 0.04751397 0.008347244 -0.106659174 0.010331079
0.027216947 0.011277409 0.043594636 -0.07985394 0.05666532 -0.020819735 -0.023328045 0.013651458
0.10020333 -0.046387326 -0.015162126 0.044917427 0.0879874 0.04657731 0.013575901 -0.13314314
-0.014319949 0.010114974 -0.006361262 -0.011952884 0.004345448 -0.0064982334 -0.0619423 -0.07307423
0.0030435119 -0.08572986 -0.01862213 0.004330154 0.017169384 0.0040457468 0.0062309494 -0.048048284
0.009250287 0.0005718426 0.0504968 -0.07091878 0.0025796834 -0.0023361754 -0.04160594 -0.051634897
-0.06409246 -0.011874485 -0.070045084 -0.009077122 0.019649975 -0.09530848 -0.011202502 0.011088305
-0.020841291 -0.038372952 0.07032725 -0.0018543833 -0.033301402 0.019363647 0.020391703 -0.027256824
-0.013370861 -0.014801465 -0.01677541 0.03328981 0.0018769236 -0.07923178 0.009985806 0.016859395
-0.031092199 -0.0051212967 0.020312157 -0.008605411 0.05953741 0.013513698 -0.04087706 0.012906048
-0.023605987 0.0016167429 0.0069485307 0.0043709134 -0.06472416 -0.02832162 -0.0010491009 -0.04068822
-0.0377939 -0.050094016 -0.0022067549 -0.033985898 -0.030839888 0.0119494675 -0.055973742 -0.0001964396
-0.056008946 0.01826064 -0.03155366 -0.044389177 -0.053135566 0.031576756 -0.01782436 -0.071882725
0.022754813 -0.020247363 -0.020894235 -0.027288124 -0.01940647 0.017174162 -0.012125059 -0.016486825
-0.0022563683 -0.009747244 -0.009379963 0.046448674 0.012296872 0.020275092 -0.044598754 -0.0024543765
-0.03926417 -0.0019240563 -0.031410765 0.0005504225 0.00937982 0.003068356 -0.10300785 -0.04432731
0.0014998718 0.043093294 0.013602491 0.00873025 -0.008317689 -0.06003111 -0.00037474238 -0.07203235
-0.0009058677 -0.05634441 0.027194157 0.015956055 -0.012349174 -0.056851845 -0.012054532 -0.020686217
-0.06753906 0.027336597 -0.07508691 -0.008398488 -0.035902347 -0.027679347 -0.065488406 -0.0050155935
00000000: 3749 bd3c 17aa a3bd d5ea 02bd 69a5 1c3d
00000010: 5285 8dbd aca6 da3d b97a 5cbc 33f0 b43c
00000020: f454 98bd a5a8 1e3d e36e 273d cec5 2a3d
00000030: 3d97 4abd 8c88 f6bd 4968 c93c bef2 fb3c
00000040: 2c40 483c b00f 9dbc 39cc a43d 65f3 203c
00000050: b7c7 afbd 9a99 913d 004d 5e3c 7bab c6bc
00000060: d870 803c de36 573d db7d 13bd 625d 8b3d
00000070: 0124 573d 9e06 3d3d d808 9f3d 4868 2a3c
00000080: a5a5 a33d da3b 0dbe d732 3cbe d9f3 b7bd
00000090: 57d3 bd3b c919 9abc 53c3 2dbe 8a29 323d
000000a0: c526 14be 82cb debd ca2a 653d a7b7 6abb
000000b0: 29d1 a0bd 867f ab3d 812a dbbd 7f25 47bc
000000c0: 852a 2dbd 82a2 ffbb 0976 303c b8c8 ab3d
000000d0: c7a4 23be caed 953c b8d6 723c 92f8 97bd
000000e0: 0eae b4ba c241 aa3c 2bb5 58bc 1125 fabc
000000f0: e538 633d ae8c debd 2648 b7bd cc07 cb3d
00000100: bbaf 983c baf4 c73d afd8 39be bf62 b93b
00000110: fcee 95bc 3f8a 05be 6aaf b23c 07fc 803d
00000120: ee65 7abc 16a3 fcbd 3cbf 673d d770 b1bc
00000130: bf9f 85bc e5e5 dfbd 6e52 513d e005 333d
00000140: e686 2ebe 981c a2bd dd07 123d 0d07 503c
00000150: d6fd a7bc 0d4b eabd 1aa5 583d 1f62 093d
00000160: da8d 8f3d d358 8dbd 0534 3d3b 956e 93bd
00000170: c753 74bc f5b9 15bd eb17 813d 03db 123d
00000180: aee6 18bd 35e3 833d 8f2f cebc d592 99bd
00000190: e92d c33d 350b 18be fb20 02bc 029a 0fbd
000001a0: 1d8d 03be 9b9b 56be d0e8 ecbc c54e 5bbc
000001b0: 029e 423d e1c2 083c 2070 dabd b043 293c
000001c0: 13f6 de3c e2c4 383c 4a90 323d 768a a3bd
000001d0: e519 683d 268e aabc 751a bfbc 5daa 5f3c
000001e0: 6737 cd3d a300 3ebd 916a 78bc 56fb 373d
000001f0: bd32 b43d d9c7 3e3d 756d 5e3c ad56 08be
00000200: 389e 6abc 47b9 253c 2272 d0bb 07d6 43bc
00000210: 4364 8e3b 22ef d4bb 36b7 7dbd f1a7 95bd
00000220: a875 473b 2393 afbd 708d 98bc f7e3 8d3b
00000230: cfa6 8c3c 2f92 843b fe2c cc3b 47ce 44bd
00000240: 848e 173c b5e7 153a bcd5 4e3d de3d 91bd
00000250: e80f 293b 851a 19bb fd6a 2abd 1d7f 53bd
00000260: e842 83bd 338d 42bc cc73 8fbd 36b8 14bc
00000270: fcf8 a03c 1831 c3bd b38a 37bc b9ab 353c
00000280: 5bbb aabc f52c 1dbd bc07 903d c70e f3ba
00000290: 0d67 08bd 83a0 9e3c 800c a73c b449 dfbc
000002a0: 7511 5bbc d881 72bc 966c 89bc e55a 083d
000002b0: 1b03 f63a 4544 a2bd 829b 233c b71c 8a3c
000002c0: 11b5 febc 8dd0 a7bb ae65 a63c b6fd 0cbc
000002d0: 80dd 733d 8f68 5d3c b46e 27bd e473 533c
000002e0: 5861 c1bc e4e8 d33a 80b0 e33b e139 8f3b
000002f0: 1a8e 84bd be02 e8bc fc81 89ba b1a8 26bd
00000300: c7cd 1abd 622f 4dbd 349f 10bb cc34 0bbd
00000310: efa3 fcbc b3c7 433c b944 65bd 5bfb 4db9
00000320: a369 65bd 5697 953c 693e 01bd 6dd1 35bd
00000330: aea4 59bd a156 013d 6404 92bc 4037 93bd
00000340: 4d68 ba3c ccdd a5bc 632a abbc 588b dfbc
00000350: 51fa 9ebc d4b0 8c3c 2fa8 46bc 610f 87bc
00000360: 94df 13bb e8b2 1fbc 6bae 19bc f740 3e3d
00000370: d278 493c f317 a63c 2fad 36bd 9bd9 20bb
00000380: 77d3 20bd 9e30 fcba 93a8 00bd 3b4a 103a
00000390: d1ad 193c 7916 493b c8f5 d2bd 8e90 35bd
000003a0: 5997 c43a 9882 303d fbdc 5e3c 5309 0f3c
000003b0: eb46 08bc 2ee3 75bd 1279 c4b9 b285 93bd
000003c0: c177 6dba 65c9 66bd 48c6 de3c 46b6 823c
000003d0: 3154 4abc 7bdd 68bd 5f80 45bc 2476 a9bc
000003e0: eb51 8abd 00f1 df3c 2ac7 99bd d099 09bc
000003f0: 570e 13bd ccbf e2bc c91e 86bd d959 a4bb

bias f4 [64]
0.123396374 -0.012453518 0.023697412 -0.009421905 0.10814079 -0.03519799 -0.08262882 -0.04671858
-0.11985148 -0.043519277 0.08202098 0.09025971 0.121636674 -0.008855841 -0.056949105 0.15692702
0.1596178 -0.006649333 0.14471461 0.07206759 0.14066032 -0.082789354 -0.08440613 -0.05273499
0.12871563 -0.10446428 0.11526286 -0.058198832 0.14049087 0.074783854 -0.075956546 0.11776517
0.023101293 0.081883 -0.07898611 -0.048216958 0.02392955 0.07191678 0.15546112 -0.041248415
0.03956345 -0.04166404 0.08003172 0.15440218 0.01825663 -0.09104363 0.108018406 -0.08208593
0.16761965 0.049073115 -0.09180392 -0.02560419 -0.08143464 0.03203618 -0.035315353 -0.062148094
-0.11629708 -0.019767847 -0.08201324 -0.07853636 0.031028239 0.021935783 0.03715193 0.037201654
00000000: 3db7 fc3d d709 4cbc 1321 c23c 555e 1abc
00000010: eb78 dd3d c42b 10bd 4c39 a9bd fb5b 3fbd
00000020: b174 f5bd 4541 32bd 9efa a73d 15da b83d
00000030: a61c f93d 1718 11bc 7743 69bd 7ab1 203e
00000040: d972 233e a6e2 d9bb 1130 143e 2c98 933d
00000050: 4209 103e 778d a9bd 1fdd acbd a500 58bd
00000060: 08ce 033e 5ef1 d5bd ef0e ec3d e661 6ebd
00000070: d7dc 0f3e 4728 993d 1b8f 9bbd de2e f13d
00000080: ec3e bd3c 46b2 a73d 78c3 a1bd 257f 45bd
00000090: e707 c43c 1b49 933d 3331 1f3e 19f4 28bd
000000a0: 490d 223d eaa7 2abd ace7 a33d 9b1b 1e3e
000000b0: ee8e 953c 1575 babd c138 dd3d ab1c a8bd
000000c0: 7ca4 2b3e e400 493d b203 bcbd e1bf d1bc
000000d0: 34c7 a6bd 5f38 033d d5a6 10bd 008f 7ebd
000000e0: 2a2d eebd 2ef0 a1bc 8ff6 a7bd acd7 a0bd
000000f0: ef2e fe3c acb2 b33c 9f2c 183d c360 183d

weight f4 [1, 64]
-0.09384544 0.20630595 -0.08100576 0.24068384 -0.07876347 0.2736385 0.14451784 0.20379356
0.25605938 0.2639456 -0.083589554 -0.07306096 -0.09236732 0.1774489 0.2313278 -0.089911394
-0.0720448 -0.10537628 -0.12255632 -0.08174288 -0.10479992 0.26411664 0.26707998 0.2444363
-0.080514215 0.24206239 -0.065651886 0.24541186 -0.111927494 -0.08721365 0.22655915 -0.06757386
0.25132453 -0.10003562 0.17597617 0.23700713 -0.09287159 -0.09585106 -0.075244345 0.25846267
0.27030668 0.2562319 -0.117298014 -0.11650402 0.07856044 0.23295914 -0.10288893 0.21263568
-0.0895575 -0.06461123 0.08218841 0.23534894 0.22520146 0.21665126 0.25820222 0.1813963
0.22699206 0.15906234 0.16730732 0.18010508 -0.080208525 0.18121515 -0.09090261 -0.07863559
00000000: 0a32 c0bd de41 533e 59e6 a5bd d375 763e
00000010: be4e a1bd 581a 8c3e 7cfc 133e 42af 503e
00000020: 371a 833e e123 873e 0031 abbd fca0 95bd
00000030: 142b bdbd 2ab5 353e 32e1 6c3e 7723 b8bd
00000040: 398c 93bd 85cf d7bd cffe fabd d068 a7bd
00000050: 57a1 d6bd 4c3a 873e b5be 883e 824d 7a3e
00000060: a3e4 a4bd 34df 773e 7f74 86bd 3f4d 7b3e
00000070: 3e3a e5bd 129d b2bd 1fff 673e 2a64 8abd
00000080: 9cad 803e 7adf ccbd 1933 343e ffb1 723e
00000090: 7633 bebd 8f4d c4bd b519 9abd 3855 843e
000000a0: a365 8a3e d430 833e f139 f0bd a999 eebd
000000b0: 4ce4 a03d d78c 6e3e 6eb7 d2bd 2bbd 593e
000000c0: ec69 b7bd e452 84bd 6652 a83d 50ff 703e
000000d0: 369b 663e d4d9 5d3e 1533 843e f4bf 393e
000000e0: 9b70 683e 3de1 223e 9c52 2b3e 776d 383e
000000f0: 5e44 a4bd 7790 393e 262b babd b20b a1bd
