experiments/exp_20250923_094110/models/best_model.pth (torch, 149557 bytes, 12 tensors)

embeddings.gender.embedding.weight f4 [5, 16]
1.6788152 1.6875442 0.35852236 -1.3627712 -0.4860381 -0.30978414 2.1527452 -2.5374029
-0.5640252 0.021026831 0.53848886 0.348608 -1.041619 -1.2474246 -0.9226446 0.5627829
1.0410067 0.31831574 -0.41186243 0.9653173 0.36863503 0.16644368 0.46411487 -0.9537946
0.15058401 0.04788117 0.1918858 -1.2546837 -0.091157556 -0.24041638 0.76521856 0.3408902
0.34552044 -1.0943494 -0.19644497 0.53907335 -2.0806527 -0.0076303924 0.778211 -0.18042023
-0.076811254 0.64440656 -0.5625248 -0.5021422 -0.10286618 -0.28517792 0.9330422 0.12823628
0.97115874 1.1134983 -1.5156703 0.16923404 -0.86368245 -0.40528095 0.88336337 -1.3641558
0.36790505 -0.039751936 1.5757285 0.8525075 -0.28437582 -0.096772455 -0.9112553 0.51915306
0.37730846 -0.47784397 -1.8223557 0.2890452 0.5329916 1.2653669 0.18956363 -0.3710887
2.5859835 0.8527794 -0.39409664 -0.4705543 0.21396731 -0.30795276 -0.43011904 1.0125984
00000000: 6be3 d63f 7301 d83f 3e90 b73e 496f aebf
00000010: fcd9 f8be 079c 9ebe 94c6 0940 cf64 22c0
00000020: f563 10bf 7640 ac3c 68da 093f bf7c b23e
00000030: c553 85bf 9cab 9fbf 7032 6cbf 8a12 103f
00000040: b53f 853f 48fa a23e a2df d2be 091f 773f
00000050: bbbd bc3e 3670 2a3e 77a0 ed3e e22b 74bf
00000060: b232 1a3e 0c1f 443d b67d 443e 7a99 a0bf
00000070: d0b0 babd b62f 76be 5de5 433f 2989 ae3e
00000080: 0ee8 b03e a413 8cbf df28 49be b600 0a3f
00000090: 6a29 05c0 5f08 fabb d638 473f 15c0 38be
000000a0: 384f 9dbd d4f7 243f a001 10bf 648c 00bf
000000b0: 81ab d2bd d702 92be dbdb 6e3f 5f50 033e
000000c0: dc9d 783f 1d87 8e3f 7c01 c2bf b04b 2d3e
000000d0: 4b1a 5dbf fc80 cfbe 1a24 623f a89c aebf
000000e0: 0d5e bc3e edd2 22bd 79b1 c93f ee3d 5a3f
000000f0: b599 91be a330 c6bd 0748 69bf 37e7 043f
00000100: 932e c13e f7a7 f4be f442 e9bf bcfd 933e
00000110: 2372 083f 8bf7 a13f f81c 423e 57ff bdbe
00000120: c180 2540 c04f 5a3f 09c7 c9be 7eec f0be
00000130: 3f1a 5b3e fcab 9dbe 9038 dcbe d39c 813f

embeddings.age_group.embedding.weight f4 [15, 16]
0.52090085 -0.6889332 -0.42297468 1.6859891 0.40943784 -0.8061623 -0.05935013 0.021595096
0.2547214 -0.733582 -0.3318867 0.1497863 1.0846071 0.39452443 0.7100812 1.2989175
-0.22226869 0.25216308 0.9942554 -1.608875 1.4243244 0.45602825 0.5145214 -1.26011
0.9498345 -0.8388122 0.6329005 0.90656155 -0.687126 1.1819552 0.69411683 -1.0203005
2.479807 -0.017581897 1.437586 0.9830136 -1.0128114 0.8924484 -1.1283418 -1.7304084
0.6493392 1.2098215 -2.5988483 0.0797368 -0.31487328 0.6292348 -0.08495701 -1.0783616
0.25391915 0.050720517 -1.1754735 0.40159947 0.61196685 -0.31149292 -0.8188235 -0.08685895
-0.8416124 0.40376955 0.15508115 -1.1702307 -0.49031952 1.3681499 3.3887882 -0.30974832
0.52429855 0.106714584 -0.611142 -0.53380173 -1.6878496 -0.32851216 0.9963936 1.5436454
-1.4817557 0.8105806 -0.15644604 -0.47947702 -0.7711422 0.56338066 -0.6523641 -1.0290927
0.25220114 0.21453625 1.0816125 0.09248438 -0.916976 -0.29479212 1.3011079 -0.29009688
0.6575183 0.7652265 -0.26546445 -0.3985737 -0.8281452 1.4675939 1.8154598 -0.46938303
0.68442744 -0.56996614 1.2162875 0.03930853 0.5714774 -0.72193336 -0.11811136 0.6986777
0.7063993 -1.1849542 -0.53280646 -0.7894712 -0.4258162 0.6599718 -0.24330144 0.2583298
0.94644225 -0.071648255 0.055658694 1.1737428 -1.3973247 -0.9219089 -1.1555122 -0.5804287
0.6861135 0.37692368 0.611714 -0.07115816 -0.26317418 0.28370383 -0.8789439 -0.7235506
-0.14557397 -0.8169143 0.41895837 -0.3854787 -1.1959878 -0.04621804 -1.1280917 -0.020693425
0.91479933 -1.5588937 0.054635707 0.17482544 -2.4192076 -0.6517546 0.04682528 -0.66414315
-1.5335561 -0.06856539 -3.036321 -0.25500634 -1.1634247 -0.44098878 -1.0092598 1.1906763
-0.72661805 0.19130048 -0.5371398 -1.2486942 0.10629043 1.3468443 -1.1823356 0.86621153
-0.13151802 0.89756155 1.1543767 0.18339947 -0.124498844 0.34536007 -1.6536618 1.2538227
-0.086224005 0.31295046 -1.4298741 -1.140689 0.59379303 -0.38418987 -1.2610788 -0.10326674
-1.4236857 0.7028514 0.7128303 -0.8402492 -0.066643566 -0.26214522 0.27125844 -0.62185043
0.14361623 -1.8443855 -1.2006915 0.14768015 -1.9853246 -0.1921035 1.0345923 -0.34696501
-0.07414393 0.60518587 -0.6183245 1.0846918 -0.14061554 0.02263636 1.4671462 0.2714713
1.5830041 0.9549231 -0.72327435 0.63547516 0.68021166 0.75369143 1.0066472 -0.052575164
0.076167285 -1.2123365 0.07049479 -1.1042558 -1.1065985 -1.3870149 -0.2324326 -1.5250803
2.224009 -0.15040986 0.2933786 2.0761774 -0.0400332 0.26026487 -0.16626246 0.87315625
-1.4251872 1.7261877 0.50116366 1.8191491 -1.4440279 1.0036052 0.6475445 0.5521792
0.00078343385 -0.5957534 -1.4207345 1.0705057 1.6801519 -1.0083131 0.1555795 0.44497323
00000000: c259 053f ed5d 30bf 2390 d8be 7ece d73f
00000010: d6a1 d13e a760 4ebf 1f19 73bd 33e8 b03c
00000020: d86a 823e 08cc 3bbf 0eed a9be 9461 193e
00000030: 68d4 8a3f 1bff c93e e2c7 353f ee42 a63f
00000040: 679a 63be 851b 813e 8687 7e3f 9eef cdbf
00000050: 4350 b63f 897c e93e adb7 033f 494b a1bf
00000060: 5b28 733f 65bc 56bf c405 223f 6b14 683f
00000070: 7de7 2fbf 4f4a 973f a4b1 313f 3599 82bf
00000080: 28b5 1e40 e907 90bc d102 b83f c7a6 7b3f
00000090: cea3 81bf 8077 643f 816d 90bf 067e ddbf
000000a0: 183b 263f 6edb 9a3f 8853 26c0 0c4d a33d
000000b0: 1237 a1be 8815 213f f1fd adbd c107 8abf
000000c0: b101 823e 51c0 4f3d ea75 96bf 729e cd3e
000000d0: dca9 1c3f 007c 9fbe 6b9e 51bf 1be3 b1bd
000000e0: e973 57bf e2ba ce3e 98cd 1e3e 1fca 95bf
000000f0: 290b fbbe 891f af3f e8e1 5840 5597 9ebe
00000100: 6e38 063f 2d8d da3d cd73 1cbf 3ba7 08bf
00000110: 750b d8bf bf32 a8be a713 7f3f 2c96 c53f
00000120: 2caa bdbf 3682 4f3f 6433 20be 037e f5be
00000130: 9369 45bf b739 103f 5501 27bf 4fb9 83bf
00000140: 8220 813e 64af 5b3e 4772 8a3f 7368 bd3d
00000150: f0be 6abf feee 96be b48a a63f 9487 94be
00000160: 1f53 283f e2e5 433f f5ea 87be da11 ccbe
00000170: 5301 54bf 1eda bb3f fd60 e83f f952 f0be
00000180: a336 2f3f 4de9 11bf 4faf 9b3f fb01 213d
00000190: 584c 123f a0d0 38bf 5ee4 f1bd 8bdc 323f
000001a0: 96d6 343f 94ac 97bf 0166 08bf c91a 4abf
000001b0: 9504 dabe e9f3 283f 0324 79be ce43 843e
000001c0: 0a4a 723f 52bc 92bd 5ffa 633d 343d 963f
000001d0: 89db b2bf 3902 6cbf d3e7 93bf fa96 14bf
000001e0: 22a5 2f3f 24fc c03e 4a99 1c3f 5fbb 91bd
000001f0: c4be 86be a141 913e 7802 61bf 9d3a 39bf
00000200: 5811 15be 4c21 51bf b681 d63e 775d c5be
00000210: 2116 99bf 214f 3dbd 4f65 90bf 4285 a9bc
00000220: 4a30 6a3f d489 c7bf b1c9 5f3d 7105 333e
00000230: 4cd4 1ac0 64d9 26bf ddcb 3f3d 4905 2abf
00000240: 914b c4bf 036c 8cbd 1553 42c0 3190 82be
00000250: 1aeb 94bf 48c9 e1be 6d2f 81bf 1568 983f
00000260: a403 3abf 46e4 433e fe81 09bf 36d5 9fbf
00000270: ccae d93d 6565 ac3f c656 97bf 0ac0 5d3f
00000280: a9ac 06be 98c6 653f 9ec2 933f 12cd 3b3e
00000290: 40f9 febd 09d3 b03e 31ab d3bf 437d a03f
000002a0: 3696 b0bd 0b3b a03e 1d06 b7bf 1902 92bf
000002b0: d202 183f 89b4 c4be 086b a1bf 837d d3bd
000002c0: 553b b6bf 12ee 333f 0c7c 363f 921a 57bf
000002d0: 6c7c 88bd e637 86be 63e2 8a3e 9731 1fbf
000002e0: 2210 133e d314 ecbf 42b0 99bf 7739 173e
000002f0: 1e1f febf c8b6 44be 856d 843f 66a5 b1be
00000300: c6d8 97bd 76ed 1a3f 844a 1ebf 2ed7 8a3f
00000310: 85fd 0fbe e36f b93c 72cb bb3f 49fe 8a3e
00000320: e19f ca3f d775 743f 8228 39bf 80ae 223f
00000330: 5a22 2e3f ecf1 403f d1d9 803f 0e59 57bd
00000340: 98fd 9b3d d82d 9bbf 935f 903d 4158 8dbf
00000350: 05a5 8dbf b489 b1bf d002 6ebe d535 c3bf
00000360: 2a56 0e40 0b05 1abe b835 963e 17e0 0440
00000370: daf9 23bd 7041 853e b540 2abe 2b87 5f3f
00000380: 896c b6bf b8f3 dc3f 434c 003f e1d9 e83f
00000390: e8d5 b8bf 2376 803f 7ac5 253f 9e5b 0d3f
000003a0: 5b5f 4d3a 4b83 18bf a1da b5bf 5506 893f
000003b0: 380f d73f 6710 81bf 3c50 1f3e 88d3 e33e

embeddings.inventory_id.embedding.weight f4 [50, 16]
0.5736216 0.42098963 0.28312066 0.96185243 -0.6751238 -0.73640674 2.4656117 -1.0971236
-1.3103627 -0.6249939 -0.56546617 -0.2951395 -2.123991 0.56862956 -0.13976969 -1.1103394
-0.04454517 1.387506 -0.21667378 -1.332731 -0.89091194 1.908656 0.39867496 -1.3603748
-1.2275951 0.7938694 0.4968442 -2.7049603 -1.1355047 0.42408693 1.18304 -1.0479071
-1.8355544 0.11310868 -0.15409821 0.58218414 -0.16057257 1.471838 -0.71656024 -0.29443544
-1.9127972 -0.86030954 0.016942946 -0.11249528 -0.7938691 0.53772044 -0.6001773 -0.41524675
-0.9374244 -0.69378066 1.5358886 1.4308214 1.8016871 -0.33400932 1.3054582 -0.80948544
1.2890165 2.1446111 -0.07095383 -1.3312881 -1.4298893 -0.38051307 0.42913496 -0.77496964
-0.47649676 1.1152102 0.3272232 -0.05210437 0.22962669 -0.5073559 0.3074309 0.059546478
0.9442831 0.17929834 -1.7396348 0.8238292 0.6618332 0.24676712 0.3180615 -2.9524326
-0.41393176 0.45301315 -1.8499445 -2.0223088 0.5099882 -0.3708128 0.8224799 -0.851784
0.56142074 1.9506575 1.1441193 1.3552126 0.039084077 -0.8423137 0.1613487 0.04664022
-2.0006838 2.204859 0.23225783 -0.1880375 0.714228 1.4828988 1.7477527 -0.9274322
-0.780249 -1.5229179 -0.07251139 -1.228075 1.4610277 -0.8088428 -0.16922653 0.7224064
0.7291304 1.096216 0.29256177 0.041491028 0.35653272 0.46041128 -0.32755622 -0.75366735
0.08996613 1.281691 -0.62922406 0.35216746 0.16109192 2.8007402 0.15853015 1.805046
0.7309773 -0.5867274 0.049599666 1.2371416 -0.917271 -0.9747903 0.56421334 -1.826751
0.016696002 0.112617634 0.97749954 0.6159573 -1.9367803 1.1322598 -1.2778244 -0.39373776
-0.6844316 -1.922482 0.81866753 -2.6324563 1.8793653 -0.58290434 0.41470855 0.46513772
0.8745639 -1.2326175 -0.28102544 0.9238145 -0.6823766 0.015955605 0.66019523 -0.37769592
2.053099 0.13380131 2.4356496 -0.7908189 0.9912058 -0.29104123 0.32953998 -1.2281401
0.27805677 -0.29278913 0.2204088 -0.15746325 -1.209208 0.17024766 0.7874911 -1.013252
-0.62436044 1.4453663 0.9755598 -0.43328866 1.0909548 1.8196143 -0.38103586 1.6440951
-0.76550055 -1.2042786 1.0346025 -0.8810589 0.9307092 -0.032837104 -0.2087615 -0.85228133
-0.7975101 -1.6637107 0.06354096 1.679488 0.68621767 -0.50065225 0.22513925 -0.06533578
-0.004891012 -0.20070395 1.0117145 2.285893 0.18236287 0.2357118 -0.349804 -1.7790307
-0.73977333 0.33268437 -1.1086904 0.85288 -1.001219 -0.57911444 -0.17612046 1.0368353
-0.18506792 -2.0127914 -0.6749612 -1.348848 -0.9900999 -0.69188493 -2.9576004 -0.3364173
0.17739461 0.3539063 -0.92815036 -0.37987617 1.9157695 -1.7784706 -0.10293174 -0.43274134
-0.40389618 -1.2265538 0.32567564 0.1587149 1.8363367 -1.4105192 -0.56904703 -0.9432014
2.1305647 0.3202973 0.26030272 -1.3166858 -1.5800856 0.73956925 -1.3491441 -1.2319672
1.5289084 -0.11971823 -0.7077368 1.3820622 -0.2760862 -0.54610354 -1.1637481 -0.84863484
00000000: ddd8 123f f48b d73e 31f5 903e f63b 763f
00000010: ead4 2cbf 2785 3cbf 95cc 1d40 8c6e 8cbf
00000020: f7b9 a7bf 9aff 1fbf 64c2 10bf 861c 97be
00000030: 78ef 07c0 b591 113f c91f 0fbe 9a1f 8ebf
00000040: ff74 36bd cc99 b13f bbdf 5dbe ee96 aabf
00000050: ce12 64bf d74e f43f 201f cc3e c320 aebf
00000060: d621 9dbf 063b 4b3f 5d62 fe3e 121e 2dc0
00000070: 3858 91bf ec21 d93e db6d 973f d221 86bf
00000080: 72f3 eabf 86a5 e73d eccb 1dbe 050a 153f
00000090: 236d 24be 3065 bc3f 7e70 37bf 3ec0 96be
000000a0: 8ad6 f4bf 3f3d 5cbf efcb 8a3c ed63 e6bd
000000b0: 013b 4bbf 0ca8 093f 38a5 19bf 399b d4be
000000c0: 0cfb 6fbf 9c9b 31bf ff97 c43f 2825 b73f
000000d0: af9d e63f 4503 abbe 4119 a73f 703a 4fbf
000000e0: 7efe a43f 4f41 0940 3e50 91bd a667 aabf
000000f0: 9d06 b7bf 9cd2 c2be 94b7 db3e 6964 46bf
00000100: 62f7 f3be 35bf 8e3f cd89 a73e 646b 55bd
00000110: 4223 6b3e 14e2 01bf 9567 9d3e 02e7 733d
00000120: 8abc 713f fc99 373e 5aac debf 78e6 523f
00000130: e76d 293f 85b0 7c3e f5d8 a23e a8f4 3cc0
00000140: ddee d3be 57f1 e73e fbca ecbf 826d 01c0
00000150: 968e 023f 2ddb bdbe 0b8e 523f 840e 5abf
00000160: 45b9 0f3f 25af f93f 8072 923f 9b77 ad3f
00000170: a016 203d dfa1 57bf 9838 253e d109 3f3d
00000180: 340b 00c0 691c 0d40 ffd4 6d3e e78c 40be
00000190: a5d7 363f a1cf bd3f 5cb6 df3f 326c 6dbf
000001a0: 66be 47bf f9ee c2bf da80 94bd 9031 9dbf
000001b0: f502 bb3f 5210 4fbf b849 2dbe a0ef 383f
000001c0: 4aa8 3a3f ce50 8c3f a8ca 953e 7ff2 293d
000001d0: 758b b63e 07bb eb3e 73b5 a7be 58f0 40bf
000001e0: 2a40 b83d 730e a43f d414 21bf 4b4f b43e
000001f0: 48f5 243e 543f 3340 ba55 223e bf0b e73f
00000200: 5421 3b3f c433 16bf 0529 4b3d a85a 9e3f
00000210: 46d2 6abf db8b 79bf 4970 103f fad2 e9bf
00000220: 0ec6 883c 13a4 e63d 693d 7a3f 61af 1d3f
00000230: 6be8 f7bf e4ed 903f c08f a3bf ff97 c9be
00000240: e936 2fbf e413 f6bf 3294 513f 2a7a 28c0
00000250: 0b8f f03f 3839 15bf ae54 d43e 8826 ee3e
00000260: 6be3 5f3f 69c6 9dbf 91e2 8fbe 1b7f 6c3f
00000270: 3cb0 2ebf 54b5 823c 8e02 293f 5c61 c1be
00000280: f965 0340 3603 093e afe1 1b40 1c73 4abf
00000290: aabf 7d3f 5b03 95be 77b9 a83e b233 9dbf
000002a0: 755d 8e3e 75e8 95be d8b2 613e 0c3e 21be
000002b0: 54c7 9abf 6755 2e3e 0499 493f 3eb2 81bf
000002c0: 16d6 1fbf c301 b93f 49be 793f 03d8 ddbe
000002d0: 68a4 8b3f 1fe9 e83f 2217 c3be b571 d23f
000002e0: d8f7 43bf cd25 9abf db6d 843f 138d 61bf
000002f0: f542 6e3f 3380 06bd 93c5 55be 1c2f 5abf
00000300: 9f29 4cbf 79f4 d4bf c321 823d 76f9 d63f
00000310: f6ab 2f3f bf2a 00bf e78a 663e c4ce 85bd
00000320: c844 a0bb 5685 4dbe dc7f 813f 124c 1240
00000330: 55bd 3a3e 6f5e 713e 8319 b3be 47b7 e3bf
00000340: c961 3dbf 9b55 aa3e 91e9 8dbf 5856 5a3f
00000350: f227 80bf d840 14bf ec58 34be 05b7 843f
00000360: 7282 3dbe 93d1 00c0 42ca 2cbf 0da7 acbf
00000370: 3077 7dbf 5f1f 31bf 5349 3dc0 e33e acbe
00000380: efa6 353e 3533 b53e 439b 6dbf 217f c2be
00000390: ef37 f53f eda4 e3bf e0cd d2bd 4690 ddbe
000003a0: 7bcb cebe b7ff 9cbf f5be a63e 2986 223e
000003b0: 150d eb3f e58b b4bf 11ad 11bf a675 71bf
000003c0: 2c5b 0840 02fe a33e 6646 853e 2989 a8bf
000003d0: 3f40 cabf 6954 3d3f c1b0 acbf 1ab1 9dbf
000003e0: 45b3 c33f d52e f5bd 3d2e 35bf 6ae7 b03f
000003f0: 2c5b 8dbe 71cd 0bbf b3f5 94bf 2240 59bf

embeddings.day_of_week.embedding.weight f4 [10, 16]
-0.868024 -0.76684344 0.74993294 -0.18378341 0.48215136 0.7693899 -0.16870816 0.08003496
0.016481139 1.5151209 0.022469902 -1.1611458 -0.600548 0.063866325 -0.37541875 0.18610089
0.8150008 -1.1574622 0.38332906 1.1401799 -0.23189363 0.51782453 -0.25824982 -0.9665595
-0.11135254 0.6417003 0.982449 -0.5424669 -1.0201043 0.3729189 -1.0792643 -0.6731921
-0.6115509 -0.19835344 -0.37356314 0.08440651 0.53147155 0.6954282 0.30531207 -2.1963317
-0.37753615 -0.016733892 -0.13295425 -0.12622124 -1.0981919 -0.15532015 -0.2680974 -0.46093506
-0.8207114 -1.2511917 -1.3156854 0.7840808 0.4284518 -0.21491167 -0.2871504 -0.26957145
-0.014935671 0.71774304 -0.46673825 0.82953954 -0.44354624 -0.49175695 -0.8691507 -0.30143532
0.71980196 -1.3281802 -0.45078593 -0.2951687 1.367856 -0.03517297 0.51299083 -0.6557323
-0.019466234 -0.24188317 -0.7205235 -0.27611 -0.2732597 -0.47403526 -0.5486999 -0.9772755
1.3435448 -0.09643702 0.13713899 0.06299522 2.726955 -0.21784154 0.24463712 -1.7138057
0.7495596 -0.04646554 1.3544441 1.129203 0.28451553 -0.46781245 0.1923614 0.4542625
-1.3685405 -0.84904635 1.2636242 -0.12999266 1.0911279 0.87609434 0.2930751 0.70419604
-0.82277 -1.4903073 -0.15390684 -0.5194755 0.09726969 -0.39948612 -0.6657371 0.2287951
0.23571734 0.23695664 0.9588607 -0.7159727 -0.040657423 0.059346918 1.300592 -0.8472783
-1.7389252 -1.5598596 -1.0638028 -0.762311 -1.1977867 1.1958007 1.0317221 0.7413051
0.6640591 1.3566437 0.06412093 0.7283807 -1.3845537 0.0012254996 2.4402807 0.12935969
-0.77714133 -0.07757543 -1.07065 1.704856 1.6724093 0.71761054 -0.65515536 -0.025160236
1.2328044 0.0520384 -0.88286793 0.9896179 1.13044 1.0685719 -0.110205136 -0.3021628
-0.15208198 -0.9750661 0.7387323 -1.3361943 0.565637 1.1440114 0.48675874 0.3426524
00000000: d236 5ebf da4f 44bf 9bfb 3f3f b831 3cbe
00000010: 8bdc f63e bdf6 443f d5c1 2cbe 5ee9 a33d
00000020: 7403 873c 7bef c13f cd12 b83c 6da0 94bf
00000030: 84bd 19bf 59cc 823d e336 c0be 3b91 3e3e
00000040: e4a3 503f b927 94bf b543 c43e 6af1 913f
00000050: 8675 6dbe 2690 043f 5239 84be 7270 77bf
00000060: cd0c e4bd 7946 243f c781 7b3f 1cdf 0abf
00000070: c792 82bf 3aef be3e 5525 8abf 5156 2cbf
00000080: 9a8e 1cbf 2a1d 4bbe ab43 bfbe 52dd ac3d
00000090: 850e 083f 9507 323f dd51 9c3e b390 0cc0
000000a0: 6b4c c1be 8415 89bc 2925 08be 2440 01be
000000b0: 8d91 8cbf 3f0c 1fbe 1044 89be aeff ebbe
000000c0: 241a 52bf 0d27 a0bf 6168 a8bf 85b9 483f
000000d0: 095e db3e ce11 5cbe 6105 93be 4505 8abe
000000e0: bfb4 74bc 02be 373f 51f8 eebe b45c 543f
000000f0: 7e18 e3be 91c7 fbbe a980 5ebf bb55 9abe
00000100: f144 383f cf01 aabf 6acd e6be 5a20 97be
00000110: e815 af3f 8811 10bd 5e53 033f 12de 27bf
00000120: a777 9fbc 39b0 77be 3a74 38bf 4a5e 8dbe
00000130: b2e8 8bbe c0b4 f2be 9977 0cbf ba2e 7abf
00000140: 47f9 ab3f c680 c5bd 2a6e 0c3e a303 813d
00000150: 6e86 2e40 da11 5fbe 2782 7a3e fc5d dbbf
00000160: 23e3 3f3f a652 3ebd 6d5e ad3f b989 903f
00000170: 05ac 913e 1d85 efbe 63fa 443e 1895 e83e
00000180: 562c afbf 1a5b 59bf 70be a13f cc1c 05be
00000190: 14aa 8b3f b847 603f f10d 963e 3146 343f
000001a0: 0ea1 52bf 64c2 bebf c199 1dbe 59fc 04bf
000001b0: 5535 c73d 7289 ccbe bf6d 2abf 4349 6a3e
000001c0: e35f 713e c3a4 723e e577 753f fd49 37bf
000001d0: 6688 26bd c115 733d cc79 a63f 3be7 58bf
000001e0: 1a95 debf 7ba9 c7bf b12a 88bf d026 43bf
000001f0: 1351 99bf ff0f 993f 780f 843f 2cc6 3d3f
00000200: c7ff 293f 80a6 ad3f d651 833d 2877 3a3f
00000210: 0e39 b1bf f1a0 a03a 8f2d 1c40 de76 043e
00000220: bcf2 46bf dedf 9ebd 0f0b 89bf b938 da3f
00000230: 8211 d63f 53b5 373f 43b8 27bf d71c cebc
00000240: 89cc 9d3f 3826 553d a203 62bf 9957 7d3f
00000250: 42b2 903f f7c6 883f 3bb3 e1bd 15b5 9abe
00000260: 61bb 1bbe ef9d 79bf 8f1d 3d3f 6a08 abbf
00000270: 96cd 103f f76e 923f 7138 f93e 2370 af3e

embeddings.hour.embedding.weight f4 [30, 16]
0.2908571 -1.5275536 -0.52999973 -1.4225831 -1.4132515 -1.5109793 -0.34325856 0.06839166
0.23303886 -0.15904461 1.3912317 0.28952485 1.1117301 -0.11722515 -0.1403048 -2.288829
0.21270788 1.2783526 0.6834127 -1.8506933 -1.3230381 -0.1586435 -0.01613087 0.9061044
-0.9608447 1.0414685 0.9018384 -0.3941569 0.8019502 1.7179201 -0.120420225 -0.57632226
0.13728657 -0.29501492 1.7340652 0.2998014 -0.56779414 0.79286283 -0.10763462 0.54881257
-1.7084073 1.135785 -0.40603143 0.52527744 -0.12612624 -0.5699871 -0.68001306 -1.775624
1.4082867 0.7483968 1.1724762 1.1754826 0.37924078 0.09529078 -0.74687546 0.80681664
-0.6364486 -0.41938424 -0.7368653 -0.68471074 1.4091206 0.036006533 -1.0149852 -1.9480493
0.42920628 -0.31490532 0.6556009 -1.2889005 -1.798328 1.7539274 0.15946467 -0.24516332
-1.8501089 0.24621153 0.011135544 -0.8155578 1.1015674 -1.9612156 -0.31954122 -0.011703734
0.1562845 0.18285027 1.9854379 0.9906708 -1.1749415 -0.11537531 0.19156553 -1.7128416
-0.45165777 -0.14490035 0.47387892 0.67568624 0.122707404 -0.96343654 0.44898224 -1.4499851
-0.5484148 -0.16708012 -1.0135363 0.13298668 -1.163973 -0.815235 0.3597069 -0.47643745
-1.8915166 1.2518098 0.24028511 -0.8349424 2.2100315 1.8823956 0.23517513 0.5662214
-1.1414263 -0.44350696 1.3491012 0.3789617 0.09990696 0.25519234 0.86568046 -0.25261834
-0.7295949 0.9303111 -0.6035106 -1.3757716 1.5537319 -1.0889127 0.09385649 -0.075207755
-1.3360137 -0.21397732 1.1739898 -0.89073366 0.26770553 -0.3738966 1.5161391 -0.41286868
0.027907155 1.1831416 -0.8138678 0.39826396 0.3245974 0.2113773 -0.36373106 1.6269522
-1.3785454 1.3008891 0.22912231 -2.3062773 -0.63599527 -0.6088767 -0.5241816 -0.045965794
1.3928442 -0.4834182 -0.03978674 -0.6037139 -0.953454 -1.0855328 -0.30714196 -0.30950975
-0.23034294 1.6147035 -0.5864612 -1.2909576 -0.029768528 -0.2908974 -1.2019099 -0.55012506
-2.8388052 -0.5181727 1.4932213 -1.4915833 -1.5178839 -0.9135758 0.91950375 -0.8418206
-0.6144741 -0.91221136 1.2172662 1.6610779 -0.11628101 -0.7959498 0.8237157 1.6230307
0.5323599 1.8277981 0.6344468 -0.8547024 -0.27660823 0.7265016 -0.84716547 1.1779916
0.24015489 0.022314105 0.40040478 0.55713564 -0.64414203 -0.8042225 -0.694877 -0.8228451
0.59166545 0.2701971 0.545635 -0.8385554 -0.5368623 -1.51536 0.36397454 0.9183253
-0.60681164 0.7468882 0.7044815 -0.9822896 0.46989778 1.2621158 -0.3457652 -0.7998693
0.72117555 -1.0333956 1.4510813 -1.3034278 0.37551346 1.1329342 0.60973144 0.11946442
-0.4021911 1.2482337 0.7313038 0.9277068 0.6465194 0.67084557 0.38084736 -0.7880166
1.3994198 0.38375077 2.9117012 -0.057445124 -0.0739772 2.232234 0.40295556 -0.395416
0.52163595 0.980044 -0.983984 0.6959085 -0.99180543 0.16786909 -0.21791486 -0.3552784
2.3939755 0.5885098 0.20753267 -0.19043367 -0.7698695 -0.02806685 -0.7324161 0.29778314
00000000: 39eb 943e e086 c3bf 10ae 07bf 3417 b6bf
00000010: 6de5 b4bf c567 c1bf 96bf afbe ed10 8c3d
00000020: bda1 6e3e 97dc 22be e113 b23f 9a3c 943e
00000030: 2c4d 8e3f bd13 f0bd 10ac 0fbe 2d7c 12c0
00000040: 18d0 593e 0fa1 a33f 22f4 2e3f 85e3 ecbf
00000050: 5059 a9bf 7173 22be e324 84bc 75f6 673f
00000060: ebf9 75bf d74e 853f e2de 663f efce c9be
00000070: 9c4c 4d3f cee4 db3f e19e f6bd db89 13bf
00000080: da94 0c3e 320c 97be d9f5 dd3f 927f 993e
00000090: f55a 11bf 0ff9 4a3f 8a6f dcbd fb7e 0c3f
000000a0: 17ad dabf 6761 913f 5ae3 cfbe 9578 063f
000000b0: 3d27 01be adea 11bf 5615 2ebf a647 e3bf
000000c0: bd42 b43f ef96 3f3f b313 963f 3776 963f
000000d0: d92b c23e d027 c33d 3b33 3fbf 898b 4e3f
000000e0: 4cee 22bf 88b9 d6be 34a3 3cbf 3449 2fbf
000000f0: 105e b43f 967b 133d 09eb 81bf ae59 f9bf
00000100: edc0 db3e 453b a1be 76d5 273f b1fa a4bf
00000110: 9d2f e6bf b180 e03f b54a 233e 180c 7bbe
00000120: 5ed0 ecbf e01e 7c3e db71 363c 65c8 50bf
00000130: 2900 8d3f 1d09 fbbf e89a a3be 05c1 3fbc
00000140: 0b09 203e 1a3d 3b3e d422 fe3f 9a9c 7d3f
00000150: 7c64 96bf e449 ecbd c129 443e 653e dbbf
00000160: b03f e7be c260 14be 42a0 f23e c6f9 2c3f
00000170: 054e fb3d c7a3 76bf 00e1 e53e 1d99 b9bf
00000180: ea64 0cbf 0d17 2bbe 8fbb 81bf a92d 083e
00000190: 11fd 94bf 3eb3 50bf 812b b83e 9cef f3be
000001a0: 371d f2bf 4e3b a03f 4d0d 763e c9be 55bf
000001b0: 2871 0d40 57f2 f03f c0d1 703e e3f3 103f
000001c0: 421a 92bf 5813 e3be 59af ac3f 4507 c23e
000001d0: 059c cc3d 92a8 823e 3c9d 5d3f 3157 81be
000001e0: bbc6 3abf de28 6e3f ac7f 1abf 4919 b0bf
000001f0: b0e0 c63f 7e61 8bbf d537 c03d 8606 9abd
00000200: 7f02 abbf df1c 5bbe 4c45 963f 1f07 64bf
00000210: b310 893e 606f bfbe d910 c23f 8663 d3be
00000220: 8c9d e43c 2f71 973f a459 50bf 41e9 cb3e
00000230: a131 a63e 4a73 583e f53a babe f83f d03f
00000240: 2d74 b0bf 8983 a63f 0a9f 6a3e 0c9a 13c0
00000250: 96d0 22bf 58df 1bbf c430 06bf a146 3cbd
00000260: b848 b23f 9782 f7be 6cf7 22bd ff8c 1abf
00000270: 9015 74bf bdf2 8abf b641 9dbe 1078 9ebe
00000280: 05df 6bbe 9bae ce3f 5222 16bf 193e a5bf
00000290: 21dd f3bc 81f0 94be 2fd8 99bf ffd4 0cbf
000002a0: fcae 35c0 f7a6 04bf e021 bf3f 34ec bebf
000002b0: 054a c2bf 1be0 69bf 9964 6b3f 8e81 57bf
000002c0: 2d4e 1dbf af86 69bf 61cf 9b3f 339e d43f
000002d0: bd24 eebd 5ec3 4bbf 08df 523f 78bf cf3f
000002e0: bd48 083f 4af5 e93f 1b6b 223f c7cd 5abf
000002f0: 989f 8dbe 02fc 393f d6df 58bf 6ec8 963f
00000300: 2aeb 753e 12cc b63c db01 cd3e 71a0 0e3f
00000310: 7ee6 24bf 87e1 4dbf 76e3 31bf faa5 52bf
00000320: 6377 173f 4657 8a3e bcae 0b3f 91ab 56bf
00000330: cf6f 09bf 51f7 c1bf df5a ba3e 5e17 6b3f
00000340: 0258 1bbf 1134 3f3f e658 343f 5577 7bbf
00000350: 7196 f03e 038d a13f 2308 b1be 3cc4 4cbf
00000360: f69e 383f 4f46 84bf 08bd b93f b9d6 a6bf
00000370: 4d43 c03e fd03 913f 5c17 1c3f c3a9 f43d
00000380: feeb cdbe 1fc6 9f3f ba36 3b3f 317e 6d3f
00000390: 4c82 253f 89bc 2b3f 6dfe c23e 75bb 49bf
000003a0: 3020 b33f fb7a c43e 5059 3a40 944b 6bbd
000003b0: 5c81 97bd ecdc 0e40 3150 ce3e f773 cabe
000003c0: ef89 053f 2ae4 7a3f 60e6 7bbf 0f27 323f
000003d0: f6e6 7dbf e0e5 2b3e 1325 5fbe 0de7 b5be
000003e0: e536 1940 94a8 163f 7283 543e 0b01 43be
000003f0: 2b16 45bf 73ec e5bc 9f7f 3bbf 0877 983e

dense_proj.weight f4 [64, 113]
0.060122732 -0.014785043 -0.13742381 -0.1415893 -0.0035525546 0.025129277 0.031074097 -0.13200659
-0.0806498 -0.020411806 -0.05588246 0.1128233 -0.03621546 0.06374106 -0.0433075 0.014429505
-0.064827 -0.0010579901 -0.040693123 0.054452404 0.10496294 0.0007074363 0.07510878 0.11542711
0.004901107 -0.04161907 0.006860204 0.12321108 0.01446981 -0.0016421067 0.18170568 -0.024956144
0.04957087 -0.08283263 0.09473346 -0.0003103484 -0.0055760094 -0.03273467 0.051781625 0.042328965
0.054960456 0.006025611 0.024285797 -0.05670336 -0.008505358 0.06727999 -0.032857 -0.16065785
0.030088522 -0.049034663 -0.09378165 -0.09420713 -0.006213307 0.04857904 0.04816903 -0.003974174
-0.18191169 0.13852455 0.02527077 -0.039105773 -0.02509914 -0.057752337 0.060808282 0.013994999
-0.036671303 0.104491696 -0.034137413 0.05642259 0.06569436 0.06954532 -0.03530186 -0.037331384
-0.0012357265 -0.02728629 0.030890241 -0.08763333 -0.91659003 0.039750356 -1.0365605 -0.3718247
0.07275634 -0.089792535 0.090413034 -0.046095878 0.059845988 0.16037016 0.09823106 -0.022034686
0.091579065 -0.027458392 0.065762244 0.06467383 -0.004863686 -0.03962645 0.013999196 0.01344203
-0.06468466 0.08539289 -0.042216342 -0.06815578 0.06510165 0.11951945 -0.07854752 -0.02894353
0.015750894 -0.019131726 0.048204582 0.085899584 -0.04637537 -0.09409884 0.07365821 -0.018822342
-0.12108036 -0.00079316506 0.07118311 -0.19599235 -0.21861269 0.020904044 0.055052675 0.14244187
0.24967276 -0.117100224 0.06010758 -0.04120336 -0.05587432 0.036316328 -0.121601924 -0.36907634
0.051080447 -0.07232175 0.11288566 -0.171874 0.081050515 0.048988763 -0.036144115 -0.048389755
0.13471048 -0.07077331 -0.024153458 -0.004549061 0.12973624 -0.015511595 -0.010010143 -0.07311164
0.0027293777 -0.0404113 0.05978871 0.01431636 -0.11678132 -0.009177208 -0.07410835 0.15374807
0.03983358 -0.039715372 -0.14891508 0.10613493 -0.08796129 -0.11580142 -0.001367629 0.039344408
0.07513044 0.03310257 0.13676257 -0.025922986 0.023111401 0.018393636 0.08746776 -0.07786573
-0.23778537 0.0026796947 0.08292997 0.10400807 0.045075566 0.055797435 -0.13547553 0.090324506
0.1909707 -0.03801995 -0.0014629193 0.08799695 -0.0021120019 0.04948646 -0.018347707 -0.1372429
0.07753243 0.024619436 0.052723262 0.02916354 0.034159493 -0.043275613 -0.027721431 0.010884157
-0.05464767 -0.08126871 0.02332298 0.063834906 -0.04419119 -0.15410818 0.23862503 -0.030382818
0.10255051 -0.038441993 0.0468641 -0.087839894 0.0975032 0.065235436 0.031864855 0.031229163
-0.029564252 0.08003796 -0.035653803 -0.014317644 0.025972476 0.07806549 -0.041391995 0.07130454
-0.0058403215 0.06678234 0.021882704 0.03948983 -0.037255008 -0.05532036 0.01769391 0.028819496
-0.08330454 -0.24433179 -0.06047434 -0.030184032 -0.21056662 0.24323212 -0.03895228 -0.19589958
0.10770532 0.15811172 0.0038383224 -0.098853074 -0.25320327 -0.123903275 0.030614775 0.049658485
0.14560275 0.10051407 0.0661706 -0.10700456 -0.123147376 -0.06402378 -0.15829857 -0.007956644
-0.036003914 -0.0083789 0.04785551 0.12910058 0.08596886 -0.022574313 -0.15699135 -0.028024727
00000000: 4143 763d f73c 72bc d4b8 0cbe c9fc 10be
00000010: fad1 68bb eadb cd3c 1b8f fe3c bc2c 07be
00000020: b92b a5bd a936 a7bc 02e5 64bd e70f e73d
00000030: aa56 14bd ac8a 823d 3563 31bd bb69 6c3c
00000040: 05c4 84bd 42ac 8aba d5ad 26bd 7c09 5f3d
00000050: cff6 d63d 3f73 393a a2d2 993d 0c65 ec3d
00000060: 7799 a03b c278 2abd 90cb e03b 1756 fc3d
00000070: c812 6d3c f53b d7ba 0e11 3a3e d470 ccbc
00000080: d30a 4b3d 27a4 a9bd 9e03 c23d 42b6 a2b9
00000090: f5b6 b6bb ca14 06bd f818 543d 2361 2d3d
000000a0: 371e 613d 7d72 c53b 02f3 c63c c841 68bd
000000b0: 0f5a 0bbc 17ca 893d 1095 06bd 7e83 24be
000000c0: 347c f63c 92d8 48bd 9810 c0bd abef c0bd
000000d0: ff98 cbbb d1fa 463d e44c 453d ca39 82bb
000000e0: 0f47 3abe 61d9 0d3e a504 cf3c 602d 20bd
000000f0: b69c cdbc b78d 6cbd 1b12 793d 484b 653c
00000100: a634 16bd beff d53d acd3 0bbd 601b 673d
00000110: c48a 863d c76d 8e3d af98 10bd cbe8 18bd
00000120: 1af8 a1ba 7f87 dfbc 880d fd3c 1a79 b3bd
00000130: a5a5 6abf 45d1 223d 04ae 84bf cf5f bebe
00000140: 4701 953d 26e5 b7bd 782a b93d 08cf 3cbd
00000150: 1121 753d 1338 243e 5e2d c93d 1682 b4bc
00000160: ce8d bb3d 6cf0 e0bc 5bae 863d b773 843d
00000170: 8e5f 9fbb 584f 22bd e25c 653c f63b 5c3c
00000180: 6479 84bd 78e2 ae3d 0beb 2cbd 4295 8bbd
00000190: 0454 853d 9dc6 f43d 86dd a0bd fb1a edbc
000001a0: 0508 813c 23ba 9cbc 2b72 453d 1fec af3d
000001b0: 1af4 3dbd e5b6 c0bd 1eda 963d 5031 9abc
000001c0: fbf8 f7bd 68ec 4fba 73c8 913d 38b2 48be
000001d0: 01dc 5fbe f53e ab3c ea7e 613d 48dc 113e
000001e0: 37aa 7f3e 3ed2 efbd 5e33 763d dbc4 28bd
000001f0: 79dc 64bd 6ec0 143d 6e0a f9bd 93f7 bcbe
00000200: bb39 513d 6d1d 94bd 9930 e73d bdff 2fbe
00000210: d0fd a53d 71a8 483d da0b 14bd 5634 46bd
00000220: 8bf1 093e 99f1 90bd 79dd c5bc 4a10 95bb
00000230: 94d9 043e 5824 7ebc 9501 24bc 8ebb 95bd
00000240: 5cdf 323b 5286 25bd 02e5 743d 2a8f 6a3c
00000250: 0b2b efbd 005c 16bc 1ec6 97bd 2270 1d3e
00000260: 8928 233d 96ac 22bd 327d 18be 455d d93d
00000270: 0c25 b4bd 4b29 edbd 0442 b3ba 9a27 213d
00000280: fddd 993d 8f96 073d 7d0b 0c3e 715c d4bc
00000290: 1f54 bd3c 40ae 963c 4c22 b33d 1178 9fbd
000002a0: 027e 73be d19d 2f3b 30d7 a93d 2f02 d53d
000002b0: 28a1 383d da8b 643d 19ba 0abe 0efc b83d
000002c0: d38d 433e cfba 1bbd 6dbf bfba bf37 b43d
000002d0: 8369 0abb 50b2 4a3d ee4d 96bc 6789 0cbe
000002e0: 53c9 9e3d b3ae c93c 59f4 573d 60e8 ee3c
000002f0: d3ea 0b3d c541 31bd 0e18 e3bc 7753 323c
00000300: 3cd6 5fbd 3670 a6bd d60f bf3c e0bb 823d
00000310: d201 35bd 89ce 1dbe 1f5a 743e 63e5 f8bc
00000320: 0006 d23d 5a75 1dbd 92f4 3f3d 67e5 b3bd
00000330: c2af c73d 289a 853d b984 023d 4dd4 ff3c
00000340: bb30 f2bc f1ea a33d b909 12bd 8d94 6abc
00000350: 3bc4 d43c cde0 9f3d a78a 29bd 1d08 923d
00000360: 2b60 bfbb 2ec5 883d 5b43 b33c 17c0 213d
00000370: b598 18bd 9a97 62bd d2f2 903c dd16 ec3c
00000380: 929b aabd 1d32 7abe f1b3 77bd 8144 f7bc
00000390: c79e 57be d711 793e 6d8c 1fbd e699 48be
000003a0: 9b94 dc3d 0ae8 213e 5d8c 7b3b 7b73 cabd
000003b0: dca3 81be 00c1 fdbd d6cb fa3c b266 4b3d
000003c0: e318 153e 52da cd3d 7484 873d 3525 dbbd
000003d0: b134 fcbd e61e 83bd 0519 22be 955c 02bc
000003e0: d778 13bd a747 09bc 2404 443d f132 043e
000003f0: 7110 b03d c4ed b8bc 57c2 20be 1d94 e5bc

dense_proj.bias f4 [64]
-0.007496763 0.062109828 0.19289581 0.05378287 -0.13115309 0.10281344 0.06241225 -0.26113865
-0.040773436 -0.16113666 -0.059520714 -0.05811246 -0.07440378 -0.11966206 0.2085816 -0.062379625
-0.11487221 0.0962928 0.0045478633 0.031917054 0.24076262 0.13929251 0.06629026 -0.06906107
0.1340704 -0.17056833 0.21568012 0.17155999 0.112065725 0.07274595 -0.11095879 0.09940567
-0.08462332 -0.13310935 -0.030780245 0.04623491 -0.098236 -0.1363939 0.017416008 -0.017241938
-0.19291393 -0.15455374 -0.07461543 0.01754435 -0.012174569 0.04609434 -0.28356135 0.0063830675
-0.2143548 -0.033549003 0.21285965 -0.29746267 -0.055871964 0.10449274 -0.010611698 -0.098873906
0.08406911 0.11305784 0.044432778 -0.03601677 0.15100875 0.018248463 -0.3107782 -0.018310519
00000000: 68a7 f5bb e066 7e3d 7b86 453e 6d4b 5c3d
00000010: ff4c 06be da8f d23d fda3 7f3d f7b3 85be
00000020: 0c02 27bd 0201 25be fecb 73bd 5507 6ebd
00000030: 0261 98bd 6211 f5bd 6a96 553e c781 7fbd
00000040: 1f42 ebbd 2935 c53d 3e06 953b 75bb 023d
00000050: 7a8a 763e b2a2 0e3e 30c3 873d e46f 8dbd
00000060: c049 093e 77a9 2ebe 40db 5c3e 6cad 2f3e
00000070: b782 e53d d4fb 943d 5d3e e3bd 3395 cb3d
00000080: fe4e adbd d14d 08be da26 fcbc d160 3d3d
00000090: f52f c9bd d8aa 0bbe 04ac 8e3c f73e 8dbc
000000a0: 3b8b 45be 5643 1ebe f9cf 98bd 2bb9 8f3c
000000b0: d877 47bc 6bcd 3c3d f42e 91be 0d29 d13b
000000c0: d37f 5bbe ae6a 09bd e1f7 593e 074d 98be
000000d0: 00da 64bd 4a00 d63d b0dc 2dbc 677e cabd
000000e0: 6d2c ac3d de8a e73d 25ff 353d 5286 13bd
000000f0: 0aa2 1a3e cd7d 953c 521e 9fbe f1ff 95bc

shared_mlp.0.weight f4 [128, 144]
-0.014856754 0.006172545 0.09559324 -0.048449438 0.089494035 -0.10053573 -0.183802 0.07047991
-0.031932794 -0.01048663 -0.01184844 0.038639963 0.14842789 0.13296413 -0.16416684 -0.06367512
-0.13515984 0.019293254 -0.18042952 -0.049569666 0.18252271 0.16494669 0.12622686 0.05931237
-0.18058959 0.01892893 -0.18041289 -0.029746123 0.11284045 -0.02237961 0.13031386 0.08216837
0.046596553 0.12498367 -0.019516049 0.059855882 -0.1834632 -0.13053921 0.124099165 -0.06265406
-0.1172782 0.0010476912 -0.15139446 -0.17844634 -0.037662577 -0.12897553 0.07682856 -0.07598518
-0.006267449 0.052138757 -0.021025345 0.050171543 -0.022190543 -0.052820463 -0.03494436 0.044435386
0.040487453 -0.24409549 -0.08354695 0.16698562 0.06488631 -0.026322749 0.070497 -0.111465685
-0.05855444 0.064181216 0.0014918961 0.1394439 -0.072322555 -0.056251913 -0.052153844 -0.13047117
0.024818035 -0.10436963 -0.04148309 0.1768286 -0.11639903 -0.10072147 -0.067402184 0.20146953
0.056024775 -0.14912449 0.029159883 0.02770949 -0.019386217 0.007547003 0.013374342 0.0051464555
0.15386912 -0.011154683 -0.054582216 0.12587906 0.20690386 0.12560806 0.10121185 -0.035162292
-0.09245871 -0.050893635 -0.080617085 -0.028464368 -0.025454763 -0.096605666 -0.04972923 -0.10076653
-0.1583085 0.0043144133 0.08069874 0.016377626 0.018050333 -0.07413427 -0.034147277 -0.16401988
-0.03295405 0.015576874 -0.042771038 0.024369711 0.04310168 0.0671409 0.07909606 -0.032125335
0.05195791 -0.027686821 -0.00014892517 -0.09116097 -0.11377215 0.06527044 -0.08770059 0.19740841
0.02524239 -0.14568001 0.009076317 0.10460236 0.11098597 0.04940645 0.19413847 0.1273367
0.06350946 0.043901443 0.00982831 -0.13928704 0.040930565 0.115943275 0.009485356 0.008015416
-0.07063727 -0.043693908 0.059655473 -0.014672602 -0.050189745 0.008214433 -0.037523333 -0.008453424
-0.08896375 -0.05321342 0.04569773 -0.0024417422 0.020210246 0.073906936 -0.1507698 -0.14605725
0.080989085 -0.0008579892 0.07961419 0.04523455 -0.09129659 3.9754716e-05 -0.05513732 -0.14246807
0.063937694 0.09081687 -0.012945533 0.047580138 0.07910153 -0.018294767 -0.060177438 -0.04362295
0.030648915 -0.12537578 0.10020968 -0.03987008 -0.07740217 -0.046776224 -0.14219774 0.27424452
-0.033200514 0.00927131 -0.057756055 -0.08081143 -0.12746014 -0.024092058 0.08613662 -0.21891817
0.11039965 0.0149780875 0.06775244 -0.08089779 -0.09588992 -0.013037747 0.05969559 0.018925888
0.015433569 0.083125435 0.06545667 -0.112601906 0.11264414 0.040197514 0.06561402 0.13045478
0.0047659706 -0.095751956 -0.0334815 0.05268208 -0.07439561 0.017846953 0.04607557 -0.15190597
0.030473202 -0.099149406 0.08727433 0.02661106 -0.021987416 0.011042434 0.15423764 0.17961513
0.018045753 0.11828824 -0.16060449 -0.19267118 0.11401753 0.081334226 -0.27383444 0.0436455
-0.22877613 -0.039377205 0.03622987 0.18698254 0.14280976 0.1393415 -0.1521084 -0.14598915
0.08174276 -0.046506397 -0.002213093 0.18887512 -0.030683884 0.037946112 0.028100628 0.25154153
-0.007260463 0.26390278 -0.08600917 -0.123071015 -0.13024783 0.20271926 -0.09289768 0.1190408
00000000: be69 73bc 0f43 ca3b 63c6 c33d eb72 46bd
00000010: a648 b73d ade5 cdbd 9736 3cbe c557 903d
00000020: f6cb 02bd 1dd0 2bbc f61f 42bc f044 1e3d
00000030: 7bfd 173e c027 083e 5a1b 28be 1a68 82bd
00000040: 5767 0abe e30c 9e3c 84c2 38be 9009 4bbd
00000050: 3ce7 3a3e c9e7 283e 9d41 013e 87f1 723d
00000060: 7aec 38be d810 9b3c 28be 38be 24ae f3bc
00000070: e518 e73d 7255 b7bc ff70 053e e447 a83d
00000080: 07dc 3e3d 70f7 ff3d 1fe0 9fbc 712b 753d
00000090: c7dd 3bbe 12ac 05be b427 fe3d c650 80bd
000000a0: 8e2f f0bd af52 893a 2607 1bbe a3ba 36be
000000b0: 1344 1abd 2912 04be 4b58 9d3d 1e9e 9bbd
000000c0: 2c5f cdbb 738f 553d 583d acbc ad80 4d3d
000000d0: f1c8 b5bc 455a 58bd d121 0fbd e101 363d
000000e0: 2cd6 253d 2bf4 79be aa1a abbd 47fe 2a3e
000000f0: 1de3 843d cea2 d7bc bb60 903d 1f48 e4bd
00000100: c8d6 6fbd 7171 833d ba8b c33a 62ca 0e3e
00000110: d91d 94bd 6868 66bd 459f 55bd 3c9a 05be
00000120: 314f cb3c bfbf d5bd 2cea 29bd 8e12 353e
00000130: 9d62 eebd 0f47 cebd 280a 8abd 074e 4e3e
00000140: 3c7a 653d 17b4 18be b5e0 ee3c 03ff e23c
00000150: d8cf 9ebc da4c f73b 0e20 5b3c 99a3 a83b
00000160: de8f 1d3e 22c2 36bc 9a91 5fbd 71e6 003e
00000170: 9bde 533e 669f 003e 2948 cf3d 5606 10bd
00000180: fe5a bdbd d875 50bd 921a a5bd 1b2e e9bc
00000190: 8286 d0bc 31d9 c5bd e1b0 4bbd af5e cebd
000001a0: a01b 22be ec5f 8d3b 6245 a53d 5f2a 863c
000001b0: 4bde 933c b5d3 97bd 04de 0bbd d4f4 27be
000001c0: d3fa 06bd 2536 7f3c af30 2fbd fda2 c73c
000001d0: 638b 303d 2b81 893d 1dfd a13d db95 03bd
000001e0: d1d1 543d 79cf e2bc cc28 1cb9 9ab2 babd
000001f0: 5f01 e9bd 82ac 853d 5e9c b3bd 6e25 4a3e
00000200: 21c9 ce3c 242d 15be d5b4 143c c339 d63d
00000210: 9d4c e33d 6b5e 4a3d 3ccc 463e 8d64 023e
00000220: 3f11 823d 00d2 333d ec06 213c 43a1 0ebe
00000230: cfa6 273d ab73 ed3d 7768 1b3c 1753 033c
00000240: 46aa 90bd 62f8 32bd 4c59 743d 5a65 70bc
00000250: c393 4dbd d495 063c 11b2 19bd 3b80 0abc
00000260: a032 b6bd 51f6 59bd 8b2d 3b3d a305 20bb
00000270: f58f a53c 855c 973d 6663 1abe 0890 15be
00000280: 9bdd a53d aeea 60ba c40c a33d dd47 393d
00000290: b5f9 babd 4dbe 2638 acd7 61bd 26e3 11be
000002a0: c4f1 823d 32fe b93d 8019 54bc 64e3 423d
000002b0: fcff a13d e8de 95bc 9e7c 76bd faad 32bd
000002c0: 6f13 fb3c 8262 00be bc3a cd3d cf4e 23bd
000002d0: 0785 9ebd 6d98 3fbd 499c 11be c769 8c3e
000002e0: 43fd 07bd b1e6 173c 9d91 6cbd 7780 a5bd
000002f0: e984 02be b55c c5bc 6568 b03d 162c 60be
00000300: 3619 e23d a766 753c cbc1 8a3d bead a5bd
00000310: ef61 c4bd 469c 55bc 5d83 743d 770a 9b3c
00000320: 15dd 7c3c ab3d aa3d 260e 863d d49b e6bd
00000330: f9b1 e63d 26a6 243d a560 863d f095 053e
00000340: dc2b 9c3b 9a19 c4bd e623 09bd 2ac9 573d
00000350: ba5c 98bd c633 923c bdb9 3c3d 3d8d 1bbe
00000360: f0a2 f93c d80e cbbd e2bc b23d 70ff d93c
00000370: f41e b4bc 53eb 343c 79f0 1d3e 07ed 373e
00000380: b0d4 933c 1b41 f23d 8175 24be 984b 45be
00000390: 0682 e93d 8f92 a63d 0734 8cbe a0c5 323d
000003a0: 4a44 6abe fe49 21bd c665 143d 5a78 3f3e
000003b0: b93c 123e 8aaf 0e3e 4ec2 1bbe 2e7e 15be
000003c0: c068 a73d 7e7d 3ebd 8a09 11bb 7b68 413e
000003d0: c55c fbbc 626d 1b3d 4a33 e63c 0dca 803e
000003e0: 2ee9 edbb 441e 873e 9325 b0bd a80c fcbd
000003f0: b05f 05be a395 4f3e 2441 bebd aacb f33d

shared_mlp.0.bias f4 [128]
-0.1801827 -0.059722375 -0.19030647 -0.13806817 -0.25481242 -0.032658815 -0.0561926 -0.16027421
-0.09517814 -0.17714116 -0.21337499 -0.0915667 -0.19962409 -0.06693093 -0.0531907 -0.07980436
-0.0936733 -0.01841919 -0.14766492 -0.31794783 -0.20860538 -0.119240694 0.011563986 -0.17462794
-0.07717938 -0.05199476 0.04315972 0.0098449 0.033337973 -0.011972291 -0.023736788 -0.09492742
-0.16124888 0.02913191 -0.32200944 -0.06355825 -0.13167073 -0.07788202 -0.18024251 0.05374279
-0.09745111 -0.026025647 -0.14985213 -0.084207274 -0.11407081 0.02496756 0.05048873 -0.30204296
-0.072614655 0.040663075 -0.14783584 0.0001272463 -0.16243793 -0.16986093 -0.024737816 -0.108641945
-0.10296427 -0.13723396 -0.016581804 -0.031775046 -0.14767538 0.029999638 -0.030994117 -0.12743378
-0.07947432 -0.21778333 0.04933538 -0.16733624 0.001016534 -0.103714384 -0.012293593 -0.084175564
-0.054984577 -0.084051766 -0.23490469 -0.10779328 -0.018867202 0.0339588 0.03704823 0.06556869
-0.17064466 -0.043532606 -0.135257 -0.084124975 -0.15388581 -0.20151007 -0.30574754 -0.052397832
-0.14256553 -0.038601946 -0.09139817 -0.07136639 -0.0841777 -0.08559548 -0.18630135 -0.07908336
-0.040988375 -0.0030558703 -0.027728004 0.081445165 -0.33636212 0.059945896 -0.11979675 -0.033720072
-0.23326246 0.013552285 -0.21827598 -0.062223714 0.086236015 0.020688377 -0.05822295 -0.15728523
-0.019240228 -0.12724373 -0.037797067 -0.08770152 -0.11097402 -0.038488086 -0.11408738 -0.0005855325
-0.22370689 -0.057441365 -0.16971993 -0.18733968 -0.14809199 -0.039625004 -0.009242178 -0.0675431
00000000: d081 38be 739f 74bd b3df 42be be61 0dbe
00000010: c676 82be 40c5 05bd 362a 66bd ec1e 24be
00000020: c2ec c2bd 7e64 35be f97e 5abe 5287 bbbd
00000030: 426a 4cbe 1513 89bd 7ede 59bd 7870 a3bd
00000040: cad7 bfbd d7e3 96bc 7935 17be 0fca a2be
00000050: a69c 55be 7734 f4bd df76 3d3c abd1 32be
00000060: 3910 9ebd 75f8 54bd 3fc8 303d 814c 213c
00000070: 668d 083d 6e27 44bc a773 c2bc 4f69 c2bd
00000080: 6d1e 25be 0ba6 ee3c 6cde a4be d42a 82bd
00000090: b1d4 06be 9c80 9fbd 7e91 38be 6621 5c3d
000000a0: 7394 c7bd bd33 d5bc d672 19be dd74 acbd
000000b0: f59d e9bd c588 cc3c 45cd 4e3d 60a5 9abe
000000c0: feb6 94bd 538e 263d 4762 17be 6b6d 0539
000000d0: 2156 26be 06f0 2dbe f6a6 cabc ab7f debd
000000e0: eede d2bd 0f87 0cbe 90d6 87bc 8d26 02bd
000000f0: 3738 17be cdc1 f53c 60e7 fdbc 007e 02be
00000100: 6fc3 a2bd 9802 5fbe e513 4a3d 315a 2bbe
00000110: 393d 853a 3568 d4bd 116b 49bc 3d64 acbd
00000120: 8237 61bd 5523 acbd db8a 70be b9c2 dcbd
00000130: 648f 9abc 6218 0b3d e3bf 173d e148 863d
00000140: 79bd 2ebe 3f4f 32bd d080 0abe b749 acbd
00000150: 3e94 1dbe a858 4ebe f18a 9cbe 1c9f 56bd
00000160: b3fc 11be 131d 1ebd f72e bbbd 8b28 92bd
00000170: 5c65 acbd af4c afbd c8c5 3ebe 75f6 a1bd
00000180: 6de3 27bd ff44 48bb d725 e3bc b9cc a63d
00000190: a837 acbe d489 753d 0058 f5bd 0f1e 0abd
000001a0: 5bdc 6ebe 670a 5e3c bd83 5fbe 4bde 7ebd
000001b0: 829c b03d ac7a a93c 307b 6ebd 610f 21be
000001c0: af9d 9dbc 2e4c 02be 19d1 1abd db9c b3bd
000001d0: 5946 e3bd afa5 1dbd a5a6 e9bd 6c7e 19ba
000001e0: 6b13 65be a347 6bbd 10cb 2dbe f9d5 3fbe
000001f0: 6da5 17be d44d 22bd 816c 17bc 0954 8abd

shared_mlp.3.weight f4 [64, 128]
-0.11368814 0.057363473 -0.36266634 0.022394625 -0.22481625 -0.17660289 -0.17383961 0.017032476
-0.029120121 -0.133533 -0.021907248 -0.21471396 0.11349295 0.12317517 0.1133629 0.15068386
0.13689062 -0.00026124367 -0.2415677 -0.27333763 -0.37258866 0.11916056 0.047764722 0.0054009636
-0.028416397 0.049372904 0.112876706 0.075485535 0.023212282 -0.18297099 -0.045993716 0.045422688
-0.059024844 0.15199411 0.040135574 0.06842354 0.01874942 -0.27773595 0.16920708 0.046488795
-0.25803015 0.16043131 0.08791854 -0.22534049 0.017858796 -0.03944353 -0.009782566 -0.0011001634
-0.14560638 0.041134436 0.0167948 -0.012421929 -0.047058504 0.06007838 0.012707385 0.08657484
0.044981275 0.1265499 0.09630614 0.10965581 -0.13340501 0.06859328 0.11223857 0.061550226
0.10000732 -0.18690987 -0.003552179 -0.22380048 0.09957062 -0.17615214 0.0146390125 -0.04412016
0.04378809 0.20947325 -0.08839738 -2.9397037e-05 0.120332666 0.12436054 0.01705703 0.040682804
-0.1817904 0.24916255 -0.1547384 0.07904326 0.14535715 0.041827217 -0.1244485 0.15310527
-0.07204086 -0.11921339 0.010545069 0.10643934 0.055847358 0.09882155 -0.09067353 -0.024594756
0.124857485 0.18713784 0.0543589 0.062222354 -0.3645618 0.06808611 0.09582545 0.056927215
-0.343816 0.0054217973 0.09597224 0.026364934 -0.02843483 0.106203444 0.017527178 0.063690774
-0.13056922 -0.039058607 0.002421004 0.04613836 0.057632964 0.110097274 0.13588329 -0.031857975
-0.24356163 -0.0037913278 -0.15950911 0.14693062 -0.106260955 0.05954606 0.103746675 0.0796698
-0.16853815 0.02987702 -0.33415017 0.039222375 -0.22456412 -0.03972547 -0.041332647 -0.042500295
0.02648459 -0.09391607 -0.12464234 -0.1492643 0.07041088 -0.083015844 0.093116894 -0.0045426637
0.1064258 -0.00944461 -0.22857708 -0.46933207 -0.37137827 0.026016042 0.03130665 -0.19648524
0.08443787 0.053711105 -0.021480234 0.0074382294 0.07644691 -0.18382981 0.10933971 0.09597491
-0.14295286 0.1761242 -0.0625529 0.038357146 -0.03893707 -0.22409981 0.010754798 0.018240148
-0.22327219 0.016135022 0.047430437 -0.17411394 -0.04747842 0.10904925 0.031557735 -0.20191638
-0.47256744 0.17638458 0.14266685 0.025879476 -0.09110017 -0.33197054 -0.07235628 -0.0497061
0.09111964 0.028314574 0.014335326 0.03947271 -0.013989668 0.06470667 -0.036339425 0.14671645
0.10336254 -0.24421628 0.0088407835 -0.13510062 0.0916216 -0.14659347 -0.015752582 -0.19322243
-0.020882702 0.21516939 -0.28655052 -0.04180255 0.07287289 0.08773473 -0.001965437 -0.015902748
-0.5548245 0.034844678 -0.068968184 0.060569078 -0.07912509 -0.32987374 -0.08203313 0.04739824
-0.38169888 -0.2004761 0.10151607 0.08209952 -0.01517194 -0.11662095 -0.24547046 0.024483953
0.060807653 0.0162755 -0.015011661 0.13466807 -0.3959608 -0.08163257 0.026223123 0.07714095
-0.27334154 0.06675284 -0.0845617 0.06611686 0.068328455 0.022804808 0.12107404 0.091135606
-0.12001821 0.016257335 0.024066195 0.14187562 0.06286733 -0.036183823 0.15410957 0.023462443
0.038379196 -0.068769015 -0.110548 0.12214193 -0.3717005 0.012754047 0.054395534 0.08673025
00000000: 54d5 e8bd f6f5 6a3d 67af b9be ef74 b73c
00000010: 3b36 66be 63d7 34be 0303 32be b187 8b3c
00000020: 528d eebc e0bc 08be d476 b3bc fadd 5bbe
00000030: fe6e e83d 4343 fc3d cf2a e83d df4c 1a3e
00000040: 0e2d 0c3e 88f7 88b9 865d 77be e9f2 8bbe
00000050: f1c3 bebe 740a f43d f1a4 433d 91fa b03b
00000060: 81c9 e8bc 3e3b 4a3d e72b e73d 2998 9a3d
00000070: af27 be3c bf5c 3bbe e863 3cbd 240d 3a3d
00000080: 09c4 71bd 58a4 1b3e 3365 243d a421 8c3d
00000090: 6298 993c 6833 8ebe 9f44 2d3e 096b 3e3d
000000a0: 871c 84be 1b48 243e a30e b43d a8bf 66be
000000b0: 9c4c 923c 8a8f 21bd 0e47 20bc 5c33 90ba
000000c0: d719 15be 957c 283d 4095 893c 5985 4bbc
000000d0: 6bc0 40bd bf14 763d a332 503c 264e b13d
000000e0: 493e 383d 4c96 013e 273c c53d 3a93 e03d
000000f0: 539b 08be a27a 8c3d 56dd e53d 171c 7c3d
00000100: a3d0 cc3d 4d65 3fbe adcb 68bb f42b 65be
00000110: aeeb cb3d 3a61 34be 78d8 6f3c 57b7 34bd
00000120: 245b 333d 2880 563e b009 b5bd a899 f6b7
00000130: f970 f63d bdb0 fe3d 2fbb 8b3c 03a3 263d
00000140: 4327 3abe 7824 7f3e be73 1ebe 6fe1 a13d
00000150: 81d8 143e 0453 2b3d dbde febd a1c7 1c3e
00000160: 298a 93bd 2626 f4bd 3ac5 2c3c defc d93d
00000170: 33c0 643d f462 ca3d 0bb3 b9bd f17a c9bc
00000180: 48b5 ff3d 10a1 3f3e 70a7 5e3d dedc 7e3d
00000190: d8a7 babe bb70 8b3d 2240 c43d 832c 693d
000001a0: a708 b0be 55a9 b13b 188d c43d 46fb d73c
000001b0: 29f0 e8bc 3181 d93d 2895 8f3c 4f70 823d
000001c0: f0b3 05be ebfb 1fbd b5a9 1e3b 94fb 3c3d
000001d0: 8b10 6c3d ae7a e13d fd24 0b3e 827d 02bd
000001e0: 3868 79be ed77 78bb 5b56 23be fb74 163e
000001f0: 589f d9bd 92e6 733d 2379 d43d ec29 a33d
00000200: 4495 2cbe a7c0 f43c bb15 abbe a4a7 203d
00000210: 23f4 65be 2db7 22bd 6c4c 29bd ca14 2ebd
00000220: 36f6 d83c 1257 c0bd 7c44 ffbd bed8 18be
00000230: 9433 903d 3604 aabd 12b4 be3d a0da 94bb
00000240: c5f5 d93d 91bd 1abc 1c10 6abe 4b4c f0be
00000250: 4b25 bebe 981f d53c 673b 003d 6d33 49be
00000260: c3ed ac3d 2d00 5c3d 51f7 afbc 64bc f33b
00000270: 3390 9c3d e23d 3cbe 7fed df3d 7e8e c43d
00000280: 3c62 12be e759 343e bc1b 80bd 621c 1d3d
00000290: 7a7c 1fbd 6c7a 65be e434 303c 5d6c 953c
000002a0: 77a1 64be 982d 843c 6b46 423d ed4a 32be
000002b0: bb78 42bd 3755 df3d af42 013d 2bc3 4ebe
000002c0: 5cf4 f1be 299e 343e 4217 123e 3201 d43c
000002d0: ba92 babd 0bf8 a9be 882f 94bd a098 4bbd
000002e0: ef9c ba3d f7f3 e73c b7de 6a3c 23ae 213d
000002f0: ec34 65bc ee84 843d a6d8 14bd d63c 163e
00000300: bdaf d33d d513 7abe efd8 103c d157 0abe
00000310: 1ba4 bb3d 991c 16be 8f0b 81bc 1adc 45be
00000320: 3312 abbc 5d55 5c3e c0b6 92be 2739 2bbd
00000330: 623e 953d 44ae b33d 90ce 00bb 7b46 82bc
00000340: fa08 0ebf 4bb9 0e3d 313f 8dbd 4817 783d
00000350: 560c a2bd 36e5 a8be fc00 a8bd a824 423d
00000360: 096e c3be 9b49 4dbe a8e7 cf3d cb23 a83d
00000370: bb93 78bc f7d6 eebd 9c5c 7bbe 9292 c83c
00000380: 7211 793d 3354 853c 78f3 75bc 6de6 093e
00000390: 60bb cabe fa2e a7bd e0d1 d63c 13fc 9d3d
000003a0: 6cf3 8bbe b7b5 883d af2e adbd 4768 873d
000003b0: caef 8b3d 26d1 ba3c abf5 f73d 4ea5 ba3d
000003c0: 1bcc f5bd 1a2e 853c 7826 c53c d847 113e
000003d0: 96c0 803d 7d35 14bd e6ce 1d3e 4f34 c03c
000003e0: 8133 1d3d c5d6 8cbd fd66 e2bd 8c25 fa3d
000003f0: 874f bebe 5af6 503c dacd 5e3d a19f b13d

shared_mlp.3.bias f4 [64]
0.46109578 0.3704258 -0.10911879 0.4176145 -0.054066863 -0.3037685 0.34268227 0.4738091
0.49348837 -0.39765373 -0.2913675 -0.34223357 -0.25467223 -0.26161367 0.31705117 -0.30108964
0.4495905 0.38701406 0.29945758 0.45529962 -0.101840675 -0.42569026 0.38671848 -0.4215619
0.31577253 0.03874743 -0.37162656 -0.25387 -0.19419998 -0.36293697 0.059008367 -0.3528227
-0.02766963 0.36421373 -0.18817733 0.3023503 0.32382444 0.5086847 -0.07836762 -0.13048302
0.45007625 -0.32763723 0.35476446 -0.24949801 0.2876117 -0.06425318 0.41725588 0.4297179
0.07263927 -0.08296855 0.48781675 -0.07599078 0.3133999 0.4712244 0.37050673 0.009227373
0.34738955 -0.27104235 0.36563858 0.4682154 -0.18392953 0.32676408 0.29197034 0.42017356
00000000: bf14 ec3e 73a8 bd3e ac79 dfbd 91d1 d53e
00000010: 3775 5dbd 8b87 9bbe 0d74 af3e 1b97 f23e
00000020: 82aa fc3e 4599 cbbe 1f2e 95be 3d39 afbe
00000030: 6664 82be 3af2 85be 8854 a23e 6c28 9abe
00000040: ba30 e63e b526 c63e 8152 993e 081d e93e
00000050: d891 d0bd 13f4 d9be f7ff c53e f6d6 d7be
00000060: f0ac a13e a0b5 1e3d d645 bebe 40fb 81be
00000070: 5cdc 46be e0d2 b9be c2b2 713d 2da5 b4be
00000080: 6bab e2bc 397a ba3e 8fb1 40be a9cd 9a3e
00000090: 51cc a53e 2939 023f 347f a0bd 579d 05be
000000a0: 6570 e63e 11c0 a7be b0a3 b53e 687c 7fbe
000000b0: d741 933e 2c97 83bd 90a2 d53e fc03 dc3e
000000c0: e6c3 943d 6aeb a9bd 1ec3 f93e 0ea1 9bbd
000000d0: f475 a03e 5344 f13e 0fb3 bd3e 682e 173c
000000e0: 0bdd b13e 10c6 8abe fb34 bb3e eeb9 ef3e
000000f0: 0658 3cbe 9f4d a73e 237d 953e fd20 d73e

ctr_head.weight f4 [1, 64]
-0.027805105 -0.041850843 0.3637358 -0.031940553 0.33676445 0.36869174 -0.027958272 -0.027740838
-0.029669752 0.36125723 0.37266958 0.45226875 0.36148492 0.22108462 -0.0234172 0.38035488
-0.032577213 -0.02416184 -0.02420318 -0.030964768 0.3922903 0.40688562 -0.029997693 0.41851613
-0.027656628 0.38718277 0.38875827 0.39547536 0.3897904 0.5104347 0.38714403 0.49137127
0.3702415 -0.04038559 0.375206 -0.066259615 -0.024451949 -0.026407825 0.37947628 0.38066542
-0.023249067 0.44781655 -0.04018385 0.35722804 -0.035142202 0.356626 -0.02522353 -0.032134388
0.2241262 0.34891042 -0.032335762 0.2647777 -0.031049805 -0.024127247 -0.028080158 0.32587057
-0.045173056 0.37837428 -0.037881758 -0.026785659 0.35785633 -0.025131587 -0.02945748 -0.021549948
00000000: 88c7 e3bc ca6b 2bbd 943b ba3e 19d4 02bd
00000010: 646c ac3e 2ac5 bc3e bf08 e5bc c140 e3bc
00000020: fb0d f3bc b5f6 b83e 8cce be3e c58f e73e
00000030: 8d14 b93e 0264 623e 6ed5 bfbc e0bd c23e
00000040: af6f 05bd 0def c5bc bf45 c6bc d3a9 fdbc
00000050: 46da c83e 5053 d03e b9bd f5bc bf47 d63e
00000060: 2790 e2bc d23c c63e 530b c73e bf7b ca3e
00000070: 9b92 c73e d9ab 023f be37 c63e 0495 fb3e
00000080: 4b90 bd3e 5c6b 25bd 001b c03e 1fb3 87bd
00000090: 744f c8bc 3955 d8bc b74a c23e 94e6 c23e
000000a0: d474 bebc 3648 e53e d297 24bd 98e6 b63e
000000b0: 45f1 0fbd af97 b63e 94a1 cebc 599f 03bd
000000c0: 5781 653e 63a4 b23e 8172 04bd f190 873e
000000d0: 295c febc 81a6 c5bc 5c08 e6bc 82d8 a63e
000000e0: 6207 39bd 46ba c13e e729 1bbd 996d dbbc
000000f0: f238 b73e c2e0 cdbc d050 f1bc 8489 b0bc
