experiments/resort_20251006_131348/models/best_model_auc0.6526_logloss0.0924_epoch5_20251006_135201.pth (torch, 158495 bytes, 45 tensors)

_orig_mod.embeddings.gender.weight f4 [5, 16]
000000 71 d6 08 bd a2 a1 9a be 61 6f d0 be c6 7a 8a be
       -0.033407632 -0.3020144 -0.40709975 -0.27046794
000010 c0 5d dd 3e a2 84 2d 3e 69 c0 03 3f 94 05 8d 3b
       0.43235588 0.16945127 0.5146547 0.0043036435
000020 56 96 5b bf f3 52 03 3f 4c da 0d be 16 8d 97 bd
       -0.8577627 0.51298445 -0.13852805 -0.07399957
000030 f3 c1 08 bf 47 8b 28 bd a5 7f 08 bf 61 5e 36 be
       -0.53420943 -0.04114845 -0.5331977 -0.1780944
000040 20 2b 63 3f 2e ba ff 3f c4 5a 95 3e ad be 10 be
       0.8873768 1.9978693 0.2917081 -0.14135237
000050 a4 c4 c3 3f 30 10 87 3f 10 23 a6 bd dd 67 3b bf
       1.5294385 1.0551815 -0.081121564 -0.7320536
000060 2b ad 40 40 9c fc 04 40 92 41 74 bf e0 e4 89 3f
       3.0105693 2.077918 -0.9541255 1.0772972
000070 a1 bf 8e 3f 87 67 aa 3f 70 61 55 bf ad c6 5a 3e
       1.115223 1.3312844 -0.833518 0.21364851
000080 50 dd 6d 3f 24 d6 51 3f a2 8d 75 bf ec 82 91 3f
       0.9291582 0.8196738 -0.9591924 1.1368079
000090 76 c2 48 be 3e 9a 6d 3f 95 d6 a3 3f e8 6f b5 bf
       -0.19605431 0.9281348 1.279986 -1.4174776
0000a0 6e b4 88 3e 84 7d 25 bd b1 79 10 3f f1 08 99 bf
       0.26700157 -0.040402904 0.56435686 -1.1955854
0000b0 a3 f9 4d bf fc 15 23 3f 1a 32 3c bf 9e 74 94 3d
       -0.8045904 0.6370542 -0.7351395 0.072488055
0000c0 c2 0b bd 39 00 13 08 8a 2b 7f 6a 3d 77 d0 d0 3b
       0.0003605765 -6.551735e-33 0.057250183 0.006372507
0000d0 01 64 05 00 7d 79 05 00 35 87 12 25 a2 6a 05 80
       4.95052e-40 5.02759e-40 1.2709291e-16 -4.9743e-40
0000e0 cd 65 ee b4 1e 4a cc 3a 1a 28 2e b8 2a b5 82 b9
       -4.4405024e-07 0.0015586053 -4.152218e-05 -0.0002493051
0000f0 37 b0 c2 27 43 87 99 28 7d 03 a6 28 07 93 c5 b5
       5.403687e-15 1.7045073e-14 1.8431215e-14 -1.4720434e-06
000100 42 68 06 80 85 76 c8 2b 22 61 05 00 af 7d 16 89
       -5.88414e-40 1.424375e-12 4.94022e-40 -1.811469e-33
000110 22 80 05 80 eb 71 02 2b 48 60 05 80 59 84 9e bb
       -5.05143e-40 4.634337e-13 -4.93717e-40 -0.0048375544
000120 7f 63 05 80 d0 69 5e ba e2 dd 8e 16 db f1 24 3d
       -4.9487e-40 -0.0008484395 2.3081365e-25 0.040269714
000130 a9 af 27 ae c2 05 91 ad be 03 12 3c 5c 67 05 00
       -3.812742e-11 -1.6487148e-11 0.008912025 4.96256e-40

_orig_mod.embeddings.age_group.weight f4 [15, 16]
000000 14 1b 40 be c5 92 5c 3e d6 49 67 be 2d 61 6a bd
       -0.1876033 0.21540363 -0.2258676 -0.05722158
000010 17 38 de bd 6d 52 6e 3e c8 01 0c 3f 5b 81 01 3f
       -0.10850542 0.2327363 0.5469022 0.50588006
000020 f5 4a 38 bd c6 1a 59 3d 30 c5 49 be 99 bc cf 3e
       -0.04499336 0.05300405 -0.19704127 0.40573576
000030 e6 f1 5a 3b 26 8e 61 bd 66 75 7c bd 47 76 8c 3c
       0.0033408343 -0.055067204 -0.061635397 0.017146243
000040 3c f8 92 3d 47 73 c9 3e ea 6b 7f 3f 68 68 8c bd
       0.07176253 0.39345762 0.9977404 -0.068558514
000050 95 5c 06 be c3 08 96 3d 44 5e 49 bd db 4a 4c be
       -0.13121255 0.0732589 -0.049162164 -0.1995043
000060 8a a6 1f be 62 2c 59 be 2b 2a 86 be 5c ea 6f 3d
       -0.15590873 -0.21208337 -0.26204047 0.058573112
000070 ff 96 65 3e bc 29 10 be 89 b7 bf bc d8 33 74 3e
       0.22420882 -0.1407842 -0.023402946 0.23847902
000080 68 04 58 bf d5 68 87 3d fa 21 f0 bd d7 0f cd bf
       -0.84381723 0.06611792 -0.117252305 -1.6020459
000090 ec d8 dc bf 54 89 3e bf 44 29 93 bf a6 f5 b6 3e
       -1.7253699 -0.74428296 -1.1496968 0.3573429
0000a0 ba 21 6b 3e b2 84 63 bf 52 00 21 bf 68 eb 8c bf
       0.22962084 -0.8887435 -0.62891114 -1.100934
0000b0 b4 06 d7 be b1 b3 f8 3d 95 24 87 bf 56 92 a1 3f
       -0.41997302 0.121436484 -1.0558039 1.2622783
0000c0 df 3f b0 3e 06 77 38 bd 4a c0 2d be c7 20 89 3f
       0.3442373 -0.045035385 -0.16967884 1.0713128
0000d0 5d 81 92 bf e5 c8 d0 3d 6f 54 08 bf cf 02 01 bf
       -1.1445729 0.101945676 -0.53253835 -0.5039491
0000e0 11 11 d6 3e 4d 81 bc bf ef 35 0d bd 27 23 a4 bd
       0.41809896 -1.472696 -0.034475263 -0.08014517
0000f0 89 90 51 3f c7 fd d4 3e 89 31 f2 be 33 d2 b9 3e
       0.8186117 0.41599867 -0.47303417 0.36293182
000100 80 10 c2 3e 45 ec 91 bc 6f b8 fa bd ef f8 46 3e
       0.37903214 -0.017812857 -0.12242209 0.19430898
000110 38 02 90 3c 3c 24 8b be b9 d5 9a 3f 8b 49 29 bf
       0.017579183 -0.27176082 1.2096473 -0.6612784
000120 f3 ee d5 b9 fc ac b4 be 5a 92 89 3f e9 2f 0d bf
       -0.00040804557 -0.35288227 1.0747788 -0.5515123
000130 c3 c6 6f bf dd cd f2 be 74 96 34 3f ee f0 8d 3f
       -0.9366266 -0.47422686 0.70542073 1.1089151
000140 60 09 3f c0 0e 01 18 3f 1e 8e 9e 3d 19 ba 9e bd
       -2.9849472 0.5937661 0.077419505 -0.07750339
000150 cb 08 6c bf 30 cf 94 3f a6 08 24 3c 53 c3 42 be
       -0.92200917 1.1625729 0.010011828 -0.19019823
000160 dd 52 bd be 00 dd 6f bf 80 27 24 bf c4 80 1d 3f
       -0.36977282 -0.93696594 -0.6412277 0.61524606
000170 d3 a3 a9 be 14 2a 98 3f e0 5e 16 bf 28 99 a7 be
       -0.331328 1.1887841 -0.5873852 -0.32734036
000180 2b bd fa 3c aa 51 0d c0 e6 dc 03 3d 77 8e 8d 3f
       0.03060778 -2.2081094 0.032193087 1.1059102
000190 eb 91 da be 64 e7 81 be 30 03 f0 bd 98 e9 a5 3f
       -0.42689452 -0.2537185 -0.11719358 1.2961912
0001a0 1c ac 10 3f 61 af 7a bf 13 14 02 40 20 14 5f bf
       0.5651262 -0.97923857 2.0324752 -0.87140083
0001b0 12 c1 49 3e 36 f0 a4 bf bf ca 74 3e 25 cb a5 3e
       0.19702557 -1.2885807 0.23905466 0.3238155
0001c0 2e 88 75 3f 23 52 ec bf 9b ad fe be fa b9 49 bf
       0.9591092 -1.8462566 -0.49741825 -0.787994
0001d0 f6 2d 17 c0 1b ce 27 bf ac 48 66 bf a1 51 37 be
       -2.3621802 -0.65548867 -0.8995464 -0.17902233
0001e0 21 80 66 be 66 3c 58 bf dd 7b 6a 3f 5b 55 5c bf
       -0.22509815 -0.8446716 0.9159525 -0.8606774
0001f0 ba 15 09 bf 38 1d 33 bf 1c 80 c9 3d 5d 44 0c 3d
       -0.5354878 -0.6996646 0.09838888 0.034244884
000200 a6 72 b0 3e 40 37 53 3e d5 73 b6 be 24 1a a7 bd
       0.3446247 0.20626545 -0.35635248 -0.08159283
000210 2c a0 c3 3e 5a fa 31 bf ae 3a d4 be c5 45 01 3f
       0.3820814 -0.6952263 -0.4145102 0.50497085
000220 41 13 70 3e 9c 19 17 3e 37 ac 12 3e 6c 3e 14 bf
       0.23444845 0.14755863 0.14323507 -0.5790775
000230 8e db d3 3c 71 c0 45 3f 99 b1 a1 be 4c 3b fb 3e
       0.025861528 0.7724677 -0.3158081 0.49068677
000240 5c a0 06 80 0f 7e 96 23 52 7e 70 2a c3 44 02 b3
       -6.08539e-40 1.631642e-17 2.1360108e-13 -3.0330522e-08
000250 6b 32 08 b8 33 55 dc 39 29 5a 05 80 cf 8b 07 80
       -3.2471882e-05 0.00042025148 -4.91521e-40 -6.93002e-40
000260 a3 0a 8f 38 29 5e 92 b1 1b 66 05 00 f2 9c f2 37
       6.8207526e-05 -4.259864e-09 4.95806e-40 2.8921731e-05
000270 83 48 0b b9 7f 5d 05 80 e2 27 38 bc 30 61 05 00
       -0.00013283086 -4.92718e-40 -0.011239978 4.94042e-40
000280 26 0f ba 36 de da e5 bb 20 93 05 80 da ae 13 bb
       5.5449955e-06 -0.0070146164 -5.11956e-40 -0.002253464
000290 dc 9f 00 89 26 95 05 3b 38 ed ac 3a 8f 57 05 00
       -1.5482605e-33 0.002038309 0.0013193255 4.90588e-40
0002a0 24 af 0b 2b 31 0a e5 2d 3f ee 05 80 80 a7 5d 38
       4.9625777e-13 2.6038812e-11 -5.44644e-40 5.2846503e-05
0002b0 1e f8 0c 22 9a 6e 9d 36 d1 4e d6 37 5a c2 05 00
       1.910489e-18 4.6918403e-06 2.554749e-05 5.28898e-40
0002c0 a0 c2 69 b3 e7 49 1f 3d 62 5c 8f 25 ca 6f bf 38
       -5.442655e-08 0.03888884 2.4869147e-16 9.128412e-05
0002d0 a3 37 15 b6 55 14 e3 9f 45 5c 05 80 4d e7 48 2a
       -2.2235115e-06 -9.6171876e-20 -4.92278e-40 1.7843817e-13
0002e0 02 d6 05 33 29 f3 4a b8 d5 37 1f a6 e9 a8 1b 3a
       3.1161115e-08 -4.8387014e-05 -5.5239873e-16 0.00059379503
0002f0 0b 19 03 bc fc 49 21 03 11 f4 00 80 6b 47 8c aa
       -0.008001576 4.7398578e-37 -8.7555e-41 -2.4918552e-13
000300 ed 1f 17 09 53 5c 05 80 ce 96 06 3a e6 09 d8 a4
       1.8190975e-33 -4.92297e-40 0.0005134166 -9.3691836e-17
000310 cf 39 75 bc ff fa bd b9 8a 5d 05 80 51 76 13 19
       -0.014967396 -0.00036235896 -4.92733e-40 7.623616e-24
000320 25 cb db bb bc 12 78 a9 32 eb 40 a9 4c 60 25 32
       -0.0067075663 -5.508331e-14 -4.2836564e-14 9.626159e-09
000330 ec af 20 b2 5e 2b bd ba cf bf df a6 02 74 3b b1
       -9.353226e-09 -0.001443248 -1.5525723e-15 -2.7278024e-09
000340 d3 a5 11 35 21 06 5d b2 6f 13 a3 86 6b 5b 05 00
       5.4258015e-07 -1.2865287e-08 -6.134234e-35 4.91972e-40
000350 51 90 05 00 91 64 05 00 ec 88 dc 39 13 48 22 30
       5.10948e-40 4.95254e-40 0.00042063685 5.903768e-10
000360 63 df 5f bd 31 f5 ee b9 e1 64 2a bc e1 be 21 b7
       -0.054656398 -0.0004557758 -0.010400028 -9.64079e-06
000370 c3 74 05 00 18 0d 1d a7 a9 22 ef 38 39 8c 5a 32
       5.01064e-40 -2.1795225e-15 0.00011402864 1.2721153e-08
000380 d3 9b 97 ba bd e5 bd 3b 66 3d 0d ba 26 31 37 ab
       -0.0011566825 0.005795209 -0.0005387872 -6.508287e-13
000390 f8 44 2e 8b a3 06 0a 00 24 e1 53 2a e2 5e 05 00
       -3.3563067e-32 9.20736e-40 1.8818676e-13 4.93215e-40
0003a0 f7 11 bc b8 e8 8e d0 b7 64 10 2b 99 8f cb 35 b4
       -8.967885e-05 -2.4862078e-05 -8.843803e-24 -1.6930993e-07
0003b0 06 f1 2b b5 4d 5a 05 00 2b 62 05 80 d1 98 bc b3
       -6.40532e-07 4.91571e-40 -4.94394e-40 -8.782229e-08

_orig_mod.embeddings.inventory_id.weight f4 [50, 16]
000000 0e b8 8f 3e c9 4a ba bd 2b cb cc 3f 5f 74 25 be
       0.2807011 -0.090962954 1.5999502 -0.16157673
000010 93 09 c2 be 71 08 39 be ef fa e8 be 84 bc 56 bf
       -0.3789793 -0.18069626 -0.45503947 -0.838814
000020 00 fd f9 3f c4 5b e2 be 92 03 ac 3e 16 6b 91 3f
       1.9530334 -0.44210637 0.33596474 1.1360805
000030 9e 67 bd be a6 7f 91 3f e2 dd c8 be de b1 92 3f
       -0.36993116 1.136708 -0.39231783 1.1460531
000040 28 3c 99 bd 37 5d cf bd 56 53 ef be 53 9e 5a be
       -0.07482177 -0.10125201 -0.46743268 -0.21349458
000050 21 ec 83 3e 97 34 4f 3e e2 01 33 3e 64 67 83 3d
       0.2576609 0.20234905 0.17481187 0.064162046
000060 4c 8a 7d 3e 0c 7c cb be e4 e7 2b bd 7e b5 79 be
       0.24759787 -0.39743078 -0.041969195 -0.2438564
000070 a0 b8 8f be 4f 68 83 3b a4 f6 14 bd cf 00 34 3e
       -0.28070545 0.0040102373 -0.036368027 0.17578433
000080 9a a7 08 bf e4 c0 0e 3f f9 55 01 c0 3d 25 1d 3f
       -0.5338074 0.5576308 -2.0208724 0.61384946
000090 f2 df 0d bd 49 93 ed 3e bf 0d 31 3f 1e 6d 36 3e
       -0.0346374 0.46401432 0.691616 0.17815062
0000a0 ed 6a 2d bf 28 b1 8a 3e f1 24 ed 3e 9c 84 36 bf
       -0.6774128 0.27088284 0.46317247 -0.71296096
0000b0 8c fd 4b bc 3f 27 17 be cd 38 89 3e e6 08 ea be
       -0.012450587 -0.14761065 0.26801148 -0.45709914
0000c0 33 8f 72 3b 09 90 99 3c dc 29 3f 3c 0c d0 24 3c
       0.0037011623 0.01874544 0.011667695 0.010059368
0000d0 2a 6b 72 bc e6 7a b7 39 c5 5c 4e b9 24 02 33 bb
       -0.014796058 0.00034996046 -0.0001968025 -0.0027314508
0000e0 33 c4 39 3d 15 f5 dc 3b d7 62 dc 3c ef f5 18 3c
       0.045353126 0.0067430832 0.0269026 0.009335979
0000f0 21 65 85 bb 0e 57 c5 ba 9c 4f 15 bb c5 24 cf bb
       -0.0040708934 -0.0015055852 -0.0022783047 -0.006321522
000100 99 06 48 3f bf cf a6 3e 07 78 14 bf 04 93 dc 3d
       0.7813507 0.32580373 -0.5799565 0.107702285
000110 32 fa e4 3e 64 6c e2 bd 35 48 00 3e aa f5 37 bf
       0.44722134 -0.1105583 0.12527545 -0.7185923
000120 a6 3b 98 3d b1 be 4d be 66 69 bc bc 1d 87 95 bc
       0.07433252 -0.20092274 -0.022999477 -0.018252904
000130 ce 64 fe 3e 28 63 1a bd 6c 90 0c bf f6 69 6a 3f
       0.49686283 -0.03769222 -0.5490787 0.91567934
000140 55 95 92 be bd 82 2f 3e 73 30 32 3f a8 02 12 3f
       -0.28629556 0.17139716 0.6960518 0.57035303
000150 43 33 1f 40 8e 83 76 bf a0 91 63 3e 82 54 fa 3e
       2.4875038 -0.96294487 0.2222352 0.488926
000160 78 3d bc bf 8f f1 3f 3b 44 70 81 3e ca c8 b3 3f
       -1.4706259 0.0029288267 0.25280964 1.4045651
000170 39 ee 77 3d 15 1a 97 3f 5d 76 06 3f 16 a0 1f bf
       0.06052992 1.1804835 0.5252436 -0.62353647
000180 05 fe f6 3d 79 38 5d bf c1 04 84 3d 5c 2e b2 bf
       0.12060169 -0.86414295 0.06446219 -1.3920398
000190 a3 6d 8c bc b2 80 87 3f 0d 92 ca bf 94 1a 9b bf
       -0.017142123 1.058615 -1.5825821 -1.2117486
0001a0 85 65 20 bf 13 bf 65 3e 2f 1a fa 3e 37 18 d6 bd
       -0.62654907 0.2243617 0.48848101 -0.10453837
0001b0 6f e2 99 bf 9d c9 0d bf 2c f3 84 be 6e 23 62 bf
       -1.2022227 -0.5538576 -0.25966775 -0.8833531
0001c0 57 5f 22 3f 70 cf 82 3f 84 af 51 3f 88 6a 3f 3e
       0.6342673 1.0219555 0.8190844 0.18692982
0001d0 cb a1 34 3c 67 d7 03 3f d9 93 ef 3d 8b da 0d 3f
       0.011024903 0.5150055 0.116981216 0.55411595
0001e0 8b 30 07 be 3b ac e7 3f 55 fe 3b be 2d c9 58 be
       -0.13202111 1.8099436 -0.18358739 -0.21170492
0001f0 93 ac 66 bf bc ad 4e 3f 15 4d 33 3f 2e 46 9d 3c
       -0.9010708 0.8073385 0.7003949 0.019198503
000200 e0 c0 11 be ee dd bf be b2 74 71 be c6 c0 93 bd
       -0.14233732 -0.37474006 -0.23579672 -0.07214503
000210 3b 17 f4 3c 72 21 0c 3f 58 ae 0b 3e c4 bd de bd
       0.029796233 0.54738533 0.13640726 -0.10876039
000220 fb 69 39 3d 20 fa f7 bd 7e 77 54 be 04 06 e7 be
       0.045267086 -0.121082544 -0.20748708 -0.45121777
000230 76 72 2a be 45 f2 17 bd 22 a1 8c bc 43 e7 1b 3e
       -0.16645226 -0.03709628 -0.017166678 0.15224938
000240 ff d0 90 3e 89 9f 80 be 83 c6 9c bc 14 b9 02 be
       0.2828445 -0.25121716 -0.019137627 -0.12765914
000250 41 b7 10 3e be 11 44 be 67 1d 50 3e c5 91 75 3e
       0.14132406 -0.19147393 0.20323716 0.23981388
000260 70 d8 12 3f 7d 8a f2 3e 2f ba 9a 3d 89 84 23 be
       0.5736151 0.47371283 0.07555043 -0.15968527
000270 99 80 84 3f 73 dd 8e bc 94 8c 78 be d9 0a 37 be
       1.0351745 -0.01743958 -0.24272376 -0.17875232
000280 3d 0f d4 be e1 95 bb bf cd 94 06 be 1e 7d d2 be
       -0.41417876 -1.4655114 -0.131427 -0.41111082
000290 ff b8 f7 bf 47 6c 1d bf 14 31 a2 be b8 d1 21 3f
       -1.9353331 -0.61493343 -0.3167807 0.6321063
0002a0 51 7a 54 be fc 2a 5f 3d 38 83 b5 3f 2e 9a 32 3e
       -0.20749785 0.054484352 1.418067 0.17441627
0002b0 9f d5 cc 3e 32 dc a8 3d 29 79 a9 3e 72 4f 5d bf
       0.4000673 0.08245124 0.3310025 -0.8644935
0002c0 cd 3f 27 bf c1 a4 49 3f e5 a4 87 3e 5a 10 8d 3e
       -0.6533173 0.7876702 0.26492992 0.27551538
0002d0 69 10 0d bf c6 5c a4 3f 28 1a 0b 3e 95 21 c3 be
       -0.55103165 1.2840812 0.13584197 -0.3811156
0002e0 5b 11 3c be ec ae c9 be 2e 57 28 bd 3f 02 2c 3e
       -0.18365996 -0.39391267 -0.041098766 0.16797732
0002f0 49 9b 90 bf 8e 19 b4 be e7 9b 9f be 97 56 3c be
       -1.1297389 -0.35175747 -0.31173632 -0.18392406
000300 0b f6 b4 3e bf 2b 3a 3f a9 2f 3c 3e 15 ea 63 3f
       0.35343966 0.72723 0.18377556 0.89029056
000310 0f f1 42 bf 03 87 9e 3e 3c 91 ac 3e 4e 22 e7 3d
       -0.76149076 0.3096238 0.33704555 0.1128584
000320 5c 88 d3 be a1 60 7f bf bd bc 1c bf 8d eb 35 3f
       -0.4131497 -0.9975682 -0.6122549 0.71062547
000330 59 d8 54 3e f6 49 9b 3d 1c 34 d9 be 0d 42 8a 3e
       0.20785655 0.07582466 -0.4242257 0.27003518
000340 5b c8 89 be 9b eb 11 bf ee e8 30 3c 76 98 f9 bd
       -0.26910672 -0.5700013 0.010797722 -0.12187283
000350 fa dd 55 3e 08 f1 1a 3e c3 07 2e 3f 74 81 b3 be
       0.20885459 0.15131009 0.67980593 -0.35059702
000360 88 8f 84 bf d2 39 b2 bd 71 22 1d bf 08 a3 50 be
       -1.0356302 -0.087024346 -0.6138068 -0.20374691
000370 11 5d 91 bd cc a6 6f bf 4a dc a7 bd 3a 24 f3 3d
       -0.07097829 -0.93613887 -0.08196314 0.11872144
000380 48 11 27 bd 25 49 84 3c 22 6a a8 3d 04 1c b6 3f
       -0.040787965 0.01614816 0.08223368 1.42273
000390 eb 0c 03 3f 58 29 da 3e 47 da 1f 3e 19 14 85 3e
       0.51191586 0.42609668 0.1561061 0.25991896
0003a0 c5 95 ab be f9 46 85 3f 3a 57 83 3e e9 22 f5 3d
       -0.33512703 1.0412284 0.25652486 0.11969549
0003b0 b6 7f e4 3e 4e 6f 0d be a1 8b 91 3c b0 1e 96 3e
       0.44628686 -0.1381199 0.017766776 0.29320288
0003c0 a3 b8 07 3e fd 5b 8e be cf 6c c4 3d 37 23 b5 3e
       0.13254027 -0.27804556 0.09591066 0.3537843
0003d0 f3 fd fd 3e a0 91 9c be 9a 34 c7 3d 8e 52 61 be
       0.4960781 -0.30579853 0.0972683 -0.22004148
0003e0 22 07 54 3d 66 86 4f 3e 9d 21 65 bf ed 9d 6f 3d
       0.051764615 0.20266113 -0.89504415 0.05850022
0003f0 d4 5e a8 be be 47 62 bd 6f 53 c0 3f 57 b4 aa 3d
       -0.32884848 -0.0552442 1.5025462 0.08335178

_orig_mod.embeddings.day_of_week.weight f4 [10, 16]
000000 59 0e 23 3e 99 52 0c 3f 22 14 1b bf f1 25 35 bf
       0.15923442 0.54813534 -0.60577595 -0.7076102
000010 a4 53 c4 be 6f e5 54 bf d0 43 b5 be 15 10 f2 be
       -0.38345063 -0.8316259 -0.354033 -0.47277895
000020 c3 63 65 be 11 23 81 3f d5 79 4e bf 05 a0 98 bf
       -0.22401337 1.0088826 -0.8065465 -1.1923834
000030 95 5e 90 3e 08 22 90 3e b8 f5 07 be 1c f0 d3 3d
       0.2819716 0.28150964 -0.13277328 0.103485316
000040 42 02 11 be 1f be 9c 3e 10 27 05 bd 7e 80 4f 3e
       -0.14161018 0.306138 -0.032507956 0.2026386
000050 d1 14 cd 3f d9 ac 89 bc fa 1d 9f be 83 6a 79 3d
       1.6021978 -0.016806053 -0.31077558 0.060892593
000060 39 3b 9d 3e f1 f2 fe 3c 3e 81 b1 3d be 79 09 bf
       0.30709246 0.031121703 0.08667229 -0.5370139
000070 17 ee 4c 3d a2 e3 c5 bc 3d a7 66 bf 38 ad 2f 3e
       0.050031748 -0.024156395 -0.90098935 0.17155921
000080 49 47 25 bf ff 75 9a 3f bf ab 86 be ee c9 1f bf
       -0.645619 1.206726 -0.26302907 -0.62417495
000090 93 fa c7 3d 6d ac 08 bf b8 51 5b bf 53 e9 38 bf
       0.0976459 -0.533881 -0.8567157 -0.72231025
0000a0 ce 81 75 3e 65 c6 b8 bf 79 c2 89 3f 19 29 af ba
       0.23975298 -1.4435545 1.0762473 -0.0013363688
0000b0 ae 5a a6 be 30 25 98 3f a0 5f 9a 3f f1 51 39 be
       -0.32491058 1.1886349 1.2060432 -0.18097664
0000c0 6b 38 af be 69 90 42 3e d3 52 52 3e 0f ab 10 bf
       -0.3422273 0.190004 0.20539407 -0.56511015
0000d0 39 c9 cf 3d 4f bd 61 3e 97 b0 e3 3d 2d 90 82 3e
       0.10145802 0.22044872 0.11117666 0.25500622
0000e0 28 a4 eb 3d a9 5e 1d bd 65 cf c9 be b9 78 94 3e
       0.1150592 -0.038420353 -0.39416042 0.28998354
0000f0 07 fc 1d bf b2 2f 88 3e b3 f3 a0 bf 10 1a 26 3e
       -0.6171269 0.2659889 -1.2574371 0.1622088
000100 80 4d 35 bf 60 d4 de 3e 30 6d 8b be 2e 53 1b 3f
       -0.7082138 0.43521404 -0.2723174 0.606738
000110 12 3b 9f 3e 3a d2 4f be bc 75 9c 3f 39 ff b0 3e
       0.31099755 -0.20295039 1.222343 0.3456972
000120 95 d7 f1 be 23 3a b4 3f b8 39 ed 3d 33 8d 04 3f
       -0.4723479 1.4080242 0.115832746 0.5177795
000130 10 62 a5 bd 6d b3 1f c0 a5 42 b3 3e b7 0e 5d bf
       -0.080753446 -2.4953263 0.35011783 -0.8635058
000140 4e ee 0e bf de e1 d0 3e 4a 58 09 bf 54 56 03 3f
       -0.55832374 0.40797323 -0.53650343 0.513036
000150 fe 44 84 3e 58 9e 01 3f 80 c7 e3 bb 21 73 d7 be
       0.25833887 0.5063224 -0.0069512725 -0.42080024
000160 30 9f 0a 3f 35 8a 5d bf 3b 93 e3 bf b5 89 eb 3e
       0.5414915 -0.8653901 -1.7779306 0.460035
000170 d7 f5 c8 3c 9e 9d a3 3d f6 41 3d be ec 90 81 3d
       0.024531288 0.079890475 -0.18482193 0.0632647
000180 21 57 5f be f3 6c 59 3e c1 59 eb 3e e2 a0 85 3e
       -0.21810581 0.21232967 0.45966914 0.26099306
000190 45 e7 02 3f 40 bd 07 c0 c5 52 ec be 93 26 09 3d
       0.5113414 -2.120926 -0.46156898 0.033484053
0001a0 7c 6c 84 bf 1b 94 19 3f 3a 0d da bf 83 ef 45 bf
       -1.0345607 0.59991616 -1.7035286 -0.7731859
0001b0 53 22 7f 3e 3a 4a 38 3f 49 fd cd 3e 1a 81 14 c0
       0.24915437 0.7198826 0.40232304 -2.3203797
0001c0 ba 89 c0 b6 f4 5c 05 00 da e9 6b 2f ca 5c 05 80
       -5.7380794e-06 4.92523e-40 2.1456206e-10 -4.92464e-40
0001d0 ca 9e af b3 ad 68 e4 3a de 5c 05 80 52 fe 4c a0
       -8.177956e-08 0.0017426215 -4.92492e-40 -1.736362e-19
0001e0 cd 8b 14 38 93 9a 01 ba 12 59 05 00 fc e2 5d b6
       3.541615e-05 -0.0004943993 4.9113e-40 -3.3063689e-06
0001f0 9a 59 05 00 4f 37 c8 3c 06 8d ab 84 8f c7 0d 07
       4.9132e-40 0.024440436 -4.0331416e-36 1.0666306e-34
000200 67 e9 c4 ad 97 b0 06 06 6b c6 aa 9f 11 cd 38 bb
       -2.2386272e-11 2.5332337e-35 -7.2326056e-20 -0.00281984
000210 55 21 31 bc a9 c8 7c 37 a1 02 0b 29 a1 5e 05 00
       -0.01081117 1.506709e-05 3.086648e-14 4.93124e-40
000220 51 5b 05 80 96 8d 18 bc 5f 59 05 80 e3 6a db ba
       -4.91936e-40 -0.0093111005 -4.91238e-40 -0.0016740229
000230 7e a9 91 b9 64 35 b0 bb 10 01 02 00 04 96 05 80
       -0.00027782837 -0.0053774584 1.84052e-40 -5.12993e-40
000240 40 66 05 80 4f 91 05 00 97 c6 0a 2d 9d df ff ba
       -4.95858e-40 5.11304e-40 7.888488e-12 -0.0019521598
000250 f9 bd 2d 3b 77 9a e6 b2 3e ad d2 92 cc e8 3d 2b
       0.0026510938 -2.6845766e-08 -1.3295571e-27 6.746936e-13
000260 20 a6 71 36 e4 03 37 90 9e 9e 91 37 c3 31 ef 87
       3.6008496e-06 -3.6093384e-29 1.7359209e-05 -3.598997e-34
000270 a1 b7 09 b4 92 36 c4 0a bd 0d 8c b3 3c 2e 03 35
       -1.2825923e-07 1.889464e-32 -6.521757e-08 4.886858e-07

_orig_mod.embeddings.hour.weight f4 [30, 16]
000000 2e 7b ba 3e 21 f3 4c 3f 58 90 3a bd 49 ab 1b bf
       0.36422104 0.80058485 -0.045547813 -0.60808235
000010 3f 8e 6e 3d 72 3a af 3d 5d cc 13 3e ea c4 2c 3f
       0.058241125 0.085560694 0.14433427 0.67487967
000020 2d 91 c1 3e e4 97 0a bf 06 c7 32 3e b9 96 63 3e
       0.37806073 -0.54138017 0.17458734 0.22225465
000030 cc 97 23 3f ff 11 3c be 7a 27 87 3d 33 ad d5 3d
       0.639035 -0.1836624 0.065993264 0.10433426
000040 77 6b 16 3d 8e c6 7c 3e 21 e1 17 40 f8 86 79 3e
       0.03672358 0.24685118 2.3731158 0.24367893
000050 4c cb 76 3f e2 0c ae 3d bf 52 bd be b9 f6 02 3f
       0.96403956 0.08498551 -0.36977193 0.5115772
000060 9c be 76 bb 6a 01 d0 3d 43 b6 73 3f ca 5c 49 bf
       -0.0037650233 0.1015652 0.95199984 -0.7865721
000070 cd 83 93 3e 82 d8 e3 3f e0 e3 db be 2b 55 42 3f
       0.28811494 1.7800448 -0.42947292 0.75911206
000080 1b ce 33 3f 4f 92 b1 3d b5 17 53 3e 89 49 0d bf
       0.70236367 0.08670484 0.20614512 -0.5519033
000090 e6 ca fd be 7f f4 25 3d 5c eb f9 bd 0e c7 43 bf
       -0.49568862 0.040516373 -0.12203094 -0.7647561
0000a0 81 98 a5 bd ef b3 37 bd 99 d8 35 be 82 b9 ac bd
       -0.080857284 -0.044849332 -0.17758407 -0.0843382
0000b0 73 20 19 3d 1c cd 5d 3f 09 b6 eb bd 6d 51 26 bf
       0.03738446 0.866411 -0.1150933 -0.64967996
0000c0 64 f6 71 3d a6 b9 8f 3c 38 07 c0 3c 22 f8 1f bd
       0.059072867 0.017544579 0.023440942 -0.039054997
0000d0 49 7f e1 bc 9a a9 04 3a 23 1a 09 bd 26 e8 40 3d
       -0.027526515 0.0005060673 -0.03347219 0.047096394
0000e0 53 eb 6d 3c 71 9d 33 bd 45 29 f3 3c f5 56 09 ba
       0.014521438 -0.04385132 0.029682765 -0.0005239093
0000f0 f9 62 1b 3d 14 04 90 ba 4c 67 c1 bc 11 65 12 bc
       0.037936185 -0.0010987544 -0.023608826 -0.008935229
000100 af 83 9b bc 3e ef 9f 3a 49 30 68 bc fa 89 95 bc
       -0.01898369 0.0012202037 -0.014171668 -0.018254269
000110 9a da 85 3c a6 60 51 3d 56 58 c1 bc 52 e2 12 bd
       0.016339589 0.05111756 -0.023601692 -0.035860367
000120 42 5d e5 3c 02 9e 36 3b 8f e7 ee bc a6 79 07 bc
       0.02799857 0.0027865176 -0.02916315 -0.008268749
000130 73 3e f8 3a a4 33 c9 bb a0 11 7a 3d 23 c5 9f 3c
       0.001893951 -0.0061401892 0.061051965 0.019503182
000140 ff 3d cb 3e 15 36 b0 3e ab a2 9d be f2 e6 a5 bf
       0.39695737 0.3441626 -0.30788168 -1.2961104
000150 65 8a 69 bf 0c 91 8d 3e 06 c1 8b bf 19 4b b8 bf
       -0.912268 0.27649724 -1.0918281 -1.4397918
000160 1c 34 94 be f7 3c 1c bf 8e ca 25 bf 74 68 4d 3f
       -0.28946006 -0.61030525 -0.647622 0.8023751
000170 16 c8 90 be d8 87 28 3e f7 7d b3 3c 62 10 9b be
       -0.28277653 0.1645807 0.02191065 -0.30285937
000180 fa f1 26 3e cf 90 f0 3b 74 14 7a 3c 4e 52 b5 bd
       0.16303244 0.0073414813 0.0152636655 -0.08853589
000190 4e 33 57 be 92 26 37 3e 28 30 f7 be c9 14 b5 bd
       -0.21015665 0.17885807 -0.48278928 -0.08841855
0001a0 65 d9 b0 3e 9f ec a8 bc 9c 27 3c bf 6b dd 3b bd
       0.3454086 -0.020620642 -0.7349794 -0.045865458
0001b0 0e d5 06 3e 79 53 8a 3e 88 6f 6f 3e 79 62 d1 3d
       0.13167211 0.2701681 0.2338239 0.1022386
0001c0 1e 07 c3 3b 33 49 1b 3f c5 21 8f be fe ee 03 3f
       0.005951776 0.6065857 -0.27955452 0.5153655
0001d0 36 80 6e bf 03 87 4e 3f 89 2a 06 bf 90 92 9f 3c
       -0.93164384 0.8067476 -0.52408653 0.019479066
0001e0 01 6f cd be b8 0b a4 3c bb ba eb 3e 21 b2 f6 be
       -0.40123752 0.02002512 0.46040902 -0.48182777
0001f0 bd 9c 9c be c2 b9 95 be 76 84 61 3f 03 0c 19 bf
       -0.30588332 -0.29243284 0.88092744 -0.59783953
000200 4e 79 86 be 38 80 11 be 7d 99 b5 3d fd f0 6f 3e
       -0.26264423 -0.14209068 0.08867166 0.23431773
000210 2f 64 35 3d 3a e2 30 3e be 3f 43 bc f4 bd 63 be
       0.044284996 0.17273799 -0.011917053 -0.2224043
000220 ab a6 b7 3d ae 3e 8b 3f 33 90 5f 3b 50 70 38 3e
       0.08967336 1.0878503 0.003411305 0.18011594
000230 54 61 26 be 4f a1 65 3e df a0 95 3e 7e 76 ba bd
       -0.16248065 0.22424816 0.29224297 -0.09104632
000240 9a b5 8e be 0d 1b b3 3d 7a 83 f8 bd 0b c1 f3 be
       -0.27872926 0.08745394 -0.12134452 -0.47608218
000250 19 46 23 3e e5 51 eb be 6e a5 44 3e fa d7 81 3d
       0.15944709 -0.45960918 0.19203731 0.063400224
000260 62 c7 bd bb 66 3e 9f 3d 77 ca 97 bd 8d ee f0 3e
       -0.0057915905 0.077755734 -0.07411664 0.47057
000270 b3 38 82 be 5e a1 01 3e 08 4f 78 3d b8 41 3e 3f
       -0.25433883 0.12659213 0.060622245 0.7431903
000280 91 19 95 bd c4 23 37 3c 03 7b 77 bd 7a ea 15 3d
       -0.07280267 0.011177961 -0.060420047 0.036600567
000290 22 ea a9 3f a5 21 76 3f 7c 3a a7 3d 6f 66 1a bf
       1.3274577 0.9614509 0.08165452 -0.6031255
0002a0 a1 96 8f 3c 86 09 31 3e 34 ee b7 be f1 3e 99 be
       0.01752788 0.17288789 -0.35923922 -0.29930833
0002b0 e6 9f 23 be 0b 19 99 3e 66 4c 81 bc f1 be 49 be
       -0.15978965 0.2990192 -0.0157835 -0.19701745
0002c0 73 0a 31 3e 4a da b1 bd c4 2b bc be 8b e7 24 bf
       0.17289142 -0.086842135 -0.3675214 -0.64415807
0002d0 9d 5a 40 bf 44 f9 ba bf dd 53 fb 3d e4 ca 8c be
       -0.75138265 -1.460732 0.12271855 -0.27498543
0002e0 58 1e c3 3e 26 cf bf 3f 12 85 b3 3e ad 9f f1 3e
       0.38109088 1.4985092 0.35062462 0.47192135
0002f0 0f 89 da 3e c1 67 49 3f 4e 39 82 3e a4 b5 91 3f
       0.42682692 0.7867394 0.25434345 1.1383557
000300 82 df cc bd 91 60 f7 bc 47 1e a5 bd c6 3e 4a be
       -0.10003568 -0.030197414 -0.080624156 -0.19750509
000310 c6 b0 ff 3d 46 82 3a bd b6 bd b5 3e 98 cc 84 be
       0.12484889 -0.045534395 0.354963 -0.25937343
000320 cf 3f 4d be 9f aa 9a bd 5b 30 a4 bd cb ce 73 bf
       -0.20043872 -0.07552075 -0.080170356 -0.95237416
000330 b0 70 f1 3d de 67 0d bd 30 5c 5b be 54 ed 3a 3e
       0.117890716 -0.034522884 -0.21421885 0.18254596
000340 07 de ce be 2a ce 12 be 12 30 f7 bd 46 1e f6 3b
       -0.40403768 -0.14336458 -0.120697156 0.007510933
000350 0a fb 63 3c 03 a7 c8 be 30 6e 84 be cb ca df bc
       0.013914833 -0.3918992 -0.25865316 -0.027318379
000360 11 74 5b be 5f 02 d0 3c 06 e0 84 be 9c fd 00 3e
       -0.21430995 0.025391756 -0.25952166 0.12596744
000370 b7 95 6a 3f ce 3c df 3e 48 c9 c7 be 6e 0f dc bd
       0.91634697 0.43601078 -0.39020753 -0.107451305
000380 92 fb db 3e b8 7e 5f 3f 66 a5 2a 3f 56 a7 44 3e
       0.4296537 0.8730273 0.6665863 0.19204459
000390 3d a6 36 bf 8d 50 98 3e af e5 21 40 9d 5b f6 3e
       -0.7134741 0.29748955 2.5296438 0.4811677
0003a0 92 f8 90 be 14 1f 67 bf 9a 2a 95 be b2 96 93 3f
       -0.28314644 -0.90281796 -0.29134065 1.1530364
0003b0 f5 69 94 be e2 8c 10 3f 25 31 fb 3e ff 2e 98 be
       -0.2898709 0.5646497 0.49060932 -0.29723355
0003c0 e5 01 8a bd 04 80 10 be 02 ad 57 bd e1 8a 2a 3d
       -0.067386426 -0.14111334 -0.052655227 0.04163635
0003d0 04 c8 e6 3d 8d e6 d5 3d 74 58 5c 3d 94 ec 34 3e
       0.11268619 0.10444365 0.053795293 0.17668372
0003e0 b4 3a b7 be f0 a5 d6 3c fe af c0 bd 6b da 51 3d
       -0.35786974 0.026202172 -0.09408568 0.05123369
0003f0 47 11 e5 bc 3a 72 1c bd 0f 3b 1e 3e 37 0a 8b 3c
       -0.02796234 -0.038194872 0.15452217 0.016972644

_orig_mod.dense_proj.bias f4 [16]
000000 2e 4e cd 3a 21 90 8c bb 5d f2 09 bb 2e db d5 3b
       0.0015663558 -0.0042896424 -0.0021049 0.0065263724
000010 5f c9 20 3d 3e 7c e1 ba 62 45 4b 3c 5c d0 3d 3c
       0.039254542 -0.0017203165 0.012406679 0.011585321
000020 d9 ef 83 39 3c 63 0c bb 35 fb 51 3c 40 9c 91 3c
       0.00025164968 -0.0021421453 0.01281624 0.017774701
000030 3a 53 cb 3a 21 61 32 3c 6f bb 93 3b 3b 4f b3 bb
       0.0015512474 0.010887415 0.004508428 -0.0054720915

_orig_mod.self_MSR1.0.W_q.weight f4 [32, 16]
000000 db a7 83 3d 67 65 12 be b0 25 85 bd 7c 9d 0e 3e
       0.064285 -0.14296494 -0.06501329 0.13927263
000010 5e 27 16 3e c9 ac 53 be fa 1f eb 3c 4f c0 d1 3d
       0.14663455 -0.20671381 0.028701771 0.10241758
000020 d5 b5 59 3d a3 49 43 be 53 cb f0 bd 38 57 ab bd
       0.053151924 -0.19071059 -0.11757531 -0.08366245
000030 2b 27 1e bd b8 59 01 be fe 1f 61 be 5b a8 9b bd
       -0.038611572 -0.12631881 -0.2198486 -0.07600471
000040 2a 07 35 be 9d b6 21 3e c7 61 88 3d d8 9f e5 3c
       -0.17678514 0.15792318 0.066592745 0.028030321
000050 b9 f1 28 be 26 bf a3 bd 8d d7 2d bd b6 05 26 be
       -0.1649846 -0.07995443 -0.042441893 -0.16213116
000060 85 59 01 be cb e0 08 3e 94 4e a4 3d 3f 5d 25 be
       -0.12631805 0.13367002 0.080228 -0.16148852
000070 bf 00 50 3e 25 6f fd 3d 78 fd b2 bd b3 aa d7 bd
       0.20312785 0.12374715 -0.087397516 -0.10530605
000080 fb ea ca bd ec 5e f8 bd 06 98 5a 3c 2f f3 c3 3c
       -0.099081 -0.1212748 0.013341909 0.02391967
000090 7c da 0e bc 0d 1c 84 bd 98 53 00 be 0a dd 21 be
       -0.008719083 -0.06450663 -0.12531888 -0.15806976
0000a0 b5 38 cb bd fa 26 d6 bd 98 23 ad bc bd d7 36 be
       -0.099229254 -0.10456653 -0.021135136 -0.17855735
0000b0 6a 3f 54 3b b6 cb fe bc 62 0b 47 bb da cc 5e 3e
       0.003238643 -0.031102996 -0.0030371775 0.21757832
0000c0 36 ef 81 3c 53 24 21 be 53 4c b4 bd 69 5b 0e be
       0.015861135 -0.15736513 -0.0880362 -0.13902058
0000d0 34 43 4b 3e f6 ef 49 3e 30 b2 1a 3e 5f 1b 2a 3e
       0.19849855 0.19720444 0.15107036 0.16612004
0000e0 f5 4d d1 ba ca 76 a8 bd 8e 12 0b 3e 06 ce 58 3e
       -0.0015968668 -0.08225782 0.13581297 0.21172342
0000f0 20 0a 1f 3e 2f 86 16 3e 80 1e 1c be 06 17 98 3d
       0.15531206 0.14699624 -0.1524601 0.07426266
000100 c0 12 e7 bc f9 f3 d6 3d 52 27 27 3d 82 9b 01 3e
       -0.028207183 0.10495753 0.040808983 0.12656978
000110 7a 49 36 3c 50 19 9a 3d d4 b3 00 bb 8b 24 ef 3d
       0.011125917 0.07524359 -0.0019638436 0.11676892
000120 8e 0f 53 3e 4c df 1a 3d ad 68 f1 bd 70 db d3 3c
       0.20611402 0.03781061 -0.117875434 0.025861472
000130 ae 1a c5 3c 47 24 27 3e 0a 53 6c bd 40 11 1f be
       0.024060573 0.16322432 -0.05769638 -0.15533924
000140 5a 4c 62 3d e6 a2 3b bd 27 fd 23 3e ac d3 5c bd
       0.055248596 -0.04580965 0.16014539 -0.053912804
000150 39 96 94 3d 0f e6 0b 3e 04 a8 ab bc 76 f9 a4 3c
       0.07255215 0.13661979 -0.02095414 0.020138483
000160 be cd 35 3e 7e aa 6c bc f3 c1 33 3d 24 f7 b8 bc
       0.17754266 -0.014444945 0.043886136 -0.022578783
000170 a9 f3 4b 3e e8 44 36 be d3 7f 06 be e7 26 cf 3b
       0.19917168 -0.17799723 -0.13134699 0.006321776
000180 cd 53 c6 3d e2 67 44 be 97 95 f9 bd a1 e6 ac 3d
       0.096839525 -0.19180253 -0.12186735 0.084424265
000190 0f 0f 94 bd d6 1f 81 bb 87 f9 0a 3e 76 d5 43 3d
       -0.07229435 -0.0039405627 0.1357175 0.047810994
0001a0 11 8e 00 be 64 58 d4 bb ae 7b fd bd 34 6a 3e 3e
       -0.12554194 -0.0064802635 -0.12377106 0.18595201
0001b0 7a d5 31 3e 41 73 3a 3e 2b 8a c4 3d d9 e2 d6 3d
       0.17366591 0.18208028 0.09596666 0.104924865
0001c0 10 3b a9 bd 91 49 49 3e 79 1d 19 be 80 9a 8b 3d
       -0.082632184 0.1965697 -0.14952649 0.06816578
0001d0 ea 2c 06 be f2 e9 37 be e1 db 3f 3e 15 d5 3f 3e
       -0.13103071 -0.17960337 0.18736221 0.18733628
0001e0 b7 04 32 be 1c db aa 3b b4 fa 74 bd 7b e4 1f bd
       -0.17384611 0.005214108 -0.0598094 -0.039036255
0001f0 2c af 84 bd fd 4c 61 3d 5d ac 10 3e 72 48 91 3d
       -0.06478724 0.055005062 0.14128251 0.07093896
000200 b0 e5 bd bd c2 0d 51 3d 08 e9 5e 3e 63 1f 8f 3e
       -0.09272325 0.05103851 0.21768582 0.27953634
000210 04 09 fb bd 60 b7 07 bd f2 38 0f be 60 01 6f bb
       -0.12257579 -0.033133864 -0.13986567 -0.0036469325
000220 9b 03 7a bd cd 8d f4 3b dc bf 20 be 3e 7a 29 be
       -0.061038595 0.007463193 -0.15698189 -0.16550538
000230 43 5c 89 3d 3e 82 59 3e 5c a6 3d 3e f0 0a fd 3d
       0.06707051 0.2124109 0.18520492 0.12355602
000240 65 d6 ce bd 49 12 33 be 56 ed 10 be 8d 2e 5b 3b
       -0.10099486 -0.17487444 -0.14153036 0.0033444494
000250 48 a5 36 be 2a c6 32 be 06 55 35 3d 81 d9 6d bd
       -0.17836487 -0.17458406 0.044270538 -0.058068756
000260 96 1a 51 be 23 34 d1 3d e7 d5 4a be 16 de b3 3d
       -0.20420298 0.102150224 -0.1980816 0.08782594
000270 87 55 87 bd 3b 6f a4 bd 44 0d 8d bd d2 5d 36 bd
       -0.0660811 -0.08029028 -0.06887296 -0.044523068
000280 a3 49 08 be 1d ec 4f be fd c2 a0 3b e3 c2 b9 3d
       -0.1330934 -0.20304914 0.004906057 0.09070375
000290 ca 53 f6 3d 34 21 1b 3e 4c a6 25 3d 4e cf f1 bd
       0.120277 0.15149385 0.040441796 -0.11807118
0002a0 35 ee e8 bd e9 0f 63 3e 34 a5 b3 bd 74 97 27 be
       -0.113735594 0.22174038 -0.08771744 -0.16366369
0002b0 69 cf 5e 3d 7d 90 9f bc 2f 1c 63 3d f7 ba 0b be
       0.05439702 -0.019478077 0.0554468 -0.1364554
0002c0 f8 c9 29 3d 09 8b 1f 3e b3 d3 38 bd 3b ca 12 be
       0.041452378 0.15580381 -0.045123767 -0.14334957
0002d0 2b e1 79 be 83 e8 3c be 6a 5b 56 be 8c 58 86 bd
       -0.24402301 -0.18448071 -0.20933309 -0.06559858
0002e0 3a 68 8b 3d 16 26 25 3e 3b 8d 1b be 11 8f 65 3e
       0.06806989 0.1612781 -0.15190594 0.22417857
0002f0 8d fd e3 3a 6d c0 4a be 1f 03 f8 3d 8f 6a 03 be
       0.001739429 -0.19799967 0.1210997 -0.12833618
000300 56 d1 eb bd 62 5e a9 3d 78 6d 86 bd 89 fa 1f 3c
       -0.11514537 0.08269955 -0.06563848 0.009764322
000310 6c df f6 bb 36 0b 05 be 32 72 87 bd d6 fd 13 be
       -0.007533958 -0.12992558 -0.06613578 -0.144523
000320 05 d0 b6 3c 7b c0 3d be 76 3a 7d 3d 95 89 f4 3d
       0.022315988 -0.18530457 0.06182333 0.11940304
000330 68 76 a2 bd 9f c9 57 3e d0 7f 91 bd 4e 77 ed bc
       -0.079327404 0.21073006 -0.071044564 -0.028987553
000340 a0 c5 55 3d 0f a7 be 3d 19 4b 0a 3e 12 46 38 3e
       0.052190423 0.09309208 0.1350521 0.1799548
000350 e1 69 44 3d 3a af 46 be 03 b9 e9 3c eb 07 36 be
       0.047952536 -0.19402781 0.028530603 -0.17776458
000360 f0 89 30 3e c3 79 af bd 77 39 d3 bd ef c0 7c bd
       0.17240119 -0.08568146 -0.10313695 -0.061707433
000370 1f 07 a3 3d 3d 54 83 be 55 7b 4a be 4e 5d 52 3e
       0.079603426 -0.25650206 -0.1977361 0.20543405
000380 79 e3 a9 bc f9 9a 70 bb c1 c8 27 3e ed 2b 28 3e
       -0.02073835 -0.0036713465 0.16385175 0.16423006
000390 86 5e ab 3d fd 75 04 3e 95 4e 34 bd 49 a0 af 3d
       0.08367638 0.12935634 -0.044020254 0.08575494
0003a0 73 89 b7 3d 3e 39 8a 3d ff 80 0d 3e a1 36 3e bd
       0.08961763 0.06749199 0.1381874 -0.046438817
0003b0 8c 55 0d be ad 37 f8 3c 76 77 cd 3b b7 fb 39 be
       -0.13802165 0.030299986 0.0062703444 -0.18162428
0003c0 27 37 00 be 13 57 4b be 27 7d 32 bd 2f 55 1c be
       -0.12521039 -0.19857435 -0.043576386 -0.1526687
0003d0 81 02 7e 3d 51 c5 0f 3e 8d 00 26 3d 36 26 c3 bd
       0.062014107 0.14040114 0.04052787 -0.095287725
0003e0 a3 65 c4 3d 80 63 50 3e af e0 65 bd 8c 8d 7d bd
       0.09589698 0.20350456 -0.056122478 -0.061902568
0003f0 f3 6e 07 bd 3b 26 3b 3d 34 bd be bd 74 a1 40 3d
       -0.033064794 0.045690756 -0.093134314 0.047028974

_orig_mod.self_MSR1.0.W_k.weight f4 [32, 16]
000000 64 ea bd 3d 8d d4 40 bd 64 20 09 be de 4e b2 bc
       0.09273222 -0.047077704 -0.13391262 -0.021766122
000010 2b f6 1a be f7 80 42 3e 7b 57 7f bd 25 74 dc bd
       -0.15132968 0.18994509 -0.062339287 -0.1076434
000020 96 81 35 bd fa 13 29 be 39 ff 15 be e8 4a bf 3d
       -0.044313036 -0.16511527 -0.14648141 0.09340459
000030 a8 d4 c1 3b 85 fd 48 bd df 8a ad bd ee ea 06 3e
       0.005915243 -0.0490699 -0.08473753 0.13175556
000040 4a 2b 22 3e f3 c8 52 be 42 ee 0b be 19 47 17 be
       0.15836826 -0.20584469 -0.13665107 -0.14773215
000050 1a a0 69 3d 38 f6 ce bc fe 1b 9c 3d 36 ac b3 3d
       0.05703745 -0.02526389 0.076225266 0.08773081
000060 bb b2 be bd 9a b4 cc 3c 60 50 06 bd fb c3 29 ba
       -0.09311434 0.024988461 -0.032791495 -0.0006476042
000070 0f 68 10 3e 1c bf 3c 3e d8 bd c5 bd 68 a6 14 be
       0.14102195 0.18432277 -0.096553504 -0.14516604
000080 a4 e6 ef 3d d8 73 60 3e 86 3b 84 3c f9 67 5b 3c
       0.11713913 0.21919191 0.016141664 0.013391488
000090 eb 90 c7 3d e7 1c 59 3e 4d 4a e7 3d d7 32 94 3c
       0.09744438 0.21202432 0.112934686 0.018090649
0000a0 45 7e 0d 3e fe cc 10 be b5 24 f9 3d 6f 37 71 be
       0.13817699 -0.14140698 0.121652044 -0.23556302
0000b0 3b d6 4b 3e 87 68 65 bc 5e f0 d3 3c 86 f5 dd bd
       0.19905941 -0.014001972 0.025871452 -0.108378455
0000c0 a1 db 1c be 98 da 1b 3e 7b ad 39 bd a9 3f 31 3e
       -0.15318157 0.15220106 -0.04533146 0.1730944
0000d0 77 aa 85 bd 3c 0a 04 3e 6c 0c 3e bd ca 27 0d 3e
       -0.06526654 0.12894529 -0.046398565 0.1378471
0000e0 fc 96 5b bd 3d ed 82 3e 22 18 3f 3e ad 8f 14 be
       -0.053610787 0.25571623 0.1866155 -0.14507933
0000f0 60 cb 31 3e 3b b4 e1 bd 3a b2 d3 3d 72 d6 1b bc
       0.17362738 -0.11020704 0.103367284 -0.009511577
000100 46 6b d5 bc 7a 43 71 bc 7a c0 5b 3d ed 06 9b 3d
       -0.026052129 -0.01472556 0.053650357 0.0756968
000110 b4 0b 46 be c2 01 c4 bc d3 f7 51 3d b1 2b 96 3d
       -0.19340402 -0.02392662 0.051261734 0.07332552
000120 63 9b 5f 3e 4b ad 28 be de 79 0e 3e e9 9c 8c be
       0.21836619 -0.16472356 0.13913676 -0.27463463
000130 cf ba 3e 3d 4f 3c e7 3d 54 ea 08 be af 24 6c be
       0.046564873 0.112908 -0.13370639 -0.23060869
000140 3d 05 8c 3d b4 2f 29 3e 59 c0 7a bd 10 9d 52 be
       0.068369366 0.16522104 -0.061218593 -0.20567727
000150 28 ae 43 3c 74 6e 51 3c 76 41 75 3e be 05 24 be
       0.011943378 0.012782682 0.23950753 -0.16017815
000160 bf df ea 3b 5b 1e 1a be 6f dd d6 bd c5 38 00 3e
       0.007167786 -0.15050642 -0.10491454 0.12521656
000170 a0 7f b6 3d cf 63 10 3e e0 60 42 bd e7 5a 28 be
       0.08911061 0.14100574 -0.04745567 -0.16440926
000180 87 16 23 3d cc 16 09 be 93 78 26 3e b1 d1 31 3e
       0.039816406 -0.13387603 0.16256933 0.17365147
000190 89 df ac 3d c2 bb 59 bd a9 e0 39 3e 44 26 0e 3e
       0.084410734 -0.053157575 0.18152107 0.13881785
0001a0 1e d8 d2 3d 30 74 fd 3d df 8e 5c be 54 55 13 3e
       0.10295127 0.12375677 -0.21538876 0.14388019
0001b0 34 6b 3d be 74 b4 4e 3e f2 51 58 be 91 03 8a 3e
       -0.18497926 0.20186025 -0.2112501 0.26955846
0001c0 9c 83 89 bd 60 0e 06 3e 76 58 2a be 14 35 b1 3d
       -0.067145556 0.13091421 -0.16635308 0.08652702
0001d0 de 98 2b bd 38 47 ad 3b 3e e0 d3 3c 97 20 22 3e
       -0.041893832 0.005288031 0.025863763 0.15832745
0001e0 bc 7f 35 3e 02 a9 b0 3c 13 c7 1b bd ac eb a6 3d
       0.17724508 0.021564964 -0.03803165 0.081504196
0001f0 1b 7f 4d 3d 8b a7 fd bd 62 42 ed bd 82 c0 41 3e
       0.050170045 -0.12385472 -0.11584927 0.18921092
000200 8f d6 82 bd 6e 0f 1a be a7 71 ca 3d 5e b1 44 be
       -0.0638858 -0.15044948 0.09884959 -0.19208285
000210 23 b0 2e 3e 11 1c 17 3d d2 12 62 bd d2 a7 4a be
       0.17059378 0.036892 -0.05519373 -0.19790581
000220 ff 5a b5 bd 32 e5 11 be d8 ae c8 3d ed f1 1c 3c
       -0.08855247 -0.14247587 0.09798974 0.009579164
000230 aa f3 9e bd b4 e7 1a bd f6 b1 a1 bd 6e 5d 06 be
       -0.07761319 -0.037818626 -0.078952715 -0.13121578
000240 a4 c3 09 be 0c f9 5d be 16 c3 32 3e 21 b9 da bc
       -0.13453537 -0.21677035 0.17457232 -0.026699604
000250 a5 56 2d 3e a9 00 88 be 4b 5e f8 3d 2d bc a9 3d
       0.16927584 -0.26563004 0.1212736 0.08287845
000260 3d 45 39 3d 1c aa 62 be f9 1c 24 be cb 74 73 be
       0.045232046 -0.22135204 -0.16026677 -0.23775022
000270 4b ad 6a 3d ef 5a 58 be 7d 1f 5f bb 77 da 47 3d
       0.05729417 -0.21128438 -0.0034045868 0.04879233
000280 20 d5 d9 bd e6 1d 25 bd 27 f8 c5 bd 25 92 0a be
       -0.106363535 -0.040311716 -0.09666472 -0.13532312
000290 07 4b 60 be 57 ff ac 3d 3c 48 eb 3d ab 35 4f be
       -0.2190362 0.0844714 0.11488387 -0.20235316
0002a0 89 0f f1 bd c5 98 db 3c 29 de 2e be f8 87 49 be
       -0.11770541 0.026806245 -0.17076935 -0.19680774
0002b0 50 31 02 3d bf 6a 13 be f5 4f 3c be 0d 90 80 3d
       0.03178531 -0.14396189 -0.18389876 0.062774755
0002c0 92 a6 35 3e 8a 4d 00 3e bd 37 28 be 67 8c 12 be
       0.17739323 0.12529579 -0.16427512 -0.14311372
0002d0 0c 75 16 bd 8e 51 ba 3c e1 83 91 3b 2f 08 2e 3e
       -0.03673272 0.022743966 0.00444077 0.1699531
0002e0 6a 89 e6 3d 08 56 ca bc ce 22 f5 3d c9 50 24 be
       0.112566784 -0.024699226 0.11969529 -0.16046442
0002f0 f3 45 b4 3d 90 e3 1a be 04 bc 51 be cf fd 02 3e
       0.08802404 -0.1512587 -0.20481879 0.12792133
000300 e7 52 d6 3d dd 07 17 3e 49 6f 66 be 6b 34 45 bd
       0.10465031 0.14749093 -0.2250339 -0.048145693
000310 ac 8f d6 bd 3c 5f 0f 3e 21 a3 38 be 1d c9 c8 3b
       -0.10476622 0.14001173 -0.18030979 0.00612749
000320 7f c8 47 be 4b 82 b2 3d 56 7c b7 bc 81 c0 f8 3d
       -0.19510077 0.08716258 -0.022398155 0.12146092
000330 94 8f 39 3d eb 60 c7 bc c1 50 49 be 79 4e a9 bd
       0.045302942 -0.024338206 -0.19659711 -0.082669206
000340 4a 63 c7 3c 1e 66 ef bd 87 4e d1 3d 51 4d 26 ba
       0.024339337 -0.11689399 0.10220056 -0.00063439185
000350 e9 4d 6f 3e 80 11 b0 3d 6f cc 45 bd 46 9f a7 3d
       0.23369564 0.08597088 -0.048290666 0.08184676
000360 51 82 44 be 56 b9 4e be 35 5e 8d 3e af cf 93 bc
       -0.19190337 -0.20187888 0.27610937 -0.018043367
000370 3b f7 fb 3d 59 d0 5c be 68 40 68 be 7c 51 37 3e
       0.12303015 -0.21563853 -0.22680819 0.17902178
000380 48 ed 24 3e 6e 71 ad 3d a3 7c db 3d ee 4d eb 3c
       0.1610614 0.084689006 0.10717132 0.028723683
000390 8e d5 16 3e 82 f2 d0 bc 42 dd 31 be a0 dc 81 3d
       0.14729902 -0.025506262 -0.1736956 0.06340909
0003a0 16 0f 21 3e 04 c8 0a 3d 47 0e 90 3d 9e 8d d7 bd
       0.15728411 0.033882156 0.07033973 -0.10525058
0003b0 f1 19 92 bd 2a 9d 57 be fa 57 e8 3d f5 33 0c 3e
       -0.07133854 -0.21056047 0.11344905 0.13691695
0003c0 6d 19 61 be bd 7c 89 bd 5c a3 15 bd ca 42 76 3e
       -0.21982355 -0.06713245 -0.036532745 0.24048916
0003d0 6f 2f f1 3d 38 36 47 3e e7 df 29 be 45 60 64 be
       0.11776625 0.19454277 -0.16589318 -0.22302349
0003e0 51 ab 52 3e 8b 37 17 be 01 67 23 be e5 8a 3e be
       0.20573165 -0.14767282 -0.15957262 -0.18607672
0003f0 c3 69 cb bd 98 07 5a 3e d7 4c 3e 3e e4 0f 59 bd
       -0.09932282 0.2129196 0.18584 -0.05299367

_orig_mod.self_MSR1.0.W_v.weight f4 [32, 16]
000000 4b 0d ed 3d bf aa 50 3e b0 f8 16 be d2 18 80 bd
       0.11574801 0.20377634 -0.14743304 -0.06254734
000010 ac 2c 87 3d 97 64 e2 bd 09 5a 90 3d d8 ba 23 3e
       0.06600317 -0.11054342 0.07048423 0.15989244
000020 e8 e7 3a be 8f 8e f8 bd 8b db 32 3e 51 e5 07 bd
       -0.18252528 -0.12136566 0.17466561 -0.033177678
000030 f0 1e 11 be 48 a1 3d 3c dd a6 f5 3c fb f0 e8 3c
       -0.14171958 0.011574097 0.029986793 0.028435221
000040 6a e8 b0 3d 06 ca 44 be e8 d4 ae bd c3 f6 cc bc
       0.086380795 -0.19217691 -0.085367024 -0.025020009
000050 1f 7e 34 3e 9c 42 f3 bd 62 cf a9 bc 23 c8 c7 3d
       0.17626236 -0.11877939 -0.02072877 0.0975497
000060 03 29 42 be d6 69 17 3e 5e 36 1c be 11 e9 2f bd
       -0.18960957 0.14786467 -0.15255114 -0.04294688
000070 d0 52 61 bc a9 99 41 be ad 3c d5 3d 43 14 0f 3d
       -0.013752654 -0.18906273 0.104119636 0.034931432
000080 d3 7d 7f bd 47 50 11 3e 35 48 c4 3d ee bd 60 3c
       -0.062375855 0.1419078 0.09584085 0.013717158
000090 85 42 0d 3e 29 bb 00 bd 77 8b f7 bd 5f 5c fd bc
       0.13794906 -0.03142849 -0.12087148 -0.030927835
0000a0 9d 93 ad 3d 49 d6 35 be ad ed 31 3e 85 e7 9a bd
       0.084754206 -0.17757525 0.17375822 -0.0756369
0000b0 c6 34 ff bd 1d ae 2a be 3b 79 28 3d 2d a9 78 be
       -0.124612376 -0.16667981 0.04113124 -0.24283285
0000c0 4f 3d c8 bd ae f9 fa bd 56 c4 6c 3d d4 c5 c9 bc
       -0.09777319 -0.12254654 0.057804428 -0.024630465
0000d0 34 69 9e bd d2 96 13 3e f4 f8 75 3e eb 40 bb 3d
       -0.0773491 0.14413002 0.2402075 0.091432415
0000e0 ee 5a 31 3b 8e 2d b8 3d be 17 86 bd 11 c6 3d bd
       0.0027062255 0.08993064 -0.06547497 -0.04633147
0000f0 d1 01 aa 3d 1d f3 1e be 83 76 0f 3e 13 d8 fd bb
       0.08301128 -0.15522428 0.14010052 -0.0077467053
000100 45 15 fb 3c e4 f5 c6 bc 3f 83 f1 3c 4a 67 bc bc
       0.03064979 -0.024287172 0.029481528 -0.02299847
000110 8c e8 e8 3c 73 f6 31 be 34 4e 1b be 3e 1f 2d 3e
       0.0284312 -0.17379169 -0.15166551 0.16906449
000120 8e 86 86 3d 0f f9 f8 3d b7 e0 05 bd 90 ff e2 bd
       0.06568633 0.12156879 -0.032685008 -0.11083901
000130 5a 05 00 be d3 3e 3f 3e 28 12 6a 3e 8b c0 13 3e
       -0.12502041 0.1867631 0.22858489 0.14428918
000140 c9 9e 53 be 0b 2e 4d bd 2c d9 14 bd d3 1f e6 bd
       -0.2066604 -0.050092738 -0.036339924 -0.11236539
000150 f3 a2 e4 bd 74 fe 4a be 0a 33 33 be 40 b9 2e 3e
       -0.111638926 -0.19823629 -0.17499939 0.17062855
000160 11 74 4d 3e 8d 89 cb 3d 0b 3b 5b 3e 83 fc a8 3d
       0.20063807 0.09938345 0.21409242 0.08251288
000170 b4 14 f6 bd f3 52 4c 3e 96 8c 34 be 4c bc a4 bd
       -0.120156676 0.19953518 -0.17631754 -0.08043727
000180 4f 33 4c bd ec c4 59 3e 90 c3 c0 ba 6a 11 09 be
       -0.04985362 0.21266526 -0.001470672 -0.13385549
000190 5f ed c6 3d f4 db 50 3d 22 71 3c 3d ba ed 28 3e
       0.09713244 0.050991014 0.04600633 0.16496935
0001a0 a6 36 25 be fa 55 03 3e 8b 0e 0e 3e 8d 7d 5f be
       -0.16134128 0.12825766 0.13872735 -0.21825238
0001b0 d0 6c 66 3e d7 dc 3d 3d 3a bf 59 3d db f5 68 bd
       0.22502446 0.046353187 0.053160883 -0.05687509
0001c0 8c 64 41 be 40 54 62 3e 60 c1 e9 3d 72 cf 05 3e
       -0.18886012 0.22102451 0.114138365 0.13067415
0001d0 71 42 e6 3c 79 a1 5c be c1 8b 1c 3e 4c 27 cc bb
       0.028107854 -0.21545972 0.15287687 -0.0062302705
0001e0 cc 24 af 3d 94 cc 2e 3e dd 29 09 bd 72 9e 98 3d
       0.0855194 0.17070228 -0.03348719 0.07452096
0001f0 8a 0c 6a 3d 9f ce 2c be da 6a 24 3e 8d eb 2c 3e
       0.057140864 -0.16875695 0.16056386 0.1688673
000200 5d 11 06 be 9b 60 8a bd 3d 9c 90 3c 08 cd e9 bd
       -0.13092561 -0.06756707 0.017652625 -0.1141606
000210 bd ae 06 3e 96 ac 9f 3d 49 c4 5a 3d 74 7a 88 bc
       0.13152595 0.0779659 0.05340985 -0.016659953
000220 a5 9c 55 bd ae 47 16 3e 53 44 b1 3d 47 3e 17 be
       -0.05215134 0.14675781 0.0865561 -0.1476985
000230 40 14 8d bd fc 88 73 bd 93 ed 83 3d 30 ef 53 bd
       -0.06888628 -0.05945681 0.06441798 -0.05174178
000240 6d 1c 51 3d fb c6 62 3e 98 fb 14 3e c2 36 f0 bd
       0.0510525 0.22146218 0.145491 -0.11729194
000250 08 d6 0b be 4a fc 07 3e 16 92 bd bd c1 af 48 3e
       -0.13655865 0.13279834 -0.09256379 0.19598295
000260 e3 25 2a bd 3a 6f 34 bc c3 f1 38 3e 46 01 72 bd
       -0.041540038 -0.011012847 0.18060975 -0.059083246
000270 81 3c 17 3e 12 06 2e be ab a0 b7 bd 2a b4 12 3d
       0.14769174 -0.16994503 -0.08966192 0.03581635
000280 43 bd 5a 3e 6c 25 9c bd b5 91 b3 3d c3 d7 78 3c
       0.2136126 -0.07624325 0.08768026 0.01518816
000290 f6 1c 1f 3e 88 3e 09 3e 12 72 dd 3c c4 26 28 be
       0.15538391 0.1340276 0.027031932 -0.16421038
0002a0 36 d0 6a bc 49 9c ac bd b0 49 01 3c a3 d7 ff 3c
       -0.014331868 -0.084282465 0.007891104 0.031230753
0002b0 82 c7 28 be f7 24 f5 bc bf 0c 8a bd 3f e4 b4 3d
       -0.16482356 -0.029924853 -0.067407124 0.08832597
0002c0 3e f7 ec 3c 02 cb 16 3e f5 3d e4 bd b6 f3 3e 3e
       0.028926488 0.14725879 -0.1114463 0.18647656
0002d0 59 0c 2e 3e 9a ab 63 be cd 11 42 3e 3c 59 3c be
       0.16996898 -0.2223343 0.18952103 -0.18393415
0002e0 02 7a e1 bc 56 71 b1 39 b1 75 93 bd 24 06 ee 3d
       -0.027523998 0.00033844513 -0.07200182 0.11622265
0002f0 63 e0 f0 3d 03 41 b2 3d f5 32 87 3e ab af d4 3d
       0.11761548 0.08703806 0.26406065 0.103850685
000300 bf df f4 3c 02 f4 01 3e e2 98 9b bd 3c 8d 1d bd
       0.029891847 0.12690738 -0.075975195 -0.03846477
000310 07 5d bd 3d 05 da b2 bb 1c 92 1e 3e 3a 94 bc 3d
       0.09246259 -0.005458119 0.15485424 0.092079595
000320 e2 2e 87 be fc 48 0b bc 57 eb 0a be 5f e8 00 3e
       -0.26402956 -0.008501288 -0.13566338 0.12588643
000330 ca a3 1a 3e e2 1b 44 be 6f b0 17 bd 04 36 26 3e
       0.15101543 -0.19151261 -0.037033495 0.16231543
000340 c5 c1 0b be bc 82 2b 3b 52 62 31 be 3c 5b 4a 3e
       -0.13648136 0.0026170453 -0.17322662 0.19761366
000350 4f d5 d8 bd 5f c5 2c bc bf c3 2e be 18 3e b9 bc
       -0.105875604 -0.010545104 -0.17066859 -0.022612616
000360 b4 b8 aa 3d 4e 83 21 be e9 a2 44 be 92 7e 0e 3e
       0.083360106 -0.15772745 -0.1920277 0.1391547
000370 3f a5 bc 3d dd 0f 37 3d 3c 2f 5b be ce db 2c be
       0.09211206 0.044692863 -0.21404737 -0.16880724
000380 e3 26 c5 bb 18 38 27 bd 58 d0 06 3e 52 29 65 bd
       -0.0060165985 -0.04082498 0.13165414 -0.05594761
000390 ff bd 24 3e 2c 72 86 bd a6 5d 2f 3a 77 9a 91 3c
       0.16088103 -0.06564745 0.0006689675 0.01777385
0003a0 18 55 a2 bd 27 12 33 be 30 26 af 3d 67 8c 0c bd
       -0.079263866 -0.17487393 0.085522056 -0.034313586
0003b0 a7 2b 08 3e 30 a8 24 3e 3b 31 a3 bd 3c 21 27 be
       0.13297902 0.16079783 -0.07968374 -0.16321272
0003c0 cf 23 ce 3c 90 c3 4d bd e9 5d 8b 3d 68 fc ee 3d
       0.02516356 -0.05023533 0.06805021 0.116692364
0003d0 fa 01 c7 3c d7 47 e1 3d 41 29 1d 3d 6a 83 0c bd
       0.024292935 0.110000305 0.03836942 -0.034305014
0003e0 66 fa 15 bd e7 0e 69 bd 54 b9 30 be 8b 44 5f bd
       -0.03661575 -0.056898978 -0.17258197 -0.054508727
0003f0 4e 13 0d 3e d5 c9 16 be 10 f1 b4 3a bc ed 06 be
       0.13776895 -0.1472543 0.0013804752 -0.13176626

_orig_mod.self_MSR1.0.xpos.scale f4 [16]
000000 25 49 92 3e 93 24 a9 3e 00 00 c0 3e 6d db d6 3e
       0.2857143 0.33035716 0.375 0.41964284
000010 db b6 ed 3e 24 49 02 3f db b6 0d 3f 92 24 19 3f
       0.4642857 0.50892854 0.5535714 0.59821427
000020 49 92 24 3f 00 00 30 3f b7 6d 3b 3f 6e db 46 3f
       0.64285713 0.6875 0.73214287 0.77678573
000030 25 49 52 3f db b6 5d 3f 92 24 69 3f 49 92 74 3f
       0.8214286 0.8660714 0.91071427 0.95535713
