experiments/exp_20250922_172552/models/best_model.pth (torch, 149557 bytes, 12 tensors)

embeddings.gender.embedding.weight f4 [5, 16]
000000 87 38 f2 be c2 7a fe 3e c6 4c 41 3e 0f 77 01 3f
       -0.47308752 0.49703032 0.18876943 0.50572294
000010 98 be 1a c0 0e 6e b1 bf 3f a8 85 3f 12 83 64 be
       -2.417883 -1.3861711 1.044197 -0.22315624
000020 15 27 49 3f a5 50 48 3f ce a1 aa be 3a ad b2 3f
       0.7857526 0.78248054 -0.33326572 1.3959115
000030 48 1c ca be b8 f1 89 bd 9c a5 ea bf 10 ba b8 3f
       -0.39474702 -0.06735557 -1.833179 1.4431782
000040 18 68 d1 be cf 78 54 3d c9 1c b1 bf 07 1a ab 3d
       -0.4089973 0.051873025 -1.383691 0.08354574
000050 25 0e c8 3e c6 45 38 3b d6 87 26 bf 5e 1b 6e 3f
       0.3907329 0.002811776 -0.6505102 0.9301051
000060 89 30 2d 3e 1b e5 d4 be 05 aa ac 3e 62 eb 84 3f
       0.16913046 -0.41581044 0.33723465 1.0384333
000070 7f ff 36 bf 5e bf 7f 3f 5a ca 88 be 49 2c 71 bd
       -0.71483606 0.9990138 -0.26716882 -0.058880124
000080 81 2a 2d bf 75 ad 39 3f 83 12 0d bf fa da dc 3d
       -0.6764298 0.725303 -0.5510637 0.10783954
000090 53 b7 41 3f 7f 4e 39 bb 99 11 2f 3f 02 85 6d 3f
       0.75670356 -0.0028275547 0.68386227 0.9278108
0000a0 40 89 16 3e 02 87 cd 3d 08 20 15 bb 3e 98 a2 3f
       0.14700794 0.10035516 -0.0022754688 1.2702711
0000b0 37 02 6c be 1f 1e 83 3f ed 85 40 be d2 29 c1 3f
       -0.2304772 1.0243567 -0.18801089 1.5090888
0000c0 9a ac 88 be 7a 7f 74 3f 12 a5 47 3f 70 ad 3b be
       -0.26694185 0.95507014 0.7798625 -0.1832788
0000d0 64 73 5c bf 83 19 79 3f 41 5c 64 3d bf 86 2d bf
       -0.8611357 0.9730455 0.055752043 -0.6778373
0000e0 ba ef 3f bf ae 16 73 bf 86 ed 9d bf 35 3a 1a bf
       -0.7497517 -0.9495648 -1.2338111 -0.60245067
0000f0 0f 64 b2 3f a0 47 34 be 4f 64 f1 3e 0b a2 b7 3f
       1.3936785 -0.17605448 0.47146842 1.4346327
000100 04 52 75 3e 01 43 5a 3f 9c 8e 97 3e e3 65 9a bf
       0.23957068 0.8525849 0.2960099 -1.2062343
000110 5d ed ee 3f 24 b3 ad 3f ec 34 0b 3e 00 8d 87 3e
       1.8666188 1.3570294 0.13594407 0.26474762
000120 22 45 27 3f 9c 38 45 3f 32 84 f2 3e 4c b8 43 3e
       0.65339863 0.77039504 0.47366482 0.19113272
000130 ad 0c b3 3f 0a 7f fa bf 6c c9 2d 3e 46 e0 86 bd
       1.3988243 -1.9570019 0.16971368 -0.065857455

embeddings.age_group.embedding.weight f4 [15, 16]
000000 4d 4c 0e bf df d0 8f 3f 23 62 fe bf 4c 02 21 bd
       -0.55585176 1.1235617 -1.9873699 -0.03930883
000010 e9 de 4c 3f 6d 05 1f 3f b7 bb ba 3f 65 c3 3a 3f
       0.80027634 0.62117654 1.4588536 0.729544
000020 52 f4 1d bf 27 67 19 3f 61 5a ab 3e 02 f9 ae 3f
       -0.6170093 0.59923023 0.3346739 1.3669741
000030 70 ff 7c bf 0b 4c 30 bf 6f 33 08 3f 0f 5a 05 be
       -0.98827267 -0.6886603 0.5320348 -0.13022636
000040 8b 11 e0 be 11 ae a5 3e 82 0f e4 bf a8 3c 27 3f
       -0.43763384 0.32359365 -1.7817233 0.6532693
000050 ef ce 44 3f e1 9a 80 3f 88 d9 09 3d b5 25 4d 3f
       0.76878256 1.0047265 0.03365472 0.8013566
000060 17 c4 90 3f 62 13 9d bf 1f 30 73 bf 50 c0 18 40
       1.1309842 -1.227154 -0.949953 2.3867378
000070 9e 77 38 3e d8 49 3d 3f 31 44 85 3f 65 8b 1f bd
       0.1801438 0.739408 1.0411435 -0.038951296
000080 19 a6 84 be 46 4c df bf dd 11 f0 3e e3 91 1c 3f
       -0.25907972 -1.7445152 0.4688863 0.61160105
000090 e7 69 07 3f dd 6e 4a 3f 59 db 8c bf a3 3f a8 bf
       0.5289597 0.79075414 -1.100444 -1.314442
0000a0 a1 0a d5 bf aa 34 51 3d 70 fd b3 3e a1 3f 32 3f
       -1.6643869 0.051075615 0.35154295 0.6962834
0000b0 00 38 a9 bf 3e 31 56 bf 31 a1 3f bf 9c 12 d0 3c
       -1.3220215 -0.8366889 -0.74855334 0.025399499
0000c0 97 d9 d2 bf 44 2a a5 bf 8e 38 4c bf 24 75 ab 3e
       -1.6472653 -1.2903523 -0.79773796 0.3348781
0000d0 cd 2d 9a 3f 93 03 44 3e b5 ce 47 3c 36 97 9f bf
       1.2045227 0.19141988 0.012195279 -1.2468021
0000e0 cc 57 37 bf 44 a1 93 3f 5d 24 27 be f7 3b 51 bf
       -0.7161834 1.1533589 -0.16322465 -0.81732124
0000f0 bc de 5a 3f ed 93 70 3f 6e 3e 46 3f 26 3b 0e 3f
       0.85496116 0.93975717 0.7743901 0.55559003
000100 2d bf 94 3f 3c 2b 0a bf d0 dd d4 bf 97 26 e4 3e
       1.1620842 -0.5397222 -1.6630192 0.44560692
000110 2b 63 7d 3e f1 24 73 3d a6 17 26 3f 07 77 12 3d
       0.24744861 0.059361402 0.64879835 0.035758045
000120 8f b0 97 bf 23 73 62 bf 1f 90 25 3f 3e 4c 87 be
       -1.1850756 -0.88456935 0.64673036 -0.26425356
000130 63 1e 09 3f cf 69 73 3e 34 17 57 bf bc 59 30 bf
       0.5356199 0.23770832 -0.8401978 -0.68886924
000140 38 12 33 be 87 78 91 3f ae 5d a3 bf 1a c4 72 3f
       -0.17487419 1.1364907 -1.2762964 0.9483048
000150 c9 77 68 be fa 0f 59 bf f6 21 f2 39 7c d6 08 3e
       -0.22701944 -0.84790003 0.0004618314 0.1336307
000160 76 3c aa bf 70 cd 6b 3f 0b cd a8 3f de ec 94 3f
       -1.3299701 0.9211035 1.3187574 1.1634786
000170 3c fd cf 3e 18 46 4a bf 22 f1 50 bf ea bb 76 3f
       0.4062289 -0.79013205 -0.8161794 0.96380484
000180 9f 7c 80 bf c4 97 8e be 64 fe 5d bf 4c 14 27 3e
       -1.0038031 -0.27850163 -0.86716294 0.16316336
000190 ba f0 81 3f cf ee ed bf 2d 79 96 3f 42 7d ae be
       1.0151589 -1.8588504 1.175573 -0.3407994
0001a0 38 ab 8d bf 6c eb 23 3e 4b 4d 84 be 38 cb 1d 3f
       -1.1067877 0.16007775 -0.2584022 0.6163821
0001b0 8d cc 4a bf f1 e4 6d bf 4c 3f d5 bf 73 f2 1b 3f
       -0.7921837 -0.9292746 -1.6659942 0.60916823
0001c0 85 34 b5 3f af cb ad 3d 2d d6 07 3f da 82 81 3d
       1.4156653 0.08486115 0.5306118 0.06323786
0001d0 67 e5 8c 3d 45 64 a5 bf c9 ed 50 3f de 3d 88 3e
       0.068796925 -1.2921225 0.8161283 0.266097
0001e0 64 37 99 3e 43 90 c0 3f 70 62 aa 3e 6f bd 7b 3e
       0.29925072 1.5044025 0.33278227 0.24583982
0001f0 15 28 b8 be 85 01 25 be bf a9 b3 3e 3b 1f 06 3e
       -0.3596808 -0.16113861 0.35090443 0.13097851
000200 e3 d1 c8 3f 3f 6e ae 3e f5 a1 a6 be 01 75 e6 be
       1.5689052 0.34068486 -0.32545438 -0.45011142
000210 f6 82 ce 3f 0c a6 c5 bd 66 c5 b9 be 52 c7 25 be
       1.6133716 -0.096508116 -0.36283416 -0.16189316
000220 20 15 c8 3f 39 7f 4e 3f 86 a8 fe be 46 87 3e 3f
       1.5631447 0.80662876 -0.49737948 0.7442516
000230 0d 2c e1 be 89 37 1b bf 5d c5 9f 3f 56 77 cf be
       -0.4397892 -0.60631615 1.2482105 -0.40520734
000240 fe 25 8c 3e 30 79 86 bf 35 35 bf bd 4d 22 1c c0
       0.27372736 -1.0505733 -0.0933632 -2.4395936
000250 20 fd 02 3f 51 f1 b5 bf e2 cd 4d bf 9a 64 85 3e
       0.5116749 -1.4214269 -0.8039228 0.26053315
000260 30 ca ef bf 4f 90 a5 bf 03 d7 ab 3f 78 86 ba bf
       -1.8733578 -1.2934664 1.3424991 -1.4572287
000270 7e 93 fa 3f 62 51 6d 3f ae 9d eb be fe 5b 0c bf
       1.9576261 0.92702305 -0.46018738 -0.5482787
000280 21 f4 82 bd 3a 70 20 bf 1a 25 65 be 82 f6 f0 bf
       -0.0639422 -0.62671244 -0.22377434 -1.8825228
000290 07 fa 8f bf f5 ac 5b bf 3d 2c b9 3e 15 b8 30 3f
       -1.1248177 -0.85810786 0.36166564 0.69030887
0002a0 8e a2 61 3d c4 52 4d bf 81 e9 53 bf 54 fb 09 3f
       0.055086665 -0.80204415 -0.82778174 0.5389912
0002b0 9a 8f 2d bf 25 52 b3 3f 58 30 ee 3e bf 09 23 3f
       -0.67797244 1.4009444 0.46521258 0.63686746
0002c0 5d 38 49 3e a8 8f e9 bf 2b 63 71 3f cb 9a 64 3f
       0.19650407 -1.8246965 0.94291943 0.89298695
0002d0 d1 9f 72 bf 08 7e f1 3e c6 1c 9f bf 80 17 11 bf
       -0.9477511 0.47166467 -1.2430656 -0.56676483
0002e0 ef 29 0f 40 5e 5e 85 3f 0b 4e 9a 3e ab d2 89 bf
       2.2369344 1.0419424 0.30137667 -1.0767416
0002f0 c4 8e 91 3d f2 0a db 3f 9d ae f5 be 30 81 cd 3e
       0.071073085 1.7112715 -0.47984782 0.40137625
000300 b8 53 cf 3f 44 5a 8f bf f3 58 68 3e c8 47 b1 3e
       1.6197424 -1.1199422 0.22690181 0.34625077
000310 dc f9 ad 3d 51 14 d2 bf 1c 47 89 3f d6 74 1a be
       0.084949225 -1.641245 1.0724826 -0.15083632
000320 9f 04 86 3d 54 99 69 3e ac fd 10 3f b0 aa 00 bc
       0.0654385 0.22812396 0.5663707 -0.007853195
000330 17 30 93 bd 41 18 a1 3f 72 ef 69 bd d5 c8 36 3e
       -0.07186907 1.2585527 -0.05711312 0.17850049
000340 7c 8b 2b 3d 4b 8a 62 3d 3d 43 ad bf 75 13 b9 bf
       0.04188107 0.055307668 -1.3536144 -1.4459063
000350 69 de b8 3e 7f f8 95 be 5b 77 cf 3d 80 4d 9c 3e
       0.36107185 -0.2929115 0.10130187 0.30527878
000360 b9 2f 2e 3e ad 5f 0b bf 71 3a 3a 3f cb 68 c0 bf
       0.17010392 -0.54442865 0.72745425 -1.503198
000370 ae 74 05 c0 b4 52 e7 3e e2 13 24 3f 93 4c ca be
       -2.0852466 0.45180285 0.6409284 -0.39511546
000380 df c3 e3 be 68 08 a5 be bf 5e 9a bd 40 59 08 3f
       -0.44485375 -0.32232976 -0.07537603 0.53261185
000390 05 29 08 bf 17 48 0e bf d9 52 ae 3f 66 cc b9 3e
       -0.5318759 -0.5557875 1.3619033 0.36288756
0003a0 a6 65 91 bf f0 b8 41 bf 97 8e cc bf 21 08 54 3e
       -1.1359146 -0.7567282 -1.5981015 0.20706226
0003b0 77 aa 41 3f 5b e3 29 3f e1 40 a9 bf bf 19 75 bf
       0.75650734 0.6636254 -1.3222924 -0.9574241

embeddings.inventory_id.embedding.weight f4 [50, 16]
000000 1e e9 67 bf a0 57 0b 40 0d dd f1 be be 51 1d bf
       -0.90590084 2.1772232 -0.4723896 -0.61452854
000010 ac b6 12 40 48 7b db 3f 88 fb d2 3e 54 c7 96 3f
       2.2923994 1.7146997 0.41207528 1.177958
000020 eb ec b0 3e 02 c3 06 3d 12 84 bd bd 2a 3d 02 c0
       0.34555754 0.032900818 -0.09253706 -2.0349832
000030 a3 2e 99 bf 2f 0e ea bf 21 78 ff 3e 0b 18 18 bd
       -1.1967357 -1.8285578 0.4989634 -0.037132304
000040 24 ce 1e 3e a8 8c 7e bf b7 92 2f c0 14 d6 3c bf
       0.15508324 -0.99433374 -2.7433298 -0.7376416
000050 1b ea f8 be 2e b3 03 c0 97 a3 19 bf 4d e1 a6 bf
       -0.48616108 -2.0578113 -0.60015243 -1.3037506
000060 14 a6 42 3e 32 18 20 3f 1e 95 73 bf 72 90 05 3d
       0.19008666 0.6253692 -0.9514941 0.032608457
000070 a2 7f 51 3f 22 9e f2 be 77 f3 cb bf f2 14 93 3f
       0.8183538 -0.4738627 -1.5933675 1.1490767
000080 8f 65 6f bf fc 85 90 3f 29 da aa be 03 96 5f be
       -0.9351434 1.1290889 -0.33369568 -0.21834569
000090 b8 62 ae 3f 32 72 d6 be 62 e1 38 bf a6 0b 97 bf
       1.3623877 -0.41884 -0.72218907 -1.180043
0000a0 c7 61 91 be 1a a3 c5 3f 9d e2 92 bf d4 73 47 3f
       -0.2839491 1.54404 -1.1475407 0.77911115
0000b0 1d 86 ff 3d 24 46 3c 3e 73 c8 43 bf ed bc 90 3f
       0.12476752 0.18386132 -0.76477736 1.1307656
0000c0 22 64 f2 bf 2f 32 22 3e 78 2d 2c be 56 95 f1 bf
       -1.8936808 0.15839456 -0.1681422 -1.8873699
0000d0 1d 17 c1 bf 7a 39 24 3f c7 ef 45 3f c9 a0 cb bd
       -1.5085179 0.641502 0.77318996 -0.09942777
0000e0 a7 b7 a5 3e 79 f6 9a 3e 83 58 88 be a5 40 3d be
       0.32366678 0.3026617 -0.2663003 -0.18481691
0000f0 52 00 91 3e 14 11 9f 3f b9 18 cb 3f b8 48 54 3f
       0.28320557 1.2427087 1.586692 0.8292346
000100 5d 0e 3a bf 89 cb be be 33 4b 93 be b6 d4 98 3f
       -0.72678167 -0.3726466 -0.2876831 1.1939914
000110 1c d0 6d 3e 51 42 bc 3f 85 df da 3e df 1f b9 3f
       0.23223919 1.4707738 0.42748657 1.4462851
000120 dd 66 ae bd b3 5c 0b 3e 98 2d d0 3a cc f3 4d 3f
       -0.08515713 0.1360958 0.0015882729 0.8045013
000130 01 b7 bb be a7 5f 9e bf 4e 69 cc bf 08 d0 a6 be
       -0.36663058 -1.2372941 -1.5969636 -0.3258059
000140 73 d6 3f 3f 91 b5 dc 3f e5 6d b2 3e 04 ba ec 3f
       0.749366 1.724291 0.34849468 1.8494267
000150 fe 91 6c be f0 7f 11 c0 55 16 b6 be 97 f5 9f 3d
       -0.23102567 -2.2734337 -0.35563913 0.078105144
000160 9c ad af 3e 10 8d 63 bf 98 bd cd 3e 80 79 fd be
       0.3431214 -0.8888712 0.4018371 -0.4950676
000170 7b 29 ab 3f 39 c6 72 be 8c 7b 25 bf 13 0c d7 3f
       1.3372034 -0.23708428 -0.6464164 1.680056
000180 c2 c4 93 be 45 8f e1 bf 3d 7f 5a 3f 5a 2a 41 3f
       -0.28861052 -1.7621847 0.853504 0.7545525
000190 a8 a4 5e bf d1 10 07 40 f4 ea c9 bf ad 40 94 be
       -0.86969995 2.1104014 -1.5774827 -0.28955594
0001a0 15 81 52 bf b2 69 ab 3f 99 6d 38 3e 57 c9 c3 be
       -0.82228214 1.3391631 0.18010558 -0.38239548
0001b0 d2 4d 0a be 74 3e b9 bc bb 3e 49 40 58 46 ae 3f
       -0.13506249 -0.022612788 3.1444538 1.3615217
0001c0 d7 82 de bc 20 6c 29 bf f1 2a 83 bf 3f bf 15 3e
       -0.027161999 -0.6618061 -1.024748 0.14623736
0001d0 a3 ba c8 bf 02 67 1d be 34 7e 46 3f cf a6 91 3e
       -1.5681957 -0.15371326 0.7753632 0.28447577
0001e0 1a b5 76 3c 65 60 3f bf 98 b3 16 c0 c3 fd 86 be
       0.015057826 -0.7475646 -2.3547115 -0.2636548
0001f0 ec de 64 3d c2 7d 8d bf f4 3f 51 3f 62 d2 d0 bf
       0.055876657 -1.1054003 0.8173821 -1.6314204
000200 62 0f 20 3e 0e 57 39 3f 40 33 b2 be f0 60 b1 bf
       0.15630868 0.7239846 -0.34804726 -1.3857708
000210 f6 c3 39 be 29 b2 82 bf e2 0f 17 be 63 ea 9a 3e
       -0.1814116 -1.021062 -0.14752153 0.30256948
000220 7a 6a e0 3d f8 6c 1e 40 7b ae 8a be b4 a2 9c 3e
       0.10957809 2.475401 -0.27086243 0.30592883
000230 30 fb 52 be 2c e3 3a c0 bd c7 66 3e 44 54 e1 be
       -0.20603633 -2.9201155 0.22537132 -0.44009602
000240 93 4e 39 3f 73 f3 8e bf 34 53 79 3d bf 83 c8 be
       0.7238552 -1.1168045 0.060870364 -0.39163014
000250 4a ee 9a 3f 3b ba 25 bf 3e 79 96 3f bb b9 91 3f
       1.210397 -0.6473729 1.175575 1.1384805
000260 5c 08 d2 bf 1a f1 67 3d 81 4c ad 3f a4 27 c5 bf
       -1.6408801 0.056626417 1.3538972 -1.5402722
000270 28 5c 7e be 62 c0 2f 40 19 56 5d bf fb a5 96 be
       -0.24839842 2.746117 -0.864595 -0.29423508
000280 44 8a 80 3e bc e9 46 bf 07 59 a0 bf 7b a0 8f bf
       0.25105488 -0.777004 -1.2527169 -1.122085
000290 3b ab d1 bf 13 b5 eb bc c6 f9 86 3f af b3 c8 bf
       -1.638038 -0.028772866 1.0544975 -1.5679835
0002a0 cc 29 25 c0 16 f2 bf 3c 11 15 d5 3e c3 6d 3e bc
       -2.580676 0.023430865 0.41617635 -0.011622849
0002b0 ca bd 5e 3e c2 cd 07 3f 11 1c 95 bd 28 78 ae 3f
       0.21752086 0.53048337 -0.07280744 1.3630419
0002c0 e4 57 f8 be 1e 71 7f 3e 6f ae 77 bf 7e ac d4 3e
       -0.48504555 0.24945495 -0.9675054 0.4153785
0002d0 9f 0d 42 3f 30 a9 a2 bf cd 58 d0 3f c6 4f 03 bf
       0.75802034 -1.2707882 1.62771 -0.512936
0002e0 99 c8 02 40 46 5a ad 3f 71 83 dc 3f c8 49 18 bf
       2.0434935 1.3543174 1.7227613 -0.5948758
0002f0 ee 24 f7 bf 65 18 60 be 75 7e 0e 40 3c aa 92 be
       -1.9308145 -0.21884306 2.2264683 -0.28645504
000300 2c 07 a4 be 4a 06 93 3f d6 fe c3 3f d9 e2 07 bf
       -0.32036722 1.1486294 1.5312145 -0.5308052
000310 85 66 82 be 73 2e ca bd b6 37 63 3e 49 df 4f bf
       -0.2546884 -0.09872141 0.22189221 -0.8120008
000320 bb 55 99 bd 39 70 c5 3d c6 12 cc bf 5e 29 8d 3f
       -0.07487055 0.096405454 -1.5943229 1.1028249
000330 e9 22 d1 bf e9 85 ad 3e 92 38 1c bf 8e 53 bc 3f
       -1.6338779 0.33891228 -0.6102382 1.4712999
000340 5c cc e6 bf 94 47 9d 3e fc ea 7e be 00 ee ca be
       -1.8031116 0.30718672 -0.24894327 -0.39634705
000350 66 50 af 3f c2 2d c2 3d a6 1d 87 bf bd 6a f3 be
       1.3696411 0.09481384 -1.0555923 -0.47542372
000360 22 10 6c 3f 63 49 94 3f 72 bd ab bd db 51 db bf
       0.92212117 1.1584896 -0.08385743 -1.7134355
000370 4f 24 47 bf 0f af ed be fe a8 8f 3d ab f8 84 3e
       -0.7778978 -0.46422622 0.070146546 0.2597097
000380 ed 78 5b 3f 4e 40 c2 3f c5 18 13 3f d8 fd 98 bc
       0.85731393 1.5175874 0.5745967 -0.01867573
000390 41 22 0a bf 6d a9 55 3f 70 9f 8d 3f d0 29 3a bf
       -0.5395852 0.8346165 1.1064281 -0.7272005
0003a0 1a 24 34 bf cb 8c 95 3f 5f 69 c8 3e a0 fc 86 3e
       -0.70367587 1.1683592 0.39142892 0.26364613
0003b0 4a 8d 8d 3f b5 09 21 3f 67 2c f1 3e 83 88 ff bf
       1.1058743 0.62905437 0.4710419 -1.9963535
0003c0 77 a0 b2 3e 86 66 6a 3d d5 da 54 3f 4a a1 6e 3f
       0.3488805 0.05722668 0.8314641 0.9321486
0003d0 9a 60 25 3e 17 f5 aa 3e e3 68 f7 bf f5 3d 7c bf
       0.16150132 0.33390114 -1.9328884 -0.9853204
0003e0 ed e2 c0 3f ec d4 ab bf b6 11 61 3f 9f 67 da bf
       1.5069252 -1.3424354 0.8791765 -1.7062873
0003f0 d6 b4 f3 3e 8f 87 bd 3d ab 39 b2 bf 5a ee 92 3f
       0.47598904 0.092543714 -1.3923849 1.1478989

embeddings.day_of_week.embedding.weight f4 [10, 16]
000000 03 d9 8c 3e 02 ff cf bf 70 70 01 3f dc 2e 8f 3f
       0.27509317 -1.6249697 0.5056219 1.1186175
000010 fa fa 6e 3f 5c d7 b3 3f 06 10 0a be 6b d6 46 bf
       0.9335171 1.4050097 -0.13482675 -0.77670926
000020 bb 2a 0c 3f ac cc 94 be ed bf c3 bf 93 33 d3 3e
       0.547527 -0.29062402 -1.5292946 0.41250286
000030 48 8e 11 bf c5 93 4a 3f 1d 54 a8 be 88 4f 66 3f
       -0.5685773 0.7913173 -0.32876673 0.89965105
000040 3c d4 92 3d 4c 79 36 be a3 e2 03 bf 54 9d 97 3e
       0.07169387 -0.17819709 -0.51517695 0.2961222
000050 ef 93 bc bf 7e b8 3a bf 72 b7 67 bf 18 5a 44 be
       -1.4732646 -0.7293776 -0.9051429 -0.19174993
000060 ef 1a 86 3f 36 56 9d 3f 85 3f 37 3f d3 ae 9b bf
       1.047697 1.2291934 0.715813 -1.2162727
000070 20 3e ce be 08 96 cf 3e f1 07 82 3e 51 47 64 3f
       -0.40281773 0.40544152 0.25396684 0.8917132
000080 60 46 8f bd 7a a9 7c bf eb 8f 0d bf b6 93 19 40
       -0.06995845 -0.986961 -0.55297726 2.3996406
000090 61 2c d0 bf b0 6a fa 3e 5c 64 13 3f e7 2b ae bf
       -1.6263543 0.4890952 0.5757501 -1.3607148
0000a0 ef 5f 9f 3f ee 46 f2 3e 7b 24 6a be a7 61 b9 be
       1.2451152 0.4731974 -0.22865479 -0.36207315
0000b0 0a 83 7b 3e 92 03 3c 3f 08 52 b4 3f 9d 94 f3 be
       0.24561706 0.7344295 1.4087534 -0.4757432
0000c0 bd 69 7e bd db d6 82 bf 70 3a c2 3e 6c ea c1 3f
       -0.06211256 -1.0221819 0.3793521 1.5149665
0000d0 0d 0c d9 bf 87 91 98 bf c9 7c 18 be 86 39 d5 3f
       -1.6956803 -1.1919411 -0.14891352 1.665818
0000e0 5a ca a7 3d c0 9e 89 3e c8 19 f7 3e 37 1f 2c bf
       0.081928924 0.2687893 0.48261857 -0.6723513
0000f0 8f 61 30 3e ab 21 43 3e 12 04 89 be 72 30 d8 3d
       0.17224716 0.19055812 -0.26760918 0.10556115
000100 a4 ab 42 bf a8 a1 ba 3e 87 d8 21 3f 2d 40 1e be
       -0.7604315 0.3645146 0.6322102 -0.15454169
000110 71 db 01 c0 47 5c 87 3e cc 9d 09 3e 22 e2 93 3f
       -2.0290186 0.2643759 0.13439101 1.1553385
000120 02 a6 f5 3d bf d8 cc be 30 d5 4e be d5 94 3c bf
       0.11994554 -0.40009114 -0.20198512 -0.736646
000130 53 eb 6b bf 91 31 20 3f a2 08 b9 3e 64 0c 98 3e
       -0.9215595 0.6257563 0.361394 0.29696953
000140 12 75 d6 3e e0 8c c1 bd 87 37 9e 3d 55 89 ce 3f
       0.41886193 -0.09450698 0.07725435 1.613566
000150 01 e0 c5 be 3b b6 3f 3f 7c 24 7c bf 7e 5a f0 3e
       -0.38647464 0.74887437 -0.9849317 0.4694404
000160 76 a4 d1 3f fe 25 02 bf 2f f6 d1 be 2f dc 56 bf
       1.6378314 -0.5083922 -0.41008136 -0.83929724
000170 34 97 9b bf b8 cc c4 be 4a 48 83 3f 70 71 34 bf
       -1.2155519 -0.38437438 1.0256436 -0.7048559
000180 aa d7 a6 be 98 bb 2c 3f 1b ca bd be eb 9b 33 3f
       -0.32586414 0.67473745 -0.37068257 0.70159787
000190 56 67 dd 3c 57 3e c7 3d 53 f5 3d bf bc 47 66 3e
       0.027026813 0.09728687 -0.7420246 0.22488302
0001a0 2b 30 d3 3e 4f 45 82 bf 3c 3e 30 c0 f8 a4 c1 3d
       0.41247687 -1.0177401 -2.7537985 0.094552934
0001b0 e2 0b 85 bd e6 3b 65 3f 35 e5 7b be eb 23 e5 be
       -0.06496407 0.8954452 -0.24599154 -0.44753966
0001c0 47 a2 e4 3e 23 71 c0 bf dc bb a2 bf df 2a e7 3e
       0.44655058 -1.5034527 -1.271358 0.45149896
0001d0 cd f3 cb 3d 2f c0 8d bf 8b c4 91 bf 2b 35 ef 3f
       0.09958611 -1.1074275 -1.1388105 1.86881
0001e0 5b ec 81 3b 73 4b 7a 3f 71 0e 9b bf 2d a3 09 3f
       0.0039649433 0.97771376 -1.2113782 0.5376461
0001f0 9b b7 2a bd c5 47 88 3f e7 38 03 bf 2b d7 2d be
       -0.041679006 1.0646902 -0.512587 -0.16976611
000200 6f 5e 49 be ff c3 5d 3f 66 54 97 bf 88 61 dc bf
       -0.1966493 0.8662719 -1.1822631 -1.7217264
000210 ff 70 86 be 2a dc ac 3e 17 10 b1 be 0f 5a 37 3f
       -0.26258084 0.33761722 -0.34582588 0.71621794
000220 c1 22 0e 3f 9f 43 82 3e e9 e1 62 bf 1e 25 3d bd
       0.5552178 0.25442216 -0.8862596 -0.046177976
000230 33 0a 38 be 62 0e 4c 3f de e1 c9 3f c9 93 53 3f
       -0.1797264 0.79709446 1.5772054 0.8264738
000240 37 71 89 be 65 92 57 bc 4c df c7 be ff 5e 9d bf
       -0.2684419 -0.013157462 -0.3903755 -1.2294616
000250 a3 df 1e 3f c5 07 62 3f 99 03 85 be f5 64 90 bf
       0.6205999 0.88293105 -0.25979307 -1.128081
000260 96 7c 85 bf 29 ae c1 3e 00 8a 5c bd 4b 3a fe 3e
       -1.0428646 0.37828186 -0.053842545 0.4965385
000270 be c4 9b 3e 1f 1b c1 3f a8 95 02 c0 82 b7 7d bf
       0.3042354 1.5086402 -2.0403843 -0.99108136

embeddings.hour.embedding.weight f4 [30, 16]
000000 c5 ec 61 3f b1 6e 87 3e 5c 27 e5 bf 13 53 64 bf
       0.88251907 0.26451638 -1.7902637 -0.8918926
000010 c7 dc 01 3f 3a 79 d5 3f 0a 0f 72 3f 2a 35 8c 3e
       0.50727504 1.667762 0.945542 0.2738431
000020 cd b4 55 3d 9b 60 79 be 2e 49 8e be a6 2a ca bf
       0.05217438 -0.24353258 -0.27790207 -1.5794265
000030 f1 68 88 3f a1 90 c3 3d 21 26 95 3e ff b9 0a bf
       1.0657026 0.0954907 0.29130653 -0.5419006
000040 c2 02 66 be fe 41 2a 3f 95 0d 4d bf cb ad f9 be
       -0.2246199 0.66506946 -0.8009885 -0.48765406
000050 52 98 1b 3e b8 dd c3 3f 85 83 f0 3e c1 ea 29 be
       0.15194824 1.5302038 0.4697534 -0.16593458
000060 cc e9 94 3f 4c 90 06 c0 ed 24 01 3e ce 0f 99 3f
       1.1633849 -2.1025572 0.12611742 1.1957948
000070 49 2d b0 be 24 24 6a be 39 aa 0e c0 79 6c 12 c0
       -0.3440955 -0.22865349 -2.2291396 -2.2878706
000080 3b ad 09 bf cf be 2f 3e 18 c1 02 c0 93 e3 dd 3e
       -0.53779954 0.17162631 -2.0430355 0.43337688
000090 a8 d7 0d 40 8e cd bd 3d 8e 4b 4a 3c 0a 34 af be
       2.2162876 0.09267722 0.012347115 -0.3421939
0000a0 0b cb a6 be 57 3e e3 be 9c 86 41 3f 4d 58 76 bf
       -0.32576784 -0.443835 0.7559602 -0.96228486
0000b0 45 11 ba 3f 5c 84 e8 3c dc 58 38 3f 2a ce 87 bf
       1.453652 0.028383426 0.7201059 -1.0609791
0000c0 2c b3 7e 3f 48 c8 db 3f 47 ad 5c bf 4c 1f d8 3f
       0.99492145 1.7170496 -0.862019 1.6884551
0000d0 c1 b1 b8 3c 76 e9 cc 3f 03 2b 74 3f 62 a5 8e 3f
       0.022545697 1.6008747 0.9537813 1.1144221
0000e0 e7 dc f2 be f3 f0 c0 be 21 4c 91 3e 8c 3f 57 3f
       -0.4743416 -0.3768383 0.28378394 0.8408134
0000f0 5e 9e 31 3f 9a 4a c1 bf ad a1 c2 3f 06 f9 d2 bf
       0.69382274 -1.5100892 1.520559 -1.6482246
000100 7d 81 99 3e a0 56 d5 bf 81 7f 92 bf c0 05 44 3f
       0.29981604 -1.6667061 -1.1445161 0.76571274
000110 46 c8 32 40 7d 4f 96 3f 5f aa 63 3f db 57 e8 bd
       2.7934737 1.1743008 0.8893184 -0.11344882
000120 0f ab 87 3f bf bf dc bf 2b e8 42 3f 64 ad fe 3d
       1.0599078 -1.7246016 0.7613551 0.124354154
000130 ce 52 d7 be f9 15 bc bf eb 1f 38 3f 59 6b 8a 3f
       -0.42055362 -1.4694206 0.719237 1.081401
000140 ae b3 d1 bf 92 be 5d be 05 b7 09 c0 89 70 a0 3f
       -1.6382959 -0.21654728 -2.1517956 1.2534343
000150 2d ec 41 be 33 95 5b bf 85 44 a6 3f 73 28 cc 3f
       -0.1893775 -0.85774535 1.298966 1.5949844
000160 2f 09 4d 3f 3a 40 40 bf 28 6f 02 3f ed c2 cd bf
       0.8009214 -0.75098 0.5095086 -1.6075112
000170 2c 9b fe 3e e9 a6 bb be 12 70 9b 3d d1 b9 23 bf
       0.49727762 -0.3665078 0.07589735 -0.6395541
000180 d5 05 8d bf 7c 51 9b 3f 35 8e 31 bf 33 18 18 c0
       -1.1017405 1.2134242 -0.69357616 -2.376477
000190 88 7f 08 3f d7 db ae bf e3 f2 12 40 3d f4 04 bf
       0.533196 -1.366084 2.2960746 -0.5193518
0001a0 77 e4 96 bf fc 61 19 bf a3 03 80 bd 96 7c 0b 3f
       -1.1788472 -0.5991514 -0.06250694 0.5448698
0001b0 48 06 15 3c 8b 6e a8 bf b6 6c 61 be 2f d2 af 3e
       0.009095736 -1.3158735 -0.22014126 0.34340045
0001c0 97 f1 d7 bf eb 6e f2 3d e2 af c1 bf 0d b9 91 3d
       -1.6870602 0.11837562 -1.51318 0.07115374
0001d0 a5 10 a8 bf c3 16 a6 be 73 98 7a 3f f3 eb dc be
       -1.313008 -0.3243924 0.9788887 -0.43148765
0001e0 92 4b 08 3f 63 5f 72 3e 59 1e 5b bf f8 ea 58 bf
       0.5324031 0.236692 -0.8559318 -0.84733534
0001f0 49 71 a5 3f a1 84 b0 be ae b2 3f 3f 49 b0 90 3d
       1.2925197 -0.34476188 0.7488202 0.07064874
000200 80 75 d2 be 81 51 c1 3f 99 50 be 3f 23 14 57 bf
       -0.4110527 1.5102998 1.4868346 -0.840151
000210 da bb 00 3f f1 cf 5a be 8c de ad 3e 41 24 8a 3e
       0.5028664 -0.21368386 0.33958852 0.26980785
000220 3b 8c 94 3f 28 73 0e bf ea cf e5 be e7 34 2f bf
       1.1605295 -0.55644464 -0.44885188 -0.684401
000230 75 73 8d be 23 39 07 3f 99 51 b8 be 92 2d fa 3f
       -0.2762715 0.5282156 -0.35999754 1.9545157
000240 8d 58 a4 3f 6e b2 31 bf b1 5e 1b be d0 e1 86 be
       1.2839524 -0.6941289 -0.1517284 -0.26344156
000250 a2 2f ae 3e 1f 5c 2f 3f 0b 42 bf be 19 bc fb be
       0.34020716 0.6849994 -0.37355074 -0.49166945
000260 da 3d 9e 3f fd 22 4a 3f 6c 02 10 bf e8 16 03 3e
       1.2362626 0.7895964 -0.56253695 0.12801707
000270 ee 5a 84 3e fb bc f3 bf 3b 16 55 3e 69 f1 54 3f
       0.25850624 -1.9042047 0.20809262 0.8318086
000280 37 09 90 be 7e 49 70 3e 8a 73 aa bf c4 cb 13 3f
       -0.2813203 0.23465535 -1.331651 0.57732797
000290 90 73 e7 bd d4 8f 81 3f c8 73 84 bf ba a0 06 3f
       -0.11301339 1.0122018 -1.0347834 0.52589
0002a0 ce b5 24 3f 93 08 f8 3e a8 8e 41 bf a2 7d a2 bd
       0.6433991 0.48444042 -0.756083 -0.07934119
0002b0 a9 3c 01 3e e8 63 4f 3e ac 91 9c bf 11 29 97 3d
       0.12620796 0.20252955 -1.2231956 0.0738088
0002c0 c1 2c 9d 3c 0f e2 7d 3f 3e d6 cc bf 88 95 ea be
       0.01918638 0.99173063 -1.6002882 -0.45817208
0002d0 69 ee 0a 3d 4e 03 5b 3e 3f 9f 87 3e e5 22 85 3f
       0.033918772 0.2138798 0.26488683 1.0401274
0002e0 91 ce 24 bf be 47 f5 3f 8d 36 1c 3f ac 03 57 3f
       -0.64377695 1.9162519 0.6102074 0.8398998
0002f0 7b 87 15 bf 87 e2 8c 3f 5b 9a 4b bf c1 47 b4 be
       -0.5840985 1.1006631 -0.795324 -0.35210994
000300 78 bb 8f bf 4f aa e0 3d 58 60 da be c8 67 20 3f
       -1.1229086 0.10969984 -0.4265163 0.6265836
000310 c0 7f 40 3f ee 5b a6 be 45 12 89 bf 43 ca 08 bf
       0.7519493 -0.32492012 -1.07087 -0.53433627
000320 12 4a 77 bf 67 d5 c9 bd 48 b6 3f 3d 63 d9 6d 3d
       -0.965974 -0.098551564 0.046804696 0.058068644
000330 ae 2c 45 bf 41 12 73 bf 6a 55 3e bf 17 4e 3b 3f
       -0.770213 -0.9494973 -0.7434908 0.7316603
000340 06 2f 13 c0 27 a9 80 3f 1a 89 d1 be 1e 23 29 3e
       -2.299745 1.0051621 -0.40924913 0.16517302
000350 fd cb a0 bf 79 a2 be bc 69 99 d0 3e 8a 49 98 be
       -1.2562252 -0.023270832 0.40742043 -0.29743606
000360 f5 0f e8 bf 50 2f dd 3e 96 ee 52 3f 83 18 a1 bf
       -1.812987 0.4320016 0.82395303 -1.2585605
000370 14 08 d4 3e 79 1c 9f 3f db 74 38 3f 04 ec 14 bd
       0.41412413 1.2430564 0.7205331 -0.036357895
000380 7f 16 16 3f da 60 53 bf fa 52 de be 31 c8 90 3f
       0.58628076 -0.8256966 -0.4342268 1.1311094
000390 7c 7f 8d bf dd 44 91 be 15 65 ea 3d ed 15 21 bf
       -1.105453 -0.2837285 0.11445061 -0.6292408
0003a0 1a 5d cc 3e 5b d4 b2 bd e7 62 84 3f 62 91 ad 3d
       0.3991478 -0.0873191 1.0342683 0.08474995
0003b0 d2 b7 9a 3d 46 76 1a bf f3 d8 35 bf 97 e9 50 3f
       0.07554592 -0.6033672 -0.71034163 0.8160643
0003c0 47 cd fd be c4 aa 9a 3f 28 6f 93 3f 84 81 20 3f
       -0.49570677 1.2083364 1.1518297 0.62697625
0003d0 0f e6 23 3f 1a fd ab 3f 0a cf c2 3f 0d 38 29 bc
       0.64022917 1.3436615 1.5219433 -0.010328305
0003e0 57 70 1a 3a 3b 81 69 3f cf ae 6c 3d 68 71 b2 3f
       0.0005891374 0.91212815 0.057783898 1.3940859
0003f0 20 8e 51 bf 48 ed 4e 3f 8c 7b 69 3e d4 c5 88 be
       -0.8185749 0.8083081 0.22801036 -0.2671343

dense_proj.weight f4 [64, 113]
000000 ef 65 2f be ce 97 02 3e 97 ac 48 bb 54 b1 07 be
       -0.17128728 0.12753221 -0.003062045 -0.13251239
000010 11 8f 78 3d d5 ad 98 be fe 3d 61 bc 6e 02 8a be
       0.060683314 -0.29820123 -0.01374769 -0.2695498
000020 84 6c 37 3e 25 ff af 3d 53 ca 2c 3e 62 26 bf 3d
       0.17912489 0.08593587 0.16874056 0.09333493
000030 15 32 c1 3d a1 e4 6d bd 97 29 fb bd 6a 08 3c be
       0.094333805 -0.058079366 -0.12263792 -0.18362585
000040 73 b7 05 bd a0 44 3b 3e e5 e3 79 bd ab b4 9b bc
       -0.032645654 0.18287897 -0.061008353 -0.019007048
000050 33 61 fd bc 96 9b 0d 3e 9e 80 e2 39 54 4d 69 bd
       -0.030930137 0.13828883 0.00043201906 -0.05695851
000060 d8 91 46 bd 46 0f 99 3d 3b 0a 1e be 99 73 18 3e
       -0.04847893 0.07473616 -0.1543359 0.14887847
000070 d0 80 c1 3c 3f 07 de bd fd 94 9c bd 4d c3 96 bd
       0.023620993 -0.10841226 -0.07645605 -0.073614694
000080 49 c2 55 3e 30 90 2a bd 97 e0 51 bd 83 7f ef bc
       0.20874895 -0.041641414 -0.051239576 -0.029235607
000090 90 83 dd 3d 75 ea 8c bd 4d 03 55 be 03 b6 9d bd
       0.10816109 -0.06880657 -0.2080204 -0.077007316
0000a0 0b 22 7c bd b0 a6 27 be 96 41 03 3e bb 18 e9 bc
       -0.061555903 -0.1637218 0.12817988 -0.028454175
0000b0 18 31 4a 3d f6 8c 9c 3d ac 5a 3e bb ad ce b1 bd
       0.049363226 0.07644074 -0.0029045744 -0.086819984
0000c0 0d 54 4e be c3 28 c7 bd 17 53 ce 3d d6 3b 11 3d
       -0.2014925 -0.097245716 0.10074442 0.035457455
0000d0 ce 96 0a bd 5b f3 41 3c 22 16 3b be f7 fc 28 3d
       -0.033835225 0.011837806 -0.18270162 0.04125687
0000e0 31 22 3b be e6 84 71 3e b8 2b 25 bd 06 0b 41 bd
       -0.18274762 0.23585853 -0.040324897 -0.047129653
0000f0 77 5f 18 3d 8f bc 62 3d fe 28 7f bd 89 87 96 3c
       0.037200417 0.055355605 -0.062294953 0.018375175
000100 90 9c cc 3c 95 f4 ca 3d b6 04 9b 3d d1 ee 01 bd
       0.024976999 0.099099316 0.07569258 -0.031721894
000110 c5 41 04 bb 6a 5b 89 bc 40 19 30 3d 40 1c 1b bd
       -0.0020180803 -0.016767222 0.04299283 -0.03786874
000120 84 bb df 3a d0 8b 55 be a4 9e 2e 3d 12 ff 97 bd
       0.0017069434 -0.20854115 0.04263176 -0.07421698
000130 cd 61 c7 3c 62 de dd 3c 9c a3 66 be dc a7 b4 bd
       0.024338627 0.02708358 -0.2252335 -0.08821079
000140 5b 51 ee bd c8 44 c7 bd 6b ed d0 bc ad 6d 1b 3c
       -0.11636611 -0.09729916 -0.025503835 0.009486598
000150 28 78 af bd e8 a9 74 bc de f8 03 bd 65 cb be 3d
       -0.0856784 -0.014933087 -0.03221976 0.09316138
000160 27 1c a0 3d d9 51 31 bd 96 4d 53 3d d1 2f 8f 3d
       0.0781787 -0.043290947 0.051587664 0.06991542
000170 d0 10 cb 3d ef b7 e5 3d 6c 9e 86 3d 48 b3 d6 3d
       0.09915316 0.11216723 0.06573185 0.10483414
000180 33 9e aa bd ce 55 77 3c 15 0c f4 3c 89 c5 19 be
       -0.08330955 0.015096141 0.029790917 -0.1501676
000190 78 71 18 bd e5 2b b2 3d 8e 76 9b bc 4d 5c 86 bd
       -0.037217587 0.086997785 -0.01897743 -0.06560574
0001a0 63 db ac bd ab 23 75 3b 42 65 b8 3c e8 3b 88 bd
       -0.08440282 0.0037405293 0.022509221 -0.06652051
0001b0 bf 16 56 bb a7 da 54 bd c9 51 b7 3d c9 61 82 3a
       -0.0032667366 -0.051966336 0.08951146 0.0009947355
0001c0 9d 74 5b be db 35 77 3d 38 55 74 3d 5c 8d 8a be
       -0.21431203 0.060354095 0.059651583 -0.27060974
0001d0 f8 68 b3 bd 41 ed 30 be 23 3d 32 bd 22 c0 d1 bd
       -0.087602556 -0.17278005 -0.043515336 -0.102417246
0001e0 df 99 22 bd 24 f0 15 be d7 59 de 3d cd 4e ac 3e
       -0.039697524 -0.14642388 0.10856979 0.3365387
0001f0 2f 06 84 3d 9c 69 6a 3d 4c 38 88 bc b7 ce 11 bc
       0.06446492 0.057229623 -0.016628407 -0.008899382
000200 69 f9 97 be 68 c1 58 3d 82 03 b6 bb d5 d6 87 3c
       -0.29682472 0.05291882 -0.0055546174 0.016581932
000210 0d 00 ca 3d ad af e2 3d a2 cf af 3d 9c ef e9 3d
       0.09863291 0.11068664 0.08584525 0.11422655
000220 fe 60 0e 3e 19 2d 49 bd f6 cf b5 3d e7 8a 62 3c
       0.13904187 -0.049115274 0.08877556 0.013827062
000230 63 19 13 3d 61 4c b1 bd 16 fb fd bc 2d 40 21 be
       0.035912883 -0.08657146 -0.031003516 -0.15747137
000240 01 d3 c9 3c 19 eb 75 bd cd 57 4c 3e a0 a5 98 3d
       0.024636747 -0.06003866 0.19955368 0.074534655
000250 d5 e0 34 3e 92 a2 ca 3d 6f b1 35 bc 29 5f 26 3e
       0.17663892 0.09894289 -0.011089667 0.16247238
000260 3a 9e 05 bd 39 7c 9c bd 8d d2 4f be 27 6c 5c bd
       -0.0326216 -0.07640881 -0.20295162 -0.05381408
000270 bd 6e aa 3d 01 8f fc bc 6a 32 b7 3b 0e 40 ef bd
       0.08321903 -0.030829908 0.0055907266 -0.11682139
000280 05 35 90 3d a3 30 e6 3d 32 0b 77 bd dd 1a 14 be
       0.07041363 0.112397455 -0.06031341 -0.14463373
000290 ed 33 7b 3e ca a3 74 bc 6b 50 0a 3c 81 9a fc 3c
       0.24531527 -0.0149316285 0.008442025 0.030835392
0002a0 01 58 9a bd 3d 5e 9e be cc de 52 bc e6 b3 76 bb
       -0.07536317 -0.30931273 -0.012870502 -0.003764385
0002b0 13 bb e2 3d 2c db dd 3c 32 de e0 3d 6d 6f b7 bd
       0.11070838 0.027082048 0.109798804 -0.089568
0002c0 29 f2 0c be ab 97 39 3d 95 e9 a9 bd 4d 0b 4e 3d
       -0.13764252 0.045310657 -0.08296505 0.050303746
0002d0 0f 52 cf 3b 39 79 2b 3d 93 4c c6 bc 18 e5 fa 3d
       0.006326921 0.041863654 -0.024206435 0.122507274
0002e0 1f ec 5e bc 1f 13 f1 bd 03 50 46 3e 9d 0e 93 3d
       -0.0136061 -0.11771225 0.1936646 0.07180522
0002f0 5d a3 b1 bd 8f 46 d9 be dd 8c 48 be ef ec 8f be
       -0.08673737 -0.42436644 -0.19584985 -0.28110453
000300 9b 34 94 bd 25 b1 a2 be 9b 8f 03 3d 5e 8e 16 3e
       -0.07236596 -0.31775776 0.032119375 0.14702746
000310 36 d3 b7 bd 9f f0 09 3e 5a b2 38 3d 3d be 03 bc
       -0.08975832 0.13470696 0.045091964 -0.008040962
000320 bb d4 a7 3d c7 87 23 3d 87 fe 4b bd 62 4c 13 3d
       0.08194872 0.03992441 -0.049803283 0.035961516
000330 1b 23 c7 3d 94 d5 e0 bd 50 80 68 bd cd 3a fc bc
       0.09723493 -0.10978237 -0.056762993 -0.030789757
000340 fb b5 ad 3d 90 87 2f 3d 5b b9 aa 3b 05 ce 98 3c
       0.08481976 0.04285389 0.0052100844 0.018652925
000350 88 23 97 bc 42 2e d4 3c e2 b0 27 3d 4f 4e 0d be
       -0.01844956 0.025900964 0.040940173 -0.13799404
000360 3a 21 99 bd e6 cc 82 bd 0a 21 ad bd 6a 34 9a 3c
       -0.074770406 -0.063867375 -0.08453567 0.018823821
000370 01 b5 9e 3d 0c bc 33 3d 89 a8 9c 3c 35 1a cc 3c
       0.077493675 0.043880507 0.019123333 0.02491484
000380 ea 5e c8 3c 25 d4 78 bd e2 63 03 be 47 ce 4f bb
       0.024459321 -0.06074919 -0.12831071 -0.0031708644
000390 d4 76 66 be 7e 47 80 3d 1b 1a 0b 3f a7 0c a9 be
       -0.22506267 0.06263636 0.5433671 -0.33017465
0003a0 50 4d 03 3d 61 92 40 3e 4d ef f1 bc 29 e2 65 be
       0.032056153 0.18805839 -0.029533053 -0.22449555
0003b0 16 6c cb 3e 6a 65 73 3e 39 09 42 3e e0 76 df bb
       0.397309 0.23769155 0.1894883 -0.006819591
0003c0 00 e6 82 bd 8b 50 64 bd e9 c9 26 3e 45 56 a3 be
       -0.06391525 -0.055740874 0.1628796 -0.31901756
0003d0 bd 88 e6 3d a8 b0 18 bc 20 86 08 3c 23 70 09 bd
       0.112565495 -0.009319462 0.008332759 -0.033554208
0003e0 a4 42 6b 3d 63 6a 17 bc af 93 b8 3d dd 3a ed bc
       0.0574366 -0.009241673 0.090125434 -0.028958732
0003f0 59 88 98 bd c1 a0 0d be 67 32 c6 3c 4b 0c 1e bd
       -0.07447881 -0.13830854 0.024193956 -0.038585942

dense_proj.bias f4 [64]
000000 84 d3 40 3e d9 9c 39 3d ad 63 4f 3e d1 42 33 bc
       0.18830687 0.045315597 0.20252867 -0.010941223
000010 65 63 a0 3d 45 46 11 be 7b a9 65 3e b5 81 8f 3e
       0.07831458 -0.14186962 0.22427933 0.28028646
000020 22 0d 2d bd 7f 1f 41 be 7e fb 75 be 02 59 7b be
       -0.042248853 -0.18859671 -0.24021718 -0.24545673
000030 77 ae 9e 3d f9 74 08 3c 91 94 82 3d de d8 60 3d
       0.0774812 0.00832867 0.06375993 0.05489432
000040 61 2e bb bd 62 16 ee bc 22 87 99 bd 01 1e 0e 3e
       -0.091397054 -0.029063407 -0.07496478 0.13878633
000050 86 de 7b bd 0f 3f eb 3d bf b2 1a 3d 1f 78 91 bd
       -0.06149151 0.11486637 0.03776812 -0.071029894
000060 8c d7 be bd 44 04 9a 3d 00 51 22 3e aa 35 cd 3b
       -0.09318456 0.07520345 0.15851212 0.006262501
000070 53 67 f9 3c 36 cf 48 be 97 e3 47 3c 66 88 32 bd
       0.030444777 -0.19610295 0.012200258 -0.04358711
000080 62 dd b0 3e a4 05 69 3e 2b 9f 0f 3d 32 1b eb 3d
       0.34543902 0.22756058 0.035063904 0.114797965
000090 68 78 f3 bc e7 8d 80 bd 90 d8 04 be 8d 32 92 3d
       -0.0297205 -0.06277066 -0.12973237 0.07138548
0000a0 95 28 d2 bc 5f a9 a7 bb 9e 13 dd bd a2 d8 37 be
       -0.025654117 -0.005116626 -0.10794757 -0.17953733
0000b0 13 7f 26 3d a0 7d b0 bc 47 68 f9 3d d1 fc 3c 3d
       0.04064853 -0.021544278 0.121780924 0.046139542
0000c0 5f 0d 10 3e 07 8e 05 bd fe 0a f7 3d 10 38 11 3e
       0.140676 -0.03260615 0.120626435 0.14181542
0000d0 16 47 6a 3e 81 d7 9f 3d 07 bc e9 bd 06 84 d2 bc
       0.2287868 0.07804776 -0.114128165 -0.02569772
0000e0 b2 34 bb bd e1 60 5e 3d 04 c7 63 bd 38 13 50 3e
       -0.0914091 0.05429161 -0.055609718 0.20319831
0000f0 50 46 ca bd 62 e2 52 3c 4d 20 ce bd 77 43 e2 bd
       -0.09876692 0.012871357 -0.10064755 -0.11048024

shared_mlp.0.weight f4 [128, 144]
000000 83 cc f5 bc 63 22 92 3d 7c 72 33 3e bc 82 18 be
       -0.030004745 0.07135465 0.17524141 -0.14893621
000010 72 25 81 bd 11 a9 f1 3b ee d4 2c 3e 55 4d e3 bd
       -0.0630597 0.0073748906 0.16878101 -0.11098734
000020 0a d5 1f be 85 ee da 3d a0 fd a8 bc b8 ca 16 3c
       -0.15608612 0.10690025 -0.02062875 0.009203605
000030 2c f2 23 3e d5 0b 8b bc b5 5b 19 3e 7c 38 42 3c
       0.1601035 -0.016973415 0.1497639 0.011854287
000040 4c c7 9d bd 46 1f 8e 3d 75 86 8f 3d 3b cf 14 3d
       -0.077040285 0.06939559 0.070080675 0.036330443
000050 da f3 25 bd ca b8 98 3d ff ed 33 be 3b a8 f6 bd
       -0.040515758 0.07457121 -0.17571257 -0.12043806
000060 42 bd 9e 3d 8b e0 27 3e 96 27 4a 3d e7 c2 8e bc
       0.07750942 0.1639425 0.04935416 -0.017426921
000070 9e 89 d6 bb 85 de fd bc 2a 24 d4 3d c7 fd 46 bc
       -0.006547167 -0.030989895 0.1035846 -0.012145466
000080 50 84 16 bc 8d 28 c7 bc 97 0c 7a be 4e d6 85 bd
       -0.009186819 -0.024311328 -0.24418865 -0.06535016
000090 70 ef 27 3e 83 c6 e8 bc c5 cc 1a 3e ff ec 1b 3d
       0.16399932 -0.02841497 0.15117176 0.038067814
0000a0 66 87 11 3d 5c 85 94 bc 8a d9 d7 3d f2 50 d7 bd
       0.035529517 -0.018129997 0.10539539 -0.10513486
0000b0 55 c0 15 be 10 57 3a 3d 49 2f 85 3c 46 2a b1 3d
       -0.1462415 0.045493186 0.016257899 0.08650641
0000c0 a8 38 c8 3c 1d 00 fe 3d 93 51 25 bd 33 f7 45 3d
       0.024441078 0.12402365 -0.040361 0.04833145
0000d0 90 ad 49 3d 4a 42 1c 3d 39 16 df 3b 33 ec b8 3d
       0.049237788 0.038149156 0.006808069 0.090294264
0000e0 0c db 82 bc 5a 86 f5 bd 40 99 3d bd a1 cb cc 3d
       -0.01597359 -0.11988516 -0.04628873 0.09999777
0000f0 33 7e 80 3a c6 96 0c bd af 5c d3 3d 98 b5 11 be
       0.0009803235 -0.034323476 0.10320412 -0.14229429
000100 6d 3e 6b bd f2 44 09 be b5 78 1a 3d 69 b4 db bb
       -0.05743258 -0.13405207 0.03771277 -0.006704856
000110 88 ac 7a bd b3 0b e6 3d aa 9a 11 3e 2c 04 4a bc
       -0.061199695 0.112327 0.14219156 -0.012330096
000120 62 dc 21 3d b0 72 4e be f0 f3 b6 3d 76 7b 88 be
       0.039516814 -0.20160937 0.08933246 -0.26656693
000130 2c 9f 33 3e ce ab 39 be b5 40 0f 3e 0d 40 a3 bd
       0.17541188 -0.18131945 0.13989528 -0.07971201
000140 f3 39 46 bb d0 fa 09 be f7 de 8e 3d c6 04 97 bd
       -0.0030246943 -0.13474584 0.06976121 -0.07373957
000150 ec 8d 8c bd 44 94 d8 bd 1b 5f 9c be 6a 36 b3 3b
       -0.06863007 -0.105751544 -0.3054131 0.005469133
000160 19 a0 a6 3c 33 4d 84 3d d9 49 14 be f1 bc 99 3e
       0.020340012 0.06460037 -0.14481296 0.30026963
000170 6c f9 88 bd fc 70 61 3d ab f3 55 be e0 8d 72 3d
       -0.066881984 0.05503939 -0.20893733 0.059217334
000180 30 2f 2a ba fa 3f b3 be 64 72 5c 3e b3 e2 97 3d
       -0.0006492017 -0.35009748 0.21528012 0.07416286
000190 af 06 65 3e e3 eb 8d 3e 9f 9c 44 3d 4a 1e 39 3d
       0.22365831 0.2771903 0.048000928 0.0451949
0001a0 3a e0 06 3e af 62 82 3d 34 e9 19 be cf 34 fc bc
       0.13171473 0.06366479 -0.15030366 -0.0307869
0001b0 27 a0 8c be 03 c8 6f be 2e d9 4f be f1 5a 80 3d
       -0.27465937 -0.23416142 -0.20297691 0.06267346
0001c0 97 0b a8 3d 90 d3 2b 3d cf 1a 4a be f6 58 54 bd
       0.082053356 0.04194981 -0.19736789 -0.051842652
0001d0 8e 83 45 3d 1a 11 b4 3c b4 4c 4d bd 5e 5c 9c bd
       0.048221163 0.02198081 -0.050121978 -0.07634805
0001e0 5a 12 6a bc 26 5b 2f 3e 47 be e7 3d c9 fb 01 3e
       -0.014286602 0.17124614 0.113155894 0.12693705
0001f0 5a de 33 3e c1 9a 83 bd ac 58 0f be da 74 54 3e
       0.17565289 -0.06426001 -0.1399867 0.207477
000200 5f f5 4c bb 6d 42 41 3e 95 4d 3b be 59 54 5a bd
       -0.0031274182 0.18872996 -0.18291314 -0.053303096
000210 43 66 98 bd 89 b8 87 be 21 70 0f bb 2f e6 fc bc
       -0.0744138 -0.26507977 -0.0021886902 -0.030871479
000220 3e c8 ee 3d 3a bc ed 3c 6d f2 f8 bc e8 a2 4e bd
       0.11659287 0.029020417 -0.030389035 -0.05044833
000230 b2 d5 95 bd 47 1c 24 bd 8d 86 21 be 41 22 7e bd
       -0.0731615 -0.04006603 -0.15773983 -0.062044386
000240 43 a7 5b 3e 58 53 2e be 1d a1 e8 3c 27 fd 26 be
       0.21450524 -0.1702398 0.028397137 -0.16307507
000250 d1 31 2a be c3 ca 51 3b dc 89 2e bd 52 10 2e be
       -0.16620566 0.0032011725 -0.04261194 -0.16998413
000260 c4 cd aa bd d1 9b 3e 3d e7 14 71 3c 0d 68 35 be
       -0.08340028 0.046535317 0.014714456 -0.17715473
000270 0d d9 1b 3d 50 cd 28 be 53 9e bb 3d 4a 92 fb bc
       0.038048793 -0.1648457 0.09161057 -0.030709404
000280 64 0b ae bd 4f e0 28 be 18 fd 45 3d be c3 86 bc
       -0.08498266 -0.16491817 0.048337072 -0.016450759
000290 ab e3 19 be f5 1c b0 3d f4 de c0 3c 19 15 cd bd
       -0.15028255 0.08599273 0.023543812 -0.1001379
0002a0 8a 24 33 3c d8 b6 97 bd 61 0e a2 3d bf ff 68 be
       0.010934005 -0.074079216 0.07912899 -0.2275381
0002b0 99 26 0c 3d 70 34 fc 3d da 57 6d bd ef ed 5d 3c
       0.034216497 0.12314689 -0.05794511 0.013545497
0002c0 eb e7 93 3c 05 ee 4c 3b 0c 35 21 3e b9 a9 d1 bd
       0.018054923 0.00312698 0.15742892 -0.1023745
0002d0 c8 18 34 3d 67 51 fe 3d 59 21 0f be 2b 9b ae 3c
       0.043968946 0.1241787 -0.13977565 0.021314224
0002e0 c5 50 1c be 1c 50 3a 3e 2c 76 17 be c6 ac bf 3b
       -0.15265186 0.18194622 -0.14791173 0.0058494536
0002f0 0d 7f b6 bc bc a5 23 bd c4 9f 5b 3e f1 39 05 3e
       -0.02227738 -0.03995298 0.21447664 0.13010384
000300 9b 0f dd bd 9c 44 2f bc 95 2c 6b bc 37 09 08 be
       -0.10793992 -0.01069751 -0.014353891 -0.13284765
000310 f5 9e 2e 3d ad 54 21 3d 5a 47 2e 3d 64 f8 03 be
       0.042632062 0.039387394 0.042548515 -0.12887722
000320 03 d4 bc bd e6 1d 3b 3d 1b 86 95 3d 5f 78 ac 3c
       -0.092201255 0.04568281 0.07300969 0.021053491
000330 4e 8f 96 3d f2 0a 48 bc 6c 36 81 3d 75 38 18 3d
       0.07351552 -0.012209641 0.06309208 0.037163217
000340 4d 6a 5d 3e f1 da 11 3c 3e 1d cd 3d cc 36 f9 3c
       0.21622582 0.008902297 0.10015343 0.030421637
000350 8b 51 2d 3e cd 8f 18 be b6 53 2e 3e d7 6d 02 3c
       0.16925637 -0.14898606 0.1702412 0.007960758
000360 3d f4 47 3d 60 93 0c be e8 93 8c 3d 1d 36 9e bd
       0.04881691 -0.13728094 0.068641484 -0.07725165
000370 2b 84 c6 bc 11 f2 89 bd 29 93 07 be aa 64 43 be
       -0.024232944 -0.06735624 -0.13239731 -0.19081369
000380 c3 bc 6a be e3 a5 2a be 26 b8 8c 3e 10 28 28 be
       -0.2292357 -0.16664843 0.27484244 -0.16421533
000390 8c a8 93 ba 7c 12 6f 3e 6e f9 a1 be 1e c0 65 3d
       -0.0011265441 0.23346895 -0.31635612 0.05609142
0003a0 98 bc f9 3d 07 3e c5 3d 5f 2c fc 3c 61 15 70 3e
       0.121941745 0.096309714 0.030782877 0.23445655
0003b0 49 59 95 bd 0d 08 e3 bd 09 24 46 be 0a 01 d0 bd
       -0.072924204 -0.1108552 -0.19349684 -0.10156448
0003c0 dc 02 60 be 14 80 0b 3e 76 d4 2b 3e 74 59 1b 3d
       -0.21876091 0.13623077 0.16780266 0.037927106
0003d0 16 1c 04 be 84 2a 14 3e a5 25 1f be 3b 58 25 3e
       -0.12901339 0.14469343 -0.15541704 0.16146939
0003e0 a2 30 0f 3c 98 43 e6 3b 46 a9 10 3e 8e 4c 98 bc
       0.008739622 0.007027101 0.14127073 -0.018591192
0003f0 1a c9 3f 3c 00 81 58 be 16 44 88 bc 2f f4 d5 3d
       0.011705661 -0.2114296 -0.016634028 0.10446965

shared_mlp.0.bias f4 [128]
000000 05 2b 0f bc 1b 35 e9 bd de 2b 16 be cc 24 d8 bb
       -0.008738284 -0.11387082 -0.14665172 -0.0065961834
000010 71 e9 0e be bf 82 2f be 60 81 97 bb 18 b8 c2 b7
       -0.13956238 -0.1713972 -0.004623577 -2.3212328e-05
000020 f7 69 fe bd c6 e7 87 be 71 9b 3c be 0a db 4b be
       -0.12422555 -0.26544017 -0.18418671 -0.19907776
000030 28 5d b0 3b a0 ec e1 bd 6f 27 ad bd ff 35 20 be
       0.005382199 -0.11031461 -0.08454787 -0.15645598
000040 9d 04 a2 bc 55 9a a3 bc 6f c6 21 be 98 fc 93 3d
       -0.01977759 -0.019971052 -0.15798353 0.07225913
000050 94 3a c7 bd 59 d1 08 be db 5d ce bd 11 3e e9 bd
       -0.0972797 -0.1336111 -0.10076495 -0.11388791
000060 ff 83 4e bd f6 c5 55 be b9 a2 f9 bd df 6f 4d be
       -0.05041885 -0.20876297 -0.1218924 -0.20062207
000070 88 58 1c 3d 18 3f ca bd ec 5a a1 bd 0b 93 75 be
       0.038170367 -0.098753154 -0.0787867 -0.23981874
000080 3a 3a 9a 3b 5e b1 d3 bb 2e 9e 9e bd 50 ee 80 be
       0.004706648 -0.006460353 -0.07745014 -0.25181818
000090 bb d3 1f be fa 4b a4 bd 65 c1 89 bd 72 53 21 bd
       -0.15608113 -0.08022304 -0.0672634 -0.03938622
0000a0 2a ac 95 3c 3e 6b 94 3c 5f 25 10 3d dc 44 e9 3b
       0.01827057 0.018117543 0.03519189 0.0071188044
0000b0 f7 ab ae bd a0 eb 88 3d b0 82 27 bd 62 08 8e 3b
       -0.085288934 0.06685567 -0.040896118 0.0043344954
0000c0 7b a1 dc bc 37 9f 27 be 16 75 e4 bc ea d8 41 be
       -0.026932469 -0.1636933 -0.027887862 -0.18930402
0000d0 9c f2 50 bd d8 c7 39 bd 26 20 0a be f0 12 0e be
       -0.05101262 -0.0453566 -0.13488826 -0.13874412
0000e0 a7 ec 5d be a8 a6 6b be 04 aa f3 bd d0 bb 19 be
       -0.21672307 -0.23012793 -0.11897662 -0.15013051
0000f0 c8 65 2d be 60 b9 23 bd da 93 0b be ff 9b 87 3c
       -0.16933358 -0.03997171 -0.1363062 0.016553877
000100 ef cf 07 bd a0 8a 2a be 57 ec 96 3b 8f cd 8b be
       -0.033157285 -0.16654444 0.0046058106 -0.27305266
000110 90 0d 9c bc 4a 2b 51 be df e8 45 be 37 f9 47 3d
       -0.019049436 -0.2042667 -0.19327115 0.048821654
000120 a8 9a 70 bd 21 55 c3 3c ac c9 93 3d e9 f1 08 be
       -0.05874124 0.023844304 0.072162 -0.13373531
000130 ce f5 ae bd cf b4 27 bc 16 38 78 3d e9 0b 3b bd
       -0.08542977 -0.010235979 0.060600363 -0.045665655
000140 82 e4 b1 bc 40 d4 73 be c6 19 75 bd cc c0 45 bd
       -0.021715406 -0.23811436 -0.059839033 -0.04827957
000150 8e 79 33 be 30 e3 66 bd fe 5b ee bd 97 98 35 be
       -0.17526838 -0.056369007 -0.1163864 -0.1773399
000160 a7 04 b4 bc 94 44 61 3d 51 5a f4 3a 26 bc 29 bd
       -0.021974875 0.05499704 0.0018642639 -0.041439198
000170 dd a6 3b be 4c 59 34 3c 94 11 05 3d e6 91 97 bd
       -0.18325372 0.011007618 0.032487467 -0.07400875
000180 30 ca 1a be 53 9e 12 be c1 ef 59 be c1 d4 30 be
       -0.15116191 -0.14318208 -0.21282865 -0.17268659
000190 cd 9a 81 bd 80 c3 df bd 1e e3 2d 3c 7e 92 76 bd
       -0.06328354 -0.109259605 0.010613231 -0.0601983
0001a0 06 94 7b 3d 5d dd 20 bd 6d ad 4b bd 10 c1 02 be
       0.061420463 -0.03927361 -0.04972594 -0.1276896
0001b0 77 d9 4f be e2 67 2d be fb 98 ba be da 56 45 bc
       -0.202978 -0.1693416 -0.3644484 -0.012044633
0001c0 17 41 8e bd c2 0a 17 3d 2f 9a cd bd 56 2d 63 be
       -0.06946009 0.036875494 -0.10039174 -0.22185263
0001d0 31 12 0b be b9 e8 80 be 7f d5 de bd d1 34 44 bc
       -0.13581158 -0.25177553 -0.10880565 -0.011975483
0001e0 94 c9 05 be e2 9e 0a bd 47 c2 26 bd 4c b3 7a bd
       -0.13065177 -0.03384293 -0.04071262 -0.061206147
0001f0 09 91 02 be 65 db 19 be 61 d1 7d 3d c9 b3 cb bd
       -0.12750639 -0.15025099 0.061967257 -0.09946401
