experiments/exp_20251005_041229/models/checkpoint_epoch3_auc0.7305_logloss0.0877.pth (torch, 137410 bytes, 12 tensors)

_orig_mod.embeddings.gender.embedding.weight f4 [5, 8]
000000 e7 91 28 bd ff c5 55 bd 28 23 88 bd 67 a3 cb 3b
       -0.04115477 -0.052190777 -0.066473305 0.0062145474
000010 8f a4 cc b5 e0 d7 88 3d 21 5e 13 b8 dc e1 1a 3d
       -1.5247077e-06 0.066818 -3.5135196e-05 0.037813053
000020 d2 63 e8 3c f7 ff fd be 2b 96 02 c0 2c a1 83 3d
       0.02836791 -0.49609348 -2.0404155 0.064272255
000030 aa 3b 95 b3 a1 9f 39 3f 66 e1 e8 36 77 4b 94 be
       -6.949206e-08 0.725092 6.9403786e-06 -0.28963825
000040 d7 e2 27 bf be ed 04 bf f8 05 5a bf 55 cd 27 3c
       -0.65580505 -0.51925266 -0.8516536 0.010241826
000050 fa c7 88 b5 4b f6 53 3f 87 b3 44 b7 71 82 67 3f
       -1.019099e-06 0.8279769 -1.172431e-05 0.9043341
000060 1d aa 05 80 a8 7f 05 80 cb 64 05 00 94 6b 05 80
       -5.20203e-40 -5.04972e-40 4.95335e-40 -4.97769e-40
000070 1f 74 06 80 83 5c 05 00 ee 63 05 80 f1 5c 05 00
       -5.9267e-40 4.92364e-40 -4.95025e-40 4.92519e-40
000080 3c 5f 05 80 71 5f 05 00 a5 94 05 80 c8 66 05 00
       -4.93341e-40 4.93415e-40 -5.12501e-40 4.96048e-40
000090 6b 63 05 80 16 61 05 00 70 03 06 00 f0 6c 05 80
       -4.94842e-40 4.94005e-40 5.52246e-40 -4.98257e-40

_orig_mod.embeddings.age_group.embedding.weight f4 [15, 8]
000000 5e 9c f9 bc f8 e4 40 3c db c5 4c 3c 92 7c cc 3c
       -0.03047007 0.01177334 0.012498344 0.024961744
000010 72 02 35 3d 4c f2 64 3c 3c d8 20 bc 3e 53 b1 3c
       0.044191785 0.013973784 -0.009817179 0.021646138
000020 73 7e f5 3d f4 23 bd bb 16 78 9a 39 4d 8d 8e be
       0.11987009 -0.005772108 0.0002946264 -0.2784218
000030 a9 3a 59 be a2 b7 79 3e 9d 6e 89 3b 10 fd 19 bd
       -0.21213783 0.24386457 0.0041940943 -0.037594855
000040 c6 14 32 be 76 28 9c 3d f6 2f 06 3d 2d db 9d 3e
       -0.17390737 0.07624905 0.032760583 0.3083128
000050 c5 26 b4 3d 6e 37 03 bf aa ef 79 bd 8b ad 41 3d
       0.08796457 -0.51256454 -0.061019577 0.047284644
000060 f6 80 df bc e9 a0 95 3c 2c f2 bf 3a 47 db 02 3f
       -0.027283173 0.018265205 0.0014644316 0.5111584
000070 f2 80 63 3d 08 8c e2 be 65 b1 93 bc 52 11 0f bb
       0.055542894 -0.4424746 -0.018028924 -0.0021830392
000080 a5 dd 98 bd a3 32 10 3d 21 9c 62 3c ff 14 db 3e
       -0.0746415 0.03520454 0.013831169 0.42789456
000090 42 71 2c 3d 1f e0 cd be 69 41 80 bc d0 59 09 3d
       0.0421002 -0.40210053 -0.01565619 0.033532917
0000a0 1d 7a 40 bd b5 64 a3 bb cc 23 c8 3b e6 74 ba 3e
       -0.046991456 -0.0049863704 0.006107783 0.3641731
0000b0 f5 6b 2a 3e c9 83 bf be 48 3d 99 bb 4a a2 88 bb
       0.16642745 -0.37405232 -0.0046764947 -0.004169737
0000c0 6a 03 33 be c4 6d ef bd b1 43 9a bc 40 6b 0b bd
       -0.17481771 -0.11690858 -0.018831106 -0.03403783
0000d0 b7 a9 c8 3e 08 07 8b be d5 24 38 3d 5c 22 91 bd
       0.39191982 -0.27153802 0.044957 -0.07086632
0000e0 de 65 12 bf d9 59 e7 ba 4d 8a dd bb 7d 50 02 bf
       -0.57186687 -0.0017650678 -0.0067608715 -0.50904065
0000f0 51 14 5e 3f 35 c3 d9 3e 71 76 54 3c 69 d8 6f 3d
       0.8674975 0.42531744 0.012967692 0.058555994
000100 df 61 cf 3d e8 70 6b bc 24 c9 26 3b e6 7a 23 bc
       0.10126089 -0.014370181 0.002544948 -0.009978032
000110 2d 71 10 3f 47 07 86 3f 94 b9 c9 3c a3 93 12 3e
       0.5642269 1.0470971 0.024624623 0.14314131
000120 31 7c 05 00 c3 62 05 00 72 5d 05 00 a4 63 05 80
       5.03729e-40 4.94607e-40 4.927e-40 -4.94922e-40
000130 69 66 05 00 19 60 05 80 52 5e 05 80 c0 62 05 00
       4.95915e-40 -4.93651e-40 -4.93013e-40 4.94602e-40
000140 07 58 05 00 1a bf 05 80 70 5b 05 80 d1 61 05 00
       4.90756e-40 -5.27732e-40 -4.91979e-40 4.94267e-40
000150 fa 06 06 00 df 5d 05 80 73 58 05 80 5e 69 05 80
       5.53516e-40 -4.92852e-40 -4.90907e-40 -4.96976e-40
000160 03 6c 05 80 a7 58 05 00 59 62 05 80 dd e5 05 00
       -4.97925e-40 4.9098e-40 -4.94458e-40 5.41637e-40
000170 88 5b 05 80 03 ba 06 00 aa 62 05 80 db 59 05 80
       -4.92013e-40 6.17741e-40 -4.94571e-40 -4.91412e-40
000180 97 5a 05 00 36 59 05 80 06 c2 05 9a 30 82 05 80
       4.91675e-40 -4.9118e-40 -2.7660486e-23 -5.0588e-40
000190 aa 60 05 80 15 58 05 00 e5 59 05 80 87 a1 05 80
       -4.93854e-40 4.90775e-40 -4.91426e-40 -5.17123e-40
0001a0 92 18 06 80 b2 60 05 00 26 59 05 80 d0 5e 05 00
       -5.59827e-40 4.93865e-40 -4.91158e-40 4.9319e-40
0001b0 cb c7 06 80 b5 63 06 00 37 5a 05 80 c5 5c 05 80
       -6.22685e-40 5.86781e-40 -4.9154e-40 -4.92457e-40
0001c0 73 59 05 00 66 5c 05 80 bc 64 05 00 e6 5c 05 80
       4.91266e-40 -4.92324e-40 4.95314e-40 -4.92503e-40
0001d0 38 66 05 00 94 5a 05 80 7a 5c 05 00 58 5e 05 00
       4.95847e-40 -4.91671e-40 4.92352e-40 4.93022e-40

_orig_mod.embeddings.inventory_id.embedding.weight f4 [50, 16]
000000 22 cd 83 bb 53 04 d0 3e 66 e2 38 3d f6 33 52 bd
       -0.0040222565 0.406283 0.045137785 -0.051319085
000010 f3 01 58 be 4a 89 cc 3d 2b 2b b7 bc b4 a8 cd bd
       -0.21094494 0.09987123 -0.022359451 -0.10041943
000020 ed 62 e5 bb 8e ba 1b 3e 61 af 8d 3d 56 a8 11 3f
       -0.0070003183 0.15207884 0.069182165 0.56897485
000030 fa 61 f6 3d 1a 63 22 3f 17 57 01 bd 86 27 21 bc
       0.12030406 0.63432467 -0.031577196 -0.009836083
000040 cd 0a 99 3d b3 8e f1 3b 70 19 40 3e 5d cd 23 bd
       0.07472763 0.0073717474 0.18759704 -0.03999077
000050 0b 3f f5 3d c9 46 5f 3d dc 25 32 bd 38 a8 e3 bd
       0.11974915 0.054510865 -0.043493137 -0.111160696
000060 e3 b7 33 be 6f 6e e0 3d ad 48 3c 3d 2b 7d 41 3e
       -0.17550616 0.109585635 0.045967747 0.18895404
000070 f3 c4 48 3d 61 8e b5 3e c0 7f 4c 3c 46 20 1d 3d
       0.04901595 0.3546019 0.01248163 0.038360856
000080 1d c3 4b be 70 57 21 3e 04 1f 56 3c 77 c2 79 be
       -0.19898649 0.15756011 0.013068918 -0.24390589
000090 95 18 8d 3d bf 3c 01 3f 50 0c 39 bd 71 d7 e2 3d
       0.06889454 0.50483316 -0.045177758 0.110762484
0000a0 28 80 28 bd 60 71 02 3f ff 92 08 bd 02 54 2f 3f
       -0.041137844 0.50954247 -0.03334331 0.6848756
0000b0 e2 6d ad 3d 54 1f 62 3f db 6a 01 bd dc 50 cd 3c
       0.08468224 0.8832905 -0.031596046 0.02506297
0000c0 87 0f a4 bc e5 f9 6f 3c 0b 4d 79 bd a3 f1 50 3d
       -0.020026935 0.014646982 -0.06086449 0.051011693
0000d0 c9 df fb bc 17 33 c3 3b b9 a1 14 bb df bd 91 3d
       -0.030746358 0.005957018 -0.0022679402 0.07116293
0000e0 6e aa 61 3d d5 ca 37 3c 39 29 fb b7 3e c0 8a bc
       0.055094175 0.0112177925 -2.9940727e-05 -0.016937371
0000f0 10 77 bd bb 98 dc b7 bd 39 fa 35 3c 29 d5 ff bb
       -0.0057820156 -0.08977622 0.011107021 -0.007807393
000100 23 4d ad 3e 38 55 45 3d 4c 7b 91 3e ba 1c 12 3d
       0.33847913 0.048176974 0.2841438 0.035671927
000110 02 14 5a be 8c 20 da be 87 16 56 3e e9 1f 49 be
       -0.21296695 -0.42602956 0.20907031 -0.19641079
000120 62 9b 90 3e 41 9b a0 be 80 20 d2 3e c1 f3 10 3f
       0.28243548 -0.3136845 0.4104042 0.5662194
000130 89 d1 c1 3e 14 07 9b be d4 0d c0 bd ee 4c 5c bd
       0.37855175 -0.30278838 -0.093776375 -0.053784303
000140 6e 25 36 3e b8 a5 f5 be c4 62 08 3f d3 06 5a be
       0.17787716 -0.47977996 0.53275704 -0.21291666
000150 b5 fe d0 3e 80 b0 b3 bb 52 3e 12 be 2d b5 ac be
       0.40819326 -0.005483687 -0.14281586 -0.33731976
000160 98 d9 12 bf 16 42 bf be 32 34 80 bd 61 50 25 bf
       -0.5736327 -0.37355107 -0.062599555 -0.64575773
000170 83 b9 0c 3d 53 d6 1b 3e 91 1f 05 3e 8d 00 ff 3d
       0.034356605 0.15218477 0.13000323 0.12451277
000180 6b 86 cd be 09 dd a0 3e 1a 07 8b bd c7 0a fe 3e
       -0.40141615 0.31418636 -0.06788464 0.49617597
000190 27 01 38 be ec d2 eb 3e af 89 37 be 8d 0e 2d 3f
       -0.1796919 0.46059358 -0.17923616 0.6760033
0001a0 7c 5d 0a 3c 81 40 ca 3d f6 d9 6c bc 4b f3 22 bd
       0.00844514 0.098755844 -0.014456263 -0.039782804
0001b0 99 7f c4 3e d3 d3 c7 be 96 75 45 3e a9 63 e8 3c
       0.383786 -0.39028797 0.19283137 0.028367834
0001c0 3c d6 6b 3f 64 d9 00 bf 0a cc ba bc 50 d4 3a 3f
       0.9212377 -0.5033171 -0.022802372 0.72980213
0001d0 04 21 9b 3e 25 61 5b be 49 8a 01 be 18 c9 ec 3e
       0.30298626 -0.21423776 -0.12650408 0.46247172
0001e0 93 87 ec 3d e7 dc 01 bf 37 2f 47 3f 39 fa a4 bd
       0.11549296 -0.50727695 0.7780642 -0.08055539
0001f0 8f a3 47 3e ce 10 70 bd ed a1 f8 3e c7 7e db 3c
       0.19495986 -0.058609776 0.4856104 0.02679385
000200 a8 e7 f4 bc 21 4d bd 3c 71 36 df 3d 99 0b 53 3c
       -0.029895619 0.023108067 0.10899056 0.012881183
000210 64 38 54 3d 59 28 41 3d 28 c8 82 bc b2 40 d6 bc
       0.05181159 0.04715762 -0.015964583 -0.026153896
000220 19 5e c5 bd 5b 97 8f 3d 72 e8 b3 3c b4 b3 14 3e
       -0.09637088 0.07011291 0.021961424 0.14521676
000230 00 99 5b 3c c4 aa 86 3e 2d 31 08 3c 26 b5 6d bb
       0.013403177 0.2630216 0.008312506 -0.0036271303
000240 65 cc 67 3e eb d0 ba 3d b1 fc 1a be 07 32 e1 be
       0.22636564 0.09121879 -0.15135457 -0.4398348
000250 49 f9 0c be fa e1 4d 3e 8f 57 0b be 69 47 97 be
       -0.1376697 0.20105734 -0.1360762 -0.2954667
000260 71 08 05 be 70 a7 b4 be fb a3 63 be a8 fb 1d bf
       -0.12991501 -0.35283995 -0.22230522 -0.6171212
000270 0e 86 ad 3a 83 9a dc be e3 d5 12 3e 24 54 89 3c
       0.0013238804 -0.43086633 0.14339404 0.016763754
000280 d2 cc 19 3f b1 c4 57 be ed cc e9 be a8 bc 83 be
       0.60078156 -0.21071126 -0.45664158 -0.2572987
000290 93 64 53 bd cf 80 b4 3d d5 69 44 3b ee 44 6c 3d
       -0.051609587 0.08813631 0.0029970307 0.057682924
0002a0 20 00 01 3e 4d 8c a2 3e 2e cb 9f bd e6 ab 7e be
       0.12597704 0.31747666 -0.07802425 -0.24870262
0002b0 dc d6 7f 3b 39 cb c2 be 46 60 2e 3e 50 89 a4 bc
       0.0039037978 -0.38045672 0.17028913 -0.020085007
0002c0 01 e2 0a bf 48 54 74 3d 96 e8 ca bd 13 a2 ff 3e
       -0.54251105 0.05965069 -0.099076435 0.4992834
0002d0 31 f1 28 bc fe 32 b3 3e a9 66 43 be 7b 98 07 3f
       -0.010311411 0.3499984 -0.1908213 0.5296704
0002e0 71 8b 06 3e 4d 14 d3 3e c8 8d 36 ba 68 67 40 3e
       0.1313913 0.41226426 -0.0006963876 0.18789446
0002f0 fe 2d a3 bd 80 63 9c 3d 65 f7 30 3e 37 87 09 3d
       -0.07967757 0.076361656 0.17281874 0.033576217
000300 bc 27 59 be e5 6f 6f 3e 0a 6c 6d 3e d3 8e 03 3e
       -0.21206564 0.23382528 0.23185745 0.12847452
000310 ae db 2e be 99 a5 ab be ed 62 bb 3e 37 5f 22 3e
       -0.17075989 -0.33524778 0.36598912 0.15856634
000320 d2 15 75 3e be fb 5d 3e 8c f3 3e be 1c 48 80 3e
       0.23934105 0.21678063 -0.18647593 0.25055015
000330 4f 28 de 3c fe c8 2d be fc c5 f4 be 14 64 ea bd
       0.02711883 -0.16971204 -0.478073 -0.1144487
000340 e9 73 2e be f1 71 65 3e 2e 58 96 3d 27 2d 59 3b
       -0.17036404 0.22406746 0.07341038 0.0033138485
000350 09 06 8a bd 42 73 a8 3d e1 c1 26 3c 0c 21 af 3b
       -0.06739432 0.08225109 0.01017806 0.0053445157
000360 4c 36 87 bb c8 c8 5f 3e 91 a5 10 bd 44 35 af 3e
       -0.0041263457 0.21853936 -0.035314146 0.34220326
000370 5b 25 4f 3d 81 4f a0 3e 86 34 a8 bd b4 b3 a2 b9
       0.050572734 0.31310657 -0.08213143 -0.00031032937
000380 7b b7 57 bf 83 35 1e bf 0e 61 7b be 7c 37 e4 bd
       -0.84264344 -0.618004 -0.24548742 -0.11143395
000390 46 42 32 3e 98 5c 2c 3e 5f 62 57 3d cc eb bc 3e
       0.17408094 0.16832197 0.05258405 0.3689865
0003a0 3c d8 19 3e 34 45 2a bf a4 69 46 bd 04 20 1b bf
       0.15023893 -0.66511846 -0.04844059 -0.60595727
0003b0 0b 30 ed be 78 7d 54 3d ef f0 77 3b f5 ee 9b bd
       -0.46325716 0.05187747 0.0037832817 -0.07613937
0003c0 e9 58 73 3d 8b 92 34 be a7 a7 ac 3e 82 d3 c3 be
       0.059410963 -0.17634027 0.3372166 -0.38247305
0003d0 65 fd 4f 3e 25 43 30 be 2d bb bb 3d f4 69 e1 be
       0.20311506 -0.17213114 0.0916656 -0.44026148
0003e0 6f 18 c7 be 47 c2 ea bd d4 2b 74 be ae f0 9d be
       -0.3888583 -0.11462837 -0.23844844 -0.30847687
0003f0 d8 d3 b5 bd 2a af ec bc 9f 87 56 be d7 a6 ce 3c
       -0.088782966 -0.028892118 -0.20950173 0.02522604

_orig_mod.embeddings.day_of_week.embedding.weight f4 [10, 8]
000000 c1 fb 08 bc fc 59 a6 bc 2c 67 c0 3c 5e 47 1a 3e
       -0.008360804 -0.02030658 0.023486696 0.15066287
000010 ba eb cc be 30 d9 10 be 13 f6 a6 be 7f 29 3d 3d
       -0.40023595 -0.1414535 -0.32609615 0.046182152
000020 82 06 47 3c 01 fc ed 3d bf dd af bc 91 a0 85 3d
       0.012147548 0.116203316 -0.021468041 0.06524766
000030 99 06 f2 3d b5 11 82 bc e1 a9 ce 3e b0 73 98 3d
       0.11817665 -0.015877584 0.40363982 0.07443941
000040 e0 72 06 3b 5d df aa bc f0 a2 de 39 2e d3 50 bd
       0.0020515248 -0.020858461 0.00042464538 -0.050982647
000050 bb 51 e9 3c 9e 22 fa 3d 71 2a c3 ba fb 74 43 bd
       0.028481355 0.12213634 -0.0014889968 -0.047718983
000060 b5 7d 41 bb 21 3f 3e bd 66 fb 69 3c db 11 89 bd
       -0.002952439 -0.046446923 0.014281129 -0.06692859
000070 01 31 12 3e 76 8e 27 3e 1b 0e 4c bd d9 d0 11 be
       0.14276506 0.16362938 -0.04981814 -0.14239825
000080 ef c7 29 bb 0b 1d 06 be 18 2c 89 3d 79 52 a4 3d
       -0.0025906523 -0.13097017 0.06697863 0.08023543
000090 90 a6 f1 3d 26 59 00 3e 5d 86 0a bc 3f 19 05 be
       0.117993474 0.12534007 -0.008454886 -0.12997912
0000a0 10 08 e9 3b 76 4d 17 be 7c f3 de 3c 54 3a f4 bc
       0.007111557 -0.14775643 0.027215712 -0.02981297
0000b0 06 d4 b7 bc 5c 13 0a 3e 7a a4 e7 bd 62 22 14 bd
       -0.022439968 0.13483948 -0.11310668 -0.036165603
0000c0 ea 2b 34 bb 67 9e 9f 3d 85 06 59 bd 14 28 ec 3d
       -0.0027491995 0.07793885 -0.052984733 0.11531082
0000d0 03 44 5b bd b2 5f de bd 8a ad d1 be d0 ce aa 3d
       -0.053531658 -0.10858096 -0.40952712 0.083402276
0000e0 24 5f 05 80 4a 1e 06 80 19 6e 05 00 c5 63 05 00
       -4.93308e-40 -5.61879e-40 4.98673e-40 4.94968e-40
0000f0 e3 8b 06 80 0a 64 05 80 04 62 05 00 b4 71 05 00
       -6.01195e-40 -4.95065e-40 4.94339e-40 4.99966e-40
000100 5c 5c 05 00 72 57 05 00 bd 59 05 80 e5 87 05 80
       4.9231e-40 4.90547e-40 -4.9137e-40 -5.07927e-40
000110 d4 5c 05 80 64 97 05 80 7f d4 06 80 0e 5a 05 00
       -4.92478e-40 -5.13486e-40 -6.27242e-40 4.91483e-40
000120 de 5f 05 00 a3 6b 05 00 b2 5c 05 80 a4 62 05 80
       4.93568e-40 4.9779e-40 -4.9243e-40 -4.94563e-40
000130 fc 6e 05 80 bf 65 05 00 ba f8 05 80 4a 5e 05 00
       -4.98991e-40 4.95677e-40 -5.48404e-40 4.93002e-40

_orig_mod.embeddings.hour.embedding.weight f4 [30, 16]
000000 c4 74 18 bc de 13 95 3d 0b 53 70 3e 44 d6 25 bc
       -0.009305183 0.0727918 0.23469178 -0.010121886
000010 1d ab c6 3c c9 1b c1 3e 8d 4b 1b 3d ab af 05 3d
       0.024251515 0.3771651 0.037913848 0.032638233
000020 de 90 1d bd 10 f0 0d bd 40 e0 ea 3d b1 70 65 3c
       -0.038468234 -0.03465277 0.114685535 0.0140039185
000030 8d 1a 7c bd 75 6e 2b be a8 fe 4f be e6 d9 a8 3d
       -0.06154876 -0.16741355 -0.20311987 0.08244686
000040 31 f3 9c bc fe 45 5a 3d fc c0 80 3e c4 2c 62 bc
       -0.019158931 0.053289406 0.25147235 -0.013804618
000050 1d dc 4a bc 1b 6f cf 3d c2 0d 66 bc 3e 5c 92 3b
       -0.012381581 0.101286136 -0.014041366 0.0044665625
000060 4f 20 67 ba 3c 60 30 be be ea 89 3d 65 4c 77 bc
       -0.0008816765 -0.1722421 0.06734227 -0.0150938975
000070 e1 79 0f 3a 31 35 fc bd 98 62 25 be 60 5a 8f 3d
       0.00054731785 -0.12314833 -0.16150892 0.069996595
000080 f2 a8 7d bc 5e 33 7b 3d 62 a2 98 3e 91 a9 84 bc
       -0.015482174 0.061328284 0.29811388 -0.016194137
000090 ed e2 97 3a c2 47 0c 3e cb cd ca b9 77 25 b3 3c
       0.0011588015 0.13699248 -0.0003868177 0.02186845
0000a0 fe ef a1 bc 08 48 60 be fd 1d 8b 3d 6b d1 e6 bc
       -0.019767758 -0.21902478 0.06792829 -0.02817603
0000b0 6a e9 94 bb 1c 8a 23 be f6 d0 3a be be 30 90 3d
       -0.0045444267 -0.15970653 -0.18243775 0.07040547
0000c0 0a 96 46 3b f0 06 f6 3c 01 b5 82 3e 6b a4 ec bc
       0.0030301833 0.030032605 0.2552872 -0.028886994
0000d0 d3 63 c6 bb d8 2f 31 3d 37 d9 16 bc 4d fa 4f 3c
       -0.0060543804 0.043258518 -0.0092070615 0.012693954
0000e0 b5 04 26 bc 3b e7 47 be 94 b2 8a 3c b5 ec 12 bd
       -0.010132958 -0.19521801 0.016930856 -0.035870273
0000f0 04 d7 98 3c af b1 cc bd 17 8f f3 bd a9 b8 0a 3d
       0.018657215 -0.09994828 -0.118925266 0.033867512
000100 de 28 04 bd 25 0c 08 3d d4 cf 18 3e 89 32 ea bc
       -0.032265536 0.033214707 0.1492303 -0.02858855
000110 22 51 58 3c 5d 62 c3 3d e6 fd 90 3c c9 dd 21 3d
       0.013202937 0.09540246 0.017699193 0.03951815
000120 ae a6 18 bd e4 5d bb bd 19 05 14 3d 24 60 b1 ba
       -0.037268333 -0.091487676 0.036137674 -0.001353268
000130 ce 16 b3 bc e3 63 9b bd 2d 4d b4 bd 8b 4d 00 3d
       -0.02186146 -0.07587411 -0.088037826 0.03132395
000140 12 83 bd bc 54 0e de 3d e1 8a 7a 3e ac 32 db 3c
       -0.023133788 0.108425766 0.2446704 0.02675756
000150 dc 35 ca 3c 41 f7 98 3e 93 1c f7 3c d1 cb 2a 3d
       0.024683885 0.2987614 0.030164992 0.04169828
000160 46 b6 22 bd d7 64 24 be c7 73 14 3e e6 49 02 bc
       -0.03972461 -0.16054092 0.1449729 -0.007952189
000170 3c 9d 72 bd bf b3 52 be 19 cf 6c be 39 37 e9 3d
       -0.05923198 -0.2057638 -0.23125876 0.11387486
000180 be 26 d5 bc 06 04 8f 3d 02 f8 17 3e 4e a7 06 3c
       -0.02601945 0.06983189 0.14840701 0.0082185995
000190 9d 56 29 3c e5 85 96 3e c9 c5 94 3c cc 58 fa 3c
       0.010335592 0.29399028 0.018160718 0.03055992
0001a0 a9 ef 02 bd c4 65 19 bd 88 70 fe 3d a1 c0 25 3d
       -0.03196684 -0.037450567 0.124238074 0.04046691
0001b0 d3 da 88 bd 7b 59 11 be e3 ea 27 be 6e 95 ae 3d
       -0.066823624 -0.1419429 -0.16398196 0.08524595
0001c0 4f 36 9a 3c c4 88 d0 39 3c 61 f9 bd 04 d5 be 3b
       0.018824724 0.0003977475 -0.12176749 0.0058237333
0001d0 de 32 31 3c 27 df 66 3e e8 bc 33 3c 03 1a 46 bc
       0.01081535 0.22546063 0.010970332 -0.012091163
0001e0 c8 30 05 3c 62 f2 23 3d 09 96 33 3d ce 34 9c 3c
       0.008129306 0.040026076 0.043844257 0.019068148
0001f0 88 2b a8 bc 6f ba 22 bd 0b 2d 56 bd b8 11 f2 3b
       -0.02052857 -0.03972858 -0.05228905 0.007387366
000200 d0 4b 3d bc 6a 8e 9e bb 27 6f 50 be 11 fb d1 bc
       -0.01155372 -0.0048387544 -0.20354901 -0.025632413
000210 ca 27 47 3b fb 2e d6 3d 71 af 99 3c 8c 52 a5 3c
       0.0030388706 0.104581796 0.018760415 0.020180963
000220 06 b4 e7 bc 50 bd 06 3e cd 1c c7 3c 74 46 3a 3d
       -0.028284084 0.13158154 0.024305725 0.045477346
000230 9a 2e 45 bd 28 53 cc 3c 28 8e 36 3d 81 47 4e 3b
       -0.048140146 0.024941996 0.044569165 0.0031475725
000240 5f 3c 69 bc 24 69 93 3c ee 87 2d be 6d b9 e5 3c
       -0.014235585 0.01799447 -0.16946384 0.02804252
000250 e9 f6 af 3c 4a d3 cb 3d b7 80 00 3d 7a 3a 0e 3d
       0.02148004 0.099524096 0.031372752 0.034723736
000260 3f 1e 1a bd 66 d3 55 3e 2b 34 45 3d 8a e8 49 3d
       -0.0376265 0.20881423 0.048145454 0.049294032
000270 2a 3e 65 bd 99 4d 8b 3c 6b a2 a2 3c bb 75 c9 3c
       -0.055967487 0.017004775 0.019852838 0.024592271
000280 44 85 f7 bc a5 e0 c5 bc 02 16 89 be 5b c0 8e bd
       -0.030214913 -0.02415497 -0.26774603 -0.06970283
000290 18 c1 b5 bb c1 00 ae 3d ef 19 ab 39 a3 d1 84 3c
       -0.0055467 0.084962375 0.00032634984 0.016213244
0002a0 8a 88 93 bc 58 8a 81 3e 24 73 9c 3c 63 46 71 3d
       -0.018009443 0.2530086 0.019097872 0.058905017
0002b0 71 de dc bc 67 d2 a4 3d 2c f9 61 3d 5d b5 cb 39
       -0.026961537 0.080479436 0.05516927 0.00038854303
0002c0 39 25 08 b7 97 1e 27 bd f4 1e 62 be db ee 32 3b
       -8.114898e-06 -0.040800657 -0.2208212 0.0027303013
0002d0 9a 4b 55 3c f8 12 db bc a8 71 38 3c e5 bd 0e bc
       0.013018513 -0.026742443 0.0112575665 -0.008712267
0002e0 8f 2a fd 3b 46 bc 30 3e 15 97 35 bd 36 22 b8 3c
       0.0077260206 0.1725932 -0.044333536 0.02247725
0002f0 e5 30 10 bc 15 4f ba 3d 7f 0f f3 3d 44 bc 63 bd
       -0.00880072 0.09097115 0.1186819 -0.055599466
000300 1b ed 23 bc 39 af d9 bc 26 a3 63 be 3e 35 86 3c
       -0.010005261 -0.02657281 -0.22230205 0.01638281
000310 e3 e0 35 3c d7 07 d2 bc c3 22 9d 3c 95 52 87 3c
       0.01110098 -0.025638504 0.019181615 0.01651887
000320 b2 14 a7 bc 72 84 50 3e b7 a5 84 3b b4 05 99 3d
       -0.02039561 0.20363024 0.004048075 0.07471791
000330 52 9a 59 bd 50 76 b3 3d 0f 09 d4 3d 10 a2 b2 bc
       -0.053125687 0.08762801 0.1035329 -0.021805793
000340 43 6b 30 3d 2a a5 97 bd 45 18 c6 bd f7 cd 54 3d
       0.043071043 -0.074045494 -0.09672598 0.051954236
000350 5a f8 58 3d 38 d5 ff bd e3 a6 4c 3d 36 50 6e bc
       0.05297122 -0.1249184 0.049963843 -0.014545491
000360 42 f6 31 3c 41 28 21 3d 75 f4 0e be 5f 5c 5a bd
       0.010861935 0.03934503 -0.1396044 -0.05331075
000370 92 ff 95 3c 55 53 ca 3d 39 3e 3c 3e 44 5d 0e be
       0.018310342 0.098791756 0.18383111 -0.13902766
000380 df ce 8a 3c ca 95 1b bd 19 15 bf bc 7a 38 a1 3c
       0.016944347 -0.037984647 -0.02332549 0.01968025
000390 06 e8 a6 bc 19 15 4b be 63 4c f8 bc 95 f3 28 bd
       -0.02037431 -0.19832267 -0.030309862 -0.041247923
0003a0 71 e5 3c 3d 18 0c b0 bb f5 9c ac bd 8d 08 26 bd
       0.04611725 -0.0053725354 -0.08428375 -0.0405355
0003b0 8a 79 6a 3d 3a b8 94 3d b8 d8 d6 3d 5c bb 59 bd
       0.057244815 0.07261701 0.104905546 -0.053157195
0003c0 e1 c2 ad 3b c8 b8 3c bd f2 6d 1e bd 01 01 2d bd
       0.0053027724 -0.04607466 -0.03867907 -0.042237286
0003d0 10 f1 aa 3b 0a c6 89 be b8 99 c9 3a 07 b9 13 3b
       0.005216725 -0.26908904 0.0015380895 0.0022540705
0003e0 0a 6c 4f ba 55 eb b9 bb fa 88 e1 bd f9 70 45 bd
       -0.00079125224 -0.0056738057 -0.11012454 -0.048203442
0003f0 19 3d 3f 3d dc 54 c6 3d 18 40 0a 3e 5b 78 8c bd
       0.046689127 0.096841544 0.13501012 -0.068588935

_orig_mod.dense_proj.weight f4 [64, 113]
000000 cd 1c 31 bb 1a f8 0e 3e c5 52 62 be a8 4c bd bd
       -0.0027025223 0.1396183 -0.22101887 -0.09243137
000010 d3 cb bd 3e f0 2e 82 3c 40 fc 7f bd 72 15 24 be
       0.37069568 0.015891522 -0.062496424 -0.16023806
000020 f0 93 a0 bd 5e 02 08 bc 54 1d 32 3e 1f 4a af 3b
       -0.07840717 -0.008301346 0.17394 0.005349412
000030 60 d1 f0 3c ff 48 11 be 91 89 ec bd 51 73 03 be
       0.029396713 -0.14188002 -0.11549676 -0.12836958
000040 01 88 0e be 75 5d 5e bb b9 3d b2 bb 1d 2e 8e 3c
       -0.13919069 -0.0033930216 -0.005439487 0.017355973
000050 c9 5b 88 bd 40 94 9f bc 55 d3 8a bc 41 15 88 bd
       -0.06658132 -0.01947987 -0.016946474 -0.06644679
000060 5a 38 c8 bb 93 62 28 ba ea 43 e5 bc d7 57 2d 3e
       -0.0061102333 -0.000642338 -0.027986486 0.1692804
000070 97 9b 21 bc 53 6d 86 3d 2b 57 ac 3d 2e 0a ac bd
       -0.009863756 0.06563821 0.084150635 -0.08400379
000080 35 1f d6 3c f8 b1 d4 3c 54 a6 5d bd b5 d6 9b 3d
       0.026137928 0.025963768 -0.0541137 0.076093115
000090 61 5e 84 3c e5 d5 04 3e 81 57 c4 3d 31 61 0f 3d
       0.016158285 0.1297222 0.095870025 0.0350048
0000a0 18 34 ab bd e7 0c 61 3d 66 a5 c5 bd a6 a1 e7 bc
       -0.083595455 0.054943945 -0.09650688 -0.028275322
0000b0 1a 0b 10 be 37 90 b9 3c 6d 43 94 bc e5 7e a9 3b
       -0.14066735 0.022651775 -0.018098557 0.0051725977
0000c0 39 1f af bd e4 b6 f9 3c 4f 91 88 bd fc 81 1d 3e
       -0.08550877 0.030482717 -0.066683404 0.15381616
0000d0 43 c5 91 3d 8c 1a 81 bd 6c f2 82 3c 02 c1 0c be
       0.07117703 -0.063038915 0.015984736 -0.13745502
0000e0 1a 32 af 3c 1c 45 d3 3a 6a d6 58 3c c6 43 8b 3d
       0.021386195 0.0016118619 0.013234714 0.06800036
0000f0 52 fa 21 bd fc 70 26 bd 25 98 2d 3d d4 a4 9c 3c
       -0.039545365 -0.040635094 0.042381424 0.019121565
000100 f4 a7 a1 3b e8 c9 4b 3b 4c 2a de bc 43 1e d7 bc
       0.0049333517 0.0031095687 -0.027119778 -0.026259547
000110 a1 31 22 3d fc ca 2a 3b c5 64 0d bd 14 f8 88 bc
       0.03959811 0.002606093 -0.03451993 -0.016719855
000120 7d 99 d2 bc af d4 8b bc fc 26 aa 3c 0a 03 86 bd
       -0.025707955 -0.017069189 0.020770542 -0.065435484
000130 6f 5a 93 bd 69 04 85 bd 4b 9f 1a 3d c2 63 cf bd
       -0.07194983 -0.06494982 0.03774957 -0.10126449
000140 2f cb 4a 3d 54 1d b2 bd 92 ba 84 bd 9c f4 df bd
       0.049510177 -0.08697 -0.06480898 -0.109353274
000150 71 9c 2a bd 60 86 ca 3d c5 17 fc bb 49 1c 4c 3c
       -0.0416531 0.09888911 -0.0076932632 0.012457916
000160 70 15 c4 3c af 68 4a bb ff 1c 99 3c 4d 46 02 3d
       0.023936003 -0.003088515 0.018690584 0.031805325
000170 14 88 1c 3b 48 dc 91 3b 23 d7 28 3c 0b 36 87 3c
       0.002388482 0.0044513084 0.010305199 0.016505262
000180 5a eb 47 3c e5 6f de 3b f7 e8 c2 3c a4 1b 64 bc
       0.012202108 0.006788241 0.023792727 -0.013922606
000190 e6 b5 8a 3c d9 c3 bf 3c 63 c2 86 bb fa 07 3c 3c
       0.016932439 0.023408817 -0.004112528 0.011476511
0001a0 8d be 4f ba ed 46 bf 3c 3e 81 a9 3b 39 d5 b3 3c
       -0.00079248176 0.02334925 0.0051728776 0.021952258
0001b0 c2 d3 48 3c b5 3e 39 3c f9 65 20 3c fb ad c7 3b
       0.012257518 0.011306454 0.009789937 0.006093738
0001c0 57 31 0a be 6f 5e 96 bd bb 49 4d bd 8c 58 e4 bd
       -0.13495384 -0.073422305 -0.050119143 -0.111497015
0001d0 76 3c 9c bd f5 f8 2e 3d bc 34 c7 bb 09 f0 37 3e
       -0.076287195 0.042717893 -0.0060792845 0.1796266
0001e0 ca 5c 30 bd ad 18 56 bd 5d ce be 3c 3e 8f e4 3d
       -0.04305724 -0.052269626 0.023291761 0.11160134
0001f0 85 03 86 3d b5 77 13 3c ce 7d 2d 3d 1b 9c 08 be
       0.0654364 0.009000708 0.042356305 -0.133408
000200 a1 21 aa bd cd b6 38 3d d8 06 a0 3c 31 7d a4 bc
       -0.083071955 0.045096207 0.019534513 -0.020079227
000210 41 c6 a8 3c bb 8d b1 bc 20 d8 80 3d ff 29 36 bd
       0.020602347 -0.021674028 0.062912226 -0.044473644
000220 18 71 ad bc 44 ec 6b 3c f6 64 a6 3d 7c af 4d bc
       -0.021172091 0.014399592 0.081247255 -0.012554046
000230 aa 1d 8c 3d 04 26 94 bd b4 1f 12 bc ab 3a 8b bd
       0.068415955 -0.072338134 -0.008918691 -0.067982994
000240 a7 44 23 bd e1 93 7c 3d 9b bc cc 3c cb 87 39 38
       -0.039860394 0.061664466 0.024992278 4.4233904e-05
000250 89 7c af 3c 2f 8f d2 3a e6 09 a6 3d e7 b3 d4 3c
       0.021421688 0.00160644 0.08107357 0.02596469
000260 11 00 63 3d 93 52 13 3d 5d 76 2b 3d fe b3 a1 bc
       0.055419985 0.03596742 0.041860927 -0.019739147
000270 55 bf 24 bc b9 1e 58 3c 8f ef 5d bd 8b 59 91 bd
       -0.010055383 0.013190919 -0.05418354 -0.07097157
000280 e5 0c 82 3c 9a 9b 41 bd 94 0b 8d bc 77 04 b3 bc
       0.01587529 -0.047267534 -0.017217435 -0.021852715
000290 02 fc a4 bd 9f b2 85 3d 19 27 8b bd b4 66 9f 3c
       -0.08055879 0.0652821 -0.06794567 0.019458152
0002a0 5e e5 cb bc fe eb 5f 3a c6 00 af bc 6b 36 18 3c
       -0.024889644 0.00085419405 -0.021362673 0.009290318
0002b0 0c 52 91 b9 43 ad 92 bc 82 50 b9 bc e8 0d 11 3c
       -0.00027717685 -0.017904883 -0.022621397 0.008853413
0002c0 99 a4 78 bb 8b 45 18 bd ff 73 59 3b 18 e7 99 bc
       -0.0037939905 -0.037175696 0.0033180711 -0.018786952
0002d0 ff 41 42 3b 3d 8a 1c 3d 25 b1 ab 3d 7e 7d 1b bd
       0.0029641388 0.03821777 0.08383397 -0.037961476
0002e0 b8 d2 cb bc bf a8 ee bc 9f fa be 3c fd 36 b9 bc
       -0.024880752 -0.029133199 0.023312865 -0.022609228
0002f0 06 0c 8c bd 04 01 ef 3c 94 da b7 bc c7 b7 46 3d
       -0.06838231 0.029175289 -0.022443093 0.048515107
000300 ee 93 12 bd 04 99 68 3d ca 91 15 bd 55 54 36 bd
       -0.035785608 0.056786552 -0.03651599 -0.04451402
000310 b0 c5 c7 bd 6a 15 86 bd 68 45 5b 3d 4d b8 95 3b
       -0.09754503 -0.06547053 0.053532988 0.0045690895
000320 32 f6 71 3c a2 b1 90 3c e5 82 c9 3a 65 de 85 3c
       0.01476817 0.017662827 0.0015374093 0.016341398
000330 1f 93 b8 3b bf 4a 27 3c 65 b7 31 3c 23 11 9e 3c
       0.0056327726 0.010210692 0.010846947 0.01929528
000340 72 6e 07 3c d5 d9 3d ba 80 28 71 3b 9c 38 4d 3c
       0.008266078 -0.00072422373 0.0036797822 0.012525704
000350 af 5e a2 bc 0f 7a 98 3c ad a4 9b 3c b0 58 10 bc
       -0.01982054 0.01861289 0.018999422 -0.008810207
000360 86 a2 97 3c 30 67 be 3c 0d 37 60 3c 72 47 ac 3c
       0.018510114 0.023242563 0.013685 0.021030162
000370 1c 90 aa 3c 85 0d 83 3c c2 cf 08 3c 3d 21 39 3a
       0.02082067 0.015997658 0.008350315 0.0007062143
000380 01 28 23 3c b7 51 b3 bd e0 1c b5 3d c2 76 84 bd
       0.009958268 -0.0875582 0.08843398 -0.06467964
000390 de ce f5 3e 7a bc b5 bd 6b 66 43 3d 9d b1 a9 bd
       0.4800939 -0.0887384 0.047705095 -0.0828583
0003a0 ac 4a 3d be d0 2d 1f be e4 d6 2e 3c 1e c1 28 be
       -0.18485516 -0.1554482 0.010671351 -0.16479918
0003b0 8e 32 21 be 2b 30 17 be 41 03 49 bc ba 05 6e bd
       -0.15741941 -0.14764468 -0.012268842 -0.05811093
0003c0 f2 21 4e 3e 08 2b 9e 3c fa 70 2d 3d 11 9d 40 be
       0.20130137 0.019307628 0.04234407 -0.18809916
0003d0 38 25 6b 3d a6 3a 2d 3d 12 99 76 bd 4e e3 8a bd
       0.05740854 0.04229226 -0.060204573 -0.06781636
0003e0 37 86 b5 3c 00 a8 7c bd 38 77 00 3d 2f da 16 bc
       0.022158725 -0.061683655 0.031363696 -0.009207292
0003f0 8f b0 43 bb 17 4c 96 bc 6f 00 8e bc 94 b7 0a 3d
       -0.0029859876 -0.01834683 -0.017334191 0.03386648

_orig_mod.dense_proj.bias f4 [64]
000000 0e 52 f4 3d 71 d8 bc 3d 7c 5d 8a bc 4c 24 33 bd
       0.11929713 0.092209704 -0.01689028 -0.043735787
000010 e6 71 5f 3b bf e9 2d 3c 7d 5e e6 3c ac 40 5d bb
       0.0034094988 0.010614811 0.028121227 -0.0033760471
000020 0d 13 ba bc cf 0e f9 3a 7a a2 a7 bc f3 10 89 3c
       -0.022714162 0.0019001606 -0.020463217 0.016731715
000030 94 dd cd bb 23 f3 85 3d 1d 6d b3 3d 93 b1 76 be
       -0.0062825177 0.06540515 0.08761046 -0.24091177
000040 41 13 f7 bc db 45 8a bb bd f2 39 bc 96 a2 29 3b
       -0.030160548 -0.004219753 -0.011349377 0.0025884262
000050 ec f9 0e 3d c6 3c aa bc 09 fd 78 3b 6e 68 87 3b
       0.034906313 -0.020780932 0.0037992618 0.004132322
000060 eb 7e b1 3d 38 ed c8 bc 66 57 19 ba 85 d9 a1 bb
       0.08666786 -0.024527177 -0.000584951 -0.0049392604
000070 c4 f6 c8 3c 10 00 9d bd 83 0a 99 bd 6f 6f 2e bc
       0.02453173 -0.076660275 -0.07472708 -0.010646685
000080 0b 28 e0 3c f4 49 03 bb 9e 33 67 3d 34 63 81 3a
       0.027362844 -0.0020033093 0.05644571 0.0009871484
000090 e5 2c db 3c ed 96 06 3c d9 4c 23 bd 07 66 35 3d
       0.026754806 0.008214694 -0.03986821 0.044286754
0000a0 ae 38 80 3b 10 db 6a bd 2b 92 da bd b4 e5 46 3c
       0.0039130067 -0.05733782 -0.106724106 0.012139726
0000b0 4a bd 98 3d cc 79 e8 bc 40 b1 a0 3b 18 fd 48 bc
       0.07457979 -0.02837839 0.0049039423 -0.0122673735
0000c0 e2 fe de bc 23 92 b7 3c 77 08 62 3b b2 bc 97 3d
       -0.027221147 0.02240855 0.0034489909 0.07409038
0000d0 be 7c e9 3c 90 43 92 bb a4 c5 cf 3c bd a2 5d 3d
       0.028501865 -0.0044636205 0.025362797 0.054110277
0000e0 19 b1 68 be 5a 86 46 3c 94 c9 6d 3e 8c a0 72 3c
       -0.22723807 0.012116993 0.23221427 0.014808785
0000f0 57 7a ec bc 9e c0 f1 bb a1 ef 06 bc 6b ee 9f 3b
       -0.02886693 -0.007377698 -0.008235843 0.0048807166

_orig_mod.shared_mlp.0.weight f4 [128, 120]
000000 e5 fa ac 3c 65 aa 18 bd 1d 37 63 bd 2a 4e af 3b
       0.02111573 -0.037271876 -0.055472482 0.005349894
000010 5f 21 90 b4 37 c3 58 3c c1 aa c9 33 9f 44 60 bc
       -2.684637e-07 0.013230137 9.390852e-08 -0.013688236
000020 0a 77 9a bc 2d f7 12 bd f8 af 5c bc b6 12 ca bd
       -0.01885559 -0.035880256 -0.013469689 -0.0986685
000030 91 e7 d0 3d 80 e3 e3 3d 25 1d e6 3c e0 ee 0c bb
       0.10200418 0.111273766 0.02809007 -0.0021504685
000040 5a 1f c5 bd 95 35 41 3e f8 19 6f 3d 9b ee 7a bb
       -0.096251205 0.18868096 0.058374375 -0.0038289193
000050 88 d0 61 bd 2e 62 92 3d 29 1e 87 bb 9f 2c ac bc
       -0.05513051 0.071476325 -0.0041234684 -0.02101737
000060 5e aa 2c 3d c1 31 ee 3d ab 4a 9c 3d a6 dd bf 3e
       0.042154662 0.116305836 0.07631429 0.37473792
000070 dc ae af 3d ae c4 8c 3e b4 2a 2a bd 4f 3b e9 3a
       0.08578274 0.27493805 -0.04154463 0.0017794165
000080 f2 b2 a2 bb bd 51 f4 3a d2 22 cb bb b3 01 41 ba
       -0.0049651796 0.0018640083 -0.0061992193 -0.0007362619
000090 ea f4 d0 bd bb 89 0e bd 5e 99 cd bd 45 e5 c5 3b
       -0.10202964 -0.03479932 -0.10039018 0.006039294
0000a0 5c b3 64 bb a6 cf 10 bc f1 83 0c be 5b f3 54 3c
       -0.0034896946 -0.00883857 -0.13722207 0.012997474
0000b0 80 e1 35 bc b1 27 63 3d 07 91 33 bc f4 48 f9 bb
       -0.011101127 0.055457775 -0.01095987 -0.0076075736
0000c0 21 f9 ed 3b f9 d0 d5 3d 6a 31 68 3c b5 e6 11 3d
       0.0072623645 0.10440249 0.0141719375 0.03562041
0000d0 14 c8 67 bc 71 e0 dd 3c 8f 01 e2 3c 34 06 89 b9
       -0.014146823 0.027084561 0.027588634 -0.00026135298
0000e0 04 e6 88 bd 21 f8 a5 bc 7c 9b 24 3d 3b a6 72 3d
       -0.06684497 -0.020259919 0.040187344 0.05924056
0000f0 57 6d 7f bc ee 6c 17 bc 42 3f aa 3c af a2 e4 bc
       -0.0155900335 -0.009242279 0.020782117 -0.027909605
000100 ce 14 d0 3b a2 32 e8 bc da 8f 60 3b 2e 77 bf b9
       0.0063501364 -0.028344456 0.003426543 -0.00036519155
000110 a7 6a 2a 3d 8d 00 2c bd 08 46 0d bc 34 4f 70 bd
       0.041605618 -0.041992713 -0.008622654 -0.058669284
000120 17 b5 77 3b 48 1a 86 bc 30 5d 2b 3c 91 be 19 3d
       0.0037797147 -0.016369954 0.010459229 0.037535254
000130 16 7c f2 3b d2 4c 6a 3d d7 ba 35 bd ad 3b 01 bd
       0.007400046 0.057202168 -0.044367637 -0.031551052
000140 b1 27 39 3c 83 fd d2 3c a5 d5 d0 3c 25 66 81 bc
       0.011300967 0.02575565 0.025492499 -0.015795777
000150 2e 7a f1 bc e9 ea 96 3d ec a6 c5 3b a1 6e 0d 3d
       -0.029477205 0.07369024 0.0060318615 0.034529332
000160 c0 4b 12 bd 4b 09 8e bc 1b 5f 97 bc 3f 42 1c 3d
       -0.035716772 -0.017338416 -0.018477967 0.038149115
000170 95 34 80 bc d2 26 07 bd 3a 73 3c bc 43 2b a6 3c
       -0.015650073 -0.032996006 -0.0115020815 0.0202843
000180 ce bd d9 ba c3 72 49 be b6 7a 0b 3d 08 52 0b bd
       -0.0016612352 -0.19672684 0.034052573 -0.034013778
000190 1e 59 3b bd 23 51 31 bd f6 81 8e bc 95 44 c5 3c
       -0.045739286 -0.04329027 -0.017395955 0.024080554
0001a0 ff 04 b3 bb cf 2a df 3c 28 ad 25 bd fa 6f 6f bc
       -0.005463242 0.027242092 -0.040448338 -0.0146141
0001b0 8a 36 2d 3d 5e c0 dc 3c 9e fa 07 bc 43 20 a9 bc
       0.04228834 0.026947197 -0.008299498 -0.020645266
0001c0 a6 2b 8d 3c 9b 8d 38 bd b1 e9 92 3d d4 48 45 bd
       0.017232727 -0.04505692 0.07173479 -0.048165157
0001d0 83 98 07 3d 38 6c 99 3d 40 be 4b bc a4 73 14 3d
       0.03310443 0.07491344 -0.012435496 0.036243096
0001e0 27 c3 25 3d 1b 1e d8 3d fd 06 50 3e f9 39 a9 bc
       0.040469315 0.10552617 0.20315166 -0.020657526
0001f0 76 12 57 35 de 40 18 be 53 a4 35 37 06 e3 19 bd
       8.0120606e-07 -0.14868495 1.08267e-05 -0.037570022
000200 5e 45 56 3e 25 e6 38 3c 72 53 f2 3b 1e d8 d6 bc
       0.20924899 0.0112853395 0.0073952014 -0.0262261
000210 e7 b7 8a bd a6 fe d4 3e 0e 03 26 3b f3 66 43 3d
       -0.06773358 0.4160053 0.002533141 0.047705602
000220 d5 b5 86 3d 77 3a e4 3d 90 28 24 3d 1f c5 0c be
       0.065776505 0.11143964 0.040077746 -0.1374707
000230 b8 58 73 bc f1 f0 84 3d 8e 7c 80 bd f0 e7 30 be
       -0.014852695 0.064912684 -0.06273757 -0.17275977
000240 fa af 22 be a1 6c 2c 3d a1 0b 1b be 17 cd 36 be
       -0.15887442 0.042095784 -0.15141155 -0.17851673
000250 60 24 ba 3c ee 7a 85 bd c4 97 ba bb 07 bc fd 3c
       0.022722423 -0.065175876 -0.0056943614 0.030973447
000260 99 8c 42 3b 17 e2 8e 3d 80 86 1e bd 50 f0 d0 3c
       0.0029685854 0.06976717 -0.038702488 0.025505215
000270 2b 55 62 3d fd cf 2d bd d3 c5 ef 3d bd 4f 75 3d
       0.055257004 -0.04243468 0.11707654 0.059890497
000280 1d e1 15 bb b1 b0 4d bc 7c 85 3b bc 2c 2a c0 ba
       -0.0022869774 -0.012554334 -0.011445399 -0.0014661006
000290 13 f8 77 3c bb 5e 58 bc 22 b8 5a 3c 04 c0 99 3b
       0.015134829 -0.013206179 0.013349565 0.0046920795
0002a0 2a 63 7f bb 61 f7 d1 3c 3d 42 ac bc 9d 62 bb bb
       -0.0038969018 0.025630655 -0.021027679 -0.0057185427
0002b0 23 72 ae ba 02 fa d3 3c 2a 28 18 3d 09 b2 b1 bc
       -0.0013309162 0.025876049 0.03714768 -0.02169134
0002c0 55 8b 37 bd b3 9e 9f bd 6a 1f a4 3d 49 73 c2 3d
       -0.04481061 -0.07793941 0.08013804 0.09494645
0002d0 36 bb 65 3d 90 b0 ef ba 6d 42 38 3c 0b 27 1f bc
       0.05608674 -0.0018286873 0.011246306 -0.009713898
0002e0 32 8d cb 3d e0 cf 04 bd f1 55 a8 3b 13 ea ae 3c
       0.0993904 -0.032424808 0.005137198 0.02135185
0002f0 bb e7 b3 3a 7e 65 36 3e 93 f3 47 bb 5f 19 83 3e
       0.0013725677 0.17812154 -0.0030510172 0.25605294
000300 22 ba 9b 3d 43 7e 83 bc 39 33 54 bc 57 76 d3 bc
       0.076038614 -0.016051417 -0.012951666 -0.025813265
000310 09 f2 62 bd 9a be 27 bd 2c ad 38 3c da f5 98 3d
       -0.055406604 -0.040953256 0.011271756 0.074687675
000320 8f 8d a4 bd bd 9b 88 bc d8 b3 3d 3d 49 ca 93 3c
       -0.08034813 -0.016675824 0.04631409 0.018040793
000330 3d e0 03 3c 29 a1 00 3d 1f cb ab 3d 58 45 41 bc
       0.008049068 0.031403694 0.08388352 -0.011796318
000340 f0 73 b5 3b 8d 9d cb bc 9b c2 cd 3b 31 c4 5c bc
       0.0055375025 -0.0248554 0.0062793023 -0.01347451
000350 2b b3 f6 3c 7a 19 3d 3b 56 b8 ef 3c 6b a0 6c bc
       0.03011473 0.0028854297 0.029262703 -0.0144425435
000360 7d 58 9b bb 02 76 b3 bc 7a 8d ee 3d c7 cc 34 3d
       -0.0047407732 -0.021906856 0.11648078 0.044140603
000370 01 77 24 be 41 6e 06 3c 79 20 f9 3c b2 24 58 bd
       -0.16061021 0.0082049975 0.030410992 -0.05276937
000380 c3 e5 1d bd 2b ef 18 3c b4 98 9d 3a c0 cd 64 3d
       -0.038549196 0.009334366 0.0012023658 0.05586028
000390 54 03 d4 3c e6 e4 ca bc e0 8b e3 ba b6 bc 5f be
       0.025880493 -0.02476735 -0.0017360412 -0.21849331
0003a0 2e c1 37 3e a7 ab ae bc 77 92 5f 3d ad f1 9e 3c
       0.17944786 -0.021322085 0.05458304 0.01940235
0003b0 a8 e2 39 3d 83 f1 f9 bc 75 e9 c3 3b 93 b9 9d bb
       0.045382172 -0.03051067 0.005978758 -0.004813382
0003c0 bc c4 dc 3a 6c 93 22 bd 9b a7 cb bd ef 00 70 3c
       0.0016843299 -0.039691374 -0.099440776 0.01464866
0003d0 33 60 64 35 a5 e5 3a 3d 85 dc 41 37 cf 10 8a bb
       8.5076607e-07 0.045629162 1.155504e-05 -0.0042134295
0003e0 6b 79 d7 bc 55 e2 8d bc 85 08 e6 bb 34 21 a7 3c
       -0.026303014 -0.017319838 -0.0070200586 0.020401575
0003f0 6c ed 2a 3d 9e 7f cb bd f1 ca 00 3c a0 c1 53 bc
       0.04173033 -0.099364504 0.007860885 -0.012924582

_orig_mod.shared_mlp.0.bias f4 [128]
000000 2c d7 72 3d 15 6d 30 be 7c 4d 8b 3d c4 82 27 be
       0.059287235 -0.17229111 0.06801888 -0.16358477
000010 4e 4d 47 be a0 bf 24 be 8e 3f a1 3d 47 41 bd 3d
       -0.19463083 -0.16088724 0.0787345 0.09240966
000020 7b 37 79 bd f0 eb 6f 3d d0 c0 0c be 0d 6f 39 be
       -0.060843926 0.058574617 -0.13745427 -0.18108769
000030 87 46 47 be b4 3a ad 3d 62 d9 2c bd 4b 9c 01 be
       -0.19460498 0.08458462 -0.0421995 -0.12657277
000040 cd 47 c1 3d 21 5c 3f 3d 00 22 06 bc fe 58 89 3d
       0.09437523 0.04671872 -0.008186817 0.06706427
000050 d6 2e b2 3d e5 6b a7 bb ab 8f d0 3c 95 d3 e6 bc
       0.087003395 -0.0051092976 0.025459131 -0.028177062
000060 76 81 27 3d d9 1a 15 be 86 6f 20 be 6f 6c 5e 3c
       0.040894948 -0.14561023 -0.15667543 0.013575657
000070 c3 77 8d 3c 62 e0 4e 3d 55 d2 2a be ff 95 16 be
       0.01726902 0.050506957 -0.16681798 -0.14705656
000080 65 f7 58 3d d2 d1 ae b8 cf 6e cd 3d 58 ac c0 3d
       0.05297031 -8.3360486e-05 0.10030901 0.09407872
000090 f0 4c 5f bb 32 d4 91 bc c9 84 8d 3c c0 eb 16 3c
       -0.0034072958 -0.017801378 0.017275231 0.009211481
0000a0 59 39 f7 bd 5b ec 3f bd 31 ae a0 3d f8 ae bd bc
       -0.12071485 -0.046856266 0.078457244 -0.02315472
0000b0 0c 3d e0 be e2 46 0d bd 27 a6 e4 bc 37 4a 0d 3d
       -0.43796575 -0.034491427 -0.027911259 0.034494605
0000c0 e2 03 94 3c 55 c8 8a bc bb 90 ad 3d 1d 09 4e bd
       0.018068258 -0.016941229 0.08474871 -0.05030166
0000d0 d4 3a 61 be ea 31 a5 3b f5 b3 7c 3d 77 7f 99 be
       -0.21995097 0.0050413506 0.061695058 -0.2998006
0000e0 a3 c8 0d be 61 da 13 3d 3d c8 2a be ce 97 ec bd
       -0.13846068 0.036096934 -0.16677947 -0.11552392
0000f0 c0 95 06 3d b7 b1 84 3d 42 7a f3 3b 54 21 bc bd
       0.032857656 0.06479209 0.0074303458 -0.09186044
000100 b3 92 16 be 05 41 a6 bb f9 54 17 bd ec b2 44 bd
       -0.14704399 -0.005073669 -0.03694627 -0.048022196
000110 f1 62 ce bd f2 d7 1e be 87 8c 9d bd 73 7c 88 3d
       -0.10077465 -0.15512064 -0.07692819 0.06664362
000120 b2 b3 49 be 68 77 73 bd 61 5b 1a be 98 15 22 be
       -0.19697455 -0.059440047 -0.15073921 -0.1582855
000130 49 6e 29 be 87 38 ae bd 61 9b 36 3d a1 3a 4c 3c
       -0.16545977 -0.085068755 0.044581775 0.01246515
000140 6d 68 00 be c0 1d 14 be 96 fe 84 3b 57 17 0a 3d
       -0.12539835 -0.14464474 0.0040586693 0.033713665
000150 45 1a f3 bd e2 5c 21 be 35 9a 07 be 39 1b 15 be
       -0.11870245 -0.15758088 -0.13242419 -0.14561166
000160 ea f4 33 be e8 11 f9 bc 54 b4 04 3d 3d 96 2a bb
       -0.17573896 -0.030404046 0.032398537 -0.002602949
000170 4f 94 81 bd 0f 3d b6 3d 2e 2c 09 be 88 c7 1a 3d
       -0.06327116 0.08898365 -0.1339576 0.037787944
000180 42 07 14 bd 19 be 11 be 5f 64 a4 bd 70 fb 89 3d
       -0.036139734 -0.14232673 -0.08026957 0.06737411
000190 17 f6 95 bc 50 88 44 3c 3f 95 1b be f0 ab 24 be
       -0.018305821 0.01199539 -0.15193652 -0.16081214
0001a0 3f de 2a be 09 63 44 be bb c4 86 bd 8f 78 42 be
       -0.16686343 -0.19178404 -0.06580492 -0.18991302
0001b0 ad 95 c8 bd 8b 27 ad bd ff 3c d9 3d a2 e7 40 be
       -0.097941734 -0.08454808 0.10607337 -0.18838361
0001c0 9f 52 9a bd 9e 65 9c 3d 71 3c 0b 3c 90 40 05 be
       -0.0753529 0.076365694 0.008498297 -0.1301291
0001d0 8e ef 36 bc 55 a4 02 be a5 3b 87 3d e0 ca 3b be
       -0.011165513 -0.12758 0.06603173 -0.1833911
0001e0 24 7e 16 be 91 52 ba 3b 23 10 08 bd 16 b3 1c bd
       -0.14696556 0.005686112 -0.033218514 -0.038256727
0001f0 29 35 68 be 59 8f 1c be 12 99 31 be a8 53 23 3d
       -0.22676529 -0.15289058 -0.17343548 0.039874703

_orig_mod.shared_mlp.3.weight f4 [64, 128]
000000 4b 45 38 bd cb 88 ae ba 9c dd 8f bd b7 3f 76 3c
       -0.044987958 -0.0013315914 -0.070246905 0.015029839
000010 d4 0e 59 3c eb ad 52 bc 8c 98 21 bc 8f 19 12 3b
       0.013248164 -0.012858848 -0.00986303 0.0022293066
000020 22 cb f4 3c c1 09 fe bc a1 44 d8 bc 30 e4 72 3d
       0.029882018 -0.03101051 -0.026399912 0.059299648
000030 3b fc 98 3d 54 31 fa 3b 07 db e7 3c 6b bf 05 bd
       0.07469984 0.007635275 0.028302683 -0.032653254
000040 9b bb c0 bc 3c 76 ee bd 55 09 01 bc 80 e2 d1 3b
       -0.023526957 -0.11643645 -0.00787576 0.0064051747
000050 89 3c 54 bd 7f 22 ab bb 4b 1c 65 bc ea 51 03 3d
       -0.051815543 -0.005222618 -0.013983796 0.03206054
000060 80 c8 04 bd 3c b9 08 3d 2a f6 43 3d 74 ba a4 bd
       -0.032417774 0.03337978 0.047842182 -0.080433756
000070 72 35 d1 bc ff 43 05 bc 8f b0 4f 3d 55 65 27 3d
       -0.02553818 -0.008133887 0.05070549 0.040868122
000080 81 f8 d6 bc 54 13 51 bd 3e ca bd 3c 75 7c 06 bc
       -0.026241543 -0.051043823 0.023167726 -0.008208384
000090 91 84 3f bd 81 9f ab bc 9c fc 91 ba e4 d0 b0 39
       -0.046757285 -0.02095008 -0.0011137906 0.00033724972
0000a0 53 79 16 bd ca 2d bd bc 7c 47 b4 bc a1 d3 ab 3c
       -0.036736798 -0.023093123 -0.022006743 0.020974936
0000b0 85 aa aa ba e4 eb 03 bc 9c a8 1a bd ed c8 0a bd
       -0.001302079 -0.008051846 -0.037758455 -0.033883024
0000c0 82 80 8b bc d1 84 54 3b 87 28 ea bc d5 49 ea bc
       -0.01702905 0.0032427798 -0.028583778 -0.028599659
0000d0 8f 50 1d be 40 b5 59 bc 87 37 6d bd eb ea 8c bb
       -0.15362762 -0.013287842 -0.057914283 -0.0043004653
0000e0 d7 05 57 3d b2 73 cf bc 42 19 2f 3d c3 72 89 bd
       0.052495804 -0.025323723 0.042748697 -0.06711342
0000f0 49 d0 6f bd 8e a8 a3 bb c5 29 05 bd ab e1 6e ba
       -0.058548246 -0.0049944585 -0.032510538 -0.00091126066
000100 95 bd 4b 3d 24 15 f0 bd 74 11 f7 bc fa 27 81 bd
       0.049741346 -0.11722782 -0.03015969 -0.06306453
000110 8c 20 2a 3d f8 1c 46 3d 6d 90 26 bd 74 5b 92 bd
       0.041534945 0.04836747 -0.04066508 -0.071463495
000120 db 4a 27 3d 54 6c 1c 3d 34 fb 6b 3d 9b 28 9f 3d
       0.040842872 0.038189247 0.057612613 0.07771417
000130 a8 25 90 bc e7 cd 03 3d 31 c6 80 bc 55 7c 28 3c
       -0.01759608 0.032178786 -0.015719505 0.010283549
000140 92 c5 cf 3c 15 f9 5b 3d db 07 f6 3b c8 00 8d bd
       0.025362764 0.05370434 0.0075082607 -0.06884915
000150 d8 28 c3 3c 2b 51 4b 3d 28 44 c8 3c 31 13 81 3d
       0.023823187 0.049637955 0.024446562 0.063024886
000160 e8 cb d3 bd 1c 91 02 be 99 75 3a bd 2c e5 17 ba
       -0.103416264 -0.12750667 -0.045522306 -0.0005794342
000170 78 1c f6 bd a5 aa de bd 32 15 8c 3d b6 b3 6a 3c
       -0.12017149 -0.108723916 0.0683998 0.014325073
000180 ef a2 d7 3b ea ee 4c 3d fc 6c 23 bd 83 a4 7e bd
       0.0065807025 0.050032534 -0.039898857 -0.06216861
000190 0a 59 55 3c 13 e8 d3 bc 55 d9 ff 3c c2 c7 3b 3d
       0.013021717 -0.025867498 0.031231562 0.0458448
0001a0 4f 9f 17 3d 87 e7 62 3d bc f1 0b 3d 51 8b 7d bd
       0.037017163 0.055396583 0.034166083 -0.06190044
0001b0 fd 88 04 bc 14 13 36 3d 1c 58 24 bd d4 10 73 bb
       -0.008089301 0.044451788 -0.04012309 -0.0037088888
0001c0 00 99 74 bd 58 9a f0 ba 77 fd 8a bb f2 d7 24 3d
       -0.059716225 -0.0018356545 -0.004241641 0.040245004
0001d0 60 37 88 bd ce c1 40 3d 5b 7c 82 3c 9e 08 79 3d
       -0.06651187 0.047059827 0.015928438 0.060799234
0001e0 04 a0 5f 3d a4 5e 05 bd 11 d3 4d 3c ca 3a 62 3c
       0.054595962 -0.03256096 0.012562529 0.013807962
0001f0 a8 78 e8 bd c6 5c f3 3c 6c fe 62 3d af 2d 76 bd
       -0.11351138 0.029707324 0.055418417 -0.06010216
000200 7e 6d 42 bb f1 d6 00 be bd 78 82 3c 98 db 06 be
       -0.0029667313 -0.12581994 0.015926713 -0.13169706
000210 88 b9 b6 bd ee 72 63 be bf a4 37 bd 7c a4 0b bb
       -0.08922106 -0.22211811 -0.04483485 -0.0021307757
000220 24 61 48 3c c8 e0 b0 ba 00 16 55 bd 5d 90 2e bd
       0.012230191 -0.0013494724 -0.052022934 -0.042618144
000230 ec 79 75 bd 92 ad ed 3c bf 52 54 3b db 17 91 3c
       -0.059930727 0.029013429 0.0032397953 0.01771157
000240 bf 77 44 bd b3 9a 9d bc 34 f6 d9 3c bd 43 2c 3c
       -0.04796576 -0.019238805 0.026606657 0.010514197
000250 85 ee 61 3d 40 06 92 3c 25 1a ee bc 1a b1 c0 3c
       0.05515911 0.017825246 -0.029065201 0.023521949
000260 2a 48 22 bc 87 8b 2f bd 64 86 66 bd b0 54 2d bb
       -0.009904901 -0.042857673 -0.05628051 -0.0026448183
000270 14 21 9c 3c ab 63 b5 ba 8b e4 cd bd c8 78 3d be
       0.019058742 -0.0013838907 -0.10053357 -0.18503106
000280 c3 56 08 bd b5 ed 05 3d bf 9d 24 bc 15 cd 34 bd
       -0.033285867 0.0326974 -0.010047375 -0.044140894
000290 fc af 55 3a 4d b3 b0 3d d2 0f b3 39 e7 2d 69 bd
       0.0008151529 0.08627949 0.00034153328 -0.05692854
0002a0 e6 c9 34 be 79 5d b4 bc 4a 50 b8 bb 69 83 8d 3d
       -0.17655143 -0.022017227 -0.0056248056 0.0690983
0002b0 07 c5 4c be 01 fd 30 3c 36 43 7e 3a de aa 8d 3c
       -0.19997035 0.010802508 0.0009699346 0.01729339
0002c0 5f 93 77 bc 1b bc cf 3d 47 b1 54 bd 27 01 56 bc
       -0.01511082 0.101433 -0.051926877 -0.013061798
0002d0 92 7f 27 be 55 63 e2 bb 89 2a 1b 3d fd 33 d4 bd
       -0.16357258 -0.006908814 0.03788236 -0.103614785
0002e0 d6 42 f9 bb fd 0b 69 bc b3 4c 08 bd 5b f8 07 be
       -0.0076068444 -0.01422405 -0.03327627 -0.13278334
0002f0 1f 26 a4 bc 4e ef 98 3c c3 70 8e bc b1 10 8a bc
       -0.020037709 0.018668797 -0.017387753 -0.016853662
000300 73 7a 78 bc 5b 3c e6 3c 45 c7 bd 3c 1e bb ca 3c
       -0.015165913 0.028104952 0.023166308 0.024747428
000310 c7 47 ab 3b da 6a d1 bc df ca d7 3c c0 3e bf bc
       0.0052270624 -0.025563646 0.026341854 -0.023345351
000320 ca 42 6a bd 2c 6e 37 3c 77 aa 28 bd 6a 55 20 bd
       -0.0571926 0.011195701 -0.041178193 -0.039143957
000330 00 63 aa bd f9 81 d0 bd 1f 6c ed bc c0 5a d1 37
       -0.08319664 -0.1018104 -0.02898222 2.4957e-05
000340 26 a7 b4 3b d5 46 8e bc 0b c1 3d 3c 54 b0 10 bd
       0.0055130897 -0.01736776 0.01158167 -0.03532441
000350 4c 0c ae bb df 68 fa bc ef fc a9 bd 01 e1 eb bc
       -0.0053115245 -0.030567585 -0.083001964 -0.028793814
000360 20 b7 e4 bd 60 f3 2e 3d 3e ed cb bc 6c 5a 2d 3c
       -0.11167741 0.04271257 -0.0248934 0.01058064
000370 c2 f4 ec 3c 33 64 68 3b f5 cc fb bb d9 b8 6c bc
       0.028925303 0.0035460114 -0.007684345 -0.014448368
000380 79 04 8e 3c b4 ac 4c bc 32 e9 9d bd 9e d1 c6 bc
       0.017336117 -0.0124923475 -0.07710494 -0.024269875
000390 89 f1 49 3d dc 85 48 bc 7d 29 93 bc 1c 61 2c bd
       0.04930261 -0.012238946 -0.01796412 -0.0420848
0003a0 72 dc ee bc 28 59 16 be fb 48 8e 3c 19 b4 ec bd
       -0.02915785 -0.14682448 0.017368784 -0.115577884
0003b0 6f 65 a0 bd 81 3a 4d 3c 1b 57 9f b9 d3 4d 9c bd
       -0.07831847 0.012526155 -0.00030391742 -0.07632031
0003c0 8c 74 93 bc 18 dd 27 3d 47 70 43 3b d6 3e cb bb
       -0.01799991 0.040982336 0.0029821561 -0.006202559
0003d0 69 dd 19 bc b3 9a 09 bc fa b5 ae bb 65 85 fc bd
       -0.009391167 -0.0083987 -0.005331752 -0.123301305
0003e0 99 55 80 bb 7d 08 8f bb af 24 81 3b 83 4f 18 3c
       -0.003916454 -0.0043650256 0.0039411406 0.009296301
0003f0 56 a8 30 be fd 46 8f bc 1a 96 c4 bc d6 53 94 ba
       -0.17251715 -0.017489905 -0.023997355 -0.0011316489

_orig_mod.shared_mlp.3.bias f4 [64]
000000 70 74 47 be c0 37 7c 3e ed 55 6e be d1 ff 8f 3e
       -0.19478011 0.24630642 -0.23274966 0.2812486
000010 97 e0 5f be 37 e6 8b 3e 36 65 9f be 52 64 4a 3e
       -0.21863018 0.27324077 -0.31131905 0.19764832
000020 00 6c 03 be c6 3c 31 3e 67 93 bd be b1 3d 93 3e
       -0.12834167 0.1730834 -0.37026522 0.28758004
000030 43 81 6b 3e 96 6e 13 be 66 4c 51 be c3 3b b6 be
       0.22998528 -0.14397654 -0.204393 -0.3559247
000040 13 bf 39 be ef 24 96 be 4a 75 82 be 44 65 89 3e
       -0.18139295 -0.29325053 -0.2548011 0.26835072
000050 c6 68 8c 3e d9 9c 70 3e 3e 2c 76 3e 91 61 2b be
       0.27423686 0.23497333 0.24040315 -0.16736437
000060 6a 96 e6 bd 64 fb 95 be 37 da 6f 3e c9 15 76 3e
       -0.11259158 -0.29293358 0.23423086 0.24031748
000070 c8 50 8c 3e 04 47 83 3e bc d1 4a 3e d2 fd 4d be
       0.2740538 0.25640118 0.1980657 -0.20116356
000080 3e 1a 93 3e ef 52 c0 be 5c cf a3 be e1 f0 83 3e
       0.2873096 -0.37563273 -0.3199414 0.25769714
000090 f4 a4 81 3e d7 05 43 be 4a a1 86 3e 5b eb 86 be
       0.25321162 -0.19045196 0.2629493 -0.26351437
0000a0 ad 29 61 be d7 00 b5 be 3e f0 66 be b5 2b 4c 3e
       -0.21988554 -0.35352203 -0.22552583 0.19938548
0000b0 5a d3 a5 be d0 ff 9d 3e e1 f4 9d 3e 09 da 4e 3e
       -0.3238781 0.30859232 0.3085089 0.20200361
0000c0 78 21 8a 3e 89 a9 6f be 68 cf b8 be ad 13 6c 3e
       0.2697866 -0.23404516 -0.36095738 0.2305438
0000d0 39 7a 5c be 1a 28 28 be 81 f3 92 be 0d 3f 99 be
       -0.21530999 -0.16421548 -0.28701404 -0.29930916
0000e0 de 1c 44 be a0 f1 42 3e 46 e3 9d 3e 17 58 3c 3e
       -0.19151637 0.19037485 0.30837458 0.18392979
0000f0 88 56 4a be f3 c0 8f 3e 03 63 6e 3e dc 60 3b be
       -0.19759572 0.28076896 0.23279957 -0.18298668
