experiments/exp_20251005_041229/models/checkpoint_epoch5_auc0.7352_logloss0.0872.pth (torch, 137410 bytes, 12 tensors)

_orig_mod.embeddings.gender.embedding.weight f4 [5, 8]
000000 14 4d de bb ca 2a 0a bc bd 5f 95 bc 8b b9 f5 b9
       -0.006784091 -0.008433053 -0.018234128 -0.00046868282
000010 4f be 81 9d 5b 05 44 3c 8c 32 ee 8a d7 76 06 3c
       -3.434279e-21 0.0119641675 -2.293758e-32 0.008207045
000020 39 16 7c b9 5e 05 de be fd 5b f1 bf 62 cf 0b 3b
       -0.00024040871 -0.4336347 -1.8856198 0.0021333327
000030 fa 0e cf 2e 2a 07 2c 3f 5c f9 dc b1 c4 19 73 be
       9.4159305e-11 0.6719843 -6.4311916e-09 -0.23740298
000040 c9 5d 19 bf fa 75 fe be b4 49 57 bf ab 27 18 3a
       -0.5990873 -0.49699384 -0.8409684 0.0005804251
000050 ee 80 04 32 23 1f 4e 3f da 30 8a 31 4a 9c 59 3f
       7.7127265e-09 0.8051626 4.0218824e-09 0.85004103
000060 1d aa 05 80 a8 7f 05 80 cb 64 05 00 94 6b 05 80
       -5.20203e-40 -5.04972e-40 4.95335e-40 -4.97769e-40
000070 1f 74 06 80 83 5c 05 00 ee 63 05 80 f1 5c 05 00
       -5.9267e-40 4.92364e-40 -4.95025e-40 4.92519e-40
000080 3c 5f 05 80 71 5f 05 00 a5 94 05 80 c8 66 05 00
       -4.93341e-40 4.93415e-40 -5.12501e-40 4.96048e-40
000090 6b 63 05 80 16 61 05 00 70 03 06 00 f0 6c 05 80
       -4.94842e-40 4.94005e-40 5.52246e-40 -4.98257e-40

_orig_mod.embeddings.age_group.embedding.weight f4 [15, 8]
000000 64 d0 2d 3a 62 58 2a 3b c3 e8 8b ba 83 54 45 3b
       0.0006630479 0.0025992622 -0.0010674227 0.0030110187
000010 fd 2a e4 3b 06 bc 23 3c 25 78 86 39 07 91 47 3b
       0.0069631324 0.009993559 0.00025647986 0.0030451433
000020 bb fb d1 3d 9d 59 4f 3b a5 96 0a 3c 7a 5f 63 be
       0.10253092 0.0031639107 0.008458768 -0.2220439
000030 54 18 63 be f4 79 33 3e a0 34 52 bc b5 52 3b bc
       -0.22177249 0.1752699 -0.01282993 -0.011433293
000040 6e 56 f5 bd 1b 37 da 3d 46 c3 99 3c fd 99 7f 3e
       -0.11979376 0.10655042 0.018769871 0.24961086
000050 01 45 75 3d e2 76 cf be c2 e1 3f bd 1b d9 c8 3d
       0.05988026 -0.40520388 -0.04684616 0.098070346
000060 f9 2c 98 bd 6a b7 03 3d c2 ba c9 3a 86 14 e9 3e
       -0.07430453 0.03215734 0.0015390741 0.4552347
000070 1a 8a 72 3d b2 36 e5 be 57 c5 25 bc c5 c0 96 3c
       0.059213735 -0.44768292 -0.01011785 0.018402467
000080 d8 dd 14 bd e9 40 ad 3c fc ba 52 3c e4 35 c5 3e
       -0.03634438 0.021149116 0.012861963 0.38517678
000090 16 1f 0a 3d 69 62 bc be 43 6b 46 bc 35 70 b1 3c
       0.033721052 -0.3679383 -0.012110534 0.02165995
0000a0 3c 40 8f bb 5d 00 a1 bc 3d dc 2f bc ce c5 9d 3e
       -0.004371671 -0.019653494 -0.010733661 0.30814976
0000b0 e3 e3 d4 3d fb fe b5 be 16 62 85 3c 23 e0 da bc
       0.103950284 -0.35546097 0.016282123 -0.026718205
0000c0 de 51 e2 bd bd 30 f7 bd ba 37 7a bc 23 74 b2 bd
       -0.11050771 -0.12069843 -0.015272075 -0.087135576
0000d0 5e b1 9f 3e e6 f5 7c be 08 63 39 3d 0e 7e f9 bd
       0.31190008 -0.24703178 0.04526046 -0.12182246
0000e0 04 5b dd be e6 81 16 3d 72 db 20 3c 5d 94 dc be
       -0.43233502 0.036744975 0.009817945 -0.43081942
0000f0 03 b4 3f 3f d5 47 d8 3e b0 4d a1 bc 9c 98 81 3d
       0.7488405 0.42242303 -0.019690365 0.06327936
000100 71 bd b0 3d e6 44 7b 3c 4f f2 98 bb 6f 87 0f bc
       0.08629883 0.015336251 -0.0046675573 -0.008760317
000110 a0 bb 03 3f 51 ce 82 3f c6 8f e7 3a d4 91 a3 3d
       0.5145817 1.0219213 0.0017666749 0.07986799
000120 31 7c 05 00 c3 62 05 00 72 5d 05 00 a4 63 05 80
       5.03729e-40 4.94607e-40 4.927e-40 -4.94922e-40
000130 69 66 05 00 19 60 05 80 52 5e 05 80 c0 62 05 00
       4.95915e-40 -4.93651e-40 -4.93013e-40 4.94602e-40
000140 07 58 05 00 1a bf 05 80 70 5b 05 80 d1 61 05 00
       4.90756e-40 -5.27732e-40 -4.91979e-40 4.94267e-40
000150 fa 06 06 00 df 5d 05 80 73 58 05 80 5e 69 05 80
       5.53516e-40 -4.92852e-40 -4.90907e-40 -4.96976e-40
000160 03 6c 05 80 a7 58 05 00 59 62 05 80 dd e5 05 00
       -4.97925e-40 4.9098e-40 -4.94458e-40 5.41637e-40
000170 88 5b 05 80 03 ba 06 00 aa 62 05 80 db 59 05 80
       -4.92013e-40 6.17741e-40 -4.94571e-40 -4.91412e-40
000180 97 5a 05 00 36 59 05 80 88 5d 05 00 30 82 05 80
       4.91675e-40 -4.9118e-40 4.9273e-40 -5.0588e-40
000190 aa 60 05 80 15 58 05 00 e5 59 05 80 87 a1 05 80
       -4.93854e-40 4.90775e-40 -4.91426e-40 -5.17123e-40
0001a0 92 18 06 80 b2 60 05 00 26 59 05 80 d0 5e 05 00
       -5.59827e-40 4.93865e-40 -4.91158e-40 4.9319e-40
0001b0 cb c7 06 80 b5 63 06 00 37 5a 05 80 c5 5c 05 80
       -6.22685e-40 5.86781e-40 -4.9154e-40 -4.92457e-40
0001c0 73 59 05 00 66 5c 05 80 bc 64 05 00 e6 5c 05 80
       4.91266e-40 -4.92324e-40 4.95314e-40 -4.92503e-40
0001d0 38 66 05 00 94 5a 05 80 7a 5c 05 00 58 5e 05 00
       4.95847e-40 -4.91671e-40 4.92352e-40 4.93022e-40

_orig_mod.embeddings.inventory_id.embedding.weight f4 [50, 16]
000000 d6 05 14 3d c5 0f c3 3e 32 d4 de bc 5c 18 9c bd
       0.036138378 0.3809797 -0.027200792 -0.07621834
000010 50 fc 52 be 30 c5 81 3d 10 ae 28 bd ae b6 00 be
       -0.20604062 0.06336439 -0.041181624 -0.12569687
000020 61 7f 8e 3c 8a d4 e7 3d c8 3c 58 3d af 1b 06 3f
       0.017394723 0.113198355 0.05279234 0.5238599
000030 93 44 94 3d 0e 0f 0c 3f 67 29 2a 3c 47 b1 a7 3b
       0.07239642 0.5471047 0.010385848 0.0051175687
000040 d8 d2 08 3e 88 88 22 bc 15 92 31 3e 7b ea e2 bc
       0.1336168 -0.009920247 0.17340882 -0.0276997
000050 31 d0 04 3e 18 be c7 3c 2d 2d 84 bd 1e 75 06 be
       0.12970044 0.024382636 -0.06453929 -0.13130614
000060 8a 6c 42 be d4 5c bb 3d 4f 21 98 3d 21 51 38 3e
       -0.18986717 0.09148565 0.07428228 0.17999698
000070 20 b0 4f 3d 66 e0 b6 3e 7a 93 63 3d f9 ea ed 3c
       0.050705075 0.35718077 0.055560566 0.029042708
000080 b5 6d 17 be f9 81 02 3e 35 27 a1 bb cd 87 57 be
       -0.14787944 0.12744893 -0.004918004 -0.21047898
000090 8e 92 8e 3d 01 b9 c5 3e 16 39 04 bd 00 95 b3 3d
       0.06961547 0.3861771 -0.032281004 0.08768654
0000a0 51 b9 05 bd 0a 12 e7 3e 26 c4 9f bc 61 0d 20 3f
       -0.032647435 0.4513095 -0.01950271 0.62520415
0000b0 2c 16 33 3d 34 9f 50 3f 39 c1 36 bc f9 31 4b 3c
       0.043722317 0.81492925 -0.011154466 0.012402051
0000c0 40 26 9b bc aa 3c b5 3c 6a b2 2d bd a7 29 18 3d
       -0.018939137 0.022123653 -0.042406477 0.037149098
0000d0 5d 35 ec bc 6f 97 04 3b bb 85 ea 3b ca e2 5f 3d
       -0.02883404 0.0020231863 0.007157055 0.054659642
0000e0 bb aa 40 3d f9 45 d2 3c 0e 14 e4 bb 76 a3 e1 3a
       0.04703782 0.025668131 -0.0069603985 0.0017214853
0000f0 0c 93 b0 ba 0f 60 87 bd 03 19 35 bb 64 e6 d6 ba
       -0.0013471558 -0.066101186 -0.0027633316 -0.0016395566
000100 86 65 b4 3e af 68 f1 3c 4b eb 8a 3e 5e 22 01 3d
       0.35233706 0.029468862 0.2713264 0.031526916
000110 9b 9b 33 be 09 28 e8 be bb 44 64 3e 0c bf 55 be
       -0.17539828 -0.45343044 0.22291844 -0.2087366
000120 45 1d 83 3e 22 31 9e be a7 67 bd 3e 81 a4 05 3f
       0.25608268 -0.3089686 0.36993143 0.5220414
000130 6d 70 9e 3e 11 47 9d be c2 aa f9 bd eb e3 e5 bc
       0.3094515 -0.30718282 -0.121907726 -0.028062781
000140 c0 71 0f 3e c1 df e3 be 85 c4 ea 3e 31 cf 14 be
       0.14008236 -0.44506648 0.45853058 -0.14532162
000150 d5 5c ad 3e 9c c7 f8 bc cf a5 a4 bd 28 8d 8b be
       0.33859888 -0.030368619 -0.08039438 -0.2725613
000160 78 63 f6 be 8d fa b7 be a5 00 ba bc d5 18 1f bf
       -0.48122764 -0.35933343 -0.022705385 -0.62147266
000170 62 ef e1 3c f1 e6 b4 3d ee 6f e0 3d 2f fc e0 3c
       0.027579967 0.08833111 0.10958849 0.027464
000180 5d 18 b6 be cb 0f 89 3e 01 aa a6 bd c9 74 e4 3e
       -0.35565463 0.26769862 -0.081378944 0.4462035
000190 53 e6 08 be d5 96 c7 3e 86 fb 14 be 1d 61 16 3f
       -0.13369112 0.38982263 -0.14549074 0.58741933
0001a0 67 0e c5 3c 55 c4 9b 3d a8 d5 85 3c d2 20 42 bd
       0.02405472 0.07605807 0.01633723 -0.04739458
0001b0 02 1a 87 3e 7c a6 ba be 75 87 45 3e c8 05 3c 3c
       0.2638703 -0.36455142 0.19289954 0.011475988
0001c0 97 3d 65 3f aa ef fa be 63 d9 35 bd df bd 37 3f
       0.89547104 -0.49010974 -0.04439677 0.71774095
0001d0 bd 09 8e 3e 71 de 3c be 18 a5 10 be 63 21 e9 3e
       0.27741805 -0.1844423 -0.14125478 0.45533285
0001e0 d2 91 cb 3d e5 90 f3 be ba 86 41 3f ed 9b 8a bd
       0.099399224 -0.47571483 0.755962 -0.06768022
0001f0 8e 58 3d 3e 47 a0 47 bd 15 a2 f8 3e cc 41 58 3c
       0.18490812 -0.048736837 0.4856116 0.013199281
000200 67 66 df bb 02 29 67 3c e8 68 02 3e e4 ba 9e bb
       -0.006817627 0.014108898 0.12735331 -0.0048440564
000210 9f 2c c0 3d 7b 3d 5d 3d de d6 85 bd 8e d2 8a bd
       0.09383511 0.05401371 -0.06535123 -0.06778441
000220 83 a6 14 be aa 00 88 3d 03 d9 f8 3c 26 98 15 3e
       -0.14516644 0.06640752 0.030376917 0.14608821
000230 55 6e 44 3c 04 40 98 3e 0c 37 20 3d 95 12 ab 3c
       0.011989196 0.2973634 0.039114997 0.020882884
000240 14 30 81 3e d1 e8 0e 3e bb 45 20 be f0 fc da be
       0.25231993 0.13956 -0.156516 -0.427711
000250 73 b2 27 be c7 f1 75 3e 58 d4 40 be 93 50 96 be
       -0.16376667 0.24018012 -0.18831003 -0.29358348
000260 bb 4c 32 be 8c ad 7e be 7a d5 61 be 0c 0e 15 bf
       -0.17412083 -0.2487089 -0.22054091 -0.5822456
000270 f3 4b 41 3d e2 d9 cb be 7a 55 28 3e 04 67 63 3d
       0.04719157 -0.3981467 0.16438857 0.055518165
000280 53 1d 15 3f 60 ac 4f be 69 ef d9 be 91 13 75 be
       0.5824787 -0.202806 -0.42565468 -0.23933245
000290 29 6c 40 bd 41 65 83 3d f7 ed 38 bc 3c 46 28 3d
       -0.04697815 0.06415797 -0.011287204 0.041082606
0002a0 84 2c 07 3e c1 c1 79 3e 45 ee 16 bd 88 40 80 be
       0.13200575 0.24390317 -0.036848325 -0.25049233
0002b0 78 a9 55 3b 5b b8 c2 be ef 64 2b 3e 74 14 7a bc
       0.0032602232 -0.38031277 0.16737722 -0.0152636655
0002c0 73 57 03 bf 62 1c 2f 3d 17 56 fc bd 6b 01 e4 3e
       -0.5130531 0.042751677 -0.12321108 0.44532332
0002d0 32 9c d9 3c b9 7c ba 3e 44 15 47 be a0 53 01 3f
       0.026563738 0.3642328 -0.19441706 0.50518227
0002e0 d1 19 6e 3d 58 db b4 3e 4a 9e 14 bd e9 57 00 3e
       0.05813009 0.35323596 -0.03628377 0.12533535
0002f0 47 93 9b bd 1d d2 92 3d e7 e5 3c 3e eb ff c3 3c
       -0.0759645 0.07168982 0.18447076 0.023925742
000300 06 86 74 be bf b3 85 3e fa 88 61 3e 3c 54 26 3e
       -0.23879251 0.26113698 0.22024909 0.1624307
000310 69 28 2d be 04 ad a8 be 96 31 ad 3e ee 48 24 3e
       -0.16909947 -0.329445 0.33826894 0.16043445
000320 20 d4 7d 3e 0e f8 7d 3e 8a 3d 16 be 6a ef 96 3e
       0.2478795 0.24801657 -0.14671913 0.29479533
000330 e6 ff 23 3d ac af 26 be ec d2 ee be 4d 9f 8d bd
       0.040038966 -0.16277951 -0.46645296 -0.0691515
000340 87 48 49 be 7d 5a 56 3e 6a 81 46 3c 7e 0a be 3c
       -0.19656573 0.20932956 0.012115816 0.023198362
000350 58 28 83 bd 62 dd ee 3d 66 9b b9 bc f3 1e 1a 3d
       -0.06404179 0.11663319 -0.022657108 0.03762717
000360 d6 12 11 3c 1e 22 4b 3e 74 0d 01 bd 74 69 a8 3e
       0.0088545885 0.19837233 -0.03150697 0.32892954
000370 5d db 54 3c 3c b6 9a 3e 10 21 17 bd 3e 71 4a 3b
       0.012991753 0.3021716 -0.036896765 0.0030890252
000380 3f 63 49 bf 77 78 18 bf 89 90 68 be 94 dd d0 bd
       -0.7866706 -0.59558815 -0.22711386 -0.10198513
000390 25 57 27 3e e7 c1 c0 3d 51 71 91 3d 74 2d ab 3e
       0.16341837 0.09411984 0.071016915 0.33433115
0003a0 2b 7c 16 3e 30 b1 20 bf 93 e7 06 bd 2c ec 16 bf
       0.14695804 -0.62770367 -0.03293569 -0.5895412
0003b0 b5 02 dc be 67 09 28 3d e1 0e 9b bc c1 e4 14 bd
       -0.42970815 0.04102459 -0.018927993 -0.03635097
0003c0 9e ac 65 3d 00 64 3b be 02 31 b1 3e 38 e9 cd be
       0.056072824 -0.18299866 0.34607702 -0.40216994
0003d0 c7 74 56 3e 8f 9a 2e be 9b 8e b8 3d bc a9 ef be
       0.20942985 -0.17051147 0.09011575 -0.46809185
0003e0 93 e4 c6 be 2c 79 d4 bd ae 4c 85 be 00 78 a6 be
       -0.38846263 -0.10374674 -0.26035064 -0.32513428
0003f0 50 f7 d8 bd 1a 6a 05 3b ab 09 5f be 8c 4c f4 3b
       -0.10594046 0.002035743 -0.21781032 0.007455414

_orig_mod.embeddings.day_of_week.embedding.weight f4 [10, 8]
000000 6a b8 05 3b 6b 09 18 3d a9 f5 25 bc 3e 17 03 3e
       0.0020404109 0.037118357 -0.010129371 0.12801835
000010 ae 66 b8 be 67 86 32 be 8b 42 a5 be c2 87 7c 3d
       -0.36015838 -0.17434083 -0.3227733 0.061652906
000020 68 b7 49 bc d2 78 0a 3e d6 41 c3 bc 13 93 f7 3c
       -0.012311794 0.13522652 -0.023835104 0.030221498
000030 b2 b1 ca 3d 48 80 94 bd b7 30 d0 3e c1 81 f9 3d
       0.09897174 -0.0725103 0.40662166 0.12182952
000040 a1 f8 16 3c 89 23 ee bc 0d 0e 76 3b 5e 5f 94 bd
       0.009214551 -0.029069679 0.0037544996 -0.07244752
000050 bb 68 9e 3d e1 3a f3 3d 84 49 1a 3d 75 c6 60 bd
       0.077348195 0.11876465 0.037667766 -0.054876763
000060 9b c8 a2 bc 4d da e0 bd 60 17 1a 3d 92 06 8e bd
       -0.019871047 -0.109791376 0.03761995 -0.06934847
000070 76 31 0a 3e 0b 90 44 3e aa e1 93 bd 9a 7d 48 be
       0.1349543 0.19195573 -0.072207764 -0.19579163
000080 94 2d 97 3b 10 9c cf bd 86 05 b2 3b 01 40 0d 3d
       0.0046135876 -0.101371884 0.0054327874 0.034484867
000090 67 a8 99 3d 05 dc d7 3d 29 5b d2 bc eb c6 c8 bd
       0.07502823 0.10540012 -0.025678234 -0.098035656
0000a0 fb 18 be 3c 4c 92 4b be 04 fb 94 3c cb c9 9d bd
       0.023205271 -0.19880027 0.0181861 -0.077045046
0000b0 3d ce 99 3c e9 ef 42 3e d4 1b f9 bd 36 16 dc bd
       0.0187751 0.19036831 -0.12163511 -0.10746424
0000c0 d0 a0 84 bb 33 f4 6a 3d 1a 59 b0 39 11 50 5f 3d
       -0.0040474907 0.057361793 0.00033635722 0.054519717
0000d0 66 69 88 bd a1 35 c7 bd 6a 88 b7 be 99 55 8e 3d
       -0.06660728 -0.09727026 -0.35846263 0.0694992
0000e0 24 5f 05 80 4a 1e 06 80 19 6e 05 00 c5 63 05 00
       -4.93308e-40 -5.61879e-40 4.98673e-40 4.94968e-40
0000f0 e3 8b 06 80 0a 64 05 80 04 62 05 00 b4 71 05 00
       -6.01195e-40 -4.95065e-40 4.94339e-40 4.99966e-40
000100 5c 5c 05 00 72 57 05 00 bd 59 05 80 e5 87 05 80
       4.9231e-40 4.90547e-40 -4.9137e-40 -5.07927e-40
000110 d4 5c 05 80 64 97 05 80 7f d4 06 80 0e 5a 05 00
       -4.92478e-40 -5.13486e-40 -6.27242e-40 4.91483e-40
000120 de 5f 05 00 a3 6b 05 00 b2 5c 05 80 a4 62 05 80
       4.93568e-40 4.9779e-40 -4.9243e-40 -4.94563e-40
000130 fc 6e 05 80 bf 65 05 00 ba f8 05 80 4a 5e 05 00
       -4.98991e-40 4.95677e-40 -5.48404e-40 4.93002e-40

_orig_mod.embeddings.hour.embedding.weight f4 [30, 16]
000000 70 01 2a 3c 6b 6b 43 3d 58 2d 70 3e a7 7f bf 3c
       0.010376319 0.047709864 0.23454797 0.023376299
000010 3a d9 04 3d f2 0e d5 3e f8 65 29 3d 64 99 57 3c
       0.032433726 0.41612965 0.04135701 0.01315913
000020 12 08 7d bc 98 87 23 bd 56 63 da 3d 79 b0 e4 bb
       -0.015443819 -0.039924234 0.10663478 -0.006979045
000030 83 dc 39 bd 06 52 36 be 9c 3b 57 be 50 89 74 3d
       -0.045376312 -0.17804727 -0.21018833 0.059701264
000040 4e 6b a8 3b ef d1 83 3c de 67 7e 3e 6d 9a 88 ba
       0.005139745 0.016091315 0.2484431 -0.0010421999
000050 d8 e0 d1 bb 76 78 ae 3d 3b a3 1c bc 77 4c 8b bb
       -0.0064049773 0.0851907 -0.009560402 -0.0042510587
000060 6a 1a 91 3b 27 c2 2a be ba 23 20 3d ea dc d2 bb
       0.0044281976 -0.16675626 0.03909657 -0.0064350264
000070 e5 80 be 3b 52 d5 c4 bd cf 67 0c be 42 6f 18 3d
       0.0058137053 -0.09611 -0.13711475 0.03721548
000080 30 87 ba 3b 1e b6 c6 3c 12 39 a0 3e 7e a0 5a 3b
       0.005692385 0.024256762 0.3129354 0.003335982
000090 d4 8a 24 3c 78 cd 24 3e 97 0b 65 3c b5 78 81 3a
       0.010042865 0.16094005 0.013979814 0.0009877892
0000a0 da de 6d bb bd 2f 5e be 5a ae 73 3d 34 93 9b 39
       -0.003629616 -0.21697898 0.059492446 0.0002967358
0000b0 1c 4a bc bc cc 6e 14 be 39 bf 2b be 2f cc 29 3d
       -0.022984557 -0.1449539 -0.16772164 0.04145449
0000c0 ce dd ec 3a 23 21 c3 3c 77 2b 85 3e 90 3f f0 3a
       0.0018071474 0.023819512 0.26009724 0.001832949
0000d0 16 64 84 3b 54 7c cd 3d a2 c7 eb 3b e1 a0 34 bb
       0.0040402515 0.10033479 0.007195429 -0.0027561712
0000e0 10 c9 54 3a ba ab 38 be 84 79 2b 3d 5b 1c c9 b9
       0.0008117119 -0.18034258 0.041863933 -0.00038358834
0000f0 5a 2b 4a bc fb 34 d6 bd 0f 42 f6 bd d3 db f2 3c
       -0.012339437 -0.10459324 -0.120243184 0.029645836
000100 ce ff 8f 3b 93 39 c3 3c 0b e4 34 3e 39 ab d9 ba
       0.004394508 0.023831164 0.17665116 -0.0016606814
000110 8d da 8a bb 50 e1 d3 3d 89 8c 9d bb fe d3 d8 ba
       -0.004237479 0.10345709 -0.004808013 -0.0016542671
000120 16 ba 22 3a 01 02 f1 bd 02 d6 32 3d 4d 7b cd 3a
       0.00062075385 -0.1176796 0.043661125 0.0015677005
000130 2c 0d 06 bc 0b e7 b1 bd d1 82 dd bd 54 83 15 3d
       -0.008181851 -0.08686646 -0.10815967 0.036502197
000140 fa 7f 0f bc c5 5b 33 3d c6 4c 49 3e fd 95 57 bc
       -0.008758539 0.04378869 0.19658193 -0.013158319
000150 83 4c bd bb c5 17 8a 3e 03 95 06 ba d9 d8 f6 3b
       -0.005776943 0.2697126 -0.0005133899 0.0075331745
000160 f6 e4 f1 bb 93 35 df bd d1 fd d3 3d b3 3e e8 3c
       -0.0073820306 -0.1089889 0.10351146 0.02835021
000170 4f 5b 09 bd b0 eb 11 be 68 02 39 be fa ef 92 3d
       -0.033534344 -0.14250064 -0.18067324 0.07174678
000180 84 31 af b8 99 42 02 3d fe 6f f8 3d c6 b8 ae b9
       -8.353873e-05 0.031801794 0.12130736 -0.00033325533
000190 82 5d cc 39 6c a4 93 3e 69 62 9a 3b f8 55 4b 3b
       0.0003897958 0.2883638 0.0047114384 0.0031026583
0001a0 8e 8f e7 ba 67 af 8e bc 0e 9e be 3d 4a 99 89 3c
       -0.0017666684 -0.017417623 0.0930749 0.016796727
0001b0 23 06 e2 bc 95 b1 ef bd 63 2f 14 be a6 ed 67 3d
       -0.027590817 -0.11703793 -0.14471202 0.056623124
0001c0 ad 41 66 bb cb 95 fe 3c 90 29 bb bd d9 1a 87 3a
       -0.003513436 0.031077286 -0.09138787 0.0010307684
0001d0 b1 f7 48 3c 94 76 90 3e b1 6e a3 3c 40 b2 f6 3b
       0.0122660855 0.28215468 0.019950243 0.0075285733
0001e0 b3 d2 06 bc 7d d4 3b 3d 0d 1f b8 3d e7 5a f3 3c
       -0.008228946 0.04585694 0.089902975 0.029706432
0001f0 f3 4a 39 bd a8 44 a5 bd 1b 63 c3 bd f8 25 3e 3d
       -0.045237493 -0.08069736 -0.09540387 0.04642293
000200 b6 3c 04 bc 23 e5 0b 3a 64 60 30 be 30 7b 54 bb
       -0.008071115 0.0005336573 -0.1722427 -0.0032422058
000210 60 57 84 3c 9b d2 8c 3d 2d c0 c8 3c 57 7c 21 3c
       0.016154945 0.06876107 0.024505699 0.009856305
000220 c1 87 53 bc 90 c2 d8 3d dc 06 ed ba 85 8e 17 b9
       -0.012910784 0.10583985 -0.0018083709 -0.00014453575
000230 16 2a 8a bc 33 01 b3 3c c8 95 42 3d ff 5f 2e bc
       -0.016865771 0.021851158 0.047506124 -0.010643004
000240 76 88 68 bc 1c 22 7f bb 37 da 31 be a6 2b 3a bc
       -0.014192691 -0.0038930243 -0.17368399 -0.011362946
000250 4f a4 0f bc 2a 88 6d 3d a4 5c d3 bb 58 41 d3 bb
       -0.008767202 0.057991184 -0.0064502526 -0.0064469986
000260 92 40 cc 3b 77 65 38 3e 55 7c a6 3b 81 4e 6b 3c
       0.0062332833 0.18007456 0.0050807395 0.0143619785
000270 40 78 c0 39 ba 67 1e 3d cc fb 2f 3d 5c a7 32 bb
       0.00036710687 0.03867314 0.04296474 -0.0027260398
000280 d7 e4 ed bc 3f ec 72 3c aa 69 8c be a0 70 e9 bc
       -0.029039783 0.014826833 -0.27424365 -0.028496087
000290 3d 72 ba bc 3a c0 f6 3d ec 12 a1 bc 77 f7 76 3b
       -0.022759551 0.12048383 -0.019662343 0.0037684122
0002a0 16 76 15 ba f8 d8 7a 3e 22 47 56 3d cb 9f f6 3c
       -0.0005701495 0.2449683 0.05231393 0.030105492
0002b0 f4 35 f0 bb 20 c0 05 3d 1e ba 41 3c 76 be 20 3d
       -0.0073306505 0.032653928 0.011824159 0.039244138
0002c0 65 54 2e 3c 0f df d0 bc c4 69 4f be 1c c2 db 3c
       0.010640238 -0.025496988 -0.2025519 0.026825957
0002d0 54 f7 ba 3c 89 0f a9 bc ac 9b c3 3c 68 f5 15 bc
       0.022823013 -0.02063729 0.023877941 -0.009152748
0002e0 7d 01 07 3c 9d df 21 3e 0d 96 3b bd 20 fe 1f bc
       0.008240101 0.15807958 -0.045797396 -0.009765178
0002f0 4b b5 a9 3a c3 c1 90 3d 18 e4 dc 3d 96 aa 59 bd
       0.0012947706 0.07068207 0.10785693 -0.0531412
000300 de 5f 7b 3c d5 a5 e7 bc a4 be 59 be 5a 9d 10 3c
       0.015342681 -0.028277317 -0.2126413 0.008826578
000310 a5 02 9e 3c 1f 46 a0 bd 7d 9f bc 3c bb 26 5b ba
       0.01928837 -0.078258745 0.023025269 -0.00083599583
000320 45 16 74 bb 77 44 2d 3e 78 f7 33 bd 67 8a 38 3c
       -0.003724472 0.16920649 -0.043937176 0.011263466
000330 cd fd 80 bc 3f 55 d5 3d b4 d4 07 3e d3 8f 42 bd
       -0.015746022 0.1041665 0.13264734 -0.047500443
000340 02 95 0c 3d ee b3 26 bd 21 1a b6 bd 0b 0c 83 3d
       0.034321792 -0.040698938 -0.088917024 0.063987814
000350 3c 72 8c 3d fd 79 da bd 4e e2 94 3d 93 58 48 3c
       0.06857726 -0.10667799 0.07269727 0.012228149
000360 67 23 87 bc 73 13 5c 3d 7e 4c ec bd 66 97 2d bd
       -0.016496373 0.053729486 -0.11538027 -0.042380713
000370 6f 5f 8d bc a2 53 aa 3d db e7 34 3e 18 d2 ea bd
       -0.01725742 0.08316733 0.17666571 -0.114658535
000380 b0 e8 b1 3c b3 98 13 bd e2 ac 4d bd dd dd f5 3c
       0.0217174 -0.036034297 -0.050213702 0.03001302
000390 ba 1b b3 3c b8 a2 46 be 0c 65 85 3c 25 5c d3 3b
       0.021863807 -0.1939801 0.016283534 0.0064501935
0003a0 3e 34 b9 bb d4 8e af 3c 79 37 b4 bd b9 8d 12 bd
       -0.0056519797 0.02143041 -0.08799643 -0.03577969
0003b0 4c 04 94 3c 30 c6 ae 3d c8 8c fc 3d c4 c3 8b bd
       0.018068455 0.08533895 0.123315394 -0.06824449
0003c0 0e eb a0 3c 65 43 c6 bc b5 0d 62 bd 44 3d c8 3c
       0.019643333 -0.024202058 -0.055188853 0.024443276
0003d0 74 3d c9 3c ee 45 6b be da 0d b8 3c 02 07 11 3a
       0.024565436 -0.22975895 0.022467542 0.0005532355
0003e0 22 81 3b bb ea 51 6f 3c cd 81 a6 bd 4c f0 c2 bc
       -0.0028610905 0.014606932 -0.08130226 -0.023796223
0003f0 d1 8d 1c 3c 4d 25 ac 3d 1f 13 02 3e e1 bd 75 bd
       0.009555296 0.08405552 0.12702607 -0.059995536

_orig_mod.dense_proj.weight f4 [64, 113]
000000 13 b7 bb bc c6 83 11 3e 15 37 54 be 09 80 f2 bd
       -0.022914445 0.14210424 -0.20724137 -0.11840827
000010 7d 98 c1 3e e9 aa 90 3b ae 25 4b bd 48 19 32 be
       0.37811652 0.0044149053 -0.04959648 -0.17392457
000020 7d 84 cb bd 16 c8 83 bc aa 6e 2c 3e 2d 03 8a bb
       -0.099373795 -0.01608662 0.1683909 -0.0042118044
000030 a7 39 1c 3d 0a 77 17 be 6f da 2e be 74 60 3a be
       0.03814092 -0.14791504 -0.17075513 -0.18200856
000040 9d 2f 11 be 42 ac 46 bc ca f9 05 bd e8 c8 5a 3d
       -0.1417832 -0.01212603 -0.03270892 0.053414255
000050 5f fb 4f bd 7a ea 04 bd 0f d1 51 bc bf a5 4f bd
       -0.050776836 -0.032450177 -0.012806191 -0.050695177
000060 39 82 77 3b d5 3f 32 bd 56 b7 22 bc ff c0 26 3e
       0.0037766828 -0.043517906 -0.009931406 0.1628456
000070 ed c2 fe bb e6 1f 96 3c b5 a4 e3 3d 84 38 3a bd
       -0.007774702 0.018325757 0.111154 -0.045464054
000080 75 6f 1f bc 78 21 08 3c c5 8b 49 bd 22 4a 7a 3d
       -0.009731163 0.008308761 -0.04920556 0.061105855
000090 50 08 9f 3c e2 9d 08 3e 15 29 c3 3d 4d 0d 80 3b
       0.019413143 0.13341478 0.0952932 0.0039078356
0000a0 89 4f eb bd 80 66 b2 3c 0d 53 fb bd c6 b3 59 bc
       -0.114897795 0.021777391 -0.122717 -0.01328749
0000b0 2e 32 1a be fb 4e 5f 3d f1 5a 9d bc 1c 70 e4 3c
       -0.15058205 0.05451868 -0.019208403 0.02788549
0000c0 70 fc a5 bd 4e d4 38 3d e5 a5 8d bd ce f4 3b 3e
       -0.08104789 0.045124345 -0.069164075 0.18355104
0000d0 c3 8c 18 3d 20 d8 ea bc 73 40 79 3b 9f 6d 27 be
       0.037243616 -0.02866751 0.00380328 -0.16350411
0000e0 85 72 5d 3d c5 e3 05 3b ed 6e 84 bc f6 d6 1c 3d
       0.054064292 0.002042995 -0.016166175 0.03829094
0000f0 56 4f d4 bc c8 51 5c bb 58 9a e6 3c 7e 1c 06 3d
       -0.025916737 -0.0033618081 0.028149769 0.032742016
000100 d5 c2 d4 3c 02 fa 65 bb 59 f0 de bc da 8c f2 bc
       0.02597181 -0.0035091643 -0.027214216 -0.029608179
000110 53 c9 d0 3c 3b e4 27 3c a4 b3 1e bd 6b 6b 93 bc
       0.025486624 0.0102472855 -0.038745537 -0.017995557
000120 f3 03 30 bd f3 15 15 bc f7 73 7b 3d 69 00 9c bd
       -0.042972516 -0.009099471 0.06138989 -0.07617266
000130 81 c7 fd bd e6 e8 89 bd 01 96 6e 3d df 73 82 bd
       -0.12391568 -0.06733875 0.058248524 -0.06369757
000140 0e a5 36 3d 0c 2c 29 bd a0 d7 b6 bc 3b 2c a8 bd
       0.044591002 -0.041301772 -0.022319615 -0.08211561
000150 16 ed 2f bd a5 ad e8 3d 19 55 c1 bc ca ce 03 3c
       -0.042950712 0.11361245 -0.023600148 0.008044908
000160 b9 84 5f 3c 68 60 50 bc b4 b1 00 3c 40 e4 ad 3c
       0.013642483 -0.012718298 0.007854868 0.021227002
000170 17 65 ba ba 9f a3 ab bb cd 6d f2 b9 65 71 16 3c
       -0.0014220801 -0.005238011 -0.00046239645 0.009182309
000180 32 03 d3 3b 14 6c 73 3b 06 88 4e 3c 65 f8 b0 bc
       0.00643959 0.0037143277 0.012605673 -0.021602819
000190 3d 44 f4 3b d4 e0 96 3c ce d5 8a bc fa 43 42 3b
       0.0074544237 0.018417753 -0.016947653 0.0029642568
0001a0 9a c7 ad bb b9 73 5f 3c 86 e0 da ba 7b 8f 42 3c
       -0.0053033354 0.01363843 -0.0016698993 0.011875029
0001b0 36 ab a1 3b 67 fb 8b 3a 75 b1 59 3b 6a b1 9c ba
       0.00493374 0.0010679782 0.0033217345 -0.0011954729
0001c0 c8 b8 1f be 26 72 64 bd 16 1a 89 bd 1c c0 bb bd
       -0.15597832 -0.055772923 -0.066944286 -0.09167501
0001d0 7f f9 ac bd 64 fd 00 bd 78 f0 00 bd 77 b6 59 3e
       -0.08446025 -0.031491652 -0.03147933 0.21261011
0001e0 ce fa 03 bd 45 58 08 bd 9b 3a 5a bd 26 58 bd 3d
       -0.032221608 -0.033287305 -0.053278547 0.092453286
0001f0 2f be c2 3d 57 56 c0 3d c9 76 43 3d 41 2d 3e be
       0.09508931 0.09391468 0.047720704 -0.1857195
000200 52 aa da bd ac e1 82 3d f7 c0 62 bd 34 f5 86 bc
       -0.10677017 0.063907 -0.055359807 -0.016474344
000210 4d 9d d5 bb ca 8c 82 3b 7d 93 12 3d dc 61 16 bd
       -0.006518996 0.0039840685 0.035785187 -0.03671442
000220 c2 ac 88 3b a4 c3 8e bc 43 8a 06 3c 94 56 9a bb
       0.004170985 -0.017427273 0.008211675 -0.004710028
000230 8b 11 1b 3d 25 25 c6 bd 5f 9b 16 bd 8a 59 09 be
       0.037858527 -0.096750535 -0.036769267 -0.13413063
000240 ad 4b e1 bc 7a 6f ad 3c 5e fd ca 3b 7f 8c 12 ba
       -0.027501905 0.02117132 0.0061947545 -0.00055903936
000250 31 2b b7 3c 61 31 31 bc 43 17 95 3d e6 92 7c 3c
       0.022359462 -0.0108149955 0.072798274 0.015415883
000260 70 dd 67 3d be 2d 52 3d cd 54 2e 3d a4 da da bc
       0.056607664 0.051313154 0.04256134 -0.026715584
000270 28 f3 f6 3c 25 32 2b 3c e7 05 db bc 97 1f c8 bd
       0.030145243 0.010448967 -0.026736213 -0.0977165
000280 d7 18 00 3d 29 0f 0d bc be f7 d5 3c a5 eb ca bc
       0.03127369 -0.0086095715 0.02611911 -0.024770567
000290 19 dd e2 bc 7b 9a 16 3d 1c 7f 9e bc 60 4a 1e 3c
       -0.027693318 0.036768418 -0.01934772 0.009661287
0002a0 9b c9 af bc 60 6a d3 3c 70 6c d8 bc 39 5a 5e 3c
       -0.021458438 0.02580756 -0.026418895 0.013571315
0002b0 10 ad ad 3c f0 b3 c8 bc dd e2 66 3a 3f 0d 24 3c
       0.021200687 -0.024499863 0.0008807609 0.010012924
0002c0 9c b1 3b 3b cf f5 f0 bc 24 0b 08 bd 98 68 df 3a
       0.00286398 -0.029414086 -0.03321375 0.0017044721
0002d0 9b d6 c5 3c 53 76 b0 3b be 8e 92 3c bb 9d b3 bc
       0.024150183 0.005385199 0.01789033 -0.021925798
0002e0 35 cd 04 bc 6d d8 51 bd f0 77 dd 3c bd b5 f0 bb
       -0.008105566 -0.05123179 0.02703473 -0.0073458836
0002f0 2f 08 41 bd ec 87 d1 3b 6b a8 e5 bc 06 58 d2 3c
       -0.047126945 0.006394377 -0.02803441 0.025676738
000300 d4 0c 00 3c 59 08 44 3c 1c 2b 44 bb b7 b0 aa bc
       0.007815558 0.011964881 -0.0029932922 -0.020836217
000310 8d 78 bb bd d9 7c 83 bd d1 52 23 3d e0 06 03 3b
       -0.091538526 -0.06420297 0.0398739 0.0019993111
000320 cc b9 99 3b fb 3e d5 3b 4b 7d e9 bb 72 c0 e9 3b
       0.004691338 0.006507752 -0.007125532 0.007133537
000330 5f dc c7 3a a1 ba 8d 3b a0 80 27 3b 94 2b e0 3b
       0.0015248171 0.0043252264 0.0025558844 0.0068411324
000340 c8 83 d0 3a b9 6a 41 bb 60 ed 25 bc 63 f2 7c 3b
       0.0015908414 -0.0029513075 -0.010127395 0.0038596622
000350 d4 f0 02 bd 4e ad e2 3b 98 6b c9 3b 02 53 89 ba
       -0.031967953 0.006917632 0.0061468594 -0.0010477009
000360 1c 55 eb 3b fc 0d 31 3c a5 e4 9a 3b ff 59 15 3c
       0.0071817767 0.010806557 0.0047269636 0.009115695
000370 8d 65 0a 3c db 79 94 3b af 70 93 bb 94 70 8c bb
       0.008447063 0.004531128 -0.004499517 -0.0042858813
000380 4c 58 19 3b ea 5d b6 bd 64 df d0 3d 9b c0 6e bd
       0.0023398576 -0.089046314 0.101988584 -0.05828915
000390 b5 4a e0 3e 75 67 f9 bd 6f a4 fd 3c 99 8f d2 bd
       0.43806997 -0.12177936 0.030962197 -0.10281295
0003a0 2c 46 60 be 3f a0 0b be 72 5f b8 bc fe 0f 26 be
       -0.21901768 -0.13635348 -0.02250645 -0.16217038
0003b0 7b 9f 1e be da bc 0e be 37 d9 9b 3b 3e 8a f9 bd
       -0.15490524 -0.13939229 0.0047561186 -0.12184571
0003c0 43 44 7f 3e f5 a8 8d 3d d5 c2 20 3d 6e 35 39 be
       0.24928384 0.069169916 0.039248306 -0.18086788
0003d0 11 41 56 3c 41 71 b8 3c 44 35 c6 bd da 4f cd bc
       0.0130770365 0.022514941 -0.09678128 -0.02506249
0003e0 65 ba b9 bb 2e 2c c8 bd 57 37 3b 3c 47 f7 86 3b
       -0.005667972 -0.097740516 0.011426768 0.004118833
0003f0 6c ff 31 3b 8c 0b f1 ba f0 7d e1 3c b3 c4 fb 3c
       0.00271603 -0.0018390282 0.027525872 0.030733442

_orig_mod.dense_proj.bias f4 [64]
000000 19 ba 18 3e 30 15 a4 3d fa 7a 2e bc 0a e0 2f bd
       0.1491474 0.08011854 -0.010649437 -0.04293827
000010 46 dc ed 3c 3e 70 cc 3c 50 13 54 3c 40 ba bd 3c
       0.029035699 0.024955865 0.012944058 0.0231601
000020 04 d0 21 bc 40 e9 7d bc 7a 91 02 3c 3c 9f c9 3c
       -0.009876255 -0.015497506 0.007969255 0.024612062
000030 d1 82 19 bd 1f cb 90 3d 7f d0 a0 3d c7 ac 83 be
       -0.037478272 0.07069992 0.078522675 -0.25717756
000040 3c c0 96 bc e4 cd d9 3b c0 3a f6 ba 24 fc 3b bc
       -0.018402211 0.0066468585 -0.0018785819 -0.011473689
000050 ae e9 57 bd 2b 0f 06 bd 20 d7 8e bc 4c cf 52 3c
       -0.05271309 -0.03272931 -0.017436564 0.012866806
000060 36 b8 bf 3d 1c 2a 06 bc 12 eb 13 bc ed 90 93 3c
       0.09361307 -0.008188751 -0.009028213 0.018013442
000070 0e 2e b6 3c 98 ed a7 bd 9b 35 37 bd e7 77 93 bc
       0.022238757 -0.08199614 -0.044728857 -0.01800151
000080 2a 59 ca 3a 0a 2d 1b 3d 41 d1 07 3d a7 46 d1 3b
       0.001543795 0.03788475 0.033158544 0.0063865962
000090 07 d8 05 3d 80 2a d5 3c 86 8d cf bc f0 c2 6e 3d
       0.032676723 0.026021242 -0.025336038 0.058291376
0000a0 5f 0b b1 3c 06 a3 30 bd 85 60 bf bd 77 96 44 3c
       0.021611867 -0.04312422 -0.093445815 0.011998764
0000b0 ab 00 63 3d 6e 64 d1 bc fd fd c3 3b da 3e 81 bc
       0.05542056 -0.025560584 0.0059812055 -0.01577704
0000c0 55 aa 4a bd c1 1f 5a bc 71 6a 09 bd c1 cf fc 3d
       -0.049478848 -0.013313235 -0.033548776 0.123443134
0000d0 18 b9 fa 3c 46 46 b1 bb 62 4a 68 3c 00 62 93 3d
       0.030605838 -0.0054099886 0.0141778905 0.071964264
0000e0 e7 ec 6f be d3 c8 de 3c 71 19 77 3e 74 54 be ba
       -0.23430215 0.02719537 0.24130799 -0.0014521019
0000f0 83 97 e1 3b b1 83 90 bb 08 1d 62 bc 93 04 eb bc
       0.0068845167 -0.00441023 -0.013800867 -0.028688705

_orig_mod.shared_mlp.0.weight f4 [128, 120]
000000 7a 72 f3 3c b2 db 9a bc 92 53 45 bd cd 09 59 3a
       0.029717673 -0.018903587 -0.048175402 0.00082793535
000010 34 d3 5c 2e a7 0e 08 3b 13 19 1d 28 31 92 db bc
       5.0209795e-11 0.0020760687 8.720688e-15 -0.026803108
000020 e6 de 9e bc 6b 46 a3 bc 06 7f a1 bb 0d d3 d5 bd
       -0.019393396 -0.019931039 -0.0049284725 -0.10440645
000030 ed 61 d5 3d 4a 6a 02 3e 89 24 45 3c 31 01 d5 bb
       0.104190685 0.12735859 0.012032636 -0.006500386
000040 6c b9 47 bd 9e 80 25 3e b8 66 38 3d 9c 66 1e 3c
       -0.048760816 0.16162345 0.045019835 0.009668019
000050 87 bb 47 bd 49 db 00 3d 9c 9e 87 3c 77 ce b8 bc
       -0.048762824 0.031459127 0.016555123 -0.022559388
000060 51 70 4b 3d aa 15 e8 3d 6b 4d a8 3d c8 0f bb 3e
       0.04966766 0.11332257 0.08217891 0.36535478
000070 64 29 ab 3d 69 2c 7b 3e 5d 36 02 bd 62 bd e2 bb
       0.08357504 0.2452866 -0.031790126 -0.006919549
000080 20 fe 1c bb d0 07 80 3c 3c 28 7b 3b 6d 90 b0 3c
       -0.0023955181 0.015628725 0.0038323542 0.021553243
000090 27 d4 ae bd e5 14 39 bd 39 8e e0 bd 57 bd 73 3b
       -0.085365586 -0.045185942 -0.10964627 0.0037191713
0000a0 c7 3c de bb 4f d8 3e 3c e3 f0 bb bd e3 fe 30 bb
       -0.0067821476 0.011648252 -0.09176805 -0.0027007393
0000b0 35 80 94 3a d4 4f f9 3d 93 09 a2 3b 31 80 d5 3a
       0.0011329713 0.12173429 0.004944989 0.0016288814
0000c0 35 47 cb ba 67 d5 a7 3d d7 e1 23 3d a2 d2 49 3c
       -0.0015508892 0.08195 0.0400103 0.012318285
0000d0 9e 1e 8a bc 7a 77 dd bc f8 7e d3 bc 4f 78 ac 3c
       -0.016860303 -0.02703451 -0.02581738 0.021053461
0000e0 5e a7 24 bd d9 95 8a 3c 56 c5 56 3d 65 17 13 3d
       -0.040198676 0.016917156 0.052434288 0.035910983
0000f0 f3 33 87 bb ee bf 96 3b 4a 6d 48 3c 16 ed 89 bc
       -0.004126066 0.0046005165 0.012233088 -0.016836684
000100 bb 06 3d 3c 7d 59 3d bc 15 ff b4 bb 92 eb 79 3c
       0.011537249 -0.01155698 -0.005523572 0.015253918
000110 96 23 9f 3c 6c 64 9c bc 11 39 84 3a d6 5b 57 bd
       0.019426148 -0.019090854 0.0010087808 -0.052577816
000120 29 a3 94 bc 75 55 d6 37 82 06 43 3b 0f a5 6a 3c
       -0.018144207 2.5550582e-05 0.0029758518 0.01432158
000130 4c d7 9d 3c 47 d4 75 3d e3 ae 0f bc 10 26 a4 bc
       0.0192677 0.060016897 -0.008769724 -0.02003768
000140 6a a1 98 3c 98 aa 67 3b 9f a9 5b bc 06 45 30 bc
       0.018631656 0.0035349485 -0.01340714 -0.010758644
000150 34 7e d0 3b b6 c1 5b 3d e5 60 a9 bc b1 b2 ed bb
       0.006362701 0.053651534 -0.020676086 -0.0072539677
000160 9a 53 46 bb 9e de 21 bc 9d 7b ad 3b e6 e7 86 3c
       -0.0030262233 -0.009879736 0.005294277 0.016468
000170 58 cb d3 3b ae 2f a0 bc dd e2 72 bc 21 b4 d1 3c
       0.0064634494 -0.019553985 -0.014824596 0.025598587
000180 36 4f ba 3c 00 a6 2e be 56 49 af 3c 94 34 2d bb
       0.022742849 -0.17055511 0.021397274 -0.0026429044
000190 b3 7f 93 bc 72 33 bb bc 34 c8 f2 3a a4 e4 ab 3c
       -0.018005228 -0.02285168 0.00185228 0.020983048
0001a0 fa 05 ee 3b 91 29 df 3c f4 61 57 bb 78 f5 17 bd
       0.007263896 0.0272415 -0.003286478 -0.03709933
0001b0 97 da 99 3c c2 70 1c 3c 3c 51 b4 3b 30 d0 f7 bb
       0.01878099 0.009548368 0.005502848 -0.0075626597
0001c0 8e 54 ab 3a a3 9d a2 bc 41 13 a5 3d 15 6b 08 bd
       0.0013071464 -0.019850558 0.08060313 -0.033305246
0001d0 cc 8d 22 3c a5 39 03 3d 8a 4a b8 3a 4b 6b 85 3c
       0.009921502 0.032037396 0.00140603 0.016286513
0001e0 c0 f9 7b 3d 6d dc 04 3e a5 41 77 3e 20 a1 33 bb
       0.061517477 0.12974711 0.24146135 -0.002740927
0001f0 a2 21 d8 2b d6 1a 36 be 33 29 22 a7 b6 14 48 bd
       1.5357058e-12 -0.17783675 -2.250435e-15 -0.048847876
000200 a8 10 42 3e 4c 87 dd 3c 1a e9 a6 3b 16 e6 8b 3b
       0.18951666 0.027042054 0.005093706 0.0042693717
000210 a1 6c ad bd f7 41 cc 3e 82 e3 15 bc b4 0a 25 3d
       -0.08467985 0.39894077 -0.00914848 0.04029341
000220 9a c7 ab 3a 46 6e c0 3d 1b e0 0e 3d bd 29 08 be
       0.001310575 0.09396033 0.034881692 -0.13297172
000230 8a 36 d9 bb eb 53 9f 3d e2 d3 20 bd 18 3c 15 be
       -0.006628816 0.07779678 -0.039264567 -0.14573705
000240 b0 37 08 be 87 60 88 3d 74 38 2a be 66 dd 26 be
       -0.13302493 0.06659036 -0.16623098 -0.16295394
000250 6b ce 63 bc f8 d4 11 bd 97 af d8 bc cc e8 0d 3c
       -0.013904194 -0.035603493 -0.026450915 0.00866146
000260 30 f5 14 bb fb e6 80 3d 04 45 a2 bc 69 a7 fa 3c
       -0.002272915 0.06294056 -0.0198083 0.030597406
000270 a1 72 97 3c 84 60 86 bd 9f 3b 92 3d 0f 2d 79 3d
       0.018487277 -0.06561378 0.07140278 0.060833987
000280 26 c7 a8 3c c1 6e a1 bc 32 b7 39 bd 01 f5 3a 3d
       0.020602774 -0.019706132 -0.045340724 0.04564381
000290 37 13 3a 3d a6 2a 62 ba 58 4c 46 3d b8 82 cc 3b
       0.04542848 -0.0008627571 0.04841265 0.006241169
0002a0 46 bb f8 bb e0 49 75 3d ae ab 49 bd bd d1 ce bc
       -0.007590684 0.059884906 -0.049235992 -0.025246495
0002b0 67 c4 7e bc 54 c3 f8 3c 2b 32 98 3d 50 64 74 bd
       -0.015549756 0.030366577 0.07431444 -0.059665978
0002c0 dd c0 9d bd 0d 9d 13 be 5a 7d 18 3e ca cd f3 3d
       -0.077028014 -0.14415379 0.14891568 0.119044855
0002d0 b3 c3 a8 3d 57 8a b5 3b 88 b3 df bc e4 87 ae 3a
       0.08240452 0.005540173 -0.027307287 0.0013315645
0002e0 da 54 35 3e 57 b2 dd bc 50 6f 97 bc 80 d3 a8 3d
       0.1770815 -0.027062578 -0.018485695 0.082434654
0002f0 16 48 04 3d 4e 94 6b 3e d7 c4 73 3b 05 4b 83 3e
       0.03229531 0.23005792 0.0037196183 0.25643173
000300 8a 79 d9 3d 4f 2c 8e 3c 54 95 25 bd 29 44 23 3c
       0.10618885 0.017355112 -0.040425614 0.009964981
000310 70 ff 86 bc b2 b9 fa bd 5b 03 9c 3d 0a c4 b6 3d
       -0.016479224 -0.1224245 0.076178275 0.0892411
000320 a3 7b 12 be 3b 71 d6 bc 78 e9 7e 3d fa 24 57 3c
       -0.14304976 -0.02617704 0.062234372 0.0131313745
000330 51 1b 15 3c d9 0d 12 3c ed b9 fe 3d b3 8e 3c bc
       0.009100751 0.008914434 0.12437806 -0.0115086315
000340 76 ab 69 bc 46 fb a0 bd bb cc 2e bb f3 19 a4 3c
       -0.014262071 -0.078604266 -0.0026672322 0.020031905
000350 22 5b ae 3c 98 0a f3 3b 4a 08 4f 3d b3 75 8c bd
       0.02128369 0.0074170344 0.050545014 -0.06858387
000360 ce f5 bc 3c 10 a6 b3 bb 22 f1 fe 3d df 12 67 3d
       0.023066428 -0.0054824427 0.12448336 0.05641448
000370 61 66 24 be 13 d9 c4 3c 3a 54 1a 3d 13 7c c6 bd
       -0.1605468 0.02402929 0.03767798 -0.09691634
000380 3a b9 01 bd d5 e2 36 3c 23 cf d2 3c f1 12 96 3d
       -0.031670786 0.011162479 0.025733536 0.073278315
000390 52 e1 6b 3c 56 d7 cd 3c bc 82 bc 3c 36 ae 5e be
       0.014396982 0.025127094 0.023011558 -0.21746144
0003a0 59 6b 21 3e bc 1a 1f bd f7 dc 3d 3d 38 1a dd 3c
       0.15763606 -0.038843855 0.046353307 0.026990041
0003b0 c1 ae c2 3c 1b fa 8a bd 49 f6 a2 bc 86 d6 5e 3d
       0.02376497 -0.06785985 -0.019892829 0.054403804
0003c0 ae 85 41 3c bc 49 8c bc 55 39 a9 bd 37 8e 89 3a
       0.011811657 -0.017125003 -0.08262888 0.0010494654
0003d0 a2 a2 2a 2d 6a bc c8 3c d3 bf 70 21 b0 4e 62 bc
       9.699493e-12 0.024503905 8.156904e-19 -0.013812706
0003e0 ff 2b ad bb 13 52 1b bc 3d 76 59 ba 40 da 25 3d
       -0.0052847858 -0.009480017 -0.0008295512 0.040491343
0003f0 99 05 78 3c 04 6d ce bd 15 c1 59 3b d9 8d 83 bc
       0.015138053 -0.10079387 0.0033226658 -0.01605885

_orig_mod.shared_mlp.0.bias f4 [128]
000000 9a 06 34 3d 01 36 55 be cb 48 3b 3d 56 8a 22 be
       0.04395161 -0.20821382 0.045723718 -0.15873083
000010 be e1 2e be 65 a3 1e be 56 96 95 3d fd 33 9f 3d
       -0.17078301 -0.15492018 0.07304065 0.07773588
000020 eb dd 29 bd 90 1b 9b 3d 6c 44 c3 bd 0c cf 05 be
       -0.041471403 0.075736165 -0.09534535 -0.13067263
000030 10 e3 2e be bc 78 8f 3d f8 c8 e8 3a 12 bd d2 bd
       -0.17078805 0.0700545 0.0017760089 -0.102899686
000040 4a 3f 90 3d 8c a9 7a 3d d2 d2 ad 3b fc 0f 50 3d
       0.070433214 0.06119685 0.0053046728 0.050796494
000050 d4 0a 9d 3d 9f fa 00 3b 70 f7 d5 3c 36 cd 8e ba
       0.07668081 0.0019680632 0.026118964 -0.0010894898
000060 9c 16 29 3d 5d 14 eb bd 9c eb 15 be 18 00 f7 3c
       0.041281328 -0.11478493 -0.14640659 0.030151412
000070 d0 cd 03 3d d3 cd 75 3c 22 e4 24 be 7c 2f 1f be
       0.0321787 0.015002686 -0.16102651 -0.15545458
000080 9f 98 6d 3d 30 6f 96 bc 31 9e d3 3d 29 16 94 3d
       0.05800688 -0.018363565 0.10332907 0.07230789
000090 42 b9 8e 3a b4 05 eb bc 80 59 9c 3c 49 c6 61 3c
       0.0010888951 -0.028689243 0.019085646 0.013780185
0000a0 88 80 25 be e0 35 e0 bc fc 7b 86 3d ca bc 12 bd
       -0.16162312 -0.02736944 0.06566617 -0.035824575
0000b0 c6 88 e7 be 5c 1f 81 bc 2b 97 2c bb f3 84 db 3c
       -0.45221537 -0.015762024 -0.002633522 0.026796794
0000c0 46 85 1d 3d e5 ee 15 bd 81 4b ad 3d b2 21 ce bc
       0.038457178 -0.03660478 0.08461667 -0.025162552
0000d0 fb 9d 6c be f9 a3 0d bc 23 22 95 3d 7b d4 97 be
       -0.2310714 -0.008645051 0.07281902 -0.29654297
0000e0 40 c4 a7 bd f4 ec 37 3d 18 ab ae bd ae 93 00 be
       -0.081917286 0.04490371 -0.08528727 -0.12556335
0000f0 9b 5a c9 3c e1 93 48 3d 19 c9 ec 39 81 55 93 bc
       0.024579337 0.048969153 0.00045163257 -0.017985107
000100 eb c4 c2 bd 8b 33 1b bd 73 97 08 bd 19 02 2e bd
       -0.09510215 -0.037890952 -0.03334756 -0.04248247
000110 66 f8 ef bd 50 3f e5 bd 32 a8 07 be 81 5d 7e 3d
       -0.117173 -0.111937165 -0.13247755 0.06210089
000120 43 42 4a be 47 af d1 bb fe f0 b0 bd 62 09 f1 bd
       -0.1975184 -0.0063990685 -0.086397156 -0.11769368
000130 d3 8c 0a be f3 b0 b3 bd ba 32 2a 3d f5 62 a9 3b
       -0.13530283 -0.08773985 0.041552283 0.0051692673
000140 ec fa 4a bd c9 a4 96 bd 3a f8 8b ba 1b 2e 69 3c
       -0.049555704 -0.07355649 -0.0010678836 0.014232184
000150 88 f1 3b 3b 84 96 f2 bd 69 cc 0c be 9d 60 c5 bd
       0.00286779 -0.11845115 -0.13749851 -0.09637568
000160 a7 5c 2a be be 19 3e bd 89 76 2e 3d af 2c cd bb
       -0.16636907 -0.04641127 0.042593513 -0.00626143
000170 a2 c5 ad bd 13 f1 af 3d ad c8 04 be 0b c7 80 3c
       -0.08484961 0.08590903 -0.12967177 0.015719911
000180 c1 47 15 bc fb 67 e0 bd f1 00 ce bd 3f 64 98 3d
       -0.009111346 -0.10957333 -0.10058773 0.074409954
000190 80 90 aa bc 93 45 cd 3b 16 64 23 be 4a c1 01 be
       -0.020820856 0.0062643974 -0.15956149 -0.1267139
0001a0 2d fc 05 be e2 f0 3f be cb f0 12 3b 14 43 41 be
       -0.13084479 -0.18744233 0.0022421356 -0.18873245
0001b0 fa 8e aa bd be a5 58 bd b3 e1 c9 3d f5 8f 3c be
       -0.08328052 -0.05289244 0.09857502 -0.1841429
0001c0 64 a2 c0 bd fe 84 3f 3d 9d 51 0a 3a 92 5c ce bd
       -0.094059736 0.04675769 0.00052764436 -0.1007625
0001d0 5a 71 fc bc d9 80 50 bd 64 26 8a 3d dc 64 64 be
       -0.030815769 -0.05090413 0.06745604 -0.223041
0001e0 52 8c 9a bd 0e 3c 93 3b 6a aa 86 bb e5 6e 28 3b
       -0.07546295 0.004493243 -0.0041096704 0.0025700864
0001f0 36 47 96 be f6 a5 02 be 2c cc 00 be 1e 1b 46 3d
       -0.29351205 -0.12758622 -0.12577885 0.048365705

_orig_mod.shared_mlp.3.weight f4 [64, 128]
000000 70 ff 11 bd 27 1d 84 3c 45 60 9b bd bc 3e 45 3d
       -0.035643995 0.016127182 -0.07586721 0.04815553
000010 83 5b 0e 3d 4f 51 53 3b 48 cd c9 bc 6e 5d 07 bd
       0.03475524 0.0032244509 -0.024634019 -0.033048086
000020 4c f9 e6 3c c8 22 42 bd ab d4 f8 bc cd 55 07 3d
       0.028195046 -0.04739645 -0.030374845 0.03304081
000030 27 8e 78 3d 56 d8 7d bc 7b ca 67 bb 03 8c 72 bd
       0.060682442 -0.015493473 -0.003536849 -0.059215557
000040 9b e0 d8 bc 91 87 fe bd 77 16 b2 3a 7d f9 a1 bc
       -0.026474288 -0.12428201 0.0013587017 -0.019772286
000050 10 3e 58 bd f6 37 ac bb 6c 1b a5 bc 02 78 49 bb
       -0.052793562 -0.0052556945 -0.020154677 -0.0030741696
000060 f4 51 c3 bc ae a9 f7 3c fb 7b 14 3d cb 51 aa bd
       -0.02384279 0.030232277 0.03625105 -0.08316382
000070 04 3f 86 bc d4 2d 5e bc c9 ff 05 3d be 37 8f 3c
       -0.01638747 -0.013560731 0.03271464 0.017482635
000080 df e2 c6 bc da 06 67 bd 85 5c 18 3c f8 af fc bc
       -0.024278102 -0.05640302 0.009299402 -0.030845627
000090 cd dc 5c bc 3e 0e 54 bd 9e 49 3e bc 26 67 a8 3b
       -0.013480377 -0.051771395 -0.011614231 0.0051392494
0000a0 8f 6d 3d bc 93 bd 5a 3c 87 fa ab bc 4d 0d fa 3b
       -0.011561765 0.013350862 -0.020993484 0.00763098
0000b0 10 3f 0b bd 6e fc 43 ba 40 c8 ee bb bd a6 42 bc
       -0.033995688 -0.00074762746 -0.0072870553 -0.011880574
0000c0 c3 5d 38 bd 2e 7b 91 bc 52 e5 39 bc 54 b4 d0 bc
       -0.045011293 -0.017758932 -0.011346178 -0.025476612
0000d0 ad a0 05 be cb f5 1a 3c 31 4e 5c bd e2 de f4 3c
       -0.13049574 0.009458016 -0.053785507 0.029891435
0000e0 4f 28 e6 3c 09 1d 14 bd 06 f8 fa 3c 4b 03 06 bd
       0.028095393 -0.036160503 0.030635845 -0.032717984
0000f0 7c c2 4d bd b6 44 f8 bc ae 92 17 bc 31 7c 15 3b
       -0.050234303 -0.030306201 -0.00925128 0.002280962
000100 98 3e be 3c 95 a2 c2 bd a5 eb e8 bc 9c 52 0e bd
       0.023223206 -0.09503666 -0.028432677 -0.03474675
000110 3a a6 03 3d 2a b3 a3 3c 6e cb 15 bd e3 7b a8 bd
       0.032140948 0.019982893 -0.03657096 -0.082267545
000120 1b 6b 93 3d 5b 9f 64 3c 00 42 c0 3c 25 94 06 3d
       0.07198163 0.013954009 0.023468971 0.032856125
000130 ed 46 1b 3c aa f5 16 3d 70 2a 28 bc a9 34 81 bc
       0.009477359 0.036855377 -0.010264024 -0.01577218
000140 49 23 a3 3c e7 96 a2 3c 7b 65 3b bc de ac ba bd
       0.019914286 0.019847346 -0.011437769 -0.09115003
000150 62 c3 8c 3b 3c 72 20 3d 0e 4e 67 3d 38 48 22 3d
       0.0042957524 0.039171442 0.056470923 0.039619654
000160 74 99 bd bd f6 0d b2 bd 03 d6 24 bd 4b 20 0b bc
       -0.092577845 -0.08694069 -0.04024316 -0.008491586
000170 93 05 d5 bd 3e 35 e6 bd c8 aa 11 3d b1 a0 65 bc
       -0.10401454 -0.11240624 0.03556326 -0.014015363
000180 94 6b 99 3b af 67 ee 3c 62 14 d1 3c 6e 28 3c bd
       0.0046820138 0.029102175 0.025522415 -0.045936994
000190 93 6d 4a bc e5 82 95 bc 7b ed 60 3d 6a 85 2e 3d
       -0.012355226 -0.018250892 0.05491398 0.042607702
0001a0 63 c0 df 3c 9b 31 89 3d 9a b9 6a bb 3f 47 5f bd
       0.027313417 0.066989146 -0.0035816194 -0.054511305
0001b0 d2 9e 3c bc 20 f7 7d 3c 5f 6e 7e bd 1c ef e2 bc
       -0.011512475 0.015500814 -0.062116977 -0.027701907
0001c0 62 82 a2 bd 06 a9 90 bc e1 0f 41 bc dd ed d1 3c
       -0.07935025 -0.017658722 -0.011783571 0.025626117
0001d0 83 fc 83 bd 74 98 17 3c 0b dd af bc 49 25 a5 3d
       -0.06444647 0.009252656 -0.021467706 0.08063752
0001e0 db 92 8a 3c 2d b4 22 bd 9f e1 0a bc 03 57 29 ba
       0.01691573 -0.03972261 -0.008476644 -0.0006459804
0001f0 63 c6 41 bd 87 ef bb 3c e6 30 3f 3d c3 cd 66 bd
       -0.047308337 0.022941364 0.046677493 -0.056348573
000200 eb 4a 99 ba e2 6a c6 bd 47 83 05 3d 66 43 d9 bd
       -0.0011695301 -0.09688355 0.0325959 -0.10608558
000210 74 8f d5 bd 7c 3b 5f be e2 c7 a8 bc bb dd 11 3c
       -0.10427752 -0.21800035 -0.020603124 0.008902962
000220 3d 93 9b 3c 0d 96 3e 3b 56 5b 47 bd 71 9e 17 bd
       0.018991107 0.0029081136 -0.04867109 -0.037016336
000230 9e b5 a6 bd 16 76 97 3c ab b9 90 bc 98 ff ee 3c
       -0.081401095 0.018488925 -0.017666658 0.029174611
000240 4a df 58 bd 9c 6f 0a bc 5d 43 bb b9 98 6c 7c 3b
       -0.05294732 -0.008449461 -0.0003571761 0.0038516875
000250 16 8b e1 3c 20 24 8f bc 88 47 53 bc 8b 4f af bb
       0.027532142 -0.01747328 -0.012895472 -0.0053500584
000260 cd 05 20 ba 9c bb fc bc 3f 82 18 bd 62 35 9d bc
       -0.000610438 -0.030851178 -0.037233587 -0.019190494
000270 8a f3 f1 3c 6b 02 3a bb 61 31 c6 bd b6 b4 22 be
       0.029535074 -0.002838279 -0.09677387 -0.15889248
000280 c0 3b 6c bc 31 9d ce 3c d0 f6 41 bc b9 23 8b bc
       -0.014418542 0.02522144 -0.01183863 -0.016984807
000290 51 b4 a9 bb e0 20 d4 3d ee d9 1d bb df 4c 85 bc
       -0.005178966 0.10357833 -0.0024086195 -0.016272007
0002a0 ae 62 1d be a9 0f 01 bc cf 68 b2 bb c5 85 32 3d
       -0.15369675 -0.007877269 -0.005444623 0.043584604
0002b0 7e 5d 44 be 37 5e f4 3c 84 38 07 bc ab 49 a9 3c
       -0.1917629 0.029830081 -0.0082532205 0.02066501
0002c0 64 c5 ba 3b e8 ab c8 3d 3b 4c 93 bc 96 f4 9c bc
       0.0056998003 0.097984135 -0.017980685 -0.019159596
0002d0 0c 8f 06 be a5 f1 1e 3c 2a 13 4b 3d 8e e2 bc bd
       -0.13140506 0.009701167 0.049578823 -0.092228994
0002e0 25 42 7e bc 99 c4 15 bc 16 42 80 bc 39 f6 08 be
       -0.0155187 -0.009141111 -0.015656512 -0.13375176
0002f0 69 a4 a9 ba 2b 05 0f 3c 34 70 2b 3b a1 4f 76 ba
       -0.0012942675 0.0087292595 0.0026159408 -0.0009396021
000300 f5 66 80 bc f8 86 82 3c 59 75 2d 3c 36 f6 1c 3d
       -0.015674094 0.015933499 0.01058706 0.038320743
000310 ea 9b 96 bc 4a 09 d0 bc 2d 60 d8 3c 55 ac 4c bc
       -0.018384892 -0.025395054 0.026413048 -0.012492259
000320 a7 d5 a2 bd 2a 41 1e 3c b9 0a 45 bc 86 77 ec bc
       -0.07950907 0.009659091 -0.012026482 -0.028865587
000330 06 1b 83 bd 7b 0a d2 bd f6 f5 40 bc b4 0a 21 bc
       -0.06401639 -0.10255905 -0.011777392 -0.009829212
000340 78 8b 96 3b 8d 6d fc bb 22 88 45 bb e8 fd d0 bc
       0.0045942627 -0.007703489 -0.0030140956 -0.025511697
000350 6a b2 83 3b bc b4 ca bc 86 6a 86 bd a1 29 9a bc
       0.0040190713 -0.024744384 -0.065632865 -0.018818678
000360 e8 7d d1 bd 82 0b 14 3d 29 d8 97 ba c4 c8 b6 bb
       -0.10229093 0.036143787 -0.0011584806 -0.0055781323
000370 1f 01 5f 3c e7 67 23 ba 51 a6 ce bc e0 58 14 3b
       0.013611107 -0.0006233439 -0.02522579 0.0022635981
000380 1a 2e 33 3c 4d cb 81 bc 9d 7b 83 bd ca da 6d bc
       0.010936284 -0.015844012 -0.06420062 -0.014517495
000390 da 2f 27 3d 9f 03 3b bc 7b 89 3f bd 18 fc 05 bd
       0.04081712 -0.011414438 -0.04676197 -0.03271112
0003a0 7d 88 f1 bc d3 bd 0c be b5 d3 c0 ba 2f 03 ea bd
       -0.029484028 -0.13744287 -0.0014711531 -0.114263885
0003b0 b9 2e b3 bd 06 82 84 bb b8 8a 38 bc 07 a0 86 bd
       -0.08749146 -0.0040438203 -0.011263542 -0.065734915
0003c0 6a 2d 05 bc db 8c 15 3d c4 0c 11 bc eb f7 6b bc
       -0.008128503 0.036511283 -0.008853141 -0.01440237
0003d0 60 43 c9 bb f1 fb 33 3c bc 27 a0 bb c2 9a b4 bd
       -0.006142065 0.0109853605 -0.004887549 -0.0881858
0003e0 25 70 88 bb 0a c2 fd b8 0d e7 11 bc 01 e5 8a bb
       -0.0041637593 -0.00012100123 -0.008905184 -0.004238725
0003f0 52 69 49 be 2a 90 9c bc d8 14 19 bd b0 a2 89 bb
       -0.19669083 -0.019111712 -0.037373394 -0.004200302

_orig_mod.shared_mlp.3.bias f4 [64]
000000 54 12 34 be 64 a5 87 3e 34 2e 46 be 2d a0 91 3e
       -0.17585117 0.2649337 -0.19353563 0.28442517
000010 45 ea 32 be 63 38 8d 3e e2 32 7d be 14 60 56 3e
       -0.17472179 0.27582082 -0.24726442 0.20935088
000020 d5 0c fd bd 04 e2 3d 3e 9d 35 aa be 17 ac 94 3e
       -0.12355963 0.1854325 -0.3324403 0.29037544
000030 69 ba 78 3e eb ef 08 be 87 10 29 be db e8 9d be
       0.2428986 -0.13372771 -0.16510211 -0.30841717
000040 23 bb 37 be 11 66 80 be b8 2c 67 be 46 26 86 3e
       -0.1794248 -0.2507787 -0.22575653 0.26201075
000050 50 01 92 3e 34 16 7a 3e 72 52 79 3e dd 3e 16 be
       0.28516626 0.24422532 0.24347857 -0.14672418
000060 e2 c4 bb bd c7 50 78 be 83 15 72 3e d2 d2 73 3e
       -0.09168412 -0.24249564 0.23641019 0.2381089
000070 29 06 97 3e 3c bd 8b 3e ee 5b 66 3e f7 9b 27 be
       0.29496887 0.27292812 0.22496006 -0.1636809
000080 fa cd 8f 3e 03 4e ac be d2 6e 7a be 85 64 8a 3e
       0.28086835 -0.33653268 -0.24456337 0.27029815
000090 bb 46 8a 3e 32 45 27 be f6 54 8c 3e 7a c4 6b be
       0.27007088 -0.1633499 0.2740857 -0.23024169
0000a0 85 95 4a be ec b8 99 be 64 7d 55 be a4 44 5a 3e
       -0.197836 -0.30023897 -0.20848614 0.21315247
0000b0 18 54 87 be 8a 65 9f 3e a6 b2 99 3e cf 24 69 3e
       -0.26431346 0.31132156 0.3001911 0.22767948
0000c0 f3 6c 8a 3e d2 13 56 be 7f 98 9e be 13 33 84 3e
       0.27036247 -0.20905998 -0.3097572 0.25820217
0000d0 8e fa 47 be 42 2a 0c be 09 49 71 be 90 69 6f be
       -0.19529173 -0.13687995 -0.23563017 -0.23380113
0000e0 b4 75 29 be 82 78 5f 3e e3 d0 9b 3e 65 dc 4a 3e
       -0.16548806 0.21823314 0.30432805 0.19810636
0000f0 98 55 47 be 73 d2 8c 3e 4a 0c 74 3e a3 a3 23 be
       -0.19466245 0.2750431 0.23832813 -0.15980391
