experiments/exp_20251005_041229/models/checkpoint_epoch4_auc0.7322_logloss0.0875.pth (torch, 137410 bytes, 12 tensors)

_orig_mod.embeddings.gender.embedding.weight f4 [5, 8]
0	0xbcbce3c4	-0.023057826
1	0xbcd285ba	-0.025698531
2	0xbd18f33c	-0.03734134
3	0xba6d48c4	-0.00090516754
4	0xb7d1378c	-2.4940608e-05
5	0x3d07296d	0.03299849
6	0xb5b26dc0	-1.3293975e-06
7	0x3cc3d0b6	0.023903232
8	0x3a0f5685	0.00054679095
9	0xbee33fbd	-0.44384566
10	0xbff4f0c3	-1.9135975
11	0x3bc2ea6d	0.005948356
12	0x36f62196	7.335281e-06
13	0x3f2e9e1e	0.6821002
14	0xb4cf9902	-3.8668082e-07
15	0xbe778119	-0.2417034
16	0xbf1bcbcb	-0.6085784
17	0xbeffb235	-0.4994065
18	0xbf584e75	-0.84494716
19	0xbae882b1	-0.0017739144
20	0x37465180	1.1820695e-05
21	0x3f4f2964	0.8092253
22	0x35e9ff77	1.7434203e-06
23	0x3f5ca48c	0.8618858
24	0x8005aa1d	-5.20203e-40
25	0x80057fa8	-5.04972e-40
26	0x000564cb	4.95335e-40
27	0x80056b94	-4.97769e-40
28	0x8006741f	-5.9267e-40
29	0x00055c83	4.92364e-40
30	0x800563ee	-4.95025e-40
31	0x00055cf1	4.92519e-40
32	0x80055f3c	-4.93341e-40
33	0x00055f71	4.93415e-40
34	0x800594a5	-5.12501e-40
35	0x000566c8	4.96048e-40
36	0x8005636b	-4.94842e-40
37	0x00056116	4.94005e-40
38	0x00060370	5.52246e-40
39	0x80056cf0	-4.98257e-40

_orig_mod.embeddings.age_group.embedding.weight f4 [15, 8]
0	0xbc36850c	-0.011140119
1	0x3bdac3c1	0.0066761677
2	0x3b20361e	0.002444632
3	0x3c1140c5	0.00886554
4	0x3c924681	0.017855885
5	0x3bc99bc0	0.0061526
6	0xbb823dbe	-0.0039746454
7	0x3bc5024e	0.0060122376
8	0x3e071929	0.13193192
9	0xbb87f5f0	-0.004149191
10	0x3b3a7d8f	0.0028456186
11	0xbe7aaeb1	-0.24480702
12	0xbe79c682	-0.24392131
13	0x3e43dcb6	0.19127163
14	0xbb9ff4af	-0.0048814635
15	0xbce8a14f	-0.02839723
16	0xbe009de0	-0.12560225
17	0x3dc0fab4	0.09422818
18	0x3c34c1cc	0.011032533
19	0x3e80ed4f	0.25181052
20	0x3d8d30c1	0.06894065
21	0xbed44e76	-0.4146611
22	0xbd1d9415	-0.0384713
23	0x3dad97ca	0.08476217
24	0xbd9606c0	-0.07325506
25	0x3c2b073d	0.010438737
26	0xbc2342b7	-0.0099646365
27	0x3ef07c01	0.46969607
28	0x3d82bb96	0.063834354
29	0xbee92feb	-0.4554437
30	0x3bd2b460	0.006430194
31	0xbb51e031	-0.0032024498
32	0xbd57edf3	-0.05271716
33	0x3c9b2f0c	0.018943332
34	0x3b9117e6	0.0044278977
35	0x3eca821a	0.39552385
36	0x3d28b2f0	0.041186273
37	0xbec31641	-0.38102916
38	0xbb205849	-0.0024466685
39	0x3ca0632f	0.019578544
40	0xbc4c2f34	-0.012462426
41	0xbc84e527	-0.01622255
42	0x36c6d908	5.9261256e-06
43	0x3e9dddec	0.30833375
44	0x3dfc59f7	0.12321847
45	0xbeb1b461	-0.3470793
46	0x3bf496fd	0.0074642883
47	0xbc9363d1	-0.017991932
48	0xbdf9dd44	-0.12200406
49	0xbdde51d1	-0.10855449
50	0xbc995285	-0.018716106
51	0xbd96fab0	-0.073720336
52	0x3ea7ca58	0.32771564
53	0xbe7edee2	-0.2488971
54	0x3d25cfd9	0.040481422
55	0xbdd4ca73	-0.103901766
56	0xbee469ea	-0.44612056
57	0x3cc582bf	0.024110196
58	0x3a2744f1	0.00063808175
59	0xbede1e42	-0.4338246
60	0x3f4287e5	0.7598861
61	0x3ed4483a	0.41461354
62	0xbc1ead2a	-0.00968484
63	0x3d48ce3e	0.049024813
64	0x3da9e6f7	0.08296006
65	0x3c9ec455	0.019380728
66	0x3b4fd68e	0.0031713578
67	0xbc8161f3	-0.015793776
68	0x3f057461	0.52130705
69	0x3f83322e	1.0249689
70	0xbbd765e6	-0.0065734265
71	0x3dab26ed	0.08357034
72	0x00057c31	5.03729e-40
73	0x000562c3	4.94607e-40
74	0x00055d72	4.927e-40
75	0x800563a4	-4.94922e-40
76	0x00056669	4.95915e-40
77	0x80056019	-4.93651e-40
78	0x80055e52	-4.93013e-40
79	0x000562c0	4.94602e-40
80	0x00055807	4.90756e-40
81	0x8005bf1a	-5.27732e-40
82	0x80055b70	-4.91979e-40
83	0x000561d1	4.94267e-40
84	0x000606fa	5.53516e-40
85	0x80055ddf	-4.92852e-40
86	0x80055873	-4.90907e-40
87	0x8005695e	-4.96976e-40
88	0x80056c03	-4.97925e-40
89	0x000558a7	4.9098e-40
90	0x80056259	-4.94458e-40
91	0x0005e5dd	5.41637e-40
92	0x80055b88	-4.92013e-40
93	0x0006ba03	6.17741e-40
94	0x800562aa	-4.94571e-40
95	0x800559db	-4.91412e-40
96	0x00055a97	4.91675e-40
97	0x80055936	-4.9118e-40
98	0x00055d88	4.9273e-40
99	0x80058230	-5.0588e-40
100	0x800560aa	-4.93854e-40
101	0x00055815	4.90775e-40
102	0x800559e5	-4.91426e-40
103	0x8005a187	-5.17123e-40
104	0x80061892	-5.59827e-40
105	0x000560b2	4.93865e-40
106	0x80055926	-4.91158e-40
107	0x00055ed0	4.9319e-40
108	0x8006c7cb	-6.22685e-40
109	0x000663b5	5.86781e-40
110	0x80055a37	-4.9154e-40
111	0x80055cc5	-4.92457e-40
112	0x00055973	4.91266e-40
113	0x80055c66	-4.92324e-40
114	0x000564bc	4.95314e-40
115	0x80055ce6	-4.92503e-40
116	0x00056638	4.95847e-40
117	0x80055a94	-4.91671e-40
118	0x00055c7a	4.92352e-40
119	0x00055e58	4.93022e-40

_orig_mod.embeddings.inventory_id.embedding.weight f4 [50, 16]
0	0x3ced6f4f	0.02898374
1	0x3ec3886a	0.38190013
2	0xbc91940e	-0.017770793
3	0xbdac0ba6	-0.08400659
4	0xbe4d3c8d	-0.2004263
5	0x3d9fa11a	0.077943996
6	0xbd30b708	-0.043143302
7	0xbe035cd5	-0.12828381
8	0x3ba9e601	0.0051848893
9	0x3df8e626	0.12153272
10	0x3d205be2	0.039150126
11	0x3f06a3b8	0.52593565
12	0x3d84d1ab	0.064853035
13	0x3f103fa9	0.5634714
14	0x3b8fc9ea	0.0043880837
15	0x3c15dc89	0.009146818
16	0x3dfa7d5e	0.12230943
17	0x3b886f7c	0.0041636806
18	0x3e39d4d2	0.18147591
19	0xbcc00206	-0.023438465
20	0x3deae67c	0.11469743
21	0x3cda79b5	0.026669363
22	0xbd3242a4	-0.043520585
23	0xbdfd5c23	-0.12371089
24	0xbe3b1cc1	-0.18272687
25	0x3dda4209	0.106571265
26	0x3d8e9620	0.06962228
27	0x3e40ad2b	0.18816058
28	0x3da59bc9	0.08086354
29	0x3eb63d67	0.3559372
30	0x3d1c0c37	0.038097586
31	0x3cfc2bf3	0.030782675
32	0xbe34075d	-0.17580934
33	0x3e162b7c	0.14665025
34	0x3b8c22b8	0.0042765997
35	0xbe59de39	-0.21276177
36	0x3d7a415e	0.061097495
37	0x3ed523a4	0.41628754
38	0xbd1dba19	-0.038507555
39	0x3dbf5cb1	0.09343851
40	0xbd0c7ea5	-0.034300465
41	0x3ef14b8c	0.4712795
42	0xbcb9422d	-0.022614563
43	0x3f26701c	0.65014815
44	0x3d4adf05	0.049529094
45	0x3f57ab69	0.84245926
46	0xbcbcd895	-0.023052493
47	0x3c86de68	0.016463473
48	0xbcdea53d	-0.027178401
49	0x3cfdc203	0.030976301
50	0xbd16685e	-0.036720626
51	0x3d068974	0.03284593
52	0xbd07b076	-0.03312727
53	0x3b98ced6	0.0046633286
54	0x3c2328f2	0.009958493
55	0x3d4a8630	0.049444377
56	0x3d34b6ce	0.04411965
57	0x3d06748f	0.032826003
58	0xbca1786d	-0.019710744
59	0x3c45e7d4	0.012079198
60	0xbb131b69	-0.0022446758
61	0xbd618322	-0.0550567
62	0xbc762cb1	-0.015025304
63	0xbaca519c	-0.0015435698
64	0x3ec01af6	0.3752057
65	0x3cb1ad0a	0.021688957
66	0x3e8c55b3	0.27409133
67	0x3d1c9210	0.038225234
68	0xbe363057	-0.17791878
69	0xbef0fe36	-0.47068948
70	0x3e7191b0	0.23590732
71	0xbe561e02	-0.20909885
72	0x3e8a97ef	0.2706904
73	0xbea40681	-0.32036212
74	0x3ec9a765	0.39385524
75	0x3f06fc7f	0.5272903
76	0x3ea8b89c	0.32953346
77	0xbea1e834	-0.3162247
78	0xbdf4b4fd	-0.11948583
79	0xbd3197f3	-0.0433578
80	0x3e219798	0.15780485
81	0xbee6c2ab	-0.45070395
82	0x3ef6cccc	0.48203123
83	0xbe2d0655	-0.16896947
84	0x3eb5075d	0.3535718
85	0xbd23a6a9	-0.03995386
86	0xbda92146	-0.082582995
87	0xbe98b9ed	-0.2982935
88	0xbf01e7a8	-0.50744104
89	0xbeb82ba6	-0.359708
90	0xbd0ebbce	-0.034847073
91	0xbf20317b	-0.625755
92	0x3d043d19	0.03228483
93	0x3dd455b1	0.10367907
94	0x3dd3d590	0.10343468
95	0x3d31529a	0.043291666
96	0xbebe4803	-0.37164316
97	0x3e8c27a1	0.27373984
98	0xbda263a8	-0.07929164
99	0x3ee52ef9	0.447624
100	0xbe1645a1	-0.14674999
101	0x3ecbbad0	0.39790964
102	0xbe0ae8d8	-0.13565385
103	0x3f19daba	0.60099375
104	0x3ccbfe5e	0.024901565
105	0x3d944f78	0.0724172
106	0xbaaf6c7a	-0.0013383769
107	0xbd591570	-0.05299896
108	0x3e8a8b91	0.27059606
109	0xbec06c28	-0.37582517
110	0x3e38847a	0.18019286
111	0x3a63cbdb	0.00086897396
112	0x3f6388b7	0.88880485
113	0xbefdd24d	-0.4957451
114	0xbd370aa4	-0.044687882
115	0x3f39197b	0.72304505
116	0x3e943a2d	0.28950635
117	0xbe347161	-0.17621376
118	0xbe1e6e52	-0.15471771
119	0x3ef08d1a	0.46982652
120	0x3da7738d	0.081763364
121	0xbef4e46e	-0.47830528
122	0x3f3fe3e6	0.7495712
123	0xbd9d3032	-0.07675208
124	0x3e30bb37	0.17258917
125	0xbd5044ff	-0.05084705
126	0x3efa96da	0.48943216
127	0x3cc5e14d	0.024155283
128	0xbb88d4f3	-0.004175776
129	0x3c9b4984	0.018955953
130	0x3e05aa78	0.1305331
131	0xbca23fdc	-0.019805841
132	0x3dc1f584	0.094706565
133	0x3d84e466	0.06488876
134	0xbd932505	-0.07184795
135	0xbd9a013e	-0.07519768
136	0xbe198389	-0.14991583
137	0x3d9c7347	0.07639175
138	0x3caccbc8	0.021093264
139	0x3e197ffb	0.14990227
140	0x3c46d06f	0.012134655
141	0x3e990587	0.2988703
142	0x3d0a8bbf	0.03382468
143	0x3d169aa4	0.03676857
144	0x3e748388	0.238783
145	0x3dff76c6	0.12473826
146	0xbe1b0f90	-0.15142655
147	0xbedf9416	-0.43667668
148	0xbe188e1b	-0.14897959
149	0x3e6daed5	0.23211224
150	0xbe2d1b20	-0.16904879
151	0xbe992514	-0.299111
152	0xbe36edc8	-0.17864144
153	0xbe8a7652	-0.27043396
154	0xbe6d7564	-0.23189312
155	0xbf186897	-0.5953459
156	0x3cf4d92f	0.029888717
157	0xbed1c9a1	-0.40974143
158	0x3e15c872	0.14627245
159	0x3d4effb8	0.05053684
160	0x3f1694a9	0.5882059
161	0xbe443591	-0.19161059
162	0xbede3df4	-0.4340664
163	0xbe71ccce	-0.23613283
164	0xbd787959	-0.0606626
165	0x3d9fddf4	0.07806006
166	0xbc8fcbd6	-0.017553251
167	0x3d49ab7c	0.049235806
168	0x3e0c8f66	0.13726577
169	0x3e89042c	0.26760995
170	0xbd1fa5fc	-0.038976654
171	0xbe78320c	-0.24237841
172	0x3c7ffe55	0.015624602
173	0xbec038cd	-0.37543336
174	0x3e3194fe	0.17341992
175	0xbca56d5c	-0.020193748
176	0xbf02e00e	-0.5112313
177	0x3d4f429c	0.050600633
178	0xbdfb4ac2	-0.12270118
179	0x3ee9daac	0.45674646
180	0x3c4c6408	0.012475021
181	0x3eb77a54	0.35835516
182	0xbe469a8e	-0.19394895
183	0x3f02a4ad	0.51032525
184	0x3d9e5caa	0.07732518
185	0x3ebc840c	0.36819494
186	0xbcd8cb9b	-0.026464274
187	0x3e0f4a20	0.1399312
188	0xbd8274ec	-0.06369957
189	0x3d8fa76a	0.070143536
190	0x3e3d9d7b	0.18517105
191	0x3d0bc0d1	0.03411943
192	0xbe7ea4ab	-0.24867503
193	0x3e89dbcb	0.269255
194	0x3e65e0a1	0.2244897
195	0x3e22cc94	0.15898353
196	0xbe2f84fd	-0.17140575
197	0xbea2ded6	-0.31810635
198	0x3ea9e05b	0.33178982
199	0x3e27a118	0.16370046
200	0x3e77fc42	0.24217322
201	0x3e846ff3	0.2586666
202	0xbe1e494d	-0.1545765
203	0x3e9a590c	0.30146062
204	0x3d209963	0.03920878
205	0xbe1b0612	-0.15139034
206	0xbeef2757	-0.467097
207	0xbd8a1504	-0.0674229
208	0xbe35f28a	-0.17768303
209	0x3e476123	0.19470648
210	0x3ae9ce2c	0.0017837933
211	0x3cec0e15	0.028815309
212	0xbd444268	-0.047914892
213	0x3dce145a	0.100624755
214	0xbca1369b	-0.019679358
215	0x3d33b4fb	0.04387377
216	0x3cb737cd	0.022365475
217	0x3e411310	0.18854928
218	0xbc80c4a2	-0.015718762
219	0x3ea4628e	0.3210644
220	0x3c477713	0.012174386
221	0x3e96ffaa	0.2949193
222	0xbcbe3763	-0.02321977
223	0x3bc2bdb4	0.0059430245
224	0xbf50181b	-0.8128678
225	0xbf1a96ae	-0.6038617
226	0xbe763a82	-0.24045756
227	0xbdb31629	-0.08744461
228	0x3e23e8c2	0.16006759
229	0x3dec10ab	0.11526617
230	0x3d9368e5	0.071977414
231	0x3eb82c4a	0.3597129
232	0x3e2360bc	0.1595487
233	0xbf22b155	-0.6355184
234	0xbd0e741a	-0.03477869
235	0xbf18f064	-0.59741807
236	0xbee1aa0e	-0.44075054
237	0x3d0b9e67	0.03408661
238	0xbc44562f	-0.011983438
239	0xbd5a6137	-0.053315368
240	0x3da18c7a	0.07888122
241	0xbe48b0f9	-0.1959876
242	0x3eb55c82	0.3542214
243	0xbed11731	-0.40838006
244	0x3e642cba	0.22282687
245	0xbe3be506	-0.18349084
246	0x3dad9b5f	0.084769
247	0xbef56479	-0.47928217
248	0xbecd6e75	-0.40123335
249	0xbdf73149	-0.12069947
250	0xbe82136a	-0.25405437
251	0xbea987d1	-0.33111432
252	0xbdd89138	-0.10574573
253	0xbb0c165e	-0.0021375637
254	0xbe55ac90	-0.20866609
255	0x3cbda904	0.023151882

_orig_mod.embeddings.day_of_week.embedding.weight f4 [10, 8]
0	0x3c97b708	0.018519893
1	0x3d02bf61	0.031920794
2	0xbb9a6b78	-0.0047125183
3	0x3e06af0b	0.13152711
4	0xbebceaaf	-0.368978
5	0xbe311e47	-0.17296706
6	0xbea7cd26	-0.32773703
7	0x3d6dbc16	0.0580407
8	0x3bc8c350	0.0061267987
9	0x3dea3e1d	0.114376284
10	0xbc83c203	-0.016083723
11	0x3d08e8a9	0.033425007
12	0x3dc46eaf	0.09591424
13	0xbd6caad4	-0.057780102
14	0x3ecc56c1	0.39909938
15	0x3dce19a0	0.10063481
16	0x3c5edea5	0.013602887
17	0xbcd85945	-0.026409755
18	0x3c2c15fc	0.010503288
19	0xbda9182e	-0.08256565
20	0x3da2c69e	0.079480395
21	0x3e00fa6d	0.1259553
22	0x3d24ac4a	0.04020337
23	0xbd5a4987	-0.053292777
24	0xbd132a9d	-0.03592931
25	0xbdc732f9	-0.09726519
26	0x3cd1309d	0.025535876
27	0xbd576715	-0.05258854
28	0x3dfd7076	0.12374966
29	0x3e2febe1	0.17179824
30	0xbd9cd0f6	-0.07657044
31	0xbe32d693	-0.17464666
32	0x3bccb633	0.006247306
33	0xbdb85df7	-0.09002297
34	0xbb0b7234	-0.0021277787
35	0x3d2b86eb	0.041876715
36	0x3d9c4d37	0.07631915
37	0x3dcb30a8	0.0992139
38	0xbcd192d1	-0.025582703
39	0xbdb2035e	-0.086920485
40	0x3c89175e	0.016734775
41	0xbe34f539	-0.1767167
42	0x3cc6824f	0.024232058
43	0xbd8f5abb	-0.06999727
44	0x3c84e21a	0.016221095
45	0x3e3290d5	0.17438062
46	0xbde686d7	-0.112561874
47	0xbdb9c569	-0.09070856
48	0xbba13926	-0.0049201427
49	0x3d85355e	0.065043196
50	0xbc45fa15	-0.01208355
51	0x3d7979cb	0.060907166
52	0xbd747701	-0.059683803
53	0xbdc815f3	-0.097698115
54	0xbeb864f0	-0.3601451
55	0x3d97b890	0.074082494
56	0x80055f24	-4.93308e-40
57	0x80061e4a	-5.61879e-40
58	0x00056e19	4.98673e-40
59	0x000563c5	4.94968e-40
60	0x80068be3	-6.01195e-40
61	0x8005640a	-4.95065e-40
62	0x00056204	4.94339e-40
63	0x000571b4	4.99966e-40
64	0x00055c5c	4.9231e-40
65	0x00055772	4.90547e-40
66	0x800559bd	-4.9137e-40
67	0x800587e5	-5.07927e-40
68	0x80055cd4	-4.92478e-40
69	0x80059764	-5.13486e-40
70	0x8006d47f	-6.27242e-40
71	0x00055a0e	4.91483e-40
72	0x00055fde	4.93568e-40
73	0x00056ba3	4.9779e-40
74	0x80055cb2	-4.9243e-40
75	0x800562a4	-4.94563e-40
76	0x80056efc	-4.98991e-40
77	0x000565bf	4.95677e-40
78	0x8005f8ba	-5.48404e-40
79	0x00055e4a	4.93002e-40

_orig_mod.embeddings.hour.embedding.weight f4 [30, 16]
0	0x3bc6227a	0.0060465904
1	0x3d5cc805	0.05390169
2	0x3e727693	0.23678045
3	0x3c416130	0.011802956
4	0x3c987225	0.018609116
5	0x3ece6c86	0.40317172
6	0x3cdab1b0	0.026696056
7	0x3b07e0e1	0.0020733404
8	0xbbb01d12	-0.005374559
9	0xbd30d105	-0.043168087
10	0x3ddf36d7	0.10899132
11	0x3aca9532	0.0015455841
12	0xbd176089	-0.036957297
13	0xbe331bcd	-0.17491074
14	0xbe57823f	-0.21045779
15	0x3d8bd0e9	0.06826956
16	0xbbf10154	-0.0073548947
17	0x3cafa388	0.021440282
18	0x3e7895fe	0.24275967
19	0xbc8b031a	-0.016969252
20	0xbcbd34a0	-0.023096383
21	0x3d9d84b1	0.076913245
22	0xbcda47e1	-0.026645603
23	0xbc6c223a	-0.014412457
24	0x3c5e33d0	0.013562158
25	0xbe271c59	-0.16319408
26	0x3d291522	0.04127992
27	0x3b5010ed	0.003174837
28	0x3c87369c	0.016505532
29	0xbdbb2e26	-0.091396615
30	0xbe0c2aa0	-0.13688135
31	0x3d3b9962	0.045800574
32	0xbc781fdb	-0.015144314
33	0x3d40bad0	0.04705316
34	0x3ea57fa6	0.3232395
35	0xbc8a2733	-0.016864395
36	0xbb3261fe	-0.0027219052
37	0x3e266361	0.16248848
38	0x3b48892c	0.003059934
39	0x3ccb1f23	0.02479512
40	0xbcbf70ab	-0.023369154
41	0xbe6b963f	-0.23006533
42	0x3d9fc0af	0.07800423
43	0x3b39e9aa	0.0028368034
44	0xbcddbc4c	-0.027067326
45	0xbe25e777	-0.16201578
46	0xbe3f7049	-0.18695177
47	0x3d85c2f5	0.06531326
48	0x3b920e47	0.0044572684
49	0x3c8aa3bf	0.016923783
50	0x3e7ee9eb	0.2489392
51	0x3c039ebc	0.008033451
52	0x3c3131ee	0.010815127
53	0x3db0d239	0.08633847
54	0x3c717e1a	0.014739538
55	0xbab5fb46	-0.001388409
56	0xbae4dbb8	-0.0017460501
57	0xbe2e7c1f	-0.17039536
58	0x3cf60cf4	0.030035473
59	0x3aeb37d2	0.0017945713
60	0xbca0f830	-0.019649595
61	0xbdb93cfb	-0.09044834
62	0xbddb03f4	-0.106941134
63	0x3c8e523c	0.017373197
64	0x3c41ff4f	0.0118406555
65	0x3bab7537	0.005232479
66	0x3e27c5e6	0.16384086
67	0x3aba1de8	0.0014199587
68	0xbbf50032	-0.00747683
69	0x3daf36f4	0.08555403
70	0xbc380c7d	-0.011233446
71	0xbc36bf15	-0.011153956
72	0x3c388190	0.011261359
73	0xbdda204a	-0.1065069
74	0x3cbfed62	0.023428623
75	0xbc64ced2	-0.013965325
76	0x3c57134c	0.013127159
77	0xbd8a5022	-0.06753565
78	0xbdb95103	-0.09048655
79	0x3cb3af68	0.021934226
80	0x3c1b4172	0.009476053
81	0x3d1c4fb0	0.038161933
82	0x3e4e05a2	0.20119336
83	0x398d5ccd	0.00026962758
84	0x3ba0dda2	0.004909233
85	0x3e896fba	0.26843053
86	0x3c07dc16	0.008292219
87	0x3b41c5b2	0.0029567298
88	0xbbf99507	-0.0076166424
89	0xbdea1588	-0.11429888
90	0x3dcbb64a	0.09946878
91	0x3cba495c	0.022740059
92	0xbd15a3ae	-0.03653305
93	0xbe1452b4	-0.14484674
94	0xbe39a0bb	-0.1812772
95	0x3d87ca9c	0.066304415
96	0x3c80ea15	0.015736619
97	0x3d1ee4d5	0.03879245
98	0x3e0a6bae	0.13517639
99	0x3b899c90	0.004199572
100	0x3bc81fac	0.006107291
101	0x3e96fc46	0.29489344
102	0x3c2836d1	0.0102669755
103	0x3933f909	0.00017163543
104	0xbba2944a	-0.004961525
105	0xbcf00a2b	-0.029301723
106	0x3dd25ec7	0.102719836
107	0x3ca21d0e	0.019789245
108	0xbd1da5da	-0.038488247
109	0xbe0508b7	-0.12991606
110	0xbe1fffeb	-0.15624969
111	0x3d836902	0.06416513
112	0x3cead9e2	0.028668348
113	0x3cb665ea	0.022265393
114	0xbdc45248	-0.095860064
115	0x3ce7bf70	0.028289527
116	0x3d299704	0.041403785
117	0x3e8ddb6f	0.27706477
118	0x3d404922	0.046944745
119	0x3cfd1efe	0.030898567
120	0xbd0cee52	-0.034406967
121	0x3d3941fb	0.04522894
122	0x3da04889	0.07826335
123	0x3c6eee01	0.014583112
124	0xbd672c1b	-0.056438547
125	0xbd9b2c93	-0.07576861
126	0xbdafa202	-0.085758224
127	0x3cf41be6	0.02979846
128	0xbc9e96f6	-0.019359093
129	0x3be6d419	0.007044327
130	0xbe28eb20	-0.16495943
131	0xbc4340b8	-0.011917286
132	0x3c0181a4	0.007904444
133	0x3d9f04db	0.07764598
134	0x3c936377	0.017991764
135	0x3c5b2bf8	0.013377182
136	0xbc5ae8eb	-0.013361196
137	0x3dc8cb8b	0.09804448
138	0x3b978e29	0.004625101
139	0xb9fbe744	-0.00048046757
140	0xbc840407	-0.016115202
141	0x3c2cf2dd	0.01055595
142	0x3d19fa5e	0.037592284
143	0xbb518d84	-0.003197522
144	0xbc05ae75	-0.00815927
145	0xbc66ffee	-0.014099104
146	0xbe2ed495	-0.17073281
147	0xbb82b2de	-0.003988608
148	0xbb37e39e	-0.0028059254
149	0x3d5a3746	0.05327537
150	0xbada812d	-0.0016670577
151	0x3b0eeb4b	0.0021807726
152	0xb9b1d85a	-0.00033921265
153	0x3e3797aa	0.17928949
154	0xbbab2501	-0.005222917
155	0x3c06ff88	0.008239634
156	0x3ab20ffb	0.0013585085
157	0x3d2ebaaa	0.042658485
158	0x3d50da6b	0.05098955
159	0xbc7299ba	-0.014807159
160	0xbd2c3f46	-0.04205253
161	0x3cac60e8	0.021042302
162	0xbe8f9b52	-0.28048187
163	0xbd19e41a	-0.03757105
164	0xbcd67af4	-0.026181675
165	0x3df04f23	0.11733844
166	0xbcabf894	-0.020992555
167	0x3ae446da	0.0017416135
168	0xb996e426	-0.00028780213
169	0x3e814803	0.25250253
170	0x3d5eca03	0.054391872
171	0x3d401ed9	0.04690442
172	0xbc647830	-0.013944671
173	0x3d241efa	0.040068604
174	0x3ca95bf4	0.02067373
175	0x3d2bb4dd	0.04192053
176	0x3cdf3c5b	0.02725046
177	0xbcd4af5c	-0.025962524
178	0xbe545d69	-0.20738758
179	0x3d29b54d	0.041432668
180	0x3d233c7d	0.039852608
181	0xbc7b9a6b	-0.01535664
182	0x3d27a464	0.04092826
183	0x3b8ad767	0.0042371037
184	0xbc04aefa	-0.008098358
185	0x3e28b016	0.16473421
186	0xbd3b71c8	-0.045762807
187	0xbc552b68	-0.013010837
188	0xbc572d36	-0.013133338
189	0x3d9030f9	0.07040591
190	0x3de35add	0.11101315
191	0xbd78953a	-0.06068919
192	0x3c8febc8	0.017568484
193	0xbd058e88	-0.03260663
194	0xbe5a062c	-0.21291417
195	0x3ae51c33	0.0017479717
196	0x3c6949f8	0.014238827
197	0xbda10110	-0.07861531
198	0x3c9552f3	0.01822803
199	0xbc45547f	-0.012044071
200	0x3b162d80	0.0022915304
201	0x3e30638d	0.17225476
202	0xbd31cc0b	-0.04340748
203	0x3c955f90	0.018234044
204	0xbc776f74	-0.015102256
205	0x3ddd0b8f	0.1079322
206	0x3e083e95	0.13305123
207	0xbd3af2a0	-0.04564154
208	0x3c58ab72	0.0132244695
209	0xbcdd5efd	-0.027022833
210	0xbda8fa4e	-0.08250867
211	0x3d38de8f	0.045134123
212	0x3d539d4c	0.051663682
213	0xbdd2817a	-0.10278602
214	0x3d6a234e	0.057162575
215	0x3c3678c6	0.011137193
216	0xbc5573ec	-0.013028126
217	0x3d39890c	0.045296714
218	0xbdd32404	-0.10309604
219	0xbcf41e7e	-0.029799696
220	0xbc69326f	-0.014233216
221	0x3d986a24	0.0744212
222	0x3e24d9af	0.16098665
223	0xbdc68d4c	-0.09694919
224	0x3ca85340	0.02054751
225	0xbd2e2970	-0.042519987
226	0xbd4ff072	-0.050766416
227	0x3ca69480	0.020334482
228	0x3c1282fb	0.008942361
229	0xbe49f248	-0.19721329
230	0x3b165770	0.00229403
231	0xbb2a884f	-0.0026021188
232	0x3bedc616	0.0072562797
233	0x3cad5ed5	0.021163383
234	0xbdb6a922	-0.08918978
235	0xbcfb9b9f	-0.030713854
236	0x3d0b74f0	0.034047067
237	0x3db87064	0.09005812
238	0x3dfe1d17	0.12407892
239	0xbd866b61	-0.0656345
240	0x3cfa419b	0.030548861
241	0xbd072ea9	-0.033003483
242	0xbd7ad0a3	-0.061234128
243	0x3d12a490	0.03580147
244	0x3d1d7619	0.038442705
245	0xbe6a2bb7	-0.22868238
246	0x3d116b6a	0.03550283
247	0x3c2b1aca	0.010443399
248	0xbc4ca8ed	-0.012491447
249	0x3cb7b080	0.022423029
250	0xbdaedd9b	-0.08538362
251	0xbcfa5a63	-0.030560678
252	0x3baa1f4b	0.0051917187
253	0x3db4070c	0.087904066
254	0x3e07056f	0.13185667
255	0xbd8adeff	-0.067808144

_orig_mod.dense_proj.weight f4 [64, 113]
0	0xbcfa9b6c	-0.030591689
1	0x3e0fa187	0.14026462
2	0xbe4949f4	-0.19657117
3	0xbde6bc56	-0.11266391
4	0x3ebcf17d	0.3690299
5	0x3c56cb7b	0.013110037
6	0xbd6dd128	-0.058060795
7	0xbe2af84a	-0.16696277
8	0xbdd039fc	-0.1016731
9	0xbc6dacf7	-0.01450657
10	0x3e2abf5c	0.1667456
11	0xb9770a7b	-0.0002355966
12	0x3d157695	0.03649004
13	0xbe112cbe	-0.14177224
14	0xbe22f4d6	-0.1591371
15	0xbe2b8377	-0.16749369
16	0xbe0f48d0	-0.1399262
17	0xbc2a3348	-0.010388203
18	0xbcad3ea5	-0.021148035
19	0x3d32ec3e	0.04368233
20	0xbd5ca79d	-0.053870786
21	0xbcd0b6ed	-0.02547785
22	0xbbec47d9	-0.0072107133
23	0xbd5c4915	-0.053780634
24	0x3bfb339a	0.0076660635
25	0xbd5f53a6	-0.054523133
26	0xbc5aef6d	-0.013362748
27	0x3e0ba155	0.13635762
28	0xb87d061b	-6.0325587e-05
29	0x3cd81c61	0.02638072
30	0x3dceba32	0.10094108
31	0xbd10ad63	-0.035321604
32	0x39dafa8d	0.00041766875
33	0x3bf965fa	0.0076110335
34	0xbd853dce	-0.06505929
35	0x3d8c63e2	0.06854989
36	0x3cf5b63c	0.029994123
37	0x3e0b1135	0.13580783
38	0x3dc6a843	0.09700062
39	0x3bcc9399	0.006243181
40	0xbdf02712	-0.11726202
41	0x3c91a3d9	0.017778324
42	0xbdf68276	-0.12036602
43	0xbc9cc696	-0.019137662
44	0xbe1249b8	-0.14285934
45	0x3d5a9da4	0.053372994
46	0xbbf153c6	-0.007364723
47	0x3d03f03d	0.03221153
48	0xbd8370af	-0.06417977
49	0x3d5ed582	0.054402836
50	0xbd74c8e5	-0.0597619
51	0x3e3b3634	0.18282396
52	0x3d16cea9	0.03681818
53	0xbccd27e7	-0.025043441
54	0xb97356cf	-0.00023206625
55	0xbe28f94e	-0.16501352
56	0x3d5f2fa0	0.054488778
57	0x3b013758	0.0019716825
58	0xbca0b6a5	-0.019618342
59	0x3d6ba4ea	0.05753032
60	0xbc92de09	-0.01792814
61	0x3985a70d	0.000254922
62	0x3ce87bad	0.028379286
63	0x3ce0d8d4	0.027447142
64	0x3c6621b3	0.01404612
65	0xbc820ee9	-0.01587625
66	0xbcdbac20	-0.026815474
67	0xbd1eca31	-0.038767044
68	0x3ca0046c	0.019533359
69	0x3b466e4a	0.003027814
70	0xbcc7d996	-0.024395745
71	0xb8a56014	-7.885709e-05
72	0xbd180330	-0.037112415
73	0x3afae6c7	0.0019142263
74	0x3d88068b	0.06641873
75	0xbd90d73d	-0.070723034
76	0xbdd9e7b0	-0.10639894
77	0xbd910702	-0.07081415
78	0x3d5c666b	0.05380861
79	0xbd8938f6	-0.067003176
80	0x3d2e352a	0.04253117
81	0xbd468b88	-0.04847291
82	0xbcefaa1e	-0.029255923
83	0xbdb178f1	-0.08665646
84	0xbd3434bb	-0.0439956
85	0x3ddd8cfd	0.10817907
86	0xbca951e4	-0.020668931
87	0x3c0fd58d	0.008778942
88	0x3c79f28e	0.015255583
89	0xbc45af79	-0.012065762
90	0x3c1e729a	0.009670878
91	0x3cc116f2	0.023570511
92	0xbb112449	-0.0022146872
93	0xbb715126	-0.003682205
94	0x3a96645a	0.0011473999
95	0x3c267843	0.010160509
96	0x3bd38e51	0.0064561744
97	0x3b81bcfb	0.003959296
98	0x3c6bf1f9	0.0144009525
99	0xbcab7259	-0.020928549
100	0x3c132135	0.008980085
101	0x3c97c48c	0.018526338
102	0xbc59503c	-0.013263758
103	0x3b8c741b	0.004286302
104	0xbb83d78f	-0.0040234993
105	0x3c779eac	0.015113514
106	0xba2426af	-0.0006261868
107	0x3c600fd2	0.013675647
108	0x3bde71c1	0.006788463
109	0x3b478b30	0.0030447952
110	0x3b9d7edc	0.0048063826
111	0x37e27535	2.6995878e-05
112	0xbe1aa380	-0.15101433
113	0xbd70eaf7	-0.05881783
114	0xbd6c890e	-0.057747893
115	0xbdc1f7b5	-0.094710745
116	0xbd918160	-0.071047544
117	0xbd04d0fa	-0.032425858
118	0xbd1ab2bf	-0.03776812
119	0x3e454aa2	0.19266751
120	0xbd03c364	-0.03216876
121	0xbd655bc9	-0.055995736
122	0xbd60aa86	-0.054850124
123	0x3db1a2c2	0.08673622
124	0x3db054da	0.08609934
125	0x3d96d9f5	0.07365791
126	0x3d252dbc	0.04032682
127	0xbe30acc7	-0.1725341
128	0xbdf50dfa	-0.119655564
129	0x3d5eed56	0.05442556
130	0xbd6a2ea4	-0.057173386
131	0xbc6ed860	-0.014577955
132	0xbbe709f6	-0.007050748
133	0xbaee4559	-0.0018178626
134	0x3d669341	0.056292776
135	0xbd37abb1	-0.044841472
136	0xbace24a1	-0.0015727469
137	0xbc123b96	-0.008925339
138	0x3cee7528	0.029108599
139	0xbc355fae	-0.011070175
140	0x3d265f31	0.040618125
141	0xbdb8499a	-0.089984134
142	0xbcb45f50	-0.022018105
143	0xbe04da00	-0.12973785
144	0xbd209a51	-0.039209668
145	0x3d0cd085	0.034378547
146	0x3c3d55bd	0.011556086
147	0x3b8149f1	0.003945582
148	0x3c891abf	0.016736386
149	0xbc99a9d9	-0.018757747
150	0x3d916688	0.070996344
151	0xbb533b19	-0.003223127
152	0x3d5ec283	0.05438472
153	0x3d3e4462	0.046451934
154	0x3d3dab6e	0.046306066
155	0xbc9f3965	-0.019436548
156	0x3cd186f0	0.025577039
157	0x3c1bd3ee	0.009510977
158	0xbc6af971	-0.014341698
159	0xbda422ca	-0.08014448
160	0x3cefa67a	0.029254187
161	0xbc61b326	-0.0137756225
162	0x3cb62c91	0.022238048
163	0xbccb46bc	-0.024814002
164	0xbcf03b46	-0.029325139
165	0x3cc6b232	0.024254892
166	0xbd0c7c1d	-0.03429805
167	0x3c9d3bc9	0.019193547
168	0xbcbe7448	-0.023248807
169	0x3c917c7d	0.017759556
170	0xbc7178e8	-0.014738299
171	0x3c0d6710	0.008630529
172	0x3ce195f5	0.027537325
173	0xbcde5a96	-0.027142804
174	0xbb1c5594	-0.002385472
175	0x3b0eff53	0.0021819666
176	0x3b52bd3a	0.0032156245
177	0xbd0c1a40	-0.03420472
178	0xbcf29ef1	-0.029616805
179	0xbc225571	-0.009908066
180	0x3ce69559	0.028147386
181	0xbbfabe40	-0.007652074
182	0x3d0259d8	0.031823963
183	0xbcd26ffd	-0.025688166
184	0xbc7636a1	-0.015027673
185	0xbd4b3636	-0.049612246
186	0x3bff1ec7	0.0077856514
187	0xbb909aef	-0.004413001
188	0xbd757941	-0.05993009
189	0x3cacd7b8	0.021098956
190	0xbc67e010	-0.014152542
191	0x3cc66504	0.02421809
192	0xbac2841a	-0.0014840395
193	0x3cf889af	0.03033909
194	0xbc1d0ae3	-0.009585115
195	0xbcd152e6	-0.025552224
196	0xbdc7ec03	-0.097618125
197	0xbd65206f	-0.055939134
198	0x3d613a58	0.05498728
199	0x3c46077c	0.012086745
200	0x3c86ca5a	0.01645391
201	0x3c925ea1	0.017867388
202	0x3b88a154	0.0041696224
203	0x3c953486	0.018213522
204	0x3c5f68e7	0.0136358505
205	0x3c74e2ca	0.014946649
206	0x3c5b3d0c	0.013381254
207	0x3c938d54	0.018011726
208	0x3c4224cf	0.011849596
209	0x3bdb72ac	0.0066970196
210	0x3a26c342	0.0006361493
211	0x3c72e52b	0.014825146
212	0xbcb34b95	-0.021886626
213	0x3c956db8	0.018240795
214	0x3c99a898	0.01875715
215	0x3bcd20bd	0.006260006
216	0x3c9760b2	0.018478725
217	0x3cb0e94c	0.02159562
218	0x3c819eff	0.015822886
219	0x3ca7b64a	0.020472664
220	0x3ca3cc3b	0.019994846
221	0x3c80995b	0.015698126
222	0x3be5f6d4	0.0070179496
223	0x3be7b2e9	0.0070708883
224	0x3c5bd0ca	0.013416478
225	0xbdaafa48	-0.083485186
226	0x3dd07340	0.10178232
227	0xbd6c23a6	-0.057651184
228	0x3ee3247d	0.44363776
229	0xbdf1224c	-0.1177412
230	0x3d0d5224	0.034502164
231	0xbddc1fc5	-0.10748247
232	0xbe6a97cd	-0.2290947
233	0xbe12a596	-0.14320979
234	0xbd05c723	-0.032660615
235	0xbe28ad28	-0.16472304
236	0xbe21d35d	-0.15803285
237	0xbe1c0b08	-0.15238583
238	0xbafc4fb2	-0.0019249825
239	0xbdd9a400	-0.10626984
240	0x3e79c6f8	0.24392307
241	0x3d6a1046	0.057144426
242	0x3d1bafa6	0.03800931
243	0xbe3ca524	-0.18422371
244	0x3cda78f5	0.026669005
245	0x3d00dc46	0.03146007
246	0xbdc3ea3f	-0.09566163
247	0xbc44d43c	-0.012013491
248	0xbc53c4e6	-0.012925362
249	0xbdc60a91	-0.09669984
250	0x3c8b5518	0.01700835
251	0x3c894e1e	0.016760882
252	0xbb0d2c65	-0.0021541354
253	0x3b62b181	0.0034590664
254	0x3d19d907	0.03756049
255	0x3ce9a4f4	0.028521039

_orig_mod.dense_proj.bias f4 [64]
0	0x3e12667c	0.14296907
1	0x3d901cb2	0.07036723
2	0xbcaa4653	-0.020785486
3	0xbd2a2060	-0.04153478
4	0x3d0037f9	0.03130338
5	0x3cb96900	0.022633076
6	0x3c04cc47	0.008105344
7	0x3cdae635	0.0267211
8	0xbc3ca0bb	-0.0115129305
9	0xbc374dd0	-0.011187986
10	0x3c4afc5a	0.012389267
11	0x3cf42b75	0.029805878
12	0xbcb0b009	-0.021568315
13	0x3d8087f1	0.06275929
14	0x3da73a59	0.08165426
15	0xbe85ffad	-0.26171628
16	0xbcb869c3	-0.022511369
17	0x3c476b1c	0.012171533
18	0xbbd5856b	-0.006516149
19	0xbc61ba46	-0.013777321
20	0xbcdd8842	-0.027042512
21	0xbd132c41	-0.035930876
22	0x3b812e36	0.0039422764
23	0x3c4f9b4c	0.012671303
24	0x3db9078e	0.09034644
25	0xbc3ff549	-0.011716195
26	0x3ba3a0bf	0.0049935277
27	0x3c9b579e	0.018962678
28	0x3cc706a8	0.024295166
29	0xbdaaa2f3	-0.08331861
30	0xbd4a54a5	-0.04939713
31	0xbc938567	-0.018007947
32	0xbbb78167	-0.0056001428
33	0x3cc66793	0.02421931
34	0x3cd8b97c	0.026455633
35	0x3bc67619	0.006056559
36	0x3d1aeeb5	0.037825305
37	0x3ce6b8d3	0.028164303
38	0xbc8c4bbe	-0.01712596
39	0x3d19e314	0.037570074
40	0x3c7fb238	0.0156064555
41	0xbd3e33d1	-0.046436135
42	0xbdc0876f	-0.09400832
43	0x3c81ab2c	0.015828691
44	0x3d7479ba	0.0596864
45	0xbc556266	-0.013023948
46	0x3c3dae3c	0.011577185
47	0xbcb6d3dd	-0.022317821
48	0xbd1b8fd0	-0.037978947
49	0xbc9a015c	-0.018799476
50	0xbcd6792f	-0.026180832
51	0x3de95839	0.1139378
52	0x3c5bc75e	0.013414232
53	0x3b8b0278	0.0042422377
54	0x3cb8f5bc	0.022578113
55	0x3d96b2e3	0.07358339
56	0xbe726c7a	-0.23674193
57	0x3cce1441	0.025156142
58	0x3e784412	0.24244717
59	0x3b55cb91	0.0032622556
60	0xbbd4387d	-0.0064764605
61	0xbc38a739	-0.011270338
62	0xbc9a7eee	-0.018859353
63	0xbc217cde	-0.009856431

_orig_mod.shared_mlp.0.weight f4 [128, 120]
0	0x3d0d39c0	0.034478903
1	0xbca24af0	-0.019811124
2	0xbd48bb6e	-0.049006872
3	0x39df087d	0.000425402
4	0xb78e0c58	-1.6933467e-05
5	0x3ad56775	0.0016281443
6	0xb5b724ce	-1.3645274e-06
7	0xbcf8b98b	-0.030361911
8	0xbcbc9c13	-0.02302364
9	0xbb5027f7	-0.0031762102
10	0x3b3fa580	0.0029242933
11	0xbddec96b	-0.10878261
12	0x3dd994b2	0.106240645
13	0x3e04648a	0.12928978
14	0xba626998	-0.00086369505
15	0x3bf0768d	0.007338351
16	0xbd704913	-0.05866344
17	0x3e320cf9	0.17387761
18	0x3d34c278	0.044130772
19	0x3a31dc71	0.00067848625
20	0xbd5abeb8	-0.05340454
21	0x3d1c81c3	0.038209688
22	0x3cc503e2	0.024049703
23	0xbcd64e24	-0.026160307
24	0x3d67d456	0.056598984
25	0x3e04eb1c	0.12980312
26	0x3d9bce99	0.07607765
27	0x3ec2c3f7	0.38040134
28	0x3d9eff73	0.07763567
29	0x3e864df5	0.26231351
30	0xbd355818	-0.044273466
31	0xbc79b8d4	-0.01524182
32	0xbc9196be	-0.017772075
33	0x3cd2bc6c	0.025724612
34	0xbbc2142a	-0.005922814
35	0x3ce4642e	0.0278798
36	0xbdbb792c	-0.09153971
37	0xbd5d761c	-0.054067716
38	0xbdcf6f01	-0.10128594
39	0x3c3d2bd7	0.011546097
40	0xbc85d562	-0.0163371
41	0x3ca319e9	0.019909816
42	0xbdb0e86c	-0.08638081
43	0xbc40554b	-0.011739085
44	0xbc06e637	-0.008233598
45	0x3de3a42a	0.11115296
46	0xbb778f34	-0.0037774565
47	0x39632412	0.00021661844
48	0x3a604786	0.00085555797
49	0x3d9271be	0.07150601
50	0x3d29c3a5	0.041446347
51	0x3c97bb82	0.018522028
52	0xbc7723fd	-0.015084264
53	0xbce85d44	-0.028364785
54	0xbce076fa	-0.027400482
55	0x3cdefc54	0.027219929
56	0xbd1c73f7	-0.03819653
57	0x3c071f48	0.008247204
58	0x3d805f9d	0.06268237
59	0x3d1730d7	0.03691181
60	0xbc520794	-0.01281919
61	0xbc2e5b1c	-0.010641839
62	0x3ca9eb68	0.020742133
63	0xbc7d09f7	-0.01544427
64	0x3c5c6dd6	0.013453921
65	0xbcb50b97	-0.022100253
66	0x3babdea3	0.005245046
67	0x3bd2c857	0.006432574
68	0x3cd3b5e2	0.025843564
69	0xbcb8578d	-0.022502685
70	0xbb12c9f6	-0.002239821
71	0xbd6c7cad	-0.057736088
72	0xbc1e3f66	-0.00965867
73	0xbb181875	-0.0023207937
74	0x3bf7edb1	0.007566177
75	0x3c9919b5	0.018689016
76	0x3c6902ce	0.01422186
77	0x3d5c32f4	0.05375953
78	0xbc5c5fa9	-0.0134505415
79	0xbd0f8606	-0.035039924
80	0x3cc5aa9c	0.024129204
81	0x3ca72b5e	0.020406421
82	0xbbb3d479	-0.005487975
83	0xbc66009f	-0.014038234
84	0x3bc77b85	0.0060877227
85	0x3d652181	0.055940155
86	0xbc45dac2	-0.012076082
87	0x3c7e02fd	0.015503642
88	0xbc7ff290	-0.015621796
89	0xbc80c3e9	-0.015718417
90	0xbb4a6856	-0.0030884943
91	0x3ce7d4e1	0.02829975
92	0xbada3bd0	-0.0016649906
93	0xbc58971a	-0.013219619
94	0xbc656943	-0.014002147
95	0x3cb9d0a9	0.022682505
96	0x3c9d2480	0.019182444
97	0xbe360d71	-0.17778565
98	0x3c844891	0.016147884
99	0xbbb361f3	-0.005474323
100	0xbc8eb425	-0.017419884
101	0xbceacaa5	-0.028661082
102	0x3b15fb2f	0.0022885313
103	0x3ca04c27	0.019567562
104	0xbb43238b	-0.0029775824
105	0x3cd5127e	0.026009794
106	0xbc607c61	-0.013701529
107	0xbcbe6ceb	-0.023245296
108	0x3ca46290	0.02006653
109	0x3c97ec22	0.018545214
110	0x3b60ed83	0.0034321256
111	0xbc59bc9f	-0.0132896
112	0x3b80ae53	0.003927031
113	0xbcf88145	-0.030335078
114	0x3d92316b	0.07138332
115	0xbd1a9770	-0.03774208
116	0x3c59c413	0.013291377
117	0x3d2f4d1b	0.042798143
118	0xbc7f27b1	-0.015573428
119	0x3cd98f30	0.026557535
120	0x3d6ccb68	0.05781117
121	0x3e01b340	0.12666035
122	0x3e711d17	0.23546253
123	0xbc05c2af	-0.008164092
124	0x34c08820	3.586183e-07
125	0xbe31d72c	-0.17367238
126	0xb45fce75	-2.0843602e-07
127	0xbd3e20cd	-0.046418
128	0x3e3da63a	0.18520442
129	0x3d1a9ce0	0.037747264
130	0x3ba2a77a	0.0049638124
131	0xbc6a629e	-0.014305739
132	0xbda0c078	-0.078492105
133	0x3ecf9458	0.40542865
134	0xbc4e959e	-0.012608914
135	0x3d3fa070	0.046783864
136	0x3c8102eb	0.015748462
137	0x3ddc6b93	0.10762706
138	0x3d257ebc	0.040404066
139	0xbe10fd7f	-0.14159201
140	0xbc8ca1b4	-0.01716695
141	0x3d99329d	0.07480357
142	0xbd2efadc	-0.042719707
143	0xbe24fe6d	-0.1611268
144	0xbe123fe6	-0.14282188
145	0x3d7f9720	0.062399983
146	0xbe2d5a9a	-0.16929093
147	0xbe27d682	-0.16390422
148	0xbbc18e7c	-0.005906878
149	0xbd2517a6	-0.040305756
150	0xbce5b8ed	-0.028042281
151	0x3c67f37c	0.014157172
152	0xbb8c4d9e	-0.0042817136
153	0x3d5c7d76	0.053830586
154	0xbc1674c6	-0.009183114
155	0x3c652ccf	0.013987734
156	0x3ceabd57	0.028654737
157	0xbd56dfe8	-0.052459627
158	0x3d958d71	0.073023684
159	0x3d48854b	0.048955243
160	0x3bc00162	0.00585954
161	0xbb77cf95	-0.0037812938
162	0xbcc2e053	-0.023788607
163	0x3cc07468	0.023493007
164	0x3ce6a1a1	0.028153243
165	0xbb26147e	-0.0025341804
166	0x3d05103a	0.032486178
167	0x3ba96ae3	0.0051702126
168	0xbbc51c5b	-0.006015343
169	0x3d162ae5	0.036662
170	0xbd0ee915	-0.034890253
171	0xbc775a76	-0.015097251
172	0xbc30c878	-0.010789983
173	0x3c77fe6c	0.0151363425
174	0x3d602180	0.054719448
175	0xbd1e4f6b	-0.038649958
176	0xbd72f47a	-0.059315182
177	0xbe0bd039	-0.1365365
178	0x3e10cabb	0.14139836
179	0x3dd46457	0.10370701
180	0x3da69963	0.08134725
181	0x3c53f171	0.012935982
182	0xbc0b78f7	-0.008512727
183	0x3b76a3bc	0.0037634214
184	0x3e17b26f	0.14814161
185	0xbc86fc15	-0.016477624
186	0xbc165044	-0.00917441
187	0x3d89e6ef	0.067335
188	0x3d125d62	0.035733588
189	0x3e647985	0.22311981
190	0x3cdedba6	0.027204346
191	0x3e863038	0.26208663
192	0x3de05814	0.109542996
193	0x3c18b8ce	0.009321405
194	0xbd0d0e12	-0.034437247
195	0x3a87fc54	0.0010374882
196	0xbc48752b	-0.012234966
197	0xbddf6ef6	-0.10909836
198	0x3d7b163e	0.06130051
199	0x3da0a177	0.07843297
200	0xbdef3ecf	-0.11681902
201	0xbd3fbbb1	-0.046809856
202	0x3d9d8117	0.076906376
203	0x3ca1baad	0.019742334
204	0xbab08455	-0.0013467172
205	0x3d0f8de2	0.03504742
206	0x3e058f2b	0.13042895
207	0xbc8df649	-0.017329352
208	0xbb5d7c40	-0.0033795983
209	0xbd835535	-0.06412736
210	0xbba4ea22	-0.0050327936
211	0x3c3d12dc	0.011540141
212	0x3ce7690e	0.028248336
213	0x3b4b90cb	0.0031061645
214	0x3d2c9db9	0.042142604
215	0xbd6e06c3	-0.058111917
216	0x3b0a6666	0.0021118163
217	0xbc119f56	-0.008888086
218	0x3e01824b	0.12647359
219	0x3d5262c3	0.051363718
220	0xbe19f346	-0.15034208
221	0x3cfb072a	0.030643065
222	0x3cd3cd4a	0.025854725
223	0xbdc46df4	-0.095912844
224	0xbd2c4375	-0.04205652
225	0x3b00fe88	0.0019682962
226	0x3bdf82a9	0.006820996
227	0x3dab5483	0.08365729
228	0x3ca37b81	0.019956352
229	0x3bf413ff	0.007448673
230	0x3c8ab787	0.016933216
231	0xbe5cdb4f	-0.21568035
232	0x3e24191d	0.16025205
233	0xbcafbfc2	-0.021453742
234	0x3d7b37d4	0.06133254
235	0x3d06b182	0.03288413
236	0x3cb0cdfa	0.021582592
237	0xbd721319	-0.059100244
238	0xbb8e0222	-0.0043337503
239	0x3d212109	0.039338145
240	0x3c9f2656	0.01942746
241	0xbc4191ff	-0.011814593
242	0xbda15d8b	-0.0787917
243	0x3b30a197	0.0026951784
244	0x3722629c	9.678912e-06
245	0x3c9b83d4	0.018983759
246	0xb47aba69	-2.335088e-07
247	0xbc9548f9	-0.018223273
248	0x3bab97da	0.005236608
249	0xbbcd93be	-0.0062737158
250	0xbb81cd97	-0.003961276
251	0x3d34bca0	0.0441252
252	0x3c4ca150	0.012489632
253	0xbdbb70de	-0.09152387
254	0x3b96bd5f	0.0046002115
255	0xbc5be916	-0.013422271

_orig_mod.shared_mlp.0.bias f4 [128]
0	0x3d387799	0.045035932
1	0xbe4fc2c6	-0.20289144
2	0x3d2736b6	0.04082366
3	0xbe29553c	-0.1653642
4	0xbe26255c	-0.16225189
5	0xbe25aac1	-0.16178419
6	0x3d9a71f0	0.07541263
7	0x3da9bbd8	0.082877815
8	0xbd542ad5	-0.05179866
9	0x3da57aef	0.08080088
10	0xbde734a4	-0.11289337
11	0xbe146767	-0.1449257
12	0xbe340bca	-0.17582622
13	0x3d9ccd0d	0.07656298
14	0x3b99c2e6	0.004692423
15	0xbdd74438	-0.105110586
16	0x3da1c5d6	0.07899062
17	0x3d64408c	0.05572562
18	0x3bd030db	0.0063534803
19	0x3d41fe7c	0.047361836
20	0x3d930b27	0.071798615
21	0x3b1522fa	0.0022756443
22	0x3c9f3abc	0.019437186
23	0x3b781460	0.0037853941
24	0x3ce5d45f	0.028055368
25	0xbe04111d	-0.12897153
26	0xbe243bc0	-0.16038418
27	0x3d00dae3	0.031458747
28	0x3ccce3ea	0.025011022
29	0x3c5fe8f2	0.013666378
30	0xbe16d388	-0.1472913
31	0xbe2497c4	-0.16073519
32	0x3d8921d9	0.06695909
33	0xbc66892b	-0.014070789
34	0x3ddc1cee	0.107477054
35	0x3da62511	0.081125386
36	0x3bb0545e	0.005381151
37	0xbcb3cfce	-0.021949675
38	0x3ca5bce8	0.02023168
39	0x3c4ac4ff	0.012376069
40	0xbe155ae7	-0.14585458
41	0xbccba479	-0.0248587
42	0x3d8790f5	0.06619445
43	0xbd1f2885	-0.038857
44	0xbee6fc4d	-0.45114365
45	0xbcbf05f1	-0.023318263
46	0x3a5f82b1	0.00085262494
47	0x3ccf4d54	0.025305428
48	0x3d223d45	0.039609212
49	0xbd02bb94	-0.03191717
50	0x3da24c02	0.079246536
51	0xbd20b148	-0.03923157
52	0xbe6e41af	-0.23267244
53	0xbc3ed4d2	-0.01164742
54	0x3d94d774	0.07267657
55	0xbe997d82	-0.29978567
56	0xbde31277	-0.11087506
57	0x3d4cee1d	0.05003177
58	0xbdda0ec3	-0.10647347
59	0xbe021306	-0.1270257
60	0x3cd00e6b	0.0253975
61	0x3d3dca97	0.046335783
62	0xbb22b6d1	-0.0024828205
63	0xbd67f15d	-0.056626666
64	0xbdce21aa	-0.10065015
65	0xbcd732fe	-0.026269432
66	0xbd166da3	-0.03672565
67	0xbd430415	-0.047611315
68	0xbe074790	-0.13210893
69	0xbe016cdd	-0.12639184
70	0xbe06cc50	-0.13163877
71	0x3d605749	0.05477074
72	0xbe4a2217	-0.19739567
73	0xbcedbb54	-0.02901999
74	0xbdff7044	-0.12472585
75	0xbe07837c	-0.13233751
76	0xbe102586	-0.14076814
77	0xbdc8750d	-0.09787951
78	0x3d250eb3	0.04029722
79	0x38c83f51	9.548537e-05
80	0xbd8fceb8	-0.0702185
81	0xbddb1cf1	-0.106988795
82	0xbc2813f2	-0.010258662
83	0x3d04f162	0.032456763
84	0xbc002c90	-0.0078231245
85	0xbe0608e1	-0.13089325
86	0xbe150430	-0.14552379
87	0xbdea02aa	-0.114262894
88	0xbe2a6340	-0.16639423
89	0xbd3db1b1	-0.046312038
90	0x3d1a42ba	0.03766129
91	0xbb9f2155	-0.0048562684
92	0xbd9734dc	-0.07383129
93	0x3dca68d0	0.09883273
94	0xbe13895f	-0.14407872
95	0x3cc967a5	0.024585554
96	0xbcce8892	-0.025211606
97	0xbe0223b9	-0.1270894
98	0xbdc80151	-0.09765876
99	0x3d9d4f56	0.07681148
100	0xbc8bb7c6	-0.017055403
101	0x3bba331f	0.0056823636
102	0xbe1de379	-0.15418805
103	0xbe11380d	-0.14181538
104	0xbe16bdd7	-0.14720856
105	0xbe40bf6c	-0.18823022
106	0x3b818360	0.0039524287
107	0xbe3b7fe0	-0.18310499
108	0xbdc213e0	-0.09476447
109	0xbd9b00da	-0.07568522
110	0x3dd36725	0.10322408
111	0xbe4d2810	-0.20034814
112	0xbdb7ec09	-0.08980567
113	0x3d3c4124	0.04596056
114	0x39db708f	0.00041854798
115	0xbdfad686	-0.12247948
116	0xbc721bce	-0.014777137
117	0xbdbbdbad	-0.09172759
118	0x3d7e87b9	0.062141154
119	0xbe5c0bbf	-0.21488856
120	0xbdcf9b27	-0.10137015
121	0x3b8c4c62	0.0042815665
122	0x3a987f0e	0.0011634545
123	0x3be6e85a	0.0070467414
124	0xbe8b85f8	-0.27250648
125	0xbe169589	-0.1470548
126	0xbe17d7c5	-0.14828403
127	0x3d41a7c3	0.04727913

_orig_mod.shared_mlp.3.weight f4 [64, 128]
0	0xbd0d6d43	-0.03452803
1	0x3c139e7f	0.009009956
2	0xbd95d6f8	-0.07316393
3	0x3d2cebc4	0.04221703
4	0x3c9bc5b0	0.019015163
5	0x3a826e33	0.0009951055
6	0xbcc4451a	-0.023958731
7	0xbcdca450	-0.026933819
8	0x3d383e2f	0.044981178
9	0xbd4d0e7c	-0.05006264
10	0xbcce8948	-0.025211945
11	0x3d4d7411	0.050159518
12	0x3d9dd3a3	0.07706382
13	0xbc5885bb	-0.013215478
14	0x3b995d64	0.0046803225
15	0xbd551edb	-0.05203138
16	0xbce42a79	-0.027852284
17	0xbdeae917	-0.114702396
18	0xb88f7c11	-6.8418805e-05
19	0xbcbfb4a2	-0.023401562
20	0xbd1c74b5	-0.038197238
21	0x3af6ba1d	0.0018823777
22	0xbcb52b5c	-0.022115402
23	0x3c467a82	0.012114169
24	0xbcb4140c	-0.021982215
25	0x3d034b17	0.032054033
26	0x3d27576e	0.040854864
27	0xbdcb46b8	-0.09925598
28	0xbc84abc4	-0.016195185
29	0xbca689c2	-0.02032936
30	0x3d20b025	0.039230485
31	0x3cc0fe15	0.023558656
32	0xbcee4739	-0.029086696
33	0xbd436479	-0.04770324
34	0x3c53dba4	0.012930784
35	0xbce18ab4	-0.02753196
36	0xbae9ab0f	-0.0017827469
37	0xbd389249	-0.045061383
38	0xbc263f68	-0.010146953
39	0x3c82b17b	0.01595377
40	0xbd02e784	-0.03195907
41	0x3c85d92c	0.016338907
42	0xbc13adf6	-0.0090136435
43	0x3c63f6e9	0.013913848
44	0xbd152a81	-0.036417488
45	0x3c3299bd	0.010900912
46	0xbc42c696	-0.011888167
47	0xbb685ce5	-0.003545576
48	0xbd16293c	-0.036660418
49	0xbb9acaf2	-0.0047239
50	0x38314191	4.2261152e-05
51	0xbce2bc5f	-0.027677713
52	0xbe07c675	-0.13259299
53	0x3c884270	0.016633242
54	0xbd2d39a1	-0.042291287
55	0x3d472a4b	0.048624318
56	0x3d125bee	0.035732202
57	0xbd4edae1	-0.050501708
58	0x3d2551c6	0.04036119
59	0xbcfa6186	-0.03056408
60	0xbd6334c1	-0.055470232
61	0xbc9c2ab3	-0.01906333
62	0xbb723257	-0.0036956274
63	0x3c12bff4	0.008956898
64	0x3d1c284e	0.038124375
65	0xbdbf2a41	-0.09334231
66	0xbd10423d	-0.03521942
67	0xbcecabde	-0.028890546
68	0x3d2fbcb1	0.04290456
69	0x3cf9a736	0.03047524
70	0xbd00e964	-0.03147258
71	0xbd9c421e	-0.07629798
72	0x3db617a9	0.088912316
73	0x3ccaff97	0.024780078
74	0x3d199b7e	0.037501805
75	0x3d5301f9	0.051515553
76	0x3bb139aa	0.0054084854
77	0x3ce7aa27	0.028279377
78	0xbb9d5f14	-0.004802594
79	0xbc802d31	-0.015646549
80	0x3cce8c21	0.025213303
81	0x3d06e7d8	0.032935947
82	0xbc690156	-0.01422151
83	0xbdaafe16	-0.08349244
84	0x3c716684	0.014733914
85	0x3d534765	0.05158176
86	0x3d218f88	0.039443523
87	0x3d41097a	0.04712818
88	0xbdc2186d	-0.09477315
89	0xbd9d825a	-0.07690878
90	0xbcec4b6b	-0.028844556
91	0x3b51d0fe	0.0032015438
92	0xbdc73d44	-0.09728482
93	0xbde0abf4	-0.109702975
94	0x3d51e07b	0.051239472
95	0xbb814000	-0.003944397
96	0x3c102f5a	0.008800352
97	0x3d26d463	0.04072989
98	0x3c714e3b	0.014728124
99	0xbd5c21be	-0.053743117
100	0xbc539b94	-0.012915511
101	0xbcb71619	-0.022349404
102	0x3d4b8d86	0.049695514
103	0x3d5d60c6	0.05404737
104	0x3d1b9dab	0.03799216
105	0x3d86ffe4	0.06591776
106	0x3c0c9ae7	0.0085818535
107	0xbd5b51fa	-0.053544976
108	0xbc5b8f28	-0.01340083
109	0x3cb95785	0.02262474
110	0xbd4d11b2	-0.050065704
111	0xbc3f49f3	-0.011675346
112	0xbd947322	-0.07248522
113	0xbc0604a5	-0.008179818
114	0xba8ca45d	-0.0010730136
115	0x3d19cf0a	0.037550963
116	0xbd8d2977	-0.068926744
117	0x3c931f6b	0.017959317
118	0xbbd9ecf4	-0.0066505615
119	0x3d94eb9e	0.07271503
120	0x3cf812d9	0.030282425
121	0xbcf9a233	-0.03047285
122	0xbb1418cb	-0.0022597786
123	0x3bf51ff8	0.0074806176
124	0xbda87394	-0.0822517
125	0x3d0b0eef	0.03394979
126	0x3d71b7fa	0.059013344
127	0xbd5bf71c	-0.05370246
128	0xbb1adae5	-0.0023629006
129	0xbdcff073	-0.10153284
130	0x3c8f9af4	0.017529942
131	0xbdda1bf2	-0.106498614
132	0xbdd3365a	-0.10313101
133	0xbe60d000	-0.21954346
134	0xbcbf4746	-0.023349416
135	0x3b8f0ff9	0.0043659178
136	0x3cd1a254	0.0255901
137	0x3c1b4f84	0.009479407
138	0xbcf621c9	-0.030045407
139	0xbd0f2519	-0.03494749
140	0xbd991ce9	-0.07476217
141	0x3c863c2a	0.01638611
142	0xbc07fcf9	-0.0083000595
143	0x3d0ca200	0.034334183
144	0xbd6768b8	-0.056496352
145	0xbc61385e	-0.013746349
146	0x3babcd8d	0.0052430094
147	0x3b938094	0.0045014117
148	0x3ce898f9	0.028393256
149	0xbba0024c	-0.0048830863
150	0xbbb121ba	-0.005405632
151	0xbb434a3e	-0.002979889
152	0x3ba42945	0.0050098025
153	0xbcf10015	-0.029418984
154	0xbd20cadb	-0.039255958
155	0xbc4d8e3a	-0.0125461165
156	0x3ccbfed7	0.02490179
157	0x3a91ade7	0.0011114449
158	0xbddbeafc	-0.10738179
159	0xbe32ed8f	-0.17473434
160	0xbbb9994c	-0.0056640264
161	0x3d16e664	0.03684081
162	0xbc6775fa	-0.014127249
163	0xbc2d1b75	-0.010565628
164	0xbc74aa0f	-0.014933123
165	0x3de6d04e	0.112702
166	0x3b44d482	0.003003389
167	0xbcccf56e	-0.025019374
168	0xbe2c55db	-0.16829626
169	0x3b5dc888	0.003384145
170	0x39b62142	0.00034738524
171	0x3d1fe0c8	0.039032727
172	0xbe4795a7	-0.19490682
173	0x3c8f13eb	0.017465552
174	0xbb525b7e	-0.003209799
175	0x3c273638	0.010205798
176	0x39b1a24e	0.00033880997
177	0x3dc104af	0.094247214
178	0xbcadb9f9	-0.021206843
179	0xbcf951e6	-0.03043456
180	0xbe1318fc	-0.14365
181	0x3c116e05	0.008876328
182	0x3d5a3c52	0.053280182
183	0xbdcae576	-0.099070475
184	0xbc45cf3e	-0.012073336
185	0xbc17577f	-0.009237169
186	0xbc8b34e8	-0.016993001
187	0xbe0baedd	-0.13640924
188	0xbb9441f6	-0.0045244647
189	0x3bbaa80c	0.0056963023
190	0x3c2d719a	0.010586167
191	0x3a0374a4	0.0005014634
192	0xbc3884e5	-0.011262153
193	0x3cc51cc5	0.02406157
194	0x3b6554b1	0.0034993107
195	0x3d0ef81e	0.03490459
196	0xbc3c90c4	-0.011509124
197	0xbcb7ad4a	-0.022421498
198	0x3ccecc07	0.025243772
199	0xbca9e60e	-0.020739581
200	0xbd8d39d7	-0.06895798
201	0x3c1f726a	0.009731868
202	0xbc1ea558	-0.009682976
203	0xbcdec6c4	-0.027194388
204	0xbd7877cf	-0.060661133
205	0xbdbc72c8	-0.0920158
206	0xbc5860ba	-0.013206655
207	0xbc4ab5d8	-0.0123724565
208	0x3c07c450	0.008286551
209	0x3a151961	0.00056876807
210	0x3a7ae5ea	0.0009571003
211	0xbce04851	-0.027378233
212	0x3c147c77	0.009062878
213	0xbcabb3e0	-0.020959795
214	0xbd7c36e3	-0.06157578
215	0xbc50bae9	-0.012739875
216	0xbddef0e3	-0.10885789
217	0x3cf967da	0.030445028
218	0xbbc4fbac	-0.006011447
219	0xbc2d438b	-0.0105751855
220	0x3ce47cf8	0.027891621
221	0x3ba4db0b	0.005030995
222	0xbcbf5be7	-0.023359252
223	0x3bd6f7cf	0.006560303
224	0x3c8da91d	0.017292554
225	0xbc7e8b55	-0.015536149
226	0xbd71443a	-0.058902957
227	0xbc0f680f	-0.008752837
228	0x3d22bebb	0.039732676
229	0xbc1fbd39	-0.009749704
230	0xbd181c21	-0.0371362
231	0xbcecce83	-0.028907066
232	0xbd00adae	-0.031415634
233	0xbe06dd24	-0.13170296
234	0x3bd3c0fd	0.006462215
235	0xbdea9f27	-0.11456137
236	0xbd8e36cf	-0.06944048
237	0x3adcfef9	0.0016860656
238	0xbc05ea2b	-0.008173506
239	0xbd91dab6	-0.07121794
240	0xbb73fc6b	-0.003722931
241	0x3cea7ca5	0.028623888
242	0xbc26ce84	-0.010181073
243	0xbc9186e3	-0.017764514
244	0xbb516392	-0.0031950218
245	0x3c9a8103	0.018860346
246	0xbbeafdb8	-0.007171359
247	0xbdce2059	-0.100647636
248	0x3b0753b9	0.0020649268
249	0xbb6eee05	-0.0036457789
250	0xbbe57c11	-0.0070033153
251	0xbbb28f3a	-0.005449203
252	0xbe401383	-0.18757443
253	0xbc8d70ea	-0.017265756
254	0xbd1976a7	-0.03746667
255	0x3b970ac7	0.004609439

_orig_mod.shared_mlp.3.bias f4 [64]
0	0xbe418143	-0.18896966
1	0x3e85819e	0.26075453
2	0xbe4fa21b	-0.20276682
3	0x3e904a5a	0.28181726
4	0xbe39aa86	-0.18131456
5	0x3e8c638b	0.27419695
6	0xbe8a3ee3	-0.27001104
7	0x3e526d0c	0.2054941
8	0xbe07cae4	-0.1326099
9	0x3e3226bd	0.1739759
10	0xbeb1cef7	-0.34728214
11	0x3e930a35	0.28718725
12	0x3e76035e	0.24024722
13	0xbe0d117a	-0.13776198
14	0xbe395507	-0.18098842
15	0xbea8b658	-0.32951617
16	0xbe44dcea	-0.19224897
17	0xbe8cfa43	-0.27534685
18	0xbe791799	-0.24325408
19	0x3e836bf3	0.25668296
20	0x3e9309f5	0.28718534
21	0x3e797cf5	0.24364074
22	0x3e77e8ac	0.24209851
23	0xbe238be1	-0.15971328
24	0xbdc4d372	-0.096106425
25	0xbe893b90	-0.26803255
26	0x3e6775a8	0.22603476
27	0x3e70dc8f	0.23521636
28	0x3e95579f	0.29168412
29	0x3e8b9ded	0.27268925
30	0x3e605a26	0.21909389
31	0xbe32a87c	-0.17447084
32	0x3e900f0e	0.28136486
33	0xbeb86cee	-0.36020607
34	0xbe876ec1	-0.26451686
35	0x3e8c5077	0.2740514
36	0x3e89dcc4	0.26926243
37	0xbe2e1677	-0.17000757
38	0x3e8ac6d5	0.27104822
39	0xbe7ba15d	-0.24573274
40	0xbe57821e	-0.2104573
41	0xbea5fabd	-0.3241786
42	0xbe652fe9	-0.22381558
43	0x3e5974fd	0.21236034
44	0xbe95e10b	-0.29273257
45	0x3ea12b9d	0.31478587
46	0x3e995bd1	0.29952863
47	0x3e60a602	0.21938327
48	0x3e899958	0.26874804
49	0xbe5f0574	-0.21779424
50	0xbea7fa75	-0.3280827
51	0x3e7d187f	0.24716376
52	0xbe599373	-0.21247654
53	0xbe188847	-0.14895736
54	0xbe803a95	-0.25044695
55	0xbe7e50ad	-0.24835463
56	0xbe3fa8e5	-0.18716772
57	0x3e5aea25	0.21378382
58	0x3e988448	0.29788423
59	0x3e43b451	0.19111754
60	0xbe4f6ef7	-0.20257173
61	0x3e87865a	0.2646969
62	0x3e7164bd	0.23573585
63	0xbe2d7dec	-0.16942567

_orig_mod.ctr_head.weight f4 [1, 64]
0	0x3ece0efd	0.4024581
1	0xbe05a9f7	-0.13053118
2	0x3eb1f0d3	0.34754047
3	0xbda4dc17	-0.08049791
4	0x3eab575d	0.3346509
5	0xbd950887	-0.07277017
6	0x3e91a06d	0.28442708
7	0xbe0030a7	-0.1251856
8	0x3eb33f46	0.3500921
9	0xbda497b3	-0.08036747
10	0x3ebc0377	0.36721393
11	0xbdbe751f	-0.09299683
12	0xbdc6e7d3	-0.09712186
13	0x3eaf62b7	0.34255
14	0x3ebbb764	0.36663353
15	0x3ec480ac	0.3837942
16	0x3ea2a489	0.31766155
17	0x3e9888b8	0.29791808
18	0x3ea8f056	0.32995862
19	0xbd88c353	-0.0667788
20	0xbdc0e7e3	-0.09419229
21	0xbdb789ec	-0.089618534
22	0xbdf6dc49	-0.12053735
23	0x3ebfe14d	0.37476578
24	0x3eac35a1	0.33634666
25	0x3eb04fc3	0.34435853
26	0xbdb33217	-0.08749788
27	0xbd913750	-0.07090628
28	0xbdc66564	-0.096873075
29	0xbdb8cda0	-0.09023595
30	0xbdd7a65a	-0.10529776
31	0x3ea260c0	0.3171444
32	0xbdef9d1b	-0.11699887
33	0x3eca579c	0.39519966
34	0x3e984694	0.29741347
35	0xbdbbf808	-0.091781676
36	0xbdcc54db	-0.099771224
37	0x3eb77af8	0.35836005
38	0xbda0c612	-0.07850279
39	0x3ea49805	0.32147232
40	0x3e951399	0.29116514
41	0x3ebe43c2	0.3716107
42	0x3ea874f5	0.3290173
43	0xbdbd83ce	-0.092536554
44	0x3e9c757e	0.3055839
45	0xbdc14e89	-0.094388075
46	0xbdcb2062	-0.09918286
47	0xbda9301f	-0.082611315
48	0xbda8f480	-0.0824976
49	0x3ea84eac	0.32872522
50	0x3ebc6714	0.36797392
51	0xbdb40ed5	-0.087918915
52	0x3ea54a2e	0.32283157
53	0x3eb1cd29	0.34726837
54	0x3e9a5c31	0.3014846
55	0x3eabedd8	0.33579898
56	0x3ebf40ff	0.37354276
57	0xbda003f5	-0.07813255
58	0xbd97287a	-0.07380767
59	0xbe06511a	-0.13116875
60	0x3ea1440b	0.31497225
61	0xbd8ca42c	-0.06867251
62	0xbe082c15	-0.13298066
63	0x3ebb78f9	0.36615732
