experiments/exp_20251006_015317/models/checkpoint_epoch1_auc0.7232_logloss0.0881.pth (torch, 137410 bytes, 12 tensors)

_orig_mod.embeddings.gender.embedding.weight f4 [5, 8]
000000 08 e5 a8 bc 0e ab 00 be 47 d9 66 bd 95 36 4f 3d
       -0.020617023 -0.12565252 -0.056359556 0.050589163
000010 b6 c1 b0 be b2 0b 79 3b b5 e1 bc 3d 4b f0 ea be
       -0.3452279 0.0038001356 0.09222738 -0.45886454
000020 00 ea 16 bf 8c 62 12 bf 39 d4 f8 bf df 58 38 3f
       -0.58950806 -0.5718162 -1.9439765 0.72010607
000030 20 c3 92 bf dd ac 30 be e5 62 b4 3d 17 b1 22 bf
       -1.1465797 -0.17253442 0.08807925 -0.6355147
000040 85 92 a5 3f a7 1d b0 3e 2f db f3 bf 9e ef cf 3f
       1.2935339 0.34397623 -1.9051265 1.6245
000050 3a aa 64 bf d8 fd 9e 3f 9e 21 88 3e 1d ab 02 be
       -0.89322245 1.2421217 0.26588148 -0.12760587
000060 02 0a 78 3f ec 6f 95 ba 9a 40 97 ae 56 87 19 3d
       0.9689027 -0.0011401153 -6.8781605e-11 0.037482582
000070 d1 9e 4c bf 40 6a 71 ac 93 e9 61 3b 5b 0b f8 3d
       -0.79929835 -3.430714e-12 0.0034471496 0.12111541
000080 73 95 53 3e d6 46 a6 2d bc e8 c3 aa d9 de a1 b9
       0.20662479 1.8903473e-11 -3.480045e-13 -0.00030874347
000090 d5 53 d1 be af bd fe ae c9 50 ae bf 61 16 b6 aa
       -0.4088427 -1.1584277e-10 -1.3618404 -3.2345223e-13

_orig_mod.embeddings.age_group.embedding.weight f4 [15, 8]
000000 db 62 46 3c 87 68 e0 3d 85 38 00 be 0a 02 2a 3c
       0.01210853 0.10957437 -0.1252156 0.010376463
000010 26 56 d0 3b cf dc df bd 97 c9 28 ba fb a1 cf bd
       0.006357926 -0.10930788 -0.00064387306 -0.10138317
000020 92 4f 8b be a5 12 08 3e f1 ff d7 3e da 7b 66 be
       -0.27209145 0.13288362 0.42187455 -0.22508183
000030 0c de e3 be 35 b7 20 bf cf 20 43 be 60 f8 58 3e
       -0.44505346 -0.6277955 -0.19055484 0.21188498
000040 07 8d 20 bf 53 6e 19 be b2 68 2f be b8 d8 2f 3f
       -0.6271519 -0.14983492 -0.17129782 0.6869006
000050 5c f2 12 bf 73 c9 84 3e 99 99 12 3f 4b 8a b2 bd
       -0.5740106 0.25934944 0.5726562 -0.087177835
000060 2b 81 ff bf c7 ae 70 3d ce 28 87 bf 1a c5 67 be
       -1.9961294 0.05876043 -1.0559328 -0.22633782
000070 d2 6e 87 be 15 7a de 3e 34 f2 b7 be 44 f8 b4 3d
       -0.26451737 0.43452516 -0.35926974 0.088364154
000080 fc 4e a9 bf 17 13 c9 be af 58 73 bf e5 6b 81 be
       -1.3227229 -0.39272377 -0.95057195 -0.2527763
000090 61 9c 48 3f 6a 39 11 be c0 d5 91 3d 7e 16 a9 be
       0.78363615 -0.14182058 0.07120848 -0.33024973
0000a0 f0 fa d2 be 66 54 55 40 22 fa 10 bf 7d ba 75 3f
       -0.41207075 3.3332763 -0.5663167 0.95987684
0000b0 5f 1b 58 3e a8 9a 76 bf 8c 19 10 bf 4e b3 0c bf
       0.21104191 -0.96329737 -0.5628898 -0.549611
0000c0 fb f2 a4 3e c6 32 87 bf 67 38 fa be cf 23 2d be
       0.3221663 -1.056237 -0.48871157 -0.16908191
0000d0 ee 35 8f be 7c a9 91 bf fa 15 c9 be 41 82 36 40
       -0.27970833 -1.1379848 -0.3927458 2.8517
0000e0 f2 51 06 3d ff e3 cf be 82 cc 0d bf 95 76 19 bc
       0.032792993 -0.40603635 -0.5539018 -0.009366651
0000f0 61 dc 5e 3f ee a7 41 3e ea 33 10 3f 8e 77 44 bf
       0.8705502 0.18911716 0.56329215 -0.76744926
000100 3e c3 b9 3f e3 dc ad bf 16 8f 83 bf 3c 7c a5 bf
       1.4512708 -1.3583034 -1.0278041 -1.2928538
000110 ca 86 42 3f 5e 0a 7b bf d5 7f 12 bd be 38 5d bf
       0.7598692 -0.98062694 -0.03576644 -0.86414707
000120 95 b2 30 be 6a c1 6a ab d5 9f 1f 3e 42 e1 31 bf
       -0.17255624 -8.3401916e-13 0.15588315 -0.6948434
000130 04 b4 5d be a7 c6 41 b0 1d 87 f0 bc ef 6f 54 3f
       -0.21650702 -7.0495293e-10 -0.029361302 0.829833
000140 af e3 93 2c 31 bb bb b1 af 51 81 39 56 3d 3b be
       4.2032692e-12 -5.4636975e-09 0.00024665656 -0.18285117
000150 0d 30 61 3c 29 03 94 ae b6 f8 de 3e 5b 44 d5 ac
       0.013744366 -6.730822e-11 0.43549126 -6.061413e-12
000160 b0 f4 e9 3e ec 15 88 3d 48 54 87 bd 71 d4 1e 3c
       0.45694494 0.06644806 -0.06607872 0.009694205
000170 75 d5 41 ba 96 32 85 38 fb e1 44 3f ab af 8a 29
       -0.00073941733 6.3513566e-05 0.7690732 6.1589046e-14
000180 e2 51 15 be 22 b4 13 be 9c 10 e6 3e 5d e5 d1 3d
       -0.14582017 -0.14424184 0.44934547 0.10248826
000190 b9 c4 70 bd 29 22 81 ab 9f 06 7c ae 63 aa f0 bd
       -0.05878136 -9.175483e-13 -5.7304047e-11 -0.11751249
0001a0 6c b0 53 af c8 7b e8 be c3 1e 38 3c 44 f3 b2 bd
       -1.9253016e-10 -0.45406938 0.011237803 -0.087378055
0001b0 71 dc c2 be e1 9d 52 be 28 6b ee 2c 84 73 9b 3f
       -0.38058808 -0.20568039 6.7762636e-12 1.2144628
0001c0 c3 7b 32 bd c0 c8 01 bf 75 c9 06 b0 e2 4a f5 38
       -0.04357506 -0.50696945 -4.9035204e-10 0.000116964584
0001d0 1d a6 01 3c ec 6b 62 b5 fd 2c b4 be 7c 36 59 3f
       0.00791314 -8.434861e-07 -0.35190573 0.8484876

_orig_mod.embeddings.inventory_id.embedding.weight f4 [50, 16]
000000 c3 84 29 bf 23 ba 93 3f 38 99 f2 3e 93 9b 61 3e
       -0.66218203 1.154118 0.47382522 0.22032003
000010 d7 b0 bd 3d 86 08 83 3f e9 d8 5b 3e 5e 9f c2 3d
       0.09262245 1.0236976 0.21469463 0.09503053
000020 5e 25 fd 3e ad c7 66 bf ca 22 4f 3f 7a f3 de bd
       0.4944257 -0.9014843 0.8091246 -0.10886283
000030 51 72 1b 3f 5c 1e aa 3d 55 f6 09 bf 10 91 93 3f
       0.6072131 0.08306572 -0.538915 1.1528645
000040 b5 cf eb bd d7 10 7f be 23 d8 bf 3e b3 50 46 3f
       -0.11514226 -0.24908768 0.37469587 0.7746689
000050 10 1b 9e 3e 8a 29 61 3f 13 21 67 be 54 cf 59 bd
       0.30880022 0.8795401 -0.2257121 -0.05317624
000060 88 e2 f6 3d 19 b3 9d be 06 48 0c 3d e6 50 97 3c
       0.12054926 -0.30800703 0.034248374 0.018471193
000070 10 5d c5 3c 58 e1 03 ba 9a 96 2c be a5 de 45 3e
       0.024092227 -0.0005030832 -0.16854325 0.19323213
000080 65 6e c1 3e 85 98 b0 bf 31 77 d2 3d bf c2 05 c0
       0.37779537 -1.3796545 0.1027664 -2.0900114
000090 f0 8d af 3e 72 04 24 3f 11 39 e0 3f 16 4b 47 bf
       0.34287977 0.64069283 1.7517415 -0.7784895
0000a0 0d fc 61 3e 7f ad c9 3e 2f f6 18 bc 62 4f 00 3f
       0.22068806 0.3939018 -0.0093360385 0.5012113
0000b0 22 7e ab be 05 a0 6a 3e 0e 71 21 3e 07 f3 c0 3f
       -0.3349467 0.22912605 0.15765783 1.5074166
0000c0 bc f5 04 bf ed 2d f6 bd ad 69 c6 bd e5 77 8d 3f
       -0.5193746 -0.120204784 -0.09688125 1.1052214
0000d0 7d e9 0a bf 28 1a 4b be d0 b0 b3 3c 38 34 d2 bd
       -0.54262525 -0.19834197 0.021934897 -0.10263866
0000e0 04 12 22 3f ef 87 8b bc 8d 79 67 ba 91 60 96 bd
       0.6330874 -0.017032592 -0.0008830063 -0.07342637
0000f0 ce 62 81 3d ef 69 ec bb 62 ec 8b bb d6 91 36 bf
       0.063176736 -0.0072147767 -0.0042701224 -0.7131628
000100 37 6d c1 3d 70 cd 53 3d 52 fb 19 bf 59 66 74 3e
       0.09444659 0.051709592 -0.6014911 0.23867168
000110 47 77 d8 3f a3 e1 7c be 22 8a 67 bb d2 21 55 bf
       1.69114 -0.24695449 -0.0035330136 -0.8325473
000120 4a 6e 23 3f 4f 0d bb 3e a5 33 4d bf 9e bd 7e 3f
       0.6384016 0.3653359 -0.8015693 0.9950808
000130 ea 5f 03 bf 4f 22 8f 3f 82 1a 79 3f 02 07 3f be
       -0.5131823 1.1182345 0.9730607 -0.18655017
000140 64 50 9f bf a3 83 46 be 54 25 99 3e d0 6e f8 bc
       -1.2446408 -0.19386153 0.29911292 -0.030326277
000150 f0 1b 35 3f 20 ed 8c 3f 46 12 90 be 43 d5 0b be
       0.70745754 1.1009865 -0.28138942 -0.13655572
000160 fd 35 69 3f e9 28 e0 3f 04 0d 88 3e d9 b2 44 bf
       0.91098005 1.7512485 0.2657243 -0.768354
000170 18 a9 38 3e 66 4e ac bd 82 d3 82 3e 2c 3d 87 bf
       0.18033254 -0.08413391 0.25551993 -1.0565543
000180 ef ca 04 3f 78 cf b7 be 77 81 2e 3f 86 48 af 3f
       0.5187215 -0.35900474 0.681663 1.3694007
000190 88 ef 9c 3f b8 2e 00 be fc 78 2e 3e 0d b3 06 be
       1.2260599 -0.12517822 0.1703834 -0.1315424
0001a0 8a 54 7e bc 2f 8f 86 bf bf 97 04 bf 59 aa 05 3d
       -0.015523085 -1.0512446 -0.51794046 0.03263316
0001b0 57 68 64 bf 55 66 5b 3e 6c 06 29 3e ec b1 c0 3e
       -0.8922171 0.21425755 0.16506356 0.37635744
0001c0 36 1b 91 3f 98 05 b3 3f d0 c6 92 3e 81 10 0a 3f
       1.1336429 1.3986082 0.28667307 0.5393143
0001d0 26 10 58 3f b0 25 1a bf 5e 1f 18 40 a5 8e 98 be
       0.8439964 -0.60213757 2.3769145 -0.2979633
0001e0 09 12 00 bf 1d 8b 31 bf d8 4f cf bd bc cb aa bf
       -0.5002752 -0.69352895 -0.10122651 -1.3343425
0001f0 ad 1e 52 bc 31 a9 28 3f 13 87 84 3f 79 bc 26 be
       -0.0128246965 0.65883166 1.0353721 -0.16282834
000200 13 57 9f bd 73 a2 46 3f f8 da d0 3e 3c ed 0c bf
       -0.0778028 0.7759163 0.4079206 -0.5504949
000210 de 26 72 3d c7 66 4e 3f be e1 0e bf b8 d4 c0 3e
       0.059119098 0.80625576 -0.55813205 0.37662292
000220 ec 34 7c 3e bb c5 c1 be c8 32 86 3e 79 31 e9 3e
       0.24629563 -0.3784617 0.26210618 0.45545557
000230 cb a7 36 3e c1 d1 f6 3d d8 a0 b2 3e 2d 83 94 bf
       0.17837445 0.12051726 0.3488834 -1.1602532
000240 4e 88 36 3e d4 07 4e 3e d5 0c 87 3c 82 43 92 3e
       0.17825434 0.20120174 0.016485611 0.2856713
000250 00 dd d5 bf 8b f3 d8 be 57 94 18 bf e6 68 28 3f
       -1.6708069 -0.4237331 -0.5960135 0.6578506
000260 93 58 b8 bd 87 1b ae bd ba 5a 23 3d 1a 82 e8 3e
       -0.09001269 -0.08501344 0.039881445 0.4541176
000270 54 36 05 c0 65 af da 3f 1a 29 8b 3a 68 55 85 3f
       -2.081441 1.7084776 0.0010617108 1.0416689
000280 bb 1d 18 3d d5 f8 f7 bf a8 dd f9 3e bf 85 1a 3f
       0.03713773 -1.9372813 0.48801923 0.6036033
000290 e2 d5 2b be ea 9d 56 3f bf cf 71 3e f1 7d 7a 3f
       -0.16780809 0.8383471 0.23614405 0.9784842
0002a0 aa 3a 83 be a7 2e 42 3f 5a 83 12 bf 93 c3 84 bf
       -0.25630695 0.75852436 -0.57231677 -1.0372185
0002b0 1f 5c 0a be c1 08 c8 be f0 43 25 be ef 3d 04 bf
       -0.13511704 -0.3906918 -0.16139197 -0.51657003
0002c0 25 b4 02 c0 02 b3 c0 3e 1c 4f c0 3e c7 b7 11 bf
       -2.0422451 0.37636572 0.37560356 -0.56921047
0002d0 e1 08 65 bf 91 f0 bf 3d 3c 7d 84 3f 9b 3b d0 bd
       -0.89466673 0.09372056 1.0350718 -0.10167619
0002e0 1a a2 1a bf d9 7d 9c bf e7 bb b4 3d fc 90 99 bd
       -0.604036 -1.2225906 0.08824902 -0.07498357
0002f0 f2 2e 9f bf 7b 71 a8 3e bd c9 2b be 9a 37 d7 be
       -1.2436202 0.3289908 -0.16776176 -0.42034608
000300 b2 83 a1 be 3c ca 14 bf 84 96 85 be d5 b5 d1 bf
       -0.31545788 -0.58121085 -0.26091397 -1.6383616
000310 af 67 db 3d 56 19 20 3e 5a 8b 23 bf e1 d8 a2 bf
       0.107131355 0.15634665 -0.6388451 -1.2722436
000320 3e 2a 10 3c d1 30 46 be 30 7e bb be a8 a0 9d bf
       0.008799134 -0.1935456 -0.3661971 -1.2314653
000330 c4 18 46 3e 43 e3 18 bf 8e 0c 60 3f 68 8b 49 bf
       0.19345385 -0.59721774 0.87519157 -0.7872834
000340 72 99 0b be c3 ff 5a be 53 fc 81 3e 6b a6 37 be
       -0.13632753 -0.21386628 0.2538782 -0.17934577
000350 fd 48 75 3e 8e fa f7 3e c9 65 aa 3d 33 87 15 be
       0.23953624 0.48433346 0.08320195 -0.14602356
000360 b7 dd 46 3e f7 ee 38 bf 5e b0 4c 3f 5e 45 9d be
       0.19420515 -0.7223963 0.79956615 -0.30716985
000370 07 d6 f9 3b 78 ea 81 3d 0c 90 57 3d 2d 15 4f 3e
       0.007624391 0.063435495 0.05262761 0.20222922
000380 54 60 57 bf cb f5 ca 3d 27 b4 16 bf 6b ff a9 bf
       -0.8413136 0.099101625 -0.5886864 -1.3281072
000390 53 47 9f bf 62 a4 2b bf 28 b4 fa 3f 86 c5 0e 3f
       -1.2443641 -0.67047703 1.9586229 0.55770147
0003a0 8b 99 0d c0 8c 3d 3d be f2 46 6c 3c ec 69 3b 3f
       -2.2124965 -0.1848051 0.014421212 0.732085
0003b0 cd e9 d1 bf d6 70 11 bf 15 c5 85 3e 5a 09 5d be
       -1.6399475 -0.568128 0.26126924 -0.21585599
0003c0 05 93 11 bf 24 bb 11 3f 8e 57 d2 bb dd c1 d2 3e
       -0.5686496 0.5692618 -0.0064191287 0.4116353
0003d0 04 1a f9 bd a8 e4 6b 3f c0 bd e5 3d fe e3 34 3f
       -0.12163165 0.92145777 0.112178326 0.7066039
0003e0 05 2f 11 be cf 0f 13 3e 6b 27 0e bf 2c 1c d7 3e
       -0.14178093 0.14361499 -0.555289 0.4201368
0003f0 87 aa 13 3f c4 7d 82 3f 71 f5 24 bd 5f 62 c1 bd
       0.5768208 1.0194631 -0.040273134 -0.09442591

_orig_mod.embeddings.day_of_week.embedding.weight f4 [10, 8]
000000 93 9c 39 bf 6c 6e 95 3f f9 63 1e be 7b 81 59 3c
       -0.7250454 1.1674323 -0.15467824 0.013275499
000010 27 5b fe be f9 9c 9b 3f 08 d7 88 be 51 a3 3b bf
       -0.4967892 1.2157279 -0.26726556 -0.73296076
000020 d0 51 1a be 80 6a 11 40 bf af ca bd 2e ba 33 3f
       -0.15070271 2.2721252 -0.09896802 0.7020596
000030 f6 63 49 3f ca 80 b4 bf d8 a8 18 bf 7b 0b 51 bf
       0.78668153 -1.4101803 -0.59632635 -0.8165814
000040 71 f5 a8 be 92 30 ce 3e 76 ec 56 3d dc 37 c4 be
       -0.32999757 0.4027143 0.0524716 -0.38323867
000050 8e 4d 92 bd 03 2b 0c c0 d4 b0 22 3f c4 f6 9e bf
       -0.07143699 -2.1901252 0.6355107 -1.2419057
000060 2f cd 2f bf 2e 42 83 be a2 66 f9 3f de 26 17 bf
       -0.6867246 -0.2563643 1.9484446 -0.5904368
000070 d3 08 af 3f 6e ee 21 be 14 4c 7c 3f 3e 2f 86 bf
       1.3674568 -0.1581361 0.98553586 -1.0483167
000080 9c 43 c6 bf ff df 9b bf 9d 1e 69 bf 83 7c 36 3f
       -1.5489383 -1.2177733 -0.9106234 0.7128374
000090 99 72 80 bf 5e 05 62 3f a8 2e 5d bf 67 b1 d7 be
       -1.0034972 0.8828944 -0.86399317 -0.42127535
0000a0 f1 76 81 3f 92 81 db 3f bc 5a 20 bf 07 3b 39 3f
       1.0114423 1.7148917 -0.6263845 0.72355694
0000b0 cb 98 17 3f fa be c3 be cc 01 12 3f a4 1b 67 3e
       0.5921752 -0.3823164 0.5703399 0.22569138
0000c0 bd 69 c5 3d 56 8a a3 bf b0 33 1d 3f 6e 63 ed 3f
       0.096393086 -1.2776592 0.61406994 1.8545969
0000d0 cd d9 d1 be 92 89 07 3f 4f 23 6f 3d 4e 93 d2 3e
       -0.4098648 0.5294429 0.058383282 0.4112801
0000e0 34 47 b9 35 bf 41 52 b9 8d d6 ee bd f8 9c 84 3b
       1.3804297e-06 -0.00020051653 -0.11662016 0.0040470324
0000f0 3e 79 0e ab 7e a9 a6 a9 ab a5 27 bd 2c 2b a1 3c
       -5.061679e-13 -7.401283e-14 -0.040929478 0.019673906
000100 18 4a 1e 37 be c8 25 bf 38 c5 a6 ad b1 5d ac 3d
       9.434785e-06 -0.64759433 -1.8959598e-11 0.08416308
000110 81 d1 8b 31 b9 18 45 bc cb 70 1b b6 7d 91 d9 ac
       4.0692503e-09 -0.01202982 -2.3162454e-06 -6.1836634e-12
000120 d6 b8 01 bf 13 cd 3e ab cd f3 46 3f 0a 07 d4 2f
       -0.5067266 -6.778616e-13 0.7771576 3.8567577e-10
000130 83 ba 72 3f 05 9b bd 3b 19 1f 1a 3b af 60 66 3d
       0.94815844 0.005786302 0.002351707 0.05624455

_orig_mod.embeddings.hour.embedding.weight f4 [30, 16]
000000 f4 a8 8d be c1 ae 1d 3e 08 4b 00 3e fe b5 15 3e
       -0.27667964 0.15398695 0.12528622 0.14620206
000010 66 20 68 be 19 85 e1 3e ad 9d 9f bd b8 25 0b 3e
       -0.22668609 0.44046858 -0.07793746 0.13588607
000020 1a 6d f8 3f 67 b8 a8 be 5d 03 a8 3e 3d ed f8 3e
       1.9408295 -0.32953188 0.32815066 0.48618498
000030 ad ec 93 be a6 73 1c 3f dd a1 a6 bf 0a 89 f3 3e
       -0.28891507 0.61113966 -1.3018147 0.4756549
000040 a0 af 81 be ff 5d 24 3f 8c 3d 88 bd 54 15 c8 bd
       -0.25329304 0.64205927 -0.06652364 -0.09769693
000050 e2 98 03 bf 2b 54 87 3f bf 54 7f bf cd 7f 54 bf
       -0.51405156 1.0572561 -0.9973869 -0.8300751
000060 b4 1b c6 3f c2 3d 70 bc bb 6e 0e bf b6 47 4d 3c
       1.5477204 -0.014663162 -0.5563771 0.012529304
000070 12 b9 80 bf 70 d0 de be a6 2f 6e 3e c6 fa b9 3e
       -1.0056479 -0.435184 0.23260364 0.36324137
000080 4b 6d 83 3f 3b 79 8b be 2e 98 a0 bd ab 42 38 3e
       1.0267729 -0.2724093 -0.07841526 0.17994182
000090 88 c7 da 3c 45 d2 cc 3c e0 2c 04 be 18 69 1c 3f
       0.026706472 0.025002608 -0.12907743 0.6109786
0000a0 33 04 0e 3f 90 e3 bf bd 9b 14 e8 be 7c 13 67 bd
       0.5547516 -0.09369576 -0.4532822 -0.056415066
0000b0 84 99 00 3d d8 9d 55 3e 10 3f 3d be 11 3f a4 3e
       0.031396404 0.20860994 -0.18481088 0.32079366
0000c0 81 1e 01 bd 64 f9 ff 3d 63 e2 de 3e 66 ce d2 be
       -0.03152323 0.12498739 0.43532094 -0.41173095
0000d0 d8 72 6f bf cb 5e 3e 3f ee a3 bf be a2 e4 e7 be
       -0.9353461 0.7436339 -0.37429756 -0.4529162
0000e0 58 bf 91 3e 7e 40 47 3f c2 c1 90 3e 0d 4c ac 3d
       0.28466296 0.7783278 0.28272825 0.08412943
0000f0 08 36 96 3d db e1 77 be e3 a7 8a 3d 0f 52 40 3f
       0.073345244 -0.24207251 0.06770303 0.7512521
000100 8c 61 44 3f e6 94 7d 3e 1a 68 c3 be 90 76 1c bf
       0.76711345 0.24763831 -0.3816536 -0.6111841
000110 c9 5b bc 3e 9d 68 15 3f 6b d4 23 be 2f c0 17 bd
       0.36788777 0.5836275 -0.15999 -0.037048515
000120 f8 c5 b5 be d3 69 f1 be 7d 60 90 bd bd 24 0e bf
       -0.355026 -0.4715105 -0.07049654 -0.5552481
000130 10 b2 6e 3f e0 ef 08 3e e6 c7 df be e9 eb 00 bf
       0.9324045 0.13372755 -0.43707198 -0.5035997
000140 ef bd 84 3f 33 8c 05 bf aa 01 85 3f 08 4b de 3e
       1.0370463 -0.5216705 1.0391133 0.4341662
000150 b4 7b 6b 3e 53 96 83 bf 91 fc 30 bf 11 5f 8b 3e
       0.22996408 -1.028025 -0.69135386 0.27220967
000160 f2 88 3a be 20 b3 db 3f e9 f3 b4 3f 3c a6 b7 bf
       -0.18216303 1.716404 1.4136935 -1.4347606
000170 75 86 04 be f2 a1 15 be fe 96 2e bf 9e f8 d3 be
       -0.12941916 -0.14612558 -0.68199146 -0.41400617
000180 45 c9 36 3f 1a 54 8d bf 0d 19 22 be 24 6d ab bf
       0.7140086 -1.1041291 -0.15829869 -1.3392682
000190 a5 18 ea 3c bc 24 91 bf da 4c c4 be 2d b9 41 3f
       0.028576205 -1.1339335 -0.38339883 0.7567318
0001a0 45 78 6b be 6b da 14 bf e8 0f 75 3f 93 e0 18 3e
       -0.22995098 -0.5814578 0.95727396 0.14929418
0001b0 6f 57 6b bf cc 7c 84 be a8 7e a0 3f d1 72 a7 bd
       -0.9193029 -0.25876462 1.2538652 -0.08176196
0001c0 5a 18 74 3f 2e c5 f1 3f ae 00 61 3f 4f f6 01 bf
       0.9534966 1.88883 0.8789166 -0.5076646
0001d0 9b 24 1e 3f a7 a1 93 bf 69 67 b3 3e bf 7f b5 be
       0.61774606 -1.1533707 0.35039833 -0.35449025
0001e0 e8 f3 80 be 93 8a 58 3e c3 aa 02 3d 3e cc ca 3f
       -0.25186086 0.21146612 0.031901132 1.584358
0001f0 c4 2f 3f 3f b9 24 9f 3f 67 ae c2 be 03 df 9a be
       0.7468226 1.2433082 -0.38023683 -0.3024827
000200 1c 03 55 bd 32 86 91 be ef 86 84 3e 10 b6 35 3f
       -0.05200492 -0.28422695 0.25884196 0.7098093
000210 d2 7e 7b bf 33 d1 96 3f bd cf fa 3d a3 1a 97 3f
       -0.9824039 1.1782593 0.12246654 1.1805004
000220 9c 00 16 bf 53 e4 6c be fd c4 b5 3e 62 95 d9 bb
       -0.5859468 -0.23133974 0.35501853 -0.0066401223
000230 85 83 da 3c b9 ea 2e 3f e6 46 9a 3f 8e b9 d0 bf
       0.026674042 0.6832691 1.2052886 -1.6306627
000240 c0 d2 3c bd d6 ec de 3e 05 bd 41 bf c6 bf e0 be
       -0.046099424 0.43540066 -0.75679046 -0.43896312
000250 de ea 11 3e b3 d9 a2 3f cc d5 6c 3e 96 8c 92 3d
       0.14249751 1.2722687 0.23128432 0.07155721
000260 0e 48 61 bf cf 8d ca be 4a 85 83 39 7c d7 d4 be
       -0.8800057 -0.39561316 0.00025085575 -0.41570652
000270 0a e6 32 bf e1 e7 b9 3e ae 95 c2 3f 73 cd 14 bf
       -0.6988226 0.36309722 1.5201929 -0.5812599
000280 97 4c ac be b8 ef a4 bd 72 e9 5d bf 72 38 9c be
       -0.33652183 -0.08053535 -0.86684334 -0.30511814
000290 a6 9c 2f 3e 25 14 20 3f 3c b7 68 bf 89 2d a2 bf
       0.171496 0.6253074 -0.90904593 -1.2670146
0002a0 4f 0e 14 bf 52 da 98 3e 00 7e 97 bd c3 0c 0b 40
       -0.57834333 0.29854065 -0.073970795 2.172654
0002b0 87 9b f1 be ae 88 a6 bc a2 46 fa 3e 96 4e 37 be
       -0.4718897 -0.020328846 0.48882014 -0.17901072
0002c0 7d 09 b7 bd 02 68 8b 3e 39 3c cc 3f 08 9c 11 3f
       -0.089373566 0.2722779 1.5955878 0.5687871
0002d0 5b 99 87 3f be 3a 5e 3f 5a 81 d5 be ce b5 4a bf
       1.0593675 0.86808383 -0.4170025 -0.7918366
0002e0 b8 03 60 3f 65 cf 6f 3e 71 fc 42 bd 7b df 0a 40
       0.87505674 0.23418958 -0.047604028 2.1698902
0002f0 76 c9 8e 3e 39 95 31 3f 4d e7 df be 42 4d 6b be
       0.27888077 0.6936832 -0.43731156 -0.2297869
000300 7f c1 8c bf d2 1f 2b 3f f8 d2 56 3f 56 09 5f bf
       -1.099655 0.6684543 0.8391566 -0.8712362
000310 d7 d3 e9 be c9 fa f9 be 34 85 1b 3e c7 22 a7 bf
       -0.45669433 -0.48824146 0.15187532 -1.3057488
000320 23 58 2d bf d1 f5 04 3f 30 74 53 3f 4f 91 6c 3f
       -0.6771261 0.51937586 0.82599163 0.92409223
000330 5f a3 91 3e 8d a2 ad 3f 7f e2 06 3f 1d 0c fb be
       0.28444955 1.3565232 0.52689356 -0.4903268
000340 39 5e 4d bf 60 d8 58 be 6d 1f cc 3e 21 ac 74 bf
       -0.802219 -0.2117629 0.39867726 -0.9557515
000350 e6 11 90 3d 90 45 0c bf c8 df e6 3e 7b 0b 05 be
       0.07034664 -0.54793644 0.45092607 -0.1299266
000360 08 3d 21 3f aa 54 44 3e 41 a5 37 3f ff fd d5 3c
       0.6298375 0.19172922 0.7173653 0.026122091
000370 6f 9f 47 be d0 5a 65 3e ea 28 d4 3e a8 98 4a bf
       -0.19494413 0.22397923 0.41437465 -0.79139185
000380 fa 31 ac 3f 07 04 b7 bf cc 1c 24 bf 6e 5f 0f 3f
       1.3452752 -1.4298104 -0.6410644 0.5600499
000390 0c 83 f3 be f1 c9 75 be 93 ed b6 be ee 1a 5e 3e
       -0.47560918 -0.24002816 -0.3572813 0.2168996
0003a0 10 f8 33 3f f3 f7 47 3e 3b 69 9d 3e 04 c0 36 bf
       0.7030039 0.19528179 0.30744347 -0.7138674
0003b0 4f 20 5e 3f 0b 28 2a 3f fc 91 cd 3e 7d 93 54 bf
       0.8676805 0.6646735 0.4015044 -0.8303755
0003c0 a9 dc 39 be dc cc 20 3f 5f 86 cf be f8 b5 e4 3e
       -0.18150581 0.6281259 -0.40532205 0.4467008
0003d0 ec 83 76 be 4e 6b 2f 3d 31 d3 09 3e 4b b4 30 3f
       -0.24073762 0.042826943 0.1345947 0.69025105
0003e0 c2 f1 b3 3d c4 ef aa 3f 46 45 01 3f 0a 3f 87 bf
       0.08786346 1.3354421 0.5049633 -1.0566113
0003f0 12 6b 8a bf d6 90 e3 3e 3b be 53 3c 1f 84 96 3e
       -1.0813925 0.4444644 0.012923772 0.29397675

_orig_mod.dense_proj.weight f4 [64, 113]
000000 a7 ba b9 3c 87 4e cd bd 04 22 ea 3c 81 52 f8 bd
       0.02267201 -0.100247435 0.028580673 -0.12125111
000010 46 84 ce bd 50 f8 88 bd b3 07 3c 3d c8 f3 b4 3d
       -0.10083823 -0.06687987 0.04590578 0.0883556
000020 54 f3 92 3b 4e 20 20 3d a3 bb 58 bd c8 61 b5 bd
       0.0044845734 0.03909331 -0.05291332 -0.08856541
000030 b6 f5 bf 3a 33 b5 7c 3c 8c 2f 68 bc c4 a9 8d 3d
       0.0014645371 0.015424061 -0.014171492 0.06917146
000040 5e 12 09 bc 90 56 90 bd c4 73 8a bd 51 a6 33 3c
       -0.0083661955 -0.070477605 -0.06760362 0.010964946
000050 4b 32 cd 3c 55 7c ac bb 3c 7c 17 bb 88 b0 94 bd
       0.025048396 -0.005263845 -0.002311482 -0.07260233
000060 fd 4a 96 bd 3f 33 9a 3d 41 d2 72 bd f1 eb 86 bd
       -0.07338522 0.07529306 -0.059282545 -0.06587971
000070 c7 d3 c1 3c c5 7a 03 3d a4 e2 86 3d 9b c7 87 bd
       0.023660554 0.032099504 0.06586197 -0.066298686
000080 23 3a 82 bd f5 bb d6 bc 78 34 8a 3c dc be 83 3d
       -0.06358745 -0.026212672 0.016870722 0.06432888
000090 fb d0 a0 3d 83 13 98 3d 75 fe 9b 3d 8a 11 6b 3d
       0.0785236 0.074255966 0.07616893 0.057389773
0000a0 b0 c3 86 3c 49 e4 b0 bd 48 91 e1 bc 19 da 0e 3d
       0.016450733 -0.08637292 -0.027535096 0.034875963
0000b0 d4 b0 85 3c 38 30 10 be 77 22 fb bc db 25 9e bd
       0.01631967 -0.14080894 -0.030656083 -0.07722064
0000c0 9a 25 ce bd da ca f9 bd 6c 51 05 3d 99 77 1c be
       -0.10065766 -0.12196894 0.032548353 -0.15279998
0000d0 6d 70 5d bc 13 6f 1b bc db b4 cb bb ad d2 0a 3b
       -0.013515574 -0.009486931 -0.006216628 0.0021182701
0000e0 59 54 a6 bd 26 e7 ad 3c 1a b5 fa 3b b0 6a e8 3c
       -0.08121557 0.021228384 0.0076509835 0.028371185
0000f0 79 ae e1 3c 71 8f 72 3d c1 a8 92 bd 0b e4 29 bd
       0.027549015 0.059218828 -0.071610935 -0.041477244
000100 ce 8c 98 3d e2 57 95 bd 24 3f 87 3c 6c 3b 07 bd
       0.07448731 -0.07292153 0.0165096 -0.033015653
000110 12 42 be bd c7 b3 43 3c ab 4a 5b 3d 49 56 09 3d
       -0.09289946 0.011944718 0.053538006 0.033529554
000120 58 9d bf 3d fb 57 bd 3c 63 03 97 bd f7 03 b7 3b
       0.09356183 0.023113241 -0.07373693 0.0055851894
000130 8d 9a 12 be e5 34 03 3d 0a 0a 12 be 7c 71 60 bc
       -0.14316769 0.032032866 -0.14261642 -0.013698932
000140 ce a9 40 bc ef 46 ac bd f4 32 4d 3b e5 99 09 bd
       -0.011759235 -0.08411967 0.0031310888 -0.03359403
000150 76 1b ba bd b8 c7 31 3c 3a 1c a7 bd 31 30 43 3c
       -0.09087269 0.010850839 -0.08159681 0.011913345
000160 17 ad 19 3d e5 75 9d 3d ec d5 98 3d 81 be a9 bd
       0.037518587 0.07688502 0.07462677 -0.08288289
000170 57 f9 6b 3d 53 db 04 3d 8a e5 51 3d 9a 95 7e 3d
       0.057610836 0.032435726 0.051244296 0.06215439
000180 6e dd 76 3d 23 aa b6 bc 12 7a 8a bd 9e 80 ea bc
       0.060269766 -0.022297924 -0.06761564 -0.028625783
000190 1f ce 5a bd 19 f7 8e 3d 3e fc 57 3d c8 40 11 3d
       -0.05341923 0.06980724 0.05273079 0.03546217
0001a0 20 b1 8d bb 5d e3 09 bd fe 61 76 3d f3 36 07 3d
       -0.0043240935 -0.033664096 0.060152046 0.033011388
0001b0 07 40 71 3d 1b 77 54 bd 18 8a a3 3d 9e 63 42 bd
       0.05889895 -0.0518714 0.07985324 -0.047458284
0001c0 54 c3 0d 3d 96 97 43 bd 34 4c 74 3c 14 93 eb ba
       0.034610108 -0.047751985 0.014910746 -0.001797291
0001d0 bc 59 cb 3d 5e 10 bd bd 48 cb 59 3d 66 96 85 bd
       0.09929225 -0.092316374 0.05317238 -0.06522827
0001e0 79 30 28 bd 34 b9 94 bc 82 e3 ac 3d b2 5e b0 bd
       -0.041061852 -0.018154718 0.08441831 -0.08611812
0001f0 1f da 04 bd fd c7 d5 3c f2 f8 66 3c 4c 9a 8e bd
       -0.03243458 0.026096338 0.014097439 -0.069630235
000200 92 67 09 bd db 9f 34 bd 99 9f 07 3d 81 94 1c bd
       -0.033546038 -0.044097763 0.03311119 -0.03822756
000210 7d 48 c4 3c 32 63 84 3d bc 59 26 3d eb a6 f7 bc
       0.023960346 0.064642325 0.04061292 -0.03023096
000220 96 44 02 3d 89 8d be bd 10 8f c0 3b 8c 1c 8b 3d
       0.03180369 -0.093043394 0.0058764294 0.06792554
000230 c0 fd b5 bc b8 63 23 3d 8d 1a 89 3c 2f 1e 74 bd
       -0.022215724 0.03989002 0.016736293 -0.059599098
000240 e9 04 10 bd 76 1c db 3b 86 6a ef 3c 4e b2 57 bd
       -0.035160933 0.0066867424 0.029225599 -0.05266028
000250 54 4b 97 3d 7d 3e 6b 3d 9b 13 74 3d 22 ff 0b 3e
       0.073874146 0.05743264 0.05958901 0.13671544
000260 9b cf a3 bd 9e bb 6d 3d a3 4b 5a bd af 62 70 bc
       -0.07998582 0.058040254 -0.05329479 -0.0146719655
000270 dc 37 9a 3d 35 83 15 bd 2c 5c bf 3d 7c 3b e7 bc
       0.075301856 -0.036502082 0.09343752 -0.028226607
000280 db d2 00 bd 98 82 2d 3c a4 7e 4e 3d 05 0d 0c 3d
       -0.031451087 0.010590218 0.050413743 0.034192104
000290 ed e7 38 3c b6 7b 83 bd 18 6e 91 bd a1 3b 04 3d
       0.011285764 -0.0642008 -0.07101077 0.03228343
0002a0 55 99 df 3d 48 16 85 bd 68 15 ba bc a2 85 12 3d
       0.10917918 -0.064983904 -0.022715285 0.035771973
0002b0 4d c0 98 bd d5 97 33 3c b3 e5 47 bd 20 73 67 3c
       -0.074585535 0.010961493 -0.048803043 0.014126569
0002c0 3b b8 9d 3d f1 bf cd 3d f7 07 a1 3c f4 0d 54 bb
       0.07701155 0.100463755 0.019657118 -0.003235695
0002d0 dd 8d 1c 3c 8a 04 15 3d 0c be 46 3d d2 d3 1a 3d
       0.009555307 0.036381282 0.048521087 0.037799664
0002e0 a4 be b6 bc 18 dd 50 3d 49 42 af 3c c7 9d 69 bc
       -0.022307701 0.0509921 0.021393912 -0.014258808
0002f0 55 02 8c 3a 87 80 3f bd e4 44 95 3d d4 d1 f4 bc
       0.0010681847 -0.046753433 0.072885305 -0.02988521
000300 3c 22 1b bc 67 79 8a 3d ec 01 e6 3c f2 1b 1b 3d
       -0.009468611 0.06761437 0.028077088 0.037868448
000310 97 24 5f 3d eb 87 de 3a 96 84 8d 3d 2d aa ef 3b
       0.054478254 0.0016977763 0.069100544 0.0073139877
000320 c9 cf 20 bc bf 21 99 bb 54 5a 37 bd c1 d4 35 bd
       -0.009815165 -0.0046732123 -0.044763878 -0.04439235
000330 32 78 2c 3d ab d3 88 3d 68 6e 00 bc c0 21 00 bd
       0.042106815 0.066809975 -0.007838823 -0.031282187
000340 62 ae 18 3d 45 43 8a 3d 24 2d 1a bd e6 ee 16 bd
       0.03727568 0.06751112 -0.037640706 -0.036848925
000350 03 97 ca 3c e0 68 77 3d d3 d2 77 3d be b2 ab 3d
       0.024730211 0.06040275 0.060503792 0.08383702
000360 c4 81 b5 3b 81 45 59 bd 0b cf ab bc 2d 91 8d 3c
       0.005539151 -0.0530448 -0.02097275 0.01728114
000370 b9 12 82 bd 63 ba 9d bd 8a 6e fa bb d7 c7 c1 3b
       -0.06351227 -0.07701566 -0.007642572 0.0059137153
000380 e9 08 02 bd 5a ba 6c 3d 71 33 b7 3c 9c 73 5d 3b
       -0.03174678 0.057794906 0.022363396 0.0033790832
000390 4b e3 3a bd 64 3d 36 3e ed 12 c1 3d 6c 13 d8 3d
       -0.04562692 0.17796856 0.09427438 0.105505794
0003a0 6d 16 fc bd 63 64 26 bd fd 0a b2 bd 12 51 17 3d
       -0.12308965 -0.04062308 -0.08693502 0.03694255
0003b0 ae 3b 4b bc 05 14 8a bb 47 36 49 3b a1 24 83 bd
       -0.012404365 -0.0042138123 0.0030702518 -0.06403471
0003c0 75 d2 27 bc 8a 51 ba bc 8a ea 14 3d 10 ae 4c bd
       -0.010243048 -0.022743959 0.036356486 -0.049970686
0003d0 46 36 9d 3d c7 3a a7 bd 98 c9 38 bd e2 7c bf 3d
       0.076763675 -0.08165508 -0.04511413 0.093499914
0003e0 16 63 85 bd 2c dd 55 3b 0d 82 43 3d 21 c3 12 3d
       -0.0651304 0.003263305 0.047731448 0.03583062
0003f0 5c 2b 2b 3c 11 a0 11 bd a8 7f be bc 82 f1 5b 3d
       0.010447349 -0.03555304 -0.02325423 0.053697117

_orig_mod.dense_proj.bias f4 [64]
000000 73 8e c7 3d 7e 55 ae bc ad 2b a9 3c 73 7e 83 3d
       0.09743967 -0.021281 0.020650709 0.06420603
000010 c8 85 fa bc 58 07 54 3c 51 29 03 be 8a 08 9a 3d
       -0.03058137 0.012941204 -0.1280873 0.0752116
000020 65 23 2b 3d d1 fd 00 3c d7 2f d9 3d 2c 0e 8f ba
       0.0417818 0.007873015 0.10604828 -0.0010914258
000030 1e e9 97 bd 34 be 6c 3d bc 26 e6 3d 6d 73 c2 3d
       -0.074175104 0.05779858 0.11237857 0.09494672
000040 a3 bc 13 3d 46 ca ab bd 36 d2 19 bd c9 04 3a 3d
       0.03606857 -0.0838819 -0.03755399 0.04541472
000050 c1 a6 9a 3d 1a 2b 6c 3d 67 2d c4 39 7a fe 5d 3d
       0.07551337 0.057658292 0.0003741786 0.054197766
000060 53 d5 a3 bd d6 60 3a bd 16 d8 a4 3d a4 92 98 bd
       -0.07999673 -0.045502506 0.080490276 -0.074498445
000070 44 07 e8 3d fe 95 84 3c b0 20 8d 3d 24 b9 82 bd
       0.11329511 0.016184803 0.06891 -0.06382969
000080 22 2b c8 bd ac 90 53 3d 72 b2 90 3c 57 c5 a3 bc
       -0.09773852 0.05165164 0.017663214 -0.01999156
000090 1f 60 44 bd 9e 4c d4 bd 17 85 0d 3c 89 40 35 bd
       -0.04794323 -0.10366176 0.008637688 -0.044251
0000a0 21 a2 bf bd ba 30 43 bd 58 45 f3 bd 9d 94 22 bd
       -0.093570955 -0.04765389 -0.11878461 -0.03969251
0000b0 58 4f 40 3d 7f 2a db bd 9c 9c 41 bd d4 75 01 3e
       0.046950668 -0.10701465 -0.047268495 0.12642604
0000c0 e3 9e 76 bd bf db a4 3d 7a 55 b5 3c 42 b1 fd bb
       -0.06021012 0.08049726 0.022135485 -0.007742078
0000d0 55 ac e9 3c 6a bf bf 3d d6 ba 7a 3d c9 79 92 3a
       0.028524557 0.09362681 0.061213337 0.0011175211
0000e0 06 2f 86 bd 73 a3 2a 3d 71 b2 53 bd 0a 8d 5d 3d
       -0.06551938 0.041659784 -0.051683847 0.054089583
0000f0 4b bc e2 bd ea 97 90 bd 2e 75 56 3d 6b 15 e6 3d
       -0.1107107 -0.07060225 0.052357845 0.11234554

_orig_mod.shared_mlp.0.weight f4 [128, 120]
000000 fb 32 38 bd e5 7a 74 3c d0 5d c7 3d 7f a4 ab bc
       -0.044970494 0.014921878 0.0973469 -0.020952461
000010 53 87 5e bb f4 f5 03 bb d2 9b fc bb dd 5c 7d 3d
       -0.0033955171 -0.0020135613 -0.007709005 0.06185614
000020 06 d9 a7 3d 79 93 70 3b a1 4a ea 3d a5 03 86 bd
       0.08195691 0.0036708994 0.114400156 -0.06543664
000030 48 0a 28 bc 85 c1 24 bd 51 af ac 3d b2 df 90 bd
       -0.0102563575 -0.040223617 0.084318765 -0.070739165
000040 8c 1e 1b be 68 2b a2 bc 76 38 96 bd c3 37 80 bb
       -0.15148371 -0.019796088 -0.07334988 -0.0039128973
000050 52 67 82 bb 07 da 63 bc 66 b7 4c bd ee 18 ba bd
       -0.003979602 -0.013906962 -0.04997959 -0.09086786
000060 54 38 3d bd 91 a8 af 3d a4 0b 90 bb 3c ca 65 3d
       -0.046196297 0.08577073 -0.004395919 0.05610107
000070 d0 7d 06 bb a4 37 30 be e2 04 8a bc 95 e7 02 bd
       -0.0020521767 -0.17208725 -0.016848031 -0.031959135
000080 d5 f2 27 3c 31 9b 08 bd 3d 9d fe bc 96 1d d1 bd
       0.010250767 -0.033351127 -0.031080836 -0.10210721
000090 aa 30 ee bb 91 3c 59 bc a9 c6 ed bd 5b bc 83 3d
       -0.007268985 -0.013259069 -0.11610157 0.0643241
0000a0 5f 55 8a 3b fd f7 e8 3c 73 95 e0 3c a8 f7 bb 3c
       0.004221603 0.028438563 0.027415013 0.02294524
0000b0 90 3c c7 3b 56 16 fa bc e5 98 5f 3b cb d9 81 bc
       0.0060802177 -0.030528229 0.0034118232 -0.015850922
0000c0 96 50 74 bb 99 6d 45 bd a4 de 8c bd 83 26 08 bd
       -0.0037279478 -0.048200224 -0.06878403 -0.033239853
0000d0 c6 00 2c 3d f6 e9 13 bd ec 6d 44 bd 38 36 b1 3d
       0.041992925 -0.036111794 -0.047956392 0.086529195
0000e0 61 02 bb bd a9 39 9d 3d 4a 0a d7 bb cb f3 e1 bc
       -0.09131313 0.076770134 -0.006562506 -0.02758207
0000f0 6c 58 79 3d 4e 97 e2 bb 96 9f 10 3d c2 3f c9 bd
       0.06087534 -0.0069150096 0.035308443 -0.09826614
000100 57 68 ec bd 62 35 ad bc 4f 20 2e 3d ea 87 92 bc
       -0.11543339 -0.021143619 0.04251128 -0.017887075
000110 8e 10 a5 3d 83 97 65 3d 39 a1 e2 bc 1c 37 7c bd
       0.08059798 0.056052696 -0.027664768 -0.061575994
000120 35 d6 38 3d f2 05 78 bc 97 2a 0c bc d6 a6 98 3d
       0.04512616 -0.015138136 -0.008555076 0.074536964
000130 45 0f 02 be ec 48 8f bd 1a 0d e3 bc ae 5e 16 bd
       -0.12701137 -0.069963306 -0.027716208 -0.036711387
000140 af f9 35 3d d6 89 af 3c 3c e0 06 3d c4 45 3c 3d
       0.04442757 0.02142803 0.03292869 0.04596497
000150 c2 d7 87 3d 15 4d 25 bc e5 98 06 bb 1c 40 8f 3c
       0.066329494 -0.010089179 -0.002053791 0.017486624
000160 b3 be ac bd 01 30 34 3d 2e fb cf 3c ad 07 69 3c
       -0.084348105 0.043991093 0.025388326 0.014223021
000170 51 cf 5f 3d d8 97 e4 bb 8e 1a cc 3c 29 98 16 bc
       0.05464107 -0.006976109 0.024915006 -0.009191551
000180 1d 31 2c 3d 8d 69 e5 3c 25 7e ce 3d 08 c2 f0 3c
       0.042039026 0.028004432 0.10082654 0.029389396
000190 74 b3 36 3c ee 99 3e 3d 54 6c c9 3d 23 32 48 bd
       0.011151183 0.046533518 0.09835115 -0.04887594
0001a0 c8 f2 69 3c da 80 a9 3d 1f 2a 44 bd ae e0 09 3d
       0.014279075 0.082765296 -0.047891732 0.033661537
0001b0 2f 58 de 3c d0 8f b6 3c 72 11 95 3d c4 09 f2 bb
       0.027141659 0.022285372 0.07278718 -0.007386418
0001c0 46 cc 3f bd aa 9c 18 3d bd 53 9a bd e6 4c 42 3d
       -0.04682567 0.03725878 -0.07535503 0.047436617
0001d0 3d c5 99 3d da c1 bc bc fe e7 66 bb f4 e6 21 bd
       0.07508323 -0.023041654 -0.0035233493 -0.039526895
0001e0 e6 bc 1a 3c 27 c1 1b 3d aa 7c 21 bd ec f1 b0 bd
       0.009444451 0.038026 -0.03942553 -0.08639893
0001f0 b1 1b 02 bd 85 67 90 bb b3 bf e7 bd 5c 04 ef bc
       -0.03176469 -0.0044068717 -0.113158606 -0.029176883
000200 18 ae 1f bd 4a 14 ee 3c 59 e8 32 bd b9 ac 58 3d
       -0.038984388 0.029062409 -0.043678615 0.052899096
000210 5b 43 fd bd 44 bd 7b 3d e1 71 87 bc b7 11 30 bd
       -0.12366363 0.061459795 -0.016533794 -0.042985644
000220 06 d4 e3 3c 9f fa 32 bc b2 5f 2d bd 37 81 78 bb
       0.027811062 -0.010924011 -0.04232759 -0.0037918815
000230 00 a9 26 3b d3 08 32 3c d4 e9 89 bd 06 d1 c8 3d
       0.0025430322 0.010866362 -0.06734052 0.09805493
000240 ac 8d 82 3d 57 c2 67 3c 3c 2a cb 3d d8 41 7f 3d
       0.06374678 0.014145455 0.09920165 0.062318653
000250 39 96 fb bb 24 69 b4 bd 6f a6 32 bd 92 12 c6 bb
       -0.00767782 -0.088091165 -0.043615755 -0.006044694
000260 a5 c7 82 3d 13 49 be bc ea 45 5f bc 93 9f e5 bc
       0.063857354 -0.023228204 -0.013627509 -0.028030192
000270 a2 89 fc bc 96 7c 8d 3c a7 e9 ac bc 02 5e ff 3d
       -0.030827347 0.017271321 -0.021107508 0.124691024
000280 84 6c 00 bd 20 b3 b2 bd 80 4e 19 3d 0c e0 68 3c
       -0.03135349 -0.08725572 0.03742838 0.014213573
000290 f4 5c fb bc 32 20 47 bd b2 63 4f 3d 63 c5 b1 bd
       -0.030683972 -0.04861469 0.050632186 -0.08680227
0002a0 11 fe 15 3c 88 ac 97 bd 5b ab 92 bd 92 0f b4 bd
       0.009154812 -0.074059546 -0.0716159 -0.08792032
0002b0 e7 12 90 bb 9b 00 a5 bd bb aa e4 bc 9a ed df 3d
       -0.0043967846 -0.08056756 -0.027913442 0.10933991
0002c0 c8 41 a3 bd e5 9b 1d bd 51 87 df bc 9f 12 c4 bb
       -0.07971531 -0.03847875 -0.027286204 -0.005983665
0002d0 55 80 bc 3c 20 dd 18 3d 66 4e 2e bd 73 e4 cb 3c
       0.023010412 0.037320256 -0.042555235 0.024889207
0002e0 57 2a 66 bb 3c fa c5 3d 70 ab 8f bd 4d ac 79 3c
       -0.0035120451 0.09666869 -0.07015121 0.015238834
0002f0 cb cb 5f 3c ab 26 1b 3d 80 e7 3c bd 9c 60 aa bc
       0.013659428 0.037878674 -0.046119213 -0.02079802
000300 bc 84 1d 3c 79 fd 4e bc a6 63 c9 3c e4 7a 1b 3c
       0.009614166 -0.012633675 0.024583649 0.009489749
000310 2a af b8 bc e5 c7 5f 3d 46 d4 1c bd df 5f b8 bc
       -0.022544462 0.054633994 -0.038288377 -0.022506652
000320 7e b0 0a bd 71 d8 3a bd c1 14 da bd 74 1d 8d bc
       -0.033859722 -0.04561657 -0.1064849 -0.017225958
000330 9f 00 df bb 5f b0 aa 3b 89 a8 e8 bc 46 f9 29 3d
       -0.006805494 0.0052090134 -0.028400676 0.04149749
000340 18 03 50 3d 76 30 aa 3c 13 a7 13 bd a9 fd 99 3c
       0.0507842 0.020775061 -0.036048006 0.018797712
000350 c5 d3 17 3d 02 5c 1f bd 90 53 1d bd 3a 1c b6 3b
       0.037067194 -0.038906105 -0.03840977 0.005557564
000360 51 df 94 3d 21 10 9a 3d 9b 69 92 bc e8 5f 1b bc
       0.07269157 0.075226076 -0.017872622 -0.009483315
000370 f6 7a b5 3c 16 4a 1d bd ca 61 8f 3c 16 bb 4d 3d
       0.022153359 -0.038400732 0.017502684 0.050227247
000380 ea 26 4f 3d 6f 9e e6 3c 2b ee b5 bd 2e fd ab bc
       0.05057422 0.028151719 -0.088833176 -0.020994749
000390 ac be c1 3c df 8d e2 bc ab 7f 99 3c 0e 01 17 3d
       0.02365049 -0.02765554 0.018737635 0.03686624
0003a0 b0 bc 0a 3a 73 c0 58 3d 16 cc a3 bc 1e 82 c2 bc
       0.0005292399 0.05291791 -0.019994777 -0.023743685
0003b0 25 b6 14 3d fb bf 92 bc 12 8e 1b bd cc 79 ea 3c
       0.03630652 -0.017913809 -0.037977286 0.02862253
0003c0 ec 06 ba 3c bb c3 db b9 98 d5 04 bd 9b 49 71 3d
       0.022708379 -0.00041916766 -0.03243026 0.058908086
0003d0 74 8f 83 bc ac fc fb 3c d8 01 96 bc c9 8c b6 bc
       -0.016059615 0.030760132 -0.018311426 -0.022283928
0003e0 e6 73 4e bd fe 1d 0e 3d 62 ca c2 bd 55 c6 00 3c
       -0.050403498 0.03469657 -0.09511258 0.007859786
0003f0 cf 2b a4 bc 5e 3f 84 bd 69 da d5 3c 1b 28 61 3d
       -0.02004042 -0.06457399 0.026105123 0.05496989

_orig_mod.shared_mlp.0.bias f4 [128]
000000 b3 c1 fb bd 66 3e cc bd fb 7e ef ba 64 12 00 3e
       -0.122928046 -0.09972839 -0.0018272096 0.12507015
000010 5f 02 0d bd fc f3 e7 3d 23 60 a1 3c bc 2b 9b bc
       -0.03442609 0.11325833 0.019699162 -0.018941753
000020 0a e7 a5 3c 01 9a 7d bd b6 0a fc 3d 52 fd ed 3d
       0.02025177 -0.061914448 0.123067304 0.11620583
000030 da 45 db 3d 8e da 92 3b b4 80 d7 bc 8a af a1 3b
       0.107066825 0.00448162 -0.026306488 0.004934256
000040 43 96 db 3d 60 62 1b bd 74 c0 00 bd 6e 38 92 3d
       0.107220195 -0.037935615 -0.031433538 0.07139669
000050 84 72 0a 3c e4 8f 20 bd a2 ee 93 3d 53 7e 11 bd
       0.008450154 -0.039199725 0.0722325 -0.035520863
000060 e3 4e cd 3d 11 d3 03 bd aa 78 4d 3c f6 ff 30 bb
       0.10024812 -0.03218371 0.012540976 -0.0027008033
000070 f5 85 15 3d 8d 10 c7 bc 12 10 fc bc 30 92 bf bb
       0.036504705 -0.024299884 -0.030769382 -0.0058462843
000080 09 64 3d bc b9 10 82 bd 60 b6 97 3d 51 61 2f bd
       -0.011559495 -0.06350846 0.07407832 -0.042817418
000090 08 1b a2 3c de b0 c4 3d fc e3 7f 3d 6a 18 d5 3d
       0.01978828 0.09604047 0.062473282 0.10405047
0000a0 c2 b5 cc 3d b1 50 60 bd 4b bc fd 3d ea 4a e8 bd
       0.09995605 -0.054764453 0.1238943 -0.11342414
0000b0 69 0c 08 be ca 5c 96 3c d5 b4 d0 3d c3 90 39 bd
       -0.13285984 0.018354792 0.10190741 -0.04530407
0000c0 b8 6a b5 bc ad 83 0a be 9c 42 07 3d d5 ea a5 bc
       -0.022145614 -0.13526793 0.033022508 -0.020253578
0000d0 ed d9 08 bd c7 87 bf 3d c3 fa 7c 3c 21 81 a7 bd
       -0.033410955 0.09352069 0.015440646 -0.08178926
0000e0 38 fe 0b bd b4 87 bd 3d ac 30 96 bc 97 72 17 bd
       -0.03417799 0.09254399 -0.018333755 -0.036974516
0000f0 94 4c bc 3d 7d 30 84 3d ea f1 4c bc bc 57 8d 3c
       0.091942936 0.06454561 -0.012508849 0.01725375
000100 7f 29 bc 3d 0d 7c 9f 3d ef f8 e7 3d 3c 22 be 3d
       0.09187602 0.07787333 0.11326777 0.092838734
000110 7d 0a 90 bc 54 a4 5b bd 4f 3e 19 3d 67 c0 a0 3d
       -0.017583126 -0.053623512 0.037412938 0.07849198
000120 cf d9 0d 3c 24 10 c1 3d f3 f0 a9 bd c0 8f ef bd
       0.008657887 0.09426907 -0.082979105 -0.1169734
000130 dc c0 4b 3c bd 33 14 3c ae 8d 60 3d 16 18 12 bd
       0.012436118 0.0090455385 0.054822616 -0.0356675
000140 fc eb 80 bd 48 3e 1c bb 25 52 ea bd 39 27 8a 3c
       -0.062950104 -0.0023840833 -0.11441449 0.016864406
000150 7c 2b 62 bd 22 13 82 bd 33 b8 0e bd 84 55 a8 bc
       -0.05521725 -0.063513055 -0.034843635 -0.02054859
000160 44 01 e0 bd 18 fe d7 3d a2 87 65 bd b1 03 3a 3d
       -0.109377414 0.105465114 -0.056037553 0.045413677
000170 a8 e2 bb 3c 98 d7 ef bc 8d a4 f1 bd 79 f2 b5 3d
       0.022935227 -0.029277608 -0.11798964 0.088841386
000180 f6 ff 0a 3c 5c e2 98 ba 81 ce a1 3d cd 00 f8 3d
       0.008483877 -0.001166414 0.079007156 0.12109528
000190 b1 d6 0a 3d 1f 5e 8f bd 3f b4 9c 3d e5 be 9b 3c
       0.033896152 -0.07000374 0.07651567 0.019011924
0001a0 72 82 ad 3d fa b5 04 3e 63 00 fb 3d ad b6 f2 bc
       0.08472146 0.12960044 0.12255933 -0.029628122
0001b0 ee 02 53 bd 0c 67 1c 3c 1b ad c7 bd f0 44 55 3d
       -0.051516466 0.009546053 -0.09749814 0.052067697
0001c0 7c 51 85 bd 2f d6 c1 bd 54 fb 0c be 50 79 e3 3c
       -0.065096825 -0.094646804 -0.13767749 0.027767807
0001d0 af 19 82 bc e9 ba a4 3d 4d cc 8d bd 1c 74 0b bd
       -0.015881388 0.08043463 -0.06923733 -0.034046277
0001e0 5d 24 02 be b4 fb 82 bd 64 bb f1 3d eb 12 e3 3b
       -0.12709184 -0.06395665 0.1180332 0.0069297454
0001f0 0e 4b dc bd 6e b1 16 bd 82 ca 61 3c 3a 30 c0 bd
       -0.10756503 -0.036790304 0.013781192 -0.093841985

_orig_mod.shared_mlp.3.weight f4 [64, 128]
000000 bb c4 37 3c 09 58 94 bd 82 6c b8 3d 06 65 74 3d
       0.011216338 -0.07243354 0.09005071 0.059666656
000010 8f 17 67 3c 27 33 e7 3d 66 1e 53 bd 63 23 68 3c
       0.014104738 0.112890534 -0.051542662 0.014168593
000020 1e dd 97 bc 43 a3 a3 3d fa d0 8a 3d 71 91 f9 bc
       -0.018538054 0.07990124 0.0677814 -0.03046486
000030 f1 64 2f bd 23 f5 4d 3d fe e3 96 3c 49 ed 4a 3c
       -0.042820875 0.05028261 0.018419262 0.012385675
000040 e0 ee a0 3d 5b 8b 73 bd 45 74 89 3c b7 b4 be 3d
       0.07858062 -0.05945907 0.016779074 0.09311812
000050 e7 6f 27 bb ba 45 92 3d 03 ae 0d 3d 1f a1 03 ba
       -0.0025548877 0.071422055 0.03458978 -0.00050212623
000060 8f 48 09 3d ef 7b 2c bb 97 86 f8 bc 3f ed b6 3d
       0.033516463 -0.0026318987 -0.030337615 0.0893197
000070 9c f2 1f bd 3f d1 c8 3c 36 f0 10 3d fd 02 a0 3c
       -0.03904973 0.024513839 0.035385333 0.019532675
000080 0d 8f bc bd 06 73 04 be 0e ef 5c bd f2 38 1c bd
       -0.09206972 -0.12934503 -0.053938918 -0.038140245
000090 70 eb d6 3d b4 74 f7 bc b2 4a b4 bc ce da c1 3d
       0.10494125 -0.030207016 -0.022008274 0.09465562
0000a0 26 4f 6c 3d 09 07 f5 bd 3c 68 ca bc 1a 22 d4 bd
       0.05769267 -0.119642325 -0.024707906 -0.10358067
0000b0 56 fe cc bd 3e f7 55 3d 3f ac 49 bb ea 2c 4c bd
       -0.10009448 0.05223774 -0.0030772833 -0.04984752
0000c0 be 44 97 3d 68 13 1c 3d e0 57 e9 3c 71 bb e4 bc
       0.073861584 0.038104445 0.028484285 -0.02792141
0000d0 9b 30 99 3d 82 92 03 bd 6b ca b5 bc 21 7d 80 ba
       0.07479974 -0.032122143 -0.022191247 -0.0009802916
0000e0 76 7f b3 bd a9 26 8e 3d 65 c6 c9 3d c4 d8 1a bd
       -0.087645456 0.069409676 0.09852294 -0.03780438
0000f0 a6 9c 7b bd 94 28 0f bd 40 c4 5b 3d 7d 97 9b bd
       -0.06142869 -0.034950808 0.053653955 -0.075972535
000100 88 3d b4 3d 72 81 9e 3d 6c 13 a3 3d 63 e1 52 3d
       0.08800799 0.077395335 0.07962689 0.051484477
000110 bc d3 93 bd dc ae 95 bd cb af e9 3c 6c b8 c4 3d
       -0.072181195 -0.073087424 0.028526207 0.09605488
000120 bb 13 42 bc 96 0e aa 3b 07 e2 1e 3d 66 eb 31 be
       -0.011845524 0.005189727 0.038789775 -0.17374954
000130 6b 2f 1b bd df 52 f8 bd 93 d1 73 3d b6 88 ab bb
       -0.03788702 -0.121251814 0.059526037 -0.005234803
000140 76 04 28 3d 5f bc 0b 3d 54 85 af bb 90 8e 31 bd
       0.04101988 0.03411519 -0.00535647 -0.04334885
000150 93 a5 ea 3c a4 2f ba bd af 28 47 bd 61 fe af bd
       0.028643405 -0.09091118 -0.048622783 -0.08593441
000160 cc 0c 05 be f2 65 a9 bc 92 d8 5e 3c dc d5 78 3c
       -0.12993163 -0.020678494 0.013601439 0.015187707
000170 f0 8e 2e be aa 80 c6 3c da d9 a7 3c 12 01 4d 3d
       -0.17046714 0.024231274 0.020489622 0.05004985
000180 49 3f a6 3b 0e e0 15 bc c0 ab 7a 3c 96 b8 cf 3d
       0.005073462 -0.009147657 0.015299737 0.10142629
000190 81 c2 a0 bc 88 d1 9e bd 60 8c 29 3c a8 d2 e1 3d
       -0.019623997 -0.07754809 0.010348409 0.110265076
0001a0 87 af e0 3d c4 7f 9f 3d e2 1d bc 3d 31 f5 89 bd
       0.10970979 0.07788041 0.09185387 -0.0673622
0001b0 d5 41 1b bc 21 18 38 bd 74 37 19 bc 30 0a 11 3d
       -0.009476145 -0.044944886 -0.0093516 0.035410106
0001c0 95 d5 d9 bd e5 57 ec bc eb a7 c9 bd 91 61 46 bd
       -0.10636441 -0.028850505 -0.09846481 -0.04843289
0001d0 0d b7 b3 3d ba ac c3 3d 2c f2 4c 3d 93 50 49 3d
       0.087751485 0.09554429 0.05003564 0.049149107
0001e0 5b 44 89 bd da c9 be ba 6d 8a 90 3d ec b5 82 3d
       -0.06702491 -0.0014556006 0.070576526 0.06382355
0001f0 fd 70 18 bd c2 d0 44 3d b3 00 60 bd 0f 91 07 3c
       -0.03721713 0.04805065 -0.054688167 0.008274331
000200 04 99 30 bd 56 73 04 bd 27 09 53 bd 71 bc 27 3d
       -0.043114677 -0.032336555 -0.0515224 0.040951196
000210 5e 95 b5 bd 5a 9b 90 bd 79 2f 2d 3d 3a a5 ca 3c
       -0.0886638 -0.07060881 0.0422816 0.02473699
000220 8b 0f 92 bd 34 93 39 3c 49 0f 2d bd f0 90 1c 3d
       -0.07131871 0.0113266 -0.042250905 0.03822416
000230 53 a7 b6 bd a5 3d 39 3c 5c 9c fc bc 27 c3 0d 3d
       -0.08918633 0.011306201 -0.030836277 0.03460994
000240 e4 de 97 3c f5 ce 0a bd 9a 1a 7b bc 7a b0 bc bd
       0.0185389 -0.033888776 -0.0153261665 -0.09213348
000250 91 0d 2a bd 4a 6c 6f 3c 3d ca 6f bd e5 af 0f 3a
       -0.041516844 0.0146132205 -0.05854248 0.00054812274
000260 a5 2a 1c 3d 9d 47 65 bd 42 23 83 3d 4e 65 73 bd
       0.038126606 -0.0559765 0.06403209 -0.059422784
000270 17 aa 53 3d d7 ff aa bd 05 c5 bd 3c 8c 31 b2 3c
       0.051675882 -0.08349579 0.023165235 0.021752141
000280 ba 7b 25 3c f7 40 64 3d 89 8c 36 bc 4e da 6e bd
       0.0101002995 0.055726018 -0.011141905 -0.05831366
000290 9e 0a 1f 3d 5a 0f a3 bd 64 34 36 bd 69 3d 4d 3d
       0.038828485 -0.079619125 -0.044483557 0.050107393
0002a0 7f 78 06 3d 3f 98 24 bd 42 8a fa bc 43 ca a0 bc
       0.032829758 -0.040184256 -0.030583505 -0.019627696
0002b0 26 36 b0 bb b8 da 2c 3c 6c ef d2 bd 08 1b ad bc
       -0.0053775487 0.0105501935 -0.10299572 -0.021131054
0002c0 ef 89 59 3c 00 28 f3 bc 2e 9a e3 bd de 7c 20 3c
       0.013277515 -0.02968216 -0.11113392 0.009795396
0002d0 17 22 47 bd 2e e7 83 bd 17 a0 26 bb ad 59 0d 3d
       -0.048616495 -0.064405784 -0.002542501 0.03450935
0002e0 cf e8 d9 bc 44 6c ad 3c 2e 22 74 bd a5 36 e9 bd
       -0.02660027 0.02116979 -0.05960291 -0.11387376
0002f0 11 df ca bd 64 93 c3 bd 68 60 d8 ba 28 9d 4f bd
       -0.09905828 -0.09549597 -0.0016508223 -0.050686985
000300 52 be d2 bc 96 bd ea bd ed ae a1 bd 5c b5 a4 bd
       -0.025725517 -0.11461942 -0.078946926 -0.08042404
000310 2f b8 4b bd 81 d5 9d 3d 19 8c 8a bb a4 ea c3 bc
       -0.049736198 0.07706738 -0.0042281267 -0.023915596
000320 fd 56 b9 bc bc a9 ca 3b d1 5f a3 bb 90 da 5c 3d
       -0.022624487 0.0061847847 -0.0049857874 0.053919375
000330 88 13 e2 bd df da 0f 3d e2 ac 72 bd 3c 6c 47 bd
       -0.110388815 0.03512084 -0.059246905 -0.048687205
000340 9d 5d 75 bd 80 5a 15 3b a4 c7 41 bd e7 3e 8e bd
       -0.05990373 0.0022789538 -0.047309533 -0.069455914
000350 83 ff af bd e0 ba 64 bb d6 17 36 bd a9 75 fe 3c
       -0.08593657 -0.0034901425 -0.044456325 0.031061964
000360 d6 46 1f bc 91 ca fd 3c af cb 4a bc 21 c2 0f bd
       -0.009721478 0.03098038 -0.0123776635 -0.035097245
000370 5e fc 4b bd 42 cf bc bd 19 d9 aa 3d ec 58 b2 bd
       -0.049801223 -0.09219219 0.08342189 -0.08708367
000380 36 bc 5f bd fb 1e 08 3c 8e 48 50 3d f7 70 ea bc
       -0.05462285 0.008308168 0.050850444 -0.028618319
000390 76 07 6f bd 25 3b 82 3d 8b e1 a9 bc 33 5d 90 bc
       -0.058356725 0.06358937 -0.02073743 -0.017622566
0003a0 0e 9a c1 bd 9e ef a7 bd e7 df 60 3c 65 a1 ce 3c
       -0.09453212 -0.082 0.0137252575 0.025223443
0003b0 6c d8 94 3c 4c 7c a0 bd 3e ce 22 bd c8 80 46 3d
       0.018169604 -0.07836208 -0.03974747 0.04846266
0003c0 33 49 0e bd 4d d5 e2 bd 55 2b bd 3d 28 c1 e1 bd
       -0.034737777 -0.1107584 0.092367806 -0.1102317
0003d0 c5 c7 26 bd af e5 ff bc 96 29 37 bc 17 5d af bd
       -0.04071786 -0.031237451 -0.011179348 -0.08562677
0003e0 3e 21 03 3d ff 73 23 3d 16 b9 b1 bd 44 96 00 bd
       0.032014124 0.039905544 -0.086778805 -0.031393304
0003f0 0c f9 6f bc 33 3b 6c 3c 90 bc 1e bb e8 5c b5 bc
       -0.01464678 0.014418411 -0.0024221279 -0.022139028

_orig_mod.shared_mlp.3.bias f4 [64]
000000 5a 95 87 3d dc 2e a5 bd 62 b0 68 3d a8 c2 54 3c
       0.066202834 -0.08065578 0.056808837 0.012985863
000010 33 38 e9 bd fe 58 57 3d 5b 51 f4 bc dc 9b dd 3b
       -0.11387672 0.052575104 -0.02982395 0.0067629647
000020 2f 79 01 3b ba 84 3a bc 43 41 fa 3d cf 4a 9a bd
       0.001975607 -0.011384184 0.12219479 -0.075338
000030 1b 14 ed 3d db 59 61 3d 9e f5 5c 3d 23 3a d9 3d
       0.115761004 0.055017333 0.053945176 0.10606792
000040 b9 54 8e bc 83 29 52 3d 00 28 99 3d 20 16 7e 3d
       -0.017374383 0.05130912 0.074783325 0.06203282
000050 fa 6c 84 bd f7 e1 85 3d 93 a1 cb 3d 93 53 1a 3d
       -0.06466098 0.0653724 0.09942927 0.03767736
000060 b8 f8 e2 3d 05 b4 9c 3c 6c bb 8d bd ba 33 d0 bd
       0.110825956 0.019128809 -0.069205135 -0.10166116
000070 58 92 db 3d 47 01 22 3d bd 0a 19 bd 49 6e e4 bd
       0.10721272 0.039552 -0.037363756 -0.11153848
000080 97 65 ae 3d af 5d fa 3d 44 89 08 3e df c8 02 bd
       0.085154705 0.122249 0.13333613 -0.031929847
000090 d0 12 95 3d 69 cd 83 3d b6 2a 36 3d f0 ad 0b 3e
       0.07278979 0.06435663 0.044474326 0.1364057
0000a0 45 ce 61 3b 85 b9 06 3e f8 46 a4 bc 18 6f a3 bd
       0.0034455222 0.13156708 -0.020053372 -0.07980174
0000b0 bd fe e0 bc a7 f1 f3 bc 1b a3 9a bd 42 ff 32 bd
       -0.027465219 -0.029778315 -0.07550641 -0.043700464
0000c0 f9 90 8d 3d ba f5 6a bd ab cb b8 bb a4 a2 37 bd
       0.06912417 -0.05736325 -0.0056395135 -0.04483284
0000d0 e8 eb f0 bd 04 93 68 bc 54 13 a9 3c 49 41 d3 3d
       -0.117637455 -0.0141952075 0.0206391 0.103151865
0000e0 9b 2e c2 bd ff 71 1c bc e7 46 28 bb 3b 35 1f bd
       -0.094815455 -0.009548663 -0.0025677027 -0.038869124
0000f0 a0 9a b9 bc 55 da 7a bc 01 0e a5 bd 8d 1b 58 3d
       -0.022656739 -0.0153108435 -0.08059312 0.05276065
