experiments/exp_20251006_015317/models/checkpoint_epoch2_auc0.7282_logloss0.0878.pth (torch, 137410 bytes, 12 tensors)

_orig_mod.embeddings.gender.embedding.weight f4 [5, 8]
00000000: 88fa 163a 8512 83bc aca8 d0bc e5d6 d13c
00000010: 234c 87bd 5eb1 8a3c ba79 083c 03e8 d3bd
00000020: 93bf 0cbf 66d2 0fbf a722 f6bf e8f3 363f
00000030: 3fc0 90bf a71f 14be 1a03 c43d c82c 1ebf
00000040: 6bdf 973f 1275 a43e d111 eebf 37ed c73f
00000050: e0bc 5ebf e911 913f 70c4 7f3e a89a 04be
00000060: 9a56 af3e 3b41 7ab1 7865 989b 2a3f 3139
00000070: e4c8 75be ee53 3c1a 1aa5 2434 3b85 6b3b
00000080: 8595 573c a337 7c9a c9f0 3f97 4d4c 80ad
00000090: c0c0 7cbd 2a5a e51d 4e05 1ebf fb8f 8799
0.0005759378 -0.016000042 -0.025471054 0.025615165 -0.06606319 0.016930278 0.008329803 -0.10346987
-0.5497982 -0.5618042 -1.9229325 0.7146592 -1.1308669 -0.144652 0.09570904 -0.6178708
1.1865057 0.32120568 -1.8599187 1.5619267 -0.8700695 1.1333591 0.24977279 -0.12949622
0.3424576 -3.6416867e-09 -2.5211863e-22 0.00016903566 -0.24002415 3.8945287e-23 1.5333754e-07 0.0035937566
0.013158207 -5.215732e-23 -6.201934e-25 -1.45858e-11 -0.06170726 6.0709023e-21 -0.61726844 -1.4016826e-23

_orig_mod.embeddings.age_group.embedding.weight f4 [15, 8]
00000000: 181e 42bc 1aed bf3b ca14 dcbc ede9 443b
00000010: 0047 7e3b 866b 54bc af26 8dbb 8422 3dbb
00000020: 5ab2 363d 5d8c f639 f7cb a33e c50a 41be
00000030: c928 d7bd 1fab 13be 36ec 31be ee9b 45bd
00000040: fdcc 20bf 2021 aabd 4d5c 73be 85db 0e3f
00000050: f5ee b2be d478 093d 4335 b63e 2336 4f3d
00000060: 1b33 c5bf 966c 433d 61ab 5bbf e31b 05be
00000070: de88 06be bfea 673e 1e97 72be fdd2 f33c
00000080: 465b 8ebf a169 8ebe 1eab 45bf 59de 1bbe
00000090: 7a67 c83e be74 98bd 7631 cbbd 92d7 38bd
000000a0: 73d3 b4be 789a 2d40 44e5 04bf 4353 3b3f
000000b0: 7501 263e c051 2ebf 0235 c7be 4c0d 13be
000000c0: 43c5 973e 8060 7fbf 3676 eebe a64d 0dbe
000000d0: 91c6 6ebe 41aa 80bf fd44 a2be 46a2 1e40
000000e0: 41bf 853d 895c cdbe e2b6 07bf 2e57 d5bc
000000f0: 5165 563f 229f 2f3e 155d 103f dbe9 18bf
00000100: 8c07 ad3f b3dc a4bf 8dd7 79bf 3c7c 93bf
00000110: a535 2f3f 8b0b 63bf 6062 28bd 87ba 28bf
00000120: de38 0cbc 313a 711a 1442 db3b d3de 3bbe
00000130: 5db0 70bc a1c8 6e9e a8ca b5b8 b7de 833e
00000140: cff8 7e19 58d5 0620 6731 802c 7f2b 21bc
00000150: 3baa 2a37 7377 079b 6eb1 903d 8589 929a
00000160: 733f a03d df84 4b3a 0894 48ba 41fd 7536
00000170: 27f6 45b0 c36b eda8 fa73 643e 5b09 4f96
00000180: 5749 babb 1162 b5bb 0aa8 9a3d 0ae8 1a3b
00000190: 9791 13ba 05aa 9299 c141 1d1c 1a6e 5abb
000001a0: c147 961d 211f 9ebd 75fe bd36 7586 ceba
000001b0: db6a 58bd fa42 55bc 321c f41a 6e56 023f
000001c0: c418 85b9 a836 c7bd d4d7 3aa0 46fb b5aa
000001d0: ec64 0636 9278 aaa2 fb3f 36bd dc75 893e
-0.011847995 0.005857122 -0.026865382 0.0030046657 0.0038799644 -0.012965089 -0.00430759 -0.0028859684
0.044603683 0.00047025355 0.3199155 -0.18851765 -0.10505826 -0.14420746 -0.17375264 -0.04824441
-0.6281279 -0.08307099 -0.23765679 0.5580371 -0.34947935 0.033562496 0.3558751 0.05058874
-1.5406221 0.047710977 -0.8580838 -0.12998919 -0.13138148 0.22648142 -0.23690459 0.029763693
-1.1121604 -0.27814963 -0.7721423 -0.15221538 0.39141446 -0.07444142 -0.09921543 -0.04512746
-0.35317573 2.712553 -0.5191233 0.7317392 0.16211493 -0.6809349 -0.3890763 -0.14360541
0.29642686 -0.9975662 -0.46574563 -0.13799152 -0.23317935 -1.0051957 -0.3169326 2.4786544
0.065306194 -0.4010966 -0.5301343 -0.026042547 0.83748347 0.17150548 0.5639203 -0.59731835
1.3517928 -1.2879852 -0.9759453 -1.1522288 0.6844123 -0.8868949 -0.041109443 -0.6590962
-0.00855848 4.988464e-23 0.0066912267 -0.1834672 -0.014690486 -1.2641104e-20 -8.6685e-05 0.25755855
1.3181739e-23 1.1420831e-19 3.6434636e-12 -0.00983703 1.01724245e-05 -1.1205534e-22 0.07065092 -6.060636e-23
0.07824602 0.0007763635 -0.0007651453 3.6655258e-06 -7.2017986e-10 -2.635902e-14 0.22309867 -1.6724279e-25
-0.0056850123 -0.005535372 0.07551582 0.0023636841 -0.00056292996 -1.5164717e-23 5.2031927e-22 -0.0033329786
3.977886e-21 -0.07720781 5.6622616e-06 -0.0015756624 -0.05283628 -0.013016457 1.00961587e-22 0.5091313
-0.0002538619 -0.09727222 -1.5826224e-19 -3.2326415e-13 2.00263e-06 -4.620625e-18 -0.04449461 0.26847732

_orig_mod.embeddings.inventory_id.embedding.weight f4 [50, 16]
00000000: aa92 c3be 8e18 463f 1b6f a33e aa98 ef3d
00000010: c9a0 d13d 5d93 593f 3fd0 0b3e 8806 ea3c
00000020: bdb6 c53e 757f 3abf ddba ac3e cd12 77bc
00000030: 0f0e b63e 9917 453d 3841 8dbe 193d 543f
00000040: 01a1 0c3d 68a5 25bc 63ae 323e 6ced 7a3e
00000050: 1c0f eb3d 0c80 1c3f 31ea 733d 7b59 07bc
00000060: fad1 5f3e 0739 20be 595f c93d 7b17 18bd
00000070: ff48 d53d 2493 123e 4256 463d 9a9e c03d
00000080: 7d9e a43e 9ea5 9fbf d52b de3d 488f f3bf
00000090: d27c 9f3e 525c 163f 0088 d23f d58d 39bf
000000a0: 4f75 5b3e 858f 983e 0303 1c3b 8efb e43e
000000b0: be53 97be b5ed 5c3e ff6c d23d aa1c af3f
000000c0: a3b7 d2bd 404e ccbc d91e 733c fd2e df3e
000000d0: 8d52 e3bd 0d77 3cbd 9819 163c 2aef efbc
000000e0: 9e5a 1b3e c00d 76bd 5e7c 56bc c860 ccbb
000000f0: 6674 01bc 5c24 a73a 2596 29bb d0e9 42be
00000100: a6d5 3f3e a246 0e3d a118 02bf ec90 593e
00000110: 9dbb c03f 11ac 85be 1793 0bbc 944d 40bf
00000120: 7232 0e3f 2ff8 8a3e 7ffa 16bf 3e31 4b3f
00000130: b0c3 cdbe 4a92 713f 29a7 3a3f 99ba 20be
00000140: 115f 69bf 136a 06bd c04d 203e a1a8 2c3c
00000150: 76a6 c83e 3fdb 713f ccf9 1fbe f135 763c
00000160: 3c7b 153f 3f22 c13f 3680 643e 2742 fabe
00000170: 236d c13d 19c1 3cbd f923 393e f83c 39bf
00000180: 1ced a63e c1c9 b3be 34a5 1b3f 4339 873f
00000190: b171 8d3f 0eb2 d7bd ea2e 133e afd3 0ebe
000001a0: f5c2 20bd 7c7a 7fbf 75a0 a9be 9a1f 4e3d
000001b0: 0158 4dbf 62cd 0f3e 922e cc3d cdfb b33e
000001c0: 47cf 7a3f afe6 a33f 0a25 843e 0fe8 043f
000001d0: 645a 473f 4c64 11bf e4c3 0d40 11be 80be
000001e0: 2bfb e4be c313 16bf 570c abbd c88e 9bbf
000001f0: 4012 f33b 4226 1c3f 217e 653f f4c3 30be
00000200: 9789 9abd 7091 8a3e bcab 533e db20 60be
00000210: c27d b93d 0572 163f cfb5 14be b93c 873d
00000220: 8fbb 613e f748 93be 6df1 c43d 0cce fb3d
00000230: 77cc 493d 1ef0 a73d 3edd 983d 7b73 02bf
00000240: 119f 013e 8452 0e3e 54bc bcbb 0c07 6c3e
00000250: 88b1 a5bf 7ad4 a5be a346 f2be 4669 123f
00000260: be74 43bd 1af9 4cbc 18ec 883d 5a6d 8d3e
00000270: fc6b b3bf 7f0e 9d3f 8bc6 11bd 6b8c 433f
00000280: 5a4b 013e 1038 d7bf 8fc6 ca3e 3bf7 083f
00000290: 73d0 e0bd 152e 363f 033f 5f3e 765e 553f
000002a0: b5f6 64be 1775 223f 9765 e3be 1b4d 63bf
000002b0: 46be e7bd 7a80 a7be 9354 ccbd 40d7 d0be
000002c0: b7ab b7bf f409 fd3d efd5 c03e bf48 d0be
000002d0: 8064 0ebf c43f 403c 90bf 513f 4607 32be
000002e0: f9c1 e8be 255e 8ebf 6b24 96bd 8b8c efbd
000002f0: f512 5dbf 153d 463e e5de dbbd c2c8 41be
00000300: 287c 88be e058 01bf aa7b 69be 2f5f b0bf
00000310: 633e c53d 9503 123e 10d5 11bf e03d 8ebf
00000320: 3eb5 e83c 475b 4cbe 87d8 63be e76e 72bf
00000330: f3bc 023e 6230 03bf 771c 0c3f 00bb 16bf
00000340: de1c d2bd e662 16be f2f0 263e f447 45be
00000350: 7b72 b03d c508 c93e 99eb e03c f1af 01be
00000360: dcad 453e 37e3 e6be 6eb1 8c3e d237 f33c
00000370: 08e8 7ebb 2ae0 1c3d dc18 2339 5c35 343e
00000380: 5921 2fbf b6df d33d 4b27 f2be 63e4 87bf
00000390: 2918 6fbf 20f8 14bf e928 d13f 569d ee3e
000003a0: 8525 e9bf c6d1 8ebd 70c8 fb3c 4a24 103f
000003b0: e4ef 9bbf cbbf f6be 8d11 5b3e 46f6 66be
000003c0: 1cfc 9fbe f552 d83e 0865 d1bd ca5d 743e
000003d0: cb04 4bbe 2801 313f cf23 d2bc bba5 0b3f
000003e0: 6ffd 2bbd 94fd da3e 97a1 17b9 1d57 393e
000003f0: f906 a73e 7868 043f 50c9 03bd 618e 67be
-0.38197833 0.7738122 0.31920704 0.1169904 0.102357455 0.84990484 0.13653658 0.028567567
0.3861598 -0.72850734 0.33736315 -0.015080166 0.355576 0.048118208 -0.2758882 0.8290573
0.034333233 -0.010110237 0.17449336 0.24504632 0.11477491 0.61132884 0.059549514 -0.00826108
0.21857443 -0.15646754 0.09832639 -0.037131768 0.104143135 0.14313942 0.048422106 0.09405251
0.32152167 -1.2472417 0.10848204 -1.9028101 0.31149918 0.5873462 1.6447754 -0.72482044
0.21431468 0.29796997 0.0023805506 0.4472317 -0.29556078 0.21575053 0.102746956 1.3680623
-0.10288932 -0.024939656 0.014838898 0.43590537 -0.1109973 -0.046011973 0.009161375 -0.029288847
0.15171286 -0.060071707 -0.013091175 -0.006237123 -0.007901287 0.0012751925 -0.0025876847 -0.19034505
0.18733844 0.03473533 -0.5081883 0.2124669 1.5057255 -0.2610784 -0.008518956 -0.75118375
0.55545723 0.27142474 -0.58975977 0.7937201 -0.4018836 0.94363844 0.72911316 -0.15696181
-0.91160685 -0.032816004 0.1565466 0.010538251 0.391895 0.9447517 -0.15622634 0.015027509
0.58391166 1.5088576 0.22314534 -0.48878595 0.09444644 -0.04608259 0.18080129 -0.72358656
0.32602775 -0.35114864 0.60798955 1.056435 1.1050321 -0.10532008 0.14373365 -0.13947938
-0.039248426 -0.9979627 -0.33130231 0.050323106 -0.8021241 0.14043191 0.0996982 0.35153046
0.9797253 1.2804774 0.2580951 0.51916593 0.778723 -0.56793666 2.2150812 -0.2514501
-0.44722876 -0.58623904 -0.08351963 -1.2152948 0.007417947 0.60995877 0.8964558 -0.1726225
-0.075457744 0.27064085 0.2067098 -0.21887533 0.090571895 0.5876773 -0.1452248 0.06603379
0.22044204 -0.28766605 0.09616361 0.1229516 0.04926726 0.082000956 0.074640736 -0.5095746
0.12658335 0.13898665 -0.005759755 0.23049563 -1.2944803 -0.3238867 -0.47319517 0.57191885
-0.047718756 -0.012510562 0.06685656 0.2762249 -1.4017329 1.2270049 -0.035589736 0.76386136
0.126264 -1.6813984 0.39604613 0.53502244 -0.109772585 0.71164066 0.21801381 0.8334726
-0.22359736 0.63459915 -0.44413444 -0.8878953 -0.11315589 -0.32715207 -0.09977069 -0.40789223
-1.4349278 0.12355414 0.37663218 -0.406805 -0.556221 0.011733953 0.81932926 -0.17385587
-0.4546049 -1.1122481 -0.07331165 -0.11696728 -0.8635705 0.19359238 -0.10735873 -0.1892424
-0.26657224 -0.5052624 -0.2280108 -1.3779048 0.0963104 0.14259179 -0.5696573 -1.1112633
0.028406736 -0.19956695 -0.22250567 -0.94700474 0.12767391 -0.512457 0.54730934 -0.5887909
-0.10259412 -0.14686164 0.16302851 -0.19265729 0.086155854 0.39264503 0.027456092 -0.12664773
0.19304603 -0.45095226 0.27479118 0.029689703 -0.0038895626 0.038299717 0.00015554152 0.1759848
-0.6841026 0.10345404 -0.47295603 -1.0616573 -0.9339624 -0.5819111 1.634061 0.46604413
-1.8214575 -0.06973605 0.030735224 0.5630537 -1.2182584 -0.481932 0.21393414 -0.22554883
-0.31247032 0.4225079 -0.10224348 0.23863903 -0.19826047 0.6914239 -0.02565184 0.5454976
-0.04198974 0.4277159 -0.00014460679 0.18099637 0.32622507 0.51721907 -0.03217441 -0.22612907

_orig_mod.embeddings.day_of_week.embedding.weight f4 [10, 8]
00000000: 35b3 27bf 55ff 833f db83 bbbd 89f5 553d
00000010: 6351 d2be 3229 823f 7956 4ebe 9993 13bf
00000020: 4c7c fabd 1ac3 0140 4c1f acbd 7e7f 153f
00000030: e506 1b3f 7b19 9abf 6b38 0dbf c2f2 24bf
00000040: 4106 9dbe 39f9 b83e 5520 4e3d 86b9 98be
00000050: 2950 88bd 5bd2 f1bf f27a 153f d8c5 82bf
00000060: c4ae 1cbf 6b6b 59be a51e d23f d025 03bf
00000070: 9dbd 893f a457 0dbe 7d53 5a3f 58ba 54bf
00000080: a859 b4bf aa25 81bf cf68 34bf fc12 1d3f
00000090: 238f 3dbf 0ddc 323f e54f 32bf 8b7b b0be
000000a0: 0b95 5e3f 2a9e c43f be71 00bf 66d8 273f
000000b0: d22e e53e 2214 a2be 9377 073f df54 193e
000000c0: 0b36 a73d 76f4 86bf b078 043f 8711 d13f
000000d0: 4b87 afbe 21f0 e93e dc93 893d c4eb 933e
000000e0: bb3f 9e23 2887 f7aa 6f4f 56bb f2f9 8834
000000f0: cc35 e69a 02c2 0119 c4e1 60b9 9fdd ed37
00000100: 457a c1a5 279d 23be cc76 401a 939c bb3a
00000110: 73e8 6d9f a4d4 e7b6 1df8 a5a3 85f2 1e1b
00000120: f303 c7bd 6a41 af17 7c0b 693e c450 f29d
00000130: 939a a83e b517 5035 daf9 3d33 255c 033a
-0.65507823 1.0312296 -0.09156009 0.052236114 -0.41077718 1.0168822 -0.20150174 -0.5764709
-0.12230739 2.027533 -0.08404407 0.5839766 0.60557395 -1.2039026 -0.5516421 -0.6443292
-0.30668834 0.36127642 0.050323803 -0.29829043 -0.06655914 -1.889232 0.58390725 -1.0216627
-0.6120417 -0.21232383 1.6415602 -0.5122957 1.076099 -0.13802963 0.85283643 -0.8309684
-1.4089861 -1.0089619 -0.70472425 0.6135709 -0.74046534 0.6986702 -0.6965316 -0.34469256
0.8694617 1.5360768 -0.50173557 0.6556457 0.44762284 -0.31655985 0.5291683 0.14973782
0.08164605 -1.0543354 0.51746655 1.6333474 -0.34282908 0.45691016 0.06717655 0.28890812
1.7157385e-17 -4.3969797e-13 -0.0032701155 2.5513833e-07 -9.5212684e-23 6.708323e-24 -0.00021446409 2.8355802e-05
-3.3563016e-16 -0.15977918 3.9800633e-23 0.001431363 -5.037898e-20 -6.909091e-06 -1.7994416e-17 1.3147816e-22
-0.0971755 1.1325623e-24 0.22758287 -6.4140376e-21 0.3293043 7.7520536e-07 4.423223e-08 0.0005010984

_orig_mod.embeddings.hour.embedding.weight f4 [30, 16]
00000000: 71b6 5a3d 07c4 eb3d e320 023e 740c 1abb
00000010: 3679 37be 5083 a93e c0d2 54be a81a af3d
00000020: df22 b43f f1d9 91be 4532 153e e001 9c3e
00000030: 1bd8 4fbe b064 d93e a82e 52bf 42a7 c93e
00000040: 7dcc e4bc b784 993e 9642 753b 59a5 0dbd
00000050: f7a7 34be de56 123f f0ea d8be 7371 92be
00000060: 6dbe 543f 4244 6ebd 7ed5 5abe ffbe 19bd
00000070: 1244 d3be a3cf 85be 7446 a23c f350 633e
00000080: 0460 e53e 7e0d 96bd b14c a53b 704e 033d
00000090: eb21 c8bc 0776 97bb 49a6 6fbd a0b5 283e
000000a0: b3a7 053e 5409 8bbd 1ac7 0abe 3d77 46bc
000000b0: 8b4a d6bc 067d ad3d 03ef 56bd 1c5d 2c3e
000000c0: a53c 7c3d afc7 df3c 79af 0a3e cdf7 1dbe
000000d0: ac08 b7be b20e 9b3e 87ee e8bd 1f3c 8abd
000000e0: f7f1 4d3d c70e a43e b22f 363d aa8c ed3b
000000f0: 3dc7 f73b 8fd6 f4bd b590 d7bc 39f2 b43e
00000100: 3cc4 a43e dca9 5b3d ab3c ecbd 67c1 90be
00000110: cbde 843d fd36 653e 4bec b6bd 7087 183d
00000120: 4a05 6ebd 9850 46be 416c 153c 2a6c 22be
00000130: a8fa a73e 2d77 533d 62fd c5bd 8477 65be
00000140: f7f1 233f 34d1 86be a44b 183f 6057 213e
00000150: 178b b63b 0684 1bbf 73cc c3be 580d ff3d
00000160: d6dd dcbc 0414 8b3f 054b 443f 86e8 3bbf
00000170: 82c1 babd 35f3 c2bd 364d aabe 1ffc 66be
00000180: 01f9 e83e 5683 43bf b559 d7bd 7173 78bf
00000190: f0a5 033c 76f6 3ebf 0235 80be 7765 f03e
000001a0: 888a debd 1d95 c4be 0375 103f b805 dc3d
000001b0: c19a 11bf eef6 27be 4720 523f 005e 9fbd
000001c0: b7c3 163f 19bb bc3f d878 1b3f f55c a9be
000001d0: 7f31 8a3e 4119 5abf 3191 f43d 988e 3cbe
000001e0: 0f1b 19be 0552 df3d 1eaa b7bb 0a1e 8d3f
000001f0: 94f0 983e cca9 6e3f e352 6bbe a9b6 3ebe
00000200: 4090 043d d1f2 64be e303 603e bed9 ff3e
00000210: 8c2a 1fbf d365 6f3f 05ee 493c 015d 4f3f
00000220: d280 c8be 34fc 50be c2b1 4e3e 7913 51bc
00000230: 6698 bd3c 271b 023f a5bd 593f 4184 a2bf
00000240: aaaa e63c 2d48 a33e 377a dbbe 6620 9abe
00000250: 8735 493d d503 7b3f 4751 853d 7e91 473d
00000260: 5a6c 06bf f8c3 8bbe d3d4 f93b df83 6ebe
00000270: 9d7d cdbe 4a06 8c3e fe37 883f 181b dfbe
00000280: 30d0 4dbe c60c 56bd b6f8 0bbf 2d53 70be
00000290: 047f e13d 40b8 023f 7b89 01bf 1d38 31bf
000002a0: 26fa a8be 3590 803e 45ad b13a bf74 c93f
000002b0: b43c 8abe e98b c83c ce50 9e3e c400 31be
000002c0: 1fac 03be 9c46 3e3e 48c9 803f 2a08 c63e
000002d0: cd7c 0f3f 7e03 223f b4ff 1dbe fcbd b9be
000002e0: cb42 033f c8ef 3a3e 7e25 b4bc 1d8d c23f
000002f0: 2116 c53d 9b7e 023f 86f5 31be 4784 48be
00000300: f164 32bf 0377 033f b71d 113f 1e6c 13bf
00000310: e0ae 79be 65f0 bcbe a81f 913d 3067 37bf
00000320: f4aa e4be 0dae bc3e 8132 063f 6e53 1a3f
00000330: 9b6a 093e 2c38 863f 3958 a63e f2fe b6be
00000340: 8d3a eebe b1f7 1dbe 86f7 5e3e 41c7 25bf
00000350: 2db6 133d 1267 babe 25dc 753e 9d02 8cbd
00000360: 4185 d33e e2ee 243e 9438 d33e 7133 873d
00000370: e783 ffbd b913 443e 0170 8a3e 8f5b 1cbf
00000380: 0695 263f feaa 7cbf 6473 d3be b25f d63e
00000390: ab91 0abe 16b1 0abe 78f8 65bd 4211 9c3d
000003a0: 97d5 b33e ccdc 523e 89be 3f3e 8358 c2be
000003b0: eea8 c53e 4f86 033f ace9 893e 217d 26bf
000003c0: dc23 4ebe 4696 ce3e e3d0 71be 50cb a83e
000003d0: ec9c 92bd 6f85 ca3c 9949 1d3e 6878 a83e
000003e0: 8aab f13c e159 6a3f 1695 893e bea8 14bf
000003f0: a878 05bf 1536 a73e 678c 513d 1148 3a3e
0.053396646 0.115119986 0.12707858 -0.0023505958 -0.17917332 0.33107996 -0.2078352 0.08550006
1.4073142 -0.2848659 0.14569958 0.3047018 -0.20297281 0.4245963 -0.8210244 0.3938542
-0.027929539 0.29984066 0.0037423722 -0.034581516 -0.17642199 0.571638 -0.42366743 -0.2860218
0.83103067 -0.058170564 -0.21370503 -0.037535664 -0.4126287 -0.26134977 0.019808985 0.22198848
0.44799817 -0.07326792 0.0050445427 0.032057226 -0.024430236 -0.0046222243 -0.05850819 0.16475534
0.13052253 -0.067888886 -0.13552514 -0.01211339 -0.026158592 0.08471112 -0.052474033 0.16832393
0.061581273 0.027316896 0.135435 -0.1542656 -0.35748804 0.3028465 -0.113736205 -0.067497484
0.050279584 0.32042524 0.04447908 0.0072494345 0.007561593 -0.11954986 -0.026314119 0.3534105
0.32180965 0.053628787 -0.11535009 -0.28272554 0.06487807 0.22384258 -0.08931788 0.03723854
-0.058110513 -0.19366682 0.009120048 -0.15861574 0.32808423 0.051627327 -0.096674696 -0.22408873
0.64041084 -0.26331484 0.5949042 0.15755987 0.00557078 -0.60748327 -0.3824192 0.12453717
-0.026961248 1.0865483 0.7667697 -0.7340168 -0.0911894 -0.09519044 -0.33262032 -0.22557114
0.45502475 -0.7637228 -0.10515157 -0.9705115 0.008035168 -0.7459482 -0.25040442 0.46952412
-0.108662665 -0.38395014 0.56428546 0.10743278 -0.5687676 -0.1640279 0.820805 -0.07781601
0.5889239 1.4744598 0.6073127 -0.33078733 0.26990888 -0.85194784 0.119417556 -0.1841377
-0.14951728 0.10904316 -0.0056049963 1.1024792 0.29871047 0.9322784 -0.22980838 -0.18624367
0.03236413 -0.22358252 0.21876483 0.49970812 -0.62174296 0.93514746 0.012324815 0.8100129
-0.39160782 -0.20408708 0.20184997 -0.01276099 0.023143958 0.5082268 0.85055 -1.2696611
0.02815755 0.31891003 -0.4286668 -0.30102843 0.049123313 0.9805272 0.06509643 0.048722737
-0.5250908 -0.2729795 0.0076242476 -0.23292492 -0.40134898 0.27348548 1.0642087 -0.43575358
-0.20098948 -0.052258275 -0.5467638 -0.23469229 0.110105544 0.51062393 -0.50600404 -0.6922625
-0.33003348 0.2511002 0.0013555667 1.5738753 -0.26999438 0.024480777 0.30921024 -0.17285448
-0.12858628 0.18581623 1.0061426 0.38678104 0.56049806 0.6328658 -0.15429574 -0.3627776
0.51273793 0.18255532 -0.021990534 1.5199314 0.096233614 0.50974435 -0.17378816 -0.1958171
-0.69685274 0.5135347 0.56685966 -0.5758685 -0.24383116 -0.36902156 0.07086116 -0.71641827
-0.44661677 0.3685154 0.5242081 0.60283554 0.13419573 1.0485892 0.32489184 -0.35741383
-0.46529046 -0.15426518 0.2177411 -0.6475716 0.03606241 -0.3640676 0.2400976 -0.06836436
0.41312602 0.16106752 0.41254103 0.066016085 -0.1247633 0.19148149 0.27038577 -0.6107721
0.6507114 -0.98698413 -0.41298974 0.41869885 -0.1353213 -0.13544115 -0.05614516 0.07620479
0.35123894 0.2059204 0.18725027 -0.37958154 0.38605446 0.51376814 0.2693609 -0.6503468
-0.20130867 0.40349025 -0.2361484 0.32967615 -0.07158837 0.02472183 0.15360107 0.32904363
0.029500742 0.91543394 0.26871556 -0.5806998 -0.5213723 0.3265845 0.05115929 0.18191554

_orig_mod.dense_proj.weight f4 [64, 113]
00000000: 25ac 2fbc 83ea d4bd 4e49 8f3b 2ffd cebd
00000010: f222 8ebd 96ee 9cbd f80b 843d 60b4 cc3d
00000020: 49bd a9bc fdbb ff3c 5fb7 0dbd 9fa9 ecbd
00000030: 5cfa 433d f083 893d 3e0a 3fbc 3b3b 1b3d
00000040: d485 5b3c 71d6 71bd cf89 2fbd 58b6 1b3d
00000050: 1eb4 013d 4988 83bb c6ca b9bb bbc1 28bd
00000060: 8e4a 43bd 6d92 973d a7da 51bd eb04 37bd
00000070: ee99 183d ece2 183d bc5d 793d 3275 2cbc
00000080: 800a 3cbd ab15 55bc 2979 d33c 3384 163d
00000090: 5963 7b3d ab9a f83c f85b 9a3d 1092 3e3d
000000a0: 2c62 2938 1346 a9bd d64f e8bb e9ea 923c
000000b0: bc56 fd3b 54af edbd bf89 d1bb ee37 87bd
000000c0: f21d e8bd 249d 06be abff 0b3d e59e 2bbe
000000d0: 832e 95bc 371d 34bc a7e0 9dbc a558 693c
000000e0: 0f65 a7bd 29cc 463d c5f2 683c 5abc 363d
000000f0: 7677 1d3d 24d0 783d 58b9 b4bd 40e9 55bd
00000100: b80e 2d3d d2f6 74bd a47f 923b d801 1fbd
00000110: 41a6 92bd d551 ea3b 17a2 603c a432 383c
00000120: 57ff 7e3d 8918 cc3b a689 9cbd e1d4 dabc
00000130: 6be2 1ebe 0674 ab3c 7174 36be 2916 cdbc
00000140: 8732 3ebd 02f4 a1bd 9faf 6d3a 8e50 d7bc
00000150: 2cbc c6bd 8917 9b3b 709f 99bd cf2f f53b
00000160: 5c7a ed3c 2761 823d d72e 823d 24d0 a0bd
00000170: 1efb 2d3d cb8a cf3c 3446 273d 9ce8 4e3d
00000180: 33d9 443d b280 d8bc 5dc8 82bd 6d85 12bd
00000190: 9fe3 51bd f845 6c3d 0a7b 233d 151e e03c
000001a0: d99a f0bb fa4c 0abd 7d12 493d 0642 cf3c
000001b0: 19af 483d ce0f 4abd a8fc 8a3d 0a1c 3dbd
000001c0: 6368 6f3c b997 d0bc 6798 10bd 99dc cf3b
000001d0: 9b9a 933d 65bf e0bd 0a8f 5b3d 49a8 8bbd
000001e0: eaa5 81bd 64e2 dd3c d1a5 683d 2251 13be
000001f0: 3743 f33b e121 6dbc 933b ef3c 5a3b 47bd
00000200: 7864 54bd fc55 6a3c 6d77 993c 58fb 493a
00000210: eccc babc d13d 653d 853a 183d 29e7 13bd
00000220: 0da5 193d 7ae0 ebbc 64a5 253c fe3c 923d
00000230: e015 97bc bc9c 223d adea f9bb 713c a6bd
00000240: e2c7 58bc 4ce0 11bc 2a57 343d 6013 1cbd
00000250: 8dd9 893d bac7 633c a7cf 113d b1ce 4f3e
00000260: a02f 81bd 1dac a03d e4c8 97bd dbab a2bc
00000270: 511f 813d 81b4 a1bc b754 8f3d d945 f5bb
00000280: ee05 99bc 0892 263c cd30 533d e108 523d
00000290: 3517 953c 0d0d 75bd b0b2 90bd c67d c23c
000002a0: 7ffc f33d f7ff 59bd f058 27bd 52fd 763c
000002b0: 7c3d 85bd 63c3 2c3d 4498 ccbb 96dc c4bc
000002c0: 3600 193d 1bbb 813d ec97 a6bc e618 9f3c
000002d0: 11a7 30bc 0656 dabc 9ea2 ea3b 0b61 8abb
000002e0: 5c49 a1bc 1ddb 4b3d 4032 143d a888 b6bc
000002f0: 1572 beba 7e77 84bc 7aaa a13d 5580 89bd
00000300: b3a9 ce3c 075d 873d 2363 2e3d 98ae 233d
00000310: 03b8 fb3c 1bfa 89bb b148 4f3d bebf 263c
00000320: b636 5dbb 11f3 0439 ceab f8bc 480d 03bd
00000330: 8e60 0e3d b6e1 4c3d 1796 0dbb 191f a9bc
00000340: 7722 053d 6ebe 743d e779 d6bc 722c cfbc
00000350: c5d0 dc3c 4bbf 583d 655b 553d 03a8 9c3d
00000360: 271a 103c 35e1 26bd 1021 50bc deab 943c
00000370: 9149 3ebd 37d7 69bd 934a ccba 6979 cb3b
00000380: 0037 afbc f20e 4c3d 3512 a03c da7b b33c
00000390: e93b 20bd e8d7 f33d c7a0 1f3e 2c85 b63d
000003a0: 7741 33be faf9 8ebd e368 01bd 2ad9 113c
000003b0: 5201 26bd 92ed 9a3d d15f 473a 1fe1 fcbd
000003c0: 52ed 893d 58ae 073d 411e 7c3b 90f1 60bd
000003d0: 7363 993d e7ea 1fbe 8a5c 9bbd 4666 273c
000003e0: 15fe 60bd b99e 49bd db4c 05bc bb38 96bc
000003f0: f4a4 bd3c 5ee2 6dbd 01c9 e4bb 2d81 9c3d
-0.010722195 -0.10396292 0.0043727523 -0.10106885 -0.06940259 -0.07662694 0.06447595 0.09995341
-0.020720141 0.03121757 -0.034598704 -0.1155579 0.047846183 0.06714618 -0.011660157 0.037898283
0.013398606 -0.059042398 -0.042856034 0.038015693 0.031665914 -0.004014049 -0.0056699244 -0.04120038
-0.047678523 0.074009754 -0.051233914 -0.044682425 0.037256174 0.037325785 0.060880408 -0.010525988
-0.04590845 -0.013005654 0.02581461 0.03674717 0.061374042 0.030347189 0.07537073 0.046526015
4.038417e-05 -0.08265319 -0.0070895953 0.01793428 0.007731287 -0.11605707 -0.0063945944 -0.066024646
-0.113338366 -0.13145882 0.03417937 -0.16759832 -0.018210655 -0.0109932935 -0.019272162 0.014242326
-0.08173572 0.048534546 0.014218037 0.04461322 0.038444005 0.060745373 -0.08824414 -0.052224398
0.042250365 -0.0598057 0.0044707824 -0.038820118 -0.07160617 0.0071508684 0.01371052 0.011242542
0.06225523 0.0062285108 -0.07643442 -0.026712837 -0.15516059 0.020929348 -0.17817856 -0.02503498
-0.046434905 -0.07907869 0.0009067002 -0.026283529 -0.0970386 0.00473303 -0.075011134 0.007482506
0.02898901 0.063661866 0.0635659 -0.078522 0.042475812 0.025334736 0.040838435 0.050514802
0.0480587 -0.026428554 -0.063858725 -0.035771776 -0.051242467 0.057683915 0.03991226 0.027358094
-0.007342678 -0.033764817 0.049089897 0.025300037 0.04899511 -0.04933148 0.067864716 -0.04616932
0.01461229 -0.025462972 -0.035301592 0.006343436 0.07207223 -0.109740056 0.05360321 -0.06819207
-0.06330474 0.02708549 0.05679876 -0.14386418 0.007423784 -0.014473409 0.029203212 -0.048640586
-0.051853627 0.014302727 0.018733704 0.00077049946 -0.022802792 0.055967156 0.037165184 -0.036109123
0.03751092 -0.028793562 0.010110233 0.071405396 -0.018443048 0.039700255 -0.0076268525 -0.08116997
-0.0132312495 -0.008903574 0.04402844 -0.038104415 0.06730948 0.013902599 0.035598423 0.2029369
-0.06307912 0.07845328 -0.07411364 -0.019857338 0.06304801 -0.019739391 0.0699858 -0.007485133
-0.018679585 0.0101666525 0.051560212 0.051278 0.018199543 -0.0598269 -0.07065332 0.023741614
0.11913394 -0.053222623 -0.0408563 0.015075045 -0.06505868 0.042178523 -0.0062437374 -0.024030965
0.037353717 0.06334516 -0.020336114 0.019421052 -0.010782019 -0.026652347 0.0071604988 -0.004222994
-0.0196883 0.04976951 0.036180735 -0.02228196 -0.0014529849 -0.01617026 0.07893844 -0.067139305
0.025227403 0.066095404 0.042575013 0.039961427 0.030727392 -0.004210723 0.050606433 0.010177551
-0.0033754534 0.0001267905 -0.03035536 -0.031995088 0.03476005 0.050019942 -0.0021604353 -0.020644711
0.03250357 0.05975192 -0.026181174 -0.025289748 0.026955018 0.052916806 0.052089114 0.07649233
0.008795298 -0.040742118 -0.012703195 0.018148359 -0.046456877 -0.05709001 -0.001558619 0.0062095416
-0.02138853 0.04981894 0.019539932 0.021909643 -0.039119635 0.11906415 0.15588675 0.08912119
-0.17505442 -0.06981273 -0.03159417 0.008901874 -0.040528603 0.07564844 0.00076055253 -0.12347626
0.067347184 0.03312525 0.0038470181 -0.054917872 0.074896716 -0.15616952 -0.0758601 0.010217255
-0.05492981 -0.049223635 -0.008136 -0.018337598 0.023149945 -0.05807721 -0.0069819693 0.07641826

_orig_mod.dense_proj.bias f4 [64]
00000000: 4c83 cf3d 4043 dbbc 8714 e83c 79cd 823d
00000010: a5c3 19bd 3864 473c 62df 04be 35fe a93d
00000020: 1eef 393d 9758 993c 6c8c c13d cc3e 82bb
00000030: 3285 99bd b55d 7b3d 1959 dc3d 009a c83d
00000040: f042 1e3d bd42 a3bd ee6d 25bd 0f3c 103d
00000050: 871d 9e3d bd4b 683d f8e1 ef3b 52f4 593d
00000060: 080a a2bd b7c2 2cbd 2d7e 9c3d a173 a5bd
00000070: af1b de3d fdd1 963c 56b6 863d fb00 7bbd
00000080: 0dd3 cdbd b4c7 513d bdd4 893c bfac c5bc
00000090: 83f1 31bd fc4b d0bd 6eb7 d93b a97e 47bd
000000a0: 9843 c7bd 9544 08bd f229 f2bd d876 32bd
000000b0: 9743 463d 27be afbd f43e 47bd 9470 023e
000000c0: bed6 6abd 846a ab3d 6ab8 953c b110 82bb
000000d0: 4869 943c 054c c83d cf5b 873d d5f2 fb3b
000000e0: c28a 82bd 1ee1 1f3d ccb8 4cbd c5cd 6f3d
000000f0: b772 eabd 668e 92bd bc5c 663d 5729 f03d
0.10132465 -0.026765466 0.0283301 0.06386847 -0.037540097 0.01216989 -0.12975839 0.08300439
0.045394056 0.018719 0.094506115 -0.003974771 -0.07496108 0.061368663 0.107591815 0.09794998
0.038638055 -0.07971714 -0.04038804 0.035213526 0.07720476 0.056712855 0.0073206387 0.053211518
-0.079120696 -0.042177882 0.076412536 -0.08078695 0.10845124 0.018410677 0.065777466 -0.061280232
-0.1005002 0.051215842 0.016825074 -0.024130223 -0.043443214 -0.10170743 0.006644181 -0.048704777
-0.09729689 -0.03326853 -0.11824407 -0.04357037 0.048404302 -0.085811906 -0.04864402 0.12738258
-0.0573337 0.083699256 0.018276412 -0.003969275 0.018116608 0.097801246 0.06609308 0.00768886
-0.06374122 0.039033048 -0.049980924 0.058545846 -0.11447661 -0.071560666 0.056240782 0.11726635

_orig_mod.shared_mlp.0.weight f4 [128, 120]
00000000: 80d1 e13b e5a0 9c3d 768c f53d 35e7 0fbd
00000010: 677e db3c 3b9e 183c 2687 98bc 69c8 af3d
00000020: aa1a 203e 9408 63bc d28b fc3d 58a3 a1bd
00000030: e19a 1d3d 16c7 87bc 7f9a da3d 86a0 dbbd
00000040: 4296 2fbe 5f08 b2bc a2fa 0abe 45e2 82bc
00000050: c0da 8a3c 9ae3 3bbd be94 e7bd a6b9 e2bd
00000060: b7e4 60bd 5458 933d 87fe a2bc 7e93 dc3d
00000070: c5eb 0cbc 3523 67be 9b5c 7abc 3a6d 72bd
00000080: db79 87bc 96f8 7dbd faca f93c c467 efbd
00000090: 7b63 df3c 3e93 8fbd 31a4 d4bd 6c5b 3a3d
000000a0: 644e 223a 7aca d83c a02f f13c b307 b63c
000000b0: b0b2 f6bc 7edc a3bc ea8c 663c 96f2 253c
000000c0: cc0d 82bc 7a3d 79bd 2271 bfbd 70a1 c7bc
000000d0: 0a17 203d 6a68 1fbd 1975 5dbd 395a c73d
000000e0: 53a8 95bd 8982 4f3d 5651 7e3c 3254 fdbc
000000f0: b2b4 753d 80c9 7c3c a3c6 c93c 34f8 9dbd
00000100: e3cb 0abe d0a8 54bc a890 133d 8e13 85bc
00000110: 2827 d93d f1c2 8b3d 9c50 ffbc 5841 82bd
00000120: 0c22 1f3d 82cc d5bc 6f44 b7bb 5c08 1c3d
00000130: 1f12 e0bd 6608 96bd 0c9e 19bd 0e80 21bd
00000140: f318 923d e8eb ec3c a24f 153a 546c 6a3d
00000150: edf0 433d aa82 abbc 8156 4fbc df7a 263d
00000160: 2481 9abd 1f29 a13c 6ccb 063d 8b07 083d
00000170: 520d 9b3d f5e9 7c3d f886 713c 0590 4dbd
00000180: 0f8e d13c 8d6d c83c d4d4 213e f89f 3cbc
00000190: 9aee f93b d91f 773d 041e f33d 9999 83bd
000001a0: f52e c33c 11c9 963d 00d1 7dbd 14f7 6e3d
000001b0: de45 393d 88b4 c2bb ce23 af3d 87b2 2fbb
000001c0: 3b27 1bbd b195 9b3d 5e92 dcbd 1bad a03c
000001d0: c71a 683d 328a 9b3c f4f5 3d3d fa72 80bc
000001e0: b65b 0cbc 4a85 f93c 87ec ffbc 632e bebd
000001f0: ce1b c2bc 60e4 78bc 5de8 cdbd 75db b7bc
00000200: 8cb6 38bd a2a7 d83c ee91 1abd 4f43 2d3d
00000210: 28de f3bd c987 843d f5f7 ebbc 4838 6ebd
00000220: 7533 bf3c 4887 3ebc 4e37 3dbd f2dd 5bbb
00000230: 1252 4bbc 6d3a 573c f72e 8cbd 89f2 d13d
00000240: 8ad7 783d 7763 863d 3942 ba3d aeda 5b3d
00000250: 2f50 343b 1b7e 8bbd 1d5a 42bd 08ec b1bb
00000260: b222 813d 83b1 c8bc 4a5e 28bd aecf 17bd
00000270: 3351 22bd 1da2 243c 9682 82bc 5977 f83d
00000280: 3de5 c5bc b56b a0bd e027 333d 0245 d53c
00000290: fe12 d8bc 8e1b f3bc 687a c73c 809c 61bd
000002a0: e399 a83c 3b21 98bd 0d8e 8abd 4f66 a2bd
000002b0: bf93 b93b 0ace a2bd 3f6c b6bc 8eb4 dd3d
000002c0: f418 58bd 3bee 2ebc 5716 64bb db65 de39
000002d0: e19b c7bb f854 de3c 92c7 42bd da64 f33c
000002e0: 763f 2e3c 1a6f a23d 9c08 76bd f299 423c
000002f0: 20b1 333c 18be 383d 177c 3bbd 088c 31bc
00000300: 7814 513c c59d 53bb bb7a d3b9 916b 553d
00000310: ee6e 32bd 795f 203d c518 20bd 80e6 b23c
00000320: ca3a e2bc 90c3 febc 6ca3 b4bd 7c02 03bd
00000330: 91a6 223c 5df9 ad3c 9997 7cbc 0b18 c13c
00000340: b203 4a3d ce3e fd3c 1462 d03b abef fd3c
00000350: 694e b23c 7351 f5bc d28d ebbc 7565 853c
00000360: 5503 4e3d 1954 7c3d d13b ffbc 7f33 443b
00000370: e6dd 093d f1ec 0abd 4717 edbb 58d7 683d
00000380: e469 a73d 33fd d4bb f8a2 82bd 407b 8ebc
00000390: 65bf 1d3b 7aa9 c9bc 056a a53c c309 163c
000003a0: 6099 8b3c 2ea4 2f3d 7d6e 6ebb d9df afbc
000003b0: e3a4 953c aecb 09bb 278f b9bc 9e28 d63c
000003c0: 3233 403d d95b 93bc b62c 89bd 7389 b93d
000003d0: 6931 4abd e5a8 6c3d 5515 a13c 2141 3bbd
000003e0: 5424 4dbd 0b11 c23c 99f3 f7bd a9b4 333c
000003f0: fe37 373c 2880 9abd 6f17 dd3c 2d37 803d
0.0068914294 0.07647876 0.119896814 -0.035132606 0.026793672 0.009315069 -0.018619131 0.08583147
0.15635172 -0.013857026 0.12331356 -0.078924835 0.038477782 -0.016574424 0.10673999 -0.10723977
-0.17147163 -0.021732507 -0.13572171 -0.015977034 0.016950011 -0.045871355 -0.11307667 -0.11070566
-0.05490562 0.07194582 -0.019896759 0.107703194 -0.008601134 -0.22572024 -0.015280868 -0.059186198
-0.016537597 -0.06200465 0.030492295 -0.116897136 0.027269116 -0.07010506 -0.103828795 0.045497343
0.00061914907 0.026463736 0.029441655 0.022220468 -0.030114502 -0.0200026 0.0140716825 0.010128638
-0.01587572 -0.060849644 -0.0934775 -0.024368972 0.03908447 -0.038917936 -0.05406675 0.097340055
-0.07307496 0.050661597 0.015522322 -0.030923937 0.059986778 0.015428901 0.02463085 -0.077133566
-0.13554339 -0.012979701 0.036026627 -0.016244676 0.106031716 0.068242915 -0.031166367 -0.063601196
0.03885083 -0.026098493 -0.0055928747 0.03809391 -0.10940956 -0.073258206 -0.03750424 -0.039428763
0.07133665 0.028921083 0.0005695765 0.057232216 0.047837187 -0.020936329 -0.0126549015 0.040644523
-0.07544163 0.019672928 0.032908842 0.03321032 0.075709 0.061746556 0.014741652 -0.050186176
0.025580434 0.0244663 0.15803844 -0.011512749 0.0076273205 0.060333107 0.118709594 -0.06425781
0.023826102 0.07362569 -0.061966896 0.0583411 0.045232646 -0.005941931 0.08551751 -0.0026809291
-0.03787921 0.07596911 -0.10770105 0.019613793 0.056666162 0.018986795 0.046377137 -0.015679825
-0.0085667875 0.030459065 -0.031240715 -0.09286191 -0.023694899 -0.015191168 -0.100540854 -0.022443512
-0.045095965 0.026447121 -0.037736826 0.04230052 -0.11907607 0.064712115 -0.028804759 -0.058159143
0.023339966 -0.011628933 -0.04619532 -0.0033549038 -0.012409704 0.013136488 -0.06844895 0.10251338
0.06075243 0.0656194 0.09094662 0.053675346 0.0027513613 -0.06811162 -0.04744922 -0.0054297484
0.06305446 -0.024498707 -0.041105546 -0.037063293 -0.03962822 0.010048416 -0.015931409 0.12132139
-0.02415716 -0.078330435 0.0437392 0.026033882 -0.026376244 -0.029676225 0.02435036 -0.05508089
0.020581191 -0.07428213 -0.06765375 -0.0792967 0.0056633647 -0.07949455 -0.022268413 0.10825454
-0.052758172 -0.010676916 -0.0034803355 0.00042419028 -0.0060915803 0.027140126 -0.047553606 0.029711176
0.010635247 0.07931347 -0.060066804 0.011877524 0.010967523 0.045103163 -0.04577264 -0.010836609
0.012761228 -0.0032290083 -0.00040336497 0.052104536 -0.043562822 0.03915355 -0.039086122 0.021838427
-0.027615923 -0.03109911 -0.08820233 -0.03198479 0.009927408 0.02123707 -0.015417003 0.023571035
0.04931993 0.030913737 0.006359348 0.030998072 0.021765905 -0.029946065 -0.028754149 0.01628373
0.050296146 0.06160364 -0.031156452 0.002993792 0.033658884 -0.03391737 -0.007235441 0.056845993
0.08174494 -0.0064999103 -0.0637874 -0.017392755 0.002407038 -0.024616946 0.020192156 0.009157601
0.017040908 0.042881183 -0.0036381774 -0.021469044 0.0182671 -0.0021025944 -0.022651268 0.026142415
0.046923824 -0.017988132 -0.06697981 0.090594195 -0.049363527 0.057778258 0.019663492 -0.04571641
-0.050083473 0.023689767 -0.121070094 0.010968366 0.011182783 -0.07543975 0.026988713 0.06260524

_orig_mod.shared_mlp.0.bias f4 [128]
00000000: 4100 0ebe 78ba d5bd cc52 093d 60e7 f83d
00000010: 78b3 0fbd 470a f73d 33af bc3c f1bd 2cbd
00000020: f9c6 a83c 2f92 55bd 0121 fc3d babc f93d
00000030: e825 e13d ed04 203c 6b07 0abd c5c7 4c3c
00000040: 44c8 e13d bf22 a3bd 1f8b ccbc 8cb8 933d
00000050: ad1f 3d3c dc53 07bd 1167 9d3d b968 11bd
00000060: db58 d83d 0961 97bc 9dfd 18ba 076a 843a
00000070: f1c5 243d c94c cebc e0a2 15bd bf7a f7ba
00000080: ff85 3fbc ec5d 91bd 558d a53d 5aee 0abd
00000090: 409f af3c c088 cf3d 3e11 8c3d e9fc d83d
000000a0: c078 cd3d 96ff acbd 681b 003e 82a9 ebbd
000000b0: 38a5 1ebe f963 a93c e42d d63d 76fc 46bd
000000c0: 730e ffbb 8ecf 14be b464 0d3d b101 58bc
000000d0: cce2 c0bc 045d b93d 6761 523c 8f55 acbd
000000e0: 6c2a 37bd b378 c13d 583f 6bbc 0f45 0dbd
000000f0: b0b4 c03d 69b1 923d 3b4c 09bc ce04 45bc
00000100: 2d8c be3d f425 993d 89cf e63d 6ce4 c33d
00000110: 5016 7ebc dfe2 52bd 6853 1c3d 24e1 a93d
00000120: c43b 313c 3fe0 c93d c7c2 d5bd f291 0ebe
00000130: 4b80 993c 8b40 36bc 0c62 563d d503 3dbd
00000140: 3d50 56bd ada0 93b8 7838 01be 7bfa ad3c
00000150: ddb1 74bd be56 89bd ae67 a7bc b341 03bd
00000160: 2029 d6bd f33d ca3d f784 6ebd b953 3a3d
00000170: e9ce d8bb b7c6 e0bc 01e0 f0bd 7fac b53d
00000180: a65b a3bc 58b9 9c3a 6134 9c3d 1797 f13d
00000190: ddf0 1e3d 2041 babd 0475 913d ff1b 8d3c
000001a0: e953 a73d 911b 093e e86c 023e d784 1fbd
000001b0: 8d77 02bd 1d81 153b a7b3 e0bd 1d1c 643d
000001c0: 55b2 83bd f470 cebd b8d3 00be 907e f83c
000001d0: 2d63 64bc 9248 9d3d 2791 a1bd b810 c5bc
000001e0: 5766 fcbd a288 9cbd fe5a f33d c78d ab3b
000001f0: 8e0e f1bd ad74 19bd 2341 993c 786c a9bd
-0.13867284 -0.10435957 0.033526227 0.12153506 -0.035083264 0.12062507 0.02303276 -0.04217333
0.02060269 -0.052141365 0.123109825 0.121942 0.10993558 0.009766799 -0.03369848 0.012498801
0.11024526 -0.07965612 -0.024968682 0.07212934 0.011543197 -0.03303896 0.07685674 -0.035500262
0.10563823 -0.018478887 -0.0005836131 0.0010102399 0.040227834 -0.025183098 -0.036532283 -0.0018881186
-0.011689662 -0.07097992 0.080835976 -0.033918716 0.021438241 0.10133505 0.06839226 0.10595114
0.10032797 -0.08447187 0.12510455 -0.115069404 -0.15492713 0.020677553 0.10457972 -0.04858061
-0.007783705 -0.14532301 0.034519866 -0.013183997 -0.023545645 0.090509444 0.012840605 -0.084147565
-0.04471819 0.0944685 -0.014358364 -0.034489688 0.094094634 0.071627446 -0.008379991 -0.012025071
0.0930408 0.07477942 0.11270053 0.095650524 -0.015508249 -0.051485892 0.03816548 0.08294895
0.010817472 0.09857225 -0.104375415 -0.13922861 0.018737933 -0.011123787 0.0523396 -0.046146233
-0.052322615 -7.0394344e-05 -0.12619197 0.021237602 -0.059739936 -0.06705998 -0.02043518 -0.032045078
-0.10457063 0.09875097 -0.058232274 0.04549 -0.0066164625 -0.027438505 -0.11761475 0.08870792
-0.019941162 0.0011957092 0.07627178 0.11796396 0.038803924 -0.09094453 0.07102397 0.017225264
0.081703015 0.13389422 0.12736857 -0.038945045 -0.031852294 0.0022812553 -0.10971766 0.055690873
-0.064304985 -0.10080138 -0.12580764 0.030333787 -0.013939661 0.07679857 -0.07889014 -0.024055824
-0.12324207 -0.07643248 0.1188259 0.005235407 -0.11770354 -0.037464786 0.018707817 -0.08272642

_orig_mod.shared_mlp.3.weight f4 [64, 128]
00000000: f948 53bc fee9 9dbd 066a b83d 3ba6 433d
00000010: 30cb a03b 590b d43d 27ad 45bd 9632 02ba
00000020: 7698 91bc 81ee 813d 8269 673d 6f5b 20bd
00000030: 247c 40bd c75e 193d 6ab4 113c 53f8 4d3b
00000040: 3e2a 8e3d 8d24 a2bd 2a31 b53b dd74 ac3d
00000050: 40e8 13bc a2ac 763d 4e60 003d 6794 d6ba
00000060: 64df f53c d6e5 6aba 4cae 0cbd 708f 913d
00000070: e35d 16bd 0065 ba3c 9fea e43c 9d92 1d3c
00000080: f4f0 c7bd 02ca 07be 09f4 7abd e6df 3ebd
00000090: 31d9 c63d 7ae9 f7bc 05a9 e2bc 73c6 b53d
000000a0: 7132 2f3d 86d5 f2bd ab26 dcbc 2fa1 dcbd
000000b0: 8650 f7bd 297d 0e3d 16e9 58bc 5e0c 56bd
000000c0: da3d 823d 97f8 9a3c f773 a23c debc c0bc
000000d0: b26f a13d 98db 01bd ce3d 02bd 7f5e c7bb
000000e0: d861 b9bd a888 7e3d 8903 ba3d b59c 20bd
000000f0: e397 88bd 483c 00bd 5059 493d 7bb7 afbd
00000100: abfe a23d 14a7 8b3d 57e3 953d 51ed 3a3d
00000110: 811d a2bd ca3b 9fbd c6e7 fb3c d045 c53d
00000120: af79 99bc 53c5 3f3b 26ce 713c 6ef7 30be
00000130: a970 28bd cb4b 06be 1560 483d 225f 40bd
00000140: 9428 123d 4018 043d 9fb4 91bc b765 39bd
00000150: 7946 453c d1e4 c3bd 1c5e 32bd 38a8 bfbd
00000160: 9428 07be d998 aabc 1fac d03c 7402 313c
00000170: 36d5 37be f664 c43c 8834 f23b be90 2c3d
00000180: b660 52bc 457e 67bc fa95 193c e89a b63d
00000190: 335a f2bc 699a bcbd 6ba5 2dbb 3c0f b23d
000001a0: 9a04 ce3d b428 853d e2e6 a33d c72c 5fbd
000001b0: a5b3 3139 7906 4cbd 57ad 8bbc f1a7 173d
000001c0: cb28 e3bd be32 16bd 242f d3bd a057 57bd
000001d0: 70e8 903d f895 b03d e725 093d 00fe 253d
000001e0: 3652 9abd 9c5a 34bc 2947 793d b01f 553d
000001f0: 966c 34bd 37bb 2b3d d5ad 68bd b4e7 093b
00000200: c3e3 0abd d5de 97bc f336 58bd f784 143d
00000210: c5a7 a6bd c7ad 75bd 9396 a03c 86d2 933c
00000220: 6220 7abd bc1b 503c 9d5f 1ebd f4db ec3c
00000230: 5c09 acbd 2b74 f63b 301a febc 5042 e53c
00000240: 4e14 823c 9324 e0bc bc77 7bbc 0971 b1bd
00000250: ed80 19bd b97d 3b3b ce36 5ebd e46d 553a
00000260: c892 043d 6bcf 56bd 1f04 403d 5cfc 03bd
00000270: 3b3c 373d dc29 82bd f5eb aa3c b16a 9d3b
00000280: b1ca 993b a76e b43c 5e4a 40bc dd28 35bd
00000290: 5ba0 003d fd26 94bd 64bc 24bd 336c 3e3d
000002a0: 6464 8b3c f53b afbc a83b b4bc d234 91bc
000002b0: 24bc a3bb 9e04 b43a 2d0e b6bd 3513 c5bb
000002c0: e595 f93b 74ff 97bb d580 d8bd b36b d93c
000002d0: 17f1 20bc fad6 79bd f674 bbbb 4bb8 ef3c
000002e0: 6596 a2bc 011d 5e3c d376 50bd f595 c8bd
000002f0: df78 b6bd edbe adbd 36d5 0d3b bec0 99bc
00000300: 4a7f cebc 560d e0bd 0fbf 8cbd dfaf 94bd
00000310: 71f2 50bd 6648 743d 248a 2ebc a96e 8ebc
00000320: 1389 c1bc ba29 f13a 8a6e 03bb ec6f 033d
00000330: a22e c6bd 0a92 ed3c 857d 60bd ce8f 12bd
00000340: ba2d 69bd cb3a 543b 50b1 f6bc 0532 81bd
00000350: a19a 91bd c3dd 99bb 4be8 7bbc f112 f13b
00000360: 2edc 07bc 4726 d43c c3bb cdbb 3097 fdbc
00000370: 5d02 dbbc ccd1 b3bd d2d8 883d a7e8 9bbd
00000380: 9ba8 e9bc 53bc 4d3c b852 343d 0b9a 06bd
00000390: 19ed 46bd 28bc 4d3d 12d1 8fbc f8a0 b2bc
000003a0: 9190 9bbd 529b 9dbd e334 ff3b 0be0 343c
000003b0: 0317 133c f8b1 7abd eb72 fabc 192f bd3c
000003c0: ab5e e8bc 338e c3bd 37fd a73d 19c6 c8bd
000003d0: 9c69 12bd d2ce 04bd f9c6 deba 8f93 abbd
000003e0: 7cc2 e03c afc3 033d 8f97 97bd 6298 c0bc
000003f0: bf53 07bc 9d04 373c f0b4 bdbb c47c cebc
-0.012895816 -0.07710646 0.09004597 0.04776595 0.0049070343 0.10353727 -0.048260834 -0.00049666443
-0.017772894 0.06344319 0.056497104 -0.039149698 -0.04699339 0.037443902 0.008893112 0.003142853
0.06941651 -0.07917128 0.0055295425 0.084207274 -0.009027541 0.06022323 0.031341843 -0.0016371132
0.030013748 -0.000896064 -0.03434591 0.07107437 -0.03671063 0.022753239 0.027943907 0.009617475
-0.09762755 -0.13260654 -0.061267886 -0.046600245 0.09709395 -0.030262697 -0.027668485 0.08875742
0.042772714 -0.118571326 -0.026873907 -0.10772931 -0.120759055 0.03478733 -0.013239166 -0.052257888
0.063594535 0.018917365 0.019830687 -0.023527559 0.07882632 -0.03170356 -0.031797223 -0.006084263
-0.09051865 0.062142044 0.090827055 -0.039211947 -0.06669595 -0.03130749 0.04915744 -0.08579918
0.0795873 0.06818977 0.07318752 0.04563648 -0.07915784 -0.07775076 0.030750167 0.09632456
-0.018734781 0.0029261902 0.014758622 -0.17281887 -0.041123066 -0.1311485 0.048919756 -0.046965726
0.03568323 0.03224969 -0.017786322 -0.04526302 0.012040728 -0.09565128 -0.04354678 -0.09358257
-0.13199073 -0.020824837 0.025472699 0.0108038075 -0.17952427 0.023973923 0.007391516 0.042130224
-0.0128404405 -0.014129226 0.009374136 0.08916265 -0.029584026 -0.09209139 -0.0026496302 0.08694312
0.100594714 0.06501904 0.08003022 -0.054486062 0.00016946958 -0.04981086 -0.017050428 0.037025396
-0.11091765 -0.036669485 -0.10311726 -0.0525738 0.07075584 0.08622354 0.033483412 0.040525436
-0.07535212 -0.011007931 0.06085888 0.052032173 -0.044048868 0.04192659 -0.056806404 0.0021042647
-0.033908617 -0.018538872 -0.05278678 0.036259618 -0.08137468 -0.05998018 0.01960305 0.018044721
-0.06106604 0.012701925 -0.038665403 0.028913476 -0.08400223 0.0075211725 -0.031018347 0.027985722
0.015878823 -0.02736119 -0.015348371 -0.08664138 -0.03747647 0.0028608872 -0.054251485 0.000814168
0.032366544 -0.052443903 0.04687893 -0.03222309 0.044735175 -0.0635564 0.020864466 0.0048039784
0.004693352 0.02202542 -0.0117364805 -0.044228423 0.031402927 -0.07233999 -0.040218726 0.046489906
0.017015643 -0.021390894 -0.022001103 -0.017725382 -0.0049967933 0.0013734286 -0.088894226 -0.0060142525
0.007616746 -0.0046386067 -0.10571448 0.026540613 -0.009823105 -0.060996033 -0.00572073 0.029262682
-0.019847104 0.01355672 -0.05089457 -0.09794227 -0.08909773 -0.08483682 0.0021641976 -0.018768664
-0.02520718 -0.10940044 -0.06872379 -0.07260107 -0.05101246 0.059639357 -0.0106530525 -0.017386751
-0.023624932 0.0018399276 -0.00200549 0.03208916 -0.09676863 0.0290003 -0.054807205 -0.035781674
-0.056928374 0.0032383676 -0.030113846 -0.063083686 -0.07109571 -0.0046956255 -0.015375207 0.0073569943
-0.008292241 0.025897158 -0.0062784865 -0.03095588 -0.026734525 -0.0878025 0.0668198 -0.07612734
-0.02852278 0.012557107 0.0440242 -0.03286175 -0.048565958 0.050228268 -0.017555747 -0.021805272
-0.07595933 -0.076956406 0.007788287 0.011039744 0.008977654 -0.06120488 -0.030572375 0.023093747
-0.028365454 -0.09548607 0.08202594 -0.09803409 -0.03574525 -0.0324238 -0.0016996554 -0.08377754
0.027436487 0.03216904 -0.074019544 -0.023510162 -0.008259713 0.0111705335 -0.0057893917 -0.025205977

_orig_mod.shared_mlp.3.bias f4 [64]
00000000: b192 973d 3690 a0bd 6c7d 913d 7739 4e3c
00000010: 42d5 dfbd 0e0e 793d 8ce8 76bc 411d bb3c
00000020: 886d 823c c7b7 f63c 843b 0c3e 69d1 96bd
00000030: 9496 f93d d448 943d 78b0 953d 28e8 213e
00000040: 1f6a fbbb 8305 853d 6b67 a63d 3099 913d
00000050: 96ac 75bd dad0 953d 3eb1 eb3d f0cf 173d
00000060: ac1c fc3d 1607 e63c 0be6 68bd 3d7f cdbd
00000070: b22d 0f3e b592 1c3d 48b5 14bd e759 dfbd
00000080: 649e d13d 1708 093e a1ae 153e 3f41 46bd
00000090: 70f8 aa3d 7029 9e3d 782d c13d 77f2 163e
000000a0: 205a 213b 90b5 3e3e fc44 b4bb d5c0 a1bd
000000b0: 47b3 dbbc 1fbf f1bc fbaf 98bd 0ffa 2cbd
000000c0: f83f 9c3d 2506 69bd 5185 ccbc c9db 35bd
000000d0: 248f edbd 7a04 71bc 32e7 f73c eb21 183e
000000e0: fd2e bebd 485a 2fbc 41c5 42bb 6f92 23bd
000000f0: 862d b6bc 30a1 d3bc a6ad a4bd 4535 6c3d
0.07401026 -0.07840006 0.071040004 0.012586943 -0.109293476 0.06080442 -0.015070092 0.022841098
0.01592137 0.030116929 0.13694578 -0.073641606 0.121869236 0.07240453 0.07309049 0.15811217
-0.0076725627 0.06495192 0.08125194 0.07109296 -0.059979044 0.07315226 0.11508416 0.03706354
0.12310156 0.02807955 -0.05686001 -0.100340344 0.13982275 0.03822585 -0.036305696 -0.109058194
0.10235289 0.13381992 0.14617397 -0.048402067 0.08348167 0.07722747 0.094325006 0.1474093
0.002462037 0.18623948 -0.0055013876 -0.07898108 -0.026818885 -0.029510079 -0.074554406 -0.042230662
0.076293886 -0.056890626 -0.024965914 -0.044399057 -0.115995675 -0.01471054 0.03026161 0.14856689
-0.09286306 -0.010702677 -0.0029719623 -0.03993457 -0.022238504 -0.025833696 -0.08040933 0.05766799

_orig_mod.ctr_head.weight f4 [1, 64]
00000000: 26bd d8bd c7a8 393e 1da8 9cbd 47e0 563e
00000010: 37c4 0e3e acb5 bcbd c848 abbd 597a 96bd
00000020: ae74 d3bd 51fe 59bd c26a 93bd aa7f 4f3e
00000030: 102d ebbd 7587 a8bd 079e 9fbd 5ff9 41bd
00000040: 0f4a bfbd 5898 87bd 5e42 b6bd ed40 aebd
00000050: a038 233e 59b2 93bd 6b12 9cbd 1b71 383e
00000060: e04f a8bd 44a8 adbd 46fa 3a3e e652 633e
00000070: 495e 60bd 9c6f ce3d cc77 183e 4597 3c3e
00000080: e446 88bd b3f0 bdbd 57dc b4bd 4864 183d
00000090: 219d acbd 32ae a0bd 1c79 8fbd 96ad ccbd
000000a0: 7b65 473e f9f4 6abd 59e7 97bd 56d9 453e
000000b0: 11fc 5a3e 1e06 523e c2a3 1c3e 3de3 3c3e
000000c0: 8650 a7bd e85c 3b3e 33a7 a03d 9884 5d3e
000000d0: 697c 613e d962 313e 0a06 a6bd bca3 83bd
000000e0: 180d 4f3e 747b 133e c6b1 2d3e ce3d 023e
000000f0: 0f10 3b3e ba45 d43c 785f 6f3e a091 d6bd
-0.10582952 0.1813079 -0.076492526 0.20983993 0.13942038 -0.09214339 -0.08363491 -0.07347555
-0.10324989 -0.05322105 -0.07198097 0.20263544 -0.11483204 -0.082289614 -0.07793813 -0.04735696
-0.093402974 -0.06620854 -0.08899377 -0.08508477 0.1593957 -0.072117515 -0.076207004 0.18011896
-0.0821836 -0.0847936 0.18259534 0.22199592 -0.054777417 0.100798815 0.14889449 0.1841708
-0.06654146 -0.09274425 -0.08831089 0.03720501 -0.084284075 -0.07845725 -0.07005522 -0.099940464
0.19472305 -0.05736253 -0.07417173 0.19321188 0.21385218 0.20510146 0.15296844 0.1844606
-0.081696555 0.1829716 0.07844391 0.21632612 0.22020115 0.17322864 -0.081066206 -0.06427714
0.20219839 0.14402562 0.16962346 0.12718889 0.18267845 0.025912154 0.23376262 -0.104769945
