experiments/resort_20251006_140548/models/best_model_checkpoint.pth (torch, 156231 bytes, 45 tensors)

_orig_mod.embeddings.gender.weight f4 [5, 16]
00000000: 4d79 953c d1fb e43d eb82 4e3f 6325 edbd
00000010: 1718 c9be b2d2 b63c a722 ed3e 9614 dabf
00000020: f5d1 863b c8b4 003e 192d 55bd 45c5 8cbd
00000030: 3994 523d de4d 723e 2b72 623e 7468 99bd
00000040: 8172 973f 4e59 1d3f 6fd2 30bf 9872 b53f
00000050: 2d87 1e3e fa44 903e f05f 543f b17d cebe
00000060: 0c46 82bf a211 5abf 67d3 503e 4f1a 74bf
00000070: 6d95 453f c3e0 ba3f 9cd8 61be 2967 84be
00000080: 3e33 e43f 4f16 b53e d79f 053e 2aab 45bf
00000090: e74a c03e 1f14 24bf 6c1b aabd 35a7 e93d
000000a0: e778 61be 5b44 e5bf 4359 90bf cfca 06be
000000b0: 8b18 393f 62ba 9c3f 8171 05be 983b eebd
000000c0: 5353 1a3b 7692 e43c 868f 9a24 e4c1 30b5
000000d0: 4e3b 3f32 1cbf 563a 3230 eb34 5117 e939
000000e0: 195f 3529 a6c8 b327 4c5b 0500 d4af 7da0
000000f0: c5df c9bb c877 28bd 0cea e834 ad6f 0580
00000100: 5086 b3a9 51dd 7716 a087 d901 1533 60bc
00000110: f942 0600 2759 0580 06d8 e3a1 7742 e3b2
00000120: 6a5e 4f39 4a66 0428 a364 0500 da60 22bb
00000130: 427e b085 d559 0500 439e c4bc e88b 5bba
0.018246317 0.11180843 0.80668515 -0.115793966 -0.39276192 0.022317264 0.463155 -1.7037532
0.0041143843 0.12568963 -0.05204496 -0.06873564 0.051410887 0.23662516 0.22113864 -0.07490626
1.1831819 0.61464393 -0.69071096 1.4175596 0.15481253 0.28177625 0.8295889 -0.4033027
-1.0177627 -0.85183156 0.20393144 -0.95352644 0.7718113 1.4599842 -0.22055286 -0.25859955
1.7828138 0.35368583 0.13049255 -0.772143 0.37557146 -0.640932 -0.083060116 0.11408845
-0.22018777 -1.7911485 -1.127724 -0.13163303 0.72303075 1.224438 -0.1303158 -0.1163246
0.00235482 0.02790187 6.702999e-17 -6.584726e-07 1.1131148e-08 0.00081919297 4.3807228e-07 0.00044458595
4.0272558e-14 4.9900024e-15 4.91929e-40 -2.148811e-19 -0.0061607086 -0.041129857 4.338366e-07 -4.99239e-40
-7.9724964e-14 2.0022336e-25 7.9907823e-38 -0.013684054 5.75038e-40 -4.9116e-40 -1.5439299e-18 -2.6456503e-08
0.0001977623 7.349652e-15 4.95279e-40 -0.0024776966 -1.659734e-35 4.91403e-40 -0.024001246 -0.00083750347

_orig_mod.embeddings.age_group.weight f4 [15, 16]
00000000: 2657 e6be ac34 cfbd f2f1 ac3d 5539 99bd
00000010: 2f1c 47bd db20 4d3f 1d4c e63d 7c38 ec3c
00000020: 5fe8 11be 4f7c 263f d893 973d 5bb9 1a3d
00000030: 31b0 4d39 de53 883d 0410 aa3d 0302 f23c
00000040: 17f3 a33c 4cd1 afbe b899 da3e 8ff1 a3bd
00000050: 6723 c3bd a1c7 d33d 4a39 19be 9f40 66bd
00000060: 3120 38be 225c e3bd b354 09be 862d 4a3d
00000070: ef53 8cbb d841 18be 10e6 e3bd 0f57 3a3c
00000080: df67 973e 97b3 87bc 02db cd3c 4ae3 9abf
00000090: a3ab 66bf 0a6e c23d 07ed 9cbe 0b76 ecbd
000000a0: b527 d2be d1eb 8a3f 4394 f63e 7c8d 6e3d
000000b0: 7da9 d83e 2ad2 b5be 5c94 0dbf db8e 2fbf
000000c0: eb6a c7be f0bf ae3e 9b4d 4f3e 3289 05bf
000000d0: 01f0 cb3f 185a 15bf 2749 d63c 701d c03e
000000e0: f2c1 7cbd a7b6 5b3e 24d8 edbe 3f32 533f
000000f0: 8ab9 e2be 14e7 23bf a48d 7e3d d593 1ebf
00000100: 0aee 3d3f adeb 5a3e 301a c73e 91c2 933d
00000110: b937 2d3d 5c5d f43d fa43 753d 3b43 3ebf
00000120: 82c1 d93e b11a 08bf c13c ab3f 0d2b 5c3f
00000130: ea38 1abf cda8 ac3f a2f0 b43b 6f73 3a3e
00000140: 0238 5cbb 2377 443e 708c c93e f573 99be
00000150: cbdb 163e 91ff ab3d 30d9 933f a338 353f
00000160: a9c7 043f 7b25 57bd 67de 303f a44c 37be
00000170: 442e 773e 5ddb 90be b3e2 36bf 59e2 203f
00000180: 2299 a03e 4115 9f3f 5128 c73c 21ec 593e
00000190: 6e02 a5be c686 e03f 5d2e 7ebf eb46 c63f
000001a0: 0e0d 653e 5464 6d3e ce74 78be 4e8d 3e3f
000001b0: e325 4cbe 33d6 203f dcf6 af3f b7a8 553f
000001c0: 3e52 8abe b78d 323f 8d70 b6bf ddf0 90bf
000001d0: bb3a 293f cbfb 92bf 5e73 a7bf 2ea7 21bf
000001e0: 9ed7 83bd c478 07bf eb9b 14bf 8805 d5bf
000001f0: 742f 90be 36f3 fbbd 0ec7 983f 7b33 093c
00000200: 913a df3f e149 c13f d28a adbf ae61 0240
00000210: fd48 633f 332d 6dbe 7c91 23bf d4b6 18bf
00000220: 5601 493e 8a49 8fbf c20b 5ebf 87bc dabe
00000230: 523c edbd e9b2 983e 5511 fd3d d480 86bd
00000240: d914 2335 eebd 97ad e74f 010d 7bf2 8433
00000250: d43b 2636 cd5f 0500 9059 0580 f290 0580
00000260: 276d 0bb5 f69c 0500 7358 ddb0 17c0 0600
00000270: a1bc 09bc db70 0500 d844 0e89 76ff 24ae
00000280: 9357 0500 b322 0fbb 25ca afb1 6350 7d30
00000290: 4567 0580 dabc 460b 9630 3923 f3a4 1628
000002a0: dd29 16b6 039a 8eb9 ce68 763d a6d3 e6bc
000002b0: 852a 36bb fa96 f0bc f5da c935 6963 0580
000002c0: 8e10 a595 f6b6 6c38 1230 5db1 75f6 5e1d
000002d0: 6679 cab3 687f 50a6 5c8a 0580 3171 0580
000002e0: 4a26 faa8 d682 0600 c3cb 5ab3 01e0 b33a
000002f0: 69ac 0580 1ce5 133e fd40 87ba 1051 512a
00000300: 0b9e 1816 7f08 181c 94bd 21b0 8b59 0580
00000310: 2607 62b7 7414 3ab9 e601 e7b0 e80e 0600
00000320: 12a1 6ab9 f83a 1eb8 89ec d2ba 5652 3c3a
00000330: 0a2a a21c 4a9d 1909 0d1a d690 0882 443a
00000340: 5585 48ad c476 eb8c 405c f2b4 135e 0500
00000350: b98e adba f20c 7299 c842 8482 5c7f bfb6
00000360: fdf2 11bd 8a2c b834 358d 8032 7674 0580
00000370: b9b0 dfb5 36fc 823b f02d 71b5 a769 0080
00000380: 2931 88b0 8314 b735 c58e 91a1 598f c3ba
00000390: 5862 0500 bde2 c33b f4e9 823b 0c86 12ba
000003a0: 80e4 56b4 c977 30bd 2123 433a 33f4 0500
000003b0: 103b 2faf fd40 9617 e6a8 b29d f623 d036
-0.44988364 -0.10117468 0.08444585 -0.07481638 -0.048610862 0.8012826 0.11244986 0.028835528
-0.14248799 0.6503343 0.07401246 0.037774425 0.0001961596 0.066566214 0.08303836 0.029541975
0.020013375 -0.34339368 0.42695403 -0.08005058 -0.09528237 0.103408106 -0.1496326 -0.05621397
-0.1798103 -0.11101557 -0.13411216 0.04935982 -0.0042824666 -0.14868867 -0.11127865 0.011373295
0.29571435 -0.016565127 0.025128845 -1.2100613 -0.90105647 0.094936445 -0.30649588 -0.115459524
-0.4104592 1.0853215 0.4815999 0.0582404 0.4231681 -0.35511905 -0.55304503 -0.68577355
-0.3894876 0.34130812 0.20244448 -0.5216247 1.5932618 -0.583406 0.026157929 0.3752246
-0.0617084 0.21456395 -0.46453965 0.82498544 -0.4428218 -0.6402447 0.062146798 -0.61944324
0.74191344 0.21378966 0.38887167 0.07214845 0.04228947 0.119318694 0.05987928 -0.74321336
0.42530447 -0.5316573 1.3377916 0.8600319 -0.60243094 1.3489014 0.0055218497 0.18208097
-0.003360272 0.19186072 0.39364958 -0.2997128 0.14732282 0.08398355 1.1550655 0.70789546
0.5186716 -0.05252598 0.6908936 -0.1790033 0.24138743 -0.2829236 -0.71439666 0.6284538
0.3136683 1.2428361 0.024311217 0.21281482 -0.32228416 1.754113 -0.99289495 1.5490392
0.22368261 0.23182803 -0.24263307 0.74434364 -0.19936328 0.6282684 1.374721 0.83460563
-0.2701587 0.6974749 -1.4253098 -1.1323506 0.6610524 -1.1483091 -1.3082082 -0.6314572
-0.0643761 -0.5291865 -0.5805041 -1.6642313 -0.28161204 -0.12302248 1.1935747 0.00837409
1.7439748 1.5100671 -1.355799 2.037212 0.88783246 -0.23161773 -0.63893867 -0.59653974
0.19629416 -1.1194317 -0.8673669 -0.4272196 -0.11583771 0.29823998 0.123568214 -0.06567541
6.075257e-07 -1.7251058e-11 3.9847373e-31 6.190836e-08 2.4770752e-06 4.93544e-40 -4.91306e-40 -5.11174e-40
-5.194037e-07 5.15484e-40 -1.6105005e-09 6.19922e-40 -0.008406789 4.99662e-40 -1.7124998e-33 -3.7516178e-11
4.90593e-40 -0.002184075 -5.1161515e-09 9.21551e-10 -4.96224e-40 3.827549e-32 1.00391586e-17 8.36244e-15
-2.237611e-06 -0.00027199098 0.060158543 -0.028177094 -0.002779634 -0.029368866 1.5039392e-06 -4.94839e-40
-6.666909e-26 5.643718e-05 -3.2187057e-09 2.950887e-21 -9.42844e-08 -7.2337164e-16 -5.08811e-40 -4.99783e-40
-2.7772181e-14 5.97948e-40 -5.09424e-08 0.0013723375 -5.21027e-40 0.14442867 -0.0010319051 1.8591053e-13
1.2328332e-25 5.030356e-22 -5.8840866e-10 -4.913e-40 -1.3472314e-05 -0.00017745962 -1.6808002e-09 5.5636e-40
-0.00022375982 -3.7725054e-05 -0.0016092221 0.00071839 1.0731128e-21 1.8490662e-33 -8.4448254e-29 0.0007496183
-1.1398289e-11 -3.6278962e-31 -4.5143133e-07 4.92925e-40 -0.0013241387 -1.2513721e-23 -1.9433987e-37 -5.70707e-06
-0.035632122 3.4305077e-07 1.4965375e-08 -5.00956e-40 -1.6666228e-06 0.003997351 -8.9846344e-07 -3.7901e-41
-9.909275e-10 1.3640532e-06 -9.863373e-19 -0.001492004 4.94457e-40 0.005977957 0.0039951745 -0.00055894325
-2.0013431e-07 -0.043082986 0.0007443894 5.4678e-40 -1.593714e-10 9.709928e-25 -4.7290845e-21 6.2030695e-06

_orig_mod.embeddings.inventory_id.weight f4 [50, 16]
00000000: 298a 29bd 8583 d3bd 3cf0 abbc 3035 b73e
00000010: bfec aebf 1fd5 0abf 2c64 613e afad 9dbd
00000020: 8727 343f 6e6c 25bd 7f2b 33bf ec96 33be
00000030: bde5 e9bf 633e adbf 677a 05bf a4f9 cb3e
00000040: e78b eabd 2c87 09bf 99e1 c33d 73e8 f33c
00000050: 0242 21be 2830 cdbc 4e69 b53d 07ec 383e
00000060: 959f 55be d22a c5bd 171f 80be 092b 353f
00000070: bc07 0d3e 0757 153c a024 993c 199d 2c3c
00000080: b6c3 8abe 8921 0ec0 d756 023f 0c31 8abe
00000090: 176c f93e 5dca 993f d003 1c3f de99 45be
000000a0: 41e0 223f b220 443f af38 1c3f 8cde 3240
000000b0: c866 1fbf ffd1 a8be d4d0 fe3e 3819 27bf
000000c0: 84cc 983a f837 ff3a 3b56 10bb b7f9 a23b
000000d0: 29f6 b63c b3fe aebb ae3d df3b 0582 603c
000000e0: c0e7 85bb b660 fe3b d1aa 353c 4364 8dbb
000000f0: 765f 583d a8a3 e83b e2b3 4f3a e12e 88ba
00000100: 3d8d c63d 6356 533c 59da 1a3f 0704 d23e
00000110: 24ce f93d f57c 4e3f e40b 52bc df0d 73be
00000120: 154d cebf 5baf 123f 1fa0 95bd f8e8 35bf
00000130: 5a6c dfbd 9f5e 2e3e d5b9 24be 89e7 86bf
00000140: 1f3f b1bc 208a 3ebe a2f2 cebe 4897 9bbf
00000150: 96ed b7be 159a 3abf 577a 2bbd ebeb 113d
00000160: 4be5 bc3e 1630 903f 1091 25be 7f29 37be
00000170: 4010 55bf 5674 b0bf 0ead 953e cbb5 87be
00000180: edbf 8c3e 194a 22bf 7d32 1e3e c5b1 ccbe
00000190: cebc 863e 171c 02c0 0fe6 103f 8e61 8abe
000001a0: 6e0e cabe 70d3 1c3f 4944 acbe d304 1fbe
000001b0: 25b2 b73e e165 d63e 75e4 76bf 438c 8ebd
000001c0: ec5c 593e 65b6 4e3f d340 e73e 236f a33f
000001d0: 6083 3ebf 8678 3dbf 58ea dbbe 7c9e 2c3d
000001e0: 2f59 a3bc e548 9b3e f8bc 563e 8f31 6e3f
000001f0: 9423 9cbf fdb0 54bf 0e4d 4a3e ecbd d23e
00000200: 79cc 21be b942 11be 8c1d 48be 20a6 9a3b
00000210: 2f6a 6abe ad47 8ebc dc7a fc3c a5bd a53e
00000220: 4d13 8abc 0170 1bbe 521d 56bf 4fe2 1a3e
00000230: eb41 ea3d 7aa1 cb3c 570c 42be 5ce9 aabc
00000240: aaa7 bebe 25ca 64bf 1d8f 33bf 15f9 9d3e
00000250: e759 e23e 80aa 31be a0bd 9e3e e4be fdbd
00000260: 7b40 ba3e 3eee acbe 15fd b13e 1f0a 1ebd
00000270: b611 00bf a611 f5be cf8f 8bbf 3b37 7b3e
00000280: 65f0 943f f105 c63e 5f3b 11bf a61b 7fbd
00000290: 1ba4 b43d 9a74 ac3e 17ae 493d 85cb 12bf
000002a0: 3b45 6e3d 47b7 1a3c 4c87 e2be b79b 1ebd
000002b0: 246d 86be 0438 3f3f 8af4 783e f503 f6bf
000002c0: 6030 abbe 9b8d 63be a67b 8cbe 2f66 13be
000002d0: fdaf c23e ea66 c8bf 0bc2 063f 10aa 693f
000002e0: f334 dcbd 2234 59be a0d6 d2bc f7f9 7fbe
000002f0: 3cb9 cc3e a6cb 9abd 76d7 edbe ab19 2fbf
00000300: 157c 42bc a34f cabf a2eb e9be c452 0cbd
00000310: 5a23 283f 3f61 853f d2cd bb3e f2b2 233f
00000320: 7432 65bf a78f 2f3f 4dd2 e2bd 9110 153d
00000330: 337f 89bf 9c4f e1bf e6f0 edbd d8a1 173e
00000340: 1e1c c0bd 8a12 25be 1f5f 003f 87a2 9a3e
00000350: ada9 e6bc 2ac7 aabd 7ee2 8c3c db25 c03e
00000360: db0d 47bf 2df5 04be f25a 35be 6eba 2f3f
00000370: 7770 b23e 3f03 2a3c e76f 653e 3949 053d
00000380: fc2c f43e db7f c03f 2c42 1fbe 58ff 12bf
00000390: c806 0e3f e652 833e 343f 97be 8ff2 fb3e
000003a0: ad0e d6bd c5cb a33d e0a2 563e ad32 44bf
000003b0: 4c0c 5fbe 1581 73bf e471 81be 7575 3e3e
000003c0: 0a11 edbd 48a6 77bd 8ebd 0cbe 0622 773f
000003d0: 0513 ec3e ac24 e4be e66a f9be fe71 c13b
000003e0: 163b 133f 4b24 133b 6ee1 5fbe 2e52 8fbd
000003f0: e687 ef3c d45f 60be b927 0fc0 1c4e 0c3f
-0.041391525 -0.1032782 -0.020988576 0.35782766 -1.3665999 -0.54231447 0.22010869 -0.07699143
0.70372814 -0.04038661 -0.69988245 -0.17538041 -1.8273236 -1.3534664 -0.52139896 0.39838898
-0.114524655 -0.5372188 0.09564514 0.029773926 -0.15747836 -0.025047377 0.08857976 0.18058787
-0.20861657 -0.09627308 -0.2502372 0.7076879 0.13772482 0.009114987 0.018694222 0.010535502
-0.2710244 -2.2207968 0.5091376 -0.26990545 0.48715279 1.2014881 0.6094332 -0.19296977
0.63623434 0.7661239 0.6102399 2.7948332 -0.62266207 -0.32972714 0.49768698 -0.65272856
0.001165763 0.0019471636 -0.0022024054 0.004973616 0.022334175 -0.005340421 0.0068127727 0.013702874
-0.0040864646 0.0077629937 0.011088089 -0.0043149306 0.052825414 0.0070995875 0.0007923228 -0.0010389948
0.09694908 0.012899014 0.6048942 0.41018698 0.12197521 0.8065942 -0.012820218 -0.2373576
-1.6117274 0.5729882 -0.07305931 -0.7105861 -0.10909338 0.17028283 -0.16086514 -1.0539409
-0.021636544 -0.18607378 -0.4041949 -1.2155542 -0.3592345 -0.7289136 -0.04186472 0.03562538
0.36893687 1.1264675 -0.16168618 -0.17886923 -0.8322792 -1.3785503 0.29233593 -0.26505885
0.27490178 -0.63394314 0.15448947 -0.39979377 0.26315922 -2.0329645 0.5660104 -0.27027553
-0.39464134 0.6126013 -0.33645847 -0.15529184 0.358781 0.41874602 -0.9644235 -0.069603465
0.21226853 0.8074706 0.45166644 1.2768291 -0.7441921 -0.7401203 -0.42952228 0.04214333
-0.019939987 0.30329052 0.20970523 0.9304437 -1.2198358 -0.8308256 0.19755957 0.41160524
-0.15800656 -0.14185609 -0.19542521 0.0047195107 -0.22892068 -0.017368162 0.030820303 0.3237125
-0.016854906 -0.15179445 -0.8363849 0.15125392 0.11438354 0.024857271 -0.1895002 -0.020863228
-0.37237293 -0.8937095 -0.7014025 0.30854097 0.44209215 -0.17350197 0.31004047 -0.12389925
0.3637732 -0.33775514 0.347634 -0.03858387 -0.50027025 -0.47865027 -1.0903262 0.24532788
1.1635863 0.38676408 -0.5673122 -0.062282227 0.08820363 0.3368271 0.04923829 -0.57341796
0.058171492 0.009443111 -0.44243848 -0.03872272 -0.26255143 0.7469485 0.24312034 -1.9219958
-0.33435345 -0.22221987 -0.27438086 -0.14394449 0.38024893 -1.5656407 0.52639836 0.9127512
-0.10752287 -0.21211293 -0.025737107 -0.24997698 0.39985073 -0.07558374 -0.46453446 -0.6839854
-0.011870404 -1.5805553 -0.45687586 -0.03425862 0.6567894 1.0420302 0.36680466 0.63944924
-0.8953011 0.6857857 -0.11075268 0.036392752 -1.0741943 -1.760242 -0.11618213 0.14807832
-0.09380363 -0.16120353 0.50145143 0.30202124 -0.02815708 -0.08338769 0.017197844 0.3752888
-0.77755517 -0.12984152 -0.17710474 0.68643844 0.3485143 0.0103767505 0.22405969 0.032540534
0.4769057 1.5039018 -0.15552586 -0.57420874 0.554791 0.25649184 -0.29540408 0.49208495
-0.10452018 0.0799785 0.2096057 -0.76639825 -0.21782035 -0.9511884 -0.25282204 0.18599494
-0.115755156 -0.060461313 -0.13744184 0.9653629 0.4610826 -0.44559228 -0.4871437 0.0059034815
0.57512033 0.0022452052 -0.21863338 -0.069980964 0.029239606 -0.21911556 -2.2367995 0.54806685

_orig_mod.embeddings.day_of_week.weight f4 [10, 16]
00000000: 801c 39bd 39fe 083e eadb 1fbf 014b 59bf
00000010: b348 41be 7a31 723e d3d5 8f3f 02a6 77bf
00000020: 3c09 1d3e 6111 f43d f6ef 47bf b9a1 043e
00000030: b00e 87be 360f a7be 5cc7 b7bd 68d3 fcbe
00000040: af21 a23d 7483 01bf 3d34 68be 5824 b4bb
00000050: b4e8 f33e 5db1 81be b233 fc3e 964e 833e
00000060: f1e8 bdbd 4a55 8a3c bd51 32be bd16 243f
00000070: d7ca 9ebd 196c 79bd 1f57 9e3e 5934 bbbe
00000080: e495 57be e711 0dbf 32e0 88bd e916 e73e
00000090: 3e4d 103f efe1 d03d fc78 953e bee5 16be
000000a0: f437 863e 2772 de3c 6039 cdbd c751 d73e
000000b0: dce5 8e3e 438c afbd ffee 3bbf ee25 093f
000000c0: 604c 08be 5265 5c3e 6ef3 4bbf 9fbb d33e
000000d0: d7fd 25bf b2f7 1e3f 8bfa 9bbe eed4 3a3e
000000e0: 8495 9ebd 2603 cf3e 224c 093d e741 bf3e
000000f0: 91a3 b4bd 36be 433c e93d c33d 0c2c 093f
00000100: b383 d23e 198c 963f 8ee9 02bf 256e 02bf
00000110: 2336 4a40 aa38 8c3f f3a1 dabf 6d2a b73f
00000120: 41f6 2ebf 7ffa a1bf f49c 84be 8c75 cfbf
00000130: 5c09 363f 3c23 2abf f23a d23e 52c8 ecbf
00000140: 427d f63e 999d 83bf 68f3 d2be e0f2 b0bd
00000150: efcd a23e 3032 c7bf 662d 823f fcf3 9abf
00000160: ccb5 21bf 4b9b be3d 4f1d 01bf c920 4dbf
00000170: 111a 95bf e57e 2c3f 2dc8 f73d 687d 273e
00000180: 1b73 96bf f55e c93f a2e9 b5be 1454 3ebf
00000190: ffda 993f 33be 9cbf 0662 2b3e 0a02 333f
000001a0: 96ed 263f 91c4 813f 8aa2 b63a 474e 99be
000001b0: ee0d 4e3f 1dd0 f13e 81aa 00bf 122e 923d
000001c0: 3157 0580 be8e 17b6 ac0d 5734 2ff6 2411
000001d0: 1d4f c2bc b68a 0580 d3fc 94bd 83c3 adb3
000001e0: f818 e839 8816 c8b9 107f 0580 0b40 5800
000001f0: 2b76 0000 f86b 1139 8bb7 4fb6 79bb 04a7
00000200: 126f 0500 b8d0 adbc 405c 51ab a182 8baf
00000210: 0ead 9631 9c59 0500 770f 2b38 2a38 e433
00000220: f679 c513 475b 0500 0c42 843c 75ee b0b6
00000230: ea72 53bd 115b cebb 455d 0580 9e7b a333
00000240: 2fd4 1bbd 5b57 5035 d05c 0580 4222 6691
00000250: 4ba0 8d35 69bc 9512 b471 0500 4d5b e43b
00000260: 5f5a 0500 f900 1fa6 6a88 0500 5531 fe3b
00000270: 104f 0080 4a63 0580 e7dc 15b6 f56c 0580
-0.045193195 0.13378228 -0.6244494 -0.8488007 -0.18875389 0.23651686 1.1237129 -0.9673768
0.15335554 0.11917377 -0.78100526 0.12952317 -0.26378393 -0.32628793 -0.08973572 -0.4938004
0.07916581 -0.50591207 -0.22676177 -0.0054974966 0.47638476 -0.2533063 0.4925819 0.25645894
-0.09272946 0.016886372 -0.17413993 0.64097196 -0.077535324 -0.060894106 0.30925843 -0.36563376
-0.21053272 -0.5510544 -0.06683387 0.45134667 0.5636786 0.101993434 0.29193866 -0.14736077
0.26214564 0.027154041 -0.10020709 0.4205458 0.27909744 -0.08571675 -0.73411554 0.535735
-0.13310385 0.21523026 -0.7966832 0.4135408 -0.64840454 0.62096703 -0.30464587 0.18245289
-0.077433616 0.4043209 0.03351987 0.37354967 -0.0882026 0.011947205 0.09533293 0.53582835
0.41116104 1.1761504 -0.51137626 -0.5094932 3.1595542 1.0954792 -1.7080673 1.4309822
-0.68344504 -1.265457 -0.25900996 -1.6207747 0.7110803 -0.66460013 0.41060597 -1.8498633
0.4814244 -1.028247 -0.4120133 -0.08640075 0.3179774 -1.5562191 1.0170105 -1.2105708
-0.63168025 0.093069635 -0.50435346 -0.8012815 -1.164858 0.67381126 0.120987274 0.16356432
-1.1753877 1.5732104 -0.3552981 -0.74347043 1.2019957 -1.2245544 0.16736612 0.69924986
0.6520628 1.0138112 0.0013933938 -0.29942533 0.80490005 0.4722909 -0.5026017 0.071376935
-4.90456e-40 -2.258384e-06 2.0028409e-07 1.301318e-28 -0.023719365 -5.08938e-40 -0.07274785 -8.091504e-08
0.0004426909 -0.0003816376 -5.04759e-40 8.104498e-39 4.239e-41 0.00013868499 -3.095224e-06 -1.842031e-15
4.99022e-40 -0.021217689 -7.437974e-13 -2.537677e-10 4.3852486e-09 4.91323e-40 4.078398e-05 1.06272935e-07
4.9850054e-27 4.91922e-40 0.016144775 -5.272969e-06 -0.051623262 -0.006297477 -4.92636e-40 7.612765e-08
-0.03804415 7.7613157e-07 -4.92472e-40 -1.8154357e-28 1.055197e-06 9.449669e-28 4.99966e-40 0.0069688917
4.91597e-40 -5.5165525e-16 5.08114e-40 0.0077573457 -2.8362e-41 -4.94796e-40 -2.2331312e-06 -4.98264e-40

_orig_mod.embeddings.hour.weight f4 [30, 16]
00000000: 6182 f6bd d79d c7be 1e7e 47be f1c9 cbbe
00000010: e1ae 35be 41c2 90bf 5265 e93d a1f4 3abf
00000020: bcba c1be 9ecd 0a3f f393 ffbd db56 0e3e
00000030: 7923 963e 9b47 2b3e 0708 603e ab4a 143f
00000040: ffb8 4b3d 5a73 4fbd cfda a13d 2eeb 20be
00000050: a5f0 13be 62b5 423d 06d0 fc3c cb79 bf3c
00000060: f55d 863d 1d06 b03a 9318 9ebd 5159 073b
00000070: c590 4d3c c2dd 273d e90f 773c 2b42 223d
00000080: dda2 8e3c f31d c5bf c895 d03e ab63 b83e
00000090: e09c b6be 6400 4a3e f8d9 b23f 2085 833d
000000a0: cb1b 8cbe 13c8 cb3d c0fa be3e 558c d7bc
000000b0: b03a 35be 4ef5 0f3e 3a52 e33e 3268 17be
000000c0: cef5 793f 996a 12be ed68 b6be e4e2 36bd
000000d0: 7fcd 2fbd f9a7 8a3c fb18 243e 7337 53bd
000000e0: 655d ad3d 8b5b 983b 17d6 b9bd 7c8d 553c
000000f0: 8f26 e63c 2c97 74bd c77e 023c 0cd6 aa3c
00000100: 5564 f73c d977 83bd cee4 d93c 86f9 1abd
00000110: d5c7 26be 01a1 debd 1e9b 3cbb 04d1 a63e
00000120: 4c7d 3f3c 605c c73c 17ac 6cbd 45d2 a23b
00000130: f09d 823c c61c 233d a511 9ebe ac02 a23d
00000140: 69c1 bdbd c467 283d 6831 a7be 983a 69bf
00000150: a842 71bf bad7 65bb 890f 2d3e 68e7 6bbf
00000160: 3ded 183f 1463 8bbc cf49 8e3e aff1 1a3f
00000170: e549 af3f da91 263f dc8c 68bf b069 483e
00000180: 3618 b9bd ebae d8bc 3c84 273f e96e 963e
00000190: a83c abbf 76ca 06bf 3b68 1f3e 7dee 203f
000001a0: 37f6 e23e a648 9bbe e8e0 74bd be3b 593e
000001b0: 3549 94be eb3b 853f 89d4 27be 43c5 0b3f
000001c0: 4b1d 15be aa03 ba3c fdd6 81be 50e6 1dbe
000001d0: 5852 a4be ee3e abbb f15a 22bd 3156 893e
000001e0: b10b 403e 3305 423f bacd 8dbd ba2a 08be
000001f0: 31ea c43c 8b4e e73d d014 48be 156c 88bd
00000200: 6c24 153e 2a68 be3e c11b 7fbb 345f a03d
00000210: 0573 4c3d 72bb e53e 8a88 823c 2a66 703e
00000220: a8e7 063e 40e8 f63d 6aaf b93e b79b a1bd
00000230: 5787 54bd 836f 4dbe 0fae 5cbd 3de4 22bf
00000240: 3133 5abf f093 90be 04d7 9fbf 50ae 07bd
00000250: fc01 debe ebf5 013e 480f 25bf 87cb bbbd
00000260: 6eec 1b3f bf6c 473e 2745 cf3d a247 b73f
00000270: f484 4c3f 055e 63bd 3c46 17bf 6a13 d43f
00000280: 7f8f 12bf 948e 1dbf c3b8 b13d 2f6b 8d3c
00000290: 937f b1bf 7e9f bf3d 33d9 0cbf 7795 a7bc
000002a0: 7491 3fbe 3584 02bf c896 22bd d117 6dbd
000002b0: df3e d5bd e6c0 ff3b 1f48 a1bc 8f19 87be
000002c0: 3586 0ac0 4031 febe 9e26 9c3d 5399 d53e
000002d0: 9455 e83e 03dc d73d 4b59 4d3f 635d 69bd
000002e0: 890f ebbe a78c c43f 57c8 38bf 4dfa cd3e
000002f0: 02dd 9cbe 9a6e d6bf 8319 2e3f 4eee 803f
00000300: bc11 c73e 6768 6d3e 3fe3 d43e 5345 ce3c
00000310: 1c33 513e 2ced d13d 796e 21bd ba33 b7be
00000320: a4bf 90bd ceb2 4b3d 9a54 023e 733f 27be
00000330: 790a 4ebd 9eed 993e 5a3a febe 5b69 073d
00000340: dc0c e63e efa6 0a3e ae07 423f e48c bd3f
00000350: 3f71 a5bf ac91 9ebe ba66 3f3f 9a53 ea3d
00000360: 1f60 9e3e c50d b5bd 8fe0 92be f552 d6bf
00000370: afd5 0a3f e6e8 8c3d 7e6e b33f e15e 0abf
00000380: 4d0c 2f3e e246 90bd f273 26bf 3564 0e3f
00000390: 802d 42be 5ec5 9cbe b303 8a3e f0c4 86bf
000003a0: a7e4 503e 8244 86be 29cd 9c3e 2749 d4bd
000003b0: d3a3 0a3f 773c c43f 9ef7 e8bb 6087 eebf
000003c0: d202 883e f335 503f d650 643e 9dfb 263d
000003d0: 49f2 eabd 989a f43d 72e0 c53d 8734 41be
000003e0: 6911 adbe e258 2e3e 5430 7b3e 13f1 d43c
000003f0: 3fda 303e 3db0 ad3e 8953 b03e 7844 cfbc
-0.120365866 -0.3898761 -0.19481704 -0.39802507 -0.17742492 -1.1309282 0.113962784 -0.73029524
-0.3783778 0.54219997 -0.12479391 0.1390032 0.29323938 0.16726534 0.21878062 0.57926434
0.049736973 -0.050647117 0.079030626 -0.15714714 -0.14447267 0.04753626 0.030860912 0.023373505
0.0656089 0.0013429556 -0.07719531 0.0020652602 0.012546723 0.04098297 0.015079477 0.039613884
0.017411644 -1.5399765 0.40739274 0.3601354 -0.3566656 0.19726712 1.3972769 0.06421876
-0.27364954 0.099502705 0.37300682 -0.026312033 -0.17698169 0.1405842 0.4439867 -0.14785841
0.97640693 -0.14298476 -0.35626927 -0.044649974 -0.042920586 0.016925799 0.16025154 -0.051566552
0.08465079 0.0046495846 -0.090740375 0.013034221 0.028094558 -0.05971448 0.007964796 0.020854019
0.03019921 -0.064193435 0.02659836 -0.03783562 -0.16287167 -0.10870553 -0.002877898 0.3258134
0.011687588 0.02433604 -0.057781305 0.0049689137 0.015944451 0.039822362 -0.30872837 0.07910666
-0.09265406 0.041114584 -0.3265488 -0.9110503 -0.94242334 -0.003507121 0.16900457 -0.9214997
0.59736997 -0.017015018 0.27790686 0.6052503 1.3694426 0.650663 -0.90839934 0.19571567
-0.09037821 -0.026450595 0.6543615 0.29381493 -1.3377886 -0.5265268 0.15567105 0.62863904
0.44328472 -0.30328864 -0.0597848 0.21214196 -0.28962103 1.040891 -0.1638967 0.5459787
-0.14561956 0.022706825 -0.25359336 -0.15419888 -0.32094073 -0.0052260077 -0.03963751 0.2682357
0.1875446 0.75789183 -0.06924005 -0.13297549 0.024037452 0.11294278 -0.1953919 -0.0666124
0.14564675 0.37188846 -0.0038926455 0.078306586 0.04991438 0.44869572 0.015934248 0.23476472
0.13174307 0.12056017 0.36266643 -0.078910284 -0.051886883 -0.2006207 -0.053876933 -0.63629514
-0.8523436 -0.28237867 -1.2487493 -0.03312522 -0.4336089 0.12691467 -0.6447644 -0.09169679
0.6090764 0.19475077 0.10120612 1.4318736 0.7989037 -0.055509586 -0.59091544 1.6568425
-0.5725021 -0.6154568 0.086778186 0.017263023 -1.3867058 0.093565926 -0.5501892 -0.020457013
-0.1870783 -0.5098298 -0.039694577 -0.05788404 -0.10412382 0.0078049777 -0.01968771 -0.26386687
-2.1644413 -0.4964695 0.07624553 0.4171854 0.4537779 0.10540011 0.80214375 -0.056973826
-0.4591029 1.5355424 -0.72180694 0.40230027 -0.30637366 -1.6752503 0.6800768 1.0072725
0.38880718 0.23184358 0.41579625 0.02517954 0.20429653 0.10250315 -0.039411996 -0.35781652
-0.070678025 0.04973107 0.12727585 -0.16332798 -0.050302956 0.300641 -0.49653894 0.03305946
0.44931686 0.13540243 0.7579297 1.4808621 -1.2925185 -0.30970514 0.74766123 0.11441727
0.3093271 -0.08840517 -0.2868695 -1.6744066 0.54232305 0.06880359 1.4018095 -0.54051024
0.17094536 -0.0704477 -0.6502067 0.55621654 -0.1896267 -0.3061933 0.26955947 -1.052885
0.20399724 -0.26224142 0.30625275 -0.10365515 0.54156226 1.5330952 -0.0071095964 -1.8635063
0.26564652 0.8133232 0.22296461 0.0407673 -0.114719935 0.11943549 0.0966195 -0.18867694
-0.33802345 0.17026094 0.24530154 0.02599386 0.17270754 0.33923522 0.34438732 -0.025301203

_orig_mod.dense_proj.bias f4 [16]
00000000: 5f84 07b9 b5aa 9bbc cda0 9e3b 3df8 1f3b
00000010: 8d89 cf3b 6372 273a f4ff 0c3c 045d dabb
00000020: a558 533b e3f1 49ba bc19 e1bb 2240 ffbb
00000030: a28a 2d3b cac6 113c 1784 f8bb ba6e 763c
-0.00012923915 -0.019002298 0.0048409463 0.0024409436 0.006333536 0.00063875894 0.008605946 -0.0066639204
0.0032248881 -0.00077035854 -0.006869523 -0.0077896276 0.0026480337 0.008897493 -0.0075841057 0.015041048

_orig_mod.self_MSR1.0.W_q.weight f4 [32, 16]
00000000: d001 d93d 9c27 263e 0cdd ef3d e35f 46bd
00000010: 9504 47be 089d 483e b1d6 963d 04eb 4bbc
00000020: 8c14 473e 1344 023e 064b 87bd a972 92bd
00000030: 2ced 1d3d 5b91 973d ffc6 b8bd 23c6 df3c
00000040: b39c 95bd 5f4b 32be 8e3d a4bd 6d56 2d3e
00000050: 4622 113d 2059 2bbd 3636 92bd bb90 ea3c
00000060: 9a68 193e d331 41bb 4c85 ecbd 9707 f0bd
00000070: 39c7 abbb 0971 debd ee54 18be b04f 11be
00000080: 00c3 35be dca8 0abe 9342 42bd ea00 f2bd
00000090: 4dc4 25be fc1a 30be 92db ab3c a071 4a3d
000000a0: 7d86 13be 65a4 1f3b 5c9e 4b3e 952e 2ebe
000000b0: 360b 263e faf3 263e d42a 66bc 7645 47be
000000c0: 406b 4dbe f4dc 0d3e 68e8 18bc 1a36 71be
000000d0: 8728 0bbe 72e4 023e a5c3 e83d 9b1c 563e
000000e0: ce59 843d e463 42bd e9b7 2a3d 9f61 e5bd
000000f0: 0fa6 51be e96c 013e 8673 9f3c c63c 8dbd
00000100: fdf7 09be 4455 8cbc 54c9 b03b 5db0 aabd
00000110: 534c 483e a62d e8bc 13d4 293e 7392 f7bb
00000120: 59e1 1cbe a159 f43d f32e 253e 51cd 4fbe
00000130: cbe2 f93d 2930 9d3d cd2d 03be 2574 1a3e
00000140: c44f 1dbc 035c 15be 409d 243e 3d28 d3bd
00000150: 126b b1bd 0312 5b3e 85b6 053e 33d3 ddbc
00000160: 0f11 223e 8c43 4ebe c617 e7bc da0f f6bd
00000170: d5de 753e 3e2d 3e3e c3c3 24be 1101 52be
00000180: 55ed e4bd cd27 2d3e b8f5 393e 89f6 a4bd
00000190: 660f 763d 257d 7c3c 1be7 24be c37e e83c
000001a0: a080 09be 5b34 acbd d710 993b fc47 5f3e
000001b0: d911 c53d ba87 073e 46e1 0dbe fc7d 273e
000001c0: f07b 9dbd fb8c bbbd eb7c 35be 2229 e03b
000001d0: 1d89 2d3c 32a5 3c3e 9b36 58be 440a a83d
000001e0: 469a 4cbe 5d1b 25be 8610 5a3c 920b 803d
000001f0: c02b 7fbc f75f d33c 56b5 47be e2b2 5e3e
00000200: 151b 603d 4045 573d e824 de3d 44f2 3b3d
00000210: 1df3 f43d f126 823d 617a 1fbd 95b3 91bd
00000220: 8c03 223e b6de babd 7453 0a3e 2dc8 153d
00000230: 6fc7 f93d 5f8f 36be 9254 353e 6958 113e
00000240: ca29 3f3e b0e0 4b3d afec d43d 2dee 04bd
00000250: 07d8 983d bcc8 b13c 17c2 21be 5f1e 4abb
00000260: 8962 65bb 8412 573e bae6 573d 6e3f 44be
00000270: 08eb 10be 63f7 87bd de31 8a3c d96d 0e3e
00000280: 0f55 b53d c3c0 e33d ea6b 1cbe 2f52 8abd
00000290: 39a2 10be 7968 ac3d fd67 39bd 0fd1 81bd
000002a0: bf97 1a3d 4c41 c13d 352a fcbd 23bd 66be
000002b0: aba3 3dbd 9d61 903d f9df 29be 0a75 f13d
000002c0: 9155 3cbe 01fa 473e 3b78 e43d d459 8cbd
000002d0: e88b f5bd ff1f e03d 88e9 2a3d 830e e73d
000002e0: e300 debd 0d2d 14be b8c4 9f3d 1f68 3e3e
000002f0: 60f5 d9bd 6c82 26bd 1e3b 56bd c08f 25be
00000300: a136 afbc e909 ee3d 0b63 613b 5582 593e
00000310: 47f9 573e eae8 dd3d 0a47 1bbe a51d dfbd
00000320: d587 73bd 6813 ecbd da71 eb3d 80c0 21be
00000330: 21bc c23c edcb e03c 3842 a3bc 5b56 843e
00000340: d64d 883d 07ba a43d 1ab1 d83c 602a 30be
00000350: b306 f03d eb7c 1d3e 06f7 863d 5e31 4c3e
00000360: 68d3 84bd 4164 ce3d c80a 06be 4a25 08be
00000370: d66f 133e 663e e6bd 22e9 cf3d fccc dfbd
00000380: d14f 493d 7988 49be 9eea 3fbe 72f8 313e
00000390: 7dec 5abe b3e4 153e ebef b43c 5aff 383d
000003a0: 8682 28be 1118 28bd ce07 8ebd 1f07 663e
000003b0: d3f2 0a3e 7858 16be 2760 8e3d 7a0e 56be
000003c0: d02d 4fbe c152 87bc 7312 ddbd 0961 953d
000003d0: 46c8 bebd ce03 1fbd 853b f2bc d57c fdbd
000003e0: 989e d7bd 7c34 293e e025 23be 45d9 f33d
000003f0: 0f98 2fbd eddd 813e 5223 453c c591 5a3e
0.10596049 0.16226047 0.11712083 -0.04843129 -0.19435342 0.19591153 0.07365168 -0.012446169
0.19441432 0.12721281 -0.066061065 -0.07150776 0.038556263 0.07400771 -0.090223305 0.027316159
-0.07305279 -0.17411564 -0.08019553 0.169275 0.035433076 -0.041833043 -0.07139246 0.028633466
0.14981309 -0.002947916 -0.11548862 -0.11720198 -0.005242255 -0.108614035 -0.14876148 -0.14190555
-0.17750168 -0.13540977 -0.04742677 -0.118165806 -0.16188164 -0.17197794 0.020978723 0.049424767
-0.14406772 0.0024359461 0.19884628 -0.17009957 0.16215214 0.16304007 -0.014048297 -0.19460091
-0.20060444 0.13853818 -0.009332754 -0.23555794 -0.13589679 0.12782457 0.11365441 0.2090935
0.064624414 -0.047458544 0.041679297 -0.1120026 -0.20473503 0.12639202 0.019464266 -0.06896357
-0.13473506 -0.017130502 0.005395094 -0.0833442 0.19560365 -0.02834208 0.16584806 -0.0075553
-0.15320338 0.11931158 0.16131191 -0.20293166 0.122014605 0.076752014 -0.1281044 0.15083368
-0.009601537 -0.14585881 0.16075611 -0.10310409 -0.08663 0.2139359 0.13057907 -0.027078247
0.1582682 -0.20142955 -0.028209578 -0.12014742 0.24010785 0.18571946 -0.16090302 -0.2050822
-0.1117808 0.16909714 0.1816014 -0.08054835 0.06007328 0.015410696 -0.16103785 0.028380757
-0.13427973 -0.084084235 0.004671197 0.21804804 0.09622545 0.1323537 -0.13855466 0.16356653
-0.07689655 -0.09157749 -0.17723434 0.006840841 0.010591772 0.18422392 -0.2111458 0.08205083
-0.19980726 -0.1612372 0.013309604 0.06252207 -0.015574396 0.025802596 -0.19502768 0.21747926
0.054713327 0.052556276 0.10846883 0.04588534 0.11960433 0.06355084 -0.03893507 -0.07114331
0.15821666 -0.0912451 0.13508397 0.036567856 0.12196242 -0.17828129 0.17708042 0.14193882
0.18668285 0.049774826 0.10396706 -0.032453705 0.07463079 0.021702163 -0.15796696 -0.0030840856
-0.0035001358 0.21003157 0.052710272 -0.19164822 -0.14152157 -0.06638982 0.016869482 0.13909091
0.08854114 0.11120751 -0.15275541 -0.067539565 -0.14124383 0.08418364 -0.045265187 -0.06338703
0.037742373 0.094362825 -0.12312738 -0.22533087 -0.046298664 0.07049868 -0.16589345 0.117899016
-0.18392016 0.19528963 0.11155745 -0.06853071 -0.119895756 0.10943603 0.04172662 0.11282065
-0.10840013 -0.1447031 0.07801193 0.18594407 -0.10642505 -0.040651724 -0.052302472 -0.16168118
-0.021388354 0.11622984 0.003439131 0.21241124 0.21091186 0.108354405 -0.15163818 -0.10894326
-0.05945571 -0.11527139 0.11496325 -0.15796089 0.023771347 0.02744099 -0.019929036 0.25847134
0.06655471 0.080432944 0.026451636 -0.17203665 0.11720028 0.15379684 0.06590085 0.19940707
-0.06485635 0.10077716 -0.1309005 -0.13295475 0.14398131 -0.1124237 0.101518884 -0.109277695
0.049148384 -0.19680966 -0.18741843 0.1737993 -0.21379276 0.14638023 0.022087058 0.045165397
-0.1645604 -0.041038577 -0.069350824 0.22463654 0.13569193 -0.14682186 0.06951933 -0.2090396
-0.2023232 -0.016518952 -0.107945345 0.072938986 -0.09315543 -0.038821988 -0.029569397 -0.123773254
-0.10528296 0.16523927 -0.15932417 0.11906675 -0.042869624 0.25364628 0.012032347 0.21344669

_orig_mod.self_MSR1.0.W_k.weight f4 [32, 16]
00000000: 4f7c c4bd 5f4f 043e 098e 133e 9807 c93c
00000010: 4898 1abe cfe7 2e3e 34ac e0bc 2398 34be
00000020: a8be d93d 2d22 18bd 47ed 24be 5628 7f3d
00000030: d1a9 a23d 21e9 80bd ad73 283e 766b 663c
00000040: 78dc 71bd 9aaa 1dbe af95 d73d d7a1 8cbe
00000050: 5a2a a83b 2f99 663d 1537 4e3e bd87 cf3c
00000060: 7cbd 7bbe 7dc5 1ebe e582 52bd 6e5a a2bd
00000070: d639 9ebc be37 43bd d380 133d b7ff cebd
00000080: ec9c 013e 3bb6 413e 5a2d 1b3e f20d a2bd
00000090: 8971 b43d b59f 1ebe 5446 19bc 7464 0a3e
000000a0: 1d51 a43c 559b 033d 533e 0ebe b20f 813c
000000b0: 984e 4ebe 05a5 79be 56c7 383e 9c7a bd3d
000000c0: 7c6d cebd ce9a d23c e089 3d3e e68a 203e
000000d0: 23dd 66bd 48dc f53d 98fe 81be b4df 06be
000000e0: c75a 573d f37a 063e c078 ea3c 5645 cabd
000000f0: b798 dc3d 128e ccbd d5d6 8f3e 670b bc3d
00000100: dcec 533e d5c0 c63d 78aa 813e 8f46 513e
00000110: cea4 82bc ea2d 32be e0fa 523e 598d 073e
00000120: 467b fd3d fe0d 933d fc77 813e c837 4b3e
00000130: 95fa 45bd 3a9a d6bd f61f 9b3d fa17 16bd
00000140: 7fe4 3abc 1fe0 dabd 97a2 ac3d b523 e13d
00000150: 398a d2bd 306a 193e a850 5a3e aaa6 34bc
00000160: b141 40be 2ad6 a1bd a281 8dbd fe1b 7f3e
00000170: 7d91 fb3d 36ea 1b3e c17a b53d 0ed7 fd3d
00000180: 56cb 40bc f8e9 01bd 476b 58be 33b8 61be
00000190: 56f7 c13d 4894 cd3c 2d35 c0bd 4698 a6bd
000001a0: 8e95 243e 6348 803e 279f c7bd 1ba8 17be
000001b0: 391c 1b3e 08c5 c4bc 71ae 35be e762 37bd
000001c0: fa7b f53d ec0c a3bd 7807 a3bd 4ade 1a3e
000001d0: 7952 283e 7e45 b73d 9987 373e d1c1 bebd
000001e0: 6cf7 fd3d 894e 06bc f871 44be 1a28 05be
000001f0: 0f6c 2cbe 7f91 e93d a748 8e3d e569 203e
00000200: a7e6 f33c a4dd 8b3d 78c9 48be 4a7c 1fbe
00000210: ee9c 443d d82d 9c3d 347e 3dbe b177 91bd
00000220: fc34 f3bd 5877 be3d 2d6e 4ebe d7b2 833e
00000230: 1ed7 50be 984c 263d 012f bd3c 741d 82bb
00000240: e3ba 203d 8b0d a9bd 6ddf 773e fa4f 803e
00000250: 41a6 14be 193b 033e c815 4abe 05f8 02bd
00000260: a7d2 d93d bc84 b03d 9090 0b3e de8c 093e
00000270: 5856 1d3e c6dd ab3d c853 ff3b 83e0 393e
00000280: 1fc6 083e 0a63 edbd 6e04 cabc a392 a73d
00000290: c53c 3c3d 0901 4fbe 1ed6 5b3c 2fbf 113e
000002a0: 4ba0 c5bd d8e1 30be fb59 38be a1a4 53be
000002b0: b74c 353e fc14 93bd 25ac 823e d030 7bbe
000002c0: 8286 e13d 7007 233e 349a 683d a234 31be
000002d0: 786e 5b3e 43e0 b3bd f59d 483e 8255 f2bd
000002e0: b367 42be bbe9 8e3d bf81 b2bd 2143 4d3e
000002f0: c09b c93d 6c91 0dbe 3fda 45bd be5d 88be
00000300: 2855 bebd 99d4 543e 856b 3b3e f1c4 763d
00000310: 4536 8b3d 8d86 4bbe f746 953d 86b3 1b3e
00000320: c232 7b3d 330a 5f3e 0541 913c 0a22 25bd
00000330: d245 37be 097d 13be adc8 23bd 2308 febd
00000340: dde3 683d eb35 3bbd cbf4 533e 8358 4abc
00000350: 6bd3 843c 2ec8 e8bd 73c4 683e 5f5b aebd
00000360: 0ee3 1a3e 5ea7 09be e289 37be f085 2cbe
00000370: b7db de3d 5c19 05be c16f b13c 7e27 2d3d
00000380: bfad 7b3c 2ab3 683e 6611 463e 07aa 023e
00000390: bbaf 0d3e 0c2a 9dbd 6963 d83c b002 273d
000003a0: c7ca 7a3d f1a4 27be 67be e03d 28a7 a43b
000003b0: 9e1f 3abe c560 06be 7301 d2bd 680e fc3c
000003c0: 2ae5 00be ac05 debd e956 9a3c 3c6a 643e
000003d0: 3e40 2b3e 72ef 38be 66fa 823c 021c 9dbc
000003e0: 77f4 52be ad15 06be 4ee4 05be 6466 5a3e
000003f0: 5208 98bd 8349 5d3e 8f4f 8fbd d3c0 aa3d
-0.095940225 0.12920903 0.14409651 0.024539754 -0.15097153 0.17080615 -0.027425863 -0.1763616
0.10632068 -0.037141968 -0.16106139 0.062294327 0.07942546 -0.06294466 0.16450377 0.014063707
-0.059048146 -0.1539711 0.10526597 -0.27467224 0.005132002 0.05629843 0.201382 0.02533328
-0.24584001 -0.15505023 -0.051394362 -0.07927404 -0.019314688 -0.04766058 0.03601153 -0.101073675
0.12657517 0.18917172 0.15154019 -0.07912816 0.088107176 -0.15490611 -0.009355146 0.13514882
0.02005821 0.032130558 -0.13890962 0.015754554 -0.20147169 -0.24379356 0.1804479 0.092519015
-0.10079476 0.025708582 0.18509626 0.15677986 -0.056363236 0.12004906 -0.25389552 -0.13171273
0.052576806 0.13132839 0.028622031 -0.09876506 0.107713155 -0.09988035 0.2809359 0.09181862
0.20695823 0.097047485 0.2532537 0.20437072 -0.015947726 -0.17400327 0.20603514 0.13237514
0.12377028 0.07180403 0.25286853 0.19845498 -0.048334677 -0.10478635 0.075744554 -0.03664396
-0.011407017 -0.10687279 0.08429449 0.10993139 -0.1028027 0.14981914 0.2131983 -0.011026064
-0.1877506 -0.07902177 -0.06909491 0.24913022 0.12283609 0.15226063 0.08861304 0.12394534
-0.011767229 -0.03171727 -0.21134673 -0.22042923 0.09471004 0.02509512 -0.093851425 -0.081345126
0.16072676 0.25055227 -0.09747153 -0.14810221 0.15147485 -0.024019733 -0.17742325 -0.044772055
0.11986537 -0.07961449 -0.07960409 0.15123859 0.16437711 0.089488015 0.1792282 -0.09314311
0.124007076 -0.008197435 -0.191841 -0.13003579 -0.16838096 0.11404704 0.06947451 0.15665396
0.02977307 0.06829384 -0.19608104 -0.15574756 0.048001222 0.076259315 -0.18505174 -0.071029074
-0.1187534 0.09300107 -0.20159216 0.2572238 -0.2039456 0.04060039 0.023093702 -0.0039707962
0.03924073 -0.08254536 0.24206324 0.25061017 -0.14516546 0.12815513 -0.19734871 -0.03197481
0.10635882 0.08619067 0.13629365 0.13432643 0.15364969 0.08391909 0.00779197 0.1815205
0.13356827 -0.11591156 -0.024660315 0.081822656 0.04595639 -0.20215239 0.013417749 0.14233087
-0.09649714 -0.17273653 -0.18003075 -0.2066827 0.17705046 -0.07181737 0.2552196 -0.24530339
0.110119835 0.15920806 0.056787685 -0.17305234 0.21428859 -0.08783009 0.19591506 -0.118327156
-0.1898487 0.06978174 -0.08716153 0.20045139 0.0984416 -0.13825005 -0.04830384 -0.2663402
-0.09293586 0.20784225 0.18302734 0.06024641 0.067974605 -0.19875546 0.07288926 0.15205202
0.061327703 0.21781234 0.017731199 -0.040315665 -0.17897728 -0.14403166 -0.0399863 -0.12403896
0.056857932 -0.045705717 0.2069885 -0.012350204 0.016214093 -0.11366306 0.2273119 -0.085135214
0.15125677 -0.13442752 -0.17923692 -0.16847968 0.10881751 -0.12997955 0.021659734 0.04227399
0.0153612485 0.22724596 0.19342574 0.12760173 0.13836567 -0.076740354 0.02641459 0.040774047
0.06122854 -0.16371514 0.10973816 0.0050248094 -0.18176123 -0.13122852 -0.10254183 0.030768588
-0.12587419 -0.108409256 0.01884027 0.2230615 0.16723725 -0.18060091 0.01598854 -0.019178394
-0.20601068 -0.13094206 -0.13075373 0.21328121 -0.07423462 0.21610074 -0.069975965 0.083375596

_orig_mod.self_MSR1.0.W_v.weight f4 [32, 16]
00000000: e8f7 353c d5b6 533e 5a99 e0bc 5474 05be
00000010: 140a 15bd 95f7 4a3e 2f19 113d 6e3e 23be
00000020: 1690 4abd d5f2 76bc fed1 9dbd 3d67 4f3c
00000030: c8b8 1ebe 63d0 03be 935f d23c 8241 b8bc
00000040: b172 0f3e 07bc 99ba f555 3abd 74a2 4fbd
00000050: fc4f 6b3d bdf1 5abd 3941 d4bc 2b61 9c3d
00000060: 740f c03a ee47 943d 55b1 0e3e 07aa 153e
00000070: dc67 53be e161 60be a10a 33bd 12f4 a0bd
00000080: 729b abbd ccc9 743d c27b dd3d bcd1 2abe
00000090: 339c 5fbc 1ff5 193e 3395 41be 54bb 88bd
000000a0: 1a62 d2bd cf69 1d3d 1804 31be b002 63be
000000b0: 0227 c73d d713 6f3d 183b 26be 60e1 6bbe
000000c0: ef97 3dbe c3c8 18bd 7a6e c83d d6e2 c43b
000000d0: 554b 863d 7586 9d3d 474f 92bd 6c4a d9bd
000000e0: 82dc 243e f27c 213e a10d 22be 820f 953c
000000f0: 6475 b3bd cf3d 153e 9bab 42be 7b07 7abd
00000100: a655 453e cfd0 afbd e481 253e b77f 51be
00000110: a095 3a3b 212d 0a3e 3d27 a3bb bee6 18be
00000120: 5e10 9e3d 16c0 18be 0b39 45bd aace 23be
00000130: b78c 1f3e b8dd e4bc 8a7b 34be 4eb9 4fbd
00000140: b22a 1fbe 557b a53a 13c0 49be 843d 4fbc
00000150: 2897 3fbe 6e52 1e3e dbf6 a83d b2da 3d3e
00000160: ee84 413e 375a 02be b6d5 93b9 8ed6 a1bc
00000170: 0bc7 27be 8f71 4d3e 4b1f 27be d9a7 2f3e
00000180: 36ab 14be 4a2a 1c3e efe7 80bd 4758 363e
00000190: b113 75bd 9cbf 5a3c 113f 9e3d 2002 483a
000001a0: 6cc6 1a3c d707 8d3d f484 57bd 4791 56be
000001b0: 90e3 b8bd 8a4f 40bc 12f2 243d 3fd8 a2bd
000001c0: 007c 133e 7b7d 29be 2ded 5239 c30d a0bd
000001d0: 8e71 cd3d 06d7 0f3e f478 9ebd bd68 0bbc
000001e0: 5439 5e3b 7c73 4f3e 1550 063e 6faa 3fbc
000001f0: 4af5 0abe f500 2c3e eebc 27be 8d07 a23d
00000200: 3906 70bd 4a16 803a ddd5 a83b 8d32 bebd
00000210: caef 3b3d b82e dcbd 76f4 b5bd d829 c73d
00000220: 874d 243e e51a 08be eb5d 5dbc 8d2f 3abe
00000230: 2df1 0c3c c405 f7bd 8f77 8ebd 6974 22be
00000240: 9be5 703d 2efe f73d 4a5c 91bc 3f0b df3d
00000250: ecf4 653d afa9 a63d 2695 cb3d 86d5 aebd
00000260: 7eb1 fdbd b851 013d 26c4 47be 5ff5 8c3d
00000270: f1f7 21be 99ea 763c 4c92 51bb 7648 1b3c
00000280: f375 8bbd 50ed 013e fca4 a23d b0f5 4cbe
00000290: 4906 6abe 99b2 f1bc 172e fabd f563 08bc
000002a0: 2f3d e8bd 39e0 183e e2c4 3d3d 448c a43d
000002b0: 119f babd e758 3bbe 5f68 9a3c d129 9f3c
000002c0: 9a66 f23d fda0 11bd ba40 e23c b848 1e3e
000002d0: cb7c 74bd 239e 323e f8cd cebc afd8 19be
000002e0: 13ba 303c 6677 d73d c30e 2dbe 14ed 54bd
000002f0: a300 f03d 517b 103e 8e68 833d 0f0f a93b
00000300: b37d 15be e377 dfbd c714 1e3e 10c9 26be
00000310: 393c 44bd 1d9b 29be c537 3fbe f722 bbbd
00000320: 3ad6 47be 077c d8bd 74b5 2fbe bd52 b43d
00000330: 2b72 16be 23a9 a43d aa49 513c ba9b f1bd
00000340: 79e8 d0bd bd04 f83c 177e 24be 7e24 a4bd
00000350: 0e98 3ebe 2945 543e 14bd 183e 9a6f 08be
00000360: 0f28 c43d 3792 d43c dd59 0a3e 9df4 c6bd
00000370: 649b ff3d cb30 8fbd 6180 5f3d 31fd 20be
00000380: 4bbb 823d 907c 15bd ea1a c3bd 453a 1f3e
00000390: 926f bfbd 62f0 e73d acb7 e5bd 635b b93d
000003a0: 9af8 b43d a409 a3bd 3d63 433d ed52 23be
000003b0: 0174 b13d 783e 2e3e e8c7 cabd 6f43 df3d
000003c0: 487c c4bd 31fd 823c 55a5 893d 7fd6 263d
000003d0: 8049 c7bb 64c8 86bd 8b78 fdbc a853 acbc
000003e0: c54c e03c dd08 20be 5e1f bc3d d146 dbbc
000003f0: c90b fcbd bdf1 06be e24a 47be ac2c eb3c
0.011106469 0.20675214 -0.027416874 -0.13032657 -0.036386564 0.19821008 0.035424408 -0.15941784
-0.049453817 -0.015072544 -0.077060685 0.012658891 -0.15500176 -0.12872462 0.025680339 -0.022492174
0.14008595 -0.001172901 -0.04549213 -0.050692037 0.057449326 -0.053453196 -0.025910007 0.07635721
0.0014653043 0.07240282 0.13934834 0.14615642 -0.20645088 -0.21912338 -0.04371131 -0.07859053
-0.08379258 0.05976276 0.108146206 -0.1668157 -0.013648081 0.15034913 -0.18904571 -0.06676355
-0.10272618 0.038430985 -0.17286718 -0.22168994 0.09724237 0.05836853 -0.1623348 -0.23035192
-0.1851499 -0.037300836 0.09786697 0.0060084863 0.06557337 0.07691661 -0.07144027 -0.10609898
0.16099742 0.15770319 -0.15825512 0.018195871 -0.08762625 0.1457436 -0.19010775 -0.06104229
0.19270954 -0.08584749 0.1616283 -0.20458876 0.002847053 0.13493778 -0.004979043 -0.14931771
0.077179655 -0.14917025 -0.048150104 -0.15996805 0.15581022 -0.027937755 -0.17625251 -0.05071383
-0.1554363 0.0012625257 -0.19702177 -0.012648944 -0.18710005 0.15461132 0.08250209 0.18540457
0.18898365 -0.12729727 -0.00028197252 -0.019755628 -0.16384523 0.2006285 -0.16320531 0.17153873
-0.14518437 0.15250507 -0.06294238 0.17807113 -0.059833232 0.013351347 0.07726873 0.0007629711
0.0094467215 0.06886261 -0.05261703 -0.20953856 -0.09027779 -0.011737714 0.04026992 -0.07951402
0.14402771 -0.16551773 0.00020115516 -0.07815125 0.100314245 0.14046869 -0.07737914 -0.008508858
0.0033908682 0.20258898 0.13116486 -0.011698349 -0.13570133 0.1679724 -0.16380665 0.079115964
-0.058599684 0.0009772268 0.0051524476 -0.092869855 0.045882978 -0.107510984 -0.08884518 0.09724778
0.160452 -0.1329151 -0.013511161 -0.18182202 0.008602423 -0.120616466 -0.06956398 -0.1586472
0.05881272 0.12109028 -0.017744202 0.10890817 0.05614178 0.08137833 0.09940557 -0.0853682
-0.123873696 0.031572074 -0.19508418 0.06882738 -0.15817238 0.015070581 -0.003197807 0.009477725
-0.068096064 0.12688184 0.079416245 -0.20015597 -0.2285396 -0.029504107 -0.12215822 -0.008324613
-0.11339795 0.14929284 0.04633034 0.08034566 -0.09112371 -0.18295632 0.018848596 0.01942912
0.11835976 -0.03555392 0.027618755 0.15457428 -0.059689324 0.17443137 -0.025244698 -0.15024064
0.010786551 0.1052082 -0.16900162 -0.051983908 0.117188714 0.14109541 0.064164266 0.005159266
-0.14598732 -0.109115385 0.15437613 -0.16287637 -0.047908995 -0.16563077 -0.18673618 -0.091375284
-0.19515315 -0.10570531 -0.17159063 0.088048436 -0.14691989 0.08040073 0.012773911 -0.117972806
-0.10200591 0.030275697 -0.16063724 -0.08014773 -0.18612692 0.20729508 0.14915878 -0.13323823
0.09577953 0.025948627 0.13510843 -0.09714625 0.1248081 -0.069917284 0.05456579 -0.15721585
0.063833795 -0.036495745 -0.09526618 0.15549572 -0.09347452 0.11325146 -0.11216673 0.09050634
0.088364795 -0.07960823 0.047702063 -0.15949602 0.08664704 0.17016017 -0.0990141 0.10901534
-0.09594017 0.015989872 0.06720988 0.040731903 -0.00608176 -0.0658119 -0.030941268 -0.021035984
0.027380357 -0.15628381 0.0918567 -0.026767166 -0.12306935 -0.13178153 -0.1946216 0.028707825

_orig_mod.self_MSR1.0.xpos.scale f4 [16]
00000000: 2549 923e 9324 a93e 0000 c03e 6ddb d63e
00000010: dbb6 ed3e 2449 023f dbb6 0d3f 9224 193f
00000020: 4992 243f 0000 303f b76d 3b3f 6edb 463f
00000030: 2549 523f dbb6 5d3f 9224 693f 4992 743f
0.2857143 0.33035716 0.375 0.41964284 0.4642857 0.50892854 0.5535714 0.59821427
0.64285713 0.6875 0.73214287 0.77678573 0.8214286 0.8660714 0.91071427 0.95535713

_orig_mod.self_MSR1.0.W_res.weight f4 [32, 16]
00000000: e411 81bc badc 163e 1c9c 3c3e 360e 3dbd
00000010: 0482 47bd 339e e63d 198a ad3d cddd 8a3d
00000020: 71d7 d6bd 339c 3d3e d948 3f3d d0ca 04bd
00000030: 93bb 243e ce6c 1a3d 2a32 7c3c e0a0 093e
00000040: 2e7d d0bb e4d7 7c3d b666 783d 1b1a 41be
00000050: b8a4 b2bd 7968 1dbe 7ae7 693e be11 173e
00000060: 5440 87bd 0008 3c3d 7816 883d 74b8 b4bd
00000070: 3217 f33d cc71 093d 8c34 17be fe34 9a3d
00000080: 1a60 0bbe 25c2 2cbe 4c68 10be 0d33 a43c
00000090: 56f9 62be 023d e13c 1461 9d3d 41d4 163e
000000a0: 7b61 f13d 09e5 2bbd 5d8d 34be 04e9 14bc
000000b0: 5be2 4dbc ef12 a03d 2fef 6abc 5e95 383d
000000c0: ea95 86bd 701c 9bbd 21cc 753c 80de 133d
000000d0: 57ba 3abe 3c48 46be e304 1d3e 5d83 c73d
000000e0: a236 94bd 431c 23bb 519c 823d 2079 1a3e
000000f0: 4419 b93d c55b 173d bc8a a8bc 254d 50bc
00000100: aa57 c63d 74f2 853c 7b95 e3bd 973b f9bd
00000110: 8d7b 023e 276a 123e 72db 6c3e b5f1 6b3e
00000120: 7da6 15be cdfd d03d afa4 6d3d 5df4 e73d
00000130: 70bd 863d 5c57 cabd a7fd 29be 8603 11be
00000140: e477 17be 8521 1f3e 6e89 3b3d a41e 21be
00000150: 17e1 92bd cf43 c9bd 02d1 873e 7422 3cbe
00000160: 9616 c63d 6505 db3d 490c 6d3d d2d7 5b3e
00000170: 2b42 c7bb 80f9 803d 55f2 c23d 2626 61be
00000180: 858a 9a3d 153b 563e 5565 5f3e e2be 0e3e
00000190: 8040 eb3d c4b4 32be 91ba c03d dd8b 383e
000001a0: 9c46 84bd eb43 67be f3f5 49be 34f7 4e3e
000001b0: 5466 13bd 4f93 c13d 1783 6d3d c6a6 3f39
000001c0: 9fcd e03d 8638 9d3d 501a 3abe 29d9 02be
000001d0: c472 bb3d 56da c93d 6b51 ee3d 729c 1b3d
000001e0: 5865 de3d 9d99 7abd ad1f aabd deb4 c63d
000001f0: 5a04 cfbd f5d8 e73b da24 d3ba e96c 4d3e
00000200: 28da afbc 7218 a5bd f37f c5bc abf2 433d
00000210: ec49 1abe 0cf4 1fbe 9a9b 303b 3c45 3f3e
00000220: 5a7a b9bd 0377 40be b488 df3d 6b30 013e
00000230: 6788 2f3e fbfe 1d3e fadd bbbd 1fba f73d
00000240: 2034 093e a85e 13bd b4ae 373e 221d cbbd
00000250: 2da7 bd3d a494 08be 2cda 17be 4916 e7bd
00000260: 9d5d dcbd 1a36 c83d 1341 c13d ce72 9b3d
00000270: 155c 16bd 0274 46bd 389c c2bb 33a9 1b3e
00000280: 615a 31be 0e07 03be b7f6 0b3e 2a43 dbbd
00000290: c73d 4d3c 7252 05be af0d 0e3e 81dc 7cbe
000002a0: d701 0ebd 55b4 b9bd 50af 1bbd b787 88bd
000002b0: fee3 d83b 8aab 3bbd 1ea9 5cbe 0990 da3d
000002c0: 5c9b bfbd 2112 a1bd 7e7f 853e 8cfb fa3b
000002d0: 2ce3 e5bd eb66 9e3d a1ad 31bd 4e09 93bd
000002e0: 5352 3cbe 2afa 42be 9d9c fbbd 28ab fd3d
000002f0: 8434 38bd 8378 40be 9159 783d f8c0 2cbd
00000300: be6a 3fbe 4b40 86bd ee7f e63d c68f 2d3e
00000310: 27cd 083e c38b 01be 6990 e83d c150 473e
00000320: 38eb 4ebe f1d3 4a3c 59db 773b 3444 363d
00000330: d7cf 02be a652 6e3e 1522 0fbe d042 5fbe
00000340: 868a e6ba a351 8e3c c097 1bbe 38a1 25bd
00000350: 159a 65bd 097c 2a3c b95b e9bd e901 f2bd
00000360: 7bb7 a2bc 7d33 3a3d 17d4 18be 8f6c 613d
00000370: fe5e 26bc a9d4 4dbd ec1a 90bd 1374 ab3d
00000380: f6a4 d4bd d95d 383e be12 143d ee56 053e
00000390: 6d8a 293c 6a4e 13be 0068 a33b 89c2 9abd
000003a0: 5a19 a6bd c83f da3d 3ac4 34be 6064 903c
000003b0: 1b24 7d3e 3bae 623e b769 913b 5eed 09be
000003c0: 8d91 71bc 7492 0cbe 2a85 3ebd a584 90bd
000003d0: 4062 a8bd a1ae 4e3e 5882 723e 0097 3b3e
000003e0: 2814 10be 9c00 343d 66be 033e 0172 663e
000003f0: bfdf e03d a907 7bba da12 55bd ee9f be3c
-0.015755601 0.14732638 0.18418926 -0.04615613 -0.048707977 0.11260643 0.08473606 0.067805864
-0.10490311 0.18516617 0.046700332 -0.03241998 0.16087179 0.03770142 0.015392819 0.13440275
-0.006362579 0.061729327 0.060644828 -0.18857615 -0.08722824 -0.15371884 0.22842208 0.14752862
-0.066040665 0.045906067 0.066449106 -0.08824244 0.118696585 0.03355579 -0.14766139 0.07529639
-0.13610879 -0.16870935 -0.14102286 0.020043874 -0.22165427 0.027494911 0.07684532 0.14729406
0.11786171 -0.04196647 -0.17632051 -0.009088758 -0.012566174 0.07816111 -0.014339252 0.045064323
-0.065715626 -0.075737834 0.015002281 0.036100864 -0.18235146 -0.19363493 0.15333895 0.097418524
-0.07236983 -0.0024888671 0.06377471 0.15085268 0.09038022 0.036952753 -0.020573966 -0.012713705
0.09684689 0.016350962 -0.111124955 -0.12169569 0.12742443 0.14298306 0.23130587 0.23041423
-0.14614291 0.10204659 0.058018383 0.113259055 0.06579101 -0.09879944 -0.16600667 -0.141615
-0.14791828 0.1554013 0.04578536 -0.15734345 -0.07171839 -0.098273866 0.26526648 -0.18372518
0.09672277 0.10694388 0.057873044 0.21469048 -0.006080886 0.06297588 0.095188774 -0.21987209
0.07545952 0.20920976 0.21815999 0.13940004 0.11486912 -0.17451769 0.09410585 0.18022104
-0.0645878 -0.22584502 -0.19722728 0.20211488 -0.03598626 0.09451925 0.057986345 0.00018277307
0.10976719 0.076767966 -0.181741 -0.12778153 0.09152749 0.098560974 0.11636623 0.037990995
0.108591735 -0.061181653 -0.08306823 0.097024664 -0.10108252 0.007075424 -0.0016109005 0.20061077
-0.02146633 -0.08061303 -0.024108863 0.047838848 -0.15067261 -0.1562044 0.0026948215 0.18678755
-0.0905654 -0.187954 0.10914746 0.12616126 0.17141877 0.15429299 -0.09173198 0.12096047
0.1339879 -0.035978943 0.17937738 -0.09917666 0.09260402 -0.13337952 -0.1482932 -0.112835474
-0.10760043 0.09775944 0.0943624 0.07590257 -0.03670891 -0.048450477 -0.005939033 0.15201263
-0.17319633 -0.1279566 0.13668333 -0.1070617 0.012526936 -0.13019732 0.13872407 -0.2469349
-0.034669723 -0.09067599 -0.038008988 -0.066665106 0.0066189757 -0.04581789 -0.21548888 0.10672004
-0.09355804 -0.07864786 0.2607383 0.0076593813 -0.1122497 0.07734474 -0.043378476 -0.07179509
-0.18390779 -0.19040743 -0.12285731 0.12386161 -0.044971958 -0.18795972 0.060632292 -0.042176217
-0.18693063 -0.06555232 0.112548694 0.16949376 0.1335951 -0.12650971 0.11355669 0.19464399
-0.20206916 0.012379632 0.003781995 0.044498637 -0.12774597 0.23273715 -0.13977845 -0.2180283
-0.0017588891 0.017372912 -0.15194607 -0.040436953 -0.056055147 0.010405549 -0.11394448 -0.118167706
-0.01986288 0.04545926 -0.14924656 0.05503517 -0.010154484 -0.050251637 -0.07036385 0.08371749
-0.10383026 0.1800455 0.036150686 0.13021442 0.010347945 -0.14385381 0.004986763 -0.07556636
-0.08110304 0.106566966 -0.1765298 0.017625988 0.24720804 0.22136776 0.004437651 -0.13469455
-0.014744175 -0.13727742 -0.046513714 -0.0705655 -0.08221865 0.20183803 0.23682535 0.1831932
-0.14070189 0.043945894 0.128656 0.22504427 0.10980176 -0.00095760316 -0.05201993 0.02326962
