experiments/resort_20251006_140548/models/checkpoint_epoch3_auc0.6520_logloss0.0925.pth (torch, 157439 bytes, 45 tensors)

_orig_mod.embeddings.gender.weight f4 [5, 16]
0	0xbcee175f	-0.029063879
1	0x3ddecf9e	0.108794436
2	0x3f5d563e	0.8645972
3	0xbdb05960	-0.08610797
4	0xbee8fb8a	-0.4550441
5	0x3ca42e4e	0.020041611
6	0x3ef8e28f	0.4861035
7	0xbfea6eb5	-1.8315035
8	0x3d47a223	0.04873861
9	0x3e0a8304	0.13526541
10	0xbd446d85	-0.04795601
11	0xbe169822	-0.14706472
12	0x3d325f87	0.043548133
13	0x3e985275	0.2975041
14	0x3e7bb290	0.24579835
15	0xbdb646ed	-0.08900247
16	0x3f992330	1.1963863
17	0x3f246640	0.6421852
18	0xbf350f8e	-0.7072686
19	0x3fb8a598	1.4425535
20	0x3e294a57	0.16532265
21	0x3e936c12	0.2879339
22	0x3f569529	0.8382135
23	0xbed69de0	-0.41917324
24	0xbf84741a	-1.0347931
25	0xbf5f2f37	-0.8718142
26	0x3e56f61f	0.20992325
27	0xbf79a2f0	-0.9751425
28	0x3f497fc2	0.7871057
29	0x3fbc6b7e	1.4720304
30	0xbe64c14c	-0.22339362
31	0xbe87a384	-0.2649194
32	0x3fe719b9	1.8054725
33	0x3ebc11a1	0.367322
34	0x3e0cfba3	0.13767867
35	0xbf4e9600	-0.8069763
36	0x3ecfd646	0.40593165
37	0xbf26f6e5	-0.6522048
38	0xbdac71e2	-0.08420159
39	0x3dfe3a23	0.124134324
40	0xbe721c74	-0.23643667
41	0xbfe9ac79	-1.825576
42	0xbf93da4a	-1.1550992
43	0xbe0959bb	-0.13413136
44	0x3f3d80e8	0.7402482
45	0x3f9fc7db	1.2482866
46	0xbe14eb76	-0.14542946
47	0xbdf61078	-0.1201486
48	0x3c6296e9	0.013829925
49	0x3db1636f	0.086615436
50	0x2badce59	1.2349662e-12
51	0xb80d9295	-3.3753535e-05
52	0x35e1c6be	1.6821648e-06
53	0x3bcfe288	0.0063441433
54	0x37d1ea57	2.5023865e-05
55	0x3b8482dc	0.00404392
56	0x2f29e72c	1.5452589e-10
57	0x2e0d9dfd	3.220001e-11
58	0x8f179822	-7.4741745e-30
59	0xa887c309	-1.5072594e-14
60	0xbce6d33b	-0.028176894
61	0xbded0f3a	-0.1157517
62	0x37d06c3f	2.4845938e-05
63	0x0a944cd2	1.4280778e-32
64	0xaf8dace3	-2.5770594e-10
65	0x208b0471	2.3550455e-19
66	0x12dc89bf	1.3917909e-27
67	0xbd50b06a	-0.05094949
68	0x860b6529	-2.6217315e-35
69	0x8f5dd33a	-1.0936822e-29
70	0xa99b7a5c	-6.904609e-14
71	0xb65573f1	-3.180696e-06
72	0x3b120009	0.0022277853
73	0x2e3d842b	4.3091013e-11
74	0x091bc1f2	1.8748639e-33
75	0xbc6b44c8	-0.01435966
76	0x130a2e04	1.7440736e-27
77	0x8e748068	-3.0137147e-30
78	0xbd9e8a67	-0.07741242
79	0xbbd34d09	-0.0064483923

_orig_mod.embeddings.age_group.weight f4 [15, 16]
0	0xbf100776	-0.56261384
1	0xbe63b372	-0.22236422
2	0x3de17839	0.11009259
3	0xbd419cc5	-0.047268648
4	0xbd5692e5	-0.052386183
5	0x3f766958	0.9625449
6	0x3dd0d1c9	0.10196263
7	0x3c9155ba	0.017741073
8	0xbe633834	-0.22189409
9	0x3f46be73	0.7763435
10	0x3de0a768	0.1096943
11	0x3ce4a5ea	0.027911145
12	0xbd5330fd	-0.05156039
13	0x3d693a6f	0.056940492
14	0x3de92ccc	0.113854975
15	0x3d00c36c	0.03143637
16	0x3d300a4e	0.042978577
17	0xbed67177	-0.41883442
18	0x3f09d59d	0.53841573
19	0xbd9ac832	-0.075577155
20	0xbdeedda1	-0.11663366
21	0x3e071356	0.1319097
22	0xbe4a4756	-0.19753775
23	0xbd03324b	-0.032030385
24	0xbe3504f9	-0.17677678
25	0xbdcc3772	-0.09971513
26	0xbe03199b	-0.12802736
27	0x3d4bf7c1	0.049796823
28	0xbc6a06fd	-0.014283893
29	0xbdfa0a10	-0.122089505
30	0xbdfb85e3	-0.12281396
31	0x3d068684	0.032843128
32	0x3eb28b1d	0.3487176
33	0xbcdb3a7d	-0.026761288
34	0x3d1d2ce7	0.0383729
35	0xbfa55402	-1.2916262
36	0xbf789fd7	-0.97118896
37	0x3e03b342	0.1286135
38	0xbeb77558	-0.35831714
39	0xbe16e129	-0.1473433
40	0xbef0c5bc	-0.4702586
41	0x3f92b972	1.1462843
42	0x3f07b8cb	0.53016347
43	0x3d1b9951	0.03798801
44	0x3ee295b1	0.4425483
45	0xbee14872	-0.44000584
46	0xbf2f8b8e	-0.6857232
47	0xbf4708b4	-0.77747655
48	0xbeda1c8e	-0.4259991
49	0x3ee45235	0.4459397
50	0x3e4f8b6f	0.20268033
51	0xbf15014e	-0.58205116
52	0x3fd9557a	1.697921
53	0xbf1e22f5	-0.6177209
54	0x3c92e6d8	0.01793234
55	0x3eea0153	0.45704135
56	0xbd9cce3e	-0.07656525
57	0x3e6f84e8	0.23390543
58	0xbf096b92	-0.53679764
59	0x3f5c940a	0.8616339
60	0xbf02df05	-0.5112155
61	0xbf39b1ef	-0.7253713
62	0x3db17cda	0.08666392
63	0xbf2f6347	-0.6851086
64	0x3f561bef	0.83636373
65	0x3e6a08a2	0.22854856
66	0x3ed40409	0.4140933
67	0x3de94d53	0.113917015
68	0x3d8a3ff9	0.06750483
69	0x3e11c125	0.14233835
70	0x3d8854dc	0.06656811
71	0xbf59f114	-0.8513348
72	0x3eebfd4e	0.46091694
73	0xbf164dec	-0.5871265
74	0x3fb3735f	1.4019583
75	0x3f6f83c7	0.9356045
76	0xbf3474f1	-0.7049094
77	0x3fb8cb25	1.4436995
78	0x3c4dad4f	0.012553527
79	0x3e6d2238	0.23157585
80	0x3b82ed17	0.0039955485
81	0x3e501bda	0.20323125
82	0x3f0152b4	0.5051682
83	0xbeaff0a0	-0.3436327
84	0x3e44719c	0.19183964
85	0x3de5a994	0.11213985
86	0x3f9a939e	1.2076299
87	0x3f48a2f5	0.7837365
88	0x3f161e15	0.5863965
89	0xbd57d790	-0.05269581
90	0x3f3b26c2	0.73106015
91	0xbe6eaab3	-0.23307304
92	0x3e860f46	0.26183528
93	0xbebea961	-0.372386
94	0xbf451d07	-0.7699742
95	0x3f2eb2b5	0.68241435
96	0x3ea98609	0.33110073
97	0x3fa598c2	1.2937243
98	0x3cc4fa3c	0.024045102
99	0x3e665145	0.2249194
100	0xbeb4980f	-0.35272262
101	0x3fe900bb	1.8203348
102	0xbf8a0ad6	-1.0784557
103	0x3fccd54c	1.6002593
104	0x3e6f8b48	0.23392975
105	0x3e7d8ce5	0.24760778
106	0xbe86dd1c	-0.26340568
107	0x3f4970a3	0.78687495
108	0xbe63a157	-0.22229515
109	0x3f293ab2	0.66105187
110	0x3fb6cdd5	1.4281565
111	0x3f618a87	0.88102
112	0xbe926424	-0.28592026
113	0x3f3c1837	0.7347445
114	0xbfbb9451	-1.4654638
115	0xbf94fc1f	-1.1639441
116	0x3f381ed2	0.7192203
117	0xbf997609	-1.1989146
118	0xbfaee192	-1.3662589
119	0xbf29de50	-0.66354847
120	0xbd8d120e	-0.06888209
121	0xbf114265	-0.56741935
122	0xbf1c90ca	-0.6115843
123	0xbfe28b39	-1.7698737
124	0xbe9b4729	-0.30327728
125	0xbe0f365e	-0.13985583
126	0x3f9e97a1	1.2390023
127	0x3be16d62	0.0068794945
128	0x3fe44f94	1.7836785
129	0x3fc8e672	1.5695326
130	0xbfb7dc31	-1.4364072
131	0x4004ee96	2.0770621
132	0x3f70d423	0.94073695
133	0xbe7ae349	-0.24500765
134	0xbf2b3a5e	-0.66885936
135	0xbf232a7a	-0.6373669
136	0x3e526438	0.20546043
137	0xbf936599	-1.151538
138	0xbf6b35ef	-0.9187917
139	0xbee3868c	-0.4443859
140	0xbdf38e66	-0.11892395
141	0x3ea19830	0.31561422
142	0x3e00843d	0.12550445
143	0xbd96b9cc	-0.07359657
144	0x380571c1	3.1815613e-05
145	0xb272fef9	-1.4144228e-08
146	0x98f5dcae	-6.3553845e-24
147	0x36c76ae0	5.943104e-06
148	0x38bb3a07	8.927663e-05
149	0x884216db	-5.840662e-34
150	0x105e62c8	4.385788e-29
151	0x88af7043	-1.0558822e-33
152	0xb7ede0d8	-2.8357303e-05
153	0x86ab8dca	-6.453139e-35
154	0xb4d95faa	-4.0489005e-07
155	0x85ff76d6	-2.4023738e-35
156	0xbd1154d4	-0.03548129
157	0x89076bf9	-1.6300802e-33
158	0x961e80f8	-1.2803834e-25
159	0xb2d81a68	-2.5157718e-08
160	0x909ebb5e	-6.2608696e-29
161	0xbc5654a9	-0.013081708
162	0xb57ec2a3	-9.490561e-07
163	0x349000eb	2.6822758e-07
164	0x8b00d25f	-2.481017e-32
165	0x17d4f63b	1.3762336e-24
166	0x2aa36267	2.9022897e-13
167	0x2e50d66d	4.7484173e-11
168	0xb8adc318	-8.285622e-05
169	0xbb3894c6	-0.0028164848
170	0x3e1d9de8	0.15392268
171	0xbdb2b15e	-0.08725236
172	0xbc801200	-0.015633583
173	0xbdb84df6	-0.08999245
174	0x3881cddd	6.1895444e-05
175	0x0b9444da	5.711112e-32
176	0x9fe5176d	-9.702403e-20
177	0x3a68515f	0.0008862223
178	0xb53512e4	-6.7455244e-07
179	0x2618c30b	5.2999926e-16
180	0xb707d5bd	-8.096392e-06
181	0xad03f526	-7.500922e-12
182	0x0890af8b	8.707955e-34
183	0x86c34dcb	-7.3465154e-35
184	0xaf009640	-1.1694912e-10
185	0x873e2765	-1.4305588e-34
186	0xb6acca42	-5.1495454e-06
187	0x3c181433	0.00928216
188	0x87cf7e92	-3.122029e-34
189	0x3e98a873	0.29816017
190	0xbbf67600	-0.007521391
191	0x30056dc3	4.85411e-10
192	0x203bbbd0	1.5901658e-19
193	0x2516d9a4	1.3084166e-16
194	0xb44ed31d	-1.9262048e-07
195	0x0dd755b8	1.3271034e-30
196	0xb9a2437b	-0.00030949325
197	0xbb06d191	-0.0020571689
198	0xb4e054bd	-4.1784907e-07
199	0x0a8323b3	1.262827e-32
200	0xbb1fe2f1	-0.0024396742
201	0xba2ccfe8	-0.000659226
202	0xbc2b0c04	-0.0104398765
203	0x3bbcb510	0.005758889
204	0x25897e8d	2.3851466e-16
205	0x15ff9d8a	1.0324223e-25
206	0x9c0b0791	-4.600102e-22
207	0x3bc2b818	0.005942356
208	0xb232ae9d	-1.0400666e-08
209	0x98b47ea3	-4.665678e-24
210	0xb7d698ee	-2.5582001e-05
211	0x87a629e8	-2.5001534e-34
212	0xbc141e78	-0.009040467
213	0xa2fa7fb5	-6.789785e-18
214	0x9327b96b	-2.1169782e-27
215	0xb92cbf1f	-0.00016474396
216	0xbdd4efd4	-0.10397306
217	0x37af69d9	2.0910915e-05
218	0x360c5d10	2.0915795e-06
219	0x077bd974	1.8947045e-34
220	0xb88bf842	-6.674278e-05
221	0x3ca78e30	0.020453542
222	0xb831db45	-4.24043e-05
223	0x901d0055	-3.0963046e-29
224	0xb497ed07	-2.8298402e-07
225	0x3871a748	5.761467e-05
226	0xa95c3d68	-4.8903075e-14
227	0xbc21c248	-0.00987298
228	0x0a9f46a5	1.5337717e-32
229	0x3ce1bb18	0.027555034
230	0x3ca77cf1	0.020445319
231	0xbb9cd8bd	-0.0047865794
232	0xb76c26a7	-1.4075696e-05
233	0xbdf56f88	-0.119841635
234	0x3bc1b791	0.0059117754
235	0x86576889	-4.0513806e-35
236	0xb39d96f7	-7.3383426e-08
237	0x217b6724	8.5178613e-19
238	0xa65d6499	-7.6811113e-16
239	0x3937a4ea	0.00017513675

_orig_mod.embeddings.inventory_id.weight f4 [50, 16]
0	0xbd806747	-0.062696986
1	0xbdd48d22	-0.103784814
2	0xbd31cece	-0.043410115
3	0x3edf5932	0.43622738
4	0xbfba58c2	-1.4558337
5	0xbf177edf	-0.59177965
6	0x3e729181	0.23688318
7	0xbdd99946	-0.10624938
8	0x3f499559	0.7874351
9	0xbcf235a4	-0.029566593
10	0xbf42b2d3	-0.76054114
11	0xbe6bb598	-0.23018491
12	0xbffb9df8	-1.9657583
13	0xbfbe7428	-1.4879198
14	0xbf17dbf2	-0.59319985
15	0x3f02fb0a	0.51164305
16	0xbe17f990	-0.14841294
17	0xbf35801c	-0.70898604
18	0x3e044c2f	0.12919687
19	0x3d2c7e63	0.04211272
20	0xbe3edb86	-0.18638429
21	0xbcccd652	-0.02500454
22	0x3e30b8a7	0.1725794
23	0x3e3c475c	0.18386596
24	0xbe64f410	-0.22358727
25	0xbde89ff0	-0.11358631
26	0xbe919b1b	-0.2843865
27	0x3f542fdc	0.8288553
28	0x3dfbcb95	0.122946896
29	0xbb76b070	-0.0037641786
30	0x3d67999f	0.05654299
31	0x3cd0938c	0.02546098
32	0xbe94f22a	-0.29091007
33	0xc011cd7d	-2.278167
34	0x3f08ddeb	0.5346362
35	0xbe9212e6	-0.28530043
36	0x3f016388	0.505425
37	0x3fa4d556	1.2877605
38	0x3f26a242	0.65091336
39	0xbe51124a	-0.20417133
40	0x3f2b6c2d	0.6696194
41	0x3f4f1caa	0.8090311
42	0x3f220511	0.6328898
43	0x403759a9	2.8648474
44	0xbf2795fb	-0.6546323
45	0xbeb16b78	-0.34652305
46	0x3f055ce8	0.5209489
47	0xbf3102c9	-0.69144875
48	0x3b51f1b0	0.0032034926
49	0xbb295f6a	-0.0025844225
50	0x3c0a9032	0.00845723
51	0x3bbe59d4	0.005809048
52	0x3d12c745	0.03583457
53	0xbc627a20	-0.013823062
54	0x3c2d6a93	0.010584491
55	0x3c9f0874	0.01941321
56	0xbbebba26	-0.0071938215
57	0x3d0e2555	0.03470357
58	0x3ca8b265	0.020592878
59	0xbbdbc511	-0.0067068418
60	0x3dee3775	0.11631671
61	0x3c8e3da5	0.017363379
62	0xbbb354e7	-0.0054727676
63	0x3c1e2df7	0.009654514
64	0x3ddb31b9	0.10702843
65	0x3bd1735b	0.0063919253
66	0x3f254976	0.6456522
67	0x3ee48bfe	0.44638056
68	0x3e2167ba	0.15762225
69	0x3f60f4d1	0.8787356
70	0xbc16c60e	-0.009202493
71	0xbe8324ca	-0.25614005
72	0xbfd7ec6e	-1.6869028
73	0x3f2772b0	0.65409374
74	0xbda6e518	-0.08149165
75	0xbf4224fd	-0.7583769
76	0xbdeac840	-0.11463976
77	0x3e59a209	0.21253218
78	0xbe470a95	-0.1943763
79	0xbf916dad	-1.1361595
80	0xbc2c4a9c	-0.010515835
81	0xbe6438e8	-0.22287333
82	0xbee4d138	-0.4469087
83	0xbfaa53de	-1.3306844
84	0xbecbead5	-0.398276
85	0xbf477971	-0.7791968
86	0xbd0b8106	-0.034058593
87	0x3dbf6e9c	0.09347269
88	0x3ec60470	0.3867526
89	0x3f9bb5f2	1.21649
90	0xbe3ada71	-0.18247391
91	0xbe40c6a5	-0.18825777
92	0xbf6cc653	-0.9249012
93	0xbfbabe69	-1.4589359
94	0x3ea484f5	0.32132688
95	0xbea12e2e	-0.31480545
96	0x3ea3a10a	0.319588
97	0xbf328628	-0.69735956
98	0x3e111aeb	0.14170425
99	0xbee6ff0f	-0.4511647
100	0x3e9bd750	0.30437708
101	0xc007f778	-2.1244793
102	0x3f20ee5c	0.6286371
103	0xbea3bfac	-0.31982172
104	0xbed79cfb	-0.42111954
105	0x3f282be3	0.65691966
106	0xbeb54736	-0.35405892
107	0xbe36e0f3	-0.17859249
108	0x3ed09c62	0.4074431
109	0x3ef2ab6f	0.47396418
110	0xbf853cf1	-1.0409223
111	0xbdb862b3	-0.090032004
112	0x3e6a88cc	0.22903746
113	0x3f60a225	0.8774741
114	0x3eeeb319	0.46621016
115	0x3fb0be08	1.3807993
116	0xbf4f800d	-0.81054765
117	0xbf453ced	-0.7704609
118	0xbee935e8	-0.4554894
119	0x3d4fa31e	0.05069267
120	0xbcb3c197	-0.021942897
121	0x3ea19e52	0.315661
122	0x3e67caec	0.22636002
123	0x3f787da1	0.97066694
124	0xbfa5991e	-1.2937353
125	0xbf62c0fc	-0.8857572
126	0x3e4e1d84	0.20128447
127	0x3ee60bd7	0.44930908
128	0xbe4d0443	-0.20021157
129	0xbe1d2851	-0.1534741
130	0xbea7018e	-0.32618374
131	0xbc8a9124	-0.016914912
132	0xbe8fd2d1	-0.28090528
133	0xbd689af4	-0.0567884
134	0x3b4b513e	0.0031023766
135	0x3ecc2ca0	0.39877796
136	0x3d4c0494	0.049809054
137	0xbe4d0ccd	-0.20024414
138	0xbf736a15	-0.95083743
139	0x3e201c41	0.15635778
140	0x3e06f3e3	0.13178973
141	0x3ca932fb	0.020654192
142	0xbe90c990	-0.2827878
143	0xbcd5e69d	-0.026110942
144	0xbee1d3ab	-0.44106802
145	0xbf7931dd	-0.9734171
146	0xbf4480fb	-0.7675931
147	0x3eb824b2	0.35965496
148	0x3ef85cf4	0.48508418
149	0xbe7080ed	-0.23486681
150	0x3eb73663	0.3578368
151	0xbe1bb677	-0.15206324
152	0x3ecb380c	0.39691198
153	0xbecf4eaf	-0.40489718
154	0x3ec06fa7	0.37585184
155	0xbcebe38c	-0.028795026
156	0xbf0fcc23	-0.5617086
157	0xbf130e6f	-0.574439
158	0xbf9a4f70	-1.2055492
159	0x3e9578e2	0.2919379
160	0x3fa1fa4b	1.2654508
161	0x3ef40a30	0.47664022
162	0xbf28e41d	-0.65973073
163	0xbd96a271	-0.07355202
164	0x3dd10948	0.102068484
165	0x3ecb91e1	0.39759734
166	0x3d6ada43	0.057337057
167	0xbf1f68a3	-0.6226904
168	0x3daa49b8	0.08314842
169	0x3ba3682e	0.0049867844
170	0xbefcb411	-0.4935613
171	0xbd41848d	-0.04724555
172	0xbe9e5759	-0.30926016
173	0x3f4db711	0.8035746
174	0x3e8d3d42	0.27585799
175	0xc0023024	-2.0341883
176	0xbec31480	-0.38101578
177	0xbe854381	-0.26028064
178	0xbeb33d92	-0.35007912
179	0xbe500c28	-0.20317137
180	0x3eebf98b	0.46088824
181	0xbfd8e06e	-1.694349
182	0x3f1b4775	0.6065591
183	0x3f8067a3	1.0031627
184	0xbdee2be3	-0.116294645
185	0xbe962bef	-0.29330394
186	0xbd05d354	-0.03267224
187	0xbe999fc3	-0.300047
188	0x3eea8c64	0.45810235
189	0xbdf782d6	-0.12085502
190	0xbf129957	-0.5726523
191	0xbf4cf531	-0.8006163
192	0xbc96e994	-0.018421926
193	0xbfd3d6b3	-1.6549896
194	0xbf036615	-0.5132764
195	0xbd383779	-0.044974778
196	0x3f2f13b9	0.6838947
197	0x3f8ffcb7	1.1248997
198	0x3ed0b4e5	0.40763012
199	0x3f32365b	0.6961419
200	0xbf703e00	-0.93844604
201	0x3f42cc46	0.76092947
202	0xbdfe888a	-0.124283865
203	0x3d29cc5a	0.04145465
204	0xbf90d485	-1.1314856
205	0xbfed8d75	-1.8558794
206	0xbe01b0e6	-0.12665138
207	0x3e48e923	0.19620185
208	0xbda7aa3d	-0.08186767
209	0xbe17d3f3	-0.14826946
210	0x3f1b4261	0.6064816
211	0x3ee5d97e	0.44892496
212	0x3b5cb1e2	0.0033675362
213	0xbd92874b	-0.07154711
214	0x3b266ed6	0.0025395653
215	0x3ed839c1	0.42231563
216	0xbf5b5b65	-0.8568633
217	0xbe0010c7	-0.125064
218	0xbe15bf3c	-0.14623731
219	0x3f3d1069	0.73853165
220	0x3eb0ec61	0.34555343
221	0xbcd6db40	-0.026227593
222	0x3e84a158	0.25904346
223	0x3cf1dc56	0.02952401
224	0x3f0ee08b	0.55811375
225	0x3fd0e69f	1.632038
226	0xbe3fc489	-0.18727316
227	0xbf28e782	-0.6597825
228	0x3f2f7eda	0.68552935
229	0x3e926bf4	0.28597987
230	0xbeb02f04	-0.3441087
231	0x3f12b090	0.57300663
232	0xbde44f65	-0.11147956
233	0x3d871043	0.065948986
234	0x3e75c231	0.2399986
235	0xbf5f997c	-0.87343574
236	0xbe7630ab	-0.24042003
237	0xbf84f20a	-1.0386364
238	0xbe9b14ca	-0.30289298
239	0x3e8c1ab4	0.27364123
240	0xbe27a7db	-0.16372626
241	0xbdbb919f	-0.091586344
242	0xbe34f5a4	-0.1767183
243	0x3f945b5c	1.1590381
244	0x3f11212e	0.56691253
245	0xbf12d21b	-0.57351846
246	0xbf17b1fa	-0.59255946
247	0x3caf29fc	0.021382324
248	0x3f2e52f7	0.68095344
249	0xbc97a745	-0.018512378
250	0xbe865e70	-0.26243925
251	0xbdc84c48	-0.097801745
252	0x3d8d158a	0.06888874
253	0xbe930d0f	-0.287209
254	0xc01e3bae	-2.4723926
255	0x3f23698a	0.63832915

_orig_mod.embeddings.day_of_week.weight f4 [10, 16]
0	0xbd6eae92	-0.058271952
1	0x3e2c9024	0.1685186
2	0xbf393d68	-0.72359324
3	0xbf743ca1	-0.9540501
4	0xbe6f7594	-0.23384696
5	0x3e8f931f	0.28041932
6	0x3fa10286	1.2578895
7	0xbf8a52cd	-1.0806519
8	0x3e3519fb	0.17685692
9	0x3e16617c	0.14685625
10	0xbf6a6ac5	-0.9156917
11	0x3e22daa0	0.15903711
12	0xbea9ed2c	-0.3318876
13	0xbec3a4a6	-0.38211554
14	0xbdeacb3c	-0.11464545
15	0xbf1b1b0a	-0.60588133
16	0x3dc2ecec	0.095178455
17	0xbf16789f	-0.58777803
18	0xbe8b83a2	-0.27248865
19	0xbd4f73ab	-0.05064742
20	0x3f15d1f4	0.5852349
21	0xbe95d181	-0.292614
22	0x3f1f350e	0.6219033
23	0x3e9c9d44	0.30588734
24	0xbd9a95b5	-0.075480856
25	0x3c12930a	0.00894619
26	0xbe4d8be0	-0.2007289
27	0x3f39ec58	0.72626257
28	0xbddd35a9	-0.108012505
29	0xbd61a039	-0.05508444
30	0x3ec23830	0.37933493
31	0xbeea0403	-0.45706186
32	0xbe82d4eb	-0.2555307
33	0xbf26af57	-0.651113
34	0xbd8e64ad	-0.06952796
35	0x3f0d6cbd	0.55244046
36	0x3f2d4fc0	0.67699814
37	0x3e08a2b0	0.1334331
38	0x3eb668b6	0.35626763
39	0xbe3c8524	-0.18410164
40	0x3eb232d7	0.34804413
41	0x3cfb7faa	0.030700523
42	0xbdee43ee	-0.1163405
43	0x3f017edb	0.5058419
44	0x3ea0f278	0.3143499
45	0xbdbde612	-0.09272398
46	0xbf5c7e7d	-0.86130506
47	0x3f200ed3	0.6252262
48	0xbe2057b6	-0.15658459
49	0x3e8ab430	0.27090597
50	0xbf69ab4d	-0.9127701
51	0x3f0a043c	0.5391271
52	0xbf3a159c	-0.72689223
53	0x3f343d93	0.70406455
54	0xbed57d66	-0.41697234
55	0x3e64203f	0.22277926
56	0xbdcba085	-0.09942726
57	0x3f0a49f5	0.540191
58	0x3d39b1d0	0.04533559
59	0x3ee49520	0.44645023
60	0xbdfb4b5e	-0.122702345
61	0x3cd0b0f5	0.025475005
62	0x3e08604c	0.13317984
63	0x3f239e1a	0.6391312
64	0x3ed86b69	0.42269447
65	0x3f9d854c	1.2306304
66	0xbf0c9d3b	-0.54927415
67	0xbf058d8a	-0.52169096
68	0x404bc908	3.184145
69	0x3f8f8abe	1.1214216
70	0xbfddeedf	-1.7338523
71	0x3fc11122	1.5083354
72	0xbf34d14e	-0.70631874
73	0xbfa3f8bd	-1.2810284
74	0xbe87ae98	-0.26500392
75	0xbfd1ee76	-1.6400898
76	0x3f38c122	0.721697
77	0xbf315b04	-0.69279504
78	0x3ed96d3e	0.42466158
79	0xbff1982a	-1.8874562
80	0x3f0b804a	0.5449263
81	0xbf92d8b0	-1.1472378
82	0xbeeb13d0	-0.45913553
83	0xbdc0940c	-0.09403238
84	0x3eb90c05	0.36141983
85	0xbfd7c3b8	-1.6856604
86	0x3f92c1cd	1.1465393
87	0xbfa38068	-1.2773561
88	0xbf30892e	-0.6895932
89	0x3de10888	0.10987955
90	0xbf0e4220	-0.5556965
91	0xbf62090a	-0.8829504
92	0xbf9e8ce6	-1.2386749
93	0x3f42ba37	0.7606539
94	0x3dfc269c	0.12312052
95	0x3e37218b	0.1788389
96	0xbf9d0fac	-1.2270408
97	0x3fe1e3e5	1.7647673
98	0xbecd61de	-0.4011373
99	0xbf59e0f5	-0.8510888
100	0x3fac6b13	1.3470176
101	0xbfa753d3	-1.3072456
102	0x3e475b38	0.19468391
103	0x3f4dd257	0.8039908
104	0x3f3395a9	0.7015024
105	0x3f8c0c61	1.0941278
106	0x3cb440cb	0.022003552
107	0xbeb3378d	-0.3500332
108	0x3f6bad7d	0.920616
109	0x3f112a34	0.5670502
110	0xbf10c687	-0.5655293
111	0x3dc9909e	0.09842037
112	0x8b8b4766	-5.364828e-32
113	0xb8aef1e8	-8.342025e-05
114	0x376c47c7	1.4083408e-05
115	0x1bae19f9	2.880267e-22
116	0xbd9d267a	-0.076733544
117	0x861cb79e	-2.947524e-35
118	0xbe35d009	-0.1775514
119	0xb6f2cabf	-7.2357648e-06
120	0x3b84184f	0.004031218
121	0xbb6cd7d2	-0.003613938
122	0x889e5071	-9.528191e-34
123	0x12bb0622	1.1802871e-27
124	0x111e0867	1.2466591e-28
125	0x3ae0ed28	0.0017160522
126	0xb8dc7d62	-0.00010513772
127	0xad85a830	-1.519504e-11
128	0x8927659d	-2.0149672e-33
129	0xbd909f8f	-0.070616834
130	0xb0bbc230	-1.3661232e-09
131	0xb3de42ad	-1.0349809e-07
132	0x356369d8	8.471811e-07
133	0x0e83788c	3.2410076e-30
134	0x3a36ff4b	0.00069807906
135	0x3714532d	8.840853e-06
136	0x1e84c0e8	1.4055828e-20
137	0x081a778d	4.648322e-34
138	0x3d6c004c	0.05761747
139	0xb922fff7	-0.00015544878
140	0xbe0c85bc	-0.1372289
141	0xbcea9ca2	-0.028639141
142	0x8c05728e	-1.028042e-31
143	0x36e82601	6.918563e-06
144	0xbddf9ff6	-0.10919182
145	0x381fbc33	3.808383e-05
146	0x05859a4c	1.256394e-35
147	0x9c566e05	-7.0948857e-22
148	0x3848246d	4.771764e-05
149	0x1c13225e	4.868264e-22
150	0x8a062833	-6.459426e-33
151	0x3cfce8ff	0.03087282
152	0x0e978cf3	3.7360103e-30
153	0xacd700e7	-6.1107677e-12
154	0x073ddbdf	1.4283394e-34
155	0x3d08ea9b	0.033426862
156	0x10cfe79e	8.2003966e-29
157	0x0c3f5680	1.4740135e-31
158	0xb8ad81c0	-8.273451e-05
159	0x09ddcceb	5.339652e-33

_orig_mod.embeddings.hour.weight f4 [30, 16]
0	0xbe1d269d	-0.15346761
1	0xbecb7167	-0.39734957
2	0xbe909d4c	-0.28245008
3	0xbedcb0f0	-0.43103743
4	0xbe388040	-0.18017673
5	0xbfac4224	-1.3457685
6	0x3e0ed6a8	0.13949072
7	0xbf59774a	-0.84947646
8	0xbeea33ee	-0.45742744
9	0x3f13ca21	0.577303
10	0xbe23a562	-0.15981057
11	0x3e3f872f	0.18703912
12	0x3ead923f	0.3390064
13	0x3e499327	0.1968504
14	0x3e8c6334	0.27419436
15	0x3f2a9f3a	0.6664921
16	0x3cdc70c7	0.026909245
17	0xbd0dd98c	-0.034631297
18	0x3dfeef7e	0.12448023
19	0xbe0bf080	-0.13665962
20	0xbe0c2916	-0.13687548
21	0x3d1beb28	0.03806606
22	0x3d34d2fb	0.04414652
23	0x3cedb62c	0.02901753
24	0x3d7885b2	0.060674377
25	0xbb9d78cb	-0.0048056594
26	0xbdbfd2c1	-0.0936637
27	0xba3eaba3	-0.00072735007
28	0x3bd324e3	0.006443606
29	0x3d22b86c	0.03972666
30	0x3c9d8b36	0.01923142
31	0x3d0a2b8a	0.03373293
32	0x3b28b37d	0.002574175
33	0xbfec22e7	-1.8448151
34	0x3f06dc55	0.5267995
35	0x3eff5e29	0.49876526
36	0xbed5ce02	-0.41758734
37	0x3e9b29eb	0.30305418
38	0x3fcbdfd7	1.5927685
39	0x3dc8d10c	0.098054975
40	0xbec8b1b6	-0.39198083
41	0x3e0ab3aa	0.13545099
42	0x3f02db43	0.51115817
43	0xbd4c0b91	-0.049815718
44	0xbe9ab4f8	-0.30216193
45	0x3e5e9e5c	0.21740097
46	0x3f25e8de	0.6480845
47	0xbe51d74e	-0.20492288
48	0x3fa11423	1.258427
49	0xbe81b90d	-0.25336495
50	0xbf103155	-0.56325275
51	0xbcb7baea	-0.022427995
52	0xbb652a03	-0.0034967668
53	0x3d223e6f	0.039610323
54	0x3e9133d7	0.28359863
55	0xbd40ba42	-0.04705263
56	0x3e19c710	0.15017343
57	0xbd03edaa	-0.032209076
58	0xbe015834	-0.12631303
59	0x3d071b9d	0.03298532
60	0x3d159d8e	0.03652721
61	0xbdebaf03	-0.1150799
62	0xbc833394	-0.016015805
63	0x3ca04fdb	0.019569328
64	0x3cda6221	0.02665812
65	0xbde65d14	-0.11248222
66	0x3cc73ecd	0.024321938
67	0x3c89fa4a	0.01684298
68	0xbe67c009	-0.2263185
69	0xbe21af21	-0.15789463
70	0xbb4840f2	-0.0030556289
71	0x3ef9bee5	0.48778453
72	0x3c7c0794	0.015382666
73	0x3d47af36	0.04875108
74	0xbc6646d8	-0.014054976
75	0x3a934fda	0.0011239008
76	0x3c7bad30	0.015361115
77	0x3d31423c	0.043276057
78	0xbf03d0d6	-0.51490533
79	0x3e1870df	0.14886807
80	0xbe03c5f0	-0.12868476
81	0x3d6bb2a8	0.057543427
82	0xbec9a6da	-0.3938511
83	0xbf809773	-1.0046219
84	0xbf87ebf1	-1.0618879
85	0x3c91d4cc	0.017801665
86	0x3e89ef5e	0.26940435
87	0xbf829f64	-1.0204892
88	0x3f3c2806	0.7349857
89	0xbca3d24a	-0.019997735
90	0x3eb814aa	0.35953265
91	0x3f33ccd4	0.7023442
92	0x3fc24921	1.5178567
93	0x3f3ad084	0.7297442
94	0xbf8a2060	-1.079113
95	0x3e810b6c	0.25204027
96	0xbdd6cf96	-0.104888126
97	0xbd1623be	-0.03665518
98	0x3f4f8fb8	0.8107867
99	0x3ee5a369	0.44851235
100	0xbfc4db2a	-1.5379384
101	0xbf17e87c	-0.5933912
102	0x3e41bdce	0.18920061
103	0x3f31a68a	0.69394743
104	0x3f0f0493	0.55866355
105	0xbebd2314	-0.36940825
106	0xbd823b1d	-0.06358931
107	0x3e80fe0d	0.25193825
108	0xbecf7d17	-0.40525123
109	0x3f94ae8b	1.1615766
110	0xbe6e0da7	-0.23247395
111	0x3f3327cc	0.699826
112	0xbe341ec9	-0.17589869
113	0x3d516a97	0.051127043
114	0xbe9a9c0a	-0.30197173
115	0xbdf52a1f	-0.119709246
116	0xbea8b1c2	-0.32948118
117	0xbcf3d204	-0.02976323
118	0xbd9149ce	-0.07094155
119	0x3ea44d4d	0.32090226
120	0x3e7048ea	0.23465315
121	0x3f6f1a9f	0.93399996
122	0xbd93ede9	-0.07223112
123	0xbe487931	-0.19577481
124	0x3d6aefc0	0.05735755
125	0x3dde21d5	0.10846297
126	0xbe7072de	-0.23481318
127	0xbdda686a	-0.10664447
128	0x3e7c2302	0.2462273
129	0x3eec4ab7	0.46150753
130	0x3d3ade5e	0.045622222
131	0x3dd0671e	0.10175918
132	0x3d716b0f	0.05893999
133	0x3f0839e2	0.5321332
134	0x3cf4efbc	0.02989947
135	0x3e8e44f9	0.27786997
136	0x3e444334	0.19166261
137	0x3e20958e	0.1568205
138	0x3ee23c35	0.4418656
139	0xbdbc9388	-0.09207827
140	0xbd82eefa	-0.063932374
141	0xbe98c3cc	-0.2983688
142	0xbd6a5f2a	-0.05721966
143	0xbf507c90	-0.8144007
144	0xbf76f015	-0.96460086
145	0xbec32ea3	-0.38121518
146	0xbfb1d23e	-1.3892286
147	0xbd1513be	-0.03639578
148	0xbeebc805	-0.4605104
149	0x3e19a718	0.15005147
150	0xbf2f175b	-0.6839501
151	0xbdea5c43	-0.11443379
152	0x3f258c8b	0.64667577
153	0x3e74a297	0.23890148
154	0x3e234a5a	0.15946332
155	0x3fc4562b	1.5338796
156	0x3f58f9e4	0.847563
157	0xbd88fcb4	-0.06688824
158	0xbf26abc4	-0.65105844
159	0x3fe90350	1.8204136
160	0xbf311ed1	-0.6918765
161	0xbf3c8bc3	-0.7365076
162	0x3e2a2a89	0.16617788
163	0x3bdc74e6	0.0067278026
164	0xbfccf8b2	-1.6013396
165	0x3dfe17ba	0.12406869
166	0xbf2a7b8e	-0.6659478
167	0xbd74351f	-0.059620973
168	0xbe7c4235	-0.24634631
169	0xbf2482fd	-0.6426237
170	0xbcbc3b0e	-0.022977378
171	0xbd8d37fe	-0.06895445
172	0xbdf5eeea	-0.1200846
173	0x37f4c59d	2.9179088e-05
174	0xbd30436d	-0.043033052
175	0xbeaa79e8	-0.33296132
176	0xc00feaa2	-2.2486959
177	0xbf087574	-0.5330422
178	0x3dd9a160	0.10626483
179	0x3efe84ed	0.4971079
180	0x3ef44dd0	0.47715616
181	0x3e144c50	0.14482236
182	0x3f647aad	0.8924969
183	0xbd85855a	-0.065195754
184	0xbf015c58	-0.5053153
185	0x3fcd674e	1.6047151
186	0xbf5a1eb7	-0.8520312
187	0x3ef4d39b	0.47817692
188	0xbead24fe	-0.33817285
189	0xbfdf032e	-1.7422845
190	0x3f3aa22b	0.729037
191	0x3f87ec86	1.0619056
192	0x3f04f9c1	0.51943594
193	0x3e926885	0.28595367
194	0x3f083657	0.53207916
195	0x3c55ccf8	0.013049357
196	0x3e8da8d9	0.27667883
197	0x3e06f546	0.13179502
198	0xbdac62cf	-0.08417284
199	0xbeed9a17	-0.46406624
200	0xbdc59c01	-0.09648896
201	0x3d7c8277	0.06164786
202	0x3e125ff2	0.14294413
203	0xbe74b701	-0.23897935
204	0xbd64f6af	-0.05589932
205	0x3ecfce49	0.4058707
206	0xbf273556	-0.6531576
207	0x3d812b73	0.063071154
208	0x3f08688d	0.5328453
209	0x3e2a207d	0.16613956
210	0x3f62f1c1	0.8865014
211	0x3fd54b4d	1.6663605
212	0xbfb09dfd	-1.3798214
213	0xbeb1ec50	-0.34750605
214	0x3f61d423	0.8821432
215	0x3dfe1917	0.12407129
216	0x3ec1394a	0.3773902
217	0xbdede3dc	-0.11615726
218	0xbeb640fc	-0.35596454
219	0xbfe34667	-1.775586
220	0x3f1be966	0.6090301
221	0x3d9bee7b	0.07613846
222	0x3fd11608	1.6334848
223	0xbf1b2764	-0.6060698
224	0x3e588e1a	0.21147957
225	0xbdb83730	-0.08994901
226	0xbf3e2c62	-0.7428647
227	0x3f286d5f	0.6579189
228	0xbe5293f0	-0.20564246
229	0xbec174d9	-0.3778446
230	0x3ead9764	0.33904564
231	0xbf8e5afd	-1.1121517
232	0x3e7c86a1	0.24660732
233	0xbe99e24a	-0.30055457
234	0x3eb681d1	0.35645917
235	0xbdf320c5	-0.11871485
236	0x3f17e21e	0.593294
237	0x3fd1543c	1.6353831
238	0xbbfbcab8	-0.007684078
239	0xbffadb7c	-1.9598231
240	0x3ea34815	0.31890932
241	0x3f815953	1.0105385
242	0x3e8cc6e0	0.2749548
243	0x3cf6bf6e	0.030120578
244	0xbe1a25a3	-0.1505342
245	0x3e2299e6	0.1587902
246	0x3e057622	0.13033345
247	0xbe65d663	-0.22445063
248	0xbed419b9	-0.41425875
249	0x3e8c63b0	0.27419806
250	0x3eab25e1	0.33427337
251	0x3d1bb841	0.038017515
252	0x3e7d038b	0.24708383
253	0x3ee65457	0.4498622
254	0x3ecff9a2	0.40620142
255	0xbd44987a	-0.047996975

_orig_mod.dense_proj.bias f4 [16]
0	0xb9c2ab90	-0.00037130387
1	0xbca1c94a	-0.019749302
2	0x3b8dd469	0.0043283
3	0x3b72087e	0.0036931331
4	0x3be77c6b	0.0070643923
5	0x3a2a50cd	0.00064970256
6	0x3c047aba	0.008085901
7	0xbbe25afa	-0.006907818
8	0x3b594e99	0.003315842
9	0xba9369cc	-0.001124674
10	0xbc01bd9d	-0.0079187425
11	0xbbddd4ba	-0.0067697437
12	0x3b17b86e	0.00231507
13	0x3c0e4409	0.008683213
14	0xbc083dca	-0.008315513
15	0x3c7a7333	0.015286255

_orig_mod.self_MSR1.0.W_q.weight f4 [32, 16]
0	0x3de85be1	0.113456495
1	0x3e2196dd	0.15780206
2	0x3df259a3	0.11833503
3	0xbd2d954b	-0.042378705
4	0xbe47b307	-0.19501887
5	0x3e453b28	0.19260848
6	0x3d9cf6c3	0.076642536
7	0xbc76e644	-0.015069548
8	0x3e41a251	0.18909575
9	0x3e041c5e	0.12901446
10	0xbd8e50d6	-0.06949012
11	0xbd97cea4	-0.074124604
12	0x3d0c2cb2	0.034222312
13	0x3d8cdd04	0.06878093
14	0xbdb63f48	-0.08898789
15	0x3ceef43e	0.029169198
16	0xbd955d2b	-0.07293161
17	0xbe2d3a71	-0.16916825
18	0xbda568dd	-0.08076642
19	0x3e37396a	0.17892995
20	0x3d1227c7	0.035682466
21	0xbd29f8cc	-0.041497037
22	0xbda6d007	-0.08145147
23	0x3d064804	0.032783523
24	0x3e1a98c4	0.15097338
25	0xbbc20560	-0.005921051
26	0xbdf8d7da	-0.121505454
27	0xbdffc843	-0.12489369
28	0xbbd23469	-0.006414939
29	0xbddffe1d	-0.1093714
30	0xbe19c193	-0.15015249
31	0xbe136138	-0.14392555
32	0xbe439c7d	-0.19102664
33	0xbe0bf212	-0.13666561
34	0xbd436dda	-0.047712184
35	0xbdf8c34f	-0.12146627
36	0xbe2b0b4e	-0.16703531
37	0xbe33f554	-0.17574054
38	0x3c95947a	0.018259276
39	0x3d6fc62d	0.058538605
40	0xbe118ae7	-0.14213143
41	0x3b060c92	0.002045427
42	0x3e4f3cff	0.20238112
43	0xbe2f3d97	-0.17113338
44	0x3e303ac7	0.17209922
45	0x3e2a1d88	0.16612828
46	0xbc8737b3	-0.016506052
47	0xbe446c76	-0.19182
48	0xbe55df84	-0.20886046
49	0x3e12a74c	0.14321631
50	0xbc2b4ec2	-0.010455789
51	0xbe783a89	-0.2424108
52	0xbe0b4976	-0.13602242
53	0x3dff2fe6	0.12460308
54	0x3de7e444	0.11322835
55	0x3e57af1b	0.21062891
56	0x3d811d45	0.06304411
57	0xbd484520	-0.048894048
58	0x3d5f77d8	0.05455765
59	0xbdea809e	-0.11450313
60	0xbe56139e	-0.20905921
61	0x3e046e41	0.12932684
62	0x3c8b87f6	0.017032605
63	0xbd8f1c10	-0.06987774
64	0xbe0e5921	-0.13901187
65	0xbc71d479	-0.01476013
66	0x3b7963fb	0.0038053978
67	0xbdaed67a	-0.08537002
68	0x3e4b062f	0.19826578
69	0xbcbc8d3c	-0.023016565
70	0x3e2734f7	0.16328798
71	0xbbfcc6ac	-0.007714113
72	0xbe1f77fa	-0.15573111
73	0x3df09e20	0.1174891
74	0x3e2ade3c	0.16686338
75	0xbe51875e	-0.20461795
76	0x3e087fe1	0.13330032
77	0x3dab79fc	0.08372876
78	0xbe160279	-0.1464938
79	0x3e1804b3	0.14845543
80	0xbbe271e8	-0.0069105513
81	0xbe1bc244	-0.15210825
82	0x3e24c566	0.16090927
83	0xbdcb53a8	-0.099280655
84	0xbdad7349	-0.084692545
85	0x3e58ea02	0.21183017
86	0x3e08f105	0.13373192
87	0xbcfad3ed	-0.030618632
88	0x3e1bbd60	0.1520896
89	0xbe548bc6	-0.20756444
90	0xbd03a7f8	-0.03214261
91	0xbdf62dce	-0.12020455
92	0x3e7480d5	0.2387727
93	0x3e3f517d	0.18683429
94	0xbe2bcdac	-0.16777676
95	0xbe59f6f1	-0.21285607
96	0xbdea272d	-0.114332534
97	0x3e309842	0.17245582
98	0x3e3e40d7	0.18579422
99	0xbda5f6b2	-0.08103694
100	0x3d7cf51b	0.06175719
101	0x3c256ed3	0.010097223
102	0xbe273df0	-0.16332221
103	0x3cceca03	0.025242811
104	0xbe11595b	-0.14194243
105	0xbdad0a4b	-0.08449229
106	0x3c23ee12	0.010005491
107	0x3e5f1b54	0.21787769
108	0x3dc296cc	0.095014185
109	0x3e0b2592	0.1358855
110	0xbe100497	-0.14064251
111	0x3e2ea84d	0.17056389
112	0xbd9dde3f	-0.07708406
113	0xbdbd780d	-0.092514135
114	0xbe3adc98	-0.18248212
115	0x3c01473b	0.007890518
116	0x3c6411cf	0.0139202615
117	0x3e3c8d2e	0.18413231
118	0xbe5c8a50	-0.21537137
119	0x3dacce3f	0.08437776
120	0xbe52d05e	-0.20587298
121	0xbe26d004	-0.16290289
122	0x3ca4b0ce	0.020103838
123	0x3d82bec3	0.06384041
124	0xbcb94fcd	-0.02262106
125	0x3cc29ba6	0.02375586
126	0xbe4b347c	-0.1984424
127	0x3e600af4	0.21879178
128	0x3d636648	0.055517465
129	0x3d5885ac	0.052861854
130	0x3deadf3b	0.11468359
131	0x3d3c30df	0.045945045
132	0x3df8389a	0.12120171
133	0x3d868e81	0.06570149
134	0xbd15cae7	-0.036570456
135	0xbd8d90ae	-0.06912361
136	0x3e2e6e0e	0.1703417
137	0xbdc07d0d	-0.093988515
138	0x3e05da7f	0.13071631
139	0x3d16c5e6	0.036809824
140	0x3dfcebae	0.1234964
141	0xbe3dc8d4	-0.18533641
142	0x3e3d6c58	0.18498361
143	0x3e1485a8	0.14504111
144	0x3e4203e5	0.18946798
145	0x3d527646	0.051382326
146	0x3dd295ea	0.102825
147	0xbd1a8233	-0.037721824
148	0x3d9bcaad	0.07607017
149	0x3cc880a0	0.024475396
150	0xbe293404	-0.16523749
151	0xbad67d1d	-0.0016364191
152	0x3b01129f	0.0019694937
153	0x3e577631	0.2104118
154	0x3d55ee69	0.05222932
155	0xbe47def3	-0.19518642
156	0xbe0d30f6	-0.13788208
157	0xbd86bfe2	-0.065795675
158	0x3b7c7eff	0.0038527844
159	0x3e0c4f03	0.13702016
160	0x3dc16277	0.09442609
161	0x3de6a74e	0.112623796
162	0xbe1c2528	-0.15248549
163	0xbd84fd10	-0.0649358
164	0xbe0e4a0e	-0.13895437
165	0x3da9430e	0.08264743
166	0xbd212500	-0.039341927
167	0xbd84c93f	-0.06483697
168	0x3ce89532	0.028391454
169	0x3dc6101e	0.09671043
170	0xbdf4275b	-0.11921569
171	0xbe67c90d	-0.22635289
172	0xbd57e359	-0.05270705
173	0x3d9113c3	0.070838474
174	0xbe244541	-0.16042043
175	0x3df783cc	0.12085685
176	0xbe40bfa2	-0.18823102
177	0x3e4aba66	0.19797668
178	0x3e021ed8	0.12707078
179	0xbd93b23d	-0.07211731
180	0xbdf8fd68	-0.121577084
181	0x3de999c0	0.114062786
182	0x3d468282	0.048464306
183	0x3de4210e	0.11139117
184	0xbdf6474c	-0.120253175
185	0xbe18be50	-0.14916348
186	0x3d9e17d7	0.07719391
187	0x3e430d3a	0.19048014
188	0xbde104cc	-0.10987243
189	0xbd2dbb68	-0.042415053
190	0xbd527803	-0.051383983
191	0xbe294faa	-0.16534296
192	0xbcd7c31a	-0.026338149
193	0x3df34da9	0.11880047
194	0x3b48c08a	0.003063234
195	0x3e59ea99	0.21280898
196	0x3e57967c	0.21053499
197	0x3dea06bf	0.11427068
198	0xbe1ee81e	-0.15518233
199	0xbddca0a3	-0.107728265
200	0xbd66a38c	-0.056308314
201	0xbdee03af	-0.11621796
202	0x3deaf383	0.114722274
203	0xbe247745	-0.16061123
204	0x3cd66c99	0.02617483
205	0x3cd2f4c4	0.025751479
206	0xbc8d4262	-0.017243568
207	0x3e85addf	0.26109216
208	0x3d94eaf7	0.072713785
209	0x3da4a070	0.080384135
210	0x3d082bfe	0.03324508
211	0xbe308f8f	-0.17242263
212	0x3df6f3ae	0.12058197
213	0x3e2190e6	0.1577793
214	0x3d8b2b0e	0.067953214
215	0x3e4db85c	0.20089859
216	0xbd9836fc	-0.074323624
217	0x3dcde392	0.10053171
218	0xbe074310	-0.13209176
219	0xbe0a4b60	-0.13505316
220	0x3e1202aa	0.14258829
221	0xbdf17c8a	-0.11791332
222	0x3dd78c3c	0.105247945
223	0xbde0e94a	-0.10981996
224	0x3d4ee52e	0.05051153
225	0xbe4b76ba	-0.1986951
226	0xbe426ada	-0.18986073
227	0x3e362590	0.17787766
228	0xbe5f9191	-0.21832873
229	0x3e1ece5e	0.1550841
230	0x3ca4ce38	0.020117864
231	0x3d4eecec	0.050518915
232	0xbe278799	-0.1636032
233	0xbd2a7e5f	-0.041624423
234	0xbd9554fb	-0.07291599
235	0x3e69c1a0	0.22827768
236	0x3e0b859b	0.13625185
237	0xbe1a98ff	-0.15097426
238	0x3d910ce9	0.070825405
239	0xbe5a9b80	-0.21348381
240	0xbe50e3d3	-0.20399408
241	0xbc5d4bff	-0.013506888
242	0xbde34224	-0.110966
243	0x3d9c31ae	0.07626663
244	0xbda69cc5	-0.0813537
245	0xbd10843b	-0.035282355
246	0xbd0dc712	-0.034613676
247	0xbe00e608	-0.1258775
248	0xbded59ec	-0.11589417
249	0x3e2cf056	0.16888556
250	0xbe251ffe	-0.16125485
251	0x3e04560a	0.12923446
252	0xbd68d6c9	-0.05684546
253	0x3e857e48	0.26072907
254	0x3c0e6873	0.008691895
255	0x3e57eeaa	0.21087137

_orig_mod.self_MSR1.0.W_k.weight f4 [32, 16]
0	0xbdc36ab7	-0.095418386
1	0x3e08db81	0.13364984
2	0x3e144db8	0.14482772
3	0x3cd140ba	0.02554356
4	0xbe1bc8f9	-0.15213384
5	0x3e375770	0.17904449
6	0xbcfa6a19	-0.03056817
7	0xbe38dc0e	-0.18052694
8	0x3ddd2fb5	0.10800115
9	0xbd257944	-0.04039885
10	0xbe293c77	-0.16526972
11	0x3d76a618	0.060216993
12	0x3da99329	0.08280022
13	0xbd7fac8c	-0.062420413
14	0x3e33cf7a	0.17559615
15	0x3c3743c3	0.011185589
16	0xbd6c100e	-0.0576325
17	0xbe1b4578	-0.15163219
18	0x3de5f554	0.11228433
19	0xbe8cb6c3	-0.27483186
20	0x3b99debf	0.004695743
21	0x3d5f5f2c	0.054534122
22	0x3e577764	0.21041638
23	0x3cf7e578	0.030260786
24	0xbe80a28c	-0.25124013
25	0xbe271b57	-0.16319023
26	0xbd594083	-0.05304004
27	0xbd9f169f	-0.077679865
28	0xbcd9e81d	-0.026599938
29	0xbd4b45dd	-0.049627174
30	0x3d03de68	0.032194525
31	0xbdc108a3	-0.094254754
32	0x3e059169	0.13043751
33	0x3e461f37	0.19347845
34	0x3e23ff41	0.1601534
35	0xbdb099d1	-0.08623088
36	0x3dbad553	0.091227196
37	0xbe188a50	-0.14896512
38	0xbc282042	-0.010261597
39	0x3e1230c0	0.14276409
40	0x3cb21e3d	0.021742934
41	0x3d132dcb	0.035932343
42	0xbe13f671	-0.14449479
43	0x3c7e948e	0.015538348
44	0xbe50527b	-0.20343964
45	0xbe7eb775	-0.24874671
46	0x3e41ea32	0.18936995
47	0x3db3a8aa	0.087724045
48	0xbdd02faf	-0.10165345
49	0x3cee4743	0.029086715
50	0x3e3da7fa	0.18521109
51	0x3e2f4558	0.17116296
52	0xbd7e379b	-0.06206475
53	0x3e0a4f76	0.13506874
54	0xbe89f6b6	-0.26946038
55	0xbe10aa94	-0.1412757
56	0x3d4c5e61	0.049894694
57	0x3e0de631	0.13857342
58	0x3d138589	0.03601602
59	0xbdd73f85	-0.10510162
60	0x3ddff39d	0.109351374
61	0xbdd8cb5f	-0.10585665
62	0x3e961e8b	0.29320177
63	0x3dd2fa4b	0.10301646
64	0x3e5fb789	0.21847357
65	0x3dcdc69d	0.10047648
66	0x3e827030	0.25476217
67	0x3e56d188	0.20978367
68	0xbc79c557	-0.015244803
69	0xbe332b7d	-0.17497058
70	0x3e5dd5e8	0.2166363
71	0x3e024cf8	0.12724674
72	0x3dfd3658	0.12363881
73	0x3d8d9438	0.06913036
74	0x3e82dc87	0.25558874
75	0x3e4a9539	0.19783486
76	0xbd3430e0	-0.043991923
77	0xbdcb6c58	-0.09932774
78	0x3da9229b	0.082585536
79	0xbd32fc54	-0.04369767
80	0xbb44ff08	-0.0030059237
81	0xbddc0464	-0.10743025
82	0x3dc1a176	0.09454624
83	0x3deedc9a	0.1166317
84	0xbdea3310	-0.11435521
85	0x3e20e1d3	0.15711145
86	0x3e607f45	0.2192355
87	0xbc8ceff2	-0.017204259
88	0xbe43f510	-0.19136453
89	0xbda8a9a7	-0.082354836
90	0xbd8db7ee	-0.069198474
91	0x3e867a5f	0.26265237
92	0x3e0767c5	0.13223179
93	0x3e274db1	0.1633823
94	0x3d9a21a2	0.07525946
95	0x3dfd6789	0.123732634
96	0xbc400dda	-0.0117220525
97	0xbcc32297	-0.023820205
98	0xbe621f4f	-0.22082256
99	0xbe6a64ee	-0.22890064
100	0x3dcc7d0d	0.09984789
101	0x3cb83b2b	0.022489151
102	0xbdd14577	-0.102183275
103	0xbda8ef31	-0.08248747
104	0x3e2bd0c3	0.16778855
105	0x3e84540c	0.25845373
106	0xbdd40737	-0.103529386
107	0xbe1d7441	-0.15376379
108	0x3e27399c	0.1633057
109	0xbcc5459a	-0.02408104
110	0xbe41d055	-0.18927129
111	0xbd2f6754	-0.04282315
112	0x3df68bec	0.12038407
113	0xbda255b7	-0.07926505
114	0xbda6209e	-0.0811169
115	0x3e24086f	0.16018842
116	0x3e245347	0.16047393
117	0x3dbbd901	0.091722496
118	0x3e47c983	0.19510464
119	0xbdc7767f	-0.09739398
120	0x3dfabfa7	0.12243586
121	0xbbc9e5ab	-0.0061614118
122	0xbe456493	-0.19276647
123	0xbe06dd00	-0.13170242
124	0xbe32375e	-0.17403933
125	0x3df0b9b5	0.11754171
126	0x3d896c32	0.0671009
127	0x3e2b30d7	0.1671785
128	0x3cebad0e	0.028769042
129	0x3d915318	0.07095927
130	0xbe509b04	-0.20371634
131	0xbe254a8c	-0.16141719
132	0x3d4bb938	0.049737185
133	0x3d9ba0e5	0.075990476
134	0xbe48945c	-0.19587845
135	0xbd986dd9	-0.07442827
136	0xbdfceb58	-0.12349576
137	0x3dc2a108	0.095033705
138	0xbe5d0787	-0.21584903
139	0x3e856cb6	0.26059502
140	0xbe5dcdb6	-0.21660504
141	0x3d21b537	0.03947946
142	0x3d0899bf	0.03334975
143	0xbb2c15e1	-0.0026258158
144	0x3d1683b3	0.036746692
145	0xbdb2dfe5	-0.08734111
146	0x3e8008d8	0.25006747
147	0x3e83ffa3	0.25780973
148	0xbe19095f	-0.14944981
149	0x3e04cf3f	0.12969683
150	0xbe5147cd	-0.20437546
151	0xbd22f149	-0.03978089
152	0x3df0312c	0.11728129
153	0x3db2ebee	0.08736406
154	0x3e11427d	0.1418552
155	0x3e0b4418	0.13600194
156	0x3e226964	0.15860516
157	0x3daf556b	0.08561214
158	0x3b730c44	0.0037086168
159	0x3e433b61	0.1906562
160	0x3e0fc2a7	0.14039098
161	0xbdec3766	-0.11534004
162	0xbcd387bc	-0.02582156
163	0x3dabf5b0	0.083964705
164	0x3d3a823f	0.04553437
165	0xbe59b864	-0.21261746
166	0x3c3f746a	0.01168547
167	0x3e1d95a2	0.15389112
168	0xbdc40e45	-0.09573034
169	0xbe34c87d	-0.17654605
170	0xbe3f93d8	-0.18708742
171	0xbe58ec05	-0.21183784
172	0x3e3d9a16	0.1851581
173	0xbd9a03fa	-0.0752029
174	0x3e84ba2c	0.25923288
175	0xbe839856	-0.2570216
176	0x3de28c2b	0.11061891
177	0x3e277fbb	0.16357319
178	0x3d774f6c	0.060378477
179	0xbe325987	-0.17416964
180	0x3e640518	0.22267568
181	0xbdc1e7c1	-0.09468032
182	0x3e4d39cd	0.2004158
183	0xbdf3ebfc	-0.11910245
184	0xbe4d846f	-0.2007005
185	0x3d924610	0.071422696
186	0xbdb90019	-0.09033222
187	0x3e532425	0.20619257
188	0x3dcdaead	0.100430824
189	0xbe12bc3a	-0.14329615
190	0xbd517dea	-0.05114547
191	0xbe8cf8a2	-0.27533442
192	0xbdc44b9a	-0.09584732
193	0x3e56b1bb	0.20966236
194	0x3e3e0694	0.18557197
195	0x3d7c3bf0	0.0615806
196	0x3d897945	0.067125835
197	0xbe4f93cd	-0.20271225
198	0x3d9b7ba5	0.07591943
199	0x3e1b8e34	0.15190965
200	0x3d82b7cf	0.06382715
201	0x3e61d283	0.2205296
202	0x3c999521	0.018747868
203	0xbd2a47b3	-0.041572284
204	0xbe3a4bb5	-0.18192942
205	0xbe153e69	-0.14574589
206	0xbd421ad7	-0.047388878
207	0xbdff75a3	-0.12473609
208	0x3d6cc4eb	0.057804983
209	0xbd3aa08e	-0.045563273
210	0x3e5508db	0.2080416
211	0xbc3ab948	-0.011396714
212	0x3c6cf268	0.014462091
213	0xbdec57e6	-0.11540203
214	0x3e6a6bfd	0.22892757
215	0xbdb2a92e	-0.08723675
216	0x3e1b76bb	0.15182011
217	0xbe09a4da	-0.13441792
218	0xbe39a9df	-0.18131207
219	0xbe2cc9d7	-0.16873871
220	0x3dddbb82	0.1082678
221	0xbe05ec13	-0.13078336
222	0x3ca006ad	0.019534433
223	0x3d323061	0.04350317
224	0x3c897817	0.016780896
225	0x3e6b42d9	0.22974719
226	0x3e4bdfd1	0.19909598
227	0x3e05d421	0.13069202
228	0x3e1752a6	0.14777622
229	0xbd9f624b	-0.0778242
230	0x3cd0a44a	0.025468964
231	0x3d3d5e86	0.046232723
232	0x3d64dc84	0.055874363
233	0xbe2ae829	-0.16690125
234	0x3de7d890	0.11320603
235	0x3b9b2a56	0.0047352714
236	0xbe3c79f0	-0.1840589
237	0xbe07ff8b	-0.13281076
238	0xbdc7e2c6	-0.097600505
239	0x3cfbad7a	0.030722369
240	0xbe034cae	-0.1282222
241	0xbddf4751	-0.109022744
242	0x3ca59cf0	0.020216435
243	0x3e6389f7	0.22220598
244	0x3e30f26d	0.17279978
245	0xbe3a4534	-0.18190461
246	0x3cabf2cc	0.020989798
247	0xbc332389	-0.010933765
248	0xbe5c12eb	-0.21491592
249	0xbe067db4	-0.1313389
250	0xbe0abe87	-0.13549243
251	0x3e5cbd9a	0.21556702
252	0xbd973938	-0.073839605
253	0x3e63080a	0.22171035
254	0xbd81dd1c	-0.063410014
255	0x3dc06198	0.093936145

_orig_mod.self_MSR1.0.W_v.weight f4 [32, 16]
0	0x3c2c8bb1	0.010531352
1	0x3e52c8ba	0.20584384
2	0xbcfd8161	-0.030945482
3	0xbe0cdafe	-0.13755414
4	0xbd291526	-0.041279934
5	0x3e4f362a	0.20235506
6	0x3d1bf5c4	0.038076177
7	0xbe26d096	-0.16290507
8	0xbd4df05a	-0.050278045
9	0xbcb757ed	-0.022380793
10	0xbdae940a	-0.0852433
11	0x3c2dcf6a	0.010608533
12	0xbe1fed85	-0.1561795
13	0xbe049b89	-0.12949957
14	0x3cc6fea2	0.02429134
15	0xbc9f090c	-0.019413494
16	0x3e0fdb4e	0.14048502
17	0xbc1b9356	-0.009495577
18	0xbd418587	-0.047246482
19	0xbd65f78d	-0.056144286
20	0x3d81b98a	0.06334217
21	0xbd6c78fd	-0.05773257
22	0xbcb91d3f	-0.022596953
23	0x3d9dd59c	0.077067584
24	0x3bc2fb45	0.005950364
25	0x3d93ba54	0.07213274
26	0x3e100e42	0.14067939
27	0x3e1594af	0.146075
28	0xbe4cdd62	-0.20006326
29	0xbe5fb3b4	-0.21845895
30	0xbd55436e	-0.05206626
31	0xbdbb97ec	-0.09159836
32	0xbdaf47c0	-0.08558607
33	0x3d83fb03	0.06444361
34	0x3de04d67	0.10952263
35	0xbe21781b	-0.15768473
36	0xbc93a100	-0.018021107
37	0x3e1f1aed	0.15537615
38	0xbe4a82a7	-0.19776402
39	0xbd8fd3e5	-0.070228375
40	0xbdd0b0f1	-0.10189999
41	0x3d1e5d40	0.03866315
42	0xbe37a419	-0.17933692
43	0xbe663ac9	-0.22483362
44	0x3db9ebcd	0.090781786
45	0x3d5aec7d	0.05344819
46	0xbe2b1dc3	-0.16710572
47	0xbe6f4dfe	-0.23369595
48	0xbe3b6703	-0.18301015
49	0xbcf41c44	-0.029798634
50	0x3dc80f48	0.0976854
51	0x3b7916e3	0.0038008026
52	0x3d902fce	0.07040368
53	0x3d9a7cc4	0.075433284
54	0xbd9d7336	-0.0768799
55	0xbdfd3668	-0.12363893
56	0x3e2b12eb	0.16706435
57	0x3e24bcf8	0.16087711
58	0xbe3e8fef	-0.18609594
59	0x3c862041	0.016372802
60	0xbdcd01bc	-0.100100964
61	0x3e1bdbac	0.15220517
62	0xbe3f1940	-0.18661976
63	0xbd9b28f8	-0.075761735
64	0x3e4a7fc9	0.19775309
65	0xbda3599b	-0.07976075
66	0x3e30ee4a	0.172784
67	0xbe4dc641	-0.20095159
68	0x3985b8bf	0.00025505383
69	0x3e129143	0.14313225
70	0xbc07b4b2	-0.008282827
71	0xbe10c8c9	-0.14139093
72	0x3da0e23a	0.07855649
73	0xbe1ce3cb	-0.15321271
74	0xbd4e413b	-0.050355177
75	0xbe276ee3	-0.16350894
76	0x3e2785a0	0.16359568
77	0xbced32df	-0.028954921
78	0xbe3bdffa	-0.18347159
79	0xbd443907	-0.047905948
80	0xbe231fe9	-0.15930142
81	0x3c01a2af	0.007912322
82	0xbe525596	-0.20540461
83	0xbca0c3ca	-0.01962461
84	0xbe4f8a91	-0.20267703
85	0x3e21eaec	0.15812272
86	0x3da005f1	0.07813633
87	0x3e48c3d7	0.19605957
88	0x3e46b8ef	0.19406484
89	0xbdf9c4bc	-0.12195727
90	0xbbd0b2c1	-0.0063689654
91	0xbca7f1d5	-0.020501057
92	0xbe385e6c	-0.18004769
93	0x3e4a3a4d	0.19748802
94	0xbe2ed50c	-0.17073458
95	0x3e3726fd	0.17885967
96	0xbe15fe8c	-0.14647883
97	0x3e1dc294	0.15406257
98	0xbd868dc8	-0.065700114
99	0x3e381181	0.17975427
100	0xbd6fd123	-0.058549058
101	0x3c77e5f9	0.015130513
102	0x3da2d6cb	0.07951125
103	0x3a259465	0.0006316363
104	0x3c20b884	0.009809617
105	0x3d9212d4	0.071324974
106	0xbd5b4792	-0.05353505
107	0xbe59b88f	-0.2126181
108	0xbdb4e24a	-0.08832224
109	0xbc2f1ead	-0.010688466
110	0x3d2cdfd7	0.042205658
111	0xbda6e9c4	-0.08150056
112	0x3e17b28e	0.14814207
113	0xbe2070f8	-0.15668094
114	0x3ac005ed	0.0014650204
115	0xbd94453a	-0.072397664
116	0x3dc53763	0.09629705
117	0x3e18fdf4	0.14940625
118	0xbdb3a274	-0.0877122
119	0xbbb266a2	-0.0054443637
120	0x3a827904	0.0009954278
121	0x3e58d0fa	0.21173468
122	0x3e0cf7e8	0.13766444
123	0xbc36495b	-0.011125888
124	0xbe203a8f	-0.15647338
125	0x3e2e4b9b	0.17021029
126	0xbe23fc24	-0.16014153
127	0x3db88687	0.09010034
128	0xbd7fb301	-0.06242657
129	0x3b5764ac	0.0032866402
130	0x3be8179d	0.007082893
131	0xbdc3deae	-0.09563957
132	0x3d2e6f32	0.042586513
133	0xbddc599b	-0.107592784
134	0xbdbe5e09	-0.092952795
135	0x3dd5cbc5	0.104392566
136	0x3e2696d6	0.16268477
137	0xbe04a8c7	-0.12955008
138	0xbc56b9b3	-0.013105798
139	0xbe3c1447	-0.1836711
140	0x3ba586f8	0.00505149
141	0xbe011345	-0.12605007
142	0xbd892fbc	-0.06698558
143	0xbe28bccd	-0.16478272
144	0x3d732cae	0.05936878
145	0x3df8c09d	0.12146113
146	0xbc9ed6a3	-0.019389456
147	0x3ddadf68	0.106871426
148	0x3d5efb33	0.05443878
149	0x3da87ca2	0.08226897
150	0x3dcdd11a	0.100496486
151	0xbdb2cacd	-0.087300874
152	0xbdfe1d3b	-0.12407919
153	0x3d0a661f	0.033788797
154	0xbe4e65e9	-0.20156063
155	0x3d91b3ff	0.0711441
156	0xbe1f7520	-0.15572023
157	0x3c869c2a	0.016431887
158	0xbc1a9bb2	-0.009436535
159	0x3c4d0fb5	0.012515952
160	0xbd94c416	-0.07263963
161	0x3e002f32	0.12518004
162	0x3d938740	0.07203531
163	0xbe51cd61	-0.20488502
164	0xbe679c1d	-0.22618146
165	0xbced2ec1	-0.028952958
166	0xbe00da04	-0.12583166
167	0xbba4db09	-0.005030994
168	0xbde68eb7	-0.112576894
169	0x3e1aa554	0.1510213
170	0x3d376e93	0.044783186
171	0x3d9e9c84	0.07744697
172	0xbdb36a3d	-0.08760498
173	0xbe3b92eb	-0.18317764
174	0x3ccaa7c9	0.02473821
175	0x3ca47bf7	0.020078642
176	0x3df5dd52	0.12005104
177	0xbd0fba60	-0.03508985
178	0x3ca7d1bb	0.02048575
179	0x3e1d0d06	0.15337
180	0xbd777818	-0.060417265
181	0x3e3bfccd	0.18358155
182	0xbd0fef2c	-0.0351402
183	0xbe254527	-0.16139661
184	0x3ca51c76	0.020155173
185	0x3ddb9163	0.1072109
186	0xbe3a8160	-0.18213415
187	0xbd7a0172	-0.061036535
188	0x3e0169d2	0.12638023
189	0x3e0ecd90	0.13945603
190	0x3d740f59	0.05958495
191	0x3b09e683	0.0021041937
192	0xbe1bbdd9	-0.1520914
193	0xbddb6900	-0.107133865
194	0x3e201953	0.1563466
195	0xbe2c7262	-0.16840509
196	0xbd445f10	-0.04794222
197	0xbe271237	-0.16315542
198	0xbe467a6e	-0.1938264
199	0xbdbb8f6b	-0.09158214
200	0xbe4df9a7	-0.20114766
201	0xbdd2d457	-0.10294407
202	0xbe363d9d	-0.17796941
203	0x3db3aab0	0.087727904
204	0xbe17e284	-0.14832503
205	0x3da36aa3	0.07979324
206	0x3c73a8b5	0.014871766
207	0xbe00a9ce	-0.12564775
208	0xbde4ff7c	-0.11181542
209	0x3cfab72b	0.03060492
210	0xbe2e83db	-0.17042486
211	0xbda31987	-0.07963853
212	0xbe509385	-0.20368774
213	0x3e58d5ba	0.2117528
214	0x3e200796	0.15627894
215	0xbe0caa89	-0.13736929
216	0x3de38ad4	0.11110464
217	0x3ce29c55	0.027662436
218	0x3e15404e	0.14575312
219	0xbdc6fbf4	-0.09716025
220	0x3e027854	0.12741214
221	0xbd992494	-0.0747768
222	0x3d657d38	0.05602762
223	0xbe2519e3	-0.16123156
224	0x3d8874c4	0.06662896
225	0xbd19707c	-0.03746079
226	0xbdc209ae	-0.094745025
227	0x3e1f0129	0.15527786
228	0xbdca8041	-0.09887744
229	0x3debc765	0.11512641
230	0xbde9a9f6	-0.114093706
231	0x3dbac50a	0.091196135
232	0x3dabefef	0.08395373
233	0xbda56f4f	-0.08077871
234	0x3d389d9b	0.04507218
235	0xbe255aa9	-0.16147865
236	0x3dbdf7ba	0.09275766
237	0x3e35ba54	0.1774686
238	0xbdccea06	-0.10005574
239	0x3ddf878a	0.10914524
240	0xbdc32a74	-0.09529582
241	0x3c9d999e	0.01923829
242	0x3d86afeb	0.065765224
243	0x3d29d54f	0.041463193
244	0xbc179441	-0.009251655
245	0xbd8b4191	-0.06799615
246	0xbd0ccea5	-0.03437676
247	0xbcc4b60b	-0.024012586
248	0x3cb5b3ab	0.022180399
249	0xbe243445	-0.16035564
250	0x3db52312	0.0884458
251	0xbcfc919a	-0.030831147
252	0xbdf6469c	-0.120251864
253	0xbe0714be	-0.13191506
254	0xbe4b628b	-0.1986181
255	0x3cc78cb5	0.024359087

_orig_mod.self_MSR1.0.xpos.scale f4 [16]
0	0x3e924925	0.2857143
1	0x3ea92493	0.33035716
2	0x3ec00000	0.375
3	0x3ed6db6d	0.41964284
4	0x3eedb6db	0.4642857
5	0x3f024924	0.50892854
6	0x3f0db6db	0.5535714
7	0x3f192492	0.59821427
8	0x3f249249	0.64285713
9	0x3f300000	0.6875
10	0x3f3b6db7	0.73214287
11	0x3f46db6e	0.77678573
12	0x3f524925	0.8214286
13	0x3f5db6db	0.8660714
14	0x3f692492	0.91071427
15	0x3f749249	0.95535713
