experiments/resort_20251006_140548/models/checkpoint_epoch2_auc0.6488_logloss0.0926.pth (torch, 157439 bytes, 45 tensors)

_orig_mod.embeddings.gender.weight f4 [5, 16]
000000 39 3e 18 be c9 7f e4 3d 32 db 7d 3f bc a6 d2 bc
       -0.14867486 0.111571856 0.9916259 -0.02571427
000010 61 11 1a bf 60 37 51 3c 82 91 15 3f 2b 57 05 c0
       -0.6018277 0.01276955 0.5842515 -2.0834453
000020 9a 7f e6 3d 20 3e 33 3e 02 d4 5a bd 2a 33 97 be
       0.11254807 0.17504168 -0.053424843 -0.29531223
000030 b2 96 67 3d da 03 e0 3e 64 f8 ad 3e 0f 7f 1f be
       0.0565402 0.43752939 0.3397857 -0.15575813
000040 f5 90 9b 3f b1 de 2b 3f 1b 84 3a bf de c5 bc 3f
       1.2153612 0.67136675 -0.72857827 1.4747884
000050 0f c9 32 3e 49 ca 9b 3e 05 fe 59 3f 05 8d e1 be
       0.1745951 0.3042777 0.8515323 -0.44052902
000060 51 5a 87 bf 8b 8e 65 bf 69 70 66 3e 8f 4a 80 bf
       -1.0574437 -0.8967063 0.22503819 -1.0022753
000070 7b 71 4e 3f 51 47 be 3f 09 b4 77 be 02 1b 8b be
       0.8064191 1.4865514 -0.24189772 -0.27169043
000080 15 5f eb 3f 99 27 c2 3e 9c 02 14 3e 35 c3 5b bf
       1.8388392 0.37920836 0.1445412 -0.8584474
000090 0a 0e e4 3e c7 17 2d bf 18 05 a9 bd bd 76 31 3e
       0.4454196 -0.67614406 -0.08252925 0.17330451
0000a0 65 b1 78 be f4 aa ef bf 90 74 98 bf 8f 5f 13 be
       -0.2428642 -1.8724046 -1.1910572 -0.14391921
0000b0 b0 fa 42 3f 9a 3d a4 3f 16 87 1f be 82 b1 04 be
       0.7616377 1.2831299 -0.15578875 -0.12958339
0000c0 f5 77 af 3d 2f 92 8e 3e fa 9a df 33 63 cc 0b bb
       0.08567802 0.27845904 1.0412437e-07 -0.002133154
0000d0 1f 76 ba 39 67 14 57 3d 86 8f e9 3a 92 6a 22 3d
       0.00035564692 0.05250969 0.0017819263 0.039652415
0000e0 34 36 d5 35 bf bb 2e 35 eb ad 1b a2 c6 1a 1f b2
       1.5885512e-06 6.509326e-07 -2.1098488e-18 -9.261106e-09
0000f0 54 de 09 be fb a3 ac be ce 8f e8 3a 23 6c e8 9b
       -0.13463718 -0.33718857 0.0017743052 -3.8451062e-22
000100 54 cd 0e b6 2f c8 23 2e b2 e7 29 25 d3 c4 49 be
       -2.1279166e-06 3.7239708e-11 1.4736915e-16 -0.19703989
000110 9b 88 cb 18 75 8f 0d a1 35 f8 b5 b2 1a 1f 08 ba
       5.2612206e-24 -4.796252e-19 -2.1184045e-08 -0.0005192623
000120 23 68 e0 3c e5 20 4e 35 a9 d4 24 9b 37 af b3 bd
       0.027393406 7.678885e-07 -1.3634476e-22 -0.08773654
000130 86 92 17 a7 1a 5a d5 20 a4 72 84 be 58 48 59 bd
       -2.103489e-15 3.6143228e-19 -0.25868714 -0.053047508

_orig_mod.embeddings.age_group.weight f4 [15, 16]
000000 5f a5 40 bf 71 67 fe be 15 78 35 3e b6 74 b8 ba
       -0.75252336 -0.49688295 0.17721589 -0.0014072869
000010 dd 2d 8e bd 7a a5 9d 3f 7c 31 e3 3d b3 37 ba ba
       -0.069423415 1.2316124 0.11093423 -0.0014207273
000020 66 07 d7 be 4c cd 7f 3f 15 d8 48 3e a2 20 81 3b
       -0.41997832 0.99922633 0.19613679 0.0039406577
000030 f9 22 3a be 97 46 12 3d f2 ad 24 3e ed 96 e1 3c
       -0.18177404 0.03571185 0.1608198 0.027537787
000040 f0 78 1e 3e 55 d5 20 bf 2f d0 41 3f 62 03 23 bd
       0.15475821 -0.6282552 0.7570829 -0.039798148
000050 df da 58 be b5 d7 58 3e 1e c8 b5 be 89 87 85 bc
       -0.21177243 0.21176036 -0.3550424 -0.01629998
000060 08 7f 1d be 62 72 d7 bd 5a c8 f6 bd f0 0f a3 bc
       -0.1538049 -0.10519864 -0.12049933 -0.01990506
000070 03 f2 b6 bd 82 b8 49 bd 00 67 08 be f8 35 8a 3c
       -0.08932879 -0.049248226 -0.13320541 0.016871437
000080 7c d0 de 3e f9 02 33 bd 1e ad 64 3d 6c 0c b5 bf
       0.43518436 -0.043704007 0.05582916 -1.4144416
000090 c7 9f 89 bf 18 79 3c 3e 5b 34 d9 be a2 af 5d be
       -1.0751885 0.18405569 -0.42422757 -0.2164903
0000a0 6f 30 11 bf 82 f2 9e 3f 82 69 21 3f 8b b7 99 3b
       -0.5671453 1.2417758 0.6305162 0.0046910695
0000b0 d7 0e f3 3e 24 3f 0e bf a6 24 61 bf af f7 67 bf
       0.4747226 -0.55565095 -0.87946546 -0.9061231
0000c0 cf ef f8 be 68 d6 1b 3f ed e4 5c 3e df 57 2c bf
       -0.4862046 0.6087403 0.21571703 -0.6732158
0000d0 ca 3c ec 3f e4 a7 29 bf e7 a6 be 3a 53 06 16 3f
       1.8456051 -0.66271806 0.001454559 0.586034
0000e0 a0 95 cc bd fe 9b 86 3e bd 73 23 bf f8 40 69 3f
       -0.09989476 0.26290888 -0.6384848 0.9111476
0000f0 13 65 17 bf 9e dd 55 bf 13 06 ec 3d 55 b0 47 bf
       -0.591386 -0.83541286 0.11524596 -0.78003436
000100 8f 10 77 3f f5 54 83 3e ac f3 dd 3e 12 48 2c 3e
       0.9650964 0.25650755 0.4334997 0.16824368
000110 70 1c a6 3d c0 b5 3a 3e f5 f9 9f 3d e1 db 80 bf
       0.08110893 0.18233395 0.078113474 -1.0067102
000120 f6 22 fd 3e 9b 30 28 bf 16 a7 bd 3f 3f 3d 84 3f
       0.49440736 -0.65699166 1.4816616 1.0331191
000130 45 a5 56 bf a0 c1 c9 3f 33 ed ca 3c 1e 43 96 3e
       -0.8384593 1.5762215 0.024771309 0.2934808
000140 78 65 c8 3c a0 72 69 3e 46 3c 30 3f dd 45 d4 be
       0.024462447 0.22797632 0.6884197 -0.4145955
000150 33 d6 8b 3e 2c 66 24 3e 65 2d a7 3f ed f2 67 3f
       0.2731186 0.160546 1.3060728 0.9060505
000160 1c 33 30 3f bc 90 68 bd 29 b5 4b 3f 2a 5d 9e be
       0.68827987 -0.056778654 0.79573303 -0.30930454
000170 fc 7e 9e 3e fd 11 08 bf be 18 5e bf 7f 16 42 3f
       0.30956256 -0.5315245 -0.86756504 0.75815576
000180 26 53 b5 3e ea 5a ad 3f ea 4a 16 3d 98 98 7c 3e
       0.35415 1.354337 0.036692537 0.24667585
000190 3f d0 c5 be 1a 65 f3 3f 3c c6 97 bf 92 69 d4 3f
       -0.38635442 1.9015229 -1.1857371 1.6594718
0001a0 a1 38 70 3e 55 8f 87 3e 9a db 8e be 22 05 5b 3f
       0.23459102 0.2647654 -0.27901918 0.8555471
0001b0 4e 94 7c be 51 c8 32 3f 24 4e bf 3f c8 f0 6f 3f
       -0.24665949 0.6983691 1.4945722 0.9372678
0001c0 6d 9d 9c be 73 7b 47 3f 21 6d c2 bf a5 d7 9a bf
       -0.30588856 0.77922744 -1.5189553 -1.209706
0001d0 67 91 4a 3f e8 e1 a0 bf 91 48 b7 bf 3a 13 35 bf
       0.79128116 -1.2568941 -1.431902 -0.7073246
0001e0 ed cd a7 bd 5d 0f 1e bf 53 eb 25 bf 34 76 f4 bf
       -0.08193574 -0.6174219 -0.648122 -1.9098573
0001f0 44 64 aa be 3f 8d 1d be 4d 5a a6 3f 8c 12 7a 3b
       -0.33279622 -0.15385912 1.2996308 0.0038158027
000200 91 0c ea 3f 22 7a d2 3f ee 1f c5 bf cb e4 07 40
       1.8285085 1.6443522 -1.5400369 2.1233394
000210 a2 1f 81 3f 71 60 8a be e1 28 31 bf 9b c5 30 bf
       1.0087779 -0.27026704 -0.69203 -0.6905152
000220 5a 84 5d 3e bf bb 98 bf 08 3c 79 bf ff 8a e8 be
       0.2163252 -1.1932296 -0.97357225 -0.45418546
000230 41 2a 00 be d4 75 b1 3e 53 e8 08 3e 4b 0b ba bd
       -0.12516119 0.34660208 0.13369875 -0.09084185
000240 d3 e9 06 3b 4b 14 b4 b7 ff 55 88 2a c1 8c 45 3a
       0.0020586147 -2.1467122e-05 2.4218125e-13 0.00075359276
000250 cb 5c 7b 3b ae 2d 5e 1a 35 ca a9 a1 16 1c af 1a
       0.003835487 4.5945424e-23 -1.1505409e-18 7.242368e-23
000260 f1 c9 fb ba 99 71 80 18 f8 98 20 b9 62 14 8b 97
       -0.0019209964 3.320193e-24 -0.00015315774 -8.98781e-25
000270 ed cc 1f be 4b fb 05 9a 34 be 09 28 ae da fb b7
       -0.15605517 -2.7706748e-23 7.6462714e-15 -3.0023362e-05
000280 12 cf b2 a1 00 6a a9 bd b6 d3 84 b9 bf fd fb 38
       -1.211656e-18 -0.08272171 -0.0002533474 0.000120158766
000290 85 6f f8 1c fe 0c 6c a8 12 4b 48 33 8f ce 59 35
       1.644009e-21 -1.3103449e-14 4.6634405e-08 8.113938e-07
0002a0 62 45 70 bb 09 bd 01 bd a2 c8 d0 3e 48 42 8f be
       -0.003666245 -0.03167442 0.4077807 -0.27980256
0002b0 12 9b bd bd 45 33 92 be ab 75 49 3b 5f 8a 97 9d
       -0.09258093 -0.2855474 0.0030740302 -4.011244e-21
0002c0 6d 43 e4 ad ab 53 7e 3c 47 14 59 b9 d3 6c d6 30
       -2.5950542e-11 0.015522878 -0.00020702287 1.5601479e-09
0002d0 9d 99 6d ba 73 7e 99 b4 77 dc 4c 9a 8a 8f 79 1a
       -0.00090637227 -2.8590475e-07 -4.23643e-23 5.1607943e-23
0002e0 1d e0 b5 b5 a8 ce a2 19 52 5d 35 ba 64 80 88 3d
       -1.3550776e-06 1.6833875e-23 -0.0006918508 0.066651136
0002f0 20 f1 c6 99 ef cf 23 3f cb 41 6f bd ea 41 4d 36
       -2.057011e-23 0.63989156 -0.058412354 3.0585747e-06
000300 d0 27 0b 2e dd d5 4f 30 26 62 cf b8 fa 85 18 22
       3.16403e-11 7.561008e-10 -9.888811e-05 2.0670768e-18
000310 f6 a6 05 bc 28 9e d5 bc 11 9c 23 b9 7c 09 fd 1c
       -0.008157482 -0.026076391 -0.0001560303 1.6744587e-21
000320 ca 62 ed bc d5 1f 54 bc 07 f8 92 bd 0c 75 4a 3d
       -0.02897777 -0.0129470425 -0.07176214 0.04942803
000330 57 93 8d 30 61 24 12 a8 5f b6 05 2b 4c 76 4e 3d
       1.0300977e-09 -8.1125165e-15 4.750418e-13 0.050405785
000340 7f 99 96 b7 0e fc fc a9 3a ad ec ba 0b 83 86 1a
       -1.795287e-05 -1.12347726e-13 -0.0018056997 5.563281e-23
000350 2e 42 86 bd 14 b8 3d af 93 1c 47 a5 00 2b b6 bb
       -0.065555915 -1.7254848e-10 -1.727018e-16 -0.005559325
000360 fc cc a0 be 6b b0 d1 3a 5d 33 d4 39 74 4c b3 19
       -0.3140639 0.0015998011 0.0004047406 1.8539045e-23
000370 76 d7 52 bb aa d3 e0 3d 9b 61 20 bb 62 6a f3 9f
       -0.0032171882 0.10977872 -0.002447224 -1.030905e-19
000380 42 08 02 b9 cf ee 40 3b 98 b9 96 b2 f2 e5 8d bd
       -0.00012400842 0.0029439216 -1.7546697e-08 -0.06928624
000390 70 e1 38 9c a5 ea 07 3e 10 c5 e0 3d 4c 65 34 bd
       -6.1171864e-22 0.13273104 0.10975087 -0.044041917
0003a0 23 63 a5 ba 7a aa b0 be 38 cc 4d 3d 9d 1e 99 98
       -0.0012618046 -0.34505063 0.050243586 -3.9580485e-24
0003b0 8f 6c 6b b8 b0 82 8f 2e 77 35 02 b1 79 0f bd 3b
       -5.612947e-05 6.526102e-11 -1.894788e-09 0.0057696667

_orig_mod.embeddings.inventory_id.weight f4 [50, 16]
000000 7b 0f 03 be 08 d3 ae bd f3 8a bc bd fe f7 0b 3f
       -0.12798874 -0.08536345 -0.0920619 0.5467528
000010 7c df c9 bf 0e 38 26 bf 71 22 7c 3e b3 10 10 be
       -1.5771327 -0.6492928 0.24622513 -0.1406887
000020 35 99 66 3f de 18 4a bc 73 cf 53 bf 91 3b a9 be
       0.90077525 -0.01233503 -0.8273842 -0.33053258
000030 88 14 08 c0 98 2b d3 bf 40 cc 31 bf 2f 8f 36 3f
       -2.1262531 -1.6497679 -0.69452286 0.7131223
000040 cc ad 52 be 90 87 82 bf a2 b2 56 3e 88 ed 23 bc
       -0.20574111 -1.019762 0.2096658 -0.010005362
000050 62 b5 54 be a3 5f 8a ba ed 43 b9 3e ee 11 0f 3e
       -0.20772317 -0.0010557066 0.36184636 0.13971683
000060 e9 88 55 be 53 82 be bd f0 ff b2 be 55 ae 85 3f
       -0.20853008 -0.09302201 -0.3496089 1.0443827
000070 7f 25 ab 39 34 de 3d 3d cf f4 c6 3d 53 e2 d9 3d
       0.00032643598 0.046354488 0.09714662 0.10638871
000080 09 73 a0 be cb 0a 16 c0 a7 ff 0f 3f 45 e2 a0 be
       -0.31337765 -2.3444088 0.5624947 -0.3142263
000090 ee d5 04 3f 16 5c b0 3f 76 0c 33 3f 7f af 62 be
       0.5188893 1.3778102 0.6994089 -0.22137259
0000a0 f2 7a 38 3f d3 08 5d 3f 4b d1 28 3f 45 93 3c 40
       0.720626 0.8634159 0.65944356 2.9464886
0000b0 97 0f 30 bf 82 9e bc be a8 3d 0c 3f 38 f4 3b bf
       -0.6877379 -0.36839682 0.5478158 -0.73419523
0000c0 59 3e 8e 3b 72 2b ea ba fd dc e6 3c 21 2c 61 39
       0.0043409285 -0.0017865731 0.028181547 0.00021474111
0000d0 b8 63 71 3c c9 c6 a1 bc f7 ee fa 3c f7 3e 40 3c
       0.014733247 -0.019748108 0.030631525 0.011733762
0000e0 cc f7 76 bd 46 40 0c 3e 33 94 21 bb 3f 52 11 3d
       -0.06029491 0.13696393 -0.0024654984 0.035478827
0000f0 29 3e a1 3e 2b 22 d6 3c 85 12 e7 3a 3c 38 a8 bb
       0.31492737 0.02613934 0.0017629421 -0.005133657
000100 e9 d5 dd 3d 48 e3 fe 39 f9 47 34 3f e0 5c f8 3e
       0.10831816 0.00048615993 0.7042232 0.48508358
000110 55 35 50 3e ac 05 75 3f 6f 21 8f 3b c0 77 91 be
       0.20332845 0.9571178 0.0043679993 -0.28411674
000120 59 10 e6 bf ac fb 3d 3f 84 f1 a8 bd 40 aa 56 bf
       -1.7973739 0.74212146 -0.082491904 -0.8385353
000130 5e 80 0c be 6c 5c 91 3e d1 6d 62 be a8 bb a0 bf
       -0.13720843 0.28390825 -0.22112204 -1.2557268
000140 a4 11 a3 bb ff 10 91 be 0c 10 02 bf e8 18 bd bf
       -0.004976468 -0.2833328 -0.50805736 -1.4773226
000150 fe e3 e6 be 51 ab 55 bf 11 22 4f bc 6f 65 3b 3e
       -0.4509582 -0.83464533 -0.012642399 0.18300413
000160 ed 79 d3 3e 5c 13 aa 3f 4c 20 4b be ea 1f 74 be
       0.4130396 1.3287158 -0.19836539 -0.23840299
000170 1f 22 83 bf ce 92 c6 bf 52 11 b7 3e f5 da c2 be
       -1.0244788 -1.5513551 0.35755402 -0.38057676
000180 47 ae c3 3e d3 84 4a bf 99 c0 d4 3d 27 45 0b bf
       0.382189 -0.79108924 0.103882976 -0.54402393
000190 a3 fd ae 3e f6 c6 10 c0 83 48 3a 3f ef 75 cd be
       0.34177884 -2.2621436 0.72766894 -0.4012904
0001a0 ac bb ee be 1f e5 39 3f 9d a0 df be e5 7e 5a be
       -0.46627557 0.72615236 -0.43677226 -0.21337469
0001b0 80 20 01 3f 14 b6 0c 3f c8 05 91 bf 20 6a cd bd
       0.50440216 0.5496533 -1.1329889 -0.10030007
0001c0 15 5f 89 3e 36 cb 74 3f 8a df ff 3e 90 e0 c9 3f
       0.26830354 0.95622575 0.49975234 1.5771656
0001d0 7c b4 65 bf 87 20 52 bf 20 eb f6 be 73 c6 60 3d
       -0.8972852 -0.8208088 -0.4822626 0.054876756
0001e0 d7 15 01 bd 74 d9 9d 3e 92 3e 7f 3e 40 3f 85 3f
       -0.03151497 0.30829966 0.24926212 1.0409927
0001f0 2a a4 b0 bf d7 f7 75 bf 6b d1 5a 3e af d8 fe 3e
       -1.3800099 -0.960813 0.21368949 0.4977469
000200 81 82 3c be 44 9c 72 bd ba 5d 0d bf f0 5c ee bd
       -0.18409158 -0.059231058 -0.5522114 -0.1163882
000210 94 27 a0 be 01 b8 10 be f7 3c cb bc 49 09 f3 3e
       -0.31280196 -0.14132692 -0.024809344 0.47468022
000220 a8 1f 9e 3e 6b 2e 82 be 06 0a 8c bf 79 07 6f 3d
       0.30883527 -0.2542604 -1.0940559 0.058356736
000230 0e 19 8e 3d 61 d8 53 bc 60 71 e8 be f9 a0 c8 3d
       0.069383726 -0.012930007 -0.45398998 0.09796328
000240 19 82 16 bf c8 5b 8a bf 84 7c 5c bf c9 c0 e9 3e
       -0.58792263 -1.080926 -0.86127496 0.45654896
000250 42 f3 12 3f f8 a6 a7 be e2 60 d7 3e 90 12 42 be
       0.5740243 -0.32744575 0.42066103 -0.18952394
000260 1d 86 e7 3e bb bc 15 bf bf fa cc 3e 0a 0b 59 bc
       0.45219508 -0.58491105 0.40035054 -0.013247261
000270 1a df 23 bf 4c 47 3e bf 94 b5 ae bf e8 d3 c7 3e
       -0.640123 -0.7432754 -1.3649163 0.3902886
000280 39 8c b6 3f c6 f9 1b 3f 80 23 4c bf 8e b5 a2 bd
       1.4261543 0.60928 -0.7974167 -0.07944785
000290 96 c7 f6 3d 39 8d f6 3e 28 9c 8c 3d 0e 6b 2d bf
       0.12049787 0.4815462 0.06865722 -0.6774148
0002a0 1f 09 d0 3d ca 79 1a ba 15 e4 19 bf 86 e3 b6 bc
       0.1015799 -0.0005892782 -0.6011365 -0.022325289
0002b0 f9 18 c7 be 90 a3 67 3f 35 fa ad 3e 48 56 0c c0
       -0.3888624 0.9048395 0.33979955 -2.1927662
0002c0 64 3a e9 be f1 d5 99 be 6a 47 e4 be 61 69 93 be
       -0.4555236 -0.30046037 -0.44585735 -0.28791335
0002d0 64 29 1f 3f 0e a1 ef bf fa 60 41 3f e1 10 94 3f
       0.6217253 -1.8721025 0.755386 1.1567651
0002e0 78 93 e7 bd 7a a2 f2 be dc ed 13 bd 34 4b c9 be
       -0.11307424 -0.47389585 -0.036115512 -0.39315188
0002f0 ce 57 09 3f a9 2b 49 be ea 71 3c bf 77 a6 74 bf
       0.53649604 -0.19645561 -0.7361132 -0.95566505
000300 b7 14 ec bc 17 0a df bf e3 97 17 bf 58 86 58 bd
       -0.028818471 -1.7424954 -0.59216136 -0.052862495
000310 c5 c1 36 3f 31 9c 9c 3f 45 98 f0 3e 06 ef 44 3f
       0.7138942 1.2235166 0.46991172 0.7692722
000320 49 45 7f bf db da 5b 3f a2 ed 05 be 0d ee 48 3d
       -0.99715096 0.8588082 -0.13078931 0.049055148
000330 83 79 99 bf e3 98 fb bf 72 11 1e be 37 e6 8a 3e
       -1.1990207 -1.9656032 -0.15436342 0.27128765
000340 63 6d a0 bd 63 1f 28 be 09 10 47 3f 6e 4d 3f 3f
       -0.07833364 -0.16418223 0.7775884 0.74727523
000350 38 16 24 3d d6 e5 40 bd ed 18 ed bc 19 20 16 3f
       0.040060252 -0.04709419 -0.02894255 0.5864273
000360 80 82 82 bf 8f 9d 0d be 36 45 b4 bd 4d b7 57 3f
       -1.0196075 -0.13829635 -0.088022634 0.8426407
000370 26 ec a1 3e f3 15 c3 bd 5a d8 a2 3e 04 72 36 3d
       0.3162548 -0.09525671 0.31805688 0.044542328
000380 d9 d3 2f 3f 0e 0d e5 3f d9 50 60 be 6e f0 46 bf
       0.6868263 1.7894609 -0.21905841 -0.77710617
000390 e4 24 60 3f 96 eb a7 3e ab ce d3 be e3 28 2f 3f
       0.8755629 0.32796925 -0.41368613 0.68421763
0003a0 31 49 e2 bd 5a ac 5e 3d c2 b7 8d 3e 95 0e 82 bf
       -0.110491164 0.054363586 0.2767926 -1.01607
0003b0 e5 68 8e be 8e 55 93 bf 16 96 c0 be 91 b5 c2 3e
       -0.27814403 -1.1510484 -0.37614506 0.3802915
0003c0 9e 12 77 be e3 34 30 be de 56 65 be d8 8f b6 3f
       -0.24128196 -0.17207675 -0.22396418 1.4262648
0003d0 c1 48 32 3f 6b d8 4c bf 48 a7 39 bf 63 a9 7f 3d
       0.69642264 -0.8001773 -0.72520876 0.0624174
0003e0 d4 87 5d 3f 93 bf 55 bd e2 5f b8 be 39 ce fb bd
       0.8653538 -0.052184653 -0.36010653 -0.12295193
0003f0 c0 d6 0b 3e d6 a1 b5 be 9c 46 31 c0 a9 cc 3a 3f
       0.1365614 -0.35475034 -2.7699347 0.72968537

_orig_mod.embeddings.day_of_week.weight f4 [10, 16]
000000 9e 00 8e bd ac 6f 28 3e 33 7d 60 bf 78 55 8d bf
       -0.069337115 0.1644885 -0.8769104 -1.1041708
000010 0f 3f a7 be 0d bc ae 3e 05 44 bc 3f 32 4d 9b bf
       -0.32665297 0.34127846 1.4708258 -1.2132933
000020 28 10 64 3e c1 11 44 3e 12 46 8f bf 1d 0f 47 3e
       0.22271788 0.19147398 -1.1193259 0.19439359
000030 d1 fb df be df f1 ea be a6 48 0b be 67 16 45 bf
       -0.43746808 -0.45887658 -0.13601932 -0.7698731
000040 7f 4b fc 3d f4 47 3a bf 1e ab ac be d7 b0 06 be
       0.12319087 -0.7276604 -0.33724302 -0.13153397
000050 f6 ad 3e 3f 15 ac bd be f0 4f 56 3f 61 57 cc 3e
       0.74484193 -0.3704535 0.83715725 0.39910415
000060 76 a6 7f bd 91 4c 98 bc 64 6f 78 be 3d be 66 3f
       -0.06241461 -0.018591197 -0.24261242 0.9013403
000070 45 e9 11 be 56 7f 36 bd 60 07 fb 3e 75 fe 19 bf
       -0.14249142 -0.04455503 0.49029064 -0.60153896
000080 00 f9 9e be 35 8a 4d bf 6c 39 da bd 10 fe 2f 3f
       -0.31049347 -0.8028901 -0.106554836 0.68747044
000090 b5 78 56 3f d0 b5 1d 3e f3 67 e4 3e f4 c3 80 be
       0.83777934 0.15401387 0.44610557 -0.251495
0000a0 bc 73 f9 3e 5d 21 7c 3d dc 94 02 be 1c 9c 1e 3f
       0.4872111 0.061555255 -0.12752098 0.61956954
0000b0 a9 d3 b3 3e 67 6c b5 bd 3d 46 86 bf d1 dd 41 3f
       0.3512242 -0.08858567 -1.0490185 0.7572909
0000c0 c1 66 52 be 26 33 ad 3e 3e 22 8a bf 01 18 36 3f
       -0.2054701 0.33828086 -1.07917 0.7113038
0000d0 5d 0d 5f bf 4a 55 57 3f f0 3f 16 bf 64 0c 9f 3e
       -0.87129766 0.84114516 -0.5869131 0.3106414
0000e0 84 5f 14 be 37 86 42 3f e0 f2 89 3d d9 99 1b 3f
       -0.14489561 0.75986046 0.06735778 0.6078163
0000f0 af f4 34 be 6c 0a b8 3d d3 a2 31 3e 22 22 51 3f
       -0.17671464 0.08986363 0.17347269 0.8169271
000100 4f 61 de 3e b8 71 a4 3f e3 f1 16 bf 29 a7 07 bf
       0.43433616 1.2847204 -0.5896284 -0.5298944
000110 2f 6e 4d 40 9d cb 92 3f 2f a2 e1 bf 65 90 cb 3f
       3.20985 1.1468388 -1.762762 1.5903441
000120 b3 66 3a bf 47 33 a6 bf 69 4b 8b be fc 8c d4 bf
       -0.72812957 -1.2984399 -0.2720597 -1.6605525
000130 d7 6f 3b 3f 7f bf 38 bf 8c 6a e1 3e 1b c8 f6 bf
       0.7321753 -0.721672 0.440266 -1.9279817
000140 a1 10 22 3f db 7c a6 bf c8 dd ff be d5 db d6 bd
       0.63306624 -1.3006853 -0.49973893 -0.104911484
000150 4a d9 e3 3e ac e8 ec bf 83 e2 a7 3f 90 1d ae bf
       0.44501716 -1.8508506 1.3116001 -1.3602772
000160 b8 ac 44 bf ab db 00 3e c6 8f 19 bf 37 3d 79 bf
       -0.7682605 0.12583797 -0.59985006 -0.9735903
000170 49 98 a8 bf ac 25 5b 3f 60 d6 fe 3d 66 cf 4f 3e
       -1.3171474 0.8560436 0.124432325 0.2029396
000180 53 15 a4 bf 05 6a 00 40 5b 0c e8 be 74 fd 7b bf
       -1.2819008 2.006471 -0.45321926 -0.98433614
000190 a8 6a c1 3f b8 63 b3 bf e9 bf 69 3e be 69 71 3f
       1.5110674 -1.4014807 0.22827114 0.94301975
0001a0 bb 70 42 3f 94 10 97 3f 65 e1 e0 3c 5d bc d1 be
       0.75953263 1.1801934 0.027451226 -0.40964022
0001b0 71 cb 88 3f cd 59 37 3f 66 01 24 bf 64 0e e9 3d
       1.0687085 0.716214 -0.64064634 0.11379698
0001c0 d8 42 29 9d 21 42 71 bb fa 70 a5 3a bb fc a0 2b
       -2.2401521e-21 -0.0036813098 0.0012622171 1.1438831e-12
0001d0 b8 af 83 be 69 e7 0e 18 97 d7 e5 be 8e 2c 5e ba
       -0.2572 1.8469902e-24 -0.44891044 -0.0008475267
0001e0 3f 19 22 3d 78 73 17 bd 88 57 4f 9a 7e 2f 6e 23
       0.039574858 -0.036975354 -4.2877304e-23 1.2912063e-17
0001f0 0f 53 96 a2 a2 fc be 3c d2 c0 8a bb 75 81 e4 b4
       -4.0745523e-18 0.023313824 -0.0042344118 -4.2562502e-07
000200 ed d2 99 1a 7c 74 79 be e6 12 ba b6 c8 fe 8f b8
       6.3620086e-23 -0.24360842 -5.545432e-06 -6.866228e-05
000210 cb 63 78 39 4f 62 65 a0 dc b2 5b 3c 8f 6c 7a 3a
       0.00023688299 -1.9429582e-19 0.013409343 0.00095529197
000220 2a fb 66 2d 0a 1a ea 19 49 83 5a 3e fe db af bb
       1.3129756e-11 2.420555e-23 0.21339144 -0.0053668013
000230 2c 58 c1 be 3d 4f 0b be d1 87 1d 1d 4c 4e 58 3a
       -0.37762582 -0.13604446 2.0848992e-21 0.0008251413
000240 1c 18 a6 be ed 54 16 3b 5a 7a 7c 9c 37 e5 9f 2a
       -0.3244027 0.0022938803 -8.353794e-22 2.8403123e-13
000250 6c 34 2c 3b 1e 56 c1 ac fb 7f 99 1b 65 2a 12 3e
       0.0026276363 -5.494951e-12 2.5394432e-22 0.14273985
000260 f0 67 9c a0 7d c8 88 b4 ac bc 24 9a 1a cd 19 3e
       -2.6496208e-19 -2.5477848e-07 -3.4066813e-23 0.15019646
000270 4a 1f 18 a2 59 e6 13 9e c4 0e 70 bb 69 b6 37 9b
       -2.0616406e-18 -7.82975e-21 -0.0036629895 -1.5196345e-22

_orig_mod.embeddings.hour.weight f4 [30, 16]
000000 3a 14 65 be ab 5f ca be ad 00 cd be 67 0a fc be
       -0.22370997 -0.39526114 -0.40039578 -0.49226686
000010 ed ce 5c be db 86 d8 bf 97 bd 41 3e 05 f3 81 bf
       -0.21563311 -1.6916155 0.18919979 -1.0152289
000020 1a ac 1c bf 8b 4c 22 3f f3 58 66 be 21 bd 99 3e
       -0.61200106 0.63398045 -0.22494869 0.30027106
000030 c8 3b bd 3e c9 15 8a 3e ad 5d ad 3e 0b 3b 52 3f
       0.36959672 0.26969746 0.3386053 0.8212134
000040 8c af 90 3c a1 4f 6a bb 1c ae 8a 3e 36 73 6d bd
       0.017661832 -0.003575303 0.2708596 -0.0579712
000050 82 20 52 be 0b 0d 14 3d 88 b1 fe 3d 0e 59 af 3c
       -0.20520213 0.03614525 0.12436205 0.02140477
000060 d9 cb 8d 3d 85 a8 9e bd c1 e1 3c be a3 e6 36 3a
       0.069236465 -0.07746986 -0.18445493 0.00069771166
000070 1e b2 41 bd 53 70 b0 bc 93 15 a7 3d f3 16 39 bd
       -0.047289006 -0.021537935 0.08158412 -0.0451879
000080 9a 6c 43 bc 36 4b 11 c0 ee 47 2f 3f c4 94 2e 3f
       -0.011927748 -2.2702155 0.6846913 0.6819575
000090 3b 2a 00 bf 2b 41 ed 3e 03 4c ec 3f df ae 05 3e
       -0.5006444 0.46338782 1.8460697 0.1305499
0000a0 89 0e 0f bf f8 2e 5f 3e c8 20 37 3f 08 3b c0 bd
       -0.55881554 0.21795261 0.71534395 -0.09386259
0000b0 51 bc 0d bf 09 c2 b2 3e fe cf 7a 3f 24 89 8f be
       -0.55365473 0.34913662 0.9797362 -0.28034317
0000c0 1e 97 d5 3f 5b 6c fd be b5 15 77 bf 76 71 0e bd
       1.6686742 -0.4949673 -0.965175 -0.034776174
0000d0 39 0f 63 3d 34 51 0d 3e e4 a7 07 3f 0c 1f 79 bd
       0.05543444 0.13800508 0.52990556 -0.060820624
0000e0 ce 9c 91 3e 0a 06 de bd cc 47 81 be 7b 37 9a 3d
       0.28439945 -0.108409956 -0.2525009 0.07530113
0000f0 2a 38 eb 3b 0d 82 61 be 73 1e b6 bd 13 8b 8d 3c
       0.007178326 -0.22022267 -0.088925265 0.01727823
000100 9f c7 b7 3c d2 41 65 be be 08 7f 3c c4 26 e5 3d
       0.022434054 -0.2238839 0.015566049 0.111890346
000110 87 a5 ca be b1 7b 93 be 88 ad d5 3c 68 02 47 3f
       -0.39579412 -0.28805307 0.026083723 0.77738047
000120 f1 b7 30 bc b1 cf 1d 3e e0 a0 a3 3d 0a 79 11 3a
       -0.010786043 0.15411259 0.07989669 0.0005549347
000130 e5 49 1e 3d da f4 d9 3d 93 3f 68 bf 11 fc a8 3e
       0.03864469 0.10642405 -0.90722007 0.3300481
000140 20 95 2d be 49 a1 99 3d 2b 78 ff be da 66 8e bf
       -0.16951418 0.07501466 -0.49896368 -1.1125138
000150 3d d9 9a bf c7 8b d8 3c 4f e6 ef 3e 85 ad 91 bf
       -1.2097546 0.026433839 0.468554 -1.1381079
000160 70 51 69 3f 0b d2 c0 bc eb 2f ff 3e cb 60 52 3f
       0.9113989 -0.023537656 0.49841246 0.82178944
000170 fb 15 da 3f 7c 36 52 3f 8f 0a a7 bf 88 36 ba 3e
       1.7037958 0.82114387 -1.3050097 0.3636973
000180 02 e7 03 be c2 98 69 bd 20 e6 82 3f a0 32 36 3f
       -0.12881091 -0.057030447 1.0226479 0.71171
000190 0f e9 e7 bf c7 c5 2d bf c2 0d 71 3e 9d e4 46 3f
       -1.8117999 -0.6787991 0.23540404 0.77692586
0001a0 56 37 3e 3f e0 e0 f2 be 60 17 8e bd 73 af 97 3e
       0.74303186 -0.4743719 -0.06938052 0.29626045
0001b0 e3 78 13 bf 63 88 a6 3f 6e b7 b1 be 14 64 74 3f
       -0.57606333 1.3010372 -0.34710258 0.9546521
0001c0 3c 2f 54 be d4 39 d7 3d 2f a4 ae be 9f 71 bd bd
       -0.20721143 0.10509077 -0.34109637 -0.09250187
0001d0 a5 9f a5 be 75 3b 15 be 61 15 b7 bd 35 c8 d9 3e
       -0.32348362 -0.14573462 -0.089396246 0.42535558
0001e0 ee 9a 9d 3e 22 8f 9e 3f b8 80 69 bd 71 5c ac be
       0.30782264 1.2387431 -0.05700752 -0.33664277
0001f0 b1 80 0b 3e c3 37 69 3d 13 14 74 be 87 f7 40 be
       0.1362331 0.056937944 -0.23835783 -0.18844424
000200 14 36 e8 3e 00 6d 0d 3f 74 67 07 3e 6e 53 41 3e
       0.45353758 0.55244446 0.13223058 0.18879482
000210 3c 54 d9 3d 44 6b 24 3f 4c 62 7e 3d 1e 24 a6 3e
       0.106117696 0.64226174 0.062105462 0.3244943
000220 a3 fb 84 3e 72 e4 62 3e 87 20 15 3f 09 c7 e6 bd
       0.25973234 0.22157457 0.5825276 -0.11268432
000230 e2 17 35 bd 71 61 00 bf 10 d8 00 bd 71 45 8c bf
       -0.04421223 -0.50148684 -0.031456053 -1.0958692
000240 21 2b 8d bf 17 fb 0a bf d0 db c7 bf 6c 6d 7c bd
       -1.1028787 -0.5428938 -1.5613956 -0.06162779
000250 64 83 fe be 75 a5 57 3e c0 30 3b bf 26 1f 0e be
       -0.49709618 0.2105921 -0.7312126 -0.1387907
000260 59 d4 2f 3f 16 ff a1 3e ab bf 6b 3e 60 dc d2 3f
       0.6868339 0.31639928 0.23022334 1.6473503
000270 2e 75 66 3f 64 bc 88 bd c1 df 37 bf ce ac 00 40
       0.9002255 -0.06676558 -0.71825796 2.0105472
000280 99 65 64 bf 8d 24 65 bf a6 98 b0 3e a8 51 d8 3a
       -0.89217526 -0.895089 0.34491462 0.0016503828
000290 33 ff f3 bf 72 6a 35 3e 27 65 50 bf 0b d4 f1 bd
       -1.9062256 0.17716387 -0.81404346 -0.11808022
0002a0 1e dd bb be 7d 17 59 bf d5 e7 94 3b a8 80 bb bd
       -0.36692137 -0.84801465 0.004544238 -0.091553986
0002b0 3a 33 08 be ea 1d b4 3b 57 8d bd bd 86 1a ef be
       -0.13300791 0.00549673 -0.09255474 -0.46699923
0002c0 28 b3 15 c0 dc aa 13 bf dc 22 03 3e 3b 7e 21 3f
       -2.3390598 -0.57682586 0.12806267 0.6308324
0002d0 c4 fb 00 3f ea d6 55 3e 26 fc 80 3f 4e fd 91 bd
       0.50384164 0.20882764 1.007695 -0.07128392
0002e0 4e 9c 0c bf 36 1b d7 3f 67 5e 83 bf 9e 09 13 3f
       -0.54926 1.6805179 -1.0263184 0.5743655
0002f0 fe 6b c5 be c0 32 e8 bf f8 34 46 3f 04 d7 8f 3f
       -0.38558954 -1.8140488 0.77424574 1.1237493
000300 f3 16 32 3f 58 eb d5 3e ad 80 38 3f 4d a8 35 bd
       0.6956627 0.41781116 0.72071344 -0.044349957
000310 f3 62 b7 3e 63 41 73 3e bc 2d 3b be 19 12 2b bf
       0.3581768 0.23755412 -0.18279165 -0.6682449
000320 62 2f fc bd d2 77 a0 3d 6a ce 07 3e 3c ff c6 be
       -0.12313725 0.07835354 0.13262334 -0.38866603
000330 4f 60 a3 bd 60 4c 1c 3f 87 f8 78 bf 2a 74 d0 3d
       -0.07977354 0.6105404 -0.9725422 0.101784065
000340 db 8e 25 3f 4e 7d 54 3e 71 0a 86 3f c2 76 f2 3f
       0.64671105 0.20750925 1.0471936 1.8942492
000350 4b 6b bc bf a6 5f c3 be 64 11 88 3f f6 81 1a 3e
       -1.4720243 -0.3815891 1.0630307 0.15088639
000360 41 b1 e2 3e 84 02 0f be b6 2b 04 bf cf f7 f1 bf
       0.4427586 -0.13965803 -0.516292 -1.890375
000370 5e c2 30 3f f6 62 b0 3d 7d db f7 3f 57 2a 2d bf
       0.6904658 0.08612625 1.9363858 -0.6764273
000380 eb 4d 81 3e 50 0b e4 bd 8b f3 5a bf c7 b1 48 3f
       0.2525476 -0.1113497 -0.8552787 0.78396267
000390 8f be 65 be 45 03 eb be 64 f4 e0 3e d5 a9 96 bf
       -0.22435974 -0.45900932 0.43936455 -1.1770579
0003a0 43 1b a1 3e 0a 83 b3 be a8 3a d8 3e 95 42 14 be
       0.31466112 -0.35060912 0.4223225 -0.14478524
0003b0 ce cf 26 3f 78 07 e0 3f f0 41 02 bc a8 1d 04 c0
       0.65160835 1.7502279 -0.007950291 -2.06431
0003c0 39 b1 cc 3e ee 80 a4 3f ae 1e b5 3e b5 79 96 3b
       0.3997896 1.2851846 0.3537497 0.0045921453
0003d0 a1 a0 5e be 80 c9 54 3e 44 0a 43 3e 85 27 92 be
       -0.21740963 0.20779991 0.19046885 -0.28545776
0003e0 55 e7 07 bf f9 d5 df 3e d1 18 00 3f 58 ff 9b 3d
       -0.5308736 0.43717936 0.50037867 0.07617062
0003f0 2b 19 bc 3e 0f bc 1e 3f cb bf 04 3f 95 55 8a bd
       0.36737952 0.62005705 0.5185515 -0.06754605

_orig_mod.dense_proj.bias f4 [16]
000000 c0 a2 68 ba e3 74 c7 bc f6 20 9a 3b fe 48 87 3b
       -0.00088743493 -0.024347728 0.0047036363 0.0041285744
000010 76 bb 0c 3c 5e fc 79 3a 6a 75 f7 3b ef 1b d8 bb
       0.008589616 0.0009536202 0.0075518386 -0.006595127
000020 54 28 86 3b 19 fb f0 ba 48 8a 29 bc b8 62 e4 bb
       0.004094163 -0.001838538 -0.01034791 -0.006969776
000030 fc 86 41 3b 24 32 09 3c a7 8e 0b bc ad d2 8c 3c
       0.002952992 0.008373771 -0.008517898 0.017190302

_orig_mod.self_MSR1.0.W_q.weight f4 [32, 16]
000000 d9 c0 f3 3d c8 fc 1b 3e dd c5 f0 3d 9b f8 e4 bc
       0.11902017 0.15233147 0.117564894 -0.027950576
000010 75 a1 49 be 92 4e 3a 3e ee 1b a5 3d 39 90 87 bc
       -0.19690497 0.18194035 0.08061968 -0.016548263
000020 bc 8e 3d 3e ca 5b 06 3e 8c 14 80 bd 72 a5 a1 bd
       0.1851148 0.13120952 -0.06253919 -0.07892884
000030 c8 5d 17 3d 43 1c 87 3d e8 f9 b4 bd 60 bd 12 3d
       0.03695467 0.06597187 -0.08836728 0.035825133
000040 f9 1b a0 bd 8f 89 20 be 22 0e bb bd 90 e6 3d 3e
       -0.07817835 -0.15677474 -0.09133555 0.18544984
000050 e6 db 2a 3d fe 67 63 bd f0 5d ba bd ac a6 3c 3d
       0.041713618 -0.055519097 -0.090999484 0.04605739
000060 c6 23 23 3e 41 2f 46 bc 39 df 0d be 69 03 09 be
       0.15931615 -0.012096227 -0.13854684 -0.13380207
000070 df 89 eb bb e3 6c 0d be 18 78 1c be 0b 3f 10 be
       -0.0071880664 -0.13811068 -0.15280187 -0.14086549
000080 fc de 46 be c6 86 10 be c8 77 4f bd 62 7f 02 be
       -0.19421 -0.14113912 -0.05065134 -0.12743905
000090 f9 7f 31 be 8f 48 2a be 53 8b 3e 3c 02 59 6b 3d
       -0.17333974 -0.16629241 0.011629897 0.05745793
0000a0 3a 8e 15 be 79 c7 0f 3b b4 94 50 3e 15 49 2f be
       -0.14605036 0.0021938963 0.20369226 -0.17117722
0000b0 52 2a 34 3e a7 fc 33 3e b7 ba 75 bc 48 99 49 be
       0.17594269 0.17576848 -0.01499813 -0.19687378
0000c0 71 dd 54 be 29 66 1a 3e 6a f3 34 bc 4d de 73 be
       -0.20787598 0.15078034 -0.011044363 -0.2381527
0000d0 4a ff 0b be 6c 76 01 3e 80 df ee 3d 49 07 5d 3e
       -0.13671604 0.1264283 0.11663723 0.2158481
0000e0 50 3e 8a 3d c3 04 60 bd a4 e4 87 3d cc b6 f0 bd
       0.067501664 -0.05469204 0.066354066 -0.11753616
0000f0 3d 24 5a be ef 13 10 3e 35 9a 8b 3c 37 7f 99 bd
       -0.21302886 0.14070104 0.017041305 -0.074949674
000100 bf ea 11 be 2e 7f 57 bc ba 9d 10 3c 18 3d b5 bd
       -0.14249705 -0.013152881 0.008826667 -0.08849543
000110 08 5b 4a 3e 91 29 94 bc c4 ea 2b 3e f1 33 43 bb
       0.19761288 -0.018086227 0.16788775 -0.0029785598
000120 45 49 2b be e0 f1 ec 3d 0f 59 2b 3e 9e 71 5b be
       -0.16727169 0.115695715 0.16733192 -0.2143006
000130 8e ed 10 3e 9f df b2 3d f6 4b 1a be ef 11 11 3e
       0.1415312 0.087340586 -0.1506804 0.14166997
000140 c2 88 3a bc 56 4c 22 be b8 40 27 3e ef f7 c5 bd
       -0.011385145 -0.15849432 0.16333282 -0.0966643
000150 e2 ab ad bd 84 09 51 3e 30 4f 0e 3e cc 03 e8 bc
       -0.0848005 0.20413786 0.13897395 -0.028322123
000160 ca dc 1b 3e 55 22 5d be c4 79 04 bd c2 1c fa bd
       0.15220943 -0.21595128 -0.032342687 -0.12212516
000170 a1 7d 81 3e 66 86 41 3e c5 1c 3d be cb e7 5c be
       0.2529116 0.18898925 -0.18468006 -0.21572797
000180 b6 30 ec bd 0e 43 39 3e 4d 34 3c 3e 13 b6 a1 bd
       -0.115327284 0.18091986 0.18379326 -0.07896056
000190 3d 4e 88 3d 4b 24 c7 3b d1 1f 2f be 83 b5 bf 3c
       0.06655548 0.0060773245 -0.17101981 0.023401981
0001a0 29 26 1a be dc 7e a9 bd 43 dd 83 3c ca 48 64 3e
       -0.1505362 -0.0827615 0.016096717 0.22293392
0001b0 54 dc b6 3d 4c b2 0a 3e 4d c7 12 be 29 0d 3b 3e
       0.08928743 0.13544577 -0.1433384 0.18266739
0001c0 f0 c4 a0 bd 89 1f bd bd a7 c5 3d be ce ba d8 3b
       -0.07850063 -0.092345305 -0.1853243 0.0066140657
0001d0 5c 47 81 3c 65 a5 3e 3e 27 e7 5f be dd 6b b1 3d
       0.015781097 0.1861778 -0.21865521 0.086631514
0001e0 ae 15 57 be a7 64 28 be 85 22 02 3d 3c 81 81 3d
       -0.21004364 -0.16444646 0.0317712 0.063234776
0001f0 18 8b de bc b9 88 8a 3c 5b b8 50 be da 50 61 3e
       -0.027165934 0.016910898 -0.20382826 0.22003499
000200 b4 3b 41 3d 3a 3b 37 3d a3 3e f1 3d a6 15 05 3d
       0.047176078 0.044734217 0.11779525 0.03249135
000210 e5 09 02 3e 04 9d 9e 3d 05 c3 1d bd 95 b1 93 bd
       0.12699087 0.07744792 -0.038516063 -0.072116055
000220 9b ba 3a 3e 79 f6 bc bd 31 97 0a 3e d5 2e 45 3d
       0.18235247 -0.092266984 0.13534237 0.048140366
000230 fb 7e f6 3d d3 c9 43 be d7 11 41 3e e8 04 18 3e
       0.12035938 -0.19119959 0.18854462 0.14845622
000240 7c 83 41 3e 19 39 4d 3d db e0 e1 3d 38 73 0e bd
       0.18897814 0.05010328 0.11029216 -0.03477785
000250 c2 46 99 3d e9 72 f8 3c e2 7a 2c be 0b cb 07 3b
       0.07484199 0.030328231 -0.16843751 0.0020720388
000260 4b d5 9f 3a b9 37 59 3e 8e 5e 48 3d 80 d4 4c be
       0.0012194304 0.21212663 0.0489183 -0.20002937
000270 c3 fd 0e be 5a 0b 7a bd eb 16 6c 3b a3 fc 06 3e
       -0.1396399 -0.061045982 0.0036024402 0.13182311
000280 57 ff d0 3d 7f 82 f2 3d 01 b4 1e be af 67 7f bd
       0.10204952 0.118412964 -0.15498354 -0.06235474
000290 42 18 08 be b5 51 9b 3d be 91 0a bd 60 c1 95 bd
       -0.13290504 0.07583944 -0.033830397 -0.07312274
0002a0 1b dd f7 3c 79 fc be 3d 39 9b ed bd ed 51 6c be
       0.030256798 0.09325499 -0.11601872 -0.23078127
0002b0 6f 59 45 bd d0 77 8a 3d 55 ac 29 be 89 78 02 3e
       -0.048180994 0.06761134 -0.16569646 0.12741293
0002c0 de 76 45 be 9b a5 52 3e 22 eb 0a 3e 8b 8a a7 bd
       -0.19283625 0.20570986 0.13566259 -0.08180722
0002d0 e1 d9 f9 bd 34 93 d7 3d 6a 62 52 3d 6a cd ed 3d
       -0.1219976 0.10526124 0.051363386 0.11611445
0002e0 84 88 0a be 02 a1 21 be 0f bb 98 3d 79 6e 46 3e
       -0.13528639 -0.15784076 0.074575536 0.1937808
0002f0 57 2e f4 bd 29 a4 59 bd 7e 76 59 bd d3 7c 26 be
       -0.11922901 -0.05313507 -0.05309152 -0.16258554
000300 45 a8 c8 bc 44 78 fa 3d bf 70 14 3b 22 a2 5c 3e
       -0.0244943 0.1222997 0.002265021 0.21546224
000310 04 f3 56 3e 0a 4b f7 3d c0 04 23 be e6 3d da bd
       0.2099114 0.120748594 -0.1591978 -0.106563374
000320 b1 14 79 bd ec 77 f3 bd a3 ba e0 3d 01 e6 27 be
       -0.06081075 -0.11888108 0.10973098 -0.16396333
000330 30 f5 d1 3c d4 1d f0 3c 59 5a 89 3a e3 d8 85 3e
       0.02562961 0.029311098 0.0010479196 0.26142034
000340 79 3b a9 3d f8 ee ae 3d 97 8c 2c 3d b7 13 2e be
       0.08263297 0.085416734 0.042126264 -0.16999708
000350 6a 73 f9 3d 00 74 1b 3e b2 43 8e 3d 43 d6 50 3e
       0.121802166 0.15180969 0.069465056 0.20394234
000360 29 d7 a7 bd 71 32 c9 3d 1b 72 07 be 9d 65 17 be
       -0.081953354 0.09824074 -0.13227122 -0.14784856
000370 28 2c 1c 3e 19 ba f8 bd 71 f5 e2 3d f8 a6 df bd
       0.1525122 -0.1214487 0.110819705 -0.10920519
000380 e7 66 55 3d d8 93 4a be 3b 53 43 be 3c 81 30 3e
       0.05210009 -0.1978296 -0.19074719 0.17236799
000390 35 6a 64 be 8b cf 2a 3e 01 06 8a 3c e6 0e 4b 3d
       -0.2230614 0.16680734 0.016848566 0.049574755
0003a0 a0 f9 2b be de 15 2d bd 06 7c a2 bd fa e5 6b 3e
       -0.16794443 -0.042257182 -0.07933812 0.23036948
0003b0 77 ee 0f 3e 64 91 1c be b0 ca 99 3d d5 92 64 be
       0.14055811 -0.15289837 0.07509363 -0.22321637
0003c0 fd 7c 52 be 80 e3 80 bb 2b e3 de bd 1f 21 9f 3d
       -0.20555492 -0.00393337 -0.108831726 0.07769989
0003d0 13 de 96 bd 1b 0c 23 bd 59 03 25 bd f2 de 00 be
       -0.07366576 -0.039806467 -0.040286396 -0.12585047
0003e0 ba ac 08 be b8 ab 2b 3e 7e 0d 2d be ff 6b 02 3e
       -0.1334714 0.16764724 -0.16899678 0.1273651
0003f0 1b 62 88 bd 4a 83 8c 3e b5 02 5b 3b b6 ae 50 3e
       -0.06659337 0.27443916 0.0033418362 0.20379147

_orig_mod.self_MSR1.0.W_k.weight f4 [32, 16]
000000 aa a5 d2 bd 36 69 0a 3e c5 59 17 3e 24 86 d4 3c
       -0.10285504 0.13516697 0.14780338 0.02594287
000010 6f 7a 1d be 41 1d 45 3e da a5 0e bd 1f 4a 3d be
       -0.15378736 0.1924944 -0.034826137 -0.18485306
000020 12 e2 f1 3d 95 ec ff bc 6c a3 28 be 48 db 78 3d
       0.118106976 -0.03124074 -0.1646859 0.060755998
000030 1f 06 97 3d 2d 77 93 bd 13 2f 44 3e eb 03 33 3c
       0.073742144 -0.07200465 0.19158582 0.010926227
000040 b7 f8 5d bd 4c 45 15 be 75 70 f1 3d ab 06 8e be
       -0.05419227 -0.14577216 0.117890276 -0.27739462
000050 a3 e8 df bb 30 62 54 3d c6 d2 58 3e dc d9 11 3d
       -0.0068331524 0.05185145 0.21174154 0.035608158
000060 d6 c9 81 be 40 c3 2f be 22 7d 73 bd 81 74 9d bd
       -0.253493 -0.17164326 -0.059445508 -0.07688237
000070 be ef 07 bd f0 60 50 bd a9 d7 11 3d c8 9e af bd
       -0.03318762 -0.050873697 0.03560606 -0.08575207
000080 e6 47 11 3e 7b 1a 49 3e 91 06 2f 3e 47 10 bd bd
       0.14187583 0.19639008 0.17092349 -0.0923162
000090 23 82 ba 3d b4 53 22 be 25 47 58 bb 53 25 1b 3e
       0.09106853 -0.15852243 -0.003300139 0.15150957
0000a0 57 b8 9d 3c 71 43 d5 3c 30 2d 28 be 58 27 34 3c
       0.01925294 0.026033135 -0.16423488 0.010995708
0000b0 63 5a 4b be d6 c2 7f be a0 cf 49 3e 00 75 a9 3d
       -0.19858699 -0.24976668 0.19708109 0.08274269
0000c0 0e 80 da bd a8 f0 b6 3c bd 35 4e 3e 43 95 3d 3e
       -0.10668956 0.02233155 0.20137687 0.1851397
0000d0 32 24 a1 bd bb 1a 15 3e fa 78 8a be 66 48 1f be
       -0.07868232 0.14560978 -0.27045423 -0.15554962
0000e0 94 46 47 3d 0e 9a 1c 3e b7 04 47 3d ae 55 d3 bd
       0.048651293 0.15293142 0.04858848 -0.103190765
0000f0 90 ad e1 3d 4f 3b ed bd f7 52 91 3e f1 fa ed 3d
       0.110194325 -0.11583578 0.2838361 0.11620129
000100 ca 1e 6f 3e 9a 8d cc 3d da 01 84 3e 39 6f 55 3e
       0.23351589 0.09987946 0.25782663 0.2084321
000110 7f 5f 1b bc b0 75 36 be e0 55 66 3e 1b ac 02 3e
       -0.009483217 -0.17818332 0.22493696 0.12760966
000120 67 9d 01 3e 5a d5 74 3d 44 fd 81 3e cf 11 4b 3e
       0.126577 0.05977378 0.2538854 0.19831012
000130 2d 64 23 bd 17 c7 c6 bd f7 a4 a9 3d 4e 61 5f bd
       -0.039890457 -0.09705942 0.08283418 -0.054536156
000140 e5 9f 15 3c d2 b9 cb bd dc e8 d2 3d f3 0a 03 3e
       0.00913236 -0.09947552 0.10298321 0.12797146
000150 bb 63 05 be ff 97 23 3e 1a 5b 60 3e 29 55 e0 bc
       -0.13026325 0.1597595 0.21909752 -0.027384358
000160 89 74 46 be 34 01 ba bd 82 84 9c bd e5 f8 8c 3e
       -0.19380392 -0.09082261 -0.07642461 0.2753364
000170 f1 20 11 3e 24 f3 3a 3e 6b ac 9f 3d 13 3e 09 3e
       0.14172722 0.18256813 0.07796558 0.13402586
000180 18 af 07 bc 22 9e 77 bc a7 77 6f be cc 88 73 be
       -0.008281492 -0.015113385 -0.23385487 -0.23782653
000190 3e 16 f1 3d fc 88 c1 3c b3 70 ef bd 1e 51 b9 bd
       0.117718205 0.02362489 -0.116914175 -0.09048675
0001a0 cc e1 31 3e 27 e5 85 3e 25 b9 e2 bd 20 74 24 be
       0.17371291 0.26151392 -0.1107047 -0.16059923
0001b0 38 46 2f 3e 15 c4 af bc 20 f9 52 be a0 5d 3f bd
       0.1711663 -0.021455804 -0.20602846 -0.046720147
0001c0 f4 9f 00 3e f9 25 9c bd 6f 66 b5 bd 56 4f 24 3e
       0.12561017 -0.0762443 -0.08857428 0.1604589
0001d0 03 b1 27 3e 16 6a bd 3d 3e 06 4b 3e 94 73 d2 bd
       0.16376118 0.0924875 0.198266 -0.10275951
0001e0 bc 02 f6 3d 62 6d 18 bc 94 5c 4c be a6 81 0a be
       0.1201224 -0.009303423 -0.19957191 -0.1352602
0001f0 19 0e 39 be 17 d3 ff 3d 3c cf 92 3d fe 35 34 3e
       -0.18071784 0.12491434 0.07168433 0.17598721
000200 e9 12 f7 3c 44 ad 9c 3d 2e d4 5a be f4 0e 2c be
       0.030160384 0.07650235 -0.21370003 -0.16802579
000210 1e bc 5a 3d 23 b4 9f 3d 02 9f 57 be 8a 87 9f bd
       0.05340206 0.0779803 -0.2105675 -0.07789524
000220 25 12 05 be 11 85 c3 3d 04 8c 6e be 36 a3 85 3e
       -0.12995203 0.09546865 -0.23295599 0.26101083
000230 2f 30 6b be 0a 20 22 3d ad b1 49 3d 86 42 c0 bb
       -0.229676 0.039581336 0.04924171 -0.005867305
000240 09 3a 23 3d 7d 6f bd bd d5 47 84 3e 86 74 85 3e
       0.03985027 -0.0924978 0.25836053 0.26065463
000250 20 31 18 be c6 94 02 3e d2 3a 56 be a9 02 45 bd
       -0.1486249 0.12752065 -0.20920876 -0.04809824
000260 84 aa 11 3e 0e 81 a9 3d 57 26 14 3e a3 06 0f 3e
       0.14225203 0.08276568 0.1446775 0.13967375
000270 da 04 26 3e 4e 5c ac 3d 4f 21 23 bc f1 e7 4e 3e
       0.16212788 0.08416043 -0.009956672 0.20205666
000280 41 65 24 3e 8c 06 e3 bd ba d1 c3 bc f8 a3 99 3d
       0.1605425 -0.11085233 -0.023903716 0.07501978
000290 9b 82 4c 3d a4 a1 6b be 30 d1 5d 3b d7 51 31 3e
       0.049929243 -0.2301088 0.003384661 0.17316376
0002a0 b1 81 bc bd f6 5e 44 be b6 36 55 be 95 17 5f be
       -0.09204424 -0.1917685 -0.20821652 -0.2178634
0002b0 d2 5d 49 3e e1 14 97 bd 5d d8 87 3e c5 4a 88 be
       0.19664696 -0.07377029 0.2653226 -0.26619545
0002c0 66 27 dd 3d 5a eb 2c 3e a4 90 70 3d d5 3f 2c be
       0.1079853 0.16886654 0.05873169 -0.16821225
0002d0 ce 66 6e 3e c8 cd c5 bd 92 5e 52 3e d3 0f f8 bd
       0.23281404 -0.0965839 0.20543888 -0.12112393
0002e0 ea 9e 54 be 2c 59 a1 3d bb 23 af bd 71 26 5e 3e
       -0.20763746 0.07878336 -0.08551737 0.21694352
0002f0 56 f2 c7 3d 21 bf 1b be 7d 05 64 bd 1b 28 90 be
       0.09763019 -0.15209629 -0.055669297 -0.28155598
000300 c1 4b c3 bd 2e 80 58 3e 9f 41 42 3e 14 bd 66 3d
       -0.09535933 0.21142647 0.18970345 0.056332663
000310 37 a9 8c 3d f2 01 56 be 20 a2 98 3d ea 46 1c 3e
       0.06868213 -0.2089918 0.07452798 0.15261427
000320 32 ab 8e 3d 8a f9 5f 3e 94 f4 73 3c 30 0a 2d bd
       0.06966247 0.21872535 0.014889855 -0.042246044
000330 99 3e 3d be 88 1e 16 be ff be 5b bd db a3 00 be
       -0.1848091 -0.14660084 -0.053648945 -0.12562506
000340 cd 3d 71 3d a7 e0 3a bd bf 50 55 3e f2 54 18 bc
       0.05889683 -0.0456244 0.20831583 -0.009297596
000350 31 bc 62 3c df 56 f1 bd 23 51 6c 3e b8 ef b6 bd
       0.013838814 -0.117841475 0.23077826 -0.089324415
000360 69 69 1d 3e 85 14 0a be 83 c9 3b be 27 90 2c be
       0.15372242 -0.1348439 -0.1833859 -0.16851865
000370 d9 30 da 3d 4b 07 08 be 0a 26 74 3c b9 04 3b 3d
       0.10653848 -0.13284032 0.014901647 0.0456588
000380 88 3b ff 3b 34 d9 6b 3e 6c 0f 51 3e 0e 49 0b 3e
       0.007789079 0.23032075 0.20416039 0.13602087
000390 43 03 15 3e f0 15 9d bd d4 ed b7 3c 1f 79 57 3d
       0.14552025 -0.076702 0.022452272 0.052605744
0003a0 3b cb 6a 3d 43 3c 25 be de ab fc 3d 68 20 c3 3b
       0.057322722 -0.1613627 0.123374686 0.005954791
0003b0 97 73 46 be f1 f0 10 be f0 0c 99 bd 30 fd 20 3d
       -0.19380032 -0.14154412 -0.07473171 0.03930396
0003c0 df 92 08 be 60 36 e3 bd 51 82 bb 3c 32 ae 5f 3e
       -0.13337277 -0.110943556 0.022889288 0.21843794
0003d0 ac b5 39 3e 91 56 3a be 67 1b 87 3c 6f a6 61 3b
       0.18135709 -0.18197085 0.016492559 0.0034431478
0003e0 d5 38 61 be 5e 0f 03 be f6 a6 0f be d0 2d 60 3e
       -0.21994336 -0.12798831 -0.14028534 0.21892476
0003f0 b0 13 a3 bd 33 8c 64 3e 81 03 7a bd 6e 80 d2 3d
       -0.079627395 0.22319107 -0.061038498 0.10278402

_orig_mod.self_MSR1.0.W_v.weight f4 [32, 16]
000000 da e6 18 3c 3f bb 55 3e c0 3c 16 bd a0 1a 0e be
       0.009332383 0.2087221 -0.03667903 -0.13877344
000010 84 12 0a bd 9a 3a 56 3e 94 b5 30 3d ea 89 2c be
       -0.033709064 0.20920792 0.043141916 -0.16849485
000020 40 95 65 bd c6 9b cf bc b2 e5 bc bd 37 e3 bd 3b
       -0.05605054 -0.025342833 -0.092234984 0.0057949084
000030 d7 af 29 be eb 60 05 be fb 64 0a 3d 12 d5 9c bc
       -0.16570984 -0.13025253 0.03378771 -0.019144569
000040 e8 a0 0e 3e e6 bc 8d bc 89 9d 47 bd c3 e1 79 bd
       0.13928568 -0.017301988 -0.04873422 -0.06100632
000050 e3 96 8a 3d 5b b3 71 bd 5f e4 8f bc 47 b4 a9 3d
       0.067670606 -0.059008937 -0.01756495 0.08286338
000060 3c d7 3b 3c f2 9a 97 3d f2 4c 17 3e 7f 3e 18 3e
       0.01146489 0.074026 0.14775446 0.1486759
000070 3c 14 4f be 40 5f 62 be 14 64 6f bd e5 0e c8 bd
       -0.20222563 -0.22106647 -0.05844505 -0.09768466
000080 b4 55 c1 bd 25 78 83 3d e4 d2 e7 3d 4b 67 23 be
       -0.09440175 0.064194 0.11319521 -0.15957372
000090 05 8b 9c bc 2c cd 23 3e 3d 3e 54 be 69 e6 9b bd
       -0.019109258 0.15996236 -0.20726867 -0.076123066
0000a0 a5 c7 d4 bd 7d 0b 2a 3d bf 31 3e be b3 95 66 be
       -0.10389642 0.041514862 -0.18573664 -0.22518043
0000b0 d7 93 aa 3d 08 6d 40 3d 6d cb 2e be 95 e2 77 be
       0.083289795 0.04697898 -0.17069788 -0.24207528
0000c0 3b d4 48 be 67 41 fa bc 2b 18 e9 3d 0a 8d 06 3b
       -0.1961221 -0.030548764 0.11381563 0.0020530843
0000d0 83 90 20 3d 39 d0 a2 3d 84 a6 97 bd 90 3b 09 be
       0.039200317 0.079498716 -0.07404807 -0.13401628
0000e0 c9 66 39 3e e0 29 33 3e e1 61 3f be 81 28 c7 3c
       0.18105616 0.17496443 -0.18689682 0.024311306
0000f0 05 c2 e3 bd a6 0d 18 3e 3c 37 41 be 33 d6 aa bd
       -0.11120991 0.14848956 -0.18868726 -0.083416365
000100 db a3 4e 3e 8f 80 93 bd d7 54 37 3e 01 0b 48 be
       0.20179693 -0.07202255 0.17903458 -0.19535448
000110 36 01 d3 bb 50 9a 19 3e 83 71 1a bc 65 13 1b be
       -0.0064393533 0.15000272 -0.009426477 -0.15144117
000120 35 7a a1 3d 8e 97 21 be cd e5 4e bd 89 4f 31 be
       0.07884637 -0.1578047 -0.050512124 -0.17315497
000130 cd 3d 2a 3e 97 d5 e1 bc 39 2f 40 be 81 48 2a bd
       0.16625138 -0.027567668 -0.18768014 -0.04157305
000140 9c 50 24 be b9 25 74 3c e8 4a 5e be 53 b5 08 bd
       -0.16046375 0.014901572 -0.21708262 -0.03337605
000150 97 d6 50 be 61 95 1e 3e f9 14 a9 3d 7b 24 3f 3e
       -0.2039436 0.15486671 0.08255953 0.1866626
000160 4b f6 44 3e 5e 24 0a be 9a d9 b5 bc 75 e5 00 bd
       0.19234578 -0.13490435 -0.022198487 -0.031468827
000170 87 0d 3f be 8a 4e 4f 3e df 3d 3b be 20 69 35 3e
       -0.18657504 0.20244804 -0.1828532 0.17715883
000180 2d b1 19 be 7c b6 19 3e 99 b9 82 bd 6d 62 38 3e
       -0.15008993 0.15011019 -0.06383056 0.18006296
000190 9d a4 82 bd 80 f0 84 3c ec 14 b6 3d bf 73 b9 b9
       -0.06379054 0.01622796 0.08890709 -0.00035372187
0001a0 93 0a 2c 3c e7 fb 9d 3d 04 6c 4b bd 22 e9 5b be
       0.010500568 0.07714062 -0.04966356 -0.21475652
0001b0 63 29 a4 bd 34 98 2b bc 99 d1 1c 3d ad fb a3 bd
       -0.080157064 -0.0104733 0.038285825 -0.08006988
0001c0 02 60 22 3e ce 34 1e be 3d 22 16 3c 06 9c a7 bd
       0.15856937 -0.15449831 0.0091634365 -0.08184056
0001d0 16 c2 bf 3d 3a 0e 1c 3e c8 1a bd bd f7 25 b1 bc
       0.09363191 0.15239802 -0.09233624 -0.021624548
0001e0 df 81 05 3c 10 98 58 3e 75 89 16 3e d4 f7 1a bc
       0.008148639 0.21151757 0.14700873 -0.009458501
0001f0 1e 82 2a be 6f c0 3b 3e 20 80 25 be 29 f1 b5 3d
       -0.16651198 0.18335126 -0.16162157 0.08883888
000200 40 98 83 bd 01 ad 8e 3b 82 51 54 3c a6 a1 cd bd
       -0.06425524 0.0043541198 0.012958886 -0.100405976
000210 73 00 1c 3d 2e c1 de bd bd fb be bd 88 0f d9 3d
       0.038086366 -0.1087669 -0.09325359 0.105986655
000220 7b 5a 25 3e d0 9c 06 be 6d de 54 bc c6 32 3e be
       0.16147797 -0.13145757 -0.012992484 -0.18574056
000230 8d b8 d9 3b e4 1a 04 be e2 1b 8d bd ba 1e 39 be
       0.0066443146 -0.12900883 -0.06890084 -0.18078128
000240 40 3c 73 3d 22 7f fa 3d a4 7c cf bc 40 90 d7 3d
       0.05938363 0.1223128 -0.025327988 0.105255604
000250 da 83 5e 3d 54 b5 a9 3d a5 41 d2 3d 23 cc c2 bd
       0.054324962 0.08286539 0.10266427 -0.09511592
000260 7f ce 07 be c8 b2 0d 3d e4 37 56 be c8 dd 75 3d
       -0.13262366 0.034594327 -0.20919758 0.06002596
000270 43 11 1d be b7 d3 9b 3c a5 34 50 bc f1 1e 50 3b
       -0.15338616 0.019021852 -0.012707864 0.0031756724
000280 a1 1c a1 bd 89 d5 e7 3d d6 f6 82 3d fd 80 57 be
       -0.07866789 0.113200255 0.063947365 -0.21045299
000290 0a a5 6b be 0c 77 ea bc 3d 32 03 be 07 57 8e bb
       -0.23012176 -0.02862122 -0.12812133 -0.0043438706
0002a0 3d 85 e2 bd 65 e7 1c 3e dc 80 38 3d d8 99 9e 3d
       -0.110605694 0.15322645 0.045044765 0.07744187
0002b0 95 4d b0 bd 1c d8 3c be c3 a5 f3 3c e0 64 ca 3c
       -0.086085476 -0.18441814 0.029742127 0.024706304
0002c0 7a 4f eb 3d e5 7b 1d bd 7d 85 07 3d da 4c 1b 3e
       0.11489768 -0.038448233 0.03308629 0.15166035
0002d0 37 70 92 bd 94 5a 51 3e 4b ef 14 bd 8e 75 24 be
       -0.071503095 0.20444709 -0.03636102 -0.16060469
0002e0 2a c1 97 3c 79 0a f7 3d 61 ab 3e be e6 8f 93 bd
       0.018524725 0.120625444 -0.18620063 -0.07205181
0002f0 e1 97 07 3e 36 ae 0b 3e 12 5f 49 3d 12 69 29 3a
       0.13241531 0.13640675 0.04916293 0.0006462495
000300 42 ee 25 be 3a 66 e5 bd f8 af 19 3e e6 56 2f be
       -0.1620417 -0.11201139 0.15008533 -0.17122993
000310 70 81 6c bd e9 79 25 be 03 8e 4d be 54 5c da bd
       -0.05774063 -0.16159786 -0.20073704 -0.106621414
000320 6b f7 55 be f0 a8 c3 bd 97 6a 39 be 8d 33 aa 3d
       -0.20895164 -0.09553707 -0.18107067 0.08310614
000330 ec cf 20 be 25 9c 9a 3d e2 0c 4c 3c 8a 26 06 be
       -0.15704316 0.075493135 0.012454243 -0.13100639
000340 aa 3a 09 be 82 62 01 3d 26 9f 41 be 3d 4c af bd
       -0.13401285 0.031588085 -0.18908367 -0.08559463
000350 e7 f9 58 be 39 09 5e 3e c2 9f 27 3e 6f 3d 11 be
       -0.2118908 0.21683206 0.16369537 -0.14183591
000360 d6 f8 f1 3d a6 cd 0c 3d 97 66 2a 3e 75 4a d3 bd
       0.1181504 0.03437581 0.16640697 -0.10316936
000370 06 a5 07 3e 95 7a ad bd 42 cf 7f 3d 27 2c 31 be
       0.13246545 -0.08470646 0.062453516 -0.17301999
000380 c3 73 8d 3d c2 b1 14 bd 4b 3a cb bd a8 98 25 3e
       0.069068454 -0.036302336 -0.09923228 0.16171515
000390 fa de d4 bd 7e 6a f2 3d 06 2f ef bd 5c bf a0 3d
       -0.10394092 0.11836718 -0.11678891 0.07848999
0003a0 c7 3d 8f 3d eb f9 a6 bd 51 ad 42 3d 1d f6 2a be
       0.06994205 -0.08153137 0.04752857 -0.16695447
0003b0 e4 c5 c1 3d 58 55 3c 3e 08 24 cb bd 0c ac e2 3d
       0.09461573 0.18391931 -0.09918982 0.110679716
0003c0 14 72 ce bd f7 17 a2 3c 1b 93 9f 3d 6d 8c 36 3d
       -0.100803524 0.019786818 0.0779173 0.044567514
0003d0 ba 43 ab bc 4b 92 8d bd 61 6f 0d bd 43 42 a6 bc
       -0.020906318 -0.06912669 -0.034530047 -0.020295268
0003e0 9a 0c 4b 3c 28 4c 21 be df 44 cd 3d 9d 8f 05 bd
       0.012393141 -0.15751708 0.10022902 -0.032607663
0003f0 75 63 ff bd 62 ec 08 be 1a 5a 50 be 14 14 ce 3c
       -0.12470142 -0.13371423 -0.20346871 0.025156058

_orig_mod.self_MSR1.0.xpos.scale f4 [16]
000000 25 49 92 3e 93 24 a9 3e 00 00 c0 3e 6d db d6 3e
       0.2857143 0.33035716 0.375 0.41964284
000010 db b6 ed 3e 24 49 02 3f db b6 0d 3f 92 24 19 3f
       0.4642857 0.50892854 0.5535714 0.59821427
000020 49 92 24 3f 00 00 30 3f b7 6d 3b 3f 6e db 46 3f
       0.64285713 0.6875 0.73214287 0.77678573
000030 25 49 52 3f db b6 5d 3f 92 24 69 3f 49 92 74 3f
       0.8214286 0.8660714 0.91071427 0.95535713
