experiments/resort_20251006_140548/models/checkpoint_epoch1_auc0.6479_logloss0.0926.pth (torch, 157439 bytes, 45 tensors)

_orig_mod.embeddings.gender.weight f4 [5, 16]
00000000: 2219 f7be 5307 e83d f103 993f 5c0f a73d
00000010: b4f3 61bf c98a 99bc b6f4 563f 1814 1fc0
00000020: 95a6 893e 4e97 903e 58bd c8bd c8f4 25bf
00000030: bc7f 8b3d 7134 313f fd03 0a3f 3653 e1be
00000040: 00cb 9e3f 73f6 353f 5b00 3fbf f0b1 c13f
00000050: 2f09 3c3e 9b49 a43e 7b42 5f3f 3117 f1be
00000060: 02a6 8abf 729b 6fbf f3db 743e 67d6 84bf
00000070: 65bd 543f a1d7 c03f 66d8 81be 1a46 90be
00000080: e017 f13f 67ff d13e ccc7 273e c9b8 6abf
00000090: 5c10 fa3e cca7 32bf b5ad aebd 1ba1 473e
000000a0: f174 82be 2b62 f8bf 8f55 9ebf 572c 10be
000000b0: 46c5 493f dbf4 aa3f 4bd5 36be aeb7 09be
000000c0: be58 f53e 3c13 5e3f 453a 503b 3817 ccbd
000000d0: 89e7 4d3d 005c c33e 293a be3d 6310 ac3e
000000e0: 6ab1 f73b f945 b93b ad45 3333 39a2 cbba
000000f0: b3b5 18bf 9677 76bf dfe8 bd3d 5638 312d
00000100: 6c64 08bc fb5e cf39 cad4 bdb6 5f1a 39bf
00000110: e41e aa2a b512 25b3 6339 01bb da43 6dbd
00000120: 2016 923e d26a c33b 4597 f2ac 4221 f8be
00000130: 14ff b7b7 7791 6db3 657d 55bf 5245 c4be
-0.48261362 0.11329522 1.1954328 0.081572264 -0.88262486 -0.018742936 0.8396715 -2.4856014
0.26884905 0.28240436 -0.098017395 -0.6482663 0.06811473 0.69220644 0.53912336 -0.44008797
1.2405701 0.71079177 -0.7460992 1.5132427 0.18362878 0.32087407 0.87210816 -0.47088006
-1.0831912 -0.93596566 0.23912029 -1.037793 0.83101493 1.5065805 -0.2536041 -0.28178483
1.8835411 0.4101517 0.1638481 -0.9168821 0.48840606 -0.6978729 -0.08529226 0.1949505
-0.25479844 -1.9404958 -1.236986 -0.14079414 0.7881664 1.3355974 -0.17854802 -0.13448974
0.47919267 0.867481 0.0031773013 -0.09965366 0.050269637 0.38156128 0.09288437 0.33606252
0.007558991 0.0056540933 4.1740055e-08 -0.0015536017 -0.5965225 -0.96276224 0.09272932 1.0073794e-11
-0.008324724 0.00039552883 -5.657411e-06 -0.72305864 3.02195e-13 -3.843407e-08 -0.0019718043 -0.057926036
0.28532505 0.0059636617 -6.894848e-12 -0.48462874 -2.193408e-05 -5.5313162e-08 -0.8339446 -0.38334137

_orig_mod.embeddings.age_group.weight f4 [15, 16]
00000000: ec68 84bf a954 8abf 754c a43e 2ce4 833d
00000010: 22f7 1ebe 36a7 d03f 2171 2d3e 54e2 0bbd
00000020: af91 5bbf 664c ab3f 3282 bc3e 2168 f6bd
00000030: f889 09bf 22a2 8dbd e2b3 643e e6b5 813c
00000040: b11a e83e d976 94bf d17f 993f fa56 e4bb
00000050: 440e 06bf 6c17 b53e fb12 3abf d262 243e
00000060: 8edb 28be 8b5c 17be f4ea aabd 763b 8dbc
00000070: e45d 5fbe 9d74 f33d 4652 0bbe 3d3d 71bc
00000080: e17c 0e3f a661 adbd 95c2 8b3d 99ee c7bf
00000090: 832d 9abf 6c3b 963e 33a1 03bf 5941 9dbe
000000a0: c5a4 34bf 4777 ae3f f93e 4b3f e448 56bd
000000b0: 3dfc 023f 86f0 3bbf 673e 92bf 793a 89bf
000000c0: 8646 09bf 4309 583f 05ca 4f3e ab7c 45bf
000000d0: bbf7 0140 ff72 38bf 2f23 403c e3a2 463f
000000e0: 5482 fcbd d7cf 9d3e 59ba 45bf 4c7d 7a3f
000000f0: 43ad 2fbf 6fc3 73bf 8eaa 223e 0e03 63bf
00000100: 1575 8e3f b998 953e 7c20 f33e e6b0 7b3e
00000110: 7f43 f63d bf95 593e c3f5 fa3d 4162 9ebf
00000120: 9868 083f cea6 42bf 7fed cb3f b66c 963f
00000130: 687e 7dbf 0488 de3f a456 4c3d 0aaa be3e
00000140: 7e57 363d 5b71 813e 0f88 793f a9e7 02bf
00000150: 4155 d53e 3765 803e 9e18 b83f df21 8b3f
00000160: 1278 533f 67c4 39bd 5c0c 613f f47d d8be
00000170: c01e cb3e 9dac 34bf ecfb 7fbf 376e 5b3f
00000180: d27b bf3e 62dd b53f 0b40 3d3d f86c 833e
00000190: a23c e2be df4f 0040 d837 a7bf 67ad dc3f
000001a0: 7b2b 743e fbb9 983e 2494 9bbe 3ec7 713f
000001b0: 6f07 89be 4da1 3e3f d977 c93f b5d2 7e3f
000001c0: 8cf4 a9be 839a 523f 7e40 c9bf 61d4 a1bf
000001d0: aa9e 5c3f 584c aabf 815d c1bf 0fad 3fbf
000001e0: a1ac d8bd 42d6 2dbf 6363 31bf 1a37 04c0
000001f0: 6ddf b5be da31 2ebe e86f b03f 4bed c73a
00000200: e768 f03f b3ab dd3f 0016 d3bf 78eb 0a40
00000210: f0a0 8a3f f190 99be 7e96 37bf a737 42bf
00000220: da6d 693e 55e5 9ebf de27 83bf 9d77 efbe
00000230: ba2c 07be 980a bb3e c24c 0c3e 5bd3 bebd
00000240: f743 c93d 0dad 95bc 74fe e8b8 3d95 883d
00000250: 62bb 003e 7e00 242c 0915 9e31 77d7 c22b
00000260: f8e3 c3bd dfdd e829 7be7 16bd 8b7a c329
00000270: 6c61 24bf c409 04ac 39db 1038 5157 a8bc
00000280: 5b9e 8533 ff4b f1be 538c 35bd 2e25 0a3d
00000290: b055 bc2e 7796 8638 3237 233b 81ee c63b
000002a0: 9adc fcbd 36b6 9bbe f90a 893f b4a6 5ebf
000002b0: fe91 febe 501a 61bf e2bb eb3d c05b 0730
000002c0: bd1b c1b9 9fc6 643e e385 28bd 24f9 793a
000002d0: 568a 92bd 598c 8ebb 8a10 1e2c 92a0 b1ac
000002e0: 0619 ebbb 74db d1aa 4d38 84bd f60b da3e
000002f0: 3e2f 022c 8068 b23f eb22 cdbe 8fe2 193c
00000300: 33bc c839 f538 4f3a b1bb 00bd 0a9e 23b3
00000310: e4d8 2ebe bcf9 8ebe 7fee 17bd 5bcd 892e
00000320: 20bb 95be 45e6 53be b7b0 e1be b10c be3e
00000330: dc4e 603a 62c3 16b8 bf50 30b9 31c0 bf3e
00000340: e3a3 8cbc d621 bd38 8a36 bfbd c104 3dac
00000350: de5f d8be f5a9 10ba af97 c836 cf7c 15be
00000360: 880a 6dbf b468 b63d dd16 583d 2e1c e9ab
00000370: ee08 f0bd 8f2b 0a3f f868 d7bd c93b 4eb5
00000380: 7cbc 0bbd a4b9 e73d 1aa6 f4ba 0605 debe
00000390: 3eeb beae e8a2 173f 3d27 0a3f 5b60 b4be
000003a0: 6064 a6bd fc9f 79bf 3778 bf3e 2659 652a
000003b0: 5919 d2bc 88fb e839 2696 83ba f3c1 173e
-1.034452 -1.0807086 0.32089582 0.06440005 -0.15523961 1.6301029 0.16937687 -0.03415139
-0.8576917 1.338269 0.3681808 -0.1203158 -0.5372615 -0.0691569 0.22334245 0.015833806
0.45332864 -1.159877 1.1992131 -0.006968376 -0.5236552 0.35369432 -0.7268521 0.16053322
-0.16490003 -0.14781396 -0.08345595 -0.017240267 -0.2181316 0.118874766 -0.13605604 -0.014724073
0.556593 -0.084658906 0.06824223 -1.5619689 -1.2045139 0.2934221 -0.51417845 -0.3071392
-0.7056392 1.363015 0.79392964 -0.052315608 0.51166135 -0.73413885 -1.1425294 -1.072097
-0.53623235 0.8438913 0.20291908 -0.77143353 2.0307453 -0.7205047 0.011727138 0.77592295
-0.123295456 0.30822632 -0.7723747 0.9784744 -0.6862375 -0.95220083 0.15885374 -0.88676536
1.1129481 0.2921808 0.4748572 0.245792 0.120245926 0.2124853 0.122539066 -1.2373735
0.532846 -0.76035774 1.5931853 1.1751926 -0.99021006 1.7385259 0.049887314 0.37239105
0.044517033 0.25281796 0.97473234 -0.51134735 0.41666606 0.2507722 1.4382513 1.0869712
0.8260509 -0.04535332 0.87909484 -0.42283595 0.39671898 -0.70575887 -0.9999378 0.8571505
0.37399155 1.4208186 0.046203654 0.25669074 -0.44186884 2.004875 -1.3063917 1.7240418
0.23844711 0.29829392 -0.3038646 0.94444644 -0.26763484 0.74464875 1.57397 0.99540263
-0.33194387 0.82267016 -1.5722806 -1.2642938 0.861796 -1.3304548 -1.510666 -0.7487344
-0.10579801 -0.67905056 -0.6929228 -2.0658631 -0.35522023 -0.17011204 1.3784151 0.0015253214
1.8782014 1.7318023 -1.6491089 2.1706219 1.0830364 -0.29993394 -0.7171401 -0.7586617
0.22795811 -1.2413737 -1.0246542 -0.46770945 -0.13200656 0.3653152 0.13701156 -0.093176566
0.098274164 -0.018270994 -0.00011110018 0.0666909 0.12571481 2.3306075e-12 4.6007966e-09 1.3844333e-12
-0.09564966 1.0341358e-13 -0.03684185 8.6809974e-14 -0.64211154 -1.876375e-12 3.4536442e-05 -0.020549448
6.2221e-08 -0.47128293 -0.044323277 0.033726864 8.5644714e-11 6.417644e-05 0.0024904725 0.0060709123
-0.12346764 -0.30412453 1.0706474 -0.8697312 -0.49720758 -0.87930775 0.11510445 4.92431e-10
-0.00036832495 0.22341393 -0.04114331 0.0009535721 -0.07155292 -0.004350227 2.2462331e-12 -5.0484695e-12
-0.007174614 -3.7278134e-13 -0.06456051 0.4258725 1.8500336e-12 1.3938141 -0.40065703 0.009392395
0.00038287192 0.00079049106 -0.031428996 -3.809513e-08 -0.17074925 -0.27924907 -0.037092682 6.266517e-11
-0.29244328 -0.2069331 -0.44080135 0.37119058 0.0008556673 -3.594475e-05 -0.00016814748 0.37451318
-0.017167991 9.018525e-05 -0.093365744 -2.6861154e-12 -0.4226064 -0.00055184896 5.9781228e-06 -0.14598392
-0.92594194 0.08906689 0.05275618 -1.6563467e-12 -0.11720453 0.53972715 -0.10518068 -7.682798e-07
-0.0341153 0.11314705 -0.0018665225 -0.43363208 -8.681987e-11 0.5923295 0.5396612 -0.35229763
-0.08124614 -0.9750974 0.37396404 2.0370215e-13 -0.025646852 0.00044437894 -0.0010039255 0.1482008

_orig_mod.embeddings.inventory_id.weight f4 [50, 16]
00000000: f643 38be 487d 9bbc f9ed f9bd 4257 2e3f
00000010: fbab e0bf 29b5 34bf 489e 953e 0395 63be
00000020: b5a0 863f b310 093c 6d2c 65bf d4a2 f1be
00000030: 6408 13c0 83d6 e8bf 3171 54bf 1d08 843f
00000040: cba1 9fbe 8efb c7bf a072 c73e 8c51 e3bd
00000050: e56b 75be aaf6 183d 77e4 503f 8bc4 6a3b
00000060: 0389 d23b de8b 33bd 3c9e 1cbf baa6 be3f
00000070: 9853 e2be f248 a03e 072e 333e 45b2 073f
00000080: 8679 aabe 9252 1ac0 d4e0 173f b907 aebe
00000090: 74cb 0a3f 21da bd3f b38e 3f3f 74da 6bbe
000000a0: 0a49 443f 1570 6c3f 35a5 2e3f c804 4240
000000b0: a873 3abf 3836 c7be 91ce 153f c12b 48bf
000000c0: 4110 0a3d 72ad 353e dd5f 6e3d a897 20be
000000d0: cf23 833b f1c3 bebc 1d2b 1e3e 2c97 4f3d
000000e0: 7547 253c 3d47 123f bdbd 793b b61b 85bd
000000f0: e16f 5d3f 3b11 523e 0a9e cebd 7076 42bc
00000100: 132d f13d 6799 25bc b56f 4f3f ca9e 053f
00000110: 9cea 893e f78e 873f 9961 053c 0a0f adbe
00000120: b820 f8bf 8182 653f 55e2 dfbd 732d 73bf
00000130: 477c 27be 60d6 be3e b125 86be ea99 b3bf
00000140: 9ba3 c0ba 31d8 b1be 556f 19bf c6ca d3bf
00000150: fdb3 02bf a607 64bf 40f3 be3c 0d96 a33e
00000160: a810 df3e 7832 ba3f cdb7 63be 6c39 95be
00000170: db37 92bf 62e0 d2bf ff06 c13e 8247 f2be
00000180: 23c2 f03e 5d2a 68bf 4332 9f3d d0d9 2dbf
00000190: 7319 d63e c862 1bc0 271b 5e3f f9bb fbbe
000001a0: c236 00bf 6546 513f 2b14 03bf 4386 91be
000001b0: 982f 293f 2d65 223f d75d a1bf 023a e6bd
000001c0: feab ac3e 400b 873f b4f5 0c3f d68a eb3f
000001d0: 0361 86bf bce0 63bf 6328 07bf eba0 283d
000001e0: 4ecb 50bc aafe 973e b700 913e ca61 913f
000001f0: bd58 bebf 254e 86bf 8677 563e 80f4 0e3f
00000200: 7929 10be 74ec 803e 9dfa 6cbf 9bd6 cabe
00000210: e414 b9be 7397 97be 605e 653d 5683 243f
00000220: 552b 473f 5eaa fabe 886d b2bf c608 2ebe
00000230: a0f1 07bd bbae 30be 86ff 4dbf 79dd de3e
00000240: e6b5 4ebf 1963 a2bf 5700 7ebf e7c7 103f
00000250: 9c61 293f 78a8 dcbe 766a 193f dcdb 7cbe
00000260: db68 0e3f de3b 74bf 116e da3e 5cf5 263c
00000270: e30a 3dbf 8883 81bf dd2c ccbf d3c6 083f
00000280: a467 d13f 374c 4f3f 5b1e 72bf 7b6a d8bd
00000290: a2c5 003e 83d0 1b3f df80 bb3d 2651 3dbf
000002a0: 192d 2f3e 975c 78bb f8b7 3dbf 4a09 b0bc
000002b0: 9eba 00bf 204a 823f 5389 d63e 3e23 18c0
000002c0: ad4f 0ebf 3456 d0be 292a 10bf 9efd ccbe
000002d0: febd 5f3f b36e 08c0 c003 793f fe8a af3f
000002e0: 0ed1 04be 8812 40bf 8b9c 6bbd 609b fcbe
000002f0: c934 2c3f be0a a9be ac19 74bf 9418 95bf
00000300: c06c 47bd af18 ecbf aae8 2dbf 4f81 aabd
00000310: 36aa 3c3f 8ed0 ab3f e49b 0f3f 5c05 5e3f
00000320: ec2b 8bbf 02ab 7e3f 74a9 39be a375 a03d
00000330: ca3b a1bf 4111 05c0 418e 33be 7bbf af3e
00000340: 2cc8 d23c 14fb fabd 7e12 873f b13a a73f
00000350: de44 ba3d 961d 2f3e 854e 93bd b1a3 803f
00000360: 3540 a2bf a7fa 5dbe cbb8 0d3d 4029 763f
00000370: a043 083e e008 c9be 9e6d 9d3e de7a 593d
00000380: 5276 5f3f ccea fc3f d6e1 69be fc6e 6cbf
00000390: 2958 8f3f 2af4 b73e e95d 00bf a6c6 533f
000003a0: b7e8 d5bd b67e 2f3d ec8b ac3e 437e 97bf
000003b0: 2abd a5be 8490 a5bf a7f3 eebe 3e2f 0f3f
000003c0: e99c b5be ec57 abbe 3b99 84be 8877 e13f
000003d0: d8c9 693f 070c 94bf 3a7f 62bf 5221 ff3d
000003e0: ad19 8d3f 2612 4ebd 498d fdbe 4ae2 17be
000003f0: bb39 863e 78d5 e7be f329 46c0 8367 563f
-0.17994675 -0.018980637 -0.12203593 0.68101895 -1.7552484 -0.7058893 0.29222322 -0.22224812
1.0517794 0.008365798 -0.89520913 -0.4719454 -2.2973871 -1.8190464 -0.82985216 1.0314976
-0.31178126 -1.5623643 0.3895464 -0.11099538 -0.2396694 0.037344612 0.8159861 0.0035822715
0.0064250245 -0.04383456 -0.61178946 1.4894631 -0.44204402 0.31305653 0.17498027 0.5300639
-0.3329584 -2.4112897 0.59327435 -0.33990267 0.54216695 1.4832193 0.74827117 -0.23032552
0.7667395 0.92358524 0.68220836 3.0315418 -0.7283273 -0.38908553 0.5851832 -0.78191763
0.033706907 0.17741945 0.05819689 -0.15682852 0.0040020715 -0.023286792 0.15446134 0.050681278
0.010087837 0.5713995 0.0038107478 -0.06499426 0.8649884 0.20514385 -0.10088737 -0.011869058
0.11776175 -0.010107375 0.81029826 0.5219542 0.26936805 1.0590504 0.008140945 -0.33800536
-1.9384985 0.8965226 -0.10931841 -0.94991225 -0.16356002 0.3727293 -0.2620063 -1.4031346
-0.0014697196 -0.34735253 -0.59935504 -1.6546257 -0.5105589 -0.8907417 0.02330935 0.31950417
0.43567395 1.4546652 -0.22238083 -0.29145372 -1.1423296 -1.6474726 0.3770065 -0.4732018
0.47023115 -0.9068964 0.077732585 -0.6791048 0.4181629 -2.4279041 0.8676018 -0.4916685
-0.50083554 0.8174804 -0.5120265 -0.28422746 0.6608825 0.6343563 -1.2606763 -0.11241533
0.3372497 1.0550308 0.55062413 1.8401744 -1.0498356 -0.8901479 -0.52796 0.04116909
-0.012743784 0.2968648 0.28320858 1.1357968 -1.4870831 -1.0492598 0.20944032 0.5584183
-0.1407832 0.251804 -0.92569906 -0.39616856 -0.3614875 -0.29607734 0.055998206 0.642629
0.77800494 -0.48958105 -1.3939676 -0.16995534 -0.033189416 -0.17254154 -0.8046802 0.43528345
-0.80746305 -1.2686492 -0.9921927 0.56555027 0.66164565 -0.4309728 0.5992807 -0.24693245
0.55628747 -0.9540385 0.426621 0.010190334 -0.73844737 -1.0118265 -1.5951191 0.5342838
1.6359754 0.8097567 -0.9457757 -0.105671845 0.12575391 0.6086504 0.091554396 -0.7395195
0.17107047 -0.0037896985 -0.7410884 -0.021488804 -0.50284755 1.0178871 0.41901645 -2.377151
-0.55590326 -0.40690768 -0.5631433 -0.40037245 0.8739928 -2.1317565 0.9727135 1.3714292
-0.12970373 -0.75028276 -0.057522338 -0.49337292 0.67268044 -0.33016008 -0.9535167 -1.1648126
-0.048687696 -1.8445033 -0.6793314 -0.08325445 0.7369722 1.3423021 0.56097245 0.8672693
-1.0872779 0.9947969 -0.18131047 0.078349374 -1.2596371 -2.079178 -0.17534734 0.34325776
0.025730215 -0.122549206 1.0552518 1.3064786 0.090951666 0.1710113 -0.07192711 1.0049955
-1.2675844 -0.21677648 0.03460006 0.9615669 0.13307047 -0.39264584 0.30747694 0.05309569
0.8728992 1.9759154 -0.22840056 -0.9235685 1.1198779 0.3592847 -0.50143296 0.8272499
-0.104447775 0.04284545 0.33700502 -1.1835407 -0.32370883 -1.2934728 -0.46670267 0.5593146
-0.35471275 -0.33465517 -0.25898156 1.7614603 0.91323614 -1.156617 -0.8847538 0.12457527
1.1023461 -0.050310276 -0.49521855 -0.14832416 0.2621592 -0.4528005 -3.0963104 0.83751696

_orig_mod.embeddings.day_of_week.weight f4 [10, 16]
00000000: 3fee afbd 4347 7d3e a2d0 86bf e741 a3bf
00000010: cb7b fdbe b61a ce3e 5ea2 de3f db18 aebf
00000020: 41bb 9b3e ea9b 843e 6be4 b3bf c5c8 693e
00000030: 1e42 15bf 0fdf 08bf d73f 58be 71a1 7abf
00000040: 69e7 2a3e 3474 70bf 0844 e6be 2d5c 78be
00000050: 4ad9 743f ee05 f3be 6276 913f 355c 0e3f
00000060: 9209 a7bd 7194 0cbd 7a23 9fbe 5416 973f
00000070: 28e1 36be c135 d8bc e720 233f bc3e 48bf
00000080: 2b42 cfbe 42a1 81bf bf0a 3dbe 1c4c 643f
00000090: 85f4 863f fa26 4e3e 651b 223f 13ed 9ebe
000000a0: 4b29 313f 86da b93d d731 2fbe 4505 603f
000000b0: 9923 e33e 175a 70bd 316b a8bf 974e 6c3f
000000c0: 5af3 8abe c258 cd3e 6246 a7bf c498 743f
000000d0: 5abe 86bf ce93 803f 519d 50bf 1e7f de3e
000000e0: b7c3 6abe 06cc 8e3f 437f c23d 4317 593f
000000f0: e0c4 85be 57c7 5d3e 9737 8d3e 0c0d 853f
00000100: a103 e33e c5ab ab3f d70c 21bf 452d 0bbf
00000110: 17e5 4e40 5520 963f f1dd e4bf c754 d73f
00000120: 4561 40bf 3e24 a8bf 0c41 8ebe 33de d6bf
00000130: c8ea 3d3f a504 40bf 2230 ea3e 31ae fbbf
00000140: 454a 383f 0938 bfbf 7b19 0ebf fae4 edbd
00000150: 77d8 0b3f dac9 01c0 197e bf3f 1e92 b9bf
00000160: bdf1 5abf 5c24 0b3e 2d89 28bf ef79 88bf
00000170: 9a87 b2bf a50a 783f 3416 0d3e f44b 653e
00000180: b56b acbf 079a 1240 6e6a 01bf 415d 91bf
00000190: 488b d93f 6e28 c0bf 532b 863e 4db3 8c3f
000001a0: 262f 513f 9777 a33f 88b6 f43c ffc9 f8be
000001b0: 247e 9d3f a5f5 693f 2625 39bf 7715 043e
000001c0: 695d 752f b646 fdbd cd69 a63d c157 7539
000001d0: d9d5 54bf 180e 9fa9 a8c2 90bf ffd4 8ebd
000001e0: d1e9 ab3e 27c6 a6be 2fd4 8e2c 1d23 4a36
000001f0: 6e8f 1635 0a2e 883e 44f0 05be 93b4 a1bb
00000200: b7f8 9dac 76ca 4ebf 4ff9 3bbc 89cb e1bc
00000210: 3119 313d 2ce7 6230 0d0d 573e 3284 953d
00000220: f652 aa39 a20f b62b dbe8 403f 135e 13be
00000230: 7e3d 83bf 977f 19bf 01c1 17af b561 8d3d
00000240: 2448 71bf c1fe d13d 972a e42d 0617 48b9
00000250: bb89 dd3d d6e6 93b9 2ca8 4d2d d634 1d3f
00000260: 18b5 b6b2 f277 89bb 2fe6 102c 5341 213f
00000270: 3d17 3435 bab4 912f b7c5 fcbd f480 cc2d
-0.08590364 0.24734215 -1.053242 -1.2754487 -0.4950851 0.40254754 1.73933 -1.3601335
0.304163 0.25900203 -1.4054083 0.22830494 -0.5830401 -0.5346536 -0.21118103 -0.9790259
0.16689838 -0.9392731 -0.4497378 -0.24253912 0.95644057 -0.47465461 1.1364253 0.55609447
-0.08156122 -0.034321252 -0.31081754 1.1803689 -0.17859328 -0.02639282 0.6372208 -0.78220725
-0.4048017 -1.0127337 -0.1846113 0.89178634 1.0543371 0.20132056 0.6332305 -0.31040248
0.69203633 0.09074883 -0.17108856 0.8750804 0.44363096 -0.058679666 -1.3157712 0.9230742
-0.27138788 0.4010678 -1.3068354 0.955456 -1.0526841 1.0045106 -0.81490046 0.43456358
-0.22926222 1.1156013 0.094969295 0.8480112 -0.26126766 0.21658073 0.27581474 1.0394607
0.44338706 1.3411795 -0.6291022 -0.5436595 3.2327325 1.1728617 -1.7880231 1.6822747
-0.7514842 -1.313606 -0.27784002 -1.678656 0.7418637 -0.75007087 0.45739847 -1.9662534
0.71988326 -1.4938976 -0.5550763 -0.116159394 0.54627174 -2.027945 1.4960357 -1.4497716
-0.85525113 0.13588089 -0.65834314 -1.0662211 -1.3947632 0.9689124 0.13778001 0.22392255
-1.347037 2.290651 -0.50553024 -1.1356584 1.699563 -1.5012338 0.2620493 1.0992218
0.8171257 1.2770871 0.029872194 -0.4859161 1.230412 0.9139045 -0.7232231 0.12898813
2.2315806e-10 -0.12367003 0.08125649 0.00023397712 -0.83138806 -7.063463e-14 -1.1309404 -0.069742195
0.33576825 -0.32573053 4.05944e-12 3.0120784e-06 5.608807e-07 0.26597625 -0.13079935 -0.004934856
-4.4898213e-12 -0.8077768 -0.011473014 -0.027562873 0.043236915 8.2546836e-10 0.21001072 0.07300605
0.00032486737 1.2936217e-12 0.7535531 -0.14391355 -1.0253141 -0.5996031 -1.3801939e-10 0.06903402
-0.942507 0.102536686 2.5939513e-11 -0.00019082063 0.108172856 -0.0002821001 1.16902425e-11 0.61408746
-2.126994e-08 -0.004195207 2.0591408e-12 0.629903 6.708904e-07 2.650376e-10 -0.123423986 2.3249382e-11

_orig_mod.embeddings.hour.weight f4 [30, 16]
00000000: fc0a 98be 6924 dbbe 5a25 24bf fa97 14bf
00000010: e5d5 87be 3131 0ac0 ffad 803e 09aa 9cbf
00000020: bfe6 64bf 8305 363f ccb0 afbe 2ac7 e63e
00000030: eb6c da3e 8278 e23e 5e90 063f 668e 833f
00000040: c99a 753e b1f0 e73d ddcc 353f 86e7 de3d
00000050: b93b d3be 97b3 183c 77e4 103f fa2b cbbd
00000060: 8f19 f2bc cf95 bebe dd01 f2be a662 2cbd
00000070: a74d d9bd e462 9dbe 07a8 e63e a703 28be
00000080: 47fc 8fbd fa49 34c0 5b30 5f3f c1a7 6c3f
00000090: 8add 17bf 8c74 2d3f ba4e 0840 67ce 353e
000000a0: f2ad 4abf 031e ac3e 5ad4 7b3f b7e6 11be
000000b0: abdc 76bf cd30 073f aa65 bc3f b933 c4be
000000c0: 7008 0f40 9a9c 85bf deb5 d4bf aae7 c1bd
000000d0: b34a a03e 2fe8 ca3e 86b5 8d3f 2ac4 ccbd
000000e0: d18d 033f 2acb bcbe 0bfd 03bf d02a 643e
000000f0: 2881 78bd 91c1 dbbe da32 81be 3847 e83d
00000100: 8153 f7ba be07 f5be f977 48bd 96de af3e
00000110: dc15 3bbf 08b1 16bf 6b16 f03d c5ad 9e3f
00000120: e1ee 98bd edfa d23e ad1a be3e 3a44 2b3d
00000130: 9ed5 ac3d 5c28 833e 0825 cdbf 176b 323f
00000140: 9f94 59be 19b0 ac3d 46a4 22bf 18a3 9dbf
00000150: 352a afbf a86f 473d e281 413f c3e3 a0bf
00000160: e067 913f deab 03bd 1e93 2e3f 8869 763f
00000170: 24f3 f43f db3e 6c3f cb22 c9bf f861 023f
00000180: 5cb1 24be 38aa 98bd 12ce a53f dce8 8f3f
00000190: 0b0f 08c0 ed4b 45bf 8930 963e 2b31 5e3f
000001a0: 3107 723f 2ba4 16bf 7fe3 02be 239f b43e
000001b0: 318c 4bbf 01f8 b93f dd5e ffbe e6ac aa3f
000001c0: f7e0 a1be bbe4 4a3e f4a5 f0be 2901 bbbd
000001d0: b220 dabe 5a91 85be 318d 3fbe f6ef 293f
000001e0: 3d0a 0a3f 421b d83f 3bf4 8bbd 289d 21bf
000001f0: e2c6 6f3e e8cf a9b9 409d b0be 2d3f c4be
00000200: 7e9d 3e3f ff26 373f 4e6b 8f3e 848c b23e
00000210: 0695 343e 3eba 503f 8d37 a03d bfb4 c73e
00000220: 375c d53e dc27 9f3e ad8d 4e3f a91d 0bbe
00000230: b9f6 22bd bf4f 57bf 9dda 11bc 101d c7bf
00000240: 341c a0bf 11e8 3fbf 561f debf 9628 d8bd
00000250: 2dc4 07bf 4cdf 963e 484b 47bf 4fe3 31be
00000260: a9b6 3a3f cf1c cd3e 51f8 e23e bf70 e13f
00000270: d04e 733f d447 a7bd d05d 49bf ace2 0d40
00000280: 35ab 92bf 9623 8cbf 310e 303f 495e 44bc
00000290: ae07 12c0 ca61 843e eaa8 7ebf ed43 85be
000002a0: bad8 03bf 5df4 8dbf 54f4 473c 267a 11be
000002b0: a4e1 14be ef9c 0e3b fc05 00be b7b7 28bf
000002c0: 366d 1bc0 a607 1fbf 29c9 233e 5d1b 4d3f
000002d0: 9bee 083f b087 963e 89e9 8f3f c04e 9bbd
000002e0: 3356 1abf a24a e03f 89cf 9fbf 46ec 323f
000002f0: 12df d7be de44 f1bf 2f5e 533f 8844 973f
00000300: 419b 663f 9de7 2a3f 151d 803f a589 bdbd
00000310: e6fa ee3e 9c25 cb3e 2d86 d6be 09e3 7cbf
00000320: 17df 26be 3a94 b83d 3d90 c93d 0b38 24bf
00000330: 48b7 ccbd 974f 6a3f 8b36 c9bf 4029 613e
00000340: e350 483f 5cb5 833e 49f7 9d3f 833d 0940
00000350: 7b8d c8bf a032 d6be 79fc a13f 08a9 2d3e
00000360: 1b66 053f 6c31 27be 1a0b 34bf b34e 00c0
00000370: b50a 473f 01d4 c73d 99bf 1240 92c4 40bf
00000380: f8eb a13e 51eb 1ebe 05bc 78bf 5cc6 733f
00000390: af89 71be 5c20 11bf cb2d 0f3f 851f 9fbf
000003a0: c150 cc3e d2e0 d2be ee10 fd3e fba5 2bbe
000003b0: 7558 383f 984d ee3f e24b 93bb 8cd1 0ac0
000003c0: 10ee 033f 735e d33f bdb0 fc3e 8ab2 27bd
000003d0: ba54 9abe 5750 923e 5071 9c3e 9c86 cbbe
000003e0: d6ed 29bf cdee 403f 3507 693f b269 013e
000003f0: 7458 0c3f 2c9a 5f3f 03d3 303f d449 05be
-0.2969588 -0.42801216 -0.64119494 -0.580444 -0.26530376 -2.1592524 0.25132748 -1.2239391
-0.8941459 0.7110216 -0.34314573 0.45073825 0.42661223 0.44232565 0.52564037 1.0277832
0.23984827 0.11325205 0.7101572 0.10884003 -0.41256502 0.009320161 0.5659861 -0.09920497
-0.029553203 -0.3722367 -0.47267047 -0.042086266 -0.10610514 -0.3073951 0.4505007 -0.16407643
-0.0703054 -2.8170152 0.8718316 0.9244347 -0.59322417 0.6775596 2.129805 0.17754517
-0.7917167 0.33616647 0.983709 -0.14248167 -0.9643046 0.5280884 1.4718525 -0.3832071
2.23489 -1.0438416 -1.6618001 -0.094680145 0.3130699 0.39630267 1.1071022 -0.09998353
0.5138827 -0.36873752 -0.5155799 0.22281957 -0.060670048 -0.42921117 -0.2523411 0.11341709
-0.0018869491 -0.4785747 -0.04894254 0.34349507 -0.7308023 -0.5886388 0.11723026 1.239678
-0.074674375 0.41207066 0.37129727 0.041813113 0.08439182 0.2561673 -1.6026926 0.69694656
-0.212481 0.084320255 -0.6353191 -1.2315397 -1.3684756 0.048690468 0.7558881 -1.2569507
1.1359825 -0.032146327 0.68193233 0.9625478 1.9136701 0.9228341 -1.5713743 0.5093074
-0.16083282 -0.07454342 1.2953513 1.1242938 -2.1259181 -0.7706898 0.29333904 0.86793774
0.94542223 -0.5884425 -0.12782095 0.35277662 -0.7951079 1.452881 -0.49877062 1.3334014
-0.31616947 0.19813816 -0.47001612 -0.09131081 -0.4260307 -0.26087457 -0.18706204 0.66381776
0.5392187 1.6883318 -0.06833693 -0.63130426 0.23415712 -0.00032389094 -0.34494972 -0.3832945
0.74459064 0.7154388 0.28011554 0.3487283 0.17634973 0.81534183 0.078230955 0.39005086
0.41671917 0.31085098 0.8068493 -0.13585533 -0.039786074 -0.8410606 -0.008902219 -1.5555744
-1.2508607 -0.7496348 -1.7353313 -0.10554616 -0.53033715 0.29467237 -0.77849245 -0.17371868
0.7293497 0.40061042 0.44330075 1.7612532 0.95042133 -0.08167997 -0.7865877 2.21696
-1.1458498 -1.094836 0.68771654 -0.01198537 -2.2817187 0.25855857 -0.9947649 -0.26028386
-0.51502573 -1.1090199 0.012204248 -0.14206752 -0.145392 0.002176102 -0.12502283 -0.65905327
-2.4285407 -0.62121046 0.15994705 0.8011988 0.53489083 0.29400396 1.1243144 -0.0758338
-0.6028778 1.7522776 -1.248521 0.69891775 -0.42162377 -1.8849142 0.8256559 1.1817789
0.9008065 0.66759664 1.0008875 -0.09254769 0.46675795 0.3967713 -0.41899243 -0.9878393
-0.1629604 0.09012647 0.098419644 -0.64148015 -0.099958956 0.91527694 -1.571977 0.21988392
0.78248423 0.25724304 1.234109 2.1443794 -1.5668176 -0.418355 1.2655174 0.16959012
0.52108926 -0.16327447 -0.7032944 -2.0048034 0.7775071 0.097572334 2.2929442 -0.7529994
0.31625342 -0.15519454 -0.97161895 0.9522455 -0.23587678 -0.5669 0.5592925 -1.2431494
0.3990536 -0.4118715 0.4942698 -0.16762535 0.72009975 1.861743 -0.00449513 -2.1690397
0.5153513 1.6513199 0.4935359 -0.040941752 -0.30142766 0.2857692 0.305552 -0.39751136
-0.66378534 0.7536438 0.9102662 0.12637976 0.5482247 0.8734462 0.6907198 -0.13016444

_orig_mod.dense_proj.bias f4 [16]
00000000: d191 86bb a93c babc e15d d53b ce0c 833b
00000010: e852 e93b 5cc8 a438 d49b 583c 5040 8fbb
00000020: fc48 173b d3bf aeb9 5306 1dbc 8b64 bfbb
00000030: be15 3c3b fb67 d03b df27 15bc 16e8 6c3c
-0.004106738 -0.022734003 0.0065114354 0.003999329 0.007120479 7.857449e-05 0.013220746 -0.0043716803
0.0023084274 -0.00033330786 -0.009584027 -0.005840843 0.0028699483 0.0063600517 -0.009103744 0.0144596305

_orig_mod.self_MSR1.0.W_q.weight f4 [32, 16]
00000000: 4bb0 003e cf16 133e 49f7 f73d 4c26 9dbc
00000010: 9152 4cbe ae55 373e 2409 b43d ea62 8fbc
00000020: f88c 3b3e 84cc 083e 2d8a 34bd 1baa a4bd
00000030: 9480 1c3d 644f 7b3d d3ff c8bd 996b 2d3d
00000040: bf41 9dbd d732 14be 3350 babd 7197 483e
00000050: 8e00 1e3d 7fcc 92bd e21e d8bd 1803 4f3d
00000060: 21f1 1a3e 5d01 cabc 08b8 0ebe 5deb 16be
00000070: 3382 1bba f791 03be 2b7d 21be 83cd 13be
00000080: 99d4 4abe 4d92 0dbe f333 3cbd 66f9 09be
00000090: ef39 3bbe 7653 30be 0611 193c 1391 6f3d
000000a0: f519 0abe 3b2a fdbb c8e8 5e3e 5954 32be
000000b0: 12fe 403e 8834 4d3e 9c75 63bc 4756 4abe
000000c0: be6d 56be 69f1 293e 9965 82bc 1546 65be
000000d0: c3bf 0abe df47 083e 7b54 eb3d 1e75 633e
000000e0: d676 8c3d 9f13 79bd cfa3 a53d 27bb fcbd
000000f0: a9e1 5bbe a05a 163e 1457 433c 40db 98bd
00000100: e064 15be 5a4d 19bc f4f4 d43b 2762 c2bd
00000110: d5c1 503e 8033 38bc 0216 2e3e 4a6a 033c
00000120: c8b9 32be d755 eb3d db68 1b3e 0ee5 61be
00000130: f50e 1f3e ebcd a23d a558 29be 53eb 093e
00000140: 9f45 bebb 99fb 2cbe 4344 293e ab91 b3bd
00000150: 3cee b0bd 2150 4a3e ef50 123e 4fff fabc
00000160: e620 1a3e 3960 6abe d2c5 42bd 5185 fbbd
00000170: f042 853e 4a2b 443e c7fa 57be a738 66be
00000180: f8d5 ecbd bf9c 483e 7d08 383e 5815 a8bd
00000190: ec3d 933d cc61 843b e75b 33be 3aa1 843c
000001a0: 27d9 20be 9019 a3bd fb45 253d 6765 663e
000001b0: dff1 b03d 374e 173e 48a5 18be ba74 4b3e
000001c0: 683f 9bbd dd0a c3bd bf1d 46be c4eb a23b
000001d0: e59a a83c d51d 483e 7031 68be f8db b03d
000001e0: d84e 67be 4303 28be 7d11 263d 3e70 7b3d
000001f0: b000 f6bc fb7f 053c 38d0 54be d818 5f3e
00000200: 7abf 283d bb6b 483d ea8c ff3d 8df5 983c
00000210: 2a0a 023e 48b1 9f3d 7816 38bd 61fb 95bd
00000220: 096d 513e d5fd cabd 2eac 173e 0223 4e3d
00000230: c6d4 023e eaac 3fbe 7544 433e 062d 223e
00000240: c883 403e 9a43 4f3d 8332 e73d 47e9 c8bc
00000250: f3dd 953d 5154 0c3d 7249 31be b3fd d03b
00000260: 5e2d 0a3c dd75 5c3e 04a3 e83c 89b8 4cbe
00000270: 5b30 0fbe 81cf 82bd 72d2 90bb 2d8e 033e
00000280: 9e64 ee3d 69f1 ea3d b659 1abe cc99 8cbd
00000290: 79fd 00be dc2f 9f3d bd86 d8bc af3f abbd
000002a0: 1335 483b dc31 ba3d afff dcbd 1420 7abe
000002b0: eb75 51bd a558 853d 0cba 1fbe 9b35 f33d
000002c0: 21f1 48be 4a9d 593e 65cc 133e fb82 cdbd
000002d0: 0bdc ebbd 430d c93d 1857 653d 8e05 093e
000002e0: 9718 1cbe cb67 2fbe 96f0 943d 84f1 483e
000002f0: c608 febd d596 65bd 301d 7dbd 1a85 26be
00000300: 13b2 b7bc f9a3 043e bd7c 493a 3603 5e3e
00000310: 2293 563e 85e2 fc3d f7cb 24be 172e dabd
00000320: 2478 66bd d1a5 f9bd 9576 eb3d 2522 2abe
00000330: 0bd0 cb3c 776d 163d 6206 6b3c 5524 873e
00000340: edf2 c03d aa2d a43d e680 503d 6fff 38be
00000350: e125 013e b1c7 253e 525c 9e3d cd5a 533e
00000360: e13c cebd ceb8 cf3d 81e1 09be 0881 1ebe
00000370: 006a 1a3e 51ab 0ebe cd55 f03d bcff ebbd
00000380: f4a0 4f3d 8d86 52be 20dd 44be 19f1 243e
00000390: 1663 63be 43b2 423e 5b00 8a3c f002 593d
000003a0: 1a57 33be 7292 07bd b9b3 a6bd 4da0 733e
000003b0: ffa1 0e3e 5935 2dbe f334 c63d 6fc4 75be
000003c0: 17ba 4abe 7f6d 19bc 2f92 d4bd d212 883d
000003d0: 4e34 70bd cce3 febc bce7 2ebd 967c f5bd
000003e0: e4fd 2bbe 70e4 3a3e 5b2b 39be 4220 0a3e
000003f0: 41da adbd 05ea 8b3e 9ae2 5a3b 8582 3f3e
0.1256725 0.1436417 0.12107713 -0.0191833 -0.19953372 0.17903778 0.08790806 -0.01750322
0.18315494 0.13359267 -0.044077087 -0.080402575 0.03820856 0.06135501 -0.098144196 0.04233894
-0.07678556 -0.14472519 -0.09097328 0.1958902 0.038574748 -0.07167911 -0.105527654 0.05054006
0.15131046 -0.024658853 -0.1393739 -0.14738221 -0.0005932182 -0.1284865 -0.15770404 -0.14433865
-0.19807662 -0.1382534 -0.04594798 -0.13474044 -0.18283819 -0.17219338 0.009342438 0.058487963
-0.13486464 -0.0077259815 0.21768486 -0.17414989 0.1884692 0.2003957 -0.013883021 -0.19759475
-0.20940301 0.16595997 -0.015917586 -0.22390015 -0.13549714 0.13308667 0.11490723 0.22212645
0.06858604 -0.060809728 0.08087885 -0.12340384 -0.21472801 0.14683008 0.0119226165 -0.074636936
-0.14589262 -0.009356821 0.0064989273 -0.09491377 0.20386441 -0.011242747 0.17000583 0.008020947
-0.17453682 0.11490982 0.15176718 -0.22060034 0.1553305 0.07949432 -0.16537721 0.13468675
-0.0058066393 -0.16892852 0.16529946 -0.08768018 -0.086391896 0.19757129 0.14288686 -0.030639319
0.15051612 -0.22888269 -0.047551937 -0.122812875 0.26027632 0.19157138 -0.21091758 -0.22482549
-0.11564249 0.19591044 0.17971988 -0.08207196 0.07189545 0.0040399786 -0.17515527 0.01619016
-0.15707837 -0.0796386 0.04034994 0.2249962 0.08639883 0.1477593 -0.149068 0.19868746
-0.07580453 -0.095235564 -0.19347285 0.004971953 0.020581672 0.1954263 -0.22675109 0.08635706
-0.2258867 -0.16407494 0.040544022 0.06138634 -0.030029625 0.008148189 -0.20782554 0.21786821
0.04119823 0.048930865 0.12478049 0.018671775 0.1269919 0.077974856 -0.044943303 -0.07323337
0.2045175 -0.09911696 0.14811775 0.050326355 0.12776479 -0.18718305 0.19069083 0.15837488
0.1880027 0.05060158 0.11288931 -0.024525298 0.07317724 0.034260098 -0.17313173 0.0063778996
0.008433668 0.21529336 0.028398044 -0.1999227 -0.1398329 -0.063872345 -0.0044196183 0.12847205
0.11640285 0.114718266 -0.15073285 -0.06865272 -0.12596692 0.077728 -0.026431436 -0.08361756
0.0030549213 0.09091541 -0.10790955 -0.244263 -0.051137846 0.06511048 -0.15598315 0.11875459
-0.19623233 0.21251407 0.14433439 -0.10034748 -0.11516579 0.098169826 0.055991262 0.13381025
-0.15243755 -0.17129438 0.072724506 0.19623381 -0.12404017 -0.056052048 -0.061795413 -0.16261712
-0.02242378 0.12953176 0.0007686129 0.21680912 0.20954564 0.12347893 -0.16093431 -0.10653322
-0.05626692 -0.1218983 0.11497227 -0.16614588 0.024879476 0.036725488 0.0143447835 0.26394907
0.094213344 0.08016522 0.050904177 -0.1806619 0.12612106 0.16189457 0.077324525 0.20640106
-0.100702055 0.101426706 -0.13464929 -0.15478909 0.15079498 -0.1393254 0.11735115 -0.11523387
0.050690606 -0.2055914 -0.19224977 0.16107596 -0.22205767 0.19013314 0.016845873 0.052981317
-0.17513695 -0.033098646 -0.08139748 0.23791619 0.13928984 -0.16914882 0.09678068 -0.24000715
-0.1979755 -0.009364485 -0.10379445 0.06644215 -0.05864363 -0.031114481 -0.042701468 -0.119866535
-0.1679607 0.18251204 -0.18082945 0.13488868 -0.08488894 0.2732698 0.0033399225 0.18702133

_orig_mod.self_MSR1.0.W_k.weight f4 [32, 16]
00000000: 1edc dcbd 11f7 093e 341d 223e 1fdc ae3c
00000010: cd98 1fbe ebbf 4c3e 1fcc 19bd ffbd 3cbe
00000020: 3d31 033e 4d11 c8bc af25 34be 1e66 843d
00000030: b0cb 8c3d ebc1 a3bd d4d2 493e 64da 583c
00000040: 6cf8 51bd 08bd 11be f9fa fc3d 524d 8ebe
00000050: 0ac2 98bc 7f5f 513d 81f9 583e 88f4 0b3d
00000060: 7915 81be 47e5 36be 67cb 70bd 2e53 97bd
00000070: 5165 2ebd 3e93 4cbd 458e 2e3d 122e 9fbd
00000080: 9b78 193e 45d9 453e 90dc 383e 1424 d3bd
00000090: 163b d23d c46d 20be d226 c0b8 1610 2d3e
000000a0: 503e 9a3c e41f bb3c cea9 39be ba51 4c3c
000000b0: dfd5 4fbe f4ba 83be 8756 533e 1802 933d
000000c0: 8dcb cfbd 45af f03c d772 4b3e ede8 4d3e
000000d0: c603 83bd a37e 183e 1452 92be ce98 2bbe
000000e0: ed8e 4a3d afd6 253e ba91 2b3d cba1 dcbd
000000f0: b84e de3d 4a22 03be 077e 8b3e ef0e f23d
00000100: cd15 803e dd4a d73d 82bc 853e b586 433e
00000110: 9215 a53b 5826 3ebe a4ac 6a3e f1fe 023e
00000120: 07be 143e 5ea3 603d c1cc 803e 6a52 4c3e
00000130: 94c4 20bd 033b c6bd c67d a13d 1373 84bd
00000140: ec01 c73c 013f d8bd 354c e03d 65a5 083e
00000150: 239e 0bbe 27e6 243e 44f0 623e 65d8 14bd
00000160: 5f63 54be e55b cebd 54ec bebd 7cd4 923e
00000170: fa0e 1c3e 6ecc 473e 9f1d 913d af67 073e
00000180: c5ad 22bc 57dc 5abc 6e27 77be 888c 81be
00000190: 27a8 043e 5582 343d e4ce 09be dbe4 a5bd
000001a0: 01a2 3d3e 9326 913e b8fe eebd a5b8 21be
000001b0: fd8b 313e 0831 24bd 4ca8 60be a677 43bd
000001c0: 289a 063e e70e 97bd 44b2 d2bd 03ea 2a3e
000001d0: 4972 2b3e 5252 d03d 24a8 523e cdf9 edbd
000001e0: 067a fd3d 24ab 31bc 6bad 4bbe 1dde 0abe
000001f0: a331 3bbe 17a9 073e a185 983d b50c 343e
00000200: 9fc4 cd3c 52e3 a73d 25f5 61be 6e7a 33be
00000210: ce73 563d 48c7 9f3d 3283 68be b134 9fbd
00000220: 4598 09be d8df cb3d eeca 79be 555e 853e
00000230: 4419 78be a3e0 073d e0ef 7e3d dcab 0abb
00000240: a299 453d 52e1 adbd c2df 833e decd 863e
00000250: 98f6 0cbe 3a15 003e aefa 60be a215 7dbd
00000260: 3ce5 2a3e b116 923d f822 173e cd91 0a3e
00000270: 2f49 303e 4b9d b23d fe91 75bc cf95 583e
00000280: 9d86 2e3e 19cf e1bd 3f3b e6bc d309 8f3d
00000290: fd81 4d3d 8914 6dbe 2ec0 7abb 73ef 3d3e
000002a0: cb3a 99bd a53f 43be a018 5cbe 24fc 60be
000002b0: 99b9 493e 54f6 a6bd ee59 8b3e 16ea 89be
000002c0: 4576 d73d 484d 313e db13 8d3d e33c 29be
000002d0: 44cb 743e 6c62 d1bd d34a 553e 8b37 f3bd
000002e0: 4c58 61be e6f4 a53d c79c afbd dfa1 653e
000002f0: b8bb ce3d 4aaf 24be b103 87bd 282a 92be
00000300: beb0 c6bd 3cdb 5a3e 2666 3d3e 1c72 683d
00000310: 98f8 933d 4d93 52be 9f23 963d 93cc 1a3e
00000320: f624 983d 1898 643e 6971 903c a47f 34bd
00000330: 0bb0 42be 80fb 1abe d8e5 52bd 654d 05be
00000340: eaf5 833d 2283 2ebd a466 553e cb31 d9bb
00000350: 5986 863c 2c65 f8bd d178 6e3e f28a bebd
00000360: 69a6 1d3e 1698 0ebe df93 3ebe 12a3 2dbe
00000370: ce92 dd3d 240c 07be 7abf bd3b 8129 393d
00000380: 2e3c 493c a970 743e d818 573e 3b0b 1c3e
00000390: b736 023e 1c0a c0bd c4d8 733c d02f 3a3d
000003a0: 16cd 4a3d c2c6 32be 176c 003e ef7c c0b9
000003b0: 9ba0 3fbe 58c5 0abe c7b3 92bd 9f1c 433d
000003c0: 8111 10be 6f95 e9bd b46b a63c 103a 5b3e
000003d0: 860b 3a3e dd28 35be 528c 523c b57d 463c
000003e0: 0f0c 60be a4d2 f7bd 10e1 10be 4828 643e
000003f0: 3a00 bbbd e007 663e 05c6 76bd ba62 e63d
-0.107841715 0.13473155 0.15831453 0.021345196 -0.15585633 0.19995086 -0.03754818 -0.18431853
0.12811752 -0.024422312 -0.175925 0.0646479 0.06874788 -0.07995971 0.19709331 0.013235662
-0.051262304 -0.14232266 0.12352557 -0.27793366 -0.018647213 0.051116463 0.21188928 0.03416875
-0.25211695 -0.178609 -0.05878773 -0.07388912 -0.04257709 -0.04994511 0.042616148 -0.07772459
0.14987414 0.19321163 0.18052888 -0.10309616 0.10265176 -0.15666872 -9.162504e-05 0.16900668
0.018828541 0.022842355 -0.18131182 0.012470657 -0.20296429 -0.2572857 0.20638476 0.07178134
-0.10146246 0.02938045 0.19868027 0.20108385 -0.06397204 0.14892058 -0.28578246 -0.16757509
0.04945271 0.16195177 0.041887023 -0.10773047 0.10854858 -0.12806049 0.2724459 0.118192546
0.25016633 0.10512326 0.26120383 0.19094355 0.005037972 -0.18569314 0.2291742 0.12792565
0.14525615 0.0548433 0.25156215 0.19953313 -0.03924997 -0.09679224 0.078853175 -0.06467261
0.024292909 -0.10558892 0.10952035 0.13344343 -0.13634543 0.16103421 0.22161967 -0.036339182
-0.20741032 -0.10076121 -0.0932242 0.28677738 0.15240088 0.19511577 0.07085728 0.13223146
-0.009929125 -0.013358197 -0.24136135 -0.2530253 0.1295477 0.044069607 -0.13457829 -0.08100291
0.18518831 0.28349742 -0.116696775 -0.15793093 0.17338558 -0.040085822 -0.219392 -0.047721528
0.13144743 -0.07375889 -0.10287908 0.16690831 0.16742815 0.10171951 0.20571953 -0.11619911
0.1237679 -0.010844026 -0.19890372 -0.13561292 -0.18280654 0.13248096 0.07447363 0.17582972
0.02511817 0.08197655 -0.22066171 -0.17527172 0.052356534 0.07801682 -0.22706297 -0.07773722
-0.13436992 0.09954804 -0.24393818 0.26048532 -0.24228388 0.033173215 0.06224048 -0.0021159565
0.04824222 -0.08490242 0.2575665 0.2632894 -0.13765943 0.12508097 -0.21970627 -0.06178821
0.16689008 0.07133234 0.14759433 0.13532181 0.17215417 0.087214075 -0.0149884205 0.21150897
0.17043538 -0.11025829 -0.028104423 0.06984296 0.050172795 -0.23152365 -0.003826152 0.18548374
-0.07481917 -0.19067247 -0.21493769 -0.21971184 0.19699706 -0.08152452 0.27217048 -0.26936406
0.10520605 0.17314637 0.06888553 -0.16527133 0.23905665 -0.102238506 0.20829324 -0.11875828
-0.22006339 0.08103351 -0.08574825 0.2242503 0.10094398 -0.16082492 -0.06592501 -0.28547788
-0.0970168 0.21372694 0.18495998 0.05674945 0.0722515 -0.20564003 0.07331013 0.15117101
0.07428925 0.22323644 0.017632203 -0.04406704 -0.19012468 -0.15135002 -0.051488727 -0.13017805
0.06443389 -0.042605527 0.20839936 -0.0066282502 0.016421484 -0.12128672 0.23288275 -0.093038455
0.15395512 -0.13925204 -0.18611096 -0.16956738 0.108190164 -0.13188225 0.005790648 0.045205597
0.012282414 0.23871101 0.21005571 0.15238659 0.12716185 -0.09376928 0.014883224 0.045455754
0.04951199 -0.17458633 0.12541233 -0.00036714177 -0.1871361 -0.13551843 -0.07163196 0.047634717
-0.14069177 -0.11405455 0.020315029 0.21408868 0.18168458 -0.1769137 0.012850838 0.012114932
-0.218796 -0.121007234 -0.14148355 0.22280991 -0.091309026 0.22463942 -0.06024744 0.11249299

_orig_mod.self_MSR1.0.W_v.weight f4 [32, 16]
00000000: 70a5 e83b 0c82 563e c131 80bc 7042 0cbe
00000010: c87d 39bd 9065 5f3e 6c03 5b3d 7f4c 26be
00000020: 2b0b 7bbd a790 c4bc 91e8 bcbd e0b6 833b
00000030: 9ac5 2bbe 65fc 0abe 644f ea3c 44d3 61bc
00000040: 6470 0d3e b82c e9bc 2043 4fbd 4810 8abd
00000050: 8123 9f3d c214 7bbd f5e7 d5bb b92a cb3d
00000060: ae72 b13c 5d53 9f3d 3cd5 1d3e 8a23 193e
00000070: 487f 49be a0c8 66be 0587 9dbd 10c7 cabd
00000080: a18b c8bd 076c 923d 6626 e93d 3589 1dbe
00000090: 8477 c8bc 8b2b 2b3e a944 63be abf2 a3bd
000000a0: 5286 e0bd 9811 f43c bfb8 47be d827 6fbe
000000b0: 4c20 b53d e14c 533d bf2c 2ebe 10d0 74be
000000c0: 82af 4ebe 5553 c1bc 3309 f03d 6072 003c
000000d0: 9a33 5d3b bb1d af3d 7e00 96bd dd5c 15be
000000e0: 4b29 413e 75f5 363e a0c9 50be 90c6 da3c
000000f0: 33b8 f1bd 60e8 213e bc9b 42be e0c1 c5bd
00000100: 39f3 563e 528c 8ebd e946 3e3e 4353 42be
00000110: f46e 62bc 4838 203e dcd5 3dbc 3997 21be
00000120: c384 953d a76e 2cbe 9115 57bd 1e8c 41be
00000130: ecbf 333e 4955 bfbc 986d 49be d7af c2bc
00000140: 598d 21be a5ae ae3c ab84 61be 79f7 2fbd
00000150: a147 69be 7f51 273e 846e 983d ed9b 4b3e
00000160: 9d95 503e 4a73 15be e144 e9bc 1b79 0ebd
00000170: d77f 48be 4de8 4b3e d0c8 4fbe 2eb7 453e
00000180: 5329 1abe c7f3 1c3e 122a 88bd 5458 3d3e
00000190: 5c1b 88bd a7b7 863c bc58 b93d 8de7 19bb
000001a0: 7b98 4d3c 9e9b a43d b232 4bbd 3d9f 60be
000001b0: 779b 9fbd a734 34bc c150 153d 0b60 96bd
000001c0: e9f1 303e 1ec5 07be fba2 113c c61a aabd
000001d0: e73b c13d cb56 293e 5da4 dcbd a57f d4bc
000001e0: 9237 d13c c507 583e ce0f 163e c2fb 8c3a
000001f0: 6bbe 45be aa11 483e 93d7 24be 6f7d de3d
00000200: d26a 89bd 4b44 cb3a 3f05 9d3c 0404 d3bd
00000210: 0f05 e43c 9b59 d9bd e1d7 c5bd 1bc0 dc3d
00000220: 1a8a 2b3e 57f5 06be eea1 15bc 6564 40be
00000230: 19e7 2c3b 2676 0abe a3df 8dbd 2f86 46be
00000240: 2ca4 823d e669 ed3d 23b2 e4bc 08b1 ce3d
00000250: cccd 4e3d 7fed b63d b298 f03d 202c dbbd
00000260: 8ae6 11be 0928 023d 3785 5dbe b9a9 6b3d
00000270: 15a9 09be 75bb 053d 838e b3bc a1d6 80bc
00000280: 5bae adbd ba60 e43d bab3 4c3d 56ae 60be
00000290: 54cb 66be ec98 e1bc e0b2 0abe 8d86 10bb
000002a0: b1b4 dbbd c766 1c3e 015b 1e3d 1854 8d3d
000002b0: cb21 a9bd ea07 3dbe 082a 7e3d 865b e13c
000002c0: 13c6 fb3d 25ac f8bc 540b 233d 29ad 283e
000002d0: 7d74 9cbd 4fb4 533e 811b 02bd 2169 2dbe
000002e0: 3036 8f3c 3b4e d53d d840 54be 0418 babd
000002f0: 4a2a 1a3e 9c65 173e b300 953c 96ab 8d3c
00000300: 2041 23be 488a ecbd f72a 113e 7d73 2dbe
00000310: aa77 8abd bc5c 29be 21ed 51be 9443 0abe
00000320: f62e 60be 0e77 ccbd c35c 3bbe e5ba 913d
00000330: 96af 25be e96d a13d af98 d23b 82b4 12be
00000340: 8d4b 21be 11ca 143d 5175 60be 7887 adbd
00000350: b27a 62be 9559 653e d7dc 2b3e 64f6 19be
00000360: c120 083e 4018 313d a942 483e d952 dfbd
00000370: 342a 093e 592b c7bd 2e83 8a3d a845 33be
00000380: 156f 9c3d 377b 02bd 0453 d2bd 7e63 303e
00000390: 63ba e3bd 14f6 043e 3ab0 f6bd a307 983d
000003a0: 1b2b 943d 6b54 a9bd abcf 453d 324e 2bbe
000003b0: 4e81 d13d c79c 453e d2f0 d1bd 9109 f03d
000003c0: c98e c8bd 4f4b 2f3d 8f93 963d 73f4 483d
000003d0: cd76 d0bc e95f a0bd cd49 72bd aac2 b1bc
000003e0: 443a a93b f971 2cbe d573 c33d fc19 44bd
000003f0: e62b 09be 5eed 0cbe 35c6 4bbe 8230 de3c
0.0070998 0.20948046 -0.015648725 -0.13697219 -0.04528597 0.21816087 0.05347006 -0.16240118
-0.061289947 -0.023994757 -0.09224046 0.004019603 -0.16774598 -0.13572843 0.02860231 -0.01378328
0.13812405 -0.028463706 -0.050601125 -0.06741387 0.07770444 -0.061299093 -0.0065278956 0.09920258
0.021661129 0.07779572 0.15413374 0.14954963 -0.1967746 -0.2253747 -0.076917686 -0.099012494
-0.09792257 0.07149511 0.11384277 -0.15384372 -0.024471052 0.16715829 -0.2219416 -0.080052696
-0.109631196 0.029793546 -0.19504069 -0.23355043 0.08844051 0.05158699 -0.17009257 -0.23907495
-0.20184138 -0.023599306 0.117205046 0.007839769 0.003375268 0.085505925 -0.073243126 -0.14586206
0.18863408 0.17867072 -0.20389414 0.02670601 -0.11802711 0.158113 -0.1900472 -0.09656119
0.2099122 -0.06960358 0.18581738 -0.18977074 -0.013820399 0.1564647 -0.011586633 -0.15780343
0.07300713 -0.16839086 -0.0525108 -0.18901107 0.17553681 -0.023356097 -0.19670713 -0.023765488
-0.15776576 0.021323511 -0.22023265 -0.042960618 -0.2278123 0.16339682 0.07442954 0.198837
0.20369573 -0.1459476 -0.028475227 -0.034783464 -0.19580017 0.19912834 -0.20291448 0.19308159
-0.15054826 0.15327369 -0.06648649 0.18490726 -0.066458434 0.016444994 0.09050128 -0.0023483962
0.012548561 0.08037494 -0.049608894 -0.21935745 -0.077933244 -0.010998881 0.036453966 -0.073425375
0.17279781 -0.13258788 0.008888955 -0.08305888 0.094352536 0.16537015 -0.10773537 -0.025939772
0.025539193 0.21096714 0.14654467 0.0010756182 -0.1931092 0.19537988 -0.1609786 0.10863768
-0.067098275 0.0015508024 0.01916754 -0.103035 0.027834443 -0.10612794 -0.09660316 0.10778829
0.167519 -0.13179527 -0.009132845 -0.18788297 0.0026382862 -0.13521633 -0.06927421 -0.19387124
0.063789696 0.11592464 -0.027916973 0.1009236 0.050489232 0.089320175 0.11747874 -0.107017756
-0.142481 0.03177646 -0.21632849 0.057534907 -0.13443406 0.032649476 -0.02191854 -0.015727343
-0.08480521 0.11151262 0.049976088 -0.21941504 -0.22538501 -0.02753874 -0.13544798 -0.0022052855
-0.107278235 0.15273581 0.038661007 0.06900805 -0.082583986 -0.1846005 0.062051803 0.027509462
0.12293639 -0.030355522 0.039805725 0.16472305 -0.07639406 0.20674251 -0.03176451 -0.16934635
0.017481893 0.10415312 -0.20727861 -0.09086612 0.15055194 0.14784855 0.01818881 0.017293733
-0.15942812 -0.115498126 0.14176546 -0.16938587 -0.06761105 -0.16539282 -0.20500614 -0.13502342
-0.21892914 -0.099836454 -0.18297105 0.071157254 -0.16180262 0.07882292 0.0064268927 -0.14326671
-0.15751477 0.036325518 -0.21919753 -0.08473104 -0.22117117 0.22397454 0.16783462 -0.15035397
0.13293745 0.043236017 0.19556679 -0.10904474 0.13395005 -0.09725065 0.06763302 -0.1750704
0.07638375 -0.031855788 -0.1026974 0.17225453 -0.11119535 0.12984496 -0.12045331 0.074233316
0.07234784 -0.082680546 0.04829375 -0.16729048 0.10229741 0.19298087 -0.10251011 0.11720575
-0.09792859 0.04279643 0.07352363 0.04906125 -0.025447274 -0.078307934 -0.059152413 -0.021699268
0.0051644165 -0.16840352 0.095435776 -0.047876343 -0.13395652 -0.13762423 -0.19899829 0.02712274

_orig_mod.self_MSR1.0.xpos.scale f4 [16]
00000000: 2549 923e 9324 a93e 0000 c03e 6ddb d63e
00000010: dbb6 ed3e 2449 023f dbb6 0d3f 9224 193f
00000020: 4992 243f 0000 303f b76d 3b3f 6edb 463f
00000030: 2549 523f dbb6 5d3f 9224 693f 4992 743f
0.2857143 0.33035716 0.375 0.41964284 0.4642857 0.50892854 0.5535714 0.59821427
0.64285713 0.6875 0.73214287 0.77678573 0.8214286 0.8660714 0.91071427 0.95535713

_orig_mod.self_MSR1.0.W_res.weight f4 [32, 16]
00000000: 3a57 4c3c 81f2 273e cb69 4e3e f4a0 73bd
00000010: c532 5dbd 9887 063e 7f28 8f3d 05ba 863d
00000020: de0c e7bd 2f5b 373e 8c5e 9b3d 8ff7 8abd
00000030: bfad 353e 7642 673d 2f52 313c 96f8 0a3e
00000040: 00d1 0e3c de9d 8d3d 747c ef3c 100f 61be
00000050: b8bc d7bd 2791 33be 7a19 733e 296c 363e
00000060: 2b02 77bd fc8e b13c 61af 473d 5d80 dabd
00000070: c273 f53d 5ab2 243d d89b 2bbe 1389 d63d
00000080: 15f4 febd 450e 50be 9228 45be fcac 163d
00000090: efcd 49be ac62 7d3d d0e5 5e3d aa4a 013e
000000a0: e5e1 3e3e 2097 7dbc 1d54 8cbd 7a3d 843c
000000b0: 4385 00bd 91f2 ac3d 5f32 b2bb eb6f 25bb
000000c0: df21 b5bd 77d7 8abd 45c3 91bd b627 303d
000000d0: bf07 30be b841 44be 748b 3a3e d385 9c3d
000000e0: b55c 42bd f7e3 a7bc dd15 f83d 742a 193e
000000f0: be48 703d 2995 113d c7bd 91bd 5dcf 74bd
00000100: 319a fb3d f2b8 3d3c fb77 11be 140c 06be
00000110: d835 083e 2c41 1e3e a036 7e3e e896 3a3e
00000120: 0ae9 0fbe 9886 bb3d a651 d13d 71d0 df3d
00000130: 1ee1 4a3d 181a d5bd 9c98 5bbe 0565 02be
00000140: 6ec9 38be b8c7 383e 4343 403d 6ec8 f1bd
00000150: fbdc f4bd 859d bebd d482 8c3e 0aa2 f5bd
00000160: 717c 263e e16e 093e 9696 953d a6a1 713e
00000170: b9b7 69ba 21e7 893d aab8 f73d a671 81be
00000180: 3e4e b63d 6543 663e 517a 683e 432e 253e
00000190: 1cf6 013e 72ee 35be df3e 5a3d 4ec9 1b3e
000001a0: 0278 65bd 8e72 68be 6667 52be 0786 5a3e
000001b0: e8a1 99bd 2e00 bf3d 7d55 483d bcc8 9ebc
000001c0: 6aed 043e 0c76 a93d ca42 57be df57 10be
000001d0: 042d f33d 7f16 cb3d 4beb fa3d 7696 dc3c
000001e0: 5a66 1c3e 0161 aabd 6ef0 d0bd d406 ec3d
000001f0: b37a 04be 52dc c23c 4868 ee3c aea5 543e
00000200: ed5a 5fbc 9137 87bd 8907 15bc 896d 2d3d
00000210: d6d4 31be 1ca1 34be f8cf f9bb 632a 593e
00000220: 0b65 a1bd 353d 49be 9c88 033e c369 d63d
00000230: 94d2 413e 114f 213e 79de c8bd 9a4b f93d
00000240: de47 1d3e c988 96bc 97fd 2c3e 7176 dcbd
00000250: e70a cb3d 1d4f 18be 0c30 3fbe b5d9 f2bd
00000260: 8f44 06be bd4e d23d 24c2 c53d 0379 343d
00000270: a0a9 0dbd 941a 9cbd 64cb ca3c ea31 2e3e
00000280: 466a 50be bdb7 32be 2e04 d03d 7164 26be
00000290: 91e7 b43c cb83 28be 5b26 0f3e 6b40 71be
000002a0: b91d 61bd 2bcb b3bd 0542 a5bd d8ed 97bd
000002b0: 92df 95bb 01bb a4bd 657e 80be e6cf f53d
000002c0: 27c1 fdbd 9888 cfbc 7abe 673e 71b0 53ba
000002d0: 7e8b 87bd 5031 6c3d 705b 88bd 608b 03be
000002e0: d80e 31be 545d 3abe 44d5 1cbd c1b2 053e
000002f0: 4e3b 8dbd fa4f 65be 0abc ff3d ed54 2bbd
00000300: d37a 45be 8f0c 4abd ec93 f53d cc76 463e
00000310: 8624 0a3e 31f0 f1bd f0ee b83d 2abe 423e
00000320: 824e 55be 8a0f d73b ff69 7d3c fb07 c03c
00000330: 23a4 16be f28b 733e 9c37 4fbe 85c7 4cbe
00000340: 40c5 6a3c b675 f83b f96c 35be ec8f 5fbd
00000350: d69c 36bd d073 2ebc e9b7 1fbe 0ebf 1abe
00000360: 2d9c 5fbd bec2 e93c 2867 39be 7ff4 703d
00000370: 5297 3dbb f101 94bb 3a8c 01be 02af ac3d
00000380: a473 f3bd 4152 493e 944e 013d 4747 0e3e
00000390: 49fc 9a3c 170c 11be bfa3 cabc db78 bbbd
000003a0: 24e5 79bd 8756 fb3d 35ce 3cbe d66d 003d
000003b0: b9f7 723e 6788 573e 2760 223c f513 0abe
000003c0: ef40 29bc b774 10be 603d a6bd 5bb4 efbd
000003d0: 3280 b8bd 2bea 6d3e f80f 893e 0242 373e
000003e0: 6296 02be 42f5 7e3d 3a09 2c3e 67be 6b3e
000003f0: 4053 fd3d 630a ed3b 52a4 30bd a545 9cba
0.012471968 0.16401102 0.20157544 -0.05947967 -0.054003496 0.13137662 0.06990146 0.06578449
-0.11281751 0.17905878 0.07586393 -0.06785499 0.1774206 0.056459866 0.010822817 0.1357139
0.008716822 0.069148764 0.029234149 -0.21978402 -0.10534042 -0.1753584 0.23740187 0.17814697
-0.060304802 0.021674626 0.04875124 -0.106690146 0.1198497 0.04020915 -0.16758668 0.104753636
-0.12448899 -0.20317943 -0.19253758 0.036786065 -0.19707464 0.06186168 0.054418385 0.12626138
0.1864086 -0.015477926 -0.06851981 0.016142596 -0.03137709 0.08444703 -0.0054381336 -0.002524371
-0.08844351 -0.06779378 -0.07117323 0.04300662 -0.17190455 -0.19165695 0.1821726 0.076427124
-0.047451694 -0.020494444 0.12113545 0.14957601 0.058663122 0.03554264 -0.07116275 -0.05976807
0.12285269 0.011579739 -0.14205925 -0.13090545 0.1330179 0.15454549 0.24825525 0.18221629
-0.14053741 0.09156531 0.10220651 0.10928429 0.049531095 -0.104053676 -0.21444935 -0.12733848
-0.1804559 0.18044937 0.046939146 -0.11805807 -0.11956211 -0.09307388 0.27443564 -0.11993797
0.16258408 0.13421203 0.073041126 0.2359682 -0.00089156214 0.067335375 0.12095769 -0.2528202
0.08901642 0.22486646 0.2270291 0.16130929 0.1269154 -0.17766741 0.053282615 0.1521351
-0.05602265 -0.22699949 -0.20547256 0.2134019 -0.07501584 0.09326206 0.048909653 -0.019382827
0.12981191 0.08274469 -0.21021572 -0.1409602 0.118738204 0.099164 0.1225191 0.026927214
0.15273419 -0.08319283 -0.10202108 0.1152474 -0.12937431 0.023786698 0.02910246 0.20766327
-0.013632518 -0.06602395 -0.009096035 0.04234079 -0.17366347 -0.17639583 -0.0076236688 0.21207576
-0.078806005 -0.19652255 0.12845081 0.10469391 0.18927985 0.15752818 -0.09808058 0.12172623
0.15359446 -0.018375771 0.16893612 -0.107647784 0.09914189 -0.1487393 -0.18670672 -0.118579306
-0.1311209 0.102689244 0.0965617 0.04406072 -0.034585595 -0.07622257 0.024755187 0.17011228
-0.2035304 -0.17452903 0.10157047 -0.16249253 0.022083076 -0.16456525 0.13979475 -0.2355973
-0.054959986 -0.087789856 -0.08069233 -0.07418412 -0.004573771 -0.08043481 -0.2509643 0.12002544
-0.123903565 -0.025333688 0.22631255 -0.0008075303 -0.06618403 0.057664216 -0.06658065 -0.12846136
-0.17290819 -0.18199664 -0.038289323 0.1305647 -0.06896077 -0.2239379 0.124870375 -0.04182904
-0.19285135 -0.049328383 0.119911045 0.19381255 0.13490495 -0.11813391 0.09029949 0.19017854
-0.2083073 0.0065631317 0.015467166 0.023441305 -0.1471105 0.23783854 -0.20236057 -0.19997986
0.014329255 0.0075823916 -0.17717351 -0.054580614 -0.044583164 -0.010647729 -0.155975 -0.15111944
-0.0545923 0.028535243 -0.18105757 0.05882692 -0.0028929305 -0.004516833 -0.12651148 0.084318176
-0.11887291 0.19660284 0.03156908 0.13894378 0.018919127 -0.14164768 -0.024736283 -0.09153911
-0.06100954 0.12272363 -0.18438037 0.031354748 0.23727311 0.21048127 0.00991062 -0.13484176
-0.010330423 -0.14107023 -0.08117175 -0.11704322 -0.09008826 0.23233859 0.26769996 0.17896274
-0.12752679 0.062245615 0.16800395 0.23021851 0.12369394 0.007233904 -0.043125458 -0.0011922611

_orig_mod.self_MSR1.0.group_norm.weight f4 [32]
00000000: 5210 743f 4cc4 633f a630 613f e82a 693f
00000010: 76c4 6d3f bf1d 713f 3391 663f 2a36 743f
00000020: ec60 703f 4dc2 763f dd76 6d3f e20b 6c3f
00000030: e1a7 753f 8d08 733f b065 753f 5d8e 733f
00000040: 4a9f 673f 3989 633f c9e0 703f cc35 6f3f
00000050: a951 793f 63da 643f b5ec 603f f00e 6c3f
00000060: 4fe2 6f3f ab6e 723f abe5 703f fbbb 733f
00000070: fffd 6d3f cc26 6e3f 0227 6e3f 1d75 6e3f
0.953374 0.889714 0.87964857 0.91081095 0.928779 0.94186014 0.90065306 0.9539515
0.9389789 0.9639023 0.92759496 0.9220563 0.9595929 0.9493492 0.9585829 0.95139104
0.9047743 0.8888126 0.94092995 0.9344146 0.9739023 0.8939573 0.87861186 0.9221029
0.93704695 0.94700116 0.94100446 0.9520871 0.9296569 0.9302795 0.9302827 0.9314745
